ERTSNet/new_arch_LA/DT/HNL/rq-10-10_T20.pt (torch, 184613 bytes, 63 tensors)

weight_ih_l0 f4 [27, 120]
0	0x3d9a9aa2	0.07549025
1	0x3dbd4524	0.09241703
2	0xbdf72d4b	-0.12069186
3	0x3ccf6b91	0.025319846
4	0xbea95700	-0.33074188
5	0xbe8073bc	-0.25088298
6	0x3d4a6aba	0.04941819
7	0xbe900ee6	-0.28136367
8	0xbdd142e9	-0.1021784
9	0x3dc6e445	0.09711508
10	0x3e914bad	0.2837805
11	0xbce189a1	-0.027531447
12	0xbe2cc4fa	-0.16872016
13	0xbe8feb4f	-0.28109214
14	0x3e348915	0.17630418
15	0xbe01c3e0	-0.12672377
16	0xbd2fdde6	-0.04293623
17	0xbe1c175c	-0.15243286
18	0x3e984955	0.29743448
19	0xbd9654b8	-0.073403776
20	0xbe4c830a	-0.19971862
21	0xbe900c73	-0.28134498
22	0x3ea7d1d4	0.32777274
23	0x3e45221e	0.19251296
24	0x3e53ad38	0.20671546
25	0x3e172ee9	0.14763989
26	0xbe33d7ea	-0.17562833
27	0xbe800c2b	-0.25009283
28	0x3e883229	0.2660077
29	0x3e22a946	0.15884885
30	0xbe3ce463	-0.18446498
31	0x3eac1a06	0.33613604
32	0xbddee94c	-0.108843416
33	0x3e0db268	0.13837588
34	0xbe6da5eb	-0.23207824
35	0x3da8bf3f	0.08239602
36	0xbe0aeffd	-0.13568111
37	0xbdb7c3d7	-0.089729
38	0xbe3815e2	-0.17977098
39	0xbe5dded7	-0.21667038
40	0xbd05c5f5	-0.03265949
41	0x3e8c96db	0.27458844
42	0x3e58bae9	0.2116505
43	0x3d020f00	0.031752586
44	0xbdd1d3dd	-0.10245488
45	0xbe3399fe	-0.17539212
46	0x3e2a2f0f	0.16619514
47	0x3a85c0e8	0.0010204585
48	0x3e9a53f9	0.3014219
49	0xbe252d9a	-0.16130677
50	0xbd622f72	-0.05522103
51	0x3d622716	0.055213057
52	0x3b4d48d5	0.003132393
53	0x3ea88d1c	0.32920158
54	0xbe1b5d44	-0.15172297
55	0x3d1fbd02	0.03899861
56	0xbe69e668	-0.228418
57	0xbde678a9	-0.11253483
58	0x3e9b72c0	0.30360985
59	0x3e00632e	0.12537834
60	0x3e1c1313	0.15241651
61	0x3e84c95e	0.2593488
62	0x3d450916	0.04810437
63	0xbe4b0429	-0.19825806
64	0xbd9bf5f4	-0.07615271
65	0xbcc3a601	-0.023882868
66	0xbe46ef62	-0.19427255
67	0x3df9b8ba	0.12193437
68	0xbe8c4a58	-0.2740047
69	0xbd72a5a6	-0.059240006
70	0xbe4392df	-0.19098996
71	0xbe618afd	-0.22025676
72	0x3c970c44	0.018438466
73	0x3d8126dd	0.06306241
74	0xbd9f4d90	-0.07778466
75	0xbe4f8c3e	-0.20268342
76	0xbe9ca2b8	-0.30592895
77	0xbe0068f3	-0.12540035
78	0x3e7b8271	0.24561478
79	0x3e8cc135	0.27491155
80	0xbe7a3c16	-0.24436983
81	0x3daa0d78	0.0830335
82	0xbe3f6920	-0.18692446
83	0x3df37b6c	0.11888775
84	0x3e506c45	0.20353802
85	0x3d49ea10	0.049295485
86	0xbe810e26	-0.25206107
87	0x3e83997e	0.25703043
88	0xbe62ae97	-0.22136913
89	0xbe141ecc	-0.14464873
90	0xbea30c59	-0.31845358
91	0xbdf257a7	-0.118331246
92	0x3d298287	0.041384246
93	0xbe84abc7	-0.25912306
94	0xbebf40da	-0.37354165
95	0x3e5b3da4	0.21410233
96	0xbdcaf87c	-0.09910676
97	0x3e002de6	0.12517509
98	0x3e0cffdc	0.13769478
99	0xbe6d1db7	-0.23155867
100	0x3e3398bd	0.17538734
101	0x3dbd5059	0.09243841
102	0x3c3f9879	0.011694067
103	0x3d42324e	0.047411256
104	0xbe862662	-0.2620116
105	0xbd18bcc6	-0.037289403
106	0xbd18b0ee	-0.03727811
107	0x3e62822b	0.22119968
108	0x3e9fae32	0.31187588
109	0x3c0798f1	0.00827621
110	0x3e484f1f	0.19561432
111	0xbdb70c2f	-0.08937871
112	0xbe595c58	-0.21226633
113	0xbd9dabb6	-0.07698767
114	0x3c159743	0.009130302
115	0xbea17fb6	-0.31542748
116	0x3c528f56	0.012851557
117	0xbdad0e5f	-0.08450007
118	0xbdea04f7	-0.11426728
119	0xbe978c69	-0.29599312
120	0x3e9e95d0	0.30973673
121	0x3daf7e87	0.08569055
122	0xbe80c8d3	-0.25153217
123	0xbe672716	-0.22573504
124	0xbd2cf1e3	-0.04222287
125	0xbe4e1ae1	-0.20127441
126	0xbe336685	-0.17519577
127	0x3e78d8ab	0.24301402
128	0x3e194c19	0.14970435
129	0xbe0a7e1e	-0.13524672
130	0xbe563238	-0.20917594
131	0x3e5179f4	0.20456678
132	0x3e43fb19	0.19138755
133	0xbd604407	-0.054752376
134	0xbe82d931	-0.2555633
135	0xbda26339	-0.079290815
136	0xbe0d6f08	-0.13811886
137	0x3dab4790	0.08363259
138	0xbe24ee86	-0.16106614
139	0xbcd2ddac	-0.025740467
140	0xbe752e93	-0.23943548
141	0xbd899d18	-0.067194164
142	0xbea83e22	-0.32859904
143	0x3e61cc12	0.22050503
144	0xbd9ba503	-0.07599833
145	0xbe1d9f41	-0.15392782
146	0xbdf4d559	-0.11954755
147	0xbe1c4db6	-0.1526402
148	0x3dee70c5	0.11642603
149	0xbe596027	-0.21228085
150	0x3976ee24	0.00023549102
151	0xbe04bd08	-0.12962735
152	0x38ec0966	0.000112551075
153	0xbe7ea2ae	-0.24866745
154	0xbe2fca72	-0.1716707
155	0xbe8781ce	-0.2646622
156	0x3c87b08a	0.016563673
157	0xb6b24d9e	-5.313849e-06
158	0x3c7bc9af	0.015367909
159	0x3e8131e3	0.25233373
160	0x3e92b935	0.28656927
161	0x3d8c3a30	0.06847036
162	0x3ea125af	0.31474063
163	0x3deba3c8	0.11505848
164	0x3e49e017	0.1971439
165	0x3e87125e	0.263812
166	0x3e1ad4b4	0.15120202
167	0xbe914699	-0.28374174
168	0x3e9fc584	0.3120538
169	0xbd611de3	-0.054960143
170	0xbe3655c1	-0.1780615
171	0xbe22cb38	-0.15897834
172	0xbd3294a5	-0.04359879
173	0x3e9d5c8d	0.30734673
174	0xbdc1146f	-0.094277255
175	0xbde99592	-0.114054814
176	0x3e511443	0.20417885
177	0x3ea583e9	0.32327202
178	0x3e73f82f	0.23825143
179	0x3cc2c0cb	0.023773571
180	0x3d16c97a	0.036813237
181	0x3e43e2f6	0.19129547
182	0xbe36efad	-0.17864867
183	0x3e752cb8	0.2394284
184	0xbc37835c	-0.011200752
185	0x3ceeea93	0.029164588
186	0x3e83e996	0.2576415
187	0x3d8d5132	0.069002524
188	0xbe7c2346	-0.24622831
189	0xbbf134a5	-0.007361012
190	0xbe363cf9	-0.17796697
191	0x3db17cd3	0.086663865
192	0xbe09fc7b	-0.1347522
193	0xbe75ea6c	-0.24015206
194	0xbdb03ba6	-0.08605127
195	0x3c91d17b	0.017800083
196	0x3d5ec5be	0.0543878
197	0xbe6b7f16	-0.22997698
198	0xbd4df65c	-0.050283775
199	0xbd9d5fb0	-0.076842666
200	0xbdf26334	-0.11835328
201	0xbe1c5037	-0.15264975
202	0x3e55d6b1	0.2088268
203	0x3d8acb63	0.06777074
204	0xbe32ceb3	-0.17461662
205	0xbd8d182d	-0.06889377
206	0xbe600f2a	-0.21880785
207	0x3e0b4336	0.13599858
208	0xbe3d0df3	-0.18462352
209	0xbd5994a4	-0.05312027
210	0x3db1ec91	0.086876996
211	0xbdc9196f	-0.09819304
212	0xbddacb2d	-0.10683284
213	0x3e205a1f	0.15659378
214	0xbd14c69e	-0.03632223
215	0xbe23847f	-0.15968512
216	0xbdeddf26	-0.11614828
217	0x3e7b8fd1	0.2456658
218	0xbe5297b6	-0.20565686
219	0x3d0c107c	0.03419541
220	0x3c37ba09	0.011213788
221	0x3e303d23	0.17210822
222	0x3d847eff	0.06469535
223	0x3e927cc8	0.28610826
224	0x3e3d3e42	0.1848078
225	0xbdfe4ebb	-0.124173604
226	0xbe62bb2e	-0.22141716
227	0xbe48fe0a	-0.19628158
228	0xbd2c5747	-0.04207542
229	0xbd964735	-0.073378004
230	0x3bb80a8d	0.005616492
231	0xbe59a2c7	-0.21253501
232	0x3d6683ab	0.056277912
233	0x3dc31589	0.09525592
234	0xbdd62416	-0.104561016
235	0xbd7ad249	-0.0612357
236	0xbe1086d5	-0.14113934
237	0xbdd7e225	-0.105411805
238	0x3e10842f	0.14112924
239	0x3d8a3f2b	0.067503296
240	0xbe4031b4	-0.1876896
241	0x3d279d2a	0.040921368
242	0xbcd00a5c	-0.025395565
243	0x3dd302f1	0.103032954
244	0x3e3471be	0.17621514
245	0x3e5d392b	0.21603839
246	0xbe6b37d7	-0.2297052
247	0xbea6809f	-0.32520005
248	0x3e89599f	0.26826188
249	0x3e1b33bf	0.15156458
250	0xbe494386	-0.19654664
251	0xbe8faad7	-0.28060028
252	0x3e76a3d6	0.24085936
253	0xbd3ab440	-0.045582056
254	0x3cb27ddf	0.021788536
255	0x3e0d16ec	0.13778275

weight_hh_l0 f4 [27, 9]
0	0xbe86bcba	-0.26315862
1	0xbe03ec66	-0.12883148
2	0xbe81b5ba	-0.2533396
3	0x3c3da6a3	0.011575374
4	0xbe155d31	-0.14586331
5	0xbe8a9235	-0.27064672
6	0x3e9b0388	0.30276132
7	0x3e210c44	0.15727335
8	0x3e317770	0.17330718
9	0x3ea1113d	0.31458464
10	0x3d9ac508	0.07557112
11	0xbd9e1545	-0.077189006
12	0x3d61bfb4	0.055114463
13	0x3ea26af2	0.31722218
14	0x3e74f8e0	0.23923063
15	0x3e9e5bfa	0.30929548
16	0x3e94b914	0.29047453
17	0xbe811995	-0.2521483
18	0x3b82944e	0.0039849645
19	0xbe2c8e7b	-0.16851227
20	0x3e11331d	0.14179654
21	0xbe8009cb	-0.2500747
22	0x3b6ca305	0.003610791
23	0x3e937a3b	0.28804192
24	0x3e9fa91e	0.31183714
25	0xbd96f516	-0.07370965
26	0xbe9add9a	-0.30247194
27	0xbe5cb2c4	-0.21552569
28	0xbc21017c	-0.009827014
29	0x3e243416	0.16035494
30	0xbcf2cd79	-0.029638993
31	0x3e5900b5	0.21191676
32	0xbe3cb17a	-0.18427077
33	0xbe052fca	-0.13006511
34	0x3e7200cf	0.23633121
35	0xbe826e01	-0.2547455
36	0xbe3d3270	-0.18476272
37	0x3d80f576	0.06296818
38	0x3e46891a	0.19388238
39	0xbe306483	-0.17225842
40	0x3c28b9eb	0.010298233
41	0x3e16b063	0.14715724
42	0xbe3e9849	-0.1861278
43	0xbe49d6a6	-0.19710788
44	0xbdf7a2e3	-0.12091615
45	0x3e72f9c6	0.23728094
46	0x3e9347c8	0.28765702
47	0xbea03ed4	-0.31297934
48	0xbd983b72	-0.07433213
49	0x3e8b1df7	0.271713
50	0x3d13960e	0.036031775
51	0xbe0366d7	-0.12832199
52	0x3dbeac6a	0.09310229
53	0xbeab0585	-0.3340265
54	0x3ddb85c6	0.10718875
55	0xbb161d17	-0.0022905522
56	0x3e12838e	0.14307997
57	0x3e109da2	0.14122632
58	0x3e3ac79d	0.18240209
59	0xbe5ed6d4	-0.21761638
60	0xbe5b11f6	-0.2139357
61	0x3df67c8a	0.12035473
62	0xbe0b3690	-0.13595033
63	0x3d513132	0.051072307
64	0xbd970c36	-0.07375376
65	0x3c80bc59	0.015714811
66	0xbe6bf088	-0.23040974
67	0x3da3b745	0.0799394
68	0x3e526cbf	0.20549296
69	0xbe882b3b	-0.26595482
70	0x3dbecbb6	0.093161985
71	0xbe8cfed3	-0.27538165
72	0x3e5e0d45	0.2168475
73	0x3e40eaa3	0.18839507
74	0xbde3496d	-0.11097989
75	0xbd55413d	-0.05206417
76	0x3cdbf2ea	0.026849229
77	0xbe9b6dc5	-0.30357185
78	0x3e0c6a1f	0.13712357
79	0x3d822f58	0.06356686
80	0xbe94e5a2	-0.29081446
81	0x3e35690c	0.17715853
82	0x3d9817f0	0.07426441
83	0xbe7c79cd	-0.24655838
84	0x3e318d5d	0.17339082
85	0xbc94f55c	-0.018183403
86	0xbe8960fd	-0.2683181
87	0xbe812971	-0.2522693
88	0x3db65f11	0.08904851
89	0x3d857779	0.06516928
90	0xbe6776d2	-0.2260392
91	0x3e86f471	0.2635837
92	0xbe82eec1	-0.2557278
93	0xbd7d6808	-0.06186679
94	0xbcda3c98	-0.026640221
95	0xbe641d95	-0.2227691
96	0x3d8a5824	0.06755093
97	0xbe9c4188	-0.30518746
98	0x3ea9acc2	0.33139616
99	0x3e7c2de8	0.24626887
100	0xbdb9db01	-0.09074975
101	0x3e586452	0.21132019
102	0xbdb220bc	-0.0869765
103	0xbdcd203e	-0.10015915
104	0x3e9be11c	0.30445182
105	0x3ea4d70a	0.32195312
106	0xbe215387	-0.1575452
107	0xbe0ec959	-0.13943996
108	0x3e273c3c	0.16331571
109	0xbe9cff7c	-0.3066367
110	0xbda29af3	-0.079397105
111	0xbeada121	-0.33911994
112	0x3e4adb94	0.19810325
113	0xbe6ff4c3	-0.23433213
114	0x3e5e396d	0.21701594
115	0x3de749c1	0.11293364
116	0x3df4f803	0.11961367
117	0xbde76c62	-0.11299969
118	0xbe5b8291	-0.21436526
119	0xbe85bd5c	-0.26121032
120	0x3e0edce0	0.13951445
121	0x3e4959e0	0.19663191
122	0x3e9ddebf	0.30834004
123	0xbd1173e7	-0.035510924
124	0xbe8744f7	-0.26419804
125	0x3d21cfec	0.03950493
126	0xbd0db96b	-0.034600656
127	0xbd87158d	-0.06595907
128	0x3d3aa2a4	0.045565262
129	0x3e2a3268	0.16620791
130	0xbdd5bd51	-0.104365
131	0xbe9cb2b9	-0.30605105
132	0x3dc1a34b	0.09454974
133	0xbe1c3f75	-0.15258582
134	0x3ea1d80c	0.31610143
135	0x3e937656	0.2880122
136	0x3e8096ed	0.25115147
137	0xbdff72db	-0.12473079
138	0x3e5ad037	0.2136849
139	0x3e92e4bc	0.28690135
140	0x3e44c0f6	0.19214234
141	0x3d9350a6	0.07193117
142	0xbe72043f	-0.23634432
143	0x3e35d7ed	0.1775815
144	0xbd74dd8b	-0.059781592
145	0x3e7caf1b	0.24676172
146	0x3e798cb5	0.24370082
147	0xbcd6d7ab	-0.026225885
148	0xbdec944a	-0.115517214
149	0xbe94d521	-0.29068854
150	0xbd5d0256	-0.053957306
151	0x3df08d58	0.11745709
152	0xbe03a547	-0.12856017
153	0xbe5951bd	-0.21222587
154	0x3ce755cf	0.028239159
155	0x3e9c3264	0.30507195
156	0x3df7dfd9	0.121032424
157	0xbdda1c97	-0.10649984
158	0x3d521f96	0.051299654
159	0x3e07cb05	0.1326104
160	0xbe5f36de	-0.21798274
161	0xbea476f7	-0.32122013
162	0xbe565c10	-0.20933557
163	0xbe9307fe	-0.28717035
164	0xbe2e7700	-0.17037582
165	0xbe1390e5	-0.14410742
166	0x3c81962f	0.015818683
167	0xbe19e4fa	-0.15028754
168	0x3d10cab1	0.03534955
169	0x3e87c144	0.26514637
170	0xbe808a94	-0.25105727
171	0x3d8dde04	0.06927112
172	0x3e39eaf2	0.18156031
173	0xbe1d2ee1	-0.15349914
174	0x3cead1e2	0.028664533
175	0xbda04abb	-0.07826754
176	0xbe6d3e46	-0.23168287
177	0x3e1a57c2	0.1507254
178	0x3e1bfe4b	0.15233724
179	0x3d2e48c9	0.042549882
180	0x3e2f6124	0.171269
181	0xbe52c3ce	-0.20582506
182	0xbdaea3f9	-0.08527369
183	0x3dd63a2c	0.10460314
184	0x3d87ea22	0.06636454
185	0xbe5fffa4	-0.21874863
186	0x3e34376c	0.17599267
187	0xbe751178	-0.23932445
188	0xbea7eef4	-0.32799494
189	0xbcf8a885	-0.030353794
190	0xbe8b2db2	-0.271833
191	0xbe8d5c0b	-0.27609286
192	0xbc966f22	-0.01836354
193	0x3e9e3db5	0.30906454
194	0x3e296549	0.16542543
195	0x3ea26e89	0.31724957
196	0x3daebd94	0.08532253
197	0xbe3cf5da	-0.1845316
198	0x3e4bae38	0.19890678
199	0xbe7e780f	-0.24850486
200	0x3e443db0	0.19164157
201	0xbe33650f	-0.1751902
202	0xbea384ab	-0.31937155
203	0xbe2e1b84	-0.17002684
204	0xbdf3a80e	-0.11897288
205	0x3e8a63d5	0.2702929
206	0xbd1a3d7b	-0.03765629
207	0x3c5ba67a	0.01340639
208	0xbded61b9	-0.11590905
209	0x3e8bd815	0.27313295
210	0x3e97fd73	0.29685554
211	0xbe892399	-0.2678497
212	0x3e76393c	0.2404527
213	0xbe31347c	-0.17305177
214	0xbea5ae91	-0.32359746
215	0xbe37c037	-0.17944418
216	0xbe5e569f	-0.21712731
217	0x3e08880f	0.13333152
218	0x3e5ff0c0	0.21869183
219	0xbe153331	-0.14570309
220	0x3e4379b6	0.19089398
221	0x3da39778	0.07987875
222	0x3e0a7124	0.13519722
223	0x3e5d31ab	0.21600978
224	0x3e90fe12	0.2831884
225	0xbe8f646c	-0.28006303
226	0xbdd17a37	-0.10228389
227	0x3e168f57	0.14703117
228	0xbe73439d	-0.23756261
229	0x3e185121	0.14874698
230	0x3e6a2db5	0.22868998
231	0x3ca76fee	0.020439114
232	0x3e2bbae9	0.1677052
233	0x3e96a8d8	0.29425693
234	0x3ea68da8	0.3252995
235	0xbe6b9311	-0.2300532
236	0x3e85db3e	0.2614383
237	0x3e7ee42b	0.24891727
238	0xbe6c51dd	-0.23078103
239	0xbe8aa2e7	-0.2707741
240	0xbdd467c0	-0.10371351
241	0xbc2a407b	-0.01039135
242	0xbea4f9fe	-0.3222198

bias_ih_l0 f4 [27]
0	0x3e4e33e8	0.20136988
1	0x3e045cc2	0.1292601
2	0xbd77a405	-0.060459156
3	0x3e7eab82	0.24870113
4	0xbe6910aa	-0.22760263
5	0xbd49fcf6	-0.049313508
6	0xbe68f787	-0.22750674
7	0xbe5904c5	-0.21193226
8	0x3d217095	0.039414007
9	0x3d4747e8	0.04865256
10	0x3e53c5bd	0.206809
11	0x3dcd9ee1	0.10040069
12	0x3e6ccb1d	0.23124357
13	0xbe8f2e2e	-0.2796492
14	0xbd51b34d	-0.051196385
15	0xbea5ba12	-0.32368523
16	0xbdfde3ba	-0.12396951
17	0xbe13ce02	-0.14434054
18	0x3e96c005	0.29443374
19	0x3e4125e3	0.18862109
20	0xbe356324	-0.177136
21	0x3e707e90	0.2348578
22	0xbe996c35	-0.29965368
23	0xbe8b9d8e	-0.27268642
24	0xbd899db9	-0.06719536
25	0x3e7fc9aa	0.24979272
26	0xbe54b6c5	-0.20772846

bias_hh_l0 f4 [27]
0	0xbe11d3a7	-0.14240895
1	0x3d95c9aa	0.07313855
2	0xbe9803ea	-0.29690486
3	0xbe96cc94	-0.29452956
4	0x3c61fa83	0.013792637
5	0xbc871659	-0.016490148
6	0x3bc981ca	0.0061495053
7	0xbd436297	-0.047701444
8	0xbe33db72	-0.1756418
9	0xbe325d0c	-0.17418307
10	0xbe27478a	-0.16335884
11	0xbcf1fab4	-0.02953849
12	0xbe603641	-0.21895696
13	0xbe3118e7	-0.17294656
14	0xbe5e0fc8	-0.21685708
15	0x3dc94e2b	0.098293625
16	0x3e0ad33e	0.13557145
17	0x3d572140	0.052521944
18	0x3e587f56	0.21142325
19	0x3e37ae12	0.17937496
20	0xbd553ef5	-0.052061994
21	0x3e8d791f	0.2763147
22	0x3e062571	0.1310022
23	0xbea359ed	-0.31904545
24	0xbbb4e4d2	-0.0055204416
25	0x3e5cd22e	0.21564552
26	0x3da862b7	0.08221953

weight_ih_l0 f4 [27, 129]
0	0xbea662f7	-0.3249738
1	0x3e577088	0.21039021
2	0x3e8ea6a9	0.27861527
3	0xbced8c1b	-0.028997472
4	0xbe36662c	-0.17812413
5	0xbea6172e	-0.3243956
6	0x3d7a5317	0.061114397
7	0xbe633943	-0.22189812
8	0x3e090ab3	0.13382988
9	0xbd2ca7f5	-0.042152364
10	0xbd4c23ca	-0.04983882
11	0x3dd0c12a	0.10193093
12	0x3e12b951	0.14328505
13	0xbdb8c031	-0.090210326
14	0x3c95eb0d	0.018300558
15	0x3e2ec87d	0.17068668
16	0x3e48384e	0.19552729
17	0xbe3e3595	-0.18575127
18	0xbe14513b	-0.14484112
19	0x3e6b6173	0.22986393
20	0x3e4f7ae1	0.20261718
21	0xbe620a4b	-0.22074239
22	0x3d6f1afd	0.058375347
23	0x2c2c0ad8	2.444869e-12
24	0x3e72ed98	0.23723447
25	0x3deaa91f	0.114580385
26	0xbeafe368	-0.34353185
27	0x3dd6036a	0.1044987
28	0xbe9cb502	-0.30606848
29	0x3e9534c2	0.29141814
30	0xbdaa16a1	-0.08305097
31	0x3e98971b	0.29802784
32	0x3e195796	0.14974818
33	0xbdef3515	-0.116800465
34	0xbe7d2625	-0.24721582
35	0xbd97525c	-0.07388756
36	0x3e1dd941	0.15414907
37	0x3e9f768c	0.31145132
38	0xbdf0564a	-0.11735208
39	0xbe212901	-0.15738298
40	0x3e9c9762	0.30584246
41	0xbdcda44e	-0.10041104
42	0xbdf32d25	-0.11873845
43	0x3bf6cf67	0.0075320485
44	0x3e1b1757	0.15145622
45	0xbe8c2faf	-0.2738013
46	0x3d0e674f	0.03476649
47	0xbe0c48c1	-0.13699628
48	0xbe3af0d3	-0.1825593
49	0xbe90bac5	-0.28267494
50	0xbe4e6d5d	-0.20158906
51	0x3e29c546	0.1657916
52	0x3dc067dd	0.0939481
53	0x3e375c31	0.17906262
54	0xbe8f4608	-0.27983117
55	0xbd1a3844	-0.037651315
56	0x3e5d0a3d	0.21585937
57	0x3d967a27	0.073475175
58	0xbe6fa538	-0.2340287
59	0xbe018c48	-0.1265117
60	0x3e8354ef	0.25650737
61	0xbe9ed777	-0.31023762
62	0x3de2d245	0.11075262
63	0x3e74f68c	0.23922175
64	0x3e96d01e	0.29455656
65	0x3e78961e	0.24276015
66	0xbdfa79c1	-0.12230254
67	0x3e5fe8be	0.21866128
68	0x3e814d60	0.25254345
69	0xbe80e396	-0.25173634
70	0xbe5eb4fc	-0.21748728
71	0xbcfb132e	-0.030648794
72	0x3e6b706f	0.22992109
73	0x3e435b8f	0.19077896
74	0x3e5178c1	0.2045622
75	0x3e960e6c	0.29307878
76	0x3e8173ea	0.25283748
77	0x3e9a8e32	0.3018661
78	0xbd991cfd	-0.07476232
79	0xbe797492	-0.24360874
80	0x3cc51348	0.024057046
81	0x3dbb8287	0.091557555
82	0x3e0bdde0	0.13658857
83	0x3e380868	0.17971957
84	0xbea8a8c6	-0.32941264
85	0xbe0385a1	-0.12843944
86	0xbea2d8bc	-0.3180598
87	0xbdbd90de	-0.09256147
88	0xbe817c4a	-0.25290138
89	0xbeaa00c5	-0.33203712
90	0xbe4e9616	-0.2017444
91	0x3e5878ff	0.21139906
92	0x3e00ab0b	0.12565248
93	0xbe8d204f	-0.27563712
94	0x3e923e8a	0.2856334
95	0x3df934bd	0.12168262
96	0x3e7c66e3	0.24648623
97	0xbdaab068	-0.08334428
98	0x3d306020	0.043060422
99	0xbe09adb9	-0.13445176
100	0x3d9a67d9	0.075393386
101	0xbe37cd80	-0.17949486
102	0xbdea9b0a	-0.114553526
103	0x3e53e1c6	0.20691594
104	0x3da8f13b	0.08249136
105	0xbd780c1e	-0.06055843
106	0x3e4b616a	0.1986138
107	0xbcd863a7	-0.026414705
108	0x3d34572c	0.044028446
109	0xbd9e9114	-0.07742515
110	0xbe861dd0	-0.2619462
111	0x3dc2a6df	0.095044844
112	0xbd8e3913	-0.0694448
113	0x3e208a30	0.15677714
114	0x3e7bdc31	0.24595715
115	0x3e4ef4fa	0.20210639
116	0xbc26f908	-0.01019121
117	0xbc8ab48f	-0.0169318
118	0xbe7836c9	-0.24239649
119	0xbd7f0eef	-0.0622701
120	0xbe69e524	-0.22841316
121	0xbdfedcdc	-0.12444469
122	0xbc9a95da	-0.018870283
123	0x3c13ed8f	0.009028806
124	0xbdc3e9f5	-0.09566108
125	0x3c7f4016	0.015579244
126	0xbea416d5	-0.3204867
127	0x3e01ccec	0.12675828
128	0xbe85bd57	-0.26121017
129	0x3db02515	0.08600823
130	0x3eaec830	0.34137106
131	0x3ea8d414	0.32974303
132	0x3dd33be4	0.103141576
133	0x3e18dafa	0.14927283
134	0x3d99eb95	0.07515637
135	0xbea031f5	-0.31288114
136	0x3e98789a	0.29779512
137	0xbd0ff1e2	-0.035142787
138	0xbe3f8ec7	-0.18706809
139	0x3e6915cf	0.22762226
140	0xbea8ff9c	-0.33007514
141	0xbccb925a	-0.02485006
142	0x3e8b4d41	0.27207378
143	0x3e0e3938	0.13889015
144	0xbc349073	-0.0110207675
145	0x3b1438df	0.0022616906
146	0xbd6ffe9f	-0.058592435
147	0xbe5f7089	-0.21820273
148	0x3e02fbeb	0.12791412
149	0xbda639e2	-0.08116509
150	0xbdc6b452	-0.09702362
151	0x3d82e343	0.06391003
152	0x3de84f30	0.11343229
153	0x3e9a8e37	0.30186626
154	0xbd85a075	-0.065247454
155	0x3e59508b	0.21222131
156	0xbde0f2c6	-0.10983805
157	0xbd34680f	-0.04404455
158	0x3e87c9bb	0.26521096
159	0xbdb50405	-0.08838657
160	0x3d5221bf	0.051301714
161	0x3e825b05	0.25460067
162	0xbddf0113	-0.10888877
163	0x3e89aff8	0.26892066
164	0xbcf0306d	-0.029319966
165	0x3e58679d	0.21133275
166	0x3e8bdf8e	0.27318996
167	0xbe2cf00a	-0.16888443
168	0xbd9f9a25	-0.077930726
169	0xbd8e5d62	-0.06951405
170	0x3e899227	0.26869318
171	0x3e9a6cce	0.30161136
172	0xbe7ddd65	-0.24791487
173	0xbe9333f7	-0.28750584
174	0x3e8b3249	0.27186802
175	0x3e1c2ff0	0.15252662
176	0xbdfde983	-0.123980545
177	0xbdbd34d9	-0.092385955
178	0x3e881ff6	0.26586884
179	0xbea15a68	-0.31514287
180	0x3e94b1fc	0.2904204
181	0xbe4c25af	-0.1993625
182	0xbd85c784	-0.06532195
183	0xbcbf867d	-0.023379559
184	0xbe30f836	-0.17282185
185	0xbe8bf388	-0.27334237
186	0x3e8892a4	0.26674378
187	0x3e3b38c3	0.18283372
188	0xbe07610f	-0.13220619
189	0xbe241aa1	-0.16025783
190	0x3c7020de	0.014656274
191	0x3e5452a4	0.2073465
192	0xbe1b7bb3	-0.15183906
193	0xbd1b644c	-0.037937447
194	0x3dfa399a	0.12218018
195	0x3c339252	0.010960178
196	0x3e7cdbf7	0.24693285
197	0x3e6c2fa7	0.23065053
198	0xbe6e45f1	-0.23268868
199	0xbdd5201e	-0.104065165
200	0xbe1b1d62	-0.15147927
201	0xbe5c987a	-0.2154254
202	0x3e4109b4	0.18851358
203	0x3e76e6a3	0.24111418
204	0x3d65460b	0.055975
205	0x3e829de0	0.25511074
206	0xbe9fb05f	-0.31189248
207	0xbea67805	-0.32513443
208	0x3e33eded	0.1757123
209	0x3cdda666	0.027056884
210	0x3d21a659	0.039465282
211	0x3d7394cb	0.059468072
212	0xbe1f4738	-0.15554512
213	0x3e88b70b	0.2670215
214	0x3e847939	0.25873736
215	0x3cdd3d61	0.027006807
216	0x3e2dd863	0.16977076
217	0x3e18ed39	0.14934243
218	0xbe1bd6e7	-0.15218697
219	0x3e7e0bcb	0.24809186
220	0x3e931c2f	0.2873244
221	0x3e72d40a	0.23713699
222	0x3e86fc20	0.2636423
223	0x3dd8c31c	0.10584089
224	0x3e366fa7	0.1781603
225	0x3e7aa242	0.24475959
226	0xbe31e8a4	-0.17373902
227	0x3e4b5323	0.19855933
228	0x3e20eb8e	0.15714857
229	0x3e97753d	0.29581633
230	0xbe1d365f	-0.15352772
231	0xbe7d5f57	-0.247434
232	0x3cce19dc	0.025158815
233	0xbdc35396	-0.09537427
234	0xbc1474b5	-0.009061028
235	0xbdfa6f41	-0.12228251
236	0x3e55ba8b	0.20871942
237	0x3d3f22a7	0.046663906
238	0xb3393dfa	-4.3130036e-08
239	0x3e32d83d	0.17465301
240	0x3d216c16	0.03940972
241	0x3e91c5c8	0.28471208
242	0x3e1eff25	0.15527017
243	0xbe1965f4	-0.14980298
244	0x3e89cdfe	0.26914972
245	0xbdf97300	-0.12180138
246	0xbdf535bd	-0.119731404
247	0x3e6257df	0.22103833
248	0xbe989349	-0.2979987
249	0x3ea8faf4	0.33003962
250	0x3e87d8ac	0.26532495
251	0x3e6ffa4c	0.23435324
252	0x3eab4983	0.33454522
253	0xbd2919a4	-0.04128422
254	0x348e1712	2.6466347e-07
255	0xbdd9abf0	-0.106284976

weight_hh_l0 f4 [27, 9]
0	0xbc667c75	-0.014067759
1	0xbdaa787d	-0.083237626
2	0x3e94603d	0.28979674
3	0xbd412d62	-0.04716242
4	0xbe640910	-0.22269082
5	0xbd7595d8	-0.059957355
6	0xbe8beb81	-0.27328113
7	0xbe954ad0	-0.2915864
8	0x3e612ef6	0.2199057
9	0x3e2289d8	0.15872896
10	0xbbf1b07b	-0.0073757744
11	0xbe55219f	-0.20813607
12	0x3e83b1aa	0.25721484
13	0xbe4e205b	-0.2012953
14	0xbc9b4cb4	-0.018957473
15	0x3ddc7cfc	0.107660264
16	0x3ea0c513	0.31400356
17	0xbe98f84b	-0.29876933
18	0x3e7e3e50	0.24828458
19	0xbda1312c	-0.07870707
20	0x3e981770	0.2970538
21	0xbe42abbe	-0.19010827
22	0xbe93140f	-0.2872624
23	0x3e48731c	0.1957516
24	0xbe6754de	-0.22590968
25	0xbba00605	-0.00488353
26	0xbdcfb8a5	-0.1014264
27	0x3e476d3c	0.19475263
28	0x3e596940	0.21231556
29	0xbe90ee91	-0.28307012
30	0xbe33c82e	-0.17556831
31	0xbe13b6fa	-0.14425269
32	0x3e5108e4	0.20413548
33	0x3e992220	0.29908848
34	0x3d003215	0.031297762
35	0xbdb3b91f	-0.087755434
36	0x3e80b0d0	0.25134897
37	0xbe4dcf78	-0.20098674
38	0xbe9ad923	-0.30243787
39	0x3dfe6108	0.12420851
40	0x3ea1fe65	0.316394
41	0x3d8d9c3b	0.06914564
42	0xbe67e44b	-0.2264568
43	0x3e98af06	0.29821032
44	0xbe90b6d6	-0.28264493
45	0x3b9a2ccd	0.0047050477
46	0x3dac0706	0.08399777
47	0xbe9e7491	-0.30948308
48	0xbda02b05	-0.07820705
49	0x3e840625	0.25785938
50	0xbe53fbbb	-0.20701496
51	0xbddf6015	-0.10906998
52	0x3c952397	0.018205447
53	0xbe5a1ff4	-0.21301252
54	0xbe37efb3	-0.17962532
55	0xbe44c500	-0.19215775
56	0xbdb3f262	-0.08786465
57	0x3e6113fc	0.2198028
58	0x3cf59c85	0.02998186
59	0x3d85aede	0.06527494
60	0x3e844ca3	0.2583972
61	0xbe409886	-0.18808183
62	0x3e0c6434	0.137101
63	0x3e2718a8	0.16318
64	0xb912f294	-0.00014014012
65	0xbdb776d4	-0.089582115
66	0xbe47d126	-0.19513378
67	0x3e07e38a	0.13270393
68	0x3e651492	0.22371128
69	0xbe9a2087	-0.3010294
70	0xbd64f651	-0.055898968
71	0xbe659398	-0.22419584
72	0x3e0ecd77	0.13945566
73	0xbd9dae39	-0.07699246
74	0xbe8a5f8f	-0.2702603
75	0xbe62fa45	-0.22165783
76	0x3e9d0c1b	0.30673298
77	0xbd8b9044	-0.06814626
78	0x3e78ca1d	0.2429585
79	0x3e374343	0.17896752
80	0x3cba6dad	0.022757376
81	0x3ea2b814	0.31781065
82	0xbe6d7ec6	-0.23192891
83	0xbeaadb92	-0.33370644
84	0x3e5c7999	0.21530761
85	0x3ea876f1	0.32903245
86	0x3e9ac932	0.30231625
87	0xbea5705c	-0.32312286
88	0x3e335903	0.17514424
89	0x3e7421e1	0.23841049
90	0xbd963617	-0.073345356
91	0xbdb317ad	-0.0874475
92	0xbc9409f9	-0.018071162
93	0xbe1521f4	-0.14563733
94	0xbe51a976	-0.204748
95	0x3e52cbda	0.20585576
96	0x3e04b063	0.12957911
97	0x3d9613cb	0.07327994
98	0xbe445678	-0.1917361
99	0xbdc34743	-0.095350765
100	0xbe866f75	-0.2625691
101	0x3e49d428	0.19709837
102	0xbdf23d1a	-0.118280604
103	0xbe5c885f	-0.21536396
104	0xbe94c167	-0.29053804
105	0xbe510628	-0.20412505
106	0x3ea82282	0.32838827
107	0xbeb161b0	-0.34644842
108	0x3e794a21	0.24344684
109	0x3b16feca	0.002304005
110	0x3d0ae52b	0.033909958
111	0x3e771be3	0.24131732
112	0xbcad6a03	-0.021168714
113	0x3baa032c	0.0051883664
114	0x3e12d80e	0.14340231
115	0xbdb1c529	-0.086801834
116	0xbe66be72	-0.22533587
117	0x3df7a120	0.12091279
118	0xbdf3a291	-0.118962415
119	0xbcbba16e	-0.022904124
120	0xbdadf131	-0.08493269
121	0xbe8dfac4	-0.2773038
122	0xbbec3aa3	-0.0072091385
123	0x3e848d28	0.25888944
124	0x3e95d228	0.292619
125	0x3e26b6d0	0.16280675
126	0xbe591329	-0.21198715
127	0x3e608529	0.21925797
128	0xbdb7dba2	-0.089774385
129	0x3cd85a8c	0.026410364
130	0x3e5e00c6	0.21679983
131	0xbddef660	-0.10886836
132	0x3e9e2e71	0.30894807
133	0x3e83f315	0.25771394
134	0x3bb91589	0.005648319
135	0xbd6bc2a6	-0.057558678
136	0xbdff06c4	-0.12452462
137	0xbdfb0bbc	-0.122580975
138	0x3c9915a0	0.01868707
139	0x3e871bb8	0.26388335
140	0x3c94c790	0.018161565
141	0x3d256901	0.040383343
142	0xbd5c9084	-0.05384876
143	0x3e7d0fdd	0.24713083
144	0xbe43ee82	-0.19133952
145	0x3e162e54	0.1466611
146	0x3df0a5fb	0.11750408
147	0x3e5c265b	0.21499006
148	0x3e78da17	0.24301945
149	0x3cd8dd40	0.026472688
150	0x3c9979dd	0.018734867
151	0x3dd06524	0.10175541
152	0xbd4ba4f1	-0.049717847
153	0xbb56da98	-0.00327841
154	0x3df42e55	0.119229
155	0x3d9414b8	0.07230514
156	0xbe90b24c	-0.2826103
157	0xbe83d93b	-0.2575167
158	0x3e0bed91	0.13664843
159	0x3e4bbbef	0.1989591
160	0x3e2aebfb	0.16691582
161	0x3e784f96	0.2424911
162	0x3ea54a08	0.32283044
163	0x3da20306	0.07910733
164	0x3d0cf4c3	0.03441311
165	0x3c978c88	0.018499628
166	0x3e3cb63a	0.18428889
167	0xbd2fdeab	-0.042936962
168	0xbe7d6758	-0.24746454
169	0x3db91055	0.09036318
170	0xbe19eb17	-0.15031086
171	0x3df0e1f9	0.11761851
172	0xbda1a45c	-0.07892677
173	0x3d22720d	0.03965955
174	0xbeac1547	-0.33609983
175	0x3e890ce7	0.26767656
176	0xbe0c3f7a	-0.1369609
177	0xbe897fd8	-0.2685535
178	0x3e1316cd	0.14364167
179	0x3de96940	0.11397028
180	0xbead3a49	-0.3383353
181	0x3da772a6	0.08176164
182	0xbdfb8729	-0.12281639
183	0x3e8f6a2a	0.28010684
184	0x3c5ce696	0.01348271
185	0xbd90aea0	-0.07064557
186	0x3e9a4034	0.30127108
187	0x3d2a3550	0.04155475
188	0xbe1138bd	-0.141818
189	0xbd884ad5	-0.06654898
190	0xbe68cf29	-0.22735275
191	0xbea3dd0a	-0.32004577
192	0xbe033743	-0.1281405
193	0xbe0d0dc2	-0.1377478
194	0x3e6bf058	0.23040903
195	0x3e9d6c52	0.30746704
196	0xbe7af201	-0.2450638
197	0xbe94ae42	-0.29039198
198	0x3e3855d1	0.18001486
199	0x3d876d5e	0.06612657
200	0xbdc1cd2e	-0.09462963
201	0x3e9f19bf	0.3107433
202	0xbdb68853	-0.089127205
203	0xbd610c6f	-0.0549435
204	0x3e8dfb72	0.277309
205	0xbe99f9a3	-0.3007327
206	0xbe186b2a	-0.1488463
207	0x3e45a803	0.19302373
208	0x3e223522	0.15840581
209	0xbe52447e	-0.2053394
210	0xbe83111b	-0.25598988
211	0xbd0fe553	-0.03513081
212	0x3dc1282a	0.09431489
213	0x3e0dc9fa	0.13846579
214	0x3e93eeac	0.2889303
215	0xbe3c1a13	-0.18369322
216	0xbd3ed4fa	-0.04658983
217	0x3d5f8f1b	0.054579835
218	0xbd9c0439	-0.07617993
219	0x3b818be0	0.003953442
220	0xbe2f07bd	-0.17092796
221	0xbe2194dd	-0.15779443
222	0x3dc4467b	0.095837556
223	0x3e6dd045	0.2322398
224	0xbea11626	-0.3146221
225	0x3dc665f4	0.09687415
226	0x3e471285	0.19440658
227	0x3d0ca14f	0.034333523
228	0x3e0430f1	0.12909295
229	0x3ca9b391	0.020715507
230	0x3e92c29d	0.28664103
231	0xbd9eb23a	-0.07748838
232	0x3e4000bd	0.18750282
233	0xbe9d94a2	-0.3077746
234	0x3ea399d9	0.31953314
235	0x3e2d8a72	0.16947344
236	0xbe87b1f1	-0.26502946
237	0x3e2c160f	0.1680529
238	0xbde95260	-0.11392665
239	0xbea5f229	-0.32411316
240	0x3e7d173f	0.24715899
241	0x3e83e874	0.25763285
242	0x3ea30a9b	0.3184403

bias_ih_l0 f4 [27]
0	0x3e34848b	0.17628686
1	0xbea0e925	-0.31427875
2	0x3e92380b	0.28558382
3	0x3e81a3c8	0.25320268
4	0xbe8398f2	-0.25702626
5	0x3e8e95f9	0.27848795
6	0x3ea18e1c	0.31553733
7	0x3e575df4	0.21031934
8	0x3e7fd334	0.24982911
9	0xbda44257	-0.08020466
10	0x3e145746	0.14486417
11	0xbd40cbad	-0.04706924
12	0x3d0913cd	0.03346615
13	0x3e43de30	0.19127727
14	0x3e4daacf	0.2008469
15	0xbdc1e583	-0.09467604
16	0x3d939bdf	0.072074644
17	0xbdb8bb0d	-0.09020052
18	0x3e84a71c	0.25908744
19	0xbead1d5a	-0.33811456
20	0x3ea61a56	0.32441968
21	0xbe21bf65	-0.15795667
22	0xbe99e1bb	-0.3005503
23	0xbe80ac1a	-0.25131303
24	0x3de2a304	0.11066249
25	0x3e49a893	0.19693212
26	0x3dfcf6a5	0.12351731

bias_hh_l0 f4 [27]
0	0x3e9bafe0	0.3040762
1	0x3d3bdfae	0.045867614
2	0xbe41c70c	-0.18923587
3	0x3e5658b2	0.20932272
4	0xbea7f059	-0.32800558
5	0xbe8ec6df	-0.27886102
6	0x3e09f9d0	0.13474202
7	0xbdc3ca02	-0.09560014
8	0x3dc1c310	0.09461033
9	0xbc8a0c81	-0.016851665
10	0x3dc23d82	0.09484388
11	0x3e174c31	0.14775158
12	0x3d602510	0.054722846
13	0xbe48ad53	-0.19597368
14	0x3d74e907	0.059792545
15	0xbe105ece	-0.14098665
16	0xbea6e5e2	-0.32597262
17	0x3d51e0d9	0.051239822
18	0xbe947f2e	-0.2900328
19	0xbe7311dc	-0.23737282
20	0xbe954361	-0.2915297
21	0xbe8022a0	-0.25026417
22	0xbdc1b1ec	-0.09457764
23	0x3e2533c1	0.16133024
24	0xbe9203df	-0.28518578
25	0x3e121bb6	0.14268383
26	0xbc25228e	-0.010079039

weight_ih_l0 f4 [27, 249]
0	0xbc4d72c5	-0.01253957
1	0xbda77254	-0.08176103
2	0x3c4ee1e0	0.012627095
3	0xbe896f04	-0.2684251
4	0x3e55f146	0.2089282
5	0x3e41365e	0.18868396
6	0x39b31d95	0.0003416358
7	0xbe076fd8	-0.13226259
8	0x3560ca45	8.3740844e-07
9	0xbd196599	-0.037450407
10	0x3e78d00c	0.24298114
11	0xbb55f3a8	-0.003264645
12	0x3e8a656e	0.2703051
13	0x3e768a9e	0.24076316
14	0x3e305ab5	0.17222102
15	0x3e5acd89	0.21367468
16	0x3c6c4be2	0.014422389
17	0x3d465a5a	0.04842601
18	0x3e3ceb9b	0.18449251
19	0xbe83fcac	-0.2577871
20	0xbe21ecc6	-0.15812978
21	0x3c65e32b	0.014031212
22	0x3e98a6c4	0.29814732
23	0x3db14edd	0.0865762
24	0x3e06a81f	0.1315007
25	0x3e8f53e9	0.27993706
26	0xbd8a7220	-0.06760049
27	0x3ea418b1	0.32050088
28	0xbe6edf75	-0.2332743
29	0x3dd522e3	0.10407045
30	0xbe849368	-0.25893712
31	0xbe745568	-0.23860705
32	0xbe8513ce	-0.25991672
33	0xbe60b812	-0.21945217
34	0xbd66cf61	-0.056350116
35	0xbd9f6cac	-0.077843994
36	0x3e729afd	0.23691936
37	0x3e01b055	0.12664922
38	0x3e43013d	0.19043441
39	0xbc3f13de	-0.011662452
40	0xbe35fe3a	-0.17772761
41	0xbea08922	-0.31354624
42	0x3e1b1b9b	0.1514725
43	0xbe6897e8	-0.22714198
44	0x3e9333b6	0.2875039
45	0x3e603ae2	0.21897462
46	0xbe7fc199	-0.24976195
47	0x3e1eec7a	0.15519896
48	0x3df3b777	0.119002275
49	0x3ea22d7a	0.3167532
50	0x3d802c18	0.0625841
51	0xbe9565f1	-0.29179338
52	0x3c46e99e	0.01214066
53	0xbe77355c	-0.24141449
54	0xbca6d9a5	-0.020367453
55	0xbe275e93	-0.16344671
56	0x3e2a0cfc	0.16606516
57	0x3e9463f2	0.28982502
58	0xbe9755ae	-0.29557556
59	0xbe5a0bd0	-0.21293569
60	0xbd914f61	-0.070952184
61	0xbead5efd	-0.33861533
62	0x388fa1e9	6.8489295e-05
63	0x3e19a8a2	0.15005735
64	0xbe85916e	-0.26087517
65	0xbe835723	-0.25652418
66	0xbe7125c5	-0.23549564
67	0xbe43faf2	-0.19138697
68	0x3db82657	0.08991688
69	0xbd1d1a04	-0.03835489
70	0xbe18a686	-0.14907274
71	0xbe22263c	-0.15834898
72	0x3b69319b	0.0035582546
73	0x3e2635d3	0.1623147
74	0xbe46a29b	-0.19397967
75	0xbc719521	-0.014745028
76	0x3e5114f5	0.2041815
77	0x3e557e03	0.20848851
78	0x3e8b5a9f	0.27217576
79	0x3c2cfa6e	0.010557754
80	0xbe49d0eb	-0.19708602
81	0xbe3ffcd1	-0.18748786
82	0x3e4aaf83	0.19793515
83	0xbc6246d2	-0.01381083
84	0xbeb182b7	-0.3467004
85	0xbe580b55	-0.21098073
86	0xbe3f2cf9	-0.186695
87	0xbe928890	-0.28619814
88	0x3e9a330d	0.30117074
89	0x3e5f854f	0.21828197
90	0x3dc0032f	0.09375607
91	0x3e309133	0.17242889
92	0x3cfcd942	0.030865315
93	0xbe152dc0	-0.14568233
94	0x3d8907d0	0.06690943
95	0x3e2855ee	0.1643903
96	0x3e789098	0.24273908
97	0xbd808f7a	-0.06277366
98	0xbc84a3ae	-0.01619133
99	0xbdfcf7bc	-0.12351939
100	0x3ea52c0b	0.32260165
101	0xbe8e0edb	-0.2774571
102	0x3c51ae12	0.012797849
103	0x3e1ee1bc	0.15515798
104	0xbe4c4416	-0.19947848
105	0xbe26a7c6	-0.16274938
106	0x3cebf8a6	0.028805088
107	0x3d18f042	0.037338503
108	0x3daafccf	0.08349001
109	0xbe887324	-0.26650345
110	0x3ad97fa6	0.0016593828
111	0x3d1add74	0.03780885
112	0xbe0a25ae	-0.13490936
113	0xbc460954	-0.012087185
114	0x3dd028cd	0.10164032
115	0x3ea4f4c0	0.3221798
116	0x3e0f26bb	0.13979618
117	0xbe898f2a	-0.26867038
118	0x3e9fc46d	0.31204548
119	0x3ea47718	0.3212211
120	0x3e47e92a	0.19522539
121	0x3e2cfa49	0.16892351
122	0xbe2dbeab	-0.16967265
123	0x3e1f94cd	0.15584107
124	0x3e826f57	0.2547557
125	0xbe82c4ed	-0.25540867
126	0x3d7d054f	0.06177264
127	0xbe250adb	-0.16117422
128	0xbe050978	-0.12991893
129	0x3e1c6e8d	0.15276547
130	0xbcd2d43d	-0.025735969
131	0xbc935259	-0.017983602
132	0x3e9f6d2b	0.31137976
133	0xbd0955af	-0.03352898
134	0xbe1e9862	-0.15487817
135	0x3e020752	0.12698105
136	0xbe01dbcf	-0.12681507
137	0xbe3f4dee	-0.18682072
138	0xbd99b124	-0.0750449
139	0xbe3c7318	-0.1840328
140	0xbd9ee0c6	-0.07757716
141	0xbe71b77c	-0.2360515
142	0x3d61caba	0.055124976
143	0x3e138b3c	0.14408582
144	0x3e9dd00a	0.30822784
145	0xbe9142e1	-0.28371337
146	0xbe6d7b73	-0.23191623
147	0xbe42782c	-0.18991154
148	0x3e830782	0.25591666
149	0xbdb2ea9f	-0.08736157
150	0xbdf76249	-0.12079293
151	0x3e97e820	0.29669285
152	0x3d6fb77c	0.058524594
153	0x3dd44aac	0.10365805
154	0xbe22a657	-0.15883766
155	0x3c9c8323	0.0191055
156	0xbe567329	-0.20942368
157	0x3e322455	0.17396672
158	0x3d957a82	0.07298757
159	0x3c8a22a8	0.016862229
160	0x3deb8602	0.11500169
161	0xbe14ae59	-0.14519633
162	0xbea3eb8a	-0.3201564
163	0x3de17faa	0.11010678
164	0x3e872431	0.263948
165	0xbe0c98b8	-0.13730133
166	0x3e666fb6	0.22503552
167	0xbeaa9e29	-0.33323792
168	0x3e06e987	0.13175021
169	0x3e069175	0.13141425
170	0xbea145d6	-0.31498593
171	0xbdd93d2d	-0.106073715
172	0x3dc3faf8	0.09569353
173	0xbeae6327	-0.34060022
174	0x3e8528dd	0.2600774
175	0xbd9988ca	-0.074967936
176	0x3ded1202	0.115757
177	0x3ea6fb4b	0.32613596
178	0x3e2ae778	0.16689861
179	0xbe5d6ae1	-0.21622802
180	0x3e2db73e	0.16964433
181	0x3dd47b77	0.103751116
182	0x3e1fb13e	0.15594956
183	0xbe63d28e	-0.22248289
184	0x3e2ca879	0.16861142
185	0xbdc658b9	-0.09684891
186	0x3e72e136	0.23718724
187	0x3e954be1	0.29159454
188	0xbea52605	-0.3225557
189	0xbe50ea0b	-0.2040178
190	0x3e9b838e	0.30373806
191	0xbdb41b3e	-0.087942585
192	0x3cc82e32	0.02443609
193	0xbe4012df	-0.18757199
194	0xbe4ebbaf	-0.20188783
195	0x3c3bc7b6	0.011461189
196	0x3e15cba9	0.14628471
197	0x3e3d3360	0.1847663
198	0xbe6b4e2e	-0.22979042
199	0xbe96e450	-0.29471064
200	0x3e63b932	0.22238615
201	0xbe4f3141	-0.20233633
202	0x3e1745e3	0.14772753
203	0xbe2ba28f	-0.1676123
204	0x3e41bd43	0.18919854
205	0xbea1dc23	-0.31613263
206	0x3cec3637	0.028834445
207	0xbe9931a0	-0.29920673
208	0x3e482783	0.19546323
209	0x3e27c037	0.16381918
210	0xbeabb708	-0.3353808
211	0xbe8d29b9	-0.27570894
212	0xbea48ad9	-0.32137182
213	0xbe0f5a6c	-0.13999337
214	0x3d608d1d	0.054822076
215	0x3e0619ec	0.13095826
216	0xbccac29c	-0.024751
217	0x3cb2dd31	0.021833988
218	0x3e5812e3	0.21100955
219	0x3d514f83	0.05110122
220	0xbe476d27	-0.19475232
221	0x3e9a0d9d	0.3008851
222	0xbc09ddc5	-0.00841469
223	0x3e77e20c	0.24207324
224	0xbd4cec49	-0.050030027
225	0xbe2fcdd6	-0.17168364
226	0x3e9e509a	0.3092087
227	0xbd3b47ca	-0.04572276
228	0xbe2524dd	-0.16127343
229	0x3e172d70	0.14763427
230	0xbd230bab	-0.03980605
231	0x3e5a173a	0.21297923
232	0x3e6a5d64	0.22887188
233	0x3da29bca	0.07939871
234	0xbe59a43c	-0.21254057
235	0x3dcf0aa5	0.10109452
236	0x3d882eb3	0.06649532
237	0xbe6f0f09	-0.23345579
238	0xbd641984	-0.055688396
239	0xbe8c0596	-0.27348012
240	0x3e4998be	0.19687173
241	0x3e0b3150	0.1359303
242	0xbde5f1c0	-0.11227751
243	0xbea4f324	-0.32216752
244	0x3ea21f5a	0.31664544
245	0xbe7cbffe	-0.24682614
246	0x3e5221d9	0.20520724
247	0x3e22da14	0.15903503
248	0xbdebf17a	-0.115206674
249	0x3d6806eb	0.056647222
250	0xbe5dcd5e	-0.21660373
251	0x3dcfa7aa	0.10139401
252	0x3e5a4b85	0.21317871
253	0x3dd152e5	0.10220889
254	0x3d6a1761	0.057151202
255	0xb8089c83	-3.257069e-05

weight_hh_l0 f4 [27, 9]
0	0xbe066e85	-0.13128097
1	0xbe84b537	-0.25919506
2	0xbe8c77b9	-0.2743509
3	0xbe5ef967	-0.21774827
4	0xbbd4b131	-0.0064908494
5	0xbe631055	-0.22174199
6	0x3e433d66	0.1906639
7	0x3e209b07	0.15684138
8	0xbe383d9e	-0.17992255
9	0x3e1ff285	0.15619858
10	0xbdb5f2e1	-0.08884216
11	0xbd1897b3	-0.037254047
12	0xbda783ad	-0.08179412
13	0x3c5e86ba	0.013581926
14	0x3e08a0d0	0.13342595
15	0xbd927ae2	-0.07152344
16	0xbaa49432	-0.0012556373
17	0x3da683bf	0.08130597
18	0xbc33c484	-0.010972146
19	0xbd8c45a9	-0.06849224
20	0xbd4fb673	-0.050711107
21	0x3de11385	0.10990051
22	0x3e6799f2	0.22617319
23	0xbe23d874	-0.16000539
24	0x3e27d80a	0.16391006
25	0x3ea9b257	0.33143875
26	0x3e9f02fb	0.3105696
27	0x3e485c8d	0.19566555
28	0x3ddac6c4	0.10682443
29	0xbe50e5e5	-0.20400198
30	0xbe9acaca	-0.3023284
31	0xbdb2ce18	-0.087307155
32	0xbd176918	-0.03696546
33	0x3e969b02	0.29415137
34	0x3dc7ab5e	0.097494826
35	0x3e599089	0.21246542
36	0xbe585f24	-0.21130043
37	0xbd96efb7	-0.07369941
38	0x3e9579bc	0.29194438
39	0xbd0cee46	-0.034406923
40	0xbe9730d5	-0.29529443
41	0xbdd3a54d	-0.10334263
42	0x3e592c75	0.21208365
43	0x3e3e3a3d	0.18576904
44	0xbd1736a7	-0.036917355
45	0x3e1fe1da	0.156135
46	0x3e741e7f	0.23839758
47	0xbe57e268	-0.21082461
48	0xbe59feaa	-0.21288553
49	0xbddb0f4e	-0.106962785
50	0xbe619ac4	-0.22031695
51	0xbea5081b	-0.32232746
52	0xbe5dd0d1	-0.21661688
53	0xbe772aab	-0.2413737
54	0x3e5fa80c	0.21841449
55	0x3b553fbe	0.0032539214
56	0x3d63fed6	0.055662952
57	0xbd8dfb35	-0.069326796
58	0xbdbd0b6d	-0.09230695
59	0x3df971e8	0.12179929
60	0x3e11413a	0.14185038
61	0x3db8dd66	0.090266034
62	0xbe28d210	-0.16486382
63	0x3e195506	0.1497384
64	0x3ce893b5	0.028390745
65	0xbdd7acbe	-0.10530995
66	0xbe83cd72	-0.2574268
67	0x3e94d437	0.29068157
68	0xbd38d547	-0.045125272
69	0xbe1115e1	-0.14168502
70	0xbcadbec2	-0.021209124
71	0xbbc61653	-0.0060451417
72	0x3d1c7e1f	0.038206216
73	0xbdea7d7d	-0.11449716
74	0x3d9b2321	0.0757506
75	0xb99f5fb1	-0.0003039814
76	0x3de16149	0.11004884
77	0x3e09b9df	0.1344981
78	0x3d3f64c4	0.046726957
79	0xbe802c96	-0.25034016
80	0x3e7f4cd6	0.24931654
81	0x3dc032c1	0.093846805
82	0xbd5f0dc7	-0.0544565
83	0xbea0f629	-0.31437805
84	0xbe6d54b4	-0.23176843
85	0xbe398b1e	-0.18119475
86	0x3ea84fe9	0.32873467
87	0xbea582ef	-0.32326457
88	0xbe7581c9	-0.2397529
89	0x3e846a8c	0.2586254
90	0x3e8166fc	0.25273883
91	0x3d8cc1cf	0.068729036
92	0x3d86ca70	0.06581581
93	0x3cc0ae5a	0.023520637
94	0x3e4bc382	0.19898799
95	0xbe4b6aae	-0.19864914
96	0x3da0e55a	0.07856245
97	0xbe0f758e	-0.14009687
98	0x3e9a5e81	0.30150226
99	0x3be22bbb	0.0069021857
100	0x3e8ad23d	0.27113524
101	0xbea62333	-0.3244873
102	0x3e84cc08	0.25936913
103	0xbea9256d	-0.33036366
104	0x3c0a6e71	0.008449183
105	0x3e6edb72	0.23325899
106	0x3e9f0a8f	0.31062743
107	0xbd1f4a12	-0.038889
108	0x3d2c529e	0.042070977
109	0x3ea29394	0.31753218
110	0x3e3c9a8f	0.18418334
111	0x3ddda6bf	0.1082282
112	0xbe592f27	-0.21209393
113	0xbe6c83e0	-0.23097181
114	0xbe1a58e2	-0.15072969
115	0xbdce4826	-0.10072355
116	0xbe261360	-0.16218328
117	0xbd3a0a2d	-0.04541986
118	0xbea65b9f	-0.32491776
119	0xbdff9946	-0.124804065
120	0xbdee162c	-0.11625323
121	0xbc172440	-0.009224951
122	0xbe8514e8	-0.25992513
123	0xbe4aa488	-0.19789326
124	0xbdf1b01d	-0.11801169
125	0xbddc76a7	-0.10764819
126	0xbe6226f8	-0.22085178
127	0x3dac9b1b	0.084280215
128	0xbea6602d	-0.3249525
129	0xbe7d49ee	-0.24735233
130	0xbe688738	-0.22707832
131	0xbe353577	-0.17696176
132	0x3d630249	0.0554221
133	0xbdbd04fc	-0.09229466
134	0xbd438713	-0.04773624
135	0x3daf5764	0.0856159
136	0xbe7718b5	-0.24130519
137	0xbc320842	-0.010866227
138	0xbdd142c4	-0.10217813
139	0xbe3da03d	-0.18518157
140	0x3e831f4f	0.25609824
141	0xbe2bb215	-0.16767152
142	0x3df80655	0.12110583
143	0x3b9e0b0d	0.0048230947
144	0xbe7f56bb	-0.24935429
145	0x3e27d17e	0.16388509
146	0xbd9e77eb	-0.07737716
147	0x3deb0b65	0.11476783
148	0x3e825e43	0.2546254
149	0x3e955d79	0.29172876
150	0xbda7a2e0	-0.08185363
151	0xbeb10b81	-0.3457909
152	0x3e41c158	0.18921411
153	0xbe842d28	-0.258157
154	0x3e60a0bd	0.21936317
155	0x3e7a95ed	0.24471255
156	0x3ddc1c75	0.10747615
157	0x3e8caea6	0.27476996
158	0xbc5794b3	-0.013158011
159	0xbd9fb590	-0.07798302
160	0x3e3d284e	0.18472406
161	0xbc4d69f5	-0.012537469
162	0xbea3b8bf	-0.31976888
163	0xbdfd5556	-0.12369792
164	0x3eaf6f98	0.34264827
165	0x3e3b856f	0.1831262
166	0xbd5e6032	-0.054290958
167	0x3e3ac832	0.18240431
168	0xbdeb65a0	-0.11493993
169	0xbd48eb11	-0.0490523
170	0x3e901f8c	0.28149068
171	0xbd284754	-0.04108365
172	0xbe3f5d17	-0.18687855
173	0x3df50e0e	0.11965571
174	0x3e42086f	0.1894853
175	0xbd7d17a5	-0.061790127
176	0x3e15be74	0.14623433
177	0xbc88c1a2	-0.016693894
178	0xbe7a4079	-0.24438657
179	0x3ea4c04f	0.3217797
180	0x3e4b3a9e	0.1984658
181	0xbe138d64	-0.14409405
182	0xbe4465f8	-0.19179523
183	0x3db56735	0.08857576
184	0x3e824177	0.2544057
185	0x3de15db1	0.11004198
186	0x3cfce9a2	0.030873124
187	0x3dd1a3ea	0.10236342
188	0x3e15c7c4	0.14626986
189	0xbc918910	-0.017765552
190	0xbdf25a0c	-0.11833581
191	0x3de49f0c	0.11163148
192	0xbe59a0d1	-0.21252753
193	0x3e1c97fe	0.15292355
194	0xbdc95f11	-0.098325856
195	0x3e7ca027	0.24670468
196	0xbea8251b	-0.3284081
197	0xbe5c78ba	-0.21530429
198	0x3ea8cdc8	0.329695
199	0x3d4b72c4	0.049669996
200	0xbd5425fd	-0.05179404
201	0x3e170827	0.14749204
202	0xbe0da765	-0.13833387
203	0xbe9e5d59	-0.30930594
204	0xbe30e56b	-0.17275016
205	0xbd701612	-0.058614798
206	0x3e7fd444	0.24983317
207	0xbdd7d3bb	-0.10538431
208	0xbd998ee0	-0.07497954
209	0xbd0aa537	-0.033848967
210	0x3e0638cc	0.13107604
211	0x3da851d0	0.082187295
212	0x3e079404	0.13240057
213	0x3e0bc003	0.13647465
214	0xbe3350f6	-0.17511353
215	0xbe531ebd	-0.20617194
216	0xbea649bc	-0.3247813
217	0xbdab86be	-0.083753094
218	0x3d9d1203	0.07669451
219	0x3c443f35	0.01197796
220	0xbe602aae	-0.21891281
221	0x3e3add14	0.18248397
222	0x3e9d99ee	0.30781502
223	0x3e65cad7	0.22440659
224	0xbe97836e	-0.2959246
225	0xbd143eea	-0.036192812
226	0x3c9695d7	0.018381996
227	0x3e9b96ba	0.30388433
228	0xbea68dde	-0.3253011
229	0xbe494a3b	-0.19657223
230	0xbea878a3	-0.3290454
231	0x3eabcb95	0.33553758
232	0xbe69b324	-0.22822243
233	0xbe38acb7	-0.18034635
234	0xbe5a84fb	-0.2133979
235	0x3e935a45	0.28779808
236	0x3e8319dc	0.25605667
237	0xbe52d823	-0.20590262
238	0x3e8d4213	0.27589473
239	0x3d186ab3	0.03721113
240	0xbe70e436	-0.23524556
241	0x3ba3a217	0.004993688
242	0x3c757784	0.014982108

bias_ih_l0 f4 [27]
0	0xbe930346	-0.28713435
1	0xbeb002ef	-0.34377238
2	0xbe73eed1	-0.2382157
3	0x3defd171	0.1170987
4	0xbe6ab520	-0.22920656
5	0x3e5b1802	0.21395877
6	0xbe5245a0	-0.20534372
7	0x3e1b6972	0.15176943
8	0x3e880534	0.2656647
9	0xbd56e2c3	-0.05246235
10	0x3e638833	0.22219925
11	0xbd9eb5d2	-0.07749523
12	0xbd7a21d9	-0.061067436
13	0xbd830d05	-0.06398968
14	0x3e3bc487	0.18336688
15	0x3e4fa57a	0.20277968
16	0x3e939d5d	0.28830996
17	0x3dcff364	0.10153845
18	0x3d5f332b	0.054492157
19	0xbe07fffe	-0.13281247
20	0x3e3242d0	0.174083
21	0x3e06f882	0.13180736
22	0x3eaaeb55	0.3338267
23	0x3d7503e7	0.059818175
24	0xbe666f43	-0.2250338
25	0x3ddc5af3	0.10759535
26	0xbe886799	-0.2664154

bias_hh_l0 f4 [27]
0	0x3e4b04fd	0.19826122
1	0x3e0ba204	0.13636023
2	0xbe6831c9	-0.22675242
3	0xbdef6e07	-0.11690908
4	0xbde41659	-0.11137075
5	0x3d3a1fe5	0.045440573
6	0xbe2c9484	-0.16853529
7	0x3e6d9624	0.23201805
8	0xbdf10d06	-0.11770062
9	0x3dd105e9	0.102062054
10	0x3ddca9ae	0.10774551
11	0xbe7d32e9	-0.24726452
12	0x3dd357d9	0.1031949
13	0xbe9b64e8	-0.30350423
14	0xbbe433f0	-0.0069641992
15	0x3e8c6c52	0.27426392
16	0xbe5f9406	-0.2183381
17	0x3d08308d	0.033249427
18	0x3c1346d4	0.008989055
19	0x3d80a3de	0.06281255
20	0x3e78ba8e	0.24289915
21	0x3de4c73e	0.11170815
22	0xbe9c1dee	-0.30491585
23	0xbe15be34	-0.14623338
24	0x3e045b23	0.12925391
25	0xbca4fe2a	-0.020140726
26	0xbe537038	-0.20648277

weight f4 [9, 9]
0	0xbe88caf5	-0.26717344
1	0xbd855737	-0.065107755
2	0xbe02efef	-0.1278684
3	0xbd62d5aa	-0.055379547
4	0x39e8bbe6	0.00044390484
5	0x3e6b3b1c	0.22971767
6	0xbcdf6467	-0.027269555
7	0x3dc1e0ad	0.09466682
8	0xbe588630	-0.21144938
9	0xbea8c52d	-0.32962933
10	0x3d652be9	0.05595008
11	0xbe1dbf6a	-0.1540505
12	0x3df928d3	0.1216599
13	0xbda6a029	-0.08136017
14	0xbe9f15f8	-0.31071448
15	0x3e44c023	0.1921392
16	0xbe530ab8	-0.20609558
17	0xbcc1b0fc	-0.023643963
18	0xbe3149ad	-0.17313261
19	0x3e2b89bd	0.16751762
20	0xbdc6cb10	-0.097067
21	0x3db3747d	0.08762453
22	0x3eb43efa	0.35204297
23	0xbdf9f366	-0.12204628
24	0xbe04eed7	-0.12981735
25	0x3de46b2c	0.11153254
26	0x3ddeeed0	0.108853936
27	0x3d0a46d0	0.03375894
28	0x3e6a4219	0.22876777
29	0x3c18b514	0.009320516
30	0x3e433ccd	0.19066162
31	0xbc44f608	-0.012021549
32	0x3ae91f79	0.0017785869
33	0xbe5a2648	-0.21303666
34	0x3eac835d	0.33693972
35	0x3e983645	0.29728904
36	0x3d2e7adb	0.042597633
37	0xbe84f5b4	-0.25968707
38	0xbe30598d	-0.17221661
39	0xbe6997d2	-0.22811821
40	0xbd0a3b81	-0.033748154
41	0xbe113934	-0.14181978
42	0xbe27ae65	-0.1637512
43	0x3e9e8883	0.30963525
44	0x3ddabbb4	0.10680333
45	0xbe9eaaeb	-0.30989775
46	0xbd7b649a	-0.061375238
47	0xbdb0bb8b	-0.08629521
48	0xbe47567c	-0.19466585
49	0x3e982e93	0.29723033
50	0xbd15591a	-0.036461927
51	0x3e7c9ba0	0.24668741
52	0xbea2102d	-0.31652966
53	0xbddd9405	-0.10819248
54	0xbdb62a4d	-0.08894787
55	0x3da8e4e5	0.08246783
56	0x3ea90a93	0.3301588
57	0x3e08bc27	0.13353024
58	0xbe9ce1bc	-0.30640972
59	0x3c448f2b	0.0119970245
60	0x3e9a8163	0.3017684
61	0x3bfa7ebe	0.0076445034
62	0x3e768319	0.24073447
63	0xbe8625fe	-0.2620086
64	0x3cf6505a	0.030067611
65	0xbead817c	-0.3388785
66	0xbeb1fc99	-0.3476303
67	0x3e4d7cf1	0.20067193
68	0x3d935c30	0.07195318
69	0x3e8c8cee	0.2745127
70	0x3e10f04e	0.14154169
71	0xbe1ddeb7	-0.1541699
72	0xbc86f7f1	-0.01647565
73	0xbd871ddc	-0.06597492
74	0xbda19340	-0.07889414
75	0xbd89f792	-0.067366734
76	0xbe0ee905	-0.13956077
77	0xbe48d682	-0.19613078
78	0x3cba0a75	0.022710064
79	0x3e200582	0.15627101
80	0xbb451e3e	-0.003007784

bias f4 [9]
0	0x3ea5fc92	0.32419258
1	0x3e7da1ff	0.24768828
2	0xbe52e58e	-0.2059538
3	0x3e349c07	0.17637645
4	0x3e95d050	0.29260492
5	0xbe3f40f0	-0.18677115
6	0xba0f09b8	-0.00054564653
7	0xbe970711	-0.2949758
8	0xbe5984b5	-0.2124203
