ERTSNet/new_arch_LA/DT/HNL/rq00_T20.pt (torch, 184613 bytes, 63 tensors)

weight_ih_l0 f4 [27, 120]
00000000: 565d 1c3c c95b a03d 2ad0 253b 0696 cf3d
00000010: 3579 f8bc bb7a 273e 4a80 81be 5a97 9abd
00000020: 2e20 afbc 5a30 993e 99dc bfbd ff7b 2d3e
00000030: c005 64be 2aeb 083e 845f 84be 1509 bcbd
00000040: 2ae7 043e 0a5f e9bc 3387 a3be ecff 5abc
00000050: 0861 b5be 031a 0dbe 142f 2abd 45a0 423e
00000060: c91d 2e3c 31f2 a4be bedf e73d 59bc c23d
00000070: 40e9 613e 0c6e 8b3e 49c7 fabd 70a3 84bd
00000080: 4e01 193e 7e07 a63e 6660 043d e46c f83d
00000090: 414d 5dbe be62 163e bc72 b53c c3aa 9c3e
000000a0: f6b3 88bb 6b2b d43d 15a5 3d3e 49b3 95be
000000b0: 7b30 403e 2334 18be a856 9a3d ff50 b13c
000000c0: 8835 5ebe d572 16bd 9ba3 47be 2d10 44be
000000d0: 922b 8cbe a99f 35bd 8143 063c 2030 08be
000000e0: 43e4 de3d 343b a23e 4aff 9f3e 77e1 abbe
000000f0: be3c 8dbe 3a35 5b3e fa26 673c e899 793c
00000100: 1bf6 4c3e ee83 29be 737f 71bc 638b 8dbe
00000110: baf4 803e aaec 87be c5eb 483e bfd2 683e
00000120: 3ee9 cc3d c244 283c fd29 a2be 083b 8b3e
00000130: 3150 14be 84c4 64bd 1df6 9c3e bfb9 5bbd
00000140: ca57 a33e aa73 54be 8495 893e 57a7 293e
00000150: e9a7 823e f303 453e b627 eabd 3d84 cebc
00000160: 1f16 be3d 39e9 52be 5fa8 e23d d7d2 00be
00000170: 7b59 273e d13d 533e cd34 ebbd a417 9a3e
00000180: cb9c a23e 9ed7 a63e 7d08 fc3c 6a78 013e
00000190: 6f84 8a3e 0a01 8bbe 4bfd 9dbe bb77 91be
000001a0: 2990 fe3d 440e 73be dca3 42bd b3d5 8d3e
000001b0: 0c17 883e 1f4b 61be 18d8 943e 8cdb 48be
000001c0: c661 fd3d 7f18 acbd 99a2 5a3d fdcb 03be
000001d0: 9681 9b3e f0df 7ebe c2fd 983e 2337 0b3d
000001e0: 9736 973e ee49 2d3e 5cb6 b9bd 932c a5bc
000001f0: b395 ddbc 3439 80be b0f5 8cbd 4222 a0be
00000200: 4c55 cb3d 0ab6 96be 1e41 4e3e b971 eebd
00000210: e9ab 96bb 3650 613e 8d0e 9d3e 3b69 023c
00000220: b92c ab3e 5dab 45be a32d 263d 1a4e 5cbe
00000230: 3672 cbbd 9784 b43e c3c0 98be 6e0f fbbd
00000240: 9c85 063d bc71 44bd 9348 583e 80b8 99be
00000250: 6665 5ebe 9e28 b33e 7626 d4bd 147f 0fbe
00000260: ed30 713d 6865 333e 6bdc 8c3e 1e07 4fbd
00000270: b55b 0e3e 7844 673e 8b02 82be 9247 53be
00000280: 35b8 613e 1aba 753e d6b6 83be 89e4 223d
00000290: 5ce1 30bd 1263 84be 1474 82be 5119 84bd
000002a0: 2411 55be b070 7a3d f89c 1ebe d20f 47be
000002b0: bc79 6cbc 9866 d2bd ef0f 08bc 5df2 5c3e
000002c0: a3ca babc 52e5 d13d 2826 90be ce53 06bd
000002d0: cc6b 8cbe 8fd8 d4bd a3ec 2cbe 4770 893e
000002e0: dedd 11bc d559 29be 34a0 073e 8e3b 54be
000002f0: ed04 4f3e 927d 3f3e 34ec 31bd 00bf 30be
00000300: 9057 8cbe dd79 613d 99f9 3bbe 1628 8cbb
00000310: bfdf 633e d1a2 b73d caca 0d3e fe11 02be
00000320: 883e a73d f6f3 9cbe 18be fbbc 7a52 883e
00000330: 0b65 27bd 70c5 003e 3f00 b7bd 0551 e2bd
00000340: c8de 913e 3015 5fbd 067d 8b3e d9bf 3d3e
00000350: 0261 7b3e c950 27be b8be 40bd 788a a53e
00000360: eb84 0dbe 4c05 863e 6a44 003d 82fc 8bbe
00000370: 6129 a43e a511 94be 312b 783e 02f7 a73e
00000380: efbf 763e 718c 0a3e 1650 c13d 10e3 b3bd
00000390: 0e57 0d3e ed50 773e 2b6c 7cbe d095 a4be
000003a0: 90d1 9a3e 2337 8abd 3dfe 94bd 4194 48be
000003b0: 2568 333e e7b4 713e bf7e 2d3b 0131 e03d
000003c0: 663b af3e 3440 ad3e 131a 69be 2224 9ebd
000003d0: 5101 243c 6c43 b43e 1c95 0d3e 6022 fc3c
000003e0: 97e3 4ebe 491d 0d3e b7fd 75be c402 6dbd
000003f0: 4738 2fbd 4b01 663e 59d4 6fbe 9f27 92be
0.009543737 0.07830007 0.0025301077 0.101360366 -0.030331234 0.16355412 -0.2529319 -0.07548399
-0.02137765 0.29919702 -0.093682475 0.16941832 -0.22267818 0.13370958 -0.25854123 -0.0918142
0.12978807 -0.028487701 -0.31939086 -0.013366681 -0.3542559 -0.13779454 -0.041548803 0.1900645
0.0106272185 -0.32216027 0.11321972 0.09508581 0.22061634 0.27232397 -0.12245042 -0.06476486
0.14941904 0.3242759 0.032318495 0.12130144 -0.21611501 0.14686105 0.022149436 0.3059903
-0.0041718436 0.10359844 0.18520005 -0.29238346 0.18768494 -0.14863639 0.075360596 0.021645067
-0.21700108 -0.036730606 -0.19496004 -0.19146796 -0.27376992 -0.044341717 0.008194805 -0.13299608
0.10883381 0.31685793 0.31249458 -0.33570454 -0.27585405 0.21407023 0.014108414 0.015234448
0.20015757 -0.16554233 -0.014739859 -0.27645406 0.25186712 -0.26547748 0.19621189 0.22736643
0.10005425 0.010270299 -0.3167266 0.27193475 -0.14483716 -0.055851474 0.3065652 -0.05364394
0.31902915 -0.20747247 0.26871884 0.16567741 0.2551873 0.19239788 -0.114333555 -0.02520954
0.09281563 -0.2059678 0.110672705 -0.12580429 0.16342728 0.2062905 -0.1148468 0.3009616
0.3176025 0.32586378 0.030765766 0.1264359 0.27054164 -0.2714923 -0.3085731 -0.2841166
0.1242984 -0.2373591 -0.04751955 0.27702102 0.26580083 -0.22001313 0.29071116 -0.19615
0.123721644 -0.0840311 0.05337772 -0.12870784 0.30372304 -0.24890113 0.29881102 0.03398813
0.29533836 0.16922733 -0.090679854 -0.020162856 -0.027048921 -0.25043643 -0.06882799 -0.31276137
0.099283785 -0.2943576 0.20142028 -0.116427846 -0.00459813 0.22003254 0.30675164 0.007959659
0.33432558 -0.19303651 0.040570866 -0.21514168 -0.099338934 0.35257408 -0.29834566 -0.12258802
0.032842264 -0.047960028 0.21121435 -0.30023575 -0.21718368 0.34991926 -0.10358898 -0.1401332
0.05888455 0.17519152 0.27511916 -0.050543897 0.13902171 0.22584713 -0.25392565 -0.2063277
0.22042926 0.23996773 -0.2572543 0.03976873 -0.04318367 -0.25856835 -0.25479186 -0.06450141
-0.2080732 0.061142623 -0.15489566 -0.19439629 -0.014433321 -0.102734745 -0.00830458 0.21576829
-0.022801703 0.102488175 -0.2815411 -0.032794766 -0.27425992 -0.10392868 -0.16887145 0.26843473
-0.008902995 -0.16538174 0.13244706 -0.20725843 0.20216723 0.18700245 -0.04343815 -0.1726036
-0.27410555 0.05504786 -0.18356933 -0.0042772396 0.22253321 0.08966602 0.13846889 -0.12702176
0.08166224 -0.30654877 -0.030730292 0.26625425 -0.040867846 0.12575316 -0.08935594 -0.110506095
0.2849028 -0.054463565 0.27243823 0.18530215 0.24548724 -0.16339411 -0.047056884 0.32332206
-0.13820235 0.26175916 0.031315245 -0.27341086 0.3206282 -0.28919712 0.24235226 0.3280564
0.24096654 0.13530137 0.09439103 -0.08783543 0.1380274 0.24151964 -0.24650638 -0.32145548
0.30238008 -0.06748798 -0.072750546 -0.19587804 0.17520197 0.23604165 0.0026473252 0.10946847
0.34225005 0.33838046 -0.22763853 -0.077217355 0.0100100795 0.3520769 0.13826412 0.03077811
-0.20204006 0.13780703 -0.24022566 -0.057863966 -0.04277828 0.2246143 -0.23420848 -0.28545853

weight_hh_l0 f4 [27, 9]
00000000: c27b a93e afcf 94bd cb6f 3f3d c570 9cbd
00000010: 10b0 97bd eec0 9a3e 760e 0cbd 04bf c6bd
00000020: 3f8b 3fbe 4e2d 18be 6e54 a23d 9787 8b3e
00000030: befa bd3c 6746 4d3e 77ea 35be d5d9 763e
00000040: 01c3 f2bd 9472 383e 7b3a e33b e046 ab3c
00000050: f53e 69be ff64 10be 3b96 c638 8548 85be
00000060: 4c23 1fbe 13d7 2b3e 5b98 79bc 22b6 023e
00000070: d369 283d 4f1f 233e 3df4 4a3e e17a bebd
00000080: 31d0 0bbe 2563 40be f915 8bbe 387c 4b3e
00000090: addd a83e 515a 53be a737 a33c d0a5 12be
000000a0: 440c a7bb b4dc 953e a99a 9a3d 93cf 8dbe
000000b0: cb08 1dbe e584 683e c5ab a83d fc8e 493e
000000c0: 6e5d 27be a6de 38be 84f7 1a3e d71f 803b
000000d0: 7de8 0dbe 8b92 123e c301 883e 5724 293e
000000e0: 5685 8fbe b095 f63d 467f b3bd b800 a03d
000000f0: 8ca9 08be f189 983e a88d 563e 073f 1bbd
00000100: 2870 903e 5dab 7dbe 2393 b53d 8a54 453d
00000110: fb8f 773e 4e77 3fbd 2a3e 133d 23fd 2ebe
00000120: d1b4 933e 419d f13d 0499 94be 92c8 293e
00000130: 434f 15bd a3eb f53c f81a 2c3e bb45 783e
00000140: 4d91 42bd 4536 45be 1c41 bf3d ed43 30be
00000150: 6f0e 073e bb69 813d da0e 5abe 2adb 54be
00000160: 85aa 493e 6319 dcbd 0c57 82be 43cc d33d
00000170: 8611 e6bd 426a 9c3c ab6e 923e 173f cebd
00000180: bead 233b 3a26 9dbd d178 b0be 99ad 9c3e
00000190: 0f48 1d3e e1a8 9c3e 251c 7d3e bb8c 79be
000001a0: d4b8 983e c7a6 2fbe 756a 8cbe 7450 88bc
000001b0: ba3f 00be cab7 0a3e ad71 55bd a615 07bc
000001c0: 2d32 1abc e93d 38be d21b 8cbe fc63 033e
000001d0: 4a94 843e 389d 82be f49a 87be 5532 97be
000001e0: 8e7e f3bc b85d 99be 2601 693e ceb7 efbd
000001f0: ee42 833d 1500 1fbe 985e 9dbb 41d9 9c3e
00000200: f8c0 3ebe 469c b83d 293b 8abe a739 963e
00000210: 042e ef3d cd41 4d3e 6f7a a6be a80b d9bd
00000220: 1010 da3d 1b2e 76be 438b 0abe 8409 7c3e
00000230: e4d4 12be cfcc 7d3e e8eb 303e cdee 81bc
00000240: 047a 433e 5696 b1bd 7ce3 50be 47b2 e73d
00000250: 4df6 183e 0282 09bd 45d9 77be 5997 f03d
00000260: 15a8 46be 6d47 56bd b53b 433e c096 313e
00000270: 2a61 8fbd 9c73 84be efc2 8e3e 1838 abbd
00000280: a8e7 c73d 445e 143d b0cc 8ebe f6ae adbe
00000290: d8bd 6abd fd03 943e 5f85 013e dd0e 2cbe
000002a0: b630 4e3d c927 24be 7414 1b3d 8836 92bd
000002b0: 50e9 d23c d1ba a3be 151f a73e 1288 5ebe
000002c0: 65a1 073e ae11 8d3d 93b3 fd3d 2728 ac3e
000002d0: b0d3 7fbe 19ed 5ebe dda3 ccbd cfe9 803d
000002e0: 5b08 d4bd 1888 48be b0d7 2cbe 1333 8d3e
000002f0: 013a c03d 65a4 a23e 1268 963e e699 8c3e
00000300: dbbd 8fbe 2dbf e1bd cd1f 9bbe 4c11 843e
00000310: e93c 11bd dd3e 803e 5ece dbbd 938c 9abe
00000320: 10bd bd3d 2006 adbe 97d2 a13e 4e04 883d
00000330: 3d94 dbbd 4854 28bd ebc7 623d 2aec ae3e
00000340: 7bc6 92be d236 58be 2457 3b3d 9cbd 903e
00000350: f2aa a63e f6e1 9c3d 7af0 9c3e 5012 48be
00000360: 1f68 7d3d f9a9 9cbe e93b 8a3d 6ac9 dc3d
00000370: 33a6 a43c 5c4c 48be 4d3d f3bb db5d 2b3e
00000380: 0f2a a5be 999b 8ebe c1de 843e b803 5f3e
00000390: 64ba 58be 97ca 7cbe 3975 93be ed67 ab3e
000003a0: f5ed 863e 7080 c4bd cc6e 07be 4031 133e
000003b0: 70bf 0abe ebb5 40be 724c 8cbe 1d19 5bbd
000003c0: 74d3 633e 17b3 95bd 47a4 84bd
0.33102232 -0.07266175 0.046737473 -0.076386966 -0.07406628 0.3022532 -0.03419348 -0.09704402
-0.18705462 -0.14861032 0.0792626 0.27251884 0.023190852 0.20046388 -0.17765222 0.24106534
-0.118536 0.18012458 0.0069344616 0.02090782 -0.22777922 -0.14101027 9.469358e-05 -0.2603189
-0.15540808 0.16781263 -0.015234078 0.1276479 0.041116547 0.15929912 0.19819732 -0.09300781
-0.13653637 -0.1878782 -0.271652 0.19871604 0.32981625 -0.20639922 0.019923998 -0.14321065
-0.0050978977 0.29269946 0.0754903 -0.2769743 -0.15335386 0.22706945 0.082358874 0.1968345
-0.16344234 -0.18053684 0.15133482 0.0039100456 -0.13858218 0.14313714 0.26563844 0.16517769
-0.28031415 0.120402694 -0.0876451 0.07812637 -0.13345927 0.2979274 0.20952475 -0.037901904
0.28210568 -0.24772401 0.08865955 0.048176326 0.24176018 -0.046744637 0.035947956 -0.17088751
0.2884889 0.11797572 -0.29022992 0.16580418 -0.036452543 0.030019587 0.16807163 0.2424535
-0.04750185 -0.19258983 0.093385905 -0.17213412 0.131891 0.063189946 -0.21294728 -0.2078673
0.19693954 -0.1074703 -0.25457036 0.10341694 -0.11233811 0.019093636 0.28600058 -0.10070627
0.0024975385 -0.07673307 -0.34467176 0.30601195 0.1535952 0.30597594 0.24717768 -0.2437009
0.29828513 -0.17153464 -0.2742497 -0.016639926 -0.1252431 0.13546672 -0.052110363 -0.0082449075
-0.009411377 -0.17992367 -0.27364975 0.1283111 0.25894386 -0.25510573 -0.26485407 -0.29530588
-0.029723432 -0.29954314 0.22754344 -0.1170498 0.0640925 -0.15527375 -0.004802536 0.30634502
-0.18628299 0.09014182 -0.2699826 0.2934086 0.11678699 0.20044632 -0.32515284 -0.105979264
0.10647595 -0.24041025 -0.13529687 0.24613005 -0.14339024 0.2478516 0.17277491 -0.01586094
0.19089514 -0.086712524 -0.20399278 0.113133006 0.14937706 -0.03357125 -0.24203975 0.11747617
-0.19400056 -0.05231421 0.19065745 0.17342663 -0.070009544 -0.25869453 0.27883098 -0.083603084
0.09760982 0.03622271 -0.2789054 -0.33922547 -0.057309955 0.28909293 0.12648533 -0.16802545
0.050339423 -0.16030802 0.037861302 -0.07139307 0.025746018 -0.31978467 0.326409 -0.21731594
0.13245161 0.06888138 0.12387767 0.33624384 -0.24983096 -0.21770133 -0.09992192 0.062945955
-0.10353156 -0.19583166 -0.16879153 0.2757803 0.09386063 0.31766048 0.29376274 0.27461165
-0.28074536 -0.11022792 -0.302977 0.25794446 -0.03545848 0.2504796 -0.10732721 -0.30185375
0.092645764 -0.33793736 0.3160598 0.06641446 -0.107216336 -0.041096002 0.055366438 0.34164554
-0.28667054 -0.21114662 0.0457374 0.2826966 0.32552296 0.07660286 0.3065222 -0.19538236
0.061866876 -0.3059843 0.06749708 0.10780604 0.020098781 -0.19560379 -0.007423079 0.16735022
-0.3225865 -0.27853087 0.25951198 0.21778762 -0.21164852 -0.24686657 -0.2880037 0.33477727
0.26353422 -0.0959481 -0.1322586 0.14374256 -0.1354959 -0.18819396 -0.27402073 -0.053490747
0.22248632 -0.07309549 -0.06476646

bias_ih_l0 f4 [27]
00000000: 34bb 803e 25a6 dabd beed 8a3d 149a c5bd
00000010: 25a9 9c3e 59af 83be 7f14 5fbd 9226 e1bd
00000020: 3464 91be 5bed 07be ef61 58be fdef 4d3d
00000030: 5193 77be 564e 97be 7446 1f3e 4df5 763e
00000040: 37ba 13be ceb6 243e 5d17 603e 56b6 8f3e
00000050: 42e5 41be 958f 013d aa41 7f3e dcbf 9abe
00000060: 0b0e e43b 2610 5a3d f323 88be
0.25142825 -0.10676221 0.06783627 -0.09648529 0.30597797 -0.25719717 -0.054462906 -0.10993685
-0.2839676 -0.13274138 -0.21131109 0.0502777 -0.2417729 -0.29551953 0.1555422 0.24117012
-0.14426504 0.1608536 0.21883912 0.280688 -0.18935111 0.03163107 0.24927393 -0.30224502
0.006959682 0.053238057 -0.26589927

bias_hh_l0 f4 [27]
00000000: cd8d f23d d1a1 b23d 9892 45bc 3480 92bd
00000010: 130b 80be 16bc 073e 4bf6 433e 48c4 8c3e
00000020: de97 6abe b093 4ebe fca4 c0bb c90b 1dbd
00000030: acd3 873e 9648 80be 2a6f 42be 8151 8ebe
00000040: 58df 8ebd ef6d fbbb 217d 863e 1bed 44be
00000050: e04f 6e3e 3afa 62be 484a 31bd 0177 693e
00000060: ef9a 933e cdc2 1fbc 8948 713e
0.118434526 0.0872227 -0.012058876 -0.07153359 -0.2500845 0.13255343 0.19136922 0.274935
-0.22909495 -0.20173526 -0.0058790427 -0.038341317 0.2652868 -0.2505538 -0.18987718 -0.27796558
-0.06976193 -0.007673017 0.2626734 -0.19231074 0.23272657 -0.22165766 -0.04328373 0.22799303
0.28829142 -0.009751034 0.23562826

weight_ih_l0 f4 [27, 129]
00000000: d590 ea3c 54e5 43be a64c 9dbe 8102 49be
00000010: a484 123d 454e aa3d ff60 63be 769c 89be
00000020: ee2e 083e 995e 8dbe 7270 623e bab6 5ebe
00000030: 9b53 93be 4af2 5fbd d15e 233e 2c61 1fbe
00000040: 1b7c 023e 7993 e73d c6e5 ddbd 2811 313e
00000050: 4508 2fbe 6685 44be b301 933d f069 5bbe
00000060: b247 303e a88d a23e 2add 843d a4fe 9a3e
00000070: 58cc e83d f8d0 86bd 0816 d8bd a772 a13d
00000080: c281 673e 7b56 a1bd 0ef0 9f3e 9603 203e
00000090: 80ae b5bd 6772 103e a116 00be c349 2cbe
000000a0: 76a3 be3d ce11 5abc 978d 3a3e 971d 353e
000000b0: 92fb 87be eb6b 55be d659 62bd fb03 133d
000000c0: 694b 093e f704 a13d 6222 91be c2e2 afbd
000000d0: 69c8 5ebe 6a06 893e 8215 c4bd 1aab 8f3e
000000e0: 6190 f5ba 9a07 97bc 2ec9 853d fded 6d3e
000000f0: 65e8 a73d 06d1 993e 82df 10be 210c 993e
00000100: 3f75 503d 7828 9bbe 6271 8f3d f087 22bd
00000110: 819c c63d 868e ad3d a72a a53e 1cdc 433d
00000120: e445 903e da2c 203e 73d4 813e 041e 91bd
00000130: 20a5 0ebe 177c c3bd 6e61 833e 8f97 56be
00000140: 47a0 06bc 2f9f 1bbe 55e6 51be 7ec1 303e
00000150: f8af 3a3e 9271 7e3e 2290 f33d 01ee 05bd
00000160: bfa8 c1ba 3f3f 83be f9c6 65be d073 3dbe
00000170: 175b 0abe ccaa 9dbe ce2e 06be 1327 aa3e
00000180: e666 ebbd 6a6e 243e 987d b8be 38ce c8bd
00000190: c8d4 863e 150f 923e d512 723e d2c3 493e
000001a0: 2c95 c53d 9ab8 943e 8a8f 86bb d912 75be
000001b0: 15a5 57be a4cf 59be 2af7 61ba 73f5 a23e
000001c0: e2df 893e caca 8fbd 1f7e 45be 5441 17be
000001d0: fb95 a9bd cc8f c2bd 1dc6 463e 379d 2abd
000001e0: 606e 693e 4971 a3be 563a 383e f9f2 7d3e
000001f0: d720 a2be 372e 5b3d 66ff dd3d 533e 953e
00000200: 1ea9 443e 53ec a1be 97e1 683e da43 983e
00000210: 9c39 2abe db70 4f3e 4fdd ff3d 37a6 313e
00000220: 0f65 5dbd b089 72be a07e 28be 5b60 01be
00000230: 425b 5e3e 1908 883e 3f51 a93e cf06 77be
00000240: 8c10 c2bc 1091 6ebe 373d 9c3e 005e 11bd
00000250: c417 2dbe 0ae7 0abe 8492 a13e 73ea a23e
00000260: 3912 7d3e 0a1a 033e 8351 74be 6b7e a0be
00000270: 4690 81be 8ba3 a73e 8de3 01be 3ef2 553e
00000280: a590 853d 9e37 4c3e 4728 9a3e 37de 043d
00000290: f7a5 833e c2ac 9f3e f1e7 6b3d 7eef 40be
000002a0: dad3 c4bd 35f8 773d f218 d03d 98c5 94bd
000002b0: 8095 8bbe f844 293e 54c9 e43d 5094 37be
000002c0: 9aa9 95bb 698b e83d 9281 963d 5f04 a93d
000002d0: 0213 553e 71aa 7a3e 65a3 8fbd e5ab 92be
000002e0: 3f0a 8fbd 0fcf f13d 1913 313d b575 403e
000002f0: 4780 0f3c db18 e5bd 360e ca3d d59a 3ebd
00000300: 4de3 11be d54c d0bd 0def afbd 21ad b03d
00000310: 4076 a4be bb0f ce3d 840f c03d dff4 fd3d
00000320: cf67 a43d e98a 603e 37c1 553e d056 0b3e
00000330: 94e0 6ebe ada4 4ebe 91e0 74bd e2d4 48be
00000340: ba6d 43be d2ec 1b3b 87e4 4f3d 3e7a 153c
00000350: 50d3 c43d d42c 68be 0b39 9fbe 0fc4 41be
00000360: 19fa fbbd 7932 6d3e 7723 2dbe f5b0 073e
00000370: 9a9e 463d c20d 6a3c 7b56 763d caa2 8e3e
00000380: 7587 2bbe 1999 b43c fe0d 66bd e7bf 1e3e
00000390: de3d 9b3d 4964 0d3e 2667 9ebe 53e0 ab3e
000003a0: c09c c93d 2475 8e3d b3f2 04be c2b9 89be
000003b0: 48ab 7a3e e60f e4bd 9e51 98be adf6 5fbe
000003c0: 57c7 9e3d 1d27 89bc f44d 1a3e 3e52 88bd
000003d0: 93db c3bc 8c01 803d e6f9 1d3d 34aa ddbd
000003e0: 6499 8a3e d5fb 7ebc cf41 9dbe 1afe a1be
000003f0: 3585 e6bc 22a5 753c 6933 3f3e fe28 7c3e
0.028633514 -0.1913045 -0.3072254 -0.19629861 0.035771027 0.0831571 -0.2220497 -0.26877183
0.13299152 -0.27611235 0.22113207 -0.21749392 -0.28774723 -0.054674424 0.15954138 -0.15564412
0.12742655 0.11307425 -0.108348414 0.17291701 -0.17092998 -0.19191512 0.071780585 -0.2142713
0.1721485 0.317487 0.06487496 0.302724 0.113671005 -0.065828264 -0.10551077 0.07883196
0.22608092 -0.07877823 0.31237835 0.15626368 -0.08871174 0.14106141 -0.12508632 -0.16825013
0.093085214 -0.013309909 0.18218075 0.17687069 -0.2655912 -0.20841949 -0.055261455 0.035892468
0.13407673 0.07862275 -0.28346545 -0.085881725 -0.21756138 0.26762706 -0.09574415 0.28060228
-0.0018735045 -0.018436242 0.065325126 0.23235317 0.081986226 0.30042285 -0.14147761 0.29892066
0.050893065 -0.30304313 0.07004048 -0.03968042 0.096978195 0.0847445 0.32259104 0.047817335
0.28178322 0.1564211 0.25357398 -0.07085803 -0.13930178 -0.09545153 0.2566027 -0.20956253
-0.008216924 -0.15197442 -0.20498021 0.17261311 0.18231189 0.24848011 0.118927255 -0.03269768
-0.0014775022 -0.2563419 -0.22439183 -0.1850121 -0.1351131 -0.3079437 -0.13103792 0.33232936
-0.11494236 0.16057745 -0.3603332 -0.09804958 0.26334214 0.28527132 0.23639996 0.19703606
0.09647593 0.2904709 -0.0041064667 -0.23932971 -0.21059068 -0.21270615 -0.0008619899 0.31827888
0.26928622 -0.07021101 -0.19286393 -0.14771014 -0.0828056 -0.09500083 0.19411512 -0.041653838
0.22796011 -0.31922367 0.17991003 0.24799718 -0.3166568 0.05351087 0.10839729 0.29149112
0.19205138 -0.31625614 0.22742306 0.29739267 -0.16623539 0.20257895 0.12493383 0.17348562
-0.054051455 -0.23685336 -0.16454554 -0.12634413 0.217145 0.26568678 0.33069798 -0.24123691
-0.02368953 -0.23297524 0.30515453 -0.035490036 -0.16903597 -0.13564697 0.31557095 0.31819496
0.24713983 0.12802902 -0.23859219 -0.3134645 -0.25305384 0.3274196 -0.1268446 0.2089319
0.065217294 0.19943091 0.30108854 0.032438483 0.2571256 0.3118649 0.057594243 -0.18841359
-0.0961072 0.060539443 0.10161008 -0.072642505 -0.27262497 0.16530216 0.11171213 -0.1792767
-0.004567337 0.113547154 0.07348932 0.08252787 0.20808032 0.2447908 -0.07013587 -0.2864677
-0.06984376 0.118070714 0.043231104 0.18794902 0.008758611 -0.111863814 0.09865992 -0.046534378
-0.14246865 -0.101709045 -0.08590517 0.08626772 -0.32121468 0.10061594 0.09377959 0.12400221
0.080276124 0.2192799 0.20874487 0.13607335 -0.23327857 -0.20180006 -0.059784476 -0.19612458
-0.19084826 0.002379228 0.05075505 0.009123383 0.09610617 -0.2267335 -0.31098208 -0.18922447
-0.12303562 0.23163785 -0.1690806 0.13251098 0.048491098 0.014285507 0.060141068 0.27858573
-0.16750892 0.022045659 -0.056165688 0.15502892 0.075801596 0.13807787 -0.3093807 0.33569583
0.09844351 0.069559366 -0.12983207 -0.26899534 0.24479401 -0.11135845 -0.2974977 -0.21871443
0.07752865 -0.016742283 0.150688 -0.066563115 -0.023908412 0.06250295 0.0385684 -0.10823479
0.27070153 -0.015562971 -0.3071427 -0.31639177 -0.02813969 0.014992984 0.18671955 0.24625012

weight_hh_l0 f4 [27, 9]
00000000: 831c 613d 4fbe 1e3e f1a5 6bbd 59b3 babc
00000010: 6ab7 d6bd 8066 dabc 8c78 8e3e 89ae 983e
00000020: 0099 a1be 31a9 3dbe 18d0 8d3e 0173 1ebd
00000030: 46b5 53be 6675 20bc 79fc 643e 173a a93e
00000040: 476a 85bd 6d4e 603e abc1 b63d 4f90 92ba
00000050: 40cd 6ebd cb55 7abe d00c 66be 4c80 a1be
00000060: 228c 2fbe cfb5 92bd 3d1b ac3d 2e3d 64be
00000070: 13a6 e13d c7c9 833d 5b68 77be 5c07 7b3e
00000080: 6c59 a63d 63e2 813e d0cd 0a3d 12dc 68be
00000090: 3f67 8ebe 8965 2f3e 1a14 5d3e 8413 073e
000000a0: 5b56 2bbe 430c 493e a370 153e 76c2 773d
000000b0: 01aa 7c3e 6606 0ebd 85c3 8a3e 08e9 25be
000000c0: 282c e5bd 562f 863d d384 03be 9d9d 19be
000000d0: b587 493e 7653 a03e b000 90be b6de 8e3e
000000e0: 6fbb 383e 5171 8cbc f50d 96be 0b0e 98be
000000f0: 3efd 85bd 4bb7 4c3e e0c9 93be 9ac6 983e
00000100: 3739 ae3d 51d4 de3c 8763 c3bd c349 723e
00000110: 4d2c a83e d5eb 973c edb6 2a3d ef39 873e
00000120: bd63 0fbe 7fc3 2f3e 0695 623d 563e 873e
00000130: 7d6e 9f3e 6737 dd3d a78d fd3c 4071 1d3e
00000140: f5b7 aa3d d684 85be 25b9 9ebe 92a8 963e
00000150: 72d2 263e 4f9a d33d 476e 9bbe 71d9 23be
00000160: 59b4 8e3e bbd1 9dbd 471f ebba 42ed ffbc
00000170: a1f9 043c 1f1b 0c3e 4002 233e 19e7 8ebc
00000180: 0e56 b83d 0732 773e 48f4 9cbe ef8a 323d
00000190: 4813 9a3e 1cc7 47bd c1cb 943d 5864 143e
000001a0: 7e15 a6be da74 a43d 8763 bc3d d259 3bbd
000001b0: 26ad 80be 0e5c 06bd 2edd bebd 4650 bebc
000001c0: 3dd2 863e 802b 0f3d 3f12 47bd 0349 cc3d
000001d0: 2a08 b23d 5073 8cbb c8b7 41be 6626 fd3d
000001e0: 6219 993e ba2a 0e3e 73fb 99be 4d42 e63c
000001f0: bf37 953d 8b0a dabb 63a6 b43d 78ac 133e
00000200: c899 eb3d 4a60 72be d277 72be cb1c 48be
00000210: 080e 173e 620f 42be a061 813e df9d 953e
00000220: 43f6 963d 022e 1cbe 5c02 833e cbbe 213e
00000230: e5a2 6d3e 84f5 763e 422c 4abe 77ee 363b
00000240: 71cf 63bc d40d 633d e086 8bbd b4c1 a23e
00000250: d858 99be ce99 11be 826e 833e 6bdf 51be
00000260: eaf0 973e ecb4 cfbd 1799 763d 55b6 933d
00000270: c89c 89bb a85b 903d 2b56 8cbe b707 11be
00000280: 00f2 743e 0bf9 84be c1ca f1bd 2553 68bb
00000290: 5c7b ac3e ece6 88be 75f8 9cbe bb0d 18be
000002a0: 0646 9d3e bc35 41be b504 9cbe 331b 87bd
000002b0: cfb6 8abe b2df 89be af6a 7a3d 9d37 e5bd
000002c0: c913 9f3e 6c1c 8abd 7111 25be f90d 34be
000002d0: a7d6 53be 676d 3b3c 54e2 a8bd 508e b0bd
000002e0: d674 6f3e 5bae 7b3e 1ede dcbd fefe a2bb
000002f0: 4285 5bbe 1e1a ee3d 1ca9 56be cfd2 92be
00000300: 2280 093e 92b2 e73d 70bc abbe 093a 30bd
00000310: 2485 a1be 139e 533e 7ec8 823d 65a9 0e3e
00000320: f3ac a5bc 6e2a 39be acfa a1bd 0ac6 34bd
00000330: df40 8f3e a8fe 6e3e 9189 fbbc 92c7 073e
00000340: e487 29be 6b12 a73e ed8e 99be 9ce2 a3be
00000350: debc 603e d8b0 743e 8c72 513e 0594 a9be
00000360: 4b9e a03e 8839 90be 5792 2c3e 8683 85be
00000370: 7e96 21be 0af7 583d c77e 36bd 6c83 8fbe
00000380: b078 3f3e 3fbe 37be 3b69 d73b fa1e a63e
00000390: dc77 7ebe 0061 963e 7c7c 8e3d 2167 a3be
000003a0: d478 fbbd 08ee 273d 27b7 83bd 04e3 593e
000003b0: ec0c 48be e1bb 1dbe 39b6 77bd 50d4 673e
000003c0: e74f 383e d29b 373d 79c1 913c
0.05495883 0.15502284 -0.0575313 -0.022790598 -0.10484202 -0.026660204 0.27826345 0.2982066
-0.31562042 -0.18521573 0.27697825 -0.038683895 -0.20674619 -0.009793615 0.22361936 0.33052132
-0.065144114 0.21904917 0.08923658 -0.0011181923 -0.05830121 -0.2444679 -0.22465825 -0.31543195
-0.171433 -0.071635835 0.08403633 -0.22288963 0.11018004 0.0643497 -0.24160902 0.24514526
0.081225246 0.25368032 0.033887684 -0.227402 -0.27813146 0.17128576 0.215897 0.13191038
-0.16732161 0.19633584 0.14593749 0.060488187 0.24674226 -0.03467407 0.27102295 -0.16202176
-0.11190063 0.06551997 -0.12843637 -0.15001531 0.19680674 0.31313676 -0.28125525 0.2790429
0.1804025 -0.017143877 -0.29307523 -0.29698214 -0.06542443 0.19991796 -0.28864956 0.2983902
0.085070066 0.02720085 -0.09540468 0.2366095 0.328463 0.01854507 0.041678358 0.26411387
-0.14002891 0.1716442 0.0553179 0.26414746 0.31138983 0.10801583 0.030951334 0.15375233
0.08335868 -0.26077908 -0.3100063 0.29425484 0.16291216 0.103321664 -0.30357572 -0.16000916
0.2787197 -0.077060185 -0.0017938399 -0.031241063 0.008116157 0.13682221 0.15918827 -0.01744418
0.09000789 0.24140178 -0.30655122 0.04358953 0.30092835 -0.04877387 0.072654255 0.14491403
-0.32438272 0.080301 0.09198671 -0.045739956 -0.25132102 -0.032802634 -0.093195304 -0.023231637
0.26332274 0.034953594 -0.048601385 0.099748634 0.086929634 -0.0042862073 -0.18917763 0.123608395
0.29902178 0.13883486 -0.30074653 0.028107787 0.07286023 -0.006654089 0.08820798 0.1442126
0.11503941 -0.23669544 -0.2367852 -0.19542234 0.14751446 -0.1895118 0.25269794 0.2922201
0.073711894 -0.15251926 0.25587738 0.15795438 0.2320667 0.24117094 -0.19743446 0.0027913132
-0.013904438 0.05543311 -0.06812835 0.3178841 -0.29950595 -0.14218828 0.25670248 -0.20495383
0.2967599 -0.1014193 0.06020459 0.072125115 -0.004199598 0.07048732 -0.2740949 -0.14163099
0.2392044 -0.25971255 -0.1180625 -0.0035449949 0.33687866 -0.2673868 -0.30658308 -0.14848988
0.30717486 -0.18868154 -0.3047234 -0.06596985 -0.27092597 -0.26928478 0.061136898 -0.11192248
0.31069782 -0.06743702 -0.16119935 -0.17583455 -0.20687352 0.011439658 -0.08246294 -0.08620894
0.23384413 0.2457823 -0.10784553 -0.004974245 -0.21437553 0.11626075 -0.20962948 -0.2867646
0.13427785 0.113133565 -0.33542204 -0.043024097 -0.3154689 0.2066577 0.06385897 0.13931806
-0.02022407 -0.18082592 -0.0790914 -0.044134177 0.2797918 0.23339331 -0.030705245 0.13259724
-0.16555744 0.3263124 -0.29991856 -0.32008827 0.21947047 0.23895586 0.20453852 -0.33120742
0.31370768 -0.28168893 0.16852699 -0.26076907 -0.15780064 0.05296997 -0.044554498 -0.28029954
0.18698382 -0.17943667 0.0065738237 0.32445508 -0.2485041 0.2937088 0.06957337 -0.3191462
-0.122789055 0.04099849 -0.06431418 0.21278006 -0.1953618 -0.15403701 -0.060476515 0.22639585
0.1799923 0.044826336 0.01779245

bias_ih_l0 f4 [27]
00000000: bd0f 8cbe 05c1 843e 6c69 803e 646d 53be
00000010: e5c0 843e d9d2 193e 022c 64be 1bdc f2bd
00000020: 0799 893e 3d89 083c 2e2b 4d3e e2c9 16be
00000030: 1e9b 733d d924 86be b074 6d3e 9412 e5bc
00000040: 6669 45bc ab35 97be 5818 273e 145f 22be
00000050: 6923 f03d 9f83 913d 90d5 9b39 93d4 5c3e
00000060: d209 f33d 368d 033e 593f 63be
-0.27355757 0.25928512 0.2508043 -0.20647198 0.25928417 0.15021838 -0.22282413 -0.11858388
0.26874563 0.008333501 0.20036003 -0.1472545 0.059474103 -0.26199988 0.23189044 -0.02796296
-0.012049055 -0.29533133 0.1631788 -0.15856582 0.11725504 0.07105183 0.0002972302 0.21565466
0.118671075 0.12846836 -0.22192134

bias_hh_l0 f4 [27]
00000000: 813b 223c e3df 8e3e 7745 b2bd 6516 213e
00000010: ee08 4dbc b37c 0d3e 77f5 c33c 466e 803e
00000020: e45b 3e3e 91cd 41bc b0e5 5bbe 4a6a ccbc
00000030: b8ce fe3c 3cdb 0ebe ea77 85bd f01e f4bd
00000040: aba3 043e 988d 87be 54bf fabd 3115 52be
00000050: b928 5c3e 58fc c73d 4a0e 933e 7ea6 91bd
00000060: 06ae 30be 6c32 cabc 7560 9bbe
0.009901882 0.27905187 -0.087046556 0.15731199 -0.012514336 0.138171 0.023920758 0.25084132
0.18589741 -0.011828796 -0.21474338 -0.024953026 0.03110443 -0.13950819 -0.065170124 -0.11919963
0.1295306 -0.26475215 -0.12243524 -0.20515896 0.2149991 0.097649276 0.2872184 -0.07111834
-0.17253885 -0.024682246 -0.30347028

weight_ih_l0 f4 [27, 249]
00000000: 6ff7 0abe 83d9 7ebe fe74 2f3e 2a56 13bd
00000010: ddd9 9dbe 6f0e 023d f31c 0dbe e6d9 e2bd
00000020: 5dbe 273e 0776 6bbd 6a20 653e eefb 84be
00000030: 58de 313e 4a90 85be bd0a a4bd dae0 9dbd
00000040: 8a54 083e 83fd af3d 190e 833d 82bc 18be
00000050: fd20 7b3e 4af3 f03d cd2c 583e 2375 643d
00000060: ec7d 5cbd 990e a53e b3e7 30bd d86a 533b
00000070: 0f4f 03bd 3e09 863d 98c9 2cbe 21be d3bb
00000080: 1f55 943e f1cb 873e 6fb8 a6be b2f0 b73c
00000090: c17e e4bd e59b 4cbd c0e8 033d 9fab 323e
000000a0: 7fb3 863d 406f 843e ba95 153d 0658 88bd
000000b0: 6b84 a83e 5326 b73d 30cb 6f3c 8122 65be
000000c0: d81d 483d 774e 66bd 5649 573e c1c0 37bd
000000d0: f662 883e dc06 713e 5cbb 9c3e 314b 0e3d
000000e0: ab9b 01be 1dce a9bc 082e 823e 10b6 6ebd
000000f0: 10eb 45be 8660 5abe 4aee 9f3e bfc2 ec3d
00000100: e6c6 c33d 866b a63e af37 893c 94e3 d93d
00000110: ac6f 7ebe 0fb0 89be c47a 3c3e 782b ab3e
00000120: abbe a53e b569 38be 99a5 adbd 4bd0 afbb
00000130: f5f0 1e3e a68c abbd 5a44 8f3e 3f2f 48be
00000140: e00b 50bc aa67 413e d6be 25be 379d aa3e
00000150: 62f7 733d 5019 99be 35a9 e03b 4c8e fc3b
00000160: d9f7 7f3e da94 c33d d197 513e 2088 96bd
00000170: 5dbc 2e3b 617d 7abd 66a2 863c e9ca a0bc
00000180: 4307 733e ee43 71be 4c55 0cbe 5526 1c3e
00000190: bb2c 883e a192 a3be 65a9 10be 1486 a93b
000001a0: b697 b5bd c467 9e3e e131 4abe bdee 56bd
000001b0: 1263 3c3e 59fa 61be 3786 a63e add7 543e
000001c0: 2e0a af3e 4ae2 8bbd 8f6e 8bbe 5c78 873e
000001d0: 70b4 2c3e 14a1 483e 8da4 9d3e 60e2 323e
000001e0: c496 943e f8e1 403e f06a 83bd d889 a3be
000001f0: e371 8bbd 503a 1fbe dcb4 a7bb ff2c c2bd
00000200: bd5a 323e 9113 84be 0f72 3c3e 3fbc 533e
00000210: 4eb0 ef3d 7b47 78be 6c9d a53d 67ac 01be
00000220: 2eeb 163c 2ab2 7abd 9c20 6e3e 3dfa bcbd
00000230: 5c67 6abe 000b 113e dae0 a5be 0f4e 323e
00000240: 21d2 d7bc 6eb0 883d 91e5 843e f813 343e
00000250: adf2 82be d2dd 253d b7de 203e 1076 d0bd
00000260: 7954 693e 5c50 9cbe ea75 d2bd 81aa 8cbe
00000270: e5fe a1be f151 863e baac ab3e da1d ed3d
00000280: 9379 0fbe 11a5 ae3e df4a 973e e00d 743e
00000290: 09b5 babd d946 76be 7758 923e 8644 583d
000002a0: 83c3 ca3d 1396 1b3e f589 1fbe 798f 97be
000002b0: eed8 95be e8fb 213e 4535 11be c873 983e
000002c0: 414e a7be 0b6f 57be 5788 863d c4b3 80bd
000002d0: 793d 3e3e 3816 173e 9af2 80be d99a 973e
000002e0: 1be3 993e 625e 093e 3387 bfbd 8bf6 c73b
000002f0: 1e6f 9cbc 451d 4b3e d4fd a23e 43f5 68be
00000300: 817d 673e 8730 bbbd babd d1bd ecb4 c53d
00000310: f6f4 e73d 3e16 94be 0fab dfbd 4708 803e
00000320: fbdb 12be 5e94 f23c a2f2 98be 1c23 26be
00000330: 0212 82bc 7053 5b3d fc64 82be f43a 8ebe
00000340: 65f5 093e 0a3d 42be 1535 4bbe 75e6 303e
00000350: 6dd1 79be 50f8 67bd cab1 613e f88b 0fbe
00000360: 735b 1b3d 32a8 a7be bf62 7cbe 2ccb 89be
00000370: ae1d 49be 7169 d03d 72d8 643e c7a4 c2bd
00000380: 1697 a03e 3dec 0dbc 1402 a63e ce84 ef3a
00000390: 1c38 80bd 8475 79be d66b ac3e d7a9 95be
000003a0: c69a c23d 19c1 233e c50d 46bd 1cd9 abbe
000003b0: 1077 c1bd 522d 823d 7a90 89bb 68c2 e5bc
000003c0: 6f35 a6be dbf7 15be b072 10be a599 b43d
000003d0: 551c 58bd ed7d 0f3e cb98 9cbe e44e f13d
000003e0: bd36 91be dc41 a0be 67f1 573e 33c4 833e
000003f0: 59a4 38bd 0747 1abe 28d8 0f3e 823f 59be
-0.13570951 -0.24887662 0.17134473 -0.035970844 -0.3083028 0.031752046 -0.13780575 -0.11076717
0.16381212 -0.057485607 0.22375646 -0.25973457 0.17369974 -0.26086646 -0.08009861 -0.07708903
0.13313499 0.085932754 0.06399173 -0.1491566 0.24524303 0.11765154 0.2111084 0.055775773
-0.053831026 0.322377 -0.043189716 0.0032259729 -0.032057818 0.065447316 -0.16873777 -0.006461874
0.28971192 0.26522782 -0.32562587 0.02245364 -0.11156989 -0.04995336 0.03220439 0.17448281
0.06577205 0.25866127 0.036519744 -0.06657414 0.32913527 0.08942857 0.014635846 -0.22376443
0.048856586 -0.056227174 0.21024069 -0.04486156 0.26638 0.23537773 0.30611694 0.034739677
-0.12657039 -0.020728165 0.25425744 -0.058279097 -0.1932795 -0.21325883 0.31236488 0.11560582
0.09559421 0.3250391 0.016750185 0.1063911 -0.24847287 -0.26892135 0.18406206 0.33431602
0.3237203 -0.18009074 -0.08478851 -0.0053654066 0.15521605 -0.08376436 0.27981836 -0.19549273
-0.012698144 0.18887201 -0.1618608 0.3332307 0.059562095 -0.29902124 0.0068561085 0.007707393
0.2499689 0.095498756 0.2046807 -0.073501825 0.0026662566 -0.061154727 0.01643486 -0.019628005
0.23733239 -0.2356107 -0.13704413 0.15248998 0.26596627 -0.31947806 -0.14127119 0.005173454
-0.08866827 0.30938542 -0.1974559 -0.052473772 0.18397167 -0.22068156 0.32524273 0.20785399
0.34187454 -0.068302706 -0.27232787 0.26459014 0.16865706 0.19592696 0.30789605 0.17469168
0.29021275 0.188362 -0.06416881 -0.31941104 -0.068088315 -0.15549588 -0.0051179957 -0.094812386
0.17417426 -0.25796178 0.18402885 0.20677279 0.11703549 -0.24246018 0.080866665 -0.12663423
0.009211345 -0.061205067 0.23254627 -0.09227417 -0.22890991 0.14164352 -0.3239811 0.1741259
-0.026345314 0.06674276 0.25956395 0.17585742 -0.25575772 0.040494747 0.15709959 -0.10178769
0.2278613 -0.3053006 -0.102763966 -0.27473834 -0.31639782 0.2623439 0.33530217 0.11577959
-0.1401122 0.3411031 0.2954931 0.23833418 -0.09116561 -0.24050464 0.28583118 0.052799724
0.09900572 0.15193968 -0.1557997 -0.29601648 -0.29267067 0.15818751 -0.14180477 0.29775834
-0.3267689 -0.21038453 0.065689735 -0.062842876 0.18578137 0.1475457 -0.2518509 0.29610327
0.3005608 0.1341491 -0.09351959 0.0061023883 -0.019095954 0.19835384 0.3183428 -0.2274981
0.2260647 -0.09140115 -0.102412656 0.09653649 0.113260195 -0.2892322 -0.10921299 0.25006315
-0.14341728 0.029611763 -0.29872614 -0.1622433 -0.015877727 0.05354637 -0.2546767 -0.27779353
0.13472517 -0.18968597 -0.19844468 0.17275412 -0.24396296 -0.056633294 0.22040477 -0.14018238
0.03792901 -0.3274551 -0.24647044 -0.2691282 -0.19640228 0.10176361 0.22348192 -0.09504085
0.3136527 -0.008662281 0.3242346 0.0018273832 -0.06260702 -0.24361235 0.33676022 -0.2923114
0.09502177 0.1599163 -0.048352975 -0.3356408 -0.094465375 0.063563004 -0.004198131 -0.028046802
-0.32462642 -0.1464533 -0.1410625 0.08818368 -0.052761395 0.1401288 -0.30585322 0.11782625
-0.28362074 -0.31300247 0.21088181 0.25735626 -0.04507861 -0.15066157 0.14047301 -0.21215633

weight_hh_l0 f4 [27, 9]
00000000: a10a 69be fd0e 13bd 4028 1ebe da8d 7e3e
00000010: c3d9 1d3d 18b4 333d 3f31 bfbd 54ea 383e
00000020: 59d7 95be ec99 aebb ed96 72be 3cdc 3dbe
00000030: 385a 5bbe 7262 9cbd ea58 a03d 8bfe 943d
00000040: eca2 80be d2ff 3cbe 1b03 a8be 2733 55be
00000050: 4225 343e a86a c8bd e5fc 1f3e 9789 8f3d
00000060: aeb6 9fbd 8a2f 4c3e 6fc2 673e 31bb 563e
00000070: 8dc4 3a3d 4911 1cbe e5fe 2a3e a10c 883e
00000080: 2650 6a3e d8ba 12bd ec06 3ebe e648 6fbd
00000090: 331a 403e 542a a33e f193 933e 67f8 313d
000000a0: 1ee0 81be 9341 4e3e 02f1 36be 6bd1 9cbd
000000b0: ef93 89bd 1599 73bd bf0b b5bd 9a5d 7dbe
000000c0: 8c02 99be f2d1 83be c0b0 403e 0805 423e
000000d0: f093 893d 8b31 80bd 1e16 2abd 39cf 023c
000000e0: 35e5 e43d bc9d 43be 8dd1 42be d221 87bd
000000f0: f6c2 7bbd f180 89be 47eb a4bd 45a7 673e
00000100: f166 4a3e d2a8 8abe 29fd 92be 30bb 7c3e
00000110: 81e2 3e3d d2a5 bb3d a772 643e 0b96 9c3e
00000120: 5c8b 783e f684 7bbe 4f24 943e ebd5 80ba
00000130: 6bcd 41be 0366 423d 3ecc 2ebe 19ee 98be
00000140: 8003 f0bd 0b05 a23d 8402 1dbd 9904 07be
00000150: bd11 ab3e 1428 a73d a4ad 453e c9f6 95be
00000160: 8fae 1cbc fd3b e73d f074 523e 2ffc a73d
00000170: ea2f 4c3e 2cab 75be f4b9 8b3e 9fe9 a1be
00000180: a010 66be 61ea f03d e50d 443d a9c7 e63d
00000190: 8133 8dbe b99c ab3e 5a52 1bbe fd60 823e
000001a0: 1462 173e db3d 1bbe 86c0 34be 3d3b 15bd
000001b0: 113a a33e ead1 8a3e 3f5a 913d 9666 fabd
000001c0: f4de a13e 2a52 393e d8c7 2dbe 3bea 99be
000001d0: 45dd a9be c083 383e 0af8 8d3d 2a02 22be
000001e0: 6fff a4be 5250 173c 6827 773c 7d17 223e
000001f0: bd1e d6bd 05ee 993e 58e1 e2bd 9534 f1bd
00000200: d3cb aabd 4dbc 26be ed3d 82be 9169 62be
00000210: db70 f23d c0d6 95be df58 87be b1b0 a23e
00000220: 4ffb c4bd ab33 52bd 25a0 5dbc e734 e5bd
00000230: 5107 57be d4d6 323b ce7c 0fbe b560 febd
00000240: f789 19be dac5 a8bd 1877 9c3e e260 5bbe
00000250: 99f2 ea3d 859e 72bd 4fe1 9e3e 0b33 48be
00000260: 04d3 8c3d cc90 5fbd bf45 8e3e abe2 e13c
00000270: f5f5 a43e bb54 5b3e 0175 98be 1bbf 45be
00000280: 7dff cbbd 62fe 2c3e 808c 06be c914 f4bc
00000290: 2d1f a73e 923b 8c3e 2182 cebc b888 133e
000002a0: 992d dbbd a695 47bc 9061 8d3e b882 8bbe
000002b0: 25bf 6b3c 9232 aabd 2b09 2fbe 0bff 4dbd
000002c0: 3cb3 553e 901f 7abe e519 b6bc bd31 a13e
000002d0: fe69 23be 2ae0 9bbe cefb 25be 31ff 2cbd
000002e0: ccca 0cbc 03c6 8f3e 0b58 6c3e 9315 643e
000002f0: 8f52 8a3d dc1e 8fbe 78fa 833e bb36 93be
00000300: 15cf 83bd 8d8f 2d3e 9f28 993c d493 763e
00000310: 26ce 253e bb25 7b3d 7763 1dbe ae90 663d
00000320: 18ff ea3d 6a49 30be 6e11 123c 929f 193e
00000330: f191 a03e 7660 19bd 234f 61be 3932 a73e
00000340: abce b4bc 0aab 66be 0665 70bc eec9 d3bd
00000350: 0131 a6be 9ddc a93e 3111 163d 69ae 8d3e
00000360: fa86 a3bd 98af 6f3e 22af 0cbc 5be6 4f3e
00000370: 8990 80be add3 63be cd7c 363e ce51 66be
00000380: c99a 77be d568 5cbe cf6a 82be 09fb 02be
00000390: d949 3cbd 6ecf 933e 8755 a53e e5cb 8fbe
000003a0: 06ea 4c3e 5b4a 0d3d 1902 23bd 0acd 7bbe
000003b0: 31fa 53be f7e3 0fbe 97ae 613c f1d4 aa3d
000003c0: e1eb 4ebe 4c3c 8abe 84f6 d8bd
-0.22757961 -0.035902966 -0.15445042 0.248588 0.038537752 0.043872923 -0.09335565 0.18058139
-0.2926586 -0.0053284075 -0.23690386 -0.18541044 -0.21421134 -0.076359645 0.07829459 0.07275113
-0.251243 -0.18456963 -0.3281487 -0.20820294 0.17592338 -0.09785968 0.15623815 0.07008665
-0.07798515 0.1994001 0.22632764 0.20969845 0.0455976 -0.15240969 0.16698797 0.26572135
0.22882137 -0.03582272 -0.18557328 -0.05841913 0.18759994 0.3186823 0.28823808 0.043449786
-0.253663 0.20142202 -0.17865375 -0.07657131 -0.06717669 -0.059472162 -0.08840131 -0.24742737
-0.29884756 -0.25746113 0.18817425 0.18947232 0.0671767 -0.062594496 -0.041525 0.007983976
0.1117653 -0.1910314 -0.1902525 -0.065982476 -0.061465226 -0.26856187 -0.08052688 0.22622402
0.19765832 -0.27081925 -0.2870877 0.24680781 0.04660273 0.09162487 0.22309361 0.30583224
0.24271911 -0.2456244 0.2893395 -0.0009829378 -0.18926017 0.047460567 -0.170701 -0.29869154
-0.117194176 0.07911118 -0.038332477 -0.13185348 0.3341197 0.08161941 0.1930452 -0.29289845
-0.009563102 0.11290739 0.2055242 0.08202397 0.19940153 -0.23991078 0.27290308 -0.3162355
-0.2246728 0.11763454 0.047864813 0.11268551 -0.27578357 0.33518007 -0.15168133 0.2546462
0.14783508 -0.15160315 -0.17651567 -0.036433447 0.3188024 0.27113277 0.07097291 -0.12226598
0.31615412 0.1809775 -0.16970766 -0.30061516 -0.33176628 0.18019009 0.06932075 -0.15821138
-0.3222613 0.009235458 0.015085079 0.15829273 -0.104550816 0.30064407 -0.11078137 -0.11777607
-0.08339658 -0.16282769 -0.2543787 -0.22110583 0.11837932 -0.29265404 -0.2643499 0.3177543
-0.09618246 -0.051318806 -0.013526951 -0.11191731 -0.20998885 0.0027288692 -0.14012453 -0.12420789
-0.14994036 -0.08240862 0.3055961 -0.21423677 0.11472053 -0.059233207 0.31031272 -0.19550721
0.068761855 -0.05458145 0.27787587 0.027573904 0.322189 0.21419041 -0.29776767 -0.19311182
-0.0996084 0.16893914 -0.13139534 -0.029795067 0.32640973 0.273892 -0.025208535 0.14407623
-0.107020564 -0.012181675 0.27613497 -0.27248168 0.014388834 -0.08310427 -0.17093341 -0.050292056
0.20869154 -0.24426103 -0.022229144 0.3148326 -0.15958402 -0.3044446 -0.16209337 -0.042235557
-0.008593272 0.28080758 0.2308046 0.22273855 0.06754028 -0.2795323 0.2577703 -0.28752694
-0.06435982 0.16949292 0.018696127 0.2407983 0.1619192 0.06131528 -0.15369974 0.05629032
0.114744365 -0.17215505 0.008915288 0.15002277 0.31361344 -0.037445508 -0.22002845 0.32655504
-0.022071203 -0.22526184 -0.014672523 -0.103412494 -0.32459262 0.33176127 0.03663749 0.27672127
-0.07984729 0.23406827 -0.008586677 0.20302717 -0.25110272 -0.22248717 0.17821045 -0.22492144
-0.2418014 -0.21524365 -0.25472113 -0.12791075 -0.045968864 0.28869194 0.32291815 -0.28085247
0.20011148 0.03449474 -0.039796922 -0.24589935 -0.20700909 -0.14051805 0.013774536 0.083413966
-0.20207168 -0.26999128 -0.10593894

bias_ih_l0 f4 [27]
00000000: 80b2 853d 3d21 cb3d 9b5a 56be 54b1 9abe
00000010: d812 9d3e b4eb b9bd c9df 89be e919 ddbd
00000020: 7598 533e caf7 9f3e 642c 963e fccb 5d3e
00000030: debe 873d 75e1 c23c 1d94 ebbd 1b65 9b3d
00000040: 52e3 3bbe eda7 95be db30 d3bb da5c 42be
00000050: 2e16 b0bd ca11 a3be c152 2e3e 8abd d13c
00000060: 39a3 50be 50c5 983e d35c 833e
0.06528187 0.09918449 -0.20933 -0.30213416 0.3067844 -0.0907816 -0.26928547 -0.107959576
0.20663626 0.31243736 0.29330742 0.21659845 0.06628202 0.023789147 -0.1150286 0.07587644
-0.18348435 -0.2922968 -0.006445033 -0.18980733 -0.085979804 -0.3184951 0.17023756 0.025603075
-0.20374765 0.29838037 0.25656757

bias_hh_l0 f4 [27]
00000000: e95a 8fbe c820 4a3d 2fb6 943e 0001 23be
00000010: 6bd7 e13b 9f9e 743e 0c63 6fbe d3f4 0fbe
00000020: d189 d13d 1511 a63e 74c6 2bbe b906 85be
00000030: 8ccf 37bd 545f 42bd fc82 253e 947f 04bd
00000040: 189b 5d3c 6fb2 703d 3df4 d13d e611 95be
00000050: d81a 58be e59d 66be 29b2 0ebe ee81 a13e
00000060: 6004 44be af4a 173e 283a 993e
-0.27999046 0.04934767 0.29045245 -0.1591835 0.006892135 0.23888634 -0.23377627 -0.14058237
0.102313645 0.32434908 -0.16774923 -0.2598169 -0.044875666 -0.047454193 0.16163248 -0.03234823
0.013525747 0.058763918 0.10251663 -0.29115218 -0.2110399 -0.2252117 -0.1393515 0.3154444
-0.19142294 0.14774583 0.29927182

weight f4 [9, 9]
00000000: bf41 2ebd ce99 42be eaf3 6fbe 437c 76be
00000010: fa56 513e b063 22be cf52 a83e c429 92bd
00000020: cde7 103e 92a4 32be b6ea 2a3e 4d3d 663e
00000030: 9c9f 6cbe 0a68 9d3e baa9 003e a062 7dbe
00000040: 5554 11be 19d8 a3be 66b7 ad3d de38 203e
00000050: 5a0b 033e 4ba8 e5bd 5944 133d ee70 92be
00000060: 8b7e a4be 0a06 8d3e f48f a2be fad0 b3bc
00000070: b4e6 00be 4472 0abe 0697 fd3d a619 e3bd
00000080: 9d46 9a3e c5ca c83c b47e edbd abb8 11be
00000090: f095 6ebe 0535 0d3d cfb8 c43c 0031 7f3e
000000a0: b001 d63d 0f91 77be a88d 93be 8011 013e
000000b0: b4e2 6fbe eed1 be3d f3a3 22be 1604 743e
000000c0: fa96 923e 0406 533e 2f64 a33e 18c0 9d3e
000000d0: d4a0 013e a3ac 753e 533d 943d 0588 b83d
000000e0: c680 a03d 7db8 06bd f89c 57be 27f6 b4bd
000000f0: 00e9 47be 63fa c6bc 9abd 823e 98d0 84bd
00000100: 2e00 90bc 4a11 d93d 8eff 9cbe 66d5 863d
00000110: 7525 5b3e 00b8 acbd e83a 853e f5f8 603e
00000120: a2f8 d8bd 75d6 063e 8ee9 f2bd 9475 f83c
00000130: 8da2 27bd 1838 c8bd beda 19be 82ab 2c3e
00000140: 6e8a c5ba
-0.04254317 -0.19003984 -0.2343289 -0.2407084 0.20443335 -0.1585834 0.32875678 -0.071368724
0.14150925 -0.17445591 0.16691098 0.22484322 -0.23107761 0.30743438 0.12564746 -0.24744654
-0.14192326 -0.32000807 0.08482246 0.15646693 0.12797299 -0.1121374 0.035953853 -0.28601784
-0.32127795 0.2754367 -0.31750453 -0.021950234 -0.12588006 -0.13520151 0.12382321 -0.110888764
0.30132 0.02451075 -0.11596432 -0.14230601 -0.23299384 0.03447439 0.024013905 0.24921036
0.104495406 -0.24176429 -0.28819013 0.12604332 -0.23426324 0.09317385 -0.15882854 0.23829684
0.2863081 0.20607764 0.31912372 0.30810618 0.12659007 0.23991637 0.07238259 0.09010319
0.078370616 -0.032890785 -0.21055973 -0.08836012 -0.19522476 -0.024289316 0.2553528 -0.064850986
-0.01757821 0.10599001 -0.30663723 0.06583671 0.21401007 -0.08433533 0.26021504 0.2196997
-0.10594298 0.13167746 -0.11860953 0.030329503 -0.040926505 -0.09776324 -0.1502485 0.168623
-0.0015071162

bias f4 [9]
00000000: 2a8d 503c ad46 6b3e 2f7b 143e 973e acbc
00000010: f1ba a93e afe5 46bd 0ab3 a43e e441 6d3e
00000020: 3020 a73d
0.012728969 0.2297618 0.14500116 -0.021025939 0.33150437 -0.048558887 0.32167846 0.23169667
0.08160436

weight f4 [90, 18]
00000000: 197d 093e 493f 2ebe 5abf 29bd dd7f 643e
00000010: bf99 13be fca3 0dbe f934 6f3e 6cb2 61be
00000020: 2bc0 363c 09fa 62be 041f 8abd 0f56 72bd
00000030: eabd 693d 4747 713d e564 2cbe d30f eabd
00000040: eb88 653e 23a3 3dbe 8b96 043e 0bf8 a03d
00000050: b99e e13d e77c 71be e83c 653c df4d 493a
00000060: 21ae 18be 7ab7 27be e862 fb3d dc0b 4bbe
00000070: 0249 61be 5f6d 04be d557 33bd 4425 3f3d
00000080: 6173 fd3c a4ab 643e 961e 523e 2f4f 87bd
00000090: 0e63 a2bd 4339 403e 4d51 053e ad88 623e
000000a0: 962d 1b3d 6adc 1f3e 5f62 773e 9298 41be
000000b0: f22a cf3d c4b8 39bd dea7 cbbd b7ac 3abe
000000c0: c773 01be 39fd 5bbe 662d 443d e731 403d
000000d0: 645c 553d 3fdc 2f3d 5d96 5f3e d764 3a3e
000000e0: 625e 8fbb d6b6 c73c c2d3 07be b315 3cbc
000000f0: 281c 203e 037b bd3d c656 f7bc f31d 223e
00000100: 6b0b 20be dd89 283e 1cde f43c 5de3 b6bd
00000110: 1455 343e cb37 d93d 475b 44be 624b 533e
00000120: 5e11 1cbd a888 5cbd d5f7 673e 8781 3fbe
00000130: c87b 0d3e 1c40 56be 1a8a 80be 0e54 14be
00000140: fcfd 2b3e c81d f83d 6677 e93d 59d8 383e
00000150: 2000 f7bd 97b7 5cbe 83ce 23be 7b52 4ebc
00000160: b2fd 1abe 1ecf 53be a503 0e3e f3d1 23bd
00000170: 5a88 f5bc be46 dd3d 3aaa 5f3d d3cf 163e
00000180: 25f2 fbbd 6f30 0fbe 7bb4 45be c3e3 a43d
00000190: f804 93bd f323 cbbc 6ff9 11bd a856 2ebe
000001a0: eae1 34be 7d90 ab3c 7b95 063e e073 403e
000001b0: 3684 d33d 2424 013c ffce ce3a adf1 523e
000001c0: 6e08 77be b3f6 3fbe a569 4ebe e06e 81bd
000001d0: 0176 463e ea51 a43d 3295 b73d 7c2e 65be
000001e0: acae 403e fb20 84bd a8b1 2d3e a712 6f3e
000001f0: 7923 773c ddad b33d 4223 7e3e f3aa 7abd
00000200: ccd1 01be cb65 cabd 26bb db3c f0e3 fbbd
00000210: a8e9 59be 0341 f43d d742 08be 5fb8 87bc
00000220: 02ba 453e a2b3 08be dfac 8d3d e050 5c3e
00000230: 07a2 323e 0153 e73d 4a1d 1cbc 268a 843d
00000240: 642f 063e ea6c 0abe f261 23be eebc 62be
00000250: 11c1 5b3d 6b90 8b3d 6b8b 80bd c77b 483e
00000260: f349 d23d 0fae 53be 2d09 023e 15b3 4fbe
00000270: d94f 14bd ec16 36bc da20 1fbe 09f5 043d
00000280: b3b7 22bc b700 183e fc08 bbbd 5825 223e
00000290: 62af 243d 00a2 f43d bf32 47be 48c7 05be
000002a0: b741 abbd dd4d 6c3d 412b 5ebd fda2 133e
000002b0: f7f5 043d 6232 5abe bf8e 42bb a847 08be
000002c0: c88b 89bd fec4 89bc 6c2b 5f3e 4a1c 543d
000002d0: 843f e73d 3f91 643e afea 193e 1743 2bbe
000002e0: 0de4 073e b1ac 353e 5ece 01be 0503 5c3e
000002f0: 1dee 62bd ca77 143e c49a 34be 5a1b 17bd
00000300: fcad f3bc 9601 2abe a330 c3bd c24e 2f3d
00000310: 248c 82bd df1c 3fbd 219e 7c3d aff9 ce3d
00000320: 0af7 503e 8ba1 c7bc 73e9 10be de79 14be
00000330: c701 593e 81c0 623e e3e9 e33c a7ca 47bd
00000340: a2b7 1cbe fb4a f9bc 09a0 953d 8de3 613e
00000350: 1068 1b3e 4fb3 bbbd 5852 81bd 413f c2bd
00000360: 0590 19be 7165 d7bd 6a41 033d 7aa9 bcbd
00000370: e85e 413e a038 2b3d ee35 663e 11ae 76bc
00000380: 7ec8 1cbe 47f7 d63c 13be 073e 435e 013e
00000390: eee2 eebd 1b5b 513e e859 1d3e b180 e0bd
000003a0: 6245 33be 0f26 613e 859a 1fbe e95f 5b3e
000003b0: f605 553d 9d70 063e 9019 44be e5ac d7bd
000003c0: 68f4 08bd b05d 5f3e 6459 8ebd 0b20 63be
000003d0: 79df 98bd 41c1 c1bd dedf b33d 3641 c03c
000003e0: 6afd de3d 20e7 4dbe 2c32 21be 9e9c 1dbc
000003f0: 42a0 62be f737 813b 8563 16be c72c 7ebe
0.13426627 -0.17016329 -0.041442253 0.22314401 -0.14414118 -0.13832086 0.23360051 -0.22040719
0.011154215 -0.22165693 -0.06744197 -0.059164103 0.05706588 0.058905866 -0.16835363 -0.114287995
0.22415511 -0.18519263 0.12948053 0.078598104 0.11016602 -0.23582803 0.013991572 0.0007679145
-0.14910175 -0.16378585 0.12274724 -0.19828743 -0.22000507 -0.12932347 -0.043784935 0.0466664
0.030938806 0.223311 0.2051948 -0.066069 -0.079290494 0.18771844 0.13019295 0.2212245
0.03788527 0.15611425 0.2415862 -0.18905857 0.10115613 -0.04534222 -0.099441275 -0.18229948
-0.12641822 -0.21483316 0.047894858 0.04692259 0.052090064 0.042934652 0.21834703 0.1820253
-0.004375265 0.024379175 -0.13264373 -0.011479783 0.15635741 0.09251978 -0.030192744 0.15831737
-0.15629356 0.1645884 0.029891066 -0.08930085 0.1761058 0.10606345 -0.19175445 0.20634225
-0.0381025 -0.053841263 0.22653134 -0.18701755 0.1381675 -0.20922893 -0.25105363 -0.1448519
0.16796106 0.12115055 0.113997266 0.1805128 -0.12060571 -0.21554409 -0.15996747 -0.012592907
-0.1513584 -0.20684478 0.13868578 -0.039995145 -0.029972244 0.108045086 0.0546057 0.14727716
-0.12302045 -0.1398332 -0.19307129 0.080512546 -0.07178682 -0.024797415 -0.03563827 -0.17025244
-0.17664304 0.02094292 0.1314296 0.18794203 0.103279516 0.007882152 0.0015778242 0.20600004
-0.2412431 -0.18746452 -0.20157488 -0.06319976 0.19380952 0.08023436 0.089640036 -0.22381014
0.18816632 -0.06451603 0.16962302 0.23346959 0.015084141 0.08773396 0.24818137 -0.061198186
-0.12677687 -0.09882697 0.026822638 -0.12299335 -0.21280539 0.119264625 -0.13306747 -0.016567407
0.19309238 -0.13349774 0.06917738 0.21515226 0.17444621 0.112951286 -0.009528467 0.06471662
0.13104016 -0.1351811 -0.15955332 -0.22142383 0.05365092 0.06814655 -0.06276592 0.19578467
0.10268011 -0.20671867 0.12698813 -0.20283158 -0.03620896 -0.011113863 -0.15539876 0.032460246
-0.009931493 0.14844023 -0.09132573 0.15834558 0.04020632 0.119449615 -0.19452952 -0.13064301
-0.083621435 0.057691444 -0.05424047 0.14417644 0.032461133 -0.21308282 -0.0029687134 -0.13308585
-0.06716114 -0.016817566 0.21793908 0.05178479 0.112914115 0.22321032 0.15030931 -0.16724811
0.13270588 0.17741658 -0.12676379 0.21485527 -0.055402864 0.14498821 -0.17637163 -0.03689132
-0.029746048 -0.16602167 -0.09530761 0.04279972 -0.06374386 -0.046658393 0.06167424 0.10106217
0.20406738 -0.024369022 -0.14151554 -0.14499614 0.21192084 0.22143747 0.027821487 -0.04877725
-0.15304425 -0.030431261 0.07305915 0.2205946 0.15176415 -0.0916506 -0.06314534 -0.09484721
-0.14996345 -0.10517395 0.032044806 -0.092120126 0.1888386 0.04180205 0.2248151 -0.015056149
-0.15310857 0.026240958 0.13256101 0.12633614 -0.11664377 0.2044491 0.15366328 -0.10962046
-0.17506936 0.21987174 -0.15586288 0.21423306 0.052007638 0.13128896 -0.19150376 -0.10531024
-0.03343621 0.21813083 -0.06950644 -0.22180192 -0.07464499 -0.094606884 0.08782934 0.023468595
0.10888179 -0.20107698 -0.15741795 -0.00961986 -0.22131446 0.003943439 -0.14686401 -0.24821769
