RTSNet/checkpoints/Linear/full/v0dB/rq2020_T100.pt (torch, 138381 bytes, 68 tensors)

weight_ih_l0 f4 [12, 10]
1.34151925e-08 9.892817e-09 -0.006014074 2.0172802e-06 -0.0007499095 2.3610653e-08 1.9294163e-08 -0.0037310584
0.009200104 -0.01943904 -3.070511e-08 0.00959126 0.00014686704 7.7529885e-18 -0.0065834355 0.012067399
-0.019368129 -0.005949955 0.007440355 0.005002111 -1.9383646e-09 -3.096554e-09 0.000250007 -0.015471744
-4.193043e-05 -4.3361976e-09 0.005540197 -1.08529484e-10 0.00041782492 -6.303023e-08 -0.0009978036 2.6254784e-07
0.0018267632 -5.6721615e-19 -1.1867951e-20 0.012288271 -7.5292e-09 -1.3153689e-10 -2.357104e-09 -3.461793e-05
-0.0001896938 0.010814464 -8.815266e-08 -0.0063914894 -1.2580614e-06 0.009394477 0.0034844112 0.0136897955
-2.8975027e-09 3.193775e-06 -2.3326416e-05 -0.00031349092 0.0008592731 5.1548483e-05 -6.346807e-05 -3.4881134e-09
6.929814e-10 -9.275397e-06 2.0464783e-07 -5.7541603e-23 3.2176564e-10 -0.0147198895 -5.5402257e-08 -6.6948414e-06
1.881602e-19 -0.017509691 -0.004432176 -0.0074418806 -1.2545764e-11 3.8410922e-22 0.015154389 0.00092499214
9.447153e-09 -3.0676074e-23 1.5536158e-21 0.00053144473 -0.00016132845 -0.0021897017 2.1124291e-10 -0.00032464636
-1.6361528e-05 -2.267331e-05 0.0360524 0.005887331 -7.478399e-23 -0.008179836 -0.013860111 -4.7400437e-07
0.0014042261 -4.8163074e-08 -1.8120576e-06 -4.0189525e-06 0.06766925 4.07553e-13 -0.0024086272 -6.468066e-05
0.00017462918 0.00041807097 -0.0051445602 -3.8706358e-21 0.0029991202 -0.0041513247 0.043196164 0.0014620621
3.1257633e-22 -0.020775795 0.014695913 -1.04736055e-05 0.0001904266 -1.9112001e-23 1.1164935e-06 0.00014365229
-0.013882466 -0.0048996923 -3.770611e-06 0.003502851 0.00012422832 3.3005396e-08 9.934665e-05 0.0066042533
00000000: a478 6632 12f5 2932 b611 c5bb 9c60 0736
00000010: 9395 44ba 60d0 ca32 50bc a532 c684 74bb
00000020: 08bc 163c 9f3e 9fbc a0e0 03b3 a924 1d3c
00000030: 5200 1a39 7404 0f23 dcb9 d7bb 57b6 453c
00000040: e9a9 9ebc d7f7 c2bb 39ce f33b c0e8 a33b
00000050: 1234 05b1 27cb 54b1 5f13 8339 337d 7dbc
00000060: 75de 2fb8 99fd 94b1 8a8a b53b aba8 eeae
00000070: 830f db39 3c5b 87b3 bcc8 82ba 4df4 8c34
00000080: 0070 ef3a a469 27a1 e42d 609e bf54 493c
00000090: c659 01b2 58a0 10af 9dfa 21b1 b832 11b8
000000a0: 8be8 46b9 262f 313c 704e bdb3 b36f d1bb
000000b0: a9da a8b5 4beb 193c b85a 643b 2a4b 603c
000000c0: 681d 47b1 a354 5636 19ad c3b7 0a5c a4b9
000000d0: d740 613a c335 5838 291a 85b8 8ab3 6fb1
000000e0: 3b7c 3e30 879d 1bb7 2bbd 5b34 8720 8b9a
000000f0: 7de4 b02f b12b 71bc 6df3 6db3 40a4 e0b6
00000100: ee23 5e20 7c70 8fbc c93b 91bb 05db f3bb
00000110: 19b5 5cad 062e e81b 1d4a 783c 2c7b 723a
00000120: 054d 2232 2457 149a 9ac6 ea1c a750 0b3a
00000130: 472a 29b9 1981 0fbb 9843 682f 4c35 aab9
00000140: 1d40 89b7 9032 beb7 aeab 133d 83ea c03b
00000150: 0cd1 b49a b804 06bc 8515 63bc aa7a feb4
00000160: 020e b83a dcdb 4eb3 d335 f3b5 8ada 86b6
00000170: 2d96 8a3d 946e e52a 0fda 1dbb 2aa5 87b8
00000180: aa1c 3739 8930 db39 b393 a8bb 7e3a 929d
00000190: e38c 443b d607 88bb 76ee 303d aaa2 bf3a
000001a0: d8f0 bc1b 0032 aabc 20c7 703c cbb7 2fb7
000001b0: 40ad 4739 06d7 b899 6dda 9535 5ea1 1639
000001c0: 4873 63bc 998d a0bb 9b0a 7db6 1690 653b
000001d0: 4943 0239 d1c1 0d33 5458 d038 7e68 d83b

weight_hh_l0 f4 [12, 4]
0.0013114596 -1.0670542e-08 1.5175766e-08 0.013946568 -4.1551968e-05 -2.2235848e-07 0.004084116 -1.0957232e-07
-0.0015705389 -1.6082158e-08 -2.5871154e-09 -9.121085e-09 -0.008605092 0.0069215097 -4.5319064e-09 -1.7590358e-08
0.0040970384 -1.9124522e-08 0.0011612743 -3.975526e-07 4.008964e-08 1.7516261e-09 6.585817e-11 4.2229804e-08
1.5345499e-07 1.0923152e-10 -5.7203935e-05 0.00037985083 7.183508e-08 0.00068428373 -0.002456217 8.454222e-08
2.6774123e-05 -0.005969434 -0.027221654 -2.9520672e-05 9.381888e-05 0.011564364 -1.20313e-06 3.1640477e-05
-1.0664831e-05 -0.018399706 3.417864e-06 2.6178504e-05 0.00334747 -0.011374041 -0.00044907196 2.1284206e-06
00000000: 48e5 ab3a 8a51 37b2 dd5b 8232 2580 643c
00000010: 1648 2eb8 6fc1 6eb4 0cd4 853b 054e ebb3
00000020: 8ada cdba 0a25 8ab2 04c9 31b1 f5b2 1cb2
00000030: 5ffc 0cbc d5cd e23b 12b7 9bb1 9b19 97b2
00000040: 7340 863b 4547 a4b2 e635 983a 376f d5b4
00000050: 062f 2c33 ddbd f030 dbd2 902e 2960 3533
00000060: 63c5 2434 e133 f02e 42ee 6fb8 b726 c739
00000070: c143 9a33 8161 333a 7cf8 20bb 948d b533
00000080: fe98 e037 3e9b c3bb f2ff debc 29a3 f7b7
00000090: a1c0 c438 7578 3d3c 3b7b a1b5 b4b5 0438
000000a0: 1aed 32b7 fbba 96bc 755e 6536 e999 db37
000000b0: 3a61 5b3b 305a 3abc 6b71 ebb9 fdd5 0e36

bias_ih_l0 f4 [12]
1.3349189e-06 -0.010731263 -3.915039e-06 -3.2564378e-07 -0.006052229 4.5249115e-05 0.004991677 5.3857915e-05
-0.055838548 0.074609004 0.008798957 0.06376425
00000000: 772b b335 2ed2 2fbc ee5d 83b6 24d4 aeb4
00000010: c751 c6bb dec9 3d38 3991 a33b 7fe5 6138
00000020: f6b6 64bd 9bcc 983d 8029 103c d596 823d

bias_hh_l0 f4 [12]
8.6802567e-07 -0.0021633662 2.8625825e-06 0.0019270645 0.00024875827 3.6166675e-08 0.010125877 0.0014107962
-0.0016365307 0.02123623 4.942158e-05 -0.011173258
00000000: 4502 6935 43c7 0dbb cb1a 4036 8e95 fc3a
00000010: c56b 8239 ae55 1b33 02e7 253c 77ea b83a
00000020: dc80 d6ba 9af7 ad3c 044a 4f38 0a10 37bc

weight_ih_l0 f4 [12, 14]
-2.4914401e-05 1.4150453e-05 1.593733e-06 5.0042923e-05 2.1966932e-06 1.4557208e-06 4.0014433e-23 -8.685463e-05
1.1189572e-06 3.2028262e-07 0.002171428 -7.9719755e-16 5.742616e-06 6.113011e-07 -0.003526283 0.012962263
0.016468804 0.002787781 -2.3908278e-06 0.0065828855 0.00022287997 0.0092220865 -7.670767e-07 -1.6202229e-07
-0.00043174467 -8.961826e-10 -0.005841629 -6.191988e-07 0.013405398 3.6738016e-05 4.5288116e-06 0.0008437112
1.5663016e-05 4.6863726e-05 -2.9558327e-05 3.627453e-05 3.1855309e-06 6.429807e-07 3.6016616e-05 -0.00083573663
-0.013508741 2.1441663e-06 -0.003771286 4.7037673e-07 7.580304e-08 -0.016047709 1.6412226e-07 -0.0007646845
0.0063271625 7.0800553e-07 2.2348615e-05 1.1937162e-08 5.948057e-07 5.0435513e-13 3.125139e-07 4.2497774e-08
0.0043733916 -2.1005217e-05 -2.127633e-06 -7.477597e-06 5.5150802e-05 -1.6006228e-06 -6.2519956e-07 1.3494274e-05
-0.0009033894 -3.118699e-07 -0.0022556095 -2.6873373e-22 3.944036e-06 0.0039629065 0.0073227445 -0.00017931274
1.785632e-05 -1.4326102e-05 -1.414565e-05 -0.000113296024 2.2235203e-05 0.001073245 -0.019480903 -5.214166e-07
-0.00076207815 -0.017654968 -4.6655554e-05 5.9644844e-05 -0.0063164025 -0.037481964 0.032824654 -0.00013819894
-0.04353926 0.030346425 -7.693424e-05 -0.03444724 -0.012822725 0.008904654 0.020668218 -7.0175047e-14
-0.02026651 -2.0202408e-05 0.0011322151 7.2105827e-06 1.203877e-06 0.005357449 0.000494932 1.2225553e-06
-0.013328217 9.16759e-06 1.2083833e-06 1.5805007e-07 1.0311137e-05 7.4612005e-09 0.0031991003 0.01500532
-0.013507439 0.0021495544 0.00026583544 0.00080929796 0.0005566077 0.0001982665 3.7682593e-18 0.0024579957
0.00014476525 0.0009196476 0.008129069 4.3231147e-08 0.015992254 0.010885544 0.10456627 0.12054968
-0.023303963 -0.0014089707 0.02933077 0.04097796 -0.0014522043 -0.018919038 0.003194713 0.0047572907
-0.1571975 0.0024475844 0.067891344 -6.0407114e-05 0.0022637546 -0.008471291 -0.005155049 -0.0021571869
-0.0021134138 -0.010348004 1.618963e-05 -0.044887155 -0.0006470479 -0.00010157167 -0.01714313 -0.0010810439
-0.0028610996 -0.006419926 -0.00016747968 0.0005683574 0.0025520516 -0.002517092 -9.709868e-05 0.0025009855
-4.5672528e-23 0.0072962916 5.901356e-05 1.4469479e-05 -0.0022542751 3.905798e-23 -0.016716853 0.0016936904
00000000: 45ff d0b7 bc67 6d37 40e8 d535 2ee5 5138
00000010: e76a 1336 3062 c335 787f 411a b925 b6b8
00000020: 142f 9635 4ff3 ab34 844e 0e3b ccc6 65a6
00000030: b2b0 c036 4b18 2435 3619 67bb ac5f 543c
00000040: 96e9 863c 34b3 363b 1c72 20b6 3fb5 d73b
00000050: e3b4 6939 3c18 173c 1ce9 4db5 59f8 2db4
00000060: ca5b e2b9 3e57 76b0 236b bfbb 0437 26b5
00000070: 50a2 5b3c 2517 1a38 32f6 9736 802c 5d3a
00000080: 1264 8337 8b8f 4438 06f4 f7b7 7b25 1838
00000090: 01c7 5536 4c99 2c35 8c10 1738 5615 5bba
000000a0: c453 5dbc 7fe4 0f36 ae27 77bb 1688 fc34
000000b0: 29c9 a233 7c76 83bc 9539 3034 1c75 48ba
000000c0: 1654 cf3b c50d 3e35 4979 bb37 3214 4d32
000000d0: bdaa 1f35 9ef6 0d2b 95c7 a734 cc86 3633
000000e0: ab4e 8f3b 5c34 b0b7 75c8 0eb6 12e8 fab6
000000f0: b951 6738 fbd4 d6b5 63d3 27b5 7765 6237
00000100: 70d1 6cba 136f a7b4 d9d2 13bb 8870 a29b
00000110: 0357 8436 45db 813b a2f3 ef3b e605 3cb9
00000120: 28ca 9537 245a 70b7 1b53 6db7 5799 edb8
00000130: bc85 ba37 20ac 8c3a 6a96 9fbc 7af7 0bb5
00000140: 33c6 47ba 27a1 90bc 05b0 43b8 2a2b 7a38
00000150: d3f9 cebb b086 19bd 2573 063d 7fe9 10b9
00000160: 3956 32bd 1199 f83c c157 a1b8 8d18 0dbd
00000170: 6816 52bc d3e4 113c 6550 a93c 2905 9ea9
00000180: f405 a6bc 5778 a9b7 d666 943a 6ff2 f136
00000190: e694 a135 8a8d af3b 53be 013a ae16 a435
000001a0: 985e 5abc 80ce 1937 bc2f a235 79b4 2934
000001b0: fffd 2c37 b52e 0032 ffa7 513b e0d8 753c
000001c0: 4e4e 5dbc 8adf 0c3b d45f 8b39 1127 543a
000001d0: 4fe9 113a c2e5 4f39 3406 8b22 5316 213b
000001e0: 20cc 1739 8114 713a c92f 053c 26ad 3933
000001f0: 3002 833c 4859 323c d726 d63d c0e2 f63d
00000200: f4e7 bebc 36ad b8ba 1547 f03c 81d8 273d
00000210: e457 beba 19fc 9abc 645e 513b 0ce3 9b3b
00000220: 62f8 20be a767 203b 9e0a 8b3d a55d 7db8
00000230: 805b 143b 2bcb 0abc afeb a8bb 975f 0dbb
00000240: 3381 0abb ad8a 29bc f7ce 8737 98db 37bd
00000250: a69e 29ba e002 d5b8 c06f 8cbc d0b1 8dba
00000260: 4981 3bbb 3e5e d2bb 7c9d 2fb9 d2fd 143a
00000270: 5240 273b ccf5 24bb 75a1 cbb8 93e7 233b
00000280: dadb 5c9a bb15 ef3b 5485 7738 f0c1 7237
00000290: 76bc 13bb 70df 3c1a c8f1 88bc d2fe dd3a

weight_hh_l0 f4 [12, 4]
1.3769654e-06 -0.00021181648 3.282203e-11 5.926407e-06 -0.008168267 1.5923811e-21 5.554406e-05 -2.5828083e-06
0.00016728941 1.676732e-08 0.016153576 8.871278e-05 -0.00049161236 -6.449937e-06 -5.158615e-09 2.1389037e-07
-0.006261083 1.2308753e-10 -3.332856e-11 -5.5660207e-06 -3.9616316e-06 -9.312993e-08 -1.6258586e-11 -1.56098e-05
-2.7827258e-05 4.27014e-14 2.2874922e-06 0.0006233954 9.045858e-07 -3.5942504e-21 0.00026739956 0.011999496
7.524184e-05 -0.016541643 0.00703521 0.0002520344 -4.108233e-05 -0.029646635 -0.006949572 -0.097013466
-0.000359038 0.020720502 0.0020052511 0.007274905 2.754759e-05 -0.009822935 -0.00278884 0.0011996235
00000000: 2cd0 b835 0e1b 5eb9 525a 102e 73db c636
00000010: 32d4 05bc 43a2 f01c fbf7 6838 4f54 2db6
00000020: 696a 2f39 ba07 9032 8154 843c 500b ba38
00000030: 8cdf 00ba 896c d8b6 a83f b1b1 bda9 6534
00000040: c529 cdbb 0f56 072f 9f94 12ae c1c3 bab6
00000050: 28ee 84b6 b8fe c7b3 1503 8fad caf1 82b7
00000060: 956e e9b7 5d4f 4029 d182 1936 5b6b 233a
00000070: aad2 7235 75c9 879d c331 8c39 8999 443c
00000080: 28cb 9d38 5782 87bc 9e87 e63b 7c23 8439
00000090: d14f 2cb8 80dd f2bc 3cb9 e3bb ffae c6bd
000000a0: 443d bcb9 0bbe a93c 886a 033b 5462 ee3b
000000b0: 0016 e737 60f0 20bc f9c4 36bb af3c 9d3a

bias_ih_l0 f4 [12]
0.0056497343 -0.00013838036 0.010480927 -0.0006235728 -0.0001543185 -0.020174157 0.040831484 8.264887e-05
0.013919944 -0.084265396 -0.08985745 0.004989684
00000000: 6821 b93b 321a 11b9 32b8 2b3c 4377 23ba
00000010: 8fd0 21b9 4644 a5bc ea3e 273d c653 ad38
00000020: 7a10 643c 5693 acbd 2f07 b8bd 8180 a33b

bias_hh_l0 f4 [12]
0.00012406557 0.00017511741 0.0047700554 -0.021080436 -0.01688762 -0.015227179 -0.0141314315 7.638435e-05
0.02831595 0.041262053 -0.029017128 0.003768445
00000000: 9917 0239 b99f 3739 204e 9c3b e1b0 acbc
00000010: e857 8abc 6b7b 79bc 8587 67bc 8930 a038
00000020: daf6 e73c 6602 293d 54b5 edbc 04f8 763b

weight_ih_l0 f4 [12, 24]
-3.7980473e-05 -0.013283726 0.0058855265 5.036644e-06 0.0007380316 0.00011354401 -0.0020347184 -2.02943e-07
-3.9933143e-06 -6.543184e-05 -1.4629572e-07 0.019921966 -2.3664708e-05 -3.693431e-06 0.00032786015 0.007525239
-7.2440903e-06 5.7950604e-07 3.583609e-16 -2.8707464e-05 7.656428e-24 -1.3441881e-06 -0.00023876033 0.0021187763
0.0058739535 0.00018109988 -3.4561043e-18 1.2108472e-09 0.0008760358 2.3143919e-05 -0.000112725786 -0.0012521297
1.6036134e-05 4.641938e-05 -0.0020048684 0.0001255583 0.00012910787 1.1128442e-05 0.00021368061 0.009435659
-0.0047616777 0.0030175748 6.753536e-16 8.278432e-05 -2.8260774e-07 1.0004965e-05 7.0031992e-06 3.1163331e-06
0.0015516026 0.0019818307 0.014218535 -5.070272e-06 6.031491e-06 0.0040224353 0.00033516233 1.009265e-05
0.0002229795 0.000741588 -0.004135943 0.0016427808 0.0155598 0.00015057228 3.6494872e-16 0.00010133751
0.002797233 9.777957e-06 -0.007480661 0.0013443517 -8.334889e-23 0.000102079706 -0.014697051 4.7866964e-05
-0.00018894867 -0.00020838217 -0.0005407167 7.600224e-15 -6.3135576e-07 8.417836e-05 -0.00061608024 0.015913283
0.001958036 -0.0010964924 -1.0710579e-06 -0.009786823 0.0001554148 -0.0007455909 1.9453004e-16 -1.05602985e-05
-3.9392038e-05 -0.0006302313 0.0011685516 -0.00013203941 0.006941977 -8.836772e-06 -6.0371684e-05 -5.180481e-06
1.2658214e-06 1.5491102e-06 -1.3020755e-17 0.00072882895 -2.9602337e-08 0.009371241 1.3576641e-07 1.871872e-08
-2.3253153e-05 2.1264484e-06 -0.0031253037 2.2351724e-06 0.0008163287 0.0015016455 0.0005463197 -0.00046155768
7.939118e-06 0.004312062 -3.8567594e-22 0.0046157786 -7.137257e-23 5.968984e-08 -0.013412197 3.4867426e-08
-0.0035725692 -0.010995445 -3.7466966e-06 -0.0002970775 -0.005662841 6.8330245e-08 0.00392516 0.002624593
-5.518522e-08 -7.892675e-07 -0.00010427439 -6.494334e-07 -1.293516e-06 -7.2100614e-05 -6.65557e-16 -0.0038447606
8.23394e-08 0.0030018792 -0.008136078 -5.1382557e-07 0.00086269836 -1.0404565e-06 -0.0012731043 0.0007179351
-1.8306451e-05 -0.0007698199 0.0032358437 -0.00046877135 -1.8799544e-07 0.004048643 -0.0012289904 0.0002785524
-5.570893e-06 3.603923e-07 -7.6504946e-08 -1.0903213e-05 -0.0145731475 -3.1966183e-06 -0.014048383 -0.01017056
-6.2387303e-06 0.0015812985 -4.0892616e-08 1.7604678e-05 4.322963e-21 -0.0015294671 -0.008081117 -0.00015486112
-2.1948628e-05 0.009669159 0.014974582 -2.1780685e-23 -3.8196944e-07 -4.00401e-07 0.002936698 3.4688185e-08
-1.0384554e-06 -1.1224507e-05 0.014566996 0.0056416728 2.0256534e-06 3.9287815e-07 -1.8464117e-07 0.0005232758
4.0198103e-07 0.0013246441 3.8348748e-22 -1.9248502e-05 0.0123167 0.003683215 -0.0036775365 -0.0074123684
0.0038871032 0.028727485 -0.012730373 0.014884625 1.6118393e-05 -0.0018999336 0.0017101223 2.3748446e-05
0.0005334441 0.00046788924 2.6546908e-05 -0.0068970635 0.035672564 0.0022619104 0.00997655 0.0020102956
-0.007464802 0.002930623 0.0045979205 0.010663342 -3.6329071e-12 0.0002507956 0.011299045 0.041750107
-0.021049095 -0.011928289 -4.1627027e-06 2.3241778e-18 -5.1875522e-05 -0.0042421627 -0.002656175 -5.3990057e-05
-0.0013116943 -0.022345 -0.00013540588 -0.023056505 -0.010607652 0.0014202134 -4.1718826e-14 -0.003565896
0.012244933 -5.1663526e-05 0.0043838676 -0.007891245 -1.142877e-22 -0.0005081879 -0.00054481876 -0.00043140305
0.06902592 0.016799057 -0.011366325 -1.095347e-19 0.00029202856 -0.003969646 0.022266885 -0.0012362051
0.029489659 -0.096193835 0.00031872958 0.17907313 0.009413699 0.012765015 -5.8336473e-09 0.015120311
00000000: 394d 1fb8 fca3 59bc 60db c03b 7100 a936
00000010: 7678 413a 7a1e ee38 e958 05bb 8ce8 59b4
00000020: 4ffe 85b6 7438 89b8 7615 1db4 6433 a33c
00000030: 9383 c6b7 a9dc 77b6 a5e4 ab39 4896 f63b
00000040: 4312 f3b6 5a8f 1b35 bc94 ce25 cfd0 f0b7
00000050: cc18 1419 f469 b4b5 bd5b 7ab9 2bdb 0a3b
00000060: 4b7a c03b a1e5 3d39 f703 7fa2 e66a a630
00000070: c4a5 653a 3025 c237 3267 ecb8 801e a4ba
00000080: 5685 8637 6eb2 4238 1c64 03bb 4da8 0339
00000090: 2161 0739 4bb4 3a37 740f 6039 0698 1a3c
000000a0: d907 9cbb 81c2 453b 4da8 4226 7e9c ad38
000000b0: 50b9 97b4 ffda 2737 06fd ea36 3222 5136
000000c0: 255f cb3a 9ae1 013b dcf4 683c 4e21 aab6
000000d0: 1d62 ca36 a2ce 833b bab8 af39 9a53 2937
000000e0: 9bcf 6939 2167 423a ce86 87bb 9452 d73a
000000f0: 88ee 7e3c f0e2 1d39 ed60 d225 2985 d438
00000100: c851 373b 010c 2437 5520 f5bb f534 b03a
00000110: 7786 c99a a013 d638 e6cb 70bc c3c4 4838
00000120: 8620 46b9 2a81 5ab9 e2be 0dba d9e9 0828
00000130: 707a 29b5 ea88 b038 7280 21ba 935c 823c
00000140: 6552 003b 2eb8 8fba 45c1 8fb5 e958 20bc
00000150: d8f6 2239 c273 43ba 2247 6025 232c 31b7
00000160: e138 25b8 1b36 25ba 162a 993a 0f74 0ab9
00000170: 8679 e33b a641 14b7 9a37 7db8 fed3 adb6
00000180: 4be5 a935 05eb cf35 c730 70a3 e20e 3f3a
00000190: 3a48 feb2 d589 193c 30c7 1134 e7ca a032
000001a0: c40f c3b7 1bb4 0e36 e5d1 4cbb f8ff 1536
000001b0: e4fe 553a ddd2 c43a e536 0f3a 39fd f1b9
000001c0: 4132 0537 334c 8d3b 7620 e99b f53f 973b
000001d0: 7b91 ac9a d62e 8033 d5be 5bbc 24c1 1533
000001e0: c421 6abb 3d26 34bc c26f 7bb6 11c1 9bb9
000001f0: 5a8f b9bb f3bc 9233 a19e 803b 5d01 2c3b
00000200: cb04 6db3 0dde 53b5 e3ad dab8 b954 2eb5
00000210: df9c adb5 b934 97b8 70d5 3fa6 61f8 7bbb
00000220: 90d2 b033 2dbb 443b 2f4d 05bc d3ed 09b5
00000230: b526 623a d0a5 8bb5 4bde a6ba cf33 3c3a
00000240: ce90 99b7 bdcd 49ba 7310 543b 6dc5 f5b9
00000250: cbdb 49b4 7baa 843b 1316 a1ba ac0a 9239
00000260: 9bed bab6 f17b c134 0a4b a4b3 f1ec 36b7
00000270: 36c4 6ebc 7c85 56b6 302b 66bc 6ca2 26bc
00000280: 4956 d1b6 9343 cf3a e8a1 2fb3 c2ad 9337
00000290: 2251 a31d 6678 c8ba a966 04bc 3762 22b9
000002a0: 521e b8b7 646b 1e3c f357 753c 5da6 d299
000002b0: 7b11 cdb4 b2f6 d6b4 9e75 403b 10fc 1433
000002c0: 0e61 8bb5 e450 3cb7 69aa 6e3c c8dd b83b
000002d0: 76f0 0736 c3ec d234 c741 46b4 722c 093a
000002e0: dacf d734 ae9f ad3a d0cd e71b d877 a1b7
000002f0: fccb 493c 1862 713b d302 71bb 74e3 f2bb
00000300: c5be 7e3b e755 eb3c 0e93 50bc a4de 733c
00000310: fc35 8737 3107 f9ba 2f26 e03a 6637 c737
00000320: d4d6 0b3a 084f f539 0db1 de37 c300 e2bb
00000330: 651d 123d 8f3c 143b af74 233c 2abf 033b
00000340: 4c9b f4bb b20f 403b 27aa 963b 4cb5 2e3c
00000350: a3a4 7fac 377d 8339 a11f 393c 2902 2b3d
00000360: 276f acbc df6e 43bc 58ad 8bb6 7a7e 2b22
00000370: eb94 59b8 d701 8bbb 3913 2ebb 6273 62b8
00000380: 28ed abba dd0c b7bc bdfb 0db9 ffe0 bcbc
00000390: b8cb 2dbc 7426 ba3a 88e2 3ba9 cfb1 69bb
000003a0: f99e 483c 4ab1 58b8 8ca6 8f3b 484a 01bc
000003b0: 542a 0a9b ea37 05ba 2bd2 0eba f02d e2b9
000003c0: 765d 8d3d 2d9e 893c d339 3abc d550 01a0
000003d0: 691b 9939 ce13 82bb 0b69 b63c 2908 a2ba
000003e0: 4c94 f13c 4601 c5bd 291b a739 f25e 373e
000003f0: ea3b 1a3c 5a24 513c 4e71 c8b1 2ebb 773c

weight_hh_l0 f4 [12, 4]
-0.0006108729 2.8415561e-05 -8.896882e-05 4.3891425e-05 3.0821193e-05 0.009437546 0.00033367018 -0.0054870467
0.00039864297 -0.0010347808 0.0036325478 -0.00542309 -0.00059077493 -0.022690734 -0.00053015054 0.00023763598
4.0238897e-06 0.00079525664 -5.6938858e-05 0.004224606 -8.729145e-07 0.0029099393 -8.123025e-07 1.9303558e-05
2.762429e-05 1.6206953e-06 9.3543145e-05 -4.650769e-05 -4.7703445e-05 -7.600272e-07 -9.24823e-06 -0.00018057441
0.00047714653 0.0028206815 0.004285653 -0.0027016755 -0.001344749 0.000656672 -0.016095359 0.006975634
0.004810668 0.19406629 0.038481243 -0.05403346 0.0005725907 0.055185072 -0.00863509 0.028246991
00000000: fd22 20ba f45d ee37 c694 bab8 0f18 3838
00000010: 0146 0138 f09f 1a3c 74f0 ae39 afcc b3bb
00000020: f400 d139 7ba1 87ba 0a10 6e3b 2db4 b1bb
00000030: 3cde 1aba ebe1 b9bc cdf9 0aba ec2d 7939
00000040: f304 8736 c578 503a a2d1 6eb8 906e 8a3b
00000050: 3a52 6ab5 aeb4 3e3b 010d 5ab5 13ee a137
00000060: b6ba e737 ab86 d935 982c c438 4011 43b8
00000070: 2f15 48b8 ac04 4cb5 d828 1bb7 9358 3db9
00000080: 8629 fa39 2fdb 383b aa6e 8c3b 980e 31bb
00000090: 4a42 b0ba 8324 2c3a 6ada 83bc dc93 e43b
000000a0: cfa2 9d3b 50b9 463e 829e 1d3d 3052 5dbd
000000b0: e919 163a be09 623d 317a 0dbc 3c66 e73c

bias_ih_l0 f4 [12]
-0.00020014244 0.0019267302 0.008737027 -0.0010868375 5.993949e-05 -3.7370876e-06 -4.9957067e-05 -8.4785475e-05
0.04386479 -0.059304487 0.32580563 -0.19868377
00000000: 54dd 51b9 568a fc3a bf25 0f3c 3774 8eba
00000010: 8a67 7b38 adca 7ab6 fe88 51b8 dbce b1b8
00000020: 91ab 333d 43e9 72bd ffcf a63e c273 4bbe

bias_hh_l0 f4 [12]
-0.0002071554 -0.0037576752 0.009003826 -0.001217318 1.2742022e-05 -9.152636e-06 -0.00079643633 -9.3792514e-05
-0.031374585 -0.044847313 0.1933582 0.03933354
00000000: db37 59b9 5443 76bb c984 133c 6a8e 9fba
00000010: 91c6 5537 468e 19b7 f0c7 50ba 79b2 c4b8
00000020: a382 00bd d1b1 37bd b1ff 453e 351c 213d

weight f4 [4, 4]
-0.10405081 -0.0011415726 -0.10791918 -0.030490907 0.061081517 -0.0009242011 0.020976674 0.00877433
0.0076707364 0.00013505976 -0.0014504619 0.0109685995 4.8087374e-09 -3.2408223e-14 0.0006161712 -1.8002161e-06
00000000: 9718 d5bd d2a0 95ba bb04 ddbd 11c8 f9bc
00000010: 9d30 7a3d 1646 72ba 46d7 ab3c 35c2 0f3c
00000020: cd5a fb3b d49e 0d39 6d1d beba a4b5 333c
00000030: 1a3a a531 23f4 11a9 8d86 213a f49e f1b5

bias f4 [4]
0.1638727 0.21082291 -0.0066526774 -2.4943236e-05
00000000: 3fce 273e f6e1 573e b4fe d9bb 313d d1b7

weight f4 [320, 8]
2.8635444e-05 -5.1423893e-05 -7.4388794e-05 2.8863067e-05 5.9204503e-05 -0.00013623088 0.0009793682 0.00055298983
0.000373529 -0.0012617762 -0.0020228627 0.00074279256 0.0013864225 -0.012297501 0.013234406 -0.0081248665
0.00041444902 -0.0007612443 -0.0011870929 0.00035005307 0.0009155643 -0.0019557856 0.0075563695 -0.0046492587
0.06501273 0.042176228 0.06633317 0.002347069 0.086550936 0.03662374 0.041747328 -0.043792587
-0.00018304924 -2.4687811e-18 0.0008874431 -0.0004013371 3.5446257e-05 1.0880664e-05 1.8580485e-25 9.688988e-23
0.0086393915 0.001308177 0.0020302658 0.0040644533 0.0041448683 -0.0059440527 0.0010458127 -0.0015744889
0.007331781 -0.014007877 -0.0076404805 -0.00012303302 -0.007905297 -0.05157068 -0.00021220218 -0.013155846
-0.00022205061 -0.00030624893 -0.0064249244 -0.002923469 0.016317338 0.03752022 0.003459102 -0.014690966
0.00036616053 -0.000957999 0.0017292931 0.0006582024 0.0013688381 -0.013161314 0.011498728 -0.0068256166
0.006290044 -0.0030264761 0.033772625 0.0102918185 0.031150194 0.009511312 0.020108735 0.010407905
0.0011365166 -0.0017227968 -0.0028322556 0.00050344435 0.0019599844 -0.0050066025 0.018888725 -0.013115538
5.138616e-13 0.0011875795 -6.3863593e-12 -9.43106e-07 4.597161e-11 -5.645696e-12 -1.8095173e-08 9.954694e-05
0.00046534344 -0.00066464493 0.0030719691 0.0024448263 0.0008337491 -0.008368226 0.007732331 -0.004790056
-0.0027088623 -0.002376853 -0.0064537204 0.0034665617 -0.016053116 -0.014381875 0.018573524 -0.02351945
0.0018645412 -0.0010071392 -0.0019153352 0.002017668 0.0048664045 0.010516221 0.012191516 -0.0069943587
0.00021629017 -0.0012227586 -0.0019715216 0.00075247727 0.0015287158 -0.0035080207 0.013679046 -0.008483708
3.605152e-24 2.1166799e-20 5.992633e-17 1.3352516e-07 -0.0004565961 -6.736475e-23 1.7383274e-23 1.3126021e-23
-4.1316426e-23 -2.1564712e-18 1.05866985e-20 -1.1214336e-14 1.607615e-11 -1.1343997e-14 -0.00012811089 -1.7660774e-06
1.9305711e-05 -2.98384e-05 -3.9015285e-05 1.4566998e-05 2.8123368e-05 -7.43722e-05 0.0004107263 -0.00027196962
0.0004616829 -0.0007648438 -0.0012712623 0.0004596132 0.0009860428 -0.0025268958 0.009192286 -0.0053203716
5.0337552e-05 -3.436653e-06 -0.0036927885 7.5303947e-06 0.00010492589 0.0016506558 0.001156917 -9.576049e-07
3.1023494e-05 -1.906558e-21 0.00031007951 -4.107252e-23 1.24853666e-17 -2.7386338e-06 -0.000147143 1.8515139e-11
0.0062894933 -0.0017268731 -0.0052146157 0.0011375855 0.0022432394 -0.021684304 0.018715432 -0.011665898
0.001134837 -1.12001564e-23 1.0518539e-11 7.872201e-05 4.231874e-06 2.463412e-22 5.1311855e-22 -0.00028176536
-0.00045941307 -0.00012789246 -0.0003334497 6.9472066e-05 0.00012615007 -0.00028117796 0.0011219177 -0.000689728
0.00052321394 -0.0025158678 -0.0018491202 0.00049806124 0.00095400534 -0.00519198 0.009016411 -0.005590198
-1.3801671e-10 -5.242612e-05 6.406958e-05 -4.4988018e-23 -4.1903726e-23 4.8059675e-15 3.405221e-06 3.2829992e-06
0.0029352957 -0.00040585306 -0.002352308 0.0015274291 0.0014882449 -0.0031714374 0.017440079 -0.009386763
0.00019453236 -0.0003023752 -0.00049053284 0.000183271 0.00036721808 -0.00088002486 0.0033475903 -0.0020788512
-0.00115838 -5.6861786e-06 -0.00016998798 -1.13939195e-05 6.8752073e-22 -5.7564534e-07 0.00025134376 3.6909992e-07
2.049421e-05 2.9348776e-10 0.0017452707 8.509982e-08 0.00015900935 -0.009835857 4.0169904e-05 1.0789254e-07
0.00064847525 -0.00076960295 -0.0012346649 0.00044945802 0.0008912375 -0.004317207 0.008327753 -0.0051106126
00000000: 2636 f037 fcaf 57b8 2e01 9cb8 f71e f237
00000010: 5a52 7838 33d9 0eb9 255e 803a 85f6 103a
00000020: 37d6 c339 2f62 a5ba 0192 04bb f7b7 423a
00000030: 9fb8 b53a 757b 49bc 1fd5 583c 291e 05bc
00000040: 684a d939 3d8e 47ba 3a98 9bba 5487 b739
00000050: 7b02 703a a32c 00bb 6c9b f73b cf58 98bb
00000060: 6525 853d fbc0 2c3d afd9 873d 49d1 193b
00000070: 9e41 b13d c602 163d 3fff 2a3d db5f 33bd
00000080: e8f0 3fb9 f529 36a2 4ca3 683a 8e6a d2b9
00000090: 21ac 1438 198c 3637 e803 6616 ee43 ea1a
000000a0: 3c8c 0d3c 2377 ab3a 350e 053b 1b2f 853b
000000b0: add1 873b 54c6 c2bb a713 893a 155f ceba
000000c0: 703f f03b 4b81 65bc ff5c fabb 6d02 01b9
000000d0: 3885 01bc c73b 53bd 9782 5eb9 9e8b 57bc
000000e0: 42d6 68b9 0990 a0b9 2c88 d2bb ac97 3fbb
000000f0: f0ab 853c cdae 193d 1ab2 623b 61b2 70bc
00000100: 3cf9 bf39 3922 7bba 73a9 e23a 378b 2c3a
00000110: 966a b33a 8da2 57bc 2965 3c3c 6ca9 dfbb
00000120: b71c ce3b d857 46bb 2a55 0a3d 049f 283c
00000130: b12e ff3c 55d5 1b3c 13bb a43c eb85 2a3c
00000140: 2bf7 943a 78cf e1ba 5d9d 39bb 94f9 033a
00000150: 1573 003b 6d0e a4bb 87bc 9a3c 8ee2 56bc
00000160: a1a3 102b 8ea8 9b3a 36b3 e0ac c029 7db5
00000170: 6e2f 4a2e e9a3 c6ac b56f 9bb2 dbc3 d038
00000180: 57f9 f339 913b 2eba 1753 493b 6139 203b
00000190: f48f 5a3a e21a 09bc 7e5f fd3b e7f5 9cbb
000001a0: 2b87 31bb fac4 1bbb bb79 d3bb 412f 633b
000001b0: d381 83bc f5a1 6bbc 8127 983c ddab c0bc
000001c0: 9f63 f43a fc01 84ba fc0b fbba da3a 043b
000001d0: 5c76 9f3b 3a4c 2c3c edbe 473c ef30 e5bb
000001e0: f3cb 6239 f844 a0ba a534 01bb e541 453a
000001f0: 315f c83a d2e6 65bb 141e 603c 40ff 0abc
00000200: b277 8b18 2eea c71e 432e 8a24 1e5f 0f34
00000210: 4b63 efb9 c3e0 a29a e71e a819 e8e4 7d19
00000220: 42cb 479a 971e 1fa2 22fa 471e ff04 4aa8
00000230: 4668 8d2d f45a 4ca8 8155 06b9 f509 edb5
00000240: b3f2 a137 7a4d fab7 58a4 23b8 c864 7437
00000250: 79ea eb37 45f8 9bb8 c056 d739 2597 8eb9
00000260: 080e f239 cc7f 48ba 7ca0 a6ba 3df8 f039
00000270: 1b3e 813a 479a 25bb 3e9b 163c 8356 aebb
00000280: 8921 5338 40a1 66b6 b602 72bb 99ad fc36
00000290: a90b dc38 d15a d83a b1a3 973a 0e87 80b5
000002a0: 391f 0238 320e 109d 2b92 a239 519d 469a
000002b0: 7a50 6623 5fc9 37b6 664a 1ab9 63dc a22d
000002c0: 1818 ce3b 3f58 e2ba 5edf aabb 091b 953a
000002d0: 5003 133b 48a3 b1bc 1b51 993c 5322 3fbc
000002e0: d0be 943a 7da4 5899 4a0b 392d 8f17 a538
000002f0: 85ff 8d36 74e7 941b a014 1b1c e8b9 93b9
00000300: 61dd f0b9 df1a 06b9 dcd2 aeb9 88b1 9138
00000310: 2747 0439 116b 93b9 500d 933a ddce 34ba
00000320: 4b28 093a 42e1 24bb 2e5e f2ba 5390 023a
00000330: 3716 7a3a 7c21 aabb 92b9 133c fb2d b7bb
00000340: 40c0 17af 1ee4 5bb8 185d 8638 788c 599a
00000350: 4da2 4a9a 3a27 ad27 4085 6436 7f51 5c36
00000360: 175e 403b adc8 d4b9 2e29 1abb 0434 c83a
00000370: 3611 c33a e4d7 4fbb 7fde 8e3c f0ca 19bc
00000380: 62fb 4b39 1d88 9eb9 1a97 00ba 6f2c 4039
00000390: 2d87 c039 78b1 66ba 3f63 5b3b 563d 08bb
000003a0: c8d4 97ba e7cb beb6 cd3e 32b9 8328 3fb7
000003b0: 57ca 4f1c 0c86 1ab5 cac6 8339 b528 c634
000003c0: fbea ab37 bb58 a12f 91c1 e43a 1fc0 b633
000003d0: bfbb 2639 9326 21bc 1b7c 2838 8db2 e733
000003e0: 70fe 293a 2ebf 49ba 7bd4 a1ba 3ca5 eb39
000003f0: f0a1 693a 5b77 8dbb 2171 083c ed76 a7bb

bias f4 [320]
0.0012770689 0.030110106 0.01779172 0.08407182 1.5846118e-22 0.0397653 -0.072488785 0.056540646
0.042720094 0.12501125 0.043007154 3.7714273e-11 0.02263796 0.07142473 0.026282575 0.030727228
4.009011e-18 -0.0006013724 0.00058478455 0.019040726 -0.012499794 -5.045089e-08 0.09201371 -0.0010798745
0.002717589 0.02514015 -7.729966e-05 0.024366304 0.008204353 -0.00011511624 -0.01265378 0.018408878
0.013193405 0.0067460164 0.10014495 0.044707563 0.06879663 0.0733899 9.539894e-08 -0.0010229155
0.027638743 -0.00019776227 0.03495689 -9.799589e-08 0.049178552 5.527851e-05 0.2030155 -0.00085565663
-0.00054573664 -0.13467471 2.2861579e-05 0.07501105 -0.00014636721 0.044754397 0.015221747 -0.09342545
-4.2259865e-07 0.00022708718 -0.009820344 -5.4563393e-06 -7.399301e-24 0.006904006 -3.2903817e-08 0.047326926
0.08596628 1.4615081e-22 0.19233589 -0.0013132998 -6.585588e-23 0.032374486 -0.05510989 0.012042742
0.09719925 0.05895021 0.008010455 -0.00047376804 -0.03047091 -3.2519058e-08 0.10653521 1.7741366e-21
0.14888239 0.04413535 0.035982873 -0.0036955103 0.022930613 -0.07340715 0.018910235 -2.228617e-09
4.6442014e-07 7.536146e-10 -0.030058501 0.006470426 0.09613838 0.024043811 0.30342263 0.07224641
-0.0013229552 0.00028070027 0.10621609 0.014449784 -0.0015956281 0.07414313 1.6561289e-23 0.043022607
-0.021415845 -0.001129533 0.004980821 -0.018249307 -1.431816e-05 1.9902184e-21 0.005696192 -0.073892824
0.028475296 0.10031629 -0.0021704778 2.6154894e-06 0.011114417 -0.0010802435 -6.652293e-22 -7.080342e-12
-0.0073357793 0.1463728 6.0856827e-11 0.006099615 -0.0018540722 -6.7161415e-07 0.059453078 0.0217767
1.5467473e-09 -0.00034370067 -1.2190194e-06 0.026999593 0.014198798 -0.04558888 0.09333176 -0.0011537455
0.045943096 0.029215967 0.013065312 -1.4250962e-05 -0.04647438 0.062581584 -8.412907e-05 -7.660397e-15
0.05529707 0.022734992 0.10913323 -1.7344669e-16 -5.600813e-05 1.14628826e-23 -1.0244448e-09 -0.008196886
0.033482537 0.04813631 -0.00023945594 -1.3984982e-07 6.2172187e-19 0.1554898 -0.0012436407 0.16655956
-1.0484613e-22 -5.2711135e-07 -2.575556e-05 -0.005595811 6.1786954e-19 0.08338297 -2.3701413e-22 -0.00036043284
0.03982679 0.12852225 -1.3775414e-08 -0.0009532861 0.054895572 -0.013275344 0.05960707 0.09805225
6.80771e-24 -1.4040959e-22 0.061305 -3.7502157e-10 0.15682964 -0.0011107693 0.09481654 0.04596638
0.009639521 0.0342463 1.998551e-09 0.05122413 -9.8613555e-06 0.0062184283 -0.00022930364 4.898235e-19
0.004764599 -6.616658e-20 0.022219598 -0.00048969866 0.05287691 0.1923623 0.06011668 0.007482542
0.024612112 0.023781119 2.1705313e-09 0.025922343 0.07341567 0.12292953 2.7645107e-21 -4.1701835e-23
-3.261865e-11 0.016592748 0.060136873 -4.7937698e-05 5.338169e-08 -1.998325e-12 0.03149653 8.467287e-06
-0.011223132 1.2171396e-17 0.017928327 -0.0011035267 0.05651568 -6.6450673e-07 0.011163133 -0.0004523123
0.113963775 -0.00109125 0.025381159 0.1750097 0.03989215 0.1327099 0.008110935 0.007943993
0.008694521 -1.1680484e-05 0.018740812 0.0366704 -1.0091914e-06 0.0034682222 0.035661865 0.010395191
3.1558332e-12 -0.09373927 0.03618791 0.030322036 -2.0990554e-05 8.899404e-05 0.019883176 0.08930467
0.0067798523 0.01185161 0.019146314 0.025675816 0.0069927555 0.055889886 1.0241645e-09 0.02497418
00000000: 5263 a73a 78a9 f63c f1bf 913c d92d ac3d
00000010: 5c91 3f1b f0e0 223d 0075 94bd 2a97 673d
00000020: 44fb 2e3d f302 003e 4528 303d 7fde 252e
00000030: 3e73 b93c 2147 923d 8e4e d73c abb7 fb3c
00000040: 0ae8 9322 6ba5 1dba 3a4c 193a 4cfb 9b3c
00000050: f0cb 4cbc 57af 58b3 af71 bc3d 938a 8dba
00000060: 9419 323b b7f2 cd3c f01b a2b8 d89b c73c
00000070: 8d6b 063c 906a f1b8 cd51 4fbc 37ce 963c
00000080: 2729 583c b00d dd3b cc18 cd3d 471f 373d
00000090: 3fe5 8c3d 724d 963d 1fde cc33 5913 86ba
000000a0: a56a e23c 685e 4fb9 f52e 0f3d cf71 d2b3
000000b0: 736f 493d d9da 6738 4ce3 4f3e 254e 60ba
000000c0: c40f 0fba 2be8 09be dec6 bf37 659f 993d
000000d0: 267a 19b9 6350 373d a264 793c d855 bfbd
000000e0: 84e1 e2b4 401e 6e39 82e5 20bc 9915 b7b6
000000f0: 901f 0f99 003b e23b 2152 0db3 e1d9 413d
00000100: 170f b03d 7caf 301b b3f3 443e 0723 acba
00000110: d13a 9f9a 1c9b 043d e8ba 61bd ec4e 453c
00000120: 6610 c73d c775 713d 493e 033c 1264 f8b9
00000130: 219e f9bc 15ab 0bb3 222f da3d cb0c 061d
00000140: a074 183e 45c7 343d c762 133d 6030 72bb
00000150: fbd8 bb3c 7d56 96bd a3e9 9a3c 3f26 19b1
00000160: 6b55 f934 ea26 4f30 3f3d f6bc de05 d43b
00000170: 33e4 c43d 87f7 c43c 365a 9b3e edf5 933d
00000180: 0367 adba f42a 9339 d287 d93d c9be 6c3c
00000190: 6524 d1ba 5ad8 973d c42b a019 7938 303d
000001a0: 4870 afbc d70c 94ba 2836 a33b 927f 95bc
000001b0: 0738 70b7 6c60 161d 1fa7 ba3b 1f55 97bd
000001c0: 0645 e93c a172 cd3d 933e 0ebb c485 2f36
000001d0: 3e19 363c f596 8dba a00d 499c 0d1e f9ac
000001e0: fa60 f0bb c0e2 153e 59d3 852e 47df c73b
000001f0: 5704 f3ba f948 34b5 1285 733d 0d65 b23c
00000200: 5595 d430 b932 b4b9 309d a3b5 402e dd3c
00000210: 13a2 683c 68bb 3abd b924 bf3d 4639 97ba
00000220: d42e 3c3d 5356 ef3c e40f 563c 6a17 6fb7
00000230: eb5b 3ebd c62a 803d 736e b0b8 59ff 09a8
00000240: 2e7f 623d bc3e ba3c 3e81 df3d 6df8 47a5
00000250: 46ea 6ab8 72b9 5d19 72cc 8cb0 3b4c 06bc
00000260: fc24 093d 942a 453d 7716 7bb9 a029 16b4
00000270: fa7f 3721 b838 1f3e a801 a3ba 978e 2a3e
00000280: 9c80 fd9a d17e 0db5 a50d d8b7 115d b7bb
00000290: e75c 3621 b1c4 aa3d 2944 8f9b 7af8 bcb9
000002a0: 6b21 233d 569b 033e e9a8 6cb2 f2e5 79ba
000002b0: 2eda 603d d480 59bc 8b26 743d 9ecf c83d
000002c0: 26ae 0319 aabe 299b f41a 7b3d 982b ceaf
000002d0: f397 203e 3c97 91ba 2d2f c23d 3e47 3c3d
000002e0: 15ef 1d3c d945 0c3d e256 0931 65d0 513d
000002f0: 3372 25b7 f5c3 cb3b 3a71 70b9 0492 1021
00000300: 5a20 9c3b 3e3b 9c9f e005 b63c 1f5f 00ba
00000310: 7595 583d 9ffa 443e e83c 763d 1d30 f53b
00000320: 579f c93c 9fd0 c23c 6428 1531 185b d43c
00000330: f45a 963d 7ac2 fb3d 6ae1 501d 5fa8 499a
00000340: 5675 0fae 84ed 873c 1552 763d b610 49b8
00000350: ca45 6533 9f9e 0cac 8102 013d b90e 0e37
00000360: 3ae1 37bc cb85 6023 6dde 923c 36a4 90ba
00000370: fc7c 673d 8e60 32b5 93e5 363c 5424 edb9
00000380: d765 e93d 4608 8fba 26ec cf3c be35 333e
00000390: f365 233d 1be5 073e bae3 043c 8627 023c
000003a0: 7773 0e3c 4cf7 43b7 5586 993c b433 163d
000003b0: 8d73 87b5 1d4b 633b 2d12 123d 9750 2a3c
000003c0: 7012 5e2c 60fa bfbd c639 143d eb65 f83c
000003d0: df14 b0b7 50a2 ba38 0be2 a23c 5ee5 b63d
000003e0: 8629 de3b 412d 423c bbd8 9c3c 1756 d23c
000003f0: 7c23 e53b cbec 643d 96c2 8c30 a796 cc3c

weight f4 [4, 320]
0.0015726708 0.040413003 0.020047747 -0.01092653 -1.14951115e-23 -0.020363653 -0.0072699785 0.016572908
0.051904477 0.040415484 0.040028468 1.9552449e-09 -0.005016171 0.061546613 0.0044493554 0.028301306
3.166813e-26 -7.273769e-24 0.0008526952 0.02221688 0.003236808 2.6799498e-23 0.029426843 -2.3420949e-23
0.0033302056 0.019376803 6.1068768e-24 0.026255481 0.0103785535 1.8838324e-21 0.0004419111 0.0010657321
0.033128265 0.0057247407 -0.0031678684 0.042463046 -0.015510875 0.025635187 4.4638837e-12 2.6173894e-23
-0.015198468 -3.1969657e-24 0.037571363 1.01178905e-25 0.0268682 7.2163086e-05 0.058867827 0.00013700282
-0.0005061954 0.04139697 6.769098e-05 0.06392207 2.4196578e-07 0.04297991 -0.008117191 0.050476216
-3.9930202e-23 0.00023499347 0.0045818496 2.573987e-23 2.7503522e-23 0.0062311077 2.8447672e-23 0.013464627
0.064712256 4.1042626e-24 0.11812177 -6.5778575e-24 8.194931e-24 0.0074196896 -0.0074276044 0.011154222
0.07037362 -0.010741078 -0.014531366 1.963773e-24 -0.0036999409 3.3845777e-24 0.054811526 -9.061505e-25
0.07311028 0.044111136 0.006594698 0.00021631757 0.024300354 -0.0017046658 0.017355984 -2.156773e-06
-2.8165068e-06 2.5830334e-07 -0.012571784 0.007806014 -0.0037074487 -0.017309215 0.28075457 0.053265132
-1.5731344e-23 -0.010007112 -0.011376292 -0.010695037 -9.849286e-05 0.048338465 2.8629084e-24 0.041688815
0.038005907 -2.017502e-23 0.014426097 -6.861846e-05 3.0455022e-24 3.771254e-20 -0.0071986527 0.007983606
0.05155083 0.03973492 0.0007659204 1.6494039e-23 0.012983314 -8.477965e-05 -2.3269837e-19 1.6753114e-08
0.041086458 -0.02115697 7.096156e-08 0.00662691 -0.016523682 -5.6105676e-10 0.06489643 0.009321328
1.4699446e-05 6.013188e-23 2.3602198e-23 0.022567455 0.010231119 -3.7191563e-05 0.08704516 2.7279754e-23
0.022085374 0.021365147 0.029220823 -2.3520139e-23 0.006417896 0.066155344 4.7093223e-23 -2.3617779e-22
0.010717884 -0.0025474038 0.04206655 1.8814667e-23 -1.594859e-23 -1.3889452e-23 1.7509759e-23 -0.00093302265
0.0073927827 0.042780083 9.870199e-24 1.3694984e-24 -1.9622091e-23 0.05347171 7.4546213e-23 0.028969446
1.6992632e-24 4.276358e-24 -0.03441449 -0.029168224 -1.27323215e-23 0.07612271 2.5436804e-23 1.9373911e-24
0.05860991 0.062324997 7.349301e-07 -2.1424575e-26 0.051652633 0.004540435 0.05661626 0.09089596
-7.8799e-22 1.8869288e-23 0.065706804 1.5363118e-07 0.08172316 -0.0055472665 0.045900397 0.015233831
0.008981349 0.03607153 2.9912687e-07 0.05149691 -1.2108829e-07 0.005826486 0.02954375 7.376816e-24
0.01335477 -2.751808e-17 0.020106658 2.8941726e-23 0.050991997 0.1770351 0.044071045 0.019651664
0.034071073 0.02503179 2.5856548e-07 0.023382094 0.06822038 0.07681299 5.2197462e-23 1.6152848e-23
1.1135549e-08 0.014879056 0.027664768 8.145909e-24 -4.2925024e-18 -7.698637e-23 0.029103497 6.9643174e-05
-0.028765531 3.552801e-15 -0.010876262 2.2914712e-23 0.049694 -3.4948368e-23 0.0048186006 -1.1440476e-23
0.08134049 -3.4709433e-06 0.03326194 0.08173554 0.03707953 0.12193078 0.0106470445 -0.003993574
0.027948715 1.2081092e-24 0.044329174 0.047863226 1.4949723e-25 0.0034045812 0.06722617 0.010585705
7.364633e-07 0.019847764 0.0051452173 0.041522592 -0.00010602341 0.00010027137 0.044373672 -0.0073517514
-0.019004632 0.017285855 0.026381865 0.040761203 0.0126043 0.055294737 -7.894735e-08 -0.0005907293
00000000: 1322 ce3a 1b88 253d 2c3b a43c 3005 33bc
00000010: 0959 5e99 add1 a6bc 0039 eebb e8c3 873c
00000020: ca99 543d b58a 253d e4f4 233d 085d 0631
00000030: b15e a4bb 4d18 7c3d e6cb 913b 24d8 e73c
00000040: 20d0 1c15 f6b1 0c99 6887 5f3a 2d00 b63c
00000050: a120 543b 2c98 011a 9010 f13c 7683 e299
00000060: 943f 5a3b 1abc 9e3c 943f ec18 bc15 d73c
00000070: cf0a 2a3c 9e56 0e1d 4eb0 e739 09b0 8b3a
00000080: 81b1 073d 9b96 bb3b 039c 4fbb bbed 2d3d
00000090: 5321 7ebc e200 d23c 170f 9d2c 6c23 fd19
000000a0: ff02 79bc 6e5a 7798 6ee4 193d c081 fa15
000000b0: b31a dc3c 4356 9738 641f 713d 6aa8 0f39
000000c0: 33b2 04ba df8f 293d 51f5 8d38 93e9 823d
000000d0: 86e7 8134 b40b 303d f7fd 04bc 26c0 4e3d
000000e0: 3217 419a 9468 7639 5723 963b d5f0 f819
000000f0: b6ff 041a 522e cc3b 8390 091a bd9a 5c3c
00000100: dc87 843d a6c6 9e18 d4e9 f13d f277 fe98
00000110: 5583 1e19 de20 f33b 4363 f3bb 33c0 363c
00000120: 0b20 903d 59fb 2fbc f714 6ebc 88f0 1718
00000130: b57a 72bb 3cef 8218 0d82 603d 5238 8c97
00000140: d8ba 953d e1ad 343d 5618 d83b 4ed3 6239
00000150: 8911 c73c 186f dfba 232e 8e3c 14bd 10b6
00000160: 3803 3db6 f1ac 8a34 e2f9 4dbc 97c9 ff3b
00000170: abf8 72bb 0ecc 8dbc 10bf 8f3e 8a2c 5a3d
00000180: ec24 9899 dff4 23bc a163 3abc 3d3a 2fbc
00000190: f48d ceb8 8efe 453d be81 5d18 e4c1 2a3d
000001a0: 15ac 1b3d ee1e c399 705b 6c3c 41e7 8fb8
000001b0: 63a2 6b18 aa17 321f ade2 ebbb accd 023c
000001c0: f726 533d 15c1 223d 0cc8 483a 4385 9f19
000001d0: f7b7 543c bacb b1b8 625c 89a0 7de8 8f32
000001e0: 464a 283d 6251 adbc 8863 9833 8d26 d93b
000001f0: ac5c 87bc dc38 1ab0 6be8 843d 7cb8 183c
00000200: a49d 7637 d563 911a 3644 e419 62df b83c
00000210: 6ca0 273c 23fe 1bb8 bc44 b23d b3ea 031a
00000220: 63ec b43c f605 af3c 8260 ef3c 0b79 e399
00000230: 374d d23b 747c 873d 96ba 631a bec2 8e9b
00000240: 109a 2f3c 58f2 26bb fa4d 2c3d dcf6 b519
00000250: cc3e 9a99 9e54 8699 1058 a919 1796 74ba
00000260: 283f f23b 2b3a 2f3d dcea 3e19 6ceb d317
00000270: f2c5 bd99 2705 5b3d df3d b41a 5551 ed3c
00000280: 6079 0318 006f a518 35f6 0cbd 33f2 eebc
00000290: 6747 7699 39e6 9b3d 7a02 f619 fce5 1518
000002a0: f210 703d 7f48 7f3d 0348 4535 c02d d494
000002b0: b691 533d eec7 943b 74e6 673d a927 ba3d
000002c0: c627 6e9c 187e b619 4a91 863d d1f5 2434
000002d0: 795e a73d d8c5 b5bb 0e02 3c3d 5197 793c
000002e0: 8226 133c bebf 133d af97 a034 6dee 523d
000002f0: 7f04 02b4 1bec be3b bc05 f23c 39b0 0e19
00000300: f7cd 5a3c 3bcf fda3 b8b6 a43c 1ff4 0b1a
00000310: fcdc 503d b048 353e d783 343d 87fc a03c
00000320: 1c8e 0b3d 780f cd3c f8d0 8a34 ce8b bf3c
00000330: 20b7 8b3d 2150 9d3d 5469 7c1a 8438 9c19
00000340: aa4e 3f32 49c7 733c 39a1 e23c 9690 1d19
00000350: 8a5d 9ea2 4124 ba9a 756a ee3c 650d 9238
00000360: b1a5 ebbc ce00 8027 5932 32bc 149e dd19
00000370: f08b 4b3d fcff 289a 5ae5 9d3b 7e4a 5d99
00000380: d895 a63d 5aee 68b6 ac3d 083d f664 a73d
00000390: b5e0 173d d8b6 f93d f170 2e3c 87dc 82bb
000003a0: b4f4 e43c 23f2 ba17 8292 353d 3b0c 443d
000003b0: 9011 3916 651f 5f3b e0ad 893d aa6f 2d3c
000003c0: 5fb1 4535 c797 a23c 3699 a83b 9813 2a3d
000003d0: e358 deb8 c848 d238 2bc1 353d f6e6 f0bb
000003e0: 9aaf 9bbc 119b 8d3c c81e d83c 38f5 263d
000003f0: 4482 4e3c bc7c 623d c489 a9b3 2cdb 1aba

bias f4 [4]
0.02134599 0.032271285 0.008139701 0.076554365
00000000: c9dd ae3c e52e 043d 615c 053c 89c8 9c3d

weight f4 [4, 8]
0.000825049 0.00017996537 -2.080991e-06 1.4412217e-06 0.0002443283 -2.9891245e-07 -0.00034485644 0.0014297381
-0.00060724653 -8.935085e-08 0.0006318804 -1.15041395e-07 2.9543597e-07 3.1440965e-08 -0.00079106435 -4.541057e-07
0.0012354336 5.4618687e-07 8.0550935e-06 -5.367787e-06 -4.6959143e-05 1.4793271e-06 1.4351444e-06 1.0844384e-05
0.00063900824 0.0010721268 -2.1567818e-10 -1.69962e-23 3.3113358e-23 0.0009325023 -2.960316e-23 3.4537654e-15
00000000: 1a48 583a 16b5 3c39 27a7 0bb6 0070 c135
00000010: 3019 8039 377a a0b4 d9cd b4b9 0d66 bb3a
00000020: a02f 1fba 26e1 bfb3 c7a4 253a ad0c f7b3
00000030: 699c 9e34 b509 0733 6e5f 4fba d0cb f3b4
00000040: 46ee a13a ad9d 1235 5d24 0737 f01c b4b6
00000050: fff5 44b8 4b8d c635 309f c035 46f0 3537
00000060: 1e83 273a 9b86 8c3a 0324 6daf 8e60 a499
00000070: 5a20 201a 2c73 743a f026 0f9a bade 7827

bias f4 [4]
-6.712382e-06 6.2696636e-05 1.9763555e-05 -0.0012984045
00000000: ec3a e1b6 007c 8338 e9c9 a537 3a2f aaba

weight f4 [4, 8]
0.00032782226 -0.00047925915 -0.0008326592 0.00030794702 2.2687962e-05 4.5819247e-06 0.0013297737 0.00036272622
5.109814e-08 -6.2468554e-17 -0.0005387739 0.00036125004 -1.73177e-21 -4.42432e-16 3.232785e-21 -1.5588085e-17
-1.887853e-05 0.000105995314 0.00015928813 -1.9318495e-05 -3.788144e-06 -2.5150317e-07 0.0008997536 -4.6619775e-18
0.010380494 -0.00022356302 -0.0011749176 0.0001277532 -0.0007973416 6.444176e-05 2.3742692e-07 0.001206217
00000000: 8fdf ab39 1345 fbb9 d046 5aba f373 a139
00000010: 0752 be37 6fbe 9936 cd4b ae3a 4a2c be39
00000020: 0077 5b33 ed0a 90a4 813c 0dba 2966 bd39
00000030: 4ed9 029d 700b ffa5 2843 741d 53c6 8fa3
00000040: 565d 9eb7 cd49 de38 9506 2739 270e a2b7
00000050: d237 7eb6 5506 87b4 71dd 6b3a 22ff aba2
00000060: f312 2a3c 3e6c 6ab9 b1ff 99ba 7df5 0539
00000070: b004 51ba e824 8738 6aef 7e34 ed19 9e3a

bias f4 [4]
0.01400766 -0.0003521473 -0.00095431996 0.035603132
00000000: 6280 653c 69a0 b8b9 542b 7aba 97d4 113d

weight f4 [10, 2]
0.014092051 -0.091311775 0.068928376 0.0007564466 -1.8684982e-07 2.40041e-06 -4.4474662e-21 -0.07132643
2.205808e-10 -0.0003008454 -0.062146623 -5.5563905e-09 -2.8166897e-07 0.09708453 -0.002218528 -0.0048193666
-0.003343212 2.8003226e-09 -1.9434996e-13 4.7314355e-24
00000000: 59e2 663c ab01 bbbd 522a 8d3d 464c 463a
00000010: e3a0 48b4 bb16 2136 4105 a89d 9713 92bd
00000020: fa87 722f c9ba 9db9 758d 7ebd 87ea beb1
00000030: 4a38 97b4 41d4 c63d b964 11bb c7eb 9dbb
00000040: ca19 5bbb cc6f 4031 90d1 5aaa de09 b718

bias f4 [10]
-0.0014934819 -0.03698113 0.17324772 -0.0870378 -0.0016058376 6.7345263e-07 0.020014998 -0.0019889376
0.00457977 -0.08723271
00000000: f0c0 c3ba 8679 17bd da67 313e e040 b2bd
00000010: f87a d2ba 50c7 3435 7ef6 a33c d658 02bb
00000020: e511 963b 10a7 b2bd

weight f4 [10, 2]
-1.511054e-06 -0.1039953 0.0011265698 -0.04609306 1.3048764e-19 -5.6710025e-15 -0.0050573866 0.02870578
-0.05030147 -0.005004541 0.0011448313 0.006467421 -0.0261642 -0.1320406 -9.4425945e-05 -0.006073316
9.1246386e-07 0.037465703 0.051698383 4.4065535e-05
00000000: 6ccf cab5 7dfb d4bd 69a9 933a 14cc 3cbd
00000010: 780d 1a20 c451 cca7 6fb8 a5bb 6228 eb3c
00000020: ea08 4ebd 22fd a3bb 2a0e 963a a9ec d33b
00000030: 4e56 d6bc a735 07be 8b06 c6b8 ab02 c7bb
00000040: 0af0 7435 a375 193d afc1 533d 02d3 3838

bias f4 [10]
0.012510388 0.00014312635 -2.251269e-07 0.12116363 -0.016712544 -0.0001102086 0.110585324 -0.09513996
0.052602105 -0.020093478
00000000: 5ff8 4c3c 3014 1639 69ba 71b4 a324 f83d
00000010: bfe8 88bc cb1f e7b8 8f7a e23d bdd8 c2bd
00000020: 4e75 573d 149b a4bc

weight f4 [20, 4]
-2.731483e-06 -0.0063629234 6.634955e-05 0.00036412987 0.060191758 -0.008836142 0.010647194 -5.2319923e-05
-0.0012825844 -0.0036547657 -0.037197072 -3.4657587e-05 0.0042360267 -8.275437e-07 -3.3804376e-05 0.0003230026
0.0289698 -0.010640886 0.0009552824 8.253629e-06 -0.00059585477 -0.0030378182 -0.024219211 -0.0011005964
1.9926485e-05 1.2762875e-05 7.678346e-06 0.0027666728 0.019703045 -0.010129318 -0.00044929422 0.0013965017
0.0022193019 -0.0036977634 0.00035202122 0.000714995 0.03489088 0.018309694 -0.0008504437 -0.0007022975
-3.8022703e-05 -2.0598554e-13 9.2921946e-05 -0.0019059117 0.0033067344 0.0042261453 7.2762894e-05 -0.00026144637
0.14242768 -6.395808e-05 0.0037606943 -0.00063081126 -1.1369447e-05 -0.000103697246 0.0008680115 0.0022582128
2.2152983e-07 -6.857775e-19 -3.9983316e-13 -0.00064885593 -0.0004708905 -0.013449755 0.00024118388 0.0115453135
-4.4939925e-13 2.4806343e-06 -9.829278e-24 9.392177e-09 0.00022605022 0.005408959 -0.006759057 -0.0005959027
-8.980611e-05 0.016443837 0.00015544095 0.0057369363 0.005224061 -0.021310758 6.6151e-05 -0.00016045677
00000000: 854e 37b6 1280 d0bb 2525 8b38 afe8 be39
00000010: a28b 763d 77c5 10bc 9271 2e3c 1772 5bb8
00000020: 641c a8ba cb84 6fbb f55b 18bd 4d5d 11b8
00000030: 5ece 8a3b 5f24 5eb5 2cc9 0db8 ad58 a939
00000040: 1352 ed3c 1c57 2ebc eb6b 7a3a 1179 0a37
00000050: 2333 1cba 2216 47bb 5e67 c6bc e341 90ba
00000060: cd27 a737 2120 5637 3fd2 0037 1151 353b
00000070: 4868 a13c 70f5 25bc 408f ebb9 d20a b73a
00000080: b571 113b 2d56 72bb 7d8f b839 816e 3b3a
00000090: bde9 0e3d 36fe 953c 50f0 5eba 631a 38ba
000000a0: 917a 1fb8 4aeb 67aa 17df c238 c9cf f9ba
000000b0: ccb5 583b 7a7b 8a3b 4898 9838 bd12 89b9
000000c0: 90d8 113e 3c21 86b8 fb75 763b 075d 25ba
000000d0: 67bf 3eb7 0978 d9b8 448b 633a 86fe 133b
000000e0: a8dd 6d34 e267 4aa1 0816 e1aa fc17 2aba
000000f0: dae1 f6b9 5c5c 5cbc 4ee6 7c39 8e28 3d3c
00000100: 42fd fcaa f978 2636 3a20 3e99 3b5b 2132
00000110: e507 6d39 a33d b13b 147b ddbb 5a36 1cba
00000120: 4a56 bcb8 3ab5 863c ddfd 2239 e9fc bb3b
00000130: 9a2e ab3b e693 aebc 8cba 8a38 4940 28b9

bias f4 [20]
-0.00095304864 -0.008245031 0.033010952 -0.0017960508 0.017605796 0.08956535 5.684587e-05 0.16661085
0.14212522 -0.00209251 -0.0024188429 0.009818466 -0.03933771 -0.00033590465 -0.001337159 0.13353196
-0.013182819 0.006814904 0.004734908 0.0017382759
00000000: 03d6 79ba 2b16 07bc 7e36 073d 7769 ebba
00000010: 083a 903c 0a6e b73d ca6d 6e38 099c 2a3e
00000020: 4689 113e 7e22 09bb 7385 1ebb a2dd 203c
00000030: 9420 21bd 5c1c b0b9 9c43 afba 9abc 083e
00000040: c0fc 57bc 8f4f df3b 4a27 9b3b dcd6 e33a

weight_ih_l0 f4 [12, 10]
-1.5139923e-09 -5.5725953e-09 0.015224245 -6.777561e-06 -8.868107e-06 -0.013082837 -0.0073941224 -8.028483e-09
0.006884681 9.4226765e-05 -0.017038295 2.8168182e-12 -0.00030125698 -0.001673397 0.00045888315 6.2250283e-06
-0.003698069 1.9714241e-12 3.9029405e-11 7.500339e-16 -0.0027961626 -1.0373574e-10 -0.0071452744 -2.0065827e-16
-1.0172345e-12 -7.3218166e-06 -2.6326497e-11 0.0014162989 6.254684e-06 0.0008508286 -0.012349192 -0.013785652
-0.00454485 -5.5621567e-06 -0.0039456715 -1.3178154e-14 0.014555219 -0.015403244 -1.7031384e-13 5.5351148e-17
-0.00012918781 0.015828319 0.003669498 -0.00086287805 -0.0028230336 0.00333928 0.00015586047 0.00020473414
-5.8753863e-10 -0.0072581195 -0.017658837 -0.015576173 0.0014716939 0.0050021796 0.01593397 0.015919872
0.014037607 -9.1751615e-12 1.547789e-07 1.0737481e-06 4.2142147e-13 -1.5856862e-05 3.4269842e-13 -2.6266698e-05
-0.0006600485 -2.7571346e-07 0.0014017887 0.00048709885 -4.2883475e-11 1.5758449e-17 9.3813395e-12 -0.0065153614
2.6654407e-05 -0.0016035176 -0.00039996376 -0.00019369696 -8.123217e-12 -1.3798856e-07 2.112506e-12 0.0014933422
0.002859924 0.003540692 4.8782755e-07 -4.7375405e-16 -0.0034809783 0.019192701 9.535092e-07 3.6324159e-06
5.2651137e-07 -0.010769943 -0.017649591 -1.8364912e-06 -8.4048786e-08 2.809743e-20 0.00021796327 -1.1730223e-07
-3.747093e-07 -7.68259e-07 -0.0006700574 -0.0011018796 -4.678015e-09 -6.873854e-07 -4.8907136e-09 -6.673348e-17
-1.0020949e-09 -4.1159147e-09 2.8109145e-05 0.006582555 0.0036829028 0.00064652215 3.2471341e-09 -3.691353e-07
2.1607547e-09 -0.000105290674 -7.546262e-09 -7.070136e-05 1.080607e-09 -2.6204212e-08 0.0048184404 -0.010299558
00000000: de14 d0b0 1179 bfb1 1d6f 793c ce6a e3b6
00000010: 3bc8 14b7 6559 56bc 654a f2bb a4ed 09b2
00000020: e498 e13b 9c9b c538 e593 8bbc 4937 462c
00000030: 07f2 9db9 e355 dbba 4196 f039 96e0 d036
00000040: 4d5b 72bb 05ba 0a2c 34a7 2b2e bc2e 5826
00000050: d33f 37bb 081e e4ae e822 eabb de57 67a5
00000060: bc29 8fab edad f5b6 0092 e7ad 1ba3 b93a
00000070: 54df d136 240a 5f3a 4454 4abc 37dd 61bc
00000080: f7ec 94bb 90a2 bab6 b14a 81bb 8265 6da8
00000090: 0379 6e3c e35d 7cbc 9fc1 3faa 1a43 7f24
000000a0: 9776 07b9 64aa 813c f67b 703b c432 62ba
000000b0: a502 39bb d2d7 5a3b 7a6e 2339 e7ad 5639
000000c0: 5b80 21b0 85d5 edbb 44a9 90bc 3433 7fbc
000000d0: dae5 c03a 53e9 a33b f587 823c 646a 823c
000000e0: fefd 653c 4169 21ad 4d31 2634 b41d 9035
000000f0: 3c3d ed2a 5a04 85b7 0cec c02a 4e57 dcb7
00000100: 1b07 2dba c505 94b4 39bc b73a 4d61 ff39
00000110: 809a 3cae 9658 9123 cc09 252d d07e d5bb
00000120: e797 df37 1f2d d2ba 3ab2 d1b9 221b 4bb9
00000130: b8e7 0ead 022a 14b4 86a7 142c 40bc c33a
00000140: 906d 3b3b f40a 683b 41f3 0235 e18c 08a6
00000150: 2021 64bb 033a 9d3c a7f4 7f35 6ec4 7336
00000160: 9655 0d35 6a74 30bc e095 90bc 5b7d f6b5
00000170: 4f7e b4b3 b5af 041f 128d 6439 95e7 fbb3
00000180: a72b c9b4 5b3a 4eb5 caa6 2fba f26c 90ba
00000190: 41bc a0b1 c484 38b5 2c0b a8b1 7ee0 99a4
000001a0: 14ba 89b0 f86b 8db1 eecb eb37 79b2 d73b
000001b0: db5c 713b 5e7b 293a 3024 5f31 922d c6b4
000001c0: 667c 1431 80cf dcb8 d0a4 01b2 8145 94b8
000001d0: 7b84 9430 ac17 e1b2 02e4 9d3b 7abf 28bc
