Simulations/VanDerPol/results/RTSNet1_inmult5050.pt (torch, 62059 bytes, 45 tensors)

GRU_Q.weight_ih_l0 f4 [12, 100]
-0.31207135 -0.24482048 0.33452263 0.28059244 -0.41506258 -0.19630204 -0.16873589 -0.33145145
-0.158006 -0.19666839 0.070264496 -0.11677363 -0.00065381575 -0.04495799 -0.05255044 -0.36471736
-0.22748396 0.16752452 -0.15710887 -0.2853652 0.06475985 -0.109111376 -0.07161329 2.0169118e-06
-0.13742195 0.1880953 0.16323014 0.14660929 0.33643678 -0.083874434 0.35913047 0.24620508
-0.35271922 -0.2824586 -0.2573151 -0.15447418 0.1840471 -0.0334522 0.19547571 -0.04426159
-0.24483585 0.17496122 -0.121085525 -0.16236427 0.014831181 0.03056564 0.04263118 0.26143357
-0.4506881 -0.34883678 -0.31582734 -0.16057624 -0.21977277 -0.21317346 -0.27985394 0.29866475
0.072171144 0.21079962 0.002958304 0.06504208 0.082604036 -0.1296827 -0.04160905 0.27068722
-0.25622123 0.26345056 0.13966636 0.04811095 0.36803955 -0.10574168 -0.1683558 -0.4393683
0.26250714 -0.22981086 0.06516092 -0.26473576 0.16554463 -0.021451505 0.2815014 -0.33057588
-0.08204018 -0.04913052 -0.03937952 -0.1265895 -0.3205338 -0.0032343974 0.25171638 0.09808017
0.28832018 -0.4152153 -0.16831073 0.29876223 -0.092195176 -0.32412103 0.24053922 -0.069121055
-0.31419513 0.0884788 0.20465472 -0.22997741 0.30753526 -0.28761965 0.33637327 0.30820137
0.002266254 0.1737867 -0.33058423 -0.0005185278 0.012690106 0.112372845 -0.05737858 0.28700498
0.32329804 -0.00718039 -0.0044567576 0.21004428 0.08819053 -0.18653347 0.025856366 0.22912893
-0.014151264 0.0036917238 0.039812423 -0.12827456 -0.1415253 -0.24162185 0.26375034 0.085249834
-0.29844743 0.09689757 -0.06564901 -0.037468866 -0.090896405 -0.19359493 0.30210823 -0.03756014
0.24238 0.13099852 0.15796182 0.14008407 0.0707489 0.3514298 0.25183105 -0.27985278
0.021956407 0.19762357 0.015498616 -0.066625014 -0.15709803 -0.015452177 0.14081272 0.013248115
-0.0062835147 0.096294135 0.002203766 -0.3141458 0.09479473 -0.0439453 -0.11348556 -0.22911194
-0.15892266 0.06970574 -0.28338856 -0.29450488 -0.15509596 0.0019974697 0.07099556 0.024803871
0.26362932 -0.09276286 0.1670626 0.009395237 0.23294677 0.007129615 0.14977582 -0.3527313
0.061183486 0.07882466 -0.33126813 0.16860163 -0.23530696 0.082623355 -0.0006594867 -0.06606666
0.0681593 -1.4792202e-05 0.06452632 0.14637394 0.11774189 -0.006779897 -0.09977271 -0.003697604
0.09710103 -0.28039733 -0.0148525825 0.16034946 -0.1867052 0.013346868 -0.052514814 -0.11876403
-0.0070457333 -0.3182875 -0.0118971905 0.11296154 -0.21801394 0.25543404 -0.19415364 -0.15987742
0.06362793 2.3316978e-05 0.37213457 0.0651322 0.2268013 -0.06526664 -0.010621618 0.3742266
-0.19100435 -0.29593223 -0.3867328 -0.035831008 -0.0891286 -0.21521722 -0.25575602 -0.027888652
0.18255167 0.04114574 0.06535724 0.3268762 -0.0023127066 0.27731267 0.3143259 -0.26292714
-0.33527538 -0.047533322 0.34116322 -0.2620325 0.17558771 0.21112713 0.1118601 -0.024759354
0.060271848 0.30700973 0.014584801 -0.008126862 0.165442 -0.35872135 0.25888318 -0.092776984
0.13623449 0.36476678 0.38192955 0.37551802 0.031856038 0.075959966 -0.17170796 0.056229062
00000000: d1c7 9fbe 38b2 7abe 8d46 ab3e d0a9 8f3e
00000010: 1583 d4be 6703 49be 1ac9 2cbe 01b4 a9be
00000020: 53cc 21be 7063 49be d5e6 8f3d 0327 efbd
00000030: d564 2bba df25 38bd 213f 57bd 3cbc babe
00000040: 8ef1 68be 8c8b 2b3e 26e1 20be 631b 92be
00000050: d0a0 843d c975 dfbd fda9 92bd 485a 0736
00000060: 57b8 0cbe 0e9c 403e cd25 273e bf20 163e
00000070: 7141 ac3e 5cc6 abbd f3df b73e 2f1d 7c3e
00000080: 9d97 b4be 6a9e 90be cebe 83be 7b2e 1ebe
00000090: d876 3c3e 2d05 09bd c92a 483e a44b 35bd
000000a0: 40b6 7abe 0929 333e b0fb f7bd d242 26be
000000b0: 7bfe 723c cb64 fa3c 089e 2e3d 9fda 853e
000000c0: 97c0 e6be bc9a b2be 1fb4 a1be 196e 24be
000000d0: 1d0c 61be 254a 5abe 0449 8fbe 96ea 983e
000000e0: 77ce 933d dbdb 573e 1be0 413b c834 853d
000000f0: 4e2c a93d 8bcb 04be 406e 2abd 8497 8a3e
00000100: 6e2f 83be fee2 863e b304 0f3e fd0f 453d
00000110: ae6f bc3e 188f d8bd 7665 2cbe e2f4 e0be
00000120: 5667 863e 8a53 6bbe 1773 853d 728b 87be
00000130: 8884 293e 11bb afbc f420 903e 3e41 a9be
00000140: af04 a8bd 163d 49bd 6b4c 21bd aea0 01be
00000150: 021d a4be 2ff8 53bb f8e0 803e 42de c83d
00000160: b49e 933e 1a97 d4be a659 2cbe 5df7 983e
00000170: d3d0 bcbd 31f3 a5be ea4f 763e 578f 8dbd
00000180: 2fde a0be 6034 b53d 0291 513e 337f 6bbe
00000190: 4375 9d3e e242 93be 1e39 ac3e 92cc 9d3e
000001a0: 6f85 143b 24f5 313e 5642 a9be d0ed 07ba
000001b0: 2aea 4f3c bc23 e63d cd05 6bbd 51f2 923e
000001c0: 5287 a53e 7a49 ebbb fe09 92bb d915 573e
000001d0: 3d9d b43d a102 3fbe bbd0 d33c c6a0 6a3e
000001e0: b4da 67bc d9f0 713b 5a12 233d 685a 03be
000001f0: 02ec 10be b86b 77be 490a 873e 7797 ae3d
00000200: 1ace 98be 3c72 c63d fd72 86bd f478 19bd
00000210: e527 babd c03d 46be eead 9a3e a9d8 19bd
00000220: 7632 783e 7a24 063e bec0 213e 3372 0f3e
00000230: cde4 903d 9bee b33e 00f0 803e dd48 8fbe
00000240: ecdd b33c d55d 4a3e e8ed 7d3c b272 88bd
00000250: 4ede 20be 212b 7dbc 3631 103e 9f0e 593c
00000260: f1e5 cdbb dc35 c53d 0f6d 103b b8d7 a0be
00000270: bd23 c23d fdff 33bd 1e6b e8bd 529c 6abe
00000280: 9fbc 22be e2c1 8e3d 4e18 91be 58c9 96be
00000290: 7ad1 1ebe fbe7 023b 1f66 913d 7d31 cb3c
000002a0: 6cfa 863e 74fa bdbd 7512 2b3e 7bee 193c
000002b0: 9989 6e3e 8c9f e93b d55e 193e 3299 b4be
000002c0: 899b 7a3d d36e a13d fa9b a9be e8a5 2c3e
000002d0: 4ff4 70be 6f36 a93d 67e1 2cba f54d 87bd
000002e0: 1a97 8b3d 062c 78b7 6026 843d 0de3 153e
000002f0: a922 f13d e629 debb a255 ccbd 8053 72bb
00000300: e8dc c63d 3d90 8fbe 3f58 73bc a632 243e
00000310: a62f 3fbe d2ac 5a3c c619 57bd 8e3a f3bd
00000320: e5df e6bb 94f6 a2be 6fec 42bc 6158 e73d
00000330: 0c3f 5fbe 40c8 823e 36d0 46be e8b6 23be
00000340: 5c4f 823d d498 c337 6c88 be3e 0864 853d
00000350: 9a3e 683e 84aa 85bd 4b06 2ebc a19a bf3e
00000360: a596 43be 6e84 97be d701 c6be 89c3 12bd
00000370: 0e89 b6bd e761 5cbe 74f2 82be be76 e4bc
00000380: d3ee 3a3e 6f88 283d 04da 853d 515c a73e
00000390: c790 17bb edfb 8d3e 53ef a03e 639e 86be
000003a0: 37a9 abbe 4db2 42bd f2ac ae3e 2029 86be
000003b0: 44cd 333e b631 583e e816 e53d 21d4 cabc
000003c0: 9ddf 763d 6130 9d3e 17f5 6e3c 8826 05bc
000003d0: a169 293e 53aa b7be 568c 843e dc01 bebd
000003e0: 0e81 0b3e b6c2 ba3e 458c c33e e643 c03e
000003f0: 7a7b 023d e690 9b3d 36d4 2fbe 7250 663d

GRU_Q.weight_hh_l0 f4 [12, 4]
-0.03270983 -0.1389109 0.09521788 0.4037925 -0.11179987 0.0014632213 -0.01216752 -0.08666367
-0.104252666 -0.31448075 -0.34990004 0.01593494 0.2287885 -0.1025099 0.17687699 0.0010901976
-0.09579476 0.12644216 -0.1722595 -0.36456287 0.07972608 0.35849097 0.2623178 0.42024824
0.30379555 0.09804249 0.33647192 0.3467335 0.46479452 -0.31720585 0.11077997 -0.31150565
0.08081771 -0.33807552 0.34167343 -0.3707484 -0.38827467 0.01056572 0.32101393 -0.03805754
-0.28642398 0.28647923 -0.28121844 -0.13662829 0.4016658 -0.0817613 -0.0013931786 0.24526982
00000000: befa 05bd a93e 0ebe 9801 c33d e4bd ce3e
00000010: 55f7 e4bd 8fc9 bf3a 475a 47bc b97c b1bd
00000020: 6c82 d5bd 9f03 a1be 1926 b3be fe89 823c
00000030: 8847 6a3e b6f0 d1bd 3e1f 353e f6e4 8e3a
00000040: 0b30 c4bd 0e7a 013e cb64 30be fca7 babe
00000050: 6d47 a33d 218c b73e 854e 863e c72a d73e
00000060: 178b 9b3e 80ca c83d 0c46 ac3e 0e87 b13e
00000070: 8cf9 ed3e ce68 a2be 9ce0 e23d ab7d 9fbe
00000080: c183 a53d 3c18 adbe d2ef ae3e bcd2 bdbe
00000090: f0cb c6be d71b 2d3c f05b a43e 39e2 1bbd
000000a0: 2aa6 92be 68ad 923e ddfb 8fbe 49e8 0bbe
000000b0: 24a7 cd3e 7872 a7bd 519b b6ba 0328 7b3e

GRU_Q.bias_ih_l0 f4 [12]
0.28902397 0.33284262 -0.0088765565 0.07644953 -0.022028465 0.45835397 -0.12263019 -0.080998585
-0.043797087 0.41289294 -0.43595365 0.3441187
00000000: f3fa 933e 596a aa3e fa6e 11bc 9291 9c3d
00000010: 0a75 b4bc 5fad ea3e 8925 fbbd 96e2 a5bd
00000020: 9364 33bd b466 d33e 5135 dfbe 5430 b03e

GRU_Q.bias_hh_l0 f4 [12]
0.39578494 0.13926336 0.34396294 0.07829838 0.29841954 -0.034016695 -0.012894586 0.120985515
0.2448678 0.3257631 -0.09347235 -0.50271875
00000000: 53a4 ca3e 0e9b 0e3e e91b b03e e75a a03d
00000010: 72ca 983e 1755 0bbd d043 53bc 41c7 f73d
00000020: a0be 7a3e 6cca a63e 6e6e bfbd 2db2 00bf

GRU_Sigma.weight_ih_l0 f4 [12, 104]
0.28577334 -0.40670732 0.161669 0.3148352 0.3324206 0.2561612 -0.3941294 0.33800706
0.118857145 0.26973322 0.27887383 0.006212696 -0.28691605 -0.34891424 -0.18726484 0.31153822
-0.028868727 0.26514462 0.2178387 0.12709337 0.017454803 -0.30934775 0.3665515 -0.0959754
0.11492281 -0.24162346 0.18076544 0.059903175 0.029633066 -0.007296672 0.15241973 -0.36426154
-0.30067235 0.30247545 0.18697003 0.3016722 -0.104638815 -0.30688146 0.06705547 -0.06476878
0.3351419 0.23403946 -1.0275229e-05 0.20341755 0.14384957 -0.15496825 0.24506955 0.034640726
-0.22354944 -0.16162482 -0.12835687 -0.37522402 -0.21473204 0.018232694 -0.037553474 0.23629965
-0.28973097 -0.091130525 -0.31690937 -0.010376078 0.2746641 -0.09135668 0.13849208 0.33738983
-0.018634718 -0.27423164 -0.28737748 -0.24412894 0.109744206 -0.09112039 -0.07433076 0.10098189
-0.0074560693 -0.10590727 -0.16225283 -0.08811867 0.25671542 0.14109421 0.2440268 -0.24102126
-0.0033978042 0.33660227 0.004244715 -0.21388203 -0.01163772 0.0016928421 -0.12249422 0.2651406
-0.31811666 0.0069744647 -0.10236361 0.32140374 0.18216833 0.26516968 0.0066522597 0.09094332
-0.17110446 -0.004126722 -0.1585133 0.15404618 -0.27944145 -0.10205122 -0.07530264 0.2383851
0.014608473 0.25121358 -0.18394604 0.31815916 -0.08096431 0.0136374505 -0.3389933 -0.2798417
-0.29706696 -0.38999137 -0.28743818 -0.08967624 0.37141278 -0.27861208 -0.30900663 -0.22656183
0.33395132 0.15894324 0.070097245 -0.15422122 0.23829219 -0.2004919 0.29428214 -0.17924304
0.02661771 -0.11316881 -0.14587565 0.14056788 0.29506168 -0.059800766 0.0932417 -0.13888589
0.13239582 0.38946065 0.13588665 0.3385806 -0.28308263 0.24251224 -0.16259016 0.08713105
0.3655928 -0.19480689 -0.07775951 -0.0007649874 0.19952486 -0.2721554 0.01138851 -0.33863193
-0.23726766 0.16076446 -0.07448986 -0.2686823 0.07019733 0.37886596 0.24293365 0.14706935
-0.26503247 -0.071941175 0.30746034 0.23751019 0.07227772 0.18951452 -0.018647479 0.041862663
0.20833309 -0.108407505 -0.15285067 -1.2496908e-05 0.2689082 0.013106673 0.011067805 0.39860046
-0.12962826 -0.1049981 -0.13416238 0.27072322 -0.19209275 -0.0950254 -0.051584847 -0.3588134
0.22669424 -0.4147869 -0.028855156 -0.17417514 -0.041471977 0.22723983 0.03100224 -0.33346334
0.009240157 -0.016506642 -0.33708474 -0.2445226 -0.13311604 -0.057794098 -0.2941158 0.29624107
0.32310095 0.002937635 0.2485935 -0.14763288 0.32838404 -0.24305785 -0.10811099 0.43133515
-0.06497747 -0.124828085 0.16673116 0.017817771 -0.14377728 -0.09290357 -0.20577039 -0.186683
-0.20582867 0.3784703 -0.33834147 0.41313082 -0.24940364 0.06964748 0.33534524 -1.2645793e-05
-0.43292445 -0.17804664 0.25055945 0.14029562 0.14477386 0.07053903 -0.2628145 -0.18509756
0.12181992 -0.18985976 -0.29742798 0.29711777 -0.14369993 -0.3049485 0.24841034 -0.38072178
0.13575327 0.15846093 0.13986787 -0.25394177 0.38967752 0.33343285 -0.00854902 -0.3419459
-0.0885021 0.27065068 -1.9287047e-05 0.18421185 0.2529263 -0.40851074 -0.21580657 0.22263592
00000000: e250 923e f13b d0be 8f8c 253e 1432 a13e
00000010: 0833 aa3e 9027 833e 54cb c9be 430f ad3e
00000020: 606b f33d 791a 8a3e 8dc8 8e3e df93 cb3b
00000030: a9e6 92be e3a4 b2be 5bc2 3fbe f081 9f3e
00000040: 1c7e ecbc 09c1 873e 1c11 5f3e c424 023e
00000050: 60fd 8e3c d462 9ebe a3ac bb3e c08e c4bd
00000060: a65c eb3d 246c 77be 931a 393e 085d 753d
00000070: 0bc1 f23c ec18 efbb eb13 1c3e 7d80 babe
00000080: baf1 99be 10de 9a3e 1275 3f3e c774 9a3e
00000090: e04c d6bd 911f 9dbe 6154 893d 7ea5 84bd
000000a0: b897 ab3e 0aa8 6f3e c663 2cb7 b14c 503e
000000b0: 4d4d 133e ffaf 1ebe 83f3 7a3e 6fe3 0d3d
000000c0: 25ea 64be fa80 25be fc6f 03be 5d1d c0be
000000d0: b7e2 5bbe bb5c 953c acd1 19bd 89f8 713e
000000e0: 9e57 94be a4a2 babd f241 a2be 6d00 2abc
000000f0: c6a0 8c3e 3619 bbbd ded0 0d3e 5cbe ac3e
00000100: d6a7 98bc 1768 8cbe 2423 93be f0fc 79be
00000110: 92c1 e03d 549d babd ba3a 98bd 98cf ce3d
00000120: 0b52 f4bb e9e5 d8bd 9b25 26be 9077 b4bd
00000130: 3470 833e 007b 103e 29e2 793e 47ce 76be
00000140: b2ad 5ebb 2257 ac3e 4017 8b3b e403 5bbe
00000150: 23ac 3ebc 5be2 dd3a 40de fabd 82c0 873e
00000160: 30e0 a2be 0d8a e43b 03a4 d1bd 088f a43e
00000170: 568a 3a3e 52c4 873e 33fb d93b 7e40 ba3d
00000180: 0236 2fbe 7439 87bb 4f51 22be 48be 1d3e
00000190: f312 8fbe 3b00 d1bd 4538 9abd 391b 743e
000001a0: 6058 6f3c 119f 803e 5a5c 3cbe c2e5 a23e
000001b0: 9ed0 a5bd 9d6f 5f3c 8890 adbe 6947 8fbe
000001c0: 2919 98be f3ac c7be 192b 93be 2da8 b7bd
000001d0: d129 be3e 3ea6 8ebe 1e36 9ebe d3ff 67be
000001e0: abfb aa3e 04c2 223e 258f 8f3d 2bec 1dbe
000001f0: de02 743e c04d 4dbe 26ac 963e 7d8b 37be
00000200: 620d da3c 0dc5 e7bd 6d60 15be 07f1 0f3e
00000210: 5312 973e a6f1 74bd 81f5 be3d 1a38 0ebe
00000220: c592 073e 6367 c73e df25 0b3e 705a ad3e
00000230: 35f0 90be 2155 783e 097e 26be c471 b23d
00000240: fb2e bb3e 757b 47be 6140 9fbd 6f89 48ba
00000250: 3f50 4c3e f457 8bbe e096 3a3c 2a61 adbe
00000260: 4bf6 72be 709f 243e 248e 98bd ba90 89be
00000270: 9ec3 8f3d b8fa c13e 99c3 783e 5999 163e
00000280: 56b2 87be e555 93bd 716b 9d3e df35 733e
00000290: 5706 943d 1810 423e 99c2 98bc 2f78 2b3d
000002a0: 4555 553e c104 debd e384 1cbe d0a9 51b7
000002b0: 56ae 893e 5fbd 563c bd55 353c 5c15 cc3e
000002c0: 45bd 04be 3e09 d7bd dd61 09be 3c9c 8a3e
000002d0: f6b3 44be ad9c c2bd a24a 53bd 64b6 b7be
000002e0: 8922 683e f35e d4be a661 ecbc f85a 32be
000002f0: 85de 29bd 8fb1 683e 69f8 fd3c b5bb aabe
00000300: 0764 173c f038 87bc 5f96 acbe 2264 7abe
00000310: 924f 08be 81b9 6cbd 5996 96be e9ac 973e
00000320: 7d6d a53e 5685 403b 4b8f 7e3e 132d 17be
00000330: f421 a83e 28e4 78be 4b69 ddbd f6d7 dc3e
00000340: e812 85bd dea5 ffbd 93bb 2a3e 93f6 913c
00000350: 5a3a 13be 3a44 bebd 79b5 52be d429 3fbe
00000360: c0c4 52be dcc6 c13e 183b adbe e285 d33e
00000370: ab63 7fbe 57a3 8e3d 5fb2 ab3e 4429 54b7
00000380: 46a8 ddbe dc51 36be 5449 803e a8a9 0f3e
00000390: 993f 143e c476 903d 9f8f 86be 378a 3dbe
000003a0: b97c f93d 996a 42be 7b48 98be d21f 983e
000003b0: 1326 13be 3622 9cbe 485f 7e3e f7ed c2be
000003c0: e802 0b3e 9543 223e 8639 0f3e a804 82be
000003d0: d083 c73e b6b7 aa3e 3011 0cbc 8813 afbe
000003e0: 9740 b5bd ba92 8a3e 9eca a1b7 08a2 3c3e
000003f0: 8e7f 813e 5228 d1be 66fc 5cbe acfa 633e

GRU_Sigma.weight_hh_l0 f4 [12, 4]
0.23934837 0.10519659 -1.0674225e-05 0.36283424 0.24200456 -0.124653056 -0.039958794 0.020225521
0.32200655 0.06597815 -0.21234092 -0.22613737 -0.32421777 -0.14965224 4.2454726e-06 -0.38002363
-0.11631751 0.29016325 -1.6293547e-05 -0.084831834 0.26394594 -0.2629134 -0.256254 0.09792134
0.101006776 -0.20715432 -0.29643446 0.041586783 -0.07597723 0.00015765971 -0.021663897 0.33877718
-0.24708617 -0.083113626 -0.07642032 -0.040816743 -0.2856616 0.2501562 0.037027013 -0.24020481
-0.026658665 -0.10725738 -4.5053835e-06 -0.3787497 -0.29910442 -0.16367131 -0.01792852 -0.0131288115
00000000: bd17 753e 4f71 d73d 7315 33b7 69c5 b93e
00000010: 0bd0 773e 1a4a ffbd d5ab 23bd feaf a53c
00000020: 0bde a43e 8d1f 873d e66f 59be 8e90 67be
00000030: dfff a5be 703e 19be 5574 8e36 7592 c2be
00000040: e037 eebd 4790 943e 20ae 88b7 50bc adbd
00000050: ec23 873e 969c 86be b933 83be fc8a c83d
00000060: a4dc ce3d 4320 54be 42c6 97be e756 2a3d
00000070: f399 9bbd 7551 2539 7c78 b1bc 3474 ad3e
00000080: 2804 7dbe 7a37 aabd 4282 9cbd 752f 27bd
00000090: 3d42 92be 7914 803e a3a9 173d 40f8 75be
000000a0: 4663 dabc c2a9 dbbd f32c 97b6 7beb c1be
000000b0: 3724 99be 7499 27be d5de 92bc 3a1a 57bc

GRU_Sigma.bias_ih_l0 f4 [12]
0.021962417 0.445925 0.25696254 -0.33136836 0.46756208 0.38140476 -0.1252015 -0.118987806
0.14518973 -0.15793039 -0.28246155 0.32701197
00000000: 87ea b33c 4850 e43e 9890 833e 1da9 a9be
00000010: 4c64 ef3e 7c47 c33e d234 00be e1af f3bd
00000020: 9eac 143e 81b8 21be cd9e 90be 1d6e a73e

GRU_Sigma.bias_hh_l0 f4 [12]
-0.03679186 0.31658167 -0.45243034 0.14511074 -0.026963614 0.020749256 -0.09062481 -0.030023813
0.1093074 0.47202015 -0.46193835 -0.28486976
00000000: 10b3 16bd fe16 a23e f3a4 e7be e997 143e
00000010: cce2 dcbc 58fa a93c 8099 b9bd 80f4 f5bc
00000020: 8fdc df3d a0ac f13e 2f83 ecbe 73da 91be

GRU_S.weight_ih_l0 f4 [3, 101]
-0.19878002 -0.39538917 0.0013070907 0.21825077 0.43356922 0.5240229 0.2637018 0.8152439
0.0807256 -0.003009781 -0.040471468 -0.7352735 0.70567083 -0.7897668 -0.4550194 0.06917537
-0.6344778 -0.5649342 -0.5890948 -0.28614292 0.6873789 0.79860204 -0.7848199 0.83035856
-0.009337909 -0.059238315 -0.47943327 0.4335097 -0.60647166 0.15334351 -0.040113807 0.52961206
0.54527634 0.5553573 0.3469895 -0.17680542 -0.15677111 0.8164167 0.6783826 0.23238559
0.35024956 0.7475026 0.7093658 -0.55345243 0.33807 0.7853302 0.42482963 0.2184
0.44149256 0.00047695433 -0.042080313 0.74593574 -0.13280702 -0.39395258 0.11770376 0.25642464
0.044519953 0.37306845 -0.06281842 0.5397568 -0.493256 0.8665617 -0.28078958 -0.47364685
-0.7144381 0.17425372 -0.733326 0.11764064 0.0018629029 -0.030379618 0.59585917 0.35453683
-0.3956629 0.5637497 0.7348301 -0.1115879 0.43758008 -0.033380028 -0.6428974 -0.43833768
0.18240651 0.18232971 0.30118597 -0.61864656 -0.1348378 -0.22472824 -0.4297997 0.52002114
0.002245433 -0.037481718 -0.0406878 0.09203633 0.75966626 -0.15293676 -0.37414664 -0.4475595
0.27297637 0.8757277 0.67142415 0.6677564 -0.008966316 0.8027404 0.59873873 0.73485386
-0.3579378 0.21798198 -0.098527394 0.5418566 0.6586925 -0.819895 -0.275473 -0.13962542
-0.9054839 0.5633344 -0.118698135 0.5704353 0.6242438 0.2003349 -0.2766721 -0.1697399
0.732908 0.6909663 0.010451718 -0.075985365 0.30881906 0.16600758 -0.8135106 0.43179658
-0.46538523 0.71905214 0.39962313 0.40214235 0.69063544 0.27800182 0.17200541 0.781126
0.29294318 -0.7844422 -0.13636877 0.8866183 -0.019994603 -0.7214978 -0.41905406 -0.21619365
0.66733754 0.06409916 -0.699264 -0.32083917 -0.75108564 0.40907916 0.6866841 0.27990434
-0.6676709 0.53829366 0.6312107 -0.19162321 -0.5409563 0.27436683 0.7540136 0.16393878
-0.793673 -0.09029346 -0.45083407 0.6560526 -0.1403719 0.7249944 0.63180494 -0.8808673
0.8095888 -0.5186841 0.5335126 0.3606477 0.030110365 -0.78636163 -0.71308553 -0.051491354
0.69565666 0.6623531 0.19450194 0.41631714 -0.3534737 0.15816072 0.050526086 0.17120595
-0.27622503 -0.506875 0.74275875 0.59011084 0.80869156 -0.22500983 0.26904416 0.82654077
0.8258087 -0.037666194 -0.16416998 0.07334242 -0.8857675 -2.3761237e-05 -0.83165085 0.09466114
-0.06830001 -0.59070987 -0.56866 0.58215564 -0.31848812 -0.8804385 0.16253284 0.7225184
0.85703284 0.25066954 3.6693025e-05 0.16541263 -0.7672313 0.7700692 0.09134693 -0.007279251
-0.9193028 0.8318239 -0.6766877 -0.5964528 -0.15472826 -0.15023844 -0.5671338 -0.03868391
0.32367787 -0.03105637 0.43871757 -0.14930865 0.22638431 -0.18586403 -0.76755625 -0.111305706
0.7917339 0.6207301 -0.12600453 0.1399906 0.03849098 -0.09066137 0.54337525 -0.696159
0.7823031 0.7508489 -0.68699896 -0.0849713 -0.11933468 -0.4290105 0.69020855 0.51936954
-0.21972536 -0.24483445 0.35042554 0.5015049 0.003241094 0.54939187 -0.29570857 0.64060146
00000000: fd8c 4bbe 7370 cabe b052 ab3a 217d 5f3e
00000010: c9fc dd3e 5d26 063f ec03 873e d3b3 503f
00000020: 7753 a53d bf3f 45bb 69c5 25bd e23a 3cbf
00000030: d8a6 343f 282e 4abf 4ef8 e8be d1ab 8d3d
00000040: 236d 22bf 879f 10bf ebce 16bf 5381 92be
00000050: 10f8 2f3f 2f71 4c3f f5e9 48bf 6192 543f
00000060: 07fe 18bc e0a3 72bd 4778 f5be fcf4 dd3e
00000070: ba41 1bbf 1506 1d3e 604e 24bd a894 073f
00000080: 3b97 0b3f e52b 0e3f 9ca8 b13e 7b0c 35be
00000090: 9b88 20be af00 513f 7baa 2d3f 7df6 6d3e
000000a0: e953 b33e 555c 3f3f ff98 353f 0faf 0dbf
000000b0: 8317 ad3e 660b 493f 4583 d93e 40a4 5f3e
000000c0: 500b e23e ba0f fa39 685c 2cbd a5f5 3e3f
000000d0: 90fe 07be 27b4 c9be ab0e f13d 174a 833e
000000e0: 8e5a 363d d402 bf3e f2a6 80bd 802d 0a3f
000000f0: 0d8c fcbe fdd6 5d3f a7c3 8fbe d781 f2be
00000100: 6ae5 36bf 916f 323e 41bb 3bbf 93ed f03d
00000110: a62c f43a adde f8bc 3a8a 183f da85 b53e
00000120: 5494 cabe e651 103f d31d 3c3f 3288 e4bd
00000130: 7f0a e03e 7fb9 08bd ed94 24bf cc6d e0be
00000140: c6c8 3a3e a4b4 3a3e 0c35 9a3e 9f5f 1ebf
00000150: ec12 0abe 291f 66be b50e dcbe 1b20 053f
00000160: 1d28 133b 6e86 19bd 40a8 26bd 8b7d bc3d
00000170: 7d79 423f 749b 1cbe 2690 bfbe 8526 e5be
00000180: 8fc3 8b3e b12f 603f 74e2 2b3f 15f2 2a3f
00000190: 74e7 12bc 6580 4d3f f146 193f 621f 3c3f
000001a0: a043 b7be ab36 5f3e bbc8 c9bd 1db7 0a3f
000001b0: 12a0 283f a4e4 51bf cc0a 8dbe f7f9 0ebe
000001c0: cbcd 67bf af36 103f 0218 f3bd 0c08 123f
000001d0: 71ce 1f3f 9824 4d3e f7a7 8dbe 4cd0 2dbe
000001e0: dc9f 3b3f 2be3 303f af3d 2b3c 379e 9bbd
000001f0: 881d 9e3e e4fd 293e 3b42 50bf 7114 dd3e
00000200: f946 eebe cd13 383f 679b cc3e 9ae5 cd3e
00000210: 7ccd 303f 4156 8e3e 3022 303e e0f7 473f
00000220: a6fc 953e 34d1 48bf 41a4 0bbe 6bf9 623f
00000230: b9cb a3bc 14b4 38bf 418e d6be de61 5dbe
00000240: a2d6 2a3f 6c46 833d f702 33bf 0845 a4be
00000250: 2647 40bf d372 d13e 87ca 2f3f 9f4f 8f3e
00000260: 7bec 2abf 9dcd 093f 0697 213f e038 44be
00000270: 1d7c 0abf cf79 8c3e 0907 413f 91df 273e
00000280: 272e 4bbf c7eb b8bd b9d3 e6be 10f3 273f
00000290: a7bd 0fbe 3c99 393f f8bd 213f 8580 61bf
000002a0: 3641 4f3f 7bc8 04bf 4894 083f d1a6 b83e
000002b0: 03aa f63c ff4e 49bf c68c 36bf 99e8 52bd
000002c0: 8e16 323f f98f 293f 842b 473e 8527 d53e
000002d0: 81fa b4be e2f4 213e 71f4 4e3d 9d50 2f3e
000002e0: 5e6d 8dbe 8fc2 01bf 7025 3e3f 8111 173f
000002f0: 6906 4f3f fa68 66be 28c0 893e 2d98 533f
00000300: 3368 533f de47 1abd 2d1c 28be 8d34 963d
00000310: a9c1 62bf de52 c7b7 12e7 54bf b3dd c13d
00000320: e0e0 8bbd c338 17bf b493 11bf 2708 153f
00000330: e010 a3be 6b64 61bf 026f 263e f7f6 383f
00000340: 8166 5b3f c257 803e d6e6 1938 ee61 293e
00000350: 4569 44bf 4123 453f 1914 bb3d c886 eebb
00000360: 6e57 6bbf 69f2 543f 683b 2dbf 21b1 18bf
00000370: 1671 1ebe 1bd8 19be ae2f 11bf 0573 1ebd
00000380: 1bb9 a53e ee69 febc 979f e03e 5ee4 18be
00000390: 4ad1 673e 2453 3ebe 917e 44bf 3ff4 e3bd
000003a0: 13af 4a3f 2be8 1e3f 5507 01be b259 0f3e
000003b0: b8a8 1d3d abac b9bd a41a 0b3f 7a37 32bf
000003c0: 0445 483f a237 403f 2adf 2fbf 6f05 aebd
000003d0: be65 f4bd 44a7 dbbe 82b1 303f 67f5 043f
000003e0: afff 60be e2b5 7abe fa6a b33e a062 003f
000003f0: 8968 543b f2a4 0c3f 1d67 97be 75fe 233f

GRU_S.weight_hh_l0 f4 [3, 1]
0.5163104 0.07226777 0.058956765
00000000: eb2c 043f 2001 943d a67c 713d

GRU_S.bias_ih_l0 f4 [3]
-0.098253265 0.70828694 -0.708273
00000000: 0239 c9bd 4b52 353f 6151 35bf

GRU_S.bias_hh_l0 f4 [3]
0.75255555 0.043746293 0.7919623
00000000: 7ba7 403f 502f 333d 0bbe 4a3f

FC1.0.weight f4 [1, 4]
-0.28535512 0.08009091 0.23165981 -0.30915645
00000000: 111a 92be b406 a43d 3b38 6d3e c149 9ebe

FC2.0.weight f4 [200, 5]
0.14450154 -9.066465e-06 -0.19964221 0.26956266 -0.26020256 -0.0076833544 0.0005766278 0.10818863
-0.120887615 4.1770777e-06 0.05909589 0.24605618 0.1455937 -0.45619398 0.3208831 0.06809714
-0.11334428 -0.34034523 0.27774584 0.4089312 0.0034446686 -0.23987527 0.14469656 -0.026993858
-0.062499315 -9.870776e-05 1.5426895e-06 2.3883942e-05 -0.10521427 -0.1433356 0.30334198 -0.33958447
0.38148403 -0.20742759 0.1996309 0.38872427 -0.25620902 -0.049504638 -0.02293616 0.06415355
-0.17949659 -0.114218876 0.18318632 0.15779066 -0.054186035 -0.44012392 0.206111 -0.35262427
-0.21549079 0.4204308 0.057040952 0.09236987 -0.27898526 -0.36877358 0.017003726 -0.06428771
0.21151708 -0.27019858 -0.39354724 0.10227554 0.10823596 0.26102975 -0.09178986 0.14474598
0.26651815 -0.16225256 0.38893777 -0.31649333 0.1127835 0.42971224 -0.38820454 0.13450372
0.07053569 -0.008280089 0.30342656 0.13047981 -0.031284455 0.31070757 -0.06258436 0.33965153
0.27574316 0.019625906 -0.00097652216 -0.10411077 -0.19077523 0.040948812 -0.06486871 -0.020123016
-0.04503495 -0.002522655 -0.42589712 0.31671378 -0.07580541 -0.1502666 0.26196143 0.23843013
-0.15415426 0.38454103 0.19014433 -0.012686141 0.15994605 0.08519362 -0.28383827 -0.4281553
0.252829 0.2849918 0.12582052 0.092638545 4.696892e-05 -0.19216527 -0.14666127 -0.0029801177
-0.17539732 0.09504427 -0.2652972 -0.23693149 0.10891584 -0.17282209 0.014456417 0.12269849
0.043978155 0.18701611 0.034893002 0.033892896 -0.018599534 0.31914473 0.25813156 -0.17255577
0.06442178 0.27316603 0.26665348 -0.24489534 0.32511207 -0.38861984 0.12195824 -0.04949972
-0.10753596 2.3246728e-05 8.650333e-05 -5.063557e-06 -0.21286461 0.27208957 -0.2211762 0.016044352
0.248309 -0.058102507 -0.014651145 -0.014936973 -0.08900902 -0.12600635 -0.32477963 -0.09340881
0.084984176 0.031145781 -0.056144103 0.1818653 -0.12990965 0.18254134 0.21349058 0.4163784
-0.38623545 0.439095 -0.24270323 -0.34621054 -0.08655549 0.36076468 -0.020606134 0.09951045
0.09006476 0.0016923153 -0.25681987 0.072121315 -0.051451843 -0.14792383 0.024505937 0.016065001
-0.22462523 0.19373757 0.1639733 0.020974344 -0.17614943 0.27385277 -0.035067543 -0.30758587
0.18934602 -0.23186632 -0.08209905 -0.24572138 -0.047152992 -0.1836202 -0.040960222 0.1290631
-0.15134868 0.14599028 -0.16350777 0.025602879 0.3203381 -0.1170449 0.19901633 -0.17550337
-0.17477445 -0.32394478 0.3521581 0.3118056 0.3105593 -0.20624459 0.05441174 0.33134
-0.26292428 -0.3111132 0.08571992 0.17555214 -0.0264341 -0.09962624 0.04292571 -0.33923867
-0.33054137 -0.2346395 0.19173245 0.23460129 0.07967625 0.11826782 -0.28244725 0.1337075
0.06495 0.4068556 -0.4297564 0.30195343 0.26334018 0.0643147 -0.13264744 -0.35433516
-0.23175783 0.22758524 0.20005491 0.08345627 -0.004237442 0.10867745 -0.025271164 -0.2922025
0.16902654 0.4134674 0.4228586 0.09339124 0.054530513 0.12364348 0.30459023 -0.00414787
0.30720583 0.21524997 0.3207717 -0.113002606 -0.15854882 0.023317615 0.19411226 0.25403866
00000000: 36f8 133e 2c1c 18b7 026f 4cbe 1e04 8a3e
00000010: 4539 85be a6c4 fbbb d628 173a 0092 dd3d
00000020: ed93 f7bd d328 8c36 880e 723d 27f6 7b3e
00000030: 8416 153e 4292 e9be ca4a a43e 8376 8b3d
00000040: 0c21 e8bd bb41 aebe b434 8e3e 6e5f d13e
00000050: f3bf 613b dda1 75be 562b 143e 3922 ddbc
00000060: 48ff 7fbd 5301 cfb8 680e cf35 605a c837
00000070: 947a d7bd 91c6 12be a44f 9b3e 04de adbe
00000080: e051 c33e e667 54be 0b6c 4c3e de06 c73e
00000090: d42d 83be 60c5 4abd 9de4 bbbc f062 833d
000000a0: f4cd 37be 96eb e9bd 3295 3b3e e093 213e
000000b0: 2df2 5dbd ec57 e1be c30e 533e 2b8b b4be
000000c0: 9ea9 5cbe b542 d73e c6a3 693d 6a2c bd3d
000000d0: 28d7 8ebe e4cf bcbe 664b 8b3c 46a9 83bd
000000e0: ef97 583e 7857 8abe 067f c9be d775 d13d
000000f0: d1aa dd3d b1a5 853e 52fc bbbd 4a38 143e
00000100: 1175 883e 8925 26be da22 c73e 6a0b a2be
00000110: 09fb e63d 3e03 dc3e bfc2 c6be 58bb 093e
00000120: 0475 903d 36a9 07bc ba5a 9b3e 809c 053e
00000130: 2124 00bd 1015 9f3e 3b2c 80bd cee6 ad3e
00000140: 352e 8d3e 82c6 a03c 4bfd 7fba 0738 d5bd
00000150: 955a 43be f1b9 273d e3d9 84bd 06d9 a4bc
00000160: 9176 38bd 2153 25bb 300f dabe 4f28 a23e
00000170: de3f 9bbd 7ddf 19be cf1f 863e 0727 743e
00000180: 9dda 1dbe 90e2 c43e 32b5 423e 88d9 4fbc
00000190: e6c8 233e fe79 ae3d 4053 91be 2c37 dbbe
000001a0: cd72 813e 72ea 913e 18d7 003e 47b9 bd3d
000001b0: 7e00 4538 f9c6 44be 5f2e 16be 144e 43bb
000001c0: 5b9b 33be 92a6 c23d 09d5 87be 2b9e 72be
000001d0: 450f df3d 46f8 30be 9cda 6c3c 5949 fb3d
000001e0: 7022 343d 2781 3f3e f7eb 0e3d 47d3 0a3d
000001f0: 0d5e 98bc f066 a33e d229 843e 76b2 30be
00000200: 91ef 833d 6bdc 8b3e ce86 883e d8c5 7abe
00000210: 1775 a63e 2ef9 c6be 3ec5 f93d 38c0 4abd
00000220: d03b dcbd f801 c337 1f69 b538 a0e7 a9b6
00000230: 2ef9 59be 534f 8b3e 047c 62be 726f 833c
00000240: b744 7e3e e5fc 6dbd 5b0b 70bc 35ba 74bc
00000250: 5c4a b6bd cf07 01be 8449 a6be 1e4d bfbd
00000260: 2f0c ae3d 7025 ff3c 5cf7 65bd e63a 3a3e
00000270: 0907 05be 1eec 3a3e 469d 5a3e 8d2f d53e
00000280: a7c0 c5be 0fd1 e03e 3287 78be 8242 b1be
00000290: 0144 b1bd 26b6 b83e 32ce a8bc 23cc cb3d
000002a0: df73 b83d aed0 dd3a e57d 83be 57b4 933d
000002b0: 2bbf 52bd 5879 17be adc0 c83c c09a 833c
000002c0: 2804 66be 2463 463e 9ee8 273e 63d2 ab3c
000002d0: 8460 34be 6e36 8c3e fca2 0fbd e57b 9dbe
000002e0: ece3 413e 5d6e 6dbe 8c23 a8bd 639e 7bbe
000002f0: 7f23 41bd ef06 3cbe e8c5 27bd 1e29 043e
00000300: 26fb 1abe 7a7e 153e 956e 27be 21bd d13c
00000310: 5b03 a43e 3db5 efbd f0ca 4b3e 28b7 33be
00000320: 13f8 32be 17dc a5be 114e b43e fca4 9f3e
00000330: a101 9f3e c831 53be d8de 5e3d 65a5 a93e
00000340: 039e 86be 3b4a 9fbe ed8d af3d f1c3 333e
00000350: 538c d8bc d808 ccbd dfd2 2f3d b1b0 adbe
00000360: b83c a9be 5645 70be 8355 443e 523b 703e
00000370: 4d2d a33d 6636 f23d ed9c 90be 9eea 083e
00000380: 8104 853d 614f d03e 0809 dcbe a499 9a3e
00000390: 86d4 863e 6db7 833d bbd4 07be 6b6b b5be
000003a0: ed51 6dbe 1b0c 693e 32db 4c3e 1feb aa3d
000003b0: 3dda 8abb 4892 de3d 7905 cfbc 919b 95be
000003c0: 4b15 2d3e 00b2 d33e ec80 d83e e843 bf3d
000003d0: 635b 5f3d cb38 fd3d 40f3 9b3e dbea 87bb
000003e0: 154a 9d3e 7d6a 5c3e 303c a43e e96d e7bd
000003f0: 9f5a 22be 9504 bf3c 5dc5 463e 5b11 823e

FC2.0.bias f4 [200]
-0.24210033 -0.20109943 -0.05762852 0.07797914 -0.22479126 -0.14440675 -0.43019027 0.364269
-0.12328332 0.01624607 0.1403979 0.13383244 -0.13127503 0.38650805 -0.06285403 -0.36815348
0.40553367 -0.164138 0.35922548 -0.3475735 -0.16729653 -0.26128957 -0.15605049 -0.17362116
-0.2219298 -0.12293008 -0.45782134 -0.19582362 0.22996345 -0.17182186 -0.046364218 0.041531984
0.4238183 -0.017329032 -0.19452548 0.23449571 0.3255364 0.34060672 -0.17454495 0.36485192
0.40733495 0.19610193 -0.11503244 -0.30652508 -0.043830097 -0.0018915022 -0.35177606 0.007210392
0.12120015 0.4013093 0.1887953 0.009709367 0.32328802 -0.003911683 0.15561774 -0.23157577
0.025507452 -0.088022076 0.04291097 -0.28366345 0.37584925 0.10788209 -0.08437075 0.44162795
0.3190383 0.0002609147 0.00029474538 0.19355628 0.020546699 -0.28181627 -0.15054186 -0.14007723
0.24891426 0.28318745 -0.47659808 -0.23531155 0.20934673 0.4080862 -0.06916775 -0.2145362
0.002398178 -0.09012642 0.06624972 0.056019817 -0.17104042 0.01945875 -0.128739 0.2830742
0.35310933 -0.14662783 -0.063780285 -0.34295085 0.22486712 -0.3377543 -0.062352333 -0.29298452
0.0073691662 0.05420728 -0.11523041 0.09505437 -0.23033568 0.1990832 0.23854463 -0.07046546
0.22867462 0.3395245 -0.05442763 -0.36317143 -0.14316751 -0.25686032 -0.037000228 -0.16466127
0.054306988 0.4368297 0.004127993 0.30046314 0.061537314 -0.13160072 -0.07905417 0.15216549
-0.1723583 -0.22105211 -0.103914976 0.083045885 0.3457914 -0.19018815 -0.2125464 -0.012591507
0.18443218 -0.15641059 0.17049302 0.29690614 0.00356778 -0.2856189 -0.059037525 -0.03983806
-0.192902 -0.16556922 0.30994338 -0.015772844 -0.11287344 -0.27091998 -0.168658 -0.0056610764
-0.26361305 0.055989627 0.2258951 0.0050792526 0.03820459 0.16992258 -0.1387471 0.16540436
-0.039940465 -0.10134367 0.342612 0.14828967 0.008145714 -0.23630281 -0.13581997 -0.21826015
0.2742396 -0.25714463 0.015782006 0.11587434 -0.18907064 0.10315241 0.22148441 -0.2573965
0.22423737 0.030733768 -0.272465 -0.07016659 -0.13924322 -0.16767216 0.113259085 0.25374508
0.2918563 -0.1490302 0.3233387 0.4066728 0.15610272 0.3952796 -0.3194239 0.4266159
0.050554127 0.2966408 0.21344833 -0.11877525 0.29884225 0.093519635 0.24589552 -0.06565614
-0.3845705 -0.1896634 0.23173128 -0.2720768 -0.037647933 -0.23614708 -0.0973705 -0.010817214
00000000: 26e9 77be 02ed 4dbe e20b 6cbd 87b3 9f3d
00000010: ae2f 66be 5ddf 13be e641 dcbe 7781 ba3e
00000020: f77b fcbd 7a16 853c 78c4 0f3e 5f0b 093e
00000030: f66c 06be 62e4 c53e 9db9 80bd 9d7e bcbe
00000040: 1ca2 cf3e cb13 28be 67ec b73e 27f5 b1be
00000050: c84f 2bbe bfc7 85be b3cb 1fbe bfc9 31be
00000060: 9141 63be c4c2 fbbd 8f67 eabe fd85 48be
00000070: 8a7b 6b3e 12f2 2fbe 68e8 3dbd 711d 2a3d
00000080: b6fe d83e 9df5 8dbc b031 47be a51f 703e
00000090: b5ac a63e 0164 ae3e e9bb 32be dfcd ba3e
000000a0: 358e d03e f2ce 483e 2196 ebbd dbf0 9cbe
000000b0: 3087 33bd 48ec f7ba fe1b b4be 2745 ec3b
000000c0: c937 f83d 6a78 cd3e 8e53 413e 0914 1f3c
000000d0: 0286 a53e 932d 80bb 425a 1f3e 3322 6dbe
000000e0: 01f5 d03c eb44 b4bd 6ac3 2f3d 563c 91be
000000f0: 506f c03e 49f1 dc3d 92ca acbd 0f1d e23e
00000100: fd58 a33e 61cb 8839 0e88 9a39 9e33 463e
00000110: 8d51 a83c 394a 90be a527 1abe 6870 0fbe
00000120: 61e3 7e3e f2fd 903e aa04 f4be 83f5 70be
00000130: fd5e 563e adf0 d03e d2a7 8dbd 61af 5bbe
00000140: c02a 1d3b 3394 b8bd efad 873d 0975 653d
00000150: 3825 2fbe f567 9f3c 28d4 03be 1aef 903e
00000160: bfca b43e 9b25 16be 3d9f 82bd 4197 afbe
00000170: 9143 663e 22ee acbe 2965 7fbd 1102 96be
00000180: 0c79 f13b 7408 5e3d ecfd ebbd deab c23d
00000190: 1edd 6bbe 77dc 4b3e 0b45 743e 3250 90bd
000001a0: ae29 6a3e 28d6 ad3e 82ef 5ebd 9bf1 b9be
000001b0: 819a 12be 3283 83be 8d8d 17bd f79c 28be
000001c0: 0171 5e3d 24a8 df3e 1d44 873b 4ed6 993e
000001d0: 8d0e 7c3d 57c2 06be 27e7 a1bd 45d1 1b3e
000001e0: b27e 30be 7c5b 62be 60d1 d4bd f613 aa3d
000001f0: 920b b13e afc0 42be c3a5 59be 9c4c 4ebc
00000200: cadb 3c3e 192a 20be b995 2e3e 1504 983e
00000210: 6ad1 693b a43c 92be 55d1 71bd 3c2d 23bd
00000220: 1a88 45be fa8a 29be e6b0 9e3e 0d36 81bc
00000230: 312a e7bd 06b6 8abe afb4 2cbe 8d80 b9bb
00000240: 4af8 86be 6155 653d 0c51 673e dc6f a63b
00000250: 6b7c 1c3d 2f00 2e3e b813 0ebe c35f 293e
00000260: 9d98 23bd 458d cfbd d76a af3e 3fd9 173e
00000270: 9a75 053c 5df9 71be 6414 0bbe 977f 5fbe
00000280: 2269 8c3e 76a8 83be 4449 813c 874f ed3d
00000290: bc9b 41be 9241 d33d cfcc 623e 79c9 83be
000002a0: 7b9e 653e 62c5 fb3c 8880 8bbe 80b3 8fbd
000002b0: c695 0ebe 40b2 2bbe 61f4 e73d e0ea 813e
000002c0: 306e 953e 5f9b 18be a68c a53e 6b37 d03e
000002d0: 64d9 1f3e 1662 ca3e 888b a3be 666d da3e
000002e0: d811 4f3d 4ee1 973e 3392 5a3e 7040 f3bd
000002f0: da01 993e 3987 bf3d 09cc 7b3e ba76 86bd
00000300: 6de6 c4be 1f37 42be f74a 6d3e a64d 8bbe
00000310: b834 1abd 8ad0 71be 2f6a c7bd af3a 31bc

FC2.2.weight f4 [2, 200]
9.727475e-06 -1.8125753e-05 0.054827005 0.01763541 0.0014934514 -2.3635264e-05 -0.0544473 -0.030968029
0.019062303 0.04607152 0.014680159 0.049414877 -0.095984906 -0.013577241 -0.029434456 -0.080536075
0.019779863 1.4907628e-06 0.051084723 -0.052387062 0.048215218 4.2266843e-06 -1.2218337e-05 1.5748083e-06
2.3723604e-05 0.03093106 0.044930067 -1.1403961e-05 0.008354995 6.0957636e-06 -0.007751097 0.029044379
-0.012357128 0.030813063 -1.0686594e-05 -0.02260329 -0.0033237564 0.0057021575 1.1057861e-05 -0.044189293
0.014035193 0.095585495 1.35064765e-05 0.01932948 0.024427474 0.033718914 -0.004125033 0.015219471
-0.05140923 0.0035911507 -0.0067873737 -0.011831221 0.05386565 0.053883616 0.028257836 -0.014091731
-0.0059688753 0.038174104 -0.01614231 -7.2492885e-06 0.013374895 -0.040533833 0.044302206 0.0300893
-0.042757403 -0.006180614 3.5527846e-05 0.014092692 0.049775273 0.010130789 -1.5647838e-06 4.7089998e-08
0.06807277 -0.07467184 0.0042047286 -7.349856e-06 0.00070039823 0.06815138 -0.010837643 0.014985292
0.008699483 -0.013374536 -0.01354793 -0.008090431 -0.0019994834 -0.0050571784 -0.028128512 0.06364948
-0.055686936 0.048974734 0.06697789 -0.0014791979 -0.022079933 -0.021768471 0.013554922 0.037302632
-0.011705106 -0.05499332 -0.04785497 -0.020482592 5.0662675e-07 -0.023375355 0.0389797 3.9483666e-06
0.04210813 0.043862652 -0.040604364 0.015883556 1.13765545e-05 0.032862443 0.03294351 -0.0011460742
-0.00078347913 -0.022936784 0.048833292 -0.050734 0.008886496 -0.013174938 -0.0025940393 0.0069585256
-0.014016712 -0.0542266 2.1904378e-05 0.023643415 -0.032977935 0.024228359 0.037971266 -0.03369131
0.012204413 -8.180157e-06 0.026606923 0.038461216 -0.0051666526 -0.050963603 0.016202567 -0.0057168566
-9.917731e-06 -0.07314572 -0.009447614 0.00086148607 1.3228964e-07 8.2214683e-07 -2.6896323e-06 -0.0023653111
-9.161825e-06 -0.11285908 0.0114891445 -0.02726034 -0.061255496 -0.06006099 0.015047994 -0.0347379
-1.8132787e-06 0.005100036 0.013821963 0.071522586 0.0027688919 0.012501416 0.073096804 0.012866285
0.059615456 0.016067654 0.025542723 -0.0056088543 -0.025932634 0.053810094 0.07037354 0.005719699
0.063356 -0.11986787 6.653504e-07 0.007797087 6.244518e-07 -0.0063965633 0.049909383 -0.031692818
0.034623012 0.013266966 -0.026589131 -0.06796969 -0.05967432 0.052138265 -0.03465958 0.06111705
-0.06212389 0.055879124 -0.1016679 1.3297506e-05 -0.012149378 -0.0065399306 0.027423134 -2.232085e-05
0.057658333 3.7128061e-06 -0.03901574 4.5500838e-06 -0.048778273 1.0372847e-05 -1.8623427e-07 -0.008152551
2.192779e-06 4.715906e-06 0.037674606 0.008713333 0.0005466803 -6.4545147e-06 0.06285061 -0.035113208
-0.049330913 0.025238015 -0.017122053 0.02688356 -0.06934091 -0.0054296735 0.04983101 -0.0054477304
0.0638905 -4.63314e-06 -0.051488068 -0.052132316 -0.06549399 -1.36539875e-05 4.3005475e-06 2.3882625e-05
-3.1135146e-06 -0.008662255 -0.0023325786 2.4941914e-06 -0.0025832858 -6.359496e-07 0.0005774847 0.06320249
0.05879384 -0.027372532 -5.6756085e-07 0.009694709 0.03811322 -0.056619156 -3.996881e-06 0.060549323
-0.07038192 0.055822704 1.1893623e-05 -7.864042e-06 -0.008159865 -0.007893142 -0.043866385 0.015529578
-0.0043726917 -0.04402226 0.006189871 0.044978622 -0.0027513283 -0.036233738 -0.04210636 -0.03601781
00000000: 3033 2337 c20c 98b7 4892 603d 2378 903c
00000010: eabf c33a 5844 c6b7 2204 5fbd aab0 fdbc
00000020: 8c28 9c3c 7db5 3c3d 0d85 703c 4167 4a3d
00000030: bc93 c4bd 1473 5ebc 8720 f1bc 19f0 a4bd
00000040: 6109 a23c 3816 c835 373e 513d d193 56bd
00000050: 527d 453d f1d2 8d36 5cfd 4cb7 005e d335
00000060: 0d02 c737 2263 fd3c 9708 383d a453 3fb7
00000070: 64e3 083c 368a cc36 eafc fdbb 7aee ed3c
00000080: 8d75 4abc ad6b fc3c 924a 33b7 892a b9bc
00000090: 61d3 59bb 2ad9 ba3b 2785 3937 d5ff 34bd
000000a0: def3 653c 54c2 c33d e099 6237 dc58 9e3c
000000b0: 201c c83c d81c 0a3d 492b 87bb 175b 793c
000000c0: 7c92 52bd 8359 6b3b 9e68 debb bdd7 41bc
000000d0: 3aa2 5c3d 11b5 5c3d fa7c e73c 01e1 66bc
000000e0: 8e96 c3bb 735c 1c3d e13c 84bc ea3e f3b6
000000f0: 6022 5b3c ce06 26bd 3b76 353d d67d f63c
00000100: 6322 2fbd bf86 cabb bc03 1538 09e5 663c
00000110: 28e1 4b3d 9cfb 253c 9005 d2b5 0040 4a33
00000120: bd69 8b3d 8ded 98bd d2c7 893b c89e f6b6
00000130: ee9a 373a f392 8b3d 5f90 31bc df84 753c
00000140: 4788 0e3c df20 5bbc 23f8 5dbc ba8d 04bc
00000150: c409 03bb b0b6 a5bb c46d e6bc a95a 823d
00000160: fc17 64bd bb99 483d b42b 893d a5e1 c1ba
00000170: fae0 b4bc cb53 b2bc 7715 5e3c a5ca 183d
00000180: c6c6 3fbc ad40 61bd 9303 44bd 1ccb a7bc
00000190: 20ff 0735 ac7d bfbc 2ea9 1f3d 367c 8436
000001a0: 9379 2c3d 53a9 333d c350 26bd 3b1e 823c
000001b0: eedd 3e37 c59a 063d c6ef 063d de37 96ba
000001c0: 6562 4dba ece5 bbbc 6b05 483d 74ce 4fbd
000001d0: aa98 113c b2db 57bc c200 2abb 5804 e43b
000001e0: 5aa6 65bc b61c 5ebd 4bbf b737 d6af c13c
000001f0: df13 07bd 8d7a c63c c287 1b3d e6ff 09bd
00000200: 05f5 473c 823d 09b7 c3f6 d93c 8289 1d3d
00000210: 064d a9bb 36bf 50bd 3fbb 843c 7854 bbbb
00000220: 5564 26b7 6ccd 95bd 2aca 1abc 5ad5 613a
00000230: 800b 0e34 80b1 5c35 887f 34b6 5603 1bbb
00000240: bdb5 19b7 a922 e7bd f73c 3c3c 1451 dfbc
00000250: 0be7 7abd 8302 76bd dd8b 763c 5449 0ebd
00000260: c85f f3b5 341e a73b 8475 623c 6f7a 923d
00000270: 4c76 353b bdd2 4c3c c7b3 953d 1ccd 523c
00000280: 562f 743d 50a0 833c f93e d13c 7bca b7bb
00000290: ad70 d4bc f967 5c3d 0120 903d 506c bb3b
000002a0: cac0 813d 497d f5bd 889a 3235 b57e ff3b
000002b0: 00a0 2735 439a d1bb c86d 4c3d 54d0 01bd
000002c0: dcd0 0d3d b05d 593c 73d1 d9bc b133 8bbd
000002d0: 0f6d 74bd ef8e 553d 34f7 0dbd df55 7a3d
000002e0: 9f75 7ebd 82e1 643d 4337 d0bd 5a18 5f37
000002f0: 2f0e 47bc ea4c d6bb 7ba6 e03c a93d bbb7
00000300: 252b 6c3d 8629 7936 f8ce 1fbd ecac 9836
00000310: bacb 47bd 0a07 2e37 b0f7 47b4 4792 05bc
00000320: a827 1336 533d 9e36 b050 1a3d 5ec2 0e3c
00000330: 184f 0f3a dc93 d8b6 d2b7 803d ded2 0fbd
00000340: 360f 4abd f4bf ce3c 8c43 8cbc e93a dc3c
00000350: 9b02 8ebd 67eb b1bb 9a1b 4c3d e082 b2bb
00000360: 06d9 823d 5f76 9bb6 27e5 52bd b288 55bd
00000370: b721 86bd 6e13 65b7 6c4d 9036 8c57 c837
00000380: c6f1 50b6 21ec 0dbc 2dde 18bb e261 2736
00000390: 584c 29bb 20b6 2ab5 5862 173a 4f70 813d
000003a0: cfd1 703d 5c3c e0bc 7c5a 18b5 8fd6 1e3c
000003b0: 9c1c 1c3d 7de9 67bd f21c 86b6 9102 783d
000003c0: 6524 90bd 59a6 643d b98a 4737 ceef 03b7
000003d0: f4b0 05bc 3d52 01bc 3dad 33bd c56f 7e3c
000003e0: cc48 8fbb af50 34bd 67d4 ca3b 813b 383d
000003f0: a14f 34bb d469 14bd b877 2cbd 6987 13bd

FC2.2.bias f4 [2]
0.005407588 -0.009011046
00000000: 2332 b13b 11a3 13bc

FC3.0.weight f4 [4, 3]
-0.4063209 0.2034575 0.013619485 0.13748732 0.42583737 0.22113647 0.29245287 -0.09450411
-0.103201725 0.075663 0.10338141 0.39237183
00000000: 4b09 d0be 2a57 503e 4324 5f3c 7ac9 0c3e
00000010: 5b07 da3e 9971 623e 62bc 953e 5f8b c1bd
00000020: 6d5b d3bd 34f5 9a3d a2b9 d33d f6e4 c83e

FC3.0.bias f4 [4]
-0.18364482 0.21907257 0.50043446 -0.18919232
00000000: 630d 3cbe 8f54 603e 791c 003f a2bb 41be

FC4.0.weight f4 [4, 8]
0.324705 0.32657072 0.06450625 0.19170699 0.15027854 -0.07207129 0.30967674 0.10878883
-0.023600914 0.04656775 -0.18924658 -0.13600217 0.013238061 -0.0050266017 -0.032728247 0.09956727
-8.226231e-06 5.3330827e-05 -0.10655828 0.15103614 -0.03435221 0.043983452 -0.13328847 0.0015207069
0.18590622 0.14850292 -0.13472699 -0.13817005 -0.1892066 -0.15103659 0.10056657 0.054641135
00000000: bc3f a63e 4734 a73e da1b 843d d64e 443e
00000010: 9ee2 193e 1d9a 93bd f38d 9e3e aecc de3d
00000020: b456 c1bc d3bd 3e3d dbc9 41be 2744 0bbe
00000030: 74e4 583c 31b6 a4bb 0e0e 06bd ede9 cb3d
00000040: 6503 0ab7 8aaf 5f38 3a3b dabd 38a9 1a3e
00000050: e7b4 0cbd fe27 343d c67c 08be 7552 c73a
00000060: 335e 3e3e 2611 183e dff5 09be 737c 0dbe
00000070: 60bf 41be 56a9 1abe d9f5 cd3d 62cf 5f3d

FC4.0.bias f4 [4]
-0.10938352 -0.009346446 -0.025367003 0.19691412
00000000: 7804 e0bd d621 19bc 76ce cfbc dba3 493e

FC5.0.weight f4 [100, 2]
-0.61124736 0.39695564 0.20166124 -0.58876085 0.34128582 0.22318098 -0.58162606 -0.5403672
-0.54801005 0.66683686 -0.25384355 -0.019786624 0.24601485 -0.06594242 0.1354878 0.2915992
-0.5487593 -0.17907763 -0.24749726 -0.23049748 0.42607254 0.43032923 0.16037425 -0.53109664
-0.16370595 0.110157475 0.4272292 -0.017153919 0.5246277 0.19843918 0.052888647 -0.11988373
-0.22688365 -0.64849913 -0.32829675 0.23062278 -0.42375344 -0.41045958 -0.2375146 -0.6265489
-0.27520707 -0.115145355 0.33506224 0.4392763 -0.030907359 -0.018718535 -0.28451577 -0.05858282
0.3111116 0.30354944 0.4530092 -0.2526012 0.5603341 0.433547 0.23595428 0.61039144
0.31142887 0.26197577 0.596028 0.044980604 0.17557727 0.33967257 -0.5038216 0.4625902
0.17252667 0.3448765 -0.026381193 0.5078408 -0.44713497 -0.44837567 0.59138274 -0.30965003
-0.60009265 0.2590351 -0.50877756 0.33273545 0.4638178 -0.40430433 -0.45711264 -0.06532783
-0.38189903 0.0064822664 -0.23546956 -0.008531549 0.2576292 0.30717766 -0.32636902 0.29415244
-0.43543187 -0.020490287 0.43333885 -0.21010551 -0.5436659 -0.3187372 0.32531163 -0.1923716
-0.379475 -0.6458248 -0.056242198 0.18074515 -0.054103695 -0.48047137 -0.5588996 0.51998144
0.26957098 0.14366528 0.4901799 -0.47030383 0.32858694 0.4852233 0.2932191 0.44184864
0.27759734 0.5529309 0.59438336 -0.35864958 -0.037332345 -0.36770657 -0.31371123 -0.1517193
-0.11189234 0.026135325 -0.0005356395 -0.060495883 0.25008088 0.28914228 0.6412411 0.5638164
0.41752198 0.4518617 -0.62798 -0.61473054 0.4486392 -0.41372195 -0.17112795 0.37157837
-0.17464629 -0.11679804 -1.2832431e-05 0.43147558 0.44269183 0.53850704 -0.17397219 0.26185647
0.5370594 -0.02727524 -0.23053345 0.3869943 -0.39751762 0.3717411 0.14716433 -0.15129489
-0.55033565 -0.5358148 -0.2774637 0.049193595 -0.32397172 0.04821908 -0.343148 0.5283805
0.62183625 -0.48384365 0.47291285 0.4868565 0.4818966 0.23930104 0.13515575 0.011384796
-0.38974738 0.42803445 -0.3993368 0.14742152 -0.56269765 0.06678757 0.12409104 0.6319685
0.28977016 -0.39971823 0.15370646 -0.29759875 0.4697542 -0.67798364 -0.12292542 -0.119137704
-0.08591261 0.068199486 0.41203472 0.5004767 -0.21410142 0.5895362 -0.18615784 -0.14330636
-0.19283578 -0.61112595 -0.543871 -0.43866715 -0.16138843 -0.67955476 -0.18578474 -0.5519625
00000000: b57a 1cbf c53d cb3e 4980 4e3e 08b9 16bf
00000010: 04bd ae3e 8e89 643e 72e5 14bf 8155 0abf
00000020: 634a 0cbf d2b5 2a3f c8f7 81be 8f17 a2bc
00000030: 51eb 7b3e d20c 87bd 50bd 0a3e 7e4c 953e
00000040: 7d7b 0cbf 2060 37be ec6f 7dbe 8807 6cbe
00000050: 2e26 da3e 1d54 dc3e 2639 243e f3f5 07bf
00000060: 88a2 27be 3e9a e13d c9bd da3e 6086 8cbc
00000070: 004e 063f a433 4b3e c4a1 583d 9a85 f5bd
00000080: 3054 68be 0a04 26bf 8316 a8be 6128 6c3e
00000090: 36f6 d8be c227 d2be 0737 73be 8265 20bf
000000a0: f1e7 8cbe 54d1 ebbd 478d ab3e d3e8 e03e
000000b0: 6e31 fdbc 9d57 99bc 0dac 91be 8af4 6fbd
000000c0: 054a 9f3e d56a 9b3e d2f0 e73e f254 81be
000000d0: 0e72 0f3f dff9 dd3e 009e 713e 9d42 1c3f
000000e0: 9b73 9f3e b021 863e 4a95 183f 953d 383d
000000f0: 87ca 333e 90e9 ad3e 74fa 00bf 9fd8 ec3e
00000100: d5aa 303e a793 b03e 5f1d d8bc db01 023f
00000110: e0ee e4be 7f91 e5be dc64 173f 738a 9ebe
00000120: ac9f 19bf 40a0 843e 3f3f 02bf 4d5c aa3e
00000130: 8779 ed3e fa00 cfbe ab0a eabe 99ca 85bd
00000140: 4588 c3be 3169 d43b ef1e 71be e9c7 0bbc
00000150: f9e7 833e 6446 9d3e d719 a7be 269b 963e
00000160: edf0 debe 3fdb a7bc 97de dd3e e625 57be
00000170: b02d 0bbf 8631 a3be 3f8f a63e 10fd 44be
00000180: 8c4a c2be c654 25bf 385e 66bd 4215 393e
00000190: d69b 5dbd 5800 f6be 0b14 0fbf 811d 053f
000001a0: 3505 8a3e fe1c 133e dcf8 fa3e aacb f0be
000001b0: 8c3c a83e 306f f83e d020 963e fc39 e23e
000001c0: 3d21 8e3e e18c 0d3f 8229 183f eba0 b7be
000001d0: cde9 18bd 0944 bcbe c29e a0be 4e5c 1bbe
000001e0: d027 e5bd c019 d63c 296a 0cba 88ca 77bd
000001f0: 9a0a 803e 750a 943e 6028 243f 4656 103f
00000200: 71c5 d53e 6b5a e73e 4cc3 20bf fb5e 1dbf
00000210: 0ab4 e53e 5dd3 d3be 2a3c 2fbe 853f be3e
00000220: 7ad6 32be d033 efbd df4a 57b7 5eea dc3e
00000230: 81a8 e23e 99db 093f c425 32be 0d12 863e
00000240: ba7c 093f 5370 dfbc f610 6cbe 1e24 c63e
00000250: 6e87 cbbe d954 be3e 3fb2 163e 0ced 1abe
00000260: cce2 0cbf 292b 09bf b90f 8ebe 397f 493d
00000270: 9fdf a5be 5f81 453d 18b1 afbe f243 073f
00000280: a930 1f3f 5bba f7be a221 f23e 4145 f93e
00000290: 27bb f63e 550b 753e 4566 0a3e 4c87 3a3c
000002a0: f88c c7be 5527 db3e e075 ccbe abf5 163e
000002b0: f40c 10bf ecc7 883d 7123 fe3d b0c8 213f
000002c0: c15c 943e dea7 ccbe 3a65 1d3e dd5e 98be
000002d0: 9f83 f03e 5690 2dbf 53c0 fbbd 78fe f3bd
000002e0: f3f2 afbd 2cac 8b3d 37f6 d23e 3e1f 003f
000002f0: 673d 5bbe d8eb 163f 29a0 3ebe e7be 12be
00000300: be76 45be c072 1cbf 213b 0bbf fb98 e0be
00000310: 0243 25be 4df7 2dbf 5b3e 3ebe 6a4d 0dbf

FC5.0.bias f4 [100]
-0.013281895 0.13079828 0.11927986 -0.38294998 -0.35611358 0.57648605 0.590357 -0.18428645
0.316918 -0.32821053 0.59921014 -0.108637534 -0.35543197 0.0460798 -0.2822826 0.22734989
-0.38621247 0.48781082 0.40757582 0.26166153 -0.05151806 0.036901247 0.7075962 -0.50301427
-0.43754876 0.3715179 0.6294337 0.47274458 -0.23710792 0.4354219 0.25102344 0.3576776
-0.1758811 0.034045663 -0.38742012 0.47857025 -0.13724136 -0.5382624 -0.28845003 -0.07482073
0.41664118 0.54103196 -0.27147436 -0.19527984 0.6687188 0.5490011 0.6825966 0.4137079
0.45382223 0.6818575 0.54624605 0.6053083 -0.08173409 0.3681534 -0.50798136 -0.21520108
0.4755083 0.028215697 -0.5105533 -0.024752676 0.042554103 -0.43309322 0.1601855 0.56576586
-0.26803544 0.54867053 -0.26145595 0.22111599 0.64244795 -0.50758094 -0.004973582 0.39159757
0.41626516 0.5255138 -0.15301013 0.67077535 0.33493054 -0.02115806 0.1633347 -0.3070351
-0.5605537 0.59938043 0.37959614 0.029070413 -0.49033937 -0.47309253 -0.2891379 0.48040253
0.5263706 0.23904076 -0.47759202 0.06823273 -0.2687906 0.037744235 -0.31493285 0.16917059
0.3357617 -0.5274853 0.53514296 0.18752466
00000000: 4e9c 59bc fcef 053e 0049 f43d 0512 c4be
00000010: 8554 b6be 9794 133f a321 173f 96b5 3cbe
00000020: 1343 a23e 360b a8be d665 193f 5b7d debd
00000030: 2efb b5be 2cbe 3c3d 5887 90be 69ce 683e
00000040: a4bd c5be 57c2 f93e c7ad d03e 80f8 853e
00000050: 9a04 53bd c325 173d 0625 353f 8bc5 00bf
00000060: 6406 e0be 9837 be3e 9122 213f 940b f23e
00000070: 6bcc 72be 9fef de3e 2586 803e 8521 b73e
00000080: 2d1a 34be 7773 0b3d ee5b c6be 2907 f53e
00000090: 0089 0cbe 91cb 09bf b9af 93be 9c3b 99bd
000000a0: fe51 d53e 1281 0a3f b0fe 8abe 70f7 47be
000000b0: 2831 2b3f 568b 0c3f a7be 2e3f 86d1 d33e
000000c0: 635b e83e 378e 2e3f c8d6 0b3f 7cf5 1a3f
000000d0: 3464 a7bd 9a7e bc3e 110b 02bf ac5d 5cbe
000000e0: d375 f33e 9b24 e73c 9fb3 02bf 20c6 cabc
000000f0: 364d 2e3d 65be ddbe ab07 243e 08d6 103f
00000100: f13b 89be ac75 0c3f 8edd 85be 3b6c 623e
00000110: 7877 243f d3f0 01bf 6ef9 a2bb 7a7f c83e
00000120: b520 d53e 1388 063f b0ae 1cbe efb7 2b3f
00000130: 047c ab3e ab53 adbc 3641 273e b433 9dbe
00000140: 7380 0fbf ff70 193f 6d5a c23e 1325 ee3c
00000150: c30d fbbe 2f39 f2be e209 94be 52f7 f53e
00000160: 39c0 063f 1ac7 743e f186 f4be 9abd 8b3d
00000170: ec9e 89be b399 1a3d e13e a1be 0e3b 2d3e
00000180: f5e8 ab3e 4709 07bf 21ff 083f 7706 403e
