Simulations/Lorenz_Atractor/results/decimation/data_size/2ndPass/Pass2-weights_size2.pt (torch, 146667 bytes, 46 tensors)

GRU_Q.weight_ih_l0 f4 [27, 15]
00000000: e76b 12bd 5a84 7b34 3830 473e 9129 36be
00000010: 5cb8 943e 0b2d af3d 6336 05be d75c c8bc
00000020: bba9 8abe d306 07bd 02ba 4bbc dd8d f7b9
00000030: 6f0f debd ea45 25bc d116 43bc 43c7 513e
00000040: a2f3 b732 06b2 19bd d2f1 1bba 8330 8cbe
00000050: 18a4 49bb 01c1 c3bd 120b 78be 3461 963d
00000060: 1837 8f3d a70a 9ebd fe62 4a3e 5885 033e
00000070: 6bea 333e d68a 89be 7d70 3abd 721f 8835
00000080: 4659 88be b58c 65be 1269 603e 3e72 1b3e
00000090: f7b4 8c3e 0c4a c3bc 5eec 2b3d b641 c13b
000000a0: 1916 d93d 6e54 3b3e 8fe1 1ebe 20cb 6e3e
000000b0: d3ae 7a3e b2e4 32be ad4b 88b5 2512 8f3e
000000c0: 55ad 78bc 396b ee3d afed 45be 1653 2fbc
000000d0: 3439 1ebe fbbe 123e 142a 45be b2a7 26be
000000e0: 0ca7 3a3b 8a8c 5c3e dfe4 733e 7efc c63c
000000f0: 4fc5 a4bc 3706 62b4 9f94 103e 6ec7 253e
00000100: e2df 41be 6fe1 c63b b3a0 89bd ed37 b43d
00000110: 8058 e83d 241f 4abe ecac 9abc 0fa4 673e
00000120: 2053 22be 8c84 693d 5017 ddbc 02a7 4b3e
00000130: 97b0 22b4 9a27 0b3d ce7f 50be a755 7b3e
00000140: 4671 84be f59c f9bd 1574 713e 0217 df3d
00000150: a137 4c3e 0dc8 03bc fb48 1fbe 2f04 863c
00000160: 4198 1e3d b6a3 273e e568 873d 82d1 e7b3
00000170: a058 803e 1ac9 a8bb e2ea ac3d 9363 703e
00000180: c94b 3abe 56f1 5b3e fb53 5abe dcce 8bbd
00000190: 4291 f53d f945 e83b b9a9 7fbe 85aa 4abc
000001a0: b9f8 7e3e 8bc0 703e f66e 8cb4 d443 b13d
000001b0: 0211 e13d 93d9 74be 8568 afbd 701d 98be
000001c0: 9a75 0cbe ceee a63c cf03 34be 6c2d 943d
000001d0: 572a 53bc c78a 89be ce14 12be 259e 80be
000001e0: 2e4e 8e3d 3866 f7b3 81d0 c63d 605d 1e3e
000001f0: 1f26 643e 1259 613d 13bc abbd c8ef 29be
00000200: a806 e1bd 349d ccbd 37be a0bd 2a4d 7c3e
00000210: e655 d43d 0347 60be befa 6e3e 52c4 81be
00000220: 3580 5833 7aa9 84be 7360 1abe 1693 9a3d
00000230: b5a2 bf3a f5e0 ebbd c902 5f3e 3517 21be
00000240: 8a4e 183e 82fe 5fbd 27fc cf3d d970 fbbd
00000250: 4b19 8a3b 03a5 46be 2bee dcbc 02f6 6934
00000260: 9540 fc3d a5fa 853c 5f15 5fbc 635f 9dbc
00000270: 3836 953e 306d 493d e18f 1f3e 9736 8dbe
00000280: e98f 8d3e d2cd 18be 277a 6a3e 4e28 5e3e
00000290: f197 2e3d 8efe 76be 2b90 13b4 47ad b03d
000002a0: dad2 85bd 0f75 3ebe da72 323e 28e9 03be
000002b0: 4d84 033e 7dfc 07be e5eb 243c e99f 03be
000002c0: 32cb 2b3e f67e 703d 428c bb3c 7de5 1bbe
000002d0: ba6b 103e 403f a4b4 2cd1 c93d c6be 1b3e
000002e0: 16f8 1e3e 8b58 093e ce37 3a3e f2bf f43d
000002f0: 522c 71bb ec23 243e 653c 843e a6b3 713d
00000300: dab9 5abe d6bf 80be 687f f3bd 7acb 2e3a
00000310: 8009 78b0 c8d2 893e 4d86 2fbe bbad 243e
00000320: afed 4fbe 979e d2bd 4a47 7abe 51f8 1bbd
00000330: 2117 32be 4bdb fe3d b118 0b3e 9d1c 513e
00000340: 5408 6e3c ce20 81be 79de 87be 2794 4bb3
00000350: 2dbf 0e3e fac6 0c3e cc64 6b3e 2dff 0c3e
00000360: dcce e03a dd0b ccbc fbe1 b5bd 897f 3a3d
00000370: 5bbd 833e ebe3 0ebd 3bf3 473e ba5a b93d
00000380: b41c b93c 03f1 523e ac3a f8b2 7420 8e3d
00000390: 29c0 f2bd 92d2 69be def0 9d3d 01f9 8ebe
000003a0: ddb3 58bb 2fd9 0fbe cbae e33d d20c 53be
000003b0: 305a 673d b490 a33d d8ed 45bc c568 3f3e
000003c0: 8990 043d 0cbf 2cb5 4986 c4bd a73f 84be
000003d0: 21af 8e3e 1c74 40bd eb9e f0bd 0ad0 0f3a
000003e0: 6d60 d43c d4f4 04bd b4c5 ccbc 8d0a 1fbb
000003f0: fae2 0cbe 0a7f 00be 514e ad3d 985c 85be
-0.035747435 2.3424346e-07 0.19451988 -0.17789294 0.29046905 0.08553513 -0.13009028 -0.024458332
-0.2708262 -0.032965492 -0.012434484 -0.00047217208 -0.108427875 -0.01008747 -0.011907295 0.20486169
2.1414795e-08 -0.037523292 -0.0005948815 -0.27380762 -0.0030767974 -0.09558297 -0.24222973 0.07342759
0.0699293 -0.077168755 0.19764325 0.12843835 0.17569892 -0.26863736 -0.045517433 1.0141941e-06
-0.2663061 -0.22416957 0.21915081 0.15180299 0.27481815 -0.02383902 0.041973464 0.005897726
0.10599918 0.18293926 -0.15515731 0.23319674 0.24480753 -0.17470053 -1.0154814e-06 0.2794353
-0.015178044 0.11641545 -0.1932895 -0.010700962 -0.15451509 0.14330666 -0.19254333 -0.16274908
0.0028480915 0.21537986 0.23817776 0.02429032 -0.020113615 -2.1050151e-07 0.14119194 0.16189358
-0.18933061 0.0060693542 -0.06720104 0.087997295 0.11345005 -0.19738442 -0.018881284 0.22621177
-0.15852022 0.057011172 -0.026988655 0.19887927 -1.5151669e-07 0.033973314 -0.20361254 0.24544393
-0.2586767 -0.1218814 0.23579438 0.1089306 0.19943096 -0.008043301 -0.15555184 0.016359417
0.03871942 0.16371045 0.06611804 -1.0794885e-07 0.25067616 -0.0051509263 0.08443238 0.23475485
-0.18192972 0.21478781 -0.21321099 -0.06826565 0.11990596 0.0070884195 -0.24967088 -0.012369757
0.24899568 0.2351095 -2.6157767e-07 0.08655515 0.10989572 -0.23911123 -0.085648574 -0.2970996
-0.13716736 0.020377543 -0.17579578 0.07235226 -0.012888513 -0.2686369 -0.14265749 -0.25120655
0.06948505 -1.1520427e-07 0.09707738 0.15465307 0.22280167 0.055016585 -0.08385482 -0.16595376
-0.10987598 -0.099909216 -0.078487806 0.24638811 0.10367946 -0.21902089 0.23337838 -0.25345093
5.0408023e-08 -0.2591055 -0.15075855 0.07547586 0.0014620634 -0.115175165 0.21778406 -0.15731509
0.1487371 -0.054686077 0.10155516 -0.12277383 0.004214441 -0.19398884 -0.026969036 2.1789313e-07
0.123170055 0.016354868 -0.013615935 -0.019210523 0.29142928 0.049176395 0.15582229 -0.2758071
0.27648857 -0.14922264 0.2289816 0.21695063 0.04262537 -0.24120542 -1.374289e-07 0.086268
-0.06534357 -0.18599342 0.17426625 -0.12881911 0.12843437 -0.1327991 0.010066007 -0.1285397
0.16776732 0.05871483 0.022894029 -0.15224262 0.14103594 -3.05934e-07 0.098543495 0.15209493
0.15524325 0.13412683 0.1818535 0.11950673 -0.0036800099 0.16029328 0.25827327 0.059009217
-0.21359959 -0.2514636 -0.11889535 0.00066678936 -9.0235375e-10 0.26918626 -0.17141075 0.16081898
-0.20305513 -0.10284155 -0.24441257 -0.03807861 -0.17391635 0.124441706 0.13583638 0.20421071
0.014528353 -0.2522034 -0.2653692 -4.7399364e-08 0.13940115 0.13747779 0.2298767 0.13769217
0.0017151493 -0.024908 -0.08880993 0.045531783 0.25730404 -0.03488533 0.19526379 0.09050508
0.022596695 0.20599751 -2.889768e-08 0.06939784 -0.11853058 -0.22834232 0.077119574 -0.2792435
-0.0033066191 -0.14047693 0.111173235 -0.2061036 0.056482494 0.07986584 -0.012080632 0.1869231
0.032364402 -6.4353003e-07 -0.09595925 -0.25829813 0.27867988 -0.04698573 -0.11749061 0.00054860173
0.025924886 -0.03246005 -0.024996616 -0.0024267763 -0.1375846 -0.12548462 0.08462203 -0.26047206

GRU_Q.weight_hh_l0 f4 [27, 9]
00000000: 9ce7 1dbd 14a4 653d 4457 c43d 4556 7e3e
00000010: 0330 4a3e 986a 08bd 390b 633d fa09 13be
00000020: ff8d 013e 9eaf 823d 3a3d 5c3e ac72 3fbc
00000030: 828b 3c3e c677 0cbe ab88 00be a48c 503e
00000040: 220a 9c3d b879 0d3d f9e1 20be 3104 96bd
00000050: 7255 1ebe aab7 823d f4c4 aabd 0cb5 873d
00000060: 14d7 b5bd 11be b33d 745e 53be da53 853d
00000070: 10e8 873e 4d6c 0c3d 7a9e 083e 58e4 533c
00000080: bc0e 8dbd 649f 78be f38f 27be 20f0 0e3e
00000090: cbee 8ebc 58ef ae3d 66ea 5a3d d92c f63d
000000a0: 0ed0 003b 892d e03d 6ed4 273e 3d93 2a3e
000000b0: 2b36 febd 0410 303c 2448 e13c dd78 4b3e
000000c0: 3222 82be 5e3a 683e f944 45be e317 833e
000000d0: 3a96 afbd b173 bebd 60dd 6f3e b288 533e
000000e0: 8121 5bbd f135 f9bd 5d88 4dbe 28a9 6c3e
000000f0: a14f e63d 9147 803e 527a 11be dea8 51bd
00000100: 9b84 2a3e 1ff7 0cbe 2df5 7f3e a2b8 19be
00000110: fb1e 823e c6d0 26be 87af 583e e0be 87be
00000120: 9a47 46be 6e22 173e 9ffb 6d3e f6b2 7ebe
00000130: 4044 9bbe 0d0a ddbd e168 82be 517c 443e
00000140: b2be 4e3e 1844 f53d 6375 833e efda 75be
00000150: 297c 923b 0ccb 2dbe 4bf3 3c3e 6d2a 82be
00000160: 157b 153d 19f7 acbd 9429 683e 2296 eb3c
00000170: 5b0d d73d 2b56 f7bd a7dd 0a3d 2f8e e3bd
00000180: 457e 3a3a 54fc e9bd c23d 0abe a717 52be
00000190: 1f20 5dbe 6a4c fabc 2205 1fbc e329 5cbd
000001a0: 1f6f 823c 6f2c 3ebc 1e21 5f3d d4dd 9d3d
000001b0: 876e 17be bfe0 783e dea7 35be bdee 86bd
000001c0: 0a99 233e bc30 99bd 3e17 4abe e135 32bd
000001d0: 310d 273e 4091 46be 7169 423e 8105 cabd
000001e0: a19f df3d 2d94 1c3e 2473 77be f34a 84be
000001f0: 3422 03bc c71a e8bd 8f55 a63d 5468 6b3e
00000200: fe31 593e 0b94 0dbe 1876 e43d ca4f 3abe
00000210: 4bb1 833e 3312 84bc 0d80 4e3e dddd 4a3e
00000220: 8215 083d aa0c 333d ff78 c7bd b7a0 69be
00000230: 33b4 04be f00f 0a3e 4622 acba a026 06bd
00000240: 2937 01be 10ea 82be bbca 103e b61c 1f3e
00000250: 781e 393e 7528 2a3d e0ae 353e 11aa 5cbb
00000260: 9b6c 213e 4b0b 39bd 4a82 a23c f953 973e
00000270: ec70 2f3d c9e8 94be 5acb 213e bbc6 7dbe
00000280: d99f 37be 1952 81be 50e3 febb a791 a9bd
00000290: 82c9 6e3e 554a 8fbd cc09 173e cbab e8bb
000002a0: 8d5b 663e 64ac 42be ec80 e7bd 23e2 fbbc
000002b0: 6209 5ebe d10e c0bd d5b9 a43d 7b1d e23b
000002c0: f8f8 1abe 4dd1 423e f682 f03d 9f41 36be
000002d0: 14c7 04be f51a 43be 71be 8d3c 1550 b9bc
000002e0: d465 8d3e 42a2 27be 5cb1 b5bd 792f 1e3e
000002f0: 534f fc3d 8a44 57be 331c 56bd e963 923e
00000300: 819d 40be 7f5c 97be a426 763d 0a01 5fbe
00000310: 0503 253d a94d 86be a4e1 f4bd e846 e5bc
00000320: 217f 6c3e 3836 33bd 8fba 72be 951c 5abe
00000330: 9e9b 4c3d e412 ed3d 84ab 2a3e 889d 373e
00000340: aae8 d1bd 4767 51bd 5a96 8e3e f791 9a3e
00000350: bbfc 8c3d 8bfa 9b3e f422 a2bd 7f15 44be
00000360: 6fdf 933e 0c02 983e 11b8 e6bd 0e34 c53d
00000370: 91e7 f63d 81da a1be a729 83be 7287 87be
00000380: 1424 613e cb82 ca3d 92cd 02be cf51 53be
00000390: 9410 903e 7b14 19be b246 81be 2f3f 1a3c
000003a0: 7c30 96be 754a 303e b179 85be 08b7 92bd
000003b0: ec96 873e 1025 38be 184d ff3d cfbd a0be
000003c0: 82b2 d53c 0a69 bbbd ff6d 01bd
-0.038550958 0.05606468 0.09586957 0.24837597 0.19744878 -0.03330478 0.055430625 -0.14359275
0.12651823 0.063811526 0.21507731 -0.011685055 0.18412593 -0.13717565 -0.12552135 0.2036615
0.0761912 0.03453991 -0.15711202 -0.07325018 -0.15462282 0.063826874 -0.08338347 0.06626329
-0.088789135 0.08776487 -0.206415 0.06510134 0.26544237 0.03428297 0.13341704 0.012932859
-0.06887576 -0.24279553 -0.16363506 0.13958788 -0.01744785 0.08541745 0.053446196 0.12020273
0.001965526 0.10946185 0.16389629 0.1665773 -0.124126755 0.010746006 0.02750022 0.19870324
-0.25416714 0.22678515 -0.19264592 0.25604162 -0.08573575 -0.0929941 0.23424292 0.20657614
-0.05349875 -0.12168492 -0.2007155 0.23111403 0.11245657 0.250546 -0.14206818 -0.051186435
0.16652147 -0.13766144 0.24995871 -0.15011838 0.2541426 -0.16290578 0.21160708 -0.26512814
-0.19363251 0.14759228 0.23240517 -0.24872956 -0.30325508 -0.10792933 -0.2547064 0.19188048
0.20189932 0.119758785 0.25675496 -0.24009298 0.0044703675 -0.16971987 0.18452184 -0.25422993
0.036494333 -0.08445568 0.22672111 0.028758112 0.10500594 -0.12076982 0.03390279 -0.11111104
0.00071141525 -0.11425081 -0.13500121 -0.20516835 -0.21594284 -0.030554015 -0.009705814 -0.053750884
0.015922127 -0.0116072735 0.054474942 0.07708326 -0.14788257 0.24304484 -0.17739818 -0.065885045
0.15976349 -0.074799985 -0.19735429 -0.043508414 0.16313626 -0.19391346 0.18985535 -0.09864331
0.10919119 0.152909 -0.24165016 -0.25838432 -0.00800376 -0.113332324 0.08121788 0.22989017
0.21210477 -0.13826005 0.11155337 -0.181945 0.257212 -0.01612196 0.20166035 0.19811197
0.033223636 0.04371325 -0.09739875 -0.22815214 -0.12959366 0.13482642 -0.0013132773 -0.03275168
-0.12618698 -0.255692 0.14139836 0.15538296 0.18078029 0.04154249 0.17742491 -0.0033670703
0.15764086 -0.045176785 0.019837517 0.29556254 0.0428323 -0.2908385 0.15800229 -0.24782841
-0.17932071 -0.25257948 -0.0077785626 -0.08279734 0.23319057 -0.069965996 0.14749831 -0.0071005574
0.22495861 -0.19011074 -0.11303887 -0.030747479 -0.21683267 -0.09377826 0.08043257 0.006900487
-0.15134037 0.19025154 0.11743729 -0.1779847 -0.12966567 -0.19053252 0.017302724 -0.022621194
0.2761675 -0.1637049 -0.08871719 0.15447797 0.123198174 -0.2102224 -0.052272987 0.2859185
-0.18810083 -0.29562756 0.060095444 -0.2177774 0.040286083 -0.26231125 -0.119571 -0.027987912
0.23095371 -0.04375288 -0.23703979 -0.21299966 0.049953096 0.11575869 0.1666699 0.17931187
-0.10249455 -0.051123884 0.27849084 0.30189487 0.06884142 0.30464587 -0.07916823 -0.19148825
0.28881404 0.29689062 -0.11265577 0.09629069 0.120558865 -0.31612018 -0.25617716 -0.26470524
0.21986419 0.09888228 -0.12773731 -0.20636676 0.28137648 -0.14949219 -0.2524925 0.009414478
-0.29333866 0.17215903 -0.26069406 -0.07163817 0.26482332 -0.17982888 0.12465876 -0.31394812
0.026086096 -0.09150894 -0.03159904

GRU_Q.bias_ih_l0 f4 [27]
00000000: 42ce 713d 2607 b8bc aa10 dfbd bcc0 7dbe
00000010: c6e8 6ebe 078e 03be c991 acbd ae13 0abc
00000020: 4e3a 7c3d 9de1 a9bd 27aa 2f3e 636a febc
00000030: 663f 9ebd c3a6 4ebe a252 553d 9f84 89be
00000040: 1dcb 843e 1f83 853d 7bc1 5e3a 30bc a33e
00000050: 06dc 2fbc c636 9abe 3d2d 70bd 1553 3e3e
00000060: 345d a1be a96c 2c3e 8e16 a3bd
0.059034593 -0.022464346 -0.1089185 -0.24780554 -0.23330984 -0.12847148 -0.08426244 -0.008427544
0.06157904 -0.082949854 0.17154752 -0.031056589 -0.07726936 -0.20180802 0.052080758 -0.26858994
0.25936213 0.0651915 0.0008497459 0.31979513 -0.01073361 -0.30119914 -0.058636893 0.18586381
-0.3151642 0.16838326 -0.07963286

GRU_Q.bias_hh_l0 f4 [27]
00000000: 2fc2 893b 6243 fbbb ed98 47be 7cff 1c3b
00000010: b5da 863e 2719 45be 204d 6fbe f5d9 78be
00000020: d02f 32be 2953 52be bf1c 813e ca08 143e
00000030: 97f5 c6bc 6067 3dbe 99dc 8bbd 3344 953d
00000040: 49a2 12be 2f9c ab3d 5f94 43bd 3dd5 bd3d
00000050: 46ca ffbd 1915 763e 1baa 89be a27c 483e
00000060: c9bc 683e e835 52be 38b2 e5bd
0.0042040567 -0.0076679448 -0.1949193 0.0023955991 0.26338735 -0.19247876 -0.23369265 -0.24301894
-0.17401052 -0.20539536 0.25217244 0.14456478 -0.024287028 -0.18496466 -0.06829185 0.072883986
-0.1431972 0.08379399 -0.04774892 0.092691876 -0.124897525 0.24031486 -0.26887593 0.19578794
0.22728266 -0.20528376 -0.11215633

GRU_Sigma.weight_ih_l0 f4 [27, 24]
00000000: 3202 df3d 78e8 323e a115 a0bd 7277 4bbc
00000010: 95af a0bd 802c 003e d416 44be 53e1 ffbb
00000020: 796d aa3d 1c0d 753e 76d8 a4bb ee13 0e3e
00000030: ca64 e2bc a269 45be 6598 d63d 9e9d 713e
00000040: 39c6 8c3e 0017 5e3e b651 d5bb c765 07ba
00000050: eb35 22be 82fd fbbd ae75 5fbe e844 873e
00000060: 6f5e 723c ffeb 67bd a942 c4bc 3f64 f0bd
00000070: 98f3 173e 8070 18be 5b93 113c 890b 5e3e
00000080: adcd c3bd 58e8 1fbe 63f7 4fba 4ad0 103e
00000090: 8f51 163e b919 10be f816 edbb 39bd 17bd
000000a0: cbdd 16be 9fca 95be 24b4 b0ba 0214 a6bd
000000b0: a7c8 68bd 0067 de3c 0ea2 f23d 7f37 7ebe
000000c0: a4cc 17bd 637c 9dbd e171 8d3e 291c fdbc
000000d0: 93c7 bbbd 14b0 513e 75f7 8b3e 0113 adbd
000000e0: b5ef 15bd 9ef5 6f3d ac9e 94bb ec06 e93d
000000f0: e2f7 893d c6c7 b83d cc12 373e c688 eabd
00000100: dc32 253e db83 1e3e 49b3 1dbc 09cc 403e
00000110: 4502 c23d 7b93 ed3d 3a40 c2bd 56be 193e
00000120: 6a7b 033d 4711 163d 42da c53b 636b bb3c
00000130: 8bb7 8abd 5724 c2ba 2835 833e 140b 7a3e
00000140: ebfc 293e c9ee 1c3e 6474 01ba 5930 a93c
00000150: 5dd2 dab8 a70e 093d a1e7 223e e5fe b73d
00000160: a1cd f93b 13bb 593e 5702 3aba c404 0abe
00000170: 781d f93b 7943 053e 3baa dabd 3e80 fb3d
00000180: ce8c 213e 0627 74bd 7182 13be cf4d 83be
00000190: f531 773e f711 743e b6ee 40be 7306 b43c
000001a0: 3c5c 8c3e ec2f 59bd 83a4 a4ba 7d6b 433d
000001b0: 229b 903c b075 8bbc ff4c b13d 5421 863e
000001c0: c16e b43d 722f 0ebe 55a8 13bb 20e6 26be
000001d0: c7d7 0ebc 8796 f23b d271 ac3d f50a 89be
000001e0: 6333 0fbe 25e6 32be efb0 23be 260c 89be
000001f0: 7adf e4bd c4f6 8c3e 97e2 803e e476 f63c
00000200: 26b3 2f3d 90dd 973d ae2e e6b9 193b 32be
00000210: 6ff9 613e b653 853e 9b74 39be f153 063d
00000220: 1f5c 8d3e 804f 053e 1bd2 28ba 6751 473e
00000230: 7692 7fbe dd58 953e b489 92bd 530c d0bd
00000240: e6fb 24be 0f34 13bc 7122 593c 0682 1bbb
00000250: 0f4d 923c a5bf 2a3e 1e35 bcbc 5567 43be
00000260: 4e9f 60be 24d1 0a3d 3bb1 bdba b352 863e
00000270: d53b 3138 8639 23be 9eb0 23be d1fe 003e
00000280: 6e8d b73d 2d47 83be 3f1c 20bb 236f 203b
00000290: 1df9 89be 3517 1dbd f5d0 523e 8bab 3d3e
000002a0: 0297 87be d544 b53d ffe6 673c fd40 71bd
000002b0: 46cd be3d 9770 6bbe 9fcb 4dbd 6b83 9d3e
000002c0: 1a6b 893e f637 0e3e a582 6f3a 64ac 6a3e
000002d0: 9606 c4bd 4ab8 07be 6d24 46be 5656 44be
000002e0: 373b 21be 8dc9 afbd 34b3 73ba c44a dabd
000002f0: 53a4 a1bd caa8 30be 4833 8e3d fe5d be3d
00000300: 79f9 88be 49e9 093d 2eb8 163d 8e51 553d
00000310: 7372 30be 84cf 7e3b 161f 783e 48e5 073d
00000320: 5af9 683e 1d43 bb3d 5d26 a6ba 0da3 ed3c
00000330: 67f1 63be f4ea 85be a9f7 c1bd 04d7 cf3d
00000340: a801 0c3c 841a 02bd 3f2f 0fbb c078 5fbe
00000350: 230e d73a bcdd 1fbe 8b93 643e 9828 1dbe
00000360: e0ab 483d 35ec 9bbe 913d 75be aedc 82bd
00000370: 66b3 08be b630 073e 85e8 1d3e 8866 ddbd
00000380: dafd afbd d6f2 8a3e 0c3c 2e3c 00a3 403e
00000390: 73c9 e3bc 1f59 503e d7fb 62be d7bc 5a3e
000003a0: 3af2 0cbd 60ad a9bd e47e 543c 0e78 753e
000003b0: 3a1b 8cbc ab43 e83d 9094 86be 0414 943c
000003c0: 333b 54be bdc9 393d 499a f03d 2e45 cabd
000003d0: 7bd8 52be bb06 aabd 9d34 85bd aef9 6bbd
000003e0: c28c 67be 5d2f c33d 1150 873b 35c6 943c
000003f0: 579f 993c 4990 9cbc 5f1e efbd 261a a53d
0.108890906 0.17471492 -0.078166254 -0.012418615 -0.078459896 0.12516975 -0.19149333 -0.007808843
0.083216615 0.23930782 -0.005030687 0.1387479 -0.02763595 -0.19278577 0.10478286 0.23595282
0.27494982 0.21688461 -0.006509985 -0.00051650073 -0.1584088 -0.12304212 -0.21822235 0.2641976
0.014793023 -0.056621548 -0.023957567 -0.117378704 0.14839017 -0.14886665 0.00888523 0.21684088
-0.09560714 -0.15615976 -0.0007933287 0.14141956 0.1467955 -0.14072312 -0.007235404 -0.03704569
-0.14733045 -0.2925615 -0.001348142 -0.08109285 -0.056831982 0.027148724 0.11847316 -0.24825858
-0.037060395 -0.076897405 0.27625945 -0.030897217 -0.09168925 0.20477325 0.27337232 -0.0845089
-0.036605556 0.05858385 -0.0045355167 0.11378273 0.06736733 0.09022479 0.17878264 -0.11451869
0.16132683 0.15479986 -0.009625264 0.18827833 0.09473089 0.11600395 -0.094849065 0.15014014
0.03210012 0.03663757 0.0060379812 0.022878354 -0.06773289 -0.0014811856 0.25626493 0.24418288
0.16600387 0.15325464 -0.0004938303 0.020652937 -0.00010434233 0.03346124 0.15908672 0.08984164
0.00762339 0.2126277 -0.00070956856 -0.1347838 0.00760239 0.1301402 -0.10677 0.1228032
0.15776369 -0.05960753 -0.14405228 -0.256453 0.24140151 0.23834978 -0.18841061 0.021975731
0.2741412 -0.053024217 -0.0012561235 0.04770993 0.017652098 -0.017023891 0.08657264 0.26197302
0.08810187 -0.13885286 -0.0022530754 -0.16298723 -0.0087184375 0.007403198 0.08420147 -0.26766172
-0.13984446 -0.17470606 -0.15985464 -0.2676708 -0.11175437 0.27532017 0.25172874 0.030085988
0.04289546 0.074153066 -0.00043903798 -0.17405356 0.22067808 0.2604043 -0.18110888 0.032794897
0.27609345 0.13018608 -0.00064399996 0.19464646 -0.24958214 0.2916936 -0.07155171 -0.10158601
-0.16111717 -0.00898458 0.01325284 -0.0023728623 0.01785901 0.16674669 -0.022974547 -0.19082387
-0.2193577 0.03389086 -0.0014472374 0.2623497 4.225581e-05 -0.15939912 -0.15985343 0.12597205
0.089625224 -0.2564024 -0.0024430898 0.0024480305 -0.2694787 -0.03835221 0.20587523 0.1852247
-0.26482397 0.08851019 0.014154195 -0.05889987 0.093164966 -0.22992168 -0.050243016 0.30764326
0.26839525 0.13888535 0.0009136594 0.22917324 -0.09571569 -0.13253894 -0.19349833 -0.1917356
-0.15745245 -0.08583365 -0.00092964177 -0.10658792 -0.078926705 -0.17251888 0.06943375 0.09295271
-0.26752833 0.033669744 0.03679674 0.05207973 -0.17231159 0.0038881013 0.24230608 0.033177644
0.2275137 0.0914366 -0.0012676228 0.029008413 -0.22260056 -0.26155818 -0.094710656 0.10148433
0.008545317 -0.03176357 -0.002184823 -0.21823406 0.0016407411 -0.15611929 0.22321908 -0.15347517
0.048992038 -0.3045365 -0.23949267 -0.063897476 -0.13349685 0.13202175 0.1542073 -0.10810572
-0.0859334 0.27138394 0.0106344335 0.1881218 -0.02780602 0.20346497 -0.22166382 0.21361099
-0.034410693 -0.08285022 0.012969706 0.23971578 -0.017102826 0.11341032 -0.2628522 0.01807595
-0.20725708 0.04535841 0.117481776 -0.09876476 -0.20590393 -0.08302065 -0.06504176 -0.05761116
-0.22612289 0.09530518 0.0041294177 0.018160919 0.018752737 -0.01911177 -0.11675715 0.08061628

GRU_Sigma.weight_hh_l0 f4 [27, 9]
00000000: 774f 803e 2cba 3b3e 4b23 e6bd 0274 893e
00000010: 7023 8bbb 962c 093e 1118 1cbd 04f6 533e
00000020: bac1 213b 5be7 43be 8fbe 6d3e 60e4 62be
00000030: 7135 60be 613d 493b 3da0 97bd 2bd6 f0bc
00000040: d7ad 0dbe bb6e 01bb 9758 993e 931f 403e
00000050: 4649 02bd b106 223e 5eaf 91bb 56d3 883e
00000060: a08d c2bd 1f12 fd3d 659c a23b 7cf7 353d
00000070: 3f70 18be 36a7 84be d11a fb3b ac8e 25ba
00000080: 0ba8 29be e68b 33bc a165 6c3e dca4 c43a
00000090: c3e2 483e d3bc 073e 4504 583e 4bf5 b53d
000000a0: b42e feba 3e10 ee3c 238d 113c 39d7 a43d
000000b0: 6845 e63a 1a20 a0be d0ef 66be 6a09 54be
000000c0: 9bf7 b2bd 64b7 393a 036f 373e 65bf 523b
000000d0: 4a79 163e eecf d53b 7782 213d b22a cc3c
000000e0: f1cd 82be 7ecf 7a3e 75c2 93ba 5d21 5aba
000000f0: a796 4cbb aa4a 40bd 6d55 6d3a 4e2a 643e
00000100: 3470 8c3d 7650 90be e6be 6d3c 6d79 6abc
00000110: 22a8 b5bd 9fa3 ea3b fb20 77be 5480 0b3c
00000120: dbe5 143e 3f08 cd3c 43f9 03bd 182f fe3c
00000130: 9db8 3abb 8cc8 15be 8707 8c3c e917 553e
00000140: b932 ff3b 2faf 433d 4e31 033e 4a58 01be
00000150: 912a 16bc ed2a 9a3c 66e0 31ba f2d0 303d
00000160: 06fb 693e 5021 18bc faff 75be 23f2 463e
00000170: 3b49 103d 3499 59be bdc9 91bc c9ce 5f3e
00000180: c33c 8a3a f9d2 9c3d ffa7 073c 2f38 cabd
00000190: 9aa1 71be 6d95 e9bd 783b b53d 8f41 79bd
000001a0: 814c 413d 6366 babe a231 1bbe 1a3f a2b9
000001b0: fd37 f93c 642d a63a 4247 ab3d 6740 8abd
000001c0: 25f1 43bc 6731 3dbe 9f3c a7bd 7f67 11be
000001d0: b502 3abc a87f 933d d740 f3bd a1e4 063e
000001e0: b0ba 8abe da10 7dba e745 7bbd e09c 99bd
000001f0: c859 18bd 587b a1bc 62e0 91bc c016 4cbe
00000200: 0124 9abe 55a7 093e a2b4 bfbd e161 4abe
00000210: d963 6fbe 6078 80be b80b 5dbb f6a6 813d
00000220: 77b1 c0bd 2b88 8ebe 06d4 a5bd 608b f23b
00000230: 5bbf 2c3e 0e8a 903d 4076 cbbc badd 0f3a
00000240: da1d a9be dbb9 04bd de5e 88be 4096 b1bc
00000250: 8afb f93b a7c2 263e 2694 d2bd 5def 933e
00000260: 188d 53bc a464 79be 17ac 46be f277 8c3e
00000270: 178a 69bd dc48 5c3c eb45 b5bc 267f 32be
00000280: dba1 9cbd 2cfe a1b9 c425 59be 272f d23d
00000290: 6378 20bd dc6d 6abe 9db6 8b3d 1f0e 6a3e
000002a0: 420b b63d 1eda 4e3e 0cda dcbb 8e27 1f3d
000002b0: 08b6 78be 16ff 7a3e 876f 19be 5171 213c
000002c0: c502 c0bd 45fd 76bd 4e81 973e a58d 6ebc
000002d0: 07b2 0ebe 969f 803e 28c4 e4bd faa0 7d3e
000002e0: dab7 c1bb 95e2 193e cd5a b73d 5aec 51be
000002f0: b2c0 32bc 0f81 593e ac77 7bbe 057e 65be
00000300: 4aef 78be 759d e63d d7e6 74be c19e bd3d
00000310: ae0a 553e d9a2 fd3b 05be 9bbd a601 0ebd
00000320: 6fef 613c aad8 c13d a76a e43c 8597 023d
00000330: b038 a03d 06bd 773c 5653 b13c 6752 493e
00000340: bf14 44bd 327d 88be aba7 55be 4e23 1bbc
00000350: 60fa c33d e5ce f9bb 8a3d e8bd 0901 efbc
00000360: 12d1 8a3e 5b94 103e 110d 363e 10e7 923d
00000370: 2fa0 253c bb0d 70be b35f 533e 0f26 153e
00000380: 5adf 13bc c9a0 93be a091 44bd 5b40 2e3d
00000390: 35e7 b9bd 9237 043d 737f df3c a135 073c
000003a0: 0ad1 87be d32a 68bc 605a a9be f9e8 53be
000003b0: 2f74 87be b1ea 34be 85c9 7f3d 7596 2931
000003c0: f42e 31bd c754 c0bd 95b2 053d
0.25060627 0.18332738 -0.112372 0.2684632 -0.004246168 0.13395914 -0.03810889 0.20699316
0.002468212 -0.19131224 0.23217224 -0.2215743 -0.21895386 0.003070675 -0.0740361 -0.029398998
-0.13835846 -0.0019749838 0.299504 0.18762045 -0.03180816 0.15822865 -0.004445954 0.26723737
-0.09499669 0.12356972 0.0049624913 0.044425473 -0.14886568 -0.25908822 0.007663109 -0.000631551
-0.1656801 -0.010958647 0.23085643 0.0015002745 0.19617753 0.13255624 0.21095379 0.088846765
-0.0019392581 0.02906048 0.008883747 0.08048863 0.0017568292 -0.31274492 -0.22552419 -0.20706716
-0.08738633 0.0007084517 0.17913441 0.0032157537 0.14694706 0.0065250313 0.03943106 0.024922702
-0.25547746 0.24493214 -0.0011273163 -0.00083210116 -0.0031217725 -0.046946205 0.0009053562 0.22281763
0.068573385 -0.28186387 0.014510846 -0.014311177 -0.088699594 0.0071606184 -0.24133675 0.0085144825
0.14540808 0.025028346 -0.032220136 0.031028315 -0.0028491386 -0.14627284 0.017093433 0.20809902
0.007788029 0.04777449 0.12811777 -0.12631336 -0.009165422 0.018819297 -0.0006785452 0.043168016
0.22849664 -0.009285286 -0.24023429 0.19428305 0.035226088 -0.21249849 -0.017796392 0.21856226
0.0010546673 0.07657427 0.0082797995 -0.098739974 -0.23596802 -0.11405454 0.088492334 -0.060853537
0.0471921 -0.3640624 -0.15155652 -0.00030946062 0.030422205 0.0012678322 0.08363201 -0.06750565
-0.011959349 -0.18475877 -0.081658594 -0.14199637 -0.0113531845 0.07202083 -0.118776016 0.13173153
-0.27095556 -0.0009653695 -0.06134596 -0.07500625 -0.037194997 -0.019712135 -0.01780719 -0.19930553
-0.30105594 0.13442738 -0.09360625 -0.197639 -0.23377933 -0.2509184 -0.0033728909 0.063306734
-0.09408849 -0.27838263 -0.08097081 0.0074018687 0.16869871 0.07057582 -0.02483666 0.0005488057
-0.33030587 -0.032403808 -0.26634878 -0.02167809 0.0076288627 0.16285191 -0.10282163 0.28893557
-0.012912057 -0.24354798 -0.19401585 0.2743526 -0.05701646 0.013445105 -0.022128066 -0.17431316
-0.07648059 -0.00030897686 -0.21205813 0.102629 -0.03917731 -0.2289347 0.0682194 0.2285695
0.08888866 0.20200393 -0.0067398604 0.03885608 -0.2428819 0.2451137 -0.1498395 0.009853677
-0.09375528 -0.06030013 0.2959084 -0.014560138 -0.139351 0.25121754 -0.11170226 0.24768439
-0.0059118094 0.1502784 0.08952866 -0.20500317 -0.0109102 0.21240638 -0.2455737 -0.22411354
-0.24310032 0.11260501 -0.23916183 0.092587955 0.20804855 0.00774036 -0.07604603 -0.03466954
0.013789996 0.094651535 0.027882887 0.03188278 0.07823312 0.01512075 0.021646183 0.1966034
-0.047871348 -0.26658016 -0.20864742 -0.0094688665 0.095692396 -0.0076235407 -0.11339863 -0.029175298
0.27112633 0.14119093 0.17778422 0.07172978 0.0101089915 -0.23442738 0.20641975 0.145653
-0.009025419 -0.28833607 -0.04799044 0.042541843 -0.09077302 0.03227956 0.027282452 0.008252532
-0.26526672 -0.014170366 -0.33076763 -0.20694341 -0.2645583 -0.17667653 0.062448043 2.4678262e-09
-0.04325767 -0.0939117 0.032641012

GRU_Sigma.bias_ih_l0 f4 [27]
00000000: 9f3f 6fbe fd3a 86be c71a babd 03da 2c3d
00000010: 486f 1f3e d78a 7ebe 7ec0 0e3c 50f2 97be
00000020: 3bed bd3d e029 b5bd b0fd b4bd f183 713e
00000030: 9f65 78be 7a67 26bd 6f50 333c f636 9b3e
00000040: 45e0 203e cdb0 29be 509f a7be 7fa0 8c3e
00000050: dfa9 763e 7c5f 273c 4245 793e a132 623e
00000060: 4e56 443e 79b9 e13c 37ac 22be
-0.23364113 -0.2621688 -0.090871386 0.0422001 0.15569794 -0.2485765 0.008712886 -0.29677057
0.09273764 -0.08845878 -0.088374496 0.23585488 -0.24257515 -0.040626027 0.01094447 0.3031537
0.15710552 -0.1657135 -0.32738733 0.274662 0.24088238 0.010215636 0.24342826 0.22089626
0.19173548 0.02755426 -0.15886007

GRU_Sigma.bias_hh_l0 f4 [27]
00000000: 8cf9 243e 0e87 a3bd d767 8fbe 2428 dbbd
00000010: 999f bc3c 281c 40be 9991 f33d 830c 2d3e
00000020: 0925 a03d b993 c83d 7039 a7be 8e23 e8bc
00000030: e5a5 7e3d 191b 203e 4d89 83be 2b42 743e
00000040: 7f0d 9dbe eacd a8be 2edb 00be c5dd 363d
00000050: 450c 65be 124e edbd 7cf2 f43d 5c45 953e
00000060: 7cf8 9dbe 187e 94be bc54 783e
0.1611082 -0.07984744 -0.2800891 -0.107010156 0.02302532 -0.18760741 0.11893005 0.16899304
0.07819564 0.09793801 -0.3266101 -0.028337266 0.062169928 0.15635337 -0.2569069 0.23853366
-0.3067436 -0.329696 -0.1258361 0.04464509 -0.22367962 -0.11587156 0.11960313 0.2915448
-0.3085364 -0.29002452 0.24251074

GRU_S.weight_ih_l0 f4 [27, 39]
00000000: cf09 4eba c00a ee9e 276f 37ba 3b6e 8ebd
00000010: 151b fc3d cbbd 2a3e 5b9a 8cbd dbd2 5bbe
00000020: b3b2 cea7 de30 203e d22d 3b3e 5fe1 fdbd
00000030: eeb6 f13d 025f 283e f98f 443e bc1b 23bd
00000040: e0af a6bc 3bb4 313e 1f4e fcbd 4c68 603e
00000050: 6e44 353e babf 8b3c 2103 8fbe 088c 513e
00000060: ee4f 61be e259 5fbd cf90 9d3d de2d 27be
00000070: 7a99 96be 4d9c 99be 9090 34be 15b0 863e
00000080: 9b3c b83d 6a13 86bd 6a9f 2c3e 40e6 523d
00000090: 2042 6ebe 82c5 dc3c 317d 7cbe 3621 84bb
000000a0: 711a 321f 4c0b 87bb 4309 573d 9273 ccbd
000000b0: 6164 d53d 2e2a 593d 0e07 88bb fa35 2ea7
000000c0: 83a9 66be ccad 133d 0cf4 423e 29b7 ad3c
000000d0: 9121 7fbd 0358 773d 5663 673e 75a5 003e
000000e0: 0de1 7b3c a162 42be 1e54 cf3d 87e5 a8bd
000000f0: ad24 283e efb3 e63d f70f 253d 0cab f0bd
00000100: 8950 4abd 3c7e d6bd 0263 403d db09 813c
00000110: d462 bbbd e88f 0ebe 5ba2 70be 985b 5e3e
00000120: 346b a73d 35e5 0a3e b4c3 283c 306e 4e3e
00000130: fa4d 303d 4895 0e3e 8b27 64bb cb3e f21f
00000140: f492 67bb f41a 583e 8e05 0bbe f2e4 7cbe
00000150: 99c7 873d 4d4c 30be 847c 0aa9 dfee 233d
00000160: 2b6f 953e 0fe1 87bc 1256 1b3e c76e 883d
00000170: 5759 10bd 9b42 f8bd acd8 683e 0de1 663d
00000180: 64f2 c53d 778c 163e 6ed5 e53d 8fa5 ac3c
00000190: 51c6 563e ec59 d3bd 1608 82be 62cd adbd
000001a0: 1632 953e c093 7cbd 7a7b 8e3d 6783 a6bb
000001b0: 9dd3 d63c 719b aebc 61b8 403e f96c de3c
000001c0: be29 d7bd 4f4f 6dbe d5af 393e d4e4 d3bd
000001d0: fe2d 84be f12b 223b 40f3 089c c254 1e3b
000001e0: 8ebd 38be ef5f 7a3e c578 a3bd 66e7 d83d
000001f0: f746 1ebe 2c73 eda7 73d4 55be 954b 913e
00000200: a5ef d1bd bd59 76be 8848 663e 9fe1 12be
00000210: 09ec 833d 9c04 74bd 9dd4 67be c652 0bbd
00000220: 5697 5dbe 9eac 0b3e 5388 8b3c ff42 3abc
00000230: 5e72 01bc 34b3 7b3d 1d42 99bb c287 56be
00000240: 3e4d e03c 881d 07be b8ec 8a3d 711f 39be
00000250: 23ca 8f3d b6ae 9f3d 2041 003e 5707 c33b
00000260: 0795 e5bd e933 86be f993 1d3e 38cd 4bbd
00000270: 1024 193a 2971 139f d761 243a 8b98 03be
00000280: 1339 4abe 31e7 5bbc a836 253e 109d 27bb
00000290: 992d 6da7 15c6 0dbe 7458 22be da67 913c
000002a0: dbb8 323c 4899 8d3e d026 0b3d 24b7 253e
000002b0: a779 7f3e 37f3 953a 9a4b 0f3e fa51 723e
000002c0: 98e4 153d 2a4c ca3c aa75 bcbd 5b7b 8b3d
000002d0: 72cf 533e e359 4b3e 7be4 c6bc 98f8 38bc
000002e0: d8c2 293c 5546 623d aabb c3bd 4e9b 1b3e
000002f0: b571 61be 61bc 22be 1b49 13bb 5144 debd
00000300: 855e 50be 34ff 9e3d 21b0 8dbc 4cf7 c73b
00000310: b705 661f 1959 c93b 7b84 823d dd1c e9bd
00000320: 1dec e03d c45b 1a3e e5d3 17bc be44 8ea7
00000330: ea72 6b3b 0689 16be 81fa b0bd c3d4 d73d
00000340: 0b4d 29be 6cbf 9cbd 9d7b 31be 5475 f93d
00000350: 42ae 25be 9d7a 093e ee0b 8a3e f0b8 793e
00000360: f62b 27be d90a fb3d c992 99bd 47f6 133e
00000370: 99ca f33b 5a93 69be 16f5 0fbe 8c33 a6bd
00000380: 5644 253e d1b5 eb3d 76bd 833e ab76 f9bc
00000390: 259f cfbd 39b5 a73d 0530 df3c 5975 c9bd
000003a0: 08c6 99bd 4c4a 66be 8ff2 173b 06a6 b29e
000003b0: a4f1 143b 1711 ec3a 7439 513d 863c 3ebe
000003c0: 3b73 68be e78c 82bb b14a 2da5 cdde 14bc
000003d0: c21f fa3d 8360 843e bb5a 5ebe 19f6 20be
000003e0: 4a0e f7bc 2c01 43bd af1a 773d 193a 54be
000003f0: bff2 f4bd 0e63 65ba b711 8c3d 3bab 35be
-0.0007859738 -2.5203676e-20 -0.0006997459 -0.069546185 0.12309853 0.16673963 -0.068653785 -0.21467154
-5.737023e-15 0.15643641 0.18279198 -0.12396502 0.11802469 0.16442493 0.19195546 -0.03982137
-0.020347536 0.17353909 -0.12319588 0.21914786 0.17701885 0.017059196 -0.27932075 0.20463574
-0.22003147 -0.05452908 0.07693636 -0.1632609 -0.29413968 -0.3000206 -0.17633271 0.26306215
0.089959346 -0.06546672 0.16857687 0.051489115 -0.23267412 0.026949648 -0.24657132 -0.0040322794
3.7714838e-20 -0.0041212197 0.052499067 -0.09982981 0.104195364 0.05301874 -0.0041512316 -2.4176612e-15
-0.22525601 0.036054417 0.19038409 0.021205502 -0.06228787 0.06038667 0.22596487 0.12563117
0.0153734805 -0.18982936 0.10123466 -0.08246904 0.1642024 0.11264788 0.04029843 -0.117513746
-0.04939321 -0.10473296 0.04696942 0.01575177 -0.09149709 -0.13922083 -0.23499434 0.21714628
0.08174744 0.13563998 0.0103005655 0.2015922 0.043043114 0.13924134 -0.0034813609 1.0259487e-19
-0.0035335394 0.21104032 -0.13576338 -0.2469671 0.06629867 -0.17216606 -3.0750156e-14 0.040022727
0.29186377 -0.016586808 0.15169552 0.06661754 -0.03524145 -0.12122079 0.22738904 0.05636697
0.09665373 0.1470202 0.11222349 0.021075038 0.20974089 -0.103198856 -0.25396794 -0.08486439
0.29139775 -0.061664343 0.06957145 -0.0050815823 0.026223952 -0.021314355 0.18820335 0.027151572
-0.105060086 -0.23174785 0.18133481 -0.1034638 -0.2581634 0.002474543 -4.531302e-22 0.0024159406
-0.1804106 0.24450658 -0.07982019 0.10591011 -0.15456758 -6.5905584e-15 -0.20881824 0.28377977
-0.10250787 -0.2405767 0.22488606 -0.1434388 0.064415045 -0.05957471 -0.226397 -0.034014486
-0.21639761 0.13640067 0.017032778 -0.011368512 -0.007900802 0.0614502 -0.004677071 -0.20950225
0.027380582 -0.13194859 0.06783432 -0.180784 0.070209764 0.07796995 0.12524843 0.0059518027
-0.11210065 -0.2621148 0.15388478 -0.04975626 0.00058418605 -3.1222065e-20 0.0006270683 -0.1285116
-0.19748335 -0.01342182 0.16134131 -0.0025575794 -3.2915076e-15 -0.13845094 -0.15854055 0.017749716
0.010908331 0.27656007 0.03397256 0.16183144 0.2494875 0.0011440282 0.13993683 0.23664084
0.036594957 0.024694521 -0.0920213 0.068106376 0.20684603 0.19858508 -0.02427887 -0.011289738
0.010361396 0.055242855 -0.095572785 0.15195963 -0.22016032 -0.15892173 -0.0022473994 -0.10852874
-0.20348556 0.0776352 -0.017295899 0.006102478 4.8709122e-20 0.0061446545 0.06372925 -0.11382458
0.10982535 0.15074068 -0.009266828 -3.9487448e-15 0.0035926648 -0.14700708 -0.0864153 0.10538628
-0.16533296 -0.07653698 -0.17332311 0.12180582 -0.16179755 0.1342568 0.26962227 0.24386954
-0.16325364 0.122579284 -0.074987 0.14449416 0.007439923 -0.22810116 -0.14058337 -0.081153005
0.1613935 0.11509288 0.25730485 -0.030452093 -0.10137776 0.08188862 0.027244577 -0.098368354
-0.075084746 -0.2248928 0.0023185348 -1.8915149e-20 0.0022727037 0.0018010464 0.051080182 -0.18577775
-0.22700207 -0.003984082 -1.5030664e-16 -0.009086323 0.122130886 0.25854883 -0.21714298 -0.15718879
-0.03015818 -0.04760854 0.06032818 -0.20725287 -0.11960363 -0.0008750417 0.06839316 -0.177411

GRU_S.weight_hh_l0 f4 [27, 9]
00000000: 7a7d 623c 0eb1 54be b860 833e 1d06 26bd
00000010: d38c 07bb b188 5abd 1cfc 16be 99d2 38be
00000020: c7d5 cf3d 1f83 223e 17cd a2bd 7301 3bbd
00000030: e2d7 56be 73fa 90be ddf3 25be 427a 83bc
00000040: 914c 033e e295 4a3e 7a66 e33d 6c6f 753d
00000050: c4fa 94be 0824 abbd 2d9e 62be 24d9 9fbe
00000060: 3c86 133e 649e 77be 2481 c73d 55dc 413e
00000070: 7b51 1abe 4b63 7ebe ee45 b13d 4971 263d
00000080: 0bee 06bd 45f8 19be 2912 c93d c14c c13d
00000090: 035a 72be 3c27 423d 6c15 22bd 4544 713d
000000a0: 89cf 88bd 861f dabd 09cb c0bb 8ed0 9dbd
000000b0: d3fc 16be e796 94bd 1433 69bc 312f 23be
000000c0: 86fb 423e 4976 6cbe acb0 54be 01ed 633e
000000d0: a821 46be ed6f 75be 60a3 4a3d b2b4 8a3e
000000e0: a93a 263e a985 2e3e cb78 303e c531 313e
000000f0: 520b 783e 5d59 113d 3caf c73c a2a3 8abe
00000100: 74ed 213e cd95 8abe 3257 483e 4079 0a3e
00000110: c059 8dbc 4231 61bd 79f6 0d3e 78f5 fbbc
00000120: abe0 f0bd 5c3a 44bc 7879 83be dc78 4dbe
00000130: b6cf 31be 599f 03be 06ad 99be 8645 92bd
00000140: c5e3 ae3d a1ea 82be 9f65 88be a89b 95bc
00000150: 4583 1b3e a539 32bc 9ece fe3d 4da3 123e
00000160: 68e1 3dbe 72da 8bbd 96c2 7abe c4b5 62bd
00000170: ab79 7cbe 7968 543e 52e0 373e 336c 7d3e
00000180: 5719 153d ad82 2e3d b0d4 03be c31f 4ebe
00000190: f535 0f3e a218 86be d530 39be d620 463e
000001a0: 412e 46bd 4f96 7b3e 3c6a bc3d bffc 82be
000001b0: 7f7f c7bd 228c 8e3e 6cbe 19bc 2c9e fbbd
000001c0: 7de7 d2bc 643f 6cbe 44b3 3e3e e855 003d
000001d0: 6e58 5cbd df27 d13c 64fd 793d 748c b3bc
000001e0: d430 39bd 2b58 85be e7ff 143e 70f8 1abe
000001f0: 37db 633d 98b5 2b3e 7782 47bb 936b 6c3d
00000200: d548 85be f975 053c 708b 9fbe d005 4ebe
00000210: 0ac8 9dbe 6595 8fbe e933 a1bd b055 45be
00000220: 4eb0 33bc 2ebe 7e3e 611b 803e 65cc 7a3e
00000230: 745a 983e 3f54 67be 2c3a 65be 01e5 223e
00000240: 9a40 863d 4359 21be 8294 1b3d 2d95 ecbd
00000250: 227c 403e 673a 4ebe 1c64 ecbd 0569 e2bc
00000260: 490f 803e 7e3b 003b e8d9 68bd 551b e83d
00000270: 904a 1e3e 5c34 6a3e 7a7b 903e 5cd8 4abd
00000280: bdd2 653e 467f 5d3e 857c 81be 146a 8bbe
00000290: 55bc 9cbe f70b 80bd 3869 71bd 881e 19be
000002a0: d730 903c eb0d a73c c211 28bd f30b 0c3e
000002b0: 8fc8 663e 66d1 0bbe 1075 623e a20b 0bbe
000002c0: 469d 9bbd 5ac2 b23d 1dc5 593d fabe bd3d
000002d0: 80bd cfbd f7de cf3d d11b 803e 3e98 a8bc
000002e0: e3b7 ae3d 20dd e73d d922 c3bc 96c2 44be
000002f0: a772 a1bc c4a2 483e 9ea7 51be 7387 a4be
00000300: f961 e33d efdd 55be 0de9 21be b7e1 44be
00000310: bd83 b73d c9b1 db3d 37e4 c83d 9e60 7c3e
00000320: e0d5 f2bd 5383 953e 9fb0 113d 6fee cdbd
00000330: 6157 b73d aca0 6bbc 5dc2 6ebe ba1f 393e
00000340: 65bd fd3d 21ce 11be e990 5cbe f24f fd3d
00000350: 7c7e 8f3e e6ac 553d 055f 9fbe f7bf 66be
00000360: 4812 58be f1e4 a63b 11c1 503e e4c2 973e
00000370: 7ed3 623e 0ccc 67be 9ca6 8e3e 636c 03be
00000380: 7e3b 8d3e ed5e e3bd 0d32 f23d f7fc 53be
00000390: caee 7cbe ec4d e3bd fbce 90be 8929 1bbe
000003a0: 3bea 06bc 3696 cf3d 3806 9bbd 480a c63d
000003b0: 8372 0fbe 4ccc 05be b8f0 99be f248 103e
000003c0: 3290 7dbe 74b6 983e e9ad 5cbe
0.013823861 -0.20770666 0.25659728 -0.040533174 -0.0020683303 -0.053353015 -0.1474461 -0.18049087
0.10148197 0.15870331 -0.07949274 -0.04565568 -0.2098079 -0.28316078 -0.16206308 -0.016049508
0.12822177 0.19783738 0.1110353 0.059920713 -0.2909757 -0.08356482 -0.22130652 -0.31220353
0.14406675 -0.24181515 0.097414285 0.18931706 -0.15070145 -0.24842565 0.08655916 0.04063538
-0.03294186 -0.15036114 0.09817917 0.09438468 -0.23667149 0.047400698 -0.03957121 0.058902998
-0.06680209 -0.10650544 -0.0058835787 -0.07705794 -0.14744882 -0.07255345 -0.014233369 -0.15935971
0.19041261 -0.23091997 -0.2077052 0.22258379 -0.19348776 -0.23968478 0.049472213 0.27090985
0.16233315 0.17043175 0.17233579 0.17304142 0.24223068 0.035485614 0.02437555 -0.27077967
0.15813237 -0.27067414 0.19564512 0.13522816 -0.01725471 -0.054978617 0.13863553 -0.030756697
-0.11761602 -0.011976805 -0.2567861 -0.20065635 -0.17364392 -0.12853755 -0.3001482 -0.07142167
0.08539537 -0.25569633 -0.2664003 -0.0182627 0.15186794 -0.010878001 0.12441753 0.14320107
-0.18543017 -0.068287745 -0.24488291 -0.055349126 -0.24655788 0.20742978 0.17956665 0.24748306
0.03640112 0.04260509 -0.12874103 -0.20129304 0.13985427 -0.26190668 -0.18085034 0.19348463
-0.048383955 0.24569057 0.0919995 -0.25583455 -0.09741115 0.27841288 -0.009383779 -0.12286028
-0.025745148 -0.23071057 0.18623072 0.031331927 -0.05379527 0.025531707 0.061032668 -0.02191756
-0.04521258 -0.2604383 0.14550744 -0.15133834 0.05562898 0.16768491 -0.0030442753 0.05771978
-0.2603213 0.008145803 -0.3116107 -0.20119405 -0.3081668 -0.28043666 -0.07871229 -0.19270968
-0.010967327 0.24877235 0.25020888 0.24492033 0.2975651 -0.22590731 -0.22385472 0.1590767
0.065552905 -0.15756707 0.037983425 -0.115518905 0.18797353 -0.20139466 -0.11542532 -0.027637968
0.25011662 0.001956671 -0.056848437 0.11333338 0.15458131 0.22871536 0.28219205 -0.049522743
0.22443672 0.21630582 -0.25290313 -0.2722937 -0.30612436 -0.06252282 -0.058938235 -0.14953053
0.017601414 0.020392379 -0.04103256 0.13676433 0.22537445 -0.13654098 0.22114968 -0.13578656
-0.07598357 0.08728476 0.053166497 0.092649415 -0.10143566 0.10149949 0.25021222 -0.020580407
0.08531167 0.11321473 -0.023820328 -0.19214854 -0.01970799 0.1959334 -0.20474097 -0.3213459
0.11102671 -0.20885442 -0.15811558 -0.19226728 0.08960674 0.10727269 0.098091535 0.24646232
-0.118572 0.29201755 0.03556883 -0.10055243 0.08952213 -0.014381569 -0.23316331 0.18078509
0.1238964 -0.14238788 -0.21539654 0.12368764 0.28026187 0.052166842 -0.31127182 -0.22534166
-0.21100724 0.00509321 0.20386149 0.29640877 0.2215099 -0.22636431 0.27861488 -0.12834315
0.2758445 -0.1110209 0.11825953 -0.20701967 -0.24700466 -0.11098847 -0.28282914 -0.15152563
-0.008234556 0.10136072 -0.075695455 0.0966993 -0.14008527 -0.13066214 -0.30066466 0.14090326
-0.24762037 0.298267 -0.21550716

GRU_S.bias_ih_l0 f4 [27]
00000000: f35c ebbd b131 61be 88d3 a3be 9827 15be
00000010: dd97 a8bd 123c 96be 7008 833e 63e1 acbd
00000020: bc67 4fbe db63 7dbe c4f1 97bc 4ff5 c9bd
00000030: 3165 7f3e 62fd 84bd 6cb8 55bc 5a6d ad3c
00000040: f8b7 3e3e f10f 54bb d032 773e cbf2 753e
00000050: 1ebe 8f3e 1deb 15bd bb83 8cbe 31f7 9a3e
00000060: a283 83be 7a00 8abe c6a2 303e
-0.11492338 -0.21991612 -0.31997323 -0.14565885 -0.082320906 -0.29342705 0.25592375 -0.084414266
-0.20254415 -0.24745123 -0.0185479 -0.09861242 0.24940945 -0.064936414 -0.013044458 0.021170307
0.18624866 -0.0032358135 0.24140477 0.240184 0.28074735 -0.036601175 -0.27444252 0.30266717
-0.25686365 -0.2695349 0.17249593

GRU_S.bias_hh_l0 f4 [27]
00000000: 64c3 1ebe 4396 3dbd 5d0b 22be 23fe 8dbe
00000010: 7a44 2e3e ad56 34bd cf0f 01be 4b92 d7bb
00000020: 5da0 cdbb cab6 a63b d2c8 89be f09a 8bbe
00000030: 99d9 b63d 122c 7bbe 135e ab3e 0077 8e3e
00000040: e253 67be 596b 04be 085f e4bd 888a 833e
00000050: 972c 933e 85e6 03bc fab6 d3bc f8c9 3f3e
00000060: ee2e 473e 43f1 9f3d 5262 94be
-0.15504223 -0.04628588 -0.15824647 -0.27732953 0.17018309 -0.044027973 -0.12603687 -0.006578719
-0.0062752203 0.005087708 -0.26911026 -0.27266645 0.08928222 -0.2452853 0.3347021 0.27825165
-0.22590593 -0.12931575 -0.11150938 0.25691628 0.28744957 -0.008050566 -0.025844086 0.18729389
0.19451496 0.07809689 -0.28981262

FC1.0.weight f4 [9, 9]
00000000: 0fd0 8d3b 9919 7e3c 711d 863c 8377 c5bb
00000010: 16a0 dd3c f7c4 f13c 1bc7 b53c 1050 91bc
00000020: d146 aebc 10fb be20 9b47 16a2 924a 5022
00000030: 6fa5 3aa0 6d14 3ea5 265e 8f9f 1a30 07a5
00000040: adde 47a1 2643 959d 2674 7f3b 0eb6 813c
00000050: 1663 883c ea7d cabb 77bc e23c f73d eb3c
00000060: 1dcf be3c 143f 91bc f669 b0bc 658f 9cbd
00000070: 7a47 823e 55c1 f5bd 05e5 4cbe 4a4c aebd
00000080: 48d9 7d3e ee64 a93c c6aa 223d 7c84 50be
00000090: 6299 88be 4a43 573e faa3 f93d 3242 1b3c
000000a0: ff0f 4a3e 99ca 83be f8ea d33d 3c01 2fbe
000000b0: fef0 8dbe e0e0 63be 795d 3abe 399d 943e
000000c0: 7150 123d 5713 f73d e5e4 84be 5467 9cbd
000000d0: 0a8e f7bd 09bd 08be 8198 8abb bdc5 f2ba
000000e0: 8b70 7bbc 951d 9cbd c0ee e23d d705 663c
000000f0: 1887 9abd 56a3 933d c8e5 253c b6cf 2cbc
00000100: cb34 8fbe 2861 d1bd c768 813b e4b6 8e3e
00000110: 33f6 e1bd 0577 a03e ee0d 843d 0150 9fbc
00000120: f603 eda9 7838 102a 288b 212b 003d f3a6
00000130: b570 6fab 0654 e2a7 c880 6fab cc45 13aa
00000140: c8ed c927
0.004327781 0.015509033 0.01637146 -0.00602621 0.027053874 0.029512865 0.022189667 -0.017738372
-0.021274002 3.235339e-19 -2.0366698e-18 2.8228734e-18 -1.580955e-19 -1.6486794e-16 -6.071861e-20 -1.1725681e-16
-6.771853e-19 -3.95094e-21 0.0038979142 0.01583388 0.01664881 -0.006179561 0.027677758 0.02871607
0.023292119 -0.017730273 -0.021534901 -0.07644538 0.25445157 -0.11999766 -0.20009239 -0.08510645
0.24789917 0.02067801 0.039713643 -0.20363039 -0.26679522 0.21021762 0.12189479 0.009476231
0.19732665 -0.25740507 0.10347551 -0.17090315 -0.27722925 -0.22253752 -0.1819972 0.290262
0.035721246 0.12064236 -0.25955883 -0.07636896 -0.12087639 -0.13353361 -0.0042296057 -0.0018522065
-0.015346657 -0.0762283 0.11080694 0.014039478 -0.07545298 0.07208888 0.010125585 -0.010547569
-0.27969965 -0.10223609 0.003949258 0.2787391 -0.11033287 0.31340805 0.064479694 -0.019447329
-1.05256014e-13 1.2809361e-13 5.739181e-13 -1.6878046e-15 -8.506627e-13 -6.28187e-15 -8.5088577e-13 -1.3080438e-13
5.604651e-15

FC1.0.bias f4 [9]
00000000: 8587 f93c d5f7 51b4 1572 003d 8d62 abbd
00000010: 3493 8f3e eadd 8e3e 7214 04bd d97a 363e
00000020: 1fee f0ab
0.030460129 -1.9554803e-07 0.031358797 -0.083684064 0.28041995 0.27903682 -0.03224606 0.178203
-1.7119118e-12

FC2.0.weight f4 [720, 18]
00000000: b135 83bd 7c14 513e dace c7bd 8ee5 79bd
00000010: 579e 6f3e fb1f 113e d2fd acbd a513 e63c
00000020: b302 353e 62b0 48be 4eab dcbc 2300 2fbe
00000030: 12ad 523e 1ba7 c7bd 4c8a 21be 2099 85bb
00000040: 2c98 3b3e 31e5 e7bd e4da 253d df76 66bd
00000050: 715b 0fbe dd24 d63d b4fe c5bd c254 073e
00000060: 2e81 583e 6166 a9bd f83a 68bd 7e5f 213e
00000070: a407 e6bd caf3 633e 5b57 fd3d 7ac1 1d3e
00000080: 9950 4f3d 6983 e93d 1cbd 6cbc c4c4 a5bd
00000090: 37c7 c73d 7fa1 873d 91d6 d6bc 5145 ebbc
000000a0: b48c 453e d597 1d3d 434e 653e e816 20be
000000b0: 80ae 16be f533 a53d d50b eebd 998f abbd
000000c0: a39c 2dbe 8333 ab3d 423c 523e a470 51be
000000d0: b014 42be 4ca0 36be 83de ebbb 13bc 94bd
000000e0: 73c9 47be be8d c6bd 9641 40bd db6b 423e
000000f0: 7d9b 38bd 6f88 12be a59e 1e3d 734c 423e
00000100: 1c19 d43d d6a9 323e 8f84 5e3e 4bc1 873d
00000110: d0fe c13d b906 6d3e 269a 0d3e 5957 613d
00000120: 165a a220 afb3 f2ae 3858 0bb1 d639 93a2
00000130: 5a4b 94b5 deb7 6e24 6fdb d3b4 dc9f 2a30
00000140: 2f34 03a5 f876 d534 0dcc f9b4 af4a 4db7
00000150: 065c d0b1 6741 ac37 fd30 22b7 2828 ab35
00000160: 23ac 02b5 e34a 782d 91eb 72bd 18c1 483e
00000170: a3a7 293e d02f f7bb 3382 1cbe 528f ff3d
00000180: 16a4 8dbc ed4d 833d 9cfc f1bd fda9 523e
00000190: 114b 6c3e 4846 2cbd e208 113d cbeb 18be
000001a0: 75b1 b13d 3855 27bd a557 433e 6a45 973c
000001b0: fcf9 023e c030 2dbe 7e1d 1e3d 1a37 4dbd
000001c0: 4cde 9e3d 80cb dabd 021b 8138 4269 783c
000001d0: 5f2d f8bd a1f9 01be bf6b 87bb 9896 d3bd
000001e0: 8114 d03d 4387 0a3e 45e3 8038 2575 bfba
000001f0: 787a ac3a 8889 ddbd dc78 5dbd 7877 81bd
00000200: d4d2 c3bd a115 273d 5b7c b3bd cda7 14be
00000210: f018 563d 9104 17bd 64c0 ce3d efac 3cbe
00000220: 61b7 453e 3b99 1abe 64ae 803d 15e8 01be
00000230: 6796 82bd fe55 a6bd b562 32be 49ab 3e3e
00000240: 3664 673d a885 2a3e a999 843d fb27 423e
00000250: 662e 2c3e f653 48bd 978b 50be d5c5 05be
00000260: 6683 56be b4f3 fa3d 5ce6 1a3e f565 043e
00000270: 9121 61be 39db 013e 3888 613e c74c 533e
00000280: 7a61 17be aa96 543e 9eeb 8ebc 0e4b 3ebe
00000290: c5be 4a3e a00e 5dbe c455 cebd b657 9d3d
000002a0: c2d0 af3c 2a5e e1bd b32f b73d b266 133e
000002b0: 3c0f 48be 0198 01bc 1760 013e 942e 36be
000002c0: daac 4e3e 13b2 3ebd c9f9 c13d 319c e83c
000002d0: b823 e03d 2d83 023e 4619 09be 8680 d63d
000002e0: 6c27 57be d140 a63d 2451 4cbe d736 9ebd
000002f0: 3638 253d 1717 2ebe 7383 0d3e 9b88 1fbe
00000300: e339 1b3e 70b0 1b3e 2fca 263e 6d6e 09bd
00000310: 7e8c 5f3e d8d9 0cbd d8e0 74bc 7317 eabd
00000320: 1544 7d3d a98e 823d e7b6 9ebd 3179 ec3d
00000330: 357e 06ba 3c9e 143e b1b8 523e f9de eabd
00000340: e67f 993d 774e 9e3d 85d7 acbd 082c 44be
00000350: b13a 2ebd c4c3 613e 953b 433d 7daa 15be
00000360: 65e1 903d 40fb 053c 1d71 38bd cb7d 26be
00000370: 40bf 303e 5f93 3fbd 295a 89bd e6e0 b1bd
00000380: d6cf a0bd 2c93 373c 2f22 fdbc 33cd a33d
00000390: a3f8 e23d c61d 19be 5f52 1fbc f947 0e3e
000003a0: 1874 19be 7201 e83d 224b 473d a1c3 533d
000003b0: 1ca9 1e3e fa25 b1bb 0da7 2dbd 939d fe3c
000003c0: 34f2 293e bce0 09be eb52 9abc 6264 30bd
000003d0: 9e15 033e 5f95 2ebd 8325 b1bb 6eaf 56be
000003e0: f955 d63b 4735 433e f84a 5bbd d36e 3f3e
000003f0: d303 043e d748 11be e841 b0bd 3918 2abe
-0.06406725 0.2041797 -0.09756251 -0.061009936 0.23400246 0.14172356 -0.0844685 0.02808554
0.17676811 -0.19598535 -0.026937153 -0.17089896 0.20573834 -0.0974867 -0.15775412 -0.004077092
0.18319768 -0.11323012 0.040491953 -0.056265708 -0.13999726 0.1045625 -0.096677214 0.13215926
0.21143028 -0.0827148 -0.056696862 0.15759084 -0.11231926 0.22260967 0.12370177 0.15405837
0.050613973 0.114020176 -0.014449384 -0.08094171 0.09754794 0.066226 -0.02622536 -0.028719576
0.19291955 0.038474876 0.22393136 -0.15633738 -0.14715004 0.08066551 -0.116233505 -0.083769985
-0.16954283 0.083594345 0.20530799 -0.20453125 -0.18953204 -0.17834586 -0.0071981563 -0.07262435
-0.1951044 -0.09695004 -0.046937548 0.18986456 -0.04507016 -0.14309858 0.038725514 0.18974476
0.10356352 0.174476 0.21730255 0.066286646 0.0947243 0.23147096 0.13828334 0.05501494
2.7503481e-19 -1.1036804e-10 -2.0277309e-09 -3.9905666e-18 -1.104879e-06 5.1763765e-17 -3.9461472e-07 6.2072814e-10
-1.1380119e-16 3.9760903e-07 -4.652833e-07 -1.2236341e-05 -6.0640586e-09 2.0534453e-05 -9.667358e-06 1.275218e-06
-4.8679266e-07 1.4113796e-11 -0.059306685 0.1960491 0.16567855 -0.0075435415 -0.15284042 0.12478508
-0.017290156 0.064113475 -0.118157595 0.20572658 0.2307551 -0.042059213 0.035408862 -0.14933698
0.08676425 -0.040852755 0.19076402 0.018465716 0.12790674 -0.16913128 0.038602345 -0.050101377
0.077572435 -0.10683346 6.15623e-05 0.015161814 -0.12118029 -0.12692882 -0.0041327174 -0.10331458
0.10160161 0.13528161 6.145848e-05 -0.0014607055 0.0013159057 -0.10817248 -0.05407034 -0.06321615
-0.09561697 0.04079211 -0.08763953 -0.14517136 0.052269876 -0.03686959 0.10095289 -0.18425344
0.19308235 -0.15097515 0.06283262 -0.12686189 -0.06376343 -0.081218705 -0.17420466 0.18620028
0.056492053 0.16652548 0.06474621 0.18960564 0.16814575 -0.048908196 -0.2036575 -0.13063748
-0.20948562 0.12253514 0.15126938 0.12929519 -0.21985461 0.12681283 0.2202462 0.20634757
-0.14783278 0.20760599 -0.017446335 -0.18583319 0.19799335 -0.2158761 -0.10074952 0.07682745
0.021461848 -0.110042885 0.08944645 0.14394644 -0.19537061 -0.007909776 0.12634312 -0.17791206
0.20183125 -0.046556544 0.09471471 0.02839479 0.10944313 0.12745352 -0.13388547 0.10473733
-0.21011132 0.081178315 -0.19952828 -0.077253036 0.04033681 -0.17000996 0.13819675 -0.15579455
0.15158801 0.15204024 0.16288064 -0.033552576 0.21830937 -0.03438744 -0.014946185 -0.11430254
0.061832506 0.063748665 -0.077497296 0.11546553 -0.00051305006 0.14513487 0.20578267 -0.1146831
0.07495098 0.0772981 -0.084395446 -0.19157422 -0.04253644 0.22047335 0.047664244 -0.14615817
0.070742406 0.008177578 -0.04502975 -0.16258924 0.17260456 -0.046771403 -0.0670665 -0.08685474
-0.078521416 0.011204522 -0.03090009 0.07998123 0.1108258 -0.14952764 -0.009724229 0.13894643
-0.14985693 0.11328401 0.048655637 0.05170024 0.15494198 -0.0054061385 -0.04239564 0.031080997
0.165963 -0.13464636 -0.018838366 -0.043064483 0.12801215 -0.04262292 -0.005406083 -0.20965359
0.0065410105 0.19063292 -0.053538293 0.1869462 0.12892084 -0.14187942 -0.086063206 -0.16610803
