RTSNet/new_architecture/linear_Journal/linearCA/lr5e-5.pt (torch, 281107 bytes, 69 tensors)

weight_ih_l0 f4 [27, 15]
00000000: 2ce7 9e3e 87b8 f93d eb71 24be 2629 e4bd
00000010: f755 df3d ce11 6cbe e7a5 25be 6125 9b3d
00000020: a748 59bd b787 bebd d663 1b3e c0e0 d53d
00000030: 3eb9 aabe 818d 153e 572b 733e f15c 6e3d
00000040: c8b8 233e 96cd 2f3e fdce ff3d d449 63bd
00000050: ad08 363e 6c70 223e b053 8d3e ec35 963e
00000060: 2ab8 9d3e d58d 27be 02a0 9bbe 8fe6 95ba
00000070: 0c73 84be 7fd2 2fbe f14d 243c b319 7b3e
00000080: c54e 1bbe b5e9 88be bd79 96be 8528 0bbe
00000090: 9110 913e 2dd4 9dbe a3e2 e23d 832c 97be
000000a0: 78ad be3d ada3 8d3e a1bf 9c3b 8997 c4bd
000000b0: 78de b6bd 294f 4c3e 8603 2fbe 9ca5 3cbe
000000c0: 29a4 80bc 3f88 8fbe 407b 973e 1da2 72be
000000d0: 48ff 7bbe 2ea2 023e 8a5b a8be 44c4 d4bd
000000e0: 3c96 073d 7384 8b3e 63f4 30bd fc58 373e
000000f0: 23e2 05bc dea2 c9bd 228e 613e a957 823e
00000100: 0d93 93be 60ef 093d 5197 523e 7b82 453e
00000110: a870 aebd 9158 35bd 4e41 073d 93b7 dabd
00000120: ea13 863e 23f9 083d e5a8 92be fc7e 143e
00000130: fc9e 1f3e ff73 8c3d a956 2c3e 2867 353e
00000140: 14a2 2b3e 3b47 59be ddd0 373d 0858 213e
00000150: 18f6 edbd 287d 903d 40cf 743c 1148 8cbe
00000160: 8b7e e73c b166 27be 3eef adbc 65e8 5abe
00000170: aece d83b c702 603e de2f 1bbe 9604 11bd
00000180: e48a 14be b2bd f03d e938 81bd cbd8 4cbe
00000190: 77b2 12be 16d9 9fbc 13ee 5dbd 3e05 9bbe
000001a0: 73eb 45be 8d27 15be 0555 21be 231b eebd
000001b0: 6cc7 93be fb70 a53e 8a09 d63a 3a11 3a3e
000001c0: f70d 9c3e e1f4 d53d 78a2 9cbe ca84 453e
000001d0: a05c 85be f774 e93c 7425 f239 7541 a73e
000001e0: 3f92 8dbd ef0f 71be 6b5c 29be e143 8c3e
000001f0: f232 00be 5ad0 213e d3de 713e 8124 f83d
00000200: 507c 72be 4cb3 0d3c e3a6 f03d f76d c93d
00000210: ce40 3cbd c5dc ba3d 21ae 33be a8c8 15be
00000220: c2cd 833e 64ee 08bc 0e1a 86bd 8857 a03e
00000230: 768a 2c3e d295 ea3d 65ad eab9 71a8 1ebd
00000240: 36e0 0f3e 80ce 803d ab5c 913d 3968 973d
00000250: 49e1 363e bfca 1cbe 1a9d 133e e1e6 79bd
00000260: eb68 24bd e4eb 253e 62eb 973e 331f c83c
00000270: d0db 9fba 88aa 9c3e 1c47 ccbd e389 aabe
00000280: b2a6 8a3c 1e75 3bbe 3631 d23d f96d 5e3e
00000290: bedc 733e f09a f9bb fa6f c6bd dcb0 dfbd
000002a0: 4c1e d7bd a69f 9dbe 3784 70be 190a be3d
000002b0: a169 47bd cb60 42be f153 793e 1270 8e3e
000002c0: e58e 873e 4afd 1cbe bcdc 58be b41d b5bc
000002d0: fbc2 1ebd 5920 953e 82a4 a43e b7ec 10be
000002e0: 8d01 793e 7977 86bc b7a3 68bd 711a 9bbe
000002f0: f253 a63c 08d3 9cbe 2e11 a3bd e418 863d
00000300: 6bad 143e f1f1 313e d12a b73c 0f1e 093e
00000310: 9568 2c3d cd3b d2bd 210d fcbd 9029 94be
00000320: 2af9 d23b f6fb a73e 76ce 843e 3e8b 943d
00000330: 6427 02be 35e9 1d3e 816f a9be 06d8 88be
00000340: 2870 3c3e 78a4 87be 5ece 82be 8bde 623d
00000350: 351d 7dbe b589 173e 1ab8 84be 25ea adbd
00000360: e4b1 df3d 53ec 1f3e 6d74 44be 1db9 81be
00000370: ceea 87be 2d6d a63d 9425 9bbe 51b5 913e
00000380: 61e8 f2bd 872f 9c3e ca30 47be 97c8 843d
00000390: d89f f0bc 468e 4ebe 060a 603e 2bbb f4bd
000003a0: 5376 1abe d359 7bbd 8a65 40be 5b37 d63d
000003b0: 687e 75bd c222 363c c96a d5bb ce05 3d3e
000003c0: e6fc 98bd 414b 81be 201c 263e 3c05 953c
000003d0: 1e1e 933e 5ac9 a5bd 0adf 25be 4634 923e
000003e0: 8464 a5bd 0840 f8bd 5e3e 313e cee5 1b3d
000003f0: f30e 863e 3d1c 873d e87d 543d d6b5 7ebe
0.31035745 0.12193399 -0.16059081 -0.11140661 0.10905068 -0.23053667 -0.16176568 0.07575489
-0.053047802 -0.09303229 0.15174803 0.10443258 -0.33344454 0.1460476 0.23747002 0.058194105
0.15988457 0.17168269 0.12490652 -0.05549033 0.17776747 0.15863198 0.2760291 0.29338014
0.3080457 -0.16362698 -0.30395514 -0.001143651 -0.25869024 -0.17170142 0.010028348 0.24521522
-0.15166767 -0.26740804 -0.29389754 -0.13589676 0.28332952 -0.3082594 0.11078384 -0.29526147
0.0931043 0.27663937 0.004783586 -0.095992155 -0.08929151 0.19952072 -0.17091188 -0.1842255
-0.015703278 -0.28033635 0.2958622 -0.23694654 -0.24609101 0.12757179 -0.3288234 -0.10388997
0.03310226 0.27249488 -0.043201815 0.17905039 -0.008171591 -0.098455176 0.22026876 0.25457504
-0.28823128 0.03367555 0.20565535 0.19288056 -0.08517581 -0.044273917 0.033021264 -0.10679545
0.26187068 0.03344072 -0.2864448 0.14501566 0.15587991 0.06858062 0.16829933 0.17715132
0.16761047 -0.21218579 0.044876922 0.15756238 -0.11619204 0.07055122 0.01494199 -0.27398732
0.028258583 -0.16347767 -0.021232244 -0.21377714 0.006616435 0.2187606 -0.15154979 -0.035404764
-0.14506108 0.117549315 -0.06309683 -0.20004575 -0.14325891 -0.019512694 -0.054182123 -0.30277437
-0.19328098 -0.14565869 -0.15755089 -0.1162627 -0.28863084 0.3231276 0.0016329747 0.18170634
0.30479404 0.104470976 -0.30592704 0.19288936 -0.2604723 0.028498156 0.00046185742 0.32667127
-0.0691266 -0.23541234 -0.16539161 0.27395537 -0.12519434 0.15802136 0.23620157 0.121163376
-0.23680234 0.008648705 0.11750581 0.09835427 -0.04596024 0.0912414 -0.17546894 -0.14627326
0.25742918 -0.008357618 -0.06547938 0.3131678 0.16849694 0.11454357 -0.00044761147 -0.038734857
0.14050373 0.06289387 0.07097753 0.07392926 0.17859377 -0.15311716 0.14415398 -0.0610112
-0.04013912 0.16203266 0.2967177 0.02442894 -0.0012196247 0.30598855 -0.099745005 -0.33308324
0.01692519 -0.18306395 0.102632925 0.21721639 0.23814675 -0.007617347 -0.096893266 -0.10922405
-0.105038255 -0.30785865 -0.23487936 0.0927927 -0.04868472 -0.18982236 0.24348427 0.27819878
0.26476207 -0.15330997 -0.21177953 -0.02210889 -0.038760167 0.29126242 0.3215676 -0.141528
0.24316998 -0.01641439 -0.056796756 -0.3029361 0.0203037 -0.30629754 -0.07962261 0.06547716
0.14519279 0.1737745 0.022359284 0.13390373 0.042091925 -0.10265312 -0.12307192 -0.2893796
0.006438394 0.32809418 0.25938767 0.07253121 -0.12710339 0.15420993 -0.33092883 -0.26727313
0.18402159 -0.26492667 -0.2554807 0.055388015 -0.24718173 0.14798625 -0.25921708 -0.08491925
0.10922602 0.15617494 -0.19185038 -0.25336543 -0.2654633 0.081262924 -0.30302107 0.28458646
-0.11860729 0.3050501 -0.19452205 0.06483572 -0.029373094 -0.2017146 0.21878824 -0.11949762
-0.150842 -0.06136496 -0.18788734 0.10459777 -0.059935004 0.011116685 -0.006512974 0.18459246
-0.074701115 -0.25252727 0.16221666 0.018190973 0.28733915 -0.080950454 -0.16198364 0.28555506
-0.080758125 -0.12121588 0.17308947 0.038060956 0.2618328 0.06597183 0.051877886 -0.24874052

weight_hh_l0 f4 [27, 9]
00000000: 9d7f 8d3e 866a 4cbe 408a 193e dd5f 553e
00000010: 0cce 2dbe e4e8 0abe fc32 08be 310f 3cba
00000020: 6ce4 963e 1863 0b3e d07d 21be 3c71 8f3c
00000030: dc0d d8bd 76b2 713d 08b6 acbd fc3b 9c3d
00000040: 5921 1d3e 52ff 19be 634b 01be bef3 933e
00000050: 5135 95be a15a 8dbe 47eb a6be 8e3e 64be
00000060: 445f fabd 431c 693e e10c 74be 2788 473e
00000070: a3f2 d5bc 288f 9cbe 2d2e 7ebd 1d10 8d3e
00000080: 3ee6 87be 25ec 09bd 59ad bf3b 21a1 7b3e
00000090: 8df5 513e 4887 313e 8fc3 283d 733d 85bc
000000a0: 5bfc 9dbe 5dac ee3d 6624 293e 3ef1 913d
000000b0: 53b2 5cbd b145 42be 2ea7 0bbe 2ce3 61be
000000c0: 2461 173c 0d95 ca3d c596 dbbd 9b73 3f3e
000000d0: 5657 a93e 5ee8 023e c865 b1bd 6c92 7fbe
000000e0: 731a 2cbe 6821 923e 83fa debd 4601 22be
000000f0: f92f 7a3e 0af2 fcbc c958 ca3d b10f 5abe
00000100: 7f26 f53d a63c 9bbd 3529 3fbe 5c4a 053e
00000110: 9ac2 f5bc f874 20be ffdf f73d 17c3 98bd
00000120: 4990 a3be a422 5dbe 1095 3a3e 990c 5d3e
00000130: 8a6d 733e 1fc9 383e 1463 d13c 954f 0a3e
00000140: 2a95 a13e f363 223e bc48 683d 8ce3 873e
00000150: d184 37be 0dfb 87bd 1859 b13d 894f a2be
00000160: 60f1 153e 3e6a 173d a223 09be 17b0 7bbe
00000170: b540 593d b65e dcbc 6eca 39be e9eb a43d
00000180: 77e4 8c3e 354e 08be 4e16 903e dbc3 6abe
00000190: 2c80 61be 3a8f 8dbd 119d 2dbc c04e 943e
000001a0: 19b4 9f3e 5f1b c83c 3fa3 373e 1085 13bc
000001b0: 5f2b 683e 537b 783e 1950 f7bd bb26 a6be
000001c0: 96b8 8e3e caac abbd d2e0 9dbe 055f a5bc
000001d0: e7ba a3be a127 01be 3b1f 9abd 3000 733e
000001e0: 44bc 55be 2aaf a9be 3da8 8bbe 9ecf a8bd
000001f0: 764a 34be 867d a83e 0e61 6e3d 8278 12be
00000200: 3b78 4b3e d1fb a73d 10c1 80be 054d fc38
00000210: 8050 423e c59f 283c 5023 f03b c332 9c3e
00000220: cda1 023e dfb3 11be fa8e 433e ac03 a93e
00000230: afa1 323d cbd2 3ebb 4986 223e 26e4 a63e
00000240: 84a2 83be da96 183d a73f 87be 5287 653e
00000250: f776 343e 87ab 053e 0bd5 703d ab8e e2bb
00000260: 1a30 64bd f359 e03c b5f9 06be 92d8 063e
00000270: c718 73bd b925 e5bd c851 033c bfba 93be
00000280: e097 a33e e8ea e2bc a56f aabd cc0f 50be
00000290: 564c 2cbe f904 843e 3a8a 80be 6039 23be
000002a0: e9bf 4a3e 03a5 683e 756e 90be 2976 5bbe
000002b0: 3091 ad3d 07d7 fbbb 520c 9c3e 3c8f d8bd
000002c0: 6f31 ed3d 882d 8dbd e647 e03d 09a8 4dbe
000002d0: 1f0c c8bd fac1 28be 23cb 963d 5032 8a3d
000002e0: a613 19be a5d2 ba3d 30a4 9c3e 6fc1 a8be
000002f0: c682 35be 6b3f 343c 5b8c 60be 45d0 363d
00000300: aebb b93c 8d2f 173c 4e3d 98be 80fd 573e
00000310: ba48 61be 4a03 a3be aad8 083e b4a1 80bd
00000320: f917 8e3e 16a3 5b3d 2b84 a8bd 5f4a f4bd
00000330: b028 8fbe d84e 9bbe 5f3a 77be 9a1f 50be
00000340: 1cb9 083e f0b2 5b3e b4e9 7cbe ceed 7abd
00000350: 3021 913e a410 c8bd 0ea5 8b3e 1ee9 62bd
00000360: 5abb a93e 0f94 35bd 6659 7ebe 9039 a6bc
00000370: 8042 a63e 6c63 e2bd ba42 0d3e 6a88 583d
00000380: 810f 8e3e e68b 8abe b9ca c83c 65e6 273e
00000390: 3893 25bc 8fa6 0ebe 3c58 2a3e 1715 963e
000003a0: d643 983d 58ba 7e3e 019d 8ebe f94c eebd
000003b0: 06fc 14be 3384 d53d 50bc 07be 5d9e d83c
000003c0: 7045 883c 7228 a23b 1d13 d23c
0.27636424 -0.1996251 0.14994144 0.2083735 -0.16973132 -0.13565403 -0.13300699 -0.00071738946
0.29471147 0.1361202 -0.1577065 0.017510049 -0.105495185 0.059008084 -0.08433157 0.076286286
0.15344752 -0.15038803 -0.12626414 0.28896898 -0.2914224 -0.27608207 -0.32601377 -0.22289488
-0.12225202 0.22764687 -0.23833038 0.19485532 -0.026116675 -0.3057797 -0.062055755 0.27551356
-0.26542848 -0.03367247 0.005849522 0.24573185 0.20503826 0.17336762 0.041202124 -0.016264653
-0.30856594 0.116539694 0.16517791 0.071260914 -0.053881 -0.18971898 -0.13637993 -0.22059315
0.009239469 0.098917104 -0.107221164 0.18696444 0.33074445 0.12783954 -0.08661991 -0.249582
-0.16806965 0.28541112 -0.10887625 -0.15820798 0.24432363 -0.030877132 0.09880216 -0.21295048
0.11970233 -0.07579927 -0.18668063 0.13016647 -0.03000002 -0.1566962 0.12103271 -0.074590854
-0.31946018 -0.21595246 0.18220925 0.21586837 0.23772255 0.18045472 0.02555994 0.1350692
0.31559116 0.1585844 0.05670999 0.26540792 -0.17921759 -0.06639681 0.086595714 -0.31701306
0.14642859 0.036966555 -0.13392499 -0.24578892 0.053040225 -0.02690063 -0.18143627 0.08052809
0.27518055 -0.13311084 0.28142017 -0.22926275 -0.2202155 -0.06912084 -0.01059653 0.2896633
0.3119209 0.024427114 0.17933367 -0.009003893 0.22672795 0.24265794 -0.12075824 -0.32451424
0.27875203 -0.08382566 -0.30835587 -0.02018691 -0.31978533 -0.12612773 -0.07525488 0.2373054
-0.20872599 -0.33141452 -0.27276793 -0.08242725 -0.1760653 0.32908267 0.058198027 -0.14303783
0.19870083 0.08202327 -0.25147295 0.000120306424 0.18976021 0.010291998 0.0073284283 0.30507478
0.12757035 -0.14228772 0.1909751 0.33010614 0.043611225 -0.0029117342 0.15871538 0.32595938
-0.25709927 0.03725324 -0.2641575 0.22414902 0.17623506 0.13053714 0.058796924 -0.00691398
-0.055709936 0.027386641 -0.13181193 0.13168553 -0.0593498 -0.11188836 0.008015104 -0.28853413
0.3195181 -0.027699903 -0.08322076 -0.20318526 -0.16825995 0.25785044 -0.25105458 -0.15939856
0.1979977 0.22719197 -0.28209272 -0.21431793 0.08474958 -0.0076855454 0.3047815 -0.10574195
0.11581694 -0.0689345 0.109512135 -0.20083632 -0.09767937 -0.16480246 0.07362964 0.067478776
-0.14948902 0.091222085 0.30594015 -0.32960078 -0.17725667 0.011001448 -0.21928541 0.044632215
0.0226725 0.009227646 -0.29734272 0.21092796 -0.22000399 -0.31838447 0.13363901 -0.062808424
0.27752665 0.053622328 -0.08228334 -0.11928248 -0.2796073 -0.3033359 -0.2414336 -0.20324555
0.13351864 0.21454978 -0.24698526 -0.061261944 0.28345633 -0.09768799 0.27274364 -0.0553981
0.3315075 -0.044330653 -0.2483879 -0.02029112 0.3247261 -0.110541195 0.13794985 0.05286447
0.27746204 -0.2705986 0.024510728 0.16396482 -0.0101059005 -0.13930725 0.16635221 0.29312965
0.07434814 0.24875772 -0.2785416 -0.11635775 -0.14549264 0.104256056 -0.1325543 0.026442701
0.016634673 0.004948669 0.02564388

bias_ih_l0 f4 [27]
00000000: 78a2 f0bc 5308 99be 98e1 8b3e 3216 6cbe
00000010: 52a9 15be ca3f 053d bf1b 713d 3fce 70be
00000020: 6cc1 08be 3398 4b3d c8a8 e8bd 0e57 cdbd
00000030: 5608 1cbe bb73 adbd a099 65be 801f 92be
00000040: 8690 9fbe ed61 8c3d 61ca e7bd 8703 403e
00000050: 041e 483e d959 86be f018 a5be aaf4 1abd
00000060: 1bb2 7bbd e1aa 663e e5da 4abe
-0.029374346 -0.29889163 0.27320552 -0.23055342 -0.14615372 0.032531537 0.05886435 -0.23516177
-0.13355035 0.049705695 -0.113603175 -0.1002637 -0.15237555 -0.084693395 -0.22421885 -0.28539658
-0.3116495 0.06854615 -0.113178976 0.18751346 0.195427 -0.26240423 -0.32245588 -0.037830986
-0.06144915 0.22526123 -0.19810064

bias_hh_l0 f4 [27]
00000000: 2ee6 943d f809 9e3e 59ae 14be cbe4 46be
00000010: c5d7 463e 613d 3c3e 6cbe 5ebe 0cbc 503e
00000020: 5127 163e f89d 83be 4bc0 35be 7fe9 f73d
00000030: f30d 96be 84d3 923e 721c 343e 682c 95be
00000040: 24b0 4dbe b006 853d e78f 9bbd 3e05 5a3e
00000050: ebc3 d9bd dd77 28be 21b0 b23d ade7 463e
00000060: 8b19 16be fc9d 58be 7947 873e
0.07270466 0.3086698 -0.14519633 -0.19423215 0.19418247 0.18382789 -0.21752328 0.20384234
0.14663436 -0.25706458 -0.17749135 0.12105083 -0.29307517 0.28677 0.17588976 -0.29135442
-0.20086724 0.06495416 -0.075958066 0.21291062 -0.106330715 -0.16451974 0.08725 0.19424315
-0.14658181 -0.21154016 0.26421717

weight_ih_l0 f4 [27, 24]
00000000: e9f5 4ebe 4fd2 0dbe 3641 d03d f1de 5c3e
00000010: dd0f 2abe dd91 b8bd 77b2 f0bd b494 8a3e
00000020: f29f a13e 25e0 4a3e af3b 9b3e 4686 f8bd
00000030: e94e 6abc 219d ba3c 44d1 9f3d 945f fbbc
00000040: f182 0cbe b1ca 23be da74 283e e54b 2e3e
00000050: b43a 873e c5a6 e53d 45b0 93be 97a0 2bbe
00000060: 3855 a3be 8af1 e63d 40ce 2a3d 235d 99be
00000070: c2f7 583e 0472 05be d36d fe3d 8b40 84be
00000080: 847e 333e 861e 7ebd 377f 8d3e e5c1 963e
00000090: 4095 e13d b0e4 a8be a4c3 ecbd 1178 a23e
000000a0: 9fed 173d 67eb 8b3e 4b1c 24be 25a4 013e
000000b0: 25cf 6abd f704 1c3d 96b6 a6be d2c0 893d
000000c0: f5cb 71be 1736 033c 7772 afbd f62b 34be
000000d0: 87fd b53c 2a01 2b3e 20cf 0cbe 39c0 023e
000000e0: 2054 25be 4f51 cd3d 272d 2ebe 4132 863d
000000f0: 3e2e 3dbe d5d7 b9bd 5c0e 85be 50fa 32bc
00000100: b0e1 70be 85ee 0cbe 04ea debd 481e 123d
00000110: af03 2cbe 9eec a2bb 653d bb3d f965 58bd
00000120: 484d 48bd afcb 963e 546b 9cbe b60f 003c
00000130: ad22 a5be 1934 853e 7552 033d f5f2 8abd
00000140: bbc0 eb3d 98e6 48bd dc78 75be 1a7a 24be
00000150: fc81 5abe c712 263e f977 3c3e 61fe c83d
00000160: f7ad 1c3e 859d 7abd 5630 173b 7bb1 903e
00000170: ed26 a3be ec23 223d 96de e4bc d11f f43d
00000180: be1c 98bd 6d73 733d 5901 853d 9d30 673e
00000190: 3462 cb3d 03ef ed3c e013 9cbe 1e41 6cbe
000001a0: 489e 433e 1c53 9bbe 519c 4b3d cb55 81be
000001b0: baab bfbc 0dbf 35bd 9c17 023e 8e10 813d
000001c0: 503f c1bd 9c4c 7b3e 5fe9 9fbe 53fa 8ebe
000001d0: 5ae4 613d 54b4 983e e531 343e f483 9c3d
000001e0: fe5e 05be 1ada 1c3e f0fb c6bd 4a9a 0a3e
000001f0: 9803 873e 6f6b 8abe 6e1b 893e 80dc 59bd
00000200: fe50 3dbe 93f7 45be dbbf ac39 aaaf 853e
00000210: da61 053d 07ae 273d 6ecb 26be d51b 73be
00000220: fc8c 39be 22a1 8e3e 389d 63be b7c5 e5bd
00000230: b373 4e3e 2401 493e 9e23 183e e566 21be
00000240: a87d 5e3e f363 18be ad03 38bb c60d 513e
00000250: a791 b93c 3478 c7bc d753 aabd d87d 263d
00000260: e9c1 323e 8e94 143e 1670 82be 094d 24bd
00000270: dccc 423e 5683 a5be d6ee ee3d 8bad 3bbe
00000280: a255 44be caae 8a3e 2494 49be 0368 dc3d
00000290: 97f3 a73d 6ff8 3b3e 748e 853e 58ef fcbd
000002a0: 8a34 663e 0daf ed3d 9bb0 d63d dd79 72bd
000002b0: e7fc 91bd 5da3 393d f62f 133d 3c55 503d
000002c0: 1246 293e 83cc ef3d ff99 8abe be26 533e
000002d0: aa5b 133c 4a71 8cbe e138 42be eaab 9c3e
000002e0: 0111 5abe 924c 3bbd e0e4 50be 2f41 9cbe
000002f0: bbf7 7fbd f007 483e d2fe 823e d197 9bbe
00000300: 60bf 51be f93d a63e 79e8 79be ee61 993e
00000310: 3636 ef3d aef6 f93d 3796 a6bd 8f14 17be
00000320: e38e 95be d01a 98be a06e 04bd 3ba3 e0bb
00000330: db7c 943d f133 363e b91b 3bbe 4f25 623e
00000340: 0f75 93be eeb1 99be fac9 603e 3cbe 423d
00000350: 5ed9 de3c 0a97 9e3e 5c48 ce3d 9716 dbbd
00000360: a64c a53e 1cb8 4a3e 882f 883e 35bd 703e
00000370: 34b6 943b c678 ffbc 4956 d4bd 690e 8fbe
00000380: 485a 893d 6744 8e3e 7940 ffbd 8047 ae3d
00000390: 9ee6 e13d 2642 88bd 57b3 9bbc e049 45bd
000003a0: acba 3dbe 7406 8c3e a055 a63e c03d 7bbe
000003b0: c290 a4bd 079c 7bbc 1e7c 83be 207b e53d
000003c0: df7c 923e 41c8 383e 2454 80be 0f34 a2be
000003d0: a489 0e3e 4d46 9b3d 806a 08be 435e 403e
000003e0: 65d0 d53d 811f 003c 7364 6ebe 0b35 f8bd
000003f0: dead 7e3e d704 423e e384 9abe 9d48 1bbe
-0.20210995 -0.13849758 0.10168688 0.2156942 -0.16607614 -0.09012196 -0.117527895 0.27066576
0.3156734 0.19812067 0.30318972 -0.121349856 -0.01430104 0.022780003 0.07803586 -0.030685224
-0.13721825 -0.1599529 0.16450825 0.17021139 0.26411974 0.112134494 -0.2884542 -0.16760479
-0.31900954 0.11276539 0.0417006 -0.2995387 0.21188262 -0.13031775 0.12423291 -0.25830492
0.1752873 -0.06204083 0.2763612 0.29444805 0.11014795 -0.32986975 -0.11560753 0.31732228
0.037091848 0.27328035 -0.16026418 0.12660272 -0.057326455 0.038090672 -0.32561177 0.06726231
-0.2361296 0.0080085015 -0.08566754 -0.17594895 0.022215618 0.16699663 -0.13750887 0.1276864
-0.16145372 0.10025274 -0.17009412 0.06552554 -0.18474671 -0.0907437 -0.25987518 -0.010923937
-0.23523593 -0.13762863 -0.10884479 0.03567341 -0.1679828 -0.0049720546 0.091425695 -0.052831624
-0.048901826 0.29452273 -0.30550635 0.007816246 -0.32253018 0.2601631 0.03206106 -0.067846216
0.1151137 -0.049048036 -0.23971885 -0.16062203 -0.21338648 0.162181 0.18405141 0.09814144
0.15300737 -0.06118538 0.0023069582 0.28260407 -0.31865636 0.03958504 -0.027938168 0.11920131
-0.07427357 0.05943625 0.06494398 0.22577138 0.0993084 0.029044634 -0.30483913 -0.23071715
0.19103348 -0.30336845 0.04970962 -0.25260767 -0.023397315 -0.044371653 0.12704319 0.06301986
-0.09435904 0.24540943 -0.31232736 -0.27925357 0.055149414 0.2982508 0.17597158 0.076423556
-0.13024518 0.15317574 -0.09716022 0.13535419 0.2636993 -0.2703509 0.2677874 -0.0531888
-0.18487927 -0.19332723 0.0003294934 0.26110584 0.03256402 0.04093745 -0.1628854 -0.23741086
-0.18120188 0.2785731 -0.22227943 -0.11219352 0.20161323 0.19629341 0.14857337 -0.15761907
0.21727622 -0.14881878 -0.0028078363 0.2041541 0.02265246 -0.02434931 -0.083167724 0.040647358
0.17456783 0.14509794 -0.2547614 -0.04011253 0.1902346 -0.32326764 0.11666648 -0.1832792
-0.19173291 0.27086478 -0.19685417 0.10762026 0.08200758 0.18356489 0.26085246 -0.12350339
0.2248098 0.11605654 0.104829036 -0.05919825 -0.071283154 0.04532181 0.03593441 0.050862536
0.16530636 0.117089294 -0.27070615 0.20620248 0.008994022 -0.27430183 -0.1896701 0.3059991
-0.21295549 -0.04572732 -0.20399809 -0.3051848 -0.062492114 0.19534278 0.25585037 -0.30389264
-0.2048316 0.32469156 -0.24405088 0.29957527 0.11680262 0.122052535 -0.0813412 -0.14753936
-0.29210576 -0.29707956 -0.032332063 -0.006855396 0.07250377 0.17793252 -0.18272294 0.22084545
-0.28800246 -0.30018562 0.21952048 0.047544703 0.027203258 0.3097461 0.10072395 -0.10697668
0.3228504 0.19796795 0.26598763 0.23509677 0.004538322 -0.031185519 -0.1036802 -0.27940682
0.06706673 0.27786562 -0.12463469 0.08509731 0.11030315 -0.06653242 -0.019006414 -0.048166156
-0.18528241 0.27348673 0.32487202 -0.24535275 -0.08035423 -0.015357024 -0.2568063 0.11205125
0.28610894 0.18045141 -0.25064194 -0.31680343 0.13919693 0.07581768 -0.13321877 0.18785958
0.10440139 0.007820011 -0.23280506 -0.12119492 0.24871013 0.18947159 -0.3017951 -0.15164419

weight_hh_l0 f4 [27, 9]
00000000: f92f 94be acb5 1abe e177 433e 22ea 89bd
00000010: 3925 fbbd 3522 933e 56fc 1f3e 66c0 50be
00000020: 06d2 09be df08 363e 08bd 2cbd d01c bfbd
00000030: c851 633e e374 7f3e 59e1 a6bd cb29 4d3e
00000040: ada3 533e accc c93d 21db 7fbe 8d32 eebd
00000050: 5a0c 8c3d 1013 253e 726b 82be 3f52 5e3e
00000060: 0b96 85be 8215 f1bd 6df5 0f3e 3ade 84be
00000070: 6fc4 5bbe 4b6b 683d 9f92 9e3e 6f86 9a3e
00000080: ead5 67be 05d7 65be d8e5 b8bd 1a6b c0bd
00000090: f26f e9bd f2c7 6f3e 9b27 0fbd 53d2 893e
000000a0: 5d62 94be a55e 0abe e898 4dbd 1db2 023e
000000b0: c015 2b3e 0434 353e c86f 0dbd 875b 823c
000000c0: 8b89 8bbe 1ece 7a3e 212f 79be 9ddd 40bc
000000d0: f062 f5bd 8dd7 fa3c 8bf9 63be 88b8 363e
000000e0: acae 213d 3e32 83be 6b26 5e3e 3701 18be
000000f0: 1f58 7539 a459 c7bd 32c1 44be a5b8 94bc
00000100: 840a 04be 7c50 39bd 5263 5b3e 3a12 92bd
00000110: 8b00 893e a173 21be f6f9 933e ad3f 173e
00000120: 0fc3 033e fc8b 0abe 07aa 823e ff33 6dbd
00000130: 5df5 683e cd70 bcbd d560 d53d c2e9 673d
00000140: 1325 65be 5858 4abe f5e0 65bd 9d54 c03d
00000150: eba2 a23e 0fbb 813e 0a03 1c3e 6fae 993e
00000160: 692c 823b 7b88 f93b 12c4 f0bd 379b 043e
00000170: a07c 00be 6431 2dbe cc31 203c 235f 5c3e
00000180: 8dce fbbc 8787 14be 8d5c bbbd b1df 5d3e
00000190: 5be2 a5be fa7c f43a 2098 3abe 386b 30be
000001a0: 4df3 d5bd ff24 ee3d c9ff 243e 7c6f 883e
000001b0: 1588 873e b311 80be 64fc 633e a517 e7bd
000001c0: 1bf9 7c3e 4462 933e c93c 303d 7c1a 9abe
000001d0: db74 683e c9b0 8dbe b386 a4be cb23 24be
000001e0: 0bdc 56bd 17db 523e 21ba 29be bad6 9dbe
000001f0: 9d61 46be f5fa eebd 7e52 12bd 7883 673b
00000200: 0979 fb3d bddf 4abe 23d3 8c3c fd00 693e
00000210: d382 11be 0b3b 8cbe 5ee4 72be acf1 68bd
00000220: c02d 88be 66b0 64be 3877 d33d a967 983d
00000230: 0412 323e 9249 9d3d 251e a3bd cbdc 88be
00000240: e207 683e 8a0f e73d 7ecb 483e 2dcb 153d
00000250: 5f59 6e3e 27ef 84be 9b59 6ebe 2091 353d
00000260: da5f 8fbe caed a5be c613 7bbe 98e8 84bd
00000270: d4d8 153d 7e2d 4cbe 5dd3 753e 2c49 76be
00000280: 95af 463e 0f7d 6cbe e978 ea3d 6693 b23d
00000290: cd67 9abe 2da1 543d 1538 e5bd 546a 2c3e
000002a0: 063f 183e 17ad 96be d370 3b3e 28ed 75be
000002b0: 5998 8cbd 91b4 6abe 89c2 89be e95f 5f3d
000002c0: 4615 e3bd 42b9 a4bd ae71 393e 7563 55be
000002d0: 10bf 063e a8f4 c1bd d793 59bc 4643 073e
000002e0: 0895 a1be 2116 89be 2150 453e 3df5 2cbe
000002f0: 9cc9 25be ce27 bcbd b699 c83d 4cbc 93be
00000300: 338a 823d 29d4 863e f456 88bd dc06 2abe
00000310: e310 8abe b5c0 ce3c e90d 74bd 9144 bfbd
00000320: 3f61 a03e 3519 95be 78c8 fd3d 60b4 563e
00000330: 5a97 15be a9f8 613e c331 c8bd f1cd be3d
00000340: 6da0 a3be a2e1 973e 6f7f 853e 6961 54bb
00000350: 3938 863e 89b9 64bd 40f8 593d bcbb 7b3e
00000360: 437f 733e 58af 19be 35ed 793e eb7a a0be
00000370: 987a 8d3e 8856 7a3e 2094 62be 35fe 6fbd
00000380: d36b 973d 4f5c 413c 5014 933e 68c3 843d
00000390: d735 79be 46af 83be fcaf 423e aa59 68be
000003a0: 43ff edbd 1ca0 9b3e b08d 92bd 4928 b2bd
000003b0: 417e 843e 73c2 9abd 571e a8be 742d e5bd
000003c0: eba0 923d 24f5 90be 9891 313d
-0.2894285 -0.15108365 0.19088699 -0.067341104 -0.12262959 0.28737035 0.15623602 -0.20385894
-0.13459024 0.17776822 -0.04217246 -0.093316674 0.22199166 0.24946932 -0.081484504 0.20035474
0.20667906 0.09853491 -0.24985935 -0.116307355 0.068382934 0.16120553 -0.254726 0.21711062
-0.26091036 -0.117716804 0.14058466 -0.25950795 -0.21461652 0.056742948 0.30971238 0.3018069
-0.22640195 -0.22445305 -0.09028214 -0.09395428 -0.11398305 0.23416117 -0.03494988 0.26918277
-0.28981295 -0.13512667 -0.05019465 0.12763257 0.16707516 0.17695624 -0.03453043 0.015912784
-0.27253374 0.2449269 -0.24334385 -0.011771587 -0.119817615 0.03062036 -0.22263162 0.1784383
0.03947322 -0.2562427 0.21694343 -0.14844213 0.00023397848 -0.097338945 -0.19214323 -0.018154452
-0.12894636 -0.04524277 0.21424606 -0.07132383 0.26758227 -0.15766765 0.28901643 0.14770384
0.12867378 -0.13529962 0.25520346 -0.057910915 0.22749849 -0.092012025 0.1041886 0.056619413
-0.22377424 -0.19760263 -0.05612274 0.09391139 0.31764922 0.25338027 0.15235534 0.30015895
0.0039725793 0.0076151467 -0.117561474 0.12949835 -0.1254754 -0.16913372 0.0097774975 0.21520667
-0.03073814 -0.14504825 -0.09148512 0.21667363 -0.32399258 0.0018652969 -0.18222094 -0.172284
-0.104467966 0.1162815 0.161132 0.26647556 0.2647101 -0.25013503 0.22264248 -0.11283807
0.24704401 0.28785908 0.04302672 -0.3009833 0.22700827 -0.2767394 -0.32134017 -0.16029279
-0.052455943 0.20591389 -0.16574909 -0.30827886 -0.19373174 -0.1166896 -0.035723202 0.0035326164
0.12278945 -0.19811912 0.017190522 0.22754283 -0.14210062 -0.27388796 -0.23719928 -0.0568711
-0.26597404 -0.22332916 0.103254735 0.074416466 0.17389685 0.07680048 -0.07964734 -0.26730952
0.22659257 0.11282261 0.19608876 0.036570717 0.2327628 -0.2596371 -0.2327637 0.044327855
-0.28002816 -0.3240798 -0.24519262 -0.06489676 0.036583737 -0.19939229 0.2400641 -0.2405135
0.19402917 -0.23094581 0.11448843 0.0871952 -0.3015732 0.05191152 -0.111923374 0.16837436
0.14867792 -0.29428932 0.18304758 -0.24016249 -0.068649955 -0.22920443 -0.2690623 0.054534826
-0.11088042 -0.080431476 0.18109772 -0.20838721 0.13158822 -0.094704926 -0.013279877 0.13209257
-0.31559014 -0.26774696 0.19268848 -0.16890426 -0.16190189 -0.0918728 0.09794943 -0.28854597
0.06374016 0.2633374 -0.0665721 -0.16604179 -0.2696601 0.025238374 -0.05958358 -0.0933925
0.31324193 -0.29120794 0.12391752 0.20967245 -0.14608517 0.22067513 -0.09775116 0.09316624
-0.31958333 0.29664332 0.26073787 -0.0032406694 0.2621477 -0.055841003 0.053215265 0.24583334
0.23779015 -0.15008295 0.24406894 -0.3134378 0.27632594 0.24447072 -0.22126818 -0.05859204
0.07393613 0.011801793 0.28726435 0.06482583 -0.24336945 -0.2571966 0.19012445 -0.22690454
-0.11620953 0.3039559 -0.07155931 -0.0869909 0.25877574 -0.075566195 -0.32835647 -0.1119031
0.07159599 -0.28312027 0.04335174

bias_ih_l0 f4 [27]
00000000: 95af 68be 9e5e 2f3a 44ff 75be 65f4 4bbe
00000010: 241d 5bbe 1e7b 643e 2701 473e 993b 683e
00000020: b03c a1bd 0a09 523d 22c9 6a3d 0a83 9e3e
00000030: 46e1 85be 7cbe 89be e347 44be c6a5 14be
00000040: c516 613d 689d 3fbd 3030 f0bd 0e72 02be
00000050: 4aa0 5f3e e4a3 21be 649c 85be f52c 6b3d
00000060: d93e 9f3d 470d 7abe ef94 22bd
-0.22723229 0.0006689819 -0.24023157 -0.19917448 -0.21397835 0.2231259 0.19434033 0.22678985
-0.07872903 0.05127815 0.05732072 0.3095935 -0.26148432 -0.2690314 -0.19168048 -0.14516363
0.054953355 -0.046780974 -0.11727941 -0.12738821 0.21838489 -0.15785176 -0.2609588 0.05741592
0.07775659 -0.24419127 -0.039692815

bias_hh_l0 f4 [27]
00000000: d90a 80be 1e31 94be 49f6 e33d 0107 82be
00000010: befe 1bbe b443 34bd 67f8 a0be f6ca 3f3e
00000020: fec9 9fbe 4207 9ebe 1e7e 83be 2e92 3b3e
00000030: bfc5 d03c 0964 0cbd 3f81 febc c2bb e2bd
00000040: 00bf 893e 6996 9d3d b617 74bd ed79 83be
00000050: 2f45 76be b22e 61be 7416 64be 8b7f 91be
00000060: 5604 bdbc 31f9 4bbe c957 c6bd
-0.25008276 -0.28943723 0.111309595 -0.2539597 -0.15233895 -0.04400988 -0.31439516 0.18729767
-0.31208795 -0.30864912 -0.25682157 0.18317482 0.025484918 -0.03427509 -0.031067489 -0.11070968
0.26903534 0.07694704 -0.059592925 -0.2567896 -0.24049829 -0.21990469 -0.2227419 -0.2841762
-0.023073357 -0.19919278 -0.096847124

weight_ih_l0 f4 [27, 39]
00000000: 29ac 0d3e 5f84 2cbe 9cc9 923e 703a 5f3e
00000010: 83aa a3be 650d 98be 3c42 873e a950 7ebc
00000020: efe9 1fbe 21a8 91be 39bd a4be 53fb 94be
00000030: 65bd 47be 77c4 103e 9809 d83d dea6 d63d
00000040: d803 25be a709 67be 6f85 17bd a483 943e
00000050: fb2f a9be f0cd a33e 81a2 043e 2905 883e
00000060: ead4 453c b444 c83d 4db2 983d 5286 993e
00000070: c050 963d 899e 90be 563f 863e 7a03 cebd
00000080: 4de6 57be afa8 2fbd 1562 4f3e cfff 84be
00000090: db2c 923c 61f9 9b3d 5691 37bd e108 dc3d
000000a0: bc3e 8dbe 11b6 383e 7784 44be a644 babd
000000b0: dcf1 33be dbb8 953e f8c7 a9bd a58a 95bc
000000c0: 40f2 173e 8250 543e 5e78 5ebe 83f6 36bd
000000d0: fc90 e23d b973 65bd f286 4b3e ac24 593c
000000e0: 7f48 2dbe 2dc2 61be 7882 a7be 67ab 99bd
000000f0: cc53 343e d50c bcbc 9c32 873e 0c52 1cbd
00000100: 81aa 13bc 9507 00bc 179b 06bc c078 b2bd
00000110: e783 8f3b e82e 5d3d d9aa f93d f5a1 a13e
00000120: f9e5 48be c85c 6ebd 07c1 9fbe 60d2 7d3d
00000130: 550b 333c 271e 06be e809 e53d e5ab babd
00000140: 8aff 5f3c c135 98be 8c64 c8bd 4ab3 4ebe
00000150: cc8f 9e3e 543a 1fbe e121 2abe 4501 c33d
00000160: d8b7 9e3e 6ca0 0fbe 4a87 1a3e f1d4 763c
00000170: 4c5f e33d 41be 94bd d1a0 d13d a3e4 193d
00000180: beef 6f3c d44f 83be 5f4c 03be 3470 9bbe
00000190: 693d 3dbe 0932 d2bd 1425 673e 4c7b d63b
000001a0: 7265 b13d 0be2 9abd 90ac 8d3e 929c 543d
000001b0: 0d46 463e 1e83 9d3d 9c49 9b3d b0a9 2c3e
000001c0: 3166 a73e f73d 0f3e 5d76 8e3e 0815 66be
000001d0: d821 933a 5774 11bd 9231 14bd a0d6 733e
000001e0: dd8e 7b3e 1760 b7bd 0ff1 2bbe da27 8f3e
000001f0: 2a1a 1e3d 521c 483e e00c 8dbe 8e18 09be
00000200: 5e21 a33e 7c30 973e d190 e93d ee74 303e
00000210: 7a49 293d 6f87 1dbe df29 bc3d f16b 7c3e
00000220: f747 8cbe 93d1 44be f041 393d 2101 a13e
00000230: 7470 323e a4d3 633d 6469 9b3e 3359 59be
00000240: 371b d23d 0cec 9d3d 81f1 e3bd bfed 19be
00000250: 04fd 57be f932 11be ae30 cbbd 53cc 523e
00000260: 6197 6dbd b82a 96be 9dcd 643e d615 543b
00000270: c570 72be a5dc 9fbe 53c6 8a3d b9a2 8f3c
00000280: 8d23 293e 0d88 74be 9796 51bd 10b9 9c3d
00000290: e4c7 913e bd7a 9bbe 8a29 56be 9370 bbbd
000002a0: 8868 853e d8d5 793c c5e5 61be 3a5e 763c
000002b0: 9379 9fbe e6ef 293e 217b 083e f390 343e
000002c0: d5f2 23be 20fd 843d 4b96 633d 405e 633e
000002d0: 0756 9b3d 6811 15be 1774 9a3e bae3 8c3e
000002e0: a18e 3ebe e917 fcbd 1801 a43e 9e73 8bbe
000002f0: 586c 813e 32ff 15be 8693 33be 731e 593e
00000300: 4047 79be 4346 7abd 6492 21be 0427 9fbe
00000310: fadb a2bd 23e2 0abd f643 493e 5482 3abe
00000320: e01c 72bd fd15 9f3e 0818 e5bd 1a80 9e3d
00000330: e0d8 e13d 42ce a0be 6977 ca3d 18c8 2b3e
00000340: 30ce 30be 1221 8abe 6cb0 86be c0b7 a73e
00000350: a387 4b3e eefb 1abe 8e7f 58be 7e7c 8a3d
00000360: 673f 44be fdf1 08be 2ff4 0d3e 4fbb 163d
00000370: bffa 303e c37d c5bd 1b3c a83e d9c9 e7bd
00000380: e8b7 92be ca8c 83be 083d 8e3e 1668 24bd
00000390: 31d2 653b 306e 98be 0ca1 a0be bc74 283e
000003a0: c110 2d3e bdba 96be d285 a43e cb2c d3bd
000003b0: 22b5 cbbd d8f0 1fbe 1509 033d f237 313e
000003c0: 3d4b 223e ef44 2dbe d2f1 8a3e 7d22 aa3d
000003d0: 39d0 a53e 9e4c 883e 7e86 b63d 4661 c63d
000003e0: 09bc 0dbe 00a4 c83c 2594 9d3e 5c76 383e
000003f0: af4c 933d aac8 9a3e ab52 803e c60e a2bd
0.13835205 -0.1684737 0.2866944 0.21799636 -0.31966028 -0.2969772 0.2641772 -0.015522161
-0.15616582 -0.28448585 -0.32175615 -0.29097995 -0.19505842 0.14137445 0.10548705 0.10481046
-0.16114748 -0.22562276 -0.036992487 0.29006684 -0.3304442 0.31993055 0.12952615 0.26566437
0.012074688 0.09778729 0.07455883 0.2998529 0.073396206 -0.28245953 0.26220196 -0.10059257
-0.21083947 -0.04288548 0.20252259 -0.25976416 0.017843654 0.076159246 -0.044816338 0.10743881
-0.27586925 0.18038203 -0.19191156 -0.09095125 -0.17572731 0.29242596 -0.08290094 -0.018254587
0.14838505 0.20733836 -0.21725604 -0.044668686 0.1106281 -0.056018565 0.19875696 0.013253372
-0.16922186 -0.22046728 -0.32716727 -0.075033955 0.17610091 -0.022955338 0.264058 -0.038164183
-0.009012819 -0.007814308 -0.008215687 -0.087144375 0.0043797377 0.05399981 0.1219079 0.31568876
-0.19618978 -0.05819395 -0.31201956 0.061968207 0.010927995 -0.1309744 0.1118353 -0.091148175
0.013671765 -0.2972851 -0.09784803 -0.20185581 0.30969083 -0.15549594 -0.16614486 0.095217265
0.30999637 -0.1402604 0.15090671 0.015065418 0.11102161 -0.072628506 0.102357514 0.03757156
0.014644561 -0.25646842 -0.12822102 -0.30359042 -0.18480457 -0.1026345 0.22572738 0.00654546
0.08661927 -0.075626455 0.27670717 0.05190713 0.1936266 0.07691024 0.07582399 0.16861606
0.32695153 0.13988481 0.2782468 -0.2246896 0.0011225296 -0.03551134 -0.036180086 0.23812342
0.24566217 -0.089538746 -0.16791175 0.27960092 0.03859917 0.19542053 -0.27548885 -0.13388273
0.31861395 0.29529178 0.11404575 0.17232105 0.04132984 -0.15383695 0.09187674 0.24650551
-0.27398655 -0.19220571 0.0452289 0.31446174 0.1742571 0.055621758 0.30353844 -0.21225433
0.10259097 0.07711038 -0.111300476 -0.15032099 -0.21092612 -0.14179601 -0.09921394 0.20585756
-0.058005694 -0.29329467 0.2234406 0.0032361648 -0.2367583 -0.31223026 0.067761086 0.017533647
0.16517468 -0.23880024 -0.051169004 0.07652485 0.28472817 -0.3036708 -0.20914283 -0.09152331
0.26056314 0.015248738 -0.22060306 0.015037114 -0.3114744 0.1659542 0.1332822 0.17633419
-0.16010602 0.06493592 0.055563252 0.22203922 0.07584768 -0.14557421 0.30166695 0.27517492
-0.18609096 -0.12309248 0.32032084 -0.27236646 0.25277972 -0.1464813 -0.17536744 0.21203022
-0.24343586 -0.061102163 -0.157785 -0.31084454 -0.079521134 -0.033907067 0.19654831 -0.18213779
-0.05910957 0.31071463 -0.11186224 0.07739277 0.11027694 -0.31407362 0.09886057 0.16775548
-0.17266154 -0.26978356 -0.26306474 0.32757378 0.1987596 -0.15135166 -0.21142408 0.06762026
-0.19164811 -0.13373561 0.1386268 0.036799725 0.17283152 -0.09643128 0.32858357 -0.11317796
-0.28655934 -0.2569335 0.27780938 -0.040138327 0.003506791 -0.29771566 -0.3137287 0.1645078
0.16900922 -0.29439345 0.32133347 -0.10311278 -0.09946658 -0.15619218 0.031991083 0.17306498
0.15849014 -0.16920827 0.2713762 0.08307359 0.32385424 0.26620954 0.08912371 0.09686522
-0.13841261 0.024492264 0.30777088 0.180139 0.071923606 0.3023122 0.2506307 -0.07912974

weight_hh_l0 f4 [27, 9]
00000000: 5322 bcbd f46e 0bbe ec13 883e facf 2a3c
00000010: b0f3 643e 60d2 91be 7ad0 063e 4b8e 9bbd
00000020: 9683 9abd cc9b 273e c53a 203e 3738 3d3b
00000030: b927 813c a576 6d3d 4899 92be 4c9a 823e
00000040: 8aa7 903e aa4f d93d 1f88 a9be 08a5 95be
00000050: 014e 503e 4059 643e 77d1 8c3e 1a77 673d
00000060: 7197 873d 3b8e 823e 6835 89bd 45d3 393e
00000070: c816 383e e087 9c3e 48ce a63d a642 063e
00000080: a9b9 4d3d 6817 7b3e 2331 aa3e 5cc4 77be
00000090: a07e 473e 668f 11be 7892 9f3e 2920 96be
000000a0: 4a9a 8cbe a399 863e 3868 31bd b864 fcbc
000000b0: fcaf 043e df3b 693e 7001 873d 73c3 613c
000000c0: f969 823e 0ee1 143c c838 b8bd 3e6c 37be
000000d0: 3a2f bebd 2d08 a7be c063 ee3d 1259 a4be
000000e0: 445e 80be 5064 06be 9f11 34be afa3 7c3e
000000f0: 047f 16be 3c22 0dbe e90b a2be 532d f1bd
00000100: 7d99 253e 8964 363a 91f9 92be 916d 253e
00000110: 1b0d a9be 01f8 233e 1aa1 51be fd5a 7bbe
00000120: 72ae 3abd 24c1 903d af83 a6bd fb00 1e3d
00000130: 79d4 42be f405 a3be 710b 453e 3715 1cbe
00000140: 0877 15be 923e d13d d766 59bd c647 0fbe
00000150: b8f3 88be e382 35bd 4886 673d b1ae 8f3d
00000160: 7b57 4b3e 28f0 893d 3a87 1d3e f633 12be
00000170: 861e 78bd 2749 a3be f5ca 593e 8d6c a2be
00000180: dfd0 213e 1209 37be 639e 803e 2494 1c3d
00000190: 9a4d a9be dae9 2cbd 97cd 953d 4bcd 8e3e
000001a0: 552c f1bc 5fe3 e6bd 30d0 8cbd 5f75 0a3e
000001b0: f469 a0be 2c3e aabe 0862 f03d 48f5 7cbe
000001c0: 42bb 8a3d c177 923e 33ae 963d e3e1 5d3e
000001d0: 3618 93be 53b3 a33d d49d 1dbd 10c1 1c3c
000001e0: 129b 8d3d a0eb a53e 921b 2a3e ba72 113d
000001f0: a62d 693e 4d96 923d 528d a4be b8c2 38be
00000200: e374 78be 5858 943e 225b 593e 9728 2dbd
00000210: 73ba f7bd be97 593e ca51 e73d e480 a83e
00000220: b9d0 7dbe 12ca 833e 6088 993e 0d22 813e
00000230: cf9c 543e 0461 0abe 9339 903e f92c a7be
00000240: 358b 80be ad34 863e a189 283e 0fa1 84be
00000250: 82c7 3cbd bc71 8d3e 7afd 033b cd7b a0be
00000260: 18d5 8fbe 41b9 9bbd 77d1 41be beff 3cbe
00000270: a8e7 ab3d 5725 163e 2995 a13c 45d5 b5bd
00000280: 1072 99be 6214 70be 6c66 8ebe cd6f e6bd
00000290: 8034 743d 5147 d03c f361 833e b837 01be
000002a0: 2ae0 623e 17b6 9ebe 413a 18bd a0d4 0dbe
000002b0: 44d9 273e 4ba3 d0bd 90f5 92be 88e3 933e
000002c0: 089a 6c3e d9f9 39be f9d7 293d 7071 843d
000002d0: 609d a5be e422 a33e fc61 3cbe cac3 ffbd
000002e0: 8425 32be ec19 883e ac08 be3d 8f14 31be
000002f0: d9ca 3d3e 49ac 053e a443 7a3e 71e0 173e
00000300: 2b73 943e 78fb 3c3d 95d6 36be 8879 34bc
00000310: de5b 26be 5e4f 173e cc6b 8e3e ab81 2fbe
00000320: 3a21 8bbd 5a5b 963e c918 5abe cbb5 ab3d
00000330: 7576 473e 627f abbd f126 13be b3a7 a63e
00000340: d84f 843d 7932 853e d197 50be 40e9 68be
00000350: 8394 8a3e 6beb 11be a876 40bd c95c f7bc
00000360: 6a45 803e 5fad 36be 63c5 993e 618c a23e
00000370: c626 3e3e ae74 f03d bbe4 06be 882f 9c3e
00000380: 75e9 463e e70b c5bc 5559 c2bd 1834 823e
00000390: e515 423e e941 9e3e 7a11 ddbd 6cd8 2b3e
000003a0: 506b fabd 20e9 473e 9501 c5bd 4760 81bd
000003b0: 06a9 823e e3b7 90be 8fd5 23be 9297 05be
000003c0: ab69 c13d 95c3 8bbe 085d ccbc
-0.09186234 -0.13616544 0.265777 0.010425562 0.22358584 -0.28480816 0.13165465 -0.075954996
-0.07544629 0.16368026 0.15647419 0.0028872618 0.015766012 0.057974476 -0.2863257 0.25508344
0.28252822 0.10610898 -0.33111665 -0.2922747 0.20342256 0.22299671 0.2750356 0.05651007
0.06620682 0.25499138 -0.066996396 0.18146999 0.1797744 0.30572414 0.08144814 0.13111362
0.050225887 0.24520648 0.33240613 -0.24195999 0.19481897 -0.14214858 0.31166434 -0.2932141
-0.27461463 0.2628909 -0.04331228 -0.030809745 0.12957758 0.22776745 0.06592071 0.013779509
0.25471476 0.00908686 -0.08995205 -0.17912385 -0.092863515 -0.32623425 0.116401196 -0.32099205
-0.2507192 -0.13124204 -0.17584847 0.24671815 -0.1469689 -0.1378259 -0.31649712 -0.11776223
0.16171832 0.000695773 -0.2870603 0.16155078 -0.3301781 0.16012575 -0.20471612 -0.24546428
-0.04557652 0.07068089 -0.081305854 0.038575154 -0.19026364 -0.3184048 0.19242646 -0.15242468
-0.14596188 0.102170125 -0.05307659 -0.13992223 -0.26748443 -0.044314276 0.056524545 0.070157416
0.1985759 0.06735259 0.15383616 -0.14277634 -0.060575984 -0.31891748 0.21268828 -0.31723443
0.15802334 -0.17874554 0.2512084 0.038227215 -0.33067018 -0.042215206 0.07314604 0.27891
-0.029440084 -0.11273836 -0.06875646 0.13521336 -0.31330836 -0.33250558 0.11737448 -0.24702942
0.06773998 0.2860699 0.073574446 0.216682 -0.2872941 0.07993188 -0.038480595 0.009567514
0.06914343 0.3240633 0.1661208 0.035509802 0.2277132 0.07157574 -0.3213907 -0.1804303
-0.24263339 0.2897365 0.2122617 -0.042275038 -0.12096109 0.21249291 0.11294897 0.32910836
-0.24786653 0.25740105 0.29986858 0.2522129 0.20762943 -0.13513571 0.28168926 -0.326515
-0.25106207 0.26212063 0.16458751 -0.25904128 -0.046088703 0.27625835 0.0020140097 -0.31344453
-0.28092265 -0.07603694 -0.18927561 -0.18456933 0.08393794 0.14662682 0.019724445 -0.088785686
-0.29969835 -0.23445275 -0.27812517 -0.11251793 0.05962038 0.025424631 0.25660667 -0.12618911
0.22155824 -0.309983 -0.03716493 -0.13850641 0.16391474 -0.10187396 -0.28702974 0.2888453
0.23105633 -0.18161716 0.041465733 0.06466949 -0.3234663 0.31862557 -0.18396753 -0.12488516
-0.17397124 0.26582277 0.09278998 -0.17292999 0.18534411 0.13054003 0.24439865 0.14831711
0.28994116 0.046138257 -0.17855294 -0.011015303 -0.16245982 0.1477637 0.27816617 -0.17139308
-0.06793447 0.2936657 -0.21298517 0.08384284 0.19478782 -0.08373906 -0.14370324 0.3254982
0.064605415 0.2601507 -0.20370413 -0.22745228 0.2706643 -0.14249961 -0.04698816 -0.03019561
0.2505296 -0.17839573 0.30033407 0.31747726 0.18569478 0.11741005 -0.13173191 0.30505013
0.19424994 -0.024053527 -0.09489695 0.2543037 0.18953665 0.3090966 -0.10794349 0.16781777
-0.122274995 0.19522524 -0.096194424 -0.063171916 0.2551958 -0.28265294 -0.15999435 -0.130461
0.09443983 -0.27297655 -0.024946705

bias_ih_l0 f4 [27]
00000000: 47d7 09be 7e8f 053e 7327 83be f541 663d
00000010: 1be1 dcbc 75f9 c33d ee06 20be cc5c 6d3e
00000020: 12d0 1c3c e337 4cbe 9152 86be 91dd 32be
00000030: e5f1 133e 9ebf 32be ade8 87be ed48 733e
00000040: bc29 6e3e 6f66 f4bc 1979 983e 57df 8cbe
00000050: 33f3 12bd c617 9cbe 5e07 a9be 62d9 9b3e
00000060: a909 8dbd 721a 893e c120 9c3e
-0.13461028 0.13043019 -0.25616035 0.056215245 -0.026962807 0.095690645 -0.15627643 0.2317993
0.009571092 -0.19943194 -0.26234868 -0.17467333 0.14447744 -0.17455909 -0.26544705 0.23758288
0.23258108 -0.029834 0.2977989 -0.27514145 -0.035876464 -0.30486888 -0.33013433 0.30439287
-0.06886608 0.2677799 0.3049374

bias_hh_l0 f4 [27]
00000000: 601f 7f3e 0343 79be 634e 51bd 8a99 89bd
00000010: e990 28bd bbf8 c33d 7e7c 32bb 80e3 fdbd
00000020: 3883 35be df49 98bd e740 8c3e 9a42 973d
00000030: 8f7e 65be d020 28be 1642 8c3e ea74 95be
00000040: d452 1b3e 1d1f e9bc fd3f 6cbe cc31 7abd
00000050: f9aa ca3d 5478 9f3e fe66 583e ea19 06be
00000060: 4b87 87bd ce31 103e f9d3 973e
0.24914312 -0.24341969 -0.051100146 -0.067187384 -0.041153822 0.09568926 -0.0027234848 -0.12396908
-0.17725837 -0.07435965 0.27393267 0.0738575 -0.2241156 -0.16418767 0.2739417 -0.2919076
0.15168315 -0.028457219 -0.23071285 -0.061082646 0.09895892 0.3114649 0.21133038 -0.13095823
-0.06617602 0.14081499 0.2965391

weight f4 [9, 9]
00000000: af1f 1bbd 648a 32be d2ab 89be 26b4 2b3c
00000010: 6996 37be 632e 603d 148f 96be 6b11 af3d
00000020: 3346 323e dd23 a23e 3e8b d93d e381 d7bd
00000030: 61a6 76bd f2b5 eebd d8c1 0bbe 1261 693d
00000040: c815 bf3d 71a6 3bbb 5c52 a0bd 33e8 323e
00000050: 18e4 8a3e f654 8bbe 68f5 d8bd b537 a1be
00000060: 8be0 81be 7bd4 933b 615a 6fbe 101f c73d
00000070: c566 9bbd 2e13 1e3e ecdc 50bd f506 c33d
00000080: 5068 923d 4029 2f3e a698 a0be 5589 33be
00000090: b965 37bd a169 08be 1a73 85be af13 453e
000000a0: a978 6dbe 8d4e 2fbe 66d4 dc3d 23ac 7ebe
000000b0: 2689 9e3e cefe 0b3c f5d6 173e 682e a73e
000000c0: d336 e73d e0a0 863e 7fa1 f1bd be7b 2dbe
000000d0: 37a8 9cbe c427 0b3e 2e9b 86be 34b5 84be
000000e0: 6f01 29be 8d75 6ebe b24b 103e 621c a5be
000000f0: 0997 113e 3f3e 76bd 62e4 41be ae08 2d3e
00000100: 870d 913e f4b9 4b3e 1bc8 343e f740 a8bd
00000110: dedc 0a3d d9c8 983d a0ad 11be 0922 8f3d
00000120: 3f88 a83e 3bee 8bbd e505 d8bd 17e6 a63e
00000130: 6f91 793e a89e 96bd a9cb 81be d419 e4b9
00000140: 3da4 593e
-0.037872013 -0.17435604 -0.268889 0.010479962 -0.1792847 0.054731738 -0.29406035 0.08548244
0.17409591 0.31667987 0.106222615 -0.10522821 -0.060217265 -0.11655797 -0.13648164 0.05697734
0.09330326 -0.0028633142 -0.07828209 0.1747139 0.27127147 -0.27213258 -0.105936825 -0.31487814
-0.25366625 0.0045114136 -0.2337432 0.097227216 -0.07587961 0.15437004 -0.050991938 0.09522811
0.07148802 0.1710558 -0.31366462 -0.17532857 -0.044774745 -0.13321544 -0.26064378 0.1924579
-0.2319056 -0.17119808 0.10782699 -0.24870352 0.3096401 0.008544637 0.14828093 0.32652593
0.11289754 0.26294613 -0.11798381 -0.16941735 -0.30597088 0.13589388 -0.26290268 -0.25919497
-0.16504453 -0.2328703 0.14091375 -0.32248217 0.14217772 -0.060117956 -0.18934777 0.16897842
0.28330633 0.19895154 0.17654459 -0.08215516 0.03390204 0.07460184 -0.14226389 0.069889136
0.32916448 -0.06832548 -0.10547999 0.3259742 0.24371885 -0.0735448 -0.25350693 -0.00043506792
0.21254058

bias f4 [9]
00000000: 5948 8c3e b2d7 7b3e 753c 6fbb 03ef c53d
00000010: 1d57 ad3d 8d24 9ebc cb49 adbd e5e9 6d3e
00000020: 5411 033e
0.27398947 0.24594 -0.003650454 0.096647285 0.08463881 -0.019304538 -0.084613405 0.23233755
0.12799579

weight f4 [720, 18]
00000000: 5761 edbc 83f8 973d 06c8 0ebe e104 923d
00000010: c9aa 6cbe 34aa d7bb ce90 9f3d 7027 1e3e
00000020: e26d 36bc f3ab 143d f5c1 a1bc 6e63 6c3e
00000030: ef6d 5d3e d84f 58be 15ea 3d3d f345 bdbd
00000040: bfd8 71be 025a 20be 4700 ec3d 7e4a ee3d
00000050: df02 61bd e91b 6fbe 5640 473d 8cf8 4cbe
00000060: 90a3 7dbd 5494 35be 41c1 48be c6e8 38bd
00000070: bc3a ef3d 65c8 3ebe 5b34 59bd 3795 a23c
00000080: fbff 113e 2cc7 213d 7ffa 5ebe 6804 183e
00000090: 7b3d 1bbe aefe 6a3e b275 d33d bdb2 003d
000000a0: 456d e3bd 56f5 8339 3032 43be 42ed 693e
000000b0: a437 6a3d 7063 0b3e 94ac 67be dd5c 443e
000000c0: 457f 38bd 5a65 7abd a415 a13d 6545 d63d
000000d0: 7130 3c3e a17d c4bd ad60 a5bc 991f 253e
000000e0: 5eb2 3abe 3bf7 d5bd 290a b13d 669c 12be
000000f0: 2d94 5dbd 93b8 543e c36e 743d 05e6 62be
00000100: de05 f6bc 0361 503e fcb7 04be 8123 c1bd
00000110: 0616 9f3d 9f07 3b3e 632c 98bd 2356 3e3e
00000120: 48c4 803d 1318 be3d c3d5 e2bc e1b1 6ebe
00000130: 41bd 4cbd d62c cc3d 896d 1fbd c29c 233e
00000140: 8aad 2dbe a7b3 2dbe 9903 4dbe e50b 113e
00000150: cf94 45be 9a29 0cbe a88e 02be 2bb7 663e
00000160: 6128 9f3b 0a3b 16be ff68 833d 8a3d cf3c
00000170: 7814 de3d 9cd5 183e d488 8d3d d272 d8bc
00000180: c40b 3b3e ea2a 1d3d f634 393e 3a65 45be
00000190: da6a 12be 4ab8 603e ecde 27be ce1d 1139
000001a0: 63f6 123e 4461 043d 5687 f9bd 48bc f13d
000001b0: be5a 223e 6a55 253e 2c6d f63d ecca e6bd
000001c0: 732c b33d 846d 36be a274 36be be13 a73d
000001d0: 1206 2ebe c670 4d3d ad25 15be 8079 1b3e
000001e0: 38ca a13c 8c63 1dbe c314 1c3e d477 3cbe
000001f0: 4b91 30be a424 5c3e 6c92 773d 1cb8 41be
00000200: ff9e a63d 38f7 393e b4da a2ae ca6b 033e
00000210: abd0 31bb d744 bcbd 3ae6 c83c c455 de3c
00000220: b0a5 7c3d 93fe 44be 3343 0abe 9176 d0bd
00000230: 69ed 91bd 1f39 433d 7f20 86bd b9f5 89bd
00000240: 1303 aebd 6d91 023b 950f c9bc 923d eabd
00000250: e83b 2cbe 154b f93d f0ea 8dba 4d54 a1bd
00000260: 80c1 d0bd b7c7 6c3e 0a1c ed3d 0b4e 25bd
00000270: 565b 4ebe 9166 b8bd 1d30 6d3d 6368 d1bc
00000280: f934 04bd 02d6 3cbe 5e38 2dbe 5359 0d3d
00000290: 1ba2 c7bd 394b 9c3a 1b87 f03d 16d6 be3d
000002a0: b8f0 c53c ace6 223e d628 53bd 03fa db3d
000002b0: 430c bf3d 511f 373e 13e6 393e 1986 4cb9
000002c0: 634e febd 4cff 3f3e 66c3 f43c 4862 99bd
000002d0: 55dc 293e fb88 293e aed5 0abe 43d3 f63d
000002e0: a3d2 5b3e 1e53 11be 8f54 133d 5ee8 98bd
000002f0: f842 ba3d b0f7 0cbe 2460 c63d ea40 e13d
00000300: b55f 1e3e 5687 34be 7f02 51be 199d 9b3c
00000310: f734 58bd db40 57be 491b 9bbd 20d4 c03d
00000320: f5cc 233e d910 55be 377c eebd 6120 c7bd
00000330: 0ffb b2bd 8cc6 973d 51a3 b0bd 1c82 9e3d
00000340: 3d5d eabd 4046 923c b7d2 acbd 65ed e4bb
00000350: 00b2 e43d 3b03 58be f45e e1bd 8e24 313e
00000360: f06e 0b3e 9518 593e a766 d23a 1747 d63c
00000370: e0f7 213e b9ea 7cbd fd84 103e 210d 583e
00000380: 8d4c 5bbe 0cf7 d7bd bfda 2a3e 3ef8 003e
00000390: 62b4 b63d c2b8 f1bd b744 193d 86e3 823d
000003a0: 0b00 bbbd edae 5d3e eb25 ba3d 9027 cbbd
000003b0: 62bb a2bd c812 a23d 8606 513d 67f5 533e
000003c0: 09b0 3e3e dcfd 28be 65b0 533e 1026 1a3e
000003d0: 11ea 93bd 957c 8dbd f68d b3bd 3320 ff3d
000003e0: d45e f6bd 1735 46be 58d6 0e3d 6d43 ac3c
000003f0: 7d30 9dbc 35f0 1abd b777 65be 8ec1 7a3c
-0.02897708 0.07420447 -0.1394349 0.07129837 -0.23112024 -0.006581569 0.07791291 0.15444732
-0.011134597 0.036296796 -0.019745806 0.23084804 0.21623968 -0.21124208 0.046365816 -0.092418574
-0.23617838 -0.15659335 0.115234904 0.11635302 -0.05493438 -0.2335049 0.04864534 -0.20016688
-0.061923563 -0.17732364 -0.1960497 -0.045143865 0.116811246 -0.18631132 -0.053028446 0.019846542
0.14257805 0.039496586 -0.21775244 0.14845431 -0.15160172 0.22948715 0.10325183 0.031420458
-0.11104826 0.00025169057 -0.19062114 0.22844413 0.05718197 0.13612151 -0.22624427 0.1917605
-0.04504325 -0.061131813 0.07865456 0.10462455 0.18377854 -0.09594274 -0.0201877 0.16125335
-0.18232104 -0.10447546 0.08644516 -0.14317474 -0.05409639 0.20773534 0.059675943 -0.22158058
-0.030032095 0.20349507 -0.1296081 -0.094306 0.077678725 0.18264626 -0.07430341 0.18587546
0.06287438 0.092819355 -0.02768982 -0.23310043 -0.049985174 0.09969489 -0.03892282 0.15977767
-0.16960731 -0.16963063 -0.20020904 0.14164694 -0.19295047 -0.13687745 -0.12749732 0.2253081
0.0048571085 -0.14670959 0.06416511 0.025297899 0.10843748 0.14925236 0.069108635 -0.026421938
0.18266207 0.038371004 0.18086609 -0.19276896 -0.14298573 0.219453 -0.16393632 0.0001383938
0.14351802 0.032319322 -0.121840164 0.1180349 0.15854928 0.16145864 0.12032542 -0.11269173
0.087487124 -0.17815214 -0.1781793 0.081580624 -0.16994503 0.050156377 -0.14565153 0.15183067
0.019749746 -0.15370005 0.15242295 -0.18405086 -0.17242925 0.21498352 0.060442373 -0.18917888
0.08135795 0.18160713 -7.4057566e-11 0.12834087 -0.0027132432 -0.09192818 0.024523843 0.027140506
0.06168145 -0.19237737 -0.13502197 -0.10178865 -0.071253605 0.047661897 -0.06549167 -0.06736321
-0.0849668 0.0019923106 -0.024543563 -0.11437525 -0.16819727 0.12172524 -0.0010827463 -0.07877407
-0.10193157 0.2312306 0.11577614 -0.04035763 -0.2015203 -0.09003938 0.057907213 -0.02556247
-0.03227708 -0.18441013 -0.16916034 0.034509014 -0.09747716 0.0011924274 0.11744519 0.093181774
0.024162635 0.15908307 -0.051552616 0.10741045 0.093285106 0.1788304 0.18154173 -0.00019504911
-0.12417295 0.18749732 0.02987833 -0.07489449 0.16587956 0.1655616 -0.13558075 0.12052014
0.2146707 -0.14191863 0.035969313 -0.074661955 0.090948045 -0.1376636 0.09686306 0.109987095
0.15466197 -0.17629752 -0.20411108 0.018995808 -0.052784886 -0.21020834 -0.075735636 0.0941546
0.15996154 -0.20807208 -0.11644786 -0.09722973 -0.08739292 0.07410917 -0.086249 0.0773966
-0.11443565 0.017855763 -0.08438628 -0.0069863074 0.11166763 -0.21094982 -0.11004439 0.17299101
0.13616538 0.21200784 0.0016052321 0.026156945 0.15817213 -0.061747286 0.14113231 0.21098758
-0.2141592 -0.10545167 0.16685008 0.12594697 0.08921124 -0.11802818 0.037419047 0.06391053
-0.091308676 0.2164876 0.090892635 -0.09919655 -0.07945897 0.079137385 0.05103161 0.20699082
0.1862184 -0.1650309 0.20672758 0.15053582 -0.07222379 -0.06908528 -0.08767311 0.124573134
-0.12029806 -0.1935619 0.034872383 0.021028245 -0.01918816 -0.037826736 -0.22408949 0.015304936
