RNN/LA/best-model_lor_dec_J2.pt (torch, 159679 bytes, 34 tensors)

weight_ih_l0 f4 [108, 18]
00000000: d023 7539 3d43 5cbd 6148 b6bd df88 18be
00000010: 23ee 043d d280 803e 57f7 bcbd be16 3ebd
00000020: bdae 813d 770f 723e a96b 1d3e b317 34be
00000030: 28b1 50be b370 32a7 adf9 95be 9657 743d
00000040: cefa 20be 4a00 a4bd f24d 0fb9 7f87 eebd
00000050: 6ce2 94bc 9be4 593e 3fb1 c6bd f379 2c3e
00000060: 9d59 65bd e257 06be c698 643c 38a2 2b3d
00000070: 7de8 bbbd 8ee8 6a3b 050a 5dbe 83a3 3427
00000080: 78c3 11be 9a91 1ebd 765b b53d 3720 de3d
00000090: f2d3 06b5 89a8 f2bd 7c0d a2bd 601e b1bd
000000a0: 337b 033e 2105 c43d 9392 b73c 896a 8fbd
000000b0: 022f c43d ca01 1fbd 0b5e 1dbc 574c e43d
000000c0: a771 5f3d 5087 0026 dbae 053e 2348 96bc
000000d0: f2ba 303e 61d0 66bc 3bc3 3ab8 5211 b8bd
000000e0: 89f4 99be 0668 18bd cf79 90bc 8ae1 0b3d
000000f0: 806e c23c 4c6d 17bd 8dbc 1b3e 7f0d cd3c
00000100: d842 6abd 3d35 52bb 4970 0f3e 98e2 d824
00000110: 6f27 49bd 5389 aa3d f779 a73c 18fc 063e
00000120: 9d4d 0038 857d a43d 9785 543e ceb9 bfbc
00000130: 313c 7e3c d5d7 313d a821 50be 6005 4f3d
00000140: aecb b03c 7cae 70bd 61f3 983d 1e5b 8d3d
00000150: 9f00 943d 3b84 15a8 8476 27bd 76e9 f33c
00000160: cd9b d73d 542a 2abe a1cb 2c37 4a77 0c3e
00000170: cad0 bcbd 4105 dd3c 4288 6d3d e167 b93d
00000180: b945 a03d 673d a03d 0a60 0d3e 1b87 f0bb
00000190: 8b8d 6abd 1f64 d63d 35f4 073e 5ef6 cb26
000001a0: a2db 44be 4f2e 7dbd 03fc 7a3d 1863 253e
000001b0: 6980 a738 ec84 963d 9872 5abe a39b 0f3d
000001c0: 5a12 6fbc d4aa 5c3e 77f7 8ebd 679d 68bd
000001d0: 8947 4f3e 7936 f9bd e9c4 3a3b c0a6 8c3d
000001e0: 914c a5ba 5762 1a26 d2c5 4f3d 30c7 af3d
000001f0: 0011 38be b4d2 0ebe a6f0 57b8 0a87 c83d
00000200: 80a9 093e 06ec 48be 9d80 40bd 31e9 11be
00000210: 2766 023e 209d 0e3e 88d2 8c3d 67c7 063e
00000220: 7795 053e 8092 10be 16ca 0c3d 39b0 60a3
00000230: 93b8 173e 1b9f 8d3c c4d6 19be a044 44be
00000240: 03eb cfb6 3b9a 48be e717 85bd 59dc 723d
00000250: ebd2 a23d deb8 52be f6a0 62bd 4358 cabd
00000260: de32 8a3d bec4 53bc 0333 9b3d 28d2 223e
00000270: d75f 9fbd 3daf 9da4 6746 f83d 2ffb debd
00000280: b81a 18bd 89a8 853c b595 b736 09f9 d43d
00000290: 36c2 3a3e 567d b6bd edfa 18be babe 2bbe
000002a0: 6055 06be 5ff4 243d 7081 663e 18f8 aa3d
000002b0: 9d84 9fbd 1404 53be a503 fcbc 863d ec27
000002c0: 7363 a13d 222a 6ebc 4ffb 193e 7537 51bd
000002d0: e822 7937 04e3 473c 0897 7e3c e436 9e3d
000002e0: 1316 613d ced8 883d e78a 32bd 639a 273e
000002f0: ec8b 4f3d 337d 1b3b 50db 0a3e f0f4 183d
00000300: bd42 a83d 1408 1b26 a5c1 263e c3b7 0f3e
00000310: 39d1 68bd 343e ec3d e195 eab5 76b6 983d
00000320: 9092 c0bd f279 183d e04c 263e 40fd 563e
00000330: f939 00bd 0022 103c f973 513e d9f0 3c3d
00000340: 91e1 0e3d cbce febc 11da 183d 19d1 1b28
00000350: 5e18 433e 1a8e 87bd c65a 233e fe37 1d3e
00000360: 110a 7937 d613 31bc 0a1e de3d 757f ae3d
00000370: 6ebd c8bd 18d3 8cb9 eff7 273e 475e 93bd
00000380: 6f30 753d 2d44 f4bc 0903 8a3d fb69 33bd
00000390: e85c 13bd e4bc 15a6 edf8 823e 1f6d d8bd
000003a0: 34a2 28bd 8d36 6b3b 1824 0938 16f0 54bd
000003b0: 97c1 e3bc 6427 2bbe 050c 26be c4a7 07bd
000003c0: c658 8fbd 1e91 24be f58b a5bc 8fa4 0dbd
000003d0: e30f ba3c c530 65bd 8c2c febb 1291 87a7
000003e0: 7a6e 583e 0b18 2ebe fbb9 e03c fc86 94bd
000003f0: c2d9 70b8 406f ee3d 129f fcbc d430 3ebe
0.00023378362 -0.05377506 -0.08900524 -0.14895962 0.032453667 0.25098282 -0.09226864 -0.046408407
0.06332157 0.23638712 0.153731 -0.17587166 -0.2038008 -2.4763557e-15 -0.2929205 0.05965384
-0.15720674 -0.08007868 -0.0001366658 -0.116469376 -0.018174373 0.21278612 -0.09701776 0.16843395
-0.055993665 -0.13119462 0.01395244 0.04190275 -0.09175203 0.003584418 -0.21585853 2.5068658e-15
-0.14234722 -0.038713075 0.088553354 0.10845988 -5.022731e-07 -0.11848552 -0.07912728 -0.08648372
0.12839966 0.09571291 0.02240876 -0.07002742 0.095792785 -0.038820066 -0.009604941 0.11147373
0.054551747 4.4592304e-16 0.13054983 -0.018344944 0.17258814 -0.014087767 -4.452768e-05 -0.089876786
-0.30069378 -0.03720858 -0.017636208 0.034150638 0.023734331 -0.036969468 0.15208645 0.02503085
-0.057192653 -0.003207519 0.14007677 9.405893e-17 -0.049109872 0.08326974 0.0204439 0.13182104
3.058986e-05 0.080317535 0.20754085 -0.023404028 0.01551728 0.043418724 -0.20325339 0.050542235
0.021581497 -0.05876015 0.07468296 0.06902145 0.07226681 -8.2998344e-15 -0.04088451 0.029774409
0.105277635 -0.1661771 1.029941e-05 0.1371738 -0.09219511 0.026980044 0.057991274 0.090530165
0.078257985 0.078242116 0.13806167 -0.0073403246 -0.057263892 0.10468315 0.13276751 1.4152733e-15
-0.19224408 -0.06181174 0.061275493 0.16151083 7.987099e-05 0.073495716 -0.21332777 0.035060536
-0.014591778 0.21549541 -0.06980794 -0.056790736 0.20242132 -0.12168593 0.0028498715 0.068677425
-0.001261132 5.356276e-16 0.050725766 0.08582914 -0.17975235 -0.13947564 -5.1484116e-05 0.09791382
0.13443565 -0.19621286 -0.046997655 -0.14249112 0.1273428 0.13927126 0.06876093 0.13162003
0.13045298 -0.14118385 0.03437241 -1.2180381e-17 0.14816503 0.017287781 -0.15023333 -0.19166803
-6.1964397e-06 -0.19590084 -0.064987 0.05929217 0.07950386 -0.20578334 -0.055329286 -0.09880116
0.067479834 -0.012925325 0.07578089 0.15900481 -0.07781952 -6.838476e-17 0.12122803 -0.10887753
-0.037134856 0.016315715 5.471253e-06 0.10399062 0.18238148 -0.08910625 -0.1493947 -0.16771975
-0.13118505 0.040272113 0.22510314 0.083481014 -0.07788966 -0.20607024 -0.030763457 6.5569862e-15
0.078802966 -0.014536412 0.15037273 -0.05107828 1.4849684e-05 0.012200121 0.015538938 0.07725313
0.054952692 0.06681977 -0.0435895 0.16367488 0.05067055 0.0023725748 0.13560224 0.037342966
0.08215854 5.3787376e-16 0.16284807 0.14034943 -0.056840155 0.11535302 -1.7477979e-06 0.07456677
-0.094029546 0.03722567 0.16240263 0.20995045 -0.031305287 0.008797169 0.20454396 0.046128128
0.034883086 -0.031104466 0.03731734 8.649569e-15 0.19052264 -0.066189006 0.15952596 0.1535339
1.48439e-05 -0.010807952 0.10845573 0.08520404 -0.09801756 -0.00026860158 0.16403173 -0.07195716
0.059860643 -0.029817665 0.0673886 -0.043802243 -0.035977274 -5.1950754e-16 0.2558054 -0.10567688
-0.041170314 0.003589067 3.269696e-05 -0.051986776 -0.027802272 -0.16714245 -0.16215523 -0.03311898
-0.06999354 -0.16070983 -0.020208338 -0.034580763 0.022712654 -0.055954713 -0.0077567752 -3.7627313e-15
0.21135893 -0.17001359 0.027432432 -0.07252309 -5.742326e-05 0.11642313 -0.03083757 -0.18573314

weight_hh_l0 f4 [108, 36]
00000000: ae65 a8bc 942b 643e d319 4c3d c179 31be
00000010: 0539 773c 8cfd d4bd a280 4cbe 92ba 95bd
00000020: ab99 213e 8536 0a3d 2115 ccbd 4738 12be
00000030: 121c 71bd 3852 a5bd a7ca b33c 617b 1e3d
00000040: 8ed1 8d3d 981e 4fbe 2103 503e f4cf d73d
00000050: dd60 23bc bd4b f6bd 35a1 443d 5465 b6bc
00000060: e5cd 813d b503 20be 5a99 09be 0731 373e
00000070: 5786 00be e62d 1e3e b907 70bd e50f 66be
00000080: 7e8e df3d dcc3 f6bd 598d 41be 4804 163e
00000090: 5d5a 28be 231b 9fbd 4e4f 0bbd 83ec b73d
000000a0: 15c3 95bd 3c7e b03d 4937 0fbe 0e8a 913d
000000b0: bbc8 d23d e3b6 debc 6107 2ebe 31b7 063e
000000c0: 2bdc 7cbc 2327 ab3d 269e 103e c228 dc3d
000000d0: c326 a53d 5447 ce3d 813a 1d3e 1492 dd3d
000000e0: bdb8 d3bd 4547 9d3d e866 6dbb bc48 413c
000000f0: 2949 79bd 9ec5 843d abae d4bd 6220 5b3e
00000100: 8271 d2bb 80cd 52bd 4777 d63d e2f5 e03d
00000110: 4ddf 65bd f869 55be d354 ebbc ada5 b3bd
00000120: 4764 193e 8902 1b3e f6ee da3d 3aae ef3d
00000130: fe62 6b3c 30e0 113e 291e 9e3d 661c 0bbe
00000140: bb57 e53d 4530 ed3d 8ee5 71bd 7269 c83d
00000150: 40a6 ab3d cb7c a53d 784c a7bd aee3 e3bd
00000160: 1ffd d9bd ba74 15be b529 7a3d 5b0b cf3d
00000170: bd4c ad3c 2689 a73d 15c1 073e a896 243d
00000180: 057f 99bd 6c0a 413e f1f7 e53d bb85 30be
00000190: d98c ff3d de82 29bd c655 c5bd 7625 aabd
000001a0: e356 ffbd 0ab2 ca3c 80c1 543d c0ff 91bd
000001b0: 3ae0 47bc ee50 2dbe 44bc a83d d56e c1bd
000001c0: 7ef5 273e e870 57bd 4faa b7bc 2c76 c63d
000001d0: a0c5 ec3d 20c7 03bd 9a0a 203e 4f6b e8ba
000001e0: 7f31 c43d 134f 903d 0c55 d2bd 4ecf d4bc
000001f0: e8d8 b0bd d986 a3bc 9dba ebbd 1d8c 993d
00000200: 9c75 e13d 00ee f63c 8dcb a5bc 4585 043e
00000210: a1b8 2e3e fb55 2d3e 9182 f23d f4a7 b1bd
00000220: d18a f23d 8dd4 f0bd d0df f03d 891f a33c
00000230: 6a82 00be c37f dabd 9548 13be 59b7 13be
00000240: 6bf5 5abb 4c0b fbbd abf4 a4bd 8e6d 9a3c
00000250: 3c27 df3c bbba 1cbe 8d14 bf3d 7dda 283d
00000260: d98e a5bb f05f 16be da0d 4abd 28ed 80bd
00000270: c9e5 1a3e 8783 4c3e 3ac6 ae3d daf7 3ebe
00000280: 81d9 2b3c 38c0 de3c 7207 a03d 321f 0c3d
00000290: f444 04bd 9421 0b3c 951c 9dbd f939 e33d
000002a0: 334b cbbd a6ed 1dbd 3435 ee3c e586 bdbc
000002b0: 8545 0dbe bba0 e93b f515 b13c b92c a7bd
000002c0: e479 abbd a80d cabd 010f e83c ebbd 9b3d
000002d0: 6501 163e 41da fdbd 09b6 9d3e 8e9b 9bbe
000002e0: 82bc 973b 1048 353e 34fc 733e 6789 b2bd
000002f0: 366b 033d 157f 613e f888 593c 5d5c 2ebe
00000300: 6f2e 083e b9cc 183b fc1c 4f3e 0231 723c
00000310: c8e8 793e 35d5 a93d f77d 70be 3b5d 1ebd
00000320: 16e2 b83d 0724 9a3d c788 06bc 58c6 1dbe
00000330: b3cc d5bc 89e8 bebc d5bb 233e 25ab 4dbe
00000340: 6b2a 3cbe 2b6c 65be 0abf adbd a062 423e
00000350: 1006 9dbe dc73 3f3e fe66 283e 2711 a23d
00000360: 437a 4ebc aed1 99bc 68ac 273e 03c9 2e3e
00000370: ce3c 0e3e 59d9 1b3e 314b 9bbd d459 d6bd
00000380: 252f 7c3d f679 82ba c2c5 d6bd a451 b53d
00000390: e2b3 d5bd 2a9d e5bd cb45 d93c 72df 853d
000003a0: d8a6 233e 9450 debd 319d 0d3e 2492 6dbd
000003b0: dd86 4b3d 5c5e 773d d6ae a5bb 3045 8abd
000003c0: f11c 93bd f184 fd3d a638 2fbe bd1e f33d
000003d0: 8b13 fe3d 78dc fc3c 4e83 8fbc 495e 38bc
000003e0: 4fde a5bd f7a1 1f3d 1c51 6e3d a73a 32bd
000003f0: 007c 9b3b 0046 0b3e dabf b93c 2ecb db3c
-0.020556297 0.22282249 0.049829315 -0.17331602 0.015089278 -0.10399923 -0.19970945 -0.07310976
0.15781276 0.0337434 -0.099649675 -0.1427928 -0.05886466 -0.080723226 0.021947218 0.038691882
0.06924735 -0.20226514 0.20313694 0.10537711 -0.0099718245 -0.12026165 0.0480053 -0.022265114
0.063380994 -0.15626414 -0.13437405 0.17889796 -0.12551247 0.15447196 -0.058601115 -0.22467001
0.1091585 -0.12049076 -0.18901576 0.1465007 -0.16440721 -0.07768848 -0.034011178 0.08980658
-0.073125996 0.08617827 -0.13985933 0.0710641 0.102921925 -0.027186817 -0.16995002 0.1315582
-0.0154333515 0.08357074 0.14122829 0.107499614 0.08064034 0.100721985 0.15354349 0.10818878
-0.103379704 0.07679609 -0.0036224667 0.011797126 -0.060860787 0.06483005 -0.10384878 0.21399072
-0.0064222226 -0.05146551 0.10471969 0.109843984 -0.05612116 -0.20841205 -0.02872697 -0.087718345
0.14979659 0.15137686 0.106901094 0.11703153 0.014366863 0.14245677 0.07720596 -0.13585052
0.11198374 0.11581472 -0.05905681 0.09785737 0.08381319 0.08080443 -0.08168882 -0.11127411
-0.10643982 -0.14595309 0.06107493 0.10109588 0.021154756 0.08180456 0.13257249 0.04018274
-0.0749493 0.18851632 0.11228932 -0.17238514 0.124780364 -0.04138457 -0.096355006 -0.08307926
-0.12467744 0.024743099 0.05194235 -0.071288586 -0.012199456 -0.16925403 0.08239034 -0.09444968
0.16402242 -0.05259791 -0.022420077 0.09690508 0.115611315 -0.032172322 0.15629044 -0.0017732176
0.09579753 0.07046332 -0.10270128 -0.025977757 -0.086351216 -0.019961761 -0.11510203 0.074974276
0.1100876 0.030142784 -0.020238662 0.12941463 0.17062618 0.1692733 0.1184131 -0.08674613
0.118428834 -0.11759291 0.11761439 0.019912498 -0.12549749 -0.106689 -0.14383157 -0.1442541
-0.003341044 -0.12258014 -0.08054479 0.018851068 0.027240388 -0.15305607 0.093300916 0.04122399
-0.005052429 -0.14685035 -0.049329616 -0.06295234 0.15126719 0.19972049 0.085339025 -0.18649235
0.010488869 0.027191266 0.0781392 0.034209438 -0.03229232 0.008491892 -0.07671467 0.11095042
-0.099264525 -0.038556717 0.029078104 -0.023135612 -0.13796051 0.0071297563 0.021616915 -0.08162827
-0.08372858 -0.09865886 0.028327467 0.07604583 0.1464897 -0.12395144 0.30802944 -0.30392116
0.004630626 0.17703271 0.23826677 -0.08717614 0.032084666 0.22021134 0.013277285 -0.17027421
0.13298963 0.0023315384 0.202259 0.014782192 0.24405205 0.08292619 -0.23485552 -0.03866313
0.090274975 0.07526403 -0.008211321 -0.15407693 -0.026098585 -0.02330424 0.15989621 -0.20084818
-0.18375556 -0.22404544 -0.084837034 0.18982935 -0.30668688 0.1869654 0.16445538 0.07913428
-0.012602392 -0.01877674 0.16374362 0.17068867 0.13890383 0.1521963 -0.07582701 -0.10466352
0.061568398 -0.000995456 -0.10486938 0.08853462 -0.104347005 -0.11211617 0.026522538 0.065367594
0.15981615 -0.10855213 0.13829495 -0.0580007 0.049689163 0.060392722 -0.0050562425 -0.06751478
-0.071832545 0.12378872 -0.17111453 0.11871097 0.12406071 0.030866846 -0.017518666 -0.011252948
-0.080990426 0.03897282 0.05818282 -0.043512966 0.0047450066 0.13600922 0.02267449 0.026830282

bias_ih_l0 f4 [108]
00000000: f632 12bd eaa6 2dbe 6b54 e53d de7c fe3d
00000010: c7f7 ecbd f6f2 b73d 8489 16be b3eb aebc
00000020: 4395 2dbd 34ee 8dbd 3384 c33d a93b 79bd
00000030: 666e c23d 05dd 14be d8c3 cb3d 9e15 dabd
00000040: b91c 02be 6a1e a23d 719a 15be d571 8d3d
00000050: 58a4 0b3e 4f0b 2f3e 6656 92bd af0f 43bd
00000060: 51c8 313e 7d01 dabc af72 1ebc 470d d93d
00000070: fac2 dfbc 875e 523c 5e26 e53c cbc4 d8bd
00000080: 5f82 203e 0aaa 203e 1a50 223c 6a85 273d
00000090: b60c 8abe b491 03be b780 cd3c af50 81be
000000a0: 7116 f53d 1d51 363c 7b20 a9bd d5e7 6d3d
000000b0: d590 7bbe 9d62 16be a2ff 02be c9b3 81bd
000000c0: b7b1 76bc 2fbf c7bd da5d 7f3d 936a 473e
000000d0: 611e f33d 3d80 0c3d 6273 033e 908d 07be
000000e0: fdc8 49be 1086 ef3b 33c6 6ebe bdf9 673d
000000f0: ea86 dbbd 4707 6bbd 24b0 10bd 3c0d e0bd
00000100: 1a85 83be a0b1 16be 6a93 43bd dfd2 99bc
00000110: 04e9 a73c 3ab6 31bc 07e7 4fbd d484 5fbe
00000120: edc5 28be 1795 30be ef08 0d3d e03b 18bd
00000130: 45d1 81bd a92b d33b 2715 c1bd c883 16be
00000140: ca75 babd 2ee9 15be a84d fb3d 8b2c 08be
00000150: 813b a73d e9ab b8bd a87c 8b3c 279f 4e3d
00000160: 45b5 1f3e 18c4 7b3d 038a f7bc 8884 f8bd
00000170: b8ab b53c 8f3c c63b d80a 1d3e 0547 c43d
00000180: 7aee f23c 4057 95bc 6a6a 19be 336c 173d
00000190: eb26 f63d 1ee9 93bd c390 f8bd c677 9ebd
000001a0: ef2d 9bbd 286b 3a3e 36fd 9dbd 00b4 bcbd
-0.03569313 -0.16958204 0.11197742 0.1242616 -0.11570697 0.08981888 -0.14700896 -0.021352625
-0.042378675 -0.06930199 0.095466994 -0.060847912 0.09493713 -0.14537437 0.099494636 -0.106486544
-0.1270627 0.07915957 -0.14609696 0.06906477 0.13636911 0.17094158 -0.071453854 -0.04762238
0.17361571 -0.026612038 -0.009670897 0.105982356 -0.027314652 0.01283992 0.027972396 -0.1058441
0.15674733 0.15689865 0.009906793 0.040898718 -0.26962823 -0.1284855 0.02508579 -0.2525687
0.11967171 0.011127737 -0.08258148 0.05808242 -0.24566968 -0.14686055 -0.12792829 -0.063331194
-0.015057019 -0.09753262 0.062345363 0.19474249 0.11871029 0.034301985 0.12836984 -0.13237596
-0.19705577 0.0073096827 -0.23317795 0.056634653 -0.10719092 -0.057379987 -0.03532423 -0.10940024
-0.25687486 -0.14716196 -0.047748007 -0.018777309 0.020496853 -0.010846669 -0.050757434 -0.21828014
-0.16481753 -0.17244373 0.034432348 -0.037166476 -0.06338743 0.0064444137 -0.094278626 -0.14698708
-0.09104498 -0.14639732 0.12270671 -0.13298242 0.08165646 -0.09017164 0.017027214 0.05044475
0.15596493 0.061466306 -0.030217176 -0.12134653 0.022176608 0.0060496996 0.15336168 0.095838584
0.02965473 -0.01823008 -0.14982 0.03696842 0.12019142 -0.07222198 -0.12136986 -0.07737689
-0.075771205 0.1820494 -0.07714312 -0.0921402

bias_hh_l0 f4 [108]
00000000: dd8e dfbd 30c5 573c 95cc debd 2a5a 013e
00000010: 0b17 003e 5044 a73c b0c3 143d 85f1 893d
00000020: bd60 4b3e 60de 5d3d 3ece a13d d138 a43d
00000030: 1b73 5cbd c465 29be 307e 51bc 0eb0 71bc
00000040: bb89 e0bd e203 07be 889d afbd 5666 553e
00000050: 2edc bf3d 9675 d8bd c924 3abd 4595 bd3d
00000060: af2a ddbd 5266 fd3d b699 81bc e188 5abd
00000070: 6123 c9bd f946 363b dd85 c93d eac0 643d
00000080: 52e6 873d b02e e83d de05 1d3e 1277 09be
00000090: 34d5 67be bba8 f03d 5fe4 023e ddee 60be
000000a0: ebd3 243e e6f5 a23c 9284 e23d ddbc 63bd
000000b0: 3797 23be a326 15be 6846 20be 5bcd 0ebe
000000c0: 1377 953c e8dc 413e 3e41 fb3d 70d8 ceba
000000d0: 77e6 fa3d d2e6 0fbd 9670 063e ba59 30be
000000e0: 3bb5 d6bc 2222 64be 46b8 c4bd e8a0 c4bd
000000f0: 7f4c 1e3e 65a6 0e3c a93b e0bd 7bde a13d
00000100: eb65 8b3c 44aa 13be 53ef 28bd d834 0b3e
00000110: 7075 82be 38db 83be 4ee4 7bbe fc37 a8bd
00000120: 63f0 2a3d bffe 0abe 055f a53d 969f d33d
00000130: 1c93 01be 374a 0a3e 6ed4 1d3e af24 c33a
00000140: dbec 9f3a 9df4 6dbd 97a0 c83d ed2d f0bd
00000150: b780 843c 59fe 8abc 447e bbbd eeb3 0fbe
00000160: ac4a 88bd 51fe b6bb 6a0c 093e 85f2 49be
00000170: a7e1 79bd 56af b9bd b82a a7ba 4726 d93d
00000180: b007 6abd 9a8f e73d 201b c5bd ed3e c2bd
00000190: a616 92bd 66ee ee3b 85be d7bd 167d bbbd
000001a0: 7ed3 063e 5783 d83d d4d3 1cbe 3572 143e
-0.10915921 0.013169572 -0.10878865 0.12632051 0.1250879 0.020418316 0.036319435 0.06735519
0.19861121 0.05416715 0.07900666 0.08018649 -0.05382071 -0.16542727 -0.012786433 -0.014751447
-0.1096377 -0.13185075 -0.085749686 0.2083982 0.09368168 -0.10569303 -0.045445237 0.092569865
-0.10799157 0.12373032 -0.015820365 -0.053353194 -0.09821201 0.00278133 0.098399855 0.05584804
0.06635727 0.1133703 0.1533427 -0.13424328 -0.22639924 0.11750933 0.12782429 -0.21966119
0.16096465 0.019892644 0.11060442 -0.055600036 -0.15975653 -0.1456552 -0.15651858 -0.13945524
0.018245256 0.18931925 0.12268303 -0.0015781056 0.12250989 -0.035132237 0.13128886 -0.17221728
-0.026209464 -0.22278646 -0.0960546 -0.09601003 0.15458868 0.008706664 -0.10948879 0.07903763
0.017016372 -0.1442042 -0.041243862 0.13594377 -0.25480223 -0.25753188 -0.2459881 -0.08213803
0.041733157 -0.1357374 0.08074764 0.10333173 -0.12653774 0.13504873 0.15413067 0.0014888252
0.0012201326 -0.05809461 0.09796255 -0.1172751 0.016174657 -0.016966986 -0.09154943 -0.14033481
-0.066548675 -0.005584516 0.13383642 -0.1972142 -0.061006214 -0.09066646 -0.001275382 0.10603004
-0.057136238 0.11306687 -0.09624314 -0.094846584 -0.07133226 0.007291603 -0.105343856 -0.091547176
0.13166615 0.10571926 -0.15315181 0.14496692

weight_ih_l1 f4 [108, 36]
00000000: 3962 053c 5d42 c13d 1641 15be 3fa6 01be
00000010: a509 88bd 7e5b c3bc 7cbf 38be c90c 94bd
00000020: ca38 46be bd64 b23b ff4c bdbd e2bb 013e
00000030: cea8 4fbd fe60 cbbd 873a ebbd 8eaa 03be
00000040: b860 6c3d 60d0 8d3d d3cf 3a3e 08e1 3b3d
00000050: f107 0abe 6445 abbd 5e6e 17be d4c2 983a
00000060: f92d 31be 1833 94bd bd6e 2ebe 1be8 94bd
00000070: 42b7 bebd 87a1 d8bd 9182 71bd 4da3 dabd
00000080: fdab 9d3d 9e3c 35be 0f3f 0c3e 11e0 293e
00000090: bd14 82bd e140 e13d f09c 7a3d 0b3d de3d
000000a0: aa13 413e 2aa0 033d d4b2 2ebd 21a0 81bb
000000b0: a385 52be 2688 453d 0daf 063e a1eb 193e
000000c0: 1879 27be a2ce 87bc 6ca1 25be 0522 083e
000000d0: 6529 2d3e bcea 593c 38a3 97bd 5f16 86bd
000000e0: 3431 0cbd ba5e b63d 332a ae3d 1f45 403e
000000f0: b09a a63d 7c24 013d 52a1 003e b0c0 65be
00000100: f0d1 d03d f7ba 73bc 1f19 c03b 94f7 be3d
00000110: 3628 ee3d b8a6 703e 5305 14bd 6b33 713d
00000120: 1a1f 6cbe 59df a8bd 0801 45be b800 03bd
00000130: 1de4 9f3d a711 cabc 08ff 873d 6262 71be
00000140: eba8 7a3d 4330 19be 42e6 db3c d70e 363e
00000150: dfe4 23be 1712 98bd 51ed 53be aaaf 713e
00000160: 1a7f 0e3e 47a6 adbd d460 9c3d 522a 343e
00000170: b213 ee3d 95f2 063e 6929 24be ef11 b1bd
00000180: 15e6 f13d b80c 8e3c e7b5 4a3d 27f9 0f3d
00000190: 2f5d a1bb 7555 d9bd 8909 acbd dfff 823b
000001a0: 40b1 76be 3b86 573c 56bf 3f3e d180 a5bd
000001b0: 681d 993d 820c f9bd 9e89 e8bd 3dc9 953c
000001c0: 56d8 1a3e 63b3 0dbe 4b67 48be 72d2 85bd
000001d0: 3ed7 cb3d 7add ff3d 7008 17be 7bf6 f4bd
000001e0: f342 0fbd 06ef 983d bd37 393e 401f 20be
000001f0: 34db c5bd 5edb 86bd cf0a d1bd 4811 2cbe
00000200: 399a 003b bcf0 a13d 25ab 13bd 03e2 143e
00000210: b7bb 8d3c 956d 1f3e 3a02 78bd 3ec2 5fbc
00000220: 350b 8ebd 5b58 92bc d7f4 44be 215a 7e3d
00000230: 7158 03be 8df2 3d3d 3f6e b23d 3e81 133e
00000240: b44e 083e a23c 153e 6543 a5bc d12f b7bd
00000250: 454d 8abd 23b1 ba3d dae0 cd3d 184d 13be
00000260: e864 213e 0fad a33d 7476 e33d 4e54 d0bc
00000270: e2d0 febd 3244 3fbd d024 873d 2fa8 bebd
00000280: 51c8 2b3d 7439 01be e1c1 c63d 0478 2cbe
00000290: 2800 bb3c 714d abbd cc26 923c c17a ee3d
000002a0: 1e49 793d 6c73 1d3e 586f bb3d a69a 043e
000002b0: a03b 15bc e576 6d3d 1fd2 44be f242 833c
000002c0: d598 1fbe 449d e4bb 0dd0 d93c fc16 dbbd
000002d0: 1280 52be 8d16 e9bd 0123 f1bd ea50 e8bb
000002e0: 1563 71bb f071 13be 276c 32bd fba3 d63c
000002f0: 08db 413e 27de 10bd 647f 88bd 8efc 4e3e
00000300: c1e3 ef3d 2be2 0e3e 0cc5 bb3d ae36 d63d
00000310: 1e38 8fba 2596 2fbd d3ff 1ebd f5b4 043e
00000320: bfdd 10be b738 9d3d 6d45 4cbd 3101 05be
00000330: aa59 843e cc55 e2bd f68c 92bd fe92 013e
00000340: 5bdf 13bd 700f 0e3e 5a42 0bbe 16f6 febd
00000350: 9d8b 08bd ede2 edbd 843c 38bd ff6a 9d3d
00000360: 7f27 713d 2c97 9bbd 5a1a c9bc fd3b 003e
00000370: d861 64bd 4986 0fbe fe70 8bbc c7c6 c73d
00000380: da04 7f3c 48d1 11be f4fa e8bd 11d4 2a3e
00000390: e3d5 753c 5f0f 3b3d b5d6 c53d b3ba 76bc
000003a0: d264 7abd 7cf6 f3bc 76b8 873d c481 563d
000003b0: dbca 97bd 6492 f5bd 5f63 623d 74a2 093a
000003c0: 76be 8b3d 3004 abbd c474 2339 16ad 003e
000003d0: b632 81bc c5ea acbd f3cb 65bd fb7e 213c
000003e0: ee44 163e c2dd 2ebe 0cd1 2dbb ff1f 61bd
000003f0: b5cc 193e 0f2e ce3d 338a 55bd 84f6 963d
0.008141094 0.09436486 -0.1457561 -0.12661074 -0.066424645 -0.023847338 -0.18041795 -0.07229001
-0.19357601 0.005444138 -0.092432015 0.12669328 -0.050698094 -0.09930609 -0.114857726 -0.1285803
0.057709426 0.0692451 0.18243341 0.045868903 -0.13479592 -0.083628446 -0.14788195 0.0011654743
-0.17302693 -0.07236308 -0.17034431 -0.07270833 -0.093122974 -0.10577684 -0.05896241 -0.106756784
0.0769882 -0.17698905 0.1369593 0.16589381 -0.06351612 0.10998703 0.061184824 0.10851487
0.18855157 0.032135166 -0.042651013 -0.0039558564 -0.20558791 0.048225544 0.13152714 0.15031292
-0.16354787 -0.016578022 -0.16174859 0.13294227 0.16910322 0.013300594 -0.074041784 -0.06547236
-0.03422661 0.089047864 0.085041426 0.18776368 0.08134973 0.031528935 0.12561539 -0.22436786
0.101962924 -0.014876119 0.0058623697 0.093245655 0.116287634 0.23501098 -0.03613789 0.058886927
-0.2305874 -0.08245725 -0.19238675 -0.031983107 0.07807181 -0.02466662 0.0664044 -0.23572686
0.06119625 -0.14959817 0.026843194 0.17779098 -0.16005276 -0.07425325 -0.20695998 0.23602167
0.13915673 -0.084789805 0.07635656 0.17594269 0.1162485 0.13178475 -0.16031422 -0.08645999
0.11811463 0.01734005 0.04948988 0.03514972 -0.0049244384 -0.10612003 -0.08400256 0.0039977874
-0.24091053 0.013154562 0.18725333 -0.080812104 0.07476312 -0.12160589 -0.113543734 0.018284434
0.15121588 -0.13837962 -0.19570653 -0.0653428 0.099531636 0.12493415 -0.14749312 -0.11961075
-0.034975957 0.07467465 0.18087669 -0.15636921 -0.0966095 -0.0658481 -0.1020714 -0.16803467
0.0019623174 0.079072446 -0.036051888 0.14539342 0.017301423 0.15569146 -0.060549 -0.013657151
-0.06935731 -0.017864397 -0.19234024 0.062097672 -0.12826706 0.046373893 0.08712434 0.1440477
0.13311273 0.14573911 -0.020173738 -0.08944667 -0.06753019 0.091158174 0.10052653 -0.14384878
0.15761149 0.07991993 0.111065775 -0.025430825 -0.12442185 -0.046695895 0.06598818 -0.09309422
0.041939083 -0.12619573 0.09704948 -0.16842657 0.022827223 -0.0836438 0.017840765 0.11644507
0.060860746 0.15376061 0.091520965 0.12949619 -0.009108454 0.057974715 -0.1922078 0.016023133
-0.15585645 -0.0069767553 0.026588464 -0.10697743 -0.20556667 -0.11381254 -0.117742546 -0.007089724
-0.003683274 -0.14398932 -0.043560173 0.026201239 0.1893121 -0.03536811 -0.06664923 0.2021353
0.117133625 0.13953464 0.09168443 0.10459648 -0.0010926758 -0.0428678 -0.03881819 0.12959655
-0.1414709 0.07676833 -0.049870897 -0.12988736 0.25849658 -0.11051521 -0.071557924 0.1265373
-0.03610168 0.13873076 -0.1359953 -0.12449281 -0.03333627 -0.11615548 -0.044979587 0.076864235
0.058875557 -0.07597193 -0.024548698 0.12522884 -0.055757374 -0.1401607 -0.017021652 0.09754711
0.015565122 -0.1423999 -0.113759905 0.1668246 0.015004608 0.045668956 0.09660093 -0.015059161
-0.061131306 -0.029780619 0.0662698 0.052369848 -0.074117385 -0.119908124 0.05527055 0.00052503427
0.06823437 -0.08350408 0.0001558839 0.12566027 -0.015771251 -0.08443216 -0.056102704 0.009856935
0.14674732 -0.17076781 -0.0026522307 -0.054962154 0.15019496 0.10067379 -0.05213375 0.07371238

weight_hh_l1 f4 [108, 36]
00000000: a6c7 dfbd 067b c9bd cd89 273e 53f3 c7bd
00000010: 186e 94bc bb70 88b9 c9fa 14bd 28e9 5a3d
00000020: aaf9 f8bd d004 1ebd 3bcd 193e bb60 ed3c
00000030: 8de9 f33d 0ae5 f9bd 853f 883d d070 223b
00000040: 912e cfbd e7f2 dc3d c8b8 fabd b3da ce3d
00000050: ea65 de3d d248 123e 36fc 0dbe 1443 5d3d
00000060: 08ee 7dbb d77a f83d e34a 693d ab51 bb3d
00000070: 568a d03d 3ac4 39bd a5a6 5dbe c196 203d
00000080: 21fe ba3b eec1 ac3d 41cf 373e c987 443e
00000090: 6628 cb3d 4b71 433e 2c10 35bd 9441 10bd
000000a0: 7b8d 40bd 4b86 91bd 7cef 40be deee dfbd
000000b0: 9f79 db3d 1c4a 34be a3ba 74be a8cd 713d
000000c0: c989 303e fae9 d7bc ae72 9dbd 267e 283e
000000d0: 0f07 7abe 5b76 823c 12dc 5f3d b1b1 cdbd
000000e0: fb36 b73d 4f01 063d f501 86bd 3f4e 013d
000000f0: 7f41 a1bb 3856 04be 4e8b 82bd 18bc a43d
00000100: 2cc4 2dbc 70f2 05be e979 49be 1ade 173d
00000110: 556c 38be 9a87 053e 6920 84bd f495 c2bc
00000120: 6ce9 203d 1516 8ebd 5223 653e 9abd 14bd
00000130: bff8 5a3d af2f b03c ef49 813d c87a 9f3d
00000140: 1295 5ebd d3df ea3c 15e9 683d 43e5 393d
00000150: 321e 9bb9 9a73 a03d 3958 f33d 5a98 183b
00000160: a8f6 ec3d d476 80bd 628c 00be 69ed 0cbe
00000170: a3b2 4fbd ffa1 3abd c54f 5dbd dbd6 f6bd
00000180: 48aa 553e bde0 ab3d fcde 123d babf a63e
00000190: 0199 5bbe 0607 c7bd f9e4 f4bd 0ec3 70bd
000001a0: 35a6 fd3d 65dc aebd 1e1d 4e3d 9091 aa3d
000001b0: d9d9 09be 6347 46bd 199c 06be 1009 17be
000001c0: acb5 60be b7b3 34be 7ac7 31bd f833 38be
000001d0: 613d 1d3e b73c 433d 3220 f8bd c954 abbd
000001e0: 5339 10bd d3f3 d33d 475f f4bd d40d bdbc
000001f0: e162 2cbe 64ae da3d a767 003d c5e5 a4bd
00000200: 40fb 86bd 280f 063e 0928 063d 7a71 d83b
00000210: d473 a03b 0100 e33d c68d d03d 5214 b03d
00000220: c06e 513e dee9 89bd 8156 8f3d 55b1 bfbd
00000230: 314d c03d 15ba 18bd 3e9d 743d 9f7b 50bc
00000240: e172 fc3c 1951 263e 3861 a1bd dbad 5cbe
00000250: 8026 45bd 92dd 2bbe afc7 cebd 3274 a9bc
00000260: 22bd 083e 19f1 c5bd d14a 08be 2fc6 1cbd
00000270: d381 4d3e 101b 0e3d 0649 253d 467d 023d
00000280: 72c8 97bc 8f7e 4dbd 80bc d63d eae7 303d
00000290: b7ac 52bd ed41 4f3d c840 b13d 9f79 afbd
000002a0: 058e 15be 2da4 c1bd 993f 35bc 0736 2d3d
000002b0: 6b15 a9bd 342b 193e 90bb c23d 73a9 333c
000002c0: da31 e73d a7c9 453e 97e0 89bd e546 433d
000002d0: aeb1 e53d ce67 73be 841d f63d 2393 e43d
000002e0: 6fea 563e a83e 533e 7777 5abd 1b19 e73d
000002f0: 2613 a7bd 611f dabd bac5 303e a9b8 80bd
00000300: 80ab a3bc 7b8f 8a3d c2c1 b1bc 04d2 abbd
00000310: 7f39 e93d 2217 233e e56f 113d ef63 0fbe
00000320: e91f 313e 514d 1abe daaf 403d 366e 013e
00000330: 9dbc aabc a972 48bd 92ed 5b3d f4a4 973e
00000340: 4064 32be c42d 16be b19d a7bd c154 37bd
00000350: 57b2 953e c718 3f3e 504e c23d d666 7c3e
00000360: 0135 22b8 088c f03d 1495 283d eb00 8dbe
00000370: 08c5 d03c c509 dcbc 4b65 62be 0d07 30be
00000380: f484 b8bd 8d89 f0bd ec49 ec3c c779 0f3e
00000390: a912 ccbd 30f6 c5bd 1a17 313b c5f0 603d
000003a0: 498d ecbd 1bdf b2bc 63a5 843c 84fc 243d
000003b0: 3d24 a73d 5623 b83d 9c5f 1dbe a486 a43d
000003c0: dbed 2c3e 7fdb 383e 920e 2b3e 4fe9 95bc
000003d0: 7806 1c3e bd4f 013e 0bcb 31be 2e18 3f3e
000003e0: f418 3e3e 33c3 1d3e abea 903d 28a1 243e
000003f0: 5723 6d3e 19d5 f93d d4c6 ee3c 6cf3 c43d
-0.10926752 -0.09837918 0.1636116 -0.09763207 -0.018118903 -0.00026023932 -0.03637198 0.05344501
-0.12156995 -0.03857881 0.15019695 0.028976789 0.11909781 -0.12201889 0.066527404 0.002478648
-0.10116304 0.107885174 -0.122422755 0.10100307 0.10859282 0.14285591 -0.13865742 0.05401905
-0.0038746614 0.12132805 0.056956183 0.09146436 0.101826355 -0.04535315 -0.21645601 0.03920627
0.005706564 0.08435427 0.17950155 0.19192423 0.09919815 0.19086187 -0.044204876 -0.03521879
-0.047009926 -0.071056925 -0.18841356 -0.10934232 0.10716557 -0.17606395 -0.23899321 0.05903402
0.17240061 -0.026356686 -0.07687889 0.16454372 -0.24416755 0.015925577 0.054653235 -0.100436576
0.089460336 0.03271609 -0.06543342 0.031568762 -0.004921138 -0.12923515 -0.063742265 0.080436885
-0.010605853 -0.13080764 -0.19675411 0.037077047 -0.18010075 0.13040009 -0.06451494 -0.023753144
0.03928511 -0.069378056 0.22376755 -0.03631363 0.05345988 0.021507112 0.0631293 0.077870905
-0.054341383 0.02867118 0.05686291 0.045384657 -0.000295864 0.07834549 0.118820615 0.0023284168
0.115704834 -0.06272665 -0.12553552 -0.1376244 -0.05070747 -0.045564648 -0.054031152 -0.12052699
0.20865738 0.08392475 0.035857186 0.3256815 -0.21445085 -0.097181365 -0.119577356 -0.05877977
0.12385217 -0.08538131 0.050320737 0.08328545 -0.13462009 -0.048407923 -0.13145484 -0.14749551
-0.21944302 -0.17646681 -0.043403126 -0.17988575 0.15355445 0.047665324 -0.12115516 -0.08365781
-0.03521092 0.1034924 -0.11932235 -0.023077883 -0.16834594 0.106777936 0.03134885 -0.080516376
-0.06590891 0.13091719 0.032753024 0.0066053243 0.0048966203 0.11083985 0.10183291 0.08597626
0.20452404 -0.0673406 0.06998921 -0.09359995 0.09389723 -0.037286837 0.05972027 -0.012724786
0.030816497 0.16241874 -0.07879871 -0.21550696 -0.04813242 -0.16783741 -0.100966804 -0.020685289
0.13353398 -0.09665126 -0.1330979 -0.03827494 0.20069055 0.034693778 0.040352844 0.03185775
-0.018528197 -0.050169524 0.10485172 0.04318992 -0.051434245 0.05059998 0.08654934 -0.08568119
-0.14604957 -0.09455142 -0.011062526 0.042287853 -0.08256038 0.14957887 0.09508431 0.010965693
0.11288805 0.19315206 -0.0673229 0.047675032 0.1121553 -0.23770067 0.120173484 0.111608766
0.20987867 0.2062937 -0.053336587 0.11284085 -0.08157949 -0.10650516 0.17262927 -0.06285221
-0.019979239 0.06765648 -0.021698836 -0.08389667 0.1138792 0.15926793 0.0355071 -0.14002965
0.17297329 -0.15068556 0.047042705 0.12639698 -0.020841891 -0.048937473 0.05369336 0.29618037
-0.17421055 -0.14665896 -0.08184374 -0.044758562 0.29237625 0.18661796 0.09487593 0.24648604
-3.8673174e-05 0.11745459 0.041157797 -0.27539763 0.025484577 -0.026860127 -0.22108953 -0.1719019
-0.09009734 -0.11744986 0.028843842 0.14011298 -0.09964497 -0.09666097 0.0027021826 0.054917116
-0.115503855 -0.0218349 0.016192144 0.04027988 0.08161209 0.08991115 -0.15368503 0.08033493
0.1688761 0.18052481 0.16704777 -0.018299727 0.15236843 0.12628074 -0.17362611 0.18661568
0.18564206 0.15406494 0.07076009 0.16077101 0.23158012 0.12198848 0.029147543 0.096167415

bias_ih_l1 f4 [108]
00000000: 5d1b 413d 2014 9e3d 9daf 7f3d e76a ff3d
00000010: ae44 803d c5a4 79bd 9b83 90bd acda 1e3d
00000020: fe75 8a3d 83c0 28be 68c2 a73d 9ad1 163d
00000030: 2e47 403d 81d0 5f3d 081b b1bd e5fb 0dbe
00000040: 174b 13be afb7 debd 1258 0dbc 22e9 843d
00000050: 6f16 05be 1451 53bc 7fcb e5bd d2b7 10be
00000060: d6f2 d8bd 7f32 f5bd 49c6 3ebe 6ea1 153d
00000070: b1dd 10bd 4b58 023e 053e c5bd 36eb 763d
00000080: 8c51 30be f053 98bd e40f ec3d 52bf 0d3e
00000090: fba3 9dbe 4006 85bd dcba babd 11f4 adbd
000000a0: 4daf babe a59d a13c f804 8fbd 14a1 20be
000000b0: fb84 873d 5fe0 133d 89ea 8ebe f72a 59be
000000c0: 4913 70be 284c 3fbe afaf 81be bd1d 2fbe
000000d0: 2b30 bdbd 162d 50be 0d3a 45be caf1 47be
000000e0: 39b1 38be 5bc2 85bd 384c 9cbe f175 a8bd
000000f0: b038 b6bd ab4f 7f3d 90a4 09be 5531 1d3e
00000100: 3070 a4be e096 d4bd f859 323d a235 9abd
00000110: 5a80 8bbd 86c4 f2bd e429 193d 5f00 a4bd
00000120: f78d b9bd df5f 73bd 385f 173d a3ab ee3d
00000130: 625a c43c 9bf7 6fbb 80ba b23d 2cd9 9c3d
00000140: 4f9d 083e a4d6 e7bb 56ca 5abd 5f5d 9e3c
00000150: 07d9 03be 1876 23bd 199f 433d 38cf 133e
00000160: 76b9 b9bd e446 16bd 11f7 d6bd d372 87bd
00000170: 4da3 0cbe b0db 083e c7ab e9bd c90b 42bd
00000180: b71d f7bd cf27 ce3c 5ab0 67bd e85c fdbc
00000190: dfd2 e03c ce10 5c3c d9d0 643c 2234 c53c
000001a0: 5253 89bd 5e16 febd ec8e 213e c621 e2bc
0.047145236 0.07718682 0.062423337 0.12471562 0.062630996 -0.060948152 -0.07056352 0.03878276
0.067607865 -0.16479687 0.08191377 0.036820985 0.046942882 0.054642204 -0.08647734 -0.13865621
-0.14384113 -0.108748786 -0.008626955 0.06489779 -0.12996839 -0.0128977485 -0.112204544 -0.14132622
-0.10593192 -0.11972522 -0.18630327 0.036530904 -0.03536767 0.12728994 -0.0963097 0.06028291
-0.17218608 -0.07437885 0.115264684 0.13842514 -0.3078917 -0.06495333 -0.09117672 -0.084938176
-0.3646187 0.019728491 -0.069833696 -0.15686446 0.06617161 0.03610265 -0.2791331 -0.21207796
-0.23444857 -0.18681395 -0.25329348 -0.17101188 -0.09237703 -0.20329699 -0.19260426 -0.19525829
-0.18036355 -0.06531211 -0.305269 -0.082256205 -0.08897531 0.062331837 -0.13441682 0.1535085
-0.32116842 -0.103803396 0.043542832 -0.07529761 -0.068115905 -0.1185389 0.037393466 -0.08007883
-0.09060281 -0.0594176 0.036956042 0.11653831 0.02396888 -0.003661609 0.08726978 0.0765861
0.13341258 -0.0070751477 -0.05341562 0.019331632 -0.12875758 -0.039907545 0.04775915 0.14434516
-0.09068577 -0.0366887 -0.10496343 -0.06613698 -0.1373417 0.13365054 -0.11409717 -0.04737452
-0.120662145 0.025165467 -0.056564666 -0.03092809 0.027444301 0.013431741 0.013965809 0.02407271
-0.06705345 -0.1240661 0.15777177 -0.027603995

bias_hh_l1 f4 [108]
00000000: d2c3 3fbe ece0 06be c5e1 87bd b71d 96bd
00000010: c2a4 20be 4b50 7f3c bff2 cdbd 660c 833d
00000020: e58e 363d 8ae5 07be de9d 793d a322 55be
00000030: f020 e9bd 37df 363d 7ac2 723d ca1b bfbd
00000040: 45a5 f73d 8191 70bc 4cab d73c a4fd d3bd
00000050: 240e a2bd 5e01 183c 0ef0 c23c 885d 233d
00000060: 062a ca3d 3452 933d 8cf6 38be 2a7b 003e
00000070: 921a 62be c822 9d3d 7c69 9abd dc91 dbbd
00000080: 0901 c13d d60e 263a 5941 59bd 002a af3d
00000090: 7b27 81be acdc cbbd 67a2 5cbe 0c86 213e
000000a0: 1007 55be 7864 febd 6bc6 95bd 3fea 8cbd
000000b0: 011a 983d 0d10 8d3d 7457 98be fcb5 eabd
000000c0: 30a7 3ebe 5b25 14bd b6e9 88bd ae24 443d
000000d0: 084c 90be a915 6abd d848 4d3d 915f 1ebe
000000e0: 966d d33c d4bb 14be 910a 1abe 9173 573c
000000f0: 137e 15be 8877 37be d30a 963d 3783 fa3d
00000100: 9a32 85bd d09f 023e 792f dcbd 14c9 c03c
00000110: b849 fbbb a438 09be 2eef 28bc e49f 5bbe
00000120: 8748 df3d b352 0bbe 60ff 8ebd 2c19 a43b
00000130: 5a77 e33c 0d6f 01be 689a 1bbe 3953 f83c
00000140: 8309 cfbd 4d3f 0f3d ad6b 2fbd 098c d5bd
00000150: 9e62 313e 6131 f93c 0b6d 0bbe 3d33 14be
00000160: c8b3 91bd 178e f6bd a64b be3d 7287 9abb
00000170: ce48 2fbe 8d0b 333c 1b91 57bd 3256 43bd
00000180: 1700 15ba 72e6 6d3d 8c7b a63d 2355 0bbe
00000190: fb47 adbd ddf1 cebd 4e70 5c3d ff9f f43c
000001a0: 8592 2fbe 8975 e7bc 2e2e cf3d 508c f2bc
-0.18727043 -0.13171738 -0.06634859 -0.073298864 -0.1568785 0.015583108 -0.10056066 0.06398849
0.04456987 -0.13271156 0.06094157 -0.20813994 -0.113832355 0.044646468 0.0592675 -0.09331472
0.120920695 -0.014683128 0.026326798 -0.103511125 -0.07912853 0.00927767 0.023796108 0.03988412
0.098712966 0.071934134 -0.180628 0.12546983 -0.22080448 0.076726496 -0.07539651 -0.1072118
0.094240256 0.0006334608 -0.053040836 0.08552933 -0.25225434 -0.09954199 -0.21546327 0.15773791
-0.20803475 -0.12421507 -0.07313236 -0.068806164 0.07426835 0.06887827 -0.2975422 -0.11460492
-0.18618464 -0.036168437 -0.06685202 0.047886543 -0.28183007 -0.057149563 0.050118297 -0.15466143
0.02580909 -0.14524776 -0.15043093 0.013150112 -0.14598875 -0.17916691 0.07326283 0.122320585
-0.06503792 0.12756276 -0.10751242 0.023533382 -0.0076687 -0.13400513 -0.010310931 -0.21447712
0.10902505 -0.13605766 -0.06982303 0.0050078835 0.027766872 -0.12640019 -0.1519562 0.030313121
-0.10109236 0.034972478 -0.042827297 -0.104271 0.17322776 0.030419054 -0.13615815 -0.14472671
-0.07114369 -0.1203882 0.092917725 -0.0047158534 -0.17117617 0.010928047 -0.052628618 -0.047689624
-0.00056839123 0.058081098 0.081290334 -0.13606696 -0.08460995 -0.101047255 0.05381804 0.029861448
-0.17145737 -0.028254287 0.1011623 -0.029607922

weight_ih_l2 f4 [108, 36]
00000000: 9fcf 09be f182 f0bd c291 d3bd fd63 713a
00000010: a36d d63d eb16 01be e759 e63d 6494 8c3d
00000020: d03e 073e 7691 40be 76f0 4abd 9807 9e3d
00000030: 109f 033e 09ff 203e ee12 9f3d a458 533a
00000040: 336c 0abd f933 71bd 21b6 e7bd c61a d6bc
00000050: 652f b53d 661d 543d d968 663c 1305 e6bc
00000060: 828e 05be 62b1 ce3d 66bd 013e 3894 9ebd
00000070: 7b8a 273e a49a a5bd 635d 0fbe c0bd d7bd
00000080: 9e06 933d d44e 643d a237 853d fee4 92bc
00000090: 6e3e 7fbd dd02 243c a30d 7a3d 793e 9dbd
000000a0: c470 5dbd 5b94 97bd 9bf3 253e e6d7 fcbd
000000b0: 62c5 e73d c5ed 04be 1b12 893e d15d 253e
000000c0: 7fbb 213e 7a5a 6abd 3bf8 ff3d f494 a4bd
000000d0: 53e2 a33d 9068 9e3d 264f 77be 58f7 41bd
000000e0: cc4e 12be 20e1 c0bd 424f 823d 496c 93bd
000000f0: 0c0f a2bd 2c24 6e3e 9f21 b2bd 2b9d dcbc
00000100: df6d d3ba 5638 0cbe 2017 283d 740e d9bd
00000110: d5e6 4d3e a880 14be 91e3 f23d f68b a03e
00000120: 9979 873d ca36 d93d 7b99 46be 418f 823e
00000130: 0936 03bc c497 ee3d 01c2 cd3c c474 1abe
00000140: 9cb4 cc3d dbea 0dbe 707e d1bd b450 51bd
00000150: 9e8d 22be 745b 913d ed1e 203e 06f9 9a3d
00000160: af66 5fbe 15b0 273d 3f3c a43d 3604 e73d
00000170: 4a76 aabd 296d d2bd ae36 353d 15fc 08be
00000180: 156d 10be 1fb3 68be c8dc 07bd c822 f93c
00000190: a05e cc3d a5c1 8c3d 5d3d 903d 14fa 19bd
000001a0: 8630 68be 7df3 bbbd f54b 75bc 7fdf 0fbe
000001b0: c3a5 5dbc 1036 87bd 3174 a83d 57b5 513e
000001c0: 73bc 8fbd f444 79bd ea63 2b3d b204 57be
000001d0: ccff 1abe 865b bd3d 35dd 4ebe ef67 c9bd
000001e0: 6d09 ecbd a41f 303d 29f3 c93b 3418 fabc
000001f0: 04bc 41bd 30e6 c33d 9bee a13c 1cd1 94bb
00000200: 7f2b b1bd 8687 043d 059c 863d af74 343e
00000210: d135 db3d 8a04 10be 5172 5e3d 987a 39be
00000220: 6bc7 eabb e9e3 143e 12a1 f43d d2cb 733d
00000230: 64a2 92be afc5 6e3d 8ab2 05be 5f82 86bd
00000240: dfd3 123e 51a5 e83b b143 4a3d e920 d23d
00000250: 1933 ce3d 870e 63bd 44b6 bbbd 1f91 583d
00000260: 861b 16be db32 c23d ff54 763c 24a6 0d3e
00000270: ba11 f0bd e8db 14be 3da1 813d 06f6 dabd
00000280: 597a bdbd 1f5c d33d 0b22 a93d 49d8 93bd
00000290: 6143 0dbe 6f90 16be ba62 723d 5c98 abbd
000002a0: 1545 73bd df61 e2bd a1d7 4d3d b672 263d
000002b0: b6ef 123c f72e 2fbd 54f4 46bc b334 fbbb
000002c0: 9455 4c3d eeec 9abd d244 f9bc 4c07 fd3c
000002d0: 3df9 f93c 459a 793c 14a5 03be 4fc3 56bd
000002e0: 6127 c7bd 973e 223d 019e c7bd c7ca c1bd
000002f0: 6dc5 223b 01b7 fe3d 88fd 06bb da0b 233e
00000300: 5428 e1bd fa6e 1bbe 4577 d1bd 215e dcbd
00000310: 64eb 2b3d 1ca8 f93d 1d6a 083d 0e3d 07be
00000320: d3d0 0bbe 06f6 01be f012 cd3d 4a29 e93d
00000330: 8633 3b3d a35c 07be 59fe 6fbd bdf5 60be
00000340: 4c96 313e bcd7 123e 0b15 01bd fe20 60bd
00000350: 9e8e 52be 0b7b 1c3d 91b9 ef3d 17f4 d7bd
00000360: 01ac f4bd 9188 0b3d 9eb3 f7bd e405 a93d
00000370: 6446 afbb 794c 9b3d afd3 3f3e b3e2 04be
00000380: 5ee4 533d 1565 31bc 6f89 133e 8487 95bd
00000390: aeeb e0bd 603d 7b3c 236e 113e a5a5 483d
000003a0: 4080 f9bd 9618 96bd 4989 17be 0cff f83b
000003b0: 4827 4e3d ce39 11be f3a6 ae3d 8028 673c
000003c0: 9146 193e cc0a c5bd 0792 1d3e 839c 08bd
000003d0: 377f 99bc 24fc 113d de01 bbbc 9862 a33d
000003e0: ba7a f3bd 0c5b 4cbd 324c 093e 647d e03b
000003f0: dadb 823d 92fe 813d d880 3ebc 6a48 d2bd
-0.13458107 -0.11743725 -0.103305355 0.000920832 0.1047013 -0.12606399 0.11247616 0.06864241
0.13207555 -0.18805489 -0.049545728 0.07716292 0.12853646 0.15722288 0.077672824 0.000806222
-0.033794593 -0.058887456 -0.11314035 -0.026135813 0.088469304 0.05178585 0.014063084 -0.028078591
-0.13042644 0.10092427 0.12669906 -0.07743114 0.1636142 -0.08086136 -0.14000468 -0.10534239
0.071789965 0.05573924 0.06504752 -0.017931458 -0.062315397 0.010010448 0.06104816 -0.07677931
-0.05406262 -0.074013434 0.1620621 -0.12345867 0.11316945 -0.12981327 0.26771626 0.1614907
0.1579418 -0.05721519 0.12498518 -0.08036223 0.08002152 0.077347875 -0.24151286 -0.047355026
-0.14287871 -0.09417939 0.063627735 -0.07198388 -0.07913026 0.23255986 -0.08697819 -0.026930412
-0.0016130767 -0.13693365 0.04103768 -0.1059846 0.20107587 -0.14502203 0.11859811 0.31356782
0.0661499 0.10606153 -0.19394486 0.2549992 -0.008008488 0.11650041 0.025116922 -0.15083605
0.09995386 -0.13859122 -0.10229194 -0.051102355 -0.15874335 0.070975214 0.15636797 0.07567029
-0.21816514 0.04093941 0.080193035 0.112801 -0.08323343 -0.10274727 0.0442416 -0.13377412
-0.14104111 -0.2272458 -0.033169538 0.030412093 0.09978986 0.06872872 0.07042954 -0.03759201
-0.2267476 -0.09177301 -0.014971723 -0.140501 -0.01352829 -0.066021085 0.08225287 0.20479332
-0.07018366 -0.060856774 0.041843332 -0.20997885 -0.15136641 0.09245972 -0.20201571 -0.09834277
-0.11525235 0.042998925 0.00616302 -0.03052912 -0.047298446 0.09565389 0.019767096 -0.0045415293
-0.08650874 0.032355808 0.06572727 0.17622636 0.10703624 -0.14064232 0.05430824 -0.18113172
-0.0071648858 0.14540066 0.11944784 0.05952055 -0.2863952 0.058293995 -0.13056388 -0.06567835
0.14338635 0.0070997854 0.04938096 0.10260183 0.1006834 -0.055433776 -0.09165624 0.052872773
-0.14658937 0.09482356 0.015034913 0.13832909 -0.11722131 -0.14537013 0.06329582 -0.106914565
-0.092518516 0.10320305 0.08258446 -0.072189875 -0.13795234 -0.14703535 0.059176184 -0.083786696
-0.059392054 -0.11053824 0.050254468 0.04063674 0.008968284 -0.0427694 -0.012143213 -0.0076661943
0.0498863 -0.07564722 -0.030428324 0.030887268 0.030514354 0.015234535 -0.12855941 -0.052432355
-0.09724308 0.03961047 -0.09746934 -0.09462505 0.0024836913 0.12437249 -0.0020597894 0.1592249
-0.1099402 -0.15179053 -0.10227827 -0.10760141 0.041972533 0.121902674 0.033304323 -0.13206884
-0.13653879 -0.12691507 0.10013378 0.113848284 0.045703433 -0.13218932 -0.058592174 -0.21968742
0.1734249 0.14340109 -0.03151421 -0.054718964 -0.20562217 0.03820328 0.11705316 -0.10544603
-0.1194687 0.034065787 -0.12094806 0.08253077 -0.0053489674 0.075829454 0.18733095 -0.12977104
0.05173146 -0.0108273225 0.14407896 -0.07301238 -0.10982452 0.015334457 0.1420217 0.048986096
-0.12182665 -0.07328908 -0.14798464 0.0075987633 0.05033043 -0.14182207 0.08527937 0.014108777
0.14968325 -0.096212 0.15387736 -0.033352386 -0.018737419 0.03564085 -0.022828039 0.0797779
-0.118886426 -0.049891517 0.13407972 0.006850885 0.063895896 0.063473836 -0.011627398 -0.10267718

weight_hh_l2 f4 [108, 36]
00000000: a8a3 3ebd 6dd7 95bb 1f5d 163e 02d9 1fbe
00000010: f363 f73d 6629 c2bc df5f 853c b821 4cbe
00000020: a80d 35bc 098d 813d caaa 2cbe f9b2 003e
00000030: 39c4 26be 04f2 48be 2d92 d03d bd5b 9d3d
00000040: be68 8f3d 8f32 fe3d 3d06 cb3c 786a 523d
00000050: 72d5 f73d 0aa4 e33c 3522 86bd bfde bbbd
00000060: 752a c4bd c040 d7bd 5045 e8bc 4f73 18be
00000070: ef4f 7dbd 943e ddbc d02a 293d 7999 2b3e
00000080: 1edc 44ba ed1b 753d 8534 99bd b56d 253c
00000090: 2995 e8bd 1432 81bd 6911 1ebe d7ea aebc
000000a0: f75b c2be 9797 e13d e655 76bd 3150 9e3d
000000b0: a589 e13c f37a d4bd 848a 1c3e fd8b 9bbe
000000c0: fe0c afbc 43b0 cc3d 9705 56bd dde1 0fbd
000000d0: f2d1 cdbd f3f7 c1bd c9dd 453e 33b9 083e
000000e0: 8a5f 61bd f64c da3c fbd0 11be 288c 4dbd
000000f0: b77d d2bd 0eff 59be da02 583d 0159 97bd
00000100: f086 063e f7f4 84bc 1d7f 29be 4680 a73c
00000110: 0d16 1dbe e896 e13d 7489 3b3d a197 ad3d
00000120: 299d 573d be24 a4bb 450c d4bc 49cd fe3d
00000130: 72e1 0c3d 18a4 44be f61b 0cbe 5ab2 493d
00000140: 6cca 22be 0ed1 cebd f486 043e b490 9fbd
00000150: ce75 9ebd ab13 73bd 722b e73c 682b 87bd
00000160: f57b 663c 597d c8bd ee44 28be 3de7 e739
00000170: 861e 0b3e 2890 803d d7f2 f63d 74ea 2cbb
00000180: 6e4d 1bbe e9cc a3bd b67a 4c3d b8f9 4ebe
00000190: 4875 be3d 2e7c 4bbc dfe5 4f3e f61d 4ebd
000001a0: 2a51 cabd 5207 893c 0238 093e 5038 553d
000001b0: a7dc c03d cd15 c1bd 470d 033e 9eec 1f3e
000001c0: 448e 7fbd 08df abbc 8540 c7bc ffa9 fe3d
000001d0: 9727 d03a c318 2dbe c19c eeb8 18d2 d83c
000001e0: 871d 083e e0e1 e13d 6c4c ef3d 547c 423d
000001f0: 6933 f8bd 6070 b9bd 443c a8bd 1f3e 18be
00000200: dd70 953d 1069 ba3d f556 283e 3249 37be
00000210: 4d10 0bbe 5438 17be cd0f 23bd 689f 12bc
00000220: 0e40 fcbd 6231 febd 21c0 463e 010a f03d
00000230: fceb d73d 237e 8ebc 0485 793c 454b 123e
00000240: 40ba 47bd e358 b23d beaf 3b3e fc2e a93c
00000250: 57ed 5b3d 82cc 253c 940a 25bd f257 d03d
00000260: 9a02 d1bd fb37 bdbd 6db3 153e 0474 fabc
00000270: 80b1 18be 7c91 d83d 4a39 e83d b787 b1bd
00000280: ce1c fcbd cbae 82bc aed0 ccbb 496b c63d
00000290: d6b2 43bd d05b 20bd 044a 1f3e 2086 c0bd
000002a0: 1b08 b7bd ec2b 7ebd 18f7 1bbd d021 7a3d
000002b0: ce72 8ebd c3ac c53d 0ff8 5e3c b8e5 92bd
000002c0: 2865 463e 3756 eb3c bfa0 863d 16f2 0e3d
000002d0: 54c9 1bbe 515c 91bc 3706 863d 4342 133c
000002e0: 27bc 393c 21b2 f0bd 8f11 cfbc bf71 fbbd
000002f0: 41bb 1fbe 7908 c53d c26c 013e b056 4e3d
00000300: 635a dd3b b883 69be e13a 333d 5cf6 e3bd
00000310: 74b3 bc3d bb03 5e3d 517e cabd ec34 d2bd
00000320: 0cd2 e33d 1e23 febd ab2a 5b3d 3249 cb3d
00000330: e551 ebbd 7b68 ff3d 7abb ccbc 7539 63bd
00000340: bf4b 2dbe f16f 483d 5de4 1abd 8fa5 af3d
00000350: 2701 973d 6e56 023e 83a2 14bd 5433 093e
00000360: fca6 cb3d 9727 ea3c ee1d 2fbd 8f2e 9f3d
00000370: 31f6 a1bd 173a 4c3b bff4 6c3b 0932 a83d
00000380: fce2 a43b 2192 f2bd 6c63 773d a63a 7e3d
00000390: b424 013e 3beb c5bc cd39 963d f999 f3ba
000003a0: 30cf 22be c2ca ddbd ccdb 533d 99b5 c53d
000003b0: 9ad8 4ebd 780b 463e ed12 203e b0e9 1a3d
000003c0: b9b5 b6bd af81 edbd 2244 a73d 13cb 2ebd
000003d0: e0b7 07be 0411 15be e5af c23d e192 03bd
000003e0: 434d e23d ac8d c43d 27d8 203e 1cef 17be
000003f0: 0973 d13d ac46 a8bd b11b 19bc cf3c ecbd
-0.046542794 -0.0045728 0.1468396 -0.15610126 0.12079611 -0.023701381 0.016281066 -0.19934738
-0.011050619 0.063257284 -0.16862026 0.12568273 -0.1628579 -0.19623572 0.10184131 0.07683513
0.070024 0.12411987 0.024783248 0.051371068 0.12101258 0.02778818 -0.06549493 -0.09173345
-0.095784105 -0.10510397 -0.028353363 -0.14887737 -0.06184381 -0.027007379 0.041300595 0.16757764
-0.00075096067 0.059841085 -0.074807204 0.010096957 -0.11356575 -0.0630838 -0.15436329 -0.021352215
-0.3796079 0.110152416 -0.060140513 0.07730139 0.027531454 -0.10375013 0.15287215 -0.3038024
-0.0213685 0.09994557 -0.052251425 -0.03512751 -0.100498095 -0.09471121 0.19322886 0.13351898
-0.055022754 0.026648026 -0.14239876 -0.05018249 -0.102778845 -0.21288702 0.052737094 -0.07390023
0.13137412 -0.01623009 -0.16552396 0.020446908 -0.15340443 0.11015111 0.045785382 0.084761865
0.052640114 -0.005009263 -0.025884757 0.12441499 0.03439469 -0.19203222 -0.13682541 0.049242355
-0.1589753 -0.10098468 0.12942106 -0.07791272 -0.07737313 -0.05934493 0.028218959 -0.06600076
0.01406764 -0.09789533 -0.16432545 0.0004423204 0.13585863 0.062774956 0.12058037 -0.0026384862
-0.15166256 -0.07998068 0.049921714 -0.20212448 0.092997134 -0.012419743 0.20302533 -0.05032154
-0.09878762 0.016727123 0.13400272 0.052055657 0.09417086 -0.09427986 0.12798034 0.15617606
-0.062391534 -0.020980373 -0.024322757 0.12434768 0.0015880939 -0.16903977 -0.00011377922 0.026467368
0.13292514 0.1102941 0.11684498 0.04748185 -0.12119181 -0.09054637 -0.0821462 -0.14867447
0.072969176 0.0910207 0.16439421 -0.17899016 -0.13580437 -0.14767581 -0.03980999 -0.008949138
-0.12316905 -0.12411763 0.19409229 0.11720658 0.10543057 -0.017394131 0.015229467 0.14286526
-0.048761606 0.0870836 0.18328759 0.020652287 0.05369314 0.010119559 -0.04029329 0.10173024
-0.10205574 -0.09239193 0.14619227 -0.030572899 -0.14911461 0.10574624 0.11339052 -0.08668464
-0.123101816 -0.015952488 -0.0062504625 0.09688432 -0.047777973 -0.03915006 0.15555578 -0.09400582
-0.08937093 -0.062053606 -0.038077444 0.061067402 -0.06955491 0.09652092 0.013608946 -0.071727216
0.19374526 0.028727634 0.06573629 0.03489884 -0.1521352 -0.017744215 0.06544154 0.008987966
0.011336363 -0.117527254 -0.025276927 -0.12277555 -0.15598775 0.09620757 0.12639144 0.05037564
0.0067551597 -0.22804153 0.043757323 -0.11130974 0.092139155 0.054202776 -0.09887374 -0.10264
0.11124048 -0.12409042 0.05350749 0.0992607 -0.114902295 0.124711 -0.02499174 -0.055474717
-0.16923426 0.04893488 -0.03781544 0.085765 0.07373267 0.12728283 -0.036287796 0.13398486
0.09943959 0.028583331 -0.042753153 0.07772552 -0.079082854 0.0031162554 0.0036156622 0.082126684
0.0050319415 -0.11844278 0.06039755 0.06206765 0.12611657 -0.024160018 0.073352434 -0.0018585316
-0.15899348 -0.108296886 0.051723287 0.09653778 -0.050499536 0.19340312 0.1563222 0.037820518
-0.089213796 -0.11597001 0.08167292 -0.042674135 -0.13253736 -0.14557272 0.095062055 -0.032122497
0.11049893 0.09597334 0.15707456 -0.14837307 0.10227019 -0.082166046 -0.009344981 -0.11535036
