Simulations/Linear_canonical/results/exp(model_instead_of_weights)/rq-1010.pt (torch, 157547 bytes, 69 tensors)

weight_ih_l0 f4 [12, 10]
0	0x3ec2eb93	0.38070354
1	0xbe54a459	-0.20765819
2	0xbe975697	-0.2955825
3	0x8ab52943	-1.7445187e-32
4	0x3e262901	0.16226579
5	0x3dbfe634	0.0937008
6	0xbed3cfc1	-0.4136944
7	0x3db2d28b	0.08731564
8	0x3ea49819	0.3214729
9	0x3e7d16ee	0.24715778
10	0x3cbe97a5	0.02326567
11	0x3e3aa1ea	0.18225828
12	0xbef2cf62	-0.47423846
13	0x3e2f1a3b	0.1709985
14	0x3e87de37	0.26536724
15	0xbe5c9fb3	-0.21545295
16	0xbe585fb4	-0.21130258
17	0x3ead1a53	0.33809146
18	0x3e320048	0.1738292
19	0x3e2b5979	0.1673335
20	0x3e4f55b8	0.20247543
21	0xbd40f74d	-0.047110844
22	0x3e2d8300	0.16944504
23	0xbd24e2b4	-0.040255263
24	0x3e70f34f	0.23530315
25	0x3ccf9b13	0.0253425
26	0xbed8772e	-0.42278427
27	0x3ec86820	0.3914194
28	0x3e3fe409	0.18739332
29	0x3dc1f9bd	0.09471462
30	0xbe9b8afe	-0.3037948
31	0x3d805a00	0.06267166
32	0x3e886afa	0.26644117
33	0xb74d8ae5	-1.2251291e-05
34	0xbe33e1a5	-0.17566545
35	0x3e98f902	0.29877478
36	0x3e820184	0.2539178
37	0x3e34c6ee	0.1765401
38	0xbeee5d64	-0.46555626
39	0x3dce1a30	0.100635886
40	0x3e5de9b4	0.21671182
41	0xbe648e4c	-0.22319907
42	0x3eefe394	0.46853316
43	0xbe098ea8	-0.13433325
44	0x3e22fb1d	0.15916105
45	0xbd906f1b	-0.07052442
46	0x3ed78d48	0.42099977
47	0xbe914216	-0.28370732
48	0xbe6c0e4d	-0.2305233
49	0xbede3ecd	-0.43407288
50	0x3e99cc7d	0.30038825
51	0xbd3f3194	-0.04667814
52	0x3eabb04c	0.3353294
53	0x2b92ed84	1.0439848e-12
54	0xbedabb63	-0.4272109
55	0xbc733f01	-0.014846564
56	0xbef2a66a	-0.4739259
57	0x3ec2f3f5	0.3807675
58	0xbef930c1	-0.4867001
59	0x3e1ac8a1	0.15115596
60	0x3eb25278	0.34828544
61	0xbe92fc42	-0.28708082
62	0x3e4dcc36	0.20097432
63	0x1bf28441	4.0121009e-22
64	0x3e687453	0.22700624
65	0x3e4acac1	0.19803907
66	0xbcc241cc	-0.023713015
67	0x3ec1b170	0.37830687
68	0x3e09727a	0.13422576
69	0x3d6345ff	0.055486675
70	0xbd9473fa	-0.07248683
71	0x3d5027c9	0.050819192
72	0xbebb371b	-0.3656548
73	0xbe29c3ee	-0.16578647
74	0xbea98b73	-0.33114204
75	0xbed15306	-0.40883654
76	0x3dc423a3	0.0957711
77	0x3e936aca	0.2879241
78	0x3ce1f271	0.027581425
79	0x3e9759d2	0.29560715
80	0x3d55277a	0.0520396
81	0x3eb271da	0.34852487
82	0xbe869ae5	-0.2629005
83	0x3d537f6d	0.051635195
84	0x3cf01472	0.029306624
85	0xbed6a5f5	-0.4192349
86	0x3e94f3d2	0.2909227
87	0x3e66428c	0.22486323
88	0xbe7d7a0e	-0.24753591
89	0x3c627df3	0.013823974
90	0x3e364482	0.17799571
91	0xbec3ebb5	-0.38265768
92	0x3ecacfc9	0.39611652
93	0xbd113af7	-0.035456624
94	0xbeb86b61	-0.36019424
95	0xbd21ba80	-0.0394845
96	0xbe6f2bc8	-0.23356545
97	0x3e337050	0.17523313
98	0x3ebda799	0.3704193
99	0xbefa0295	-0.48830095
100	0x3eca46d9	0.39507177
101	0xbd7f85cd	-0.06238346
102	0x3ea4b413	0.32168636
103	0xbb44e0a7	-0.003004113
104	0x3e88169b	0.26579747
105	0x3e8d7dcd	0.2763504
106	0x3d5753b7	0.05257007
107	0xbec3b00d	-0.38220254
108	0x3ebd0174	0.3691517
109	0xbea60f1b	-0.324334
110	0xbe02bb78	-0.12766826
111	0xbf01308a	-0.5046469
112	0x3eca8bd0	0.39559793
113	0x3cbf0eaa	0.023322422
114	0xbf007aed	-0.5018757
115	0xbda27b0b	-0.07933625
116	0xbe4a2096	-0.19738993
117	0x3eeebde2	0.46629244
118	0x3e042b61	0.12907173
119	0x3db80ed3	0.089872025

weight_hh_l0 f4 [12, 4]
0	0x3ce9875e	0.02850693
1	0x3ea0b546	0.313883
2	0xbed99c42	-0.42502028
3	0xbe9ddc99	-0.30832365
4	0xbe8e578a	-0.27801162
5	0xbed36aa6	-0.41292304
6	0xbecc5318	-0.39907146
7	0xbe941b13	-0.28926906
8	0x3ed10f64	0.40832055
9	0xbec99f92	-0.39379555
10	0x3e8c931d	0.2745599
11	0xbedb99a9	-0.4289067
12	0xbe54015a	-0.2070364
13	0xbec13139	-0.37732866
14	0xbeeccfa8	-0.4625218
15	0xbe15aa5b	-0.14615767
16	0x3defabff	0.117027275
17	0x3ec3deca	0.38255912
18	0xbee42cdd	-0.44565478
19	0x3e6bfc22	0.230454
20	0xbe53288a	-0.20620933
21	0xbe6d3337	-0.23164068
22	0xbecf59c0	-0.4049816
23	0x3ea2dc44	0.31808674
24	0x3e73f613	0.23824339
25	0x3e96c472	0.2944675
26	0xbe8868a2	-0.26642329
27	0x3ea974cf	0.3309693
28	0xbee895da	-0.45426828
29	0x3e64bb52	0.22337082
30	0xbe262b14	-0.1622737
31	0x3e83a6d6	0.25713223
32	0x3e33d668	0.17562258
33	0x3e6d1cbb	0.23155491
34	0x3ee426b0	0.44560766
35	0xbd916594	-0.070994526
36	0xbec4425f	-0.38331887
37	0x3ef56c8c	0.47934377
38	0xbe68eaa9	-0.22745766
39	0xbdd1f910	-0.10252583
40	0xbd8a7dc9	-0.06762273
41	0x3af34c30	0.0018562134
42	0xbd8eccc9	-0.069726534
43	0xbefe33ad	-0.496488
44	0xbc80f662	-0.015742484
45	0xbed326a5	-0.4124042
46	0xbd77fd56	-0.060544334
47	0xbec4bc7f	-0.3842506

bias_ih_l0 f4 [12]
0	0x3e918793	0.28423747
1	0xbecf343a	-0.40469533
2	0xbe4a58e0	-0.19760466
3	0xbeb0e7db	-0.34551892
4	0xbd9a60f1	-0.07538021
5	0xbe0a702e	-0.13519356
6	0x3e099852	0.13437012
7	0xbd81cc13	-0.06337752
8	0xbed9b7fa	-0.42523175
9	0xbedea36f	-0.43484065
10	0xbe9ffa91	-0.31245854
11	0xbececc1d	-0.403901

bias_hh_l0 f4 [12]
0	0xbe036461	-0.1283126
1	0x3ead188a	0.33807784
2	0xbca7140c	-0.020395301
3	0xbe97eab7	-0.2967126
4	0xbed83f26	-0.42235678
5	0x3e85c724	0.26128495
6	0xbeb9e8fc	-0.36310565
7	0x3eb456f1	0.3522258
8	0x3e079c43	0.13243203
9	0x3ebaab08	0.3645861
10	0xbd5fe845	-0.05466487
11	0xbda33b9c	-0.07970354

weight_ih_l0 f4 [12, 14]
0	0x3d9feec0	0.0780921
1	0x3d40aea6	0.047041558
2	0xbe3dcf1f	-0.18536042
3	0xbe1488d4	-0.14505321
4	0x3da0fd97	0.078608684
5	0xbda1ebfb	-0.07906338
6	0x3ec65dca	0.3874343
7	0xbc2673f3	-0.01015948
8	0xbdfb6d57	-0.12276714
9	0x3ee015fb	0.4376677
10	0x3d6f271d	0.05838691
11	0x3eb9a211	0.3625646
12	0xbe2c7d58	-0.1684469
13	0xbdfe2767	-0.12409859
14	0x3e39fbeb	0.18162505
15	0xbed66c51	-0.41879514
16	0x3efb4b15	0.4908072
17	0x3ca15b5e	0.019696888
18	0xbde0755b	-0.10959884
19	0x36d7e1e8	6.4337983e-06
20	0xbe95b615	-0.2924048
21	0x3e1dec15	0.1542209
22	0xbedd3835	-0.43206945
23	0xbdbe29b1	-0.09285296
24	0xbe5cfce2	-0.21580842
25	0x3e05362c	0.13008946
26	0xbeb20280	-0.34767532
27	0xbdb5df4b	-0.088804804
28	0x3d141eac	0.036162063
29	0xbe8b94f9	-0.27262095
30	0x3ebdb2f3	0.3705059
31	0x3e3b3b44	0.18284327
32	0x3e9fc25a	0.31202966
33	0x386bce60	5.6220568e-05
34	0x3ded5290	0.11588013
35	0x3e81d569	0.25358132
36	0x3ea879e4	0.32905495
37	0x3d503669	0.05083314
38	0x3dccfabd	0.10008762
39	0xbe59606f	-0.21228193
40	0xbe1c5ac4	-0.15269
41	0x3e995942	0.2995091
42	0xbde861f6	-0.113468096
43	0xbeb2b9f9	-0.3490751
44	0xbc017272	-0.007900821
45	0x3e1880f0	0.14892936
46	0xbd88f094	-0.06686512
47	0xb4562b37	-1.9946025e-07
48	0xbef72d69	-0.48276833
49	0x3d82275a	0.06355162
50	0x3ec89a21	0.3918009
51	0x3b05de18	0.0020426568
52	0x3e8d971e	0.27654356
53	0xbca77cdd	-0.020445282
54	0x3db8bc18	0.09020251
55	0x3ef20ce4	0.4727546
56	0xbeac1c86	-0.33615512
57	0x3eeeace8	0.46616292
58	0x3ea403bd	0.32034102
59	0x3edcf580	0.43156052
60	0xbe49b8c4	-0.19699389
61	0x3e153cfb	0.14574043
62	0x3e56d2ce	0.20978853
63	0x3e0eadde	0.13933513
64	0xbec2ae35	-0.38023534
65	0x3dd50582	0.10401441
66	0x3ee105f0	0.43949842
67	0x3de116a6	0.10990648
68	0xbe0f280e	-0.13980123
69	0xbe45d00e	-0.19317648
70	0x3e834f67	0.25646517
71	0xbec8492d	-0.3911833
72	0xbe9b5ff2	-0.30346638
73	0x3e7ef7d6	0.2489923
74	0x3d3f7176	0.046739064
75	0x3185ae44	3.890621e-09
76	0xbeef5726	-0.46746176
77	0x3d6e68f6	0.058205567
78	0xbe079daf	-0.13243745
79	0xbec5d3ff	-0.38638303
80	0x3d562062	0.052276976
81	0xbd00161d	-0.03127109
82	0x3eb1b6ab	0.34709677
83	0xbbf749e5	-0.0075466507
84	0xbe3e0b6e	-0.18559048
85	0xbd2b7e7b	-0.041868668
86	0xbec865e8	-0.39140248
87	0xbcfc8184	-0.030823477
88	0x3e41e10d	0.18933506
89	0x3dce4826	0.10072355
90	0x3ec5e4e7	0.386512
91	0x3dafe254	0.085880905
92	0x3ebee53b	0.37284264
93	0xbee0ffa9	-0.43945053
94	0x3e8d202b	0.27563605
95	0x3d268a06	0.040658973
96	0xbe7f89c4	-0.24954897
97	0x3e17e3b5	0.14832957
98	0xbee10995	-0.43952623
99	0xbe8995db	-0.26872143
100	0xbd621226	-0.05519309
101	0xbed79e7f	-0.4211311
102	0xbd92c20e	-0.07165919
103	0x3d9eeea3	0.0776036
104	0x3ee3a946	0.44465083
105	0xbe75c225	-0.23999842
106	0xbebb597e	-0.36591715
107	0x3ea5a0c0	0.32349205
108	0xbec7440a	-0.38919097
109	0xbd8303c8	-0.063972056
110	0xbd891d9a	-0.06695099
111	0x3ebddd96	0.3708312
112	0xbe49993b	-0.19687359
113	0x3e9f3302	0.31093603
114	0xbc87cdfc	-0.016577713
115	0xbe729954	-0.23691303
116	0xbdc03abe	-0.09386204
117	0xb8f90d21	-0.00011875691
118	0xbde532cc	-0.11191329
119	0x3d2dbb20	0.042414784
120	0xbef36a96	-0.47542256
121	0x3e68eaf5	0.22745879
122	0x3eaacf49	0.3336127
123	0xbe51d9cd	-0.2049324
124	0x3eec6b96	0.46175832
125	0x3ed87b09	0.42281368
126	0xbef9a23d	-0.4875659
127	0xbef5d5f5	-0.480148
128	0x3ecab405	0.3959047
129	0xbe50d328	-0.2039305
130	0x3ed63b77	0.41842243
131	0xba9bb3ef	-0.0011879186
132	0xbe2c1d2c	-0.16808003
133	0xbef5fed3	-0.48045978
134	0xbe156796	-0.14590296
135	0xbe82c9bb	-0.25544533
136	0x3e803513	0.25040492
137	0x3e5fa7eb	0.218414
138	0x3d773a92	0.06035859
139	0xbdbe5879	-0.092942186
140	0x3d889eb0	0.06670892
141	0xbee6427c	-0.449726
142	0xbe9f24c9	-0.31082752
143	0xbe4c8920	-0.19974184
144	0x3e35c8e3	0.17752413
145	0xbde764fe	-0.112985596
146	0xbbb4aa7f	-0.005513489
147	0x3e1276a6	0.14303073
148	0xbe47ece3	-0.19523959
149	0x3e935f07	0.28783438
150	0x3efffb3b	0.4999636
151	0x3e60ad78	0.21941173
152	0x3e165447	0.14680587
153	0xbd81ad4b	-0.06331881
154	0xbe020f43	-0.12701134
155	0x3ea6744e	0.32510608
156	0xbdcbca49	-0.09950692
157	0xbebf3076	-0.3734166
158	0xbee9e452	-0.45682007
159	0xbe131451	-0.14363219
160	0xbec7946a	-0.38980418
161	0x3e3d0c07	0.1846162
162	0xbddedaaf	-0.10881554
163	0xbe8afaf5	-0.2714459
164	0x3c9765b6	0.018481117
165	0xbe9bbc5b	-0.3041714
166	0xbe8c0417	-0.2734687
167	0xbe13f729	-0.14449753

weight_hh_l0 f4 [12, 4]
0	0xbd1fd5b0	-0.039022148
1	0xbec4b3f4	-0.38418543
2	0x378bec35	1.6680084e-05
3	0xbd7dc52a	-0.06195561
4	0xbeeef9f8	-0.46675086
5	0x3de4a3c6	0.1116405
6	0xbafd0ebd	-0.001930676
7	0x3e864955	0.26227823
8	0xbed344c5	-0.41263404
9	0xbe569199	-0.20953979
10	0x3d836c6c	0.06417164
11	0xbe69cbc8	-0.22831643
12	0x3e4dcfba	0.20098773
13	0xbeb327ee	-0.349914
14	0x3bc1bbcb	0.0059122792
15	0x3ec539af	0.38520572
16	0xbedf6f9a	-0.43639833
17	0xbeb1c16a	-0.34717876
18	0x8032d783	-4.669086e-39
19	0x3debefc4	0.11520341
20	0x3da22a39	0.079182096
21	0x3e908b81	0.28231433
22	0x0024323f	3.324103e-39
23	0xbe59d0f6	-0.21271119
24	0x3ed3503c	0.4127215
25	0xbda748a0	-0.08168149
26	0x2dee2563	2.707407e-11
27	0xbe8d26b1	-0.27568582
28	0xbed314ab	-0.41226706
29	0x3ef705d2	0.48246628
30	0x9fcf2920	-8.7735946e-20
31	0xbe86b18d	-0.26307335
32	0x3e9072c1	0.2821255
33	0xbd2b559d	-0.041829694
34	0xbd970124	-0.073732644
35	0x3d07f5fb	0.03319357
36	0x3efe7ade	0.49703115
37	0xbedfb25f	-0.43690774
38	0x3c15d264	0.009144399
39	0xbefa0bbd	-0.4883708
40	0x3e5dffe1	0.21679641
41	0xbd3b9462	-0.045795806
42	0x3bd64773	0.006539279
43	0xbe0d7d7d	-0.13817401
44	0x3ed9003d	0.42382994
45	0xbef6b2b4	-0.48183215
46	0xbe184b9d	-0.14872594
47	0x3eac90fa	0.33704358

bias_ih_l0 f4 [12]
0	0xbe73a630	-0.23793864
1	0x3eb2dfc8	0.34936357
2	0x3d9ef7f9	0.07762141
3	0x3e9c51ff	0.30531308
4	0xbe82b6d0	-0.255301
5	0xbeb4cf06	-0.35314196
6	0x3ef57339	0.4793947
7	0x3e8d74f5	0.27628294
8	0xbef5a2c8	-0.47975755
9	0xbe978731	-0.2959533
10	0xbe5f38b9	-0.21798982
11	0xbe1cc75a	-0.15310422

bias_hh_l0 f4 [12]
0	0xbee0bf80	-0.43896103
1	0xbe1376b4	-0.1440075
2	0x3ec61056	0.38684338
3	0x3d9b8fd0	0.075957894
4	0xbea1c1f5	-0.3159329
5	0x3dea7946	0.11448912
6	0x3edf7a43	0.43647966
7	0xbdef751c	-0.11692259
8	0xbedd5864	-0.432315
9	0x3ee81b1f	0.45333192
10	0xbd617ffc	-0.055053696
11	0xbe65a59b	-0.22426455

weight_ih_l0 f4 [12, 24]
0	0x3e8f3741	0.27971843
1	0x3d1ca38e	0.038241915
2	0xbeb03766	-0.34417266
3	0x3e296ab0	0.16544604
4	0x3e83ed8a	0.25767165
5	0x3bba0af9	0.0056775776
6	0x3ec332cb	0.3812469
7	0xbd919632	-0.071087256
8	0x3ec2a303	0.38014993
9	0x3ea4f4f2	0.32218128
10	0xbd72208f	-0.05911308
11	0xbe1f2e9f	-0.15545128
12	0x3cacba7f	0.021085022
13	0xbdb06dac	-0.08614668
14	0x3cb57061	0.022148313
15	0xbee6bcca	-0.4506591
16	0xbe507865	-0.20358427
17	0xbe910ae8	-0.28328633
18	0x3d82cb6c	0.06386456
19	0xbe030bca	-0.12797466
20	0x3e70449c	0.23463672
21	0xbe7732a9	-0.24140419
22	0xbed73be3	-0.42037877
23	0x3eeb6888	0.4597819
24	0xbe3383dd	-0.1753077
25	0x3c881e0b	0.016615888
26	0x3ee2649c	0.44217384
27	0xbbe8d91c	-0.0071059596
28	0xbe7350e3	-0.23761325
29	0x3d18ef35	0.0373375
30	0xbe438033	-0.19091873
31	0x3d0c5c53	0.034267735
32	0x3d4224ba	0.047398306
33	0xbebcb618	-0.36857677
34	0x3ecb1aea	0.3966897
35	0xbe908de6	-0.2823326
36	0x3ec73e0d	0.38914528
37	0x3cd17bbb	0.025571695
38	0xbef28aaa	-0.47371417
39	0xbe263ee1	-0.16234924
40	0x3e7ba07e	0.24572942
41	0x3db854fd	0.09000585
42	0xbe00c3f6	-0.12574753
43	0x3e3f03a3	0.18653731
44	0x3e6b1b82	0.22959712
45	0xbe9b7eae	-0.30370086
46	0x3e747ae9	0.23875012
47	0xbe00d8c0	-0.12582684
48	0xbe537a7e	-0.20652196
49	0x310dfb90	2.0661197e-09
50	0x3e16a738	0.14712226
51	0xbe0d3b95	-0.1379226
52	0xbec03261	-0.37538436
53	0x3c7c8ab8	0.0154139325
54	0xbd18dfa4	-0.037322655
55	0xbc2ab3e9	-0.0104188705
56	0xbd3cf0c5	-0.046128053
57	0xbeb8e6c0	-0.36113548
58	0x3e759ea7	0.23986302
59	0xbe1220fd	-0.14270397
60	0x3efa9c19	0.48947218
61	0x3d89dc79	0.06731505
62	0xbe490fd1	-0.1963494
63	0xbe5e96ee	-0.21737263
64	0xbeb38c4a	-0.3506797
65	0xbd3ad787	-0.0456157
66	0x3ed77f1b	0.4208916
67	0xbdcb80f2	-0.09936704
68	0x3e85940f	0.26089522
69	0x3d888fac	0.06668028
70	0xbe0cc22c	-0.13745946
71	0x3e30d0f7	0.17267214
72	0x3e6a19ea	0.22861448
73	0xae1b1d2e	-3.5268836e-11
74	0x3e2ab607	0.16671
75	0x3e0c98a9	0.1373011
76	0x3e130385	0.14356811
77	0x3d45d703	0.048300754
78	0x3ead9f42	0.33910567
79	0x3d929923	0.07158115
80	0xbe9f99f2	-0.31172138
81	0x3d7053da	0.058673717
82	0x3eaa91f8	0.3331449
83	0xbd53e45f	-0.051731464
84	0x3e497f3e	0.19677445
85	0x3ede8b70	0.43465757
86	0xbe3e6bca	-0.18595806
87	0x3d281f08	0.04104522
88	0x3e1be6b2	0.15224722
89	0x3ed12100	0.4084549
90	0xbdd61a86	-0.10454278
91	0x3d484961	0.048898105
92	0x3e99aea6	0.3001606
93	0xbea18ee2	-0.31554323
94	0x3e8f0244	0.27931416
95	0x3e77f8e8	0.24216044
96	0xbec68f1f	-0.38781068
97	0x3d2dc755	0.042426426
98	0xbea72bd3	-0.32650623
99	0x3e593edb	0.21215384
100	0x3e7bad14	0.24577743
101	0x3c89ed01	0.016836645
102	0xbed15005	-0.40881363
103	0x3ecaa79c	0.39581
104	0x3edb938c	0.42886007
105	0x3dccb99d	0.099963404
106	0xbbc62bed	-0.006047717
107	0x3dd6a72d	0.10481105
108	0x3e6933fb	0.22773735
109	0xbeafc890	-0.34332705
110	0xbeb67806	-0.35638446
111	0x3ecc0dc4	0.39854252
112	0xbe8c0114	-0.27344573
113	0x3ea062e4	0.31325448
114	0x3ee3296e	0.44367546
115	0xbe9cb952	-0.30610138
116	0x3c46059b	0.012086297
117	0x3e8f88b4	0.28033984
118	0x3dea7ea3	0.11449935
119	0x3e812d2d	0.2522978
120	0x3d37e677	0.044897523
121	0xbce1b5b8	-0.02755247
122	0xbedaadb7	-0.4271066
123	0x3ec5b54f	0.3861489
124	0x3c8f1ecc	0.01747074
125	0xbcd4ccca	-0.025976557
126	0xbe6e2de7	-0.23259698
127	0x3e48d737	0.19613348
128	0xbe8f1d6e	-0.2795214
129	0xbe097b52	-0.13425949
130	0x3ec43741	0.38323405
131	0x3ec8101d	0.39074793
132	0x3ea6f6c4	0.32610142
133	0x3ee8ab76	0.45443314
134	0x3ee56dbf	0.44810292
135	0x3e9c3885	0.3051187
136	0xbecaadfa	-0.3958586
137	0x3e8f7f9a	0.2802704
138	0xbedaa6b6	-0.42705315
139	0x3ea7e365	0.32790676
140	0x3ebc77fc	0.3681029
141	0x3e2b405d	0.16723771
142	0xbefab3ce	-0.48965305
143	0x3ece8554	0.40336096
144	0x3ee15582	0.4401055
145	0x36cbc3aa	6.0726497e-06
146	0x3cd82e87	0.026389373
147	0xbd783f75	-0.060607392
148	0x3ea6dd26	0.32590598
149	0xbc720edc	-0.014774051
150	0xba0cd38a	-0.0005372098
151	0xbc8d0cb2	-0.017217968
152	0xbd75cf88	-0.06001237
153	0x3c4024a7	0.011727489
154	0x3ef03d8f	0.46921965
155	0xbeb58eef	-0.35460612
156	0x3ed8d049	0.4234641
157	0x3ed0f341	0.40810588
158	0x3e9e0335	0.30861822
159	0x3e1f67db	0.15566961
160	0x3d75588f	0.05989891
161	0xbe471660	-0.19442129
162	0x3eac5ca8	0.3366444
163	0x3e21023b	0.15723507
164	0x3dd92d08	0.10604292
165	0x3e87b833	0.2650772
166	0x3ecb2e26	0.39683646
167	0xbd8fcb90	-0.07021248
168	0xbe9264c9	-0.28592518
169	0xbd56f5a0	-0.05248034
170	0x3d2d6496	0.042332254
171	0x3eb766ea	0.35820705
172	0x3e3153fc	0.17317194
173	0x3df90eb7	0.1216101
174	0xbe0f103e	-0.1397104
175	0xbebd4b20	-0.36971378
176	0xbea05e14	-0.31321776
177	0x3ad06aca	0.0015900966
178	0xbee63189	-0.44959667
179	0xbec3e9b6	-0.38264245
180	0x3e40a517	0.18812977
181	0xbecfa117	-0.4055259
182	0xbe941aa0	-0.28926563
183	0x3ee24883	0.44195947
184	0xbe8d0edc	-0.275504
185	0xbeea918d	-0.4581417
186	0x3e2fdae0	0.17173338
187	0x3e635069	0.22198643
188	0x3da5fc45	0.08104757
189	0xbc2b0a15	-0.010439415
190	0xbeb47bcb	-0.35250697
191	0xbe816d77	-0.25278828
192	0xbd454cbc	-0.048168883
193	0xbbd5cccd	-0.0065246583
194	0x3ec755d7	0.38932678
195	0xbdff093c	-0.12452933
196	0xbe8576c6	-0.2606718
197	0xbd8f0635	-0.06983606
198	0xbebd9fad	-0.37035885
199	0x3e1c3fe7	0.15258752
200	0xbea093be	-0.31362718
201	0xbebe7346	-0.37197322
202	0xbe9dfa1f	-0.3085489
203	0x3d60111f	0.054703828
204	0xbdd2772f	-0.10276639
205	0x3e14f13e	0.14545152
206	0x3d02f6ed	0.031973768
207	0x3db6ec9c	0.089318484
208	0xbeed951f	-0.46402833
209	0x3e1f7aa3	0.15574126
210	0xbed067b8	-0.4070413
211	0xbdbfc166	-0.0936306
212	0xbd3a29c1	-0.045449976
213	0xbcfb1316	-0.03064875
214	0xbea3eee0	-0.32018185
215	0xbda55618	-0.08073062
216	0x3db5bfb3	0.08874454
217	0xbd1eba4e	-0.038751893
218	0x3e4b10d7	0.19830643
219	0x3ef9ce56	0.48790234
220	0xbe9c57e0	-0.30535793
221	0xbd1badfe	-0.03800773
222	0x3e458288	0.19288075
223	0xbeea23f5	-0.45730558
224	0xbce6bc2a	-0.028165895
225	0xbe4dd572	-0.20100954
226	0x3eb1c72c	0.3472227
227	0xbe2b5cf7	-0.16734682
228	0xbecf799f	-0.40522477
229	0xbec6d5f4	-0.38835108
230	0x3e8b9b29	0.27266815
231	0x3d98cbb3	0.074607275
232	0xbe4384aa	-0.19093576
233	0x3ecf034d	0.40432206
234	0xbe8112f2	-0.25209767
235	0x3ea3a36c	0.31960618
236	0xbeefa1e1	-0.4680319
237	0xbdc96e67	-0.09835511
238	0xbe1aae48	-0.15105546
239	0x3cb5f826	0.022213053
240	0x3e8b2fa8	0.27184796
241	0x9fb05a8c	-7.4688697e-20
242	0x3c289934	0.010290433
243	0x3eb34a9a	0.35017854
244	0xbe98b7f4	-0.29827845
245	0xbdddfd7f	-0.10839366
246	0x3eebd6cf	0.46062323
247	0x3ed009c6	0.40632457
248	0xbeb5443a	-0.35403615
249	0x3e6ff5d1	0.23433615
250	0x3ea78e76	0.32725877
251	0xbe936dca	-0.287947
252	0x3e8ded65	0.2772018
253	0xbceb7899	-0.028744029
254	0x3e41b56a	0.1891686
255	0x3ec5a1e9	0.3860009

weight_hh_l0 f4 [12, 4]
0	0xbe595629	-0.21224274
1	0xbe75e04a	-0.2401134
2	0x3ab5bbf6	0.0013865221
3	0xbe700ce8	-0.23442423
4	0x3d822b6e	0.0635594
5	0xbeb3a5ee	-0.35087532
6	0x3e9a584b	0.30145487
7	0xbe561c75	-0.20909293
8	0xbecf9cad	-0.40549222
9	0xbedc65dd	-0.43046466
10	0xbe4a02f3	-0.19727688
11	0x3d7569d7	0.05991539
12	0x3ed4cbd7	0.41561767
13	0x3ee6cc31	0.4507766
14	0x3ed91d02	0.42404944
15	0x3dedd862	0.11613537
16	0xbe0c0e0f	-0.13677238
17	0x3dbc660c	0.091991514
18	0x3ee91bc7	0.45529005
19	0xbcf964c6	-0.03044356
20	0xbeb127cf	-0.34600684
21	0x3eeef2d3	0.46669635
22	0x3eefdc60	0.4684782
23	0x3ead9332	0.33901364
24	0x3eb77a52	0.3583551
25	0xbe5b0bdc	-0.21391243
26	0x3f030f8f	0.51195616
27	0x3d7d1c0d	0.06179433
28	0xbef99c72	-0.4875217
29	0x3ece72e1	0.4032202
30	0xbd1fe961	-0.039040927
31	0x3e9d77b4	0.3075539
32	0x3dcef639	0.10105557
33	0x3e1adcee	0.1512334
34	0x3d9265c0	0.071483135
35	0xbef32ff4	-0.47497523
36	0x3e91e9ad	0.28498593
37	0xbea8ec25	-0.32992664
38	0xbdce5097	-0.10073965
39	0xbdde0090	-0.10839951
40	0xbec68fbe	-0.38781542
41	0x3efac3b8	0.48977447
42	0x3dde06ec	0.10841164
43	0xbde3a077	-0.111145906
44	0x3e9f0a20	0.31062412
45	0xbd8de418	-0.06928271
46	0x3ecafb39	0.39644793
47	0x3e1edd0d	0.15514012

bias_ih_l0 f4 [12]
0	0x3be5b186	0.007009688
1	0x3ddd318c	0.10800466
2	0xbd83a2cb	-0.06427535
3	0xbec74024	-0.38916123
4	0x3ebfe79e	0.37481397
5	0x3eac16b5	0.33611074
6	0x3e49050d	0.19630833
7	0x3ea08a5d	0.31355563
8	0xbdb4effd	-0.08834837
9	0xbeffb279	-0.4994085
10	0xbeae570f	-0.34050795
11	0xbd9ee1c2	-0.07757904

bias_hh_l0 f4 [12]
0	0xbef848f8	-0.4849317
1	0x3e4c303c	0.19940275
2	0x3e9fd6c3	0.31218538
3	0x3e9c40d8	0.30518222
4	0xbeae093d	-0.33991423
5	0x3ee682f8	0.45021796
6	0x3e2dae1f	0.16960953
7	0xbe706849	-0.23477282
8	0x3cd99061	0.026558103
9	0xbeb25f9f	-0.34838578
10	0x3e6b2cb6	0.22966275
11	0x3ec24596	0.37943715

weight f4 [4, 4]
0	0xbef5760b	-0.47941622
1	0xbb62ed13	-0.003462617
2	0x3df8f7a3	0.12156608
3	0xbea83d53	-0.32859287
4	0x3e17481d	0.14773603
5	0x3de36d18	0.11104792
6	0xb8e83920	-0.000110732624
7	0xbd67f9a3	-0.056634557
8	0xbe610623	-0.21974997
9	0xbe3ec751	-0.1863072
10	0xbec06f0e	-0.37584728
11	0xbdb7a01c	-0.08966085
12	0xbe0b5a40	-0.13608646
13	0xbef5077a	-0.47857267
14	0xbdd1095a	-0.10206862
15	0xbe68882f	-0.227082

bias f4 [4]
0	0x3d8df412	0.06931318
1	0xbdd1f64a	-0.10252054
2	0x3ecee821	0.40411475
3	0x3dd5a1b4	0.10431233

weight f4 [320, 8]
0	0xbe761d3b	-0.24034588
1	0xbe9c4d11	-0.30527547
2	0x3e1cb0ed	0.15301867
3	0xbe03777f	-0.12838553
4	0x3e9e2660	0.30888653
5	0xbdb4239e	-0.08795856
6	0x3da2ccf3	0.07949247
7	0x3e220b22	0.1582456
8	0x3dbccbb4	0.09218541
9	0xbe692ab5	-0.22770198
10	0x3e84b5e8	0.25920033
11	0xbe9b26b2	-0.3030296
12	0x3e5a88a2	0.21341184
13	0xbe3347bf	-0.17507838
14	0x3e87b468	0.26504827
15	0x3ea4a670	0.32158232
16	0xbe91ae9e	-0.28453535
17	0x3e6aee4c	0.22942466
18	0xbe5c72a5	-0.21528108
19	0x3d6c0ffe	0.05763244
20	0xbe3619de	-0.17783305
21	0xbdbd7569	-0.0925091
22	0x3e4a383d	0.19748016
23	0xbdad2f18	-0.08456248
24	0xbdd85d21	-0.10564638
25	0x3ddec5e5	0.10877589
26	0xbe91805b	-0.2841824
27	0x3dec2a2b	0.115314804
28	0x3c1f139e	0.009709267
29	0x3d0c7cbd	0.034298647
30	0x3bcf912c	0.0063344445
31	0x3e83161a	0.256028
32	0xbe211527	-0.15730725
33	0x3d92bf18	0.071653545
34	0xbe7f06ab	-0.24904887
35	0xbebaf13f	-0.3651218
36	0xbdf4a027	-0.11944609
37	0x3e7a8bbb	0.24467365
38	0x3e26828e	0.1626074
39	0xbe7bd74c	-0.24593848
40	0x3d4a0713	0.049323153
41	0xbe839799	-0.25701597
42	0x3d549403	0.051898967
43	0x3e479bb3	0.19492988
44	0x3e6743e4	0.22584492
45	0xbe980b18	-0.29695964
46	0xbe71ae38	-0.23601615
47	0xbe0ce004	-0.1375733
48	0x3d1fff15	0.039061625
49	0xbb8657cb	-0.004099821
50	0x3d1cdfa6	0.038299225
51	0xbd3448fb	-0.044014912
52	0x3d343a79	0.044001076
53	0xbd2b91a4	-0.04188694
54	0x3d685812	0.056724615
55	0x3e4e7ddf	0.20165204
56	0x3e08946f	0.13337873
57	0x3ddf190e	0.10893451
58	0x3e11f256	0.142526
59	0xbea160a2	-0.31519037
60	0xbe251233	-0.16120224
61	0x3e74f98d	0.23923321
62	0xbbda5143	-0.006662519
63	0x3e335cb6	0.17515835
64	0x3e967399	0.2938507
65	0x3e177ace	0.1479294
66	0xbe20d694	-0.15706855
67	0x3d16292f	0.03666037
68	0xbea8c064	-0.32959282
69	0xbe7f793a	-0.24948588
70	0xbe9c3f11	-0.30516866
71	0xbd7ca7cd	-0.061683465
72	0xbe440bd7	-0.19145142
73	0x3e10645b	0.14100783
74	0xbd9832ef	-0.0743159
75	0xbe9040b6	-0.2817437
76	0x3da0c0c4	0.07849267
77	0x3e5af89a	0.21383896
78	0x3e57da7f	0.21079443
79	0xbe5de38c	-0.21668833
80	0x3e3d1216	0.1846393
81	0x3e990e98	0.29893947
82	0x3e6b17d5	0.2295831
83	0xbda1d024	-0.07901028
84	0xbe0797c9	-0.13241495
85	0x3e42ab80	0.19010735
86	0xbe6687c1	-0.22512724
87	0x3d945d1c	0.07244322
88	0x3e2da44b	0.16957204
89	0x3e72726b	0.2367646
90	0xbd3e46e1	-0.046454314
91	0xbe0f61bd	-0.14002128
92	0xbd318d5b	-0.043347698
93	0xbd0dfc06	-0.034664176
94	0x3de7960b	0.11307915
95	0x3e366234	0.17810899
96	0x3e84fff1	0.25976518
97	0xbcefc25c	-0.029267482
98	0xbe52fb87	-0.20603763
99	0xb9bbd845	-0.00035828553
100	0xbe21b484	-0.15791517
101	0xbe85fd10	-0.26169634
102	0x3ea90179	0.33008936
103	0xbcad5a4e	-0.021161225
104	0xbcf795ee	-0.03022286
105	0x3227aaf9	9.759554e-09
106	0xbd84880c	-0.064712614
107	0x3ab69faf	0.0013933087
108	0xb7083ec8	-8.120849e-06
109	0x3a199320	0.000585841
110	0xa1161d16	-5.086047e-19
111	0x2cd3d7b1	6.0209272e-12
112	0xbda20180	-0.07910442
113	0xbd9dd29b	-0.077061854
114	0x3b22717b	0.0024786878
115	0xbe6d91c1	-0.23200132
116	0x3e36375a	0.17794552
117	0x3cfc9b67	0.03083582
118	0xbe8b7ea6	-0.27245063
119	0xbd9d6b23	-0.0768645
120	0xbe91da4a	-0.28486854
121	0xbe01e220	-0.12683916
122	0x3e8c5154	0.27405798
123	0x3e30fc6d	0.17283793
124	0xbdb1cc31	-0.086815245
125	0x3d98e9f4	0.07466498
126	0xbdcc5163	-0.09976461
127	0x3cfa8c6e	0.03058454
128	0x3dd77151	0.1051966
129	0x3d9c828d	0.07642088
130	0x3cae3bc2	0.02126873
131	0xbe96da7e	-0.2946357
132	0x3e9cb5b3	0.30607376
133	0xbeb09ab3	-0.34493026
134	0xbd1c2cbb	-0.038128596
135	0x3d504b99	0.050853346
136	0x3e64e921	0.22354557
137	0xbd0e929d	-0.03480779
138	0x3da3807c	0.07983491
139	0xbd03e9b2	-0.03220529
140	0xbe88eb32	-0.2674194
141	0xbdfcea5e	-0.123493895
142	0xbdb4adb5	-0.088221945
143	0xbde015f3	-0.109416865
144	0x3e5577e4	0.20846516
145	0x3e9c88c5	0.30573097
146	0xbe98c28c	-0.29835927
147	0xbe129332	-0.14313963
148	0xbd6ec6cb	-0.058295052
149	0xbbf5e26c	-0.007503798
150	0x3e5d54b5	0.21614344
151	0xbe0a806b	-0.1352555
152	0xbe4a353d	-0.19746871
153	0xbe16cf53	-0.14727525
154	0x3e107b0e	0.14109442
155	0x3e16db4f	0.14732097
156	0xbe8364c9	-0.2566283
157	0xbc4b1d61	-0.012397141
158	0x3e24323a	0.16034785
159	0xbdecd3ac	-0.11563811
160	0x3c5d8859	0.013521277
161	0xbc97c200	-0.018525124
162	0xbe35a7d5	-0.17739804
163	0xbe90ff8c	-0.28319967
164	0xbd87cae6	-0.06630497
165	0x3dd52523	0.10407474
166	0x3da63215	0.08115021
167	0xbe55b758	-0.20870721
168	0xbe40c8b0	-0.18826556
169	0xbe826ffb	-0.2547606
170	0xbe9cc53e	-0.30619234
171	0xbe036147	-0.12830077
172	0xbd4ac34b	-0.049502652
173	0x3ccf19d9	0.02528088
174	0x3e8691d6	0.2628314
175	0x3e87e9d4	0.26545584
176	0x3e718736	0.23586735
177	0x3e0bfd7f	0.1367092
178	0xbdfe6cfe	-0.12423132
179	0xbe7ad891	-0.24496676
180	0xbd96a64f	-0.073559396
181	0xbead62b9	-0.33864382
182	0xbe76d58a	-0.24104896
183	0xbe86a63a	-0.26298696
184	0x3d9b2350	0.07575095
185	0x3e1a158e	0.15047285
186	0x3e9ec494	0.31009352
187	0x3dbf8524	0.093515664
188	0x3e8d452c	0.27591836
189	0xbddb0714	-0.106947094
190	0x3e37c867	0.17947541
191	0x3e630450	0.22169614
192	0xb63b8023	-2.7939757e-06
193	0xbca01600	-0.01954174
194	0xbcc40897	-0.023929877
195	0xbd50ff98	-0.051025003
196	0xba14146a	-0.0005648794
197	0xb82a263f	-4.0566778e-05
198	0xba0d7b95	-0.00053971383
199	0x37fecf2e	3.0375635e-05
200	0xbe8af210	-0.27137804
201	0xbc009283	-0.007847431
202	0x3d96acd1	0.07357181
203	0xbd82f33a	-0.06394048
204	0x3e9ed02f	0.31018206
205	0xbe8f2d04	-0.27964032
206	0xbea407fa	-0.32037336
207	0x3d87bdc6	0.06627993
208	0xbe0a39d9	-0.1349863
209	0xbe19abcc	-0.15006942
210	0x3dfd21d9	0.123599716
211	0x3cc84700	0.024447918
212	0x3d319fe5	0.043365378
213	0x3bacdec0	0.0052755773
214	0x3c2d19c7	0.010565228
215	0x3e81c6a7	0.25346872
216	0xbe0330bc	-0.1281156
217	0x3ea3edfe	0.3201751
218	0xbea1e656	-0.31621045
219	0x3e89d643	0.2692128
220	0xbe3aa387	-0.18226443
221	0xbea66bdf	-0.32504174
222	0x3c2805b1	0.010255263
223	0xbdcf778a	-0.10130222
224	0xbe0f7169	-0.14008106
225	0x3d7699c0	0.06020522
226	0xbe94056d	-0.2891039
227	0xbe9f4c3d	-0.31112853
228	0x3e2fb63f	0.17159365
229	0xbc1a1b27	-0.009405888
230	0x3ea9cbb2	0.3316322
231	0x3dac3785	0.08409027
232	0x3e9d5c06	0.3073427
233	0xbeaad84d	-0.3336815
234	0xbca1dbd8	-0.01975815
235	0xbe1f3534	-0.15547639
236	0xbe973548	-0.29532838
237	0x3dcdba2d	0.10045276
238	0x3e40febe	0.18847176
239	0xbe35eb52	-0.17765549
240	0xbba995f3	-0.005175346
241	0x324d7c53	1.19608385e-08
242	0x9a815ffd	-5.350823e-23
243	0x3c8cbae2	0.017178956
244	0x3545f813	7.3749214e-07
245	0x3cb81d40	0.022474885
246	0x04454337	2.3188102e-36
247	0xafd0a140	-3.7949555e-10
248	0xbe5aabb9	-0.2135457
249	0x3c280e4d	0.010257316
250	0xbd46fbf1	-0.048580114
251	0x3e93d0a9	0.28870133
252	0xbe49666c	-0.19667977
253	0xbe5f4edb	-0.21807425
254	0x3e872a47	0.26399443
255	0x3ea7dc19	0.3278511

bias f4 [320]
0	0x3e88051a	0.26566392
1	0xbe32bbf2	-0.17454508
2	0xbe07fabd	-0.13279243
3	0x3d81cc59	0.06337804
4	0xbddc1868	-0.107468426
5	0x3e12de1d	0.14342542
6	0xbd38f797	-0.045157995
7	0xbd8e2ef8	-0.06942552
8	0x3ea5c362	0.32375628
9	0x3ea68f99	0.3253143
10	0x3e33dfc1	0.17565824
11	0xbdf561b4	-0.11981526
12	0xbdf0e0a0	-0.11761594
13	0xbd23c118	-0.03997907
14	0xbdcde19d	-0.10052798
15	0xbd018358	-0.0316194
16	0x3d56ebdc	0.052471027
17	0x3d5cee4d	0.0539382
18	0xbdcd12b5	-0.10013334
19	0xbe5360b7	-0.20642363
20	0x3e5808bd	0.21097083
21	0xbded7f41	-0.115965374
22	0xbe8904a8	-0.26761365
23	0x3d92d1cc	0.07168922
24	0xbd28d34c	-0.041217133
25	0xbcbeab5a	-0.023275066
26	0x3eb3cb60	0.351161
27	0xbe08b4d7	-0.13350235
28	0xbd855e0d	-0.065120794
29	0xbe1103c0	-0.14161587
30	0xb475e5f1	-2.2901055e-07
31	0xbd0cb221	-0.034349564
32	0x3ea8346c	0.32852495
33	0xbe7ad2b3	-0.24494438
34	0x3e7f2f34	0.2492035
35	0x3bd2dba6	0.0064348755
36	0xbe83ea45	-0.2576467
37	0xbdc600d2	-0.09668125
38	0x3d41c541	0.047307257
39	0xbe16d9e0	-0.1473155
40	0x3bf173e8	0.0073685534
41	0xbd69d09e	-0.05708372
42	0xbc5dd0e1	-0.01353857
43	0xbc8354e3	-0.016031688
44	0x3d18838a	0.03723482
45	0x3d94ba0b	0.072620474
46	0x3eaf6e29	0.34263733
47	0xbb980810	-0.004639633
48	0x3eb42969	0.35187843
49	0x3d8de7dc	0.06928989
50	0x3e675cf9	0.2259406
51	0x3e01d08f	0.12677215
52	0xbd7190d9	-0.058976028
53	0x3e6ec3a8	0.23316824
54	0x3e8f798a	0.28022414
55	0x3d329eeb	0.043608587
56	0x3e4e75fb	0.20162193
57	0x3e86c548	0.2632239
58	0x3ea38130	0.319345
59	0x3dcecf47	0.10098129
60	0xbcb55d76	-0.022139292
61	0x3e3b592b	0.18295734
62	0xbe2f6aba	-0.17130557
63	0x3e80dc70	0.2516818
64	0x3e89d2f2	0.2691875
65	0xbda73cde	-0.08165906
66	0x3eab2338	0.33425307
67	0x3e997ee2	0.29979616
68	0x3e06dd46	0.13170347
69	0xbdfc6416	-0.123237774
70	0xbca5c3f9	-0.020235049
71	0xbd976fcf	-0.07394373
72	0xbcbf6f7c	-0.02336859
73	0x3d66cf1c	0.05634986
74	0xbe87779b	-0.2645844
75	0x918c8efb	-2.2176224e-28
76	0x3c1e7392	0.009671109
77	0x3df82da5	0.12118081
78	0x3e4dfbec	0.20115632
79	0xbded0518	-0.11573237
80	0x3e8b9307	0.2726061
81	0xbd3d2001	-0.0461731
82	0x3ea75bff	0.32687375
83	0x3ea0c0d3	0.31397113
84	0xbd90c4ff	-0.07068824
85	0x3e4a2f4b	0.19744603
86	0xbda0ef26	-0.07858114
87	0x3d67c5cc	0.05658512
88	0xbc167994	-0.00918426
89	0xbc781f3d	-0.015144167
90	0xbb58cf34	-0.0033082487
91	0x3e30bb5d	0.17258973
92	0x3e1e3af3	0.15452175
93	0xba172124	-0.0005765131
94	0xbd4cd37c	-0.050006375
95	0x3e91f3e5	0.2850639
96	0xbe0c7daa	-0.13719812
97	0x3d5a820f	0.05334669
98	0xbd6e4a97	-0.058176603
99	0x3da5f02e	0.08102451
100	0x3e633e16	0.22191653
101	0x3e14ec35	0.14543231
102	0xb9a85165	-0.000321041
103	0xbd6a593b	-0.057214003
104	0xbce10b46	-0.027471196
105	0x3d8152a1	0.06314588
106	0x3e917390	0.2840848
107	0x3daa7ed7	0.08324974
108	0x3d79c461	0.060978297
109	0xbcaff9cc	-0.021481417
110	0x3e84f7c7	0.2597029
111	0xbe232072	-0.15930346
112	0xbdf1eb32	-0.11812438
113	0xbea0db6d	-0.3141741
114	0xbe520f59	-0.20513667
115	0x3e11a9bf	0.14224909
116	0xbd98b5e3	-0.07456567
117	0xbcbc5138	-0.022987947
118	0xbe6c731e	-0.23090789
119	0xa6f4efea	-1.699593e-15
120	0x3e8ef4bb	0.2792109
121	0xbe121eac	-0.14269513
122	0x3d82776f	0.063704364
123	0x3cc22eb3	0.023703909
124	0x3e658c8a	0.22416893
125	0x3dbbcb5d	0.09169648
126	0x3d156861	0.036476497
127	0xbea98571	-0.3310962
128	0xbc6fe796	-0.014642617
129	0x3e443e86	0.19164476
130	0x3c23eb21	0.01000479
131	0x3d80d8f7	0.06291383
132	0x3e431011	0.19049098
133	0x3e6a367b	0.22872345
134	0xbd489882	-0.048973568
135	0xbccd9d95	-0.025099555
136	0xbd66a124	-0.05630602
137	0x3c7b86f9	0.015352004
138	0xbcdb4c95	-0.026769916
139	0xbd726bd2	-0.059184857
140	0x3dbff6a0	0.09373212
141	0x3e690b04	0.22758108
142	0x3e85c0f5	0.26123777
143	0xbd389d08	-0.04507163
144	0x3e5c803c	0.21533293
145	0xa7ce7603	-5.7304434e-15
146	0x3e7eddce	0.248893
147	0xbe444572	-0.19167116
148	0x3e9bd4a4	0.3043567
149	0x3d95beee	0.073118076
150	0xbc9e807e	-0.01934838
151	0x3d78166e	0.060568266
152	0xbdadbe25	-0.08483533
153	0xbd53d6ed	-0.05171864
154	0x3e2407af	0.16018556
155	0x3e7d670a	0.24746338
156	0x3e673a46	0.22580823
157	0xbea18e3e	-0.31553835
158	0x3e87725e	0.26454443
159	0xbdc0d4c5	-0.094155826
160	0x3e90fed1	0.2831941
161	0xbc80bccd	-0.015715027
162	0xbd2868ec	-0.041115686
163	0x3e4e8f21	0.20171787
164	0x3e8476ce	0.2587189
165	0x3e0683d3	0.13136224
166	0xbe4dfab7	-0.20115171
167	0xbd0fbbbd	-0.03509115
168	0x3e5a6577	0.21327768
169	0x3eae5e27	0.34056208
170	0xbd77c8c2	-0.060494192
171	0x3c17df44	0.009269539
172	0xbe9f4290	-0.3110547
173	0xbb17a9d7	-0.0023142004
174	0x3d6102d3	0.054934334
175	0x3cdb950c	0.02680447
176	0x3e83d914	0.25751555
177	0x3e4cdaf6	0.20005402
178	0x3da85e26	0.082210824
179	0xbd127ffb	-0.035766583
180	0xbdd6cac9	-0.10487897
181	0x2d314826	1.0077305e-11
182	0xbc71e6cf	-0.014764502
183	0xbda806e1	-0.08204437
184	0xbd0d6407	-0.03451922
185	0x3e7a6280	0.24451637
186	0x3d890862	0.06691052
187	0x3d5ed6e9	0.054404173
188	0x3e9fea87	0.31233618
189	0x3e831701	0.25603488
190	0x3e8cf6cf	0.2753205
191	0xbd45bef8	-0.048277825
192	0x3e7fd761	0.24984504
193	0x3b498802	0.0030751233
194	0xbe2e1c19	-0.17002906
195	0xbc3dae94	-0.011577267
196	0xb82ee230	-4.1695486e-05
197	0xbb3a0487	-0.0028384046
198	0x3e55fbb3	0.20896797
199	0x3c954143	0.018219596
200	0x3e84ad8a	0.2591365
201	0xbbda399e	-0.0066597005
202	0x3e4fe84c	0.20303458
203	0x36a22c13	4.833107e-06
204	0xba01de1d	-0.0004954057
205	0xbd54dd3f	-0.05196881
206	0x3e8b64a8	0.27225232
207	0x3e89bf3d	0.26903716
208	0x3e94f2ff	0.2909164
209	0x3e9fd03c	0.31213558
210	0x3dda6acf	0.10664903
211	0x3e92d9c6	0.28681773
212	0x3d584669	0.052801523
213	0x3d5c775d	0.05382477
214	0xbbe8654b	-0.007092153
215	0xbda3c6bd	-0.07996891
216	0x3cfd6ad8	0.030934736
217	0xbdcfb982	-0.10142805
218	0xbccd85dc	-0.025088243
219	0xbc13c7f9	-0.009019845
220	0xbe8b51d7	-0.27210876
221	0x3cb7f52e	0.022455778
222	0xbcf1c92b	-0.02951487
223	0x3eb04a9e	0.34431928
224	0xbd68d3dd	-0.056842674
225	0x3d14bcd5	0.036312897
226	0xbcc4e414	-0.024034537
227	0x3ca9ef82	0.020744089
228	0xb7427ad6	-1.1591901e-05
229	0x3dbf8ab4	0.093526274
230	0x3d9d3ef2	0.076780215
231	0xbe5076aa	-0.20357767
232	0xbe2848b8	-0.1643399
233	0x3cf5fd13	0.030027902
234	0xbd636158	-0.055512756
235	0x3ea3252d	0.318643
236	0x3e8e73a4	0.27822602
237	0xbd941147	-0.07229858
238	0xbd86bb58	-0.06578702
239	0xbddd5d5d	-0.10808823
240	0xbd8106c1	-0.06300116
241	0x3e5ea6c6	0.21743307
242	0xbd99e57d	-0.075144745
243	0xbd01ba3c	-0.031671748
244	0x3ea6814c	0.3252052
245	0x3e9cadd3	0.30601367
246	0xbe36c01d	-0.17846723
247	0x3e489591	0.19588305
248	0xbeaadd95	-0.3337218
249	0x3de481f1	0.11157597
250	0xbda36d0f	-0.07979786
251	0xbdfb434f	-0.122686975
252	0x3e6f2dba	0.23357287
253	0xbd750562	-0.059819587
254	0x3d69d921	0.057091836
255	0xbd7af20c	-0.06126599

weight f4 [4, 320]
0	0xbcc101c1	-0.023560407
1	0xbcd2ab52	-0.025716458
2	0xbd5ac81a	-0.053413488
3	0x3d6acf74	0.05732675
4	0xbdc82d93	-0.097743176
5	0xbce41c5c	-0.027845554
6	0x3df2c56d	0.11854062
7	0xbd0a535c	-0.033770904
8	0xbbfce8bd	-0.0077181743
9	0x3d0ad701	0.03389645
10	0xbd34981b	-0.04409037
11	0x3c73fb25	0.0148914205
12	0x3bdb42ca	0.0066913115
13	0x8002c987	-2.55965e-40
14	0xbc430962	-0.0119040925
15	0xbce91c46	-0.028455865
16	0xbc977cb5	-0.018492082
17	0xbe0b666f	-0.13613294
18	0x3c9bfae4	0.019040532
19	0xbd6d21fc	-0.05789374
20	0x3bf21169	0.0073873294
21	0xbc6f74b1	-0.014615224
22	0x3a24759c	0.00062736287
23	0xbd3840c5	-0.044983644
24	0x9986db18	-1.3943767e-23
25	0xbd36055e	-0.044438712
26	0x3d277e81	0.040892128
27	0xbd0a9150	-0.033829987
28	0x3d2a293a	0.041543223
29	0xbd3b3442	-0.045704134
30	0x944ba31a	-1.0281047e-26
31	0x3bd2827a	0.0064242454
32	0x3bc88794	0.006119678
33	0xbdb9517d	-0.09048746
34	0x3d167849	0.036735807
35	0x3d30aa28	0.043131024
36	0xbce3e2c4	-0.027818091
37	0x128846c0	8.600248e-28
38	0xbd3dee44	-0.046369806
39	0xbcb89071	-0.022529813
40	0x3bf7bb8d	0.0075601996
41	0xbd2d9c10	-0.04238516
42	0x3d2aaa46	0.04166629
43	0x8030e60c	-4.490629e-39
44	0x3ddc9ae1	0.10771728
45	0xbd15f2f6	-0.03660866
46	0x3c918829	0.017765122
47	0x3d090b4e	0.033458047
48	0x3d16be6b	0.03680269
49	0xbd6e6134	-0.05819817
50	0x3c8dc0dc	0.017303877
51	0x3d46a8a3	0.04850067
52	0x00004845	2.5925e-41
53	0xbc91cebf	-0.01779878
54	0x3d6e6e3c	0.058210596
55	0xbd74aec8	-0.059736997
56	0xbd138608	-0.036016494
57	0x3c24e8ec	0.0100652985
58	0xbbdd1c11	-0.0067477305
59	0x3cdf57e2	0.027263585
60	0x332ccede	4.0235015e-08
61	0x3d77b531	0.060475532
62	0xbd9b53ab	-0.07584318
63	0xbbbd7b0d	-0.005782491
64	0xbccdbbbd	-0.025113935
65	0x3bd46ffc	0.006483076
66	0x3c8bad1e	0.017050322
67	0xbd8febf1	-0.07027424
68	0xbe2323ea	-0.15931669
69	0xbd6458de	-0.055748813
70	0xbd59a82c	-0.053138897
71	0x3cbef380	0.02330947
72	0xbd5e24fa	-0.054234482
73	0xbaedfb1b	-0.00181565
74	0xbd5cab7b	-0.053874474
75	0x00065a9b	5.83516e-40
76	0x3ca7cdc8	0.020483866
77	0xbc7bcfb8	-0.015369348
78	0xbd9d415d	-0.07678483
79	0xbd9437ae	-0.072371826
80	0x3cd507af	0.02600464
81	0x3d01658b	0.03159098
82	0xbcc31a91	-0.023816379
83	0x3d733ae9	0.059382353
84	0x3d3e92f6	0.04652687
85	0xbcd2aa7a	-0.025716055
86	0x161e5ecb	1.279305e-25
87	0xbc74a446	-0.014931744
88	0x8039015c	-5.235111e-39
89	0x0a83fa1d	1.2708923e-32
90	0xbe2784a8	-0.16359198
91	0x3b9cf324	0.004789727
92	0xbd1c83db	-0.038211685
93	0x3cddaf5e	0.02706116
94	0x3c9fa73c	0.019488923
95	0x3d13b690	0.036062777
96	0xbd2d3606	-0.04228785
97	0x3c820a53	0.015874064
98	0x3caec931	0.02133617
99	0x3d4d77b4	0.050162986
100	0xbc79b76e	-0.015241487
101	0xbd494ecc	-0.049147412
102	0x001560cd	1.963271e-39
103	0xbb5ddbcf	-0.003385294
104	0x3d61bcc6	0.05511167
105	0x3d735f32	0.059416957
106	0x3cff8e27	0.031195713
107	0xbd3cd7ee	-0.046104364
108	0xbcaebe7f	-0.02133107
109	0x801bf84c	-2.56863e-39
110	0x3ce7cd50	0.028296143
111	0xbc732fa4	-0.014842901
112	0xbbba62c4	-0.0056880433
113	0x3d74119f	0.059587117
114	0xbce30d01	-0.027716162
115	0xbd8f0375	-0.06983081
116	0x3e2281c7	0.15869819
117	0xbcb423a5	-0.021989653
118	0xbd806989	-0.06270129
119	0x9e680598	-1.22831345e-20
120	0x3c38e318	0.011284612
121	0x3bc24647	0.005928788
122	0x3d5fd5ec	0.05464737
123	0x3d5bee24	0.053693905
124	0x3c90a24e	0.017655518
125	0xbce651db	-0.028115204
126	0xbc86967b	-0.016429177
127	0x3d609183	0.05482627
128	0xbc263d8f	-0.010146513
129	0x3bbc9786	0.0057553677
130	0x3bf8f312	0.0075973356
131	0x3cf760a6	0.030197453
132	0xbcad7acf	-0.021176724
133	0x3c2f14ae	0.010686083
134	0x3d674198	0.05645904
135	0x3ce49db4	0.02790723
136	0xbb64baf5	-0.0034901474
137	0xbdd891a3	-0.10574653
138	0x1a172129	3.1252855e-23
139	0x3cc210e8	0.023689702
140	0xbc653346	-0.013989275
141	0x3cc958e1	0.024578514
142	0xbd55feaa	-0.05224482
143	0x800b6954	-1.047975e-39
144	0x3d3b9ca1	0.04580367
145	0x8a337cf0	-8.642035e-33
146	0xbb77d992	-0.003781889
147	0xbccedab6	-0.025250774
148	0x3c63275a	0.013864363
149	0x3d1b75c3	0.037954103
150	0xbcec964f	-0.028880266
151	0xbe0bc166	-0.13647994
152	0x3d190497	0.037357893
153	0x004297aa	6.11555e-39
154	0x3cb28dfc	0.021796219
155	0xbc958be0	-0.018255174
156	0x3d6fef06	0.05857756
157	0xbc8f72bf	-0.01751077
158	0x3d470d94	0.048596933
159	0xba8a6a93	-0.0010560326
160	0x3c6ff2da	0.014645303
161	0x3d02e874	0.031959966
162	0x00136374	1.780551e-39
163	0xbd2d06ab	-0.042242687
164	0xbcb07cb7	-0.021543844
165	0xbd5c76e4	-0.05382432
166	0xbd4994cf	-0.04921418
167	0x800d31d8	-1.211742e-39
168	0x3b9b0932	0.004731321
169	0x3cf85132	0.030312154
170	0x83a66120	-9.778902e-37
171	0x3d6fb880	0.058525562
172	0xbc4f7172	-0.012661325
173	0x3d5bf5f1	0.053701345
174	0xbd8b8125	-0.06811742
175	0x3c94ed73	0.01817963
176	0x3cdde343	0.027085906
177	0x3d1a84ea	0.037724413
178	0x3cf6f2fd	0.030145163
179	0x000134fa	1.1084e-40
180	0x3d422296	0.047396265
181	0x800e8083	-1.331798e-39
182	0x8020a577	-2.998093e-39
183	0x3ddfb30a	0.10922821
184	0x001327bb	1.759127e-39
185	0x3ce965f5	0.028491
186	0x3d498700	0.04920101
187	0xbdb7900a	-0.0896302
188	0xbc40eae7	-0.011774755
189	0x3ca0a21c	0.01960855
190	0x3c9195c6	0.017771613
191	0x00070a95	6.46645e-40
192	0x3c84e039	0.016220199
193	0xbdc18d7c	-0.09450814
194	0xbd959b34	-0.07304993
195	0x3b3db33f	0.002894595
196	0x801c73e1	-2.612963e-39
197	0x00127fee	1.698931e-39
198	0xbcb7b767	-0.02242632
199	0xbc18910f	-0.009311928
200	0xbd1a0987	-0.037606742
201	0x1ad5505d	8.822457e-23
202	0xbce87885	-0.02837778
203	0x9a9dcee9	-6.526796e-23
204	0x3e04a067	0.12951814
205	0x3c0c96e6	0.008580899
206	0xbcdf1807	-0.027233137
207	0x3a217634	0.0006159276
208	0x3cd9837a	0.02655195
209	0x3d00f1d4	0.031480625
210	0xbcbfacd7	-0.023397846
211	0x3d253507	0.040333774
212	0xbdf6911a	-0.12039395
213	0x3d72a866	0.05924263
214	0x8518342b	-7.1565874e-36
215	0x3d68a378	0.05679652
216	0x3d49545c	0.049152717
217	0xbd495274	-0.0491509
218	0x00399966	5.289652e-39
219	0x3d7c6b35	0.061625678
220	0xbd02c68a	-0.031927623
221	0x3d77e115	0.06051739
222	0xbdcf51e0	-0.10123038
223	0x3cfa6272	0.03056452
224	0x3c9b7aa2	0.018979374
225	0x3d942a3f	0.0723462
226	0xbba18246	-0.00492886
227	0xbd6c91b9	-0.05775616
228	0x0021cfef	3.105164e-39
229	0x3b198492	0.0023424965
230	0x3d28e248	0.041231424
231	0xbd172650	-0.036901772
232	0x3d2d4878	0.04230544
233	0x3d42f87b	0.04760025
234	0xbd023737	-0.03179094
235	0xbc382e4c	-0.011241507
236	0xbd502fa3	-0.05082668
237	0xbc73a183	-0.01487005
238	0xbc77d60d	-0.015126717
239	0x3d648317	0.05578908
240	0x1a288c98	3.4855156e-23
241	0xbd9bcafc	-0.076070756
242	0x3c8276e2	0.015925828
243	0x00375400	5.081086e-39
244	0x3d0d57e8	0.034507662
245	0xbd15cc0e	-0.036571555
246	0xbcc743fd	-0.024324412
247	0xbce217e2	-0.027599279
248	0x3d7d6f26	0.061873578
249	0xbc9842bc	-0.018586509
250	0x3d39ffe4	0.045410052
251	0xbda8aece	-0.08236466
252	0xbc09a232	-0.008400487
253	0x0006d247	6.26446e-40
254	0x3c559f40	0.013038456
255	0xbcf197c3	-0.029491311

bias f4 [4]
0	0x3d28570c	0.04109864
1	0x3d2c716d	0.04210036
2	0x3d0e07a8	0.03467527
3	0xbc10db3a	-0.00884133

weight f4 [4, 8]
0	0x3e17890e	0.14798376
1	0x3e0d2077	0.13781916
2	0x3da991b5	0.082797445
3	0x3ddeb908	0.10875136
4	0xbd959615	-0.073040165
5	0x3e0414ff	0.12898634
6	0xbe86f9cb	-0.26362452
7	0xbcbaedae	-0.022818413
8	0x3ea02866	0.31280822
9	0xbe8da15d	-0.27662173
10	0x3e8134f3	0.2523571
11	0xbe85d371	-0.2613788
12	0x3e1aa3b9	0.15101518
13	0x3e33f01c	0.17572063
14	0x3d75b870	0.059990346
15	0xbdbc13b1	-0.09183443
16	0x3eb9a091	0.36255315
17	0xbe3acbe8	-0.18241847
18	0xbdac2a28	-0.08406478
19	0x3ea806d5	0.32817712
20	0x3e210a1f	0.15726517
21	0xbe3eb7a3	-0.1862474
22	0xbe97b978	-0.2963369
23	0xbe776cd0	-0.24162602
24	0x3e2c680a	0.16836563
25	0x3b23cc8e	0.002499375
26	0xbe29fe0d	-0.16600819
27	0x3d808862	0.06276013
28	0xbe2d2d4e	-0.16911814
29	0x3e5468d0	0.20743108
30	0xbe6b03f7	-0.22950731
31	0xbce8f008	-0.028434768

bias f4 [4]
0	0x3ca2d974	0.01987908
1	0xbe6206f4	-0.22072965
2	0xbb4efafa	-0.00315827
3	0xbc35a51e	-0.01108673

weight f4 [4, 8]
0	0xbe949118	-0.29016948
1	0x3e41c06d	0.18921061
2	0xbe3c2a31	-0.1837547
3	0xbd298ca4	-0.04139389
4	0xbe83bc67	-0.25729677
5	0xbe791fc9	-0.24328531
6	0x3e78cb44	0.2429629
7	0xbe026f55	-0.12737782
8	0xbeaa22de	-0.33229727
9	0xbe35d903	-0.17758565
10	0xbe9daac5	-0.3079435
11	0xbe10cb79	-0.14140119
12	0xbde41aca	-0.11137922
13	0xbe977bc1	-0.29586604
14	0xbe93ea95	-0.2888991
15	0xbd094966	-0.033517264
16	0xaf4119b7	-1.7562383e-10
17	0x3926560c	0.00015863049
18	0xbcb44ca3	-0.0220092
19	0x3d2de42d	0.042453934
20	0x394aa11c	0.00019324239
21	0x0004b536	4.32348e-40
22	0xbb7b3c4a	-0.0038335496
23	0xb9de0675	-0.0004234795
24	0x3e83878c	0.25689352
25	0xbe76a6f6	-0.24087128
26	0x3d84a13b	0.06476065
27	0x3da79727	0.08183127
28	0xbdc6fea0	-0.097165346
29	0xbe4ac394	-0.1980117
30	0xbe429e5f	-0.19005726
31	0xbd54d750	-0.05196315

bias f4 [4]
0	0x3eb4e54e	0.35331196
1	0x3e8373d0	0.25674295
2	0xbd3b14b1	-0.04567403
3	0x3e09ceab	0.13457744

weight f4 [10, 2]
0	0x3d110ed0	0.035414517
1	0x3f0829b0	0.5318861
2	0x3dc322dd	0.09528134
3	0xbb61c2cc	-0.0034448383
4	0x3e3474a2	0.17622617
5	0xbd0b151c	-0.03395568
6	0xb5d30a06	-1.5723642e-06
7	0x2904412c	2.9366415e-14
8	0x3de7d71e	0.11320327
9	0x3de177df	0.11009192
10	0x3e45116a	0.19244924
11	0xbf1a9d44	-0.6039622
12	0x3f0fdd12	0.561967
13	0xbef85351	-0.48501065
14	0xbc6679e7	-0.01406715
15	0xbf2671bd	-0.650173
16	0x3f2068ff	0.6266021
17	0x3eb4f518	0.35343242
18	0x3f30718a	0.68923247
19	0xbee388f5	-0.44440427

bias f4 [10]
0	0x3da0444f	0.07825529
1	0xbca4c86d	-0.020115102
2	0x3e2a98b4	0.16659814
3	0xbd2d6460	-0.042332053
4	0x3e3a2eec	0.18181962
5	0xbee3e2dc	-0.44509017
6	0x3f1e2082	0.61768353
7	0x3eff3814	0.49847472
8	0x3ec2fa67	0.38081667
9	0xbedaec6a	-0.42758495

weight f4 [10, 2]
0	0xbf2676b2	-0.65024865
1	0x3ef1b341	0.47207072
2	0xbdff7f1a	-0.124754146
3	0x3e9b776a	0.30364543
4	0xbe2eb3f2	-0.17060831
5	0xbed120e0	-0.40845394
6	0x3d147997	0.03624877
7	0x3d9a6894	0.07539478
8	0x3efcadb3	0.49351272
9	0x3eb38d9f	0.35068986
10	0x3dce4e65	0.10073546
11	0x3edd254f	0.43192527
12	0x3f05b684	0.5223162
13	0xbe9d6261	-0.3073912
14	0xbe3f6d75	-0.18694098
15	0xbf1a0a1a	-0.60171664
16	0x3eeef0fe	0.46668237
17	0x3eb1da6f	0.34736964
18	0x3de894f0	0.113565326
19	0x3eab7349	0.33486393

bias f4 [10]
0	0xbdddbb74	-0.108267695
1	0xbeac4ea9	-0.33653763
2	0x3e307767	0.17233048
3	0x3ef100b8	0.4707086
4	0x3efb7470	0.49112272
5	0x3ed542b5	0.41652456
6	0x3f1fb505	0.6238559
7	0x3f0896da	0.5335518
8	0x3f14655d	0.5796717
9	0x3d3d12c9	0.046160493

weight f4 [20, 4]
0	0xbe1be4e1	-0.15224029
1	0xbd1ee0eb	-0.038788717
2	0x3e6cfdbb	0.23143665
3	0x3ebba60a	0.36650115
4	0xbe1d5f45	-0.15368374
5	0x3e8b4f25	0.2720882
6	0xbea163e8	-0.31521535
7	0x3bf5d6f2	0.00750243
8	0xbe58d5b8	-0.21175277
9	0xbebf4bdd	-0.37362567
10	0x3ecc0083	0.3984414
11	0x3e63d4f6	0.22249207
12	0xbe84f027	-0.25964472
13	0x3e8a9d0b	0.2707294
14	0xbeeb7288	-0.45985818
15	0xbca0be15	-0.019621888
16	0xbec938c7	-0.3930113
17	0x3d819dcf	0.06328928
18	0xbe77a3d4	-0.24183589
19	0xbc2934b6	-0.010327509
20	0xbedae43f	-0.42752263
21	0xbc1952d3	-0.009358126
22	0x3eb4a081	0.35278705
23	0x3da912c7	0.082555346
24	0xbee4af5f	-0.44665048
25	0xbba2ca3c	-0.004967956
26	0xbe6745b1	-0.22585179
27	0xbddc6a2b	-0.107624374
28	0xbea72e09	-0.3265231
29	0x3ea8c844	0.3296529
30	0x3e74544b	0.2386028
31	0xbdd967e5	-0.106155194
32	0x3ec4d197	0.38441154
33	0x3ebc2500	0.3674698
34	0x3e81cb87	0.25350592
35	0x3ec4d00e	0.38439983
36	0xbe1b3e28	-0.1516043
37	0x3e81ba7b	0.25337586
38	0xbeef713e	-0.46766084
39	0x3ea7b5f1	0.32755998
40	0x3ed42552	0.41434723
41	0x3e07a05f	0.1324477
42	0x3eb3a4ff	0.3508682
43	0x3d85828d	0.06519041
44	0xbe26b5ec	-0.16280335
45	0xbcf7f4f4	-0.03026817
46	0xbdcf403e	-0.10119675
47	0x3da5ef2a	0.081022575
48	0x3e85f1af	0.26160952
49	0xbea23cf2	-0.31687123
50	0x3e06e982	0.13175014
51	0x3d34a2e2	0.04410065
52	0xbcd31cde	-0.0257706
53	0x3d25d5a7	0.040486958
54	0xbef44114	-0.477059
55	0xbea4d46f	-0.32193324
56	0xbe440f2e	-0.19146416
57	0x3edd1414	0.4317938
58	0x3edbd7b8	0.42938018
59	0x3e0d986c	0.13827676
60	0x3ed1dadf	0.40987298
61	0xbe154935	-0.14578708
62	0xbe11ee9b	-0.14251177
63	0xbdc1e7dc	-0.09468052
64	0x3e8fc68d	0.2808117
65	0x3ef0e29c	0.4704789
66	0xbef2fd33	-0.474588
67	0xbe28ea64	-0.16495663
68	0x3e770d1d	0.24126096
69	0xbe89f7e3	-0.26946935
70	0xbed9d1e7	-0.42542955
71	0x3dccb41f	0.09995293
72	0xbbe3af6f	-0.0069484035
73	0x3e5f5743	0.21810631
74	0x3edbb0ae	0.42908233
75	0x3dded2be	0.1088004
76	0xbd8d48f6	-0.06898682
77	0x3e989b61	0.29806045
78	0xbe8cd774	-0.27508128
79	0xbe815d25	-0.25266376

bias f4 [20]
0	0xbec75348	-0.38930726
1	0xbe92a463	-0.28641042
2	0xbe936f6f	-0.28795955
3	0xbe677b15	-0.22605546
4	0xbe6fa0aa	-0.23401132
5	0x3e833260	0.2562437
6	0x3ee32ec8	0.4437163
7	0x3d5f8ec0	0.054579496
8	0x3e44d6d2	0.19222572
9	0xbdceffb4	-0.10107365
10	0x3ec9b435	0.393953
11	0x3cc94f44	0.02457393
12	0xbe82accf	-0.25522467
13	0x3e9ddbd6	0.30831784
14	0xbdd13bd2	-0.10216488
15	0xbec7e023	-0.3903819
16	0x3e7e4875	0.24832328
17	0xbd70c8e3	-0.05878533
18	0x3e778962	0.24173501
19	0x3dca51ed	0.09878907

weight_ih_l0 f4 [12, 10]
0	0x3eb48cdd	0.3526372
1	0xbdaa82ff	-0.08325767
2	0x3b711cfe	0.0036790962
3	0xbd591d05	-0.05300619
4	0x3c8eebd4	0.017446436
5	0xbeeda6be	-0.46416277
6	0x3d110c7a	0.03541229
7	0xbe598d00	-0.21245193
8	0x3d3e19a7	0.046411183
9	0xb6d05d14	-6.209719e-06
10	0xbda104d9	-0.07862253
11	0x3e590d64	0.21196514
12	0x34c6cbcf	3.7028664e-07
13	0xb0b2dcb2	-1.301393e-09
14	0x3de0f7a3	0.10984733
15	0xbe3da7fc	-0.18521112
16	0xbe3dad29	-0.18523087
17	0xbe1f6bb6	-0.15568432
18	0x3ef32145	0.4748632
19	0x3d9981d0	0.07495463
20	0xbee35f4b	-0.4440864
21	0xbe3a8330	-0.18214107
22	0xbe2f5f7b	-0.17126267
23	0xbc184764	-0.009294365
24	0xbe5ba82e	-0.21450874
25	0xbed7d8f3	-0.42157707
26	0xbe9492ed	-0.29018345
27	0x3ecb5457	0.39712784
28	0x3ed93262	0.42421252
29	0xbdc5f6f8	-0.09666246
30	0xbe3c8ce0	-0.18413115
31	0xbe9836b8	-0.29729247
32	0xbe373276	-0.17890343
33	0xbd4e315c	-0.05034004
34	0x3bd0e405	0.0063748383
35	0x3ca38f63	0.019965833
36	0xbd3d069c	-0.04614888
37	0xbed14c81	-0.4087868
38	0xbdad0d8b	-0.08449849
39	0xbc2fc8b3	-0.010729003
40	0xbeb72ee9	-0.35777977
41	0x3d116b9f	0.035503026
42	0x390e6c45	0.00013582509
43	0x803c2085	-5.521796e-39
44	0x3ebf9369	0.37417153
45	0x3dec2d37	0.115320615
46	0x3dd64ab7	0.104634695
47	0x3e893682	0.267994
48	0xbe9e589a	-0.30926973
49	0x000eb37a	1.350081e-39
50	0xbed11b5f	-0.40841195
51	0xbe96a664	-0.2942382
52	0xb5646f3e	-8.50985e-07
53	0x00414a91	5.996057e-39
54	0x3cda9b2c	0.02668532
55	0xbec19294	-0.37807143
56	0x3d6db99d	0.058038343
57	0x3e6adb1d	0.22935148
58	0x3ed27ddd	0.4111165
59	0x3d332501	0.04373646
60	0xbd01abb1	-0.03165788
61	0xbdc396e2	-0.09550263
62	0x3de1006f	0.10986411
63	0xbd63a90d	-0.05558114
64	0xbdce592a	-0.100756004
65	0xbdea91a3	-0.11453559
66	0xbe48620f	-0.19568656
67	0x3eda076a	0.4258378
68	0xbe9cb650	-0.30607843
69	0x84c54334	-4.6376194e-36
70	0xbefe4059	-0.49658468
71	0xbdffa529	-0.12482674
72	0x3cac0ff8	0.021003708
73	0xb7514600	-1.2473669e-05
74	0x3eef7def	0.46775767
75	0x3e0ba876	0.13638481
76	0xbd7fbcec	-0.06243603
77	0xbf08dfaa	-0.53466284
78	0xbdfaaebe	-0.12240361
79	0xbd3be51e	-0.0458728
80	0x3d442de0	0.047895312
81	0x3e82780b	0.2548221
82	0x388c5495	6.691475e-05
83	0xbd04d8b0	-0.03243321
84	0xbe956449	-0.29178074
85	0xbe9e17a6	-0.30877417
86	0x3f079e71	0.5297614
87	0xbecf5ad8	-0.40498996
88	0xbe8af73d	-0.27141753
89	0x3d5021c6	0.05081346
90	0x3dce0120	0.10058808
91	0x3e350d98	0.17680967
92	0x00158b84	1.978594e-39
93	0x2deb94d7	2.6782505e-11
94	0xbee269e0	-0.442214
95	0xbe890ba6	-0.267667
96	0xbdd755d0	-0.10514414
97	0xbd8a498f	-0.067523114
98	0xbe3c357d	-0.18379779
99	0x3887eaee	6.481061e-05
100	0x3eb64e87	0.35606787
101	0x3e9c3e91	0.30516484
102	0xbabc08ff	-0.0014345943
103	0xbdd37abe	-0.103261456
104	0xbe664ca3	-0.22490172
105	0xbecce0af	-0.4001517
106	0x3e602e0f	0.2189257
107	0x3e986d92	0.29771096
108	0xbead5690	-0.33855104
109	0xbe0b46bd	-0.13601203
110	0xbe779c29	-0.24180664
111	0xbe864d0a	-0.2623065
112	0xbe11660c	-0.14199084
113	0x3d6843c5	0.056705255
114	0xbd13817d	-0.03601216
115	0xbee1f586	-0.44132632
116	0xbe9717d2	-0.2951036
117	0x3e17ecaf	0.14836381
118	0xbeb85dd3	-0.36009082
119	0x398d073f	0.00026899014
