Simulations/Linear_canonical/results/exp(model_instead_of_weights)/rq020_KNet.pt (torch, 131179 bytes, 45 tensors)

weight_ih_l0 f4 [12, 10]
0	0x3c901cd0	0.017591864
1	0xb92fa5b1	-0.00016751025
2	0xbe229b60	-0.15879583
3	0x3d7193a9	0.05897871
4	0x3d2321b5	0.039827067
5	0xbc81758c	-0.015803121
6	0x3851cfad	5.0022896e-05
7	0x3e1bca91	0.15213992
8	0xbd2fb24a	-0.04289464
9	0x3dc294b7	0.09501021
10	0xbe224280	-0.1584568
11	0x3dcd62fd	0.10028646
12	0xbb115592	-0.0022176248
13	0x3607e12e	2.024764e-06
14	0x3da038f3	0.07823362
15	0x39222d3a	0.00015466372
16	0x3be18d9d	0.0068833367
17	0x3a9b2838	0.0011837548
18	0xbd8c33dd	-0.0684583
19	0x38123c5e	3.4865334e-05
20	0x3e055214	0.13019592
21	0x3a87fc1d	0.0010374818
22	0xbd3048a9	-0.043038044
23	0xbcf7ced3	-0.030249989
24	0xbe2f8c17	-0.17143284
25	0xbdb7056d	-0.08936582
26	0x395c06a1	0.00020983304
27	0x3d98cd46	0.07461028
28	0x3e9a52f0	0.301414
29	0x3a06d6c0	0.00051436946
30	0x3de85e64	0.113461286
31	0x3a2bc522	0.00065525074
32	0x3e8e446e	0.27786583
33	0x3c3b9beb	0.011450748
34	0x3dabdaf4	0.08391371
35	0x3bac22e6	0.0052531837
36	0x3cc4f8f8	0.024044499
37	0xbd846d43	-0.064661525
38	0xbc33daf7	-0.010977498
39	0xbb5f5921	-0.0034080225
40	0x3da9e9dd	0.08296559
41	0xbc42d906	-0.011892563
42	0xbdb6b7b8	-0.0892176
43	0xbda92f4d	-0.08260975
44	0xbe35e884	-0.17764479
45	0xbd272dcb	-0.040815156
46	0xbdb79a26	-0.08964948
47	0x3e3cbc75	0.18431266
48	0xbd63eb55	-0.055644352
49	0xb97b3905	-0.00023958467
50	0xba074760	-0.0005160477
51	0x3e2d1afb	0.16904823
52	0xbe1217cf	-0.14266895
53	0xb73f89f8	-1.14166105e-05
54	0xbb03899c	-0.0020071035
55	0xbca86ec9	-0.020560639
56	0x3939c82a	0.00017717542
57	0xbc2c4ccc	-0.010516357
58	0xbb853740	-0.004065424
59	0x3dec92db	0.11551448
60	0xbcc35b6b	-0.023847302
61	0xbe1d6e41	-0.1537409
62	0xbcf7989b	-0.030224135
63	0x3add7bd2	0.0016897863
64	0x3d463598	0.048390955
65	0xbc009913	-0.007848996
66	0x3daeae3e	0.08529328
67	0xbc199558	-0.009373985
68	0xbc63b3fe	-0.013897894
69	0xbe04b1da	-0.1295847
70	0xbdb8c9a9	-0.090228386
71	0x3d363123	0.044480454
72	0x3c91adaa	0.017783005
73	0xb5ce15f2	-1.5354583e-06
74	0x3b25d3cb	0.002530324
75	0xbc59bca6	-0.013289606
76	0x3d2e4e0a	0.042554893
77	0x3c227dad	0.009917659
78	0xbb32df95	-0.002729391
79	0xbd8cbc4f	-0.068718545
80	0xbcd010c4	-0.02539862
81	0x3dca1c29	0.098686524
82	0x3e32e670	0.17470717
83	0xb92aed5e	-0.0001630089
84	0x3e7aa800	0.2447815
85	0xbea5c817	-0.3237922
86	0xbd3e6afb	-0.046488743
87	0xbd946007	-0.07244878
88	0x3dc8464a	0.097790316
89	0x3d688bd8	0.05677399
90	0x3d3263e2	0.043552287
91	0xbd0d8f4c	-0.034560487
92	0x3ad03f0d	0.0015887931
93	0x3e396a7b	0.18107025
94	0xbeea6df2	-0.45787007
95	0xbee65d20	-0.44992924
96	0x3ae24a9b	0.0017264666
97	0xbeba618b	-0.36402544
98	0x3e47df32	0.19518736
99	0xbe1a7b41	-0.1508608
100	0xbeb79d01	-0.35861972
101	0x3daac5d5	0.08338515
102	0x3e334977	0.17508493
103	0xbb96faf4	-0.0046075527
104	0x3ead6aaa	0.3387044
105	0xbeb9c417	-0.36282417
106	0x3b4a7c86	0.0030896976
107	0xbe664579	-0.22487439
108	0x3ea98310	0.33107805
109	0x3dd2b8d6	0.10289161
110	0x3eb8b78b	0.36077532
111	0x3dfa866a	0.12232669
112	0x3d897eff	0.06713676
113	0xbc01c6f3	-0.007920968
114	0xbd13cef8	-0.036086053
115	0xbe1e90e5	-0.1548496
116	0x3a8e686b	0.0010864859
117	0xbc581c00	-0.0131902695
118	0xbda2be6d	-0.07946477
119	0x3aa0c2ae	0.001226505

weight_hh_l0 f4 [12, 4]
0	0x39ca94c7	0.0003863929
1	0x3e31830c	0.17335147
2	0xbe567819	-0.20944251
3	0x3dd3205c	0.103089064
4	0x3768154c	1.3833236e-05
5	0x3a6d631d	0.00090556015
6	0x3c95c9f1	0.01828477
7	0xbc9e1e0f	-0.019301442
8	0x3e1e74a3	0.15474181
9	0xbe0e052a	-0.13869157
10	0x3e0ad789	0.13558783
11	0xbe51a2a7	-0.20472203
12	0x3e0fa93b	0.140294
13	0x3e0bd2dd	0.13654657
14	0x3e5c0574	0.21486455
15	0x3e72c37e	0.23707387
16	0xbe65701f	-0.22406052
17	0xbc010a2d	-0.007875961
18	0xbcb202ff	-0.021729944
19	0x3e2c1b34	0.16807252
20	0x3db746d7	0.089490585
21	0x3c99cb81	0.018773796
22	0xbe1498a7	-0.14511357
23	0xbcb06657	-0.021533174
24	0x3cfd9419	0.030954408
25	0x3b888b0c	0.0041669663
26	0xbb5436f7	-0.0032381394
27	0xbd91436f	-0.0709294
28	0xbaffb964	-0.0019510207
29	0xbde76d9d	-0.11300204
30	0x3d05640c	0.032566115
31	0x3dc89443	0.09793904
32	0xbdd5b6a2	-0.10435225
33	0xbdf1dc78	-0.11809629
34	0x3e6d58d8	0.23178422
35	0x3e96ce2a	0.29454166
36	0x3e11d161	0.14240028
37	0x3baca7b4	0.005269015
38	0x3d31e9b0	0.043435752
39	0xbe1ab653	-0.15108614
40	0x3e042905	0.12906273
41	0xbd7644ad	-0.060124088
42	0xbec55dae	-0.38548034
43	0x3e9f3774	0.31096995
44	0x3e6aeb41	0.22941305
45	0xbdb98707	-0.090589575
46	0x3dc5b342	0.09653331
47	0x3ee2918b	0.44251665

bias_ih_l0 f4 [12]
0	0xbe93492a	-0.28766757
1	0x3de68fd7	0.11257904
2	0x3e56249f	0.20912407
3	0x3d9f22c3	0.07770302
4	0x3e39f2b0	0.18158984
5	0xbe31b6b2	-0.17354849
6	0xbc39fede	-0.011352269
7	0xbcf665b8	-0.0300778
8	0xbed3b6ad	-0.41350308
9	0xbe8dce3f	-0.27696416
10	0x3e8f91fd	0.28041068
11	0x3e9dd12b	0.30823645

bias_hh_l0 f4 [12]
0	0x3dc38efa	0.09548755
1	0xbe2a267b	-0.16616242
2	0xbea6bd56	-0.32566327
3	0x3e4e711e	0.20160338
4	0x3e69427e	0.22779271
5	0x3e4d7f60	0.20068121
6	0xbda1a26a	-0.07892306
7	0x3d1f2e36	0.03886243
8	0xbda68cf1	-0.08132351
9	0x3dd89a7b	0.1057634
10	0x3edeffa1	0.43554404
11	0x3e8151e9	0.25257805

weight_ih_l0 f4 [12, 14]
0	0x3e407652	0.18795136
1	0x3e02f2ba	0.12787905
2	0xbdc2f36b	-0.095190845
3	0xbe05b163	-0.13055949
4	0x3d83b8e9	0.06431753
5	0x3e2f9a0d	0.1714861
6	0x3075e3b6	8.945408e-10
7	0xbc7eef86	-0.0155600365
8	0xb106baef	-1.9605826e-09
9	0xbd8d0bfe	-0.06887053
10	0xbae0add1	-0.0017141645
11	0xb9a7b694	-0.00031988753
12	0x3deb9bb5	0.11504308
13	0x3bd87eff	0.006606936
14	0xbd96b108	-0.07357985
15	0xbd6eeb69	-0.058329973
16	0xbe68d5cf	-0.22737812
17	0xbe1d1638	-0.15340507
18	0xbde2a514	-0.110666424
19	0xbde70374	-0.112799555
20	0x3d0419d0	0.03225118
21	0x3e93f0c3	0.28894624
22	0x290ab6c8	3.0800693e-14
23	0xbc44e372	-0.012017118
24	0xbcff0003	-0.031127935
25	0xb106c9b5	-1.9614224e-09
26	0xbd729fd3	-0.05923445
27	0xbb58a96c	-0.0033059968
28	0x3e27ff70	0.16406035
29	0xbe5863a0	-0.21131754
30	0x3e150861	0.14553978
31	0x3e9c36c5	0.30510536
32	0x3e03b664	0.12862545
33	0xbe3cf4c6	-0.18452749
34	0xbe26b26d	-0.16279002
35	0xbe04bce5	-0.12962683
36	0xbd91a64e	-0.07111798
37	0xbea1b6cc	-0.31584775
38	0x3e3dbc9f	0.18528984
39	0x3d22cc55	0.039745647
40	0xbe92befa	-0.2866133
41	0xbe1aa696	-0.1510261
42	0x3a8fde32	0.0010976254
43	0x3b526315	0.0032102515
44	0x3dc8d719	0.098066516
45	0xbdb9bc0d	-0.09069071
46	0xbe1d4c11	-0.15361048
47	0xbb8ead04	-0.004354121
48	0x3e0dd2ae	0.13849899
49	0xbc5920ea	-0.013252476
50	0xb45c0733	-2.0491716e-07
51	0xbd7fd60d	-0.062459994
52	0xbb815c5b	-0.003947777
53	0x3e148254	0.14502841
54	0x3d2b4a11	0.041818682
55	0x39f79c2b	0.00047227865
56	0xbe43f81d	-0.19137616
57	0xbeca9cb0	-0.39572668
58	0xbe682a05	-0.22672279
59	0xbca13735	-0.019679645
60	0xbe90f83e	-0.28314394
61	0xbeb0c229	-0.34523132
62	0x800f4853	-1.403477e-39
63	0x3dc80f8a	0.09768589
64	0x00111f17	1.572356e-39
65	0xba1e57c1	-0.0006040298
66	0x3e7e100d	0.2481081
67	0xb8e0ee9b	-0.00010725596
68	0xbd84c0fd	-0.06482122
69	0x3e330526	0.17482433
70	0x3e74384a	0.23849598
71	0xbe885d93	-0.2663389
72	0x3eac447f	0.33646008
73	0xbecc30b7	-0.39880916
74	0xbbdd798a	-0.0067588734
75	0xbe3856f6	-0.18001923
76	0x3c0de30d	0.00866009
77	0xbd47d5f1	-0.048788015
78	0xbd8b57f9	-0.06803889
79	0xbb2cb3ef	-0.0026352366
80	0xbdf38f3e	-0.11892556
81	0x3cd45f47	0.025924338
82	0x3e4ee2e4	0.2020374
83	0x3e073850	0.13205075
84	0x3e93d1ec	0.28871095
85	0x3e135188	0.1438657
86	0xbe866c6a	-0.26254588
87	0xbe943075	-0.2894322
88	0xbe67ef24	-0.22649819
89	0x3e09f96e	0.13474056
90	0x0048fb3e	6.702284e-39
91	0xbe9eb1df	-0.3099508
92	0x3da801cd	0.082034685
93	0xbd5de5d2	-0.05417425
94	0x3e1b23c1	0.15150358
95	0x3a7f92f4	0.0009749376
96	0x3d3cba77	0.046076264
97	0xbd6ba068	-0.057526022
98	0x3e787df9	0.24266805
99	0xbe24b3c0	-0.16084194
100	0x3e7356c4	0.23763567
101	0xbec55da3	-0.38548002
102	0x3ec346ec	0.38140047
103	0x3e3b44e1	0.18287994
104	0xbd5ceeda	-0.053938724
105	0xbea1a8a2	-0.3157397
106	0xbd51efec	-0.051254198
107	0xbdfd0fc4	-0.12356523
108	0xbe9bf31b	-0.30458912
109	0x1d69a01f	3.0920074e-21
110	0xbe569eda	-0.20959035
111	0xbe57bead	-0.21068831
112	0x3ddd50c5	0.10806421
113	0x3d35f1bd	0.044419993
114	0x3e8c4187	0.27393743
115	0x3eca9507	0.39566824
116	0xbdd072b9	-0.101781316
117	0x3dc16474	0.09442988
118	0x8034bd03	-4.84325e-39
119	0xbe464ee0	-0.19366026
120	0xb7f453ec	-2.9126146e-05
121	0x3d276204	0.04086496
122	0x3e663fbe	0.22485253
123	0x3ba8f31d	0.0051559345
124	0x3e8694fb	0.26285538
125	0xbe0d3ae0	-0.1379199
126	0xbe5eab80	-0.2174511
127	0xbc9fb2f1	-0.019494506
128	0x3e7b80fa	0.2456092
129	0xbed7497b	-0.4204825
130	0x3e01ed15	0.12688096
131	0xbd8d5e29	-0.06902725
132	0xa43c6605	-4.0852416e-17
133	0x3ed25c5f	0.410861
134	0xa2e584e3	-6.2211274e-18
135	0xbed0072b	-0.4063047
136	0xbd86a452	-0.0657431
137	0x3c7f2056	0.015571674
138	0x3dce7d9b	0.10082551
139	0xbd759e64	-0.059965506
140	0xbc586705	-0.0132081555
141	0x3ed2c387	0.411648
142	0x3e8923b3	0.2678505
143	0xbae72611	-0.0017635246
144	0x3d872d40	0.06600428
145	0x3c4c3c4c	0.012465548
146	0x8f17d12f	-7.485162e-30
147	0x3ef4e239	0.47828844
148	0x3d9feaa4	0.07808426
149	0xbe81e51b	-0.25370106
150	0xbe25ca84	-0.16190535
151	0xb961fc94	-0.00021551765
152	0xbe46fe73	-0.19433002
153	0x3e8067da	0.25079232
154	0x3e96ba79	0.29439142
155	0x3e3b5a99	0.18296279
156	0xbdf24f76	-0.11831562
157	0x3e87485b	0.2642239
158	0x3eb96158	0.3620708
159	0xbea41c5d	-0.3205289
160	0x29006360	2.8507904e-14
161	0xbeb65209	-0.35609463
162	0x34049706	1.23484e-07
163	0xbecbba69	-0.39790657
164	0x3dfc144d	0.123085596
165	0x3dd5b4d1	0.104348786
166	0xbe3ec539	-0.18629922
167	0xbdc16487	-0.09443002

weight_hh_l0 f4 [12, 4]
0	0xbd464599	-0.048406217
1	0xbbd310f9	-0.0064412323
2	0xb6a6e2cc	-4.973588e-06
3	0xbca3e7ee	-0.020008054
4	0xbbc2b5a8	-0.0059420653
5	0xbd48f3e0	-0.049060702
6	0x3bfcd1ed	0.007715455
7	0x3d2f77f0	0.04283899
8	0xbd315908	-0.043297797
9	0x80480c4a	-6.616564e-39
10	0x3ce8afc1	0.028404118
11	0xbe8384c0	-0.25687218
12	0xbad58e63	-0.0016293045
13	0x3dcab763	0.098982595
14	0xbd85d849	-0.06535394
15	0xbda5fd2c	-0.08104929
16	0x381770c0	3.6106212e-05
17	0xbd744587	-0.05963662
18	0xaec0572d	-8.746635e-11
19	0x3e75275e	0.23940799
20	0x3b511f1e	0.0031909416
21	0x3d405744	0.046958223
22	0x2f1071f7	1.3137212e-10
23	0xbc58b069	-0.013225653
24	0xbd392883	-0.04520465
25	0x3ae2592e	0.0017269009
26	0x3b0f516e	0.0021868604
27	0xbdee8157	-0.11645763
28	0x3d15d6e9	0.036581907
29	0x000b593f	1.042206e-39
30	0xaf0deda5	-1.2908304e-10
31	0xbe9e8911	-0.30963948
32	0xba9d5a52	-0.0012005067
33	0x30ef918a	1.7430903e-09
34	0x3ca87b6f	0.02056667
35	0xbe8bb7e9	-0.2728875
36	0x3dbdaa2c	0.09260973
37	0x33c1f888	9.0324704e-08
38	0xbd49685c	-0.04917179
39	0xbbf6514e	-0.0075170165
40	0x3dfc0594	0.123057514
41	0xb872809f	-5.7817084e-05
42	0xbd9b2250	-0.07574904
43	0x3e441633	0.19149093
44	0x801e22f2	-2.767601e-39
45	0x0018597c	2.236153e-39
46	0x33b62e06	8.483407e-08
47	0xbcc70b37	-0.02429734

bias_ih_l0 f4 [12]
0	0x3e99d0ba	0.30042058
1	0x3e9280c2	0.2861386
2	0x3e398ec7	0.18120871
3	0xbd2cac46	-0.04215648
4	0x3e68dc5b	0.22740309
5	0xbe9c0bd1	-0.30477765
6	0xbe9396cf	-0.28825995
7	0x3ec7c0bc	0.39014232
8	0x3ebb7f23	0.36620435
9	0xbeb08c10	-0.3448186
10	0x3e42c287	0.19019519
11	0xbee9ab6f	-0.45638606

bias_hh_l0 f4 [12]
0	0x3e0de642	0.13857368
1	0xbe93c85d	-0.28863803
2	0x3e932675	0.28740278
3	0x3c89001e	0.016723689
4	0xbbb7ec0e	-0.0056128567
5	0x3d3991fd	0.04530524
6	0xbe385e2e	-0.18004677
7	0x3d9a0b1e	0.07521652
8	0xbe7e1e97	-0.24816357
9	0xbea2e5e8	-0.3181603
10	0xbea3e62d	-0.32011548
11	0x3dc9d052	0.09854187

weight_ih_l0 f4 [12, 24]
0	0x000394fc	3.28952e-40
1	0x372d68a0	1.0335963e-05
2	0x3ee51e0e	0.44749492
3	0x3bc9e3c3	0.0061611845
4	0x3ea86294	0.3288771
5	0xbee41b76	-0.445522
6	0xbe8136f7	-0.25237247
7	0x3e151189	0.1455747
8	0x3d7d9e63	0.061918627
9	0xbd3c159c	-0.045919046
10	0x8033d75d	-4.760868e-39
11	0x3dc8d1fc	0.09805676
12	0x3ebb7fff	0.3662109
13	0x3ed8ef85	0.4237024
14	0xbdb47852	-0.08812012
15	0x3cdf9545	0.027292857
16	0x3e0b7193	0.13617544
17	0x3e529371	0.20564057
18	0x3d529e48	0.05142048
19	0x3b1cdb2e	0.0023934352
20	0xbe1babe7	-0.15202294
21	0x3e21cde8	0.15801203
22	0x3dbd41f0	0.09241092
23	0x3d4d563d	0.05013107
24	0x80007aff	-4.4123e-41
25	0x3bd76908	0.0065738
26	0xbeaa019b	-0.3320435
27	0xb87567e8	-5.8509322e-05
28	0xbe970d89	-0.29502514
29	0x3e18a04a	0.14904895
30	0x3dd7470b	0.10511597
31	0xbc0af912	-0.008482235
32	0x3e61d128	0.22052443
33	0x3a30af5d	0.00067399984
34	0x3d133d35	0.035947043
35	0xbe3d03d5	-0.18458493
36	0xbd9af50f	-0.075662725
37	0x3e87f93b	0.26557335
38	0x3d96cfcb	0.07363852
39	0x3a80163a	0.0009772249
40	0xbc0018c4	-0.007818405
41	0x3d4530bf	0.04814219
42	0xbdf03fa7	-0.11730891
43	0x3e0cf75d	0.13766237
44	0xbb0c73c9	-0.0021431318
45	0x3da28f9a	0.07937546
46	0xbe1096fb	-0.14120094
47	0xbc5c3ace	-0.0134417545
48	0x3cbc9f26	0.023025107
49	0x3bfcd654	0.0077159796
50	0xbe7e9c8a	-0.24864402
51	0xbd098bd8	-0.03358063
52	0x3de140dc	0.10998699
53	0x3cfaff76	0.030639391
54	0x3d5e0381	0.05420256
55	0xbe661d4e	-0.22472116
56	0xbe2ec961	-0.17069007
57	0xba54884f	-0.000810747
58	0x3c33b072	0.010967361
59	0xbd61872f	-0.05506056
60	0x3e389095	0.18023904
61	0x3cc7e3ae	0.024400558
62	0xbde647c0	-0.11244154
63	0x3b0d1f63	0.00215336
64	0xbcc9f29d	-0.02465182
65	0xbd30a738	-0.043128222
66	0xbbce689c	-0.0062990915
67	0xbe1282aa	-0.14307657
68	0x3e086bd9	0.1332239
69	0x3d90126d	0.070347644
70	0x3e938d53	0.2881876
71	0x3c9fb710	0.01949647
72	0x3ce3389c	0.027736954
73	0x80144f4f	-1.86516e-39
74	0xbe7326f9	-0.23745336
75	0xbcb14cf1	-0.021643134
76	0xbdb2a49e	-0.087228045
77	0x3dad319b	0.08456727
78	0xbe916df8	-0.28404212
79	0x3e8824cf	0.26590583
80	0xbe156750	-0.14590192
81	0x3b8d53a3	0.004312949
82	0xbad1db9c	-0.0016010883
83	0x3e9992c7	0.29994795
84	0xbe0e1a09	-0.13877119
85	0xbeaf6cd3	-0.34262714
86	0xbe0bb200	-0.1364212
87	0x3b81d36a	0.00396197
88	0xbeb33a67	-0.35005495
89	0x3e2bb158	0.1676687
90	0xbddb2fc2	-0.107024685
91	0xbe00190c	-0.12509555
92	0x3e00cc78	0.12577999
93	0xbed1a463	-0.4094573
94	0x3dbf8749	0.093519755
95	0xbd3637db	-0.04448686
96	0xbd93a227	-0.072086625
97	0x3cf72ad7	0.030171795
98	0xbeb23eb5	-0.34813467
99	0x802a88ba	-3.906139e-39
100	0xbddbfdf1	-0.10741795
101	0x3c54aa8b	0.012980114
102	0x3e853440	0.26016426
103	0x3e80ca96	0.2515456
104	0x3eb932dc	0.36171615
105	0xbc04a5e2	-0.00809619
106	0x3d947dac	0.072505325
107	0xbe0f4701	-0.1399193
108	0x3c70b335	0.014691164
109	0x3dfdd6b4	0.12394467
110	0x3e2d9afa	0.1695365
111	0x3e43d820	0.19125414
112	0xbe1fe9cf	-0.15616535
113	0xbe793e66	-0.2434021
114	0xbc040631	-0.008058117
115	0xbd789c09	-0.06069568
116	0xbcfe3ddb	-0.031035354
117	0xbebd7b58	-0.37008166
118	0xbdd116c1	-0.10209418
119	0xbc2408dc	-0.010011878
120	0x2cb2f44b	5.0861862e-12
121	0xb9332481	-0.00017084369
122	0xbecc31ea	-0.3988183
123	0x3e1a025e	0.15039966
124	0x3dda0fd6	0.10647552
125	0x3e4f3cb4	0.20238
126	0x3e010820	0.12600756
127	0x3c51e7ce	0.012811614
128	0xbd95412f	-0.072878234
129	0xbb4e29ce	-0.0031458023
130	0x3e222e43	0.1583796
131	0x3e676e66	0.22600707
132	0x3e232158	0.15930688
133	0xbe78fce7	-0.24315225
134	0xbe3b5322	-0.18293431
135	0xbc352346	-0.011055773
136	0xbca0e88e	-0.01964214
137	0x3e5e8d4b	0.21733586
138	0x3bfc49f2	0.0076992447
139	0x3e670152	0.22559097
140	0x3d4d0dbe	0.050061934
141	0xbdeeea23	-0.11665752
142	0xbe297120	-0.1654706
143	0xbdb6d99d	-0.08928225
144	0x00143001	1.85393e-39
145	0x3db3c549	0.087778635
146	0x3ea237fa	0.31683332
147	0x3e08730a	0.13325134
148	0x3e0c492a	0.13699785
149	0x3ea02fe6	0.31286544
150	0xbe087609	-0.13326277
151	0xbd4fd506	-0.050740264
152	0x3d8e9be3	0.06963327
153	0xbc8fc506	-0.017550003
154	0xbdd2c849	-0.102921076
155	0xbe00a244	-0.125619
156	0xbe3c3a32	-0.18381575
157	0x3d28344c	0.0410655
158	0x3db1d59f	0.08683323
159	0x3dbbb887	0.09166055
160	0x3d1a8c24	0.037731305
161	0xbe42ab5c	-0.19010681
162	0x3db09a0e	0.086231336
163	0x3cbdaf0a	0.023154754
164	0xbc654d08	-0.013995416
165	0xbd21964a	-0.039449967
166	0x3e97db95	0.29659715
167	0xbcb51cba	-0.022108424
168	0xb9d8c27b	-0.0004134363
169	0xbd079cdc	-0.033108577
170	0xbec7975c	-0.38982666
171	0x3cf0e720	0.029407084
172	0x3e14ada4	0.14519364
173	0xbead44c5	-0.3384153
174	0x3e5aa5e2	0.21352342
175	0xbed1257f	-0.4084892
176	0xbeacce8c	-0.33751333
177	0x3db02d11	0.08602346
178	0x2d8333b9	1.4915945e-11
179	0xbe60c5fe	-0.21950528
180	0x3d9635d1	0.073344834
181	0xbea9733b	-0.33095726
182	0x3e2fcc38	0.17167747
183	0xbce7790d	-0.028255964
184	0xbe4776ac	-0.19478863
185	0x3d85530a	0.06509979
186	0xbe52bbd7	-0.20579468
187	0xbc4b42bc	-0.012406047
188	0xbe1874e3	-0.14888339
189	0xbe807053	-0.25085697
190	0xbe3501e1	-0.17676498
191	0xbb9b3f80	-0.0047377944
192	0x3d621be7	0.05520239
193	0x3ace4f9b	0.0015740277
194	0xbd6786aa	-0.05652491
195	0xba4d0150	-0.0007820325
196	0x3efcfee2	0.4941321
197	0xbef4046f	-0.47659633
198	0xbdaa8d66	-0.08327751
199	0xbe19637b	-0.14979355
200	0xbcd303a3	-0.02575857
201	0xbe3ef1d9	-0.18646945
202	0x314f3ad6	3.0155909e-09
203	0xbea97530	-0.3309722
204	0x3df86ab3	0.12129726
205	0xbe801490	-0.25015688
206	0xbea45866	-0.32098693
207	0xbe8a2a20	-0.26985264
208	0x3eec145b	0.4610928
209	0x3dc85461	0.09781719
210	0xbd887dc7	-0.06664615
211	0x3ebbd34e	0.3668465
212	0xbe5ffd35	-0.21873935
213	0x3eae89a6	0.34089392
214	0xbd3c0115	-0.04589947
215	0x3e2c0867	0.1680008
216	0xbdf03dc2	-0.11730529
217	0x3de72977	0.11287206
218	0xbda0faef	-0.07860362
219	0xae6d35b8	-5.3935273e-11
220	0x3daea234	0.085270315
221	0x3ecaef72	0.39635807
222	0x3d405056	0.046951614
223	0x3e14ae30	0.14519572
224	0x3ee4cf2f	0.4468932
225	0xbd7639f7	-0.060113873
226	0xb6afadaf	-5.235626e-06
227	0xbe3f5840	-0.18686008
228	0xbef383dd	-0.4756154
229	0xbdfa3471	-0.12217034
230	0x3eb6c76b	0.3569902
231	0x3e071428	0.13191283
232	0xbe3b0143	-0.182622
233	0xbed07714	-0.4071585
234	0xbe552848	-0.20816147
235	0x3dbe3530	0.092874885
236	0x3dcbd279	0.09952254
237	0xbe492eb0	-0.19646716
238	0x3d6fce61	0.058546428
239	0xbe2fe4de	-0.1717715
240	0x37edb1cf	2.83354e-05
241	0x308e17ed	1.033866e-09
242	0xbee5f222	-0.44911295
243	0x3dfe01f9	0.1240272
244	0xbee50234	-0.44728243
245	0xbc901ce3	-0.0175919
246	0xbe8254d9	-0.2545536
247	0xbed8bab3	-0.4232994
248	0x3eac9d43	0.3371373
249	0x3e6c791a	0.23093072
250	0xb202e0c3	-7.618101e-09
251	0x3cbd3d7c	0.023100607
252	0x3e3b91b2	0.18317297
253	0xbe5b46df	-0.21413754
254	0x3ec1845d	0.37796298
255	0x3ba25a5b	0.004954619

weight_hh_l0 f4 [12, 4]
0	0xbe354d45	-0.17705257
1	0x3e64b3d1	0.2233422
2	0xbeaccfa3	-0.33752164
3	0x3d6dcd9e	0.05805742
4	0xbe621fe2	-0.22082475
5	0x3dd9654f	0.10615026
6	0xbeb3b251	-0.35096982
7	0x3e6920f5	0.22766478
8	0xbe71e55c	-0.2362265
9	0xbe4c3ce8	-0.19945109
10	0xbea3ba2b	-0.31977972
11	0xbd721407	-0.05910113
12	0xbe4ca7e2	-0.19985917
13	0xbd320d25	-0.043469567
14	0xbe024b4a	-0.12724033
15	0xbe3a0480	-0.18165779
16	0xbcfb18d5	-0.03065149
17	0xbe8bb778	-0.27288413
18	0x3a433724	0.0007446876
19	0x3eabaa13	0.33528194
20	0xbd65ec3b	-0.05613349
21	0x3e110354	0.14161426
22	0x3ae0ef99	0.0017161249
23	0xbe98ff12	-0.29882103
24	0x3e730e5b	0.23735945
25	0xbd700caf	-0.058605846
26	0xbdf9813b	-0.12182852
27	0x3e149dad	0.14513274
28	0xbddd7106	-0.10812573
29	0xbe865a5d	-0.26240817
30	0x3ebd4fd6	0.36974972
31	0x3e494eb5	0.1965893
32	0x3e54dd88	0.20787632
33	0xbe88351c	-0.2660302
34	0x3e17ecf1	0.1483648
35	0x3e238b95	0.15971215
36	0x3cb6fef0	0.02233836
37	0xbe0e1b5a	-0.13877621
38	0x3e941bc6	0.2892744
39	0xbe2f3943	-0.17111687
40	0x3de0ecb2	0.10982646
41	0xbed510af	-0.4161429
42	0x3eec9925	0.4621059
43	0x3e84ef08	0.25963616
44	0x3e7efca8	0.24901068
45	0x3ede5b83	0.43429193
46	0xbed17e25	-0.40916553
47	0xbe8dc043	-0.27685747

bias_ih_l0 f4 [12]
0	0x3d8039f4	0.06261054
1	0xbe928efb	-0.2862471
2	0x3dbb1e6b	0.09136661
3	0xbd3125fe	-0.043249123
4	0x3e46338f	0.19355606
5	0x3e2f19ef	0.17099737
6	0x3ec54d2f	0.3853545
7	0xbea1c113	-0.31592616
8	0x3ed63988	0.41840768
9	0x3cfe9754	0.031078018
10	0x3dbc856b	0.09205135
11	0x3e276bdf	0.16349743

bias_hh_l0 f4 [12]
0	0xbd88a659	-0.06672353
1	0xbccc5f90	-0.024947912
2	0x3e993f2c	0.2993101
3	0x3eb3e49d	0.35135356
4	0x3e06394a	0.13107792
5	0x3e9985c2	0.29984862
6	0xbeb331f1	-0.3499904
7	0xbee8ab21	-0.4544306
8	0xbeeaea4f	-0.45881888
9	0x3e6dc837	0.23220907
10	0xbee26f24	-0.4422542
11	0xbe0403cd	-0.12892075

weight f4 [4, 4]
0	0x385d7020	5.279493e-05
1	0x3da5cb53	0.08095422
2	0x312368ea	2.3779259e-09
3	0x3b49f4bb	0.0030816037
4	0x3df9a37c	0.12189385
5	0xbbf61686	-0.007510009
6	0x3c1a9405	0.009434705
7	0x3e087b76	0.13328347
8	0x3ebb4600	0.36576843
9	0xbe913f23	-0.28368482
10	0x3e357c39	0.17723168
11	0xbed1a0e2	-0.40943056
12	0x80098203	-8.73159e-40
13	0x2aec8e23	4.2020649e-13
14	0xb8227284	-3.873046e-05
15	0x3934e0d1	0.00017249888

bias f4 [4]
0	0xbd1c1eac	-0.03811519
1	0xbdf1ebd9	-0.118125625
2	0x3eef5df8	0.4675138
3	0xb5e55c94	-1.7088773e-06

weight f4 [320, 8]
0	0xbe064de0	-0.13115644
1	0xbe24a854	-0.16079837
2	0xbdf19ac4	-0.11797097
3	0xbca96d73	-0.020682072
4	0x3e2fbff6	0.17163071
5	0xbcdc5048	-0.02689375
6	0x3dc9c1ee	0.09851442
7	0xbdc3f587	-0.09568315
8	0xbe66a389	-0.22523321
9	0xbe6f7783	-0.23385434
10	0x3d61513a	0.055009104
11	0xbcf2b0ed	-0.02962538
12	0xbdac4a26	-0.0841258
13	0xbe81e668	-0.253711
14	0xbea9dfec	-0.3317865
15	0xbd8d4f5d	-0.06899903
16	0x3e1cb651	0.15303923
17	0xbde6e500	-0.11274147
18	0xbea0fd3a	-0.31443197
19	0x3d82dcc8	0.06389767
20	0xbe6a9a97	-0.22910534
21	0x3ddd6c1c	0.10811636
22	0xbe052ccf	-0.13005374
23	0xbd8cf4ff	-0.06882667
24	0xbd213566	-0.039357565
25	0x3e808253	0.2509943
26	0x3db48f46	0.0881639
27	0x3ca446f0	0.020053357
28	0xbe47b6d8	-0.19503343
29	0x3e280289	0.16407217
30	0xbe551a5e	-0.2081084
31	0xbe3a8921	-0.18216373
32	0x3e55ebf5	0.20890792
33	0x3e6ec793	0.23318319
34	0xbd9bddf7	-0.07610696
35	0x3e3d6b8a	0.18498054
36	0x3dfbbdc3	0.122920536
37	0xbd2cf9e6	-0.04223051
38	0xbe0af18d	-0.13568707
39	0x3e5eebf7	0.21769701
40	0xbe2e79d0	-0.17038655
41	0xbd2f49ed	-0.04279511
42	0x3e2e7824	0.17038018
43	0x3de9a407	0.11408239
44	0x3e08cb5b	0.13358824
45	0x3d98353a	0.07432027
46	0x3d3e6464	0.04648246
47	0xbe1f25f8	-0.15541828
48	0x3db9b2ae	0.090672836
49	0xbb5b0908	-0.003342213
50	0x3de476b0	0.1115545
51	0xbc8de21b	-0.01731973
52	0x3e0d392d	0.13791342
53	0x3ddaec87	0.10689645
54	0x3d164180	0.03668356
55	0xbe05461b	-0.13015024
56	0xbd078a8e	-0.03309112
57	0xbd8f40f6	-0.06994812
58	0xbd113834	-0.03545399
59	0xbac7465c	-0.0015203464
60	0x3ddc7cd7	0.10765999
61	0xbc4fbaaf	-0.012678786
62	0xbbc10af1	-0.005891197
63	0xbcbee70e	-0.023303535
64	0xbe9ab600	-0.3021698
65	0x3e6595fe	0.22420499
66	0xbe0daa10	-0.13834405
67	0xbe0b60fa	-0.13611212
68	0xbe9987a1	-0.2998629
69	0x3e83cb28	0.25740933
70	0xbda2ab69	-0.0794285
71	0xbcfa5e25	-0.03056247
72	0x3e38da27	0.18051969
73	0xbde4e1a3	-0.11175849
74	0x3dd1a2e9	0.10236151
75	0xbc93227f	-0.017960785
76	0xbe0cc092	-0.13745335
77	0xbe0e0138	-0.13867652
78	0x3c9ff2cc	0.019524954
79	0x3e531dff	0.20616911
80	0x3d1fc480	0.039005756
81	0x3e6df07b	0.23236267
82	0x3e0f5a1a	0.13999215
83	0x3e34272f	0.17593072
84	0x3e100c72	0.14067248
85	0x3e93dba3	0.28878507
86	0xbd99f6f7	-0.07517808
87	0x3dc03b31	0.0938629
88	0x3e083bff	0.13304137
89	0xbe4078b2	-0.18796042
90	0x3e4cb11a	0.19989434
91	0x3db23beb	0.08702835
92	0xbe8834c4	-0.26602757
93	0x3bca67d4	0.006176928
94	0x3e2acbef	0.16679357
95	0xbd7c431b	-0.061587434
96	0xbaa16468	-0.0012313249
97	0xbc09accc	-0.008403014
98	0xb9b7f990	-0.00035090419
99	0x3ace4693	0.0015737585
100	0x3db83c9a	0.08995934
101	0xbcc03412	-0.023462329
102	0x38e6dda6	0.0001100854
103	0xbba2708e	-0.004957265
104	0xbdf011f1	-0.11722172
105	0xbe43a799	-0.19106902
106	0xbe83141a	-0.25601274
107	0xbd05e6e4	-0.032690898
108	0xbd79b3b3	-0.06096239
109	0x3d0e1ab5	0.03469344
110	0xbd83cbbd	-0.06435344
111	0x3eadbb4e	0.33931965
112	0xbd0ebb16	-0.034846388
113	0xbac2a26f	-0.0014849434
114	0xb26f9521	-1.3945539e-08
115	0x00366ea4	4.998807e-39
116	0xbc133ed7	-0.00898715
117	0xb88ac96c	-6.6178705e-05
118	0x3d68d61c	0.056844816
119	0x8012258b	-1.666507e-39
120	0x3c946a94	0.018117227
121	0xbbdfb63a	-0.006827143
122	0x3b2449b0	0.0025068335
123	0xbcab7e61	-0.020934286
124	0xbaf68d24	-0.0018810374
125	0x37125f03	8.7244e-06
126	0x3a81a97c	0.0009892429
127	0x3b317bfc	0.0027081957
128	0xbd02e866	-0.031959914
129	0xbe5a856d	-0.2133996
130	0x3e621492	0.2207816
131	0x3d44ce9b	0.048048597
132	0xbe8e1d47	-0.27756712
133	0xbdabd13a	-0.08389516
134	0xbe07ef62	-0.13274911
135	0xbe33e748	-0.17568696
136	0x3d734f3a	0.05940173
137	0x3db8439f	0.08997273
138	0xbdf17afa	-0.11791034
139	0x3e5e7e33	0.21727829
140	0xbe237013	-0.15960722
141	0x3e945dbd	0.28977767
142	0xbdb1cc01	-0.08681489
143	0x3c6b1fe9	0.01435087
144	0x3c4a4b38	0.012347035
145	0xbcd4df03	-0.025985247
146	0x3cd6ece4	0.026236005
147	0x3cd2a3fc	0.02571296
148	0x3dad7c4f	0.084709756
149	0xbe50c295	-0.20386727
150	0x3d9696d1	0.07352985
151	0x3dd3d47a	0.10343261
152	0xbe335691	-0.17513491
153	0x3c8fb252	0.017541084
154	0xbbf76752	-0.0075501585
155	0xbdcfa934	-0.10139695
156	0x3e082a96	0.13297495
157	0xbdfc18f9	-0.12309451
158	0xbe6bfaa8	-0.23044837
159	0x3e86f371	0.26357606
160	0xbdf45307	-0.11929899
161	0xbe14e4dc	-0.14540428
162	0x3d470377	0.04858729
163	0xbe6a84a3	-0.2290216
164	0x3e763908	0.24045193
165	0x3d620972	0.05518479
166	0xbe276355	-0.16346486
167	0x3e9d8a6b	0.30769667
168	0xbd22dad2	-0.039759465
169	0x3e4d0cea	0.20024458
170	0x3d223b82	0.039607532
171	0x3d87d673	0.066327
172	0x3e36ba62	0.17844537
173	0x3e177ab0	0.14792895
174	0x3dd0b7fe	0.10191344
175	0x3c566ed3	0.013087946
176	0xbe44130a	-0.19147888
177	0x3e4082e6	0.18799934
178	0xbc502d8f	-0.0127061745
179	0x3cf4f458	0.029901668
180	0xbd449b3a	-0.047999598
181	0xbe22e903	-0.159092
182	0x3db23d32	0.08703078
183	0x3e67c576	0.22633919
184	0x3e175cf5	0.14781554
185	0x3d9984f1	0.0749606
186	0x3da881d7	0.0822789
187	0xbe5c8a5d	-0.21537156
188	0xbe9e4540	-0.3091221
189	0xbe1635da	-0.1466898
190	0xbe2c84d2	-0.16847542
191	0x3e39ad76	0.18132576
192	0x3e4e3d23	0.2014051
193	0x3dd0dfd1	0.101989396
194	0x3d027493	0.031849455
195	0xbe921631	-0.28532556
196	0xbe9ed877	-0.31024525
197	0x3e9884ba	0.29788762
198	0x3d8b00f6	0.06787293
199	0xbda2e3bf	-0.07953595
200	0xbdee2f82	-0.11630155
201	0x3dda57fd	0.10661314
202	0x3e79d372	0.24397066
203	0xbe153549	-0.14571108
204	0x3bcf47cb	0.006325697
205	0xbd3d8aee	-0.04627507
206	0xbcd7504c	-0.026283406
207	0xbe9efdd4	-0.3105303
208	0x3e81a229	0.2531903
209	0xbe3a3129	-0.18182816
210	0xbe6e5586	-0.23274812
211	0x3ddccccd	0.1078125
212	0x3e1c8a1f	0.15287064
213	0x3e020da2	0.12700513
214	0x3e324206	0.17407998
215	0xbe8103fe	-0.25198358
216	0xbd328be7	-0.043590453
217	0xbca9f01a	-0.020744372
218	0xbe7962ca	-0.24354091
219	0x3d8731e2	0.06601311
220	0x3de79b4e	0.11308919
221	0x3e0f52aa	0.13996378
222	0xbde4d496	-0.1117336
223	0xbd28ae73	-0.041181993
224	0xbb172286	-0.002306135
225	0x3c93048a	0.0179465
226	0x00084c5f	7.62081e-40
227	0xb243675b	-1.1373994e-08
228	0x2291192c	3.932898e-18
229	0xbafaf591	-0.0019146671
230	0xb1965831	-4.3756008e-09
231	0x000fbaab	1.444496e-39
232	0xbc168c29	-0.00918869
233	0xb9ffe5f2	-0.00048808713
234	0xbb071ed0	-0.002061773
235	0x39a2fde4	0.0003108821
236	0x3a2e3f3d	0.00066469965
237	0x3d511822	0.051048405
238	0x3a9fa92c	0.0012181154
239	0x3a3cfdb3	0.0007209435
240	0x3de32659	0.110912986
241	0xbe528c50	-0.20561337
242	0x3e744561	0.23854591
243	0xbea7a3ee	-0.32742256
244	0xbd5a558d	-0.053304244
245	0xbd860309	-0.06543548
246	0x3e418efa	0.18902197
247	0xbe15036b	-0.14552085
248	0x8005f2ee	-5.46324e-40
249	0x3d45894c	0.04822664
250	0xb6bfae1b	-5.712512e-06
251	0x0a17c3e7	7.307231e-33
252	0x30d00dd8	1.5137926e-09
253	0xba0364cc	-0.00050122733
254	0x9ac8b3c6	-8.30085e-23
255	0x3b0745b9	0.0020640923

bias f4 [320]
0	0x3d6525e5	0.055944342
1	0xbe85a7c2	-0.26104552
2	0x3ea34f0e	0.3189625
3	0x3e921f98	0.2853973
4	0x3d4d029e	0.050051324
5	0xbd2e785f	-0.042595264
6	0xbe0a15c8	-0.13484871
7	0xbdb45840	-0.08805895
8	0x3d0bdea7	0.034147885
9	0xbd12901f	-0.035781976
10	0xbd5cc624	-0.0538999
11	0xbd89bbdc	-0.067252845
12	0xbd3d6862	-0.046242125
13	0xbd6433fb	-0.055713635
14	0xbc165d27	-0.009177483
15	0xbc536529	-0.012902536
16	0xbdfd03b6	-0.123542234
17	0x3ea84626	0.3286602
18	0x3e153747	0.14571868
19	0x3da55cf2	0.080743685
20	0x3e330b62	0.17484811
21	0x3aaea308	0.0013323734
22	0x3e586629	0.21132721
23	0xbe86c9d4	-0.26325858
24	0x3de2b2c1	0.11069251
25	0x3e934ebe	0.28771013
26	0x3d57723b	0.052599173
27	0x3d76b425	0.060230393
28	0xba66264d	-0.0008779511
29	0xbcece21f	-0.028916417
30	0x3e912558	0.28348804
31	0x0016aac1	2.081636e-39
32	0x3db1c1a2	0.08679511
33	0xbd6b0cf1	-0.05738539
34	0x3dfee93f	0.12446832
35	0xbd26f09c	-0.040756807
36	0xbc5d65fb	-0.013513084
37	0x3de0d365	0.1097782
38	0xbe80c2bd	-0.25148574
39	0x3e6b4de2	0.22978929
40	0xbe53b257	-0.206735
41	0xbe722a74	-0.23649007
42	0xbe398abe	-0.18119332
43	0x3e7c1ee7	0.24621163
44	0x3cd50fce	0.026008513
45	0xbdf5eef9	-0.12008471
46	0x3d5cfa2e	0.053949527
47	0xbcd1f608	-0.025630012
48	0x3e6cdff1	0.23132302
49	0xbdde509f	-0.10855221
50	0x3d96a6ad	0.0735601
51	0xbdf46860	-0.119339705
52	0x3c30c005	0.0107879685
53	0x3ea7aafd	0.3274764
54	0xbde3bfa5	-0.11120538
55	0xbd24b781	-0.040214065
56	0xbdd1a82e	-0.10237156
57	0x3c9323fa	0.01796149
58	0xbd24af03	-0.040205967
59	0x3e550c75	0.20805533
60	0x3c2dcbaa	0.010607639
61	0xbd95c0b3	-0.07312145
62	0xbe0e68ad	-0.13907118
63	0xbd4476fb	-0.04796503
64	0x3df41110	0.11917317
65	0xbba5dd94	-0.0050618146
66	0x80445d46	-6.278274e-39
67	0xbe50ab57	-0.20377861
68	0x3dec804f	0.115479104
69	0x3ba0bd65	0.00490539
70	0x3ded3b49	0.11583573
71	0xbb23b5b0	-0.002498012
72	0x3e695d03	0.22789387
73	0x3e3498b0	0.1763637
74	0x3eb0fa5e	0.34566015
75	0x3e996b6a	0.29964763
76	0x3d101f04	0.03518583
77	0xbdc295c7	-0.09501224
78	0x3d8ead06	0.06966595
79	0xbdc9b49d	-0.098489024
80	0x3e69887e	0.22805974
81	0x3e179f30	0.14806819
82	0xbb9caf4e	-0.00478164
83	0xbdd4fd4e	-0.103998765
84	0x3ca16c08	0.019704834
85	0xbb5407ef	-0.0032353362
86	0xbe2902cf	-0.16504978
87	0xbd5bebaf	-0.053691562
88	0xbd18e1d8	-0.037324756
89	0x3e7cde37	0.24694143
90	0xbe07f5c9	-0.13277353
91	0x3d3a9af8	0.045557946
92	0x3ea860aa	0.3288625
93	0xbb2e27f3	-0.0026574105
94	0x3e33bd69	0.17552723
95	0xbcdc1e13	-0.02686981
96	0x3dafc3e9	0.08582289
97	0x3e4f4054	0.20239383
98	0x3e3cb827	0.18429624
99	0x3d9df336	0.077124044
100	0xb78e39e5	-1.6954678e-05
101	0xbd419a3f	-0.04726624
102	0x3ea2bdba	0.31785375
103	0x3e6aadfd	0.22917934
104	0x3eaae96b	0.3338121
105	0xbe063873	-0.13107471
106	0x3d2d8327	0.042361405
107	0xbe2d325f	-0.16913746
108	0xbdc7669c	-0.09736368
109	0x3c7cb19e	0.015423207
110	0xbd50042e	-0.050785236
111	0x3e39cd28	0.18144667
112	0xbd1b3232	-0.037889667
113	0x3d992cb5	0.0747923
114	0x3db8c5ce	0.09022103
115	0x3d94588a	0.0724345
116	0x3e3d4aef	0.18485616
117	0xbb01581b	-0.0019736353
118	0x3de2d7ee	0.110763416
119	0xbcc84113	-0.024445092
120	0x3dbc26b0	0.091870666
121	0xbd41315c	-0.047166213
122	0x3e60a269	0.21936955
123	0xbcb6a3e1	-0.02229494
124	0xbe735ba4	-0.23765427
125	0x398cf19f	0.00026882903
126	0x3e4f02d8	0.20215929
127	0xbdeab3e1	-0.114600904
128	0x3dc76f13	0.097379826
129	0x3dc26844	0.09492543
130	0x3d720b99	0.05909309
131	0x3e17ab72	0.14811495
132	0xbe39b21d	-0.18134351
133	0x3d18cc06	0.037303947
134	0xbc8d2e96	-0.017234128
135	0xbc003f00	-0.00782752
136	0x3da56e58	0.08077687
137	0x3d891dc0	0.066951275
138	0x3e6c359e	0.23067328
139	0xbe010e9b	-0.12603228
140	0x3df115d3	0.11771741
141	0x3c81dfd4	0.0158538
142	0xbd43fd18	-0.04784879
143	0xbd56eb49	-0.05247048
144	0xbdb4078e	-0.087905034
145	0x3e38cb94	0.18046409
146	0x3ea068a0	0.31329823
147	0x3e6820bb	0.22668736
148	0xbcc59712	-0.024119888
149	0xb9403b0d	-0.00018332545
150	0xbb984507	-0.0046469006
151	0x3e542535	0.20717318
152	0x3e84c6d5	0.25932947
153	0x3eaacaf6	0.33357972
154	0xbc2f413e	-0.010696707
155	0x3d1c638b	0.03818087
156	0x3e74e0bf	0.23913859
157	0x3a369a82	0.00069657725
158	0x3e3208db	0.1738619
159	0xbd1cd9a2	-0.03829349
160	0x3bad3e6f	0.0052869837
161	0x3eab0162	0.33399493
162	0xbd3dd6e0	-0.0463475
163	0x3e905a5c	0.2819394
164	0xbd6a72ab	-0.057238262
165	0x3e7048fc	0.23465341
166	0x3dc24687	0.09486108
167	0xbe3c998d	-0.1841795
168	0xbd6762ea	-0.056490816
169	0xbd8f41b0	-0.06994951
170	0xbd07fadd	-0.033198226
171	0x3ddf470d	0.10902224
172	0xbd499e29	-0.0492231
173	0xbdfd969e	-0.123822436
174	0x3da91836	0.08256571
175	0xbd314385	-0.043277282
176	0x3e89b25b	0.26893887
177	0x3e2268cf	0.15860294
178	0x3e8b647b	0.27225098
179	0xbe403453	-0.1876996
180	0x3e43626e	0.19080517
181	0x3dbbf4ae	0.09177528
182	0x3e57371a	0.21017113
183	0xbe6df32c	-0.23237294
184	0xbd13d0af	-0.036087688
185	0xbe3b8f15	-0.183163
186	0xbcfc361c	-0.03078752
187	0xbd0b28a8	-0.03397432
188	0x3d2556e1	0.040366057
189	0x3e5ace06	0.21367654
190	0x3ea352d4	0.3189913
191	0x000fcc77	1.45088e-39
192	0xbdba61d1	-0.09100688
193	0x3d8edd70	0.069758296
194	0x3e505308	0.20344174
195	0x3cb99155	0.022652308
196	0xbce38925	-0.027775357
197	0xbca0288e	-0.019550588
198	0x3dd95bdd	0.10613225
199	0xbd0de6f3	-0.03464408
200	0x3e899edc	0.26879013
201	0x3e2b4226	0.16724452
202	0xbb13522a	-0.0022479394
203	0xbcfd5283	-0.030923134
204	0x3ea2078a	0.31646377
205	0x3e0a54f7	0.13508974
206	0xbd57a27f	-0.052645203
207	0xbdec7407	-0.11545568
208	0xbd40c56c	-0.047063276
209	0xbc7b8df7	-0.015353671
210	0xbe0366bd	-0.1283216
211	0x3d52b42b	0.051441353
212	0xbe16f0a7	-0.14740239
213	0xbd68f7b5	-0.056876857
214	0x3e15cbe2	0.14628556
215	0xbe38632e	-0.18006584
216	0x3e9bc2e6	0.30422133
217	0xbdaf2457	-0.08551853
218	0xbd1ee618	-0.038793653
219	0x3e45e5d2	0.1932595
220	0xbbcaf1f6	-0.006193395
221	0xbd935072	-0.07193078
222	0x3d4bc35c	0.049746856
223	0xbc578b74	-0.013155807
224	0xbe10357e	-0.14082906
225	0xbdeeeb17	-0.116659336
226	0x3e8fd431	0.28091577
227	0x3d8eb73e	0.069685444
228	0xbe338b3a	-0.1753358
229	0x3eac2ac9	0.33626392
230	0xbe81ba5b	-0.2533749
231	0x3e13420e	0.14380667
232	0xbe7dcd1b	-0.24785273
233	0x3e85d373	0.26137885
234	0x3e19501e	0.14971969
235	0xbd3cf49d	-0.04613172
236	0xbe19d071	-0.1502092
237	0xbd8ed169	-0.069735356
238	0xbe436c4c	-0.1908428
239	0x3e43f86d	0.19137736
240	0xbc827103	-0.015923029
241	0xbe1cfcbd	-0.15330787
242	0x3e8b2598	0.2717712
243	0xbe90b8d8	-0.28266025
244	0x3df5180e	0.11967479
245	0xbd9b6ef7	-0.07589524
246	0xbbbbe156	-0.0057336492
247	0xbd818b3c	-0.06325385
248	0x3ea95a56	0.33076733
249	0xbd842d8c	-0.06454
250	0x3de96d24	0.1139777
251	0x3e386419	0.18006934
252	0x3e5f95c7	0.2183448
253	0xbd92a5a2	-0.07160498
254	0x3e1d3058	0.15350473
255	0xbdbf499a	-0.0934021

weight f4 [4, 320]
0	0xbd1a92bd	-0.037737597
1	0xbda76809	-0.0817414
2	0xbbeac81d	-0.0071649686
3	0xbbb991de	-0.0056631407
4	0x3db8aa38	0.09016842
5	0xbd3299f4	-0.043603852
6	0xbc5a0721	-0.013307364
7	0x3bf9cf4d	0.007623589
8	0x3bda549d	0.0066629187
9	0x3e4e42c4	0.20142657
10	0xbc536046	-0.012901371
11	0xbd8c9d1c	-0.06865904
12	0x3b945d6e	0.0045277392
13	0x3dbb9f82	0.09161283
14	0x802a9be8	-3.91302e-39
15	0xb7bfa81e	-2.284726e-05
16	0x3d41d069	0.047317896
17	0x3d083757	0.0332559
18	0x3d055bd0	0.032558262
19	0xbce73413	-0.028223073
20	0x3cf37449	0.029718535
21	0xbcd58c91	-0.026068004
22	0x3e170fe6	0.14752159
23	0x3dcaa036	0.09893839
24	0xbcc4f6bb	-0.024043432
25	0x3d402cbb	0.04691766
26	0x3bf4367b	0.0074527836
27	0x3bf8be37	0.0075910348
28	0x001e01e2	2.75574e-39
29	0x3aadc445	0.0013257345
30	0xbd09438e	-0.03351169
31	0x00327724	4.634514e-39
32	0x3de12ca2	0.10994841
33	0x3d4c70e1	0.049912337
34	0xbd094591	-0.03351361
35	0x001b9d62	2.536017e-39
36	0x97fb3f8a	-1.6236534e-24
37	0x3b8b1947	0.0042449567
38	0xbd6e6027	-0.058197167
39	0xbcf22da3	-0.029562777
40	0xbc120046	-0.008911198
41	0xbcb87e05	-0.022521028
42	0xbd6d84e0	-0.057988048
43	0x3c52bfdf	0.012863128
44	0x3d373baf	0.044734653
45	0xbb744cf7	-0.003727732
46	0x3caf4e8d	0.02139976
47	0x8033b4fb	-4.748534e-39
48	0x3b39129a	0.0028239847
49	0x3e2cbb3d	0.168683
50	0x3bd3fe0c	0.0064694937
51	0x3d0fc79f	0.035102483
52	0xbd83748e	-0.064187154
53	0x3ccb8b21	0.024846615
54	0xbcff69ee	-0.03117844
55	0x988134be	-3.3398974e-24
56	0x3d6b05a0	0.05737841
57	0x3d761887	0.060081985
58	0x3a8aa541	0.0010577814
59	0x3d8e2406	0.06940465
60	0x3d10f0b2	0.035385795
61	0xbde535d9	-0.11191911
62	0x3cadb54b	0.021204611
63	0x0030c1cb	4.477624e-39
64	0x3c9682aa	0.018372852
65	0x3c54647e	0.012963412
66	0x800df023	-1.280006e-39
67	0x3d164300	0.03668499
68	0x3d141d79	0.03616092
69	0x3d130dc3	0.035901796
70	0xbd26f8ee	-0.04076474
71	0xb736b5be	-1.08903605e-05
72	0x3c1dda88	0.009634621
73	0xbc22dd1c	-0.009940412
74	0x3c5f72e4	0.013638232
75	0x3d5fd6c8	0.05464819
76	0x3d007ec2	0.031370886
77	0xbc07f900	-0.008299112
78	0x3b081ddd	0.0020769753
79	0x3786ae1d	1.6055123e-05
80	0x3d5ff384	0.054675594
81	0xbd48d107	-0.04902747
82	0x801f5c54	-2.880021e-39
83	0x3d5429bf	0.051797625
84	0xb99e890a	-0.0003023821
85	0x3d2a9f04	0.041655555
86	0x3dc89569	0.09794123
87	0x3e012faf	0.12615846
88	0x3e2f2e8e	0.17107603
89	0xbc4da31c	-0.012551095
90	0x3d3a6816	0.04550942
91	0x3c350e10	0.011050716
92	0x3d659ba8	0.05605665
93	0xbc911fc7	-0.017715348
94	0x3b845e70	0.004039578
95	0x3de806c1	0.11329413
96	0xbdc77614	-0.097393185
97	0xbb335167	-0.0027361752
98	0x3d2994f4	0.04140182
99	0xbc164ddc	-0.009173837
100	0x00431fd1	6.164392e-39
101	0x9a792b92	-5.152719e-23
102	0x3cd5073d	0.026004428
103	0x3c5cb804	0.013471607
104	0x3ca3a8a9	0.019977884
105	0xbd0ec505	-0.03485586
106	0xbc6d335f	-0.01447758
107	0x3d2cd939	0.042199347
108	0x3dc20715	0.09474007
109	0x3cf975de	0.030451711
110	0xbdc61698	-0.09672278
111	0xbc5c972c	-0.013463777
112	0xbd06b720	-0.032889485
113	0xbbb74684	-0.005593123
114	0x3e5e8b24	0.21732765
115	0x3e225e37	0.15856253
116	0xbd1449a7	-0.036203053
117	0x002546ee	3.423358e-39
118	0x3d6b95f9	0.057516072
119	0x3c234796	0.009965798
120	0xbcc085f4	-0.023501374
121	0xbd29a364	-0.041415587
122	0x3cdb293f	0.026753066
123	0x3b667220	0.0035163239
124	0xbbeda7d6	-0.0072526736
125	0x3c8980e8	0.0167851
126	0xbd5f7951	-0.054559056
127	0x3d419a7e	0.047266476
128	0x3d8e4b7a	0.0694799
129	0x3d1de0e4	0.03854455
130	0x3d06fd63	0.032956492
131	0x3d1d8d30	0.038464725
132	0xbd55d675	-0.052206475
133	0x3bd39450	0.006456889
134	0xbd0587d7	-0.03260025
135	0xbc889227	-0.016671253
136	0xbdc5aa36	-0.09651606
137	0x3c8fb760	0.017543495
138	0xbd52e2d1	-0.05148584
139	0xbd37809f	-0.044800397
140	0xbcd1d2d9	-0.025613235
141	0xbb544749	-0.0032391122
142	0x3e398d36	0.18120274
143	0x800d19c4	-1.203104e-39
144	0x3e65e9cc	0.22452468
145	0xbd7d1703	-0.061789524
146	0xbcc5b2d1	-0.024133118
147	0x3bb440ff	0.005500912
148	0xa7fb8989	-6.981561e-15
149	0x3d23250f	0.039830264
150	0x3b952254	0.0045512114
151	0xbd23c2eb	-0.03998081
152	0x3d31e168	0.043427855
153	0x3d2bb6cc	0.041922376
154	0x37ad43f4	2.065485e-05
155	0xbbd476e5	-0.0064839
156	0x3c7cd07e	0.015430568
157	0x3e001290	0.12507081
158	0x3d646fa0	0.055770516
159	0x801361a3	-1.7799e-39
160	0x2ae1f1da	4.0135847e-13
161	0x3d2fef96	0.042953096
162	0x3d19b5f5	0.037527043
163	0xbbd06e71	-0.006360822
164	0x3babadbd	0.005239217
165	0x3d00f1a2	0.03148044
166	0xbd082178	-0.033235043
167	0x3dd53eaa	0.10412343
168	0xbd3d17d2	-0.046165295
169	0x3d877894	0.06614795
170	0xbd2d321a	-0.04228411
171	0x3d13148a	0.03590826
172	0x3e45e67a	0.19326201
173	0xbbeb764b	-0.0071857325
174	0xbd082082	-0.033234127
175	0x000bb4b3	1.075013e-39
176	0xbcc5e08e	-0.024154928
177	0x3cb23dd3	0.021757996
178	0x3c9ae8a0	0.018909752
179	0xbcb34041	-0.021881225
180	0x3c8e296b	0.017353734
181	0xbdd22e53	-0.10262742
182	0x3d810bbf	0.063010685
183	0x3e326b63	0.17423777
184	0x80459158	-6.388789e-39
185	0x3d80bbbc	0.062858075
186	0x8003632a	-3.1108e-40
187	0xbad4eac8	-0.0016244287
188	0x3de5e053	0.11224427
189	0xbc6d8dbd	-0.014499125
190	0xbcb6020c	-0.022217773
191	0x004b3eb5	6.910157e-39
192	0xbd719a36	-0.058984958
193	0xbc6c2cc1	-0.014414967
194	0x3d092a48	0.03348759
195	0xbcbefd71	-0.02331421
196	0x0ad0ec3c	2.0118533e-32
197	0x003048ba	4.434193e-39
198	0x3c42add7	0.011882267
199	0x9798aa7e	-9.865808e-25
200	0x3d26646e	0.04062312
201	0xbcfaa2b8	-0.030595168
202	0xbc75bcce	-0.014998628
203	0x0ee9dc05	5.7650806e-30
204	0x3d311852	0.043236084
205	0x3d08077d	0.033210266
206	0x001b901e	2.531258e-39
207	0x3e3a4ca8	0.18193305
208	0x80359c77	-4.92341e-39
209	0x2800dfb9	7.1539395e-15
210	0xbc789967	-0.015173293
211	0x3d3317f6	0.043724023
212	0xbccf16b7	-0.025279386
213	0x00138095	1.791001e-39
214	0x3d76d836	0.06026479
215	0xbce96f9b	-0.0284956
216	0xbd514eef	-0.051100668
217	0x3c34baa0	0.011030823
218	0x80142e6e	-1.853366e-39
219	0xbc26a001	-0.010169984
220	0x089ba9a3	9.368605e-34
221	0x3d86fd04	0.06591228
222	0xbca37acf	-0.01995602
223	0xbbbe798d	-0.00581283
224	0xbcd4de59	-0.02598493
225	0xbd981a22	-0.074268594
226	0xbc33050d	-0.010926497
227	0xbc64358e	-0.013928784
228	0x3d11e7cc	0.03562145
229	0x3d1d2b9f	0.03837168
230	0xbbac918b	-0.0052663735
231	0x3c4b23ef	0.012398704
232	0xbda48535	-0.0803322
233	0xbd5aa667	-0.05338135
234	0xbb8dfe8c	-0.004333323
235	0x001e1a0c	2.764409e-39
236	0x3ac64a75	0.0015128391
237	0xbd6b34c7	-0.05742338
238	0xbd8a688a	-0.067582205
239	0x3d40e76d	0.047095705
240	0xbd5a5296	-0.053301416
241	0x3d404342	0.046939142
242	0xbd242590	-0.040074885
243	0xbda77943	-0.08177426
244	0x3d365c3e	0.044521563
245	0x3b792343	0.0038015402
246	0xba988671	-0.0011636746
247	0x3c6b137e	0.014347909
248	0xb9e7d4e7	-0.00044218378
249	0xbd4007de	-0.046882503
250	0xbc271490	-0.010197774
251	0x3d5bd2ad	0.053667713
252	0x3d59d151	0.053178135
253	0xbccf79f1	-0.0253267
254	0xbbdab487	-0.0066743526
255	0xbca816af	-0.020518629

bias f4 [4]
0	0xbd4ee9a8	-0.0505158
1	0xbd3b07e1	-0.04566181
2	0x3d34fb3a	0.0441849
3	0xbd2a2deb	-0.041547697

weight f4 [4, 8]
0	0x3e7921cc	0.24329299
1	0xbd60df47	-0.054900434
2	0xbe239da2	-0.15978101
3	0x3e0aa923	0.13541083
4	0xbe235dc9	-0.15953745
5	0xbe300620	-0.17189837
6	0x3d3218b6	0.043480597
7	0x3d361293	0.044451308
8	0x3e832dd4	0.25620902
9	0xbe892b45	-0.26790825
10	0xbe9f0c62	-0.31064135
11	0xbe753c3e	-0.23948762
12	0x3d502602	0.050817497
13	0xbc8e7d2d	-0.017393673
14	0xbe10b398	-0.1413101
15	0x3d40fe6a	0.04711763
16	0xbca685a0	-0.02032739
17	0x800576da	-5.01813e-40
18	0x3cb3c232	0.021943185
19	0x378fa408	1.7123311e-05
20	0x00197a51	2.339766e-39
21	0x390449a0	0.00012615928
22	0x80168ce4	-2.070923e-39
23	0x3c611033	0.013736772
24	0x3ddf6e6b	0.109097324
25	0x3e085f5f	0.13317631
26	0xbe5fd041	-0.21856786
27	0xbdb377e7	-0.08763104
28	0xbdabab61	-0.08382297
29	0x3c73c000	0.014877319
30	0x3d60919e	0.05482637
31	0x3b5d4163	0.0033760897

bias f4 [4]
0	0x3e0fdded	0.14049502
1	0x3e14fd99	0.14549865
2	0xbd247e5c	-0.04015957
3	0xbe0e52ff	-0.13898848

weight f4 [4, 8]
0	0x39d28685	0.00040154546
1	0x3c706627	0.0146727925
2	0x3d14d04d	0.036331464
3	0xbd42a321	-0.047518853
4	0x3d9bd423	0.07608821
5	0x3e11a3c3	0.14222626
6	0x3b1c4acd	0.0023848296
7	0xaf6838c7	-2.1120448e-10
8	0xbd2eafdb	-0.042648178
9	0x27d36194	5.867006e-15
10	0x36838e8a	3.920698e-06
11	0xbd19aed1	-0.037520234
12	0x3b92cb7d	0.004479824
13	0x8003d8d7	-3.53294e-40
14	0xbd081238	-0.0332205
15	0xa1fd7bf5	-1.7176758e-18
16	0x3335bb26	4.2312557e-08
17	0xba86edee	-0.0010294297
18	0x3d10b27a	0.03532646
19	0x34bb0438	3.4834534e-07
20	0xbbfd65b5	-0.0077330717
21	0xbc9c7e5e	-0.019103225
22	0x3c85ec19	0.016347932
23	0x9610c2d1	-1.16937e-25
24	0x3e888eb4	0.26671374
25	0x3decbb99	0.11559219
26	0xbe7d23ad	-0.2472064
27	0x3e1b88ec	0.1518895
28	0xbe50e098	-0.20398176
29	0x3e3c2d14	0.18376571
30	0xba438b58	-0.00074594235
31	0x3d56a685	0.0524049

bias f4 [4]
0	0xbe254551	-0.16139723
1	0xbd3ba702	-0.045813568
2	0xbc04b57c	-0.00809991
3	0x3e323af8	0.17405307

weight f4 [10, 2]
0	0x3e3c74f3	0.18403988
1	0xbd6e62d5	-0.058199722
2	0xbd0a9bf8	-0.03384015
3	0x3e66e7ea	0.22549406
4	0x3ed4c8c1	0.41559413
5	0x3cb13cb5	0.021635393
6	0x3eee4c5e	0.4654264
7	0xbe3adad6	-0.18247542
8	0x3d984f4d	0.074370004
9	0xbdea3b43	-0.114370845
10	0x3e6b2db2	0.2296665
11	0xbe8c7785	-0.27434936
12	0x3b9724db	0.004612548
13	0xbeaa61d4	-0.33277762
14	0x3e3ab0df	0.18231533
15	0xbe869dad	-0.26292172
16	0x3f2519e8	0.64492655
17	0x3eb47f38	0.3525331
18	0xbec93c47	-0.393038
19	0x3d27534f	0.040850934

bias f4 [10]
0	0x3d4dc2c0	0.050234556
1	0x3a6822db	0.00088552915
2	0x3ec2f0c4	0.38074315
3	0xbeee9eab	-0.4660543
4	0x3e7eaaf2	0.24869898
5	0x3e803137	0.25037548
6	0xbdac27ed	-0.08406053
7	0x3f1b9cea	0.60786307
8	0x3e352edc	0.17693657
9	0xbe3a6537	-0.18202673

weight f4 [10, 2]
0	0xbeb0afd3	-0.34509143
1	0x3f16c1cc	0.5888946
2	0xbec21f9b	-0.37914738
3	0x3e8fc9de	0.280837
4	0x3a35674f	0.0006919996
5	0x38b26db5	8.508136e-05
6	0x3e07a81f	0.13247727
7	0x3ea0a8bb	0.3137873
8	0x3814a1ea	3.5436744e-05
9	0x3deefef0	0.11669719
10	0xbeb8b340	-0.36074257
11	0x3e9cffa2	0.30663782
12	0xbee128dd	-0.4397649
13	0x3ed9344f	0.4242272
14	0x80416c5e	-6.008182e-39
15	0x001eeac2	2.83928e-39
16	0xbf0d12be	-0.55106723
17	0xbee8a933	-0.4544159
18	0x3f2c4f18	0.6730819
19	0x3e559474	0.20857412

bias f4 [10]
0	0x3eba3f62	0.36376482
1	0x3ecc4ae8	0.399009
2	0xbc22ca62	-0.009935947
3	0x3eec2235	0.46119848
4	0xbe49fb5b	-0.19724791
5	0x3eb3cf45	0.35119072
6	0x3ddeeee6	0.1088541
7	0xbe2070d6	-0.15668043
8	0xbe2b1fad	-0.16711302
9	0xbf134bf4	-0.5753777

weight f4 [20, 4]
0	0x3de60be1	0.112327345
1	0xbeb5cb7e	-0.35506815
2	0x3e33cf31	0.17559506
3	0x3df601a8	0.12012035
4	0x3e8e8a3f	0.27839848
5	0x3e938d14	0.28818572
6	0x3cf76349	0.03019871
7	0x3eb381bc	0.35059917
8	0x3eb3161c	0.34977806
9	0x3f030cf8	0.51191664
10	0x3ded34d7	0.11582344
11	0x3dd73761	0.105086096
12	0xbe1b3405	-0.15156563
13	0x3c9a550a	0.018839378
14	0xbf135119	-0.5754562
15	0xbcef635d	-0.029222185
16	0x3da8a807	0.08235174
17	0x3eb507f6	0.35357636
18	0x3ef67a7a	0.48140317
19	0x3efbae3f	0.49156377
20	0xbe9acff7	-0.3023679
21	0x3d9fc251	0.07800735
22	0xbe05af0a	-0.13055053
23	0x3be6227b	0.0070231534
24	0xbad19f81	-0.001599297
25	0x131d1b5c	1.9829675e-27
26	0xb06be81f	-8.5822366e-10
27	0xbc1dce23	-0.009631666
28	0x3ddfefdc	0.109344214
29	0x3e1614e8	0.14656413
30	0xbed1f989	-0.41010693
31	0x3e92dfaf	0.28686282
32	0x3ef2950e	0.47379345
33	0x3eba5964	0.36396325
34	0x3ea2dfaf	0.31811282
35	0xbd681a34	-0.056665614
36	0xbc6a72db	-0.01430961
37	0xbee08ae2	-0.4385596
38	0x3e91f107	0.28504202
39	0xbee78f30	-0.4522643
40	0xbef826b9	-0.48467043
41	0x3e617be7	0.22019921
42	0x3e05805c	0.13037246
43	0x3ef1f5f7	0.4725797
44	0xbd483a66	-0.048883818
45	0xbc6c332c	-0.014416497
46	0xbd1e7451	-0.038685147
47	0xbe477aa0	-0.19480371
48	0x3e031d3a	0.12804118
49	0xbe183f18	-0.14867818
50	0x3ee03446	0.4378988
51	0xbebc132a	-0.3673337
52	0xbe7731fe	-0.24140164
53	0x3d72a411	0.059238497
54	0x3e520ef7	0.20513521
55	0x3ee68ffc	0.45031726
56	0x3e539b08	0.20664608
57	0xbec28fa1	-0.38000205
58	0xbe9dff27	-0.30858728
59	0xbe61096b	-0.21976249
60	0xbe40e835	-0.1883858
61	0xbecb5545	-0.39713493
62	0x3e9ed3e4	0.31021035
63	0x3ecbea45	0.3982717
64	0xbd54710d	-0.051865626
65	0xbe9bcf14	-0.30431426
66	0xbed2de66	-0.41185302
67	0xbe19ff28	-0.1503874
68	0xbd9d27ea	-0.07673629
69	0xbe30b8d6	-0.1725801
70	0x3e22146b	0.15828101
71	0xbef79798	-0.48357844
72	0x3edca78f	0.43096587
73	0x3e8cb62c	0.27482736
74	0x3ebda872	0.37042576
75	0xbe28a7fa	-0.16470328
76	0xbe48666d	-0.19570322
77	0x3eb769cf	0.35822913
78	0x3e5ac771	0.21365143
79	0xbdf2f945	-0.11863951

bias f4 [20]
0	0x3e264c61	0.16240074
1	0x3e889bc4	0.2668134
2	0xbed08c32	-0.4073196
3	0x3ed13f76	0.4086873
4	0x3dc2b5a2	0.095073
5	0xbe49cf4b	-0.19707982
6	0xbd010eb7	-0.031508174
7	0xbd982fd3	-0.07430997
8	0xbef58b29	-0.47957733
9	0x3eca099c	0.39460456
10	0xbddb5967	-0.107104115
11	0x3c5e3e2f	0.01356463
12	0xbeddb35a	-0.43300897
13	0xbcc96189	-0.024582641
14	0xbe2e020b	-0.16992967
15	0xbeb6b92c	-0.3568815
16	0xbd0e17c8	-0.03469065
17	0x3e0e74d8	0.1391176
18	0x3ee0ccde	0.439063
19	0x3d1c6c45	0.03818919

F f4 [2, 2]
0	0x3f800000	1.0
1	0x3f800000	1.0
2	0x00000000	0.0
3	0x3f800000	1.0

Q f4 [2, 2]
0	0x3c23d70a	0.01
1	0x00000000	0.0
2	0x00000000	0.0
3	0x3c23d70a	0.01

H f4 [2, 2]
0	0x3f800000	1.0
1	0x00000000	0.0
2	0x00000000	0.0
3	0x3f800000	1.0

R f4 [2, 2]
0	0x3f800000	1.0
1	0x00000000	0.0
2	0x00000000	0.0
3	0x3f800000	1.0

prior_Q f4 [2, 2]
0	0x3f800000	1.0
1	0x00000000	0.0
2	0x00000000	0.0
3	0x3f800000	1.0

prior_Sigma f4 [2, 2]
0	0x00000000	0.0
1	0x00000000	0.0
2	0x00000000	0.0
3	0x00000000	0.0

prior_S f4 [2, 2]
0	0x3f800000	1.0
1	0x00000000	0.0
2	0x00000000	0.0
3	0x3f800000	1.0

m1x_0 f4 [2, 1]
0	0x00000000	0.0
1	0x00000000	0.0

m2x_0 f4 [2, 2]
0	0x00000000	0.0
1	0x00000000	0.0
2	0x00000000	0.0
3	0x00000000	0.0
