ERTSNet/new_arch_LA/decimation/model/second-pass-of-15.5_TrainOnOutputoffirstpass.pt (torch, 194533 bytes, 63 tensors)

weight_ih_l0 f4 [27, 15]
0	0x3e1ba432	0.15199354
1	0x3d444c4a	0.047924317
2	0x3e8e3a63	0.2777892
3	0x3e8ff656	0.28117627
4	0xbe7cd824	-0.24691826
5	0xbe95b6b1	-0.29240945
6	0xbe5b59e3	-0.21421008
7	0xbeace5f6	-0.33769196
8	0xbea1f014	-0.31628478
9	0x3e786d55	0.24260457
10	0x3c8b09cb	0.016972443
11	0xbe710ddf	-0.23540448
12	0x20fbf8e4	4.2685756e-19
13	0xbdcc723c	-0.09982726
14	0xbe87db18	-0.26534343
15	0xbe8fae60	-0.28062725
16	0x3e56ff7e	0.209959
17	0xbe921f9b	-0.28539738
18	0xbe590098	-0.21191633
19	0xbe3ae764	-0.18252331
20	0xbe431fc5	-0.19055088
21	0xbdc2435e	-0.094855055
22	0x3ca3de3f	0.020003436
23	0x3df43892	0.119248524
24	0xbd8f70d7	-0.07003944
25	0x3e89ad8b	0.26890215
26	0xbc85c863	-0.016330903
27	0x2ff2adaf	4.4142953e-10
28	0x3cb853ae	0.02250084
29	0xbe65ee69	-0.22454228
30	0xbdbe1709	-0.09281737
31	0x3d52c371	0.05145592
32	0xbe415052	-0.18878296
33	0xbdae6ea5	-0.085171975
34	0xbe051908	-0.1299783
35	0x3e9b15ff	0.3029022
36	0xbdfcac78	-0.12337583
37	0xbe53fb74	-0.2070139
38	0xbd3ea254	-0.046541527
39	0x3e3a79f3	0.18210582
40	0xbdd0eab4	-0.10201016
41	0x3b48bfb1	0.0030631835
42	0x241e45e5	3.431999e-17
43	0x3c23f9a9	0.010008254
44	0xbd6fc710	-0.05853945
45	0x3da6bc45	0.08141378
46	0xbe14f2f0	-0.14545798
47	0xbe9e2f45	-0.3089544
48	0x3d09c5b5	0.033635814
49	0x3d50b700	0.050955772
50	0x3e534806	0.20632944
51	0x3e166d30	0.14690089
52	0x3e4e4ef8	0.20147312
53	0xbdfe1e64	-0.1240814
54	0xbe98c02d	-0.29834118
55	0xbdf8f80f	-0.121566884
56	0xbd3ce1b9	-0.046113703
57	0xa4008178	-2.786524e-17
58	0xbd65abe9	-0.05607215
59	0xbe881d1f	-0.26584718
60	0x3d5a92f2	0.053362794
61	0x3e97153f	0.29508397
62	0x3cd03ea3	0.025420493
63	0x3bf2c577	0.0074087935
64	0xbe94dc70	-0.2907443
65	0x3e50162b	0.20320956
66	0x3df181b5	0.11792318
67	0x3e650d8b	0.22368447
68	0x3e7cd62c	0.24691075
69	0x3de3350b	0.110941015
70	0x3e493e1c	0.19652599
71	0x3d92c02a	0.07165559
72	0xa2b895f0	-5.0032052e-18
73	0x3d4e87da	0.050422527
74	0x3e90d6d4	0.282889
75	0xbe41c7be	-0.18923852
76	0xbe88707d	-0.26648322
77	0x3da4f053	0.08053651
78	0x3d97ffa9	0.0742181
79	0xbd9d4dde	-0.076808676
80	0xbde52a8f	-0.11189758
81	0xbe762eb5	-0.24041255
82	0xbc96a6f1	-0.01839015
83	0x3d110353	0.03540356
84	0x3e720917	0.2363628
85	0xbc7059e4	-0.014669869
86	0x3e977513	0.29581508
87	0x340617e7	1.2488418e-07
88	0xbe4716ec	-0.19442338
89	0xbe578094	-0.21045142
90	0x3e92e553	0.28690585
91	0xbdf6d846	-0.1205297
92	0xbe980160	-0.2968855
93	0xbd885297	-0.06656378
94	0x3e44e125	0.19226511
95	0x3d863de3	0.06554773
96	0x3d522b5b	0.05131088
97	0xbe62ed09	-0.22160734
98	0xbd39e03a	-0.045379855
99	0x3d64ed50	0.05589038
100	0xbd5e63ee	-0.05429452
101	0x3e87fc1a	0.26559526
102	0x9c04dde5	-4.396193e-22
103	0x3c2c2d1f	0.010508805
104	0xbdbe6b29	-0.09297783
105	0xbe522411	-0.2052157
106	0x3d48438e	0.04889255
107	0x3c3f01a0	0.011658102
108	0x3dfc09ac	0.12306532
109	0x3e4bac1b	0.19889872
110	0x3b826293	0.003979036
111	0xbe0f90e8	-0.14020121
112	0x3e235405	0.1595002
113	0xbda860c4	-0.082215816
114	0x3e1fefab	0.1561877
115	0xbe3a4a2e	-0.1819236
116	0xbd0bf109	-0.034165416
117	0xa33a45ea	-1.0097885e-17
118	0x3d8a1c80	0.06743717
119	0x3c5ef83c	0.013608988
120	0x3e06a112	0.13147381
121	0x3e847ce6	0.2587654
122	0xbe879247	-0.26478788
123	0xbe45e67a	-0.19326201
124	0x3e2480b5	0.16064723
125	0xbc08ce06	-0.008349901
126	0x3c8fc5b4	0.017550327
127	0xbd36e9d8	-0.044656605
128	0xbafdf253	-0.0019374586
129	0xbe024400	-0.12721252
130	0xbd34bba9	-0.04412428
131	0x3e36aa76	0.17838463
132	0xa18a1050	-9.355562e-19
133	0xbda1894e	-0.07887517
134	0xbe4be630	-0.19912028
135	0xbe8c8d5a	-0.27451593
136	0xbd0eb484	-0.034840122
137	0xbe4e5f68	-0.20153582
138	0xbdea28f6	-0.11433594
139	0x3e42edf5	0.19036086
140	0xbe3917ee	-0.18075535
141	0x3e10d708	0.14144528
142	0x3d8c6e57	0.06856983
143	0xbe745975	-0.2386225
144	0xbe0a43b0	-0.13502383
145	0xbbbc3c96	-0.005744527
146	0xbda45983	-0.080248855
147	0xb9864373	-0.00025608725
148	0xbe37e328	-0.17957747
149	0xbe9e263c	-0.30888546
150	0x3e7aa7a7	0.24478017
151	0x3d0696f7	0.032858815
152	0x3c4613a0	0.01208964
153	0xbe529484	-0.20564467
154	0x3ce6beb9	0.028167116
155	0x3c954be2	0.01822466
156	0xbe91afdc	-0.28454483
157	0xbea58d03	-0.32334146
158	0xbdb6fec0	-0.089353085
159	0xbd2c7a50	-0.042108834
160	0x3c96fd01	0.018431189
161	0xbdabcff2	-0.08389272
162	0xb1bee17e	-5.5553633e-09
163	0xbcca3d66	-0.02468748
164	0xbcc9e1a9	-0.024643736
165	0x3cd1d30b	0.025613328
166	0xbd62e97d	-0.055398453
167	0x3e7cc574	0.24684697
168	0x3dd300f7	0.103029184
169	0x3ce8ee49	0.028433936
170	0xbc49b9ea	-0.012312392
171	0x3e017cb1	0.12645222
172	0xbd85b198	-0.06528014
173	0xbe8500d4	-0.25977194
174	0x3e53ccb8	0.20683563
175	0xbe57afcc	-0.21063155
176	0xbd53d5f2	-0.051717706
177	0x3495a917	2.7876442e-07
178	0x3849398f	4.797574e-05
179	0xbe3ff3a2	-0.18745282
180	0x3e246eab	0.16057841
181	0xbb8f4149	-0.0043717963
182	0xbe149b5a	-0.14512387
183	0x3ea525df	0.32255456
184	0xbe45d498	-0.1931938
185	0xbe875a58	-0.26436114
186	0xbe8a75c3	-0.2704297
187	0xbe0c0d0f	-0.13676856
188	0x3ce0c833	0.027439212
189	0x3da63407	0.08115392
190	0xbddfc776	-0.10926716
191	0xbdbda658	-0.09260243
192	0xb8674984	-5.514316e-05
193	0x3d07244b	0.032993596
194	0x3ea766d5	0.32695642
195	0xbe791f4a	-0.24328342
196	0x3cdde6f0	0.027087659
197	0xbe9c44cf	-0.30521247
198	0xbd53e4a5	-0.051731724
199	0x3e1636ba	0.14669314
200	0x3d8eb7e1	0.06968666
201	0xbbd55025	-0.006509798
202	0xbe1ef4c6	-0.15523061
203	0xbe9f3f25	-0.31102863
204	0x3e318ecf	0.17339633
205	0x3e7342e6	0.23755988
206	0x3dac9001	0.08425904
207	0x9d3a5403	-2.4660328e-21
208	0xba806c79	-0.0009797952
209	0xbe8ddd61	-0.2770796
210	0x3e74a865	0.23892362
211	0x3b141436	0.0022595054
212	0xbe8500ac	-0.25977075
213	0xbe75e90a	-0.24014679
214	0x3e93d8ef	0.28876445
215	0x3e138c86	0.14409074
216	0xbda0a3c2	-0.07843734
217	0x3d150002	0.03637696
218	0xbc1a1fde	-0.009407012
219	0xbe2a9927	-0.16659985
220	0x3e4395f7	0.19100176
221	0xbdf4ae78	-0.1194734
222	0x36a48407	4.902951e-06
223	0xbe6ae4b4	-0.22938806
224	0xbdae532b	-0.08511957
225	0xbe34aef6	-0.17644867
226	0x3e5be310	0.21473336
227	0x3e715559	0.23567714
228	0xbe99af9d	-0.30016795
229	0x3d99236f	0.074774615
230	0xbd33c034	-0.04388447
231	0xbea39a50	-0.3195367
232	0x3d3243a6	0.043521546
233	0x3e41ea15	0.18936951
234	0xbe4c5ee7	-0.19958077
235	0xbe8e1e7a	-0.27757627
236	0xbdb6a2af	-0.08917748
237	0x373296e3	1.0644758e-05
238	0x3d4c6048	0.04989651
239	0x3df8dfd1	0.121520646
240	0xbdcfc487	-0.101449065
241	0xbe9b759b	-0.30363163
242	0x3dbce1d7	0.09222763
243	0x3e2c15fd	0.16805263
244	0xbe23d68d	-0.15999813
245	0x3dd641af	0.10461747
246	0xbdb925e1	-0.09040428
247	0x3c3b59e1	0.011435003
248	0xbcf5e210	-0.030015022
249	0xbd006096	-0.03134211
250	0x3d80e92d	0.06294475
251	0x3e50b68c	0.20382136
252	0x1962e832	1.1730818e-23
253	0xbd285106	-0.041092895
254	0x3e42818a	0.18994728
255	0x3e9c6443	0.30545244

weight_hh_l0 f4 [27, 9]
0	0x3d6bf808	0.057609588
1	0xbc75c6f9	-0.015001052
2	0x3e48465f	0.19558094
3	0xbe7b7548	-0.24556458
4	0xbe19feda	-0.15038624
5	0x3e9a9473	0.30191383
6	0x3ea846f2	0.32866627
7	0xbe995132	-0.2994476
8	0xbe6522b3	-0.22376518
9	0x3dc94e2d	0.09829364
10	0x3e88870d	0.26665536
11	0x3e82f3b4	0.25576556
12	0xbe032e4b	-0.12810628
13	0xbdcbe839	-0.09956402
14	0xbdf8ee28	-0.121548
15	0xbe3a4a78	-0.1819247
16	0xbdf214c8	-0.1182037
17	0xbe286c27	-0.16447507
18	0x3d6955dc	0.056966648
19	0xbd15cf85	-0.03657486
20	0xbe0fc46a	-0.1403977
21	0x3cff7d59	0.0311877
22	0xbd9bbb26	-0.07604055
23	0x3d90cfdf	0.07070898
24	0xbe94c1d3	-0.29054126
25	0x3e44c546	0.19215879
26	0x3b429525	0.0029690948
27	0xbe956fdc	-0.29186904
28	0xbe50d076	-0.20392022
29	0xbe3f2a1e	-0.1866841
30	0x3e447a46	0.19187269
31	0xbda10f06	-0.078641936
32	0x3e2000b3	0.15625267
33	0xbe0ac3fc	-0.13551325
34	0x3e253524	0.16133553
35	0xbde52120	-0.11187959
36	0x3d9b982a	0.07597382
37	0xbe8a8f9f	-0.270627
38	0xbd732f03	-0.059371006
39	0x3db638cb	0.08897551
40	0xbc9934b4	-0.018701889
41	0xbdb9ead5	-0.09077994
42	0x3e76911d	0.24078794
43	0xbe6e31f2	-0.2326124
44	0xbd79dc4d	-0.06100111
45	0x3e0f65e8	0.14003718
46	0xbe3426c2	-0.1759291
47	0x3e5e5a89	0.21714224
48	0xbdd141e2	-0.10217644
49	0x3d829a5b	0.06377097
50	0xbe8c78ff	-0.27436063
51	0x3e872ee8	0.26402974
52	0xbd3b24cb	-0.045689385
53	0x3e9a7d4b	0.30173716
54	0x3e9fb0c7	0.31189558
55	0xbde803ab	-0.113288246
56	0xbe8a4e94	-0.27013075
57	0x3e177fd3	0.14794855
58	0x3dee92d9	0.11649103
59	0x3e068b29	0.13139023
60	0xbe1e0b50	-0.15434003
61	0xbcc845a8	-0.024447277
62	0x3e04f504	0.12984091
63	0x3bbe4291	0.005806275
64	0xbe3a234c	-0.18177527
65	0xbd12f69a	-0.03587971
66	0xbd8e459e	-0.06946872
67	0xbd351fb4	-0.044219688
68	0xbdd880f4	-0.10571471
69	0xbd66691c	-0.056252584
70	0x3e97dd7d	0.2966117
71	0x3e5ae68b	0.21377008
72	0x3d0dfa3e	0.034662478
73	0x3d5a78f4	0.053338006
74	0x3e5ee1a1	0.21765758
75	0x3e3eaa4d	0.18619652
76	0x3de065de	0.109569296
77	0xbe73843a	-0.23780909
78	0xbd39c99c	-0.045358285
79	0xbdeb7a0f	-0.1149789
80	0x3da0992b	0.078417145
81	0x3e23b76f	0.15987943
82	0x3e2107e0	0.1572566
83	0x3e8f4227	0.27980158
84	0x3e91bef1	0.2846599
85	0xbe904be2	-0.28182894
86	0xbdcd8247	-0.10034614
87	0xbe2d6112	-0.1693156
88	0xbd06299e	-0.032754533
89	0x3de8f4d0	0.11374819
90	0xbdc1460a	-0.09437187
91	0xbcc752b3	-0.024331426
92	0xbc075432	-0.00825982
93	0xbe2202cf	-0.15821384
94	0xbe5909b7	-0.21195112
95	0xbe463875	-0.19357474
96	0xbc213081	-0.009838224
97	0x3e564108	0.20923245
98	0xbd2d46e7	-0.042303946
99	0xbe315ebd	-0.17321296
100	0x3d1eeadf	0.03879821
101	0x3dfaaa4d	0.122395135
102	0x3d196a1b	0.037454706
103	0x3e8192f1	0.2530742
104	0xbe3a5872	-0.18197802
105	0x3e74a367	0.23890458
106	0xbd1afa5e	-0.037836425
107	0x3de80374	0.11328784
108	0x3db24991	0.08705438
109	0x3e5f4ae8	0.21805918
110	0x3e0cf155	0.13763936
111	0x3e632742	0.22182944
112	0x3e85be53	0.26121768
113	0x3daa8f8d	0.083281614
114	0xbe0af6e1	-0.1357074
115	0x3dc7cf3c	0.09756324
116	0x3daf686d	0.085648395
117	0xbdbb99dd	-0.091602065
118	0xbe85bb3e	-0.26119417
119	0x3e3b6892	0.18301609
120	0x3e6b5aa9	0.22983803
121	0xbd874016	-0.0660402
122	0xbcb18708	-0.021670833
123	0x3d641e5d	0.05569302
124	0xbd92b926	-0.071642205
125	0x3d33abf3	0.043865155
126	0xbe331548	-0.17488587
127	0x3d8c3781	0.06846524
128	0xbc057c06	-0.008147245
129	0xbe5ba834	-0.21450883
130	0xbe5e88c7	-0.21731864
131	0x3e3b3f5d	0.1828589
132	0x3dd818ff	0.105516426
133	0xbe131b1c	-0.1436581
134	0x3d8c074c	0.06837329
135	0xbc928d89	-0.017889755
136	0x3d72e8f9	0.05930421
137	0x3e4a8581	0.1977749
138	0xbea596b9	-0.32341555
139	0x3d6e2280	0.05813837
140	0xbdaa1c83	-0.083062194
141	0xbda6ccd5	-0.08144537
142	0xbe2b72b7	-0.16742979
143	0xbd513f95	-0.051086027
144	0xbdec49d5	-0.1153752
145	0x3ded1255	0.11575762
146	0x3e930f34	0.28722537
147	0x3e506699	0.20351638
148	0x3ea4b5de	0.32170004
149	0xbdeb09b3	-0.11476459
150	0xbcaa7b7a	-0.020810831
151	0xbe559552	-0.20857742
152	0xbdb0c839	-0.086319394
153	0xbd90b7a9	-0.070662804
154	0xbe807737	-0.25090954
155	0x3d5ab9c2	0.05339981
156	0x3cf2f279	0.029656636
157	0xbea1cbaa	-0.31600696
158	0x3dc90d5a	0.09817
159	0xbe89c298	-0.26906276
160	0xbde86a77	-0.113484316
161	0xbe19bc71	-0.15013291
162	0xbd799501	-0.060933117
163	0xbe94ace1	-0.29038146
164	0x3e181788	0.14852726
165	0xbe72e5d2	-0.23720482
166	0x3e78041b	0.24220316
167	0x3ea89ac6	0.32930583
168	0x3e9dded0	0.30834055
169	0x3e637c84	0.22215468
170	0xbdcb4407	-0.099250846
171	0x3d9c3047	0.07626396
172	0x3e664077	0.22485529
173	0x3cc024fd	0.023455137
174	0x3d01565e	0.031576507
175	0xbe047439	-0.1293496
176	0xbd5595af	-0.052144703
177	0x3d19874c	0.037482545
178	0x3e10af58	0.14129388
179	0x3d95fcbb	0.07323595
180	0x3e61e03a	0.22058192
181	0x3c93d367	0.01804514
182	0xbe0e031a	-0.1386837
183	0xbda4e397	-0.08051222
184	0x3eb1732b	0.3465818
185	0xbe9b9290	-0.30385256
186	0xbea1c57f	-0.3159599
187	0x3e571e74	0.2100771
188	0xbe13795e	-0.14401767
189	0xbe98885e	-0.2979154
190	0xbe90c04a	-0.28271705
191	0x3e505045	0.2034312
192	0xbdca8e54	-0.09890428
193	0xbd8feb01	-0.07027245
194	0x3e480cb7	0.195361
195	0xbe1afaa3	-0.15134673
196	0xbe073ad5	-0.13206036
197	0x3e4cc4f0	0.19997
198	0xbd54c216	-0.051942907
199	0xbcf276d3	-0.029597675
200	0xbe2cb19a	-0.16864625
201	0x3b9f1eb0	0.004855953
202	0x3c48a19b	0.012245561
203	0x3e4cf81e	0.20016524
204	0xbde4b079	-0.11166472
205	0x3ea36e60	0.31920147
206	0x3d88db31	0.066824324
207	0x3e4045ed	0.18776675
208	0x3e38dcb1	0.18052937
209	0xbea36525	-0.31913105
210	0xbe430865	-0.19046171
211	0x3e511b4c	0.20420569
212	0x3e82f138	0.2557466
213	0xbe1c68fe	-0.15274426
214	0x3e933018	0.2874763
215	0xbea2407c	-0.31689823
216	0xbea84f6a	-0.32873088
217	0xbe06cb2e	-0.13163444
218	0x3e2e34d1	0.17012335
219	0x3e2cb2ba	0.16865054
220	0x3e476480	0.19471931
221	0xbdf189f2	-0.11793889
222	0x3d09a2fd	0.033602703
223	0x3c997451	0.018732222
224	0x3e0c8656	0.1372312
225	0x3cfcfaa7	0.03088124
226	0xbe8edd07	-0.27903005
227	0xbdd525b3	-0.10407581
228	0x3e1283af	0.14308046
229	0x3e579cff	0.21055983
230	0xbd3a9903	-0.04555608
231	0x3da0711e	0.078340754
232	0xbdafebd1	-0.085899
233	0x3dee3f29	0.116331406
234	0xbd838fc9	-0.06423909
235	0xbe95adbf	-0.2923412
236	0x3d91a6ad	0.07111869
237	0x3d05fb64	0.032710448
238	0xbe0f7c56	-0.14012274
239	0xbd3e1d2b	-0.046414535
240	0x3e0f934d	0.14021035
241	0x3e641694	0.22274238
242	0xbe4f44bc	-0.20241064

bias_ih_l0 f4 [27]
0	0xbea9c57b	-0.33158478
1	0x3d306414	0.043064192
2	0xbdddf8cd	-0.108384706
3	0x3c4493bf	0.011998116
4	0xbb0a57b3	-0.0021109402
5	0xbda3cab6	-0.079976484
6	0xbe7f6a9f	-0.24943016
7	0x3da73bf6	0.081657335
8	0x3cd9ed34	0.026602365
9	0xbe74fa0c	-0.2392351
10	0x3e0ee8cd	0.13955994
11	0x3da1bd7f	0.07897472
12	0xbc65eaac	-0.014033001
13	0x3daf9ad5	0.08574454
14	0x3c107ef3	0.00881933
15	0xbe8a1f6f	-0.26977107
16	0xbd9fe192	-0.07806696
17	0xbe23b473	-0.15986805
18	0xbe5c0d41	-0.21489431
19	0xbe3c54eb	-0.18391769
20	0xbe79b7b8	-0.2438649
21	0xbe955347	-0.29165098
22	0xbdaad539	-0.0834145
23	0xbeabb133	-0.3353363
24	0xbde16221	-0.11005045
25	0xbe51751f	-0.20454834
26	0x3d80700f	0.062713735

bias_hh_l0 f4 [27]
0	0xbdd4beb1	-0.10387934
1	0xbdddbea4	-0.108273774
2	0xbdae9f8a	-0.085265234
3	0xbe29f579	-0.16597547
4	0xbdbee1c3	-0.093204044
5	0x3e5dedf9	0.2167281
6	0x3e0acd1e	0.13554808
7	0x3e30b788	0.17257512
8	0x3d29406f	0.041321214
9	0xbe2b2a19	-0.16715278
10	0x3e46f7a8	0.19430411
11	0xbe725a1d	-0.23667188
12	0xbe818007	-0.2529299
13	0x3caffd6a	0.021483142
14	0x3e9e7f6e	0.30956596
15	0xbdf3e12f	-0.11908185
16	0xbe8ce679	-0.27519587
17	0xbd0d7a3d	-0.034540404
18	0x3e89cd1a	0.26914293
19	0x3e0993a1	0.13435222
20	0x3db7f3d2	0.08982052
21	0xbe817a9a	-0.2528885
22	0xbe755e97	-0.23961864
23	0x3c8b4a28	0.017003134
24	0xbd8eba6a	-0.069691494
25	0x3e339c3f	0.17540072
26	0xbd886273	-0.06659403

weight_ih_l0 f4 [27, 24]
0	0xbe407ee3	-0.18798403
1	0x3e4fbf59	0.20287837
2	0xbdfa7372	-0.12229051
3	0x3eacae00	0.337265
4	0x3d9f0073	0.077637576
5	0xbe565393	-0.20930319
6	0x3e06a7ae	0.13149902
7	0xbe946e78	-0.2899053
8	0x3e89560d	0.26823464
9	0xbe89ce7a	-0.26915342
10	0x3dcd94c3	0.1003814
11	0x3dda17b6	0.10649054
12	0xbd9ab343	-0.07553723
13	0xbcacb5ef	-0.021082846
14	0xbe6d1841	-0.23153783
15	0x3e86e8d1	0.263495
16	0x261b0013	5.377653e-16
17	0x3e7f4234	0.24927598
18	0xbe19e395	-0.15028222
19	0xbd620e79	-0.055189583
20	0xbdb55c2e	-0.088554725
21	0x3e85b6da	0.26116067
22	0xbe4ad982	-0.19809535
23	0xbe98cab1	-0.2984214
24	0xbe3feac9	-0.18741907
25	0x3df4b007	0.11947637
26	0xbe8e3b60	-0.27779675
27	0xbe1c17a4	-0.15243393
28	0xbddd908e	-0.10818587
29	0xbdbcf31b	-0.09226056
30	0xbe8a434c	-0.27004468
31	0x3d8754c9	0.06607968
32	0xbd9a862a	-0.07545121
33	0x3e2d00ea	0.1689488
34	0x3d8d7c02	0.06908418
35	0x3de09dbc	0.109675854
36	0x38866e56	6.4101696e-05
37	0xbc1a81c3	-0.009430352
38	0x3e6fed6f	0.23430417
39	0x3dc02184	0.093813926
40	0x382c0396	4.1011335e-05
41	0x3e824bf7	0.25448582
42	0x3e056674	0.13027364
43	0x3e6364ec	0.22206467
44	0xbd97394e	-0.07383977
45	0x3e4b6805	0.19863899
46	0xbd83f350	-0.064428926
47	0xbe66487a	-0.22488585
48	0xbc15184d	-0.009100032
49	0x3e6f3a80	0.2336216
50	0xbead910d	-0.33899727
51	0x3e66d572	0.2254236
52	0xbe9fc6e8	-0.3120644
53	0x3e9d1597	0.30680534
54	0x3e0a37e4	0.13497883
55	0x3d4a79d4	0.04943259
56	0xbd48622a	-0.04892174
57	0xba85a66f	-0.0010196696
58	0xbe4d84bc	-0.20070165
59	0xbda34ea4	-0.07973984
60	0x3da718ae	0.08159004
61	0x3cf08546	0.029360425
62	0x3e08e0b8	0.13366973
63	0xbc8e8db0	-0.017401546
64	0xaccf3261	-5.888887e-12
65	0xbe091aff	-0.13389204
66	0x3e600318	0.2187618
67	0x3e4b557a	0.19856825
68	0xbe510096	-0.2041038
69	0x3d8ecf58	0.069731414
70	0x3e13cb37	0.14432989
71	0x3e8654ef	0.26236674
72	0x3e39f9f0	0.1816175
73	0x3decb68e	0.11558257
74	0xbe3d33cf	-0.18476795
75	0xbe0f4d73	-0.13994388
76	0x3e5a10eb	0.21295516
77	0x3e49fa99	0.19724502
78	0x3e07b9ca	0.13254467
79	0xbe33f14c	-0.17572516
80	0xbd19a9fb	-0.03751562
81	0xbe1848a2	-0.14871457
82	0xbe94358f	-0.28947112
83	0xbe88a3e2	-0.26687533
84	0x3c35541e	0.011067418
85	0xba8e8783	-0.0010874126
86	0x3d83a90e	0.06428729
87	0x3d72920d	0.059221316
88	0x27be10b4	5.2753703e-15
89	0x3e57de8e	0.21080992
90	0xbc6ede6e	-0.014579399
91	0x3e660c34	0.22465593
92	0xbd281f15	-0.041045267
93	0x3e343f0b	0.17602174
94	0x3ea1115d	0.3145856
95	0xbe32c0e2	-0.17456391
96	0x3e23e34a	0.16004673
97	0x3cbc634a	0.022996563
98	0x3e92b9a1	0.2865725
99	0xbe3ffce6	-0.18748817
100	0x3eaae192	0.33375221
101	0xbe2395e9	-0.15975155
102	0x3e6e9c0a	0.23301712
103	0xbe5cdcc2	-0.21568587
104	0xbe3722eb	-0.17884414
105	0xbc307005	-0.010768895
106	0xbdcbd178	-0.09952062
107	0x3e1d026b	0.15332954
108	0xbb09e580	-0.0021041334
109	0x3cf7a9c8	0.030232325
110	0x3c273cb3	0.010207343
111	0xbd75988c	-0.059959933
112	0x38aa1f97	8.112116e-05
113	0xbd955ce4	-0.07293108
114	0x3c6a08d3	0.01428433
115	0xbd34ed25	-0.04417147
116	0x3ea76900	0.32697296
117	0x3dfe745d	0.12424538
118	0x3d95f4ea	0.07322104
119	0xbe4fd91e	-0.20297667
120	0xbdeab46a	-0.114601925
121	0xbcaeecfd	-0.02135324
122	0x3e620d98	0.22075498
123	0x3e7f1069	0.24908604
124	0xbdeff761	-0.11717106
125	0xbe402efa	-0.1876792
126	0x3e8258b4	0.254583
127	0xbe6e86fb	-0.23293678
128	0x3ea355e8	0.3190148
129	0x3dde3dae	0.10851608
130	0xbe401f8d	-0.18762036
131	0x3e977457	0.29580948
132	0x39a85204	0.00032104563
133	0x3c5f351f	0.013623505
134	0x3ce4e178	0.027939543
135	0x3d0dae7f	0.03459024
136	0x36f3b60d	7.263158e-06
137	0xbdb332e2	-0.087499395
138	0x3d26bb1c	0.040705785
139	0x3dad5523	0.08463504
140	0xbe13e67a	-0.14443389
141	0x3d4abb5e	0.049495094
142	0x3d6a8308	0.057253867
143	0x3e3372c7	0.17524253
144	0x3d2bdacd	0.04195671
145	0xbc430e9b	-0.011905338
146	0xbca0115f	-0.019539533
147	0x3d634cb9	0.05549309
148	0xbe10b7af	-0.1413257
149	0xbe156cb4	-0.14592248
150	0x3ea95dbe	0.33079332
151	0x3e8e540e	0.27798504
152	0xbde4ee40	-0.11178255
153	0xbdc17082	-0.09445287
154	0xbd9f654e	-0.07782994
155	0xbdea3d11	-0.11437429
156	0xbb455041	-0.003010765
157	0x39fe10fc	0.0004845931
158	0xbcc9a648	-0.024615422
159	0x3e321fa0	0.17394876
160	0x3716854d	8.971733e-06
161	0x3e3c4a71	0.18387772
162	0x3d08600a	0.033294715
163	0x3ea641fa	0.3247221
164	0x3bde7728	0.006789107
165	0x3e4b9408	0.19880688
166	0x3e2bd7e2	0.16781572
167	0xbe701630	-0.23445964
168	0x3e643d63	0.22289042
169	0x3e695001	0.22784425
170	0x3e95eb4f	0.2928109
171	0x3ea07752	0.31341034
172	0x3df0429d	0.117314555
173	0x3e89fc4d	0.26950303
174	0xb9e59737	-0.00043790948
175	0x3e7139a3	0.23557143
176	0x3d8526b7	0.06501525
177	0x3d132b6c	0.035930082
178	0x3e8b6a4b	0.27229533
179	0xbea4a025	-0.3215343
180	0xb85c9533	-5.259104e-05
181	0xba53657b	-0.0008064133
182	0xbdd976e8	-0.10618383
183	0xbc106ab8	-0.008814506
184	0x399e36b4	0.00030176865
185	0xbe28a14c	-0.1646778
186	0xbe74e64a	-0.23915973
187	0x3d004a45	0.03132083
188	0xbe7eba28	-0.248757
189	0x3dfd0e37	0.12356227
190	0x3d7c462e	0.061590366
191	0x3db70749	0.089369364
192	0x3e12ef89	0.14349188
193	0x3e69a447	0.22816573
194	0xbe9edf0c	-0.31029546
195	0xbe76b9f4	-0.24094373
196	0x3b8be292	0.0042689526
197	0xbdf8aa3a	-0.12141843
198	0x3e735353	0.23762254
199	0x3d05ed2c	0.032696888
200	0xbe704966	-0.234655
201	0xbe679e2a	-0.22618929
202	0x3d62bace	0.055353932
203	0xbe9dd8fa	-0.30829602
204	0xb831c111	-4.2379896e-05
205	0x38437506	4.660061e-05
206	0x3d431049	0.047622953
207	0xbd220fc5	-0.03956582
208	0x9a391d38	-3.8280706e-23
209	0x3d88bdb6	0.066768095
210	0xbdab805e	-0.083740935
211	0x3e296b29	0.16544785
212	0xbd71f5b3	-0.059072208
213	0xbd2c0494	-0.041996554
214	0x3c2a071c	0.010377672
215	0xbe552107	-0.2081338
216	0xbe30fbdc	-0.17283577
217	0x3cb073ad	0.021539534
218	0xbe43ea34	-0.1913231
219	0xbc8d19e5	-0.017224262
220	0xbe40e660	-0.18837881
221	0x3dd0572d	0.101728775
222	0x3e7a5197	0.24445187
223	0xbd88e29a	-0.06683846
224	0x3e58554c	0.21126288
225	0xbda2667d	-0.07929704
226	0xbea55f9f	-0.32299516
227	0x3e761807	0.24032603
228	0x3e1c755e	0.15279147
229	0x3e24c4d6	0.16090712
230	0x3e97ebb2	0.2967201
231	0xbc4d2a8e	-0.012522353
232	0x995396cb	-1.0938897e-23
233	0x3d7faeba	0.06242249
234	0x3e662f65	0.22479017
235	0xbe3ea84c	-0.18618888
236	0x3b8ae947	0.0042392346
237	0x3e543e6b	0.20726936
238	0xbe4e8e9d	-0.2017159
239	0xbd9298f2	-0.07158078
240	0xbe79ba05	-0.24387367
241	0xbe9c3b05	-0.30513778
242	0x3e2f73e4	0.17134053
243	0x3e4a86f4	0.19778043
244	0x3dd53277	0.10410016
245	0x3d443999	0.047906492
246	0x3e6b2c9f	0.2296624
247	0x3de7d19b	0.11319276
248	0xbd931172	-0.07181062
249	0x3e22abd8	0.15885866
250	0xbe77105b	-0.24127333
251	0x3daa55eb	0.08317169
252	0xb8a1e05f	-7.7188706e-05
253	0xbb683cd7	-0.0035436654
254	0xbdaa2258	-0.08307332
255	0xbe9b94cf	-0.3038697

weight_hh_l0 f4 [27, 9]
0	0xbe17ed9b	-0.14836733
1	0x3e6fa866	0.23404083
2	0x196adba4	1.21418725e-23
3	0xa5bb53cd	-3.2496115e-16
4	0x3e91c323	0.2846919
5	0xbd412bae	-0.047160797
6	0xbd861b60	-0.0654819
7	0xbe67af88	-0.22625554
8	0xbdc21d19	-0.09478206
9	0xbda19434	-0.07889596
10	0xbd469610	-0.048482955
11	0xa086a957	-2.2812543e-19
12	0x9f921f1f	-6.188489e-20
13	0x3ead5716	0.33855504
14	0x3e8a877d	0.27056494
15	0x3e9b16eb	0.30290923
16	0xbe81025f	-0.25197122
17	0xbe22183e	-0.1582956
18	0x3ea55d26	0.3229763
19	0xbe847436	-0.25869912
20	0x186814c6	2.9995785e-24
21	0xb59f96f5	-1.1890357e-06
22	0xbd48f7b3	-0.04906435
23	0x3d0b7b9c	0.03405343
24	0xbe8da2f6	-0.27663392
25	0x3de166b1	0.11005915
26	0xbd5ce898	-0.053932756
27	0xbe8495dc	-0.25895584
28	0xbda2e524	-0.07953861
29	0x37e5d984	2.7400216e-05
30	0xb3a39249	-7.616888e-08
31	0xbe5fd8cd	-0.21860047
32	0xbe8fffa8	-0.28124738
33	0xbc0648b3	-0.008196044
34	0xbe912d86	-0.28355044
35	0xbcd1f713	-0.02563051
36	0x3cbdf952	0.023190174
37	0xbc57d915	-0.013174315
38	0x39cdcfd7	0.000392555
39	0x34dab332	4.0736046e-07
40	0x3da4fe07	0.08056264
41	0xbc84f59a	-0.016230393
42	0x3d8cd949	0.06877381
43	0x3e1b24f1	0.15150811
44	0xbce58851	-0.028019102
45	0x3e9ca35a	0.30593377
46	0xbd3be197	-0.045869436
47	0x1ff046fa	1.01761375e-19
48	0xb7a6dd12	-1.9891686e-05
49	0x3ea053a6	0.3131382
50	0xbe9e7ee9	-0.309562
51	0x3e2339df	0.15940045
52	0xbe5c7521	-0.21529056
53	0x349ac9a4	2.8831448e-07
54	0xbe63d04c	-0.22247428
55	0x3c56543c	0.0130816065
56	0xb8ddec47	-0.00010582111
57	0x3709765e	8.193396e-06
58	0x3e228950	0.15872693
59	0xbd4c4518	-0.04987058
60	0x3e502444	0.20326334
61	0x3d124526	0.035710476
62	0xbda6e94e	-0.08149968
63	0xbd14f368	-0.036364943
64	0x3b2f0557	0.0026706064
65	0x34dac07e	4.074572e-07
66	0x37d59f6d	2.5465817e-05
67	0x3db96a55	0.09053484
68	0x3d5f571b	0.05452643
69	0xbe78ee82	-0.24309734
70	0x3d979243	0.07400944
71	0x3b186adf	0.002325706
72	0xbd24294a	-0.04007844
73	0x3ab9104f	0.001411924
74	0x315f16b8	3.2463685e-09
75	0x9a361014	-3.7649706e-23
76	0xbe62773c	-0.22115797
77	0x3e7d6727	0.24746381
78	0xbe45c70b	-0.1931421
79	0xbdee5f05	-0.11639217
80	0x340297e6	1.2162454e-07
81	0xbe8c83d8	-0.2744434
82	0xbe3e4dd1	-0.18584372
83	0x2a8b259f	2.4717465e-13
84	0x34dc9abb	4.1090775e-07
85	0x3d3b975d	0.04579865
86	0x3c756e56	0.014979919
87	0x3e796d64	0.24358135
88	0xbd3ee21b	-0.04660235
89	0xbdd6dcad	-0.10491309
90	0x3e8caa9e	0.2747392
91	0x3e8c7c5e	0.27438635
92	0x1950f2e7	1.0802402e-23
93	0x986f6c94	-3.0944844e-24
94	0x3e9c5608	0.30534387
95	0xbe6c0872	-0.23050097
96	0xbc9dcd1c	-0.019262843
97	0x3dddc3b8	0.10828346
98	0xbe0b32f4	-0.13593656
99	0x3e8b825d	0.27247897
100	0x3e46e1f3	0.1942213
101	0x9c9063bf	-9.554904e-22
102	0x9964c622	-1.1827336e-23
103	0xbe946e48	-0.28990388
104	0xbe344dbe	-0.17607781
105	0x3e32fcdc	0.1747927
106	0xbdca6d6a	-0.0988415
107	0x3636e057	2.7250696e-06
108	0xbe9034ce	-0.28165287
109	0x3caa1f08	0.02076675
110	0x985c231e	-2.8452063e-24
111	0x27583b36	3.000812e-15
112	0xbe4dcb26	-0.20097026
113	0xbe907c0d	-0.28219643
114	0x3d7fb8e6	0.062432192
115	0x3de7049e	0.112801775
116	0xbe19718a	-0.14984718
117	0x3ea4e1ee	0.3220362
118	0x3e6f89bd	0.23392387
119	0xa22083ee	-2.1753886e-18
120	0xaa92b86d	-2.606278e-13
121	0xbe1d22ff	-0.15345381
122	0x3e87f0e5	0.26550975
123	0x3ea17bc7	0.31539747
124	0x3ea6bfb1	0.32568124
125	0xbca764c3	-0.02043379
126	0xbe449b7d	-0.19199939
127	0xbe1ba41f	-0.15199326
128	0x361f227e	2.3712923e-06
129	0xb3daa0d5	-1.0180671e-07
130	0x3e89aede	0.26891226
131	0xbcd1574f	-0.025554327
132	0x3e893480	0.26797867
133	0x3e245e78	0.16051662
134	0x3ca72daf	0.020407526
135	0xbe7e95b1	-0.2486179
136	0xbe2f8840	-0.17141819
137	0x37afd39c	2.0960164e-05
138	0x392b5e23	0.000163429
139	0xbdbea147	-0.09308105
140	0xbcb86e0b	-0.02251341
141	0x3d6f3af4	0.05840583
142	0x3dd487a9	0.103774376
143	0x3717a79c	9.039326e-06
144	0x3d68f08d	0.056870032
145	0xbe636fd8	-0.22210634
146	0x99a170e5	-1.6692608e-23
147	0x2fa9bf0e	3.0876673e-10
148	0xbea341fe	-0.31886286
149	0x3e2a0896	0.16604838
150	0xbdb51464	-0.0884178
151	0x3e8c6d3f	0.27427098
152	0xb6aa90c1	-5.0832464e-06
153	0x3e8756d4	0.26433432
154	0x3e8ccd3b	0.27500328
155	0xaf2898ec	-1.533384e-10
156	0x32781ea2	1.4442465e-08
157	0xbe0f2a82	-0.13981059
158	0xbe611875	-0.21981986
159	0x3b9533e7	0.0045533064
160	0xbe23cc91	-0.15996005
161	0xbdaf79be	-0.08568142
162	0xbe717915	-0.23581345
163	0xbd4ee4b3	-0.050511073
164	0x206f6963	2.0278957e-19
165	0xb4210954	-1.4997687e-07
166	0xbe3ff711	-0.18746592
167	0x3d8b5e22	0.06805064
168	0xbe4c39de	-0.1994395
169	0x3d1e9e7e	0.03872537
170	0xbe7861e7	-0.24256097
171	0xbe9e3a86	-0.30904025
172	0xbcfaf518	-0.030634448
173	0x218c3002	9.499477e-19
174	0x180a023d	1.7837212e-24
175	0x3e844084	0.25830472
176	0xbe8dbfaa	-0.2768529
177	0x3d2872bb	0.04112504
178	0xbe9f8649	-0.3115714
179	0x3e256c24	0.16154534
180	0x3e274d7a	0.16338149
181	0xbe46364d	-0.19356652
182	0xb986703c	-0.00025642093
183	0x194c54ec	1.0563703e-23
184	0x3e04cdc2	0.12969115
185	0xbceb4e0a	-0.028723735
186	0x3d54b6a0	0.051931977
187	0x3e3a7fcd	0.18212815
188	0xbd2fa293	-0.042879652
189	0x3ea9a82c	0.33136117
190	0x3af05796	0.001833665
191	0x98ed6d8b	-6.1373674e-24
192	0xa20ca032	-1.9058345e-18
193	0x3df9fbba	0.12206216
194	0x3e5a3964	0.21310955
195	0x3da01251	0.078159936
196	0xbd6ded76	-0.05808779
197	0xbd33d895	-0.04390772
198	0xbe873a1b	-0.26411518
199	0x3e3f268e	0.18667051
200	0x39136956	0.00014058253
201	0x97e47540	-1.4763753e-24
202	0xbe4fec06	-0.2030488
203	0xbd12c13c	-0.035828814
204	0x3e9020a5	0.28149906
205	0xbe6bcc6f	-0.23027204
206	0x3e2927b7	0.16519056
207	0xbe8e054b	-0.27738413
208	0xbe0b65fd	-0.13613124
209	0xb299c1d5	-1.7899689e-08
210	0x1cde89d9	1.472636e-21
211	0xbd06c689	-0.03290418
212	0xbdec09e4	-0.11525324
213	0xbdd0b39e	-0.10190509
214	0xbc033c81	-0.008010031
215	0xbda327a7	-0.079665475
216	0x3dffb384	0.12485412
217	0xbd0c3fcd	-0.034240533
218	0x1d7093af	3.1840086e-21
219	0x37cad2e5	2.4178482e-05
220	0x3e107da4	0.14110428
221	0x3e691e28	0.2276541
222	0xbe0cf92e	-0.1376693
223	0xbc107308	-0.008816488
224	0x3dc4590d	0.095872976
225	0x3e5794a1	0.21052791
226	0xbe8dbf5b	-0.27685055
227	0x191b14f8	8.017547e-24
228	0x2339bd4c	1.0068955e-17
229	0xbe2c7d8a	-0.16844764
230	0x3e1fa8be	0.15591714
231	0x3e4b0568	0.19826281
232	0xbe79856e	-0.24367306
233	0x3e43868f	0.19094299
234	0x3e5b8584	0.21437651
235	0x3e956601	0.29179385
236	0x1ebfe574	2.0317811e-20
237	0xba05f14a	-0.0005109502
238	0x3d683139	0.056687567
239	0x3df493e9	0.11942274
240	0xbe3b5d89	-0.182974
241	0xbe9e1a60	-0.30879498
242	0xbd92148d	-0.07132826

bias_ih_l0 f4 [27]
0	0x3e8027b9	0.25030306
1	0xbe8ad913	-0.2711874
2	0xbe474985	-0.19461639
3	0xbdab4db8	-0.08364433
4	0xbe7b39f5	-0.24533828
5	0x3e9f6458	0.31131244
6	0xbe627235	-0.22113879
7	0xbdb34014	-0.08752456
8	0xbe377b78	-0.17918193
9	0xbc60589c	-0.013693001
10	0xbd3ddb69	-0.046351824
11	0xbe5af9a4	-0.21384293
12	0x3e70f008	0.23529065
13	0xbda6b75b	-0.08140441
14	0xbdc7032f	-0.09717404
15	0xbdb0f584	-0.086405784
16	0x3d7ec59f	0.062200185
17	0x3e5c723a	0.21527949
18	0xbe34ff17	-0.17675434
19	0x3df62bad	0.12020049
20	0xbe9774f6	-0.29581422
21	0x3ea3be9c	0.3198136
22	0xbb6275f7	-0.0034555176
23	0xbe565896	-0.2093223
24	0x3e95bfba	0.29247838
25	0xbd9d1865	-0.076706685
26	0x3e554bbb	0.2082967

bias_hh_l0 f4 [27]
0	0xbdf45f8f	-0.11932289
1	0xbe454154	-0.19263202
2	0x3dbbdf50	0.09173453
3	0xbea51f23	-0.32250318
4	0x3c4ee043	0.01262671
5	0x3e46ecd9	0.19426288
6	0x3cdbf966	0.02685232
7	0x3e9a368d	0.30119744
8	0xbde8f4de	-0.1137483
9	0xbbf0d0af	-0.007349096
10	0x3da4cc98	0.08046836
11	0x3e4a24d0	0.19740605
12	0x3e4f6365	0.2025276
13	0xbe91e86a	-0.2849763
14	0xbe9abd91	-0.30222753
15	0x3d1ad0fa	0.03779695
16	0x3e13399f	0.1437745
17	0xbeacb39b	-0.33730778
18	0xbe8279b2	-0.2548347
19	0xbea7aab6	-0.3274743
20	0x3df017a9	0.11723263
21	0x3ea1fe38	0.31639266
22	0xbe36ae9e	-0.17840049
23	0xbe4c0b2c	-0.19926137
24	0x3e2e79e3	0.17038684
25	0x3d6815c8	0.056661397
26	0xbc8f302c	-0.017479025

weight_ih_l0 f4 [27, 39]
0	0xbda9f58b	-0.08298787
1	0x3e1cf563	0.15327983
2	0xbe8ad76a	-0.27117473
3	0x18e58987	5.933398e-24
4	0x3ded61d8	0.11590928
5	0x3df474d8	0.11936349
6	0x39faa6e1	0.0004780805
7	0xbe1daf82	-0.15398982
8	0x3cf171ee	0.029473271
9	0x3cdc04e2	0.026857797
10	0xbd58f37a	-0.052966572
11	0x3ea6a9c1	0.32551387
12	0xbe00c475	-0.12574942
13	0x3e07985f	0.13241719
14	0xbea582bf	-0.32326314
15	0xbe5ead6d	-0.21745844
16	0x3dd270ce	0.10275422
17	0xbe3c329e	-0.18378684
18	0xbdf86430	-0.12128484
19	0xbe3e77f1	-0.18600442
20	0x3debf260	0.11520839
21	0x3e991db1	0.29905465
22	0xbe103329	-0.14082016
23	0x3ddf2e91	0.10897554
24	0x3e681a4f	0.22666286
25	0x3e75abac	0.23991269
26	0x3db1d13c	0.086824864
27	0xbda79daa	-0.08184369
28	0xbe3cb771	-0.18429352
29	0x3dd15278	0.10220808
30	0x3ad51cb9	0.001625917
31	0x3e8b47fe	0.27203363
32	0xbe5e4a2d	-0.21707983
33	0x3e3a5a53	0.18198518
34	0x3da26647	0.07929664
35	0x3e2c7bf1	0.16844155
36	0xbe8ac530	-0.27103567
37	0xbe04146f	-0.1289842
38	0x3e285717	0.16439472
39	0x3e58bd97	0.21166073
40	0x3c880b5f	0.016606985
41	0xbea73029	-0.3265393
42	0x3484cb2a	2.4734737e-07
43	0x3e5711a1	0.21002819
44	0xbe801224	-0.2501384
45	0x348aa5c1	2.5825105e-07
46	0xbdbb9286	-0.091588065
47	0x3d08bed7	0.033385124
48	0xbe77e981	-0.24210168
49	0xbe3018ef	-0.17197011
50	0x3cce8430	0.025209516
51	0xbd3e52fc	-0.04646586
52	0xbe1268b6	-0.14297757
53	0xbe77bab2	-0.24192312
54	0xbe64f128	-0.22357619
55	0x3e9e4b3b	0.3091677
56	0x3e8ce81f	0.27520844
57	0x3cc3c191	0.02389601
58	0xbe2eea08	-0.17081463
59	0x3dade65f	0.084912054
60	0x3e54563f	0.20736025
61	0xbc955a7d	-0.018231625
62	0xbe93f627	-0.28898737
63	0xbd0c97d9	-0.0343245
64	0x3e902483	0.28152856
65	0x3e76c320	0.24097872
66	0x3d38f6d2	0.04515726
67	0xbe966ec2	-0.29381377
68	0x3da0d9d9	0.07854051
69	0x3d820ac2	0.06349708
70	0x3c9371c7	0.01799859
71	0xbda872ef	-0.08225047
72	0xbbe53118	-0.006994378
73	0x3dc12455	0.09430758
74	0xbdaaed04	-0.083459884
75	0x3df1d477	0.118081026
76	0xbdca0444	-0.09864095
77	0xbe82aa26	-0.25520438
78	0x3da7c0aa	0.08191045
79	0xbdf1cd33	-0.11806717
80	0xbdea690a	-0.11445816
81	0x27b458c3	5.005627e-15
82	0x3d0f3865	0.03496589
83	0x3dc506d8	0.09620446
84	0x2ba584e8	1.1760844e-12
85	0x3d677440	0.05650735
86	0x3c4a484f	0.012346341
87	0xbd501558	-0.050801605
88	0xbd04deb7	-0.03243896
89	0xbe9c2f4f	-0.30504844
90	0xbc95ef46	-0.018302571
91	0xbdda80e4	-0.10669115
92	0x3e933a2f	0.28755328
93	0xbcc5312c	-0.024071299
94	0x3d30ba5d	0.04314648
95	0x3e7c7376	0.2465342
96	0xbe694c11	-0.22782923
97	0x3dd04d15	0.10170952
98	0x3e2eb3a2	0.17060712
99	0xbe689f2a	-0.22716966
100	0x3e1af066	0.15130767
101	0x3ea45f76	0.3210408
102	0x3e8f3dff	0.27976987
103	0xbdfd6940	-0.123735905
104	0x3c7bef21	0.015376837
105	0x3e56a4a7	0.20961247
106	0x3e8a858e	0.2705502
107	0xbdea9a54	-0.11455217
108	0xbdbd4e9c	-0.09243509
109	0xbe972ff3	-0.2952877
110	0x3d1ccda4	0.03828205
111	0xbe86d282	-0.2633248
112	0xbdca0357	-0.09863918
113	0x3d31bd50	0.043393433
114	0x3e5f9a17	0.21836124
115	0xbe1ecaeb	-0.15507095
116	0x3e169eee	0.14709064
117	0x3e96e2ca	0.294699
118	0x3e1f6552	0.15565994
119	0x3d297319	0.04136953
120	0x22d4c96e	5.7675987e-18
121	0x3df452d0	0.11929858
122	0x3dcdbe22	0.100460306
123	0xae4e89f2	-4.6961497e-11
124	0xbe55e9c7	-0.2088996
125	0x3b2f3cc8	0.002673911
126	0x3e1c3ed0	0.15258336
127	0x3da7c971	0.08192719
128	0x3ea53cb8	0.32272887
129	0x3ea95974	0.3307606
130	0xbea7b32b	-0.32753882
131	0xbdf6747d	-0.12033937
132	0x3e8378fe	0.25678247
133	0x3ea4d9b1	0.32197335
134	0x3e78bced	0.2429082
135	0xbe09b90b	-0.13449495
136	0x3cd55a64	0.026044078
137	0x3c743b25	0.014906679
138	0xbdb151d3	-0.08658185
139	0x3e839048	0.25696015
140	0x3e5a8f19	0.2134365
141	0xbe1b446c	-0.1516282
142	0xbe72201b	-0.2364506
143	0x3e5f01d6	0.21778044
144	0xbe7a567a	-0.2444705
145	0xbe7f039e	-0.24903724
146	0xbe87cf68	-0.26525426
147	0x3e59b1a7	0.21259175
148	0x3e72362d	0.23653479
149	0x3d4d03ff	0.05005264
150	0xbe600b0d	-0.21879216
151	0x3e544c99	0.20732345
152	0x3e02c03a	0.12768641
153	0x3e7ae461	0.24501182
154	0x3e064163	0.1311088
155	0x3e2b1175	0.16705878
156	0xbe91583d	-0.28387633
157	0x3d036086	0.032074474
158	0xbe90d10b	-0.28284487
159	0x36154177	2.2240836e-06
160	0x3e074e51	0.13213469
161	0xbc442a4e	-0.011972977
162	0xaed418b0	-9.645029e-11
163	0xbe8ce4a7	-0.27518198
164	0xbb90b76e	-0.004416398
165	0x3e775be2	0.24156144
166	0x3e7ac14a	0.24487796
167	0xbe21d04c	-0.15802115
168	0x3cabd499	0.020975398
169	0xbd698033	-0.057007026
170	0x3e2acfe2	0.16680863
171	0x3e1d058e	0.1533415
172	0xbdde9ad3	-0.10869374
173	0x3e77712d	0.24164267
174	0xbe0ef9b8	-0.13962448
175	0x3d3fefc8	0.046859533
176	0x3e46e70e	0.19424078
177	0xba2c3389	-0.00065689586
178	0xbd86e421	-0.06586481
179	0xbc629efa	-0.013831848
180	0xbe8f7e22	-0.2802592
181	0x3de355e6	0.11100368
182	0xbe834518	-0.25638652
183	0xbe811259	-0.2520931
184	0x3d51b767	0.051200297
185	0x3e760a22	0.24027303
186	0x3e63fcf9	0.2226447
187	0xbd00ecbd	-0.03147577
188	0x3e2a3c41	0.16624548
189	0x3e03691b	0.12833063
190	0x3e61fa43	0.22068124
191	0xbdcff02d	-0.10153232
192	0xbde3fc01	-0.1113205
193	0x3e243743	0.16036706
194	0x3c68bb81	0.014204861
195	0xbe2a1388	-0.16609013
196	0x3e119596	0.14217219
197	0x3e4ca4de	0.19984767
198	0xb9d84404	-0.00041249406
199	0xbe27ae8f	-0.16375183
200	0x3de8ad76	0.1136121
201	0xae0133f7	-2.9377358e-11
202	0xbe90912c	-0.28235757
203	0x3ad089b3	0.0015910178
204	0xbe772fc5	-0.24139316
205	0x3d12ef01	0.035872463
206	0x3ddd30b3	0.10800304
207	0xbdfe1092	-0.12405504
208	0x3e9cd2dc	0.30629623
209	0xbe89c90d	-0.26911202
210	0xbd2f1780	-0.04274702
211	0xbe2e2938	-0.17007911
212	0xbe099bc3	-0.13438325
213	0x3de27a86	0.11058526
214	0x3e917dd4	0.28416312
215	0x3dbaf8ff	0.091295235
216	0x3d9c34bf	0.07627248
217	0x3e3162a7	0.17322789
218	0x3d5eb314	0.05437
219	0xbd8a58af	-0.06755196
220	0xbe54a2b9	-0.20765199
221	0x3e4724ca	0.19447628
222	0x3e7d3e4c	0.24730796
223	0xbe29740c	-0.16548175
224	0x3db79495	0.08963887
225	0x3e3b2867	0.18277131
226	0xbdc337ab	-0.09532102
227	0xbe301681	-0.17196085
228	0xbe940a97	-0.2891433
229	0x3e3b5019	0.18292274
230	0x39a33717	0.00031130828
231	0xbe75bd5f	-0.2399802
232	0xbd2707a1	-0.04077876
233	0x3d2d1a1d	0.04226123
234	0x3e04db63	0.12974314
235	0x3db11787	0.086470656
236	0xbe9d191c	-0.3068322
237	0xa18afab9	-9.417609e-19
238	0x3dcac9f9	0.099018045
239	0x3df0a14c	0.11749515
240	0x2da9956b	1.927943e-11
241	0x3bd326b6	0.0064438237
242	0xbb12f70a	-0.0022425079
243	0x3e89addd	0.2689046
244	0xbe82e231	-0.25563195
245	0x3e934f3e	0.28771394
246	0x3e7c827b	0.2465915
247	0xbbdc3b28	-0.006720919
248	0x3e4c9b63	0.1998115
249	0xbd28d4a2	-0.041218407
250	0x3e62dff5	0.22155745
251	0xbe24a2e7	-0.16077767
252	0x3dfb8686	0.12281518
253	0xbdd21438	-0.10257763
254	0xbddd6dd3	-0.10811963
255	0x3e53ab08	0.20670712

weight_hh_l0 f4 [27, 9]
0	0xbd77ffe6	-0.06054678
1	0xbd4e47a8	-0.050361305
2	0xbe1d6564	-0.15370709
3	0xbe90a31c	-0.28249443
4	0xbd71a4e5	-0.058995146
5	0xbea0394a	-0.31293708
6	0xbe60547c	-0.21907228
7	0xbe1e7f4b	-0.15478246
8	0xbddf7c3f	-0.1091237
9	0x3e0a806d	0.13525553
10	0x3e4f9bfd	0.20274349
11	0xbe8bd2d1	-0.27309278
12	0xbe1ca0c1	-0.15295698
13	0xbdc8071b	-0.0976698
14	0x3deb623b	0.11493345
15	0x3e7846df	0.24245785
16	0xbe933a0a	-0.28755218
17	0xbe2bbd7f	-0.16771506
18	0xbc7e05de	-0.0155043285
19	0x3d4dcf34	0.050246432
20	0x3e7c2bdf	0.2462611
21	0x3e62eae7	0.2215992
22	0x3da8f29b	0.08249398
23	0xbe1c61b0	-0.1527164
24	0xbdf7cbe9	-0.1209944
25	0xbe9bb7e6	-0.3041374
26	0xbea32689	-0.31865337
27	0xbdb6cd46	-0.089258716
28	0xbe8f437b	-0.2798117
29	0xbe8f84bd	-0.2803096
30	0xbe6e4421	-0.23268177
31	0x3e7291a7	0.23688374
32	0x3cdaca95	0.026707927
33	0xbe4715cd	-0.1944191
34	0xbe26acec	-0.16276902
35	0xbe017641	-0.12642767
36	0x3ea4c07a	0.32178098
37	0x3ea13848	0.31488252
38	0x3e4ab0c8	0.19793999
39	0x3e6dd66f	0.23226331
40	0x3c5f0fa2	0.013614567
41	0xbe137256	-0.14399084
42	0xbdd8e7da	-0.10591097
43	0x3ea90afc	0.33016193
44	0xbe3d7ca0	-0.18504572
45	0x3e9cb2b4	0.3060509
46	0x3e5bd456	0.21467718
47	0x3e0659fd	0.13120265
48	0xbea4b686	-0.32170504
49	0xbda1a53a	-0.078928426
50	0xbe992278	-0.2990911
51	0x3e80f5bc	0.2518748
52	0xbe5ca098	-0.21545637
53	0xbe182463	-0.1485763
54	0x3dbccf08	0.092191756
55	0x3da622a7	0.08112078
56	0x3e39a46b	0.18129127
57	0xbc937794	-0.018001355
58	0x3c1d23af	0.009591027
59	0xbe74921a	-0.23883858
60	0x3da7c326	0.081915185
61	0xbe3b8dfc	-0.18315881
62	0x3e5ae9f5	0.2137831
63	0xbd281c6b	-0.041042726
64	0xbe901125	-0.2813808
65	0xbdb21f09	-0.08697326
66	0x3dd99574	0.10624209
67	0xbd286a22	-0.04111684
68	0xbe8cccb3	-0.27499923
69	0x3e1708f3	0.14749508
70	0x3d8d6bd8	0.06905335
71	0xbea14faf	-0.31506106
72	0xbe77c949	-0.24197878
73	0x3e27befd	0.1638145
74	0x3d42a275	0.047518212
75	0xbe94c006	-0.29052752
76	0xbdba6728	-0.09101707
77	0xbca7c049	-0.02047743
78	0x3e9d56e4	0.30730355
79	0xbde1c8d5	-0.11024634
80	0x3d80bf3c	0.06286475
81	0x3e98143d	0.2970294
82	0xbd3264b8	-0.043553084
83	0xbe0da2b6	-0.138316
84	0x3e84c4ec	0.2593149
85	0xbdc8a942	-0.09797908
86	0xbe2124ea	-0.15736738
87	0x3d96ee56	0.07369678
88	0x3d0409ef	0.032236036
89	0x3d1b2b4d	0.03788309
90	0x3e8c036a	0.27346355
91	0xbe2180ce	-0.15771791
92	0xbd7f17ea	-0.062278666
93	0x3d5bc0a5	0.053650517
94	0x3db34d7d	0.08755014
95	0x3e0b28c3	0.13589768
96	0xbe9218a7	-0.28534433
97	0xbe470b1c	-0.19437832
98	0x3e36aebd	0.17840095
99	0xbe09dd83	-0.13463406
100	0xbe673f67	-0.2258278
101	0xbe1ab590	-0.15108323
102	0xbe6e7840	-0.23288059
103	0x3e9657f8	0.2936399
104	0x3e924294	0.2856642
105	0x3e637988	0.22214329
106	0xbdb090b0	-0.08621347
107	0xbe6e9df0	-0.23302436
108	0x3ea1190e	0.31464428
109	0x3e5da1e3	0.21643786
110	0xbe6353d8	-0.22199953
111	0xbe1dd900	-0.1541481
112	0x3da4a361	0.080389746
113	0xbe79b745	-0.24386318
114	0x3cdd5ba6	0.02702124
115	0x3e7e1ce4	0.24815708
116	0xbdd6ca9a	-0.10487862
117	0xbe1de123	-0.15417914
118	0xbe9bdfc0	-0.30444145
119	0xbe879aa1	-0.2648516
120	0xbe64f29d	-0.22358175
121	0x3d7be520	0.061497808
122	0xbdfee2c0	-0.12445593
123	0xbd8e4de0	-0.06948447
124	0xbe4b8caa	-0.19877878
125	0x3d388d5f	0.045056697
126	0xbc90e1ec	-0.017685853
127	0x3e91cb44	0.28475392
128	0x3e691c02	0.2276459
129	0x3e506c77	0.20353876
130	0x3e46cd4a	0.19414249
131	0xbdb7aba0	-0.08968282
132	0xbe63511c	-0.2219891
133	0x3d45b963	0.0482725
134	0xbe879c66	-0.2648651
135	0xbe98b9e5	-0.29829326
136	0xbd73a377	-0.059482064
137	0xbc708697	-0.014680526
138	0x3e989e45	0.2980825
139	0x3db2a0bf	0.08722066
140	0xbe29d31c	-0.16584438
141	0x3e68a836	0.22720417
142	0x3c8bbf1b	0.0170589
143	0xbe5f50c0	-0.21808147
144	0xbe985c74	-0.29758036
145	0x3d0bdbfd	0.034145344
146	0xbe507356	-0.20356497
147	0xbca63601	-0.020289423
148	0xbe34ccf3	-0.17656307
149	0xbdf43369	-0.11923868
150	0xbe22fbd3	-0.15916376
151	0xbd718681	-0.058966164
152	0xbd65552c	-0.05598943
153	0xbd454d96	-0.048169695
154	0x3e0bcc19	0.13652076
155	0x3e3d2a25	0.18473108
156	0x3e0d356e	0.13789913
157	0x3e0e073f	0.13869952
158	0xbd5b0f98	-0.05348167
159	0xbe8fae78	-0.28062797
160	0x3cc62dfb	0.024191847
161	0xbd8794b7	-0.06620162
162	0xbe922cc2	-0.28549773
163	0x3e2819c2	0.16416076
164	0xbea7bd20	-0.32761478
165	0xbdbf6d53	-0.09347024
166	0xbe3385a1	-0.17531444
167	0x3e2bf856	0.16793951
168	0xbe13ca6b	-0.14432685
169	0x3e0e2d40	0.13884449
170	0xbea73883	-0.32660303
171	0x3e6d2cb0	0.23161578
172	0x3c8a3998	0.016873166
173	0xbc8d71b6	-0.017266136
174	0xbeac9e63	-0.3371459
175	0x3e2bd9e3	0.16782336
176	0xbe810270	-0.25197172
177	0x3df28ba2	0.11843039
178	0xbe0cb41b	-0.1374058
179	0xbd837262	-0.06418301
180	0x3e4b5ce1	0.19859649
181	0xbe70107f	-0.23443793
182	0x3e1e5d66	0.15465316
183	0xbe1182cf	-0.14210056
184	0xbe416e9e	-0.18889853
185	0x3b430c9a	0.002976215
186	0xbea95402	-0.33071905
187	0x3dfa4467	0.12220078
188	0x3dcbbe2d	0.099483825
189	0x3eaa49d4	0.3325945
190	0xbd173979	-0.036920045
191	0xbd4dbb63	-0.050227534
192	0x3e30bf04	0.17260367
193	0xbe6bf164	-0.23041302
194	0x3df69e9d	0.12041972
195	0xbe076423	-0.13221793
196	0xbde72820	-0.1128695
197	0x3d36e5ac	0.044652626
198	0x3e5208be	0.20511147
199	0x3d8fb72f	0.070173614
200	0x3e3cb425	0.18428095
201	0xbd67ebc1	-0.056621317
202	0xbc46c31c	-0.012131479
203	0x3d598905	0.053109188
204	0xbd81ed20	-0.06344056
205	0xbe7d3bd9	-0.24729861
206	0xbd999bda	-0.075004295
207	0x3d77ea22	0.06052602
208	0xbe85d518	-0.2613914
209	0xbdf41e1c	-0.119198054
210	0xbc80a2f6	-0.015702706
211	0xbde91beb	-0.11382278
212	0xbd177687	-0.03697827
213	0xbe0970a1	-0.13421871
214	0xbe98febd	-0.2988185
215	0xbe3f7e61	-0.18700553
216	0xbea8187e	-0.32831186
217	0xbd96765f	-0.07346796
218	0xbe8b38a1	-0.27191642
219	0x3e48e492	0.19618443
220	0x3e604ddf	0.21904705
221	0xbe543ebd	-0.20727058
222	0x3dded1bb	0.10879847
223	0x3d9caa77	0.07649701
224	0xbdf65175	-0.120272554
225	0xbdc49491	-0.09598649
226	0x3d1a9af7	0.037745442
227	0xbdec7257	-0.11545246
228	0x3ea37a28	0.31929135
229	0x3e940f32	0.28917843
230	0x3e6492b4	0.22321588
231	0x3d6c115e	0.05763375
232	0xbce853fd	-0.028360361
233	0x3e0642ca	0.13111416
234	0x3e055479	0.13020505
235	0x3c2b1dfb	0.01044416
236	0x3e8b860c	0.27250707
237	0x3d00da29	0.031458054
238	0x3e2b7482	0.16743663
239	0xbe929c66	-0.28634948
240	0x3ea1dfce	0.31616062
241	0xbe8b3ebc	-0.271963
242	0x3e957b81	0.29195789

bias_ih_l0 f4 [27]
0	0xbdf97a75	-0.1218156
1	0x3d6b28ca	0.057411946
2	0xbe79248a	-0.24330345
3	0xbe14a3de	-0.14515635
4	0xbe8fc324	-0.28078568
5	0x3e55b6b6	0.2087048
6	0x3c21f1a1	0.009884269
7	0x3e65a77d	0.22427173
8	0x3e4bcc63	0.19902186
9	0xbe93abf5	-0.2884213
10	0x3d88b235	0.06674615
11	0xbe72116c	-0.23639458
12	0x3e2e0476	0.16993889
13	0xbe26e2bf	-0.16297434
14	0x3e013e6b	0.12621467
15	0x3e06379f	0.13107155
16	0x3e8b047e	0.27151865
17	0x3e378d0c	0.17924899
18	0x3e8d332b	0.275781
19	0xbd62ee3b	-0.055402976
20	0xbe99d4ae	-0.30045074
21	0x3e37b819	0.17941321
22	0xbd6e729a	-0.05821476
23	0xbde44792	-0.111464635
24	0x3e959c5d	0.29220858
25	0xbe284a75	-0.16434653
26	0xbc486926	-0.012232101

bias_hh_l0 f4 [27]
0	0x3e865e75	0.2624394
1	0xbe8fed39	-0.28110674
2	0xbe6e3179	-0.2326106
3	0x3ea49036	0.32141274
4	0xbdc59559	-0.096476264
5	0x3d06a054	0.032867745
6	0xbe59c050	-0.21264768
7	0x3dad8522	0.08472659
8	0xbca73c07	-0.020414365
9	0xbdf14a3d	-0.11781738
10	0xbe1eb5de	-0.15499064
11	0xbe6b9a9f	-0.23008202
12	0xbe9d707d	-0.30749884
13	0xbe89e31e	-0.2693109
14	0xbe91dc8c	-0.28488576
15	0xbd5273af	-0.051379856
16	0xbea63f08	-0.32469964
17	0xbe21bb33	-0.15794067
18	0x3e87755a	0.2645672
19	0x3e2f403c	0.17114347
20	0xbe10e641	-0.14150335
21	0xbea95fda	-0.3308094
22	0x3d28304d	0.04106169
23	0xbb3e5f46	-0.0029048487
24	0xbd971482	-0.073769584
25	0x3e3335fa	0.17501059
26	0x3e79b1fe	0.24384305

weight f4 [9, 9]
0	0xbe568c9d	-0.20952077
1	0xbe77fa3b	-0.24216549
2	0xbd92825e	-0.07153772
3	0xbe1e0390	-0.15431046
4	0xbe993a7c	-0.29927433
5	0x3e1e75a4	0.15474564
6	0x3e858a2d	0.26081982
7	0xbe514879	-0.20437802
8	0x3e941214	0.28920043
9	0xbca028c7	-0.019550694
10	0xbd6ed059	-0.058304165
11	0xbd856a08	-0.065143645
12	0x3e818996	0.25300282
13	0xbdd4dbc6	-0.10393481
14	0xbca67c47	-0.020322932
15	0xbdae7811	-0.085189946
16	0x3d191528	0.03737369
17	0x3c489fd8	0.012245141
18	0x3cb53ce0	0.022123754
19	0xbd6b224b	-0.05740575
20	0xbe8b7446	-0.27237147
21	0x3dc6ff63	0.0971668
22	0xbe356b2e	-0.17716667
23	0xbc0a92d9	-0.008457863
24	0xbe18f4b4	-0.14937097
25	0xbe33581a	-0.17514077
26	0xbded7298	-0.11594123
27	0xae348d95	-4.105301e-11
28	0x2046fa1e	1.6854009e-19
29	0x17d07d62	1.3473336e-24
30	0x2405f133	2.904408e-17
31	0xb2bc9c2d	-2.1957101e-08
32	0x169eb6ca	2.5641633e-25
33	0xb4097d10	-1.2804617e-07
34	0x16c94a08	3.2520022e-25
35	0x2a04febe	1.1812337e-13
36	0xbd8253cd	-0.0636364
37	0xbe03f0f0	-0.12884879
38	0xbe9a0e68	-0.30089116
39	0xbe4fed8f	-0.20305465
40	0x3e038083	0.12841992
41	0x3dd547a2	0.104140535
42	0xbe321bea	-0.17393461
43	0xbe9d6e6a	-0.30748302
44	0xbe238e52	-0.1597226
45	0xbe9c7196	-0.3055541
46	0x3d959b50	0.07305014
47	0x3bf6acea	0.007527937
48	0x3e65e490	0.22450471
49	0x3dff723e	0.12472962
50	0xbd84f9b9	-0.06492943
51	0x3e5bc0aa	0.21460214
52	0x3e60c4c8	0.21950066
53	0xbe7c9adc	-0.24668449
54	0x2d877fbd	1.540445e-11
55	0xb5e2a282	-1.6885608e-06
56	0x3864a12d	5.4509543e-05
57	0xba3c91a1	-0.0007193331
58	0xb68d2249	-4.206119e-06
59	0x39c69dfc	0.0003788321
60	0xb7b1e08e	-2.120461e-05
61	0xb7bd16d8	-2.2541193e-05
62	0x368d31c1	4.2079196e-06
63	0x3ea40992	0.32038552
64	0xbe0b3ef0	-0.13598228
65	0xbe94c9b2	-0.2906013
66	0x3e75958c	0.23982829
67	0x3e266c33	0.16252212
68	0xbe0135da	-0.12618199
69	0xbe4377c8	-0.19088662
70	0xbdd68e74	-0.104763895
71	0x3e049b13	0.12949781
72	0x3e8491ca	0.25892478
73	0x3d987775	0.074446596
74	0x3d2f0047	0.042724874
75	0xbe7cf3e4	-0.24702412
76	0xbde92c6a	-0.113854244
77	0x3df16c0e	0.11788188
78	0xbde0d4b1	-0.10978068
79	0x3e055d48	0.13023865
80	0x3e3484d8	0.17628801

bias f4 [9]
0	0x3de1cac5	0.11025003
1	0xbd89e25f	-0.0673263
2	0x3d9c4649	0.07630593
3	0xb6768613	-3.6734898e-06
4	0x3e14abb3	0.14518623
5	0xbe80fbd6	-0.25192136
6	0xbbcf1ebd	-0.006320803
7	0x3e9631dd	0.29334918
8	0x3dc42343	0.09577038
