ERTSNet/new_arch_LA/DT/T100_Hrot1/2nd_pass/rq3050_estH.pt (torch, 160555 bytes, 63 tensors)

weight_ih_l0 f4 [27, 15]
000000 b7 32 7a be 84 16 7c bd 3c 0e 5e 3d 30 c3 9b 3e
       -0.24433409 -0.06154491 0.054212794 0.30422354
000010 3c b9 27 bd 02 79 ba bc cb 43 f8 bd 6d 5e 48 3e
       -0.040948138 -0.02276278 -0.121223055 0.1956727
000020 78 9f 8e 3e 6f 89 80 3d d7 2c e2 bd a0 57 76 3d
       0.2785604 0.062762134 -0.11043709 0.06014216
000030 6a 89 34 3e 33 83 8b be d8 be 64 3e 46 d1 43 be
       0.17630544 -0.27248535 0.22338426 -0.191228
000040 a5 97 21 be ab bd 18 be 2f 4d 1d 3e ee 53 3c 3e
       -0.15780504 -0.14916103 0.15361474 0.18391392
000050 ed f5 a6 3b 8e 84 87 be 83 bd 9e 3e cb 4d 72 3e
       0.0050952346 -0.2646832 0.3100396 0.23662488
000060 c0 b7 b4 bd 0e 1b ec bc 0a de 02 bc 34 8f b1 3e
       -0.0882411 -0.028821494 -0.007987509 0.34679568
000070 6c 56 2a 3e 58 a1 26 bd 68 19 7d 3e be 89 05 3e
       0.1663453 -0.040681213 0.24716723 0.13040826
000080 38 a3 df bd b4 d0 d4 bd a0 1e 0d 3e f0 14 24 3e
       -0.109198034 -0.103913695 0.13781214 0.16023612
000090 b0 b9 36 bd 3b f8 47 3d 8f 7f ae 3e 2d 5c b1 bd
       -0.04461068 0.048820715 0.34081694 -0.08660159
0000a0 0f 26 a7 3e 1e 3e 08 3d f3 86 64 bc 80 b9 af 3b
       0.32646224 0.033262365 -0.01394819 0.0053626895
0000b0 90 57 a6 be fb 30 7e be 3b 3f 2b be eb 81 10 be
       -0.3248868 -0.24823372 -0.1672334 -0.1411206
0000c0 ff ad 8f be e3 bb 3c 3e 6d 7e 7e be 33 dd 52 bc
       -0.28062436 0.18431048 -0.24852915 -0.012870121
0000d0 0e fb 2e bd 3c 68 93 be 06 f1 87 3e 20 f4 6b be
       -0.042719893 -0.28790462 0.26551074 -0.23042345
0000e0 98 b7 81 3e dd ae 2d be 11 42 0c be 07 0a 8f 3e
       0.25335383 -0.16961236 -0.13697077 0.27937338
0000f0 1f cd 2f 3e d3 df ca 3d 0d 33 ce bd 0a 6c 19 be
       0.17168091 0.09905972 -0.10068331 -0.1498262
000100 02 fe d0 3b 0d c4 56 3e 80 fd a3 3e 4c 4b 9c 3d
       0.0063779363 0.20973225 0.32029343 0.07631549
000110 d4 54 1c be 7a fb 9d 3c 11 40 45 3e c3 2b 10 3d
       -0.15266734 0.019284952 0.1926272 0.035197984
000120 12 c8 9a be d6 4c a5 be de c8 9b 3e 9e 43 73 3e
       -0.30230767 -0.32285184 0.30426687 0.23756263
000130 b4 35 82 3e 36 7b 41 be 8a 6d c7 bd c4 07 64 bd
       0.25431597 -0.18894657 -0.0973769 -0.05567147
000140 1d a1 27 3e 6e db 86 3e c5 30 7e 3e 1b 31 5a 3d
       0.16370054 0.26339287 0.24823292 0.053269487
000150 32 e1 7d bd 21 9e d7 3c 4d 99 ba bd c7 78 9a 3e
       -0.06198234 0.026320519 -0.09111271 0.3017027
000160 76 b7 3e bd 32 21 96 3d 37 b8 ad bc bd ea 32 3e
       -0.04656168 0.0733055 -0.021206005 0.17472358
000170 fa 81 14 3e f4 29 fc 3d de 45 ae 3e ab 21 a3 3e
       0.14502707 0.123126894 0.3403768 0.31861624
000180 c1 2a 48 bd 24 c2 21 3e 9c 92 9f bd 5c 32 8e be
       -0.0488689 0.15796715 -0.077916354 -0.27772796
000190 9c 7c 6b be 1f af 94 3e e2 f7 84 3d 84 60 7d 3d
       -0.22996753 0.29039857 0.064925924 0.061859623
0001a0 5e 1e 87 3e fe be 99 bd 7a 95 4e 3e 22 18 68 bd
       0.26390356 -0.07507132 0.20174208 -0.05666364
0001b0 92 35 94 3d 40 1b 01 be 93 b6 3d 3e b2 30 d6 3d
       0.0723678 -0.12608051 0.18526678 0.10458507
0001c0 f9 2f 8d 3e 8e c1 1c 3d 24 87 a8 3e 76 3d 26 3d
       0.27575663 0.038270526 0.32915604 0.040585957
0001d0 14 b5 8c 3e a1 df 30 be f0 7d ef bd 5b bc a7 3e
       0.27481902 -0.17272808 -0.116939425 0.3276089
0001e0 ab 52 4b be 66 28 07 be bc dd 5b 3e 0d 5a 62 be
       -0.19855754 -0.13199005 0.21471304 -0.22104664
0001f0 c1 4b 89 3e 8f b1 91 bd b3 f2 03 be 93 3e 4c be
       0.26815608 -0.07113945 -0.12885551 -0.19945745
000200 df 02 1d 3e fc 2a 90 be 02 6a 91 3e 67 2c 83 be
       0.15333126 -0.28157794 0.2840119 -0.25619814
000210 ed d4 48 3e a5 54 61 be a0 d2 0a 3e a3 9a a2 3d
       0.19612475 -0.22004946 0.1355691 0.07939651
000220 aa 39 27 3e e3 2b 60 ba 98 cc 5f 3e ba 5f d9 3d
       0.16330591 -0.00085514615 0.2185539 0.106139615
000230 0d 11 69 bd d0 f7 4c 3e e7 23 25 3e 80 f3 d0 3b
       -0.056901027 0.20016408 0.16126977 0.0063766837
000240 09 0c 90 3d d9 31 6f be dd e8 20 be d1 60 63 bc
       0.070335455 -0.23358859 -0.1571383 -0.013878063
000250 ca 09 44 be f1 e8 0e 3e b6 80 cc 3d 42 5b 36 be
       -0.19144359 0.13956048 0.09985487 -0.1780825
000260 20 a6 9e 3e a8 2a 8e be 5c 36 1d 3c 7d d6 1b be
       0.30986118 -0.2776692 0.00959548 -0.1521854
000270 b8 ba f4 3d c1 7c 31 be 21 a8 bd bd dc 8d 31 bd
       0.11949676 -0.17332746 -0.09260584 -0.04334818
000280 8b a8 f8 3d ee ef 4c 3e 9b d9 92 3d 6f bc 86 3e
       0.12141522 0.20013401 0.07170411 0.26315638
000290 06 cd a2 be 23 76 a0 3d 51 d4 aa 3e 7f 8e 82 3d
       -0.31797045 0.07835033 0.3336511 0.06374835
0002a0 83 7d ef 3d bb 5a a4 3d 27 9b 67 3e 9d f8 bb 3e
       0.11693861 0.08025118 0.2261778 0.36713114
0002b0 24 94 a2 be 7b fd bb bd 4b 01 98 3d 77 b5 be 3d
       -0.31753647 -0.09179207 0.074221216 0.093119554
0002c0 57 ad cb 3d 26 98 6d be ec cd 0f 3d da f2 ad 3e
       0.09945171 -0.23202571 0.03510849 0.33974344
0002d0 35 d3 7c 3e 25 1c 6f 3e f8 8c 53 3e 84 dd 09 3d
       0.24689944 0.2335058 0.20659244 0.03365852
0002e0 31 29 b3 bd 9f 78 5b bd 36 45 50 be 71 57 92 be
       -0.08748091 -0.05358183 -0.20338902 -0.28582337
0002f0 69 2c 85 be 8d 55 bf bd ab 7b 81 bc 29 0c a9 be
       -0.26010445 -0.093424894 -0.01580604 -0.3301709
000300 06 21 16 3e db f2 88 3e 86 17 3b 3d 71 e2 90 3d
       0.14661035 0.26747784 0.04567673 0.0707444
000310 6c c4 a1 be 06 e7 05 3e 16 2f 80 be 3d df c8 3d
       -0.3159517 0.1307641 -0.25035924 0.09808204
000320 a2 fe 59 3e a7 16 83 3e ac 30 a6 be 55 61 a1 be
       0.21288541 0.2560322 -0.3245901 -0.3151957
000330 0d bf 98 bc 08 9b 1d 3e 5c ba 1d be de 91 e8 3d
       -0.018645788 0.15391171 -0.15403122 0.11355947
000340 19 11 a0 bd f2 cb 6e 3d c1 fc b8 3d 48 00 a0 bd
       -0.07815761 0.058299966 0.09032584 -0.07812554
000350 40 7c 9e 3e 14 e7 02 be 96 f0 9c 3d c8 f3 19 3d
       0.3095417 -0.12783462 0.076630756 0.037586004
000360 dd 3d 35 be 53 c7 96 be d0 83 db bc af b4 aa 3e
       -0.1769938 -0.29448947 -0.026796252 0.33340976
000370 04 c9 8b 3e 9c 9b 1f be 52 9f a4 3e ad 7b 2d 3e
       0.273018 -0.15586704 0.32152802 0.1694171
000380 6f 5a d2 bd d7 92 37 bc 0a 41 79 be 52 da a2 be
       -0.10271155 -0.011204443 -0.24341217 -0.3180719
000390 d2 f2 6f be e0 b0 87 bc 23 06 3c 3d fc 32 de bd
       -0.23432472 -0.016563833 0.04590429 -0.10849568
0003a0 0f 75 be 3d e8 86 58 be 94 6a 88 be da 37 d9 3d
       0.09299671 -0.21145213 -0.26643813 0.10606356
0003b0 31 aa 1b 3e 0a 68 4f bd 3d 6b 05 be 1d fe a5 3e
       0.15201642 -0.05063633 -0.1302919 0.32420436
0003c0 59 60 1e 3e 07 72 7c 3e 56 6e b3 bd 1d 5a 6b 3d
       0.15466441 0.24652873 -0.08761279 0.057458986
0003d0 7b 27 6c 3e 61 46 66 be c5 2d 63 3e 62 f5 c3 bc
       0.23061936 -0.22487785 0.22185428 -0.023920719
0003e0 de 71 42 be 4d ed a3 3e 4c f2 a4 be 82 32 b4 be
       -0.1898875 0.32016984 -0.32216108 -0.35194784
0003f0 33 5b 21 be 70 94 6d be 62 7d 45 be f4 21 83 3c
       -0.15757446 -0.23201156 -0.19286111 0.016007401

weight_hh_l0 f4 [27, 9]
000000 93 e6 89 3e a3 bd b1 bd 3b 39 bb be ba 24 8a be
       0.26933727 -0.086787485 -0.365671 -0.26981145
000010 b9 53 74 3e f9 7c 34 bd d2 6e 91 be e2 0a 6c be
       0.23860063 -0.044064496 -0.28404862 -0.23051026
000020 3b 0c 08 3e 73 7b b7 be bc 7c bb be 65 d1 c0 bd
       0.13285916 -0.35836372 -0.36618602 -0.09414939
000030 1f a5 76 be e4 d3 2b 3e 00 e6 f2 bd 36 2b 5b be
       -0.24086426 0.16780049 -0.11860275 -0.21403202
000040 2b a7 72 be fe 1d ec 3d 85 9c 07 be f1 5d b2 3b
       -0.23696582 0.11529158 -0.13243301 0.0054433276
000050 9b 3d 9d 3e ca 6c 9b 3e a0 13 87 bd 6b bd 5f bd
       0.30711064 0.30356437 -0.0659554 -0.054624002
000060 f3 4a 13 be 17 fd 89 be 47 36 60 3e f2 eb e4 3d
       -0.1438406 -0.26950905 0.21895705 0.111778155
000070 5f 85 79 3e f9 fc 70 3e 9a 78 07 3e af c7 be 3d
       0.24367283 0.23534001 0.132296 0.093154304
000080 e0 a4 9c be 91 a1 6b bd 1c 2b 0d be c3 3d a9 be
       -0.3059454 -0.05752713 -0.13785976 -0.33054933
000090 0b 0f 91 be 1d 1c 54 3e fd 44 ca 3d 69 14 1d 3e
       -0.2833179 0.2071385 0.0987644 0.15339817
0000a0 67 d7 9c 3e 1d 39 7a 3e fd b2 a0 be 91 b4 7a be
       0.3063309 0.2443585 -0.31386557 -0.24482943
0000b0 82 da a3 be d4 17 9c be 50 0d 1c be 8d f1 e3 bd
       -0.32002646 -0.3048693 -0.15239453 -0.111300565
0000c0 66 1f 63 bd 3b fb 51 be 67 8e 17 be 7f 44 f6 3d
       -0.055449866 -0.20505993 -0.14800416 0.12024783
0000d0 b7 06 22 3e eb f1 18 be ec e8 1d 3e bb 00 62 3e
       0.15822874 -0.14936034 0.15420884 0.22070591
0000e0 f2 69 b2 bc bd 3b 10 3e 12 95 a8 bd 4f f8 77 3d
       -0.021779034 0.14085288 -0.08231558 0.06053954
0000f0 30 74 a4 3e 9c 53 28 3e 55 04 22 3e 46 1f 14 3d
       0.32119894 0.16438144 0.15821965 0.036162637
000100 5c 16 43 3e 02 8e 53 ba a2 96 d2 bc 1e 42 41 bd
       0.19051498 -0.0008070172 -0.025706593 -0.047182195
000110 1c bc 98 be 1e bc c6 bc 29 ac 57 3e ff d7 b2 bd
       -0.29831016 -0.024259623 0.21061768 -0.08732604
000120 97 90 9f be 0c b6 82 3e 11 c7 03 3e 8a b4 57 3e
       -0.31165 0.25529516 0.12868907 0.21064964
000130 28 e9 19 3e 62 35 f9 bd f5 81 fa 3d 40 15 27 be
       0.15030348 -0.12168385 0.122318186 -0.163167
000140 5e 88 e0 bd 53 8f b1 be 82 65 dd bd c1 0d 47 be
       -0.1096351 -0.3467966 -0.10810377 -0.1943884
000150 b3 55 11 3d 03 8a 9e 3c 5a 6e a2 3e e6 2f 89 3e
       0.03548212 0.019352918 0.31724817 0.26794356
000160 05 a4 45 3e 3e 93 16 3e 54 c0 3f 3e b2 0f 04 3e
       0.1930085 0.14704606 0.18725711 0.12896612
000170 22 f8 3f 3e bb 10 3a 3e 80 3e 31 be da 1c b1 3c
       0.18746999 0.18170445 -0.17308998 0.021620203
000180 59 03 b1 3d 31 b3 69 3e c6 b0 a6 3e 0e 78 09 3d
       0.08643217 0.22822262 0.32556742 0.03356176
000190 ca 6d 08 be cb 9f 93 be cb d8 b1 3e 9a 2d a0 be
       -0.13323131 -0.2883285 0.34735712 -0.3128479
0001a0 02 40 ff 3a 01 e2 f1 3d 79 6a 82 3e 93 f4 37 bd
       0.0019474032 0.11810685 0.25471857 -0.04491098
0001b0 35 a0 58 3e 33 8e 18 bd e0 b5 9c 3d 71 74 9e 3d
       0.21154864 -0.037244987 0.076518774 0.07737053
0001c0 f9 67 da 3d d9 fc 9a 3e 42 f0 98 3e 2b 7d 95 be
       0.106643625 0.30271032 0.29870802 -0.29197058
0001d0 a7 e7 ad 3d 42 a0 98 3e 0d a9 82 3e 6e e9 8b 3e
       0.0849145 0.29809767 0.255196 0.2732653
0001e0 0a a6 52 3e b8 cc 4b bd 22 dc 26 3e 14 00 9d 3c
       0.20571151 -0.049755782 0.16294912 0.019165076
0001f0 18 ff 0c be 9a 18 ce bd 32 ed 4d be 0e dc 56 3e
       -0.13769186 -0.10063286 -0.20110014 0.20982382
000200 f7 bc 87 3e 24 25 7a be 64 52 a1 be 1a af c3 3d
       0.26511356 -0.2442823 -0.31508172 0.09554882
000210 98 5f 5d bc 2a 3f 48 3d 5e 5a b4 bd 8d 7a 01 be
       -0.013511561 0.048888363 -0.08806299 -0.12644406
000220 b4 81 5b be 74 16 66 bd bd 42 aa bd bb 63 5c 3d
       -0.21436197 -0.056173757 -0.083135106 0.053806048
000230 eb b8 89 3e 75 e6 91 3e e5 03 95 be fa c4 f9 bd
       0.26898894 0.28496137 -0.29104534 -0.121957734
000240 37 7f 59 3e 73 55 92 3d cd 4f 8c bd af ee 65 bd
       0.21239935 0.071452044 -0.06851158 -0.05613583
000250 d8 dc 60 bd 9f e7 5a be e5 fe da 3d 3e 9f 8a 3d
       -0.054898113 -0.21377419 0.106931485 0.06768654
000260 51 5d 8d bd d7 5b d7 3d 4a 4c 2b 3d e6 a3 0c be
       -0.06902564 0.10515564 0.0418208 -0.13734397
000270 c9 71 dc 3d d5 c2 95 be 04 19 9a 3e b0 6e 70 3e
       0.1076389 -0.29250208 0.3009721 0.23479724
000280 02 ca 52 3e 6b 8f 8e be 25 e5 38 bd b5 c7 b4 3e
       0.20584872 -0.27843794 -0.045140404 0.35308614
000290 08 6a 7b be aa b7 09 be d4 a8 f1 bc 21 26 36 be
       -0.24552166 -0.13448969 -0.029499449 -0.17787983
0002a0 b4 be 9c be 05 63 8e be 89 cb fb bd 4d 18 aa 3c
       -0.30614245 -0.2780992 -0.122946806 0.02076354
0002b0 b9 49 8f 3e 14 a4 69 3e fa 95 88 3c 0c 2e 88 3a
       0.27985933 0.22816497 0.016673077 0.00103897
0002c0 62 68 8c be c0 42 ba be 11 6d 31 3e f8 75 a0 bd
       -0.27423388 -0.3637905 0.17326762 -0.07835001
0002d0 59 77 df bd f3 fc 0a 3e e1 85 d5 3d 38 f9 a5 bd
       -0.10911436 0.13573055 0.10425926 -0.08104175
0002e0 58 19 9c 3e 4e ac 96 be 65 a0 01 3e 57 73 90 be
       0.30488086 -0.29428333 0.12658842 -0.28212997
0002f0 d5 2d 73 3d 2c 66 58 3e cc b3 24 be fe 71 c2 3c
       0.05936988 0.21132725 -0.16084212 0.023735996
000300 e6 23 4d be 92 dc 41 be ca b7 14 be 30 fd 96 3e
       -0.20033225 -0.18931797 -0.14523235 0.29490042
000310 69 75 63 bd fa 6d 86 3e c3 e9 88 3e 64 e2 7c bc
       -0.055531893 0.2625578 0.26740846 -0.015434835
000320 ae db 6c bd 38 80 48 bd 62 cb df bc 4f 4a 94 bd
       -0.05782669 -0.048950404 -0.02731866 -0.07240736
000330 ae 3d 5c 3d 47 e5 56 3d ea c0 9a be ee f9 8c be
       0.05376976 0.05246475 -0.30225307 -0.2753443
000340 96 a2 eb 3d f4 56 09 be d0 c3 3b 3e c7 88 1b be
       0.1150562 -0.13412076 0.18336415 -0.15188895
000350 72 ef 93 be 22 85 a0 bd a3 82 62 3d 98 27 84 3d
       -0.2889362 -0.07837893 0.055300366 0.064528644
000360 2f 35 9f 3d 42 f6 9c be da 1e 80 3e 6f 4b e2 3d
       0.07773816 -0.3065663 0.25023538 0.11049544
000370 9c fa 0b be 9d b0 a0 3e be f3 b3 3d d4 37 ae 3d
       -0.13669819 0.31384745 0.087867245 0.08506742
000380 fa 6d b0 3e a8 0c 0e 3c 3d df 2c 3d bb 27 8e 3e
       0.34458905 0.00867001 0.042205084 0.27764687
000390 29 29 a2 be d6 3a 87 be 72 df 98 3e ad 40 a0 3c
       -0.31672028 -0.26412076 0.29857975 0.01956209
0003a0 c5 f7 92 be a0 3b 3e 3d 0e 12 75 be a4 25 0c be
       -0.28704658 0.04644358 -0.23932669 -0.13686234
0003b0 9d 19 0e 3e 42 09 83 bc 36 78 fd 3d 4a 11 94 3e
       0.13876958 -0.015995625 0.12376444 0.2891944
0003c0 bb 32 90 bc be 82 a2 3d d5 c5 44 3e
       -0.017602315 0.07935093 0.19216092

bias_ih_l0 f4 [27]
000000 68 4c 58 be 30 38 7d 3c b9 cd 75 bd 68 4f 86 3e
       -0.21122897 0.015455291 -0.060010646 0.26232457
000010 7a b3 63 3e ed b1 49 be dc 58 0d bd 18 75 a6 be
       0.22236434 -0.1969678 -0.03450857 -0.3251121
000020 71 42 b6 3e 21 86 92 3e 0b 72 6e be 72 2d 5b 3e
       0.35597566 0.28617957 -0.23285691 0.21404055
000030 2f 8c b0 3e ee 89 e4 bd 28 43 6f 3e 7a 97 31 3e
       0.34481952 -0.111591205 0.23365462 0.1734294
000040 00 72 8b 3e d9 1a 4c be f2 dd 8b be 0f fa 26 3e
       0.27235413 -0.19932117 -0.27317768 0.16306327
000050 07 46 b5 bc 9b 81 83 3e a9 57 a6 bd 07 47 49 be
       -0.022128118 0.2568482 -0.081221886 -0.19656001
000060 50 91 a9 3d 28 31 45 3e 0f 6f 78 3e
       0.08279669 0.19257033 0.24261115

bias_hh_l0 f4 [27]
000000 39 60 8b bd cc 61 9c 3d 0e 8a ac 3e 94 6a fa bd
       -0.068054624 0.07635841 0.33699077 -0.122273594
000010 14 33 79 3e 03 b5 a6 3e ed 8a a0 bd b1 bd 59 3e
       0.24335891 0.32559976 -0.07838998 0.21263768
000020 da 4d 11 3e 8e 8b b2 3d b5 e2 11 bc 25 1d 66 be
       0.14189854 0.08718024 -0.008904149 -0.22472055
000030 8d f4 86 3e 7c 15 25 3e 53 68 15 3e e3 6c 52 be
       0.26358452 0.16121477 0.14590578 -0.2054935
000040 4f 82 93 3e a2 d4 be 3b d6 97 de 3b 10 74 81 be
       0.28810355 0.0058236877 0.0067930026 -0.2528386
000050 87 6f 83 be bb f3 42 be 7e 6c 51 3e 0a 2a 14 3e
       -0.25671026 -0.19038288 0.20451543 0.14469162
000060 ae 97 51 3e 0f 84 56 bd ba 5f 9e 3c
       0.20468017 -0.052372035 0.019332755

weight_ih_l0 f4 [27, 24]
000000 fd d5 71 be d4 9f 67 3e 3e 57 80 3e 57 e3 02 be
       -0.23616786 0.22619563 0.2506656 -0.12782036
000010 64 af a7 be 4a 3e 61 be f5 f0 52 3d cf 1a 37 be
       -0.32751 -0.21996418 0.051499326 -0.1788132
000020 b1 f4 82 be b2 92 8a be 7f ed 47 be 93 6a b9 bb
       -0.2557731 -0.27065045 -0.19524191 -0.0056584566
000030 fc 08 8e be 83 71 67 3e fd 71 44 be a6 f1 d2 bc
       -0.2774123 0.22601895 -0.19184108 -0.025749993
000040 6a 11 15 be 30 9b 70 be db f2 5d 3e 6e 47 4c 3e
       -0.14557424 -0.234967 0.21674673 0.19949123
000050 19 69 16 3e e5 66 99 be a3 73 77 3e 15 47 c6 3d
       0.14688529 -0.29961315 0.24165206 0.096815266
000060 02 19 a8 bd 71 87 5d 3e 72 1c 69 3d c9 a7 30 3e
       -0.08207895 0.21633698 0.056911893 0.17251505
000070 7c 70 8f be 14 02 97 3e 40 13 a1 bd d9 fe 9d be
       -0.28015506 0.29493773 -0.07865 -0.30858496
000080 5c 17 be 3d e3 d8 96 3e b3 45 70 3e 66 c3 87 3d
       0.09281799 0.29462346 0.23464088 0.06629066
000090 e6 b1 73 3e 61 71 8b be 56 d0 00 3e ed da 7b 3e
       0.23798332 -0.2723494 0.12579474 0.24595232
0000a0 29 7d 8f be d4 4b 5e 3d 4f 75 aa 3e 01 60 3f bd
       -0.28025177 0.054271534 0.33292624 -0.046722416
0000b0 01 4c 1e 3d 73 f5 71 be 1f 89 0a be d2 b3 c0 bb
       0.0386467 -0.23628788 -0.1352887 -0.0058808113
0000c0 a7 90 5d be b1 a2 2a 3e fe ca db bc 8d 9f 90 be
       -0.21637212 0.16663624 -0.026830193 -0.28246728
0000d0 89 2d 79 be 1d 21 80 3d 1c d8 12 3e c7 0b ea 3c
       -0.24333777 0.06256316 0.14340252 0.028570069
0000e0 cc 6e 12 be 16 a4 8d be 63 0d 2b 3e d2 90 8d 3d
       -0.14300078 -0.2766425 0.16704325 0.06912388
0000f0 f3 4b 4f be 6d 53 74 be bb 7b 9f 3e 4c b0 02 be
       -0.20243816 -0.2385995 0.31149086 -0.12762564
000100 f6 6b a3 be b3 c4 0d 3e eb e9 56 be 41 32 ad 3d
       -0.31918305 0.13844566 -0.2098767 0.08456851
000110 91 80 ff 3c ee 6f 89 3e 32 25 6a bd b2 a4 74 be
       0.031189235 0.26843208 -0.05716438 -0.23890951
000120 ae ab 46 3e e8 a2 cc 3d b1 a9 38 3c 04 3a 8e be
       0.19401428 0.099920094 0.011270926 -0.27778637
000130 6a e6 37 3d db 96 96 be 80 62 49 3e dd 82 0c be
       0.044897474 -0.2941197 0.19666481 -0.13721795
000140 4b 75 aa bd f2 69 df 3d 41 ff 5a 3e f5 36 54 3d
       -0.08323153 0.10908879 0.21386434 0.051810224
000150 f2 53 37 3e 70 e5 56 3e 64 d1 86 bd 5f 4a 90 be
       0.17903116 0.20985961 -0.06582907 -0.2818174
000160 a6 99 8e 3e df f0 47 3c 75 7a 8d be 09 13 e1 bd
       0.278516 0.012203424 -0.2763249 -0.10989959
000170 73 21 32 3e 6d 01 e9 3d 9a d1 a2 3e f5 69 15 3e
       0.17395572 0.11377225 0.31800538 0.145912
000180 b4 be 07 3d 73 b6 0a 3e 03 5d ef 3d 79 0e 78 be
       0.033140853 0.13546161 0.116876625 -0.24224271
000190 d6 aa 65 3b a4 40 94 3e d4 5a 44 3e 52 d9 8c be
       0.0035044453 0.28955567 0.19175273 -0.27509552
0001a0 c1 58 9a 3d 40 e9 92 3e 3c 3d d6 bd f9 fd d8 3d
       0.0753646 0.2869358 -0.10460898 0.105953164
0001b0 39 23 13 be 63 d4 26 3e 2e 46 4b 3e 1a aa c3 3d
       -0.14368905 0.16291957 0.1985099 0.09553929
0001c0 7d 09 5f 3e 7e c3 7b 3e 4a e1 53 be 29 c1 00 be
       0.21780963 0.24586293 -0.2069141 -0.12573685
0001d0 bb 43 93 be ed 51 65 be 0b 89 54 be 9b b7 54 3e
       -0.28762612 -0.22394533 -0.20755403 0.20773165
0001e0 12 e2 70 3e 8e b2 a2 3e 11 7f a0 be 7b b0 70 3e
       0.23523739 0.3177685 -0.31346944 0.23504822
0001f0 7a 99 8b 3e ce e6 50 be 6b c6 9d be ce 86 66 be
       0.2726553 -0.20400545 -0.30815443 -0.22512361
000200 75 04 77 3e e4 3a 85 be 29 65 01 ba a7 43 0c 3d
       0.24122794 -0.26021492 -0.00049360335 0.034244206
000210 79 0b b9 bd 0d 93 a4 be a4 1a 99 be 5a 76 ab 3c
       -0.09035391 -0.3214344 -0.29903138 0.020930458
000220 a7 5f 6c 3d 0c c9 a9 be 30 b2 13 3e 31 cd 36 3e
       0.05770841 -0.331612 0.14423442 0.17851712
000230 ac da 64 3d 41 6b a1 be 90 6c 13 3e fc af 29 be
       0.055872604 -0.3152714 0.14396882 -0.16571039
000240 28 57 3a be 1d e9 10 3e 2c 54 69 3e c5 e3 a3 be
       -0.1819731 0.14151426 0.22786015 -0.32009712
000250 02 9b b3 bb 32 29 ce bd 89 a3 08 3e e9 e9 73 bb
       -0.005481125 -0.10066451 0.13343634 -0.0037218279
000260 63 db 26 3e 16 b7 02 be bd c6 19 be b0 50 5f 3e
       0.16294627 -0.12765154 -0.15017219 0.21808124
000270 fe bf bf bd e3 d0 3b 3e 44 ab 1a bd 05 00 24 3e
       -0.093627915 0.18341403 -0.037760988 0.16015632
000280 4e e5 8c 3e e4 c9 1a be d6 3a 52 3d 86 3d 33 be
       0.27518696 -0.15116078 0.05132564 -0.17503938
000290 ea 38 00 3e 98 e3 75 bd c7 16 2e 3e 82 5d a6 3e
       0.12521711 -0.060031503 0.17000876 0.32493216
0002a0 ec b0 64 3e 99 e2 6b 3e 73 13 61 3d e6 87 ed bd
       0.22333115 0.23035659 0.05495019 -0.11598186
0002b0 a8 02 af 3d 71 fa 80 be 83 8e 01 bd b3 65 39 3d
       0.085454285 -0.25191072 -0.03163005 0.045263004
0002c0 06 ba 60 3e 41 d7 49 3e d3 18 78 bc e9 7f 4c 3d
       0.21945962 0.19711019 -0.015142637 0.049926672
0002d0 b3 c2 1f be 99 cf 30 3c 09 03 a6 be 00 9f cb 3d
       -0.15601616 0.010791683 -0.3242419 0.09942436
0002e0 f7 03 c6 3d 49 59 99 be 18 2e f2 bd f4 8b 71 be
       0.09668725 -0.29950932 -0.11825198 -0.23588544
0002f0 6d 4f 99 be b1 99 41 3e 09 8b fd 3d 3d 9c 11 3e
       -0.2994341 0.18906285 0.123800345 0.14219756
000300 1f 6b 65 bd 31 3e 3e 3d bc ab f1 3d e1 db ca 3d
       -0.05601036 0.04644603 0.11800334 0.0990522
000310 86 ab c0 bd 01 75 14 3e 09 50 9a 3c 69 18 2e 3e
       -0.094077155 0.14497758 0.018836992 0.17001499
000320 58 b4 6f be db b8 dd 3d 2e 56 80 3d d8 f7 37 3e
       -0.2340864 0.10826274 0.062664375 0.17965639
000330 22 81 99 3e b9 09 a1 be 5d 94 88 3e 18 75 6a 3e
       0.29981333 -0.3145273 0.26675692 0.2289623
000340 10 19 89 3e 5e c7 21 be 6c d0 3e be 42 a2 04 be
       0.26776934 -0.15798709 -0.18634194 -0.12952521
000350 35 12 8b 3e bb a6 2c 3e 63 e4 d0 3d 69 e3 3a bd
       0.27162328 0.16860478 0.10199811 -0.04562703
000360 83 ff 8f 3e c6 de 27 be 59 53 8d be 9f ba 88 be
       0.28124627 -0.16393575 -0.27602652 -0.2670488
000370 f6 ce e7 bd 32 05 3e 3e 84 c5 72 3e 91 34 95 be
       -0.113187715 0.1855667 0.23708159 -0.29141667
000380 87 72 9d be 7c d3 ae bd 22 bf a5 3d 4a f0 24 3e
       -0.3075144 -0.08536431 0.08093096 0.16107288
000390 e8 03 a6 3e de 26 40 3e 45 c3 82 3e cb fd 31 3d
       0.32424855 0.18764827 0.25539604 0.043454926
0003a0 ec e9 37 be b5 fd 74 3e af f9 7b 3e f2 df 9f bd
       -0.17960328 0.23924907 0.24606965 -0.07806386
0003b0 a0 b1 e7 3c b6 6e 2a 3e 8d cb d0 bc c5 d8 82 be
       0.02828294 0.16643795 -0.025487686 -0.25556007
0003c0 14 63 f4 3d 72 7d e7 bc 3d 5c 32 3d e2 5a b8 3d
       0.1193296 -0.02825806 0.043544997 0.090017095
0003d0 b6 bb 05 3e 4a 70 76 be a7 da 42 bd 10 bb cc 3c
       0.13059887 -0.24066272 -0.047571804 0.024991542
0003e0 19 3b 76 be 2d af a5 bd ee 05 75 bd 48 7c a4 3e
       -0.24045981 -0.08090053 -0.059820108 0.3212607
0003f0 5a f4 89 be 24 0a 39 3e 5f 5d c8 bb e7 91 a2 be
       -0.26944238 0.18070275 -0.0061146463 -0.3175194

weight_hh_l0 f4 [27, 9]
000000 7f bb ef 3d af 45 4f 3e a3 38 50 3d 3c 45 3c 3d
       0.11705684 0.20241426 0.050835263 0.045964465
000010 c6 b4 89 3c 6f 40 00 3e 09 76 99 3e eb c7 19 3e
       0.016809832 0.1252458 0.29972866 0.15017669
000020 4b 1d 18 be 2f dc 8e 3c 64 6d b4 bd 6b 43 10 3e
       -0.14854924 0.017438976 -0.08809927 0.14088218
000030 24 63 81 be 71 e3 68 3d 76 5c 6d be 8e 07 42 3e
       -0.2527095 0.05685753 -0.23179802 0.18948194
000040 bd 08 9b bc 85 61 92 bd fd 0c 15 3e cc 7f 20 3e
       -0.018925065 -0.071475066 0.14555736 0.1567375
000050 ed 08 ff bd ed 9c 42 3e 64 bd 2f 3e bd 95 8f be
       -0.12452874 0.19005175 0.1716209 -0.2804393
000060 18 5f 91 be e9 58 28 3e d2 22 2a bd 85 83 a3 3d
       -0.28392863 0.16440167 -0.041537113 0.0798407
000070 44 22 fe 3b 83 80 2e 3e 43 38 19 3e c8 34 18 be
       0.0077555496 0.17041211 0.14962868 -0.14863884
000080 ca 31 a0 3e 9e 3e 20 3e bd 76 5d be 2a 18 99 be
       0.31287986 0.15648887 -0.21627326 -0.29901248
000090 34 51 4d bd c2 3e 86 bd 6d 0d 11 bd 00 8a 93 be
       -0.05012627 -0.06554939 -0.035413194 -0.28816223
0000a0 e1 c8 06 3e ea 7d 2a be 04 91 86 3e d7 22 07 3e
       0.13162567 -0.16649595 0.26282513 0.13196884
0000b0 ca 54 53 bd 5f 29 81 3e 2e ef 21 bd c2 65 be bd
       -0.051594533 0.25226876 -0.03953474 -0.092967525
0000c0 f3 e2 c9 3b 51 c5 65 3e 7a f4 99 be 8d 64 2b 3e
       0.0061610877 0.22438551 -0.30069333 0.16737576
0000d0 b0 d3 a2 3d d2 15 76 3e de ee e6 3d fd 92 df 3d
       0.079505324 0.24031761 0.11276029 0.10916708
0000e0 a7 67 d6 3d ee cc 34 be c1 27 af 3d d3 d6 74 3e
       0.10468989 -0.176563 0.08552504 0.23910074
0000f0 5f d6 03 bd 0e 0b 4a bd 37 9a 85 be 0f 26 92 be
       -0.032186862 -0.04932695 -0.2609422 -0.2854466
000100 fe 7c 89 3e 21 da 2c be a7 c7 35 be 24 0a a6 3e
       0.26853174 -0.16880085 -0.17751943 0.32429612
000110 30 bf d8 3d 27 e8 82 be 68 29 a7 bc b6 0e 84 3e
       0.10583341 -0.25567743 -0.020405486 0.25792474
000120 2f fc 0b 3e f9 0c 46 3e 14 9c b8 bd 5f 66 f8 3d
       0.13670419 0.19340886 -0.090141445 0.12128901
000130 55 bd af bd 2a 2e bd bd a2 34 46 3e 4e f0 4a be
       -0.08581034 -0.09237321 0.19356015 -0.19818231
000140 0c f3 2c 3e 3a c4 62 3e b0 14 45 3e 5e ce 81 3e
       0.1688959 0.22145167 0.19246173 0.25352758
000150 a0 51 a3 be 7d 6d cb 3d 2e f9 bc 3c 9e b2 83 3e
       -0.31898212 0.099329926 0.023068037 0.25722212
000160 fa a8 39 bc ec cd a0 be 62 43 83 3e 79 10 14 be
       -0.011331791 -0.31407106 0.25637347 -0.14459409
000170 ee fb 3b 3d f8 71 c9 3d c5 83 a1 3e e1 0c 78 3d
       0.045894556 0.09836191 0.31545845 0.060559157
000180 dd 86 7f bd 22 e7 8a be 09 f3 00 3c 83 47 ed bd
       -0.062384475 -0.27129465 0.007870444 -0.115859054
000190 1c fe 62 be 39 62 3a be 4e 31 1a be 63 d4 13 bd
       -0.22167248 -0.18201531 -0.15057871 -0.03609122
0001a0 62 a2 94 be a0 af 6f be d6 21 60 3e 9b 2f 1d bd
       -0.29030138 -0.2340684 0.21887907 -0.03837548
0001b0 79 cf 38 3e 35 f6 a8 bd 34 f5 1f be ca dd 84 3d
       0.18047895 -0.08250085 -0.15620881 0.064876154
0001c0 fd 67 88 be a9 58 15 bd 46 2b 85 3e a1 bc ca bd
       -0.26641837 -0.036461506 0.26009578 -0.09899259
0001d0 b9 eb 07 be 56 0d fc bd 1a 3d 8e be cf 86 7e 3e
       -0.13273515 -0.12307231 -0.27780992 0.24856113
0001e0 ab d9 e5 bc fa 66 60 be df 72 ed 3a c5 8f a2 be
       -0.028057894 -0.21914282 0.0018115899 -0.31750312
0001f0 aa 6e 64 be f7 6c 64 be 91 ba a8 bd 21 6f 9f bd
       -0.2230784 -0.22307192 -0.0823871 -0.07784868
000200 1c 60 9b be b9 2b 3e 3e d3 27 19 3e 8a da 05 be
       -0.30346763 0.18571366 0.14956598 -0.13071647
000210 c2 4b 1f be 82 82 bf bd 4d 4c 8e be 96 7c e1 3d
       -0.15556243 -0.09351064 -0.27792588 0.11010091
000220 89 6f 2b 3e 5e 28 a0 3e a9 29 ea bd e0 23 88 3d
       0.16741766 0.31280798 -0.11433727 0.066474676
000230 da 1b ce bd 1b 21 af bc 5a 67 c1 bd 0d 7a 39 3e
       -0.10063906 -0.02137809 -0.09443541 0.18112965
000240 b4 28 aa 3e 2b 98 1f be d8 63 a8 3c 42 d0 98 bc
       0.3323418 -0.15585391 0.020555422 -0.018653993
000250 98 9d 43 3e 20 7f d9 3d 74 8a 3d 3e c0 03 9d 3d
       0.19103086 0.1061995 0.18509847 0.07666731
000260 a8 b8 7a 3e a9 ac fe 3d 84 f2 02 be 4a d8 85 3e
       0.24484503 0.12435276 -0.12787825 0.26141578
000270 1b d0 52 be 94 ae 9a 3e 41 60 41 3d 49 d3 ac 3d
       -0.20587198 0.30211318 0.047210936 0.08438737
000280 01 8e 9f 3d 52 23 84 be e1 d9 8b 3e 3c b5 42 bc
       0.07790757 -0.25808197 0.27314666 -0.01188403
000290 04 30 66 be 38 68 f8 3c ee 1d 2e 3e 7a de 7a be
       -0.22479254 0.030323133 0.17003605 -0.2449893
0002a0 60 c7 68 3d ab 87 ab bd 41 1c 7a 3e c1 90 59 bd
       0.056830764 -0.08375486 0.2442484 -0.053116564
0002b0 cf 89 3a 3e 8d 86 30 be 1d b6 38 be d2 b7 c8 3d
       0.18216632 -0.17238827 -0.1803822 0.09800686
0002c0 38 a8 db bd 7a 1c 9c 3e 1c e7 0c 3e 90 24 a4 bd
       -0.107254446 0.30490476 0.13760036 -0.08014786
0002d0 31 8b 40 3d 09 bd 9a 3e 33 64 a6 3e aa 60 86 be
       0.047007743 0.30222347 0.3249832 -0.26245624
0002e0 dd 9a 05 be fa 7c 42 3e b8 06 24 be b0 5e 95 3e
       -0.13047357 0.18992987 -0.16018188 0.29173803
0002f0 c5 26 7a 3d 55 9c 7f bc 27 15 df 3d de e0 8e be
       0.06107213 -0.015601237 0.10892706 -0.27905935
000300 33 c1 2d 3d 2f 7b eb bd d2 4c b1 3d b2 f8 bb bd
       0.042420577 -0.11498105 0.086572304 -0.09178294
000310 79 30 0e bd 6b e3 9e 3e 61 a5 14 be 5f b5 8b 3e
       -0.034714196 0.3103288 -0.14516212 0.27286813
000320 cf af 3d be 17 c8 0a be 6d 06 fa 3d c5 4a ac 3e
       -0.18524097 -0.1355289 0.12208257 0.33650795
000330 15 3a 7e bd 0a bd 90 3e 3c d5 b1 3d 7d e2 92 3e
       -0.06206711 0.28269225 0.08683249 0.28688422
000340 e5 4f 8a 3e 1e 67 86 bd 17 d2 23 3e f7 16 32 be
       0.2701408 -0.06562637 0.15998112 -0.17391573
000350 81 61 11 be 76 c7 93 be 7e b5 15 bd c6 82 8f 3c
       -0.14197351 -0.28863114 -0.036550038 0.017518412
000360 f9 ce 5c 3e 71 e6 0b 3d 35 29 f2 bd 53 a1 1e bd
       0.21563329 0.034155313 -0.11824266 -0.03872807
000370 3d 4d 50 bd 24 2e 9a be 79 9d 93 be c9 f4 7b 3e
       -0.05085491 -0.30113328 -0.2883108 0.24605097
000380 75 ed 9d be 23 7b 97 be bf 87 ee 3b 8f 7a a6 3e
       -0.30845228 -0.29586133 0.007279366 0.3251538
000390 b8 fd d7 bd ab ef 19 be c8 6b 56 be 1a ab 53 be
       -0.1054644 -0.15032832 -0.20939553 -0.20670739
0003a0 0c 22 84 be dc 3b ab be ae 32 a0 3e 05 25 5d 3e
       -0.25807226 -0.33444107 0.31288666 0.21596153
0003b0 e1 38 9f 3d 84 cb 52 3e db 52 f6 ba 84 83 36 be
       0.07774521 0.20585448 -0.0018793003 -0.17823607
0003c0 23 ba 86 3e 17 18 53 be a8 40 f8 3c
       0.26313886 -0.20614658 0.030304268

bias_ih_l0 f4 [27]
000000 e4 f2 02 3e 8c e9 6a 3e 4b 16 a0 be 69 a7 53 3e
       0.12787968 0.22940654 -0.31267008 0.2066933
000010 04 08 58 3d df d2 f4 bd 86 05 7c 3d 76 8d 22 be
       0.05274202 -0.11954283 0.061528705 -0.15874276
000020 57 35 17 bd ed 30 9a be 94 5d 2b 3e 8a 03 81 be
       -0.036916103 -0.30115452 0.16734916 -0.25198013
000030 1c fa 9a 3e 38 ca 37 be 0f 1a 86 be 62 3c 23 be
       0.30268943 -0.17948234 -0.26191756 -0.15941003
000040 4c d7 89 be 00 5d 2f 3d 10 6d 8c be ba 02 17 3e
       -0.2692207 0.0428133 -0.27426958 0.14747134
000050 fa 5f 5b 3e 3d 0f 8a 3d ba 43 34 3e 24 b6 31 3d
       0.21423331 0.06741188 0.1760396 0.043386593
000060 5b c9 45 3e 32 5b a8 be d8 8f 3f bc
       0.19315092 -0.32882077 -0.01169201

bias_hh_l0 f4 [27]
000000 a6 5f 8e 3e ab 4d fe bd 68 ba 2b bd cc 7a 05 be
       0.2780735 -0.12417158 -0.041925818 -0.13035125
000010 1a 08 1b bd 34 90 9b 3e 99 7a 20 3e c3 fa 21 3e
       -0.037849523 0.30383456 0.15671767 0.15818314
000020 4a 1d 5e 3e f8 25 f5 bd 4a b0 75 be d9 80 9c bd
       0.2169086 -0.119701326 -0.2399303 -0.07641763
000030 78 b2 66 bd 45 5c 27 3e a5 91 56 3e 6a d2 3a be
       -0.056322545 0.16343792 0.20953996 -0.18244329
000040 c4 f6 81 3e f0 70 0d 3e 7d 59 94 be 2a 89 8d 3e
       0.2538358 0.13812613 -0.28974524 0.2764371
000050 bc b2 7d 3e 91 69 86 be 82 2a a4 3d ef 5e 1e 3e
       0.24775213 -0.26252416 0.0801592 0.15465902
000060 95 6f 8c be ce 3b b6 bd 73 78 f3 bd
       -0.2742888 -0.088981256 -0.11888208

weight_ih_l0 f4 [27, 39]
000000 d2 c7 29 3d b2 d2 83 be 8d e6 3f be 22 91 54 3d
       0.04145033 -0.25746685 -0.18740292 0.051896222
000010 cb 5b 52 3e 31 fe 1b be cf 68 85 bd 5e bf bf bc
       0.20542829 -0.15233685 -0.06514131 -0.02340668
000020 d5 81 5e 3e 89 b6 6b 3e 0e 8d 7f 3e 24 3f 81 3e
       0.21729214 0.2301885 0.24956152 0.25243485
000030 23 9f a8 3e 60 81 02 3e 52 4d f1 3d 3a 66 73 be
       0.32933912 0.12744665 0.11782326 -0.23769465
000040 df ae 26 3d b2 a8 68 be 89 98 7f bc 88 ca 87 be
       0.040694114 -0.22720602 -0.015600332 -0.26521707
000050 16 78 1f be 59 e0 88 3e dc 1e 7d be 87 73 3a 3c
       -0.15573153 0.26733664 -0.24718803 0.011380083
000060 af 1d 8f be 26 12 a2 3b 9e cd be bd e5 d1 b1 3e
       -0.27952334 0.004946011 -0.09316562 0.3473045
000070 67 e9 03 3e 76 e5 a6 3e 5c 71 66 be 91 13 5f be
       0.12882005 0.3259694 -0.2250418 -0.21784808
000080 79 c6 91 3e 91 8d 93 3e 52 29 8e 3e 29 90 88 be
       0.28471735 0.28818944 0.277659 -0.26672485
000090 45 d9 5f be 40 c4 8e be 4c 71 8e be d3 2f 72 be
       -0.21860225 -0.27884102 -0.27820814 -0.23651056
0000a0 45 45 9d be 0c cb 68 3e b1 bf 93 3e 6f fd 96 3e
       -0.3071691 0.22733706 0.28857186 0.2949023
0000b0 3e 31 53 3e 08 9d 49 be fd a1 5d bc 0b d7 dd 3d
       0.20624253 -0.19688809 -0.013527391 0.10832032
0000c0 ec 09 96 bd 85 d7 47 be be 95 ba bd 2b cd 91 3d
       -0.07326111 -0.19515808 -0.09110592 0.07119211
0000d0 bf 35 60 be a7 44 89 bc 94 a7 29 3e ff 86 67 3e
       -0.21895503 -0.016756369 0.16567832 0.2261009
0000e0 9e 8a 37 3e 74 e8 f8 3c ca dd 19 be a2 11 72 be
       0.17923972 0.03038428 -0.15026012 -0.23639539
0000f0 cd 4b 7c be 57 d7 8d 3e 45 0d 87 bd b4 1f d5 bd
       -0.2463829 0.27703354 -0.06594328 -0.104064375
000100 af 4e 76 bd 58 d5 9b be 88 72 52 be cb 89 60 3e
       -0.060133632 -0.30436206 -0.20551503 0.21927564
000110 e9 12 a2 3e b7 55 85 3e 66 cd 3d be 56 10 4c 3e
       0.31655052 0.26041958 -0.18535385 0.19928107
000120 f0 bf c3 3d 04 41 34 3e 01 f2 28 3e c7 3e a8 be
       0.095580935 0.17602926 0.16498567 -0.32860395
000130 37 03 c5 3b 88 38 da 3d ea 80 41 3e 04 8c 86 be
       0.006012346 0.10655314 0.18896833 -0.26278698
000140 8e 3a 83 be 87 7c 8c be 1c 28 14 bd 9e b5 93 be
       -0.2563061 -0.27438757 -0.036171064 -0.288495
000150 49 d0 69 3e e0 00 31 3e b7 59 53 be d1 45 52 3d
       0.2283336 0.1728549 -0.20639692 0.051336113
000160 48 f1 4c be 31 6a 24 3e 31 6a 32 be 9e 84 33 3e
       -0.20013916 0.16056134 -0.17423321 0.17531058
000170 b5 c5 6e 3e 8b 8c 49 3e 34 f0 4f 3e 94 ea 99 3e
       0.23317607 0.19682519 0.20306474 0.3006178
000180 8a 4a 21 3d bb bc 2d 3d f1 f1 3d be 19 53 56 3c
       0.039377727 0.042416316 -0.18549325 0.013081335
000190 15 83 8c be e5 39 84 bd 35 ae 98 be b6 f3 80 3e
       -0.27443758 -0.06456355 -0.2982041 0.25185937
0001a0 69 e2 34 3e 1e 3d 88 3c c9 14 4a be 7e 5d 89 3d
       0.17664494 0.016630705 -0.19734491 0.06707285
0001b0 70 90 f6 bd 79 91 54 bd ba 6b 46 3e 59 d7 88 3e
       -0.12039268 -0.051896546 0.19377032 0.26726797
0001c0 a8 9e 60 3e 0d 85 9c bc 4e 0e 0f be e0 4e 24 be
       0.21935523 -0.019106412 -0.139703 -0.16045713
0001d0 9d 20 9e be 6e 08 b6 bd c9 36 0c 3e 82 1d 9c be
       -0.30884257 -0.088883266 0.13692774 -0.30491263
0001e0 38 f8 5f be 83 46 6d be 23 a0 24 be db a1 76 3e
       -0.21872032 -0.2317143 -0.16076712 0.2408518
0001f0 71 55 92 3e e5 09 9d bb 4b 0c e9 3d 31 a7 44 3e
       0.28580812 -0.0047924393 0.11379298 0.19204403
000200 57 de 9d 3d 6d 72 10 3e 65 a7 93 be 3c b8 94 3e
       0.077084236 0.1410615 -0.2883865 0.2904681
000210 43 2d 9f 3e de 43 8e 3e 6e 5e 85 be 0e e4 0f be
       0.3108922 0.27786154 -0.26048607 -0.1405184
000220 2b 31 4e bd 59 0f 03 3e f2 83 10 be a6 b0 5e 3e
       -0.05033986 0.12798823 -0.14112833 0.21747074
000230 c7 d1 49 3d 95 0a a1 be 04 00 0e 3e c4 a3 98 3e
       0.049272325 -0.31453386 0.13867193 0.29812443
000240 28 6b 33 be 8e 87 80 3e 32 72 50 3d 67 c1 62 3e
       -0.17521346 0.2510342 0.050890155 0.2214409
000250 2e 80 a6 3d e1 40 8a be 39 fb e3 3d d8 42 2e 3e
       0.08129917 -0.27002624 0.11131901 0.17017686
000260 87 37 36 be b4 1d e1 3d e6 d8 01 bd ef 43 b3 3d
       -0.1779462 0.109919935 -0.03170099 0.08753192
000270 b3 49 14 3e 20 d7 65 bd 14 9c 91 be 5b 82 9e be
       0.14481239 -0.056113362 -0.2843939 -0.30958828
000280 fe a5 4f be 10 af 11 3e 8e 6b a1 3d 47 e3 18 3e
       -0.20278165 0.14226937 0.078818426 0.1493045
000290 ba 6d f0 3d 93 ca 63 3e f6 db 92 3d 53 56 5b be
       0.11739679 0.22245245 0.071708605 -0.21419649
0002a0 f2 b7 c8 3d a8 a2 22 3e 68 ed 84 bb d2 c3 67 3e
       0.0980071 0.15882361 -0.0040566213 0.22633293
0002b0 e9 51 26 be db 95 8a be e0 db f1 3d 3a 9f 9e be
       -0.16242184 -0.27067456 0.11809516 -0.30980855
0002c0 6c bc b6 3d 63 79 9d be 5f 15 a2 3e 51 aa ad 3e
       0.08922657 -0.30756673 0.3165693 0.33919004
0002d0 bf 18 a0 3d ed 00 95 be b0 90 11 bd e4 80 09 3e
       0.0781722 -0.2910227 -0.035538375 0.13428074
0002e0 4d 64 ab 3e 2a 9e 08 3e f5 8e 0a 3e 73 db d7 bd
       0.3347496 0.13341585 0.13531096 -0.105399035
0002f0 a1 4a c4 3d dc b9 a4 3e 52 fb 98 3e a7 95 65 be
       0.09584547 0.3217305 0.29879242 -0.22420369
000300 3c 6b 78 be 4e b3 43 bd 00 12 51 3d 40 6d 29 3e
       -0.24259657 -0.04777842 0.051042557 0.16545582
000310 ce 09 cb bd 88 dc 87 3e ea 80 17 be 79 a4 a2 be
       -0.099139795 0.2653544 -0.1479527 -0.31766108
000320 12 be 40 3d 0d 55 7c bc 90 f2 9a 3e 0f 3f 39 3e
       0.047056265 -0.015401137 0.30263186 0.18090461
000330 5f a8 8b be fc a9 61 be 4f 10 a2 be 72 5a f6 3d
       -0.27276894 -0.220375 -0.31653067 0.1202897
000340 c6 b8 05 3d 79 35 47 3e a1 76 11 be f5 01 a4 3d
       0.032646917 0.19453992 -0.1420541 0.08008186
000350 69 72 02 be 77 20 98 be 88 12 85 3c a7 9b 5a 3d
       -0.12738957 -0.2971227 0.016244188 0.053371098
000360 7b 8f 4d be c3 74 f0 3d 8f 90 89 be 7d 46 8e be
       -0.20074265 0.117410205 -0.26868102 -0.27788153
000370 d3 11 5a be f0 e8 5d bd e4 41 ab bd b3 a7 47 be
       -0.21295862 -0.054177225 -0.08362177 -0.19497566
000380 fe dc 76 bc e7 f2 16 bd 98 90 33 bd cc c4 96 be
       -0.015067337 -0.036852743 -0.043839067 -0.2944702
000390 b8 ea a1 be f0 10 36 3d 11 93 a3 be bd b9 33 bc
       -0.3162439 0.044449747 -0.3194814 -0.010969576
0003a0 cd 29 c7 bd 21 ea e2 3c b5 8a 42 bd 92 07 31 be
       -0.0972477 0.027699532 -0.047495563 -0.17288044
0003b0 9f 7c ad bd 6a b3 39 be e0 b6 f9 bd 21 a0 98 3d
       -0.08471035 -0.18134847 -0.12193084 0.07452417
0003c0 56 4a a9 3e 16 77 3b be 08 0f 1f 3e 4e 76 cc 3d
       0.33064526 -0.18307146 0.15533078 0.09983502
0003d0 cb 05 7d 3e 3c d6 1e 3e 51 6e 79 bd 81 27 4e be
       0.24709241 0.15511411 -0.06089622 -0.20132257
0003e0 4a 07 b3 bd 60 e5 62 3e 93 09 8c be 62 b8 9d 3e
       -0.08741625 0.22157812 -0.27351055 0.30804735
0003f0 12 11 96 be 30 b4 87 3e 8a 2d b5 3d 0a 77 78 bc
       -0.293099 0.2650466 0.088465765 -0.0151651

weight_hh_l0 f4 [27, 9]
000000 92 78 10 be a9 5a 9c be 74 19 0c 3e 60 2e 94 3d
       -0.14108494 -0.30537918 0.13681585 0.07235408
000010 c1 ad a7 3d df 0f 52 be cf ba cb bd ed 39 5f be
       0.08187438 -0.20513867 -0.0994774 -0.2179944
000020 fd 5f 7e 3d 40 17 02 3e bc 0a 11 3e b6 21 b1 bd
       0.06210326 0.12704182 0.14164251 -0.08649008
000030 b6 f7 97 bd 7a fa 5d bc 73 70 62 3e 46 0e da 3b
       -0.07420294 -0.013548488 0.22113208 0.0066545336
000040 db 6f 78 3d 53 07 00 3e 43 12 4d 3c 25 80 49 3e
       0.06065355 0.12502794 0.012516561 0.1967779
000050 12 6b 92 be cb 40 02 3d 57 31 55 bd a9 e2 2c 3d
       -0.28597313 0.031800073 -0.052049007 0.042208347
000060 99 ac a9 bd dd 25 32 3e 04 33 00 3d e3 12 02 be
       -0.082848735 0.17397256 0.031298652 -0.12702517
000070 bd 62 1b be ae fd 3b be cd 09 92 be 30 71 7b 3d
       -0.15174384 -0.1835849 -0.28523102 0.06138724
000080 44 1c 58 3d 56 ff 69 be 0c db a5 bd be 94 42 3e
       0.05276133 -0.22851309 -0.080984205 0.19002053
000090 6e a2 8c be d6 5d 48 3e 1c 77 15 be 4c 6d b9 bd
       -0.27467674 0.19567046 -0.14596218 -0.0905405
0000a0 92 cf b1 be df e0 23 be 08 f4 a1 3e e0 de 10 3e
       -0.34728676 -0.1600375 0.31631494 0.1414752
0000b0 36 1e 11 3d d7 00 ac bd 1c 6d 76 3e df cf 16 3e
       0.035429202 -0.08398598 0.2406506 0.14727734
0000c0 83 6c 86 3d 63 62 dc bd 1c 31 9e be 3a 99 ce bd
       0.06563666 -0.10760953 -0.30896842 -0.100878194
0000d0 ea ca 40 3e cc 40 65 3e 2d 47 8c be a8 3c fc 3d
       0.18827406 0.22388 -0.27398053 0.12316257
0000e0 3c a7 5f be 9f fb 99 be 16 f4 e6 bc 63 a7 5d be
       -0.21841139 -0.30074784 -0.028192561 -0.21645884
0000f0 52 ba 43 bd 80 39 4e bd e8 2a a4 be 86 29 4e be
       -0.04778511 -0.050347805 -0.32063985 -0.20133027
000100 e6 cd 8c 3e c2 72 11 be 3c a3 80 be 34 e9 ef 3d
       0.27500838 -0.14203933 -0.25124538 0.11714402
000110 d5 56 48 be ea 44 f6 3d ff 91 04 3e 9d a7 a8 3e
       -0.19564374 0.12024863 0.12946318 0.3294038
000120 92 61 9e be 70 94 49 3d fa 5e 84 bd c5 09 88 be
       -0.30933815 0.049213827 -0.06463428 -0.26569954
000130 6b 98 7d be c6 89 fb bd 0e 8f 22 be df 27 b4 3d
       -0.24765174 -0.122821376 -0.15874884 0.08796667
000140 f0 11 6e be 3e 8f 8a 3e 33 2c c2 3d f7 31 08 3d
       -0.2324903 0.2706241 0.094810866 0.033250775
000150 d6 58 96 3e 80 da 45 be 88 75 99 be eb d1 10 3e
       0.2936465 -0.19321632 -0.29972482 0.14142577
000160 33 df 76 be 51 39 36 3e 74 a7 85 be a3 9f 6e 3e
       -0.24108581 0.17795302 -0.2610432 0.23303084
000170 f2 87 a7 be bd 7c 2a 3e 6b dc 25 3e 34 90 79 bd
       -0.32720906 0.16649146 0.16197364 -0.06092854
000180 4d 72 2e 3e ab e6 44 be 02 e0 57 3e 9b cc b6 ba
       0.1703579 -0.19228618 0.21081546 -0.0013946475
000190 fb b1 ce bd 51 8d 8f be b4 7f 8b be f9 26 09 3d
       -0.10092541 -0.28037503 -0.27245867 0.033484433
0001a0 bb 88 3e 3e b3 97 73 bc c5 e2 93 3c 0d 36 69 3e
       0.18606846 -0.014867711 0.018052468 0.22774525
0001b0 ab e9 a9 be f5 52 f5 bc 41 26 3e 3e 71 0e 06 3e
       -0.33186087 -0.029946784 0.1856928 0.13091446
0001c0 ba e2 4f be 38 ba 77 be ca 2e ae be e1 39 aa be
       -0.20301333 -0.2419213 -0.34020072 -0.33247283
0001d0 86 cc 57 be 4b d2 4c 3e 11 1d dc 3e 62 cc 3c be
       -0.21074113 0.20002095 0.42990926 -0.18437341
0001e0 d1 e5 02 3d e4 bd 60 3d 89 d9 05 3e 4a 1d 37 bd
       0.03195745 0.054868594 0.13071264 -0.044705667
0001f0 52 98 33 be 20 3b 0a be c5 21 42 be 10 44 fd bd
       -0.17538574 -0.13499117 -0.18958195 -0.123664975
000200 ab a4 90 be ca cc 58 3e e6 57 98 3d f8 cc 85 3e
       -0.28250632 0.21171871 0.0743864 0.2613294
000210 5e 86 99 3e 70 0b 2b 3e 43 07 29 3e 31 ec 99 3e
       0.29985327 0.16703582 0.16506676 0.30063012
000220 30 7a 21 bb 37 08 61 3e ba f4 7f be f9 54 91 3e
       -0.002463948 0.2197579 -0.249957 0.28385141
000230 87 be 4d be 2c b5 38 3c bb 1a 57 be fe 93 95 bd
       -0.20092212 0.0112736635 -0.2100629 -0.07303618
000240 9b f3 d1 bd 08 3b d3 3d c8 7f ce 3d a7 5a f0 bd
       -0.10251542 0.10313994 0.10082966 -0.117360406
000250 b4 46 98 3d a9 2b d2 bd 4d 0c 12 3e a3 4b 28 be
       0.074353606 -0.10262234 0.14262505 -0.16435103
000260 2f 72 83 be 61 bc 8e 3d 52 81 90 bd 08 34 cb bd
       -0.25673053 0.06969524 -0.07055916 -0.099220335
000270 3c 0b 97 be 09 e6 19 bd 78 68 4e 3e ca 0a a7 3e
       -0.2950076 -0.037572894 0.20157039 0.3262542
000280 34 c2 08 bd 70 9d ab 3e 89 76 98 3d 35 2a 08 be
       -0.03338833 0.33518553 0.07444484 -0.1329735
000290 7b 4e 9d be e2 83 21 3e c8 2c 30 3c aa 60 3c 3e
       -0.30723938 0.15772966 0.010752864 0.1839625
0002a0 a7 17 ab be c4 5a 0d be 00 92 15 3e c0 a4 1f 3e
       -0.33416483 -0.13804156 0.14606476 0.15590191
0002b0 07 e8 97 bd 78 d2 e4 3d 99 aa 4a 3e a3 58 83 3e
       -0.074173026 0.11172956 0.1979164 0.25653562
0002c0 fa 6b 28 3e c4 16 95 be 6b 32 92 3e 53 43 99 be
       0.1644744 -0.2911893 0.2855409 -0.29934177
0002d0 5d fe 9b 3e 96 05 a8 3e ef 0a 71 3e 9f a2 2a 3e
       0.304675 0.32816762 0.23539327 0.16663598
0002e0 1a 92 17 bc 01 b2 90 3e 8f c2 b4 3c a8 c2 a6 3e
       -0.009251142 0.28260806 0.022065429 0.32570386
0002f0 72 e8 ff bd 42 96 6d be 0f 26 2b be 15 8e 60 be
       -0.12495507 -0.2320185 -0.16713737 -0.219292
000300 10 fb ac bd 56 a9 96 be 1b b6 73 bd 85 fd 88 3e
       -0.08446324 -0.29426068 -0.05949984 0.2675592
000310 c3 a0 ba 3d c7 58 a9 3d a6 f8 3f 3e 69 c9 82 bd
       0.09112694 0.08268886 0.18747196 -0.06386072
000320 3b 87 a8 be bd 7b 9c be 22 01 01 be c9 c1 7a 3e
       -0.32915673 -0.30563155 -0.12598088 0.24487986
000330 c6 7b 01 3e 0b ff 27 3e 1e a1 9a 3e 73 8a ea bd
       0.12644872 0.16405885 0.30201048 -0.11452188
000340 26 9d b0 3e 46 e6 0c 3e 5e 5f 80 be c6 84 69 bd
       0.34494895 0.13759717 -0.2507276 -0.05701139
000350 4a cb 82 be a5 5e 0b 3e d0 1b 82 3e d4 20 8a 3e
       -0.25545722 0.13610323 0.25411844 0.2697817
000360 2e e6 b0 3c 74 39 cb 3d 5f 2a b8 be ab 98 e4 3d
       0.021594133 0.09923068 -0.35969827 0.111619316
000370 b8 98 97 3e 91 72 82 be cc 84 2a 3e 5a 3a 82 be
       0.29608703 -0.25478032 0.1665222 -0.25435144
000380 c1 a7 31 3e da cd 80 3e 4e fd e2 bd e9 ce 91 3e
       0.1734915 0.25157052 -0.1108347 0.28478172
000390 ee e4 8c be ba 11 8e be 09 7d a4 3e 29 c6 3e be
       -0.2751841 -0.277479 0.32126644 -0.1863028
0003a0 24 24 75 be 88 02 9a be 02 5a 26 3e 14 a3 86 3e
       -0.23939568 -0.30080056 0.16245273 0.26296294
0003b0 9f 7b 56 be 68 86 05 3d 2f 6b 42 3e bf 2e a8 3d
       -0.20945595 0.032598883 0.189862 0.08212041
0003c0 9d 8f 6e be 0d 1e 53 3e 55 a4 39 3c
       -0.23296972 0.20616932 0.011330684

bias_ih_l0 f4 [27]
000000 2b 94 0c be 9c 7e 9a 3e b9 04 90 bd be ea 82 3e
       -0.13728397 0.3017472 -0.07032151 0.2556972
000010 53 0e 15 be e2 e4 33 bc be 10 21 3e 5e 2e 9c 3e
       -0.14556246 -0.010979863 0.15729043 0.30504125
000020 fd 45 7e bd ce 06 0a be 84 cb 66 3e 8e ee 8a 3e
       -0.062078465 -0.13479158 0.22538573 0.27135128
000030 e4 2c 3a 3d 64 14 9e 3e fd 41 11 3b bb 1f 08 be
       0.045452967 0.30874932 0.0022164576 -0.13293354
000040 b9 cd 18 be b0 d3 15 3c 53 b5 9b be 94 b4 d2 bd
       -0.14922227 0.0091447085 -0.30411777 -0.10288349
000050 9d 34 63 be e3 0d 96 3e e7 39 b7 bc b9 0d 4b be
       -0.22188039 0.2930747 -0.022366477 -0.19829454
000060 ff 84 a1 be 9a 97 ec bd 9b 90 12 3d
       -0.3154678 -0.11552353 0.035782438

bias_hh_l0 f4 [27]
000000 11 ba 84 3e b3 5f 83 bd 08 3b 57 bc 4f af e0 3d
       0.25923207 -0.064147376 -0.013136633 0.109709375
000010 1a 6a ac bd 33 35 95 be 8c 0b 66 3e c7 8c 7b be
       -0.08418675 -0.2914215 0.22465342 -0.24565421
000020 5a 24 4f 3d 3b 5f 60 3e ff ae 56 be 5d fe 38 be
       0.050571777 0.21911328 -0.20965193 -0.18065782
000030 cf c8 af 3d 2c 23 93 3e 13 a3 8a 3e 10 f5 65 3e
       0.08583223 0.28737772 0.2707754 0.22456765
000040 8a 2c ae be 0f 95 b7 bd 73 64 8d be ff e4 9d 3e
       -0.34018356 -0.089639775 -0.276157 0.30838773
000050 ea 8b 37 3e 58 b4 f8 3c ea 18 c6 bd e4 c9 64 3e
       0.17924467 0.030359432 -0.09672721 0.2234264
000060 e7 26 8b bd 4e d9 91 3e 7f 36 68 3d
       -0.067945294 0.28486103 0.056692597

weight f4 [9, 9]
000000 d3 b5 c2 bd b0 18 85 3c 72 96 f6 3c b8 f3 2a 3e
       -0.095073365 0.016247123 0.030101035 0.16694534
000010 88 8a 82 3d 58 c6 54 3d 11 bc 8a be 26 0d 96 be
       0.06374079 0.051946968 -0.27096608 -0.29306906
000020 b5 a9 77 3c e8 45 92 3e 9e 12 9d 3d 09 4f 24 3c
       0.015116145 0.2856896 0.076695666 0.010028609
000030 5a bf 9a 3c 38 75 33 bd ab c9 38 3e b8 e1 b0 bd
       0.018890072 -0.04381296 0.1804568 -0.086368024
000040 48 65 2c bc c9 b8 56 3c cc 99 5a 3e 14 f3 39 3e
       -0.010522194 0.01310558 0.21347731 0.18159133
000050 84 e2 96 3e 08 d2 a8 be ef ce 8d be e8 b4 18 3e
       0.29469693 -0.3297274 -0.2769694 0.1491276
000060 38 0c 85 3e 1b 1d 10 be 8e 57 fa bd 7f 11 ee 3c
       0.25985885 -0.14073603 -0.12223731 0.029061077
000070 00 68 85 3d ca fa f6 3a 41 af a7 3e af 65 cf 3d
       0.06513977 0.0018843052 0.32750896 0.101268165
000080 cb 2d ad bd 81 76 a5 3e 67 26 64 3e 23 ac a0 be
       -0.08456 0.32316974 0.22280274 -0.3138133
000090 32 53 95 be a0 b7 59 3e 30 79 a3 be 3f ac 87 be
       -0.29165035 0.21261454 -0.31928396 -0.264986
0000a0 f5 3b fa 3d da 4c 69 3e 6a 6d 18 be ff d7 f7 bd
       0.12218467 0.22783223 -0.14885488 -0.12101745
0000b0 85 62 cd bc a2 0a 18 3e 82 4d 2e 3e 4d 79 0c 3e
       -0.025071392 0.14847806 0.17021754 0.13718148
0000c0 c2 24 9a 3e 62 f2 45 3e 17 4a 62 be e1 1e 91 be
       0.3010617 0.19330743 -0.22098576 -0.2834387
0000d0 9e 9a 26 3e a1 7c 84 3e ca a1 19 3d 82 ad c8 3d
       0.1626992 0.25876334 0.03750781 0.09798719
0000e0 9e 52 46 be a4 e4 d4 bc dc 70 a3 bb 87 dc 80 bd
       -0.19367453 -0.02598793 -0.004987819 -0.06292062
0000f0 e5 a7 9c be 98 fe 8b be 17 08 5e 3d 3c 60 e1 3d
       -0.30596843 -0.27342677 0.054206934 0.110046834
000100 16 27 89 3e b9 f5 94 3e 20 fa a5 3e bb 88 d3 3d
       0.26787633 0.29093722 0.32417393 0.10328814
000110 7a 0c b3 be ab 66 0a 3d 3b 20 f6 bd 82 86 a5 be
       -0.34970456 0.033789318 -0.12017866 -0.32329184
000120 58 9a 88 be f1 ad 35 be a3 12 03 3e 08 b2 11 be
       -0.26680255 -0.17742135 0.12800078 -0.1422807
000130 a9 fa 44 be 10 27 8a bd 71 d5 5c bd 54 46 0a 3e
       -0.19236244 -0.06745732 -0.05391449 0.1350339
000140 1e 3b 9b bd
       -0.07579635

bias f4 [9]
000000 bf ab 9a be 66 c3 e6 3d 9c 55 31 be e8 52 0c 3e
       -0.30209157 0.11267738 -0.17317814 0.13703501
000010 19 7e f8 bc 33 af 0d 3e d8 92 77 3d 8e 10 19 3e
       -0.030333566 0.13836364 0.060442775 0.14947721
000020 61 c1 fc 3d
       0.123415716
