Simulations/Lorenz_Atractor/results/decimation/data_size/best-model-weights_size100new.pt (torch, 146667 bytes, 46 tensors)

GRU_Q.weight_ih_l0 f4 [27, 15]
0.0036107565 0.0045109177 -0.010376648 0.009164382 -0.08384267 0.06954189 0.017620903 0.030213999
0.0041303593 0.0006879992 0.00079838914 0.008288997 0.0016153471 0.04281169 -9.247154e-05 0.009212083
-0.0010130826 0.0013146551 -0.004723468 0.117258444 0.013625351 0.06144698 0.020833325 3.3020006e-06
0.0024563258 -0.00064946356 -0.0115060145 3.1779215e-05 0.018964732 0.00044893162 0.02249535 0.0015335432
0.058765076 -0.031006034 0.027808335 0.023968043 0.12864798 0.048972107 0.010453235 0.0022888174
0.053672627 0.042333234 -0.007656318 0.049048528 0.0003963019 0.013539893 0.0034216312 0.011622462
0.006452726 0.037468057 -0.0039401934 0.09331256 0.021944705 0.006827597 -0.0010796867 0.03679004
0.028931303 -0.0022710513 0.036461804 0.0003001583 0.015475159 -0.001311065 0.009440536 0.0013572155
-0.12030792 -0.04894548 0.13279186 -0.01009974 0.003795328 0.005107644 0.026803028 0.0064998246
0.001999984 0.027711075 0.0011459993 0.044487663 0.020077873 -0.029954234 0.12015902 -0.0359663
0.13828675 0.15085381 0.041617323 0.026734745 0.0065472648 0.051530067 0.04497365 -0.005365288
0.044968374 -0.000494361 0.0015239692 -0.00050824217 -0.031087156 0.0036625825 -0.09094202 -0.09349259
-0.039676614 -0.028984718 -0.0047721863 -0.0024370805 -0.008727592 -0.002113247 -0.0012946755 0.0029200986
-0.00043596697 0.006341311 0.0045805527 0.017261779 -0.030214993 0.050440785 -0.0107923765 0.03331729
0.039981406 0.008847279 0.002429342 0.025575396 0.032163285 -0.0010464286 0.016017767 -2.6205766e-05
0.012923394 0.0027317544 0.011731999 -0.008219875 0.039744567 -0.025252335 0.0814409 0.018992016
0.007677422 0.0034199913 0.019152114 0.0118656345 -0.0012725287 0.024387917 0.0002597395 -0.0027071098
0.002852859 0.0056947363 0.0059460583 0.00896807 -0.0021305825 -0.0101419 0.0032544415 0.0035038847
0.00082744873 -0.00066240283 0.00039636847 0.00031277118 -0.0018700166 -8.9404275e-05 0.008141364 -0.0006489648
-0.00049241737 -0.0006259766 0.0025405535 0.027215784 0.03692539 -0.00038790517 -0.0005641329 0.0007925704
0.012651204 0.0033163847 0.0019804528 0.018427605 0.00014877453 0.029407905 0.027545182 0.06423666
-0.019333981 0.19437554 0.06788019 0.10478079 0.12509319 0.04242029 0.0072968295 0.09261089
0.12054912 0.0041255536 0.06965878 -2.378697e-05 0.06914356 -0.022502055 0.024800312 -0.049301095
0.020040775 -0.024967115 0.23490041 0.051696856 -0.0047736866 0.010521862 0.10888511 0.093936294
-0.013269623 0.1506761 0.0017670358 0.007957053 0.0063737268 0.009882819 -0.0065614083 0.03347616
0.02121921 0.036602274 0.016135124 0.009636955 0.0015039444 0.008168895 0.01436883 -0.0004231841
0.008430933 0.00010739197 0.036121193 -0.0068807513 0.010250023 -0.039058827 -0.026017908 -0.02490813
0.17721952 0.013858125 0.00012694037 0.0065908413 0.008541184 -0.0045990124 -0.011834807 0.040090855
-0.000632422 0.0026404615 -0.0057239155 0.0010091463 -0.019550662 0.018859915 -0.024056513 0.038456433
0.012860425 -0.0035572497 -0.0010491745 0.017028637 0.016225023 -0.001346518 0.014257736 0.00011654889
0.002114545 -0.0037956762 -0.01716657 0.051802654 -0.078269966 -0.015646175 -0.035163134 -0.0515898
-0.009586798 0.002352248 -0.028379194 -0.043593403 0.00014853713 -0.014245822 0.00022403324 -0.0015617238
00000000: 71a2 6c3b 52d0 933b d102 2abc 3426 163c
00000010: b5b5 abbd fa6b 8e3d b659 903c 5983 f73c
00000020: f757 873b d85a 343a fd4a 513a 93ce 073c
00000030: 0eba d33a 505b 2f3d 48ed c1b8 47ee 163c
00000040: 69c9 84ba 8150 ac3a 52c7 9abb 3225 f03d
00000050: dd3c 5f3c d4af 7b3d a6aa aa3c f097 5d36
00000060: 4ffa 203b c340 2aba b983 3cbc ac4a 0538
00000070: ed5b 9b3c 955e eb39 2b48 b83c 2c01 c93a
00000080: a6b3 703d 5e00 febc 4ece e33c a158 c43c
00000090: 4cbc 033e fa96 483d 0c44 2b3c fcff 153b
000000a0: d4d7 5b3d 9d65 2d3d dae1 fabb 1ce7 483d
000000b0: bec6 cf39 6dd6 5d3c 723d 603b 246c 3e3c
000000c0: 6471 d33b 1b78 193d bd1c 81bb a81a bf3d
000000d0: 62c5 b33c 09ba df3b 4684 8dba 27b1 163d
000000e0: 5701 ed3c ebd5 14bb f958 153d 915e 9d39
000000f0: 858b 7d3c 0bd8 abba 7aac 1a3c 98e4 b13a
00000100: 0064 f6bd 0e7b 48bd 97fa 073e 6179 25bc
00000110: 0abb 783b 065e a73b 0692 db3c 7bfc d43b
00000120: 2a12 033b 5602 e33c 5b35 963a b238 363d
00000130: 5a7a a43c 9562 f5bc ef15 f63d 6651 13bd
00000140: 0b9b 0d3e 6c79 1a3e ed76 2a3d d302 db3c
00000150: 708a d63b 3111 533d 4a36 383d 4ccf afbb
00000160: c230 383d 0198 01ba ecbf c73a 8e3b 05ba
00000170: 7eaa febc f007 703b cf3f babd 0b79 bfbd
00000180: f283 22bd 5c71 edbc 0060 9cbb 6db7 1fbb
00000190: 2dfe 0ebc 677e 0abb 1ab2 a9ba 205f 3f3b
000001a0: 7f92 e4b9 c6ca cf3b 7618 963b 9368 8d3c
000001b0: 6f85 f7bc ff9a 4e3d 82d2 30bc b677 083d
000001c0: 8bc3 233d 2df4 103c 9835 1f3b 7e83 d13c
000001d0: a6bd 033d 5128 89ba b137 833c 74d4 dbb7
000001e0: a5bc 533c 3c07 333b 9237 403c a8ac 06bc
000001f0: 33cb 223d fcdd cebc 7dca a63d 2595 9b3c
00000200: e292 fb3b ef21 603b e5e4 9c3c 1468 423c
00000210: faca a6ba 2bc9 c73c a52d 8839 c469 31bb
00000220: 08f7 3a3b e99a ba3b 27d7 c23b d0ee 123c
00000230: 3ea1 0bbb 362a 26bc 7848 553b 6ea1 653b
00000240: 25e9 583a 1aa5 2dba adcf cf39 70fb a339
00000250: 581b f5ba 8e7e bbb8 5b63 053c 4a1f 2aba
00000260: 9215 01ba 9418 24ba 6a7f 263b a3f3 de3c
00000270: 143f 173d c05f cbb9 51e2 13ba 80c4 4f3a
00000280: ff46 4f3c b457 593b 7cca 013b 7df5 963c
00000290: 5c00 1c39 d9e8 f03c 6fa6 e13c 838e 833d
000002a0: 4c62 9ebc 620a 473e c504 8b3d 5097 d63d
000002b0: 6e18 003e e6c0 2d3d 3e1a ef3b c7aa bd3d
000002c0: 75e2 f63d a72f 873b 43a9 8e3d 218a c7b7
000002d0: 249b 8d3d 3b56 b8bc 062a cb3c f2ef 49bd
000002e0: 8d2c a43c d687 ccbc bc89 703e 15c0 533d
000002f0: 966c 9cbb e363 2c3c 28ff de3d ac61 c03d
00000300: d568 59bc d64a 1a3e e29b e73a 4d5e 023c
00000310: b2da d03b 8ceb 213c 1501 d7bb 4c1e 093d
00000320: e9d3 ad3c 44ec 153d cf2d 843c 52e4 1d3c
00000330: 0020 c53a d4d6 053c 3e6b 6b3c cfde ddb9
00000340: e521 0a3c a037 e138 d1f3 133d ed77 e1bb
00000350: b6ef 273c 26fc 1fbd 8223 d5bc 220c ccbc
00000360: 0979 353e 300d 633c 4c1b 0539 fcf7 d73b
00000370: 52f0 0b3c 50b3 96bb c7e6 41bc 4f36 243d
00000380: 1fc9 25ba 980b 2d3b af8f bbbb 5545 843a
00000390: b628 a0bc 1c80 9a3c 2a12 c5bc 7e84 1d3d
000003a0: 88b4 523c bf20 69bb 7484 89ba a47f 8b3c
000003b0: 57ea 843c a67d b0ba 4799 693c b56b f438
000003c0: 2e94 0a3b e1c0 78bb e8a0 8cbc 052f 543d
000003d0: 014c a0bd 682c 80bc 3807 10bd d34f 53bd
000003e0: f211 1dbc 2c28 1a3b 7c7b e8bc ff8e 32bd
000003f0: a2c0 1b39 4f67 69bc 77ea 6a39 c1b2 ccba

GRU_Q.weight_hh_l0 f4 [27, 9]
-0.0074905735 -0.038445197 0.02933111 0.09060247 -0.017395495 -0.018292049 0.010702539 0.046497777
-0.034652896 -0.0010015743 0.00047236492 -0.056828503 -0.023238735 0.029408509 0.025952455 0.05182625
-0.007228436 -0.0262383 0.016955782 -0.08783147 0.16280901 -0.0877414 0.07535373 0.09405157
0.010838931 0.065400004 -0.0797931 0.01060592 -0.04901063 0.091041856 -0.01669881 0.04425485
0.037423406 0.030649563 0.026397377 -0.06371033 0.005815264 -0.09726261 -0.007457247 -0.094371
0.0773003 0.10413314 -0.07487028 -0.018630628 -0.06691878 0.13282058 -0.0047191195 0.066092536
-0.050205935 0.07880162 0.07772094 0.13745743 0.0345739 -0.08568414 0.024325673 -0.025844453
0.0021933226 0.0039980984 -0.008706227 -0.0010819884 0.051927455 -0.025464354 -0.015838865 0.015107318
-0.010385297 -0.0195317 0.0008135738 0.004994613 -0.016279371 0.009136267 0.014994223 0.011898577
0.0134864785 -0.038957816 0.06557842 -0.025454838 0.03816128 0.036529396 0.016681667 0.020191535
-0.03699439 -0.0015045939 -0.0015947262 -0.0059544574 0.0006419611 -0.0064802943 -0.0100269625 0.00015033528
0.0014002395 0.0056983195 0.011152727 -0.011308471 0.009765955 0.03376677 0.01039857 0.0056844307
0.036324862 0.007921861 -0.016572863 0.044077422 -0.14395724 0.11886397 0.032973785 0.08664739
0.0422098 0.07998629 0.09370718 -0.10200717 0.057159036 -0.14233142 0.10749439 0.017292745
0.14253177 0.08802992 0.06718336 0.11248188 -0.0999782 0.024767172 -0.022028826 0.024843428
0.01426855 0.03694152 0.016081847 0.020855553 0.010052622 -0.00298869 0.023725793 -0.13876013
0.10758407 0.13245012 0.055632014 0.047042683 0.09206137 0.013909284 -0.088162005 -0.007933468
-0.0056882384 0.0075817294 -0.0058973166 0.004053495 0.02144904 0.0032724622 0.0017066994 -0.0277778
-0.0040235207 0.0454568 -0.026631178 0.021875573 -0.016382348 -0.020716887 -0.0014096493 -0.01651
0.024481574 0.039301705 0.0856157 -0.04307702 0.114064015 -0.048547663 -0.027683243 0.025086889
0.042105548 -0.010087289 -0.06057694 -0.03878047 0.21255702 0.14317216 -0.0792614 -0.12720168
0.048294507 -0.08042602 -0.010541276 0.054682396 0.24345843 -0.19533493 0.27400413 -0.1760402
0.04139762 -0.010647457 0.18916954 0.19609441 -0.15227085 -0.2084162 0.24222967 -0.37601197
0.0641088 0.36392987 0.094349444 -0.1403014 -0.20269243 0.23120967 0.04863266 -0.33785442
0.17616613 -0.04336884 0.114486106 -0.26509294 0.10078592 0.26499704 0.08584622 -0.2896444
0.04826233 -0.11802699 -0.004765815 0.2963319 0.07379886 -0.23344034 -0.2086371 0.15645775
0.20186079 0.36906484 -0.24129638 0.15373853 0.30058292 -0.2634835 -0.085856244 0.07732579
-0.03001937 -0.1848312 0.12001156 0.22763766 0.11948673 -0.00907101 -0.15442449 0.076941244
0.20602573 -0.14267638 -0.18679707 -0.03141707 0.1782565 -0.21410598 0.124162756 0.22501999
-0.0099552665 -0.22389624 -0.011123319 -0.1890415 -0.3204164 0.07421777 -0.015442741 -0.3555552
0.16494219 -0.16257827 -0.19423991
00000000: 7c73 f5bb b678 1dbd cc47 f03c ca8d b93d
00000010: ff80 8ebc 35d9 95bc b459 2f3c 7474 3e3d
00000020: 32f0 0dbd 4247 83ba bfa7 f739 01c5 68bd
00000030: 295f bebc 1dea f03c 3e9a d43c c347 543d
00000040: 84dc ecbb b4f1 d6bc dae6 8a3c fce0 b3bd
00000050: 68b7 263e c3b1 b3bd 0e53 9a3d 1c9e c03d
00000060: c695 313c 70f0 853d 916a a3bd 74c4 2d3c
00000070: 5fbf 48bd 2774 ba3d f1cb 88bc 9344 353d
00000080: 4949 193d cb14 fb3c 503f d83c 907a 82bd
00000090: f88d be3b 9f31 c7bd ec5b f4bb 9545 c1bd
000000a0: 9f4f 9e3d c143 d53d 9755 99bd 429f 98bc
000000b0: b70c 89bd 1e02 083e d8a2 9abb 865b 873d
000000c0: bda4 4dbd be62 a13d 282c 9f3d a4c1 0c3e
000000d0: 5d9d 0d3d 2b7b afbd a246 c73c bfb7 d3bc
000000e0: d9bd 0f3b 7b02 833b 90a4 0ebc 82d1 8dba
000000f0: e2b1 543d 9f9a d0bc 82c0 81bc af84 773c
00000100: 1827 2abc f200 a0bc 0346 553a daa9 a33b
00000110: 515c 85bc 48b0 153c 54aa 753c 40f2 423c
00000120: 64f6 5c3c 3b92 1fbd fb4d 863d aa86 d0bc
00000130: 014f 1c3d d99f 153d fea7 883c b868 a53c
00000140: 6e87 17bd cb35 c5ba 2206 d1ba 9c1d c3bb
00000150: 4849 283a a658 d4bb 2148 24bc 52a3 1d39
00000160: 3e88 b73a f8b8 ba3b edb9 363c 2a47 39bc
00000170: 6201 203c 064f 0a3d c45e 2a3c 7644 ba3b
00000180: 61c9 143d b1ca 013c d0c3 87bc 878a 343d
00000190: 8769 13be f46e f33d 850f 073d 3074 b13d
000001a0: 2fe4 2c3d dacf a33d 8de9 bf3d 23e9 d0bd
000001b0: 981f 6a3d 54bf 11be 0526 dc3d 84a9 8d3c
000001c0: d9f3 113e 0849 b43d 6e97 893d e65c e63d
000001d0: 5fc1 ccbd 86e4 ca3c cc75 b4bc 7284 cb3c
000001e0: a3c6 693c fe4f 173d 14be 833c 44d9 aa3c
000001f0: c1b3 243c e6dd 43bb 985c c23c 2317 0ebe
00000200: 0955 dc3d 01a1 073e 65de 633d d4af 403d
00000210: ac8a bc3d c4e3 633c 488e b4bd 60fb 01bc
00000220: 6764 babb 2870 f83b 473e c1bb 2ed3 843b
00000230: e6b5 af3c ce76 563b 54b3 df3a 458e e3bc
00000240: bdd7 83bb e930 3a3d a129 dabc 6734 b33c
00000250: 4634 86bc 76b6 a9bc fbc3 b8ba fb3f 87bc
00000260: 958d c83c d3fa 203d 4957 af3d 8871 30bd
00000270: 659a e93d ead9 46bd f8c7 e2bc 0583 cd3c
00000280: de76 2c3d 2845 25bc 871f 78bd 45d8 1ebd
00000290: 8ca8 593e b99b 123e cd53 a2bd 2841 02be
000002a0: 76d0 453d 66b6 a4bd 51b5 2cbc a6fa 5f3d
000002b0: 2b4d 793e e105 48be 454a 8c3e e243 34be
000002c0: 8d90 293d ac72 2ebc a9b5 413e f9cc 483e
000002d0: e4ec 1bbe 0e6b 55be 0e0b 783e a484 c0be
000002e0: 794b 833d 0455 ba3e 483a c13d 2cab 0fbe
000002f0: 9b8e 4fbe 3ac2 6c3e 0a33 473d 41fb acbe
00000300: e564 343e 86a3 31bd b177 ea3d 43ba 87be
00000310: d968 ce3d b1ad 873e 25d0 af3d 454c 94be
00000320: b9ae 453d 22b8 f1bd 8e2a 9cbb d1b8 973e
00000330: db23 973d fc0a 6fbe f7a4 55be 7636 203e
00000340: 98b4 4e3e 11f6 bc3e 6616 77be a26d 1d3e
00000350: 01e6 993e 4fe7 86be 66d5 afbd fc5c 9e3d
00000360: 2feb f5bc 6444 3dbe 9fc8 f53d d919 693e
00000370: 75b5 f43d 939e 14bc 7421 1ebe 5f93 9d3d
00000380: 69f8 523e c219 12be bb47 3fbe 30af 00bd
00000390: df88 363e 993e 5bbe 0b49 fe3d a46b 663e
000003a0: 6a1b 23bc 0e45 65be 953e 36bc 1894 41be
000003b0: 9e0d a4be 7cff 973d 8d03 7dbc 550b b6be
000003c0: 9be6 283e eb7a 26be d4e6 46be

GRU_Q.bias_ih_l0 f4 [27]
0.10703124 0.07701776 0.21862622 0.10609716 0.038563162 0.2879784 -0.061474673 0.062095452
0.12676415 0.008137104 0.09902496 0.14574444 0.11338933 0.0817784 0.048598703 0.014783144
-0.122048534 0.13261768 0.18135788 -0.13458812 0.026245508 0.28146213 0.017362641 0.07845867
0.26517123 0.28105167 -0.22272468
00000000: 3233 db3d 7dbb 9d3d 8ddf 5f3e 7849 d93d
00000010: 68f4 1d3d e871 933e decc 7bbd cd57 7e3d
00000020: 76ce 013e 7d51 053c 99cd ca3d 083e 153e
00000030: aa38 e83d 6f7b a73d 6f0f 473d 0035 723c
00000040: 95f4 f9bd eecc 073e e1b5 393e 78d1 09be
00000050: d200 d73c ce1b 903e 193c 8e3c f0ae a03d
00000060: 86c4 873e 01e6 8f3e f011 64be

GRU_Q.bias_hh_l0 f4 [27]
-0.028128715 0.15453567 0.24110988 0.06679971 0.051288813 0.005075418 -0.105774075 0.027974844
0.10090651 0.012227083 0.12620181 0.1992507 0.16235365 0.07655085 0.025358224 0.017002903
-0.040587604 -0.08956952 0.23741232 -0.06354287 0.0817318 0.22312479 0.28058717 -0.069444194
0.17703325 -0.15002108 -0.12678003
00000000: 316e e6bc 993e 1e3e 82e5 763e 49ce 883d
00000010: 3814 523d b14f a63b 14a0 d8bd 802b e53c
00000020: 13a8 ce3d 1a54 483c 0c3b 013e 6008 4c3e
00000030: 0940 263e b1c6 9c3d 0dbc cf3c ac49 8b3c
00000040: 303f 26bd 3970 b7bd 371c 733e c422 82bd
00000050: 0163 a73d d37a 643e 1fa9 8f3e c238 8ebd
00000060: 3448 353e 209f 19be a0d2 01be

GRU_Sigma.weight_ih_l0 f4 [27, 24]
-0.10337508 0.014516962 0.022900034 -0.1918981 0.08918308 0.0134018175 -0.15064602 0.01148387
-0.11303524 -0.0033918992 -0.035243817 -0.0030806265 -0.0031368397 0.005232719 0.0040993746 0.0017510088
0.003281866 -0.017982235 -0.090453245 -0.04688441 -0.019247483 0.17611505 -0.0042998916 -0.008289734
0.015559703 0.1441815 -0.13741922 0.19389138 -0.0032311347 -0.039050534 -0.10295362 0.13547182
0.05646312 -0.0011651758 0.076927245 -0.006862695 -0.006903356 0.012974663 0.0031924108 0.0059653977
0.006273446 -0.08324619 0.06191726 0.0051187403 -0.08769109 -0.1661075 0.039216965 -0.011219889
0.0015165502 0.004505759 0.04354408 0.03918654 0.032053392 0.0127359815 -0.043762457 -0.010049898
-0.067476906 0.00029899558 -0.03984805 -0.0042279777 -0.0042102016 0.0017272631 0.006580334 0.0015922775
0.0024432554 0.016742561 -0.06852749 0.023001898 -0.04931617 -0.09359197 0.0055011814 0.0045647384
-0.17693871 -0.021858608 -0.0036937383 -0.16887027 0.016840747 -0.085526824 -0.08022335 0.11820935
0.08519129 -0.006356081 -0.0010510632 -0.0083489185 -0.008443169 0.0072238734 0.023769509 0.003542161
0.002734615 -0.03366915 0.07212696 0.07882928 0.06357207 0.017113818 0.005347655 0.021772629
-0.13355319 0.004717651 -0.2236826 0.11254789 0.020618968 0.09688545 -0.19946219 -0.023569165
-0.032101527 0.00077888794 0.034150783 -0.0063382196 -0.0063721873 -0.012591229 0.005074849 0.0002160337
-0.0014458083 0.020811543 -0.16670921 0.02796943 -0.15048645 0.19617385 -0.010122763 0.0015148276
0.0036004854 -0.110673465 -0.059160937 0.00033156114 -0.09157901 0.06668688 0.09239948 0.012411942
-0.04568959 -0.0011778234 -0.023017557 -0.004617314 -0.004457305 -0.0050875237 -0.0035208906 -0.00089142873
-0.0038717447 -0.11163631 0.18026146 -0.017474642 -0.0019371753 -0.09731466 -0.007894337 0.011442393
-0.13730706 0.08425951 0.16824375 0.11844703 -0.031886157 0.018252432 -0.08605834 -0.03134643
-0.02953518 0.0011717824 -0.09733582 -0.0024381375 -0.002480349 -0.0041328953 0.010441646 -0.0038879928
-0.0023362825 0.07357372 0.045361448 0.017934594 0.10464756 -0.15447877 -0.004506703 0.0014933016
-0.019530276 0.014674882 -0.020041995 -0.041996885 -0.0047049713 -0.016723901 0.0003599005 -0.005866179
0.010912408 -0.00016812146 0.008494735 0.001612941 0.001645913 -0.0012927076 -0.0015609253 -0.0010255637
-0.0016547433 -0.008764462 0.036331385 6.115426e-05 0.021851271 -0.06640864 -0.003357318 0.0009711509
-0.001326022 0.17449933 -0.14823419 0.011556531 -0.106273286 0.10400592 -0.040597793 -0.09196333
-0.10986836 -0.00071492355 -0.11835545 -0.004469531 -0.0043122526 0.0008382705 -0.0021870036 0.00046443322
-0.0022055504 -0.082830675 -0.105593845 0.0108249495 0.15558411 0.23970085 0.0007870947 0.00904962
0.10643505 0.2652104 0.26439333 -0.06398557 0.16639335 -0.1316081 0.029688988 0.0436365
0.28228563 0.05877164 0.067514606 0.000100040306 0.00047623686 -0.07987708 0.15300907 -0.039045274
-0.035369597 0.029834958 0.0060848347 -0.11661467 0.13640298 0.101819485 -0.015124541 0.04811232
-0.13449737 -0.01920687 -0.14337571 0.05299311 -0.10307999 -0.17221451 0.053153407 -0.034276105
0.12858205 -0.024924409 -0.107203566 0.001051972 0.0005252296 -0.01665313 -0.029136613 -0.003768204
00000000: 50b6 d3bd 8dd8 6d3c da98 bb3c ef80 44be
00000010: 9ea5 b63d 4c93 5b3c f342 1abe d826 3c3c
00000020: 057f e7bd a04a 5ebb d25b 10bd 56e4 49bb
00000030: 7093 4dbb 3a77 ab3b 0c54 863b 1b82 e53a
00000040: 9314 573b 7b4f 93bc 8d3f b9bd de09 40bd
00000050: e6ac 9dbc 8157 343e 1be6 8cbb aad1 07bc
00000060: 20ee 7e3c 51a4 133e a0b7 0cbe 768b 463e
00000070: 72c1 53bb 74f3 1fbd 59d9 d2bd 20b9 0a3e
00000080: df45 673d d0b8 98ba 088c 9d3d 75e0 e0bb
00000090: 8c35 e2bb ae93 543c c437 513b 6279 c33b
000000a0: 7b91 cd3b fa7c aabd f49c 7d3d 1bbb a73b
000000b0: 6397 b3bd 1618 2abe f8a1 203d a0d3 37bc
000000c0: fbc6 c63a 0ca5 933b 475b 323d 1182 203d
000000d0: 6b4a 033d 94aa 503c 4340 33bd 54a8 24bc
000000e0: 5531 8abd 82c2 9c39 b537 23bd d98a 8abb
000000f0: bbf5 89bb 5565 e23a d89f d73b f8b3 d03a
00000100: 061f 203b b227 893c 2458 8cbd 7a6e bc3c
00000110: c1ff 49bd 26ad bfbd 4143 b43b cd93 953b
00000120: 6c2f 35be d310 b3bc a512 72bb 54ec 2cbe
00000130: 9bf5 893c b028 afbd 244c a4bd be17 f23d
00000140: c578 ae3d ac46 d0bb d4c3 89ba e7c9 08bc
00000150: 3855 0abc 3eb6 ec3b 46b8 c23c 9a23 683b
00000160: 3a37 333b aae8 09bd 4db7 933d 3f71 a13d
00000170: 1332 823d 4732 8c3c 623b af3b 835c b23c
00000180: 2bc2 08be 8696 9a3b 0d0d 65be 827f e63d
00000190: 1ce9 a83c e16b c63d d13f 4cbe 1f14 c1bc
000001a0: e47c 03bd 492e 4c3a b1e1 0b3d d7b0 cfbb
000001b0: c8cd d0bb 714b 4ebc eb4a a63b 1b87 6239
000001c0: 4781 bdba f87c aa3c d2b5 2abe 2520 e53c
000001d0: 1f19 1abe cce1 483e f2d9 25bc 2e8d c63a
000001e0: 1ff6 6b3b c5a8 e2bd bd52 72bd 62d5 ad39
000001f0: c78d bbbd 2293 883d f03b bd3d 755b 4b3c
00000200: 0225 3bbd 3261 9aba 518f bcbc d64c 97bb
00000210: 960e 92bb 3eb5 a6bb bebe 66bb c5ae 69ba
00000220: 19bd 7dbb 94a1 e4bd 7696 383e fb26 8fbc
00000230: d1e8 fdba e94c c7bd 4057 01bc e078 3b3c
00000240: 399a 0cbe 4090 ac3d 1748 2c3e 5b94 f23d
00000250: 0f9b 02bd 2086 953c 5b3f b0bd 1d65 00bd
00000260: c3f3 f1bc 7e96 993a 0158 c7bd 29c9 1fbb
00000270: 5a8d 22bb 3d6d 87bb 7013 2b3c b2cd 7ebb
00000280: 511c 19bb d2ad 963d edcc 393d 92eb 923c
00000290: 7651 d63d af2f 1ebe f7ac 93bb e3ba c33a
000002a0: f5fd 9fbc eb6e 703c 1c2f a4bc ed04 2cbd
000002b0: 292c 9abb 9000 89bc 07b1 bc39 1339 c0bb
000002c0: f5c9 323c c349 30b9 802d 0b3c 5269 d33a
000002d0: adbb d73a 1270 a9ba f697 ccba 356c 86ba
000002e0: f9e3 d8ba d198 0fbc 38d0 143d f13f 8038
000002f0: 7001 b33c 4101 88bd 7306 5cbb d594 7e3a
00000300: eacd adba f4af 323e b4ca 17be 9b57 3d3c
00000310: cfa5 d9bd 0e01 d53d df49 26bd 4557 bcbd
00000320: aa02 e1bd b569 3bba 5864 f2bd 2575 92bb
00000330: cc4d 8dbb 62bf 5b3a d553 0fbb 2c7f f339
00000340: ff8a 10bb 21a3 a9bd 9641 d8bd 215b 313c
00000350: 7151 1f3e 2474 753e 0855 4e3a db44 143c
00000360: 9ffa d93d a8c9 873e 905e 873e de0a 83bd
00000370: 0563 2a3e 46c4 06be 5236 f33c 30bc 323d
00000380: be87 903e 88ba 703d 1945 8a3d bbcc d138
00000390: 6eaf f939 9896 a3bd 69ae 1c3e f0ed 1fbd
000003a0: b6df 10bd 7168 f43c 4b63 c73b acd3 eebd
000003b0: 39ad 0b3e bc86 d03d eccc 77bc 6d11 453d
000003c0: aeb9 09be ba57 9dbc 15d1 12be 4e0f 593d
000003d0: 9a1b d3bd 0059 30be 63b7 593d 1a65 0cbd
000003e0: 03ab 033e 462e ccbc 8b8d dbbd 53e2 893a
000003f0: 90af 093a 256c 88bc e8af eebc f9f3 76bb

GRU_Sigma.weight_hh_l0 f4 [27, 9]
-0.0011832729 0.0041323327 -0.0007826148 0.0004981122 -1.2444332e-31 -0.0014812029 0.00070514943 0.021495884
-0.18476307 -0.0012103871 0.0065899463 -0.007063416 0.001531205 5.7411987e-30 -0.0018944703 0.002591633
-0.10528463 0.028239546 0.0002871651 0.0057379412 0.0059666815 0.0019417952 4.2910156e-30 0.0029465547
0.0053715785 -0.013032817 -0.048446298 0.0023297553 -0.0108715575 -0.0025209184 -0.0049096574 2.5489758e-29
0.0038622902 -0.010698455 -0.0246522 0.18322837 -0.00010272271 -0.000108720335 -0.0006523165 0.0010514453
9.786557e-31 -0.0008215848 -0.0016894484 0.077048056 -0.16367874 0.00037007598 -0.00041317707 0.0006171697
0.00065115036 -1.4951014e-29 0.0015627148 -0.0012264141 0.16163856 0.13845946 0.0009353239 -0.0070442115
-0.0035553277 -0.0029717113 -1.0530363e-29 0.0013002768 -0.005954538 0.11893807 0.12482961 0.00014192695
-0.0007579832 0.00025372754 -8.410908e-05 4.303345e-30 0.00045582087 2.9690495e-05 -0.006667467 0.023636999
0.0008513503 -0.002217008 -0.0034854768 -0.0016698313 2.2126352e-29 0.0025710661 -0.008072451 0.06989456
-0.034217615 -0.0042239637 -0.048581865 -0.0039981655 -0.005708604 1.0925394e-30 0.0023915623 -0.025348084
0.08172484 -0.22508518 -0.006686191 -0.02642999 -0.030839993 -0.017366983 9.888095e-31 -0.011100171
-0.028644154 0.11293363 0.0069516236 -0.002012551 0.0027150083 -0.00046018662 -0.001984558 -8.955202e-31
0.00019165248 0.0001324023 -0.021514732 -0.1016272 -0.0077805175 -0.004740952 -0.027857307 -0.009048546
7.793782e-30 -0.011205158 -0.014272277 -0.027734026 -0.11580795 -0.0037642191 0.0024684903 0.0017292023
-0.0013212081 -9.906132e-31 -0.0064853034 0.0036764422 0.0057326523 0.062112354 -0.0022449 -0.01435818
-0.017198183 -0.006499976 -1.0938739e-29 -0.0066740033 -0.0055091153 -0.26658726 -0.28561416 -0.004321509
0.021615863 0.008802037 0.0063441494 -2.0748818e-29 -0.0061216448 0.01533427 -0.065865315 0.1950385
-0.0012915074 -0.01911564 -0.016969524 -0.012148123 1.337027e-29 -0.0029946172 -0.015682181 -0.09282529
-0.015250769 -0.0015308623 -0.04399992 -0.0048968894 -0.0039902194 -5.116705e-29 0.0007807636 -0.067983955
0.10523903 0.024904037 0.0037508388 -0.040037435 -0.006312222 -0.008477373 5.982406e-31 0.023467932
-0.013931206 -0.0036774343 -0.037959665 -0.012797763 0.062545165 -0.054107398 -0.014756242 3.6814605e-29
-0.026076235 0.0349838 0.026849514 0.14910282 0.0020563467 0.034187328 0.037368666 0.017632728
-1.6158485e-30 0.016477987 0.035018124 -0.04191732 -0.042376745 -0.0076180836 0.06418051 0.0055918773
0.01297343 -9.127818e-29 -0.015712406 0.0490462 -0.2505876 -0.2803173 -0.0010965834 -0.03865608
-0.0059651155 -0.0035883472 8.507302e-30 -0.0061882827 -0.030350816 0.11277048 0.29494122 0.008970028
-0.029268177 0.013952944 0.01632505 9.294181e-29 0.019196117 -0.056772236 -0.29408216 0.20948431
0.00044261946 0.07786699 0.052867815 0.034762233 -6.039215e-29 0.0022886076 0.053920828 0.17276959
-0.26495293 -0.00045086976 -0.014781763 -0.0040372675 -0.0031094472 3.273233e-29 0.0029996461 -0.0033591888
-0.24049239 -0.0051431605 0.008774849 -0.05523413 0.013276386 0.013419513 1.2266758e-28 0.00482545
-0.06906779 -0.2459088 -0.005274621
00000000: 0d18 9bba 8568 873b 6428 4dba be93 023a
00000010: 6389 218c ec24 c2ba c7d9 383a 2318 b03c
00000020: 8832 3dbe daa5 9eba 7af0 d73b 3a74 e7bb
00000030: b7b2 c83a 04e4 e80e e04f f8ba 63d8 293b
00000040: 789f d7bd 9f56 e73c a68e 9639 5705 bc3b
00000050: 2784 c33b d683 fe3a 7410 ae0e fc1a 413b
00000060: 1104 b03b 9987 55bc a06f 46bd cfae 183b
00000070: 9e1e 32bc fe35 25bb 31e1 a0bb 993f 0110
00000080: 7a1e 7d3b 9348 2fbc 69f3 c9bc 38a0 3b3e
00000090: d66c d7b8 c900 e4b8 3800 2bba a6d0 893a
000000a0: c4cb 9e0d 9f5f 57ba 7b70 ddba 5fcb 9d3d
000000b0: 669b 27be c206 c239 b09f d8b9 8fc9 213a
000000c0: f6b1 2a3a 0d9f 978f 02d4 cc3a a1bf a0ba
000000d0: 9484 253e 51c8 0d3e 8630 753a 21d3 e6bb
000000e0: 8000 69bb 0bc1 42bb c594 558f 0d6e aa3a
000000f0: 491e c3bb ce95 f33d aba6 ff3d 3ad2 1439
00000100: 64b3 46ba bc06 8539 b863 b0b8 7d90 ae0e
00000110: 3efb ee39 da0f f937 c47a dabb 61a2 c13c
00000120: 272d 5f3a 394b 11bb 996c 64bb 3ede daba
00000130: 4b63 e00f 557f 283b 5042 04bc e124 8f3d
00000140: c527 0cbd 2d69 8abb c7fd 46bd 0b03 83bb
00000150: 3e0f bbbb 5046 b10d c2bb 1c3b c9a6 cfbc
00000160: 5a5f a73d bb7c 66be d617 dbbb b583 d8bc
00000170: 27a4 fcbc 3445 8ebc 8a71 a00d 7edd 35bc
00000180: 25a7 eabc bf49 e73d 72ca e33b 01e5 03bb
00000190: 48ee 313b 3445 f1b9 5c0f 02bb 744e 918d
000001a0: 52f6 4839 79d5 0a39 aa3f b0bc ec21 d0bd
000001b0: b6f3 febb fd59 9bbb 0235 e4bc 5a40 14bc
000001c0: a113 1e0f d795 37bc 45d6 69bc 7832 e3bc
000001d0: b82c edbd 1eb1 76bb 65c6 213b 67a6 e23a
000001e0: 632c adba 76bc a08d ab82 d4bb 77f0 703b
000001f0: f9d8 bb3b 8669 7e3d 2c1f 13bb 923e 6bbc
00000200: 34e3 8cbc c0fd d4bb 2edd 5d8f 99b1 dabb
00000210: cf85 b4bb 207e 88be 053c 92be 729b 8dbb
00000220: c013 b13c 6b36 103c 95e2 cf3b 036b d28f
00000230: 1498 c8bb 973c 7b3c 65e4 86bd 2cb8 473e
00000240: cc47 a9ba 6798 9cbc ac03 8bbc ec08 47bc
00000250: 3597 870f 5741 44bb eb77 80bc 301b bebd
00000260: 5dde 79bc 37a7 c8ba 4339 34bd 1676 a0bb
00000270: 63c0 82bb 50b9 8190 29ac 4c3a 2c3b 8bbd
00000280: 9087 d73d 8d03 cc3c a2d0 753b 4bfe 23bd
00000290: c2d6 cebb aee4 0abc e223 420d d23f c03c
000002a0: b73f 64bc 1c01 71bb 987b 1bbd b5ad 51bc
000002b0: ae17 803d b89f 5dbd 2ac4 71bc 17ac 3a10
000002c0: d49d d5bc 2c4b 0f3d 83f3 db3c 69ae 183e
000002d0: c6c3 063b 0308 0c3d e30f 193d 8372 903c
000002e0: dc17 038e d8fc 863c 2a6f 0f3d 7fb1 2bbd
000002f0: 3d93 2dbd 1ea1 f9bb 1271 833d 113c b73b
00000300: 828e 543c ed6a e790 4eb7 80bc abe4 483d
00000310: 054d 80be c085 8fbe 3cbb 8fba d655 1ebd
00000320: 0477 c3bb 7a2a 6bbb 708c 2c0f 14c7 cabb
00000330: 46a2 f8bc 36f4 e63d 8902 973e 06f7 123c
00000340: d1c3 efbc e49a 643c 1cbc 853c afa2 eb10
00000350: 2d41 9d3c 018a 68bd f091 96be 0e83 563e
00000360: 610f e839 ba78 9f3d ec8b 583d d862 0e3d
00000370: bf1c 9990 77fc 153b 16dc 5c3d 83ea 303e
00000380: e9a7 87be b762 ecb9 352f 72bc 0e4b 84bb
00000390: dec7 4bbb fef8 2510 b695 443b d625 5cbb
000003a0: a343 76be f587 a8bb 62c4 0f3c 2f3d 62bd
000003b0: 3385 593c 84dd 5b3c e87f 1b11 cf1e 9e3b
000003c0: 6a73 8dbd 84cf 7bbe bad6 acbb

GRU_Sigma.bias_ih_l0 f4 [27]
-0.105509974 -0.0990776 -0.2140837 0.13441648 0.054940265 0.03248585 0.13264564 -0.08736347
-0.08747732 -0.112813465 -0.2998469 0.08516648 0.06741328 -0.21068317 0.051934287 -0.13561763
-0.040754233 -0.07795929 -0.29161227 -0.11336261 -0.22032782 0.103997216 0.30034623 0.0831526
-0.29615927 0.20016287 -0.25402442
00000000: 9d15 d8bd 32e9 cabd c238 5bbe 79a4 093e
00000010: 0b09 613d e20f 053d 42d4 073e 9eeb b2bd
00000020: 4f27 b3bd bf0a e7bd 8885 99be c36b ae3d
00000030: f90f 8a3d 54bd 57be 0cb9 543d 59df 0abe
00000040: e9ed 26bd 1fa9 9fbd 344e 95be a82a e8bd
00000050: 9e9d 61be 7efc d43d fbc6 993e e94b aa3d
00000060: 30a2 97be 7ff7 4c3e 7d0f 82be

GRU_Sigma.bias_hh_l0 f4 [27]
-0.1210725 0.094168775 -0.15896255 -0.16236883 0.1912371 0.2431761 -0.026158446 0.056073613
0.17667167 -0.106211975 -0.015207345 0.24675794 -0.22547042 -0.0552055 0.13612169 -0.06996531
0.17818834 0.16025476 -0.22173885 0.23761329 0.2748867 -0.29447985 0.28932163 0.2577456
-0.26880357 0.17176004 0.31759295
00000000: dcf4 f7bd 8fdb c03d 14c7 22be 0444 26be
00000010: a9d3 433e 2803 793e 3d4a d6bc 72ad 653d
00000020: 6be9 343e aa85 d9bd 3a28 79bc 1dae 7c3e
00000030: b8e1 66be 2a1f 62bd 7c63 0b3e f949 8fbd
00000040: 0177 363e d319 243e 820f 63be e650 733e
00000050: f3bd 8c3e 10c6 96be f721 943e 3bf7 833e
00000060: 9fa0 89be dde1 2f3e 8b9b a23e

GRU_S.weight_ih_l0 f4 [27, 39]
5.251782e-31 -0.015136995 -0.008897128 0.009604046 -0.007514006 0.0358512 -0.00053892145 0.018861558
-5.605754e-31 0.020679465 0.044404704 -0.027339153 -0.013140409 0.023151906 0.019494252 -0.006616518
-0.1254333 -0.0062461495 0.034683347 0.0030653842 -0.0080314325 0.11689305 0.004716789 0.054374292
0.011466884 0.045527343 0.004292261 0.02333243 0.024421725 -0.11395715 0.020439884 -0.003269121
-0.024335252 -0.01010019 -0.013457406 0.036976546 0.0014217313 0.037314095 -0.00025692952 -2.0230215e-30
0.03447717 -0.049793787 0.036897898 -0.0062116473 0.12732938 0.0028563743 -0.042787407 3.172948e-31
0.010740724 -0.04458598 0.04652638 -0.0323025 -0.0053936313 -0.00045448216 -0.0051321015 0.033133417
-0.049190234 -0.020506844 0.002704087 0.04741182 0.015295408 0.03717648 0.014499652 0.0077065886
0.010486271 -0.050360635 -0.00019934318 -0.0010599425 0.22875546 0.12728314 -0.00072973454 0.038149197
-0.020979252 -0.0082248 0.003424894 0.0014978491 0.038451757 -0.022992415 1.8465671e-30 -0.018806616
-0.09236963 -0.06440907 0.03657563 -0.1577307 0.005556187 -0.1130622 -4.639676e-31 -0.011854566
-0.1300345 0.03607339 -0.14621788 -0.10832817 0.007761327 0.00975902 0.1345539 0.032306302
0.06633249 0.0067961896 0.025872206 0.009030814 0.20264673 -0.0058947327 0.03904354 0.15107593
0.16573009 0.009050945 0.16016467 0.24240991 -0.11269229 0.00896008 0.22005299 -0.08975508
-0.008809691 0.023389885 0.026020112 0.16532052 0.17709354 -1.5508563e-31 -0.0039144647 -0.0036348107
-0.0036210774 -0.0026824456 -0.0029162362 -0.0009017323 -0.0020106635 3.266128e-32 -0.0028428987 -0.0092679765
-0.008679058 -0.008862451 -0.0069738594 0.0008349924 0.00090640713 -0.019577643 -0.0044289897 -0.01386285
-0.00028662613 -0.0010080845 -0.00045627207 0.002038018 0.0016913126 -0.00069573586 -0.016497858 -0.014667544
-0.0004186994 -0.0100987945 0.0013701306 -0.001420773 -0.00012355977 0.0069888327 0.0017645884 0.0027955004
-0.003910354 -0.000693404 -0.005150539 -0.0050639426 -3.3044134e-32 -0.04079008 0.1288061 0.0150881875
0.045415964 0.16366267 -0.00017123733 0.16931054 -8.6128236e-33 0.11142872 0.14504042 -0.21071838
-0.13513969 -0.016040972 0.0039706505 -0.0057848715 0.269395 -0.14167337 0.052026004 0.019325668
-0.041955624 0.22834602 -0.14311545 0.056217667 0.0031566063 -0.1785014 -0.1590185 0.00926895
0.15663889 0.16569804 -0.11581089 0.0020583775 -0.2495867 0.21817677 0.08026361 -0.0061267987
0.025031459 0.21785243 0.226678 1.8850976e-31 -0.03252854 -0.012926869 -0.009949427 0.002079811
-0.028969744 -0.0018142924 -0.0122783985 -4.5658234e-32 -0.003373755 0.08347816 0.06673349 0.009599792
-0.029388428 0.00021145974 0.002178201 -0.07185309 0.0006374761 0.015811604 -0.0023784 0.0065294527
-0.00422682 -0.0021864702 0.04274609 -0.001363557 -0.03379764 -0.026095774 0.0014730953 -0.018776834
-0.11478892 0.030109787 0.00033340126 -0.04528722 -0.07629633 0.0006366945 -0.013600341 -0.005099959
-0.058376975 -0.024960035 -4.4140415e-31 0.01372333 0.013900734 0.0063093076 0.009725992 0.0119101545
-0.00030595742 0.004404813 1.3304734e-31 0.009108227 0.0017278466 0.016919438 -0.00356806 -0.008811104
0.0036720901 0.004436543 0.01573732 -0.0047435844 -0.00027420395 0.0013401068 0.0031383783 0.013892497
00000000: 196e 2a0d 2901 78bc 42c5 11bc 4a5a 1d3c
00000010: 0d38 f6bb b5d8 123d 6846 0dba 8e83 9a3c
00000020: c8ea 358d fb67 a93c b5e1 353d 5cf6 dfbc
00000030: df4a 57bc 11a9 bd3c 69b2 9f3c 60cf d8bb
00000040: 9671 00be 80ac ccbb 2010 0e3d 9de4 483b
00000050: 4596 03bc a065 ef3d 4b8f 9a3b 94b7 5e3d
00000060: 99df 3b3c e17a 3a3d 18a6 8c3b a723 bf3c
00000070: 1210 c83c 5e62 e9bd 8b71 a73c c03e 56bb
00000080: b95a c7bc 447b 25bc 747c 5cbc b874 173d
00000090: 6359 ba3a aad6 183d 7fb4 86b9 8320 248e
000000a0: ef37 0d3d 92f4 4bbd 4022 173d 138b cbbb
000000b0: a262 023e 0232 3b3b d941 2fbd a4ef cd0c
000000c0: ddf9 2f3c ca9f 36bd 7292 3e3d a04f 04bd
000000d0: 0fbd b0bb 9047 eeb9 302b a8bb e8b6 073d
000000e0: b37b 49bd f8fd a7bc 0d37 313b e632 423d
000000f0: 9799 7a3c 5d46 183d f38f 6d3c 8d87 fc3b
00000100: 9cce 2b3c f446 4ebd c706 51b9 c5ed 8aba
00000110: df3e 6a3e 8356 023e a84b 3fba 5542 1c3d
00000120: aedc abbc 50c1 06bc 3074 603b 7a53 c43a
00000130: 977f 1d3d 975a bcbc b3cf 150e 5510 9abc
00000140: 4a2c bdbd e7e8 83bd 54d0 153d 2884 21be
00000150: ad10 b63b 288d e7bd ec90 168d a739 42bc
00000160: c427 05be b1c1 133d 24ba 15be 29db ddbd
00000170: bb52 fe3b 4ce4 1f3c 7fc8 093e 9d53 043d
00000180: 54d9 873d 92b2 de3b f3f1 d33c fbf5 133c
00000190: a082 4f3e 9a28 c1bb 1eec 1f3d a6b3 1a3e
000001a0: 26b5 293e 6a4a 143c 3502 243e 4e3a 783e
000001b0: 37cb e6bd 4dcd 123c 9255 613e 83d1 b7bd
000001c0: 8656 10bc 259c bf3c 2128 d53c c849 293e
000001d0: 0258 353e 0a50 498c e944 80bb 0136 6ebb
000001e0: 994f 6dbb f8cb 2fbb 531e 3fbb 3b62 6cba
000001f0: 56c5 03bb 4a96 290b ed4f 3abb b6d8 17bc
00000200: 9c32 0ebc d033 11bc f984 e4bb 64e3 5a3a
00000210: f49b 6d3a 4b61 a0bc 0f21 91bb 0221 63bc
00000220: 4f46 96b9 b421 84ba cd37 efb9 4590 053b
00000230: 09af dd3a 0b62 36ba 8426 87bc 2350 70bc
00000240: e284 dbb9 6a75 25bc f495 b33a 3b39 baba
00000250: d38f 01b9 9402 e53b c349 e73a b734 373b
00000260: 6d22 80bb 8ec5 35ba dac5 a8bb 6eef a5bb
00000270: 3093 2b8b 8013 27bd bfe5 033e 7234 773c
00000280: 1706 3a3d 3097 273e 2c8e 33b9 be5f 2d3e
00000290: a0e1 328a be34 e43d 7a85 143e 8fc6 57be
000002a0: 0f62 0abe 5b68 83bc 3b1c 823b 058f bdbb
000002b0: 24ee 893e d312 11be 3819 553d dd50 9e3c
000002c0: a9d9 2bbd 8ad3 693e db8c 12be 7f44 663d
000002d0: 11df 4e3b 12c9 36be bfd5 22be cbdc 173c
000002e0: f265 203e bfac 293e 432e edbd d8e5 063b
000002f0: a893 7fbe bb69 5f3e 3f61 a43d 50c3 c8bb
00000300: c60e cd3c b514 5f3e 471e 683e 1db3 740c
00000310: a53c 05bd 38cb 53bc ec02 23bc 704d 083b
00000320: f551 edbc 8dcd edba 562b 49bc 3412 6d8b
00000330: 371a 5dbb 99f6 aa3d 91ab 883d 7248 1d3c
00000340: 00c0 f0bc 4bbb 5d39 26c0 0e3b b627 93bd
00000350: 4c1c 273a 5687 813c eede 1bbb 05f5 d53b
00000360: 2381 8abb e24a 0fbb 8616 2f3d 61b9 b2ba
00000370: 656f 0abd cec6 d5bc e014 c13a e0d1 99bc
00000380: 7416 ebbd cda8 f63c 5ccc ae39 187f 39bd
00000390: 4041 9cbd d8e7 263a f7d3 5ebc 8f1d a7bb
000003a0: b21c 6fbd fd78 ccbc 6c3e 0f8d d1d7 603c
000003b0: e7bf 633c 4fbe ce3b c459 1f3c cf22 433c
000003c0: e968 a0b9 4056 903b 90b4 2c0c ac3a 153c
000003d0: e978 e23a a29a 8a3c 1dd6 69bb 735c 10bc
000003e0: 73a7 703b 6c60 913b 8deb 803c 1270 9bbb
000003f0: 08c3 8fb9 86a6 af3a 40ad 4d3b 5b9d 633c

GRU_S.weight_hh_l0 f4 [27, 9]
-0.061682656 -0.008190394 -0.011006576 -0.05153096 -0.013132196 -0.018963514 -0.022812465 0.0014176439
0.05295746 0.06965391 -0.059992287 0.010229999 -0.15768968 -0.09195575 0.13622168 0.028737612
0.0076013682 -0.06561863 -0.009285739 0.024914851 0.11278471 -0.012212573 -0.050987512 0.011766225
-0.10352178 -0.123294644 0.12886785 0.016068764 0.008508481 0.0029164716 0.0026274612 0.0035030951
-0.013547648 0.003215346 0.0050657084 0.011851983 -0.17070763 -0.21974076 0.059909854 -0.30828997
0.15165688 -0.099578984 -0.09686383 -0.0011561947 0.23516956 0.03973479 -0.0037337947 -0.0009582073
-0.024276122 0.016719664 -0.12777844 -0.051509544 -0.010689801 0.045585837 -0.0056835767 -0.01466032
0.0056829825 -0.02577952 0.0031593775 0.0024188089 -0.01989307 -0.004033259 -0.012042516 -0.13837159
0.22209902 -0.06934529 -0.25211465 0.13743608 0.21151876 -0.14149944 0.0750552 -0.2205648
-0.03204997 -0.094848685 -0.03728229 -0.120184556 0.08354292 -0.013232734 -0.1129682 0.021303289
-0.08655744 -0.27010033 -0.15320106 0.064498186 -0.3865418 -0.09013859 0.3258074 0.0675128
-0.19494826 -0.094121054 -0.017521882 0.15067573 -0.044514343 0.09606 -0.047169402 -0.08635409
-0.0147342635 -0.044053704 0.1773769 -0.14822237 -0.14490865 -0.056834392 -0.041112807 -0.11471419
0.29923564 -0.02817746 0.043036565 -0.17647307 0.09557777 0.1016971 0.050319698 -0.08951855
-0.024887117 0.1586465 0.08416181 0.00062227005 -0.05480351 -0.14489263 0.055667624 0.024909016
0.012904544 0.028726043 -0.107549004 -0.05934393 -0.08567654 -0.24115884 0.07287435 0.124668166
0.01999381 0.073339395 0.026341893 0.11353015 0.00086650037 0.038964204 0.010106294 0.092863284
0.10329038 0.0042567453 0.0941561 -0.016995518 -0.12751547 0.050031085 0.01942928 0.041015293
-0.13080387 -0.05663745 0.13229643 -0.27363408 -0.16193631 -0.16605246 -0.13585609 0.043615
0.055603098 -0.077630274 -0.025864936 0.008098032 -0.08050665 -0.020481478 0.051562253 -0.06477235
-0.07922901 -0.11973531 0.18255512 -0.06791401 -0.16118504 0.10581585 -0.23064259 0.16918756
0.09979909 0.27355418 0.29135737 -0.28819394 0.018015316 -0.007662095 0.3118019 0.075177796
-0.27096 -0.21505092 0.09195665 0.26968846 -0.24273597 -0.13784397 0.33984637 -0.20436561
-0.13370259 -0.08617255 0.15203527 -0.13705428 -0.15943211 -0.11563627 0.079179764 -0.06450047
0.011170377 0.06445334 0.26012683 -0.060540758 -0.080451496 0.19902179 -0.21551773 0.18139243
-0.023047762 0.2609504 -0.038462367 -0.2553729 0.3043793 -0.034365762 0.13771471 -0.1774715
0.2337792 -0.06261256 -0.087458305 -0.17730679 0.22005506 -0.18293048 -0.20242481 -0.10955579
-0.13438964 0.016630482 -0.108366095 0.29964828 -0.008640924 -0.0820855 0.060347497 -0.10315955
0.12838437 -0.20568757 0.29545507 -0.35370314 -0.16485707 -0.10328631 0.058635168 0.09127745
0.10054107 -0.089983806 -0.14327665 -0.13160469 -0.03892532 -0.32499462 0.2135457 -0.11321608
-0.2822839 0.14609057 -0.25952414
00000000: f4a6 7cbd 0131 06bc ed54 34bc 2112 53bd
00000010: 6c28 57bc 5f59 9bbc 35e1 babc 3cd0 b93a
00000020: ece9 583d b6a6 8e3d 79ba 75bd ba9b 273c
00000030: 6779 21be 4c53 bcbd b27d 0b3e 246b eb3c
00000040: e614 f93b 0f63 86bd 3623 18bc 3b1a cc3c
00000050: acfb e63d 3e17 48bc 48d8 50bd 20c7 403c
00000060: 3a03 d4bd e781 fcbd eff5 033e a4a2 833c
00000070: 2867 0b3c 4622 3f3b 7c31 2c3b 2f94 653b
00000080: f4f6 5dbc 8eb8 523b 3efe a53b d22e 423c
00000090: fbcd 2ebe b903 61be 0964 753d 2fd8 9dbe
000000a0: f14b 1b3e 11f0 cbbd 8b60 c6bd 758b 97ba
000000b0: 4ad0 703e f2c0 223d aeb2 74bb 3430 7bba
000000c0: b8de c6bc adf7 883c 5ad8 02be acfb 52bd
000000d0: 4624 2fbc 37b8 3a3d 4c3d babb d731 70bc
000000e0: 5038 ba3b 922f d3bc 8f0d 4f3b e184 1e3b
000000f0: cbf6 a2bc 6e29 84bb f94d 45bc 48b1 0dbe
00000100: ed6d 633e e704 8ebd 2c15 81be 0bbc 0c3e
00000110: 6098 583e 3be5 10be 8ab6 993d bddb 61be
00000120: d446 03bd 0740 c2bd 51b5 18bd 5223 f6bd
00000130: 8d18 ab3d 1cce 58bc df5b e7bd 3c84 ae3c
00000140: 0745 b1bd 974a 8abe bde0 1cbe a017 843d
00000150: cfe8 c5be 959a b8bd 3ad0 a63e 2744 8a3d
00000160: 84a0 47be 8ac2 c0bd 0d8a 8fbc bd4a 1a3e
00000170: ac54 36bd 1bbb c43d b434 41bd 6ada b0bd
00000180: fb67 71bc a871 34bd 4aa2 353e 9bc7 17be
00000190: ef62 14be 2ecb 68bd e765 28bd 46ef eabd
000001a0: 6a35 993e 6bd4 e6bc 1c47 303d 5bb5 34be
000001b0: 47be c33d 9246 d03d 071c 4e3d 8055 b7bd
000001c0: 11e0 cbbc 3a74 223e 075d ac3d d61f 233a
000001d0: a579 60bd bc5e 14be bc03 643d fe0d cc3c
000001e0: 956d 533c e152 eb3c a742 dcbd 9f12 73bd
000001f0: 2f77 afbd 58f2 76be 263f 953d 0652 ff3d
00000200: 0fca a33c f732 963d f4ca d73c 7f82 e83d
00000210: db25 633a ee98 1f3d df94 253c 1b2f be3d
00000220: e889 d33d 2b7c 8b3b ead4 c03d 2f3a 8bbc
00000230: 6a93 02be 65ed 4c3d 272a 9f3c a7ff 273d
00000240: 73f1 05be acfc 67bd b778 073e c419 8cbe
00000250: a2d2 25be a809 2abe dc1d 0bbe a4a5 323d
00000260: 13c0 633d 9ffc 9ebd b4e2 d3bc 9cad 043c
00000270: ace0 a4bd c6c8 a7bc f132 533d 5ea7 84bd
00000280: d242 a2bd c937 f5bd bbef 3a3e 8016 8bbd
00000290: b10d 25be fbb5 d83d 922d 6cbe 813f 2d3e
000002a0: 7763 cc3d 4b0f 8c3e cb2c 953e 288e 93be
000002b0: db94 933c 5012 fbbb 80a4 9f3e d1f6 993d
000002c0: 45bb 8abe 4f36 5cbe c553 bc3d 9b14 8a3e
000002d0: c78f 78be f826 0dbe 5800 ae3e 3845 51be
000002e0: 55e9 08be 3c7b b0bd 22af 1b3e f557 0cbe
000002f0: 2c42 23be b5d2 ecbd 0029 a23d d318 84bd
00000300: f503 373c 1d00 843d 582f 853e 96f9 77bd
00000310: c1c3 a4bd 5ecc 4b3e aeb0 5cbe f0be 393e
00000320: a9ce bcbc 4a9b 853e b78a 1dbd 3dc0 82be
00000330: 9bd7 9b3e 1dc3 0cbd 1605 0d3e 17bb 35be
00000340: d163 6f3e 043b 80bd 571d b3bd e98f 35be
00000350: 1d56 613e 2152 3bbe 7348 4fbe c95e e0bd
00000360: 709d 09be a63c 883c 0bef ddbd 806b 993e
00000370: a992 0dbc 711c a8bd f02e 773d 5045 d3bd
00000380: 3177 033e c39f 52be e345 973e 9418 b5be
00000390: 4bd0 28be c687 d3bd 6e2b 703d acef ba3d
000003a0: 7ae8 cd3d 6e49 b8bd 1db7 12be 61c3 06be
000003b0: 2870 1fbd b265 a6be b9ab 5a3e d5dd e7bd
000003c0: 8487 90be c498 153e 59e0 84be

GRU_S.bias_ih_l0 f4 [27]
0.19482467 -0.22563018 -0.051108543 0.0069776103 -0.24531984 -0.20141785 0.015748087 0.006642162
0.17398708 0.41851595 0.26917753 0.0072299093 -0.21228936 -0.097967125 -0.10067971 -0.09891901
0.3271581 -0.0066421633 0.01459893 -0.14062442 -0.032349303 -0.25509045 0.052135386 0.17057797
-0.29719442 -0.23051676 -0.2856537
00000000: 1e80 473e 990b 67be 3157 51bd 70a4 e43b
00000010: 2035 7bbe 7b40 4ebe 2202 813c 7ea6 d93b
00000020: ab29 323e b947 d63e a3d1 893e e0e8 ec3b
00000030: 6262 59be fda2 c8bd 2a31 cebd 0d96 cabd
00000040: 4481 a73e 81a6 d9bb 5a30 6f3c d9ff 0fbe
00000050: b480 04bd 379b 82be ea8b 553d feab 2e3e
00000060: de29 98be 960c 6cbe 3441 92be

GRU_S.bias_hh_l0 f4 [27]
-0.08476661 0.22038184 -0.13874346 -0.017649213 -0.0032012416 -0.11031617 0.06824838 -0.08556409
0.03903617 -0.13032153 -0.2157843 0.12053716 0.2420181 -0.026240222 -0.18464275 -0.22170167
0.25129786 0.032630797 -0.07659019 0.10060632 0.07314471 -0.027084071 0.04294153 -0.121023856
0.26618582 0.33513483 0.1132199
00000000: 1e9a adbd c7ab 613e c412 0ebe 1595 90bc
00000010: eccb 51bb 72ed e1bd cfc5 8b3d 3a3c afbd
00000020: 64e4 1f3d 0273 05be 8ff6 5cbe 30dc f63d
00000030: 98d3 773e bcf5 d6bc fd12 3dbe c305 63be
00000040: 1daa 803e dfa7 053d 51db 9cbd b00a ce3d
00000050: e5cc 953d 6adf ddbc 75e3 2f3d 5bdb f7bd
00000060: 8249 883e cb96 ab3e d6df e73d

FC1.0.weight f4 [9, 9]
3.8171554e-27 1.7245374e-27 -6.48495e-31 -1.1362838e-30 -3.6677398e-25 -1.487678e-26 -8.195882e-30 5.778302e-21
1.3876404e-24 -0.1405159 0.1740324 -0.19340193 0.16920426 -0.27966398 0.002406184 -0.28161854
-0.10350252 -0.03534575 0.20796096 -0.33906665 0.06152217 0.022475982 0.17860867 -0.15572071
-0.20445114 0.17717308 -0.16622607 0.13429014 -0.070332885 0.03334178 -0.28646326 0.17124385
-0.1693663 0.14171323 -0.12532096 0.18284127 0.27136332 -0.26679772 0.050077576 -0.36209038
-0.1222794 0.17886788 -0.26507694 0.20716982 0.110395595 -0.22522059 0.30005768 -0.07229214
0.16387236 -0.29794374 -0.037145063 -0.12995547 -0.04512675 -0.11475252 0.028233923 0.22705646
-0.10367956 0.011089833 -0.18770167 0.044911925 0.0788211 -0.22157656 0.28785726 -0.27085954
-0.118297696 0.035957843 0.08896187 0.13083449 0.17666806 -0.10405865 -0.2999134 0.18029821
1.6788522e-29 3.5917916e-30 9.681432e-31 -8.760035e-31 2.7160602e-30 1.4390464e-29 2.5079313e-30 4.9741797e-28
-7.785372e-30
00000000: 8e36 9713 c6a1 0813 db72 528d 625f b88d
00000010: a805 e396 1e55 9394 743b 268f 4f4c da1d
00000020: 19ba d617 66e3 0fbe 8d35 323e 280b 46be
00000030: e243 2d3e 1e30 8fbe 12b1 1d3b 4e30 90be
00000040: 21f9 d3bd b5c6 10bd b8f3 543e 259a adbe
00000050: acfe 7b3d 8d1f b83c 31e5 363e 4075 1fbe
00000060: a45b 51be dc6c 353e 2b37 2abe 5b83 093e
00000070: b00a 90bd 6491 083d 50ab 92be 8c5a 2f3e
00000080: 5c6e 2dbe 461d 113e 2354 00be be3a 3b3e
00000090: 22f0 8a3e b699 88be 251e 4d3d e963 b9be
000000a0: 9f6d fabd 2429 373e 2ab8 87be 5324 543e
000000b0: 1617 e23d 3aa0 66be 29a1 993e e70d 94bd
000000c0: 28ce 273e 158c 98be 6c25 18bd 0c13 05be
000000d0: d4d6 38bd 5f03 ebbd d44a e73c 7d81 683e
000000e0: f355 d4bd 22b2 353c de34 40be 91f5 373d
000000f0: f56c a13d f7e4 62be 0762 933e 1aae 8abe
00000100: 1046 f2bd 8848 133d a431 b63d 7af9 053e
00000110: 79e8 343e b41c d5bd 408e 99be 18a0 383e
00000120: 7f41 aa0f 4cb3 910e 1817 9d0d c323 8e8d
00000130: 5d5a 5c0e c8ef 910f b277 4b0e 57a3 1d12
00000140: f6e7 1d8f

FC1.0.bias f4 [9]
-3.0246048e-07 0.32149294 0.24280521 0.2300832 0.10411779 0.27531803 0.033549067 0.10832123
-4.3543773e-11
00000000: da61 a2b4 b99a a43e eea1 783e ee9a 6b3e
00000010: b53b d53d 7cf6 8c3e bf6a 093d 85d7 dd3d
00000020: ee81 3fae

FC2.0.weight f4 [720, 18]
-0.13461493 -0.042816747 0.009140434 0.067839965 -0.16103517 -0.08353978 0.0592039 -0.04384012
-0.0025471642 -0.03245623 -0.16530138 0.117289186 0.22423999 -0.1268163 -0.17123261 0.06929239
0.041842204 -0.17474458 -0.12639007 -0.048072077 -0.0047352016 -0.040512346 -0.10360321 -0.1353331
0.023377504 -0.20500375 -0.120905235 -0.13602415 0.01634518 -0.14400062 -0.16083528 0.053765666
-0.10473264 0.11874187 0.081649475 -0.012442126 -0.020876085 0.013046022 -0.011021774 -0.0019242545
0.013567625 0.02374896 -0.0046171504 0.029658526 0.024366012 -0.0122691 -0.023091437 -0.000111682755
-0.015776047 -0.0064917193 0.021072201 -0.0059096217 0.016598906 -0.023712521 -0.027652659 0.11506894
-0.0066785966 -0.015396565 0.0964917 -0.05095683 0.12336321 0.0833658 0.15409276 0.0675481
-0.05510552 -0.0071411086 0.19706085 -0.128511 0.16783033 -0.028854502 0.1272256 -0.06349837
-0.1170533 -0.055595323 -0.022124818 0.014450067 -0.0075222696 -0.008942438 -0.050335843 -0.026029557
-0.074652225 0.049072627 0.019829372 0.0022013953 -0.17489414 -0.017154455 0.099142924 -0.070544004
0.08422004 -0.042817023 -0.17778845 0.08657118 -0.10631071 -0.04371401 -0.15667053 0.16855644
0.109031856 0.02357461 0.035837945 0.17341743 -0.07646269 0.216499 -0.022612432 -0.14033844
-0.11892524 0.14233203 -0.027278112 -0.1408316 0.056019235 0.029589396 -0.0065006777 0.0092256935
0.05269501 -0.07039394 -0.09512404 -0.017512849 0.03573528 -0.11171371 0.15821476 0.015136975
0.05339623 0.10094979 0.052114144 0.09567844 -0.040587503 -0.07366821 0.13271959 -0.009015346
-0.008210512 -0.05017992 -0.07356226 -0.080612965 0.14085406 -0.104317434 0.17919672 0.05871944
-0.12091313 -0.038329687 0.10388009 -0.041338332 -0.046885725 -0.18065143 0.14597394 -0.052204505
1.6260341e-25 3.3383367e-28 2.3388313e-30 -2.2001299e-30 -9.990386e-24 1.7446556e-24 -4.0424677e-28 -1.03540427e-13
6.12288e-23 -5.4973915e-21 1.3204839e-11 -3.1789056e-31 2.1392724e-10 1.7035942e-19 -2.1226754e-08 2.0028007e-22
-5.155717e-29 2.466391e-12 -0.019294625 0.011784311 -0.0107850665 -0.0009141728 0.0115461545 0.022402538
-0.0031034641 0.028219657 0.023131257 -0.010659567 -0.021507777 0.0008244003 -0.014253832 -0.004793138
0.019467972 -0.0045241504 0.016974324 -0.022192994 -0.041001417 0.0052982843 -0.013093613 -0.009058546
-0.016347514 -0.0109360805 0.0007059462 -0.049553584 0.032140844 -0.07530367 -0.12303561 -0.012982443
0.10997628 0.04313371 -0.017321192 -0.104702875 -0.0693006 0.039626867 -0.05726264 -0.016694257
0.021362659 0.017402142 0.12463276 0.10221339 -0.12143662 -0.07431665 -0.022842111 0.028159672
0.14409062 -0.01920596 -0.060007386 -0.003117821 -0.03727855 -0.06460146 0.001269843 0.09854887
0.030463817 -0.034330286 -0.0347801 -0.034966294 0.18911916 -0.12526539 -0.09275705 0.06914838
-0.113898784 -0.23608017 -0.08389957 -0.076101325 0.03934948 0.059044804 -0.09703236 -0.12450675
0.04713636 -0.15701343 -0.013857468 -0.007409538 0.006864637 0.042846266 -0.086233586 -0.047640722
0.03071739 0.12898722 -0.046589985 0.07282891 -0.12145037 0.03522558 -0.057514112 -0.06820094
0.0483449 0.10555133 -0.09168179 0.00864631 -0.015211709 0.060664613 -0.008360531 0.005674322
00000000: 7fd8 09be 9d60 2fbd c2c1 153c aeef 8a3d
00000010: 67e6 24be e716 abbd ca7f 723d b391 33bd
00000020: 53ee 26bb d3f0 04bd c444 29be 5035 f03d
00000030: 2b9f 653e 22dc 01be 9a57 2fbe 2be9 8d3d
00000040: bb62 2b3d 3ef0 32be 666c 01be 3ae7 44bd
00000050: c029 9bbb 46f0 25bd eb2d d4bd c394 0abe
00000060: 2e82 bf3c 81ec 51be 2a9d f7bd ea49 0bbe
00000070: 54e6 853c e674 13be 01b2 24be 6339 5c3d
00000080: 117e d6bd f02e f33d d737 a73d 0fda 4bbc
00000090: 5304 abbc fbbe 553c ac94 34bc 4437 fcba
000000a0: be4a 5e3c 2e8d c23c 774b 97bb 70f6 f23c
000000b0: 3b9b c73c 5604 49bc 412a bdbc 3937 eab8
000000c0: c53c 81bc 7db8 d4bb 9c9f ac3c 80a5 c1bb
000000d0: 6efa 873c c340 c2bc d487 e2bc 44a9 eb3d
000000e0: 21d8 dabb e041 7cbc 719d c53d 1cb8 50bd
000000f0: daa5 fc3d b0bb aa3d 7eca 1d3e a956 8a3d
00000100: 53b6 61bd f6ff e9bb 52ca 493e 6398 03be
00000110: b7db 2b3e 4760 ecbc 6d47 023e 6f0b 82bd
00000120: a4b9 efbd ecb7 63bd 1b3f b5bc f9bf 6c3c
00000130: 5f7d f6bb 4e83 12bc f52c 4ebd f03b d5bc
00000140: 44e3 98bd 6100 493d 3571 a23c 4945 103b
00000150: 7317 33be 8087 8cbc 720b cb3d 6079 90bd
00000160: 8e7b ac3d e760 2fbd 2d0e 36be 3b4c b13d
00000170: 6eb9 d9bd 760d 33bd 3d6e 20be 0f9a 2c3e
00000180: 184c df3d 8a1f c13c cfca 123d 5794 313e
00000190: 7998 9cbd eab1 5d3e b53d b9bc e1b4 0fbe
000001a0: 148f f3bd 7dbf 113e 5976 dfbc 2936 10be
000001b0: 6d74 653d 7665 f23c a303 d5bb 5d27 173c
000001c0: b9d6 573d b32a 90bd 65d0 c2bd 1b77 8fbc
000001d0: 285f 123d 28ca e4bd 0d03 223e 1301 783c
000001e0: 01b6 5a3d c3be ce3d a475 553d 0ff3 c33d
000001f0: 153f 26bd 5cdf 96bd a5e7 073e 1ab5 13bc
00000200: 6285 06bc 7689 4dbd cfa7 96bd 6918 a5bd
00000210: 0c3c 103e 61a4 d5bd 587f 373e cc83 703d
00000220: 4ea1 f7bd 97ff 1cbd 16bf d43d 6252 29bd
00000230: 3f0b 40bd b0fc 38be 317a 153e 64d4 55bd
00000240: 144b 4916 9c97 d311 a0bf 3d0e e97e 328e
00000250: ff3d 4199 77fc 0618 651c 0092 fe26 e9a9
00000260: cb0a 941a 82af cf9d 4f4d 682d a152 ce8c
00000270: 2a37 6b2f fa1f 4920 2056 b6b2 ae1f 721b
00000280: 84b6 8290 8d8e 2d2c c30f 9ebc fc12 413c
00000290: d9b3 30bc 19a5 6fba 152c 3d3c 8785 b73c
000002a0: 7d63 4bbb e92c e73c c37d bd3c 77a5 2ebc
000002b0: 1431 b0bc 911c 583a e888 69bc c10f 9dbb
000002c0: 4c7b 9f3c 533f 94bb bd0d 8b3c 15ce b5bc
000002d0: 1af1 27bd 3b9d ad3b 9886 56bc 4c6a 14bc
000002e0: 39eb 85bc 3f2d 33bc 3f0f 393a b3f8 4abd
000002f0: 1ea6 033d cf38 9abd 18fa fbbd 50b4 54bc
00000300: 3e3b e13d f9ac 303d 2ce5 8dbc 766e d6bd
00000310: 79ed 8dbd c84f 223d 3b8c 6abd 65c2 88bc
00000320: be00 af3c f08e 8e3c 763f ff3d 4155 d13d
00000330: c3b3 f8bd 5433 98bd 611f bbbc 1daf e63c
00000340: 7e8c 133e d155 9dbc 4eca 75bd 5b54 4cbb
00000350: 65b1 18bd c54d 84bd dc70 a63a fdd3 c93d
00000360: 418f f93c ea9d 0cbd 9475 0ebd d138 0fbd
00000370: 74a8 413e 9245 00be 69f7 bdbd aa9d 8d3d
00000380: c443 e9bd 00bf 71be 8ad3 abbd 03db 9bbd
00000390: ec2c 213d f7d8 713d e7b8 c6bd 65fd febd
000003a0: 0e12 413d 21c8 20be 6f0a 63bc b6cb f2bb
000003b0: c0f0 e03b 917f 2f3d 3c9b b0bd eb22 43bd
000003c0: 09a3 fb3c 3a15 043e 24d5 3ebd 5327 953d
000003d0: f9ba f8bd b348 103d eb93 6bbd efac 8bbd
000003e0: 4d05 463d 4c2b d83d aac3 bbbd 41a9 0d3c
000003f0: 883a 79bc 757b 783d 9cfa 08bc aaef b93b
