Simulations/Lorenz_Atractor/results/decimation/data_size/best-model-weights_size100.pt (torch, 146667 bytes, 46 tensors)

GRU_Q.weight_ih_l0 f4 [27, 15]
000000 3c a3 25 bb 1e d9 0f 3b 6a b4 4e be d9 28 52 3d
       -0.0025274297 0.002194948 -0.2018601 0.051308487
000010 4c 7f 5d be 16 e0 d9 3d 7d cc 2f 3d 4e e5 62 3e
       -0.21630591 0.10638444 0.042919625 0.22157785
000020 e3 90 1d 3b 16 1a d5 3c 8e b3 2e 3d 62 11 1b 3e
       0.0024042658 0.026013415 0.042651705 0.1514335
000030 51 6c bd bc e7 ec 45 3e c4 9a 43 39 5e 9a 45 3c
       -0.023122938 0.19328652 0.00018654304 0.01206073
000040 d5 60 dd 3a 3d ca 5f bb 1a 12 37 3d ef 72 87 3e
       0.001688982 -0.0034147643 0.044694997 0.26454875
000050 63 d6 b4 3c 2b f7 e9 3d cc 23 05 3e 01 f0 89 39
       0.022074884 0.11424097 0.13001937 0.00026309493
000060 44 ea 6c ba ff b6 e9 bd c6 e5 67 be 9a e8 78 3a
       -0.0009037594 -0.11411857 -0.22646245 0.00094951096
000070 a2 3e 31 3e d9 51 09 b7 36 69 47 3c eb d0 4f 3b
       0.17309049 -8.184893e-06 0.01217108 0.0031710218
000080 4e 2c 2d 3e 54 29 29 be ea 8c 8f bd ed f7 a0 3d
       0.16911432 -0.16519672 -0.07009299 0.07859788
000090 a4 77 34 3e 94 c0 19 bd 3e a4 1e 3c ec ca 1d 3d
       0.17623764 -0.037537172 0.009682713 0.0385236
0000a0 1a c5 ba 3d b7 3d db 3d 75 e2 6c ba 14 ae bd 3d
       0.091196254 0.107051305 -0.000903643 0.092617184
0000b0 fe 52 48 38 db 51 c7 3b 6a 79 78 3b 20 fc 9f 3c
       4.776101e-05 0.006082756 0.0037914165 0.019529402
0000c0 a5 09 aa 3c 30 9c c5 bb ba 77 2c bd f8 83 03 3e
       0.020756552 -0.006030582 -0.042106368 0.12843311
0000d0 3f ec a7 bb b2 fa a6 3b 38 a3 c7 36 99 6b e3 bc
       -0.0051245983 0.005095803 5.9496633e-06 -0.027761267
0000e0 c5 d8 37 3d 40 28 2e 3b b7 a4 4f bc 35 5d 80 b9
       0.044884462 0.0026574284 -0.012673548 -0.00024483507
0000f0 25 b6 78 3c 36 c0 1f bb 8e d8 82 bc e5 99 df bb
       0.015180145 -0.0024376041 -0.015972402 -0.0068237656
000100 0b ee 83 be fc 7e cb bd 83 10 55 3e 74 c3 d4 bd
       -0.2576755 -0.0993633 0.2080708 -0.10388842
000110 a9 80 95 3a ec 9c 58 3b a4 26 10 3e 90 77 57 3e
       0.0011406142 0.0033052517 0.1407724 0.21041703
000120 c4 04 bd 3b 3f ab c1 bd d7 e8 67 39 f4 08 a4 3c
       0.0057683904 -0.09456491 0.00022116616 0.0200238
000130 b8 dd 84 3c 55 03 1d be c2 6e 46 3e 1b a1 12 be
       0.016219005 -0.15333302 0.19378188 -0.1431927
000140 35 58 0e 3e 41 4a 09 3e 8c aa ba bd 0c a1 2d 3c
       0.13900836 0.13407232 -0.091145605 0.010597479
000150 92 85 c8 bc dc 3a 28 bd e1 9b 25 bd cb a7 55 bc
       -0.024477754 -0.041071758 -0.04043186 -0.013040493
000160 10 bc 10 bd 7d fb 5d b9 6d bf a0 3b cf 33 20 bc
       -0.0353356 -0.00021169889 0.004905632 -0.009777977
000170 9a d5 77 bd 35 15 b4 bc 07 05 1e be b0 e0 72 be
       -0.06050644 -0.021982769 -0.15431605 -0.23718524
000180 a1 aa af bd b9 a8 7a bd 72 ad 4d bc f5 b2 a9 bb
       -0.08577467 -0.061196063 -0.01255356 -0.005178804
000190 4f 03 ba bc 62 10 91 3d 54 b7 87 bb 78 a0 f0 3b
       -0.022706656 0.07083203 -0.0041417275 0.007343348
0001a0 16 ee 67 38 a5 d5 a7 bb 43 ff 26 3b 98 5f 3c 3c
       5.5296427e-05 -0.005121904 0.0025481738 0.011497401
0001b0 7d cb 02 be 59 3a 34 bd ad e5 e9 3c 79 6a 06 bd
       -0.12772937 -0.044000957 0.0285519 -0.032816384
0001c0 38 cc 56 bc b2 9e a0 3b 63 d3 44 3a c6 c5 36 be
       -0.013110213 0.0049017305 0.0007508306 -0.17848882
0001d0 0c ad ed bb 72 70 de ba a8 67 f3 bd a5 63 e0 37
       -0.007253295 -0.0016970767 -0.11885005 2.6749281e-05
0001e0 14 4b 0f 3c 18 45 3e bb 7c 44 29 be a0 5d 17 be
       0.008745927 -0.0029032882 -0.16530031 -0.14781809
0001f0 34 f2 a8 3d 6b cd 61 be 2e f4 0a 3e 96 eb 4c bd
       0.082493216 -0.22051017 0.1356971 -0.05002936
000200 8c df b3 ba 60 55 d9 bb c4 ab b7 bc 7b e2 36 3d
       -0.0013723238 -0.006632492 -0.022420771 0.044649582
000210 c6 e8 88 ba d0 3d 6f 3d 62 e1 e2 37 ec 50 42 ba
       -0.0010445348 0.05840856 2.7046251e-05 -0.0007412571
000220 03 24 8e 3b 09 09 e0 3c cb 0f 62 3d e2 32 81 3d
       0.004337789 0.027348058 0.055190843 0.06308533
000230 ab 86 43 bc 24 68 9c bd e2 6f 3a 3c 70 88 bb 3b
       -0.011933963 -0.07637051 0.011379214 0.0057230517
000240 87 e8 86 3b 66 e5 9f 3b 71 6f 95 3b 81 4f 14 bb
       0.004117075 0.0048796413 0.004560404 -0.0022630396
000250 1c 7c 36 bb 78 59 04 36 1b 92 95 3c e0 f2 38 bb
       -0.002784497 1.972161e-06 0.018258145 -0.0028220937
000260 16 dd 1c bc 01 f8 dd bc b4 c3 6a ba 53 d9 80 3d
       -0.009574195 -0.027095797 -0.00089555536 0.06291451
000270 f0 2b 14 bd e2 44 0d bc c7 35 90 bb 7e 8f a2 b9
       -0.036174715 -0.00862238 -0.004400942 -0.00031005958
000280 14 52 57 3c b0 ed 89 bb ad 37 d6 3a b2 ab 36 3d
       0.013142128 -0.0042092428 0.0016343497 0.044597335
000290 96 80 28 b9 e9 f1 92 3c b7 5f 18 3c 7a e2 87 3b
       -0.0001606963 0.017937617 0.009300164 0.004146871
0002a0 c6 fb d0 bd e3 c0 02 3c f6 a8 84 3d 33 57 b7 bc
       -0.10204272 0.007980558 0.06477539 -0.022380447
0002b0 4f f4 b3 3c 78 6b 00 3c 69 45 82 3b 2f 49 9e 3c
       0.021967081 0.007838123 0.0039755595 0.019322006
0002c0 5e 84 f3 3c e8 1a 1b bb ed 3a 07 3d 7f 28 93 b9
       0.029726204 -0.002366716 0.03301518 -0.00028068197
0002d0 26 06 3b 3d 43 2f 8c 3b e0 c6 2b bc 7c 34 b8 bc
       0.04566016 0.004278095 -0.010484427 -0.022485964
0002e0 b1 01 95 bd 8f b1 38 bd 84 90 1e 3e b5 d4 b2 ba
       -0.07275713 -0.045091208 0.15484816 -0.0013643714
0002f0 ae 9b 7f 3b 6e 79 a5 3c ed e2 ba 3c d6 d6 3c 3d
       0.0039002704 0.020199504 0.022813285 0.04610332
000300 2e f3 01 bc 01 bf c5 3d dc 44 a6 39 62 1b 04 3c
       -0.007931514 0.09655572 0.00031713292 0.008063169
000310 91 a7 1c 3b 2c fe 5d ba 12 22 2f 3b b9 41 91 3b
       0.0023903588 -0.00084683555 0.0026723188 0.0044328836
000320 2f 28 56 3d a8 8f e7 3c ca d5 00 bb 3a 3b 4f 3a
       0.052284416 0.028266743 -0.0019658678 0.0007905249
000330 ba 58 90 3a 38 ec 3f bb 19 9e be 3a ae ca 26 ba
       0.0011012771 -0.0029285084 0.0014542966 -0.0006362599
000340 80 66 d7 3b 0f f7 aa b8 90 b0 05 3d 9d 07 40 3c
       0.0065734982 -8.15225e-05 0.032639086 0.011720565
000350 71 a2 39 3d b6 30 b6 bb d4 98 76 bd 9e 58 34 bd
       0.04532093 -0.005560006 -0.060204342 -0.044029824
000360 1d 12 3e 3e 7b 98 7e 3d d8 46 3a 3c 28 6d c0 3c
       0.18561597 0.062157135 0.0113694295 0.02348955
000370 21 77 ff 3c 81 98 1a 3d 49 6c 3e bc 62 ef 01 3d
       0.031184735 0.037743095 -0.011622497 0.031722434
000380 cb ec d3 b9 ef c7 cf 3b a4 fe 54 bb a7 02 32 bb
       -0.0004042148 0.0063409726 -0.003250041 -0.0027162225
000390 6b 6f 81 ba 20 c9 d7 3b a0 73 6a bc f4 b1 16 3d
       -0.0009875124 0.0065852553 -0.014309794 0.036790803
0003a0 5f ad 87 3b f5 d0 30 bb cc 2c 81 ba e4 3f 5c 3c
       0.0041405405 -0.0026980017 -0.000985527 0.013442967
0003b0 49 76 52 3c d0 d1 1c bb 6b a0 a6 3c aa d8 05 37
       0.012845584 -0.002392877 0.020340165 7.977864e-06
0003c0 de 2c 42 bb cd c9 30 bc 8e 65 87 bc 79 be ee 3d
       -0.0029628794 -0.010790301 -0.016527917 0.116574235
0003d0 ea fb cd bd 35 ea 63 bd db 96 03 bd f0 9d 1f bd
       -0.100578144 -0.05564328 -0.03212629 -0.03896898
0003e0 27 c8 2f bc 38 83 93 3b 4e ff e6 bc d1 35 40 bd
       -0.010728872 0.0045017265 -0.02819791 -0.046926323
0003f0 30 12 27 3d 3a 28 54 bc cb d1 4a b8 39 1c c2 3b
       0.04078883 -0.012949044 -4.8355938e-05 0.0059237746

GRU_Q.weight_hh_l0 f4 [27, 9]
000000 c1 22 3a bd 89 59 8f bd b4 6e 02 3e 01 e9 1f 3e
       -0.0454433 -0.06999499 0.12737542 0.15616228
000010 82 ec e3 bd 6c 51 f4 bc b7 5c 97 3b 93 77 03 3e
       -0.11129095 -0.029823981 0.004619207 0.12838583
000020 a6 48 48 be 67 2d 0b be 52 d1 87 3d 77 ba 84 be
       -0.19558963 -0.13591538 0.066317216 -0.2592351
000030 f3 a2 d6 bc 8b 2f 04 3e 42 fb 0f 3d 7e 36 46 3e
       -0.026200747 0.12908761 0.035151727 0.19356725
000040 a2 dd d2 bd 49 15 1c bd 2a 22 7f 3d 56 0a 1e bd
       -0.10296179 -0.038106237 0.06228844 -0.038584076
000050 7f 00 3e 3e 10 7b 99 3a 82 63 c9 bc d2 01 8b 3d
       0.18554877 0.0011709649 -0.024583582 0.067874566
000060 96 64 83 bc 68 f2 79 3e 7f c9 9f 3d 77 4d 23 3d
       -0.016039174 0.24408877 0.07802104 0.039868798
000070 5e fd 51 3d 30 20 cf 3d 2b 38 1b 3d 8f ac 4a bc
       0.05126702 0.10113561 0.037895363 -0.012370243
000080 ac 60 05 bd 0f ef d0 3d 6a 77 a3 3d 48 dd e9 bd
       -0.032562897 0.10201847 0.07981761 -0.11419159
000090 4c 37 7b 3c 4a 6d cb bd 00 f9 88 be e6 f0 88 bd
       0.015333008 -0.099329546 -0.26752472 -0.06686573
0000a0 ab db 32 3e 12 96 b5 3d 2c fa 29 be 4f bf 09 be
       0.17466609 0.08866514 -0.16599339 -0.13451885
0000b0 22 6b 9b 3d ac 54 35 3e e0 2b 9d 3d 59 87 a7 bd
       0.07588793 0.17708081 0.07674384 -0.081801124
0000c0 74 c5 0c be ce c3 74 bd 8e b2 05 3e 14 75 0a 3e
       -0.13747197 -0.059757046 0.13056394 0.13521224
0000d0 d2 b3 21 bd 61 e0 29 3d 44 d9 11 3e 08 8f aa bd
       -0.03947813 0.04147375 0.14243037 -0.08328062
0000e0 22 a8 0c 3d 73 07 f4 bd 73 93 a9 bd 9b bd 23 bc
       0.03434003 -0.11915483 -0.08280077 -0.009993936
0000f0 f1 21 0f 3e af 24 c0 bd 44 6e 63 bd ab 8e b0 3d
       0.13977791 -0.09381997 -0.05552508 0.08620962
000100 e4 f5 2d bc c3 d0 64 be c7 bd 13 3d 54 3c 58 bc
       -0.010617707 -0.22345261 0.036069658 -0.013197977
000110 f7 bd 29 3d 48 9f 5b 3d 94 24 e3 bc 6d 4e 07 3e
       0.04144093 0.0536187 -0.027727403 0.13213511
000120 ff 07 86 bc 5f 4f 12 3d 6a 58 84 3d f4 87 87 3d
       -0.016361235 0.035720225 0.06462176 0.06617728
000130 fd 9a c8 bb 76 37 7b 3d cb 91 8d 3d 33 77 2c 3d
       -0.0061219917 0.06133219 0.069125734 0.042105865
000140 b6 a4 26 be 2b 4e fa 3b 7a f5 99 bc 1e 2f bc 3c
       -0.1627377 0.007638713 -0.01879381 0.022971686
000150 60 de 18 3b cf 19 09 3b de c5 11 ba 28 e7 62 3c
       0.0023325905 0.0020919924 -0.00055607955 0.013849057
000160 98 38 05 3c 65 10 0f 3d 11 cd 36 3d 83 38 e0 3d
       0.008131169 0.034927744 0.04462916 0.10948279
000170 b9 ca 28 3d 3d 52 90 3d ec e6 f9 3c 01 42 83 3c
       0.041208956 0.07046936 0.03050562 0.016022684
000180 75 ba fb 3d 4c b4 ed bc b4 72 18 3d ac fe ee 3c
       0.12291423 -0.029016636 0.037218764 0.029174171
000190 58 69 67 bd 28 8d 60 3d ab 5b 3e 3d 04 93 ad 3c
       -0.056496948 0.054822117 0.04647414 0.021188267
0001a0 c6 5f 49 bc a4 92 dd 3b 6e 66 aa 3c 7d c8 2e bd
       -0.012290901 0.0067618657 0.020800795 -0.04267167
0001b0 97 d0 49 3d 6b 93 c8 bd ed 94 5d bc 23 d7 ff 3c
       0.049271192 -0.09793743 -0.013524276 0.031230515
0001c0 c5 e9 f5 3d 30 78 a0 bc a2 e9 ba 3c e8 d2 f8 3d
       0.120074786 -0.01958856 0.022816483 0.12149602
0001d0 11 90 12 39 3a 16 f4 3c f8 f1 b4 bc 45 aa bb 3c
       0.00013977314 0.029795755 -0.022088036 0.02290834
0001e0 b6 a4 0b 3d c6 65 c0 3c 3a 24 40 bb de 75 00 3d
       0.034092627 0.02348603 -0.0029318468 0.031362407
0001f0 ab 44 64 3c 0e 98 ec bb 54 32 d8 3c 66 f2 46 be
       0.013932387 -0.007220275 0.026391186 -0.19428405
000200 93 c2 12 3e 42 7c 30 3e c4 ef 8e 3d 35 6a b7 3c
       0.14332037 0.172349 0.069793254 0.02238951
000210 48 bc ca 3d e7 4a f6 bb 56 29 18 bd 25 ee 07 ba
       0.09899193 -0.0075162533 -0.037148796 -0.00051853276
000220 fb bf ad bc e3 e1 98 3c 90 f4 dd 3a 7e 99 dd 3b
       -0.021209707 0.018662399 0.0016933847 0.0067626825
000230 fd 82 71 3c 86 e5 3a 3c bc a4 b7 3b 66 39 f2 bc
       0.014740703 0.011407262 0.0056043547 -0.029568385
000240 53 4b 0c bd 9c 29 ba 3d a8 ad 12 3d 53 3a c8 bb
       -0.034251522 0.090899676 0.035810143 -0.0061104684
000250 3d a7 8c bc 5d 6f d2 3a 17 ce 3f 3d 0e 3b 11 3c
       -0.01716959 0.0016054917 0.046827402 0.008864177
000260 eb 09 da 3c 83 5b 01 3e 05 df 22 3e 95 08 2f be
       0.026616057 0.12632565 0.15905388 -0.17093118
000270 fd c1 2d 3e 1a 54 9d bd c3 41 51 bd c9 1b 27 3d
       0.16968532 -0.07682057 -0.051088106 0.040797982
000280 24 38 22 3e 62 fb dd 3d 2a 7a a6 bd 16 67 2e bd
       0.15841728 0.10838963 -0.0812877 -0.04257878
000290 0b b3 88 3e 25 90 0b 3e 5a 79 c0 bd 88 ca 05 be
       0.266991 0.13629206 -0.09398146 -0.13065541
0002a0 52 6e 32 3d 52 54 e0 bd d3 90 b0 bc 84 11 88 3d
       0.04356224 -0.10953583 -0.021553433 0.06643966
0002b0 5d 50 81 3e 12 ea 4a be a7 be 90 3e e2 5a 51 be
       0.25256625 -0.19815853 0.28270456 -0.20444825
0002c0 2e 9d a6 3d 1a ec 75 bc d0 7e 5c 3e 5a 97 78 3e
       0.081354484 -0.015009904 0.2153275 0.24276486
0002d0 9a 45 f6 bd 72 5a 69 be 7f 46 4f 3e 31 df 96 be
       -0.12024994 -0.22788408 0.20241736 -0.29467157
0002e0 93 37 96 3d 83 e0 ab 3e 20 15 2c 3e f9 6a 07 be
       0.07334819 0.33569726 0.16804934 -0.132244
0002f0 94 b1 a5 be 1e 3d 6f 3e c8 6b 10 3d 3f 1d a3 be
       -0.32362044 0.23363158 0.03525904 -0.3185825
000300 04 d6 8d 3d 86 34 e8 bc 3d 44 6a 3e 15 a9 9c be
       0.06925586 -0.028345358 0.22877593 -0.3059775
000310 65 f5 e1 3d 3b 82 94 3e 25 7b fc 3d 6c bf 96 be
       0.110331334 0.29005608 0.123281755 -0.29442918
000320 67 80 4e bd 97 6c 5e bd bb b4 00 be e1 dc 8c 3e
       -0.050415423 -0.054302778 -0.12568943 0.27512267
000330 c3 fb d0 3d e3 43 92 be a6 77 7c be 8d cb 5e 3e
       0.1020427 -0.28567418 -0.24655017 0.21757336
000340 51 d6 69 3e 39 6e a9 3e 0b 37 20 be b1 71 c7 3d
       0.22835661 0.33091906 -0.15645997 0.09738482
000350 0b ba 84 3e 78 b6 77 be b1 07 a6 bd b9 e4 2b 3e
       0.2592319 -0.241907 -0.08106936 0.1678647
000360 e9 16 4d bd a1 5c 74 be a9 ea 30 3e 46 96 6d 3e
       -0.050070677 -0.2386346 0.17277016 0.23201856
000370 a3 f0 3d 3e d5 44 ad 3c 88 6c 4a be f2 48 ea 3d
       0.18548827 0.021150986 -0.19767964 0.114396945
000380 3b f2 85 3e 17 b6 1f be a4 58 4a be fa 4b aa bc
       0.2616137 -0.15596806 -0.19760376 -0.020788182
000390 82 f0 1e 3e 1f 47 7f be 1f 33 12 3e bb e1 66 3e
       0.15521434 -0.24929474 0.14277314 0.22547047
0003a0 46 27 80 bc bd bc 6c be 12 5e 29 bd c7 6c 70 be
       -0.015643727 -0.23118873 -0.041349478 -0.23478995
0003b0 68 d8 9b be 28 07 9f 3c f9 51 75 3d 68 cd ac be
       -0.30438542 0.019412592 0.05989263 -0.33750463
0003c0 ff f9 15 3e 65 98 84 be 9a 16 99 be
       0.14646147 -0.25897518 -0.29900056

GRU_Q.bias_ih_l0 f4 [27]
000000 5c 3a 05 3e 80 d2 bb 3d 42 22 87 3e de 67 f4 3d
       0.13010544 0.09171009 0.26393324 0.119338736
000010 cc b8 96 3c ad 29 8a 3e 87 6c a6 bd 3a ec bb 3d
       0.018398665 0.2698492 -0.08126169 0.09175916
000020 d4 c6 60 3e 69 f6 fd 3c 8e 9f 11 3e f9 28 90 bd
       0.21950847 0.031001287 0.14221022 -0.07039065
000030 46 63 09 3d c3 31 8d 3d a2 a2 a5 3c 97 8a d5 3b
       0.03354194 0.06894257 0.02021915 0.0065167653
000040 e1 73 3b be 16 c0 35 3e 3a 6c 38 3e ce e1 08 be
       -0.18305923 0.17749056 0.18010035 -0.13367388
000050 14 b8 74 3d 0d 8b 91 3e 89 98 a2 3c 61 61 bd 3d
       0.059745863 0.284264 0.019848125 0.09247089
000060 45 a4 90 3e d8 3b 90 3e 56 ee 80 be
       0.28250328 0.28170657 -0.25181836

GRU_Q.bias_hh_l0 f4 [27]
000000 24 0c 36 bd 09 f5 5f 3e e0 c4 9a 3e 45 c8 c8 3c
       -0.044445172 0.21870817 0.3022833 0.024509558
000010 aa 99 12 3d ce 5d 84 bd 43 bd 15 be 36 02 df bc
       0.035791077 -0.06463204 -0.14622979 -0.027222734
000020 23 55 16 3e 34 76 7f 3d aa 9f 54 3e fa df 1a 3d
       0.14680915 0.062368587 0.20764032 0.037811257
000030 11 a4 c0 3d 47 e9 3c 3d cf 6c 03 bc bb aa a9 3c
       0.09406293 0.046120908 -0.008021547 0.020711293
000040 58 d0 25 bc 35 96 ce bd 83 62 77 3e 67 07 80 bd
       -0.010120474 -0.100872435 0.24158673 -0.06251412
000050 f4 43 ec 3d 1d 0c 69 3e 81 a0 96 3e 5e 8c 6e bd
       0.115363985 0.22758527 0.2941933 -0.058239333
000060 3f 72 4c 3e 34 e3 1d be 38 8d 1d be
       0.19965456 -0.15418702 -0.15385902

GRU_Sigma.weight_ih_l0 f4 [27, 24]
000000 5f 39 4c be 2b 8c 82 3c 93 85 0d 3d 5f 72 99 be
       -0.1994376 0.015935978 0.034551214 -0.2997007
000010 1c cf 86 3e 8e 97 f7 bd 6e ba 62 be ac f8 f5 3c
       0.26329887 -0.12089454 -0.2214143 0.030025803
000020 b6 89 39 be 6c d8 e8 3d 9f 80 24 bd ed 2a 0c 3b
       -0.18118939 0.11369404 -0.040161725 0.002138789
000030 81 11 0f 3b 73 3c 01 3e 79 e3 0f 3e 9a 7f 4c 3d
       0.0021830502 0.12620716 0.14051618 0.049926378
000040 21 52 67 bc ab b5 7a bd 29 c7 28 be 48 a3 38 be
       -0.014118702 -0.06120841 -0.16482224 -0.18031037
000050 07 5e 11 bd 8c 74 80 3e f1 35 db bd 66 6a 7c bd
       -0.035490062 0.25088918 -0.10703648 -0.061624907
000060 db a0 42 3c 54 f3 3a 3e b3 11 38 be c4 91 85 3e
       0.011879171 0.18256885 -0.17975502 0.26087773
000070 32 5a 39 bd c3 2c 97 bd 4d e2 39 be 65 ac 74 3e
       -0.045252033 -0.073815845 -0.18152733 0.23893888
000080 40 20 03 3e 5a e2 22 bd 73 0e e3 3d b2 d2 bd bc
       0.12805271 -0.039766647 0.1108674 -0.023171756
000090 a1 f1 b8 bc 86 1a 82 3c b8 f1 4d bd 30 2d 2f bc
       -0.022576155 0.015881788 -0.05027935 -0.010691926
0000a0 6e d0 da 3c 5c c7 1f be 9e 26 c8 3d 07 68 41 3d
       0.026710715 -0.15603393 0.09772991 0.04721835
0000b0 38 4f 23 be 94 35 6e be e5 17 02 3e ab 91 f2 bb
       -0.15948188 -0.23262626 0.12704428 -0.007402619
0000c0 0e bf a6 ba db 40 ed 3c 1e a8 55 3d fc c0 18 3e
       -0.0012721734 0.02896159 0.052162282 0.14917368
0000d0 40 11 0d 3e 5b 5b 15 3c dd 9c de bd c3 d5 b4 bd
       0.13776112 0.009116019 -0.10869763 -0.08829834
0000e0 59 b0 23 be d9 4f a3 bd 2b 27 f2 bd db 33 54 3b
       -0.1598524 -0.07974214 -0.11823877 0.003237954
0000f0 0c 97 50 3b 0f 11 76 3d 4b 35 42 bd 18 c2 90 3b
       0.0031828312 0.060074862 -0.047414105 0.004417669
000100 15 fc c1 39 5a 26 ba 3d 51 91 3d be e7 58 54 3e
       0.00036999644 0.09089346 -0.18512465 0.20737039
000110 f0 c6 5f be 6f 2c 4a be 1f 53 09 3e 8b 44 8f bc
       -0.21853232 -0.19743513 0.13410614 -0.017488739
000120 22 a8 93 be e7 15 14 bd 44 b8 ca ba ad a8 60 be
       -0.28839213 -0.0361537 -0.0015466292 -0.21939345
000130 6a c4 82 3d 8a c2 0b be 45 2f dc bd e2 0d 47 3e
       0.06385119 -0.1364843 -0.107512034 0.1943889
000140 42 09 11 3e 43 98 0d bc 17 1b 1e 3d 75 6c 5f bc
       0.14163688 -0.008642259 0.038600054 -0.013636698
000150 d3 82 5c bc 19 6d b9 3d 3e 65 37 3d 06 f0 a1 bb
       -0.013458925 0.09054012 0.044774286 -0.004941943
000160 5a 0a 05 bd f1 0c cb 3b 65 13 27 3e 71 e3 75 3e
       -0.032480575 0.006196611 0.16315992 0.24012543
000170 e4 fa 5c 3e 21 b3 97 3c 0f 44 a8 bd 7f b8 b3 3d
       0.21580082 0.018518033 -0.08216106 0.08775424
000180 5c ac 6e be 9d 56 18 3b 23 45 9a be 0d 3d 2f 3e
       -0.23307937 0.0023244985 -0.30130872 0.17113133
000190 10 0e ae 3d 31 0b 24 3e 47 02 8b be c9 ed 92 bd
       0.08498776 0.16019894 -0.27150175 -0.0717426
0001a0 d5 6a c9 bd 59 fe c5 3d 45 20 89 3d 86 c0 6a bc
       -0.0983483 0.096676536 0.06695608 -0.014328128
0001b0 54 77 6a bc 49 71 1b be 5f cd a4 bd 5e cd 06 3e
       -0.014310677 -0.15179934 -0.08046984 0.13164279
0001c0 5e 08 d6 bc 8a 2c 78 3d 34 ac 69 be 74 47 4a 3e
       -0.026127037 0.06058935 -0.22819597 0.1975382
0001d0 3d 57 6c be d3 08 89 3e f7 60 cd bc 07 f1 9a b8
       -0.23080154 0.26764545 -0.02507065 -7.388187e-05
0001e0 11 9e 2d 3c a4 37 1a be a6 b3 9d bd 52 80 28 bc
       0.010596768 -0.15060288 -0.07700281 -0.0102845
0001f0 4c 84 45 be 0c 2d 11 3e 3c b1 fb 3d 6d 48 86 3c
       -0.19288749 0.1417734 0.12289664 0.016391957
000200 df f4 f0 bd f6 aa b3 bd 4b 89 1c bd 16 31 ab bb
       -0.117654555 -0.087728426 -0.03821687 -0.0052243574
000210 55 92 ac bb 4c 1e 38 bd a2 bf 61 3d 5f fe 86 bd
       -0.0052664676 -0.04495077 0.055114396 -0.06591486
000220 41 bf 24 3d 88 8d 5d be 21 3c 81 3e 89 dd 10 be
       0.040221456 -0.21636021 0.25241187 -0.14147009
000230 c7 79 4e bc 61 85 e6 bd 0f b2 d5 bd 34 6e 08 bd
       -0.012602276 -0.11255909 -0.104343526 -0.033308223
000240 21 1a 88 be 00 05 01 3e 64 87 9a 3e 40 9f 6b 3e
       -0.26582435 0.12599564 0.3018142 0.23009968
000250 29 9d b1 bd 6d 5a 39 3d 8d ca fe bd 31 e3 95 bd
       -0.08672554 0.045252252 -0.12440977 -0.07318724
000260 8f 08 48 bd be 97 48 3d 78 d2 20 be aa c9 d9 ba
       -0.048836287 0.048972838 -0.15705287 -0.0016615887
000270 87 6e e2 ba 89 bb 2b bd 0f 34 23 3e 00 e7 83 bc
       -0.0017275371 -0.041926894 0.15937828 -0.01610136
000280 6b df 06 3c f1 f8 8c 3e d2 6e a9 3d bd 9a b1 3d
       0.008231978 0.27533677 0.082730904 0.08672092
000290 d6 25 7a 3e 62 b6 75 be d9 e4 7c bd da 03 fe bd
       0.24428496 -0.23995355 -0.061741684 -0.124030784
0002a0 71 7d 3b be 84 88 f6 3c 75 95 06 be 05 1f 1f be
       -0.18309571 0.030094393 -0.13142951 -0.15539177
0002b0 66 af 40 3c b4 7e 9d bd 39 15 78 3c 70 8a dc bd
       0.011760568 -0.07690182 0.015141779 -0.10768592
0002c0 36 4b a5 bb b8 ff 62 bc a9 7b b6 3c 56 41 40 3a
       -0.0050443662 -0.013854913 0.022275763 0.00073339546
0002d0 81 bb 33 3a 42 21 55 3b be 9c bb 3a b3 97 07 bb
       0.00068562484 0.0032521044 0.0014313681 -0.0020689785
0002e0 82 2e 5d bb 99 d1 df bd ff 56 26 3e 8e 7c 92 ba
       -0.0033749645 -0.109286495 0.16244124 -0.0011176036
0002f0 81 a0 5e 3e 6c eb 51 be 82 7c a1 3b 68 0f 7a bb
       0.21740915 -0.20499963 0.0049281726 -0.0038156155
000300 80 4f 82 bb 06 87 56 3e f0 92 45 be 0c a2 ff bb
       -0.0039767623 0.20949945 -0.19294333 -0.0078013
000310 15 ba 44 be f4 b4 7c 3e 56 4c 57 bd 36 29 0c be
       -0.1921161 0.24678403 -0.052563034 -0.13687596
000320 f9 1e 5b be a0 8e 9d 3c 04 78 31 be 48 75 80 bb
       -0.21398534 0.019233048 -0.17330939 -0.003920231
000330 47 c0 71 bb 4b 50 6f 3d e3 6f 06 bb 79 1b 5a 3b
       -0.0036888288 0.058426183 -0.0020513467 0.0033280535
000340 99 26 f3 bb 6a 9b 23 be c4 f2 1a be de c2 ac 3c
       -0.0074203727 -0.15977255 -0.1513167 0.021089014
000350 28 67 80 3e 5c 37 9d 3e 73 a4 3c 3c d0 db 0b bd
       0.25078702 0.30706298 0.011513817 -0.034145176
000360 7e 77 05 3e ba 46 93 3e 7c 4d 9b 3e 06 74 93 bd
       0.13033864 0.28764898 0.30332553 -0.07199864
000370 d3 02 71 3e cc e0 01 be 2a 3d 09 3d f4 64 7e 3d
       0.23536234 -0.1268341 0.033505596 0.062107995
000380 7e 83 99 3e ee b3 12 3e 89 ae 3e 3d 8d c8 3c bc
       0.29983133 0.1432645 0.04655317 -0.011522424
000390 bc b5 37 bc e9 c0 f9 bd 1f 37 93 3e d8 80 30 be
       -0.011212762 -0.12194998 0.28752992 -0.1723665
0003a0 c4 4f bd bd 30 cb 18 3d 38 92 ed ba 09 e0 1f be
       -0.0924373 0.03730315 -0.0018125242 -0.15612806
0003b0 d4 68 1e 3e 55 d3 f1 3d 18 d8 6e bc 92 bb 53 3e
       0.15469676 0.118078865 -0.014577888 0.20677021
0003c0 3a 8b 50 be cc d0 b9 bd ea 56 21 be 86 de 9e 3d
       -0.2036561 -0.09073028 -0.15755811 0.07757287
0003d0 a9 3d 43 be 9f ab 5c be e0 2d e1 3d bd 98 39 bd
       -0.1906649 -0.21549843 0.10995078 -0.04531168
0003e0 d1 7c 4f 3e d0 43 cb bd 48 5c ef bd c8 2d 83 3c
       0.20262457 -0.099250436 -0.11687523 0.016013041
0003f0 af 2d 6c 3c 04 8a aa bd 77 e1 af bd b1 93 ca bc
       0.014415189 -0.08327106 -0.08587926 -0.024728628

GRU_Sigma.weight_hh_l0 f4 [27, 9]
000000 ac 19 ea b9 96 7f 8b 3b 6c 8e 04 3c f1 37 a2 3b
       -0.00044651085 0.004257153 0.008090597 0.0049505164
000010 0d cf cb bb 63 27 dd bb d8 a0 8c 3a ee 37 4c 3d
       -0.0062197507 -0.00674908 0.0010729088 0.049858026
000020 de 78 97 be ee 24 9f ba 63 b5 b4 3b 5f 07 9b bc
       -0.29584402 -0.0012141743 0.005514787 -0.018924413
000030 39 93 1b bc d8 96 09 bb af 29 ab bb 69 de 16 3c
       -0.00949555 -0.002099445 -0.005223475 0.0092083
000040 70 bc 38 be 7f 96 48 3d 20 10 a4 39 f9 25 cf 3b
       -0.18040633 0.04897165 0.00031292532 0.0063216654
000050 ba 0f 2b 3c 98 cd 56 3b b3 62 9c 3a 22 fd 81 3b
       0.010440761 0.0032776352 0.001193127 0.0039669434
000060 87 10 05 3c 50 ef 3e bd f6 e8 f3 bd e0 f2 4e 3a
       0.008121616 -0.046614945 -0.11909668 0.00078944676
000070 ce fb 64 bc 6c b4 1b bb 61 77 cd ba 66 6a 80 bb
       -0.013976051 -0.0023758663 -0.0015675836 -0.0039189337
000080 fb 1e 3e ba 7a ef 0a bc b3 a0 49 bd 2e 40 85 3e
       -0.0007252541 -0.008479947 -0.04922552 0.26025528
000090 f1 19 82 ba 49 69 80 bc 2e fc 6e ba e5 94 b8 ba
       -0.0009925944 -0.015675204 -0.0009116557 -0.001408246
0000a0 f8 2f b8 bb 30 e7 e9 bb c2 79 84 bc 49 21 17 3e
       -0.0056209527 -0.0071381554 -0.01617134 0.14758791
0000b0 f7 bb 7e be 9e f0 dd 39 e6 76 ba bb 5a 4c 90 3b
       -0.2487639 0.0004233168 -0.0056904433 0.004403633
0000c0 98 26 8f 3b 1c a2 97 bb f2 33 9f b9 56 fe 4e bc
       0.0043686144 -0.0046274792 -0.00030365546 -0.012633881
0000d0 02 02 80 3e 51 9f 41 3e 0f 17 51 ba 5b 1d 2c bc
       0.25001532 0.1890843 -0.0007976153 -0.010505046
0000e0 af 43 0e bc e6 ed 73 bb e7 ce 2e bb 80 db 1b bb
       -0.008683129 -0.0037220656 -0.0026673616 -0.0023781955
0000f0 d4 23 86 bb 2c e1 6d 3e bc 8b 50 3e c1 16 40 39
       -0.0040936265 0.23230428 0.20365804 0.00018319023
000100 55 c0 b7 39 f6 fb 2c 3a ba f4 0f 3a 75 d6 96 3a
       0.00035047779 0.00065988244 0.0005491484 0.0011508005
000110 17 34 ef b9 b9 e0 f0 ba f4 16 2d bd 12 6b c2 3d
       -0.00045624442 -0.001837752 -0.042258218 0.09493078
000120 21 b2 61 3a cd d5 15 bc d1 7e 01 3c 67 8c c7 3b
       0.0008609612 -0.009145212 0.007903771 0.0060897353
000130 16 df 34 bb f9 7f 14 bb 51 2f 63 bc 62 ed cc 3d
       -0.002759879 -0.0022659285 -0.013866262 0.10006215
000140 4a af 2f bd 4c fb a6 bb 78 f8 98 bd 52 df b1 bb
       -0.042891778 -0.005095875 -0.07469267 -0.005428233
000150 f6 33 4c bc e8 77 39 3c ee b8 24 3d 09 7f 2e bd
       -0.01246356 0.011320092 0.040215425 -0.04260162
000160 d2 a2 d4 3d 70 ce 7e be ff e4 79 b9 30 33 8f bc
       0.10382618 -0.24883437 -0.00023831798 -0.017480463
000170 df 19 16 bc d8 20 ef ba 63 33 68 bb f5 c0 b9 bb
       -0.009161442 -0.0018244041 -0.003543102 -0.005668754
000180 35 3b cb bc f8 7a 7c 3e 79 56 4d 3d 08 aa 0c b7
       -0.024808506 0.24656284 0.050131295 -8.384239e-06
000190 56 c1 9c 3b 4b 78 6d 3c 29 77 11 3c 94 df ca 3a
       0.0047837896 0.014494012 0.008878508 0.0015478008
0001a0 8b bd 9e 3b 10 c0 14 3c 2d 6f 05 bd 36 75 30 be
       0.0048443726 0.009078994 -0.03257673 -0.17232212
0001b0 74 93 54 bb b6 9e d2 bb 20 c3 58 bc c1 14 2a bc
       -0.0032436522 -0.006427611 -0.013230115 -0.010380925
0001c0 38 5b c5 b8 b5 84 94 bb ef 40 4c bc 46 41 db 3d
       -9.410683e-05 -0.0045324215 -0.012466653 0.10705809
0001d0 ba d5 69 be a6 28 97 3a 84 b3 a7 3c 23 4e ba 3b
       -0.22835436 0.00115325 0.020471342 0.005685584
0001e0 bb 57 81 ba 8a bf 03 3c 07 5a 73 3c 80 c9 55 3c
       -0.0009868065 0.008041272 0.014853007 0.01304853
0001f0 39 5d 75 3c 65 d2 ae 3d 90 42 fb bb bb 09 91 bc
       0.014975839 0.08536223 -0.007667847 -0.017704835
000200 1c 11 d5 bc 60 fd ca bc 87 75 bb 3b 26 3f 87 bc
       -0.026009135 -0.024779022 0.0057207975 -0.016509604
000210 ac de 9d bb aa 30 9e be 3d ef a0 be 2b a3 3e 3b
       -0.0048178043 -0.30896503 -0.31432524 0.0029088955
000220 02 0c 05 3d e6 aa 14 3d a6 f4 ac 3c b6 03 93 3b
       0.032482155 0.036295794 0.021112751 0.0044865264
000230 94 68 a8 3b da f0 a2 3c 6f 56 a5 bd e4 af 82 3e
       0.00513942 0.019890238 -0.080731265 0.2552482
000240 63 a1 96 3b e6 4b b9 3c d5 3c f5 bb 8c 85 3d 3b
       0.0045968755 0.022619199 -0.0074840584 0.0028918711
000250 48 ee 82 3a 85 cb 45 3b a3 fe 80 3c 94 e5 07 be
       0.0009989226 0.0030181122 0.01574642 -0.13271171
000260 f1 1c 77 bc 00 ab a8 3b d8 7b 84 bd d1 fa e6 3c
       -0.015082584 0.005147338 -0.06468934 0.02819577
000270 37 f8 c2 3c 48 9c d9 bb e7 74 e1 ba 7c 94 9e bd
       0.023799999 -0.0066409446 -0.0017200977 -0.07743165
000280 e4 9d f4 3d 47 f4 02 3d c8 9c e5 bb af bd 46 bd
       0.11944178 0.031971242 -0.007007215 -0.04852074
000290 f9 b9 97 bc f5 d3 9b bc cd 47 63 3c d4 af 02 3d
       -0.018521296 -0.019021967 0.013872099 0.031905964
0002a0 9d 70 b1 bc f3 57 0d bc 85 5e 36 bd 1e aa b8 bc
       -0.021660144 -0.008626926 -0.044523735 -0.022542056
0002b0 42 8f b4 3d 3d 33 49 bd 69 86 29 bd 7e 78 c9 3b
       0.08816387 -0.04912113 -0.04138795 0.006148397
0002c0 6d 06 b9 bc 75 f8 3d 3d e0 ca 0d 3d 5a ad 2b 3e
       -0.022586072 0.046379525 0.034617305 0.16765347
0002d0 ee e6 d9 3b 3e 2e 0c 3d d8 92 35 3d e5 4a 10 3d
       0.0066498434 0.034223787 0.044329494 0.035227675
0002e0 b2 14 81 3a d2 90 a6 3c dc 24 11 3d 9d bb 56 bd
       0.0009848087 0.020332728 0.035435542 -0.052425016
0002f0 20 fd 5c bd c2 09 66 3b df 9a 99 3d c7 7f 9b 3b
       -0.053952336 0.003510103 0.075002424 0.004745457
000300 0d 80 1e 3c f3 53 ac 3b c8 22 23 bc 16 de 4a 3d
       0.009674084 0.005259031 -0.009957023 0.049528204
000310 18 2b 8e be b9 06 99 be 70 8d 13 3b 06 b4 79 bd
       -0.27767253 -0.2988794 0.0022514723 -0.0609627
000320 78 89 5c 3c 00 5a 81 3c a9 b4 51 bc cd 13 be bc
       0.0134605095 0.015789986 -0.01279942 -0.023202801
000330 05 3c 22 bd eb 96 05 3e aa 8a a5 3e b3 f8 a1 3c
       -0.03960802 0.13045852 0.32332355 0.01977191
000340 65 9f 14 bd 31 b0 99 3c d6 b4 c1 3c 0e 5f 21 bc
       -0.036284823 0.018760772 0.0236458 -0.009849323
000350 9a e9 bd 3c 7e 56 8b bd a6 e4 9c be 98 65 5e 3e
       0.023182679 -0.068036065 -0.30643195 0.21718442
000360 7f 27 9c 3c 58 3d b2 3d 2e f1 77 3d bc 43 3e 3d
       0.019061802 0.08703107 0.06053274 0.046451315
000370 76 05 c2 3b 60 8b 51 3c 1c 6c 55 3d 82 ae 45 3e
       0.005921061 0.012789577 0.052105054 0.1930485
000380 5f d9 91 be a5 20 3c b9 dc ee 97 bc 25 95 48 3b
       -0.28486153 -0.00017941238 -0.018546514 0.0030606475
000390 e3 84 2a 3b fd 11 4c bc 86 28 c2 3c 67 a4 89 3a
       0.0026019148 -0.012455461 0.023700964 0.0010501266
0003a0 8b df 88 be bc e5 74 bb f6 0f 84 3c 81 7e 87 bd
       -0.2673305 -0.0037368378 0.016120892 -0.066159256
0003b0 40 4d e0 3c 78 b2 d3 3c fb 45 84 bb 14 c3 9a 39
       0.027380586 0.025841936 -0.0040366626 0.00029518513
0003c0 a8 6d 93 bd 01 ec 83 be 5f be 8b bb
       -0.0719865 -0.25765994 -0.0042646374

GRU_Sigma.bias_ih_l0 f4 [27]
000000 1b df f3 bd e3 f3 da bd 17 0e 96 be 87 d5 17 3e
       -0.11907788 -0.10691049 -0.29307625 0.14827548
000010 5e 0f 84 3d 36 be 17 3d 03 26 22 3e 7a fd 0d be
       0.064482436 0.037046634 0.15834813 -0.13866225
000020 a5 8e c2 bd 2f f0 e7 bd 6e c8 9e be 5c 8b e5 3d
       -0.094998635 -0.11325108 -0.3101229 0.11208221
000030 8d 98 5d 3e e4 ff 61 be 26 e7 6d 3d 00 73 0e be
       0.21640225 -0.22070271 0.05808177 -0.13911057
000040 db 1d 22 bd 28 70 96 bd c4 89 9a be c2 cf de bd
       -0.039579254 -0.07345611 -0.30183232 -0.108794704
000050 04 91 6a be f8 c9 e0 3d ab b1 9c 3e 9e 12 ad 3d
       -0.22906882 0.109760225 0.306043 0.084508166
000060 63 72 9a be 71 d1 52 3e ea 8c 82 be
       -0.30165395 0.20587708 -0.25498134

GRU_Sigma.bias_hh_l0 f4 [27]
000000 ee e2 0c be 6d 62 e7 3d c3 05 61 be 34 e2 42 be
       -0.13758442 0.1129807 -0.21974854 -0.19031602
000010 d4 fc 64 3e e0 29 8b 3e b6 1c ff bc 5e d3 c0 3d
       0.22362071 0.27180386 -0.03114162 0.09415315
000020 7e 46 46 3e 95 d2 d9 bd 7a 10 be 3c 77 09 9e 3e
       0.19362828 -0.106358685 0.023201216 0.30866596
000030 55 c7 70 be 07 f6 57 bd 80 0c 15 3e c3 1c 8b bd
       -0.23513539 -0.052724864 0.1455555 -0.06792595
000040 70 e0 4b 3e af 4c 2e 3e 6a d7 6e be 14 a2 7f 3e
       0.19909835 0.1702144 -0.23324361 0.24964172
000050 6d 9c 90 3e b1 cc 98 be 11 b6 98 3e de cf 85 3e
       0.28244343 -0.29843667 0.29826406 0.26135153
000060 83 02 8e be 64 de 37 3e de eb a4 3e
       -0.2773629 0.17955929 0.32211202

GRU_S.weight_ih_l0 f4 [27, 39]
000000 10 e5 3a 33 eb 7a 09 be 08 85 ce bd 60 30 7f 3b
       4.351483e-08 -0.13425796 -0.100839674 0.0038938746
000010 bf 7c 38 bb 2b 17 c1 3c 37 48 87 3b 1d dc 41 3d
       -0.0028150526 0.023570618 0.0041284817 0.047329057
000020 92 e6 a5 38 30 55 bc bd db f8 0f 3e 9a de d9 bd
       7.91076e-05 -0.09195936 0.14059775 -0.10638161
000030 7f 31 c3 bd 3f f3 27 3d fd 33 dd 3c ec 2b a7 bc
       -0.09530925 0.041003462 0.027002329 -0.020406686
000040 71 7f 85 be 0c f9 8f bc d7 8c 13 3e 91 0b 25 bd
       -0.26073793 -0.01757481 0.14409195 -0.040294234
000050 16 08 04 3d 73 c9 4c 3e 4a fb 16 bd 51 cd 1b 3e
       0.032234274 0.19998722 -0.03686074 0.1521504
000060 47 93 0b 3c 5f 84 84 3a fd 11 11 be 58 45 e4 3b
       0.008519 0.001011025 -0.14167018 0.006966274
000070 00 11 1b bd 19 24 54 be 2e e3 95 3d 24 53 86 ba
       -0.03785801 -0.20716895 0.07318722 -0.0010248167
000080 75 e7 d7 bd 99 74 8c bd bc 44 9c bc 86 73 ce 3c
       -0.10542194 -0.06858177 -0.019075744 0.02520157
000090 a8 a1 1b bc c0 60 2f 3e 55 c8 cc bd 8c b1 e1 b1
       -0.009498991 0.17126751 -0.09999148 -6.5685466e-09
0000a0 16 31 5b 3d e8 94 e2 bd 65 a2 a6 3d c2 46 42 ba
       0.05351361 -0.11063558 0.08136443 -0.00074110564
0000b0 d8 c2 5a 3e 3b da 85 3b 2a ec f1 bd 1f ae f7 3a
       0.2136339 0.004084853 -0.11812623 0.0018896497
0000c0 8e 09 e2 3c 9a d7 71 bd 71 71 cd 3d f6 fc b5 bd
       0.027592447 -0.059043504 0.10031403 -0.08886139
0000d0 93 27 53 bb 4f af a9 bd c9 4b b8 bb aa ff 3c 3d
       -0.0032219633 -0.082853906 -0.0056242687 0.046142258
0000e0 bd 43 af bd 3d f6 30 bd c5 f7 99 3d db 69 6b 3e
       -0.08557842 -0.04320358 0.075179614 0.229896
0000f0 48 6d 48 bc db d2 0b 3e 65 e7 ca ba e8 32 9a bb
       -0.012233086 0.13654654 -0.0015480338 -0.0047057755
000100 96 c4 04 3d d8 d7 b3 bd b1 e8 9b 3c 88 db c2 bb
       0.03241404 -0.08781403 0.019031854 -0.0059465803
000110 d6 ed 91 3e 56 52 73 3e dd 3a 48 ba 75 02 82 3d
       0.28501767 0.23761877 -0.0007638166 0.06348125
000120 53 ff 2d bd 6a 5e a5 bb 6f 66 52 bb 2f e9 15 bc
       -0.042479824 -0.0050466554 -0.0032104512 -0.009149834
000130 d7 58 39 3d 76 1c fa bc d2 de 02 33 63 0b 22 bd
       0.04525074 -0.03053115 3.0470638e-08 -0.03956164
000140 18 a6 17 be b5 9c 08 be 19 15 0c 3d 7d f2 62 be
       -0.14809453 -0.13341029 0.034199808 -0.22162814
000150 a7 59 82 3d 93 4f 4e be 0e 93 66 39 75 fd 4f be
       0.06364756 -0.20147543 0.00021989291 -0.2031153
000160 b8 e3 26 be 51 57 9c 3d 08 fb 86 be 22 3d 35 be
       -0.16297805 0.07633842 -0.26363397 -0.17699102
000170 a4 b3 9a 3d 79 9f 6f 3d 41 3b 1f 3e 7b 89 91 3d
       0.07553795 0.058501694 0.15549947 0.071063004
000180 7c 6c 05 3e be 89 8a 3d 46 89 7e 3a 8b 61 eb bc
       0.13029665 0.067645535 0.00097097864 -0.028733036
000190 3e 9b 86 3e cc 7d 16 bd 79 38 2e 3e bb 45 36 3e
       0.26290315 -0.036741063 0.1701373 0.17800038
0001a0 39 44 68 3e 61 e8 fc 3c 0c d0 83 3e f5 0d 8f 3e
       0.22682275 0.030872526 0.25744665 0.27940336
0001b0 a4 9b 23 be c5 81 b6 3a bd a9 88 3e 4b 2f 04 be
       -0.15977341 0.0013924172 0.26692 -0.12908666
0001c0 29 4f 2b bd 90 9e 4b 3c ec 48 09 3c 23 72 38 3e
       -0.04182354 0.012427941 0.008379202 0.1801229
0001d0 98 19 8d 3e f8 a8 d6 b2 99 f6 dd bd 95 d5 4a bd
       0.2755859 -2.4989717e-08 -0.108380504 -0.049520094
0001e0 19 4e 10 bc 59 9d 06 bb bd 50 a1 bd 53 8e d3 ba
       -0.008807682 -0.0020540564 -0.07876728 -0.0016140438
0001f0 14 6c 49 3c bd 43 14 39 59 40 28 3b 55 b5 d3 bd
       0.012293834 0.00014139614 0.002567312 -0.10337321
000200 5f 36 96 3c 9b 2e b4 b9 1e 1f aa bc 50 13 05 3a
       0.018336473 -0.00034367 -0.020766791 0.0005076425
000210 ec 36 78 ba 07 5e df bc 79 14 c4 bc 6b e1 56 bc
       -0.0009468633 -0.027266515 -0.023935543 -0.013115267
000220 cf 3b 39 3b 56 c6 b3 bb c8 25 3a bc 1b 53 90 ba
       0.0028264408 -0.00548629 -0.011361547 -0.0011011095
000230 d9 02 13 3e 9e 60 43 bb 71 bf 83 bb 34 82 b0 bc
       0.14356555 -0.0029812227 -0.0040206243 -0.02154646
000240 8d 7e 98 3a a3 7b 92 bc 5e 3e 89 3d a3 e7 00 bd
       0.0011634395 -0.01788122 0.06701349 -0.031470906
000250 61 d2 9d ba a6 9d 8f 3d 00 03 20 bd c4 8c 48 bc
       -0.0012040847 0.07012491 -0.03906536 -0.012240592
000260 f9 a5 a7 ba 9d 15 5b bb dc 51 f9 bd 1d 38 0f 3d
       -0.0012790553 -0.003342963 -0.121738166 0.034965623
000270 06 47 a4 33 2f 06 49 bd 77 20 1c 3e 8f b4 6c 3c
       7.649764e-08 -0.049078163 0.1524676 0.014447345
000280 8d d3 80 3d 9c c7 40 3e 94 5f a3 bc 5a 7f 5b 3e
       0.0629035 0.18826145 -0.019943036 0.214353
000290 24 2a cd ba 72 dc 03 3e b7 f6 26 3e 16 d8 90 be
       -0.0015652818 0.12877062 0.16305052 -0.2828986
0002a0 00 a0 60 be 02 af 82 bc c6 d7 5d 3d 1a 3e c3 3c
       -0.21936035 -0.01595259 0.054160856 0.023833323
0002b0 b6 50 94 3e f2 46 47 be 2d 2c 59 3d ab ac 80 3d
       0.28967828 -0.19460657 0.053020645 0.06282934
0002c0 be 7d 6e bd 71 27 91 3e c5 ce 58 be 16 c5 5b 3d
       -0.058225386 0.28350404 -0.21172626 0.053654753
0002d0 fa e5 2c bd 19 ec 68 be bb 87 40 be c1 c6 00 3d
       -0.04221151 -0.22746314 -0.18801777 0.031439546
0002e0 a3 e5 28 3e 0d 64 39 3e 68 7f 0f be fb f9 d2 3d
       0.1649385 0.18104573 -0.14013445 0.10301586
0002f0 9f 6c 94 be 59 3b 82 3e dd 8b 5a 3e 64 75 12 bd
       -0.2898912 0.25435904 0.21342416 -0.035756484
000300 73 01 63 3d 5d 7d 80 3e 2d f4 96 3e f8 cc ec 32
       0.055421304 0.25095645 0.29483166 2.7567225e-08
000310 14 f4 fe bd 95 08 13 be bd 8f c0 bc 41 f0 2a 3c
       -0.12448898 -0.14358743 -0.02350604 0.010433258
000320 b0 e8 ff bd e0 a3 1b 3c cc 11 df bd 73 09 c7 39
       -0.124955535 0.00949952 -0.10892066 0.00037963278
000330 9e 22 81 bd ee 2d 71 3e ba db 5d 3e 7a b1 c2 3d
       -0.06305431 0.23552677 0.2166585 0.09506507
000340 71 1c 1e be a2 a7 52 3b 4d 1b 86 39 88 28 22 be
       -0.15440537 0.0032143374 0.00025578812 -0.15835774
000350 d6 4f dc 3d d6 e9 05 3e d3 b9 81 bd 1c b1 17 3e
       0.10757415 0.13077483 -0.06334271 0.14813656
000360 0b 9c 29 3d 0c 0f 73 bd 92 7a 82 3e 31 79 ca 3d
       0.04140858 -0.05934052 0.2548414 0.09886397
000370 a0 7c 17 be 0c 01 9d 3c d4 29 a6 bc 67 2b 10 be
       -0.14793634 0.019165538 -0.020283617 -0.14079057
000380 c3 d6 89 be 34 43 c3 3d 50 6e e0 bb 46 22 68 be
       -0.26921663 0.09534302 -0.006849088 -0.22669324
000390 b6 7d 32 be b0 b1 21 3c 4d 82 38 bb b2 4f f0 bb
       -0.17430767 0.009869024 -0.0028153837 -0.007333719
0003a0 47 e5 54 be 19 fb 5e be 48 b5 7f 32 ff 20 14 bd
       -0.20790587 -0.21775474 1.4884172e-08 -0.03616428
0003b0 b8 4b 88 bd 3d b1 f6 bc d0 7b 8b bb fb 9f 98 bb
       -0.06655067 -0.03011381 -0.004256703 -0.004657743
0003c0 3b b3 1e 3b 26 cc 18 3b f4 e2 ce b8 72 31 45 bd
       0.0024215716 0.0023315041 -9.865119e-05 -0.048142858
0003d0 13 8d 9d bd 7d 58 dc 3b 84 b6 0d bc ca 7a 6d bd
       -0.076929234 0.006724416 -0.008649472 -0.05797843
0003e0 56 bc 91 3a 53 e1 15 3a 65 67 8e 3d a7 41 a2 3c
       0.001111875 0.0005717475 0.06953315 0.019806696
0003f0 60 53 cd bd 5b 03 4d bb 4b 83 10 bc 28 de d9 3d
       -0.10025668 -0.0031282518 -0.008820365 0.10638076

GRU_S.weight_hh_l0 f4 [27, 9]
000000 df dd 0f bd 17 70 4d bd cd 49 33 3c cf 0e e7 bd
       -0.035123702 -0.050155725 0.010942888 -0.112821214
000010 ea 7a b0 bd 39 37 ab bd b4 8f 4c bd 68 66 c8 bd
       -0.08617194 -0.08360142 -0.049941733 -0.097851574
000020 29 4c f7 3d 09 bd c2 3d b4 80 bf bd d1 84 c1 3d
       0.12075073 0.09508712 -0.0935072 0.09449161
000030 f5 97 71 be 50 2b 3d be 0d 77 36 3e cd 72 f7 3d
       -0.23593123 -0.18473554 0.17818852 0.120824434
000040 d6 6e 86 3d ed f2 bc bd 46 01 98 bb ff bf 2d 3d
       0.06564109 -0.09226022 -0.0046388237 0.04241943
000050 b1 31 26 3e 2c 45 2c bb 14 39 92 bd 56 aa 0e 3b
       0.16229893 -0.0026286347 -0.07139793 0.0021769009
000060 30 42 1f be dd 4e 70 be d1 c2 29 3e 72 86 6c 3b
       -0.15552592 -0.23467584 0.16578223 0.0036090878
000070 f5 18 96 3d 74 3c db 3b 07 c5 e1 bd 19 1b 28 3d
       0.07328979 0.006690556 -0.11023908 0.041041467
000080 1d 46 a9 bd e5 d6 c4 3c 94 bb 46 b7 3d 13 31 bd
       -0.08265326 0.024028251 -1.1845394e-05 -0.043231238
000090 2a f3 5c be 32 92 74 be 40 2d 18 3e af d3 aa be
       -0.21577135 -0.23883894 0.14861012 -0.33364627
0000a0 68 df 56 3e b8 d5 df bd a8 9c df bd 7b 2a 71 bb
       0.2098366 -0.109294355 -0.10918552 -0.0036799002
0000b0 11 f3 83 3e 26 3c 1e bb fa 3d f6 bc cc 47 da 39
       0.25771382 -0.0024144738 -0.03005885 0.00041633693
0000c0 4e b1 b7 bd e9 88 01 3e fc f3 85 be a2 aa 8d be
       -0.08969365 0.12649883 -0.26162708 -0.27669245
0000d0 94 5c 06 be dd ad 24 3d f7 db b1 bd 7c e9 c9 3d
       -0.13121253 0.04020487 -0.08684533 0.09858987
0000e0 bb 44 4d 3b 7f f1 b6 3d ec 36 b5 3c 13 17 28 be
       0.0031321484 0.089327805 0.022120915 -0.16415052
0000f0 f4 f5 8d 3d 96 63 ac bc 64 e3 fd bd 5e 61 2a be
       0.069316775 -0.02104358 -0.12396887 -0.16638705
000100 93 da 8c 3e 39 b5 b0 bc 34 9a 8a be 15 2c 70 3e
       0.2751051 -0.021570789 -0.27070773 0.23454316
000110 18 a5 65 3e 51 d3 2d be 07 d2 c8 bc 5b 5d 78 be
       0.2242626 -0.16975142 -0.024514211 -0.24254362
000120 03 e7 49 bc 80 71 15 be 21 8d 00 be 46 dc 25 be
       -0.012323144 -0.14594078 -0.12553836 -0.16197309
000130 50 38 80 3e 24 f0 0c bd e5 b8 93 be 47 21 09 be
       0.25042963 -0.034408703 -0.28852 -0.133916
000140 35 81 f3 bd c9 48 92 be 64 39 0d be 9e 22 cd bb
       -0.11889879 -0.28571156 -0.13791424 -0.00626023
000150 be 3c bf be fd de f6 bd 64 d7 a2 3e c3 0d 04 3e
       -0.3735103 -0.120542504 0.31804955 0.12895875
000160 61 b5 02 be da 2f 43 bd 1a 3f 92 bd f9 5c 41 3e
       -0.12764503 -0.047653057 -0.07140942 0.18883123
000170 0e 3a 90 3c 67 f7 02 3e d3 53 29 be 50 d4 b6 bd
       0.017605808 0.12789689 -0.16535883 -0.08927214
000180 b1 1d 93 3d 10 26 57 ba 6e 0c 4e 3e 26 28 0c be
       0.071833976 -0.0008207271 0.20121929 -0.1368719
000190 bc d0 35 be bb a3 44 bd 4a 9f bf bb 99 37 2b be
       -0.17755407 -0.048007708 -0.005847846 -0.16720428
0001a0 5d d8 bb 3e 4b 21 db bc 37 8e 01 be e6 6e 3e be
       0.3668851 -0.026749274 -0.12651907 -0.18596992
0001b0 0b 0f 38 3e 53 27 22 3e 5e fe ad 3c 31 10 af bd
       0.17974488 0.15835313 0.021239456 -0.0854801
0001c0 82 23 ba bd fc 5d 3b 3e 41 0e 69 3e f4 26 86 bc
       -0.09088804 0.18297571 0.22759344 -0.016375996
0001d0 d0 ae 0d bd 81 98 81 be c3 d4 6c 3d 3a 90 c7 3d
       -0.034590542 -0.25311664 0.057820093 0.09744306
0001e0 c3 2f 99 bb 13 e2 07 bd 23 32 ee bd e0 c0 ef bd
       -0.004674883 -0.033174586 -0.116306566 -0.1170671
0001f0 d0 c7 09 be 2d 58 a4 be d3 f8 db 3d 71 47 1e 3e
       -0.13455129 -0.32098523 0.10740819 0.1545694
000200 b9 00 2e 3c c2 13 c7 3d 71 7f 42 be b8 2a 7f 3e
       0.0106202895 0.097205654 -0.18993928 0.2491864
000210 b9 76 3a be dc 75 1c 3e f6 cc 80 bd fa 3b ff 3d
       -0.18209352 0.15279335 -0.06289093 0.124626115
000220 8c 36 16 3e 89 23 04 3d c2 19 ff 3d 1b ec b0 bd
       0.14669245 0.03226045 0.12456085 -0.086387835
000230 c5 75 28 be 21 4e 11 3e 3f 12 14 3e 65 d4 bc 3c
       -0.16451176 0.1418996 0.14460085 0.023050496
000240 7a 3c 4c be 1b e9 5c bd 2d 9a 31 3d 83 cc 92 be
       -0.19944945 -0.053933244 0.043359924 -0.28671655
000250 cb d6 6a be 82 65 65 be ca a8 15 be dd 00 c6 3d
       -0.229335 -0.22402003 -0.14615169 0.096681334
000260 b5 3c 84 3d 8a 7a 55 3d 1f e6 11 be a7 05 80 bd
       0.064568914 0.052118815 -0.1424794 -0.06251078
000270 d8 56 ec bd f4 32 c6 bd f7 6e e9 3d 87 d6 4d be
       -0.11540002 -0.09677687 0.11398118 -0.20101367
000280 f7 c2 64 bd 77 a9 b1 bd b5 06 e1 3d 93 2c 8d bd
       -0.055849995 -0.08674901 0.109876074 -0.068932675
000290 b9 9a 1e be d7 a3 04 3e e4 a3 85 be 92 38 39 3e
       -0.1548871 0.12953125 -0.261016 0.18087986
0002a0 a8 30 fe 3d db df 4a 3e 03 41 99 3e e2 b4 91 be
       0.12411624 0.19811957 0.29932413 -0.28458315
0002b0 63 d7 9f 3c f3 42 6e 3d 4b 77 a1 3e 80 fd b0 3d
       0.019511884 0.058169317 0.31536326 0.08642101
0002c0 54 b5 8e be 09 2d 88 be ce 83 b5 3d 7e 85 91 3e
       -0.27872717 -0.2659686 0.088630304 0.2842216
0002d0 ca a5 7c be db ce 0f be 8a 94 60 3e 8a d8 54 be
       -0.24672619 -0.14043753 0.21931663 -0.20785728
0002e0 8b b4 00 be 94 9b bb bd 3d d3 1e 3e 5d 3c 07 be
       -0.12568872 -0.091605335 0.15510269 -0.1320662
0002f0 99 33 1e be ba 51 99 bd 06 55 d1 3d 62 13 93 bc
       -0.1544937 -0.07486291 0.10221295 -0.017953578
000300 d1 e6 d4 3a 2b 83 c3 3d eb 6d 85 3e cb 2a cf bd
       0.0016243105 0.09546503 0.26060423 -0.10115584
000310 75 77 0e be 7b ed 6f 3e 1a b9 56 be a2 46 37 3e
       -0.13912757 0.23430435 -0.20969048 0.17898038
000320 0c 4f 86 3d 3b 32 86 3e 91 f7 4f bd e4 15 85 be
       0.06558046 0.26210198 -0.050773207 -0.25993264
000330 32 4e a6 3e bf 44 d6 bc be 21 0e 3e df af 93 be
       0.32481533 -0.026155828 0.13880059 -0.28845116
000340 cb 2c 90 3e f1 6a 18 be 30 62 ad bd 57 32 50 be
       0.28159174 -0.14884545 -0.084659934 -0.20331703
000350 cf 92 7d 3e a5 e3 47 be 15 87 95 be 04 a6 10 be
       0.24763034 -0.19520433 -0.29204622 -0.1412583
000360 dd f0 e3 bd 31 81 e3 3c 43 ff 18 be 98 02 a2 3e
       -0.111299254 0.027771564 -0.14941125 0.31642604
000370 b8 dc 47 bd f7 ff 91 bd 29 20 9a 3d 9c 54 24 3d
       -0.04879448 -0.071288995 0.07525665 0.040119752
000380 98 bf 19 3e b1 e8 52 be 87 b5 9b 3e a8 3d a4 be
       0.15014493 -0.20596577 0.30411932 -0.3207829
000390 e1 49 22 be 5b de aa bd 64 cf 5c 3d 86 30 dc 3d
       -0.15848495 -0.08343192 0.05390872 0.107514426
0003a0 a2 93 98 bc 3f fb aa bd e8 20 f9 bd d5 49 11 be
       -0.018625084 -0.08348703 -0.121644795 -0.14188321
0003b0 7c a1 86 3d d2 64 a8 be 90 58 89 3e 64 9f 09 be
       0.065737695 -0.3288942 0.2682538 -0.13439709
0003c0 5b 15 a3 be 66 a4 81 3d 94 15 89 be
       -0.3185223 0.06330185 -0.26774275

GRU_S.bias_ih_l0 f4 [27]
000000 52 19 81 3e f3 d0 87 be a4 63 93 bd a5 f6 0e 3e
       0.2521463 -0.26526603 -0.07196739 0.13961275
000010 54 39 85 be 37 73 9e be 04 c4 44 bd 75 9c e1 3a
       -0.260203 -0.30947277 -0.048038498 0.0017212766
000020 ce 4d 4a 3e d1 c6 c2 3e 02 d7 a3 3e 16 a1 5d bd
       0.19756243 0.3804231 0.31999975 -0.0541087
000030 1b d9 8c be db 67 ec bd 28 2f c7 bd 03 e7 90 bd
       -0.27509388 -0.11543246 -0.09725791 -0.07075312
000040 25 28 a3 3e 59 12 b4 bd fe b0 44 3c 52 7e 13 be
       0.31866565 -0.08792562 0.012005089 -0.14403656
000050 24 f2 0f bd ce ec 89 be 0f 10 53 3d 43 86 37 3e
       -0.035143033 -0.2693848 0.051528987 0.1792231
000060 32 5a 9b be 2e a6 69 be 93 28 99 be
       -0.3034225 -0.22817299 -0.29913768

GRU_S.bias_hh_l0 f4 [27]
000000 d5 18 28 be 8d 2d 83 3e 48 eb 2a be 9f ad af 3b
       -0.16415723 0.2562069 -0.16691315 0.0053612734
000010 d8 79 df bb 19 05 1f be bd 76 3b 3e e7 18 c7 bd
       -0.006819945 -0.15529288 0.18307014 -0.097215466
000020 af c1 1a 3d a5 85 46 be 45 72 69 be eb c1 bb 3d
       0.037782367 -0.19386919 -0.22797497 0.09167846
000030 72 6b 72 3e 91 f6 11 bd 71 48 5c be 20 05 73 be
       0.236738 -0.035635535 -0.21512009 -0.23732424
000040 c3 26 71 3e 39 9d 2b bc 8a 3e a9 bd 54 3b cd 3d
       0.23549943 -0.0104744965 -0.082638815 0.100210816
000050 3a 75 90 3d 62 03 18 bd cc a0 2e 3d f0 c7 fd bd
       0.07053609 -0.0371126 0.042633817 -0.12391651
000060 9e c3 8a 3e 4e 3b ae 3e da 35 d9 3d
       0.2710237 0.3402962 0.106059745

FC1.0.weight f4 [9, 9]
000000 db 4e 8f 34 98 94 21 31 22 54 08 b2 00 c0 92 31
       2.66932e-07 2.351305e-09 -7.9353715e-09 4.270987e-09
000010 8b c4 7c b4 a4 d8 06 34 00 e5 80 b2 50 fd d4 34
       -2.3540831e-07 1.2558536e-07 -1.5005298e-08 3.9672386e-07
000020 a0 5c 8c b4 b7 3d 18 be bf 32 5e 3e 4d 4e 92 be
       -2.6144426e-07 -0.14867292 0.21699046 -0.28575364
000030 71 87 6b 3e 42 6c 99 be 50 cb 43 3c d6 3f 98 be
       0.23000886 -0.29965407 0.011950329 -0.29736203
000040 02 ab e9 bd 9e 0b 84 bc 46 69 5c 3e f9 c1 ab be
       -0.1140957 -0.01611882 0.21524534 -0.33546427
000050 70 ee a9 3d 39 a3 93 3d 65 2b 33 3e 0d 4f 2a be
       0.082974315 0.072088666 0.17497022 -0.16631718
000060 5a 62 5c be db d5 31 3e 05 f3 2c be 2b a0 0a 3e
       -0.21521893 0.17366736 -0.1688958 0.13537662
000070 5f 45 7e bd 4d 54 a3 3d fc 98 9a be c0 66 29 3e
       -0.062077876 0.079750635 -0.30194843 0.16543102
000080 26 3c 3f be 8e 4d 26 3e 5e 1c 03 be 1c 9c 40 3e
       -0.18675289 0.16240522 -0.1280379 0.18809551
000090 e2 3b 94 3e 93 d9 8e be da 52 d5 3c 5f 3b d1 be
       0.28951937 -0.2790037 0.026040483 -0.4086561
0000a0 42 f3 12 be 03 ea 2d 3e e6 21 84 be 8e 5b 4a 3e
       -0.14350608 0.169838 -0.25807112 0.19761488
0000b0 8c 73 d5 3d f0 a2 80 be 5c ba 9f 3e 3e 25 02 be
       0.104224294 -0.2512431 0.31196868 -0.1270952
0000c0 ff b1 69 3e a5 65 9d be 3c 74 f1 bc e9 88 24 be
       0.22821806 -0.3074161 -0.02947437 -0.16067852
0000d0 cb 20 2a bd 02 d9 f8 bd 54 57 de 3c 7a 2e 7a 3e
       -0.04153518 -0.12150766 0.02714125 0.24431792
0000e0 04 b8 46 be d3 f5 a1 3c c0 5d 53 be 6d c0 59 3d
       -0.19406134 0.019770538 -0.20641232 0.053162027
0000f0 3a 35 c9 3d ce f1 63 be 3f 36 a3 3e 3a 1c 9c be
       0.09824605 -0.2226021 0.31877324 -0.30490285
000100 a6 b4 13 be 9b 56 54 3e 1a c5 4c 3e e9 80 08 3e
       -0.1442438 0.20736162 0.19997063 0.13330425
000110 69 f5 35 3e 5a 16 01 be db b7 9d be 3e c2 30 3e
       0.17769398 -0.12606183 -0.30804333 0.17261598
000120 4c f5 4b 3b 77 fa 18 bb 2f 94 af 3a 47 f3 3b 3a
       0.003112155 -0.0023342648 0.0013395603 0.0007169735
000130 4d 93 41 bb 61 39 be ba 9e bc 81 3a 2a ad 35 bb
       -0.002953726 -0.001451295 0.0009898131 -0.0027721622
000140 27 1f 0b bb
       -0.0021228285

FC1.0.bias f4 [9]
000000 ce 52 90 b9 2b bf a7 3e 91 f7 78 3e 41 aa 6d 3e
       -0.00027527515 0.32763037 0.24313189 0.23209478
000010 69 f3 b8 3d f8 93 90 3e 5f 10 2d 3d ae d0 df 3d
       0.09030802 0.2823789 0.04225194 0.10928474
000020 63 b6 95 bb
       -0.0045688613
