RTSNet/checkpoints/Linear/linearCA/unknownInit/CA_trainP.pt (torch, 136147 bytes, 64 tensors)

weight_ih_l0 f4 [27, 15]
0	0x3e6e683b	0.23281948
1	0x3d86d544	0.06583646
2	0xbe9b2b30	-0.30306387
3	0xbdb4ee80	-0.08834553
4	0x3df44293	0.119267605
5	0xbdcb3518	-0.09922236
6	0xbe35deda	-0.17760792
7	0xbdf2eea6	-0.11861925
8	0x3e87b2e6	0.26503676
9	0x3d437e8d	0.04772811
10	0xbe943a96	-0.28950948
11	0xbe338bc7	-0.1753379
12	0xbd0ea7ff	-0.034828182
13	0xbe94245c	-0.2893399
14	0x3c96467e	0.01834416
15	0xbe9e21be	-0.30885118
16	0xbe2dda77	-0.16977869
17	0xbc4d019c	-0.012512591
18	0x3e808e1c	0.2510842
19	0x3e4195f8	0.18904865
20	0x3df2ae87	0.11849695
21	0xbdb096c1	-0.08622504
22	0x3ea0fec2	0.31444365
23	0x3cc3bd0e	0.02389386
24	0xbde5bc28	-0.112175286
25	0xbcde2f30	-0.02712211
26	0x3d08d1c8	0.033403188
27	0xbd888ef2	-0.0666789
28	0xbdf8ce19	-0.12148685
29	0xbe0859bf	-0.13315485
30	0xbdd7469a	-0.10511513
31	0x3c969b4b	0.018384596
32	0xbe1394fa	-0.14412299
33	0x3e391e67	0.18078004
34	0x3e0e7576	0.13911995
35	0x3e66e64d	0.2254879
36	0xbe807fc2	-0.2509747
37	0xbdc7ddba	-0.09759088
38	0x3dc13102	0.094331756
39	0x3e96400e	0.29345745
40	0xbe560fc9	-0.20904459
41	0x3e874d77	0.26426288
42	0xbcb93f77	-0.02261327
43	0xbd949502	-0.072549835
44	0xbe89fdf8	-0.26951575
45	0xbe0176ef	-0.12643026
46	0x3e7ca44f	0.24672054
47	0xbda8dd6c	-0.08245358
48	0xbcf2eb34	-0.02965317
49	0xbe61042d	-0.21974249
50	0xbe278e00	-0.16362762
51	0x3e99936a	0.2999528
52	0xbe6c742e	-0.23091194
53	0x3db9ec6d	0.09078298
54	0x3e8474cc	0.2587036
55	0x3e57f007	0.21087657
56	0x3d022601	0.031774525
57	0xbe5b5ca9	-0.21422066
58	0x3e875915	0.26435152
59	0x3ea1b6a7	0.31584665
60	0x3d8d1cff	0.06890296
61	0x3dbfa25d	0.0935714
62	0x3e4bdaaa	0.19907632
63	0xbe819c48	-0.25314546
64	0x3e8bf9fe	0.27339166
65	0xbdbb7812	-0.09153761
66	0x3e4a6357	0.19764458
67	0x3e020338	0.1269654
68	0x3e8fb1f0	0.28065443
69	0x3e93c5ee	0.28861946
70	0xbd0e5037	-0.034744468
71	0x3d90d32c	0.07071528
72	0x3e8cde2c	0.27513254
73	0xbd76ea18	-0.060281843
74	0x3e9c830d	0.30568734
75	0x3e950d08	0.29111505
76	0xbd204dd5	-0.039136726
77	0xbe9af412	-0.30264336
78	0x3e223081	0.15838815
79	0x3e3c47cf	0.18386768
80	0x3e90d8b1	0.28290322
81	0x3e856066	0.2605011
82	0xbe4611ea	-0.19342771
83	0xbe9a6ebc	-0.3016261
84	0x3e85b45b	0.26114163
85	0x3cf6af9f	0.03011304
86	0xbb0aae2f	-0.002116095
87	0x3cc447cf	0.023960022
88	0xbe1a36fc	-0.15060037
89	0x3e878528	0.26468778
90	0xbd428be3	-0.047496688
91	0xbda34078	-0.07971281
92	0x3e9c4113	0.30518398
93	0x3e006e37	0.12542044
94	0xbe1f1147	-0.15533935
95	0x3e5f7f07	0.21825801
96	0xbe1bddc4	-0.15221316
97	0xbe223b78	-0.15842998
98	0xbe04c8d5	-0.12967236
99	0x3ea786de	0.32720083
100	0x3dde4c03	0.10854342
101	0x3e20a225	0.15686853
102	0x3da81d1e	0.08208679
103	0x3b9d6b28	0.004804034
104	0xbd0e8304	-0.034792915
105	0x3d924a13	0.07143035
106	0x3e895fc3	0.26830873
107	0x3ea35b9f	0.3190584
108	0x3dba9bd6	0.091117546
109	0xbe66fc3f	-0.22557162
110	0x3e5161ea	0.20447508
111	0xbca2c850	-0.019870907
112	0x3e1175cb	0.1420509
113	0x3dbfe30a	0.09369476
114	0xbe9b525f	-0.30336282
115	0xbb355971	-0.002767172
116	0x3ded8959	0.115984626
117	0x3dde662e	0.10859333
118	0x3c06deb9	0.008231812
119	0x3e5c1d7d	0.21495624
120	0xbea57cb4	-0.32321703
121	0xbea2287e	-0.31671518
122	0x3ea6f0de	0.32605642
123	0xbe191120	-0.14947939
124	0xbe946822	-0.28985697
125	0x3e49f77a	0.19723311
126	0xbe9c3755	-0.30510965
127	0xbe7d1485	-0.24714859
128	0x3e4769c5	0.19473942
129	0xbe5f9ad3	-0.21836405
130	0x3cef835f	0.029237447
131	0xbe46a091	-0.19397189
132	0x3e1809e8	0.14847529
133	0xbe148b36	-0.1450623
134	0xbe5f225b	-0.2179045
135	0xbd694b07	-0.056956317
136	0x3ea6ea49	0.3260062
137	0x3e8cb0ca	0.2747863
138	0xbe015eb3	-0.12633781
139	0xbda62bbd	-0.08113811
140	0x3e82fe44	0.25584614
141	0x3e55c566	0.20876083
142	0xbe506544	-0.2035113
143	0xbe31953f	-0.17342089
144	0x3df6fb1b	0.12059613
145	0xbbcd16d5	-0.0062588253
146	0xbd43d641	-0.04781175
147	0xbe25a12a	-0.1617476
148	0xbe266988	-0.16251194
149	0xbe1499d3	-0.14511804
150	0x3e7668bd	0.24063392
151	0xbe4cb54f	-0.19991039
152	0x3e51b502	0.20479205
153	0x3d0a1d00	0.033719063
154	0x3df6b578	0.12046331
155	0x3e150424	0.14552361
156	0xbe578354	-0.21046191
157	0xbd5a0a3c	-0.053232417
158	0x3e76ab7a	0.2408885
159	0x3e8827f2	0.26592976
160	0xbe79e070	-0.24402022
161	0x3e0a3eb2	0.13500479
162	0xbd820a2d	-0.06349597
163	0x3c3f0003	0.011657718
164	0x3e0069ce	0.12540361
165	0xbb9e2775	-0.004826481
166	0x3db5e6f1	0.08881939
167	0xbe8a0044	-0.26953328
168	0x3ddbf1e6	0.10739498
169	0x3e521bfb	0.20518486
170	0x3dd55010	0.10415661
171	0xbe916554	-0.2839762
172	0xbea089c0	-0.31355095
173	0xbe539394	-0.20661765
174	0xbe856fc9	-0.26061848
175	0x3db07bb5	0.08617345
176	0x3e993626	0.29924124
177	0x3ea611a3	0.3243533
178	0x3e36831c	0.17823452
179	0x3dbe435c	0.092901915
180	0x3e5ce549	0.2157184
181	0xbcc18eeb	-0.023627719
182	0xbde93bad	-0.113883354
183	0x3e0425fc	0.12905115
184	0x3e993b44	0.2992803
185	0x3e86e670	0.26347685
186	0xbe9f5db8	-0.3112619
187	0x3e7de0e7	0.24792825
188	0xbe981b8c	-0.29708517
189	0xbe5fe38e	-0.21864149
190	0xbe9156a9	-0.2838643
191	0xba0085a1	-0.0004902725
192	0x3d503387	0.05083039
193	0xbdc44db0	-0.0958513
194	0xbdc29bc5	-0.09502367
195	0xbdbf6bff	-0.093467705
196	0xbea78660	-0.32719707
197	0x3de371b6	0.11105673
198	0x3d0c5ecc	0.034270093
199	0x3e8808b3	0.26569137
200	0x3da89dc5	0.08233217
201	0x3ddcf48a	0.107888296
202	0x3e0fe607	0.14052592
203	0x3dd766a7	0.10517626
204	0x3e809e5a	0.25120813
205	0xbd9c6425	-0.076362886
206	0xbe344686	-0.17605028
207	0x3e84257f	0.25809857
208	0x3e5321cd	0.20618363
209	0x3e836777	0.25664875
210	0x3c284da9	0.010272422
211	0x3e940126	0.28907126
212	0xbea6edab	-0.326032
213	0x3e255b39	0.1614808
214	0xbe81ca16	-0.25349492
215	0x3e85d444	0.26138508
216	0xbd2c9ce9	-0.04214183
217	0x3e48f873	0.19626026
218	0x3df5a333	0.119940184
219	0x3d399fdc	0.04531847
220	0x3ea85cd6	0.32883328
221	0x3ca70b4a	0.020391125
222	0x3e900fe1	0.28137115
223	0xbdbefbb5	-0.09325353
224	0xbd81ac8b	-0.06331738
225	0x3dede3e3	0.116157316
226	0xbe89b4ad	-0.26895657
227	0xbe99096c	-0.2989
228	0x3e4611d6	0.19342741
229	0x3e76af14	0.24090225
230	0x3e24c2c6	0.16089925
231	0xbc330796	-0.010927102
232	0x3e0a1695	0.13485177
233	0x3e12e03d	0.14343353
234	0x3dcb4462	0.09925152
235	0xbcf91773	-0.03040669
236	0x3e155ef7	0.14587007
237	0x3e27bfca	0.16381755
238	0x3e1a0d99	0.1504425
239	0x3e8c58bb	0.27411446
240	0xbe972941	-0.29523662
241	0xbe8d532c	-0.27602518
242	0x3e818c33	0.25302276
243	0x3e031657	0.1280149
244	0x3e56aeb8	0.20965087
245	0xbdccd1d8	-0.10000962
246	0xbe5e3435	-0.21699603
247	0x3d17f405	0.03709795
248	0x3ea3ad38	0.31968093
249	0x3ea26fc4	0.31725895
250	0xbe3374cb	-0.17525022
251	0x3d6c3668	0.057669073
252	0x3e9145b4	0.28373492
253	0xbd949a2f	-0.07255971
254	0xbe2dc274	-0.16968709
255	0x3e927c92	0.28610665

weight_hh_l0 f4 [27, 9]
0	0x3e317493	0.17329626
1	0xbe9cda3c	-0.3063525
2	0xbea3b8d4	-0.3197695
3	0xbeaad8e4	-0.333686
4	0x3d09c654	0.033636406
5	0x3e8d5811	0.27606252
6	0x3d73901c	0.059463605
7	0x3dd88ca2	0.105736986
8	0x3d13dfda	0.036102153
9	0xbdb2c8a2	-0.08729674
10	0xbe229f52	-0.15881088
11	0xbe76b348	-0.24091828
12	0xbe4ffc71	-0.20311143
13	0xbd3e2819	-0.04642496
14	0x3c3559a8	0.011068739
15	0x3c5f4479	0.013627165
16	0xbd40e57b	-0.04709385
17	0xbe5cddac	-0.21568936
18	0xbe23d184	-0.15997893
19	0xbe9e8f67	-0.30968782
20	0x3d94c0a3	0.07263305
21	0x3e2eb36e	0.17060634
22	0x3e9d9a08	0.3078158
23	0x3e8f3817	0.2797248
24	0xbd8cf3e2	-0.068824545
25	0xbe7ff032	-0.24993971
26	0x3e76055d	0.24025483
27	0xbcddedad	-0.027090872
28	0xbe6bedcb	-0.2303993
29	0x3d5cab41	0.053874258
30	0x3e391de8	0.18077815
31	0xbd379253	-0.04481728
32	0xbe7bae98	-0.24578321
33	0xbd9cdb12	-0.07658972
34	0x3dbac9bd	0.0912051
35	0xbe9aaf17	-0.30211708
36	0x3e19daff	0.15024947
37	0xbe3b50d4	-0.18292552
38	0x3e043b1f	0.12913178
39	0x3d15c878	0.036568135
40	0xbe4160df	-0.1888461
41	0xbdf7ec9a	-0.12105675
42	0xbea4aeac	-0.32164514
43	0x3d9667d5	0.07344023
44	0xbcbcc678	-0.023043856
45	0x3e92982a	0.28631717
46	0x3e16f6ed	0.14742632
47	0x3e42a6cf	0.19008945
48	0x3ea9c9cc	0.3316177
49	0xbe56ad91	-0.20964648
50	0xbdc1a768	-0.09455758
51	0x3b83633c	0.0040096324
52	0xbe5e5bf9	-0.21714772
53	0x3d0bba9a	0.034113504
54	0x3e9cf78c	0.30657613
55	0xbdc34f44	-0.09536603
56	0xbe959252	-0.29213196
57	0xbe939f6b	-0.28832564
58	0xbd91fd5f	-0.07128405
59	0x3e9fedef	0.31236216
60	0xbd97704f	-0.07394468
61	0xbe74141a	-0.23835793
62	0xbdb4c088	-0.08825785
63	0xbd7dad54	-0.061932877
64	0x3e581c5e	0.21104571
65	0x3e979e1b	0.29612812
66	0x3cce4dc2	0.025183562
67	0xbe9977a1	-0.29974082
68	0xbe1a6a65	-0.15079649
69	0xbb964a91	-0.0045865257
70	0xbcb0c414	-0.021577872
71	0x3d1af5d5	0.0378321
72	0xbe16f802	-0.14743045
73	0xbe70251d	-0.23451658
74	0xbca39547	-0.019968642
75	0x3c73f712	0.014890449
76	0xbe35c26a	-0.17749944
77	0xbe378ac4	-0.17924029
78	0xbe70b18e	-0.23505232
79	0x3e2c6ae8	0.16837656
80	0xbe91ab2e	-0.28450912
81	0x3e99ee38	0.3006456
82	0x3e8d5dea	0.27610713
83	0xbd692109	-0.05691627
84	0x3ea02660	0.31279278
85	0x3e9aafc4	0.30212224
86	0x3e5cb8d2	0.21554878
87	0x3e848874	0.25885355
88	0xbde2ebb9	-0.11080117
89	0x395356e9	0.00020154905
90	0x3db6bb97	0.08922499
91	0xbe8843e4	-0.26614296
92	0xbe619107	-0.2202798
93	0x3d071236	0.03297635
94	0x3d257db7	0.040403094
95	0xbea411dd	-0.3204488
96	0xbe81722c	-0.2528242
97	0xbea50922	-0.3223353
98	0xbe9ea450	-0.30984735
99	0x3df385e0	0.11890769
100	0x3e81efdf	0.2537832
101	0x3e6b1232	0.2295616
102	0x3cf07a89	0.029355304
103	0x3e92460a	0.2856906
104	0x3ea48fde	0.32141012
105	0xbe74ee0a	-0.2391893
106	0xbe020311	-0.12696482
107	0x3e6eb29a	0.23310319
108	0xbea959fb	-0.33076462
109	0x3df5e8d4	0.12007299
110	0xbab6a449	-0.0013934459
111	0x3ea480e6	0.32129592
112	0xbe1db6a6	-0.15401706
113	0x3e5e8ed8	0.21734178
114	0x3db98c73	0.09059992
115	0x3e18a881	0.14908029
116	0xbe80b9cb	-0.2514175
117	0xbd6ba97a	-0.057534672
118	0xbe924d25	-0.28574482
119	0xbe5ea24b	-0.21741597
120	0xbe2c97c7	-0.16854773
121	0xbe87d5f9	-0.26530436
122	0xbea47018	-0.3211677
123	0xbe7e3c1a	-0.24827614
124	0xbdfe8f31	-0.12429655
125	0xbe1434ff	-0.14473341
126	0x3e1f5861	0.15561058
127	0xbe74d898	-0.23910749
128	0x3cf40020	0.029785216
129	0xbe1a6398	-0.15077055
130	0x3c83a80f	0.016071348
131	0x3e83de9e	0.2575578
132	0xbea6e8ba	-0.3259943
133	0xbcac9df6	-0.021071415
134	0xbe8dfb0e	-0.27730602
135	0xbe564288	-0.20923817
136	0xbdf448bc	-0.119279355
137	0x3e9487b7	0.29009792
138	0xbd6aaa2e	-0.057291202
139	0xbe207728	-0.15670455
140	0xbdb03ed1	-0.08605731
141	0xbe82f399	-0.25576475
142	0x3ca75545	0.020426402
143	0x3d86d5fa	0.065837815
144	0xbe43c774	-0.19119054
145	0x3e357857	0.17721687
146	0x3d9d8d8f	0.07693016
147	0xbc551622	-0.013005765
148	0x3d25dbaa	0.04049269
149	0x3e1e0a6b	0.15433662
150	0xbd522153	-0.05130131
151	0xbd3d7712	-0.046256132
152	0xbdba35d7	-0.090923004
153	0x3e85bd17	0.26120827
154	0xbdf72a0c	-0.12068567
155	0xbe43c97e	-0.19119832
156	0x3e989882	0.29803854
157	0x3d811d6b	0.06304439
158	0x3e0d18a2	0.13778928
159	0xbe92b18a	-0.28651077
160	0x3d059b9e	0.03261911
161	0xbe1fbf55	-0.15600331
162	0xbe8b7942	-0.2724095
163	0xbe9894b7	-0.2980096
164	0x3e370c13	0.178757
165	0xbe8ecede	-0.27892202
166	0x3e07600b	0.13220231
167	0x3df06415	0.11737839
168	0xbd0e74d9	-0.034779403
169	0x3e063631	0.1310661
170	0xbe94a1b3	-0.29029617
171	0xbe6cf540	-0.2314043
172	0x3dceff61	0.101073034
173	0xbc583959	-0.0131972665
174	0xbe23193d	-0.15927596
175	0xbe8e3903	-0.2777787
176	0x3d7d9550	0.061909974
177	0x3e1ed524	0.15510994
178	0x3c69f771	0.014280186
179	0xbe5ada49	-0.21372332
180	0x3e7ef20f	0.24897026
181	0x3db275f9	0.08713908
182	0xbe916314	-0.28395903
183	0xbdd04931	-0.1017021
184	0x3e0878cf	0.13327335
185	0x3e6050c4	0.2190581
186	0x3e32f60d	0.17476673
187	0x3e7c9756	0.24667105
188	0xbe76d8f4	-0.24106199
189	0x3e490b6b	0.19633262
190	0x3e988367	0.29787752
191	0xbea83d34	-0.32859194
192	0xbe9e9b18	-0.30977702
193	0xbe833f2e	-0.2563414
194	0xbe7fb4ac	-0.24971265
195	0x3d7c33fc	0.061573014
196	0x3d75fb7c	0.060054287
197	0x3db44ed7	0.088041
198	0x3e86a938	0.2630098
199	0xbd14b057	-0.036300983
200	0xbe3d3eba	-0.1848096
201	0x3ceaece8	0.028677419
202	0x3e8723a6	0.26394385
203	0xbe258cdf	-0.1616702
204	0xbca3826e	-0.019959655
205	0xbe2a75eb	-0.16646545
206	0xbaa42f80	-0.0012526363
207	0xbe6b936a	-0.23005453
208	0xbd782b1c	-0.060587987
209	0xbe942a6a	-0.2893861
210	0xbe7c4b89	-0.2463819
211	0x3e111614	0.14168578
212	0x3e4b7938	0.1987046
213	0x3e02e0cf	0.1278107
214	0x3e0dfe54	0.1386655
215	0x3d32b7e6	0.04363241
216	0x3e8992d3	0.2686983
217	0xbd538a47	-0.051645543
218	0xbe67dcaf	-0.22642778
219	0xbe9dd8aa	-0.30829364
220	0x3e6b969a	0.23006669
221	0x3c63f138	0.0139124915
222	0x3e03822e	0.12842628
223	0x3e946593	0.28983745
224	0x3e4e4016	0.20141634
225	0xbe89b1fd	-0.26893607
226	0x3e309804	0.1724549
227	0x3e64a777	0.22329508
228	0xbd073415	-0.033008654
229	0x3e476734	0.19472963
230	0x3e884f12	0.26622826
231	0x3dcf23b0	0.10114229
232	0x3d8fc27b	0.07019516
233	0xbe9520df	-0.2912664
234	0x3d34c84d	0.044136334
235	0xbc65c67b	-0.014024372
236	0x3e59e229	0.2127768
237	0xbe58ea04	-0.2118302
238	0xbe36324a	-0.17792621
239	0xbe3d2231	-0.18470074
240	0x3e4d7700	0.20064926
241	0x3ea05ac3	0.31319246
242	0xbe0eeae5	-0.13956793

bias_ih_l0 f4 [27]
0	0x3e96d4fb	0.29459366
1	0x3e7b6a9a	0.24552384
2	0x3e2aea42	0.16690925
3	0xbcd0ccb8	-0.025488243
4	0x3e6c176d	0.23055811
5	0xbe42cdb6	-0.19023785
6	0x3dd5d288	0.10440546
7	0x3d95d615	0.073162235
8	0xbd2c97d0	-0.042136967
9	0xbe894612	-0.26811272
10	0xbe1d09e0	-0.15335798
11	0xbe21c1d6	-0.15796599
12	0x3da34591	0.07972253
13	0xbde83704	-0.113386184
14	0x3db3477c	0.08753869
15	0xba4e32e8	-0.0007865862
16	0xbd3a74e1	-0.04552162
17	0xbe21e9c7	-0.15811835
18	0xbe11fe46	-0.14257154
19	0x3d2d1de5	0.042264838
20	0x3e5e2c82	0.21696666
21	0xbe8e641c	-0.27810752
22	0x3cc2e285	0.023789654
23	0x3e30947d	0.17244144
24	0x3e88bfef	0.26708934
25	0xbea078a1	-0.31342033
26	0xbe99845b	-0.29983792

bias_hh_l0 f4 [27]
0	0x3e5ec10a	0.21753326
1	0x3db82927	0.08992224
2	0x3decb442	0.11557819
3	0xbe025695	-0.12728341
4	0xbdf019d2	-0.11723675
5	0xbe9bc4a0	-0.3042345
6	0xbe9fc7ff	-0.31207272
7	0xbcd5c01f	-0.026092587
8	0x3e97ed8a	0.29673415
9	0xbe8fd528	-0.28092313
10	0x3db60fa0	0.08889699
11	0x3d6d306a	0.0579075
12	0xbe05a678	-0.13051784
13	0x3e916b6d	0.28402272
14	0xbd9bd272	-0.07608499
15	0x3db0abff	0.08626556
16	0x3e1b9193	0.15192251
17	0xbe2f15e9	-0.17098202
18	0xbdbc619a	-0.091983035
19	0xbdeb912d	-0.115022995
20	0xbe65b08e	-0.22430632
21	0xbe9823c0	-0.29714775
22	0xbeaa70d4	-0.33289206
23	0x3d550b02	0.05201245
24	0xbe1700d9	-0.14746417
25	0xbd1becee	-0.03806775
26	0x3d911ae3	0.07085206

weight_ih_l0 f4 [27, 24]
0	0x3e6e1395	0.23249657
1	0x3e580e0a	0.21099105
2	0xbdd8a8a5	-0.105790414
3	0xbd477987	-0.048699882
4	0xbe9d61ff	-0.30738828
5	0xbdf82b93	-0.12117686
6	0x3e58b1db	0.21161596
7	0xbe2abfdf	-0.16674756
8	0xbde950cc	-0.11392364
9	0xbe1603e6	-0.14649925
10	0x3e1265d7	0.14296661
11	0xbe15221c	-0.14563793
12	0xbe5746a2	-0.21023038
13	0xbe29845b	-0.16554396
14	0x3e97c11f	0.29639527
15	0xbe3f975f	-0.18710087
16	0xbe220da4	-0.15825516
17	0xbe7fae8f	-0.24968933
18	0x3e97cc42	0.29648024
19	0xbe7d1dcf	-0.24718402
20	0xbea667e3	-0.32501134
21	0x3b7851ea	0.0037890621
22	0xbdbcc1c4	-0.09216645
23	0xbe99ae15	-0.30015627
24	0xbe2779e2	-0.16355088
25	0xbe83e46c	-0.2576021
26	0xbe62efac	-0.2216174
27	0x3b9a4ab0	0.0047086105
28	0xbe4d569f	-0.20052575
29	0xbd8c1a9e	-0.06841014
30	0x3e2b468f	0.16726135
31	0x3e28aef7	0.16472994
32	0x3d8f8420	0.07007623
33	0xbd9e6f48	-0.07736069
34	0xbd791a90	-0.060816348
35	0x3e1e0052	0.1542981
36	0x3e9b8f33	0.3038269
37	0xbe76e1cf	-0.24109577
38	0xbe14b5dc	-0.14522499
39	0xbd029296	-0.031878076
40	0x3de746ff	0.11292838
41	0x3da735ed	0.081645824
42	0x3c854ab0	0.016270965
43	0xbe23730f	-0.1596186
44	0xbcbc5f4a	-0.022994656
45	0xbdb08c70	-0.08620536
46	0xbe2faac8	-0.17154992
47	0x3ea87d8d	0.32908288
48	0x3e98203c	0.29712093
49	0xbe8d26fe	-0.2756881
50	0xbe02d244	-0.12775522
51	0x3e556010	0.20837426
52	0x3ea3f13e	0.3201999
53	0x3e97761f	0.29582307
54	0xbe9292f2	-0.28627735
55	0xbe876d7b	-0.26450714
56	0x3e347384	0.1762219
57	0xbe96f3ac	-0.29482782
58	0xbe6b1bdc	-0.22959846
59	0xbea9e819	-0.3318489
60	0xbe0fdf59	-0.14050044
61	0x3e052bfd	0.13005061
62	0xbe7b8a2a	-0.24564424
63	0x3e7dbd06	0.24779138
64	0x3e80ad93	0.25132427
65	0x3db06f39	0.08614964
66	0x3e30f9ca	0.17282787
67	0x3d7a23f9	0.061069462
68	0x3e806395	0.25075975
69	0x3e5d2ca4	0.2159906
70	0xbe5b760c	-0.2143175
71	0xbda730d2	-0.081636086
72	0xbe9cbeb3	-0.30614242
73	0x3e852dae	0.26011413
74	0x3e815f76	0.25268143
75	0xbe621d7f	-0.22081564
76	0xbbd076c7	-0.0063618156
77	0xbe8e7b11	-0.27828267
78	0x3dcbe701	0.0995617
79	0xbde14353	-0.10999169
80	0x3e842737	0.2581117
81	0x3da9def2	0.082944766
82	0xbe24aaff	-0.16080855
83	0x3bb1d6c4	0.0054272134
84	0xbe901a77	-0.2814519
85	0xbe97735e	-0.29580206
86	0xbc5bb480	-0.013409734
87	0xbcf1ddf9	-0.02952479
88	0xbc077027	-0.008266485
89	0x3de25d30	0.1105293
90	0x3d0a2f72	0.033736654
91	0x3e9a9a92	0.30196053
92	0x3ea32abd	0.31868544
93	0xbd148fa1	-0.036269788
94	0x3d53015c	0.05151497
95	0xbbf44820	-0.007454887
96	0xbe6f3ebc	-0.23363775
97	0xbea526e2	-0.32256228
98	0xbe7eedd5	-0.24895413
99	0xbe9781da	-0.29591256
100	0xbe8fd7bd	-0.28094283
101	0x3da78a77	0.08180707
102	0xbb14b47e	-0.002269059
103	0xbc0649dc	-0.00819632
104	0x3e40ceb5	0.18828852
105	0x3e870a53	0.26375064
106	0x3e9bd0be	0.30432695
107	0x3d83efe9	0.064422436
108	0xbe51da42	-0.20493415
109	0xbe0c17ce	-0.13680956
110	0x3e6b7e50	0.22997403
111	0x3e0f5ef7	0.1400107
112	0x3eab2f06	0.33434314
113	0xbceab836	-0.028652292
114	0xbdb47b21	-0.088125475
115	0x3e26aa91	0.16276003
116	0xbe2ee638	-0.17080009
117	0x3e905620	0.28190708
118	0x3c4fa591	0.012673751
119	0x3e1b3e99	0.15160598
120	0xbc5e6384	-0.013573531
121	0x3e9ce601	0.3064423
122	0xbd193b72	-0.037410207
123	0xbe522e9b	-0.20525591
124	0xbe794f12	-0.24346569
125	0xbe874be1	-0.2642508
126	0x3e500013	0.20312528
127	0x3d982518	0.0742895
128	0xbea4d796	-0.3219573
129	0xbea5e950	-0.32404566
130	0xbde9b5dc	-0.1141164
131	0x3ea77f03	0.3271409
132	0x3e97c963	0.29645833
133	0x3e7ea4fc	0.24867624
134	0xbe4a7fb0	-0.19775271
135	0x3e731efd	0.2374229
136	0xbc4f20e0	-0.012642115
137	0x3e9e9029	0.3096936
138	0x3dbd9a4c	0.092579454
139	0x3ea2c88f	0.3179364
140	0x3c98d0ac	0.01865419
141	0xbe9d3416	-0.307038
142	0x3e8457a8	0.25848126
143	0xbdd70d40	-0.10500574
144	0xbcf59947	-0.029980315
145	0xbdd503e0	-0.1040113
146	0xbe9fa902	-0.3118363
147	0xbe571b22	-0.21006444
148	0x3ea8bb42	0.32955366
149	0xbd5a8c7d	-0.053356636
150	0x3e5d9510	0.21638894
151	0xbe1be616	-0.1522449
152	0x3de7821d	0.11304114
153	0x3e4a7335	0.1977051
154	0x3e3ad4c3	0.18245225
155	0x3e899e51	0.26878598
156	0x3da3300d	0.07968149
157	0xbd171d64	-0.036893263
158	0xbe3a9f4c	-0.1822483
159	0xbe9e10ec	-0.30872285
160	0xbd258c7c	-0.04041718
161	0xbddf0e9e	-0.1089146
162	0x3e21c1ca	0.15796581
163	0xbda3467f	-0.079724304
164	0x3e9bdb0b	0.30440554
165	0xbd82ae78	-0.063809335
166	0xbe86f5a5	-0.26359287
167	0xbe4fd23c	-0.20295042
168	0x3ce723f6	0.02821539
169	0x3e93a8b6	0.28839654
170	0xbd1fb5e0	-0.03899181
171	0x3e3ff451	0.18745543
172	0xbe845a27	-0.2585003
173	0x3d0a13c5	0.03371026
174	0xbd2c9ada	-0.042139865
175	0xbe720f8a	-0.2363874
176	0x3df0e126	0.11761694
177	0x3ca55be1	0.020185413
178	0x3deb3692	0.11485018
179	0x3ea15e12	0.31517082
180	0x3d2638ff	0.0405817
181	0xbe19b274	-0.1500948
182	0x3e9471ca	0.28993064
183	0xbdfaf4b6	-0.12253706
184	0x3e245379	0.16047467
185	0x3dfeadd2	0.12435497
186	0xbdfdedc3	-0.12398865
187	0xbd4e8007	-0.050415065
188	0xbeaa2eb9	-0.33238772
189	0x3e7f1ef8	0.24914157
190	0x3d12414b	0.0357068
191	0x3d53e100	0.05172825
192	0x3e25729d	0.16157003
193	0x3cc5d188	0.024147764
194	0xbe139113	-0.1441081
195	0x3e794b75	0.24345191
196	0x3cefe103	0.029282099
197	0x3c16c3cf	0.009201958
198	0x3e5aeff0	0.21380591
199	0xbe8bbdd0	-0.27293253
200	0xbe506935	-0.20352633
201	0x3de0b4eb	0.10972007
202	0xbd89c611	-0.06727231
203	0xbd3152fa	-0.043292023
204	0xbea302d0	-0.31838083
205	0xbe499597	-0.1968597
206	0x3e5e20ae	0.21692154
207	0xbde8e83f	-0.113724224
208	0xbe60b2c3	-0.21943192
209	0x3e5f1c3d	0.21788116
210	0x3e4cd692	0.20003727
211	0x3cb6e92b	0.02232798
212	0xbe9183bd	-0.2842082
213	0x3e0489a4	0.1294313
214	0xbe9c762c	-0.30558908
215	0x3e73a68f	0.23794006
216	0x3dc259fc	0.094898194
217	0xbe8edcee	-0.2790293
218	0xbe9dd994	-0.3083006
219	0xbe4faadd	-0.20280023
220	0x3e868b01	0.26277927
221	0x3e9f828a	0.3115428
222	0x3e27c8bb	0.16385166
223	0xbd89e7dd	-0.067336775
224	0x3e8e9a04	0.2785188
225	0xbd06f36a	-0.03294698
226	0x3e753799	0.2394699
227	0xbd88cca0	-0.06679654
228	0x3d4ecdd9	0.05048928
229	0x3e94d615	0.29069582
230	0x3d8cfae1	0.06883789
231	0xbe1c5840	-0.1526804
232	0xbce529ef	-0.027974097
233	0xbd6663dd	-0.05624758
234	0x3e8fe3bb	0.28103432
235	0x3e8d18c1	0.27557948
236	0x3e6cd222	0.23127034
237	0x3e5a16d6	0.21297774
238	0x3e178362	0.14796212
239	0x3dde2212	0.10846342
240	0xbe4fffc2	-0.20312408
241	0x3da0941d	0.0784075
242	0xbe60fc69	-0.21971287
243	0xbe7a1c27	-0.24424802
244	0x3e2acfb4	0.16680795
245	0xbde630d7	-0.11239784
246	0xbe89a308	-0.26882195
247	0x3d8e75e9	0.06956083
248	0xbe8a6bd8	-0.27035403
249	0xbe7d6b57	-0.24747978
250	0x3d1a4320	0.03766167
251	0xbe89f3f6	-0.2694394
252	0x3e81d7e0	0.25360012
253	0x3ddcf1e1	0.10788322
254	0x3e281fae	0.16418335
255	0xbe97bf7a	-0.29638273

weight_hh_l0 f4 [27, 9]
0	0x3d91ed49	0.07125337
1	0xbdc638b5	-0.09678785
2	0xbe2e2096	-0.17004618
3	0xbe97462a	-0.29545718
4	0xbe9eb98b	-0.31000933
5	0xbbfae7b8	-0.0076570176
6	0xbe888f37	-0.26671764
7	0xbde6d87c	-0.1127176
8	0x3e0fcb11	0.14042307
9	0xbdf22361	-0.11823154
10	0x3d438be3	0.04774083
11	0xbe067355	-0.13129933
12	0xbd941f99	-0.07232589
13	0x3e57ea6a	0.21085516
14	0xbe358d70	-0.17729735
15	0xbdf858e3	-0.12126329
16	0x3e052f4d	0.13006325
17	0xbe0f14cf	-0.13972782
18	0xbe2b0a17	-0.16703068
19	0xbe33b4de	-0.17549464
20	0xbd4d554e	-0.05013018
21	0x3ea7da4a	0.3278373
22	0xbe11a2b9	-0.1422223
23	0xbe14b874	-0.14523488
24	0xba544b13	-0.0008098345
25	0x3e57eec2	0.21087173
26	0x3e9c2e20	0.3050394
27	0xbe83834d	-0.25686112
28	0x3c49a941	0.01230842
29	0x3dea0dfa	0.11428447
30	0xbe46ff20	-0.1943326
31	0xbe57cf5f	-0.210752
32	0x3e99e64b	0.30058512
33	0x3da69a98	0.08134955
34	0xbe904393	-0.28176555
35	0x3e91ee22	0.28501993
36	0x3de1cf75	0.110258974
37	0x3d1329a2	0.035928376
38	0x3dd14a74	0.10219279
39	0xbe2835fd	-0.16426845
40	0xbe9fcf29	-0.31212738
41	0xbe8cc4e3	-0.27493963
42	0xbdc18d9f	-0.0945084
43	0x3e129783	0.1431561
44	0xbdd32c1d	-0.10311148
45	0xbdf5ba27	-0.11998396
46	0x3d1afb8a	0.037837543
47	0xbd8884eb	-0.06665977
48	0x3e8cabf9	0.27474955
49	0xbe53ad42	-0.20671561
50	0x3da21549	0.07914216
51	0x3c1beaab	0.009516398
52	0x3e094394	0.13404685
53	0x3e2781f2	0.16358164
54	0x3dcd86a3	0.100354455
55	0x3e6ef2de	0.23334834
56	0x3e6d1f1a	0.23156396
57	0xbe77536a	-0.24152914
58	0x3e921a2f	0.28535601
59	0xbe8f9474	-0.28042948
60	0x3cc22ebb	0.023703923
61	0x3e612556	0.21986899
62	0x3e306a1f	0.17227982
63	0x3e8cbcb2	0.27487713
64	0x3e7db403	0.247757
65	0xbdf9c843	-0.121964
66	0x3e478a56	0.19486365
67	0x3e6b424c	0.22974509
68	0x3d9e312a	0.07724221
69	0xbd8e2ec4	-0.069425136
70	0xbe373207	-0.17890178
71	0x3e417f71	0.18896271
72	0xbe24f637	-0.16109549
73	0xbe2fc996	-0.17166743
74	0x3e9ac359	0.30227163
75	0x3e03df7d	0.12878223
76	0xbe996da9	-0.29966477
77	0xbe43a3fd	-0.19105525
78	0xbce65d7d	-0.02812075
79	0x3d8f50b5	0.069978155
80	0x3e3a77f8	0.18209827
81	0xbe93919c	-0.2882203
82	0x3de2ebba	0.110801175
83	0x3e95ceda	0.29259378
84	0xbd90ff3c	-0.07079932
85	0xbdcf0fb6	-0.101104185
86	0x3dd4bde4	0.10387781
87	0x3e978bbc	0.29598796
88	0x3d7350ac	0.059403107
89	0xbdae7e34	-0.08520165
90	0xbdf1d247	-0.11807685
91	0xbbf0d8eb	-0.0073500774
92	0x3da85386	0.08219056
93	0x3e8510f0	0.25989485
94	0x3dffee22	0.12496592
95	0x3e1f306e	0.15545818
96	0xbe0edfcc	-0.13952559
97	0xbe5fd3c7	-0.2185813
98	0xbe03a2db	-0.12855093
99	0xbe45e113	-0.1932414
100	0xbe867e5c	-0.2626828
101	0x3dc68715	0.096937336
102	0x3e8b8ef4	0.27257502
103	0xbd818c22	-0.06325556
104	0xbdcb991d	-0.099413134
105	0x3e327585	0.17427643
106	0x3d9f531c	0.07779524
107	0x3e030227	0.1279379
108	0x3da1715e	0.07882951
109	0x3c0f1f5e	0.008735506
110	0x3e851bd3	0.2599779
111	0x3e92ecb1	0.28696206
112	0xbe6edde9	-0.2332684
113	0xbe6f189d	-0.23349233
114	0xbd357f0d	-0.04431062
115	0x3bd6f632	0.0065601105
116	0x3e373870	0.17892623
117	0xbe1375ec	-0.14400452
118	0xbdb0289c	-0.086014956
119	0xbea32c72	-0.31869847
120	0xbde01eb8	-0.10943359
121	0xbe1dc732	-0.15408018
122	0x3e395e5f	0.18102406
123	0xbcc77888	-0.024349466
124	0x3e3c2f89	0.18377508
125	0x3e3ca6f2	0.1842306
126	0x3e84dc78	0.25949454
127	0x3c157e5a	0.009124363
128	0x3d84d1ef	0.06485354
129	0xbc9ab005	-0.01888276
130	0xbe8e4944	-0.27790272
131	0xbe8a8b67	-0.2705948
132	0xbe2ed149	-0.17072023
133	0x3d23283a	0.039833285
134	0xbe5dd045	-0.2166148
135	0xbcf2b208	-0.029625908
136	0xbe5c2154	-0.21497089
137	0xbe8c5d7e	-0.2741508
138	0x3a51a4f5	0.0007997298
139	0xbe02f7b2	-0.12789801
140	0x3ea36077	0.31909534
141	0xbcd744b6	-0.026277881
142	0xbde6a28d	-0.11261473
143	0x3d33dc35	0.043911178
144	0x3e564f1a	0.20928612
145	0xbe204700	-0.15652084
146	0xbd6dccfb	-0.058056813
147	0xbe44d144	-0.19220454
148	0xbe90432d	-0.2817625
149	0x3e6258dd	0.22104211
150	0xbe1b2ff4	-0.15155011
151	0xbda27acf	-0.0793358
152	0xbdd499ab	-0.10380872
153	0xbe51d0db	-0.20489828
154	0x3e5e89a6	0.21732196
155	0x3daaa1f1	0.08331669
156	0x3e7eeaad	0.24894209
157	0xbe7bd984	-0.24594694
158	0xbe2c4317	-0.16822468
159	0x3dad99f4	0.0847663
160	0xbd5deeb2	-0.054182716
161	0x3e0558ed	0.13022204
162	0xbe0b3e47	-0.13597976
163	0x3d87c3db	0.06629153
164	0xbe809458	-0.25113177
165	0x3e50cc01	0.20390321
166	0xbe9f6488	-0.31131387
167	0x3e81453c	0.25248134
168	0x36542fdc	3.161832e-06
169	0x3e1433c7	0.14472876
170	0xbd50f239	-0.05101225
171	0xbe96882b	-0.29400763
172	0xbe0be75f	-0.1366248
173	0x3d94c653	0.0726439
174	0x3e8ada74	0.27119792
175	0x3c864a64	0.016392894
176	0xbd2e0c86	-0.042492412
177	0x3e14d831	0.14535595
178	0x3e838a9d	0.2569169
179	0x3d145caa	0.036221184
180	0xbdc5fa2e	-0.096668586
181	0x3bf5a89c	0.0074969064
182	0x3e05ffee	0.1308591
183	0xbe24beb3	-0.16088371
184	0xbe0edde4	-0.13951832
185	0x3e1e357e	0.15450093
186	0x3e2b7090	0.16742158
187	0x3e149e5f	0.14513539
188	0x3e9993ba	0.2999552
189	0x3dbe07df	0.09278845
190	0x3dc766f1	0.097364314
191	0xbe368b0d	-0.17826481
192	0xbcf99750	-0.03046766
193	0x3e688a78	0.22709072
194	0x3e62f55f	0.22163914
195	0xbda0680f	-0.078323476
196	0xbe5385bc	-0.20656484
197	0xbd6d4e7f	-0.057936188
198	0xbd4126ea	-0.047156252
199	0x3de369bb	0.11104151
200	0xbda66e14	-0.081264645
201	0x3ca0cc66	0.019628715
202	0x3e6f6cc5	0.23381336
203	0xbe87e74a	-0.26543647
204	0x3e00b65b	0.12569563
205	0xbe1fdf78	-0.1561259
206	0x3e9bf1c9	0.30457905
207	0x3e9a5211	0.30140737
208	0xbe224287	-0.1584569
209	0xb613df5a	-2.2034715e-06
210	0x3d8b8c57	0.06813877
211	0x3e566e9c	0.20940632
212	0xbe35b214	-0.17743713
213	0x3e140b3d	0.14457412
214	0xbd259f18	-0.040434927
215	0xbd04c2ed	-0.03241246
216	0xbe0f7890	-0.14010835
217	0xbdf3962b	-0.11893877
218	0xbd49fedd	-0.049315322
219	0x3e16941e	0.1470494
220	0xbe8548af	-0.26032016
221	0xbe155a1f	-0.1458516
222	0xbd24df43	-0.04025198
223	0x3bbfd297	0.0058539617
224	0xbe6073d9	-0.21919192
225	0x3dfc2f38	0.12313694
226	0xbe9bbafc	-0.30416095
227	0xbd32b500	-0.043629646
228	0xbe8c86dc	-0.2744664
229	0x3e23f72f	0.16012262
230	0xbe4ba7ec	-0.19888276
231	0xbe9384b0	-0.2881217
232	0xbe38df49	-0.18053927
233	0xbd28e259	-0.041231487
234	0xbeac0668	-0.33598638
235	0xbe2fce65	-0.17168577
236	0x3e160aed	0.14652605
237	0x3e98482f	0.29742572
238	0xbe9d54de	-0.3072881
239	0xbe0a7181	-0.13519861
240	0x3e25ff96	0.1621078
241	0xbcaa394c	-0.020779274
242	0x3e9cb6a0	0.30608082

bias_ih_l0 f4 [27]
0	0xbd24ba1a	-0.040216543
1	0x3ca549f4	0.020176865
2	0xbe7918eb	-0.24325912
3	0x3cdaab69	0.026693063
4	0xbe2b3ccf	-0.16722415
5	0xbe875c00	-0.26437378
6	0x3c609990	0.013708487
7	0xbc854329	-0.016267376
8	0xbd756624	-0.059911862
9	0x3e291825	0.16513117
10	0xbe803042	-0.25036818
11	0xbe60dd36	-0.21959385
12	0x3aa3ae03	0.0012487773
13	0x3dfd4ebe	0.123685345
14	0x3ddb5fc8	0.10711628
15	0x3e6f5f8f	0.23376296
16	0xbe837f4f	-0.25683066
17	0x3e7f1418	0.24910009
18	0xbe798c94	-0.24370033
19	0x3dac621d	0.08417151
20	0x3e14139c	0.14460605
21	0xbd2e5edc	-0.042570934
22	0x3e41e388	0.18934453
23	0xbcd198da	-0.02558558
24	0x3d9e43b9	0.07727761
25	0xbbad7a95	-0.005294154
26	0x3e48aeea	0.19597974

bias_hh_l0 f4 [27]
0	0xbe223b1e	-0.15842864
1	0x3ea8128c	0.3282665
2	0x3e89aca1	0.26889518
3	0x3e182dc5	0.1486121
4	0x3ea5ce79	0.3238409
5	0xbe7fdbd8	-0.24986207
6	0x3dc2e644	0.09516576
7	0xbe8541db	-0.26026806
8	0xbd60c4bb	-0.054875117
9	0x3deb7610	0.11497128
10	0x3e2b07a9	0.16702141
11	0x3d022fb7	0.031783786
12	0xbe86e258	-0.26344562
13	0xbe20baf6	-0.1569632
14	0x3e93c13a	0.28858358
15	0xbe08cb3c	-0.13358778
16	0xbe42ec44	-0.1903544
17	0xbdbdfd74	-0.09276858
18	0x3e41445a	0.1887373
19	0xbdc027aa	-0.09382565
20	0xbe81919c	-0.25306404
21	0x3ab075b2	0.001346281
22	0x3e8be5ef	0.27323863
23	0x3e985abf	0.29756734
24	0xbdfd1be1	-0.12358833
25	0x3ea12ef9	0.3148115
26	0x3e8f62d0	0.28005075

weight_ih_l0 f4 [3, 11]
0	0x3f3a4284	0.72757745
1	0xbe8e4397	-0.27785942
2	0x3e68818f	0.22705673
3	0xbd76f34a	-0.060290612
4	0xbece43fe	-0.4028625
5	0xbd44115b	-0.047868114
6	0xbf7e8ea6	-0.99436414
7	0xbeae9359	-0.34096792
8	0x3f1a01e0	0.6015911
9	0xbde0bce2	-0.109735265
10	0xbf53255a	-0.8247887
11	0x3f0b6313	0.5444805
12	0x3ed63ae0	0.41841793
13	0x3f1fc7c0	0.6241417
14	0x3cf3914e	0.029732373
15	0xbf451d85	-0.7699817
16	0xbe9d58db	-0.30731854
17	0x3ee03660	0.43791485
18	0xbeab3984	-0.33442318
19	0xbe3f8d14	-0.18706161
20	0x3dffe55a	0.12494917
21	0x3d0ac54e	0.03387957
22	0xbf0c8302	-0.548874
23	0x3e35c122	0.17749456
24	0x3f24eaf0	0.64420986
25	0x3f43810a	0.76368773
26	0xbf627538	-0.8846011
27	0xbea83f5b	-0.32860836
28	0x3f0ddc65	0.5541442
29	0x3f750c45	0.95721847
30	0x3acd7898	0.0015676199
31	0xbf20a4cb	-0.62751454
32	0xbeafa208	-0.34303308

weight_hh_l0 f4 [3, 1]
0	0xbf64e7ef	-0.894164
1	0xbe944444	-0.28958333
2	0xbece98c6	-0.40350932

bias_ih_l0 f4 [3]
0	0xbe8aa314	-0.27077544
1	0xbe34a6cf	-0.17641757
2	0x3f45ba7c	0.7723768

bias_hh_l0 f4 [3]
0	0x3da66416	0.08124559
1	0xbf1cfe73	-0.6132576
2	0x3f24e135	0.6440614

weight f4 [1, 9]
0	0xbe681f28	-0.22668135
1	0xbd8cec3b	-0.06880995
2	0xb786e479	-1.6080436e-05
3	0xbd23b89c	-0.03997098
4	0xbe20f902	-0.15719989
5	0x3c90757c	0.017634146
6	0xbe4bf14f	-0.1991627
7	0x3d9f29d4	0.0777165
8	0x3e1979c8	0.14987862

weight f4 [400, 10]
0	0xbe666e5a	-0.22503033
1	0xbe5386ff	-0.20656966
2	0xbd833ff5	-0.06408683
3	0xbe4888b8	-0.19583404
4	0x3e694086	0.2277852
5	0xbe7e8c70	-0.2485826
6	0xbe984a69	-0.2974427
7	0x3d3bd91d	0.045861352
8	0xbe52321c	-0.20526928
9	0x3e233ba8	0.15940726
10	0xbe92bc38	-0.28659225
11	0xbe3cb2aa	-0.1842753
12	0xbe7fe071	-0.24987961
13	0xbe62b111	-0.22137858
14	0xbe7f1d51	-0.24913527
15	0xbe65614a	-0.22400394
16	0x3db5453e	0.088510975
17	0x3e9fe33b	0.3122805
18	0x3d95e50b	0.07319077
19	0x3e5a530f	0.21320747
20	0xbd99bbd4	-0.075065285
21	0x3ccc3341	0.024926784
22	0xbe9b36b0	-0.3031516
23	0x3d68ecf9	0.05686662
24	0xbe34d956	-0.17661032
25	0x3df765b9	0.12079949
26	0xbe608a73	-0.21927814
27	0xbe98fd30	-0.29880667
28	0xbe2566e4	-0.16152531
29	0x3e6822e3	0.22669558
30	0x3e71b6a2	0.23604825
31	0x3d606869	0.054787073
32	0xbdc267e7	-0.09492474
33	0x3e8e97e0	0.27850246
34	0xbe472681	-0.19448282
35	0xbe61cd39	-0.22050942
36	0xbe11606f	-0.14196943
37	0xbe33444a	-0.17506519
38	0xbd9d9bad	-0.076957084
39	0xbe561d8b	-0.20909707
40	0x3ce0b6c2	0.027430896
41	0x3e166d2b	0.14690082
42	0xbe3130be	-0.1730375
43	0x3e02f32f	0.1278808
44	0x3e6019bc	0.21884817
45	0xbca789f4	-0.020451523
46	0x3dec7526	0.11545782
47	0x3d3868de	0.045021884
48	0x3e1f6d40	0.1556902
49	0x3e985186	0.29749697
50	0x3e828146	0.25489253
51	0x3c8351cb	0.016030213
52	0x3bb37d8b	0.0054776124
53	0x3e0fb1e1	0.14032699
54	0x3e81ab8d	0.25326195
55	0x3e0c0bab	0.13676326
56	0xbe834f16	-0.25646275
57	0x3c06fa25	0.00823835
58	0xbd0d0752	-0.03443081
59	0x3e0291a7	0.12750874
60	0xbe7bf0f2	-0.24603632
61	0x3e89e56e	0.26932853
62	0xbdd3aa49	-0.10335214
63	0xbe8417e5	-0.2579948
64	0xbdeee7db	-0.11665317
65	0xbe5ed03a	-0.2175912
66	0xb7380895	-1.0969253e-05
67	0xbe06c1be	-0.13159844
68	0x3e15833a	0.1460084
69	0xbd44a374	-0.048007444
70	0xbe63594b	-0.22202031
71	0xbe9b7c19	-0.30368116
72	0xbdf80b3b	-0.12111517
73	0x3bd05b17	0.006358515
74	0x3c1c55fe	0.0095419865
75	0x3e9f0c45	0.31064048
76	0x3ea1f72a	0.31633884
77	0xbe267fb1	-0.16259648
78	0xbe1caef9	-0.15301122
79	0xbe2cd4cd	-0.16878052
80	0xbe7326d1	-0.23745276
81	0x3e8506b6	0.25981683
82	0x3e8794a7	0.264806
83	0x3e91fcc8	0.2851317
84	0xbe4f0997	-0.20218502
85	0x3e1571d6	0.14594206
86	0xb9c5430e	-0.00037624728
87	0x3ced3df9	0.028960215
88	0xbe6a4f37	-0.2288178
89	0xbce37d39	-0.027769672
90	0x3e919e2e	0.28440994
91	0xbe0421b6	-0.12903485
92	0xbe3363c4	-0.17518526
93	0x3e6b4384	0.22974974
94	0x3df1e29c	0.118108004
95	0xbe329f9a	-0.17443696
96	0xbdd15aaf	-0.10222375
97	0xbca8b492	-0.020593915
98	0xbba87b2c	-0.0051416364
99	0xbe9a4f86	-0.30138797
100	0xbdbb5356	-0.091467544
101	0xbc1fde3b	-0.009757574
102	0x3e770037	0.24121176
103	0x3e98b096	0.29822224
104	0x3deae131	0.11468733
105	0xbe8a6f04	-0.27037823
106	0xbe0fc67c	-0.1404056
107	0x3d85ad8d	0.06527243
108	0x3e785ade	0.24253413
109	0x3e54de3b	0.20787899
110	0xbe1aa792	-0.15102986
111	0xbe399107	-0.1812173
112	0xbe4a1c08	-0.19737256
113	0xbc583e52	-0.013198452
114	0xbe3f3724	-0.18673378
115	0x3d925c6a	0.07146533
116	0xbc6b9685	-0.014379148
117	0xbd0cf23f	-0.03441071
118	0xbdce9e28	-0.1008876
119	0xbe11b57d	-0.14229389
120	0xbe6af58f	-0.22945236
121	0x3e077e72	0.13231829
122	0xbcc56d5f	-0.024100004
123	0xbe5e61a0	-0.21716928
124	0xbe31502e	-0.17315742
125	0xbcab9c8a	-0.020948667
126	0x3e94c366	0.29055327
127	0xbe3f610b	-0.18689363
128	0x3b3043d8	0.0026895907
129	0x3e911f7f	0.28344342
130	0xbd6d3097	-0.057907667
131	0x3e334a94	0.17508918
132	0xbd49944e	-0.0492137
133	0x3d69cdb4	0.05708094
134	0x3e8a71dc	0.27039993
135	0xbdeac09b	-0.11462518
136	0xbd407663	-0.046987902
137	0x3e8195fd	0.25309744
138	0xbe7017df	-0.23446606
139	0x3e327866	0.17428741
140	0xbe63d9ce	-0.22251055
141	0x3de91062	0.11380078
142	0xbe6c42e5	-0.23072393
143	0x3db5fd66	0.088862225
144	0x3d9c2974	0.07625094
145	0x3d6442fb	0.05572794
146	0x3e2cd779	0.16879071
147	0x3e8bcfa5	0.27306858
148	0x3e4e9bd3	0.2017663
149	0x3e9c815f	0.30567452
150	0xbce13c08	-0.027494445
151	0xbc53f1bf	-0.012936055
152	0x3dc73b47	0.09728103
153	0x3dfdee59	0.12398977
154	0x3dd13a7a	0.10216232
155	0xbe713c61	-0.23558189
156	0x3e6b8b88	0.23002446
157	0x3e33ee93	0.17571478
158	0xbe3b3c9b	-0.18284838
159	0x3d444782	0.047919758
160	0x3d44b3f5	0.048023183
161	0xbe99e977	-0.30060932
162	0xbe036ead	-0.12835188
163	0xbe3afc9c	-0.18260425
164	0x3e938236	0.2881028
165	0x3dc0954f	0.09403478
166	0x3e0839fb	0.13303368
167	0xbdc49790	-0.09599221
168	0xbd9abda2	-0.07555701
169	0xbe3b8a96	-0.18314585
170	0xba6a297e	-0.00089325744
171	0xbe1f0ef5	-0.1553305
172	0x3d531944	0.051537767
173	0xbe8cc0fa	-0.2749098
174	0xbe39ec3c	-0.18156523
175	0xbdfb3d1c	-0.12267515
176	0x3d91891f	0.07106232
177	0xbe537df7	-0.2065352
178	0xbdaa104d	-0.083038904
179	0xbc82f774	-0.015987135
180	0xbd15f5f8	-0.036611527
181	0x3e020007	0.12695323
182	0xbe8e3f39	-0.2778261
183	0xbe3cd36e	-0.18440029
184	0x3e517e6c	0.20458382
185	0xbd9930ce	-0.07480012
186	0xbe84f115	-0.2596518
187	0x3c74773f	0.014921009
188	0xbe699d1b	-0.22813837
189	0xbe080bc9	-0.13285746
190	0xbe4d1a46	-0.20029554
191	0xbe2d3e61	-0.16918327
192	0x3e7c9eb5	0.24669917
193	0xbe46c09b	-0.1940941
194	0x3dfa1879	0.12211699
195	0x3e968fb1	0.29406503
196	0x3ca6720c	0.020318054
197	0x3d7407dd	0.05957781
198	0xbe48fffd	-0.19628902
199	0xbe6987e2	-0.22805741
200	0xbdadfdb8	-0.08495659
201	0x3d10eb8a	0.035380878
202	0x3dcab2d0	0.09897387
203	0x3df94a3c	0.12172362
204	0xbe8fcf79	-0.28087977
205	0x3e9af6e7	0.30266497
206	0x3e9e5514	0.30924284
207	0xbe15f4d1	-0.14644171
208	0x3e3392c5	0.17536457
209	0x3e7d99db	0.24765722
210	0xbe28c4de	-0.16481349
211	0x3e2d88fd	0.16946788
212	0xbde2abed	-0.110679485
213	0xbe0fe7e7	-0.14053307
214	0x3e1ab30c	0.15107363
215	0xbd9d6042	-0.07684375
216	0x3d9f40a4	0.07776001
217	0x3e653281	0.22382547
218	0xbe72c594	-0.23708183
219	0xbdb77135	-0.089571394
220	0x3e25e8ce	0.16202089
221	0xbdd75adf	-0.10515379
222	0x3e1d51a1	0.1536317
223	0x3de87396	0.11350171
224	0x3e3328a4	0.17495972
225	0x3b8c4391	0.0042805155
226	0x3d0e04f7	0.034672704
227	0x3e7c2c66	0.24626312
228	0xbe646b78	-0.22306621
229	0xbdbb1a4d	-0.09135876
230	0x3e22d84d	0.15902825
231	0x3e9011db	0.28138623
232	0xbea2f271	-0.31825593
233	0xbd80f335	-0.06296388
234	0xbe8c9db2	-0.27464062
235	0x3e5304be	0.20607278
236	0x3e989aec	0.29805696
237	0x3dcdb194	0.10043636
238	0x3e5c6a77	0.21524988
239	0xbdc1f9d0	-0.09471476
240	0xbe1e72e9	-0.15473522
241	0x3e2464fc	0.16054147
242	0xbe6ea5d9	-0.23305453
243	0x3e586983	0.21134
244	0xbe6eb2a9	-0.23310341
245	0xbe7a7fff	-0.24462889
246	0x3cd24098	0.025665566
247	0xbdf2eb8d	-0.11861334
248	0x3e51c536	0.20485386
249	0x3d8d8af9	0.069112726
250	0xbd989eed	-0.07452188
251	0xbe3aafc2	-0.18231109
252	0xbe2fe4b1	-0.17177083
253	0xbdfb87cc	-0.122817606
254	0x3d54e319	0.05197439
255	0x3c532ad5	0.01288863

bias f4 [400]
0	0x3e74d9e1	0.23911239
1	0x3df2a700	0.11848259
2	0xbdc69744	-0.096968204
3	0xbe041c70	-0.12901473
4	0xbe250c9a	-0.16118088
5	0xbe8d1f22	-0.27562815
6	0xbe8522b8	-0.2600305
7	0x3e50370b	0.20333497
8	0xbe062c0a	-0.13102737
9	0x3d93c8c0	0.072160244
10	0xbd2f59de	-0.042810313
11	0xbdcac38b	-0.09900578
12	0xbe88f109	-0.26746395
13	0xbe277c72	-0.16356066
14	0x3e3d4cfa	0.18486395
15	0xbe3de97b	-0.18546097
16	0xbd63d8d3	-0.0556267
17	0x3c99f1f1	0.018792124
18	0xbe5e5eec	-0.21715897
19	0xbe57fbd9	-0.21092166
20	0xbd2be877	-0.041969743
21	0xbe6f99b9	-0.23398484
22	0xbe65d6ee	-0.2244527
23	0x3d3c8a6c	0.046030447
24	0x3dc1636e	0.09442793
25	0xbe0d881e	-0.13821456
26	0x3e841f06	0.2580492
27	0x3e08d59c	0.13362736
28	0xbe013850	-0.12619138
29	0xbe7dfd17	-0.24803577
30	0xbe1f8885	-0.15579422
31	0x3e49e8dc	0.19717735
32	0xbdec0ab4	-0.11525479
33	0x3e8bdbd5	0.27316156
34	0xb8b16406	-8.4586485e-05
35	0x3d519079	0.05116317
36	0x3e2dfaea	0.16990247
37	0xbba93c44	-0.005164655
38	0x3d474c9a	0.048657037
39	0x3e48ae2e	0.19597694
40	0xbe93472f	-0.28765246
41	0x3e8c215a	0.27369195
42	0xbe61e585	-0.22060211
43	0xbe4435b8	-0.19161117
44	0x3e870a8b	0.2637523
45	0x3e5f2b20	0.21793795
46	0x3e781bcd	0.24229355
47	0x3e9a7bb7	0.30172512
48	0xbd7a3022	-0.06108106
49	0x3e807324	0.25087845
50	0xbe207ba7	-0.1567217
51	0xbe91111c	-0.28333366
52	0x3e9ec970	0.3101306
53	0x3e16fc75	0.14744742
54	0xbe47a553	-0.1949666
55	0x3e68bc71	0.22728135
56	0xbc427c96	-0.011870524
57	0xbe27815b	-0.16357939
58	0x3d0579cd	0.03258686
59	0x3e91435e	0.2837171
60	0x3cfd88c5	0.030949006
61	0xbe3b75b2	-0.18306616
62	0xbd9314d7	-0.07181709
63	0xbe397dc0	-0.18114376
64	0x3e248e2c	0.1606986
65	0xbe89429b	-0.26808628
66	0x3d97d5b2	0.07413806
67	0x36001f76	1.90918e-06
68	0xbdbf99fa	-0.093555406
69	0x3d323e61	0.04351652
70	0x3ea081c6	0.3134901
71	0x3e99eb95	0.30062547
72	0x3e957e66	0.29197997
73	0x3d70d6d2	0.05879862
74	0x3e1241c9	0.14282908
75	0x3dc0331f	0.093847506
76	0xbd2e20eb	-0.04251186
77	0x3e9d902b	0.30774054
78	0xbce31159	-0.027718233
79	0xbe2d0ff2	-0.16900614
80	0x3e72c7e3	0.23709063
81	0xbe478902	-0.19485858
82	0x3e5d7101	0.21625139
83	0x3cde3457	0.027124567
84	0x3da72740	0.08161783
85	0x3de32f55	0.11093012
86	0x3d748cac	0.059704468
87	0x3db16a57	0.08662861
88	0x3d3aa353	0.045565914
89	0x3cb6a306	0.022294533
90	0xbe97338b	-0.29531512
91	0xbe90cb87	-0.2828028
92	0x3e66a71c	0.22524685
93	0x3d4c8833	0.049934577
94	0x3b770a74	0.003769544
95	0xbaded1f5	-0.0016999828
96	0x3cbbcb9a	0.022924233
97	0x3d885ae3	0.0665796
98	0xbe8da315	-0.27663484
99	0x3d0bf27a	0.03416679
100	0x3d38854d	0.045049
101	0xbe15e890	-0.14639497
102	0xbe815e9a	-0.25267488
103	0x3e90e700	0.2830124
104	0xbe76c207	-0.24097453
105	0x3e3f76f2	0.18697718
106	0x3e2a65a7	0.1664034
107	0xbe876983	-0.26447687
108	0xbd9d2493	-0.076729916
109	0x3c78845c	0.015168276
110	0x3e4ffd92	0.20311573
111	0xbe1cb490	-0.15303254
112	0xbe1f7355	-0.1557134
113	0x3e456e77	0.1928042
114	0xbdb49afc	-0.088186234
115	0x3d862415	0.06549851
116	0xbe11793c	-0.14206403
117	0x3df179d5	0.11790816
118	0x3e4ab641	0.19796087
119	0xbcd6b39e	-0.026208695
120	0x3c062fb0	0.0081900805
121	0x3e72c3d7	0.2370752
122	0xbe4e48bc	-0.20144933
123	0xbe917268	-0.28407598
124	0xbe8db2cf	-0.27675483
125	0xbe24555c	-0.16048187
126	0xbe48451d	-0.19557615
127	0x3c9588c9	0.0182537
128	0xbd9d5023	-0.076813005
129	0x3e4045bf	0.18776606
130	0x3e259b64	0.16172558
131	0xbe98322d	-0.2972578
132	0x3e153594	0.1457122
133	0x3dbfaca3	0.093591
134	0x3b27d08a	0.0025606477
135	0x3e3a1c34	0.18174821
136	0x3df7ddb1	0.12102831
137	0xbddbe265	-0.10736541
138	0x3e732b53	0.23746996
139	0x3d50ca1b	0.050973993
140	0xbde91031	-0.113800414
141	0xbe8897cb	-0.2667831
142	0xbe364e54	-0.17803317
143	0x3e9e8b3f	0.3096561
144	0x3d0a03c2	0.03369499
145	0x3c1d6eae	0.009608908
146	0xbe24275c	-0.1603064
147	0xbcd40fb8	-0.025886402
148	0xbe66ccd7	-0.22539078
149	0x3e042f40	0.1290865
150	0xbe1d1ae4	-0.15342289
151	0x3e27f1ff	0.16400908
152	0xbe0e8296	-0.13917002
153	0xbe919fea	-0.28442317
154	0xbaad28c9	-0.0013211007
155	0x3e00333a	0.12519541
156	0x3e94bbcd	0.2904953
157	0x3e805898	0.25067592
158	0x3e0d44f4	0.13795835
159	0x3e08d4d4	0.13362437
160	0x3e7aae0c	0.24480456
161	0xbe5713f5	-0.21003707
162	0xbde91c28	-0.113823235
163	0xbe576107	-0.21033107
164	0xbe80526a	-0.25062877
165	0xbe8893e8	-0.26675344
166	0xbcfcb180	-0.030846357
167	0xbe8af948	-0.27143312
168	0x3e587dea	0.21141782
169	0xbe0f30e8	-0.139835
170	0x3dfb0eb3	0.12258663
171	0x3d8c9a5f	0.068653814
172	0xbc042aed	-0.008066875
173	0xbdd68928	-0.10475379
174	0x3b25dfc0	0.0025310367
175	0x3e1b380b	0.15158097
176	0x3e7dbedc	0.24779838
177	0xbd18ac96	-0.037273966
178	0xbe00f91d	-0.12595029
179	0x3e1a2b1b	0.15055506
180	0xbe75fc33	-0.24021988
181	0x3e6f418d	0.2336485
182	0x3da8bfac	0.082396835
183	0xbdddb523	-0.10825565
184	0xbdb692cf	-0.0891472
185	0x3d8dcd4d	0.06923924
186	0x3e265d79	0.16246594
187	0xbe18a975	-0.14908393
188	0xbdfb61ae	-0.1227449
189	0xbbf8e274	-0.0075953547
190	0x3d4eb5bb	0.05046628
191	0x3e9dd2e1	0.3082495
192	0xbd3c28fb	-0.04593752
193	0x3e7f313d	0.24921127
194	0xbc247f52	-0.010040121
195	0xbda3f63f	-0.08005952
196	0x3e038d36	0.12846836
197	0xbdc41f41	-0.09576274
198	0xbe4e0030	-0.20117259
199	0xbe79410d	-0.24341221
200	0xbe5d3105	-0.2160073
201	0xbce5d57e	-0.028055903
202	0x3deb8a1d	0.115009524
203	0x3d4f7c01	0.05065537
204	0xbcfd3fd7	-0.03091423
205	0x3e919a38	0.28437972
206	0x3e18ba0f	0.14914726
207	0x3e9142ed	0.28371373
208	0x3e9c5af7	0.3053815
209	0x3d19635b	0.03744827
210	0x3e265842	0.16244605
211	0xbe058701	-0.13039781
212	0x3d174bdf	0.03693759
213	0x3dbf9d7a	0.09356208
214	0x3e9a28df	0.30109307
215	0x3de28798	0.11061019
216	0xbdb75d82	-0.08953382
217	0x3dbb4553	0.09144082
218	0xbe227521	-0.15864994
219	0xbd095cb6	-0.03353568
220	0xbe41c563	-0.18922953
221	0x3e3aef20	0.18255281
222	0xbd5fd3ef	-0.054645475
223	0x3e487def	0.1957929
224	0x3e3ecea6	0.18633518
225	0xbd97fd53	-0.07421365
226	0x3e98a749	0.29815128
227	0x3e80aea8	0.25133252
228	0xbdf81931	-0.1211418
229	0x3e3939aa	0.18088403
230	0xbd914520	-0.07093263
231	0x3e8d7af1	0.2763286
232	0xbdca32d9	-0.0987298
233	0xbd956598	-0.07294768
234	0xbe092cea	-0.1339604
235	0x3e812862	0.25226122
236	0x3e2438dd	0.16037317
237	0x3d9d3461	0.07676006
238	0x3e7ec4c7	0.24879752
239	0x3e7ecb8e	0.24882337
240	0x3d8585bb	0.06519648
241	0x3db846ea	0.08997901
242	0xbe47aab5	-0.19498713
243	0xbcb0491b	-0.021519234
244	0x3e56d873	0.20981006
245	0xbdedb69e	-0.11607097
246	0x3e746e4d	0.23870201
247	0xbe44696b	-0.19180839
248	0x3e79d414	0.24397308
249	0xba16e06a	-0.0005755486
250	0x3e24804e	0.1606457
251	0x3e43fed6	0.19140181
252	0xbce06d05	-0.027395735
253	0xbc3e3d83	-0.011611345
254	0xbe2ddeaf	-0.16979478
255	0xbdebb0f3	-0.1150836
