RTSNet/new_architecture/linear_Journal/observation_mismatch/rq3050_Hhat.pt (torch, 138317 bytes, 68 tensors)

weight_ih_l0 f4 [12, 10]
0	0x3a826fe9	0.0009951565
1	0xbed1f1e2	-0.41004854
2	0x3eac1d55	0.3361613
3	0x3c96b268	0.018395618
4	0xbe908563	-0.28226766
5	0xba9bf7cc	-0.0011899411
6	0x386c9048	5.6401157e-05
7	0x3e0661bd	0.13123222
8	0x39245f30	0.00015675719
9	0xbc39b603	-0.011334899
10	0x3e8bce4f	0.27305838
11	0x3eb9ee29	0.36314514
12	0x3a83d670	0.0010058414
13	0x3ec106cc	0.37700498
14	0xbe1407bc	-0.14456075
15	0x3e51e200	0.20496368
16	0x3db60db9	0.08889336
17	0xbed9d653	-0.4254633
18	0x3cdb16b2	0.02674422
19	0x3e6b93fe	0.23005673
20	0x3e91996f	0.28437373
21	0x3eaf29bc	0.34211528
22	0x3b8cbc84	0.0042949338
23	0xbe00a8f9	-0.12564458
24	0x3e1b3fa4	0.15160996
25	0xbd1db922	-0.038506635
26	0xbd90ee4e	-0.07076703
27	0x38016ea8	3.0859053e-05
28	0x3e80e5da	0.25175363
29	0x3e5b5cb7	0.21422087
30	0xbe3ca4a7	-0.18422185
31	0x3db466f8	0.08808702
32	0x3a6ac0d8	0.00089551276
33	0xbcfc0d8c	-0.030768178
34	0x3e883ef8	0.2661054
35	0x3e20511b	0.1565594
36	0xbe0e2c31	-0.13884045
37	0xbe9d5672	-0.30730015
38	0x3e9a1905	0.30097213
39	0x3edb8420	0.4287424
40	0x3d995f93	0.074889325
41	0xbddde5fe	-0.10834883
42	0x3ec9e77e	0.39434427
43	0xbeac1bd5	-0.33614984
44	0xbe562474	-0.20912343
45	0x3dffc083	0.124878906
46	0xbe9c7326	-0.305566
47	0x3aa88046	0.0012855611
48	0xbd8061b0	-0.062686324
49	0xbe7b676d	-0.24551173
50	0x3e6edf51	0.23327376
51	0xbd8ce104	-0.06878856
52	0xbde713cc	-0.11283073
53	0xbcd4aa90	-0.025960237
54	0xbe35a9a9	-0.17740501
55	0xbeab85ea	-0.33500606
56	0x3e896210	0.26832628
57	0xbe4d0d83	-0.20024686
58	0xbea4f617	-0.32219002
59	0xbe8ee119	-0.2790611
60	0xb97a6a80	-0.00023881532
61	0x3eaa61e5	0.33277813
62	0xbea3f3cb	-0.32021937
63	0xbe401603	-0.18758397
64	0xbe85c569	-0.26127174
65	0xbed12db1	-0.40855172
66	0x3d5c5e43	0.053800832
67	0x3ed866a0	0.42265797
68	0x38c6cecc	9.479895e-05
69	0x3ebde318	0.3708732
70	0x3dfeda43	0.12443974
71	0xbc89d2eb	-0.016824206
72	0x3ea6c789	0.32574108
73	0x3eb5e5c5	0.35526863
74	0x3ea64fb4	0.32482684
75	0xb5eb93e0	-1.7551902e-06
76	0x3e24e5de	0.16103312
77	0x3bd8f224	0.0066206623
78	0xb9d3a0be	-0.00040364818
79	0x3eae73b9	0.34072664
80	0xbeab5045	-0.33459678
81	0x3e4972db	0.1967272
82	0xbec9fd5c	-0.3945111
83	0x3dabce2e	0.08388935
84	0xbe8d91bc	-0.2765025
85	0xb9d1f8da	-0.00040048995
86	0x3ecda27d	0.4016303
87	0xbe3b9507	-0.18318568
88	0xbd54a6c3	-0.05191685
89	0xbeace672	-0.33769566
90	0x3e3d7504	0.18501669
91	0xbb9a88d3	-0.0047160177
92	0xbe679165	-0.22614057
93	0xbe30ebae	-0.17277405
94	0xbdff908d	-0.12478743
95	0x3ed3ae6a	0.41344005
96	0x3dea1af9	0.11430926
97	0xbc035e6e	-0.008018119
98	0x3e6349bc	0.22196096
99	0xbe6f8e28	-0.23394072
100	0xbeade365	-0.3396255
101	0xbcc32235	-0.023820022
102	0xbc9a8982	-0.018864397
103	0xbec05da1	-0.37571433
104	0xbe739511	-0.23787333
105	0xbe93821e	-0.2881021
106	0xbe021df6	-0.12706742
107	0x3ebab51e	0.36466306
108	0x3ebb0b59	0.36532095
109	0x3ec12ae6	0.3772804
110	0x3dcc6237	0.099796705
111	0xbed3059f	-0.41215226
112	0xbca73985	-0.02041317
113	0x3ed230e7	0.41052935
114	0xbebdb014	-0.370484
115	0xbeaf16e4	-0.34197152
116	0xbd3a1b56	-0.045436226
117	0xbbd48a1a	-0.0064861896
118	0x3a9f211a	0.0012140602
119	0x3c52fc1a	0.0128774885

weight_hh_l0 f4 [12, 4]
0	0x3e7829da	0.24234715
1	0x3ed11a51	0.4084039
2	0x3eb68d6c	0.3565477
3	0xbe44bec9	-0.19213404
4	0x3eabe9f2	0.33576924
5	0xbe044e85	-0.12920578
6	0xba9a83d3	-0.0011788554
7	0x3ed169f6	0.40901154
8	0x38dd1be8	0.00010543299
9	0x3e5e8dee	0.2173383
10	0x3ed97231	0.42469934
11	0xbecfa7c9	-0.40557697
12	0xbe2487f1	-0.16067483
13	0x3e1328ae	0.14370987
14	0x3ec7cbc1	0.3902264
15	0x3ea83a0c	0.32856786
16	0xbe5089aa	-0.20365015
17	0x3e28e974	0.16495305
18	0xbecc1a5e	-0.39863867
19	0xbd3050b9	-0.043045733
20	0xb9819d15	-0.00024721833
21	0x3d13a3d4	0.03604491
22	0xbe115b5d	-0.14195009
23	0xb944e1dd	-0.00018776157
24	0x3e761737	0.24032293
25	0x3e971568	0.2950852
26	0xbeb3d6bb	-0.35124764
27	0x3e504b03	0.20341115
28	0x3eb9da1c	0.36299217
29	0x3e38cecf	0.18047641
30	0x3e49b4e3	0.19697909
31	0x3e96bf58	0.2944286
32	0xbe4026af	-0.18764757
33	0x3e95aa43	0.29231462
34	0xbed689c9	-0.41901997
35	0x3e9a8bd1	0.30184796
36	0x3ec0e239	0.37672594
37	0x3ed13f56	0.40868634
38	0xb9e9813d	-0.00044537513
39	0xbb810ba7	-0.0039381566
40	0xbed953ba	-0.4244669
41	0x3e070a12	0.13187435
42	0xbddb44c1	-0.10706473
43	0xbd94315e	-0.072359785
44	0xbe8218b2	-0.25409466
45	0x3d3beca3	0.04587997
46	0x3e37a74d	0.17934914
47	0x3e58159f	0.21101998

bias_ih_l0 f4 [12]
0	0xbe2c2591	-0.16811205
1	0x3d5eec58	0.054424614
2	0x3a24cc9c	0.00062865927
3	0xbe2fbb8a	-0.17161384
4	0xbe11d649	-0.142419
5	0xbea3a154	-0.3195902
6	0x3e2eff91	0.17089678
7	0xbec06422	-0.37576395
8	0xbd4f0088	-0.050537616
9	0xbda4b9c7	-0.08043247
10	0x3ea9715f	0.33094308
11	0xbe205f13	-0.15661268

bias_hh_l0 f4 [12]
0	0x3ed9bfac	0.42529047
1	0x3cde5654	0.027140774
2	0xbedfd5dc	-0.4371785
3	0xbecf9c4e	-0.4054894
4	0x3e8e22c5	0.27760902
5	0x3dbe5a18	0.09294528
6	0xbd215a7c	-0.039392933
7	0xbe6dd546	-0.23225889
8	0x3e33f00f	0.17572044
9	0x3ec8b511	0.39200643
10	0xbe0916d1	-0.1338761
11	0xbec4934c	-0.3839363

weight_ih_l0 f4 [12, 14]
0	0x3d08e736	0.033423625
1	0x3e33a821	0.17544605
2	0x3ecd4ab8	0.40096068
3	0xbeaa956d	-0.33317128
4	0xbd4bc24e	-0.04974585
5	0xbed2639e	-0.41091627
6	0xbe24b718	-0.1608547
7	0xbe66ab09	-0.22526182
8	0x3eab93ee	0.335113
9	0x3e478e4b	0.19487874
10	0x3e84171f	0.2579889
11	0x3e9104c7	0.28323957
12	0x3ea221eb	0.31666502
13	0xbeb46bfe	-0.35238642
14	0x3e6df82d	0.23239203
15	0x3d66a2ce	0.056307606
16	0xb9946bde	-0.00028309127
17	0x3edc7705	0.43059555
18	0xbcc99d1c	-0.024611048
19	0x3e39c7f7	0.18142687
20	0xbe5ec39d	-0.21754308
21	0xbdcff395	-0.101538815
22	0xbe3838b0	-0.17990375
23	0x3e1a9cab	0.15098827
24	0xbea173db	-0.31533703
25	0xbe891a46	-0.26777858
26	0x3ecd7334	0.40126956
27	0x3eb72ddd	0.35777178
28	0xbd6f4979	-0.05841968
29	0x3e0450d1	0.12921454
30	0xbe83fb29	-0.25777557
31	0xbebc9e9b	-0.36839756
32	0x3eae923d	0.34095946
33	0x38967791	7.174828e-05
34	0xbe073114	-0.13202316
35	0xba2dda46	-0.00066319515
36	0x3e41685e	0.18887469
37	0x3ebdfeaa	0.37108356
38	0x3d8934c1	0.06699515
39	0x3ebdd4e2	0.3707648
40	0x3b4acc20	0.0030944422
41	0xbe5d75f8	-0.21627033
42	0xbda2a47d	-0.0794153
43	0xbeda9c97	-0.42697594
44	0x3e1d17de	0.15341136
45	0xbe9800e6	-0.29688185
46	0x3e940b30	0.28914785
47	0x3eb68e61	0.356555
48	0xbeb3d329	-0.3512204
49	0x3d4695e0	0.048482776
50	0xbdc8d8f7	-0.09807008
51	0xbebdb674	-0.37053263
52	0x38ca8509	9.65689e-05
53	0xbdb70b4a	-0.089377
54	0xbe373c7a	-0.17894164
55	0x3df89297	0.12137335
56	0xbed7308a	-0.4202922
57	0x3eb414cb	0.35172114
58	0xbcd3d462	-0.025858108
59	0x3ed93171	0.42420533
60	0xbd435911	-0.047692362
61	0xbe914e47	-0.28380033
62	0x3ca8c4bb	0.02060162
63	0x3e1d47b2	0.15359381
64	0xbe9109ab	-0.2832769
65	0x38a98a34	8.08429e-05
66	0xbe39df2c	-0.1815154
67	0x3ed38d07	0.41318533
68	0x3ecea9c6	0.40363902
69	0x3dd09a14	0.10185638
70	0x3e90f5fc	0.2831267
71	0x3d586297	0.052828398
72	0xbe520ca0	-0.20512629
73	0xbddec7e0	-0.10877967
74	0x3e4e070f	0.2011988
75	0xbc541c8e	-0.012946261
76	0x3dee3664	0.11631468
77	0x3de4c47c	0.11170289
78	0xbbd4b97d	-0.0064918385
79	0x3d8c3ad5	0.06847159
80	0xbecb37ac	-0.39690912
81	0xbe21c981	-0.15799524
82	0xbdfe4286	-0.12415032
83	0xbec6dbe7	-0.38839647
84	0xbeb08083	-0.34473047
85	0xbb8810ca	-0.004152392
86	0x3d13673f	0.035987135
87	0xbe3108fd	-0.17288585
88	0xbdd63089	-0.10458476
89	0xbeb07f2a	-0.34472018
90	0x3ed35375	0.4127461
91	0xbeabb55c	-0.33536804
92	0xbd9eef1a	-0.07760449
93	0xbec55b76	-0.38546342
94	0x3e2eb349	0.1706058
95	0xbd5fabb7	-0.05460712
96	0xbe077d60	-0.1323142
97	0x3e2ff370	0.17182708
98	0xbe9a0764	-0.30083764
99	0xbce0c66f	-0.02743837
100	0xbdf47c21	-0.11937738
101	0xbeb34382	-0.35012442
102	0xbc306849	-0.010767051
103	0xbb9ce959	-0.0047885594
104	0xbe95fa91	-0.2929273
105	0xbe856757	-0.26055405
106	0xbede65ad	-0.43436947
107	0xbd89b900	-0.06724739
108	0xbe34fd12	-0.17674664
109	0x3e48ec3f	0.1962137
110	0x3e5348e5	0.20633276
111	0x3d65e08e	0.056122355
112	0x3edfe9c1	0.43733028
113	0xbbf76769	-0.0075501692
114	0xbd6d2cc4	-0.05790402
115	0x3ea405f3	0.3203579
116	0xbec70dc0	-0.38877678
117	0x3ddb5749	0.10710008
118	0xbe4bb41c	-0.19892925
119	0x3e86f8e7	0.26361772
120	0xbe8151b7	-0.25257656
121	0x3eb62390	0.35574007
122	0xbed4eec0	-0.41588402
123	0x3d65c026	0.05609145
124	0xbe80c99d	-0.2515382
125	0xbdc997ae	-0.09843384
126	0xbd7ebcc2	-0.062191732
127	0x3cacd6b0	0.021098465
128	0xbcc05abf	-0.023480771
129	0x3df62958	0.120196044
130	0x3c19b998	0.009382628
131	0xbdb76f27	-0.089567475
132	0xbc448a68	-0.011995889
133	0xbddb03d5	-0.1069409
134	0x3ed6ac9a	0.4192856
135	0xbaf15a09	-0.0018413673
136	0x3d2ada44	0.04171206
137	0x3b654b86	0.0034987642
138	0x3d581772	0.052756734
139	0x3c47eed2	0.012202935
140	0xbe4607dc	-0.19338936
141	0xba48b836	-0.0007656844
142	0x3e2aa965	0.16666181
143	0xbece2cb7	-0.4026849
144	0x3da55df6	0.08074562
145	0x3ec9c469	0.39407662
146	0x3d526be3	0.05137242
147	0x39fa2439	0.00047710704
148	0xbe32cd60	-0.17461157
149	0x3e4aff34	0.19823915
150	0xbe839208	-0.2569735
151	0xbedd2484	-0.43191922
152	0xbe0f56ba	-0.13997927
153	0xbe194792	-0.14968708
154	0x3ed1490c	0.40876043
155	0x3e1a277d	0.15054126
156	0x3e8664ce	0.26248783
157	0x3e5bc8ff	0.21463393
158	0x3e8860c6	0.26636332
159	0x3dfcd17f	0.12344646
160	0xb9ece3aa	-0.0004518305
161	0xbe4c2ec9	-0.19939722
162	0xb95f8f78	-0.00021320384
163	0xbcbd9699	-0.0231431
164	0xbdd6c123	-0.10486057
165	0x3e676638	0.22597587
166	0xbe95d9b6	-0.29267663
167	0x3d895275	0.067051806

weight_hh_l0 f4 [12, 4]
0	0xbe3b5775	-0.18295081
1	0xbe1694da	-0.1470522
2	0xbe8ea722	-0.27861887
3	0xbdcc5c2d	-0.09978519
4	0xbcb149ba	-0.0216416
5	0xbe6bbce3	-0.23021273
6	0x3e3d2fb0	0.18475223
7	0x3eb2542e	0.3482985
8	0x3e2679e0	0.16257429
9	0x3e1479f5	0.14499648
10	0xbe0610ce	-0.13092348
11	0x3e856c1f	0.26059052
12	0x3ebc0267	0.36720583
13	0x3d00d46a	0.031452574
14	0x3c2661ae	0.010155125
15	0xbaee1c89	-0.0018166463
16	0xbedbc8da	-0.42926675
17	0x3e98176c	0.2970537
18	0x3e8e315e	0.2777204
19	0x3dca282f	0.09870946
20	0xbea6a16f	-0.3254504
21	0xbc7f8c11	-0.015597359
22	0x3a8ce36b	0.0010748928
23	0x3e96021f	0.29298493
24	0x3e2c07ed	0.16799898
25	0xbd83d636	-0.06437342
26	0x38e293ea	0.00010804071
27	0x3e9659b0	0.293653
28	0xbe09dcb7	-0.13463102
29	0x3c726f0e	0.014796985
30	0xbe2f64c5	-0.17128284
31	0x3ea87937	0.3290498
32	0xbebdc7cc	-0.37066495
33	0x3ed287d0	0.41119242
34	0xbd5516a6	-0.052023552
35	0x3ebf86f7	0.37407658
36	0x3e2ac51e	0.16676757
37	0x3ed0efc2	0.4080792
38	0xbe9bd2c0	-0.30434227
39	0x3c3e443a	0.011612946
40	0x3ea216b0	0.31657934
41	0x3ccf6a48	0.025319234
42	0xbd101729	-0.035178337
43	0xbedd1305	-0.43178573
44	0x3da4f36a	0.0805424
45	0xbc240452	-0.010010796
46	0x3eb88042	0.36035353
47	0xbebaf3db	-0.36514172

bias_ih_l0 f4 [12]
0	0x3bca878f	0.0061807106
1	0x3ed229f9	0.41047648
2	0x3e3cc441	0.1843424
3	0xbcef026e	-0.029175963
4	0x3e8825a9	0.26591232
5	0xbda8d086	-0.08242898
6	0xbeb44583	-0.35209283
7	0xbceb5fb7	-0.028732164
8	0xbd375a13	-0.044763636
9	0x3d6ce8c2	0.057839163
10	0x3ec8a37d	0.39187232
11	0xbd59071a	-0.05298529

bias_hh_l0 f4 [12]
0	0xbed2ca97	-0.4117019
1	0xbeaa8315	-0.33303133
2	0xbb1a4405	-0.0023539078
3	0x3eb7a833	0.35870513
4	0xbd537d3b	-0.0516331
5	0x3e12588c	0.1429159
6	0xbebd187f	-0.36932752
7	0xbd8fbfda	-0.07019015
8	0x3ec7fd2c	0.39060342
9	0xbe19e211	-0.15027644
10	0x3e895093	0.26819286
11	0xbe041a5a	-0.12900677

weight_ih_l0 f4 [12, 24]
0	0x3e6f9bf4	0.23399335
1	0xb7bc84c0	-2.2473163e-05
2	0x39b210a8	0.00033963216
3	0xbeb430ec	-0.35193574
4	0xbe3dfd81	-0.18553735
5	0x3e1682e0	0.14698362
6	0xbd0adf6e	-0.033904485
7	0x3e317afa	0.17332068
8	0xbd5696b8	-0.05238983
9	0xbedb23e7	-0.4280083
10	0xbeba65ce	-0.36405796
11	0x3a4a22e5	0.0007710888
12	0x3e5f8cd2	0.21831062
13	0xbb0103cf	-0.0019686108
14	0xbea9fc64	-0.3320037
15	0x3df97fdb	0.121825896
16	0xbe5b0b01	-0.21390916
17	0xbe7ec139	-0.24878396
18	0x3e60f56f	0.21968625
19	0xbe06a297	-0.1314796
20	0x3ebc05e1	0.36723235
21	0xb9c51eb2	-0.00037597638
22	0xbde42a81	-0.111409195
23	0xbdfef7c5	-0.12449602
24	0xbed2c9ef	-0.41169688
25	0x3e5b67c4	0.21426302
26	0xbe2ed811	-0.1707461
27	0xbec07738	-0.37590957
28	0xbe3b973a	-0.18319407
29	0x3e992e7e	0.29918283
30	0x3ebe9783	0.3722497
31	0xbe74a7f8	-0.238922
32	0xbd5f1a60	-0.054468513
33	0x3e9156e8	0.28386617
34	0xbda71ac8	-0.08159405
35	0xbed74d21	-0.42051032
36	0x3ecbd568	0.39811254
37	0x3c60e57f	0.013726591
38	0xbebef643	-0.37297258
39	0x3dd7b24b	0.105320536
40	0x3ddcdf38	0.10784763
41	0xbe8d53e3	-0.27603063
42	0x3ed65ee4	0.4186927
43	0x3eddb8fe	0.433052
44	0x3ac2c06a	0.0014858369
45	0xbeda77c2	-0.42669493
46	0xbecdc85a	-0.4019192
47	0xbd4fa0cb	-0.050690453
48	0xbd2d04f5	-0.042241056
49	0xbedcda7d	-0.43135443
50	0x3e328fca	0.17437664
51	0xbeba4e70	-0.36387968
52	0x3a37262f	0.0006986586
53	0xbd137915	-0.036004145
54	0xb9634289	-0.00021673193
55	0x3e1e0e65	0.15435179
56	0x3e5c56b4	0.2151745
57	0x3eceefbd	0.4041728
58	0xbeac0148	-0.33594728
59	0xbc78d093	-0.015186447
60	0x391f7c34	0.00015209691
61	0xbd739083	-0.05946399
62	0xbda40f85	-0.080107726
63	0xbed48e27	-0.41514704
64	0x3e0890cb	0.13336484
65	0xbe9f4abc	-0.31111705
66	0x3d86cbdc	0.06581852
67	0xbc693332	-0.014233397
68	0x3e214eaf	0.15752672
69	0xbe1c3780	-0.15255547
70	0xbe9a5103	-0.30139932
71	0xbe9ab005	-0.30212417
72	0x3dbc2f2b	0.09188684
73	0xbdcb1a7a	-0.099171594
74	0x3d68c57b	0.056828957
75	0x3ecc52d0	0.3990693
76	0x3d2bf2e6	0.041979693
77	0x3cbb62a8	0.022874191
78	0xbd880a6b	-0.06642612
79	0xbea7173b	-0.3263491
80	0x3e9fb575	0.31193128
81	0x3e99d6e3	0.30046758
82	0x3e038d35	0.12846835
83	0xbe7ab07d	-0.24481387
84	0xb980d58c	-0.00024573167
85	0x3e239bbc	0.15977377
86	0xbe3e0cac	-0.18559521
87	0x3ea050d0	0.31311655
88	0xbdb201bc	-0.08691737
89	0xbe5c5079	-0.21515073
90	0xbdd67c59	-0.10472936
91	0xba93ef7a	-0.001128658
92	0x3e3f2840	0.18667698
93	0x3e7e41e7	0.24829827
94	0xbdd33c00	-0.103141785
95	0x3ca8829b	0.02057009
96	0x3e93a5d7	0.28837463
97	0xbdb70f9d	-0.08938525
98	0xbed7c147	-0.42139646
99	0x3c419c25	0.011817013
100	0xbe808627	-0.2510235
101	0xbe4bc66d	-0.19899912
102	0x3e19943b	0.14997952
103	0xbe772703	-0.24135976
104	0x3be5fe32	0.007018828
105	0x3ed78512	0.42093712
106	0x3de52dfc	0.111904114
107	0xbd89cbda	-0.06728335
108	0x3e0621fb	0.130989
109	0x3e8a49ea	0.27009517
110	0xbdd1c244	-0.10242131
111	0x3e788d64	0.24272686
112	0x3e4e5159	0.20148219
113	0x3e6facec	0.23405808
114	0x3eb45b0d	0.35225716
115	0x3e5eb2c7	0.21747886
116	0x3e8058aa	0.25067645
117	0x3e79fa66	0.24411926
118	0x3e375afd	0.17905803
119	0xbc4c3aa5	-0.012465154
120	0xbe6dc4cb	-0.23219602
121	0x3b667ba8	0.003516892
122	0xba947af1	-0.0011328143
123	0x3ec20271	0.37892488
124	0xbc002efb	-0.007823701
125	0xbe1c6a8b	-0.15275018
126	0xbe2a3b33	-0.16624145
127	0x3ecd8145	0.40137687
128	0x3ea8c22c	0.3296064
129	0xba3ac195	-0.0007124183
130	0xbec3d52a	-0.3824857
131	0xbe77075c	-0.24123901
132	0x3eded042	0.43518263
133	0xbe3794b0	-0.17927814
134	0x3e97232f	0.2951903
135	0xbd875ef1	-0.066099055
136	0xbe6b77c6	-0.22994909
137	0x3cdb4921	0.026768269
138	0xbecba628	-0.39775205
139	0x3e454914	0.19266158
140	0x3e2ca937	0.16861425
141	0x3c5e3ec6	0.013564771
142	0xbabe1252	-0.001450131
143	0x3df6d6ae	0.12052666
144	0xbdbfd734	-0.093672186
145	0xbd1f7b4e	-0.038935952
146	0x3d2ff0d4	0.04295428
147	0xbeca905c	-0.39563262
148	0xbe632902	-0.22183612
149	0x3e98342a	0.29727298
150	0xbceb7123	-0.028740471
151	0x3e2b6324	0.16737038
152	0xbea288cc	-0.31744993
153	0xbdf5d029	-0.12002594
154	0xbd7556ba	-0.059897162
155	0xbe04d9e0	-0.12973738
156	0xbe74d963	-0.23911051
157	0xbecb1b77	-0.39669392
158	0xbea8310d	-0.32849923
159	0x3dcb902e	0.099396095
160	0xbbbe7dea	-0.00581335
161	0xbda47591	-0.080302365
162	0x3d316571	0.043309633
163	0xbed7f64c	-0.42180097
164	0xbedeaebb	-0.43492684
165	0x3ed6554a	0.41861945
166	0xbea86b59	-0.328944
167	0xb922ca9c	-0.00015525002
168	0xbdb9a208	-0.09064108
169	0x3e0b2f77	0.13592325
170	0xbeb50624	-0.35356247
171	0xbdc9988a	-0.09843548
172	0xba17af66	-0.0005786329
173	0xba5bfc12	-0.00083917484
174	0x3dfbdeda	0.12298365
175	0x3e2a3778	0.16622722
176	0x3ec4df57	0.38451645
177	0x3ed99c59	0.42502096
178	0x3dc4bef1	0.09606732
179	0x3c8cd925	0.017193386
180	0xbec3b436	-0.38223428
181	0xbe462a72	-0.19352129
182	0x3d8d6c7a	0.06905456
183	0x3e723e21	0.23656513
184	0xbe6282be	-0.22120187
185	0xbe830ac6	-0.25594157
186	0xb8175c4d	-3.6087167e-05
187	0x3e258a85	0.16166122
188	0xbe611ebf	-0.21984385
189	0xbe38b80a	-0.18038955
190	0xbd5e48c7	-0.054268625
191	0x37b1ff6e	2.1218988e-05
192	0xbe3769c0	-0.17911434
193	0xbe856cab	-0.2605947
194	0x3d517156	0.051133476
195	0x3e221669	0.15828861
196	0xbd221a74	-0.03957601
197	0x3e033e1a	0.12816659
198	0xbeb625f1	-0.35575822
199	0x3d9b3518	0.07578486
200	0xba5f555d	-0.0008519495
201	0x3cee6d8f	0.029104976
202	0xbddff196	-0.10934751
203	0x3e4007d7	0.1875299
204	0x3e40fe7b	0.18847077
205	0xbe9afd54	-0.302714
206	0xbeabed7b	-0.3357962
207	0x3e9d1f30	0.30687857
208	0xbecc2ac2	-0.39876372
209	0xbe18e468	-0.1493088
210	0x3ea05596	0.31315297
211	0x3ecc22b8	0.39870238
212	0xbd810ca6	-0.063012406
213	0x3d0e5da9	0.03475729
214	0xb8119ac8	-3.4714845e-05
215	0x3e59332a	0.21210924
216	0x3e846c59	0.25863913
217	0xba0d491b	-0.00053896167
218	0x3e2762b2	0.16346243
219	0x3e960f16	0.29308385
220	0xbe34c774	-0.1765421
221	0x3daaa2ef	0.08331858
222	0xbd09ce09	-0.033643756
223	0x3ec62789	0.38702038
224	0x3d445690	0.047934115
225	0xbebf5673	-0.37370643
226	0xbe88aef4	-0.2669598
227	0xbe0f5704	-0.13998038
228	0xbe802e40	-0.25035286
229	0x3e6309c5	0.22171696
230	0xbc95666a	-0.018237311
231	0xbea0c38c	-0.3139919
232	0x3e25fd10	0.16209817
233	0x3b9208d8	0.0044566207
234	0x3ecf9d39	0.4054964
235	0xbe584ce5	-0.21123083
236	0xbe3a57f6	-0.18197617
237	0x3d8c8766	0.06861763
238	0xbedd164b	-0.4318107
239	0xbeaac06a	-0.33349925
240	0xbeafe154	-0.343516
241	0x3e947a1c	0.28999412
242	0x3ed95f6d	0.42455617
243	0x3de89384	0.113562614
244	0xbe00f611	-0.12593867
245	0x3e4f36e3	0.20235781
246	0x3e93c11c	0.28858268
247	0x3e29699b	0.16544192
248	0xbe31cd1e	-0.17363402
249	0xbed90a4a	-0.42390662
250	0x3ece191a	0.40253526
251	0xbed1ed9a	-0.41001588
252	0xbdada31e	-0.08478378
253	0xbc8a204a	-0.0168611
254	0xbe412561	-0.18861915
255	0xbe6bb08d	-0.23016568

weight_hh_l0 f4 [12, 4]
0	0x3de02efc	0.109464616
1	0xbda2d112	-0.07950033
2	0xbed36e2c	-0.41294992
3	0x3e65a883	0.22427563
4	0x3dc0fe8c	0.09423551
5	0xbe59be66	-0.21264037
6	0x3bde0f3d	0.006776719
7	0x3e9d643b	0.30740532
8	0x3ec9f905	0.394478
9	0xbdce8ca6	-0.1008542
10	0x3cda1df5	0.026625613
11	0x3897c3db	7.236722e-05
12	0xbe816e6b	-0.25279555
13	0xbe8efb44	-0.27926075
14	0x3e2b3ced	0.1672246
15	0xbd8b0df1	-0.067897685
16	0x3d885a30	0.06657827
17	0x3c78a36b	0.015175681
18	0x3ea08873	0.31354102
19	0xbd9fe320	-0.078069925
20	0xbda38111	-0.07983602
21	0x3d11c073	0.035583925
22	0x3e96f978	0.29487205
23	0xbe319bee	-0.17344639
24	0xbea7cd78	-0.32773948
25	0xbea8e00b	-0.3298343
26	0xbe7ab77a	-0.24484053
27	0xbec87da2	-0.3915835
28	0x3eb910bd	0.36145583
29	0xbeb8c952	-0.36091095
30	0x3e9f575d	0.3112134
31	0x3e988f3c	0.2979678
32	0x3e92b7df	0.28655908
33	0xbede1fa2	-0.4338351
34	0xbd4ffc1d	-0.050777543
35	0xbe01482e	-0.1262519
36	0xbe7e9c65	-0.24864347
37	0x3e088145	0.13330562
38	0xbed245bd	-0.4106883
39	0xbeca72f1	-0.39540818
40	0x3d90f24a	0.07077463
41	0xbe93ae9e	-0.2884416
42	0x3a22219a	0.00061848166
43	0xbe6eae27	-0.23308621
44	0x3e0b0fe0	0.13580275
45	0x3dc93977	0.09825414
46	0x3d3e899b	0.04651795
47	0x3e42fc05	0.1904145

bias_ih_l0 f4 [12]
0	0xbeabce0d	-0.33555642
1	0x3e91136d	0.28335133
2	0xbc5e19d9	-0.013555967
3	0xbb77a9af	-0.0037790348
4	0xbe3ca47b	-0.1842212
5	0x3e7b45f4	0.24538404
6	0x3e295989	0.16538061
7	0x3a2b119b	0.0006525756
8	0x3eda8245	0.42677513
9	0xbe6d1984	-0.23154265
10	0xbea08863	-0.31354055
11	0xbe49bc9b	-0.19700854

bias_hh_l0 f4 [12]
0	0xbe4cdc40	-0.20005894
1	0x3edb1bce	0.4279465
2	0x3cfd0179	0.030884491
3	0xbdab6b61	-0.0837009
4	0xbeb64cfe	-0.35605615
5	0x3eb687e8	0.35650563
6	0x3ebca90f	0.3684773
7	0xbe919d5c	-0.28440368
8	0xbe748f6f	-0.2388284
9	0xbe482c89	-0.19548239
10	0xbeb64116	-0.35596532
11	0x3e5656b2	0.20931509

weight f4 [4, 4]
0	0xbb99ec4d	-0.0046973587
1	0xba6fec84	-0.000915237
2	0xbe8dc932	-0.27692562
3	0xbed927a0	-0.42413044
4	0xba1ae203	-0.0005908312
5	0x3cc6148f	0.024179725
6	0x3e496876	0.19668755
7	0xbe9bc246	-0.30421656
8	0xbd691aeb	-0.056910437
9	0x3ed2650d	0.4109272
10	0xbe25f1a7	-0.16205464
11	0x3ebbbdea	0.3666833
12	0xbc827d27	-0.015928818
13	0x3d1d3529	0.038380776
14	0x3de2fbc9	0.110831805
15	0xbed5d3ca	-0.41763145

bias f4 [4]
0	0x3ec7fb22	0.39058787
1	0xbe6bd9b5	-0.23032267
2	0xbe6a3188	-0.22870457
3	0x3e13003d	0.1435556

weight f4 [320, 8]
0	0xbe905fe4	-0.2819816
1	0x3dc20e0e	0.09475337
2	0xb9d092f3	-0.00039782337
3	0xbd084d78	-0.033277005
4	0x3e921575	0.28531995
5	0x3cc18100	0.023621082
6	0x3e4aa098	0.19787824
7	0x3d5dcb61	0.054149035
8	0xbdb7fc4d	-0.089836694
9	0x3dfebd26	0.12438421
10	0x3df52486	0.11969857
11	0xbb6719ed	-0.0035263256
12	0xbc572264	-0.013130758
13	0x3c186fa6	0.009303963
14	0x3dffe94a	0.12495668
15	0x3e04b837	0.12960897
16	0x3e6bbc57	0.23021065
17	0x3e3e5368	0.18586504
18	0xbe3ed5d8	-0.18636262
19	0x3cc24781	0.023715736
20	0xbd19a910	-0.037514746
21	0x3e22c9d6	0.15897307
22	0x3de3ba27	0.1111949
23	0xba8c1e43	-0.0010690171
24	0x3e703202	0.23456576
25	0x3e6fbf22	0.23412755
26	0xbcaecfb8	-0.021339282
27	0x37c1330c	2.3031163e-05
28	0xbdf26aa8	-0.11836749
29	0xbe772dbb	-0.24138539
30	0xbe86d458	-0.2633388
31	0xbe89a7de	-0.26885885
32	0xbcfb5567	-0.030680371
33	0x3db0f5c7	0.08640628
34	0xbd420b0d	-0.04737382
35	0x3e3e572a	0.18587938
36	0xbe9211a1	-0.28529075
37	0xbb5965e4	-0.0033172304
38	0x3dee4093	0.1163341
39	0xb984cc9e	-0.00025329454
40	0xbe7bb721	-0.24581577
41	0x3bf75494	0.0075479243
42	0x3e0681da	0.13135472
43	0x3d81f920	0.06346345
44	0xbe56cb80	-0.20976067
45	0xb7c85cae	-2.3885015e-05
46	0x3a55a954	0.0008150537
47	0xbe007512	-0.12544659
48	0xbab096bc	-0.0013472657
49	0xbccbdff2	-0.024887059
50	0xbd27a069	-0.040924463
51	0xbc3d3f09	-0.011550673
52	0xba8cadee	-0.0010732987
53	0xbe4bc880	-0.19900703
54	0xbadf0e54	-0.001701782
55	0x3a2ec69d	0.0006667169
56	0x3cf42dc8	0.029806986
57	0xbd72c260	-0.0592674
58	0x3e60fe59	0.21972026
59	0xbe51a4fd	-0.20473094
60	0x3cb938a2	0.022610012
61	0xbe63b884	-0.22238356
62	0x3cc6ad85	0.024252662
63	0x3db8e61e	0.09028266
64	0xbe014f4b	-0.12627904
65	0x3ddb642d	0.107124664
66	0xbd612ce8	-0.054974467
67	0x3d15c6eb	0.036566656
68	0xbd92c1ac	-0.07165846
69	0x3e74291f	0.23843811
70	0xbe024993	-0.12723379
71	0xbd855d59	-0.06511945
72	0xbd11a703	-0.035559665
73	0xbdc617d4	-0.096725136
74	0x3decd6ee	0.11564432
75	0xbe7f9bc2	-0.2496176
76	0x3d0cc0c3	0.03436352
77	0xbe54c600	-0.20778656
78	0xbd10c6d5	-0.03534587
79	0xbe74c2ee	-0.23902485
80	0x3e0e65dd	0.13906045
81	0xbe175777	-0.14779459
82	0x3dcde1d0	0.10052836
83	0xbd98ba35	-0.07457391
84	0xbd5017c7	-0.050803926
85	0xbdf8dd9d	-0.121516444
86	0xbe887671	-0.26652864
87	0xba8449d2	-0.0010092801
88	0xbe8370a6	-0.2567188
89	0xbdd4d478	-0.10392088
90	0xbd3add89	-0.04562143
91	0xbe77da6e	-0.24204418
92	0xbdc4e434	-0.09613839
93	0x3d72ec86	0.059307598
94	0xbdddc52a	-0.10828622
95	0x3e920130	0.2851653
96	0xbd7949db	-0.06086145
97	0x3d579a85	0.052637596
98	0x3e1661e7	0.14685784
99	0xbe356647	-0.17714797
100	0xba860d58	-0.0010227365
101	0x3e16a90e	0.14712927
102	0x3e6db8a4	0.23214966
103	0xbe80f5c2	-0.25187498
104	0x3dd572ad	0.10422263
105	0xbe37c10c	-0.17944735
106	0x3e0779ca	0.13230053
107	0x3d5fc8d8	0.0546349
108	0xbe4d0420	-0.20021105
109	0x3d40907c	0.04701279
110	0xbe960f4e	-0.29308552
111	0xbe778078	-0.241701
112	0x3e0613fa	0.13093558
113	0xbe565167	-0.2092949
114	0xbe94550a	-0.2897113
115	0x3e843307	0.2582018
116	0xbdf97ab1	-0.12181605
117	0xbd8e69bd	-0.06953762
118	0x3d1e04e5	0.038578887
119	0xbd2f596a	-0.04280988
120	0x3e3bfa90	0.18357301
121	0xbbf2681d	-0.007397665
122	0xbd29ee4d	-0.041487027
123	0xbbb18649	-0.0054176194
124	0x3dd864d9	0.1056611
125	0xbbfa637c	-0.007641254
126	0xbe9cf46c	-0.3065523
127	0x3d239e82	0.039946087
128	0x3df40948	0.11915833
129	0x3e5b8bff	0.21440123
130	0xb9ffafa1	-0.00048768244
131	0x3ab1a5f8	0.0013553491
132	0x3d88dfa2	0.066832796
133	0x38aadce6	8.147377e-05
134	0x3e3b4a2c	0.18290013
135	0xbe4f0839	-0.2021798
136	0xbdb49edf	-0.08819365
137	0x3e6fc619	0.23415412
138	0xbe8d1ed1	-0.27562574
139	0xbb745806	-0.0037283911
140	0xba8d4c6f	-0.0010780225
141	0xbe8db1e6	-0.27674788
142	0x3e0e932d	0.1392333
143	0xbdc09a9e	-0.09404491
144	0xbac6f8d9	-0.0015180364
145	0x3d3986ac	0.04529445
146	0x3d8b6393	0.06806102
147	0x3dc9df81	0.09857083
148	0xbe792460	-0.24330282
149	0xbd1d92d2	-0.038470097
150	0xbd7c8c12	-0.06165702
151	0x3e139464	0.14412075
152	0xbce55a43	-0.027997142
153	0xbd88284a	-0.066483095
154	0x3e61485a	0.22000256
155	0xba10265f	-0.0005498882
156	0x3e20b9e0	0.15695906
157	0x3df3fc35	0.11913339
158	0xbcc33b72	-0.023832057
159	0x394f0c33	0.00019745603
160	0x397ef2d6	0.00024313791
161	0x3d97819c	0.07397768
162	0x3d9aa0a7	0.07550173
163	0x3e33de0e	0.17565176
164	0xbd917275	-0.07101909
165	0xbe3e978b	-0.18612497
166	0xbe94f18e	-0.29090542
167	0xbd8ea430	-0.0696491
168	0xbe2c672c	-0.16836232
169	0x3e241e38	0.16027153
170	0x3e8e6684	0.27812588
171	0x3e4ea710	0.20180917
172	0x3dc6f63d	0.09714935
173	0x3e174e01	0.1477585
174	0x3e8e318e	0.27772182
175	0xbdd6342c	-0.1045917
176	0x3e608889	0.21927084
177	0x3e9109fe	0.28327936
178	0x3d97f900	0.0742054
179	0x3d11d6aa	0.03560511
180	0x3e41dcab	0.18931834
181	0x3e058b2b	0.1304137
182	0xbe17c8f8	-0.14822757
183	0xbe1a2eea	-0.15056959
184	0xbe0bfd50	-0.1367085
185	0xb9db7bf4	-0.00041863287
186	0x3c8e52b9	0.01737343
187	0x3cebce01	0.028784754
188	0x3d92ad37	0.07161944
189	0xbe5500d0	-0.20801091
190	0xbe940425	-0.28909412
191	0xbe8ef440	-0.27920723
192	0xbd280b17	-0.0410262
193	0x3a1e7914	0.0006045264
194	0xbe3aea5a	-0.1825346
195	0x3cb9d037	0.022682292
196	0x3e4f3788	0.20236027
197	0xbd53c66a	-0.051702894
198	0xbdfa4259	-0.12219686
199	0x3e699061	0.22808982
200	0x3bc0e1a6	0.0058862744
201	0xbd87f4e1	-0.06638504
202	0xbe00e028	-0.12585509
203	0xbc46cae5	-0.012133335
204	0x3e895119	0.26819685
205	0xbd270767	-0.040778544
206	0xbe8613b6	-0.26186913
207	0x3e0ed2a7	0.13947545
208	0xbd81521f	-0.063144915
209	0xba7dcdba	-0.000968184
210	0x3e1efc3a	0.15525904
211	0x39b6b49f	0.00034848318
212	0x3cda3c6b	0.026640138
213	0xbe478666	-0.19484863
214	0x3d0adb83	0.03390075
215	0xba73b018	-0.00092959544
216	0x3e382a75	0.17984946
217	0xb9485b7e	-0.0001910757
218	0xbe209666	-0.15682372
219	0x3bd29ff5	0.00642776
220	0x3e43186e	0.19052288
221	0xbe954afb	-0.29158768
222	0xbc01c2a0	-0.007919937
223	0xbe015190	-0.1262877
224	0xbe23f9ec	-0.16013306
225	0xbc5a08a8	-0.013307728
226	0xbd1051d8	-0.035234302
227	0xbe7b9c0d	-0.24571247
228	0x3df5c147	0.11999755
229	0xbbed4750	-0.007241167
230	0xbe714e7e	-0.23565099
231	0x3e902444	0.28152668
232	0xbe7a9622	-0.24471334
233	0x3de987c1	0.11402846
234	0x3e2515f4	0.16121656
235	0x3e150970	0.14554381
236	0x3ce8be28	0.028410986
237	0xbd8ee671	-0.06977547
238	0xbdd4dd03	-0.10393717
239	0xbe6eafba	-0.23309222
240	0xb9c107ef	-0.0003681774
241	0xbcd2513f	-0.025673507
242	0xbe88c837	-0.26715252
243	0xbdb7d2cf	-0.089757554
244	0x3dc1c553	0.09461465
245	0xbe68003b	-0.22656338
246	0x3e1b077e	0.15139577
247	0x395d6691	0.00021114411
248	0x3e89a5bb	0.26884255
249	0xbc8be61e	-0.017077502
250	0x3c86ab07	0.016438974
251	0x3c9aa9c1	0.018879773
252	0x3dd27cc3	0.10277703
253	0xbe11b4fe	-0.142292
254	0xbcd254a4	-0.025675125
255	0x3a99e5ed	0.0011741497

bias f4 [320]
0	0xbbb9af5a	-0.0056666555
1	0xbd6ca040	-0.057770014
2	0xbdf12fd6	-0.11776702
3	0xbe14e8f4	-0.1454199
4	0xbe3c6751	-0.18398787
5	0xbde5bd70	-0.11217773
6	0xbe88b6f9	-0.26702097
7	0xbe6d401b	-0.23168986
8	0x3e9075f8	0.28215003
9	0x3d7c6cb3	0.0616271
10	0xbe91afcb	-0.28454432
11	0xbe16103f	-0.14654635
12	0xba0fa5b3	-0.0005479708
13	0x3b28aa57	0.0025736296
14	0xbe4cc020	-0.19995165
15	0x3d8c4474	0.06848994
16	0xbe92f6a5	-0.287038
17	0xbd1b59fd	-0.037927616
18	0x3e12aa02	0.14322665
19	0x3e03ae7e	0.12859532
20	0x3dc6230b	0.09674653
21	0x3e8e7743	0.27825364
22	0x3d964896	0.073380634
23	0x3db32f2f	0.08749234
24	0xbe50ccaa	-0.20390573
25	0xbe91c53a	-0.28470784
26	0xbd69e905	-0.05710699
27	0x3e743822	0.23849538
28	0x3e835a9b	0.25655064
29	0xbe7216d3	-0.23641519
30	0xbe8f2b36	-0.27962655
31	0xbddf03c6	-0.108893916
32	0x3e97e0b2	0.29663616
33	0xbe17410f	-0.14770912
34	0x3c3f5625	0.011678253
35	0xbd8e3359	-0.069433875
36	0x3c5f1c40	0.013617575
37	0x3e90caf9	0.28279856
38	0x3e9e3a77	0.3090398
39	0x3d47a785	0.048743743
40	0x3e1538c0	0.1457243
41	0xbe5ecfbf	-0.21758936
42	0xbe066482	-0.13124278
43	0xbda81209	-0.08206565
44	0x3db8d781	0.09025479
45	0xbd8410cd	-0.06448517
46	0x3e42ed68	0.19035876
47	0x3e350628	0.1767813
48	0x3e2050be	0.156558
49	0x3e924960	0.28571606
50	0x3e9aa3fa	0.3020323
51	0x3e5c96ce	0.21541902
52	0x3cc65a23	0.024212902
53	0x3e5d84f9	0.21632756
54	0xbda0d45e	-0.07853006
55	0x3dfeef43	0.12447979
56	0xbdd98b72	-0.106223
57	0xbdfe66ac	-0.12421927
58	0xbe3dd2bb	-0.18537419
59	0xb7eee1a4	-2.8476883e-05
60	0x3e3fb73a	0.18722239
61	0xbcd55443	-0.026041156
62	0x3e757fb3	0.23974495
63	0xbe8e6556	-0.27811688
64	0xbd774964	-0.060372725
65	0xbe0286ff	-0.1274681
66	0x3c7c56d6	0.015401563
67	0xbd68110f	-0.056656893
68	0x3d5dc455	0.054142315
69	0x3d265fbe	0.04061865
70	0xb8a556e4	-7.883998e-05
71	0xbc435df2	-0.011924254
72	0xbcf7688b	-0.030201217
73	0xbdc79a63	-0.09746244
74	0x3e2f78a0	0.17135859
75	0xbe608957	-0.21927391
76	0xbd46821b	-0.048463922
77	0x3e219991	0.15781237
78	0xbe7403fc	-0.23829645
79	0xbe7d2b20	-0.24723482
80	0xbe0760e7	-0.13220559
81	0x3e10065c	0.14064926
82	0x3dadcd99	0.0848648
83	0x3e8d8fd0	0.27648783
84	0xbe16468c	-0.14675349
85	0xbe291645	-0.16512401
86	0xbe752be1	-0.2394252
87	0xbe94706d	-0.28992024
88	0x3dae60f6	0.085145876
89	0x3de2065b	0.110363685
90	0x3e8ba82d	0.27276745
91	0xbde4961c	-0.111614436
92	0x3dec412e	0.115358695
93	0xbd16faf0	-0.036860406
94	0x3e107508	0.14107144
95	0x39459bc5	0.00018845413
96	0x395bf41a	0.00020976402
97	0xbe8dbb04	-0.27681744
98	0xbe8e591c	-0.2780236
99	0xbe938b51	-0.28817227
100	0x3c9d8afe	0.019231316
101	0x3cbfb006	0.023399364
102	0x3d029ec8	0.031889707
103	0xbded8edf	-0.11599516
104	0xbe694ab2	-0.227824
105	0x3dbb01ab	0.091311775
106	0x3ba1a8b4	0.004933441
107	0x3cc64133	0.024201011
108	0xbe4ebefe	-0.20190045
109	0xbde99084	-0.11404517
110	0x3d68c865	0.056831736
111	0x3e62b9d6	0.22141203
112	0x3e568055	0.20947392
113	0x3e88b723	0.26702222
114	0xbe557587	-0.20845614
115	0xbe4d8025	-0.20068415
116	0x3e728573	0.2368372
117	0x3e2334de	0.15938136
118	0x3e38309a	0.1798729
119	0xbe898c5a	-0.26864892
120	0xbe08963d	-0.13338561
121	0x3d80fbe8	0.06298047
122	0x3e28f786	0.16500673
123	0x3e901c84	0.28146756
124	0x3db6710a	0.08908279
125	0xbd3cec40	-0.046123743
126	0x3e1bca9b	0.15214007
127	0x3c92e50b	0.017931482
128	0x3e853953	0.26020297
129	0xbe08bc06	-0.13352975
130	0xbe6854a9	-0.22688545
131	0x3d62eb21	0.055400018
132	0x3e9a172e	0.3009581
133	0x3d8094d9	0.062783904
134	0xbe0dcc2d	-0.13847418
135	0x3e8e396d	0.27778187
136	0xbb8b747f	-0.004255831
137	0xbdda6c9a	-0.10665245
138	0xbe86b526	-0.2631008
139	0x3d0401fd	0.03222846
140	0x3d9a2ad3	0.07527699
141	0xbbedc21d	-0.007255806
142	0x3e9a309e	0.30115217
143	0x3bad7f1b	0.005294693
144	0x3b5d3ce3	0.0033758215
145	0x3dfe9fea	0.12432845
146	0x3cdca288	0.02693297
147	0x3e922ad7	0.2854831
148	0xbcf332c1	-0.029687287
149	0xbe836249	-0.25660923
150	0x3e9276cf	0.2860627
151	0xbb5b7a45	-0.0033489626
152	0xbe3f4f33	-0.18682556
153	0x38c5677c	9.4129675e-05
154	0x3e4d0c4e	0.20024225
155	0xbe15c421	-0.14625598
156	0xbdfd645d	-0.123726584
157	0x3dc06363	0.093939565
158	0xbe02f383	-0.12788205
159	0x3d83514b	0.0641199
160	0x3e7a1e0b	0.24425523
161	0x3c63b2d1	0.013897614
162	0x3db038c4	0.08604577
163	0xbdb17eb3	-0.08666744
164	0xbe1b1d7e	-0.15147969
165	0xbc9e641f	-0.01933485
166	0x3da31327	0.079626374
167	0xbd9ae8f2	-0.07563962
168	0xbda57558	-0.08079022
169	0xbc91ca39	-0.017796623
170	0x3d001771	0.031272355
171	0x3e1c26aa	0.15249124
172	0x3df40867	0.11915665
173	0xbe83df11	-0.25756124
174	0xbe0cb025	-0.13739069
175	0x3d8a5f57	0.06756466
176	0x3db3bfdf	0.08776831
177	0x3e8582de	0.26076406
178	0x3e1f5270	0.15558791
179	0xbda4cc95	-0.080468334
180	0x3e9b9cd0	0.30393076
181	0x3d35f65b	0.044424396
182	0xbe524cea	-0.20537153
183	0xbe6407b9	-0.22268571
184	0xbe4ef0dc	-0.20209068
185	0x3e46121e	0.19342849
186	0xbc43d7dc	-0.01195332
187	0xbdc90fc8	-0.09817463
188	0xbe0511ce	-0.12995073
189	0xbd79e7e3	-0.06101216
190	0x3e01ee7b	0.1268863
191	0x3e73c0a4	0.23803955
192	0xbe735e2b	-0.23766391
193	0xbded8a01	-0.11598588
194	0xbe837372	-0.25674015
195	0xbe5a97ac	-0.2134692
196	0xbe9263df	-0.2859182
197	0xbde1861a	-0.11011906
198	0xbe2b48b3	-0.16726951
199	0x3e2801a7	0.1640688
200	0x3e76b1af	0.24091218
201	0xbe4eff1e	-0.20214507
202	0xbe079834	-0.13241655
203	0xbca3952e	-0.019968595
204	0x3e80e73d	0.2517642
205	0xbe795184	-0.24347502
206	0x3e842e86	0.25816745
207	0xbe58f057	-0.21185432
208	0xbac9c346	-0.0015393279
209	0x3d0a796a	0.033807196
210	0x3e3d00eb	0.18457381
211	0x3e4e888b	0.20169275
212	0x3e1fc828	0.15603697
213	0xbe721418	-0.23640478
214	0x3e38f145	0.18060787
215	0xbdc6dbfd	-0.09709928
216	0x3c6f3a77	0.014601341
217	0x3d5728ff	0.05252933
218	0x3e3d1acf	0.18467258
219	0xbe809804	-0.2511598
220	0x3e6c6a8b	0.23087518
221	0xbcf098a9	-0.029369669
222	0x3e26435d	0.16236635
223	0xbd837fa2	-0.064208284
224	0xbd93de9c	-0.07220194
225	0xbe8b405c	-0.2719754
226	0xb9c87bcd	-0.0003823921
227	0xbd76d7c4	-0.060264364
228	0x3974e8f7	0.0002335644
229	0xbd907609	-0.070537634
230	0x3e255a73	0.16147785
231	0x3dce0fc9	0.100616045
232	0x3e247673	0.1606081
233	0x3c7c98b8	0.01541727
234	0xbe128b44	-0.14310938
235	0xbe0af238	-0.13568962
236	0xbdb340c6	-0.08752589
237	0xbd69004a	-0.05688504
238	0xbdbc8d50	-0.09206641
239	0xbdfc7201	-0.12326432
240	0xbdb9887c	-0.090592355
241	0xba5ce909	-0.0008427059
242	0x3d332a86	0.043741725
243	0xbd9cec39	-0.076622434
244	0xbe5c3c9d	-0.21507497
245	0x3c98cd95	0.018652717
246	0xbdba50fb	-0.09097477
247	0xbb662a60	-0.0035120472
248	0xbe4b7435	-0.19868548
249	0x3e57aa8b	0.2106115
250	0xbe3df2e3	-0.18549685
251	0xbe268ccd	-0.16264649
252	0xbe8ccf45	-0.27501884
253	0x3d03bf04	0.03216459
254	0xbab5f59e	-0.0013882404
255	0xbcabfbf1	-0.020994158

weight f4 [4, 320]
0	0xbc75c293	-0.015000003
1	0xbabc5619	-0.0014368921
2	0x3915283c	0.00014224736
3	0x3c558b69	0.013033726
4	0xba1d5fef	-0.000600337
5	0x38a03d1a	7.6407756e-05
6	0x3a7d3eaf	0.00096605247
7	0xb9969d38	-0.00028727367
8	0xbcb1515c	-0.02164524
9	0x3d53f097	0.051743116
10	0xbbe76d29	-0.0070625735
11	0x3ac12dd2	0.0014738387
12	0x3bbed321	0.0058235084
13	0xbc937fb4	-0.01800523
14	0xbaa71e21	-0.0012750068
15	0xbd269544	-0.040669695
16	0xba13ed60	-0.00056429766
17	0xb9d2bcea	-0.00040195073
18	0x3d40f0e3	0.047104727
19	0x3ca8cd24	0.020605631
20	0xbcafdc44	-0.021467336
21	0xbc88a9f0	-0.016682595
22	0xbc443144	-0.011974636
23	0x3ce67bd5	0.02813522
24	0xb9b5e940	-0.00034696795
25	0xba40a591	-0.000734889
26	0xbcc25167	-0.023720456
27	0x3c22ae22	0.009929212
28	0xbd092348	-0.033480912
29	0x3d2d41c3	0.042299043
30	0xbb3b00e6	-0.002853447
31	0xbb880cf5	-0.004151935
32	0xbd0ead2e	-0.034833126
33	0x3a93f778	0.0011288961
34	0x3b6279d4	0.0034557479
35	0xbbc4e206	-0.0060083894
36	0x3d361cde	0.044461124
37	0xbc061d89	-0.008185753
38	0x3d182e30	0.037153423
39	0x3ac43123	0.0014968257
40	0x3d1da723	0.038489472
41	0x39fa5cea	0.00047752942
42	0xbabc6a9c	-0.0014375034
43	0x36c7ee08	5.9583726e-06
44	0xbb9a367d	-0.0047062025
45	0xbd0fc417	-0.035099115
46	0x3cd3bf91	0.025848182
47	0x3d4ce07e	0.05001878
48	0xbc07a81f	-0.008279829
49	0xbcc80f51	-0.024421366
50	0xbb421e67	-0.0029620172
51	0x3c8feee2	0.017569963
52	0x3ac6ee4b	0.0015177218
53	0x3c309b31	0.010779188
54	0x3d0d9723	0.034567963
55	0x3ca366f8	0.01994656
56	0x3962e85b	0.00021639599
57	0x3bcb8f3c	0.006212143
58	0xb832981e	-4.2580177e-05
59	0x38002416	3.0551186e-05
60	0x3cbaba18	0.022793815
61	0x38444d78	4.680219e-05
62	0xbcc6fac8	-0.024289504
63	0xb8f32885	-0.0001159469
64	0xbb9dffe3	-0.004821764
65	0x3c5ce03c	0.013481196
66	0x3c89d266	0.016823959
67	0xb97d4636	-0.00024154116
68	0x3b8aaf78	0.0042323433
69	0x3cdb538d	0.026773239
70	0x3b97b0ff	0.004629254
71	0xbcb4d7be	-0.02207553
72	0x3c883e44	0.016631253
73	0x3a8768e8	0.0010330947
74	0xba81cd30	-0.000990307
75	0xb9ce3f52	-0.0003933856
76	0x368bdc44	4.168165e-06
77	0x3d59ce78	0.05317542
78	0x3a082291	0.0005193139
79	0xb9cd36d2	-0.0003914149
80	0xba00c0f7	-0.00049115665
81	0x3ad43065	0.0016188739
82	0x3d40c3a0	0.047061563
83	0x3d80e7b7	0.06294196
84	0x3792c2ab	1.7495206e-05
85	0xbccbb3c1	-0.024865987
86	0xbcca1c6c	-0.024671756
87	0xb9bdf939	-0.00036234575
88	0x3d425343	0.047442686
89	0xbcdb37c8	-0.026759997
90	0x3d5b8cf4	0.05360122
91	0xb9c8b69e	-0.00038283033
92	0xba6f750e	-0.0009134569
93	0xbc817002	-0.01580048
94	0x3ce0fc93	0.027464187
95	0x3a42cf20	0.0007431377
96	0x3cbb87f5	0.022891978
97	0xbabcd45b	-0.0014406549
98	0xb9b09bd2	-0.0003368543
99	0xb9675452	-0.00022061288
100	0x3c49f7db	0.01232716
101	0xbba4e495	-0.005032132
102	0xbb825064	-0.0039768685
103	0xbb41b26f	-0.0029555818
104	0xbabcf260	-0.0014415495
105	0xbd25e9d6	-0.040506206
106	0x3b6fb45e	0.0036576013
107	0x3c7a8e7f	0.015292763
108	0x3bea293e	0.0071460297
109	0x3c5ec749	0.013597318
110	0xb9c168b0	-0.00036889827
111	0xbb8ee248	-0.004360471
112	0x3d13208e	0.03591972
113	0x3a9245f8	0.0011159768
114	0xbb95ad50	-0.0045677796
115	0xba8d0f2b	-0.0010761967
116	0xbd134918	-0.03595838
117	0x3c851698	0.016246125
118	0xbb07e755	-0.002073725
119	0x38edd289	0.00011340256
120	0xba804853	-0.0009787179
121	0x3d4fd45e	0.05073964
122	0x38a57565	7.8896795e-05
123	0x3d0e956b	0.034810465
124	0x3ca47f16	0.02008013
125	0x3824a0fa	3.9250568e-05
126	0xbd1267be	-0.035743468
127	0xbd0e715f	-0.034776088
128	0x3d663218	0.056200117
129	0xbbc1245e	-0.005894228
130	0x3b2b8d26	0.002617666
131	0x3d03bce2	0.032162555
132	0x3cf5a68b	0.02998664
133	0xbb41c7c4	-0.0029568532
134	0x39e0648e	0.00042799528
135	0x3c9357cf	0.017986206
136	0xbadb0ccd	-0.0016712189
137	0xbd02a80c	-0.031898543
138	0xbb874aa9	-0.004128773
139	0x3c5a3f02	0.013320686
140	0x3d5403df	0.051761504
141	0xb9a05fd6	-0.00030588981
142	0x3d3ec2e5	0.046572585
143	0x3d072824	0.032997265
144	0x3d59ab30	0.053141773
145	0x3c7e446f	0.0155192455
146	0xb99b6e09	-0.00029645886
147	0xba251d4e	-0.0006298617
148	0x3b6247fc	0.003452777
149	0xb9b74b28	-0.00034960476
150	0xbb839274	-0.0040152613
151	0xb9a6c4e1	-0.00031808674
152	0xba90b270	-0.0011039507
153	0xb9a3e9c3	-0.0003126395
154	0xb9be06e7	-0.00036244767
155	0x3bd1112d	0.0063802213
156	0x3a2815b8	0.0006411928
157	0xbc8113d3	-0.015756523
158	0x3a9bfd63	0.0011901077
159	0x3a0457a0	0.00050484575
160	0xbc8d4b98	-0.01724796
161	0x3d77a164	0.06045665
162	0xbb824705	-0.0039757513
163	0x3beabe98	0.007163834
164	0xbb90084c	-0.0043955203
165	0x3d3828f0	0.044960916
166	0xbd308b0d	-0.04310136
167	0x3a47a916	0.00076164433
168	0xb89ba26a	-7.421228e-05
169	0xbbd43604	-0.0064761657
170	0x3aca2b76	0.0015424329
171	0x3d82af89	0.06381137
172	0xbca434d1	-0.020044716
173	0x3a28438a	0.00064187555
174	0xb8842309	-6.300776e-05
175	0x382ffcef	4.1958814e-05
176	0xbb59dc02	-0.0033242707
177	0x3d55deb8	0.052214354
178	0xb9faa852	-0.00047809124
179	0xbc04174a	-0.008062193
180	0x3c715416	0.01472952
181	0x3b85f86d	0.0040884526
182	0x38bb5aa9	8.9337416e-05
183	0x3bd8dfa9	0.0066184592
184	0x3aba9ae4	0.0014236835
185	0x3d1b8339	0.03796694
186	0x3a23de58	0.00062510883
187	0x3ca1021f	0.019654332
188	0x39b724dc	0.00034931942
189	0x3d653b05	0.05596449
190	0x3ccaba77	0.024747116
191	0xbc9ad221	-0.018899025
192	0x3a58fcb4	0.0008277402
193	0x3a852771	0.0010158849
194	0xba20315b	-0.000611087
195	0xbbd744c2	-0.006569476
196	0x390031e6	0.0001222562
197	0xb9e28a3c	-0.00043209072
198	0xb9686aac	-0.00022164983
199	0x3d0813bd	0.03322195
200	0xbd23d433	-0.03999729
201	0x39bb6be5	0.00035747807
202	0x38bba1bb	8.9469795e-05
203	0x39bb853e	0.00035766693
204	0x3c2a1b87	0.01038254
205	0x39963987	0.0002865309
206	0xba43ad1b	-0.00074644544
207	0xbab50540	-0.0013810769
208	0x388033fa	6.113197e-05
209	0x3a1bab28	0.0005938285
210	0xb82c7b4c	-4.1122825e-05
211	0x3b32d82a	0.0027289488
212	0x3ba059e0	0.0048935264
213	0x389fc9b1	7.619279e-05
214	0xbd3045e3	-0.0430354
215	0xb902a576	-0.00012459405
216	0x3d154f01	0.036452297
217	0x3d2f4ade	0.04279601
218	0x3d53044c	0.05151777
219	0x3756f082	1.2811392e-05
220	0xbd050fdd	-0.03248583
221	0x3b45764c	0.0030130325
222	0x3d06ce5a	0.032911636
223	0x3c19d55f	0.009389251
224	0xbc2ae330	-0.010430142
225	0xba7100a3	-0.0009193515
226	0x39aff93b	0.00033564292
227	0x3aac90f3	0.0013165757
228	0xbadd8b91	-0.0016902556
229	0x3a4b1302	0.0007746668
230	0xbd082de1	-0.03324688
231	0xbabb6d06	-0.0014299459
232	0xba290228	-0.00064471597
233	0xbbd79a97	-0.006579708
234	0xbb2344e6	-0.0024912893
235	0xba2dd906	-0.0006631765
236	0x3d0a17eb	0.033714216
237	0xba02af6f	-0.0004985248
238	0x392d9519	0.00016554109
239	0xb95558ea	-0.00020346386
240	0x3d51725f	0.051134463
241	0x38cfa41b	9.901096e-05
242	0x3d265aee	0.04061406
243	0xbc3f0aaf	-0.011660262
244	0xb963dd5a	-0.00021730867
245	0xbcae0df0	-0.02124688
246	0xbc94f1fa	-0.01818179
247	0x3ac8a0b7	0.0015306686
248	0xbab5e7d3	-0.0013878293
249	0x3bb35a68	0.0054734237
250	0x3bba08e7	0.005677331
251	0x3b1713d4	0.002305259
252	0x3bac3406	0.005255225
253	0xbc099a47	-0.008398599
254	0x39eb6cce	0.0004490376
255	0xbbe2e77b	-0.0069245673

bias f4 [4]
0	0x3c4ed3c9	0.012623736
1	0x3d58cbc0	0.052928686
2	0x3d0b6729	0.034033928
3	0xbd445a0c	-0.047937438

weight f4 [4, 8]
0	0x3e8c64a0	0.2742052
1	0xbac01d77	-0.0014657219
2	0xbdf88add	-0.12135861
3	0x37d22e3a	2.5055477e-05
4	0xbe5d5712	-0.21615246
5	0xbe6cccde	-0.23125026
6	0xbe433ff9	-0.19067372
7	0x3e24b4eb	0.1608464
8	0xbe790929	-0.243199
9	0x3d9a471a	0.07533093
10	0xbe72903e	-0.23687837
11	0x3e6be4dc	0.23036522
12	0xba0e72b7	-0.0005433964
13	0x398b4a43	0.00026567475
14	0x3e1c477d	0.15261646
15	0x3e32b9a3	0.17453627
16	0x3e9005f9	0.28129557
17	0x3dce3cf7	0.10070222
18	0x3ce04271	0.027375432
19	0xbe82e0a2	-0.25562006
20	0xbd323b7d	-0.043513764
21	0x3d2dee64	0.042463675
22	0x3dfcc7c7	0.12342792
23	0x3dc956a4	0.098309785
24	0xbaa04922	-0.0012228827
25	0xbc1aae82	-0.00944102
26	0x3e71d506	0.23616418
27	0xbe162952	-0.146642
28	0x3e6b406f	0.22973798
29	0x3e34571b	0.17611353
30	0xbd13bdfb	-0.03606985
31	0xbe868b94	-0.26278365

bias f4 [4]
0	0xbe3c1b4a	-0.18369785
1	0xbcb980f4	-0.022644497
2	0x3c0e669a	0.008691454
3	0x3d74dc91	0.05978066

weight f4 [4, 8]
0	0xbd407d68	-0.046994597
1	0x3e6e5ecf	0.23278354
2	0x3d7b08d7	0.061287727
3	0xbc42bbe1	-0.011885614
4	0x3d6428df	0.05570304
5	0xbd96bb7c	-0.073599786
6	0x3e899bd9	0.26876715
7	0xbcaf7cde	-0.021421846
8	0x3e66f254	0.22553378
9	0xbcbfe4ad	-0.02342447
10	0xbe0e42b7	-0.13892637
11	0x3e9339d1	0.28755048
12	0x3dbc79de	0.09202932
13	0xbe1f1381	-0.15534784
14	0xbe65fcd9	-0.22459735
15	0x3e64b658	0.22335184
16	0xbb8f3dd7	-0.0043713856
17	0x3d3a3862	0.045463927
18	0x3e85dac1	0.26143458
19	0x3de71fd8	0.112853706
20	0x3ba789ca	0.0051128613
21	0xbe4c2046	-0.19934186
22	0xbe8c15c6	-0.27360362
23	0xba2378c2	-0.0006235951
24	0x3ccc75c6	0.024958503
25	0xbe417e31	-0.18895794
26	0xbe6dbd99	-0.23216857
27	0xbe8be745	-0.27324882
28	0x3a213714	0.000614987
29	0xbd32aaa2	-0.04361976
30	0xbe2fcebf	-0.17168711
31	0x3e365a3d	0.1780786

bias f4 [4]
0	0xbdb99429	-0.090614624
1	0xbdb6fe60	-0.08935237
2	0xbd4877c6	-0.04894235
3	0x38c6d0b4	9.48025e-05

weight f4 [10, 2]
0	0x3dd02d88	0.101649344
1	0x3ad209b8	0.0016024625
2	0x3eac07e1	0.3359976
3	0x3e875f93	0.26440105
4	0x3f010198	0.50393057
5	0xbded06dd	-0.11573575
6	0xbe494ee8	-0.19659007
7	0xbe0da1d0	-0.13831258
8	0x3b1716e8	0.0023054425
9	0x3eddf5ed	0.4335169
10	0xbe4aa995	-0.19791253
11	0x3e6bf129	0.23041214
12	0xbd05757d	-0.03258275
13	0xbf15c1c6	-0.584988
14	0xbeee4f1e	-0.46544737
15	0x3f160083	0.5859453
16	0x3f1381a4	0.5761969
17	0x3f177f9a	0.5917908
18	0xbedf4ee1	-0.43614867
19	0x3982bbe1	0.00024935513

bias f4 [10]
0	0x3e967c54	0.2939173
1	0x3f0a1312	0.5393535
2	0x3c0774cc	0.008267593
3	0x3f1ff028	0.62475824
4	0x3ea7f9c7	0.32807752
5	0x3e1b944c	0.1519329
6	0xbd96277b	-0.07331749
7	0xbe56a2e0	-0.2096057
8	0xbe3e35aa	-0.18575159
9	0xbeb06a7a	-0.34456235

weight f4 [10, 2]
0	0x3e71257e	0.23549458
1	0x3c083e14	0.008315582
2	0x3ee38cb5	0.44443288
3	0xbc54e7f4	-0.012994755
4	0x3edc1ed6	0.42992276
5	0x3ef57108	0.47937799
6	0x3df30c62	0.11867596
7	0xbab31f52	-0.001366595
8	0x3e1cd85e	0.15316913
9	0xbde1a740	-0.110182285
10	0xbcd9d20e	-0.02658942
11	0x3f16ded2	0.58933747
12	0x3e7380f7	0.23779665
13	0x3e9d575b	0.3073071
14	0x3efa02da	0.488303
15	0x3de4328b	0.11142453
16	0x3e996e71	0.29967073
17	0x3e7f0503	0.24904256
18	0xbc8ca57b	-0.017168751
19	0x3cc7998f	0.024365215

bias f4 [10]
0	0x3d9af3ac	0.07566008
1	0x3f041d69	0.51607376
2	0x3d1df445	0.03856303
3	0xbe89e0ae	-0.2692923
4	0xbe8b8017	-0.27246162
5	0xbec10d33	-0.37705383
6	0xbf2377d6	-0.6385473
7	0x3c12e1fb	0.008965011
8	0x3f102c9c	0.5631807
9	0x3c999978	0.018749937

weight f4 [20, 4]
0	0xbe21e9af	-0.158118
1	0x3e97ed76	0.29673356
2	0xbd40453d	-0.04694103
3	0xbebac018	-0.3647468
4	0xbe29af2a	-0.16570726
5	0x3eb78467	0.35843202
6	0xbe51d331	-0.2049072
7	0xbdfcd891	-0.12345994
8	0x3a2213ad	0.00061827415
9	0xbec9e6ae	-0.39433807
10	0xbec238bb	-0.37933907
11	0xbe8beecb	-0.27330622
12	0x3e831221	0.2559977
13	0x3e426d54	0.18987018
14	0xbeb178d8	-0.3466251
15	0x3e1c7267	0.15278016
16	0x3e13c04c	0.14428824
17	0x3ed80216	0.4218909
18	0xbec84960	-0.3911848
19	0x3d4a356f	0.049367364
20	0xbe50365a	-0.20333233
21	0xbed4dc84	-0.4157449
22	0xbe24ba9d	-0.16086812
23	0x3e0e64a7	0.13905583
24	0xbac339e0	-0.0014894567
25	0xbdea1ec2	-0.11431648
26	0xbe35518f	-0.17706893
27	0xbde32bdf	-0.11092352
28	0xbd778089	-0.060425315
29	0xbe2beedf	-0.16790341
30	0x3e5d4f96	0.21612391
31	0x3e105c2c	0.14097661
32	0xbe99ef2a	-0.3006528
33	0xbc73c475	-0.014878382
34	0x3e343fdd	0.17602487
35	0xbedfbc70	-0.43698454
36	0x3e27338f	0.16328262
37	0x3ecfcc71	0.40585664
38	0x3ebbfb56	0.36715192
39	0xbea5e8db	-0.32404217
40	0xbebd0e3d	-0.36924925
41	0xbe003d75	-0.12523444
42	0x3e937145	0.28797355
43	0xbec957ad	-0.39324704
44	0x3d0e79a4	0.034783974
45	0x3e93efe0	0.28893948
46	0x3aff5be2	0.0019482339
47	0x3e2350a3	0.15948729
48	0x3ed316de	0.41228384
49	0xbe4cab64	-0.19987255
50	0xb96187de	-0.00021508287
51	0x3d6fe5e2	0.058568843
52	0xbeab9b73	-0.33517036
53	0xbeb609f6	-0.35554475
54	0x398e0d2b	0.00027094161
55	0x3e27b65c	0.16378158
56	0xbe861068	-0.26184392
57	0xbe6bed59	-0.2303976
58	0xbc2b5d96	-0.010459324
59	0x3eca9489	0.39566448
60	0xbec0b1c7	-0.37635633
61	0x3dc157ae	0.09440552
62	0xbd3b8c50	-0.04578811
63	0x3e8f8dec	0.28037965
64	0xbe9c5332	-0.30532223
65	0x3ec111ba	0.37708837
66	0x3de02849	0.10945184
67	0x3e732a0d	0.2374651
68	0xbeacc534	-0.33744204
69	0xbcffd718	-0.031230494
70	0xbe5eef35	-0.21770938
71	0xbe8f5cc4	-0.28000462
72	0xbe26e1c8	-0.16297066
73	0xbd6595bc	-0.056051
74	0x3d130fac	0.035903618
75	0xbed26787	-0.4109461
76	0x3d60880a	0.054817237
77	0x3abd0e20	0.0014423765
78	0xbe10e4f1	-0.14149834
79	0x3d22e902	0.039772995

bias f4 [20]
0	0x3eda1918	0.4259727
1	0xbdce1911	-0.10063375
2	0xbe47960c	-0.19490832
3	0xbe07fb54	-0.13279468
4	0xbe762634	-0.24038011
5	0x3e95a590	0.29227877
6	0xbd431cb2	-0.047634788
7	0x3df72fee	0.12069689
8	0xbed5a804	-0.41729748
9	0xbe023b84	-0.12718016
10	0x3d2ee47f	0.04269838
11	0x3d2b4af5	0.04181953
12	0xbd2e7e0a	-0.04260067
13	0xbd47c778	-0.048774213
14	0xbeda8bca	-0.42684776
15	0x389eb4cc	7.567703e-05
16	0x3d80595e	0.062670454
17	0xbe6dd79a	-0.23226777
18	0xbea703f8	-0.32620215
19	0xbe8fd0d4	-0.2808901

weight_ih_l0 f4 [12, 10]
0	0x3ec85f35	0.39135137
1	0x381b12dc	3.6972444e-05
2	0xbe4d1275	-0.20026572
3	0xbec4809d	-0.38379374
4	0x3de71890	0.11283982
5	0xbeda6d45	-0.4266149
6	0x3e6e472a	0.23269334
7	0x3ec9fcef	0.39450786
8	0x39c8cf54	0.00038301444
9	0xbec19574	-0.37809336
10	0x3e238d7d	0.15971942
11	0x3db1fc32	0.086906806
12	0x3ecab1ac	0.39588678
13	0xbe41e423	-0.18934684
14	0xbdc7cc33	-0.09755745
15	0x3e842641	0.25810435
16	0x3e893b65	0.26803127
17	0x3c2313dd	0.009953466
18	0x3e4e227c	0.20130342
19	0x3e006a16	0.12540469
20	0xbdcb5074	-0.099274546
21	0x3d0b0a52	0.03394539
22	0x3bdb6328	0.00669517
23	0x3e6fd5ea	0.23421445
24	0xbe45e10f	-0.19324134
25	0xbe974448	-0.29544282
26	0xbea07e36	-0.3134629
27	0xbe19645a	-0.14979687
28	0xbe894be2	-0.26815706
29	0xbda83062	-0.08212353
30	0x3ec26586	0.3796808
31	0xbe17c5d2	-0.14821556
32	0xbea11b72	-0.31466252
33	0xbe896a92	-0.2683912
34	0x3e40e27d	0.18836398
35	0xbe6600c7	-0.22461234
36	0x3eaa7a3c	0.33296382
37	0x3abdf1d8	0.0014491631
38	0xbe114216	-0.14185366
39	0x3d88aa76	0.06673138
40	0xbd9d241f	-0.07672905
41	0xbe596e90	-0.21233582
42	0xbc3537d8	-0.0110606775
43	0xbd43d8c5	-0.04781415
44	0x3e8de46a	0.2771333
45	0x3e839280	0.25697708
46	0xbebb037a	-0.3652609
47	0x3de6d230	0.11270559
48	0x3e8e1d4d	0.2775673
49	0x3e8a45cb	0.27006373
50	0xbe469a74	-0.19394857
51	0xbdde8d50	-0.10866797
52	0xbed368fb	-0.4129103
53	0xbeb6cadb	-0.3570164
54	0x3ed49f35	0.41527715
55	0xba29fa7a	-0.00064841623
56	0x3ead147a	0.33804685
57	0x3c41e4d7	0.011834345
58	0xbdbdf06a	-0.09274371
59	0x3e1fdbc2	0.15611175
60	0x3d87104f	0.065949075
61	0x3e3c1ea6	0.18371066
62	0xbe2a3197	-0.1662048
63	0x3ecf91de	0.40540975
64	0xbe560a61	-0.20902397
65	0x3cf1a665	0.029498288
66	0x3dc0a430	0.09406316
67	0x3ea5c10d	0.3237385
68	0xbd08e98c	-0.033425853
69	0x3db453ad	0.088050224
70	0x3ea5afb9	0.32360628
71	0xbdb2cbbc	-0.087302655
72	0x3e7315b8	0.23738754
73	0xbea6f0e0	-0.32605648
74	0xbdfb24f9	-0.12262911
75	0x3dba0d47	0.09084564
76	0xba04fea4	-0.0005073345
77	0xbc7b3825	-0.01533321
78	0x3e346186	0.17615327
79	0xbe2cc629	-0.16872467
80	0xbd9cbcdf	-0.07653212
81	0xbd819722	-0.063276544
82	0x3dbd337e	0.09238337
83	0x3e783e13	0.2424243
84	0xbd2e4e35	-0.042555053
85	0xbe8f3ddd	-0.27976885
86	0x3e166cd9	0.1468996
87	0xbe32000b	-0.17382829
88	0x3ead2e2e	0.33824295
89	0xbd5b8254	-0.053591087
90	0xbe16adeb	-0.14714782
91	0xbede6a0f	-0.4344029
92	0x3eb15aea	0.34639674
93	0x3d38edbc	0.045148596
94	0xbeb4e24c	-0.353289
95	0x39a7a3d2	0.00031974778
96	0x3ed4bea1	0.41551688
97	0x3eb064ff	0.34452054
98	0x3e2ff21b	0.171822
99	0xbeada226	-0.33912772
100	0xbd349a4b	-0.044092458
101	0xbeac079c	-0.33599555
102	0xbe7c7e75	-0.24657615
103	0xb9e4e494	-0.00043657853
104	0x3e536607	0.20644389
105	0xbd390663	-0.045172106
106	0xbe1d4b56	-0.1536077
107	0xbe41fc1f	-0.18943833
108	0x3e0647c6	0.13113317
109	0x3e643ead	0.22289534
110	0xbea46b2f	-0.32113025
111	0x3d5947be	0.053046934
112	0xbedfbfb4	-0.43700945
113	0xbe09b165	-0.13446577
114	0xbd77e0d0	-0.060517132
115	0x3e43d8ca	0.19125667
116	0x3c28c379	0.010300511
117	0xbe35d08f	-0.1775534
118	0xbe4f4258	-0.20240152
119	0xbea440eb	-0.32080778
