RTSNet/new_architecture/linear_Journal/evolution_mismatch/rq-1010_mis.pt (torch, 74317 bytes, 68 tensors)

weight_ih_l0 f4 [12, 10]
00000000: 713c 763d fd5d 8d3d 43cb ad3e 7a13 a73e
00000010: 96de d63e 1d17 b6be 7ca1 fb3d f492 8c3d
00000020: 72b1 dabe a62d ab3e 7e06 87be 93a7 903e
00000030: 8507 c2be 6c6f ccbe 4326 9bbe 7ee9 b13e
00000040: 2171 9e3c de31 cfbe c5f4 fbbe 23f0 a3be
00000050: 7122 94be 9111 2abe bad6 973e 88b8 1c3e
00000060: 40b1 b6be f9f6 b6be aaf7 8abe c3cc ae3e
00000070: df4d bebc c64d 233e b3ab c5bd 97aa ab3e
00000080: 8496 1fbe df59 f63e 7cd8 d63e c9cf d83e
00000090: a8d1 6dbe 2673 2abd 0808 133e bd36 1b3e
000000a0: 3c00 5a3d d958 99be 563c c73e ea92 f93d
000000b0: 7c4c b7be 56f1 253e 10ee d03e 3823 a6be
000000c0: 6d88 c63a adba c7bd c1c9 ea3e c861 b4bd
000000d0: 2622 a3be 0a14 f23e f1fb c5be 5641 0bbe
000000e0: b2a7 29be d1d7 d8be 9e60 a93e 319c 57be
000000f0: 5e34 d83e 9493 ec3e 1c22 9cbe 4b2b 72be
00000100: 81d2 593e 7bb3 1bbe 9bc5 7d3d 7a67 bfbe
00000110: dd89 96be b03a c3be c97c 903d b474 e23e
00000120: ae55 88be e384 4abc f849 6ebd 52fc 97be
00000130: 684d 93be 116b cabe d6ba 93bd 8174 163e
00000140: 9402 32be 56c8 aabe 3e4e 863e 7b0e f7be
00000150: 568a 54be ed8d 973d 5f1b 9bbe 8ccd b53e
00000160: ddc4 d5be 0ec9 c4be 9793 933e fe85 3bbe
00000170: 25bd debe 5f2d 5b3e b314 d83e 13ce 38be
00000180: b936 87be bbfc e2bc 532f 72be 4687 ad3d
00000190: 4200 303e 263d 543e d6f2 57bd 06bf 663e
000001a0: 01f4 6e3e 5c8d 483e 4e45 d33d 42e6 923e
000001b0: cf19 2c3e 1177 f2be 9530 e9bc 62c4 a3bd
000001c0: 164d 0d3e 9d23 70bd feb3 efbe 4fa1 98be
000001d0: 9e1f e93d 1ebe 473c 99ed 633e 7cae ecbe
0.060116235 0.069026925 0.3394414 0.32632047 0.41966695 -0.3556451 0.1228666 0.068639666
-0.42713505 0.33433264 -0.2637214 0.2825285 -0.37896362 -0.39928758 -0.3030263 0.34748453
0.019341053 -0.40467733 -0.49210182 -0.32019147 -0.28932527 -0.16608264 0.2965601 0.15304768
-0.35682106 -0.357353 -0.27142078 0.34140596 -0.023230491 0.15947637 -0.0965189 0.33528587
-0.15584761 0.4811544 0.4196204 0.42346027 -0.23224509 -0.04161372 0.14358532 0.151576
0.05322288 -0.29950598 0.3891322 0.12186225 -0.3580054 0.16205344 0.40806627 -0.32448745
0.0015146859 -0.097524025 0.4585705 -0.08807713 -0.3186199 0.47280914 -0.3866878 -0.13599142
-0.16567877 -0.42352155 0.33081526 -0.21055676 0.42227453 0.46206343 -0.30494773 -0.23649327
0.21271707 -0.15205185 0.06195603 -0.37383634 -0.29402056 -0.38130713 0.07055051 0.44229662
-0.26627868 -0.012360784 -0.05817601 -0.29684693 -0.28769994 -0.3953481 -0.072133705 0.1469288
-0.17383796 -0.3335597 0.2623157 -0.48253235 -0.20755896 0.07400117 -0.3029432 0.35508382
-0.41751757 -0.38434643 0.2882354 -0.18312833 -0.4350368 0.21404026 0.42203292 -0.18047361
-0.26408938 -0.027708402 -0.23650865 0.08473067 0.17187598 0.20726451 -0.05272182 0.22533807
0.23335268 0.19585174 0.10315953 0.28691298 0.1680672 -0.47356465 -0.028465549 -0.079964414
0.13798937 -0.058627713 -0.4681701 -0.2981057 0.113829836 0.012191324 0.22258605 -0.4622687

weight_hh_l0 f4 [12, 4]
00000000: 93a1 e1be d234 f33e 47ab 013f df81 773d
00000010: 2fbf 85be 1086 a13e c31a 23be 2b71 943e
00000020: 291b e03e e6d4 b9be f8c2 afbe 699f ab3e
00000030: 3c02 42be e283 e63e e23c dbbe 16e7 ac3e
00000040: f75f c4be 8a21 85bd 3ec5 383e 5d6c 4cbe
00000050: 57d0 6abe 2589 56be ea9a 01be a3f3 f43e
00000060: 23e1 8c3d d7d6 a23e c1f5 393e 0f5e 34be
00000070: b62a e13c 0d20 793e a2d2 893c a4c2 073e
00000080: f28c f4be ab48 623e 93a8 ebbe ab95 13be
00000090: 22ec 00be dedd fcbc 625f df3e 3ebe 9f3e
000000a0: b974 cf3d 3695 343e a025 01bf 16a4 2b3e
000000b0: 1b01 d7be 1b48 c63e b116 063e 1a52 b53c
-0.44068584 0.47501236 0.50651973 0.06042659 -0.26122424 0.31547594 -0.15928178 0.2899259
0.43770722 -0.3629524 -0.34328437 0.33520058 -0.18946165 0.45022494 -0.42819887 0.33770055
-0.38354465 -0.06500538 0.18043992 -0.19963212 -0.22931038 -0.20950754 -0.12656751 0.4784213
0.06878879 0.31804535 0.18160154 -0.17614006 0.027486186 0.24328633 0.01682407 0.13257843
-0.47763783 0.22098033 -0.4602705 -0.14412563 -0.12590078 -0.030867513 0.4362746 0.3119983
0.10129685 0.17635044 -0.50448036 0.16761813 -0.4199303 0.38726887 0.13094594 0.022133876

bias_ih_l0 f4 [12]
00000000: 99b5 303e fcee 973e f770 72bd 2990 2f3e
00000010: a4d0 a03c b9de 82bd c3a4 acbe 3fe6 acbe
00000020: 35fb cd3e 2c2e a43e 00f2 883e 3c2a b1be
0.17256774 0.29674518 -0.059189763 0.17144836 0.019630738 -0.06390137 -0.33719453 -0.33769414
0.40230718 0.32066476 0.2674713 -0.34602535

bias_hh_l0 f4 [12]
00000000: 8d14 85be 2af5 f23e 0d0f 5abe 2bfc 82bd
00000010: e5a9 35be 903c 3c3e 4175 cb3e ed0c bdbe
00000020: e796 3fbc f095 0e3e f3f1 ecbe e66b 53bc
-0.25992242 0.4745267 -0.21294804 -0.063957535 -0.17740591 0.18382478 0.39737895 -0.36923924
-0.011693693 0.13924384 -0.46278343 -0.012904143

weight_ih_l0 f4 [12, 14]
00000000: 9a21 77bd 9fe9 e4be 1e85 cbbe b0f1 babe
00000010: e9d1 473e 7f56 bf3e 1d20 88be 84a1 42be
00000020: 6b0f e6be 1cbe 913e 6d9e 82be 94f2 10be
00000030: 9258 6cbe ef43 9e3e d040 bcbd f1a1 c2be
00000040: 6b4c c9bd b2ff 50bd b193 c9bc ea11 77be
00000050: 4f7b f9be 7763 7e3e 0fda cebe 5d32 a33e
00000060: df78 7abe 65c9 27be 6e08 a6be 2400 c93e
00000070: 4e54 b7bd 56ef ffbd 431c 9d3e 3c3c c6be
00000080: cbd3 d6be 04be 273c 5fe0 1f3d 43ae f83c
00000090: d767 1d3e f74c ddbd 7d25 ee3e 47cf 28be
000000a0: 71ee eb3e f437 9cbe 867a 4d3e 3aeb 84be
000000b0: 623a a93e c8d0 c63e 6870 f0be 5573 db3e
000000c0: 160d 8dbd fec0 7bbe eda8 92bd 6544 12bc
000000d0: 2121 d33e e4a2 c2be 4dd3 193e d443 52be
000000e0: 586c e3bd 7e48 973e 604a 7cbe e7f1 e6bd
000000f0: 0833 3c3e 2174 3d3e a346 acbe bf56 a5be
00000100: 0f2a ef3e d0b7 eb3e cef5 f7bd ba24 c7be
00000110: 4e51 91bd 42f9 2f3e 18b2 6bbe 2c40 92bd
00000120: e0cf 193e 2cea a43e f254 cb3e 5e3e 853e
00000130: 4a07 703e 3280 ec3e 7f9d 063d 3b86 a3be
00000140: 34a1 28be 3166 e0be 2abb cfbe 9952 0bbe
00000150: bb2c 203e 08b6 593d 5ef0 48be 97e0 89be
00000160: cee8 f8be 1d2b c43d d54b d23c ed12 babe
00000170: b298 e8be 7701 54bc 6721 46bc 231e ae3e
00000180: 21dd e63e 0de4 ab3e c876 b2be 4f51 b43e
00000190: 0b5f 97bd 733c 133c 6e97 e7be ac76 973e
000001a0: 42fd fabd dcdf 0abd 7a56 f53e 5c04 e83e
000001b0: cb30 83bd ba98 413e a8de 613e 56f3 c3be
000001c0: 6b2d 233e f5a0 bebe b5ca b73e d6dd c1be
000001d0: bc72 0abe 888b e83e 2e4b 0ebe f507 44bc
000001e0: 2463 093e 7bbe db3e 88b4 a1be 764e b6bd
000001f0: 16bb d8be f41c d5be 84fe c93e 04ff a03e
00000200: 5e60 b23e 6eae c13e 4777 c73e a9ae dbbe
00000210: afd3 f6bd 5b07 863d 2a62 a8be f8b2 023e
00000220: a595 543e fb7e fe3c 5a2d fcbe da88 e2be
00000230: 51df 44be b369 c43e 80ae b2be a228 24be
00000240: 370e 633c 22f9 58bd a44d 013f b1dd eabe
00000250: 74fc f23e 059f 1a3c 6b40 f53e 21a8 1f3e
00000260: 4e9f 86be db36 813e cc3c 803d 4805 c0be
00000270: 2471 94bd ed80 f53e f0f2 a73e c98e 1ebe
00000280: 235e e6bd 174d a93d 1e4e 80bd ce7b a7be
00000290: 5376 e83e 39b3 43be 9709 07bf 0f50 09be
-0.06033478 -0.4470949 -0.39749998 -0.36512518 0.19513668 0.3737068 -0.26587 -0.19006926
-0.44933638 0.28465354 -0.25511494 -0.14155036 -0.23080662 0.30911204 -0.091920495 -0.38014176
-0.09829029 -0.0510251 -0.024606558 -0.24127927 -0.4872689 0.2484263 -0.4040074 0.31874362
-0.24460171 -0.1638542 -0.32428306 0.3925792 -0.08951627 -0.124968216 0.30685624 -0.3871783
-0.4195846 0.010238174 0.039032336 0.030356532 0.15371643 -0.108056955 0.46512976 -0.1648532
0.46080354 -0.3051144 0.2006627 -0.25960714 0.33052355 0.38831162 -0.4696076 0.4286143
-0.068872616 -0.2458534 -0.07161126 -0.008927439 0.41236213 -0.380149 0.15022011 -0.20533687
-0.11104649 0.29547495 -0.24637747 -0.11276608 0.18378842 0.18501331 -0.33647642 -0.32292745
0.46711776 0.46038675 -0.121074304 -0.38895208 -0.07095586 0.17184928 -0.23017156 -0.07141146
0.15020704 0.3220991 0.39713246 0.26024145 0.2344028 0.46191555 0.032865044 -0.31938347
-0.16467744 -0.43827966 -0.40572482 -0.13605727 0.15642063 0.053152114 -0.19622943 -0.2692916
-0.48615116 0.09578536 0.025670925 -0.36342564 -0.45428997 -0.012939802 -0.012092925 0.34007367
0.45090583 0.33572426 -0.34856248 0.35218284 -0.07391175 0.00898658 -0.4523272 0.29582727
-0.12255336 -0.033904895 0.4791754 0.45315826 -0.06405791 0.18905917 0.22057593 -0.38271588
0.15935294 -0.37232175 0.3589684 -0.3786456 -0.1352033 0.45418954 -0.13895866 -0.011964788
0.13416725 0.42918763 -0.31583047 -0.08901684 -0.42330235 -0.41623652 0.39451993 0.3144456
0.34839147 0.37828392 0.3895819 -0.42906693 -0.12052094 0.06544372 -0.32887393 0.12763584
0.2076021 0.031066408 -0.4925335 -0.44245034 -0.19225813 0.38361892 -0.34898758 -0.16031125
0.01385837 -0.052971967 0.50509095 -0.45872262 0.4745823 0.009437327 0.4790071 0.1559148
-0.26293415 0.25237164 0.06261596 -0.3750403 -0.07248142 0.47949925 0.32802534 -0.15484156
-0.11248424 0.08266657 -0.062649 -0.32711643 0.45402774 -0.19111337 -0.5274901 -0.13409446

weight_hh_l0 f4 [12, 4]
00000000: cff9 bebe 8446 d2bc 969b 433e 9371 cc3e
00000010: 07a1 a83e a042 813d 1229 1abd c94e b23d
00000020: 1356 173e 9484 bfbe 7eeb a73e 3915 873e
00000030: 0a94 f53e a0b9 9fbd 6fd8 a9be 0661 ba3e
00000040: 0a2d 8abe e956 e9be 10c7 f0bb b84f 403d
00000050: 07e6 c83e 7b8b 5ebe 4a47 e13e 03a2 d8be
00000060: 4170 333c 6888 debe 8f0a 75be e130 a83e
00000070: e18d 4f3c df00 fc3e f133 a1be 2278 b33e
00000080: f68b f63e 225e ae3e 26aa 8bbd 901d 773d
00000090: 8c4e 303c 1b7d ce3e ecc3 cebe d9a5 d23e
000000a0: d97a 613e 1ca1 de3d b586 9e3e e7c1 3b3e
000000b0: 95bf cbbe e714 693e c7b9 f4be 8c91 b33e
-0.37299964 -0.02566839 0.1910232 0.399304 0.32935354 0.06311536 -0.037636824 0.08706433
0.14778928 -0.37405837 0.32796854 0.2638338 0.47964507 -0.07799077 -0.33172938 0.36402148
-0.26987487 -0.4557412 -0.007347949 0.046951026 0.39237997 -0.21732895 0.43999702 -0.42311105
0.010952056 -0.43463445 -0.23929809 0.32849792 0.012668104 0.49219415 -0.3148494 0.35052592
0.48153657 0.34056193 -0.068195626 0.060330927 0.0107609145 0.40329823 -0.40383852 0.41142157
0.22019519 0.10870573 0.30962148 0.18335687 -0.39794603 0.2276188 -0.47797987 0.3507198

bias_ih_l0 f4 [12]
00000000: 6015 8e3e 1652 adbd 6d92 a53e 74ad c9be
00000010: affd 373e a6bd 623e 8ade f5be e0b5 013e
00000020: 7c4e 8dbe 6fcd 4bbe 6ac0 4dbd 4e7c 5e3e
0.27750683 -0.08462922 0.32338277 -0.39390147 0.17967866 0.22142658 -0.48021346 0.12667036
-0.2759894 -0.19902585 -0.05023233 0.21727106

bias_hh_l0 f4 [12]
00000000: 1089 a33e 10ce 52be db27 ccbe 8413 e53e
00000010: 89c1 69be 8a4d d63e ccd1 40be abad e4bc
00000020: 9be3 f6bd 0372 f13d f048 8a3e fab1 743e
0.31940508 -0.20586419 -0.39874157 0.44741452 -0.22827734 0.41856033 -0.18830031 -0.027914843
-0.12055131 0.11789324 0.27008772 0.23896018

weight_ih_l0 f4 [12, 24]
00000000: 577b 4d3e 05e6 873e fcf8 e0be 03f7 c3be
00000010: e0ef 983d 82c5 2ebe bef1 29be a27d e73e
00000020: 0a3c 1dbe 57db d83e 7078 853e 46c9 ab3e
00000030: 348c ae3e e26f f33d 82f7 e93b 1edf 2cbd
00000040: 1ff2 2d3e fe03 c4be c50f 883c 1a3b 4dbe
00000050: 61d2 d4be 5a75 4e3e 9888 08be eba5 c3bd
00000060: 5860 e6bc bbc0 b2bd e905 d4be d353 e7bd
00000070: 4e76 2f3e a577 6cbe ca28 d13e 5a05 f0be
00000080: 1859 fcbe 7577 81bd 104c 1d3e 64e2 15be
00000090: 7fad d1be b930 313d f28d a03e 30ef b4bd
000000a0: b404 bebe 2fe0 e63e a474 8e3d 3328 6abe
000000b0: c9b4 babe f95b 3bbc 450d 92be 92d3 eebd
000000c0: ffd3 ccbe a2a6 da3d f0f0 3cbb ed6f 823e
000000d0: cb0d 7bbe 1a3b d7be 12cd 8b3e 9b02 75bd
000000e0: 3de5 95be 1862 46be 5255 0d3e 1f5b d0be
000000f0: 772c 8ebe 97f8 80be b62e 1abe de5c 9e3e
00000100: 23a4 d93e 7ba2 743e 6032 d93e 62aa d83e
00000110: c4a7 ba3d 101e ccbe 562e 723d 7a88 e83e
00000120: 05fd 83bd 8008 243e 643d 883e e5f9 0a3d
00000130: fb05 95be ff03 9ebe b422 3c3e f318 c1be
00000140: a74e 6b3e 3f90 853e dfe4 c8be 02cf ca3e
00000150: 651b bfbe 1711 a83e 3929 513e 530b e73e
00000160: f1be c73e 4af9 dbbd 9daa 7bbe 7ffa 29be
00000170: a301 253e 0209 ec3e c318 91be d0c0 dbbe
00000180: 1441 57be 814b ad3e bbd8 763d 5738 81be
00000190: ef64 b3be 646a 3ebe 039b 7d3e bc53 a3be
000001a0: e6d5 4e3c f86f 04bf 31c1 b6be 63e3 2e3d
000001b0: 37b0 6ebe 98a1 c63d a858 cb3e b7e2 963e
000001c0: 604c 8c3e 8651 78be 0f36 cc3e 1fe2 e93e
000001d0: f35e a5be 8fb9 b13e 42a5 6b3e e8a6 e63c
000001e0: b364 89bd bd8a 893e d76e 0fbe 4a68 dcbe
000001f0: c4ef 6bbe 05d4 a43e bca2 f53d ad0a e1bd
00000200: 66ce b93e d2ef 13be 7fc5 a63e 7237 bf3d
00000210: 6e82 5c3d 128d 873e 29bb ddbe 3d95 ebbd
00000220: ed84 d33e 6fff bcbd eeac cc3e 5c6e 543e
00000230: 9acc 55be 719f cb3e 25b9 b6be 6922 d63e
00000240: ac4e c9be 6077 bcbb 86e7 b7be 0fa8 2f3b
00000250: 1943 71be 9c87 d7bb 4704 893e e863 3abe
00000260: eeec 6f3d bb05 9dbe 69df 95be 290b e9be
00000270: 971b 48ba 7fa4 b83e b763 e2be 91ee bd3e
00000280: 0ae3 60be c494 bfbe 2975 bebe 9dc8 d4be
00000290: 024b a43e 3370 f53e 1cbd e8be f077 ecbe
000002a0: b291 adbe ea5f f53d 10a3 c1be 1320 bebe
000002b0: 1a0c dc3e 19c0 29be 7390 69bd c19f 8a3e
000002c0: 7483 d8be e3a8 fd3e 1fcf c6be f73b 92be
000002d0: 0b51 0f3e ab67 fc3c a660 acbe 44b4 f4be
000002e0: d661 82be 1b81 803e 9230 dd3e 9747 aebd
000002f0: 0fc6 ed3e 7ca0 a13e d246 ebbe ec9e 82bc
00000300: d52e 283e f5de 933e 5456 ddbe e7b6 d3bd
00000310: 8dda 253e 646d e93e 2937 e6bd 479d 60be
00000320: 7b45 2dbe 56fa a7be c5fb 94be 19a7 04be
00000330: 8deb dabe 54ee 593e bd40 f53e e0b7 73be
00000340: df9d 463e 7034 753e 6010 9cbc 98ef c23e
00000350: bbb2 e93e 8f6b d9be 904d 483e ba5d 36bd
00000360: f82d b63e 4de8 f1be 1668 44bd fb82 a7be
00000370: 874d c53e ce51 e03e d716 a3bd 1de8 98be
00000380: 590f e0be 91b5 ee3d 7f88 9cbe a711 58be
00000390: 4479 dbbe b57e 293e 5b5e bebe 8fa3 b73e
000003a0: f75c cdbe b6e4 9dbe 2b7b ef3e 5dd8 6dbe
000003b0: d900 d23e 36cb 933e a65e 90be fb0c 023f
000003c0: 818f a8be a90c 47be 89dd f53e e94d 8bbe
000003d0: 5b1c 083e 7dfa 3b3e 5f69 06be 0a15 1c3e
000003e0: 0461 02bd 7a72 3ebe 8bda aabd 7e19 1f3d
000003f0: cc74 393e 3e5b 4f3e 426b b23d 571e 583e
0.20066582 0.26542678 -0.4393996 -0.38274392 0.074676275 -0.17067531 -0.16596124 0.45213038
-0.15354934 0.42354843 0.2606845 0.33551997 0.34091341 0.11886574 0.007140101 -0.04220497
0.16986893 -0.38284296 0.016609082 -0.20042077 -0.41566756 0.20161954 -0.13333356 -0.09553131
-0.028122112 -0.08728167 -0.4141076 -0.11295285 0.17134973 -0.23092516 0.40851432 -0.46879083
-0.49286723 -0.06321613 0.15361047 -0.14637142 -0.4095268 0.043259356 0.31358296 -0.08834684
-0.37112963 0.45092914 0.06955841 -0.22866897 -0.36466053 -0.011435502 -0.2852575 -0.116614476
-0.4000549 0.10676314 -0.0028830133 0.25476018 -0.2451698 -0.42037278 0.27304894 -0.059816938
-0.29276457 -0.19373357 0.13802078 -0.4069452 -0.277683 -0.2518966 -0.15056881 0.30930227
0.4250804 0.23890106 0.42421246 0.42317492 0.0911403 -0.39866686 0.05912622 0.45416623
-0.06444744 0.16018867 0.26609337 0.033929724 -0.29106125 -0.30862424 0.18372613 -0.37714347
0.22979222 0.26086614 -0.39237115 0.3961106 -0.37325588 0.3282554 0.20425881 0.45125827
0.39012864 -0.107409075 -0.24576803 -0.16599463 0.16113906 0.46100622 -0.28339204 -0.42920542
-0.21020919 0.33846667 0.060265284 -0.25238296 -0.35037944 -0.18595272 0.24766164 -0.31899822
0.01262424 -0.5173335 -0.35694268 0.04269732 -0.23309408 0.0969879 0.39716077 0.29469845
0.2740202 -0.24249849 0.39884993 0.4568033 -0.32299003 0.34711882 0.2301226 0.028155759
-0.0670866 0.2686366 -0.14007126 -0.43048316 -0.23040682 0.32193008 0.1199393 -0.10988364
0.36290282 -0.14446953 0.32572553 0.09336747 0.053835325 0.26474816 -0.43306854 -0.11503074
0.41312352 -0.092284076 0.39975685 0.20745224 -0.2087883 0.39770082 -0.3568813 0.41823128
-0.39317834 -0.0057515353 -0.35918826 0.0026803052 -0.23560752 -0.006577445 0.26761076 -0.18202174
0.058575563 -0.30668435 -0.2927201 -0.45516327 -0.0007633506 0.36063 -0.442167 0.37096074
-0.21961609 -0.37418187 -0.3719876 -0.41559306 0.32088476 0.47937164 -0.4545678 -0.46185255
-0.3390022 0.11981185 -0.3781972 -0.37133846 0.42977983 -0.16577186 -0.057022523 0.27075008
-0.4228779 0.49542913 -0.38829896 -0.28561375 0.13995759 0.030811151 -0.33667487 -0.47793782
-0.25465268 0.250985 0.4320112 -0.085097484 0.4644017 0.31567752 -0.4595247 -0.01594492
0.16424115 0.2888104 -0.43229926 -0.1033762 0.16196652 0.4559127 -0.1124099 -0.21934997
-0.16921036 -0.3280818 -0.29098335 -0.12954368 -0.42757836 0.21282321 0.47900954 -0.23800611
0.1939616 0.23945785 -0.019050777 0.3807342 0.45644173 -0.42464873 0.19560838 -0.04452298
0.35581946 -0.47247544 -0.047950827 -0.32717118 0.3853571 0.43812412 -0.07963341 -0.29864588
-0.4376171 0.11655725 -0.30572888 -0.21100484 -0.42865956 0.16552241 -0.37181363 0.35866973
-0.4010999 -0.30838555 0.46773657 -0.23227067 0.41016272 0.28865975 -0.2819721 0.50801057
-0.32921985 -0.19438423 0.4802058 -0.27207878 0.13292067 0.18357272 -0.13126133 0.15242401
-0.031830803 -0.18598357 -0.08342465 0.03884267 0.1811096 0.2024965 0.08711864 0.21105324

weight_hh_l0 f4 [12, 4]
00000000: 22e6 fe3e 0ff3 b2be 1d76 db3e 14d6 bdbd
00000010: f6f0 a63e 0308 5ebe 85bc 073e d51f cabe
00000020: 3f49 61be e695 b33e b520 65be a7c2 dc3e
00000030: 9bd1 65be f8a1 14be a702 5cbe 6f1c 973e
00000040: 49cf cc3e f9e5 e93e a292 f4be 8db6 bebe
00000050: 5d37 b3be eb8a 883e 51a3 0d3c 2830 c03d
00000060: c8e9 b6be 9fc0 8bbd 73d3 c83d 4919 5fbe
00000070: 41de 78be 8e58 a1bd a2b4 a0be b788 813e
00000080: c952 c0be 1d29 b8be 23a6 5cbe c641 ee3e
00000090: f8f4 b8bc e583 363e 9014 ca3e be68 123e
000000a0: 500a eabe 5c81 7b3d 0d66 4bbe f9ad 60be
000000b0: 9279 0abe 4895 f2bd 22d9 84be 32ec 4fbd
0.49784952 -0.34951064 0.4286355 -0.09269348 0.32605714 -0.21682744 0.13255508 -0.3947741
-0.22000597 0.350753 -0.22375758 0.43117258 -0.2244324 -0.14514911 -0.21485387 0.2951388
0.40001896 0.45683268 -0.47768122 -0.3724865 -0.35003176 0.26668486 0.008644895 0.09384185
-0.35725236 -0.06823849 0.09805956 -0.2178699 -0.24303533 -0.078782186 -0.31387812 0.25299618
-0.3756316 -0.35968867 -0.21547751 0.46534556 -0.022577748 0.17823751 0.39468813 0.14297768
-0.45710993 0.061402664 -0.19863148 -0.21941365 -0.13522938 -0.118448794 -0.2594691 -0.050762363

bias_ih_l0 f4 [12]
00000000: 8ea4 2d3e 592c cabb 775c f73d 7d8c babe
00000010: af5b 1f3e a771 d23d a010 12be 14ed be3d
00000020: 70da 5a3e 9cfa ae3d 43ac 32be dba0 12bc
0.16957304 -0.0061698374 0.12078183 -0.3643531 0.15562318 0.10275584 -0.14264154 0.09322563
0.2137239 0.08543894 -0.17448525 -0.008949484

bias_hh_l0 f4 [12]
00000000: e6a7 0d3e 5f50 e3be d9c5 a0bd 6e55 aebd
00000010: a4ce a0be 91e7 2dbd 5e3c 9c3d 190c 613d
00000020: 1015 d83e 29b9 fa3d 38ab 60be 8b55 c03e
0.1383358 -0.44397256 -0.078502364 -0.08512388 -0.31407654 -0.042457167 0.076287016 0.054943178
0.4220357 0.12242348 -0.21940315 0.37565264

weight f4 [4, 4]
00000000: a886 e23e 1be2 a33e d792 a5be 9b69 fb3d
00000010: 77af b2be c320 e83e d51c edbe 60be d93d
00000020: b34e 93be 5f7e f73e 22cc 6abe 7038 c33e
00000030: 4526 0dbe 1d57 ff3d 5e37 97be e6c3 febe
0.4424336 0.32008442 -0.32338592 0.12276002 -0.34899494 0.45337495 -0.4631106 0.10632014
-0.2877098 0.483386 -0.22929433 0.38128996 -0.1378413 0.124677874 -0.2953443 -0.49758834

bias f4 [4]
00000000: 8880 f4be 9e2a 8e3e 25da 523e 1f81 933d
-0.47754312 0.2776689 0.20591028 0.07202362

weight f4 [320, 8]
00000000: b80f 953e 8065 723e c43a a0be 4e06 26be
00000010: 2053 923e 15d3 8abe 8997 b63e 544c 033e
00000020: 7815 733e 3603 9c3d 4f5b 8fbe 3ef2 583e
00000030: 5283 aabe a82d 793e d4b6 323c 0676 273c
00000040: f815 363e ab4b 8d3e 49c7 8b3e 4308 093d
00000050: da1e 913a cd23 763e 9f85 ab3c ab61 e6bb
00000060: 7d7d 80be a900 97be 695a 7d3e 15c0 0f3e
00000070: 95c0 5f3e 59d0 f0bd b4aa 75be 3e1d 2dbe
00000080: a696 2cbe f76a 93bd 6127 79be e9c7 4dbe
00000090: 4add 4b3c ad04 1d3c 4111 e93c 5f40 7dbe
000000a0: cb70 5c3d d49d 933e 0917 a7be 0756 9ebc
000000b0: 2e47 4abe be41 a83e 9907 b63d e0e3 89be
000000c0: 2283 d23c ef49 f83d 8ce0 ac3a 3e42 813e
000000d0: 022a b43e 85e5 73be 882b aabe 6dae 2a3e
000000e0: 7116 92be 3e1f 8a3e 6a57 35bc 36ea 3dbe
000000f0: 8f79 acbd bb31 fb3d 2290 b5be 4740 043e
00000100: 7cf3 613e fd2b fbbd 8c71 9fbe 9ec9 873e
00000110: b415 6dbe 0746 723e a021 673e 6873 bc3d
00000120: 414c 263e 6eef f33d e8a2 803e 8fa6 503e
00000130: 6943 423e a7dc 5cbe 8c42 143c 9fdf 133d
00000140: 82c7 6abe 88e6 7c3c 5a25 403c 3ba5 babe
00000150: 5e9f 553e 04fc 533e 78fd 7c3e 6a41 1ebc
00000160: 4f05 64bd 827f a8be 04f7 6ebe 55d5 68be
00000170: 287c 38bc ab98 1e3e d792 a43d 238e 84be
00000180: e189 5cbe 1459 95be 90cb 55be 5f5b 19be
00000190: e1c8 1e3e e408 723e d6c5 64be 0482 293e
000001a0: ad72 5d3e ac43 36be 13e2 493e ab5b 48be
000001b0: 5470 14be 8398 af3d fa87 573e 15f0 00be
000001c0: a022 3bbe d4bb 8dbe 7612 40be 152a abbd
000001d0: e8e9 80be 9ca0 983e 369e 273e 3a88 1c3e
000001e0: b1c6 0d3d efb0 083d 4621 a9be e3ae 47bc
000001f0: a155 b63e 1623 443c dde9 b73e 069a 9d3e
00000200: 7205 28be 336e 47bd 87b6 153e 25c3 2f3d
00000210: 0819 acbe ec0f 613e fe32 0fbe 7755 9f3d
00000220: 8ada 073e 104d 5fbd ee2b 2abd 154a 083e
00000230: b914 a1be 3b79 05be b571 8bbe 7af1 e8bd
00000240: 52eb 82bd 236f 7fbe bfc9 733d 2f4c 12be
00000250: dc7e abbe c479 463e dd34 193e 043e 743e
00000260: 36bf 82be f696 3f3d ebdf 20be 3b2b 2e3e
00000270: 3e22 9dbe 0587 aabe 9526 7dbc 70c2 1cbd
00000280: 1c81 48be 6ec3 3d3d ff95 5f3e 1afd 873c
00000290: 9b82 a33d 3420 163d ad75 e03c 1506 903e
000002a0: c51b e0bc d232 243e 4b18 51be 3865 443d
000002b0: b250 ee3d 0b10 5c3e 716c f13d f639 b1bc
000002c0: 82c2 88bd 9177 d2bb 9cf7 df3d 2903 87be
000002d0: f63f a13e 298a 2f3e 60e3 9bbe 0d10 abbe
000002e0: ce68 86be ecd4 7d3d abaf c93c e22e b83d
000002f0: 5c85 33be 0088 57be 87c3 ac3e 1e79 8e3e
00000300: 613c 09bd 1854 3e3b 6c98 3a3e fd14 7bbe
00000310: d57f 08bc 6869 38be 59fd 71be 804b 353e
00000320: aa66 593e 7e7c bfbd a1a6 a63e 3e5c 833e
00000330: d215 28bd a02b a4be b66a adbe 728c 81be
00000340: e745 423e 19fe a53e eca1 143e 2dfb 2b3d
00000350: 5182 c6bd adf8 35be c381 e8bc f595 2fbe
00000360: a6fd 7a3e 15a9 96be 80fa 46bd 0350 86be
00000370: a346 263d 00bd 84bc f6a7 d63c e61b f9bc
00000380: 3c53 1b3e a59e 9c3e 9cc6 923e 35e2 983e
00000390: f804 623e 9321 023d 243b 603c c309 883d
000003a0: befb 3b3c 1d35 773e 7fde 5abe 7075 a13e
000003b0: 20f2 73be a383 913e eca1 9ebe dbcc 9bbe
000003c0: e57e 9dbe 6971 96be a344 9abe 28d7 20be
000003d0: a6c1 cdbc cae8 4bbe f2a0 9dbe 26e6 4fbe
000003e0: 6d70 a83e cba9 4dbd 9e72 943e f1b7 13be
000003f0: fe90 323e 0cf1 5c3e 8ec4 1c3d ae60 a63d
0.29113555 0.23671532 -0.31294835 -0.16213343 0.28579044 -0.27114168 0.35662487 0.12822086
0.23738658 0.076178 -0.2799935 0.21186158 -0.33303314 0.24333823 0.010907847 0.01022101
0.17781818 0.27596793 0.2730048 0.033455145 0.0011071817 0.24037094 0.020937739 -0.007030686
-0.2509574 -0.2949269 0.2474152 0.14038117 0.21850808 -0.11758489 -0.239909 -0.16905686
-0.16854343 -0.07198136 -0.24331428 -0.20095791 0.012442896 0.009583634 0.02845061 -0.24731587
0.053818505 0.2883135 -0.32634762 -0.01932813 -0.19753715 0.32862657 0.08888168 -0.26931667
0.025697295 0.12123477 0.0013189479 0.2524585 0.351883 -0.23818024 -0.33236337 0.166681
-0.28532746 0.2697696 -0.011068204 -0.18546376 -0.08421623 0.12265345 -0.35461527 0.12915145
0.22065538 -0.122642495 -0.31141317 0.2652101 -0.2315281 0.23659526 0.2257142 0.092016995
0.16240026 0.11910902 0.25124288 0.20376037 0.18971027 -0.21568547 0.009049069 0.036101934
-0.22927669 0.015435822 0.011727655 -0.36454186 0.20861575 0.20701605 0.24706066 -0.009659151
-0.055669125 -0.3290978 -0.23336416 -0.2273763 -0.01126007 0.15487926 0.0803582 -0.25889692
-0.21536972 -0.29169524 -0.20878434 -0.14976262 0.15506317 0.23636204 -0.22341093 0.16553503
0.21625777 -0.17799252 0.19715147 -0.19566219 -0.14495975 0.08574011 0.21047965 -0.12591584
-0.18274927 -0.27682364 -0.18757042 -0.08357636 -0.25178456 0.29810035 0.16368946 0.15286341
0.034613315 0.033371862 -0.33033198 -0.012187692 0.35612205 0.011971256 0.3592061 0.30781573
-0.16408327 -0.04868908 0.1462041 0.042910714 -0.33612847 0.2197873 -0.13984296 0.07779973
0.1326696 -0.054516852 -0.0415458 0.1330951 -0.31461123 -0.13034527 -0.2723519 -0.11374183
-0.0639254 -0.24944739 0.059518572 -0.14286874 -0.33495224 0.19382387 0.14961572 0.23851782
-0.25536507 0.046774827 -0.15710418 0.17008679 -0.30690187 -0.33306137 -0.015451093 -0.038271368
-0.19580501 0.046328954 0.21834563 0.01660018 0.079838954 0.036651805 0.027399862 0.2812964
-0.027356992 0.16035011 -0.20419423 0.047948092 0.11636485 0.21490495 0.11788262 -0.021634083
-0.066777244 -0.006422945 0.109358996 -0.26369599 0.3149411 0.17142548 -0.3044691 -0.33410683
-0.26251835 0.061970636 0.024619898 0.08993317 -0.17531341 -0.21047974 0.33742926 0.2782678
-0.033504847 0.0029041823 0.18222207 -0.24519725 -0.008331259 -0.1800896 -0.236318 0.17704582
0.2123057 -0.09349917 0.32549003 0.25656313 -0.041036434 -0.32064533 -0.33870476 -0.25302464
0.18971978 0.32420424 0.14514893 0.041987587 -0.09692825 -0.17770644 -0.028382188 -0.17147048
0.24510822 -0.29425874 -0.04857874 -0.2623292 0.04059471 -0.016203403 0.026203137 -0.03040881
0.1516847 0.30589786 0.28667152 0.29860082 0.22072208 0.0317703 0.013685975 0.06642487
0.011473594 0.24141355 -0.21373938 0.3153491 -0.23822832 0.28420743 -0.30982912 -0.3042973
-0.30760875 -0.293834 -0.3013049 -0.15707076 -0.025116753 -0.1991302 -0.30786854 -0.20302638
0.32898274 -0.050210755 0.28993696 -0.14425637 0.17438123 0.21576327 0.038273387 0.08123909

bias f4 [320]
00000000: 6052 7b3d 5c56 1a3e cd04 553d 5031 163e
00000010: 560c a4bd 71ae 06bc a42d 8a3e 7477 11be
00000020: d72c 53bc 14ed 59be 4865 4ebe 732a 003e
00000030: 21e2 113e 213f 71be f023 5d3e 4593 d8bd
00000040: 7d0d b0be a5e6 4bbe 75a1 863d 50a3 ad3e
00000050: 18c7 513d c694 a03c f79f a4be 7e99 9b3e
00000060: 64fa 34be e949 1bbe 2d07 2bbc 4d44 3cbd
00000070: 34c2 7dbe 1e3a ddbd 95e7 963e beaa a6be
00000080: 253d 0bbe 6b50 0dbe de92 183e d34a 69be
00000090: 1494 0b3e c012 6ebe 130d 24be f34f ae3d
000000a0: b2bd 87be e11a 69be 9514 3cbe 4056 36bd
000000b0: 1cc4 c93d b43b 063e ebfc ecbd ceee fd3c
000000c0: c31d 5c3d cb2d a83e 1256 39be be16 843d
000000d0: 3d37 f1bd 0762 1b3e eaf0 983e dcf9 babd
000000e0: 856c 163d 48a0 4c3d a230 873d 96bf 55be
000000f0: a659 683e 9152 ad3d 94ef 813d 4af7 a1be
00000100: 37a8 1fbe b584 96bd fb55 1d3e e051 98bd
00000110: 1961 223e 6b5f 113d 87b8 8e3d 9967 063d
00000120: d253 babd 3112 86be b4b8 2a3e a097 143e
00000130: e871 3a3d 2262 98be 32a6 923e 7857 813e
00000140: 075d 97be 82af acbe 7b9b 343e f227 c83c
00000150: 1d9a a0be 886f 61bd f3d3 603e a925 0b3e
00000160: e4bb 5e3d 9a51 15bc 6e3e 69be 20e0 6b3e
00000170: 89c2 2abe c20a 3d3e d598 8f3d 51dd 3e3e
00000180: 9ea9 52bc bf3a 0abe d44b 72bd 0c6f 3cbe
00000190: cc2e 7cbd 24fb 8b3e 2da2 38be 468b 8cbd
000001a0: 901e 123e eae0 0dbe 378a 84be 7ffb ba3c
000001b0: e44b f3bc 97c2 a1be 8751 253e 98f1 b3bd
000001c0: ab9c 293e 8106 9abd 5882 65be 4a09 f23d
000001d0: 6423 f3bd 80ff 88bc 87d5 82be 1616 8a3e
000001e0: d84f 3c3e db16 6abe 9a37 4fbe 85be fb3d
000001f0: 1e75 b0be 187c 01bd e8a9 56bd ce42 8e3e
00000200: a066 0dbe 74b1 88be 735e 74be 74e8 4f3e
00000210: 56dd 933e 12d9 673c 8f28 a0be 21d6 3bbe
00000220: 131c 1d3c 5ab8 08be f98d a23d e3a4 a43b
00000230: b56f 25be 2f65 143e c2b0 ef3d 51bb 473e
00000240: 2899 9fbd 41ea 243e 4bc0 b9bd 3002 91be
00000250: c362 903e f08d 8bbe 6969 83be a33c a93e
00000260: 981a 2abe cdcb 843e 1a93 3b3e 52e9 52be
00000270: 6e91 503e ed84 5f3e 02b6 69be a7a5 c53c
00000280: f300 913e 0dc4 7b3e d228 8a3d 0160 693e
00000290: 7e62 483e a83e 07be 668f babd b6d9 a6be
000002a0: 870a abbd 0b7f a53e 379c 4d3e d29d 49be
000002b0: eca4 e43d d4bf 8e3e d5f0 bcbd 4d54 843e
000002c0: ec2d 073e 4af7 81be 7823 5a3e a808 053d
000002d0: 1457 a1bd bf49 2ebe f790 003e 58ca 2abd
000002e0: 1e73 8d3e fc5c a9be ad3d 883e 49e9 923e
000002f0: ecb5 ae3e 98d4 fd3c 8a9d 9d3e fbab 19be
00000300: 7743 b83e 3ba0 c33b e782 8ebe bc96 7a3e
00000310: 6f85 3abe 8d21 7b3e f6d3 2c3e b53f 513e
00000320: 132d 83bd ebb7 323c 442b cc3d 20cc ecbd
00000330: 5367 86be 63bd 1abd c754 f93c 9c94 453d
00000340: 63db 5e3e 0ed5 f43d c062 dd3b a15c a63e
00000350: 2906 d2bd 88b5 24be 0770 ea3b 6508 7d3e
00000360: 3f35 ea3d f414 313e 811a ae3e 5ac1 6ebe
00000370: cf25 cebd ecb8 b13d 9d05 4abc 2325 6dbd
00000380: c63d 96be 9d43 1b3e 5de7 b7be b08a 20bd
00000390: ee59 a03e a43c 5ebd fd87 9abe 1d17 86be
000003a0: 22c6 0fbe 9da7 88be 63aa a6be 198f 7fbe
000003b0: 6776 d8bc 1752 ad3e f690 01be 166b 98be
000003c0: 4442 8a3e 7e16 20be 5d6d 1d3e 5371 663e
000003d0: 77cc 923d 6db0 453c 2f0c edbd 5bbd af3e
000003e0: 12f7 873e de85 903e 60eb 8d3e 0ce9 3f3e
000003f0: f414 5b3d 1816 afbe 40df 743e 732a 8bbe
0.061357856 0.15072006 0.05200653 0.14667249 -0.080101654 -0.008220301 0.26987946 -0.14205724
-0.012889109 -0.21281844 -0.20155823 0.12516193 0.14246418 -0.23559238 0.2159574 -0.105749644
-0.3438529 -0.19912203 0.06573764 0.3391366 0.05121526 0.01960219 -0.32153293 0.30390543
-0.17673641 -0.15164913 -0.010438723 -0.045963574 -0.24781114 -0.108021006 0.29473558 -0.3255214
-0.13597544 -0.13800208 0.14899775 -0.2278245 0.13630706 -0.2324934 -0.16020612 0.08511343
-0.26511914 -0.2276416 -0.18367226 -0.04451585 0.09851858 0.13108712 -0.11571678 0.03099766
0.05373932 0.32847437 -0.1809924 0.0644965 -0.11778114 0.15174113 0.29871303 -0.09129688
0.036724586 0.049957544 0.06601073 -0.20873865 0.22690448 0.08463014 0.06344524 -0.3163398
-0.15591513 -0.073495306 0.1536483 -0.074374914 0.15857352 0.03549139 0.069687895 0.032813642
-0.09098019 -0.26185754 0.16672021 0.14510965 0.045518786 -0.2976237 0.28642422 0.25262046
-0.29563162 -0.33727652 0.17637436 0.02443311 -0.3136758 -0.055038005 0.21955852 0.13588585
0.054378405 -0.009113694 -0.22777721 0.23034716 -0.16675772 0.18461135 0.07011572 0.18639113
-0.012857823 -0.13498972 -0.059154347 -0.18401736 -0.061568066 0.27340043 -0.18030615 -0.06862502
0.14269471 -0.13855329 -0.258867 0.022825 -0.029699273 -0.31593773 0.16144381 -0.08786315
0.1656367 -0.07520772 -0.22413003 0.11818178 -0.118719846 -0.016723394 -0.25553533 0.26969975
0.18389833 -0.22860281 -0.20236054 0.12292198 -0.34464353 -0.031612486 -0.05240813 0.27785343
-0.1380868 -0.26697886 -0.23864155 0.20303518 0.28879803 0.014150875 -0.31280944 -0.18343402
0.009589213 -0.13351575 0.079372354 0.005024539 -0.16155894 0.14491723 0.11703636 0.1950505
-0.07792884 0.16104986 -0.0906988 -0.2832198 0.2820035 -0.27256727 -0.2566636 0.33054075
-0.16611707 0.25936738 0.18317834 -0.20596817 0.20367977 0.21828051 -0.22823337 0.02412684
0.28321037 0.24586506 0.06746067 0.22790529 0.19568822 -0.13207495 -0.09109382 -0.32587975
-0.08351617 0.3232349 0.20079122 -0.1968911 0.11164269 0.27880728 -0.092256226 0.25845566
0.13201112 -0.2538398 0.21302593 0.03247896 -0.07877937 -0.1702032 0.125553 -0.041696876
0.2762689 -0.33078754 0.26609555 0.28693607 0.3412317 0.030985162 0.30784255 -0.15007012
0.35988972 0.0059700287 -0.27834246 0.24471563 -0.18214963 0.24524517 0.16877732 0.20434459
-0.064050816 0.010908107 0.0996919 -0.11562371 -0.26250705 -0.03777827 0.030435933 0.048237428
0.21763377 0.119546995 0.0067561567 0.32492545 -0.10255081 -0.16084874 0.007154468 0.24710234
0.11435937 0.17293149 0.34004596 -0.23315945 -0.10065805 0.08677849 -0.01233044 -0.057896744
-0.29344004 0.15162511 -0.35918704 -0.039194763 0.3131861 -0.05425705 -0.30181876 -0.2618951
-0.14040425 -0.2669038 -0.3255187 -0.24956931 -0.026423646 0.33851692 -0.12652954 -0.297692
0.27003682 -0.1563358 0.1537375 0.22504167 0.07167905 0.012065989 -0.115745895 0.34324154
0.26555687 0.28227133 0.2771864 0.18741244 0.05348678 -0.34196544 0.23913288 -0.27180824

weight f4 [4, 320]
00000000: 2643 e7bb f66e a63c a1ec 693d e97c 4a3d
00000010: 59dd 00bd 2ab4 98bb 7f1d 3e3d c619 3d3d
00000020: f5bd 973c 3a47 293d 4a19 173d 81b5 f5bc
00000030: 320e 22bc 78d5 27bb 4c6b 12bd e997 dbbb
00000040: 03a8 4c3c 9741 4ebd 5f8e 843d bc0e 23bd
00000050: cb17 903c 6610 1e3d b10e 05bc 1422 ddbc
00000060: f79d 503d 6a45 963c c616 2fbd 5a3e 16bd
00000070: 34fd febc 7ccf 153d dbf7 9dbb fe09 e93c
00000080: cede 7ebc 4839 61bd cba5 01bd 6f78 383d
00000090: d76f 853d 7a43 fa3c 2a9d f3bc c441 35bd
000000a0: 9aad 4c3c f8fd 16bd 7acb 40bd e590 c23c
000000b0: 4dfb 8b3c 41f0 15bd 63c0 0b3d da90 673d
000000c0: 800d d7bc 5b4d 4f3d 5cf5 e2bb 3de9 a3bc
000000d0: f532 8c3c 5655 5fbc 4829 f63c 4f48 863c
000000e0: fe33 05bd ad5a 89bc a146 2dbd 460b c03c
000000f0: e26f bab9 0a5c 573d 7c7c 9cbc 8e21 0a3d
00000100: c82a 1e3d 7a0d 00bd 40a1 1fbd 3feb ce3a
00000110: 73dc 05bd e1a3 96bc f148 8cbc 5119 213d
00000120: e0ea c43c 8760 e63b 92fb 803c 6092 2e3d
00000130: 85b4 613d 4f02 f63c 6dfa c0bb 8ad1 1f3c
00000140: ecdb 48bd d66c 7d3c 96c3 373c 7599 853c
00000150: ca81 943c b84f e4bc defa 2fbc caad e0bc
00000160: 2727 51bb ff47 2f3c 1424 003d 0629 533c
00000170: 8497 6abc 4d87 793d 2892 bebc 4e82 483d
00000180: 78f5 a43c a878 383d 74c3 673b 1d40 2abd
00000190: 0385 853c 879e 7d3d 62bb 8c3c f864 0d3d
000001a0: 5934 223d adbb 3c3d f5a9 c33c 2644 c2bc
000001b0: f5a8 08bd 160b 183d d473 cebc fc90 443d
000001c0: acf6 37bd 876c 433c 89d9 fbbc d715 243d
000001d0: a418 35bd e42d 96bc 501d 3dbd 6e50 603d
000001e0: c8d8 48bd b900 ae3a 194c cdbc 1680 26bd
000001f0: f8a4 e5bc 6adb c9ba 7b0a db3c dc6a 823c
00000200: fb83 04bc e367 463d c868 f6bc 6d91 b7bc
00000210: 4280 9839 c47a 1e3d ba30 ba3c 1ad0 5d3d
00000220: bf81 963c b463 5cbd 0663 11bc 7db6 11bd
00000230: cdc6 61bb fa63 65bc 8ae8 883a 7ed4 33bd
00000240: 3958 393c 3832 36bd 6ce5 823d 5c26 433d
00000250: da9e 4f3d 5656 05bd 7832 dfba c752 3b3d
00000260: f9ed 813c 39b6 383d 9f31 c63c 30d2 1bbd
00000270: 3b5b 34bc 7e1e c8bc 7a70 09bd e9bf b4bc
00000280: 6f7d 92bc 595e 0dbd e657 813c 9ea5 13bd
00000290: ab79 2a3d ceeb 8c3c a805 f83c b475 b2ba
000002a0: 5b02 c73c 9a4a 123d 79d2 d5bb e4d9 efbc
000002b0: 44e0 143d 99ae efbb bf43 c93c cd5f 80bc
000002c0: b432 e1bc ef1e 5abd c336 24bd 8dbd 05bd
000002d0: ed09 4cbd a874 4b3d 7ed3 aa3c 0e0d 27bc
000002e0: a611 f43c c915 6f3d 9989 313d 73db 11bd
000002f0: 82a6 903d 7e8b 9538 24b8 753c 7f7c 5a3c
00000300: 03eb 713d f14c 22bb abc2 493d e501 613d
00000310: 35aa b6bc c83e 913d cab2 903a 04cf f2bb
00000320: ca6b d8bc 0889 4a3d 2157 edbc 9aa8 32bd
00000330: 0336 043c 6dd2 2d3d c5f1 413d 59a3 c13b
00000340: daee 29bd 90e1 f83b fbf6 893c 4208 4b3d
00000350: 3e8c 093d d027 7a3d e2a7 60bc 31ed 3b3c
00000360: 36dd ebbc 2a23 fa3c df0c 093c 8b8c b0bd
00000370: 3e0b d53c 1efb 30bd 93f5 d8bc 8f24 393c
00000380: b6d0 103d b4da 1abc 98c3 4ebc ed70 3cbc
00000390: c14d a1bb 73d8 0d3c 6045 c03c faed 233d
000003a0: 4808 22bd 8281 793d 9e9f 5cbb 9783 473d
000003b0: a203 dbbc f9c0 ba3c 89e3 21bd 3ffd bebc
000003c0: a8b5 c5bc 8e0b e23c de52 2bbd 67a5 6bbc
000003d0: 1da9 6e3d d210 6bbd dfba 21bc 0beb 2fbc
000003e0: 24bd 8e3c cfc5 e5bc 0b1f c8bc 3d0f 02bd
000003f0: b4e7 c63c 4341 9bbb 571d ed3c b1c4 c8bb
-0.0070575653 0.020316582 0.057110433 0.04943553 -0.031461094 -0.004660149 0.04641485 0.046167158
0.018523196 0.041327693 0.036889352 -0.029993774 -0.00989108 -0.0025609415 -0.035746858 -0.0067014587
0.012491229 -0.05035552 0.06472468 -0.039808974 0.01758947 0.038589858 -0.0081211785 -0.026993789
0.050931897 0.018343646 -0.042746328 -0.036680557 -0.031126596 0.036574826 -0.0048208064 0.028447147
-0.01555605 -0.05498627 -0.031652253 0.04503673 0.065154724 0.030549753 -0.029738028 -0.044252172
0.012492562 -0.036863297 -0.04706905 0.023750732 0.017087603 -0.036606077 0.03411902 0.056534626
-0.026251554 0.05061088 -0.006926222 -0.020008678 0.017114142 -0.0136311855 0.030048981 0.016391901
-0.032520287 -0.01676687 -0.042303685 0.023442876 -0.00035560044 0.05257801 -0.019102328 0.033723406
0.038615018 -0.031262852 -0.03897214 0.0015786662 -0.03268094 -0.01838869 -0.017124625 0.039330784
0.024037778 0.00703055 0.015744958 0.042620063 0.055103797 0.030030398 -0.005889228 0.009754548
-0.04903786 0.015467843 0.011216065 0.016308526 0.018128294 -0.027870044 -0.010740964 -0.02742662
-0.0031914206 0.010698318 0.031284407 0.012888199 -0.014318351 0.06092005 -0.023263052 0.048952393
0.02013658 0.04503694 0.0035364302 -0.04156505 0.016298776 0.06191876 0.017179195 0.03452012
0.039600704 0.04607742 0.023884753 -0.023714136 -0.033364255 0.037119947 -0.025201716 0.04798983
-0.04491298 0.01192773 -0.030743377 0.04005989 -0.044212952 -0.01833243 -0.046170533 0.054764204
-0.049034864 0.0013275362 -0.0250607 -0.040649496 -0.028032765 -0.0015400473 0.026738396 0.015920095
-0.008088107 0.048438918 -0.03007926 -0.022408212 0.0002908726 0.038691297 0.022728313 0.05415354
0.018372415 -0.05380602 -0.008873707 -0.035574425 -0.003445077 -0.014000887 0.0010445279 -0.04390382
0.011312538 -0.044481486 0.06391415 0.047644004 0.050688602 -0.03255304 -0.0017028591 0.04573324
0.015860545 0.045095656 0.024193583 -0.038042247 -0.011008079 -0.024428602 -0.03355453 -0.022064166
-0.017882077 -0.034513805 0.015788984 -0.036046617 0.041619938 0.017202284 0.030276135 -0.00136154
0.024293115 0.035715677 -0.0065253344 -0.029278703 0.03634669 -0.007314515 0.024568437 -0.015670681
-0.027489997 -0.053252157 -0.040091287 -0.032651473 -0.049814153 0.0496718 0.0208528 -0.010195984
0.029793572 0.058370385 0.043344114 -0.035609674 0.07063009 7.130856e-05 0.014997516 0.013335346
0.059062015 -0.00247651 0.049257915 0.054933447 -0.022297958 0.07092053 0.0011039611 -0.007409932
-0.026418585 0.04944709 -0.02897221 -0.043617822 0.008069518 0.042437006 0.04734971 0.005909365
-0.041487552 0.0075952485 0.016841402 0.049568422 0.03358101 0.061073124 -0.013711901 0.011470125
-0.028792005 0.030534346 0.008364885 -0.086205564 0.026006337 -0.043208234 -0.026484286 0.01130022
0.035355292 -0.009451557 -0.012619875 -0.011501533 -0.004922599 0.008657563 0.02347058 0.040021874
-0.03955868 0.060914524 -0.0033664475 0.04870948 -0.02673513 0.022797095 -0.039523635 -0.023314117
-0.024134472 0.0275934 -0.041827075 -0.014382697 0.058266748 -0.057389088 -0.009871214 -0.010737191
0.017424174 -0.028048424 -0.024428865 -0.031752814 0.024280407 -0.0047380044 0.028944654 -0.006126963

bias f4 [4]
00000000: 5a46 3b3d 8a9b 12bd a185 9bba 8496 34bd
0.04572139 -0.035792865 -0.0011865386 -0.044088855

weight f4 [4, 8]
00000000: 47a5 813e 5e72 443e d2b8 81be 832d 89bd
00000010: 72d3 c9bd df90 77be c242 0f3e 1fe5 493d
00000020: d740 42bd 236c 1f3d abbd 17bd d2b9 153e
00000030: 857d 0fbe f864 f9bd cd95 5cbe 40d9 943e
00000040: 95c5 8c3e 04b7 953e 34f6 a9bd 77f9 a1be
00000050: 15ef f6bd 4f1c 95be 9bca 4c3c 07ae 01be
00000060: 074f 85be 872c 713e d806 9d3e e04c 873e
00000070: bbad 91be 2954 01be a0bf d7bc d44d 863e
0.2532141 0.19184253 -0.2533632 -0.06698134 -0.09854783 -0.24176358 0.1399031 0.049290773
-0.047425117 0.038921487 -0.037046116 0.14621666 -0.14012726 -0.121774614 -0.2154152 0.29072
0.27494493 0.29241192 -0.08298913 -0.3163564 -0.1205732 -0.2912316 0.012499477 -0.12664042
-0.26036856 0.23552142 0.30669284 0.26425838 -0.28452858 -0.12629761 -0.026336491 0.26231253

bias f4 [4]
00000000: 4092 70be 0051 7c3e f032 863d 7bc8 2e3e
-0.2349329 0.24640274 0.06552684 0.17068665

weight f4 [4, 8]
00000000: 8e6a a23e 8669 c23c ddd6 c4bd dacf 8c3e
00000010: 57d2 b23d 8565 f3bc adde 8abe b051 bc3d
00000020: d52a 89be 85aa 25be 9eb5 353e 2a77 98be
00000030: faff 90bd 2ed2 24bd 287d c8bd f89a 213e
00000040: 5506 63be 655b 8cbe f977 abbe b313 983e
00000050: 924b 17be 8549 31bd 6bcc 8bbe 4674 2f3e
00000060: 160b 773e 3ef2 a7be de82 8bbd 9908 7f3e
00000070: 6d32 993e d39f a13e 9ace 1abd b3ec 66bd
0.3172192 0.023731958 -0.096112944 0.27502328 0.087315254 -0.029711494 -0.27123013 0.09195268
-0.2679049 -0.1617833 0.17745063 -0.29778415 -0.07080074 -0.040239505 -0.09789497 0.15781772
-0.22170384 -0.27413478 -0.3348997 0.2970253 -0.14774922 -0.043283004 -0.27304396 0.17134199
0.24125323 -0.32802004 -0.0681207 0.24905623 0.29921284 0.3156725 -0.037794687 -0.056378078

bias f4 [4]
00000000: 256e 9abd 4428 553e 5fd9 b23d 58be cc3d
-0.0754054 0.20816141 0.087328665 0.09997243

weight f4 [10, 2]
00000000: 29be e5be 0e93 a5bc 115c f8bd 0c71 1d3e
00000010: ac50 efbd c463 893e 4ddd 8cbd 9c31 17bc
00000020: 860a 00bf 70c5 033f 24d0 17be eecb 913d
00000030: 95cd 293f 78f9 35bf c71a eabe 5f4a 20bd
00000040: c2c2 9c3d 9921 c6be 5233 20bf 7bcf c8be
-0.44871643 -0.020211723 -0.12126935 0.15375155 -0.11685309 0.26833928 -0.06878147 -0.009228136
-0.5001606 0.5147314 -0.14825493 0.071189746 0.6632932 -0.71083784 -0.45723554 -0.039133426
0.076543346 -0.38697508 -0.6257831 -0.39220795

bias f4 [10]
00000000: 1e2f 25bf cd0a 133f 141e 4d3d 849c fdbe
00000010: 3b6a cfbe 9d39 a8be 3c1e 62bd ba32 c1be
00000020: 0793 0abf efeb 09bf
-0.6452502 0.57438356 0.050077513 -0.49533474 -0.40510735 -0.32856455 -0.055204615 -0.37734014
-0.54130596 -0.5387563

weight f4 [10, 2]
00000000: 833f 363f ef74 2cbf 7825 083e e15e c8be
00000010: 9b59 053e 340f ddbd 51e8 d0bc c863 08bf
00000020: f692 9d3e b77a 203f febf 01bf 8c69 20bf
00000030: 2655 b5be fe2e 25bf baaa dcbe 3df1 61be
00000040: 1825 f0be 2dd5 cbbe cf48 f23e 8a44 1f3f
0.7119066 -0.67365927 0.13295543 -0.39134887 0.13022463 -0.107939154 -0.025501402 -0.53277254
0.30776185 0.6268725 -0.5068358 -0.6266105 -0.35416526 -0.6452483 -0.43099004 -0.22064681
-0.469033 -0.39811078 0.47321174 0.6221396

bias f4 [10]
00000000: 7b94 a8be a63b d6be 2d49 eb3e 9db4 1c3f
00000010: c007 13bf 572f d03e 9eb0 693e c05e 183e
00000020: fb21 b6be 3fe6 a2be
-0.32925782 -0.41842383 0.45954266 0.61213094 -0.574337 0.40661117 0.2282128 0.14879894
-0.355728 -0.3181629

weight f4 [20, 4]
00000000: 46e0 983e 9ae4 333e 357d 323e 57f2 473e
00000010: c5fe bd3e dddc 8fbe a61c 163e 7c3e 55be
00000020: 8517 893e 4491 db3e 556c b6be 044b 0d3d
00000030: 2c39 0fbe bc9e ee3d ccd9 da3d 35da e5bd
00000040: 9e94 8f3e 35b5 8ebe 7a91 cc3e ab54 743d
00000050: 47dd c53e 19e5 62be 226a 8b3d 2c9c 6b3e
00000060: e6ca 9cbe 531c 8dbe 9c9c 95be f3c2 223e
00000070: d647 943e df6f afbe 1408 82be d04d 9a3d
00000080: d0c0 883e 2a12 993e e725 62be 7bab 913d
00000090: 788a 703e bf44 c53e 719f f8be d4ff e8be
000000a0: 4b20 99be ef15 503e e63b afbe c307 edbe
000000b0: 27c0 fe3e 4e00 f3bd 3a6b 563e b0ed c8be
000000c0: 3981 a8be 8307 863d 420c 27bd 66c7 debd
000000d0: 45e4 32bd 776b 833c 3530 f23e 91ce a8bd
000000e0: f6b4 19be b666 d7be 4725 3dbe 6bca 9b3e
000000f0: bc4c 6dbe 5416 da3e 8e9f 25be 87d5 4cbe
00000100: 0631 7e3e 9d00 a13d 1c6a 82be 2a8f d6be
00000110: e727 02be 9063 2fbe dc61 78be 02ea 93be
00000120: 1952 9e3d 702f 84be da81 ed3d 27dc 27be
00000130: 9d81 e83e ce13 913e fefd 0abe ea62 38be
0.29858607 0.17567673 0.17430575 0.19526039 0.37108436 -0.28098193 0.14659366 -0.20824617
0.26775756 0.42884266 -0.35629526 0.03449537 -0.13986653 0.1165137 0.10686073 -0.1122326
0.28043073 -0.27872625 0.3995474 0.05965106 0.38645384 -0.22157706 0.068073526 0.23008794
-0.3062355 -0.27560672 -0.29221046 0.1589468 0.28961056 -0.34265038 -0.25396788 0.07534373
0.26709604 0.2989667 -0.22084771 0.071127854 0.23490322 0.38529012 -0.48559144 -0.4550768
-0.2990745 0.20320867 -0.34225386 -0.46294984 0.49755976 -0.118652925 0.20939341 -0.3924384
-0.3291109 0.065444015 -0.040783174 -0.10877876 -0.043674726 0.016042454 0.47302404 -0.082425244
-0.15010437 -0.4207055 -0.18471251 0.3042787 -0.23173803 0.4259516 -0.16174147 -0.20003329
0.24823388 0.07861445 -0.2547158 -0.419061 -0.12710534 -0.17127824 -0.2425608 -0.2888947
0.07730503 -0.25817442 0.11597033 -0.16392575 0.45411387 0.28335422 -0.13573453 -0.18006483

bias f4 [20]
00000000: 611c 923e bd0b d63e 95b1 90be ed62 c8be
00000010: 4e65 eabe 665f 883e fc86 103d 69d4 6f3d
00000020: a6cc 03bd 53e2 5e3d 629f e23e 1a5a 5a3e
00000030: f895 b83e 852f d6be 9304 3fbe ba37 923e
00000040: 4f0e 17be 17c3 c7be 3835 853c 966d 5ebe
0.28537276 0.4180583 -0.28260484 -0.39137974 -0.45780414 0.26635283 0.03528498 0.05855218
-0.03217759 0.05441506 0.44262224 0.21323434 0.36051917 -0.4183313 -0.18654089 0.2855814
-0.14751552 -0.3901603 0.016260728 -0.21721491

weight_ih_l0 f4 [12, 10]
00000000: 3d2c 73be cefd ea3e 5627 8c3e 0466 dd3e
00000010: 97ba 2abe 1652 4f3e 393c b83e e247 eabd
00000020: cdc5 61be fedf 92be af13 b2be 3e88 1b3e
00000030: 6086 593e cd40 403e 46cf 6c3e 076f 2d3e
00000040: 26e8 873e 8899 ec3d ce1d b2be a342 813c
00000050: b85f 883e 26da 9c3d 3f1a ca3d 926c 80bd
00000060: 0599 dbbe bde2 003d 5942 803e 0f03 dcbe
00000070: 261e 233d 3d04 753e 3875 4a3b 7cd8 a63d
00000080: 00c5 5fbe ab09 413e 9362 bcbe 71b1 a43e
00000090: 4017 ab3e 93c7 18be 8445 3cbe f240 993e
000000a0: a07d 9e3d 5dcf ddbc 3c56 41be 9301 cfbe
000000b0: 96d3 c2bc c1a6 7bbe f4e0 89be a264 2c3e
000000c0: f3db a3be 4f7a 893c 29f4 14be 929d a1bd
000000d0: 7fd4 133e 2aa8 e2bd b2b4 8fbe 9026 043e
000000e0: 156c 783e ba7c ccbe dc99 4bbe b6ce 83be
000000f0: d725 a4bd de4e 57be fa07 e73e cf7b c6bd
00000100: eaab 87bc d1b0 523d 786d d7be ea13 fc3e
00000110: 22a9 8fbe d9be dc3b 16cf 36be 3faf 81be
00000120: 10a9 5f3e 50a0 6fbe fc88 b1bd c3e1 80be
00000130: dcf2 e6be 1bcb 71be aa34 e83e 6255 e23e
00000140: fe48 95bd f0c9 d6bd 433a 5f3e fd10 a1be
00000150: ac53 dbbe ca0c f3be ca91 20be 71aa 9dbe
00000160: d46e 21be 283e 703e 990a 993e 6aba ecbe
00000170: a27c cfbe 8ff0 b9bd f8c0 babe 4b2b 283e
00000180: 34f6 67be cad4 abbe 63ab cc3d cf45 57be
00000190: 8650 8b3e 7042 ab3e 02a9 e23d 41e7 b73c
000001a0: 8811 f43e 1318 f7be ede4 c43d 37a8 2cbe
000001b0: 3543 db3e aa51 06bc fea1 b43e ba25 ddbe
000001c0: 4800 043f 9868 413e a205 c6be d31c 01bc
000001d0: 87fa 853e 4ee0 8e3d 2d8b 793e 1526 4abe
-0.23747344 0.45896763 0.2737376 0.43241894 -0.16672741 0.20246157 0.35983446 -0.11439492
-0.22048111 -0.28686517 -0.34780642 0.15188691 0.21242666 0.1877472 0.23125944 0.16936885
0.26544303 0.11552721 -0.34788364 0.015778845 0.26635528 0.07658796 0.09868287 -0.06270708
-0.42890182 0.031466234 0.2505062 -0.42971084 0.039823674 0.23927398 0.0030892622 0.0814676
-0.21852493 0.18851344 -0.36793956 0.32166627 0.33416176 -0.14919882 -0.18385893 0.29932362
0.07738805 -0.027076418 -0.18880552 -0.4043089 -0.023782533 -0.2457533 -0.26929438 0.16835263
-0.32003745 0.016781954 -0.14546265 -0.07891382 0.1443653 -0.11067231 -0.28067547 0.12905335
0.2425998 -0.3993891 -0.19882911 -0.25743645 -0.0801503 -0.21026179 0.45123273 -0.09691583
-0.016561467 0.051438157 -0.42075706 0.49233943 -0.28058726 0.006736618 -0.17852435 -0.25329015
0.21841836 -0.23400998 -0.08668706 -0.25172243 -0.45107162 -0.23612635 0.4535268 0.44205767
-0.07289313 -0.10487735 0.21799569 -0.31458274 -0.42837274 -0.47470695 -0.15680614 -0.307941
-0.15764934 0.2346121 0.29890898 -0.46235973 -0.40524775 -0.09079086 -0.36475348 0.16422765
-0.22652513 -0.33560783 0.09993627 -0.21022724 0.27209872 0.33449125 0.11067392 0.022449138
0.47669625 -0.48260555 0.09613977 -0.16861044 0.42824712 -0.008198181 0.3527984 -0.43192846
0.5156293 0.18887556 -0.38676172 -0.007880407 0.261677 0.069763765 0.24369498 -0.1974109

weight_hh_l0 f4 [12, 4]
00000000: f896 383e 4403 173e f6d8 97be 21b8 67be
00000010: 36f0 e83e b68d cebe fc30 6bbe 4a4b 2d3e
00000020: ec6b 8a3e 3fc0 f33e 3605 6dbe 3d86 5b3e
00000030: bc22 d53e 5de2 033f b353 d33e 6003 c73e
00000040: 76ad ba3d a4ae d0be 2253 173e bf06 a43d
00000050: 3565 aa3e dac2 5a3e c878 c23e 3ded 7cbe
00000060: b9f6 fa3e 0025 923e 158b adbe d103 4f3e
00000070: 80f1 adbe ef19 b8be e025 9d3e 489e be3e
00000080: 130d 31be 5302 14bc 72a9 7dbd 172e 8bbd
00000090: 83c1 f6be 8609 833e ac26 a73e a880 783b
000000a0: 95ed 4bbe 86d1 e43e 01fb d53e aa39 35be
000000b0: 9c19 75be 5220 e0be 0109 0b3d 133e 653e
0.1802634 0.1474734 -0.29657716 -0.22628833 0.45495766 -0.40342492 -0.22967905 0.16923252
0.27035463 0.4760761 -0.23146519 0.21437927 0.41628063 0.5151728 0.41274795 0.38869762
0.09115116 -0.4075824 0.14777806 0.08009099 0.3328034 0.21363392 0.37982774 -0.24699874
0.4901636 0.28543854 -0.33895174 0.202163 -0.33973312 -0.35957286 0.3069296 0.37230134
-0.17290144 -0.009033757 -0.061929174 -0.067959 -0.48194513 0.25593203 0.32646692 0.0037918482
-0.19914849 0.44691104 0.41793063 -0.17697778 -0.2393555 -0.43774658 0.033944134 0.2238696

bias_ih_l0 f4 [12]
00000000: 0269 b6be 6aad 463e 155c 66be e037 733e
00000010: 4bc4 bf3e 4c82 dd3e b61a 45be ddb9 9e3d
00000020: 05cf e53e 04ea 8d3d 393e 62be 72b4 bf3e
-0.3562699 0.1940209 -0.22496064 0.23751783 0.37454447 0.4326347 -0.1924847 0.07750294
0.44884506 0.069294006 -0.22094049 0.37442356

bias_hh_l0 f4 [12]
00000000: 2139 743e 9a23 a33e c930 7abe 3459 a03e
00000010: fc92 c8bb 14d3 9ebe 17dc 4d3b e9a6 8ebe
00000020: 6455 ed3e b640 403e 6a8d c1be 65f7 b33e
0.23849918 0.318631 -0.24432673 0.31318057 -0.0061210375 -0.31020415 0.0031411701 -0.27861717
0.4635421 0.18774685 -0.37803203 0.35149685
