RTSNet/checkpoints/LorenzAttracotor/DT/T100_Hrot1/2nd_pass/rq1030_full.pt (torch, 160357 bytes, 63 tensors)

weight_ih_l0 f4 [27, 15]
000000 2d 14 76 3b bd c7 49 3e 21 9c 3e be 79 50 6b bc
       0.0037548647 0.197051 -0.18614246 -0.014362448
000010 d6 7e 01 3e 04 5a 48 be 66 cd 3d be f0 a6 98 be
       0.1264604 -0.19565588 -0.18535385 -0.29814863
000020 18 2b 90 be 7a c4 9b bd bd 37 63 3e 40 11 6c 3e
       -0.28157878 -0.07605834 0.22189231 0.23053455
000030 f1 93 01 3e 5f b7 a4 be f0 52 dc bd 3b 43 47 be
       0.12654091 -0.3217115 -0.107580066 -0.1945924
000040 2a 09 b2 bb f8 21 73 3e 29 95 a8 bd 61 bf d2 bc
       -0.0054332213 0.23743427 -0.08231575 -0.025726022
000050 6c eb 5d be 0f 61 40 3e fe 1b 6c be 61 57 3d bd
       -0.21671838 0.18787025 -0.23057553 -0.04622591
000060 c1 31 e5 3d e4 0b 0a 3e 83 8f 84 3d e9 09 15 3d
       0.111911304 0.13481098 0.06472685 0.036386404
000070 f7 02 96 3e 3f 98 a7 3e 7a f7 87 bd f1 56 8c 3e
       0.29299137 0.32733342 -0.06638999 0.2741008
000080 3f 22 db bd ca de a8 be ba ab 41 be 8e 0c 11 bc
       -0.10699891 -0.32982475 -0.18913165 -0.008853091
000090 4d c5 37 bd 29 f6 8c 3e f9 a0 1c be 30 3f c8 3c
       -0.044865895 0.27531555 -0.15295781 0.024444193
0000a0 2a 77 4a be 05 21 4d 3e 35 b9 7f be 4a 43 c5 3d
       -0.1977202 0.20032127 -0.24972995 0.09631975
0000b0 64 e9 5c be 4b 06 c9 bc 1b 6b b5 3c f6 8b 6e be
       -0.21573406 -0.024539134 0.022145798 -0.23295578
0000c0 9e b9 9f be 68 ae a6 be 6b aa 15 3d fc bc 46 be
       -0.31196302 -0.32554936 0.036539476 -0.1940803
0000d0 30 e8 7f be 97 5f c0 bd 50 b9 a1 be 6b 4d 23 3e
       -0.24990916 -0.09393232 -0.31586695 0.15947501
0000e0 dd 8d e7 3c 13 f5 7b bd bd ac cd 3d a5 09 67 be
       0.028265888 -0.061513018 0.10042713 -0.22562273
0000f0 a1 4d 6e 3c 99 cd 9a be 77 a0 aa be 7e 59 6e be
       0.014544875 -0.30234984 -0.3332555 -0.23276326
000100 c5 43 a3 bd e8 5e 4e 3e 26 c1 80 be 32 38 c5 bd
       -0.079719104 0.20153391 -0.2514736 -0.09629859
000110 b6 6d 7f 3e d2 b2 27 be a2 f4 23 be e9 b5 b9 3d
       0.24944195 -0.16376808 -0.16011289 0.090679
000120 9f 56 10 3e fc ce a2 bd 69 4a dc 3c 94 d4 5b 3e
       0.14095543 -0.079496354 0.02689095 0.21467811
000130 21 f8 34 be 0a 73 a3 3e 60 53 25 3e 2d 40 1c bd
       -0.17672779 0.31923705 0.16145086 -0.03814714
000140 7a 49 4a be e9 7a ad bd e5 9e 62 3d cf e4 39 bc
       -0.19754592 -0.08470709 0.055327315 -0.011346056
000150 90 b6 4d 3e d5 2a a4 3e ce 23 88 3e 29 ae c5 bd
       0.20089173 0.32063928 0.26589817 -0.09652359
000160 fc ad 08 3d 5e 47 60 be 64 5e 79 3e 80 60 3d be
       0.03336905 -0.21902224 0.24352413 -0.18493843
000170 42 45 b3 bd 93 5f 3e bc ab 40 9d 3e 21 6e cb bd
       -0.08753444 -0.011619466 0.307134 -0.09933115
000180 3b 26 65 3e 6b a7 9c 3d 42 9a e2 ba 7a 69 b3 3d
       0.22377865 0.0764912 -0.0017288404 0.087603524
000190 56 b6 39 3e 19 d3 b1 3d af 7a 5d 3e 46 65 21 be
       0.18135962 0.08682842 0.21628831 -0.15761289
0001a0 92 3b 01 be 47 26 2b 3e b3 38 31 bb fe 3b 4f 3d
       -0.1262038 0.1671382 -0.0027041852 0.050594322
0001b0 48 09 4d 3e e3 84 87 3d c5 24 37 be af c5 d9 3b
       0.20023072 0.06617143 -0.1788512 0.00664588
0001c0 15 5f 17 be 41 7e 3e 3e 2c b6 fd 3c cd b7 6a 3e
       -0.14782365 0.1860285 0.030970655 0.22921677
0001d0 c2 11 01 be 3f 50 3c 3e 14 d7 55 3e c6 95 94 be
       -0.1260443 0.18389986 0.20882827 -0.29020518
0001e0 ba a5 bb 3d 58 12 03 be 35 f0 5a be 39 d9 51 be
       0.09162469 -0.12799966 -0.21380694 -0.2049302
0001f0 e0 bf 80 be 53 1e c9 bd 6e 9f 23 be 61 bb 8b 3e
       -0.2514639 -0.09820237 -0.15978786 0.27291396
000200 d0 22 88 3e 3b 07 ee 3c 11 01 94 be eb d5 01 3e
       0.2658906 0.029056182 -0.28907064 0.1267926
000210 e4 38 dd 3d 3b 49 8d 3e d2 d5 7f 3e af 96 16 be
       0.10801867 0.27594933 0.2498391 -0.14705919
000220 9b d7 05 3e fe 99 7d 3d 2e ec 79 be 17 05 80 bd
       0.13070528 0.061914437 -0.24406502 -0.06250971
000230 82 ec 33 be 2d 16 a3 3d 1c d3 75 be 42 85 fe 3c
       -0.1757069 0.07963214 -0.24006313 0.031069402
000240 04 b2 9a be d0 c3 07 3e f3 eb aa 3e f4 63 22 be
       -0.3021394 0.1325829 0.3338314 -0.15858442
000250 4c ca a1 be 08 d8 3e 3e c0 5f 71 3e 22 d8 19 be
       -0.31599653 0.18637097 0.23571682 -0.15023854
000260 43 9d 45 3e f3 1c 44 be 45 c0 57 3e 31 88 8b 3e
       0.19298272 -0.19151668 0.21069439 0.27252343
000270 77 43 05 3e 51 76 aa bd 18 dd 95 3d d8 f6 31 3e
       0.13014017 -0.08323348 0.07317561 0.1737932
000280 1e 85 9c be d9 00 82 3e ba d5 03 be 89 7f 62 be
       -0.3057031 0.25391272 -0.12874499 -0.22118963
000290 ee d4 13 bd d2 c1 30 3d 44 1e 97 3c ee 6c bb bd
       -0.036091737 0.04315359 0.018447049 -0.09151636
0002a0 4f ba 52 be f2 5e 17 3e 5b b9 2e bd 7a c0 84 3e
       -0.20578884 0.14782313 -0.042657237 0.25928098
0002b0 24 16 8c be a5 23 96 3e c0 ac 73 3e 04 48 8f bc
       -0.27360642 0.2932407 0.23796368 -0.017490394
0002c0 5c b7 7f 3e bf 19 20 3e b4 80 3d 3d d4 6a 1f 3e
       0.2497229 0.15634821 0.04626532 0.15568095
0002d0 81 f6 46 3e 2b 96 eb 3b c8 a5 20 3e 07 be 37 3e
       0.19429971 0.0071895323 0.1568824 0.17943583
0002e0 45 71 e3 bc 4a ce 77 be 83 a4 00 3e d3 7b 60 be
       -0.027763972 -0.24199787 0.12562756 -0.21922235
0002f0 26 ec 9b be 5e d6 e6 bd 92 c0 5d 3e db a6 6f bb
       -0.30453604 -0.11271356 0.21655491 -0.003656796
000300 75 03 9e be 9f a4 35 be 82 f4 21 3e b0 fa cd 3c
       -0.30862013 -0.17738579 0.15815929 0.025143951
000310 83 00 18 be f6 3a 77 3e 0a 33 73 3e 7b 2d 76 bd
       -0.14843945 0.24143586 0.23749939 -0.060101967
000320 7d 3b 84 be a3 00 7d 3d 9e fe 9a 3d d2 3b a0 3e
       -0.25826636 0.061768185 0.075680956 0.3129564
000330 06 41 99 3e 07 30 70 3e 5f 8d a5 3e 52 08 45 be
       0.2993242 0.23455821 0.3233442 -0.19241455
000340 2f 2b 20 3e f1 16 78 be d8 22 85 3c 4b 5a 0f 3c
       0.15641473 -0.24227501 0.016251966 0.008749555
000350 56 85 15 be 39 e4 bf bd 39 f1 3d be 1a 75 60 3e
       -0.14601645 -0.09369702 -0.1854905 0.2191967
000360 1e 12 3e be 9b f3 b9 bd 39 64 f9 bd 19 2a 32 3e
       -0.18561599 -0.09079667 -0.12177319 0.17398871
000370 74 a2 a0 3c 01 7d 0e be 6a 50 c0 3d d5 d9 0b 3d
       0.019608714 -0.13914873 0.09390338 0.034143288
000380 f6 de ba bc ba 9f 87 3e 30 12 20 bd 85 4f 84 3d
       -0.022811394 0.2648905 -0.039079845 0.0646048
000390 2d 25 21 be 13 3f 16 3e 7f f7 33 bd c4 24 fb 3d
       -0.15736838 0.14672498 -0.043937203 0.12262872
0003a0 42 ac e4 bd 2c bf f2 bd 70 b6 54 3e eb 36 2c bc
       -0.11165668 -0.118528694 0.2077272 -0.01051114
0003b0 d6 8a 89 be 5e 28 85 be f2 6c 27 3e 47 9d e8 3c
       -0.26863736 -0.2600736 0.16350153 0.028395308
0003c0 82 eb 0e bd 41 3b 92 3e 8c f4 17 be 4c 64 8d be
       -0.034892567 0.28560832 -0.14839381 -0.27615583
0003d0 bf 1c 94 3d 54 ea e5 bc c6 b1 81 3d 26 2e 15 be
       0.072320454 -0.028065838 0.06332736 -0.14568385
0003e0 15 c7 c0 3d 43 31 32 bd c9 b7 96 3e a1 a6 8f 3e
       0.09412972 -0.04350401 0.29437092 0.28056815
0003f0 b6 aa 97 3e 8b 5d 86 3d bf fe 8f be eb ea 49 be
       0.2962243 0.06560811 -0.28124043 -0.1971852

weight_hh_l0 f4 [27, 9]
000000 e0 f5 9a 3e d4 ca f1 3c d3 59 5b be ec 08 87 3e
       0.30265713 0.029515661 -0.21420984 0.26373994
000010 90 1b 26 be a2 41 26 be fc ff a3 bd 2f bd d8 bd
       -0.16221452 -0.16235974 -0.080078095 -0.10582959
000020 c2 f8 8c 3e 95 2d 2b be f8 12 0d be 19 dc 55 bd
       0.27533537 -0.16716607 -0.13776767 -0.052211855
000030 76 4c a8 3e 72 f5 7e be c7 6a 99 3d 65 cc 2c be
       0.32870835 -0.24898317 0.07491069 -0.16874845
000040 0f c4 0b 3d 2a aa 51 3d ad 97 ac 3d 36 15 27 be
       0.034122523 0.05118767 0.08427367 -0.16316685
000050 70 ee 91 3e 8e ca 08 3d 4f 09 8c 3e f0 32 80 3e
       0.28502226 0.033396296 0.27350852 0.25038862
000060 91 02 81 be 55 b0 f4 3c 51 af 30 3d d7 c7 6a 3e
       -0.2519727 0.029869238 0.043135945 0.22927795
000070 54 c2 c0 3c a8 21 50 3d e4 73 73 3d f6 7d f2 bd
       0.023530163 0.050813347 0.059436694 -0.118404314
000080 e4 e5 18 3e 3d d1 f2 3c 3b d6 6b 3d 10 b3 14 be
       0.14931446 0.029640788 0.057577353 -0.14521432
000090 50 10 2f 3d 1e 67 1c be 71 64 39 be 1b 0b 71 3e
       0.042740166 -0.15273711 -0.18104722 0.23539393
0000a0 52 53 54 3c 95 50 3e 3e d1 af 8e 3e ad d1 15 be
       0.012959318 0.18585427 0.27868512 -0.14630766
0000b0 98 2b fb 3d 0f e3 ab bd 11 94 fe 3d 5d de a1 3c
       0.12264174 -0.08392917 0.12430585 0.019759351
0000c0 51 1c 8e be 3d f5 bb bd 6b 7d 50 3b 7d 08 39 3e
       -0.2775598 -0.09177635 0.0031813036 0.18069644
0000d0 9a cc a8 3e 6b 74 84 3e b2 c5 b6 bd df e0 95 be
       0.329686 0.2587007 -0.08924426 -0.29273126
0000e0 bf 69 16 be 89 0f 8e be 26 bd 2e 3d 59 03 84 be
       -0.14688776 -0.27746227 0.042660855 -0.25783804
0000f0 c1 0d 02 3e 39 cc 6b 3e 2f 5c b1 bd 28 e0 16 3d
       0.12700559 0.23027124 -0.08660161 0.036834866
000100 ff 35 83 3e 11 3d ae 3d f1 1a 85 be e2 64 3c 3e
       0.25627133 0.08507741 -0.25997117 0.18397859
000110 62 4e 83 be 29 d7 1c bd 57 c4 25 be b1 ea 43 be
       -0.2564574 -0.03829113 -0.16188179 -0.19132496
000120 7a 53 8e 3d 09 a1 0d 3d 40 05 c5 bd 0e f6 85 3e
       0.06949516 0.034577403 -0.09620142 0.26164287
000130 35 af 2d bd 95 25 4b 3c a0 cc d4 3d 8a ab 42 3e
       -0.04240342 0.012399097 0.103905916 0.1901075
000140 95 4d 87 bb e2 63 5c be 73 94 a1 be 56 3b cf 3c
       -0.0041291215 -0.21522477 -0.3155857 0.025296848
000150 93 37 a4 be df 45 f3 3d c2 ce 16 be ca 3e 75 3e
       -0.3207365 0.11878561 -0.1472731 0.23949733
000160 aa d8 70 be 14 69 a8 3e 6d b5 e8 3d 43 35 51 3e
       -0.23520151 0.32892668 0.11362729 0.20430474
000170 e7 d5 90 3e 93 91 94 be ae 82 37 be 0a 1f 2b 3e
       0.28288195 -0.29017314 -0.17920944 0.16711059
000180 35 99 93 3e 35 2a 55 bd 27 ab e0 bc 10 c1 4a be
       0.28827825 -0.052042205 -0.027425362 -0.1980021
000190 66 57 9d be 77 5e 89 3e 98 44 72 3e 65 1b 36 3e
       -0.30730742 0.26829883 0.23658979 0.17783888
0001a0 33 08 7c 3c 6f 74 1b 3e 88 6f d6 3d c5 a1 13 3e
       0.015382814 0.15181135 0.10470492 0.14417179
0001b0 84 18 d5 3d 42 3a 8c bd 40 cf ec 3c 01 ea 30 be
       0.104050666 -0.06847049 0.028907418 -0.17276765
0001c0 9d e7 88 be 1d e3 25 be 87 51 3a be ea e5 0b bc
       -0.26739207 -0.16199918 -0.18195163 -0.0085387025
0001d0 93 9b 5f 3e 84 b7 2b 3e 19 b2 52 3e ae 49 df bd
       0.2183669 0.16769224 0.20575751 -0.10902725
0001e0 a8 92 aa 3e 17 a4 a0 3e 6e fc a6 be fd db 17 3e
       0.33315015 0.3137519 -0.32614464 0.14830013
0001f0 b9 71 91 be 11 43 4f 3e 69 6f 34 3e 02 76 f0 bd
       -0.28407076 0.20240428 0.17620625 -0.11741258
000200 b7 f9 71 be 1b 9e 00 3e 25 92 2d 3e ed be 4c be
       -0.23630415 0.12560312 0.16950281 -0.19994707
000210 23 95 db 3d ce 61 1b 3d 9a 22 47 be 3a 49 63 3e
       0.10721805 0.03793507 -0.19446793 0.22195902
000220 31 5b a1 bd 3c 79 49 3b ef 12 69 be 47 41 7e be
       -0.078787215 0.0030742427 -0.22761129 -0.24829589
000230 67 a9 b0 bd ba 10 88 3e 20 51 83 3e 5a dc a3 3e
       -0.08626061 0.2657526 0.2564783 0.32004052
000240 d3 96 8e bd e9 93 9a 3d 5a 93 87 be 89 24 b2 3d
       -0.06962361 0.07547743 -0.26479608 0.08698375
000250 55 47 20 3e 14 86 6c 3e 74 e4 c1 3d 3a 7c 30 3e
       0.15652211 0.23098022 0.09467402 0.17234889
000260 09 3a 2c 3e 96 4f 80 be 00 47 a7 3d 01 d3 40 3e
       0.16819014 -0.2506072 0.08167839 0.18830492
000270 ee b4 af bd d3 4a 5f 3e 92 a7 a6 bd 66 63 f3 bd
       -0.085794315 0.21805887 -0.0813743 -0.11884193
000280 32 fe 0b be 3b f1 41 3d 6b 95 4b 3e 88 ed 5a 3e
       -0.13671187 0.047349196 0.19881217 0.21379673
000290 ba 17 54 3e 09 a4 ee 3d c9 61 14 bb 8b f0 9d be
       0.20712176 0.11652381 -0.0022641292 -0.30847582
0002a0 77 e7 a3 3e cf 38 56 bd 38 e4 88 3e 53 01 49 be
       0.3201253 -0.05230027 0.26736617 -0.19629411
0002b0 98 46 82 3e b5 37 59 3e a6 fe 86 3e b3 59 63 be
       0.25444484 0.21212657 0.26366156 -0.22202186
0002c0 3c 21 4c 3e a0 c1 b7 3d 9d 1e 31 be 03 a7 67 3e
       0.19934553 0.08972478 -0.17296834 0.22622304
0002d0 2b 15 84 3e e2 6b 59 3e 26 fb 1d be a3 06 04 3d
       0.257974 0.2123256 -0.15427837 0.03223289
0002e0 3c e3 3b 3e af b4 58 bd 0a ad 8d be c2 b2 64 3e
       0.18348402 -0.05290669 -0.2767108 0.22333816
0002f0 83 e5 01 3e 1d 63 89 3e 5e ef ca bd f6 b8 77 3d
       0.12685208 0.2683343 -0.09908937 0.060479127
000300 f2 a5 74 be d5 c2 c4 bd de 89 97 3b c9 0b 00 be
       -0.23891428 -0.09607474 0.0046245893 -0.12504496
000310 bb 02 16 be df f5 05 3e 88 49 9c be 18 a2 19 bd
       -0.14649479 0.13082074 -0.3052485 -0.0375081
000320 31 84 88 be 33 42 a1 3e fd ad 9b be 4e 56 6c 3e
       -0.26663354 0.31495818 -0.3040618 0.23079798
000330 73 af a6 be c0 dc e0 bd 25 96 75 3e 7e 32 0f 3e
       -0.32555732 -0.10979605 0.23983057 0.13984105
000340 75 d0 26 3e 6b de ab be 68 c9 64 3e 5a 35 47 3e
       0.16290458 -0.3356813 0.22342455 0.19453946
000350 32 95 1e 3e 0a e0 3a be 88 97 b5 3d 5e 14 49 be
       0.15486601 -0.18249527 0.08866793 -0.19636676
000360 2c 22 08 bd 9b 62 a4 be 23 a5 5a bd 04 ba 2a 3e
       -0.033235714 -0.3210648 -0.053380143 0.16672522
000370 0b dc ed 3d 42 57 5e bd 20 db 1c bd f1 de cb 3d
       0.116142355 -0.054282434 -0.03829491 0.09954632
000380 03 64 8a 3e c1 d2 77 3e 70 14 8d 3d 0d a3 e8 3d
       0.27029428 0.2420149 0.06888664 0.113592245
000390 04 ab 8c be 79 e6 42 be 87 d8 84 3e 1a 95 80 3e
       -0.27474225 -0.19033231 0.25946447 0.25113755
0003a0 42 26 56 3e cd 55 93 be e8 2f 84 3e 0c 48 a9 be
       0.20913032 -0.28776398 0.258178 -0.3306278
0003b0 09 d1 74 3e 5f ca 7c 3e d7 71 37 bd 31 a6 68 3e
       0.23907866 0.24686573 -0.0447863 0.22719647
0003c0 e9 30 99 be f7 dc 0d be 38 3e a4 bc
       -0.29920128 -0.13853823 -0.0200492

bias_ih_l0 f4 [27]
000000 7a 1b 70 3c e3 4a 80 3e c7 ab 84 3e 55 71 79 be
       0.014654988 0.25057134 0.25912306 -0.24359639
000010 d2 f5 1a 3e e1 01 0d 3d 7a b4 5f be 6b 11 8e 3e
       0.15132836 0.03442562 -0.2184619 0.27747664
000020 54 ec 8a 3e 69 8a 53 3e c9 b1 76 be 47 57 54 3e
       0.2713343 0.20658268 -0.24091257 0.20736419
000030 a1 31 d6 bd da 35 a2 be 34 3c 8e bd 5f 7a 35 3d
       -0.10458685 -0.3168171 -0.069450766 0.044306155
000040 ad 21 5e be a0 b0 71 3d a9 e3 52 3d ae df cc bc
       -0.21692534 0.059006333 0.051486645 -0.025009003
000050 da 13 03 bd 60 9a 10 be e2 63 80 be ac 10 46 bd
       -0.032001354 -0.1412139 -0.25076205 -0.048355743
000060 cd c7 6c be 96 5d 2c be 01 86 e6 3d
       -0.23123093 -0.16832575 0.11256028

bias_hh_l0 f4 [27]
000000 5a 60 ad 3e 0b f4 0d 3d 5d cb 02 3d dd cb 6f be
       0.33862573 0.034656566 0.031932224 -0.23417611
000010 2b 25 89 3e ff 87 84 be 77 71 9d be a3 27 8b 3e
       0.2678617 -0.25885007 -0.3075063 0.27178678
000020 a3 48 c9 3d eb 84 6b be 99 c2 a5 be 92 c7 14 3e
       0.098283075 -0.22999923 -0.3237503 0.14529255
000030 5b 35 36 be 17 c0 5f 3e 18 35 97 3d 9a eb dc bd
       -0.17793791 0.2185062 0.07383174 -0.10787125
000040 61 5c 61 3e 32 2a 57 3e c5 09 a5 3c 6e d1 98 be
       0.22007896 0.2101219 0.02014626 -0.29847282
000050 0b a2 0b be b0 19 ff bc f2 92 1d be e5 db 28 3d
       -0.13636033 -0.031140178 -0.15388086 0.041225333
000060 17 21 22 3e bc 3a 5e 3e 51 9b 9f 3e
       0.15832935 0.21702093 0.31173185

weight_ih_l0 f4 [27, 24]
000000 18 0c 6f be 31 70 aa be 3c 4c 1f be c3 49 51 3e
       -0.23344457 -0.3328872 -0.15556425 0.20438294
000010 df 75 be 3d 5f 86 d1 3d d8 6b a8 be c0 28 25 be
       0.09299826 0.102307074 -0.32894778 -0.16128826
000020 ad 1f a9 be fa 8b 48 3e 86 33 5d be 49 69 79 be
       -0.3303198 0.19584647 -0.21601686 -0.2435657
000030 67 08 c0 3d 43 3a a7 be 54 7e 87 be 60 fa 88 3e
       0.093766026 -0.32661638 -0.26463568 0.2675352
000040 28 8d 90 bd 03 6b 61 3e 8b 60 41 3e e5 82 27 3c
       -0.070581734 0.22013478 0.18884484 0.010224079
000050 dc ae 23 be 3d 96 d1 3d f3 08 21 3e 03 13 41 3e
       -0.15984672 0.10233734 0.1572607 0.18854909
000060 d1 cf 5f 3e 7f 98 54 3e 32 f5 07 bd e9 10 3c 3e
       0.2185662 0.20761298 -0.03319282 0.18365826
000070 70 88 96 be 67 c8 8f bc 5f 9f 92 be d5 e6 0b be
       -0.2940097 -0.017551614 -0.28637215 -0.13662274
000080 d5 e0 ca bd c8 54 82 be 9d 6d 0a 3e d1 9d c5 3c
       -0.099061646 -0.25455308 0.13518377 0.024123104
000090 dd 7d 2e 3d 5e 2f 98 bd b5 d6 45 3e 88 fe 90 3e
       0.0426005 -0.074309096 0.19320185 0.28319192
0000a0 f3 42 a7 3b c4 e4 08 3e 21 4e 87 be 6e 4a c5 3d
       0.0051044165 0.13368517 -0.26426795 0.09633337
0000b0 87 77 86 be 39 3b bf 3d a3 c0 09 3e bb 74 83 3e
       -0.26263067 0.09337468 0.13452391 0.25674996
0000c0 31 d9 c9 3d 7c bf 3a 3e 60 15 da bd e1 3a 56 3d
       0.09855879 0.18237108 -0.10648608 0.052302245
0000d0 38 33 8c be 3a 3a ac 3e bd 9f 97 be f1 66 6e be
       -0.27382827 0.33638173 -0.29614058 -0.23281457
0000e0 29 39 8f be 08 a8 88 3e 73 5c 1d bd 52 4a 97 be
       -0.27973297 0.26690698 -0.038418245 -0.2954889
0000f0 1f 6f 15 3e d2 2a ef 3c 9d fa 28 be f8 13 de bd
       0.1459317 0.029195223 -0.16501851 -0.108436525
000100 4c f2 6a be 5c d9 65 be 89 78 54 be 57 44 27 be
       -0.22943991 -0.22446197 -0.20749106 -0.16334663
000110 2a d6 af bb 31 ca 2e 3e 4a 49 12 3e 9c 9f a6 3e
       -0.0053661065 0.17069317 0.1428577 0.32543647
000120 3f 19 84 3d 3b 73 4d bd 49 36 1c bd 59 d5 39 3e
       0.06450128 -0.05015872 -0.038137708 0.18147792
000130 ca 43 75 be 32 60 82 3d 6e 69 98 3c c8 e5 51 3e
       -0.2395164 0.06366004 0.01860496 0.20497811
000140 b8 b8 1b be 0f 38 56 be 93 8d b9 3b 37 c3 00 be
       -0.15207183 -0.20919822 0.005662629 -0.12574469
000150 57 ce 40 3e fb 96 b7 3d 49 96 91 3e 1f 75 a0 bd
       0.18828712 0.08964344 0.2843497 -0.07834839
000160 89 6a b9 bd ab da d6 3d d4 1f 0b be ac 27 e4 bd
       -0.09053523 0.10490926 -0.1358636 -0.11140379
000170 e0 b5 29 be 4e 53 e1 bd 57 83 a2 3e 27 37 35 bd
       -0.16573286 -0.11002217 0.3174083 -0.04424205
000180 e7 be 0e be 77 0b 87 be a4 52 7b be 11 81 95 3e
       -0.13940011 -0.26375934 -0.24543244 0.29200032
000190 dd b8 c8 3a 6a 7e 6e be ca ce 0e be 83 7e 8d be
       0.0015313883 -0.2329041 -0.13946071 -0.27635583
0001a0 11 f3 90 3e ce 3f a1 3d 2e 49 87 be 87 95 9c bd
       0.28310445 0.07873498 -0.2642302 -0.076457076
0001b0 21 0c 38 3d 12 c2 5d 3e 13 7a de bc b8 27 d6 3d
       0.044933442 0.21656063 -0.027157819 0.104567945
0001c0 80 2b 1d 3e 48 e0 05 3e 6b 3b 17 3e 5b 4f cc bd
       0.15348625 0.13073838 0.1476876 -0.09976073
0001d0 b2 88 3e be 7a 77 97 3d a8 8b 59 bd e7 c3 15 be
       -0.18606833 0.07395835 -0.053111702 -0.14625512
0001e0 56 c9 a3 bd dc cb 61 3e e7 35 a9 3e 8c 13 37 3e
       -0.07997386 0.22050422 0.33048937 0.1787855
0001f0 3a 7f 1b 3e e0 fa 8f be 9f df 3e 3e 14 60 e1 bd
       0.15185252 -0.2812109 0.18639992 -0.110046536
000200 a0 b4 2e be b7 4d 21 3b d8 c3 45 be cd 10 00 3e
       -0.1706109 0.0024612972 -0.1931299 0.12506409
000210 e1 04 87 3e 6b 76 3d 3c 27 6a 41 be 3d 6f fc bd
       0.2637091 0.011563878 -0.1888815 -0.123259045
000220 cf 8f 21 be a9 66 1f 3d 52 2c a9 be fb 1d 0f be
       -0.15777515 0.038916264 -0.33041626 -0.1397628
000230 19 2c 5e bd 97 00 2c 3e 20 61 e0 bc 27 82 63 be
       -0.054241274 0.167971 -0.027390063 -0.22217618
000240 40 8d 19 be eb f8 b7 bd 76 df 97 3d cf 9c 92 bc
       -0.14995289 -0.08983024 0.07415669 -0.017897038
000250 19 1c 6b be d3 39 3f bd 8b 58 a0 be 4c 6e b7 3d
       -0.22959937 -0.046686005 -0.31317553 0.08956584
000260 7a 21 15 3d 95 07 81 be 64 ea 0c be ef f7 9f 3d
       0.03640888 -0.25201097 -0.13761288 0.078109615
000270 fd 61 57 be fa 56 0b 3e fb 7c a1 3d 94 34 eb 3d
       -0.21033473 0.13607398 0.07885166 0.11484638
000280 95 58 88 3e c7 1f 72 3e ec 13 8f 3e 20 41 90 be
       0.26630083 0.23644935 0.27944887 -0.28174686
000290 23 b2 83 3d 7b cc 1e 3c 2f 36 64 be 73 40 3b be
       0.06430461 0.009692307 -0.22286294 -0.18286304
0002a0 03 4b 4d bd 7c 22 a1 be 97 62 94 3d ab 41 48 3e
       -0.050120365 -0.31471622 0.07245367 0.195563
0002b0 39 41 a2 3e 88 65 68 be fb 39 5e 3e 05 b3 5a 3e
       0.31690386 -0.22694981 0.21701805 0.21357353
0002c0 48 23 8c 3e b5 d3 27 bd e3 5f 8f be be da ab 3d
       0.27370667 -0.040973384 -0.28002843 0.08391331
0002d0 b3 b3 12 be 13 67 22 3e 2a 2e 47 3c b7 e0 50 3c
       -0.14326362 0.15859632 0.012157002 0.012748889
0002e0 71 1f 97 3e 8b f2 03 3e 8e b6 8e be 02 47 93 bd
       0.29516175 0.12885492 -0.27873653 -0.07191278
0002f0 43 32 3b 3e 56 2d 06 3e fc 41 0d 3e d1 f8 e8 3b
       0.18280892 0.13103232 0.13794702 0.0071097394
000300 0d 65 05 be 6c d3 65 3e 0c f9 2d 3e e2 9a a7 3e
       -0.13026829 0.22443932 0.16989535 0.32735354
000310 e7 cd 9f be f6 e6 97 3e 58 09 18 be ec 3e 39 3e
       -0.3121178 0.29668397 -0.14847314 0.18090409
000320 7a 31 2b be 07 94 98 3c 45 5f 73 3d ab 39 a3 be
       -0.16718093 0.018625272 0.059417028 -0.31879935
000330 21 76 8f be 49 54 6a be d1 eb 3c be 70 ee 2f 3e
       -0.28019813 -0.22883715 -0.18449332 0.171808
000340 85 0b 5b bd 57 fe 4d bd 8f bf c2 bd 00 49 3a bd
       -0.053477783 -0.050291386 -0.09509193 -0.045479774
000350 7f 21 1d be c4 09 89 be 67 ce 0c be 4d 99 84 be
       -0.15344809 -0.26765263 -0.13750611 -0.2589821
000360 46 bb 9e 3e a4 33 39 bc be 54 53 bd a1 2b 31 3e
       0.31002253 -0.011303816 -0.05159449 0.173018
000370 d1 18 5b 3d a0 9d 36 3e 64 d8 58 3e f3 c9 69 be
       0.053490464 0.17833567 0.21176296 -0.22830944
000380 b2 62 39 be 1d aa 1f be 93 a3 3c 3e 2a 1a 71 3e
       -0.18104056 -0.15592237 0.18421774 0.23545137
000390 61 cb 17 3e dc 7f ac 3e 4f 0c 93 be 15 e3 0e 3d
       0.14823677 0.336913 -0.28720328 0.03488453
0003a0 3d 36 9f 3e 8c 3b c6 3c 94 48 1f 3e d9 ac 9b bd
       0.31096068 0.024198316 0.1555503 -0.076013274
0003b0 bd eb 7a bd 2c f0 35 3d 67 5d 07 be 71 74 a9 3e
       -0.061259974 0.0444185 -0.13219224 0.3309665
0003c0 c2 ed e4 bd 4d 3f 58 3e bc 3f 84 3e c1 88 92 3d
       -0.11178161 0.21117897 0.25829875 0.0715499
0003d0 f3 d2 87 3e 05 b4 a5 be e4 e8 ec bd ae 7e cd bd
       0.2652813 -0.32363907 -0.11567858 -0.10033928
0003e0 c9 93 60 3e 40 93 de 3c 66 ce be bc 92 b0 f6 bd
       0.21931376 0.027169824 -0.023291778 -0.12045397
0003f0 44 d2 28 3d 28 bb 40 be e1 71 63 be ef b0 f7 3d
       0.04121615 -0.18821394 -0.2221141 0.12094294

weight_hh_l0 f4 [27, 9]
000000 62 5e bc 3d 14 ee 58 3e 6f cb 67 3e 1b f8 8f 3e
       0.091976896 0.2118457 0.22636198 0.28118977
000010 c0 d6 91 3d d0 26 81 be ae 62 f9 3d 50 fe d5 3d
       0.071210384 -0.25224924 0.12177025 0.10448897
000020 6c 64 83 be 94 f4 31 be e5 18 a9 3e 26 76 c9 ba
       -0.25662553 -0.17378455 0.33026806 -0.0015370294
000030 ed 5c 9a be 81 79 0b be 0c 25 ca 3d c6 2c 7f be
       -0.30149022 -0.13620569 0.098703474 -0.24919423
000040 3f 85 05 3e 18 ac 64 3e 0f 7d 18 be 91 55 0f be
       0.1303911 0.22331274 -0.14891456 -0.13997485
000050 da 00 dc bb d3 a6 5c be 9b ae 45 3e 46 4e 98 3e
       -0.0067139687 -0.21548013 0.19304888 0.29747218
000060 ec e4 7e 3e 3c 03 02 3e c6 c2 0c 3d be 9f a0 be
       0.24892014 0.12696546 0.034365438 -0.31371874
000070 11 06 1e be d5 9f 3b be 88 8e 9c be d5 ce 0a 3e
       -0.15432002 -0.1832269 -0.30577493 0.13555463
000080 94 cc 06 bc ad 85 57 3e 58 59 37 be 80 cd 8e be
       -0.008227486 0.21047087 -0.17905176 -0.2789116
000090 a6 67 9f be 9e b3 6a be b5 77 dd 3d f3 e4 64 bd
       -0.31133765 -0.22920081 0.10813848 -0.055882405
0000a0 26 f0 ba 3d f9 a3 80 3e 00 c9 24 3e da 01 87 bd
       0.09127836 0.251251 0.160923 -0.0659215
0000b0 49 36 8b be c0 c6 36 3e bc 13 cc bc 13 8b ca bc
       -0.27189854 0.17849255 -0.024911754 -0.024724519
0000c0 d9 9d ca bc f9 e7 70 3e 92 58 95 be 24 e1 e1 3d
       -0.02473347 0.2352599 -0.29169136 0.1102927
0000d0 d3 17 f8 bd cb 23 6f be 16 3c 8c be bf e0 2c be
       -0.12113919 -0.23353498 -0.27389592 -0.16882609
0000e0 86 9e 96 3e 60 7c 0f be 7e 99 40 3d ce 82 ac 3b
       0.2941782 -0.14012289 0.04702138 0.0052646166
0000f0 69 27 20 3e 56 db 66 3e 17 4c 4d be 92 fc a3 bd
       0.15640034 0.22544608 -0.20048557 -0.08007158
000100 c1 68 9f 3b 6c 09 a3 3e 21 39 a1 be 57 82 13 3e
       0.0048647826 0.31843126 -0.31488898 0.1440519
000110 eb 19 5b 3e 35 af 27 be d0 bf 51 be d9 14 f4 3c
       0.21396606 -0.1637543 -0.20483327 0.029795097
000120 92 5e 24 3e 65 1e c3 3c 76 0d e3 bd 7c bf 70 be
       0.160517 0.023818204 -0.11086552 -0.23510545
000130 3a 82 e7 3c 06 d2 9d 3a 3c 96 dd bd 78 47 24 bb
       0.028260339 0.0012040741 -0.108196706 -0.0025067013
000140 97 98 74 3d 78 42 15 3e 04 8c 80 bd 01 69 0e 3e
       0.059715834 0.14576137 -0.06276706 0.13907243
000150 82 19 8b 3e 05 33 84 3e e7 e3 a6 3c 37 bf fa bd
       0.27167898 0.25820175 0.020372344 -0.122435026
000160 ab e9 f9 bd 62 6f 81 3e a4 9f 66 3e 6a 3b 27 3e
       -0.12202772 0.2528029 0.22521836 0.16331258
000170 8a c6 55 3c 46 11 6d be f4 cb 3e be 23 ac 2f 3e
       0.013047824 -0.2315112 -0.1863249 0.17155509
000180 80 bd 20 3d c0 ef e5 3c e0 44 3c 3e 3e 45 21 3e
       0.03924322 0.028068423 0.18385649 0.1574907
000190 d3 5f 5b 3e e6 cd 7c be d0 9f 0e be 0d df 5e 3d
       0.21423273 -0.24687919 -0.13928151 0.054411937
0001a0 a3 c9 88 be 58 ac 9c be 93 04 97 bc fa d5 68 3e
       -0.26716337 -0.30600238 -0.018434798 0.22737876
0001b0 53 e4 a4 bd ec 41 9f 3e e3 67 91 3d 94 e6 80 be
       -0.08051362 0.31104982 0.07099893 -0.25175917
0001c0 8e 7f d4 3b e1 16 bc 3c 9f 03 7e 3e a1 cb 2b be
       0.0064849323 0.022960128 0.24806069 -0.16776897
0001d0 ec ef dc 3c f1 7d c6 bd ed 0d 91 3e ea f4 85 3e
       0.026969872 -0.0969199 0.28330937 0.26163417
0001e0 e0 cc 5b be c1 d4 76 be f6 8b bc 3d a6 31 56 3e
       -0.21464872 -0.24104597 0.09206383 0.20917377
0001f0 6c 11 87 be af c3 00 3e d5 3c eb bd 7a 74 55 be
       -0.2638048 0.12574647 -0.11486212 -0.20845214
000200 a9 2d 71 3e 18 59 04 be 44 51 3f be 51 ad a9 3e
       0.23552574 -0.12924612 -0.18683344 0.33140042
000210 6a 8a 65 3e b9 8e 7d be 44 58 33 be 43 94 ab be
       0.22416082 -0.24761476 -0.1751414 -0.33511552
000220 f6 f5 ee bd 0f d4 92 bd 07 95 13 3e 4e 9d 51 be
       -0.11668007 -0.07169353 0.14412318 -0.20470163
000230 ee 83 d5 3d 86 11 83 be 7b 6c 22 be dd ae c8 bd
       0.10425554 -0.25599307 -0.15861695 -0.097989775
000240 19 63 8e bd cc c0 3c be 69 ee 69 be 5d ce 9f bd
       -0.06952495 -0.18432921 -0.22844853 -0.078030325
000250 8e 9c 2f be 93 d5 25 bd 2e d0 16 be f0 12 fb 3d
       -0.17149565 -0.040486883 -0.14727852 0.122594714
000260 1b a4 87 3e b2 b4 0a 3c a8 fe 40 be 4e 88 6b be
       0.2649239 0.008465933 -0.18847144 -0.23001215
000270 15 d1 7b 3e 5a ee 26 bd 88 b8 44 3e ec 92 e6 bb
       0.24591477 -0.040754654 0.19211018 -0.0070365574
000280 61 1b 62 bd 26 c3 ff 3c 6e 01 43 3e 4f 2d 8a 3d
       -0.05520189 0.031220984 0.19043514 0.06746923
000290 b5 cb 06 3d 40 a6 a8 bd 4d 13 2c be cf 87 3a bd
       0.032909114 -0.08234835 -0.16804238 -0.045539673
0002a0 88 c2 8a 3e ab a9 04 3d 66 4a 26 3e 6c 24 83 bd
       0.2710154 0.03238837 0.16239318 -0.06403431
0002b0 4e 91 0b 3e c1 f8 17 3e ec 3f 1b 3e f0 45 88 3e
       0.13629648 0.14840986 0.15161103 0.26615858
0002c0 2f 57 28 be 6b 0e 41 3d ac f4 2c bd 02 75 82 3e
       -0.16439508 0.04713289 -0.042225525 0.25479895
0002d0 c4 77 c2 bd 81 ef 85 3d 08 cc 7c 3e c3 83 11 be
       -0.094955 0.06539822 0.24687207 -0.1421042
0002e0 c8 d4 ab 3d c8 b8 87 be 24 cc 49 3d a1 76 fe 3d
       0.08390194 -0.26508164 0.04926695 0.124249704
0002f0 9b ec d4 3d b4 96 13 be f3 18 9a be e0 8c 95 be
       0.103966914 -0.14412957 -0.3009716 -0.29209042
000300 e4 19 cd bd 40 87 b5 bc 69 86 8a 3e 06 58 49 3e
       -0.10014704 -0.022159219 0.27055672 0.19662485
000310 b1 ee 71 be 8b 0c 07 3e 75 85 3c 3e 8e c3 a3 be
       -0.2362621 0.13188379 0.18410285 -0.31985134
000320 fb 9e 9d be 73 64 ad 3e 6a 31 8a 3e d5 85 b5 3d
       -0.30785355 0.338657 0.26990825 0.08863417
000330 a7 af 4f 3e a2 0a 66 be 3d 87 58 3d 03 43 6b bd
       0.2028185 -0.22464994 0.05286335 -0.057436954
000340 ef 8f 9c bd 46 e8 2b be a4 fc 60 3e 87 ce 17 3e
       -0.07644641 -0.16787824 0.21971375 0.14824878
000350 17 d3 83 3d 34 7b bb 3c 0d b1 86 3e 79 55 0b be
       0.064367466 0.022885896 0.26306954 -0.13606824
000360 f1 fc 66 3e f2 33 91 3e 9d e0 2b 3e f0 45 8f 3e
       0.22557427 0.28359944 0.16784902 0.27983046
000370 35 7b 38 3c 89 c0 9c be 1c cf f9 3d 61 89 d5 3d
       0.011259844 -0.30615643 0.12197706 0.104265936
000380 ae 31 6a be 04 3c 5e 3c 2f 04 25 be 3e 9a a3 3e
       -0.22870514 0.0135641135 -0.16114877 0.31953615
000390 88 4c 96 bd 6d 3c 34 3d d9 a8 8f be 71 6a 9f 3e
       -0.07338816 0.04400294 -0.28058508 0.31135896
0003a0 48 cc 2e be 25 38 61 be 43 61 41 bd 2e 45 af bc
       -0.17070115 -0.21994074 -0.047211897 -0.021395292
0003b0 b1 21 a0 bc 4a 88 56 3e 52 50 4a be 2d b5 5c 3e
       -0.019547315 0.20950428 -0.19757202 0.21553488
0003c0 7b b9 ed bd 89 0a 2a 3e f6 08 c5 bd
       -0.11607643 0.16605581 -0.0962085

bias_ih_l0 f4 [27]
000000 f1 23 13 3e 0b 1d ca 3c af 22 ac 3d e8 37 07 3e
       0.1436918 0.024672052 0.08405053 0.1320492
000010 63 92 7a 3e 67 b2 11 3e ba 4d 8d be 14 ec 44 bc
       0.24469905 0.14228211 -0.27598363 -0.012019176
000020 b6 3f 96 3e 71 de 8b 3e b2 57 82 be 2a f2 80 be
       0.29345483 0.27318147 -0.2545753 -0.25184757
000030 e3 27 aa 3d 3e 54 a5 3e 67 fe 68 be ba dc 25 be
       0.08308389 0.32290834 -0.22753297 -0.16197482
000040 45 06 3d be 59 b5 a9 3e 7e e5 9a 3e 9d bb 86 bb
       -0.18459423 0.3314617 0.30253214 -0.0041117207
000050 3d 74 3e 3e ab 79 39 bd 27 be 61 3e e7 2b b0 3d
       0.18599029 -0.045282047 0.22045194 0.08602124
000060 56 28 61 3e 2e f0 67 be 27 04 bc 3d
       0.21988043 -0.22650215 0.091804795

bias_hh_l0 f4 [27]
000000 2a bb 9c 3e 1a 8f 2f be b7 ad 9c be 32 4f 02 3d
       0.30611545 -0.17144433 -0.30601284 0.031813808
000010 3d e4 5c be 4e 99 af 3d 92 e7 a1 be 78 93 3d be
       -0.21571441 0.085741624 -0.31621987 -0.18513286
000020 74 fb 48 bd 46 10 a4 be a3 6e 35 3e 54 9d 81 be
       -0.04906793 -0.32043666 0.17717986 -0.25315344
000030 af c3 26 be 47 8e 0c 3e 32 d8 a2 3e b4 1c a6 3e
       -0.16285585 0.1372615 0.3180557 0.32443774
000040 f7 67 6a be 73 a7 24 be 53 d3 13 bd 60 35 cf 3d
       -0.22891222 -0.16079502 -0.036090206 0.10117602
000050 10 71 94 3e 64 82 af 3d 1d 23 79 3d 1e 68 ca 3d
       0.2899251 0.08569792 0.060824502 0.0988314
000060 2d d8 a0 3e 24 f8 ee 3d 61 12 c9 bb
       0.3141493 0.11668423 -0.006136224

weight_ih_l0 f4 [27, 39]
000000 e0 ed 8e bc 16 39 18 3e 65 d2 1e 3e 2a 57 40 be
       -0.017447412 0.14865527 0.15509947 -0.1878325
000010 34 96 bd bb 24 9d d3 3d 7a aa 07 bd 77 1f 12 bc
       -0.005785728 0.103327066 -0.033121563 -0.008918635
000020 8b 35 8a be 62 5f 0f 3e b9 32 65 be 1e a7 b2 3d
       -0.26993975 0.1400123 -0.2238263 0.08723281
000030 3d b9 aa bd 42 88 c8 3d 60 8e 47 3e 6d cb 10 bd
       -0.08336113 0.09791614 0.19487906 -0.035350252
000040 9a c1 5a 3e 8b 30 04 3e 57 74 8c be 91 4a 32 3e
       0.21362916 0.12909143 -0.2743251 0.17411257
000050 b5 92 94 bd b7 36 81 3e 55 9b 86 3e 59 7c 8f 3d
       -0.07254545 0.25237057 0.26290384 0.07006139
000060 fa 8d a3 be 1e d6 db 3d 49 1b 6e be 19 91 fd 3c
       -0.31944257 0.10734199 -0.23252596 0.030952977
000070 ce aa 7e bd a7 c2 51 3e 31 d9 d9 bd 37 d9 a7 be
       -0.06217461 0.2048441 -0.10637129 -0.3278291
000080 0a d0 55 be 28 9a 52 be d4 45 83 be 4a da a2 be
       -0.20880142 -0.20566618 -0.25639212 -0.31807166
000090 30 e2 03 be d9 3a 2c 3e de cc d1 3d 2d ac ea 3d
       -0.12879252 0.16819324 0.102441534 0.11458621
0000a0 3e 1f 8f 3e ca 20 36 be e2 43 5c bc d8 a6 84 be
       0.27953523 -0.17785946 -0.013443919 -0.25908542
0000b0 b3 4b 3a be 1e ce 40 3e f3 bd 8c 3e b7 02 a6 3d
       -0.1819294 0.18828627 0.2748867 0.081059866
0000c0 72 90 a3 bc 24 39 22 be ef e9 ec 3d 85 03 95 be
       -0.019966338 -0.1584211 0.11568057 -0.29104248
0000d0 92 01 94 3e b5 9f ee 3b e3 14 8a bd 45 49 e9 3d
       0.28907448 0.007282222 -0.06742265 0.11390928
0000e0 db 5f a3 3d 89 51 d3 bd 4d f7 48 be 72 49 2b 3c
       0.07977267 -0.10318286 -0.19625588 0.010454522
0000f0 26 d9 7a be 86 b3 5d be 2f 19 ff 3d 91 68 f9 3d
       -0.24496898 -0.21650514 0.12455975 0.121781476
000100 e9 a4 91 3d 30 36 95 be 22 6a 21 3e ba 5e 02 3d
       0.07111532 -0.29142904 0.15763143 0.03182862
000110 13 01 80 3c 16 7a 81 3e c1 02 f7 3d 77 db 8b 3d
       0.015625512 0.25288457 0.12061072 0.06828969
000120 07 41 d6 3d 01 db 88 3e 9a d2 f1 3d b0 15 a3 3e
       0.10461622 0.26729587 0.11807747 0.31852484
000130 07 88 4d be 35 6f c3 3e 77 72 36 3e 22 7c 4e 3e
       -0.20071422 0.38170782 0.17817102 0.2016454
000140 1a cb 97 3e de 36 82 be 53 1f 7e 3e f3 e7 1f be
       0.29647142 -0.25432485 0.24816637 -0.15615825
000150 ee cf 54 3e b7 32 a2 3d 1d 82 84 be 57 92 5c bd
       0.20782444 0.07919829 -0.2588052 -0.053850498
000160 f4 9e 94 bd e9 33 3c bd e9 c7 8b 3c 67 ec 18 3e
       -0.072568804 -0.045947943 0.017063098 0.1493393
000170 e3 90 c8 bc 34 e9 9c be 4f a8 98 3e 0f 71 98 3e
       -0.02448315 -0.3064667 0.2981591 0.29773757
000180 fc bc 29 be 02 9d a8 bd b1 96 7d 3e 94 0d b4 bd
       -0.16575998 -0.08233072 0.24764515 -0.08791652
000190 07 64 29 3e 72 43 93 be 00 cb 3f be 1f fb 8c be
       0.16542064 -0.28762394 -0.18729782 -0.2753534
0001a0 ef 13 53 3e 1c 8c 55 3e 59 fe cb 3d 47 55 a3 be
       0.20613073 0.20854229 0.09960622 -0.31901
0001b0 ff 57 9c 3c 45 d9 25 be 05 de 5f be 29 41 82 3e
       0.019084929 -0.16196163 -0.21862037 0.25440338
0001c0 e9 66 2f be 6a a5 80 3e 41 9e 95 bd 19 59 9b be
       -0.17129101 0.251262 -0.07305575 -0.30341414
0001d0 ec 18 26 be 61 d4 3c bd a8 d2 8e be 4c a0 55 3e
       -0.16220444 -0.046100978 -0.27895093 0.2086193
0001e0 78 e7 80 3d 01 27 80 3e f8 0a 0b be 9d 2c 8e 3e
       0.06294149 0.25029758 -0.13578403 0.27768412
0001f0 75 88 5f bd ef 0c 33 3e 1c b6 1a 3e 9c 0f 9f 3e
       -0.054573495 0.17485403 0.15108532 0.31066597
000200 c1 d5 4e 3d b5 ae 70 3e e3 61 42 3d ec e2 9b 3e
       0.05049682 0.23504145 0.047456633 0.30446565
000210 af 20 8e be e3 78 5e bd 1d 24 53 3e 4e a0 4a be
       -0.2775931 -0.054314505 0.20619245 -0.19787714
000220 92 4e bb bd d7 24 41 be 55 f0 f3 bd 02 7c 76 be
       -0.091458455 -0.1886171 -0.11911074 -0.24070743
000230 39 27 cd 3d 58 89 f8 bd bf e5 44 3e 88 12 b5 bc
       0.10017247 -0.12135571 0.19228266 -0.022103563
000240 0e bc 51 3e 71 c7 11 bc 0a 35 32 be c4 9e e4 3d
       0.20481893 -0.008897648 -0.17403045 0.11163095
000250 1e 82 25 3e a2 9b be 3d 17 eb f6 3d 37 36 9d be
       0.16162917 0.09307028 0.120565586 -0.30705425
000260 15 3d 65 be 1e a4 62 3e f7 7d a6 be 55 60 bb be
       -0.22386582 0.22132918 -0.3251798 -0.36596933
000270 f4 6c 4b 3e 06 47 bd 3e 4f 12 46 3d ca 1d 1b 3d
       0.19865781 0.3696825 0.048357304 0.037870206
000280 10 1d 60 be d9 55 40 be 26 46 e9 3d 4c 18 89 be
       -0.21886086 -0.18782748 0.11390333 -0.2677635
000290 d9 5d 68 be fb 33 40 3c 23 48 a1 3e a2 32 e6 3d
       -0.2269205 0.011731143 0.31500348 0.11240126
0002a0 6a 1f 18 3c 56 d5 1c be bd 50 c9 3d 31 19 88 be
       0.009284833 -0.15315756 0.09829853 -0.2658172
0002b0 f6 2d 9e 3e 60 6a 1e 3d 79 2f f6 bd 52 01 42 be
       0.3089444 0.038675666 -0.120207734 -0.18945816
0002c0 af f7 ee bd 8e a3 86 bc 08 44 16 be 6c 84 4c 3e
       -0.11668336 -0.01643541 -0.1467439 0.1997239
0002d0 2a 44 0c 3e de b1 18 bb fe 0b 4b 3e ad 8a 38 be
       0.13697878 -0.0023299376 0.19828793 -0.1802165
0002e0 4f 4e cd bb 05 bb 5f bd 30 9d 92 be 3e 8e 87 bd
       -0.0062654386 -0.054621715 -0.2863555 -0.066189274
0002f0 ea 8d ed bd 3e 19 7f 3e 91 59 a7 3e 62 70 8d be
       -0.115993336 0.24911973 0.3268552 -0.27624804
000300 75 e7 92 be 87 c3 42 be 19 db a4 3d 67 5c fb 3d
       -0.28692213 -0.190199 0.08049602 0.12273484
000310 39 96 1d 3e 3d 6a cf bd de a3 60 3e 8a fa 38 be
       0.15389337 -0.10127685 0.2193751 -0.18064323
000320 3b 8c 8a be f5 38 83 be dc 36 ee bc 31 08 67 bb
       -0.27060112 -0.25629392 -0.029078893 -0.0035252685
000330 7a 7c d7 bd 49 89 80 be 38 31 1c be d3 6f 50 3e
       -0.10521789 -0.2510474 -0.1525315 0.20355158
000340 ab c7 8e bd c4 23 81 3e c1 98 52 3e 10 9b 3d be
       -0.069716774 0.252226 0.20566083 -0.18516183
000350 2c 59 90 3e f4 4b 96 be af a9 91 be 9c 1a 1d bc
       0.28193033 -0.29354823 -0.2844977 -0.009588864
000360 e3 a1 48 be b1 0a a7 be 71 5a 55 3e a4 27 f2 3d
       -0.19593005 -0.32625344 0.20835282 0.11823967
000370 2b fa 9f be 74 58 d4 3d a3 b6 51 be ba 35 e9 3c
       -0.3124555 0.103684336 -0.20479827 0.028468002
000380 c1 24 e9 3d 39 b6 df bc a0 9a bf bd 45 47 18 be
       0.113839634 -0.02730857 -0.09355664 -0.14870937
000390 79 74 9a 3c 3a c8 88 be 72 de e5 bd 8f c7 f4 3c
       0.018854367 -0.2671526 -0.11224069 0.029880313
0003a0 56 1d 51 be 6b 40 40 bf c9 78 d6 3d 30 37 86 be
       -0.20421347 -0.75098294 0.10472257 -0.2621398
0003b0 41 67 82 be 14 35 98 be 81 1d 74 3d 5d 9a cb 3d
       -0.254694 -0.29727995 0.05959845 0.09941552
0003c0 87 45 85 3c bc b6 86 be e3 84 d2 bd 1e 55 8f 3e
       0.016268505 -0.2631129 -0.102792524 0.27994627
0003d0 0a 53 44 3e 8e 29 9d 3d f3 9f 49 be 8d 72 71 be
       0.19172302 0.076739416 -0.19689922 -0.23578854
0003e0 9c c3 58 be bb 1b 76 3e f9 56 15 be d8 a2 a2 bd
       -0.21168369 0.24034016 -0.14583959 -0.07941216
0003f0 43 5c 0d be 18 5a 98 3e 7c 7a 94 3e 49 a4 72 be
       -0.13804726 0.29756236 0.28999698 -0.23695482

weight_hh_l0 f4 [27, 9]
000000 50 14 18 be a5 e7 55 3e ea bd 0e 3e 58 7a 65 3e
       -0.14851499 0.20889147 0.13939634 0.22409952
000010 63 dd a1 bc 83 68 52 3e 58 7f 2a 3e a9 1d 7c 3e
       -0.019758886 0.2054768 0.1665014 0.2462069
000020 ab 2d 12 3e 60 e1 3d be 82 9b 84 be 81 b5 94 bd
       0.14275233 -0.18543005 -0.25899893 -0.072611816
000030 4d 6f a5 bd e0 53 81 3d 08 7e 64 ba ce 0b 48 be
       -0.080778696 0.06314826 -0.000871629 -0.19535753
000040 03 fc 27 bc 1d 2a 27 bd 9b 2d 95 be 8f 84 15 be
       -0.010252955 -0.040811647 -0.29136357 -0.14601348
000050 f9 e4 38 be 1a 94 cf 3d 3a c0 83 be ef 70 2c 3c
       -0.18056096 0.1013567 -0.25732595 0.010524972
000060 9b db 80 be 9f 54 85 3d 9b 8c 23 be b5 a2 74 bc
       -0.25167546 0.06510281 -0.15971605 -0.0149313705
000070 c9 bd 72 be 2b 15 7a 3d a0 23 74 bc de 26 8b be
       -0.2370521 0.061055344 -0.014901072 -0.2717809
000080 6b 66 ab 3d 5a e0 0c be 79 3d 99 3e f0 58 94 be
       0.08369144 -0.13757458 0.29929712 -0.28974104
000090 87 08 66 3e 92 9f 98 be 8a 4f 95 3e 4c 0a 8f 3e
       0.2246419 -0.29809242 0.29162246 0.27937543
0000a0 a2 3a c5 3d 29 41 a3 be 83 0c 85 3e cd 59 aa be
       0.09630324 -0.3188565 0.25986108 -0.33271638
0000b0 fc b8 39 be 26 81 2f be b1 a7 2d be 38 83 29 3e
       -0.18136972 -0.1713911 -0.169585 0.16553962
0000c0 54 1e 78 3e 89 9d 84 3d 88 21 7a be 41 61 46 be
       0.2423032 0.0647536 -0.24426854 -0.19373037
0000d0 fc 66 61 3e 93 e6 cc bd a6 82 8b 3e 0a d5 0a bd
       0.22011942 -0.10004916 0.27248114 -0.033894576
0000e0 c5 02 26 bd 99 c6 75 3d eb 8c b7 3d 41 49 6b 3e
       -0.040529985 0.06000385 0.08962425 0.22977163
0000f0 d1 73 50 3e 0a 09 df 3d c9 93 70 be ac 18 a3 be
       0.2035668 0.10890396 -0.23493876 -0.3185476
000100 4e 17 9b 3e e4 7c c0 bd b3 bb 0b be 65 6b 36 3e
       0.30291218 -0.09398821 -0.1364582 0.17814405
000110 70 a8 fd 3c 28 17 57 3d 19 39 0d be 4c db ac bd
       0.030964106 0.052512318 -0.13791312 -0.08440265
000120 79 4e 9d be 3c 36 f4 bc 70 c0 0e 3c 4a 30 62 3e
       -0.30723932 -0.029811017 0.008712873 0.22088733
000130 16 74 81 be 5a 95 1c be 29 20 93 bd ef c7 7e be
       -0.2528388 -0.15291348 -0.071838684 -0.24880956
000140 10 6f 81 3e f0 27 1d 3d 69 75 9e be 3d f2 a8 3d
       0.25280046 0.038368165 -0.30948952 0.08249328
000150 31 04 a1 3e 17 1a 28 be 90 44 a2 be 17 b6 29 3e
       0.3144851 -0.16416202 -0.31692934 0.16573368
000160 35 15 30 3e aa 74 8d be 13 58 ac bd 3b 0d a1 3e
       0.1719559 -0.2762807 -0.08415236 0.31455407
000170 db 97 38 3e 8d 7e 0b be 68 3a f2 3d f3 83 04 be
       0.18026678 -0.13622494 0.11827546 -0.1294096
000180 f3 5e 4d be f1 d5 57 bd 19 3f a8 be 1d 9a 5d 3e
       -0.20055752 -0.052694265 -0.3286064 0.21640821
000190 9b dc b5 bb a0 7c a8 bd 7f aa a6 be 34 e1 80 bd
       -0.00554998 -0.08226895 -0.32551953 -0.06292954
0001a0 c9 e3 8e be f9 42 61 be 6e 6b 33 be 63 2e c6 3d
       -0.2790816 -0.21998204 -0.1752145 0.09676816
0001b0 2f 52 34 3d 80 12 59 3e b5 4e a3 3e f3 dc 8d 3d
       0.04402369 0.21198463 0.31895986 0.06926908
0001c0 5c 34 51 bd 85 21 24 3e 81 40 50 3e 56 ba a5 3d
       -0.051075324 0.16028412 0.20337106 0.080921814
0001d0 98 73 81 3c 38 c9 48 be ba ac 7e be 64 4c 28 3e
       0.01580219 -0.19608009 -0.24870577 0.1643539
0001e0 e1 f1 30 3e cd 50 8a be ce 63 1e 3e b4 ef b7 3c
       0.1727977 -0.2701477 0.1546776 0.022453167
0001f0 e0 00 12 be fd c9 d3 3c 51 9a 75 be 72 36 61 3e
       -0.14258146 0.025853151 -0.23984648 0.21993425
000200 ea 84 d3 3d 18 f0 44 3c 67 10 93 be 3a f2 a1 bc
       0.10328086 0.012020133 -0.28723451 -0.019768823
000210 d1 f4 ac be 4e 70 a4 3e 26 ea c0 3c b6 d7 72 be
       -0.3378053 0.32116932 0.02354915 -0.237151
000220 57 72 f7 bd 20 9b 50 be c2 a9 1b be 14 ff 36 3e
       -0.120823555 -0.20371675 -0.15201476 0.17870742
000230 8e 2c 9b be 54 da 00 3e 1e bb 37 3e 3f 74 2a bd
       -0.3030743 0.12583286 0.17942473 -0.041614767
000240 aa 4e 45 3c c6 0d 57 3e 75 0c 10 be 8f 16 f9 3d
       0.012042681 0.21001348 -0.14067252 0.12162506
000250 70 83 58 3e 5b 42 4e be 6a 35 37 3c f5 81 02 be
       0.2114389 -0.201425 0.0111821685 -0.12744887
000260 eb 71 84 be 20 f2 c6 bd 93 9b 94 bb 0c 7b 99 be
       -0.25868163 -0.097141504 -0.0045351475 -0.2997669
000270 7f 59 c5 3d d6 99 45 3b 6a 2e 27 3d 54 18 e2 3c
       0.09636211 0.0030151508 0.04081575 0.027599491
000280 db d3 8e 3e 56 25 13 be 9f 1e fe bd 82 1e 39 3e
       0.27896008 -0.14369711 -0.12408184 0.18078044
000290 bc a9 1b 3d 92 c9 84 3e f7 29 a4 be ce b0 81 be
       0.03800367 0.25935036 -0.32063267 -0.25330204
0002a0 a8 c8 86 3e 89 2e 89 be 01 aa 6c 3e 7a 09 58 3d
       0.26324964 -0.26793316 0.23111726 0.052743413
0002b0 0b 05 8e 3e 0a 58 92 bd 76 0e 73 be 63 44 7c be
       0.27738222 -0.07145698 -0.23735985 -0.24635462
0002c0 1d da 2b 3c e1 3d 60 3e 84 c5 70 be c3 74 8d be
       0.010489014 0.21898605 -0.23512846 -0.27628145
0002d0 4f 07 2d be 2f 06 b3 bd c7 f5 d8 3d f9 10 96 3e
       -0.1689732 -0.08741414 0.10593753 0.29309824
0002e0 c6 40 54 be da 77 2c 3e 0e 77 01 3e f8 90 07 be
       -0.20727834 0.16842595 0.12643072 -0.13238895
0002f0 d7 40 93 bd 53 c0 c2 bd f7 4a 34 3e a9 00 67 3e
       -0.071901016 -0.09509339 0.17606722 0.22558846
000300 64 d5 43 3e c3 82 79 3e dd b0 8b be 57 bd 54 3d
       0.19124371 0.24366288 -0.27283373 0.05193838
000310 9d e0 06 3e 55 b2 34 3c 78 bd 0d 3d 25 da 7e bd
       0.1317162 0.011028846 0.03460452 -0.062219758
000320 40 3b 9a 3e ac eb 6b 3d 6b ba 9a be 84 68 01 be
       0.3012333 0.0575978 -0.3022035 -0.12637526
000330 cc 9c c4 bd d5 b6 56 be 66 e9 42 3c 63 85 92 be
       -0.09600219 -0.20968182 0.011896467 -0.2861739
000340 0e 8b 81 be 37 06 72 be 43 6c 75 be e5 42 79 bd
       -0.25301403 -0.23635183 -0.2396708 -0.06085481
000350 37 b2 e3 bd 9f c3 0a 3e 67 26 04 3e d3 74 4f be
       -0.11117976 0.13551186 0.12905274 -0.20259409
000360 35 d1 20 be 0b 8e 6c be 9b fc 57 3e ee 01 ac be
       -0.15704806 -0.2310106 0.21092455 -0.33595222
000370 af eb 61 3e 89 e1 d2 3d 18 15 15 3e e3 f7 6b 3e
       0.22062562 0.10296924 0.14558828 0.2304378
000380 99 cf 87 be bc 55 6f be 06 f8 8f bd da d8 58 3e
       -0.26525572 -0.23372549 -0.070297286 0.21176472
000390 28 76 68 be 5d 64 5c 3d 10 76 a9 bd fb ee 20 3e
       -0.22701323 0.05380665 -0.08274472 0.15716164
0003a0 f6 26 54 be 58 14 35 3e 69 39 34 be 05 b6 a0 be
       -0.20717987 0.17683542 -0.17600025 -0.3138887
0003b0 68 35 17 3e 53 0a c2 bd 12 21 52 be 0d a8 1e 3e
       0.14766467 -0.094746254 -0.20520428 0.15493794
0003c0 55 23 8a bc f9 e9 a0 3e 9e 30 4d 3e
       -0.01686255 0.31428507 0.20038077

bias_ih_l0 f4 [27]
000000 ec fa 4b 3e 55 2b 94 be 17 92 b3 3d 3d f2 e1 bd
       0.19919938 -0.2893931 0.08768099 -0.110325314
000010 7d 12 6b 3e 7f 8a 2d 3e f5 46 92 3e 9f 29 64 3e
       0.22956271 0.16947363 0.2856976 0.22281502
000020 7c ee 37 bd 24 9c 8e 3e cd 32 a3 3b 7c 9c 67 3e
       -0.04490517 0.278535 0.004980421 0.22618288
000030 f5 37 0d be 4c 41 2d 3e 62 0c 8b be 49 32 05 be
       -0.13790877 0.1691944 -0.27157885 -0.13007464
000040 03 59 e5 bd 2e 03 a1 be 85 d4 94 be 8d 7b 46 be
       -0.11198618 -0.31447738 -0.2906839 -0.19383068
000050 cb 2d ac be 82 d7 8c be 9b ea 38 bd 06 ff 81 3e
       -0.33628687 -0.2750817 -0.045145612 0.2538988
000060 57 44 82 be 70 9a 53 be d2 f4 a6 3e
       -0.25442764 -0.20664382 0.32608658

bias_hh_l0 f4 [27]
000000 2d 55 48 be 74 18 c8 bd cc dc f7 ba 41 1b 0c be
       -0.19563742 -0.09770289 -0.0018910407 -0.13682272
000010 1d 55 a4 3d 92 0b 85 be 74 f7 14 3e fc b8 92 be
       0.080240466 -0.2598539 0.14547521 -0.28656757
000020 7b 5e 0d 3c b5 3a cd 3b 47 1f 3b be c3 14 fe 3d
       0.008628483 0.006263102 -0.1827365 0.12406304
000030 02 57 72 3d e4 ac d7 3d 26 a2 c5 bd ae f1 71 be
       0.05916501 0.10531023 -0.09650068 -0.2362735
000040 03 6e 6d bd b4 b6 34 3e 46 91 93 3e d0 f5 9d 3e
       -0.057966243 0.1764782 0.28821772 0.30851603
000050 c5 4f 06 be c5 76 0b be b4 b7 51 be 40 2b fc 3d
       -0.13116367 -0.13619526 -0.20480233 0.12312937
000060 de cf d8 3d 04 03 90 3e b8 c5 f9 3d
       0.105865225 0.281273 0.12195915

weight f4 [9, 9]
000000 02 79 7c be 7d 5a 40 be a3 60 20 bd 8a 57 3e bd
       -0.24655536 -0.18784519 -0.03915466 -0.046470203
000010 d7 84 86 be f2 e6 77 bd 14 b4 2c 3e 04 e9 ae 3b
       -0.26273224 -0.06052298 0.1686557 0.005337836
000020 c5 bb 42 be d0 2e bf 3e 53 5c 84 be a7 15 ae 3e
       -0.19016941 0.37340403 -0.25851688 0.34000894
000030 27 e9 2d be c9 c6 13 3e 08 cb b1 3e 84 4b 7f 3e
       -0.16983472 0.144313 0.34725213 0.2493115
000040 04 18 03 be b0 38 24 be f6 c8 7d 3e e6 f9 a1 3e
       -0.1280213 -0.1603725 0.24783692 0.3163597
000050 d4 82 9f be e4 8d 8f 3d 29 71 07 be 1b 66 4d 3e
       -0.311545 0.07009485 -0.13226761 0.20058481
000060 d7 1a 4c 3d a3 1a 8b be 1c 98 9b be 10 e2 2a be
       0.049830284 -0.2716876 -0.30389488 -0.16687799
000070 ff bc 74 3e d7 62 a9 bd 68 50 cd 3d b4 be ab 3e
       0.23900221 -0.08270805 0.10025102 0.33543932
000080 92 c8 bc bd 0e 5c 01 be 50 6a 93 3e 54 7e 90 be
       -0.09217943 -0.12632772 0.28792048 -0.2822138
000090 df 76 fc 3c ff 77 24 be 74 bd 4c be 97 75 79 3e
       0.0308184 -0.160614 -0.19994146 0.24361263
0000a0 a5 05 f5 3c 47 87 8c be 74 d9 ae 3d b2 c2 de 3d
       0.029909918 -0.27446958 0.0853757 0.10876979
0000b0 0d 7d 55 be ec df d7 bc 54 96 9b 3e 8b 44 98 be
       -0.20848484 -0.026351891 0.3038813 -0.29739794
0000c0 a3 a4 74 3e 3c 12 0a be a0 f0 a2 be 79 a6 ae bd
       0.23890929 -0.13483518 -0.31824207 -0.08527846
0000d0 5c 29 3d 3d dd 15 6f bc e9 0d 36 bd bb d0 43 be
       0.04618202 -0.014592615 -0.04444686 -0.19122593
0000e0 fa 58 1f bd a0 56 f1 3d 12 20 a5 bd 8a a5 18 bc
       -0.038903214 0.117841005 -0.080627576 -0.009316811
0000f0 50 2c 25 3e 3c a3 6e 3e 21 b1 4c 3e c7 70 8f 3e
       0.16130185 0.23304456 0.19989444 0.2801573
000100 53 e0 84 be 46 60 9f 3d 2f 58 06 bd 7b 5e 03 be
       -0.25952396 0.077820346 -0.032798942 -0.1282901
000110 9d d6 12 bd 8f bb f9 3d a6 3a 38 be be 60 71 bd
       -0.035849202 0.12193977 -0.17991123 -0.05893015
000120 49 64 36 3d 6f dc 4f be fb a8 d8 3d 80 b8 c2 3d
       0.044529233 -0.20298932 0.105791055 0.09507847
000130 bd 5f 32 be 10 d1 09 3e 82 a2 df 3d c0 99 14 3e
       -0.17419334 0.13458657 0.10919668 0.14511776
000140 c1 e3 16 3d
       0.036838297

bias f4 [9]
000000 74 1c 31 be 4a 11 8e be e8 ee 95 3e 6b 6e 59 3e
       -0.1729601 -0.27747566 0.29283834 0.21233527
000010 42 30 7a 3e e1 d4 34 3d 25 7d a4 bd 32 63 66 be
       0.24432471 0.04414833 -0.08031682 -0.22498778
000020 4e 55 8a be
       -0.27018207
