RTSNet/checkpoints/LorenzAttracotor/DT/T100_Hrot1/2nd_pass/rq3050_full.pt (torch, 160357 bytes, 63 tensors)

weight_ih_l0 f4 [27, 15]
00000000: 250f 9e3e 301c 403e 9119 83be d30e fcbd
00000010: 4717 9abe 68d1 61be ed4c b2bd 8c48 843d
00000020: 6c9c de3d 44ff 9dbe 2d9b 2dbe be7f 31bc
00000030: f210 013e 6dd3 9b3e cd8f 8c3e edfe c33d
00000040: 5fcc 843e 895d e4bc c862 4abe 3a0a 49be
00000050: fb40 263a 53eb 0e3e 5b83 933e d2c5 37be
00000060: 1fb4 a13c c7e6 7c3e 189c dabd ec9f a0be
00000070: b417 793d 8d7d ac3d 679e 2dbe fe86 8c3b
00000080: cb82 323e 29c1 38bd 83a1 343e 5599 34be
00000090: 458b f13c 9893 ef3d ce81 4a3e 7031 353e
000000a0: daca 25bd f1af 86be b418 43be 74df 383e
000000b0: 822f 9b3d a391 8a3d 5bd1 69be 8d45 2abd
000000c0: 8341 1e3d 7a24 51be 437c c43d a7a8 db3d
000000d0: dfbd e33d a9b6 31bd 03ce 5d3e 2b4f 8c3e
000000e0: 366e 8f3d 5506 a8be 5e4f a3be 80f8 ddbd
000000f0: 188b 0ebe a087 2cbe 8fe7 3abe 3d1b 233e
00000100: 799f 463c 80a3 92be 846c 04bd bde0 3a3e
00000110: 2959 61bd 141f 623e 2f8c 78bd ce96 2c3e
00000120: 3887 913c da25 3e3e df86 373e 7744 a53e
00000130: bce5 55be 112e 92bd acef 723e ee9f a53e
00000140: f128 423d 3419 c13d abcb 7bbe 8366 5ebe
00000150: f136 45be 1707 62be 8b5b 9d3d f127 ea3d
00000160: a266 64be 1816 523e 562d c43d 2514 a33e
00000170: bc9f 73be 4101 853d 09aa 9d3d 9108 96be
00000180: 84dc 5bbd 1a12 cbbd fd88 efbd c36d 22bd
00000190: a7ff 863d 0327 dd3d 2ef6 98bc 949c 6dbd
000001a0: e099 603d 4240 70bd b217 39be 2c95 463e
000001b0: 1341 9bbe 6663 133d dfbc 86be 208e aabe
000001c0: 3dc5 0bbe 7229 70bc ff7e b9bd d4fb 96be
000001d0: 0ebc dbbd 70e7 933e 19ee 193e d67e 02be
000001e0: bbc3 243d 64fa b4bd 4eac f53c 23f8 28bd
000001f0: 4440 b03d 1022 c4bd 0c69 913d 86c5 153e
00000200: 9ac8 a9bd ae4e 0abe 44d8 31bd b0fe 25be
00000210: 1b5c 7d3d 5474 173e efd8 e93d e5e2 14ba
00000220: 35a5 473e 85dc 7a3e b9f4 aabc 89dd 94be
00000230: e30d a13e 9938 c1bd f85a 0abe e75e a2be
00000240: 6919 a23e 6919 06bb 9a86 4a3e f1d5 73be
00000250: 668c 353d b22e 8abe b0d0 99be 3b47 66be
00000260: c06d 8a3e 2bc7 2dbe 99a5 a13e e1f4 393e
00000270: 102c 883e 7097 663e 1c65 36be 990e 00be
00000280: 53ed a93e 9b66 4bbe ef7b 083c c1b3 11be
00000290: b14e 72be 7fdc e0bd c770 54bd 74d1 7f3e
000002a0: 4fb1 7a3d 71e2 a1bd ea7d cabd 5f85 b83d
000002b0: ac9e 40be a2ee 9abd aec1 09be 2284 6b3e
000002c0: ca9b 6f3e 99fd 2e3e 3ee0 a9bb a93c d9bb
000002d0: fdf7 963e 6136 703d 4cf2 3abe 3f9f 29be
000002e0: f86e d0bd 78f0 eebb a7ea 503e 67fa fabc
000002f0: 98d7 253e d383 79be ed16 b63c 3683 233d
00000300: 6549 12be 03de a43d eca8 f33d 1209 8d3e
00000310: d415 49be dcee bdbd 5054 2bbd 978b 6dbe
00000320: 0eab 50be d200 64be 9b96 913e cc77 91be
00000330: 78f9 02be cbf2 753e fd85 253e 1359 883e
00000340: 50dc 41be b848 d53c 9e82 99be ce3a 713e
00000350: a900 3a3e df26 ff3d a575 cd3c db82 863e
00000360: f2bc 35be 0341 48bd d898 843e 1fd4 86bd
00000370: 3ade 7a3c f0d8 50be 1aec 783e 9d3d 8a3d
00000380: 5112 a7be d9f6 0b3e acd3 7c3e 0681 8fbe
00000390: 2165 28be 42f1 60bc 99ba 943d f59a 813c
000003a0: d450 cabc fc82 723c f186 c33b 18b8 a13e
000003b0: d387 92be a4d4 89bc d0fc a33e b307 913d
000003c0: e5f3 913e 5d89 113e cbe4 84be 4572 03be
000003d0: d4a7 9abe 8892 883e 4f18 943e f839 81be
000003e0: 55d1 20be 3743 fe3d 9731 2fbe 557f 3b3e
000003f0: 5b4d 23bd 6c25 5abe ab7e 3bbd 0ada e03d
0.3087093 0.18760753 -0.25605443 -0.12307515 -0.30095884 -0.22052538 -0.08706079 0.0645915
0.10869679 -0.30858815 -0.16953726 -0.010833679 0.1260412 0.30434743 0.2745346 0.095701076
0.25937173 -0.027876632 -0.19764245 -0.19632807 0.00063420803 0.13956957 0.28811154 -0.17946556
0.019739209 0.2469741 -0.10674304 -0.3137201 0.06081362 0.084223844 -0.16954957 0.0042885533
0.17432706 -0.045106087 0.17639737 -0.17636617 0.029485354 0.11698073 0.19776079 0.1769464
-0.040476657 -0.26306108 -0.19052392 0.1805399 0.07577421 0.06766059 -0.22833769 -0.041570235
0.038636696 -0.20424071 0.095940135 0.10725527 0.111201994 -0.04338709 0.21660618 0.2740415
0.07003443 -0.3281733 -0.3189649 -0.10838413 -0.13920248 -0.16848612 -0.18252395 0.1592836
0.012122982 -0.28640366 -0.03233005 0.18249793 -0.05501667 0.22082168 -0.060680564 0.16854402
0.017764673 0.18569127 0.17922543 0.32278797 -0.20888418 -0.07137693 0.2372424 0.3234858
0.047402326 0.09428635 -0.24589412 -0.21718793 -0.1925924 -0.22073017 0.07683476 0.114333995
-0.22304776 0.2051624 0.0957896 0.31851307 -0.23791403 0.0649438 0.07698447 -0.2930341
-0.053677097 -0.09915562 -0.1169605 -0.03965546 0.065917306 0.107984565 -0.018672075 -0.058010653
0.054834247 -0.05865503 -0.18075445 0.19392842 -0.30323085 0.035983466 -0.26315972 -0.33311558
-0.13649459 -0.014658319 -0.09057426 -0.29489005 -0.10729228 0.2888751 0.15032233 -0.12743697
0.040225726 -0.08836821 0.029989388 -0.041252267 0.08606008 -0.095768094 0.07100114 0.1462613
-0.08290215 -0.13506576 -0.043419138 -0.16210437 0.061855417 0.1479047 0.1141833 -0.0005679562
0.19496615 0.24498184 -0.020868646 -0.29075268 0.31455907 -0.09434623 -0.13511264 -0.3171303
0.3166001 -0.0020461923 0.19777909 -0.23812081 0.044323348 -0.2698875 -0.30042028 -0.2248811
0.27036858 -0.16970508 0.31571653 0.1815982 0.26596117 0.22518706 -0.17812008 -0.12505569
0.33188877 -0.1986336 0.008330329 -0.14228727 -0.23662831 -0.10979556 -0.051865365 0.24982244
0.06120425 -0.079045184 -0.098872975 0.090098135 -0.18810529 -0.07565047 -0.13452789 0.22999623
0.23399273 0.17088927 -0.0051842025 -0.0066295457 0.29486075 0.05864561 -0.18256491 -0.16564654
-0.101774156 -0.0072918497 0.20402013 -0.03063698 0.16195524 -0.24366693 0.022227729 0.039920054
-0.1428581 0.08050158 0.11897454 0.27545983 -0.19637233 -0.092740744 -0.041828454 -0.2319778
-0.20377752 -0.22265938 0.28435215 -0.2841171 -0.12790477 0.240184 0.16164394 0.26630458
-0.18931699 0.026035652 -0.29982466 0.23557588 0.18164314 0.12458586 0.025080511 0.2627171
-0.17747858 -0.048890125 0.2589786 -0.06583428 0.015311772 -0.20395255 0.24308816 0.06750033
-0.32631162 0.13668384 0.24690121 -0.28028125 -0.16444828 -0.013729395 0.07262153 0.01582096
-0.024696745 0.014801737 0.005967014 0.31585765 -0.2861925 -0.016825028 0.32028818 0.07081547
0.2850639 0.14212556 -0.25955805 -0.12836559 -0.30206168 0.26674294 0.28924796 -0.2523954
-0.15704854 0.12415164 -0.17108761 0.18310292 -0.039868694 -0.21303338 -0.045775097 0.10979088

weight_hh_l0 f4 [27, 9]
00000000: 96dc eb3d d91b 553c 76d6 8b3e cd0a 933d
00000010: 1c8c 9f3e c979 aa3e ae45 753e 497d ab39
00000020: 8505 983e 4100 d1bd 6593 18bc 9479 933e
00000030: 2047 f2bd 9766 84be abab 07be ba3f 013e
00000040: bf39 f9bd 5ccb 743e 66f6 edbd bac7 0c3c
00000050: 7a42 7e3e e3d3 943e 6e89 083e 402e 04be
00000060: b1d8 bc3c 1faa 203e b5a5 9e3e 0eea 423e
00000070: 5c84 103e 207d 9dbe 5f6b 513e dc62 e4bd
00000080: 32d3 723e 571a 7b3e fe07 863e b9c1 63be
00000090: b2e6 4f3e 8d85 843e 5097 98bd bac2 453e
000000a0: a41e 7b3e 5056 8fbe a351 10be 80c1 91bc
000000b0: 0668 a03e 5577 b3be e8f9 ca3d 1791 993e
000000c0: 3cb7 823e b08a 3cbe 9b10 57be f0e4 333e
000000d0: 8af5 9fbe cda4 fd3d dfe3 0a3e 9f22 703e
000000e0: dd2a 3a3e 8ef2 96bc 516b 14be 0ca6 09be
000000f0: bfa8 a9bd 4b83 8dbe cf57 e0bd 5e30 fa3c
00000100: 9ffb d53d 539e 24be 10f5 87be 0999 843e
00000110: ea59 91be ff28 67be 9c77 95be e930 993d
00000120: b869 fd3d 8975 443e 156f 9b3d 3113 123e
00000130: 5da6 983e 7628 5fbe c674 53be a778 973d
00000140: 66c4 5fbe b2dc 7ebe d5c1 1b3d 483f e3bc
00000150: 1a5a 013d 5c79 e83d 63d6 fbbb 463d 833e
00000160: 0e86 2ebd 0269 8f3e 622f b53c 40a6 9c3e
00000170: cd6c 9ebe f454 183e 779f 9bbd bcac d93b
00000180: e433 e5bd f1a6 763e 83f4 f3bd 3c6d 703d
00000190: e06c 9f3d cbe5 253e 33dd 4e3e 02b2 53be
000001a0: f77f 8abd c8ef 1f3e 593b 073e 9d24 dcbc
000001b0: 66d8 c2bd 6557 75bc 1049 a83d 2ab8 7e3e
000001c0: 2c36 eebd a645 1dbd bab7 35be e27f e5bd
000001d0: 5a13 83be 0f75 923b f32c 0d3e 95a0 a63d
000001e0: 0394 9bbe ccb4 a0bc 6660 b5bc c7a9 efbd
000001f0: ca07 833e 8cd0 123e 4cff c63d 1503 013e
00000200: 271d a43e cf3f febd 36c2 963e a3cd 7c3e
00000210: d7f8 5dbe f6c6 81be c07d ba3d acad 8c3e
00000220: eade 86be 6cfa 123e cad6 97be 8287 ebbd
00000230: df21 2f3e d88e 933e e6bb c1bd 65c3 8c3e
00000240: f4f5 77be 42f7 e9bd f5d7 08be 4c43 2f3e
00000250: 7745 84be b09b 153e 6f71 69be 0954 49be
00000260: 1242 86be 7b48 20be 6eb4 13bb 1209 de3d
00000270: 6090 90be cc57 9f3e c296 3cbe bb9d fe3d
00000280: 06c7 70be 1d18 99be 4caa e3bd 78da 573e
00000290: e5d0 01be fbec 81be 96dc 4b3d 6d3e 133c
000002a0: 914a 7e3e ac35 473e 71cc 2bbe 0fe1 0bbd
000002b0: ab25 233e b00d 94be d413 933e 508c 24be
000002c0: 62d0 7bbe 1a6c 03be c3d2 91be 6f52 9abe
000002d0: 510d 873d e2cb b83d 0724 2e3e e4b1 9abc
000002e0: 3db8 87be 2632 5d3e ea84 91be d187 b63c
000002f0: 8450 873d 9cae 7a3e a701 0cbe 6ec0 363d
00000300: 1510 48be 3903 a1bc 29df b03d eda5 a2be
00000310: d0ae 993e 33b7 56be a72b 4f3e c410 873e
00000320: f2b0 63be 1f3c 963e a815 00be 24b9 0b3e
00000330: 8215 3a3e 45ec b13c e5ad b33c 279e a03e
00000340: 5c30 8abe 6aae 583e 7683 9c3e 2ad5 92be
00000350: 3577 45bd 482e 45bd b8c2 95be e805 a73d
00000360: bd55 8c3e d376 a8bd 7a84 07bd 6929 fdbd
00000370: 9d19 6a3d 1fc3 c83c 392c f03d 6f14 6d3e
00000380: 0945 1ebe 9da4 10be 7818 323e 93ca 0cbe
00000390: fc65 0d3e 7ab0 5ebe 688e 8a3e add8 26bc
000003a0: 8c3c 823e 3d1b 8fbe f26e be3d 19c4 a13e
000003b0: 31b3 903e 54bd 50be a572 403e c0ed acbe
000003c0: df81 18be f645 6bbe 82e5 c6bc
0.11516683 0.013007128 0.27312058 0.071797945 0.31161582 0.3329604 0.23952362 0.00032709006
0.2969171 -0.102051266 -0.009312485 0.28803694 -0.11829972 -0.2585952 -0.1324908 0.12621966
-0.12169217 0.239057 -0.116192624 0.00859254 0.24830046 0.29067907 0.13333675 -0.12908268
0.023052545 0.15689896 0.309858 0.19034597 0.14112991 -0.30759525 0.20451115 -0.111516684
0.23713377 0.24521767 0.26177973 -0.22241868 0.20302847 0.2588314 -0.074507356 0.19312564
0.24523407 -0.2799554 -0.14093642 -0.017792463 0.31329364 -0.3505198 0.09910947 0.29993507
0.25530422 -0.1841228 -0.21002428 0.17567801 -0.3124202 0.12384949 0.13563488 0.23450707
0.18180414 -0.018426206 -0.14494063 -0.13442248 -0.08284139 -0.2763923 -0.10954248 0.030540641
0.104483835 -0.16076021 -0.26554155 0.25898007 -0.2838891 -0.22574233 -0.29192817 0.07480032
0.1237368 0.19185461 0.075895466 0.14265133 0.29814425 -0.21792778 -0.20650014 0.073960595
-0.21852264 -0.24888876 0.03802665 -0.027740136 0.03158007 0.113512725 -0.007685469 0.25632685
-0.042608313 0.28009802 0.02211732 0.3059559 -0.30942383 0.14876157 -0.07598775 0.006642906
-0.11191538 0.2408712 -0.11911871 0.058697924 0.07784438 0.1620094 0.20201568 -0.20673373
-0.067626886 0.15618813 0.13206233 -0.026872927 -0.09513931 -0.01497445 0.082170606 0.2487494
-0.11631426 -0.0383965 -0.17745867 -0.11206032 -0.25600702 0.004469521 0.13786678 0.08136097
-0.3038636 -0.01961746 -0.022140693 -0.11702304 0.2559188 0.14337367 0.09716663 0.12598832
0.3205349 -0.12414514 0.29445046 0.24687819 -0.21676956 -0.25347108 0.09106016 0.2747625
-0.26341945 0.14353341 -0.2965606 -0.115004554 0.17102765 0.2881992 -0.09459667 0.27492824
-0.24214917 -0.11424114 -0.13363631 0.17115515 -0.25834247 0.14610171 -0.22797178 -0.19660963
-0.26222283 -0.15652649 -0.0022537964 0.10841574 -0.2823515 0.3112167 -0.18416885 0.124324284
-0.23513421 -0.2990121 -0.11116466 0.21079433 -0.12677343 -0.25376114 0.049770914 0.008987051
0.24833132 0.19454068 -0.16777207 -0.03415018 0.15932338 -0.28916693 0.28726065 -0.1606915
-0.2459121 -0.12834206 -0.2848111 -0.30141017 0.06594337 0.090232626 0.17005931 -0.018883653
-0.2650775 0.21601161 -0.28421718 0.02228156 0.06607154 0.2448067 -0.13672505 0.04461711
-0.19537385 -0.019654857 0.086363144 -0.31767216 0.30016184 -0.20968322 0.20231496 0.2637998
-0.22235468 0.29342744 -0.12508261 0.13644844 0.18172267 0.021719107 0.021933505 0.3137066
-0.2699002 0.21160284 0.30569047 -0.28678256 -0.048209388 -0.04813984 -0.2925012 0.081554234
0.27409163 -0.08225789 -0.033085324 -0.12361414 0.057153333 0.024507103 0.11727185 0.23152326
-0.15456022 -0.14125295 0.17392147 -0.13749151 0.13808435 -0.21747008 0.27061772 -0.0101834955
0.2543682 -0.2795047 0.09298505 0.31594923 0.28261712 -0.20384723 0.18793733 -0.3377514
-0.14893292 -0.22975907 -0.02427936

bias_ih_l0 f4 [27]
00000000: 0771 0d3e e888 3b3d 8e41 393e a66a dfbd
00000010: b548 65be e7bc a4be adf3 673e aec3 363d
00000020: 7708 383e b352 6b3e 797d 91be e3ff 8fbe
00000030: 7dee 833e ad1b 2abe 2a77 403e a6bb a2be
00000040: 14a9 8d3e c130 8e3d 5b61 70be 1c40 59be
00000050: 0401 74be c4c2 93be 8aa3 88be 8f71 9dbe
00000060: 345c bbbb 17b9 a83d 0dd9 3cbe
0.13812648 0.04578486 0.18091413 -0.109090135 -0.22391017 -0.3217537 0.22651549 0.04462021
0.17971979 0.22980766 -0.2841604 -0.28124914 0.2576789 -0.1661212 0.18795457 -0.3178379
0.2766806 0.06942893 -0.23474638 -0.21215862 -0.23828512 -0.28859532 -0.2668727 -0.307507
-0.0057177786 0.08238428 -0.18442173

bias_hh_l0 f4 [27]
00000000: 2261 03be 0a80 65bd 7f8f 2c3e c272 cfbd
00000010: bb74 25bd fcc2 95bc 7e21 913e 9c62 e7bd
00000020: 8c77 8bbe 5d7b 1cbe 3709 68be 33dc 28be
00000030: a76b 983e ee56 a03e 28b5 533e 00e6 2dbd
00000040: 897b 0fbd e887 abbe 4ecb fe3d c272 a1bd
00000050: 020a efbd 5ee2 573e 07bf a2bd 189a 93be
00000060: 2647 54be a346 c1bd 39cc 63be
-0.12830022 -0.05603031 0.16851614 -0.1012931 -0.040394526 -0.018281452 0.28345865 -0.11298105
-0.27239645 -0.15281434 -0.22659765 -0.1649025 0.29769632 0.31316322 0.20674574 -0.042455673
-0.03502992 -0.33502126 0.12441121 -0.078832164 -0.11671831 0.21082446 -0.07946592 -0.28828502
-0.20730266 -0.09437301 -0.22245874

weight_ih_l0 f4 [27, 24]
00000000: 46bf 473e cba7 35be 4c2b c33d ae28 563e
00000010: 5326 a2bd 0bd9 4f3e 66ed 7bbe 9375 2e3e
00000020: b72d 96be 4597 9fbe 0bd4 ec3a c626 7abe
00000030: 69b8 de3c 213d a8be 5226 993e ba11 503e
00000040: 3f73 263d 7360 6f3e 2b6c 453e e419 e0bd
00000050: a716 36bd 831e 81bd 48a1 72be 4c71 a9be
00000060: 10bb a03e 0a3a 023e a92f 733e 077e 873e
00000070: 9bfa 363e b75a 503d 47c3 9ebe e28a 12bd
00000080: c6e7 96bd d692 bebd 6e8d 82be b4ce 023e
00000090: 7c33 36be ed86 99be 6d32 47be c9b8 3f3e
000000a0: 70ba 473e fe94 313d 3dec 09be 9c1f 59be
000000b0: 4ab2 bbbd 0350 87bd 08fd 98be c304 95be
000000c0: 67b6 2fbe f401 42be afff 8ebe c760 193e
000000d0: be30 003e 90d0 873e a45f ffbc f4b3 7bbe
000000e0: 5152 993e c71f 013e fd87 9bbb c386 b93d
000000f0: 8ce7 87bc 407a 103c f435 983e 54f6 1bbe
00000100: 6561 82be a572 db3c 21e7 593d 07bd 0a3e
00000110: 4b76 7e3e a548 0ebe 8a17 8dbe 1606 013c
00000120: 35ce 6f3e 19f6 533e 9687 8bbe 970a f13d
00000130: af11 453e a0b2 d2bd 33fd 883e 2891 b3bd
00000140: 7638 9a3e 1bf0 a83e 79ca 043e 036a b0bd
00000150: fd18 963a 0b65 233d c955 043e b866 78be
00000160: b14c 5c3d 4754 963e 0478 8f3e 7509 97bc
00000170: 0931 353e a9fd e7bd ff47 f2bd 707a 713d
00000180: 8ef1 56bd a0ba 26bd ed36 31be 4b03 89be
00000190: eaf9 a0bd fed8 713e 44b2 8cbe d787 8cbe
000001a0: ffb8 363e ba7f ee3c 806c 793e a602 a63e
000001b0: 59f2 0ebe b18d 433e 52c8 33be c4e4 453d
000001c0: 275d 973e 6040 9fbe 0c78 58bd 9ea0 29bd
000001d0: 5127 d13d 16e6 04be ced5 4c3e 3ed0 90bd
000001e0: 3191 92be ce78 eebd c3a3 d8bd 7a5f c3bd
000001f0: 3585 1f3e c5ea 99be d06c 963e dcbc 00be
00000200: 802b a7bd 0888 8bbe 5cd1 0a3d 395c 8cbc
00000210: 810b 61be d993 e1bd 60ba 1a3d dd92 3ebe
00000220: 79be 7fbe b384 ef3d 46fa 2abe fb6e b9bd
00000230: c965 d8bd 4811 843e a508 55bd 2240 493e
00000240: a1ce 6d3d c373 363e 263f 993e 9dc7 10be
00000250: 8533 a63e ed85 8ebe 0e85 453d e77c 01be
00000260: fffe 293e df39 173d fa09 2f3d 582b 82be
00000270: 4c77 5abe c25a 253d 9b61 2bbd b7dd 85be
00000280: b209 45be b0a8 6cbe b63c 63be 3fd5 33be
00000290: 8342 54bd 679c 563d 8a8a 07be 2dc4 4abe
000002a0: 559f 813e 6c2b a9be 7b76 203d dbc4 07be
000002b0: 946e 863e dcc9 bd3c 895d b8bd 4ba6 7abe
000002c0: 99ed 373e 3d2a e13d ebcd a63e aae3 663e
000002d0: 7bc0 683d 7e25 e6bd 0561 94be 3d36 d5bc
000002e0: 4ea8 023b 2bda 1d3d 018d 973e d38e 41be
000002f0: f9a9 7abd 0142 793e 010d 6fbe cfdc 863d
00000300: 2d03 99be 88d3 1bbe e834 8fbe 2bc9 37be
00000310: cc54 8abe e816 3b3d 1ebf 203d b799 273e
00000320: 88fe d4bd 4b19 653e db5f acbe 3e0e 5f3e
00000330: cb26 18be ec22 17be 3252 8f3e bd2e 933e
00000340: fa90 eb3d 04bc c83d c795 8abd 17cf 1cbe
00000350: 24eb a03e 3f33 1fbd 6c71 14be 75f1 8e3e
00000360: 0525 d5bd 9753 863e 1a71 523e c437 a53e
00000370: ffac 033d 283d 0d3c 7c0c cc3d 4097 8fbe
00000380: a031 243c 5b8b 1e3e 1448 063e 824b de3b
00000390: b33a 89be 6bd2 5bbe 4863 633e 3328 7dbe
000003a0: cc98 213e dddd 4abd fe69 103d 8003 92bd
000003b0: 847c 353e 0fab 77be eca8 7ebe 3469 803e
000003c0: 633a 223e a23d 343e 50af 2a3e 304c 63bd
000003d0: 03a7 25be c9f6 243e b714 5c3e 0b3e 91be
000003e0: dce4 e63d 1ea5 6ebe 32e0 963e ff7f 61bc
000003f0: 1a01 3fbc 6a2b 27bd 903f 403e 90ff e5bc
0.19506559 -0.17739789 0.095297426 0.20913956 -0.07917466 0.20297639 -0.24602279 0.17037039
-0.29331753 -0.31170097 0.0018068565 -0.24428853 0.027187543 -0.32859138 0.2991205 0.20319262
0.04063725 0.23376636 0.19279544 -0.10942438 -0.044455197 -0.06304648 -0.23694336 -0.3309425
0.31392717 0.12717453 0.2374865 0.2646334 0.17869036 0.050867762 -0.3100836 -0.03577698
-0.07368426 -0.093053505 -0.25498527 0.12774163 -0.17793077 -0.29985753 -0.1945283 0.18722834
0.19504714 0.04335498 -0.13469024 -0.21203464 -0.09164865 -0.06607058 -0.29880548 -0.29105195
-0.17159425 -0.18946058 -0.27929446 0.14978324 0.12518594 0.26526308 -0.031173535 -0.24580365
0.29945615 0.12609778 -0.0047464357 0.09058907 -0.016589902 0.008818209 0.29728663 -0.15230685
-0.2546493 0.026788065 0.053198937 0.1354867 0.24849813 -0.13894899 -0.2755702 0.007874986
0.23418505 0.20699348 -0.2725188 0.11769598 0.19245027 -0.10287976 0.26755676 -0.08767921
0.301212 0.32995686 0.12967862 -0.0861397 0.0011451539 0.039891284 0.1292335 -0.24257934
0.053784076 0.29361174 0.28021252 -0.018437127 0.17694487 -0.11327679 -0.118301384 0.058954656
-0.05247646 -0.040705323 -0.17306109 -0.26760325 -0.07860167 0.23617932 -0.27479756 -0.27447388
0.17844008 0.02911364 0.24357796 0.32423896 -0.13959636 0.1909702 -0.17556885 0.04831387
0.29563257 -0.31103802 -0.05284886 -0.041412942 0.10212577 -0.12978396 0.20003435 -0.07070969
-0.28626397 -0.116441354 -0.1057811 -0.09539695 0.15578158 -0.30061927 0.29379892 -0.12572044
-0.08162594 -0.2725222 0.033891067 -0.017133819 -0.21977045 -0.11014528 0.037775397 -0.18610711
-0.24975003 0.11695232 -0.16697034 -0.09054371 -0.10566289 0.25794435 -0.052010197 0.19653371
0.058058385 0.17817597 0.2993099 -0.14138646 0.3246118 -0.27836552 0.048222594 -0.12645303
0.1660118 0.036920425 0.042734124 -0.25423694 -0.2133457 0.040369757 -0.04184113 -0.26145718
-0.1924198 -0.23111224 -0.22191128 -0.17561816 -0.051821243 0.05239525 -0.13236442 -0.19801398
0.25316873 -0.3304094 0.03917549 -0.13258688 0.2625624 0.023167543 -0.090022154 -0.24477498
0.1796173 0.109943844 0.32578978 0.22547784 0.05682419 -0.1123762 -0.2898027 -0.02602684
0.0019936743 0.03853814 0.29599765 -0.1890214 -0.061197255 0.24341585 -0.23344804 0.06585085
-0.29885235 -0.15217412 -0.27970052 -0.17947833 -0.2701782 0.045676142 0.039244764 0.16367231
-0.104001105 0.2237293 -0.33666882 0.21782777 -0.14858548 -0.14759415 0.27992398 0.28746596
0.115022615 0.09801486 -0.06766849 -0.15313374 0.31429398 -0.03886723 -0.14496392 0.27918592
-0.104074515 0.2623565 0.20550957 0.32269108 0.032147404 0.008620538 0.09963319 -0.28045082
0.010021597 0.15482847 0.13113433 0.0067839036 -0.26802596 -0.21466987 0.22205842 -0.24722366
0.15780944 -0.04952799 0.035257332 -0.07129574 0.1772328 -0.24186347 -0.24869126 0.25080264
0.15842585 0.17601636 0.16668439 -0.05549258 -0.16176991 0.16109766 0.21492277 -0.28367648
0.1127412 -0.23305175 0.29467922 -0.013763427 -0.0116579775 -0.040812887 0.18774247 -0.028075963

weight_hh_l0 f4 [27, 9]
00000000: 4a86 4d3e 1a19 2d3e a8b0 573e 344c 41be
00000010: 1c39 323e 8dd8 d0bd f0cb 65bd d006 2c3e
00000020: 5cbd 5abd 749e 883e 00d6 9abe 30a1 733d
00000030: 0fb0 5d3e 19ce 033d bc57 b2bc bec5 ecbc
00000040: fd2f 55be eafa 233e caf7 58be d36f e73d
00000050: 7373 903e 0438 653e caca ddbd e8cd 1d3e
00000060: 9731 203e 7bb4 78be e9b0 9bbe 12a1 38be
00000070: c445 073d c6d1 b83c c850 c03c f555 6e3e
00000080: 7887 88be 4731 813d df73 1c3e c1b4 8c3e
00000090: 1510 8c3e 3351 25be 451d fbbd 1c6e 9abe
000000a0: a7fc 8bbe 1056 5abe b1cf 55bd b71c 8f3e
000000b0: aba7 1dbc fcc0 70be c202 8ebe 66a3 9dbe
000000c0: d83a 413e f662 173d 4f21 a23d e884 a53d
000000d0: abe8 3abc 38eb 3c3d 75ab 8c3e dc07 14be
000000e0: f119 59bd 7c57 bd3c 1d17 8c3e 6749 293e
000000f0: 7359 65be a096 66be ebe1 6f3e 0fbe ee3c
00000100: cb7a 8d3e 8399 243e 2380 84bd 7103 ed3d
00000110: 504b 08bc 3715 413d d29f 6ebe 183f 2ebe
00000120: 4a70 863e 6677 543e d1ed fe3d 23fa 963e
00000130: c609 143d 3c2d b33d d76e 0bbe 8250 28be
00000140: 2d4c 2cbd 3882 bbbd b156 78bd dae0 473c
00000150: 6adf 6e3e f851 64be f494 e63d f731 9c3e
00000160: 0c9f 653e ebc2 3d3d b7be 40be 69b7 a2be
00000170: 20dc a5be 1ff3 263e f5dc 6a3e c2bf 10be
00000180: 9bf4 c03d d6c3 abbd fa7d 153e c9dd acbd
00000190: 701a 80be 901a 92be 6666 4b3d 8676 7ebd
000001a0: ecc2 04be b5fb ce3d 18ad 2a3e 8be4 ad3d
000001b0: 9d7a 873e e4fa 7cbe 9162 0ebe e4f3 1f3d
000001c0: 7d1f 4dbe 4acb 90bd c816 993d facc 76be
000001d0: 3d25 6e3e b72a 883e 38a6 a83c de04 f7bd
000001e0: 83c6 2cbe a9e3 203d e03c e73d c13a 8dbe
000001f0: ea4d 2b3e 497f babd f39c f7ba 0024 0bbe
00000200: 8422 233e 875c 443e f218 8e3e 9d6f 723e
00000210: fe3d abbd 9ef5 1a3e afca a0be 8d62 4abe
00000220: 5f91 a2bd 6c30 47be e276 893d cd62 b6bc
00000230: e387 ffbc 8052 97be 3186 3fbe 6461 acbe
00000240: f451 47be ab94 83be f3b6 68be 413e abbe
00000250: c02f 023d 0224 913d 8d9f a63e 5280 2bbb
00000260: b24c 9cbe db5e 083e 948b 69be 935a f63c
00000270: 00a8 a0be 0e71 2ebe 9f8c 6e3d 0d37 39be
00000280: fa73 81be aa6c 083e 174d 0abe 9e04 a03e
00000290: d5f3 323e b793 863e fc33 903e 8ce9 74be
000002a0: c1aa 82be 600d 07bb dafa 8d3e d986 92bd
000002b0: d4c4 9fbe dc25 82be 361a ffbd 0165 60bd
000002c0: 40e7 823d afdd a3be 1d6c 2bbe 7963 85be
000002d0: 0e9b 3cbe 43c0 bf3d d241 a33e a057 963e
000002e0: 3cd7 003e f32e aebc 3a85 5abd 0bb4 a1be
000002f0: 8c29 d03d e705 623e 8934 11bd 0973 c8bc
00000300: 8730 663e 4df3 87be 400b a43d 61df 3fbe
00000310: bbf0 82bd 55f6 aa3e 35d9 33bd 22e1 1f3e
00000320: 43ce 8cbe 43f1 90be dfd2 3cbe ca51 043e
00000330: d669 f8bd f7f1 43bd 16cb 52be f7eb ecbd
00000340: 1488 21bd f909 aa3d 8ff3 9d3e 965f 72be
00000350: fcdc 233e 89a8 4e3e 4159 b43d 2ef1 aa3d
00000360: dc83 4c3e d1cd 5fbe 5f46 9cbe c2eb 873e
00000370: 02f8 0b3d 3448 76be 70f0 053e 5e77 153e
00000380: 70bd c3bd d082 62be 892c 73bd cf90 a8be
00000390: bca4 7e3e c35d 22bd 4a79 453e b9c8 553e
000003a0: 683c 2cbe bf37 9ebc 1369 893c ea6c a53e
000003b0: 75f7 0bbe e9a5 0e3d 24be ab3e 0a74 453e
000003c0: d8ce 86be 8ef9 413e 19d1 9fbe
0.20070758 0.16904107 0.21063483 -0.18876725 0.17404598 -0.10197554 -0.056102693 0.16799474
-0.053403243 0.2668339 -0.30241394 0.059479892 0.21649192 0.032178972 -0.02177035 -0.028902885
-0.20819087 0.16013685 -0.21188274 0.11300626 0.2821308 0.2238465 -0.108296946 0.15410578
0.15643917 -0.24287598 -0.3040841 -0.18030193 0.033025518 0.022560965 0.02347602 0.23274978
-0.26665854 0.06308227 0.15278576 0.27481654 0.2735602 -0.16144256 -0.12261442 -0.30162132
-0.27341196 -0.21321893 -0.052200023 0.27951595 -0.009622495 -0.23511118 -0.2773648 -0.30788726
0.18870103 0.03695961 0.07916509 0.080819905 -0.011408011 0.04612276 0.2747456 -0.14456123
-0.053003255 0.023113005 0.27361384 0.16531907 -0.22397403 -0.22518396 0.23426025 0.029143361
0.27632746 0.16074185 -0.06469753 0.11572922 -0.008318737 0.047139373 -0.23303154 -0.17016256
0.26257545 0.20748672 0.12447704 0.29487714 0.036142133 0.08748862 -0.13616501 -0.16436961
-0.042064834 -0.09155697 -0.06062955 0.012199605 0.23327413 -0.22296894 0.11258879 0.3050687
0.22423953 0.046328466 -0.18822752 -0.31780556 -0.32394505 0.16303681 0.22935851 -0.1413565
0.09421655 -0.08386962 0.14598837 -0.0844074 -0.2502017 -0.2853589 0.0496582 -0.06212475
-0.12964982 0.10106603 0.16667593 0.08490857 0.26460734 -0.24705082 -0.13904788 0.03905095
-0.20031543 -0.07070024 0.07475048 -0.2410163 0.23256393 0.2659509 0.020587072 -0.12061475
-0.16872601 0.039279614 0.11290908 -0.27583888 0.1672894 -0.09106309 -0.0018891379 -0.13587952
0.15931135 0.19175921 0.27753407 0.2367539 -0.083614334 0.15132758 -0.31404635 -0.19764157
-0.079378836 -0.19452065 0.06712128 -0.022263909 -0.031192726 -0.2955513 -0.18703534 -0.33668053
-0.19464856 -0.25699362 -0.2272604 -0.33445933 0.03178382 0.07086946 0.32543603 -0.0026169014
-0.30527264 0.13317434 -0.22807151 0.030072486 -0.31378174 -0.17035314 0.058239575 -0.18087406
-0.25283796 0.13322702 -0.1350597 0.31253523 0.17475827 0.26284572 0.2816466 -0.23917216
-0.255209 -0.0020607337 0.27730447 -0.071546264 -0.31204855 -0.2541951 -0.12456171 -0.054783825
0.06391764 -0.3200507 -0.1674046 -0.26052454 -0.18418524 0.09362843 0.31886154 0.29363728
0.12582105 -0.021262622 -0.05334971 -0.31582674 0.101641744 0.22072564 -0.035450492 -0.024468916
0.22479449 -0.2655281 0.08009958 -0.18737556 -0.06393572 0.3339106 -0.043908317 0.15613225
-0.27501115 -0.28309068 -0.18439816 0.12921825 -0.121295616 -0.047838178 -0.20585284 -0.11568444
-0.039436415 0.083026834 0.30849883 -0.23669276 0.16002268 0.20181479 0.08806086 0.083467826
0.19972175 -0.21855856 -0.3052244 0.26547056 0.034172066 -0.24050981 0.13080001 0.14596316
-0.09557617 -0.22120214 -0.059368644 -0.3292298 0.24867529 -0.0396402 0.1928455 0.20877351
-0.16819918 -0.019313691 0.016773736 0.32309657 -0.13668616 0.034826193 0.33543503 0.19282547
-0.26329684 0.18942854 -0.31214216

bias_ih_l0 f4 [27]
00000000: 854e 0b3e b28b afbc 821c 82bd f45b d83d
00000010: f911 3cbe 36b1 98be 8404 553e 001e 8c3e
00000020: 4e23 8abe f94e 56bb cf8c c03d fca5 7a3e
00000030: a6bf 623e d908 37be 537c 88be 64a5 963e
00000040: 8ac5 583e 5738 173e d893 35be 1a9f a63e
00000050: 56a5 e6bd 32e3 8dbd bc87 80be 9279 923e
00000060: 6400 a13d 9729 df3d 0da1 9c3d
0.13604172 -0.021428917 -0.06353094 0.10564414 -0.18366231 -0.298227 0.20802504 0.27366638
-0.2698006 -0.003270088 0.09401857 0.2447738 0.2214342 -0.17874469 -0.26657352 0.29423058
0.21169105 0.14767586 -0.17732179 0.3254326 -0.11262004 -0.069281 -0.25103557 0.28608376
0.07861403 0.108966045 0.076479055

bias_hh_l0 f4 [27]
00000000: 276f 6bbe 9dd4 123e 7a0a 873e 31bf 9bbe
00000010: 12c7 6e3e f9ae ef3d 973f 31be 5c09 6bbd
00000020: a203 e9bc 7383 b43d d8b4 2d3e 7c37 443e
00000030: 03f8 00be b04f d03d 7533 203e 2a46 47bd
00000040: 6b87 033d b136 7dbe 62d7 97be 664e 913e
00000050: 0b68 0b3e aae1 ae3d ff07 7ebe 4f69 38be
00000060: ea65 bf3d e033 17bc 2d53 62bc
-0.2299162 0.14338918 0.2637518 -0.30419305 0.23318127 0.11703295 -0.17309414 -0.057381973
-0.028444115 0.088141344 0.16963518 0.1916179 -0.12594609 0.10171449 0.1564463 -0.048650898
0.032111567 -0.24727894 -0.29656512 0.28380126 0.13613908 0.08539136 -0.24807738 -0.18008922
0.093456104 -0.009228677 -0.013813776

weight_ih_l0 f4 [27, 39]
00000000: 30a3 44be e7f1 853e da72 5e3e ddb5 8e3e
00000010: 49d4 11bc 2793 cabd f61c 093e 9a8b d73d
00000020: aacf 863d 7914 ab3e da28 9b3e ae10 133e
00000030: d161 3fbd 2ded 81be 3d50 3dbe dc37 08bd
00000040: 6f85 443e 80cb 3fbe c5c0 483d e885 adbc
00000050: f324 88be c2e4 89bc 3245 0e3e d643 1cbd
00000060: 246a a63e dbf1 1dbe 3f48 f2bd d1fb 98be
00000070: d13b b83d 45b9 ec3d b72d 403e 8799 33be
00000080: bc82 e6bd 7b7e 71bd f260 0b3e 5157 efbc
00000090: a374 943e d669 a73e c5f4 8f3e e70c 863e
000000a0: 5aab 0cbd f9cd 403e ddeb 173e 2d89 633e
000000b0: 6a28 05be e6e2 803e 5373 a43e 509b 77bd
000000c0: 00cc 043e 35cd bb3c 372b 5bbd bfa9 ccbd
000000d0: c229 50be ddaa dbbd 779e 25bd ae20 493e
000000e0: 595f 883e 12cb a43e 3ac5 fdbd f8fd 96be
000000f0: b018 2e3e c358 c5bd bb3a 633e 62e1 043e
00000100: a12c a2bd f7dc a13e d1e7 9bbe 6f7b 49bc
00000110: b111 203e 80e2 93be 9cad 8fbd bd20 0dbd
00000120: 78c8 0fbe ef85 56be 9e25 5e3d d123 8cbe
00000130: a503 aebc e6c7 9abe 652e 0b3e ecef c43c
00000140: 9138 6abe 61be d03d f67b 5ebe f594 573e
00000150: d9ea 203d 67f2 1dbe 7581 273e 46c2 61be
00000160: aa78 a33e 7bbe 3fbe d545 98be 9d76 863e
00000170: f5f0 943e 2a25 813d ff9c 013e 8361 723e
00000180: dd27 abbd d20b f7bd 2f4d b43d 4353 993e
00000190: edc6 263d 9c88 a83e d0a1 74be 087c 8f3e
000001a0: feb3 7cbe 0537 6d3e 5718 543e f458 0f3e
000001b0: 89bd f3bc a6dc 563e 6120 7fbe e64b 34be
000001c0: a312 603e 1503 a4bd d52e 34be 54f5 f13d
000001d0: 38ca 20be 2be1 b63c a14b 943e 9952 fa3d
000001e0: a3c0 e73c 0d5f a53d 4d82 9cbd 7e66 e23d
000001f0: 5571 9e3e df1d 88bd 5c86 ab3d eb87 ac3e
00000200: 10d2 9dbe 081f 203e 1d84 f03d 138d 613e
00000210: 2e6c 90be ff8b 2a3e e237 f5bd c2d1 6fbe
00000220: 3b12 56be b400 a8bd 0616 0cbd 7348 e7bc
00000230: 1f82 043b b1b0 23bc f627 8dbe b789 98be
00000240: 7866 9dbe 1549 34be 7e14 61be f0cd fd3d
00000250: 30e5 c0bd 4c09 94be 1e6a 763e 6d0a 0b3c
00000260: 53f0 2a3e 19a2 383e 80a5 7a3e bec8 10be
00000270: 1bba 963d 4b81 52bd a287 9b3d 54e8 ccbd
00000280: f901 543e 0bea 87be bcc0 3a3d 5246 f33d
00000290: d08b a73d 9577 9e3c 25df c43d 5e5a 83bc
000002a0: 9890 47be a77a 79be 63a8 34be 5a4f ef3d
000002b0: 4d10 5c3e ca76 853e bd19 ad3e e274 b5bc
000002c0: 3e1e 49be ab58 31be 1a12 0ebe e16b 3b3e
000002d0: 042b bc3d 7c9e ecbb fe16 95be 5f80 90be
000002e0: b52e 8b3e b6b6 ce3d db49 993e 85d0 3e3e
000002f0: 73a5 073e eeb5 76be 2d13 513e c3bb 3e3e
00000300: 2a6e 9e3e d5f1 ac3c 311b 7fbe 6366 1fbe
00000310: b107 7e3e 0c80 f53d da58 4f3e 4ee2 dd3d
00000320: c054 063e edf7 783e cd97 a83e 155b e0bc
00000330: 1627 9ebd 3a08 dbbd 3875 1cbe 3e45 9d3d
00000340: 1a84 6c3d 12d9 febd 8415 12be 312e 89be
00000350: c13f 44be d917 47be 20ee 23be ce22 a2be
00000360: 29a2 853e 64f4 18bd 5073 983b be06 dfbd
00000370: 8a35 923e 7ea4 6f3e ffc3 74be 2281 11be
00000380: 8bde 36be f711 493d 616e 2f3e 405d a13e
00000390: 8ef9 98bc cf2f 863e 51d6 123d 3eb7 6f3e
000003a0: bf82 21be c334 603e 0a5f 523e eabf 10bd
000003b0: 54ef 94bd ba9c 903e 8ec3 abbe 6217 9bbd
000003c0: aa81 383e da58 95be 3d04 813e 2021 4c3e
000003d0: 10b7 88be 81a8 963e 2928 acbe 7ad8 d0bd
000003e0: 52a4 96be f791 9d3e 6090 3b3e 9eba 803d
000003f0: 6cde 62bc 68fa 8fbe 63a3 8dbe 4e21 8bbe
-0.19202876 0.2616112 0.217235 0.27873126 -0.00890071 -0.09891348 0.13389954 0.10524674
0.065825775 0.33414057 0.30304605 0.14361832 -0.046724144 -0.25376263 -0.1848764 -0.033256397
0.19191526 -0.18729973 0.049011964 -0.021182016 -0.2659069 -0.016832713 0.13893583 -0.03815063
0.32502854 -0.15424292 -0.11830186 -0.2987962 0.08995784 0.11558775 0.18767439 -0.17539035
-0.11255404 -0.05895851 0.136112 -0.02921644 0.28995237 0.32697934 0.28116432 0.2618172
-0.0343431 0.18828572 0.14836068 0.22220297 -0.13003698 0.2517311 0.32119235 -0.060450852
0.12968445 0.022924999 -0.05350801 -0.09993314 -0.2032843 -0.10725949 -0.040434327 0.19641373
0.26635244 0.3218618 -0.123911336 -0.29490638 0.17001605 -0.096360706 0.22190373 0.12976602
-0.079186685 0.31613895 -0.304503 -0.012297495 0.15631749 -0.28883743 -0.07015535 -0.03445505
-0.14041317 -0.20949529 0.054235093 -0.27371076 -0.021241972 -0.30230635 0.13591917 0.024040185
-0.22873141 0.10192562 -0.21726975 0.21052916 0.03928647 -0.154245 0.16357978 -0.22046766
0.31927997 -0.18725006 -0.29740778 0.2626237 0.29090086 0.063059166 0.12657546 0.2367001
-0.08357213 -0.120628014 0.08803784 0.29946336 0.040717054 0.32916725 -0.23889852 0.28024316
-0.24678037 0.2316552 0.2071241 0.13998777 -0.029753463 0.20982608 -0.24914695 -0.17607078
0.2188211 -0.080084 -0.1759599 0.11814371 -0.1570214 0.022324165 0.2896395 0.122227855
0.028290099 0.0807477 -0.076420404 0.11054705 0.3094584 -0.066463225 0.083752364 0.33697447
-0.30824327 0.15636837 0.117439486 0.22026472 -0.28207535 0.16654967 -0.119735494 -0.2341986
-0.20905392 -0.08203259 -0.03420069 -0.028232789 0.002021916 -0.009990857 -0.2756955 -0.29792568
-0.3074224 -0.17606004 -0.21980473 0.12392795 -0.09418714 -0.28913343 0.24063918 0.008486372
0.16693239 0.18030585 0.24477196 -0.14139077 0.073597156 -0.051392835 0.07594229 -0.100052506
0.20703878 -0.26545748 0.045593962 0.11878647 0.08180964 0.01934413 0.09612874 -0.016034301
-0.19488752 -0.24363194 -0.1764236 0.11685057 0.21490593 0.2606719 0.338087 -0.02215046
-0.19640443 -0.1731898 -0.13874093 0.18302871 0.09187892 -0.0072210412 -0.29119104 -0.2822294
0.27184072 0.10093443 0.2993916 0.18634231 0.13246708 -0.24092838 0.20417471 0.18626313
0.30943424 0.021111408 -0.24912716 -0.15566401 0.24807622 0.11987314 0.20248738 0.1083418
0.13118267 0.24313326 0.32928315 -0.027387181 -0.07722299 -0.106949285 -0.1527909 0.076792225
0.05774317 -0.124437466 -0.1426602 -0.26793054 -0.19164945 -0.19442691 -0.16008806 -0.3166718
0.2610028 -0.037342444 0.004652418 -0.10889958 0.28556472 0.23402593 -0.23902892 -0.14209417
-0.17858331 0.0490894 0.1713195 0.31516457 -0.018673684 0.2620835 0.03584892 0.23409745
-0.15772532 0.21895127 0.20544067 -0.035339274 -0.07272211 0.28244573 -0.33547634 -0.07572819
0.18018213 -0.2916935 0.25198546 0.19934511 -0.26702166 0.29425433 -0.3362439 -0.1019754
-0.2942224 0.30775425 0.18316793 0.062855944 -0.013846975 -0.28120732 -0.27663717 -0.27173847

weight_hh_l0 f4 [27, 9]
00000000: bde1 f7bd 0130 1abe b8eb 59be a8b7 1f3e
00000010: 7be9 403e 6df8 c4bd a782 7c3e 9e48 333e
00000020: c72b 973c f3e2 453e 3056 26bd 3086 86bd
00000030: 9515 cd3d 9ce7 673d 61e4 f33c 19bc 52bc
00000040: ccd4 7fbd f618 56bd cbf5 303e e10b 49be
00000050: 185d 16be 3122 93be ccdb fbbc fdc9 92be
00000060: 63a3 923d 171b 0f3e a0ac 123d 136d a4be
00000070: ac5a 3c3d 7408 793e a6aa 8fbe 4400 28be
00000080: 4f16 8ebc 472e a0bd 8da2 bd3d 8b3b 90be
00000090: f195 90bd 01a7 26bd 712d a5bd 8492 b5bc
000000a0: bdf8 33bc f6c5 253e 8580 b9bc 7643 6c3e
000000b0: 9e09 543e 9482 0e3e 2b45 90be 5a71 cbbd
000000c0: 511f a63e 8ae2 61bd 4d88 a1bd 87e0 dbbd
000000d0: a352 853e 431a 7fbe 3f6f 92be c8df 92be
000000e0: 374a 9fbe 381c 40be 26ed a3be a05a 16be
000000f0: 4656 8bbe b8d2 9abd e970 a53e 46ef 9a3e
00000100: 3800 55be 51f6 a3be 93d9 123d d63f 6bbd
00000110: 9906 393e 82da 493c 6c53 653e b358 12be
00000120: e896 2d3e 788c b0bd 5ecf a03e c232 80be
00000130: b715 11be 0f13 0dbe 5efd 17be 0524 663c
00000140: b362 9bbe 8150 90be a72b c7be 0fe8 f63c
00000150: e2a3 993e 0408 a53c 8d45 febd a070 2abe
00000160: 6441 55be 4c68 843e 8424 463e 84af 9bbe
00000170: a70f c23d 501b a03d 8926 cdbd 74cc a4bc
00000180: 58f7 97be c8de 863e a892 67be a676 4b3e
00000190: 6943 8f3e 54de 113e ca85 5f3e 9275 0dbe
000001a0: c3e5 92bd 38bb 2a3e 2db2 5f3e 10f3 7cbe
000001b0: 4182 8fbe 78d1 e73d 0541 1dbe d66f 8abe
000001c0: 56cd d9bd 5947 cb3d ff9b 92bd 5480 ef3d
000001d0: 4cd1 a1bd 4453 04be 23ff 643e 5151 a53e
000001e0: d28e 873c 27de 22be 50d7 1f3e ac0d b43d
000001f0: 02eb 943d 2c66 903e 5fbb 6dbe 6642 05be
00000200: 5425 943e 0e7a 3fbe 8fcf 12be 5f82 f0bd
00000210: 50a8 0fbe 6b9c 2f3e 315c 3bbe 207e 0ebe
00000220: 88cd d5bd 2583 ebbc 1694 333e 15fc 45bd
00000230: 0df9 b9bd 1a85 a73d d02d f2bc aec2 cb3d
00000240: 1ef8 f03d 7b58 5dbe 4f44 983e ed7c 51be
00000250: 8481 a8be 5391 8ebe b4a1 983e 4599 18be
00000260: f69e 593e c0f5 a8be 0396 27be 45f2 9c3e
00000270: 1131 93be 88a2 87bd c081 16be a995 debd
00000280: e33b 9bbd ffcc 0f3e 7d07 5d3e 515d 903e
00000290: 5c30 4bbe fe3c 41be 56a4 85be f808 16bd
000002a0: 80b8 9e3e 5486 a9bd 34dc 6f3e 37ec 70bd
000002b0: c07c 5b3e cf4c 43be 6dc4 9dbb 2005 353e
000002c0: 4a69 8abc 65ab 8dbe 64a5 d6bd 5cdd 77bd
000002d0: d6ed b73b a623 c13c dcfb 363e 25b8 d03c
000002e0: 9315 363e 42a0 563e de14 aabe aea9 8b3e
000002f0: 8465 1abe 2bff 9cbe 2dac 96be 2908 15be
00000300: 4206 3bbe 874b a23d 32f4 ad3d 12ed 70bd
00000310: 4165 a3be dc28 35bd bf53 96bc 701b 883e
00000320: 1717 52be 03da 1f3d 02ad ef3d beab 4c3d
00000330: 478b f9bc 1f3e a1bb a7e2 16be 882e a53e
00000340: 78b9 4d3d 5d26 12bb 8fb0 c53d 904d 213e
00000350: 8253 8c3e 466b 073e 0020 3ebe f71c 67bd
00000360: f536 87bd d976 253e 0a2d 37ba 99c1 2e3e
00000370: 493a 9f3e c2ea 453e 5d67 a9be f3b6 63be
00000380: bd55 593d 7f27 55be 0e7c 85be 6a08 923e
00000390: 5eeb e73d 91ae dbbd c40e a03e 9154 96be
000003a0: 1b70 873d 315d babd 156b 8c3c 5733 e6bc
000003b0: aa71 a43e 1c14 113c 6aa5 dd3c 329f 8f3c
000003c0: ef3f 0abe bf57 fe3b bd55 34bc
-0.12103603 -0.15057375 -0.21281326 0.15597403 0.18839066 -0.09617696 0.24659215 0.1750817
0.018453492 0.19324856 -0.04060954 -0.06568563 0.10013882 0.056617364 0.029771985 -0.012862229
-0.0624588 -0.0522699 0.17281263 -0.19633438 -0.1468395 -0.28737023 -0.030744456 -0.2866973
0.0716007 0.13975178 0.03580916 -0.32114467 0.04598491 0.24319631 -0.28059882 -0.16406351
-0.017344622 -0.07821327 0.0925952 -0.28170428 -0.07059849 -0.04068661 -0.08065308 -0.02216459
-0.010984597 0.16188797 -0.02264429 0.2307261 0.20706794 0.13916999 -0.2817777 -0.099337295
0.32445768 -0.055147685 -0.078873254 -0.107361846 0.2603961 -0.24912362 -0.286005 -0.28686357
-0.3111131 -0.18760765 -0.32016867 -0.14683008 -0.2721426 -0.07559723 0.32312706 0.30260676
-0.20800865 -0.32023862 0.035852026 -0.057433926 0.18068923 0.012320163 0.22395104 -0.14291649
0.16952097 -0.08620542 0.3140821 -0.25038725 -0.1416844 -0.13776802 -0.14842746 0.014046674
-0.3034874 -0.2818642 -0.38900492 0.030139951 0.30007845 0.020145424 -0.124156095 -0.16644526
-0.20825726 0.25860822 0.19349867 -0.30407345 0.09475642 0.078177094 -0.100171156 -0.020117022
-0.29680896 0.26341844 -0.22614539 0.1986948 0.27981117 0.14244968 0.2182838 -0.13814381
-0.0717273 0.16672981 0.21845312 -0.24702096 -0.28029063 0.1131925 -0.15356834 -0.2703845
-0.10634868 0.09925718 -0.0715866 0.116943985 -0.07901248 -0.12922388 0.22362952 0.32288602
0.016547594 -0.15905057 0.15609479 0.0879167 0.07271387 0.2820295 -0.23216008 -0.1301361
0.2893473 -0.18698904 -0.1433699 -0.11743616 -0.1402905 0.17149512 -0.18296887 -0.139153
-0.104395926 -0.028749058 0.17536959 -0.048336107 -0.09080706 0.08179684 -0.02956286 0.099492416
0.117660746 -0.21615784 0.29739615 -0.20457812 -0.32911313 -0.2784525 0.2981087 -0.14902218
0.21252045 -0.32999992 -0.16365819 0.30653587 -0.28748372 -0.06622797 -0.14697933 -0.10868389
-0.07579782 0.14043044 0.21584888 0.28196195 -0.19842666 -0.18870923 -0.2610194 -0.036629647
0.31000137 -0.08277574 0.23423845 -0.058819022 0.21434307 -0.19072269 -0.0048146755 0.17677736
-0.016895909 -0.27669826 -0.104807645 -0.06051384 0.005613069 0.023576569 0.17869514 0.025478432
0.17781667 0.20959571 -0.33219045 0.27277893 -0.15077788 -0.30663428 -0.29428235 -0.14553894
-0.18264106 0.07924562 0.08493842 -0.058819838 -0.31913188 -0.04422842 -0.01835048 0.26583433
-0.2051662 0.03902627 0.117029205 0.049968474 -0.03046192 -0.0049207355 -0.14734899 0.32262063
0.050225705 -0.0022300698 0.096528165 0.15752244 0.2740746 0.13224515 -0.18566895 -0.056424107
-0.06602279 0.16158618 -0.00069876073 0.17066039 0.31099156 0.19327834 -0.33086672 -0.22237758
0.053060282 -0.20815848 -0.2607121 0.28522044 0.113241896 -0.10726655 0.31261265 -0.29361394
0.06613179 -0.09099806 0.017140904 -0.028100653 0.3211797 0.008854892 0.027056415 0.017531965
-0.13500951 0.007761925 -0.01100677

bias_ih_l0 f4 [27]
00000000: 2500 64be 0d1a 83bb ecf7 acbd 9ca5 0dbe
00000010: e766 4fbd c46b 9cbe 3a53 fd3d 4d37 42bd
00000020: 15c8 62bd b1e9 4bbc 973a 073e 628c 373e
00000030: eb5c 75be 1588 933e 5352 d1bd a7d6 84be
00000040: 8715 c4bc 53ab 553d dbac 9dbe d930 123e
00000050: a3c8 a43e 2d29 133d f211 973e a401 ebbd
00000060: 3d8d 33be a6dd 28bd 0576 433e
-0.2226568 -0.004000908 -0.08445725 -0.13832706 -0.050635245 -0.3055097 0.1236939 -0.04741602
-0.055366594 -0.012445853 0.13205944 0.17924646 -0.23961227 0.2881476 -0.1022078 -0.25945017
-0.023936046 0.05216534 -0.3079594 0.14276446 0.32184324 0.03592794 0.2950588 -0.11474922
-0.17534347 -0.041227005 0.1908799

bias_hh_l0 f4 [27]
00000000: 419e 1e3d 8231 b0bd 2c6b 0a3d a4d0 2ebe
00000010: 2ffb eb3d f25d 6b3e 3960 29be 4faf 8bbe
00000020: 0e27 bdbb df92 91be e28f c33d 3df8 07be
00000030: e39b 483e b339 343e 0719 94be 3365 8c3e
00000040: 99c0 2e3e 66ea 9abd 0ab8 c03c dc14 5f3e
00000050: 03d3 7fbe 9bfc c1bc a85e 7a3e 7833 1ebe
00000060: e2e7 81bd 5e80 2dbd 754c 7dbe
0.03872514 -0.08603193 0.033793613 -0.17071778 0.11522519 0.22985056 -0.16540612 -0.27282187
-0.005772478 -0.28432366 0.09548928 -0.13278289 0.19590716 0.17600136 -0.28925344 0.2742096
0.17065658 -0.07564239 0.023525257 0.21785301 -0.24982838 -0.023680022 0.24450171 -0.15449321
-0.06343056 -0.04235875 -0.24736197

weight f4 [9, 9]
00000000: 2e99 153e 0e2f 513e a248 c8bd 14f3 1f3e
00000010: 5038 563e 1e4d 163e adb5 303e 7089 56be
00000020: 76eb a0bb 27d6 4dbd 2d25 1a3e 129e 93be
00000030: b76c ee3d 47fa 963d 9891 bcbd ec18 683d
00000040: ecf6 07be 1ad1 33be e9a5 d3bc ffa8 3bbe
00000050: 1381 3dbe 5da4 c3bd 4f8a ca3d 304a a33e
00000060: ff65 d7bd 0b35 46be eae9 7e3e c21c bc3d
00000070: 1832 33bd 557f 093e 639a 6dbd bb7c 853e
00000080: 4d05 983d 7f19 2cbe e161 233d 5594 8dbe
00000090: 7814 f93c bc64 993c a771 7ebe 3955 89be
000000a0: 3e18 073e 71be 99be 9e73 1bbe e054 883e
000000b0: 1ebf 8dbe 4927 413e ff1b fd3d c862 4c3d
000000c0: cb99 a33d b7ec cf3d ff25 9b3e 5346 4fbd
000000d0: 8809 663e c5b1 253d ffa7 87be 271c 5b3e
000000e0: 4896 0fbe 8c07 693e 7148 a53e 0589 92be
000000f0: b658 88bd 39a8 5d3e 406b b738 b62f a5be
00000100: 53f0 8b3e d887 2cbe fac8 99bc cb6c ffbd
00000110: cc3c 9a3e 2f4c 8bbc bc0c debc 3183 e1bd
00000120: 6679 23bd 2c20 683d 8322 5ebd b65b 193e
00000130: cbe5 5dbe db48 4e3e 833d 883e b45d 343e
00000140: 94cd 963e
0.14609215 0.20428106 -0.097794786 0.1562007 0.20919919 0.14677855 0.17256804 -0.20950866
-0.0049108816 -0.05025306 0.15053244 -0.28831536 0.116418295 0.07371955 -0.09207457 0.056664392
-0.13277787 -0.17560235 -0.025835948 -0.18326186 -0.18506269 -0.09552834 0.098896615 0.31892538
-0.10517501 -0.19356172 0.24893919 0.091851726 -0.043748945 0.1342748 -0.058008563 0.26071724
0.07422886 -0.16806601 0.039888266 -0.2765223 0.030405268 0.018724792 -0.24848042 -0.26822832
0.13192841 -0.30028108 -0.15180823 0.26627254 -0.27684873 0.18862642 0.123588555 0.049898893
0.07988318 0.10152572 0.30302426 -0.050604176 0.22464573 0.040452737 -0.26495358 0.21397458
-0.14022171 0.22756785 0.3228183 -0.28620163 -0.06657545 0.21646203 8.746097e-05 -0.32262963
0.2733179 -0.16848695 -0.01877259 -0.124719225 0.3012451 -0.0170041 -0.027105682 -0.11011351
-0.039910696 0.056671306 -0.05423213 0.14976391 -0.2166969 0.2014498 0.2660943 0.1761387
0.2945372

bias f4 [9]
00000000: 53fd 6f3e 138f 89bd 4588 993e e05e 75be
00000010: 9f67 ab3e 40d1 903e daad 853e e32f 373e
00000020: b209 6f3e
0.2343648 -0.06716742 0.29986778 -0.23961973 0.33477494 0.28284645 0.261092 0.17889361
0.23343542

weight f4 [720, 18]
00000000: 91b0 c7bd ab7a 3d3e bf57 633e 0b41 103e
00000010: 73a7 a43d e91c f73d d8e8 9bbc 634a 933c
00000020: cbc6 263e 55ab 523e c3ab 1c3e f10f 8abd
00000030: 27ba 353e d71e 6c3d 2f74 05be c22f 8cbd
00000040: c3ea 42be f774 943c 7b98 613d a100 34be
00000050: 024d ed3d 06b5 43be 45bd 75be b75c 413d
00000060: fe91 87bc ae14 2ebc d052 1bbe 7383 a23d
00000070: 789a 213e cf1c 0fbe 94ee 3a3e 3aa4 143e
00000080: 5348 6a3e 0348 99bc e8b0 cfbc d0f2 63be
00000090: e884 23be 7fed 5ebe 8735 643e 588a a03d
000000a0: 7158 16be f77c a33d 6dfe dbbd 5526 3e3e
000000b0: 236f 6d3e 2e73 55be 9ac9 0ebe a4d4 773e
000000c0: 311d f53d 0d86 1bbe e1f8 fdbd 6f4d fbbd
000000d0: c6f2 3abe f6a6 ae3c 0387 3f3d 1e51 4e3e
000000e0: febb dd3c f6a5 29be c239 083d 77f1 d63d
000000f0: a08d f63c f3c6 5b3e 1860 083e 8499 88be
00000100: d668 8dbd 0954 d5bd fb95 c03d 2ddb 3a3d
00000110: 50ca 5dbe 6c6c 453e 17b4 883e 76b9 393c
00000120: 8fed 053d acb1 dfbd e93b 4abd 628d 523e
00000130: 96af 953d c72c 643d 17ed be3d c78d 61be
00000140: c3db f83d 7bc3 e3bd d4a7 4e3e 43ef 3a3e
00000150: 4d66 e6bb fba4 283c d5a1 023e f5b3 39be
00000160: 416d 3ebe 9e9a 3fbe 7f9d 92bd 5867 7dbd
00000170: 2dc1 ebbd 2af6 133e 0fd7 9d3d b997 c6bd
00000180: 1cc8 4ebe 0e99 80bd d857 6ebd ef7d 89bb
00000190: b22c c83d 1b20 743e 8da5 653d 9df9 773d
000001a0: cb3c 30be 1bd6 4d3e 8d1e 033e c28f 443d
000001b0: 3c67 e63d 7a8a 123e 7cb2 9cbc 7df3 8bbc
000001c0: 1227 0a3e 148b 713b fd80 35bd f046 30be
000001d0: 0ffc 08bc ace6 db3d 0812 e83d 7eba 4b3e
000001e0: d595 373d f805 cbbd 25df 13be ddc7 88bd
000001f0: d66f 54be aecf e4bd 6975 373e 7744 6a3e
00000200: 8ab2 26be cf6a 613d 921d 1bbe a4cb c13d
00000210: dd3d 513e a0eb 31be c75e 943d 966e 2a3e
00000220: d1db e73d f1c1 ddbd 46ad 3bbe 225f 063e
00000230: 63ca 76be 0e03 b53d 2421 ca3d d033 853d
00000240: 36b0 643e 101a 8b3d 214f 243e 112b 283d
00000250: 73cc b9bb 3e91 5a3e 2f07 53bb f06c da3c
00000260: 739e 903d a574 35be 8ec4 dcbd 7bd0 48be
00000270: 1acd 18be 57a0 353c e33b 983d d17c 43be
00000280: 3cc2 893d e28b 683d 8492 243c 3439 f13d
00000290: b002 ebbd d24f 29bd 42b7 433d 5f37 d53d
000002a0: 52eb 12be 0003 063e f76d 83bc bfd4 46bd
000002b0: 014f d9bc 0856 bfbd a1a0 143e 4d5a 0abe
000002c0: db58 01be 6cf0 453d 06e7 11bd b0b3 c0bc
000002d0: 654f 85bc 35fd f23d 970e 5bbe 448d c4bc
000002e0: 6561 af3d f7c3 42be 4831 a7bd bd61 713e
000002f0: 34ef fabc 1e1b dfbd b47d 6abc 3e7d 39be
00000300: cc02 473e 3d23 dcbc 5131 ca3d c927 fb3d
00000310: 2c76 553d 72c3 143d ea21 30be b816 413e
00000320: a2a7 643e 62fe e3bd 999f bf3c d0a1 5f3e
00000330: cae6 1a3e 99f4 a8bd 3c2a 173e 0608 103e
00000340: 5b17 1e3e ac89 08be aa1d 9c3d 98b0 33be
00000350: 29a6 ec3d 5f47 503b 98d1 3f3e 3c38 54be
00000360: 48e2 20be d6eb a7bd 378d 85bd a335 e6bd
00000370: c907 d43d c351 293d 20b4 1ebe 30fd 61be
00000380: b124 6cbe 22df 16be b5a7 25bc 35ed 5abe
00000390: 631d 3c3d 4292 3b3e f023 503d 8d7e 00be
000003a0: b001 223d 1236 bfbd f935 2cbe f4da 22be
000003b0: 0580 5fbe 31bd 58bd 6323 41be cb47 2dbe
000003c0: b5ed 27be 4370 f3bd c016 49be b773 063e
000003d0: 2192 4dbe 01a1 34be e58e 8e3b ffbb 633e
000003e0: 008a 64be 0873 193d 3bdd 83bc d5b7 583d
000003f0: 984f 593e eeff bdbd 903a 853d 0347 64be
-0.09750474 0.18503825 0.22201441 0.14087312 0.08039751 0.12066061 -0.019031927 0.017979806
0.16286771 0.2057317 0.15299897 -0.06741322 0.17746793 0.0576466 -0.13032602 -0.068450466
-0.19034867 0.01812218 0.055077057 -0.17578365 0.11586954 -0.19112024 -0.23997982 0.04720756
-0.016549107 -0.010625048 -0.15168309 0.07935228 0.15781581 -0.13975833 0.18255073 0.14515772
0.22879152 -0.018711096 -0.02535291 -0.22260594 -0.15968668 -0.21770285 0.22286044 0.07838887
-0.14682175 0.079828195 -0.10741887 0.1856931 0.23186927 -0.20844719 -0.13944092 0.2420221
0.119684584 -0.15187855 -0.124009855 -0.12270629 -0.18256673 0.021319848 0.046759617 0.20148131
0.02706718 -0.16567215 0.033258207 0.104952745 0.030096829 0.21462612 0.13317907 -0.26679623
-0.069047615 -0.10416419 0.094036065 0.04561918 -0.21659207 0.19279641 0.26699898 0.011335721
0.032697257 -0.1092256 -0.04937354 0.20561746 0.07308881 0.055706766 0.09322565 -0.2202674
0.12151291 -0.11121269 0.20181209 0.18255334 -0.007031238 0.010293241 0.12757047 -0.18135054
-0.18596365 -0.18711326 -0.07158946 -0.061866134 -0.11511455 0.14449373 0.07707035 -0.096969076
-0.20193523 -0.06279193 -0.058189243 -0.0041959207 0.0977415 0.23840372 0.056066085 0.060540784
-0.1721069 0.20101206 0.12804623 0.04798866 0.11250159 0.14310637 -0.019128077 -0.017083878
0.13491467 0.0036856579 -0.044312466 -0.1721456 -0.008360877 0.107373565 0.11331564 0.1989536
0.044820625 -0.09913248 -0.14440592 -0.06678746 -0.20745787 -0.11172424 0.17915882 0.2287768
-0.16279045 0.0550335 -0.15147999 0.094626695 0.20433755 -0.1737504 0.0724464 0.16643748
0.113212235 -0.10828007 -0.18327817 0.13122228 -0.24100642 0.08838473 0.09869602 0.06504023
0.22332844 0.067920804 0.1604581 0.041056696 -0.005670124 0.21344468 -0.0032200327 0.026663274
0.07061472 -0.17720278 -0.10779677 -0.19610779 -0.1492199 0.011085591 0.074332975 -0.19090582
0.067265004 0.056774028 0.010044698 0.11778489 -0.11475122 -0.04133589 0.04778219 0.10410952
-0.1434758 0.13087082 -0.016043646 -0.048542734 -0.02652693 -0.09342581 0.145144 -0.1351101
-0.12631552 0.048324987 -0.03562071 -0.023523182 -0.01627321 0.11864702 -0.21392284 -0.023993142
0.085634984 -0.19020067 -0.081636965 0.2357244 -0.030631639 -0.10893844 -0.0143121965 -0.18114182
0.1943466 -0.026872272 0.098726876 0.12263448 0.05211465 0.036319204 -0.17200437 0.18856323
0.22329572 -0.11132504 0.023391532 0.2183907 0.15127102 -0.08249778 0.14762205 0.1406556
0.15438597 -0.13333768 0.076228455 -0.17547834 0.1155513 0.0031780822 0.18732297 -0.20724577
-0.1571132 -0.08199279 -0.06521075 -0.11240699 0.103530474 0.04133774 -0.154984 -0.2206924
-0.23060872 -0.14733556 -0.010110785 -0.2137955 0.045926463 0.18317512 0.050815523 -0.12548275
0.03955239 -0.09336485 -0.16817464 -0.15903836 -0.2182618 -0.052914802 -0.18861155 -0.16921918
-0.16399272 -0.118866466 -0.19637585 0.13130079 -0.20075275 -0.17639543 0.0043505304 0.22239684
-0.22318268 0.037463218 -0.016096702 0.05290969 0.21221769 -0.0927733 0.065053105 -0.22292714
