RTSNet/checkpoints/LorenzAttracotor/DT/HNL/pass2of_rq1010_T20.pt (torch, 159723 bytes, 63 tensors)

weight_ih_l0 f4 [27, 15]
000000 29 ff 2b b3 a5 28 98 38 67 1d da 32 c0 dd a3 b5
       -4.0046107e-08 7.2554954e-05 2.539191e-08 -1.2208984e-06
000010 09 eb f6 38 d9 f0 99 b8 d9 6c 8d b9 89 c2 8f 36
       0.00011773973 -7.34047e-05 -0.00026974714 4.284379e-06
000020 e1 52 d8 b9 9e 86 24 39 e6 1f 17 39 34 a3 04 3a
       -0.0004126048 0.00015690408 0.00014412365 0.00050597196
000030 cc 7b 37 a6 d6 f7 f7 b6 bf 3b c2 b1 2e 63 07 36
       -6.3658655e-16 -7.3900255e-06 -5.6529355e-09 2.0174298e-06
000040 8f 39 c5 38 af 32 6c 36 d0 a6 fd b9 06 9b 06 3e
       9.404413e-05 3.5196242e-06 -0.00048380205 0.13145074
000050 94 c0 86 b8 1a 54 ac bb 3e 39 a3 0f 22 08 bd b8
       -6.4254884e-05 -0.005259049 1.609509e-29 -9.013737e-05
000060 bf b7 1a be 5c aa 78 3e 1e 6c 48 3e 1e f1 1d 93
       -0.15109156 0.24283737 0.19572493 -1.9935066e-27
000070 47 62 26 b7 c0 5f 9f 2b 43 44 63 b6 de 5e d0 b9
       -9.917253e-06 1.1324205e-12 -3.386537e-06 -0.00039743533
000080 fd 1c 41 35 5f 79 ca 37 83 57 6d be dc 77 18 3a
       7.1940286e-07 2.4136794e-05 -0.23177914 0.00058162
000090 1f c8 be 3c 24 3d d3 99 0a ee 9c 3b cd 59 20 bd
       0.023288785 -2.1841583e-23 0.0047891187 -0.03914814
0000a0 35 37 ba 3d e0 ff 4d 3e 8d 9f b2 2a 32 f7 60 36
       0.09092561 0.2011714 3.1729862e-13 3.3522488e-06
0000b0 5b 1f 4f 14 ce 3e 67 31 d5 71 26 37 b7 70 d7 b2
       1.0457013e-26 3.3650625e-09 9.920875e-06 -2.5080551e-08
0000c0 fe 82 4e b6 db c3 d4 3c 43 d8 94 b6 d4 5a 99 b6
       -3.077264e-06 0.025972297 -4.43592e-06 -4.570329e-06
0000d0 9f 79 a6 1a c8 7e 75 b7 61 24 9f bc 5e ad a7 bc
       6.885248e-23 -1.46326565e-05 -0.019426527 -0.02046841
0000e0 81 1c 7c bb 69 43 bc b6 f6 7c 38 34 0d be 16 35
       -0.0038469138 -5.610684e-06 1.7181796e-07 5.6155915e-07
0000f0 36 9f 30 36 73 c6 d8 b9 62 47 00 b6 c0 39 e2 b8
       2.6318717e-06 -0.00041346587 -1.9115037e-06 -0.000107872766
000100 12 35 89 3e de 07 03 ba 79 05 5a bb 31 c2 64 b4
       0.26798302 -0.0004998426 -0.0033267422 -2.1304801e-07
000110 c1 39 0b bb 25 58 c1 3d 5b 90 9a bd 11 14 c3 bd
       -0.002124414 0.0944064 -0.07547065 -0.09525312
000120 a5 9d 87 2a 55 76 45 b7 db 16 2e 2a c8 82 d1 b7
       2.4090205e-13 -1.1769666e-05 1.5462234e-13 -2.4975641e-05
000130 64 2f bb 39 14 e6 01 35 34 8a 84 b6 74 b1 1a bd
       0.00035702728 4.839105e-07 -3.9499955e-06 -0.03776689
000140 af 40 05 37 0c f9 19 39 27 dd c9 1b 0a 8b df b9
       7.942478e-06 0.00014683994 3.3395577e-22 -0.00042637467
000150 be 53 ad ba ba f1 04 3d 8d e3 14 3e d0 47 d9 aa
       -0.001322381 0.03245709 0.14539929 -3.8596773e-13
000160 ff 46 52 b6 e1 20 ce b5 c6 bc 0c b6 69 dd 89 b8
       -3.1333764e-06 -1.5357765e-06 -2.0971506e-06 -6.57391e-05
000170 2c 86 0d 35 d2 53 0a 38 d6 39 38 3e 8b f3 97 39
       5.272184e-07 3.2979828e-05 0.17990813 0.00028982418
000180 a0 57 87 3a 7e 98 4b 91 db e1 92 3a f9 be de bd
       0.0010325797 -1.6060867e-28 0.0011206226 -0.10876269
000190 44 68 c5 bd b8 b5 dd bd e5 af 7f a7 7a bd 88 36
       -0.09639028 -0.10825676 -3.5483712e-15 4.075174e-06
0001a0 f0 4a 3a 94 13 f3 cc 35 1c 44 f0 39 a7 48 a7 32
       -9.405379e-27 1.5269928e-06 0.00045827113 1.9474397e-08
0001b0 8e b7 dd 36 71 af 43 3d d2 8c 85 b9 6a 2c 75 bc
       6.607682e-06 0.047774736 -0.00025472656 -0.014964202
0001c0 bc f4 75 0e fa f4 9b 3b cb 0d 69 be af f3 c3 3d
       3.0316417e-30 0.004759428 -0.22759168 0.09567963
0001d0 df 6f c9 3d b7 6b 89 2a c6 8b 1e b4 64 55 06 20
       0.09835791 2.441083e-13 -1.4765746e-07 1.1378495e-19
0001e0 00 e3 c1 b4 61 16 b8 37 8b f9 3e 35 e2 7c 0f 37
       -3.6114216e-07 2.194493e-05 7.114365e-07 8.552541e-06
0001f0 e7 f9 1a bc 37 47 30 39 27 e5 fc 39 39 ef 4f 91
       -0.009458995 0.00016811198 0.00048235917 -1.6403137e-28
000200 c2 f2 02 3a 86 ae f4 38 d2 b5 e6 b8 99 c5 46 3b
       0.000499528 0.00011667334 -0.00011001121 0.003033018
000210 d2 48 d2 13 19 55 28 36 31 1e d5 a5 a9 24 a4 34
       5.308326e-27 2.5083484e-06 -3.6970069e-16 3.0574054e-07
000220 e2 9a f8 b7 7a 74 13 34 c1 5d 2d b7 01 10 a1 3a
       -2.9636027e-05 1.3732816e-07 -1.0333432e-05 0.0012288095
000230 b2 46 f2 b8 d8 c5 50 ba f6 cd 19 92 cb cc 68 ba
       -0.00011552627 -0.00079640513 -4.8532154e-28 -0.0008880614
000240 8d 4b 39 3a 24 ba 68 3a 0a 13 9b bb d9 14 48 91
       0.0007068448 0.0008877835 -0.0047324942 -1.5783642e-28
000250 ff 18 87 36 e3 27 69 10 f9 59 82 b4 47 23 b1 b8
       4.0262235e-06 4.5981875e-29 -2.427985e-07 -8.4465886e-05
000260 1f 20 ff b4 23 95 8e b7 be 29 a9 ba 31 04 6b b7
       -4.7520822e-07 -1.6997166e-05 -0.0012906117 -1.4008067e-05
000270 4c 90 01 ba 0f 31 b3 0f 8a b8 38 b9 71 fe 10 bb
       -0.00049424614 1.766966e-29 -0.00017616354 -0.0022124315
000280 a8 d2 a2 ba 09 70 85 bb 15 37 6f 90 56 46 bc b6
       -0.00124224 -0.0040721935 -4.7176873e-29 -5.611025e-06
000290 b5 cb 53 10 bf 48 92 35 d4 fd ae 39 3c 66 75 35
       4.1769343e-29 1.089902e-06 0.00033376983 9.1418383e-07
0002a0 bc 33 0c b7 48 a4 80 3b 39 78 11 b7 d8 35 83 3c
       -8.356696e-06 0.003925834 -8.670665e-06 0.016016886
0002b0 33 53 10 35 33 bc 7c 39 86 7d 8d bd 94 63 00 3c
       5.376525e-07 0.00024102702 -0.06908707 0.007836241
0002c0 a6 4f f4 bd 72 e6 80 b6 2a 84 96 34 6f 26 36 32
       -0.11929254 -3.8415246e-06 2.803584e-07 1.0602533e-08
0002d0 e2 d7 b7 b4 18 ea a2 b8 1b 45 3a 34 44 6d 17 b8
       -3.4243482e-07 -7.768365e-05 1.734774e-07 -3.6102967e-05
0002e0 ef 62 b9 b8 1b 6a 5e b9 08 ec 58 ba 70 9e aa b2
       -8.839915e-05 -0.00021211097 -0.00082749175 -1.9862654e-08
0002f0 6a fb 57 ba 97 c5 e4 39 32 44 80 39 99 b8 24 3a
       -0.0008239063 0.00043634765 0.00024464872 0.0006283611
000300 05 07 bf 9c e8 b1 0b b6 43 73 9a 37 41 0a 1b 34
       -1.2641134e-21 -2.081617e-06 1.8411904e-05 1.443923e-07
000310 68 48 30 b9 ef 35 72 b5 3e 22 4d 38 50 df fb bc
       -0.00016811641 -9.023051e-07 4.89077e-05 -0.030746132
000320 76 18 5d b9 54 e1 ea ba 3b cd d1 37 8b 77 8e ba
       -0.00021085315 -0.0017919936 2.501031e-05 -0.0010869367
000330 fb 62 66 ba ce 54 e3 bb 23 1e 3b 3d f0 93 a5 19
       -0.0008788553 -0.0069375997 0.045683037 1.7120352e-23
000340 64 9e ac b6 d7 13 05 33 6e c7 92 b2 71 b5 39 38
       -5.1444385e-06 3.098452e-08 -1.7087327e-08 4.4276418e-05
000350 fc 52 96 b3 c3 e8 9b 36 83 90 30 b9 16 e4 04 b8
       -7.000014e-08 4.646457e-06 -0.00016838503 -3.1683674e-05
000360 6d 4d c3 39 46 67 e3 b5 21 59 a8 39 85 cb 25 38
       0.00037250985 -1.6942874e-06 0.00032109863 3.9528608e-05
000370 e2 c0 1d b9 72 67 7a b9 a6 f9 b5 b2 f8 cb 10 b5
       -0.00015044541 -0.00023880394 -2.11847e-08 -5.3940994e-07
000380 74 c2 2a 37 ad aa 33 35 c7 fb 32 b8 a4 fa b6 b5
       1.0178064e-05 6.693106e-07 -4.2672993e-05 -1.3633003e-06
000390 98 57 53 38 f3 4e 88 3c 76 eb df b8 79 d2 48 ba
       5.03879e-05 0.016639208 -0.00010677327 -0.00076607574
0003a0 14 f9 97 35 06 57 1c ba 74 b6 c7 bb 11 3e 47 3a
       1.1322868e-06 -0.0005963895 -0.006094748 0.0007600496
0003b0 a7 86 a2 bc 5c 0b 66 96 60 af f8 b6 8e 12 00 2f
       -0.019839598 -1.8582836e-25 -7.4113923e-06 1.1648124e-10
0003c0 00 61 22 af 1a 47 46 39 c2 65 9b b4 1a a4 ac 34
       -1.4768275e-10 0.00018909239 -2.8945038e-07 3.2156896e-07
0003d0 01 9d 08 3e 02 4a 41 b9 6e a2 8a bb 57 93 22 a6
       0.13341142 -0.00018433484 -0.004230789 -5.6404723e-16
0003e0 66 ad 8d bc 4b a8 dc bc bb c2 b6 bd 20 9e 0d 3e
       -0.017294597 -0.026935717 -0.08923861 0.13829851
0003f0 05 17 cc 93 07 2f ef b7 ef 11 bc 8f d2 14 b0 37
       -5.151954e-27 -2.8512919e-05 -1.8545139e-29 2.099053e-05

weight_hh_l0 f4 [27, 9]
000000 5e 18 80 37 e6 04 1a b7 39 67 eb b8 85 11 33 38
       1.5270136e-05 -9.180256e-06 -0.000112249 4.2693242e-05
000010 97 9c be b7 1c 3b 5d b8 44 bd 3d 37 29 1f 15 38
       -2.2722683e-05 -5.2745556e-05 1.1309345e-05 3.555339e-05
000020 c8 9a 39 b7 44 28 a8 bd 11 ad 3f 3e 2d 81 72 3e
       -1.1062897e-05 -0.08210805 0.18718363 0.23682089
000030 6f 29 44 3e 32 a4 d7 bb 95 53 95 3d 70 ed 56 3e
       0.1915643 -0.006580853 0.07291333 0.20989013
000040 43 35 82 3c c5 6c 2c 3e 26 de bc 3c 83 ea a4 bd
       0.015894538 0.16838367 0.023055147 -0.08052542
000050 e3 ad 01 3e f0 44 cb bc 7f 70 38 bb 23 d8 e9 bd
       0.12663989 -0.024813145 -0.0028143225 -0.11418178
000060 e8 65 c3 3c c7 69 6e bd 62 43 b9 bc 5f 06 07 3c
       0.023852304 -0.058206346 -0.022615138 0.008241265
000070 e5 30 2e 3d 26 ff 82 3b 0d bf 16 38 aa 22 7d b8
       0.0425271 0.003997701 3.5940717e-05 -6.0352184e-05
000080 32 f8 14 bd 4d c9 57 3d 77 88 6f 39 4c 1b 4d 37
       -0.03636951 0.05268221 0.00022843653 1.2225308e-05
000090 85 70 1c 3e 43 d6 32 3e 49 12 bd bd 7b 42 72 3c
       0.15277298 0.17464547 -0.09232003 0.014786358
0000a0 6c 7e c3 ba 59 a2 12 3c 2c 16 8a be a7 a9 8f 3d
       -0.0014914996 0.0089498395 -0.2697004 0.070147805
0000b0 14 ca 33 ba 4b 0c fa 3c 59 c2 7f 3c d8 ea 7b 3d
       -0.000685842 0.03052344 0.015610301 0.06150326
0000c0 01 4a a5 3a 21 31 63 b9 96 b9 bd bd 21 4e 65 bd
       0.0012610556 -0.00021666709 -0.09263913 -0.055982713
0000d0 86 65 c1 3a 1f 34 ea b9 98 62 f9 3c 32 47 94 3d
       0.0014754988 -0.0004467079 0.030442521 0.07240142
0000e0 3f ab 0f 3d 38 1b cf bc 5e 87 7e 3a 2a 45 a6 bd
       0.035075422 -0.025281534 0.00097095023 -0.08118661
0000f0 00 6d 12 3e 2c 9d 3f 3b aa d5 82 ba b6 1d 26 be
       0.14299393 0.002923797 -0.000998189 -0.16222271
000100 25 4f 6c bd 42 94 56 be d3 ea 9a 3d 17 6d 71 3c
       -0.057692666 -0.20954993 0.075643204 0.014735482
000110 5e 0e b5 bd 17 0b 3e be 8e 09 3e 3e 3b a1 31 3e
       -0.08840631 -0.18558918 0.18558332 0.17346661
000120 b7 bf 94 b9 b3 ae d7 39 7f 23 cc 39 50 3a 6c b9
       -0.00028371598 0.00041138157 0.0003893636 -0.00022528437
000130 cc 28 1a 3b 3e ae 55 ba 44 61 06 ba c9 a1 89 b9
       0.0023522852 -0.0008151269 -0.0005126188 -0.00026251216
000140 38 b3 68 b9 93 42 1c 3a 2f ca 44 39 f5 fa 7d ba
       -0.00022192008 0.0005960848 0.00018767336 -0.00096885796
000150 e0 72 30 39 ae 23 c2 39 bc 61 ca b8 12 c2 db 3a
       0.00016827462 0.00037029147 -9.650315e-05 0.0016766211
000160 e8 b0 8c 39 52 09 f5 b8 f0 50 83 ba b5 cf 18 3b
       0.00026834686 -0.000116842464 -0.0010018628 0.0023317162
000170 9b ea 37 ba 6c f3 29 ba bf bf 8e ba 35 d4 99 3b
       -0.0007015855 -0.0006483111 -0.0010890885 0.0046944865
000180 16 43 9c 38 b7 64 5b 3a 7a 42 2f 3a b6 50 4a ba
       7.4511554e-05 0.00083691947 0.0006685626 -0.00077177153
000190 a4 56 35 3d e0 c6 8e 3b 30 74 9c bb 53 da 4f 3b
       0.04427208 0.004357204 -0.004774593 0.0031715825
0001a0 0c bc 3f bd 53 e1 4c 3b e4 2f 8d bd 2a c8 5b 3d
       -0.046810195 0.0031262233 -0.068939 0.05365769
0001b0 18 1f 8c b8 1b b6 f9 39 8f 1c 5d 36 2c 1b 02 37
       -6.681512e-05 0.0004762866 3.294819e-06 7.75493e-06
0001c0 69 46 11 38 77 5f 13 3a d2 21 1a 3a 03 6a 7c b9
       3.463627e-05 0.00056218304 0.00058796734 -0.00024072085
0001d0 5f eb 3b 39 5d f4 ab bb c7 d4 1f bd b7 08 57 3c
       0.00017921392 -0.005247636 -0.03902128 0.013124636
0001e0 fb 11 80 ba 35 b1 25 3a cb c0 fc bc 23 00 d3 3d
       -0.0009770984 0.00063206564 -0.03085365 0.103027605
0001f0 10 59 a7 3b 7a 53 61 bb ca 2a a6 39 20 5c 5e b9
       0.0051070526 -0.0034382031 0.00031693868 -0.00021205889
000200 6c 03 7e 38 02 a3 99 38 f9 e0 32 b8 60 70 47 b8
       6.0561506e-05 7.325971e-05 -4.264803e-05 -4.7549955e-05
000210 d3 5e 5f b9 9a a3 07 38 9c 3f 84 37 fc e6 35 3a
       -0.00021302262 3.2338874e-05 1.5765247e-05 0.00069390214
000220 9b f7 17 3c 1f 77 52 3a 15 95 3c ba 1c 7d 9e 39
       0.009275342 0.00080286147 -0.0007193846 0.00030229322
000230 85 c9 ea 3c 5d 99 60 bd 03 00 8a 3a fc 72 84 3a
       0.028660545 -0.05483376 0.0010528568 0.0010105069
000240 27 b7 c9 3b dd 43 d7 bc 3a 85 c6 bc bb e3 85 bb
       0.0061558667 -0.026277477 -0.02423345 -0.0040859855
000250 58 5b fc 3a 8a 9c 4b 3d 8c 92 e8 bb cb 83 c1 b8
       0.0019253297 0.049709834 -0.007097548 -9.2275055e-05
000260 cf 8a f0 3c ed 71 13 3a 7f aa 6a b9 b7 24 8f ba
       0.029363064 0.0005624581 -0.00022379494 -0.0010920976
000270 be 35 14 39 b9 09 52 3a 2c 90 34 ba f0 b3 21 ba
       0.000141344 0.0008012313 -0.00068879384 -0.00061684754
000280 40 55 cb b8 0b 06 80 39 30 ed db bb a5 ff 1c 3b
       -9.695673e-05 0.00024418565 -0.0067116246 0.0023956087
000290 4e 72 5c bd 0a d7 55 3b d1 5b eb bd f1 21 23 bd
       -0.053819947 0.0032629394 -0.11492122 -0.03982729
0002a0 04 1b 33 3e 48 b2 fe 3d e0 f6 7e bd 9f 4e 83 be
       0.17490774 0.12436348 -0.062247157 -0.2564592
0002b0 75 50 c5 bd bc ea 72 be 9b 7c 03 be d2 20 3c 3d
       -0.096344866 -0.23722357 -0.12840502 0.045929737
0002c0 19 96 92 3e c4 59 25 bd 67 0c 68 be 1a 66 28 bd
       0.2863014 -0.04036881 -0.22660981 -0.041112997
0002d0 e8 de 3c 3d 58 43 a1 be e6 da 97 bd ac 98 51 3d
       0.046111017 -0.31496692 -0.074147984 0.05117099
0002e0 95 97 1c be 78 b6 5d be a0 7c 2a be 68 e3 eb bc
       -0.15292199 -0.21651638 -0.16649103 -0.02879496
0002f0 46 15 2e be dc 50 7b 3d 10 bf 4c 3e e1 86 73 3e
       -0.17000303 0.06135641 0.1999476 0.23781921
000300 72 3a 36 3e 42 78 f9 3d df 5e 85 bb dc 97 1e be
       0.17795733 0.121811405 -0.0040701474 -0.15487617
000310 17 c6 0f 3e e5 d8 c0 3d 5a 37 37 bd 05 d6 59 3e
       0.14040409 0.09416369 -0.04473052 0.21273048
000320 f6 9c 0b 3d 10 89 8c 3d 95 3a eb 3a f6 ca 82 be
       0.034085236 0.0686208 0.0017946536 -0.25545472
000330 68 a1 30 3e 79 f6 d7 bb 5c 31 04 be 02 35 ab bd
       0.17249072 -0.006590661 -0.12909454 -0.0835972
000340 7b c4 8d 3e 0d ef 72 3d 39 b4 15 3e 29 d1 0b be
       0.27688965 0.059310008 0.1461953 -0.13654007
000350 f5 d9 6f 3d 62 e7 d9 bc c3 9d 9a 3d 3d a6 27 be
       0.05855747 -0.02659959 0.07549622 -0.16372009
000360 17 7a 8d be 12 5a 91 3e fb b8 ee bd bf 8c 3a b9
       -0.2763221 0.2838903 -0.11656376 -0.00017790774
000370 39 4a f9 bd 36 f7 3d 3e 61 87 92 be 95 4a 30 be
       -0.1217236 0.18551335 -0.2861891 -0.17215951
000380 a4 0d df bd 42 d4 63 be 2d 6f 2a bd 8e ca a1 be
       -0.108912736 -0.22248939 -0.04160993 -0.3159985
000390 02 48 8b 3e ef 7c 4e 3d a9 01 8f be 41 63 98 bd
       0.27203375 0.050412115 -0.27930954 -0.07440806
0003a0 81 e2 b9 ba 2b ff 6b 3e d5 83 a2 3d 8e 67 80 3e
       -0.0014181883 0.23046558 0.07935301 0.25079006
0003b0 27 23 57 be fb 3e 87 3d 8d f2 36 bd 3a d0 98 3d
       -0.21009503 0.066038094 -0.04466491 0.07461591
0003c0 7c 55 92 3e e3 fe a0 3c 4a ed 17 bd
       0.28580844 0.01965279 -0.03709153

bias_ih_l0 f4 [27]
000000 2b 12 96 b8 46 7f c9 3d 6a f9 4a bc ea a9 93 3d
       -7.1559414e-05 0.098387286 -0.0123885665 0.07210143
000010 d9 a5 af 3d c2 73 38 3e 3e a6 56 3e 1e 47 3b 3e
       0.08576555 0.18012908 0.20961854 0.18288848
000020 f4 be 5c 3c dc 1e 2d bc 30 54 92 bc cf 65 dd bd
       0.013473261 -0.0105664395 -0.01786241 -0.10810434
000030 36 99 b2 ba 36 69 aa 3c f3 01 06 3a 5e d7 2b bd
       -0.0013625983 0.020802122 0.0005111985 -0.041953437
000040 d6 fa 18 be 05 7f ea 3b f0 cb 13 3e 30 84 82 be
       -0.14939436 0.007156255 0.14433265 -0.25491476
000050 31 b1 47 3c 65 c5 a0 3d 83 f2 1e 3e 2e 2a a6 be
       0.012188242 0.0785015 0.15522198 -0.32454056
000060 b1 43 aa be 6c 16 a2 be 68 a0 bc bd
       -0.3325477 -0.31657732 -0.092102826

bias_hh_l0 f4 [27]
000000 69 98 75 bb 3b 01 9e be b8 cd ec bd 3d 7c ce bd
       -0.0037474877 -0.30860314 -0.11562675 -0.1008229
000010 ef 3a 21 be 4d f1 d9 3d 46 d9 0b bd df ce 2d bd
       -0.15745138 0.106417276 -0.034142755 -0.042433616
000020 84 bc 84 bb c0 80 16 b9 72 c5 86 bc e2 53 02 be
       -0.004050793 -0.00014353078 -0.016451571 -0.12727311
000030 cb b0 c9 ba 81 93 17 bc 67 91 14 3a ed e7 47 3c
       -0.0015387771 -0.009251476 0.00056674186 0.0122012915
000040 1c 5b 38 3e 30 38 91 3b ad 01 49 3d c9 48 96 be
       0.18003505 0.004431747 0.049073864 -0.29352406
000050 b2 24 35 be 8d 13 1f 3c 89 eb 85 be 34 19 fe bd
       -0.1768978 0.009709251 -0.26156262 -0.12407151
000060 14 f8 44 be 23 55 41 3e 22 90 14 3e
       -0.1923526 0.18880133 0.14508107

weight_ih_l0 f4 [27, 24]
000000 43 5c 10 be 17 8f 6f 3d 11 3a 3b 3e 17 87 0f bd
       -0.14097695 0.05848607 0.1828387 -0.03504094
000010 ed eb e2 bc 30 3f 82 3e 56 00 1f bc 02 74 f3 3d
       -0.027700389 0.25438833 -0.00970467 0.11887361
000020 d1 90 27 be 3b c5 1b bd f5 c0 7a 3b 50 bc 2c bc
       -0.16363837 -0.03802989 0.0038261984 -0.010542944
000030 09 b2 65 be 58 20 40 3c 04 24 a8 3c 53 4e 4a 3e
       -0.22431196 0.011726461 0.020524986 0.19756441
000040 b3 2c 62 be 66 1e 6d be c3 3b f8 bd ea 0f 4d bd
       -0.22087364 -0.23156127 -0.12120774 -0.050064005
000050 b5 35 01 3e 33 da 16 3e ea 9e 4c 3d bb 87 7c bd
       0.12618144 0.14731674 0.04995624 -0.06165288
000060 89 9d f0 bb 27 21 76 3d e4 78 31 bd 30 dc 49 39
       -0.0073429984 0.06009021 -0.04332818 0.0001925088
000070 f4 aa 06 3c 73 71 cb b9 5c 9c 12 bc d5 21 a9 b9
       0.008219469 -0.00038803704 -0.008948412 -0.000322594
000080 1a 3d b4 38 5b 95 ec bb 69 a2 94 ba cd 0e 4d bd
       8.59445e-05 -0.007219953 -0.0011339906 -0.050062943
000090 31 30 c3 3a b7 08 6d 39 51 89 38 bd 49 bc a3 3b
       0.0014891681 0.00022605328 -0.04505283 0.0049968106
0000a0 e6 3f fa bd 93 0b f6 3c 9b 76 7c bd 65 8c 5b 3d
       -0.12219219 0.030034816 -0.06163655 0.053600688
0000b0 ec 04 a4 3b 03 17 55 b8 fa ac 26 bc f1 d0 aa 3d
       0.0050054695 -5.080459e-05 -0.010173077 0.08340634
0000c0 8d 52 49 3a f5 b5 10 3c ab 90 84 b9 3a ae 38 39
       0.00076798425 0.008832444 -0.00025284788 0.00017612512
0000d0 7f 99 64 3a 90 ef 2c bb 47 91 af bc 83 ea 8c ba
       0.00087203825 -0.0026387908 -0.021431578 -0.0010751042
0000e0 9b 1b 8d ba cf b3 82 b7 0b 08 86 b9 1e cc 3a 38
       -0.0010765673 -1.5580938e-05 -0.00025564464 4.4535955e-05
0000f0 5c 9d dc 3a fc a9 85 39 86 cd 40 b8 37 91 90 38
       0.0016831565 0.00025494385 -4.5967776e-05 6.8935035e-05
000100 bc 08 73 3d f9 0d 52 bb 24 36 64 3a df 2f 14 3b
       0.0593345 -0.0032051785 0.00087055773 0.0022611541
000110 e8 c2 83 38 a8 da b1 34 0e 81 0e ba eb f5 c0 3a
       6.282871e-05 3.3127913e-07 -0.0005436101 0.0014721727
000120 ab c1 27 be f2 fe ce 3d b4 55 52 3e bc 20 85 3c
       -0.16382472 0.10107221 0.20540506 0.01625096
000130 88 4a 3e ba 3d 7d 33 3d 73 af 63 be 02 e0 ad 3c
       -0.0007259031 0.04382061 -0.22234897 0.02122498
000140 8e 20 d0 3d 3f 20 4b 3c e7 f0 5c 3c d2 fd 07 bd
       0.10162459 0.012397825 0.01348517 -0.033201046
000150 63 5e df 3c bd 8c 8f bb 56 12 11 bc 6b e6 98 bd
       0.027266687 -0.004380791 -0.008854469 -0.07465824
000160 a0 cb 6a 3d 8f 60 db bd 6f ec 26 be 9d 3b 30 be
       0.0573231 -0.107117765 -0.1630113 -0.1721024
000170 88 87 2d be b1 25 c2 bd 83 5e be bc dc 32 66 be
       -0.16946232 -0.09479845 -0.023238426 -0.22480339
000180 61 3d eb 3d 4c 22 3f bb fe 7f 7b be 7e 19 0a 3c
       0.114863165 -0.002916473 -0.24560544 0.008428929
000190 22 84 d3 3c ff 97 94 3e e7 7e 68 be c5 64 c7 3d
       0.025819842 0.29022214 -0.2270466 0.09736017
0001a0 61 16 fd 3d 08 5c 2a bd fa b9 de 3d 52 f0 3e be
       0.12357784 -0.041591674 0.10875316 -0.18646362
0001b0 0b 1e 00 bc b9 3c 80 3c f7 3d 62 3e 69 70 5a 3d
       -0.007819663 0.015653955 0.2209395 0.05332986
0001c0 04 cb 3a 3e bb 00 d5 bd 3a b3 47 bd ae 7e 0c bd
       0.18241507 -0.1040053 -0.04875491 -0.0343005
0001d0 9b 25 00 3d cd e9 db bd 5f c9 90 3d 98 85 c1 bd
       0.031285863 -0.10737953 0.070696585 -0.09449309
0001e0 c0 61 4e b5 22 80 22 39 d6 07 bd b8 d6 67 d0 37
       -7.6883225e-07 0.00015497257 -9.013682e-05 2.4843885e-05
0001f0 38 40 0f b8 90 3e e4 38 f8 1d 77 3a 3e ae 03 39
       -3.4153665e-05 0.000108835404 0.0009426768 0.00012558044
000200 e5 80 e9 38 81 a2 ed b8 4c d8 65 b8 ce db 35 b9
       0.00011134314 -0.00011331309 -5.4799297e-05 -0.00017343389
000210 8d 35 af 39 ce 2a 17 b9 31 b6 2d b8 a8 f2 92 b6
       0.000334185 -0.00014416428 -4.1416093e-05 -4.379388e-06
000220 d7 80 53 3c 83 7f 85 ba ff ea ac bb 3a ab eb b9
       0.012909136 -0.0010185096 -0.005277037 -0.00044950267
000230 bb 14 29 bb 44 f0 23 b9 03 53 21 b9 c8 89 cc 3b
       -0.002579971 -0.00015634397 -0.00015385081 0.0062420107
000240 0d 35 db 37 0f c1 89 b8 59 07 2e b8 86 59 bb 36
       2.6131538e-05 -6.568629e-05 -4.1491676e-05 5.583456e-06
000250 fc 7c f6 37 bd d6 32 3a aa 4f ca b8 57 23 23 b8
       2.9383686e-05 0.00068221596 -9.646949e-05 -3.889514e-05
000260 4a 1d 6a 37 2c 97 07 36 6e 6c c7 b5 dd ae b3 b8
       1.3954306e-05 2.0204561e-06 -1.4858213e-06 -8.567956e-05
000270 0c f0 d1 3a 64 bf 99 37 b0 82 b6 b7 7e 31 30 b8
       0.0016016974 1.8328145e-05 -2.1756947e-05 -4.2007763e-05
000280 b3 ac 64 bc 0a bc a6 b8 ef 85 18 39 0b 88 ae b8
       -0.01395719 -7.950522e-05 0.00014545744 -8.3223065e-05
000290 92 60 ab b8 1d eb 8a b7 50 82 75 b8 78 1e 9c 36
       -8.171903e-05 -1.6560365e-05 -5.8533915e-05 4.6527093e-06
0002a0 49 2b 14 3a 60 6b 19 3b 35 1e 7e 3b 1e e2 49 39
       0.0005652202 0.0023409948 0.003877533 0.00019253089
0002b0 83 24 2a ba 08 d0 c1 3a 73 1f c6 3c 65 9e d6 39
       -0.0006490426 0.001478673 0.024184918 0.00040935274
0002c0 1d e3 0b 3a 46 fe 22 b9 97 2f c8 39 a5 4f 15 3a
       0.0005336272 -0.00015544248 0.0003818243 0.0005695767
0002d0 46 51 91 39 69 40 0b ba dc 1d 01 3a 41 5e b4 37
       0.0002771711 -0.0005312027 0.0004925409 2.1501563e-05
0002e0 3a 5d 13 b8 9b 51 55 3d 43 c5 4b ba 22 7e d7 3c
       -3.5134355e-05 0.05207978 -0.000777323 0.026305262
0002f0 e4 2c 28 bb b7 ac f7 38 28 08 4c 3a 2b 60 a6 3b
       -0.0025661523 0.000118100485 0.0007783198 0.005077382
000300 64 de 5c ba 44 6f a1 3b 7f 11 59 3b b1 3c 17 39
       -0.0008425473 0.004926594 0.0033122 0.00014423091
000310 ab e0 e3 ba 94 1e 72 3b 1a dc 2f 3b 36 d5 d6 3a
       -0.0017385682 0.0036944496 0.0026834072 0.0016390446
000320 a0 82 1d 3b 8e b8 b1 39 49 ad f0 39 e7 5f 5e bc
       0.0024034157 0.00033897575 0.00045905475 -0.01357267
000330 ad 97 1d 3c 8e 2e 9f 39 82 67 6b 3c a0 69 07 bd
       0.009618682 0.0003036153 0.01436794 -0.033059716
000340 12 aa a5 bd d4 1c 32 bd 26 cb f5 b9 48 06 3c bd
       -0.08089079 -0.043484524 -0.000468814 -0.045904428
000350 74 0e 63 bd 79 d7 19 b9 09 43 65 bc 9b 1e a5 b8
       -0.055433705 -0.00014671487 -0.013993033 -7.873514e-05
000360 e8 db 7f 3e d8 61 96 3d 81 7b 23 bd c3 29 41 3e
       0.24986231 0.07342881 -0.039912704 0.18863587
000370 62 22 41 be cc 07 41 3d d9 70 0f 3e 60 a8 89 3e
       -0.18860772 0.047126576 0.14007892 0.26886272
000380 f1 10 6d 3d 27 1c 8f bd 76 80 c6 3c da 03 cd 3c
       0.057877485 -0.069877915 0.024231177 0.02502625
000390 72 b2 b7 3d 4c 97 e1 bc a4 58 79 bd f9 c2 b6 3c
       0.089695826 -0.027537964 -0.06087555 0.022309767
0003a0 19 3d 45 be 01 52 6b bd f0 00 22 be ff c6 9c 3e
       -0.19261588 -0.057451252 -0.1582067 0.30620572
0003b0 6c 7c 1a be 39 ac af bd 63 b7 20 3d 2f 21 d7 3d
       -0.15086526 -0.08577771 0.03923739 0.10504376
0003c0 a9 2b 1e be 72 39 93 bd 11 5e 27 be 86 69 57 3b
       -0.15446343 -0.07188691 -0.16344477 0.0032869293
0003d0 26 59 a9 b9 08 6f ba bd b9 65 81 be f7 dc 66 bd
       -0.00032300613 -0.09103209 -0.2527292 -0.056363072
0003e0 dd 49 b9 bd 13 62 93 3d 4d bf 88 3c 30 ff 29 bc
       -0.090472914 0.071964405 0.016692782 -0.010375783
0003f0 c3 2e 62 3e 79 49 a3 bb 0e 80 9c 3b a1 4a c8 3d
       0.2208815 -0.004983124 0.0047760075 0.09779859

weight_hh_l0 f4 [27, 9]
000000 13 87 c8 10 d6 c6 d9 bb be c9 cb 38 00 22 6f 30
       7.9094205e-29 -0.0066460175 9.717372e-05 8.699601e-10
000010 b7 38 87 37 5c 0a 0e 1b db 48 7a 18 71 be 5f be
       1.6119664e-05 1.1749312e-22 3.2348525e-24 -0.21849991
000020 a9 e5 b1 bd 15 d1 cb 9e 2c 76 9d 38 a0 ab 06 38
       -0.08686382 -2.1579935e-20 7.5083546e-05 3.2107928e-05
000030 27 ec 17 34 76 7a 21 99 10 9d cd a6 0c 2d 17 10
       1.4148883e-07 -8.348236e-24 -1.4267304e-15 2.9814202e-29
000040 10 bb bd b5 20 9d 88 3b 58 8d cc 35 a5 8d 99 39
       -1.413604e-06 0.0041691214 1.5240321e-06 0.00029287967
000050 56 53 36 39 f9 ee 19 b8 00 4a 56 b2 3a 02 a2 b3
       0.00017387918 -3.6700603e-05 -1.2473265e-08 -7.544118e-08
000060 02 b7 83 37 8e ba fa b9 fa 60 c3 bb c2 ea b5 98
       1.5701637e-05 -0.0004782271 -0.0059624882 -4.702445e-24
000070 68 b3 21 3b 12 48 8c b8 0e cb 30 8f ac 9d 8b a4
       0.0024673585 -6.689144e-05 -8.716577e-30 -6.054875e-17
000080 28 95 d2 37 e2 0b 0e b4 2d 1d f9 3d 85 fe 4c be
       2.5103407e-05 -1.3229104e-07 0.12163768 -0.20018966
000090 24 09 a9 17 9f b5 20 3d cf b1 e5 38 40 ba 26 0e
       1.0923676e-24 0.039235707 0.0001095269 2.0550756e-30
0000a0 ee c0 b3 19 a1 62 45 31 89 bd 10 ad 2e 90 f9 bd
       1.858609e-23 2.8723337e-09 -8.227538e-12 -0.12185703
0000b0 d5 13 72 3e 79 f2 85 b7 96 9f 0d 38 8e cc 3f 37
       0.23640378 -1.5967746e-05 3.3765646e-05 1.1432114e-05
0000c0 35 e8 a5 2d 0a f5 c7 29 85 bb a3 24 b6 94 99 90
       1.8861449e-11 8.879883e-14 7.100765e-17 -6.0576985e-29
0000d0 a5 1b a4 b8 e8 7e 98 b8 55 bc a8 a8 b0 07 fc 36
       -7.8252786e-05 -7.271563e-05 -1.8733423e-14 7.51108e-06
0000e0 b9 12 b7 b6 80 37 17 11 1f 9c 8c a1 8e ae 5a 97
       -5.4560046e-06 1.1928902e-28 -9.528094e-19 -7.065992e-25
0000f0 ba cf 96 90 14 19 20 38 6e 54 26 37 73 9f 3e a7
       -5.948462e-29 3.817033e-05 9.914029e-06 -2.6454234e-15
000100 66 3f 91 b8 a1 4b 8b b8 14 14 c5 b7 8e 85 4b 24
       -6.925948e-05 -6.6421235e-05 -2.349358e-05 4.4131733e-17
000110 fa 06 ae 36 e7 2a 0e 91 e3 7b 5f b9 50 a4 3b ba
       5.1864163e-06 -1.1215045e-28 -0.00021313089 -0.00071579684
000120 db ca d1 2f 2b b8 cd 38 bf d4 4e ba 05 a9 cb 36
       3.8161016e-10 9.809466e-05 -0.0007889978 6.069548e-06
000130 dc b7 0e 2b 81 90 8d 27 23 2e 1e 34 e7 3a 86 39
       5.070369e-13 3.9292033e-15 1.4731681e-07 0.00025602357
000140 52 b9 48 ba 19 61 b8 b5 90 78 1e bd 11 ea 84 3a
       -0.00076570094 -1.3737327e-06 -0.038689196 0.0010140558
000150 42 d3 7c a4 a6 7e 8a 9a 4e 93 89 11 ae 44 74 35
       -5.4822732e-17 -5.7280074e-23 2.1705572e-28 9.0997025e-07
000160 90 70 38 be 70 08 18 3e 5c 75 22 b0 e8 30 b7 39
       -0.18011689 0.14846969 -5.9102034e-10 0.00034940918
000170 cb 74 3f 3a 59 ec aa 93 52 47 0d 1a 00 ae d4 1e
       0.0007303475 -4.314709e-27 2.921573e-23 2.2518338e-20
000180 1f 49 29 11 b7 63 31 3e a0 f8 3b 3e a7 74 9f b2
       1.3354281e-28 0.17323194 0.18356562 -1.8563084e-08
000190 5a 34 87 bc b4 88 32 3b 9d 05 36 b6 50 9d 20 22
       -0.016504455 0.0027242126 -2.712338e-06 2.1767324e-18
0001a0 7e 62 66 2d 61 52 a8 2d 56 e6 3a be 0e 3e 01 be
       1.3095856e-11 1.9135972e-11 -0.18251929 -0.12621328
0001b0 6a 97 4c b1 5b d5 33 bd b2 82 8c 3a a5 38 43 b0
       -2.9771976e-09 -0.043904644 0.0010720103 -7.1021083e-10
0001c0 43 e5 01 1a 39 e0 4e 1d 6e b6 58 b6 b0 fb 7f be
       2.686177e-23 2.7379793e-21 -3.2292696e-06 -0.24998355
0001d0 b4 03 11 3e 92 21 c4 26 4d 7f 81 3d bf 37 96 3a
       0.14161569 1.3609331e-15 0.06323109 0.0011460705
0001e0 61 da 66 35 7b 9f c8 a3 49 c6 19 91 7f 86 d4 b7
       8.599946e-07 -2.1751586e-17 -1.2130673e-28 -2.5334999e-05
0001f0 f0 95 57 be a4 ff 2c be 8e 4b ba 2b c5 a1 e2 3a
       -0.2105329 -0.16894394 1.3237066e-12 0.0017290643
000200 8b b2 48 3c 60 50 8b 27 41 55 b2 9a c1 38 3d b8
       0.012249599 3.8667393e-15 -7.375681e-23 -4.5113968e-05
000210 06 aa dc 11 48 41 4a be cf 03 d1 bd 43 28 95 97
       3.4814665e-28 -0.19751465 -0.102058046 -9.639063e-25
000220 52 c9 d6 bb f3 16 58 3a cf 22 55 31 eb ef 4d a0
       -0.006554761 0.0008243166 3.1015366e-09 -1.7443558e-19
000230 3f e2 53 b7 c3 02 55 9e b4 62 01 be e2 19 17 3e
       -1.2629257e-05 -1.1276697e-20 -0.12635309 0.14755967
000240 e0 57 40 95 65 d8 7d b9 da a0 a4 ba c5 42 03 b7
       -3.8843412e-26 -0.00024208573 -0.0012560145 -7.8237545e-06
000250 7e 3e c3 9a 98 4e 77 14 e5 62 62 b2 bb 05 3b 3e
       -8.075107e-23 1.2485813e-26 -1.3177417e-08 0.18263905
000260 7b 59 3c be a8 71 7d b6 b4 f3 c6 39 01 80 fe 3a
       -0.18393509 -3.7766094e-06 0.00037947076 0.001941681
000270 03 c8 58 93 a6 ed cb 1b e8 81 94 b4 f1 bc 93 37
       -2.7361646e-27 3.373711e-22 -2.7661667e-07 1.7611748e-05
000280 a0 dd 05 3c 2c 5c 65 3d f3 a5 a2 b5 59 77 62 3e
       0.008170515 0.055996105 -1.2118238e-06 0.2211584
000290 ab 55 b3 bb 0a 39 f2 2a 6e a9 7c 1a 12 b7 76 af
       -0.005472859 4.3027414e-13 5.2249243e-23 -2.2438609e-10
0002a0 43 03 c9 9a 46 f2 7b 3d 46 e1 09 be 52 22 c6 94
       -8.313692e-23 0.061510347 -0.13464841 -2.0006428e-26
0002b0 0a 2c 45 bd 5e 07 2d bb ef 12 d5 b7 cf 98 b2 34
       -0.048137702 -0.0026402096 -2.5400395e-05 3.3266267e-07
0002c0 d1 5a d0 31 fc 1b 0d b7 60 61 db bd f2 db 2b be
       6.0639214e-09 -8.4107705e-06 -0.10711932 -0.16783121
0002d0 6d 24 89 b5 79 c5 8e 3e df b6 5d 3d ec 56 0a 20
       -1.0217897e-06 0.27885035 0.054129478 1.1717815e-19
0002e0 f0 17 12 b5 2a ed 44 12 89 6d 99 92 7f ac a3 3e
       -5.442407e-07 6.213902e-28 -9.68266e-28 0.31967542
0002f0 04 77 73 3e 8f 37 b3 b7 d0 b0 08 bd 90 c6 3d bd
       0.2377587 -2.1364334e-05 -0.033371747 -0.046331942
000300 ca 58 c6 8e 82 c1 ac 9b 47 b5 50 29 31 22 8e 12
       -4.889627e-30 -2.8580065e-22 4.634251e-14 8.969889e-28
000310 c5 04 a5 3e 5c bb 4f 3e af 9f 3d b8 96 af d2 bc
       0.322302 0.20286316 -4.520983e-05 -0.025718492
000320 eb 22 9d ba f1 67 bf 16 a9 34 89 9b d7 e1 65 b6
       -0.0011988556 3.092331e-25 -2.269878e-22 -3.4255115e-06
000330 90 11 8a 8d 00 76 47 3c c4 85 4b 3d 26 b3 3b b7
       -8.509135e-31 0.0121741295 0.049688116 -1.118778e-05
000340 dc a5 99 3b f8 6c 01 3d ec c9 1d a1 c7 5c 25 1a
       0.0046889614 0.03159806 -5.346091e-19 3.4196145e-23
000350 84 b1 09 37 5f fb fd b4 83 3f 3d bb e6 60 b3 bc
       8.207167e-06 -4.730782e-07 -0.0028876967 -0.02189679
000360 f9 1c d8 1e 7e ff b1 ba 4f d7 74 3b ae ca 77 ae
       2.2881872e-20 -0.0013580171 0.003735978 -5.6341314e-11
000370 cd e6 81 b3 01 5e 42 99 89 d5 df 35 b4 dc 11 3e
       -6.049013e-08 -1.0048549e-23 1.6676942e-06 0.14244348
000380 d3 5c 02 be ab 2d d6 a9 9a 8d 9f 3c c2 e0 bb 3b
       -0.12730722 -9.511431e-14 0.0194767 0.0057335803
000390 c1 fa d9 b4 d6 cf 19 36 45 a4 e2 32 68 15 b1 11
       -4.0601847e-07 2.2919753e-06 2.6384564e-08 2.7938869e-28
0003a0 4e b5 34 bc b3 f1 e8 bd 90 87 85 2c 1f f8 95 ba
       -0.0110295545 -0.113742255 3.795138e-12 -0.0011441744
0003b0 82 44 c4 3b 42 1d 99 35 20 6a fe 1a f6 7f d3 b5
       0.005989612 1.1407903e-06 1.0522339e-22 -1.5757967e-06
0003c0 0b e0 28 b4 d0 94 63 3d 53 dd a4 bd
       -1.5727726e-07 0.05556184 -0.08050027

bias_ih_l0 f4 [27]
000000 94 fb 04 be 16 59 f6 bc 01 bf c5 bd 70 e8 4b be
       -0.12986594 -0.030071776 -0.09655572 -0.19912887
000010 e8 e5 85 be 44 c4 c6 b9 80 2b 52 bc 6f 94 09 3d
       -0.26151967 -0.00037911732 -0.012827754 0.033588823
000020 a8 25 21 bd de 31 4b 3c 3a 3f 26 be 00 ed 2b be
       -0.039342552 0.012402026 -0.16235057 -0.16789627
000030 40 76 1c be 54 90 c5 3d 37 b2 34 3d af 10 87 3e
       -0.15279484 0.09646669 0.04411527 0.26379916
000040 7b ed 15 3e 25 79 26 3e d7 53 0b be 9a 22 bc 3d
       0.14641373 0.1625715 -0.13606201 0.09186287
000050 2c 7f 69 be a7 e1 47 3e 3f 89 72 be 10 7d 7a be
       -0.22802418 0.19519673 -0.23685168 -0.2446177
000060 10 7f a4 bb c2 b1 05 3e a1 92 62 3d
       -0.00502003 0.1305609 0.055315617

bias_hh_l0 f4 [27]
000000 94 15 e9 bd a1 ba 85 3d 24 f8 b6 3d a6 f0 b3 3d
       -0.11381069 0.06529737 0.08934048 0.087861344
000010 ac 25 2c be 2d 6a 96 b9 64 b9 6f bc e3 cd 01 3d
       -0.16811246 -0.00028689337 -0.014631603 0.03169049
000020 47 a5 ba 3b 4b 8c 18 bd 59 b4 95 3d c2 93 17 3e
       0.005695972 -0.03724317 0.07309789 0.14802459
000030 3b 3e b5 bd 94 38 b5 3b 41 fa e1 3d 78 48 84 3c
       -0.0884976 0.0055304263 0.1103406 0.016147837
000040 e5 5f 03 3e 20 97 13 3d 96 fe 64 3e 3f b0 94 bd
       0.1282955 0.036032796 0.22362742 -0.07260179
000050 3a ad d0 bd cc 63 66 be 7b 0c a6 be 41 e3 c1 3c
       -0.1018929 -0.22499007 -0.32431397 0.023667933
000060 ae ea 04 bb da 85 f0 3a 15 31 2f be
       -0.0020281482 0.0018350438 -0.17108567

weight_ih_l0 f4 [27, 39]
000000 b8 36 7c 3e c9 79 64 3e 4e 35 2d 20 d2 06 9d 3d
       0.24630249 0.22312082 1.4671307e-19 0.076673165
000010 b2 f7 2a be fd 80 7a be 1e c9 90 be 72 df c0 3d
       -0.16696051 -0.24463268 -0.2827844 0.09417619
000020 c7 0c 83 3e d6 a4 f7 3d 17 87 0e be 9e 4d 90 3c
       0.25595686 0.12091987 -0.1391872 0.017615136
000030 40 93 8f be 2d fa 1b bd aa 8d fb bb a8 4e 33 3e
       -0.2804203 -0.038080383 -0.0076768 0.17510474
000040 92 25 c6 3d 58 29 14 3b 08 01 1a 3c cc aa 2f 3b
       0.09675135 0.002260765 0.00939966 0.0026804684
000050 25 c7 3e 3e 99 51 a0 3d da 67 d9 bd 7d 9e 84 3e
       0.18630655 0.078280635 -0.10615511 0.25902167
000060 1d 85 de 3d 50 9f 69 b8 86 7d 60 bd 45 f8 bb bc
       0.10865233 -5.56999e-05 -0.05480721 -0.022945533
000070 fe c6 86 3d 2f bf 49 be 8f f7 5b bd 79 f4 9b be
       0.065809235 -0.19701837 -0.053702887 -0.30459955
000080 65 68 5a 3d d5 76 05 ba 80 89 94 bd ca 66 8b ba
       0.053322215 -0.0005091255 -0.072527885 -0.0010635492
000090 05 a8 8a bc ab f0 33 3e d6 50 c2 3a ff cf 53 be
       -0.016925821 0.17572276 0.0014825116 -0.20684813
0000a0 42 9a 39 3d 2c f5 1b b0 43 d0 b5 3d be 10 32 3d
       0.045313127 -5.673708e-10 0.088776134 0.043472998
0000b0 70 70 0d 3d 3a ba 22 be 52 64 e5 bc a6 64 00 3e
       0.034531057 -0.15891352 -0.028001938 0.12538394
0000c0 ae 33 ba 3c 25 ca 93 3d 73 25 6f bb 5d 14 d1 bd
       0.02272972 0.072162904 -0.0036490827 -0.10208962
0000d0 d9 e9 13 bd 80 de 33 be 39 4f 1b bc f7 c6 fc 3d
       -0.036111686 -0.17565346 -0.009479337 0.12342637
0000e0 c3 61 80 3a 6d 01 80 3c a2 30 cc bc 68 05 26 be
       0.000979476 0.01562568 -0.024925534 -0.16213
0000f0 01 d1 f3 3c e9 b4 21 3e 7e ff 68 be 8f fc 8f 3c
       0.029762747 0.15791668 -0.22753713 0.017576484
000100 14 da 67 bb 83 ce 81 3e df 02 0c be 52 83 07 3d
       -0.0035377787 0.25352868 -0.1367297 0.03308422
000110 53 0e 94 bd 24 6c f4 bc e1 f0 05 be 18 db ed bd
       -0.07229295 -0.029836722 -0.1308017 -0.116140544
000120 ec 52 6a ba 99 0f c9 bd da a0 1d 3c 88 03 9a 3b
       -0.0008938748 -0.09817428 0.0096208695 0.004700128
000130 c9 14 45 3e 8a a9 d4 bc e5 0e a6 bd d2 80 3d bb
       0.1924621 -0.025959749 -0.0810831 -0.0028915894
000140 87 48 04 1d 17 59 cc bc fb 6a 1a bc 14 5e be ba
       1.750755e-21 -0.024944825 -0.00942492 -0.0014523887
000150 58 6d 75 bd 1b f4 84 b9 6b a4 dd 3c ec 1d d9 bb
       -0.05991873 -0.00025358875 0.02705594 -0.0066258814
000160 e3 37 22 bc f1 2c 0e 3c 6b 85 fa bd 16 6e 91 38
       -0.00990102 0.008677707 -0.12232479 6.934644e-05
000170 9c 35 82 3c 57 c7 01 bb 8e cd a3 3d 8d a8 10 ba
       0.015894704 -0.0019802654 0.07998191 -0.000551828
000180 40 06 7d bb 41 f4 79 3a 13 4e 89 bb 6f b5 0a bb
       -0.0038608462 0.0009534993 -0.0041902154 -0.0021165272
000190 13 d0 86 3c a6 2b 61 3d 17 85 94 bb 6e 3a 91 3a
       0.01645664 0.054973267 -0.004532467 0.0011080035
0001a0 84 9f 13 bd b7 68 d6 ba 9c 50 19 3d e5 86 48 3d
       -0.036040798 -0.0016358112 0.03743039 0.04895677
0001b0 c1 b3 e2 bb 1b 69 c1 3c e2 56 8b bd 30 f0 fc b9
       -0.006918401 0.023609689 -0.06803681 -0.0004824414
0001c0 37 e3 d6 ba 53 a5 48 bb b8 19 8d ba 00 50 75 bc
       -0.001639462 -0.003061612 -0.0010765111 -0.014972687
0001d0 4e 4b 84 3c 0f aa 40 3e ec 31 2c be 39 96 94 12
       0.01614919 0.18814872 -0.16815919 9.377146e-28
0001e0 6d 73 4b 3e c2 ec 60 3e 77 40 7d 3e 30 2c 40 be
       0.1986825 0.21965316 0.24731623 -0.18766856
0001f0 9e 6a 32 3e 9b d7 56 3e 0a 4b ab bd 58 48 b5 bb
       0.17423484 0.20980684 -0.08363922 -0.0055323057
000200 6e e0 18 3d 63 fe fa bd a7 75 bd bd 18 21 2a 3d
       0.037323408 -0.12255552 -0.09250956 0.041535467
000210 67 40 6d 3e f3 9e 21 be 95 ae 55 bb 59 0d 64 bc
       0.23169099 -0.1578329 -0.003260528 -0.013919198
000220 0e 87 f7 3c 90 41 77 bd 98 13 e0 bb e7 7f 80 be
       0.030215766 -0.06036526 -0.0068382733 -0.25097582
000230 40 2c 21 3e 52 86 0b be 73 79 92 b9 56 d2 96 3e
       0.15739536 -0.13625458 -0.00027937777 0.2945735
000240 7f a7 1c bd c6 7f 5c 3e 44 0d 3b 3e 89 53 54 bd
       -0.038245674 0.21533117 0.18266779 -0.051837478
000250 52 0f 57 be 9d 62 8b 3e f9 ce bc b9 b2 5a f4 3c
       -0.21001938 0.27223673 -0.0003601236 0.029828403
000260 1a 33 f6 b7 46 f9 89 3a c0 11 9a 3c 4d 2b 8e 3c
       -2.9349281e-05 0.001052656 0.018807292 0.017354632
000270 e1 7c 74 be fa 81 89 3e c2 a3 56 12 2e ba 71 3e
       -0.23875763 0.26856977 6.772834e-28 0.23606178
000280 09 28 89 be ce 05 81 be 54 12 88 3d 44 97 b0 3d
       -0.26788357 -0.2519974 0.06644121 0.08622602
000290 ec 1c 96 3e f0 8d 88 3e 8e cd 6d 3e 4e 48 63 3e
       0.2931894 0.2667079 0.23222944 0.22195551
0002a0 2e 4d c1 3d 76 2d 09 be 3c 8a bf 3d 32 d1 62 be
       0.09438549 -0.13396248 0.09352538 -0.22150114
0002b0 3d ce 7b 3e 7e d2 0a 3d 19 39 b0 3d be 03 dc 3d
       0.24590392 0.033892147 0.086046405 0.10742901
0002c0 27 a2 92 be bf 35 ea 3d df 32 38 be 1d c0 00 be
       -0.28639337 0.114360325 -0.17988156 -0.12573285
0002d0 21 16 a3 3d 17 07 be 3b 83 de c2 bc 4c 5f 4e 3e
       0.07963205 0.005799185 -0.023787742 0.2015354
0002e0 ce b1 aa 3d a3 d0 ac bd 8b e4 90 bd 11 0e c2 bd
       0.08334695 -0.08438232 -0.07074841 -0.09475339
0002f0 bf 94 a2 3e f2 4a ab 3a b3 bd 18 be e5 6e 81 bb
       0.3175411 0.00130686 -0.14916115 -0.0039499872
000300 0b 21 fb b8 2b ab 6f bd 31 8c 0c 3e b0 6b 8d bd
       -0.000119747674 -0.058512848 0.13725354 -0.069053054
000310 ab 7a c0 3d 07 9f 9c 0f 40 35 0b 3e 36 72 0c 3e
       0.09398397 1.5444043e-29 0.13594532 0.13715443
000320 89 52 5e be bf 99 d0 3d 41 0d ea bc 8e a9 3b 3e
       -0.21711172 0.10185575 -0.028570773 0.18326399
000330 53 76 38 be 82 de e0 3c 3c 8d e1 3d 51 ce 1c 3d
       -0.18013887 0.02744985 0.110132664 0.038282696
000340 34 cc 43 bd c4 46 c5 3d 85 45 e5 3b ef 6c 8e bd
       -0.047802165 0.09632638 0.0069968128 -0.06954371
000350 cc 79 11 bb 1c db 9c bb 9d c3 d8 bc b9 f5 f5 bd
       -0.002219784 -0.004786862 -0.026460463 -0.120097585
000360 71 f9 75 3c ce fb 93 bd fb ca 60 3e 77 53 67 3c
       0.015013085 -0.07225762 0.21952431 0.014119021
000370 bc 83 3e b8 58 ed 72 be 56 6c a7 3d bd f7 35 be
       -4.5422217e-05 -0.23723352 0.0817496 -0.17770286
000380 e5 dd 50 3c a1 6b 9b ba f0 dc 10 be cf b8 09 be
       0.012748216 -0.0011857637 -0.14146781 -0.13449405
000390 6b 2c 3e b9 24 7c 4f 3c 57 fb d2 ba 49 87 e2 39
       -0.00018136359 0.012663875 -0.0016096634 0.00043206874
0003a0 52 b8 78 3d 65 43 66 3c 85 be 72 be 30 f5 fa 3d
       0.060722657 0.014054154 -0.2370549 0.12253797
0003b0 d0 cd b5 9e c3 68 70 be 30 ab 7e 3e 91 aa 05 3e
       -1.9249242e-20 -0.23477463 0.2486999 0.13053347
0003c0 a7 db 5f 3d 4f 06 22 3c 46 43 49 be 10 52 b9 bc
       0.054652836 0.009889199 -0.19654569 -0.022622138
0003d0 ba 67 68 3e 5f 2e 1a 3e 90 9f 01 be 97 53 89 3d
       0.22695819 0.15056752 -0.12658525 0.067053966
0003e0 72 fb 54 bd 7b ed 51 be 5d d6 56 be 92 11 39 3c
       -0.05199761 -0.20500748 -0.2098021 0.011295693
0003f0 2d 2f ee 3b f2 82 80 3b 39 7e 37 bd 35 2c e9 bd
       0.0072688074 0.00392186 -0.04479811 -0.11385385

weight_hh_l0 f4 [27, 9]
000000 d6 a8 8f 3e 32 98 00 be 0d d6 f7 bd 0e e5 8f be
       0.280585 -0.12558058 -0.12101374 -0.28104442
000010 7b 34 26 3e 32 44 70 be 10 78 38 be 50 6c 82 bb
       0.16230957 -0.23463514 -0.1801455 -0.003980197
000020 ce f5 73 3e 97 a8 52 3c c8 06 8a 3e bc 3b 7f 3c
       0.23824236 0.012857578 0.269583 0.015578207
000030 9c a1 7b be 21 73 c1 3d 36 52 f5 bc 74 25 98 3c
       -0.24573368 0.09445787 -0.029946428 0.018572547
000040 3f 47 0d 3d f4 cf fa bc f8 e5 7b bd 16 b4 d4 bd
       0.034491774 -0.030616738 -0.061498612 -0.10385911
000050 20 3a 06 bd 53 97 46 bd 7d 13 41 bc 66 3b 22 3d
       -0.032770276 -0.048484158 -0.0117844315 0.039607428
000060 cd 37 0b 3d a0 a2 34 bb 15 fa 00 3c 90 25 be bd
       0.033988763 -0.0027562752 0.007872124 -0.09284508
000070 c0 e7 0f be df 58 94 be 3f 33 24 3e 29 10 5d be
       -0.1405325 -0.28974053 0.16035174 -0.21588196
000080 be 89 01 be 8a d8 cb 3c 05 6a f2 bb 26 b4 34 bd
       -0.126502 0.024883527 -0.0073978924 -0.044117115
000090 b0 c0 84 3e 59 af 7c 3c 48 37 84 3c 2a 99 2c 3e
       0.2592826 0.0154226655 0.016139641 0.16855302
0000a0 7c ec fb bd 7b 85 1c be 10 d4 4c be 0c b2 80 3d
       -0.12300965 -0.15285294 -0.2000277 0.0628396
0000b0 87 28 8b be 5b 56 8a 3d b4 98 b7 3d 5b 73 71 3e
       -0.27179357 0.06754752 0.08964673 0.23579161
0000c0 1e 67 77 be 86 72 d4 bb 62 ee 81 3e 12 92 67 be
       -0.2416043 -0.006483379 0.25377184 -0.22614315
0000d0 88 2e c3 bb 69 bb 47 3e a7 1e 28 be 31 ae e0 3b
       -0.0059564747 0.19505085 -0.16417943 0.0068567027
0000e0 c9 5a 98 3e 9b 0f 8f 3e 2b 72 b1 bc bf aa 98 3d
       0.29756764 0.27941594 -0.021660885 0.07454442
0000f0 12 16 4b 3e 69 ce f1 bc 8d 48 49 bd 5c 46 34 3e
       0.19832638 -0.02951737 -0.049141455 0.17604965
000100 49 28 43 be 1f 53 59 3e cf 7b 08 be ae 70 56 be
       -0.19058336 0.21223114 -0.13328479 -0.20941421
000110 b8 34 88 3e 4b a3 0b be 14 33 59 bd 98 ee 5c be
       0.2660272 -0.1363651 -0.053027228 -0.21575391
000120 1d bf 5c be d2 2c 0e 3e f0 b2 b0 3d 9f 5d 5c 3e
       -0.21557279 0.13884285 0.086278796 0.21520089
000130 eb 91 41 3e 90 46 d4 bd 41 6d 6a bd 4b c9 2a 3d
       0.1890332 -0.10365021 -0.0572331 0.041695874
000140 66 ab 85 3d fa d9 7b 3c 08 f1 af bc 61 58 b5 bd
       0.06526832 0.015371794 -0.021477237 -0.088547476
000150 93 75 12 bd 22 55 80 bb d9 bc d2 3d c7 e8 8e 39
       -0.03575666 -0.0039163986 0.10289926 0.00027257783
000160 f4 bc ce bd fa dc c3 3c 31 ff 01 3e fb 32 df 3d
       -0.10094634 0.02390908 0.12695004 0.10898396
000170 eb 3e 8f 3d ff 00 97 ba 75 22 a3 3c 5d dc 54 3d
       0.069944225 -0.0011520683 0.019913891 0.051967967
000180 f2 8a 65 3d b9 9e 90 3d be 76 ec 3c 0e 54 f7 3d
       0.05604071 0.07061524 0.028865214 0.12076579
000190 1f fc d5 3d 95 18 1c 3e 3b e9 c8 3d fd fc 9e 3d
       0.10448479 0.15243752 0.0981011 0.077630974
0001a0 03 4e b2 bd b7 1f e5 3d e0 47 20 bd d1 0d a2 3d
       -0.08706286 0.1118769 -0.039131045 0.079127915
0001b0 21 40 ef 3c 6f 7f 52 be ab 4b 5c be ff 50 2f 3e
       0.029205384 -0.20556425 -0.2151324 0.17120741
0001c0 a4 b7 f3 3c 6f 1c 14 bd 6e 72 07 be 4d ee 1b 3d
       0.029750653 -0.03615993 -0.13227245 0.03806906
0001d0 c6 8d 2a be bb ae f6 bd 12 b6 4f bd c8 5c ab bd
       -0.16655645 -0.12045046 -0.050710745 -0.08367306
0001e0 45 d1 2d bd ef ce 82 bd e2 5e 01 3c 18 0b b2 bd
       -0.042435903 -0.06387126 0.007896157 -0.08693522
0001f0 ff a1 73 3e f2 b9 21 bd 0c 2c 4b 3b ee 96 0a 3d
       0.23792265 -0.039483972 0.0031001596 0.033835344
000200 43 cc fa bd 18 e6 12 be cb 01 6b 3c b9 14 0a 3b
       -0.12245991 -0.14345586 0.014343689 0.002106948
000210 df 5d a5 3d ab 63 12 3d 8b 0e 16 3e c9 62 87 be
       0.08074545 0.035739582 0.14653985 -0.26442555
000220 cb 4d 45 be fa 06 70 be b0 7e d9 3d 0c 4e 8e bd
       -0.19267957 -0.23440161 0.10619867 -0.0694848
000230 56 4d 10 be 08 e0 66 3e 23 7d a0 bd 87 f3 0f bd
       -0.14092001 0.22546399 -0.07836368 -0.035144355
000240 ab a8 08 3d e9 bd 51 be 36 52 0f be b8 96 a3 bd
       0.03336398 -0.20482601 -0.13996205 -0.07987732
000250 f4 e2 5e 3e 35 b4 8f be 81 56 90 bd dc f1 a8 bd
       0.21766263 -0.28067175 -0.07047749 -0.08249256
000260 e1 44 e8 bc fb 81 46 3e b9 39 61 be 8b 31 d6 3c
       -0.028353157 0.19385521 -0.21994676 0.02614667
000270 c7 19 81 bd 15 0e f6 bb f0 2d 1e be b9 e0 09 3e
       -0.06303745 -0.007509003 -0.15447211 0.13464631
000280 58 0f 25 bd e1 88 e0 3c 88 dc 21 be 02 b8 92 bd
       -0.040297836 0.027409019 -0.15806782 -0.07164003
000290 5d 50 78 3d b9 aa 3c be ae a8 22 be 2e d9 36 3e
       0.060623515 -0.184245 -0.15884659 0.17856285
0002a0 63 64 8a 3e 67 2f 48 be 69 e5 69 be 23 a9 96 3e
       0.27029714 -0.19549333 -0.2284142 0.29425916
0002b0 ac 01 a7 3e 18 05 88 be 3f dc b2 bc 0d d9 cb bb
       0.32618463 -0.26566386 -0.021833537 -0.006220943
0002c0 eb 2a 8e be 3f f3 8e 3c 66 02 08 be 87 3f 53 be
       -0.2776712 0.017449973 -0.13282165 -0.20629703
0002d0 3e cb 56 be e7 9a 4b bd da ff 28 3e d5 8c b7 3d
       -0.20975968 -0.049708273 0.1650385 0.089624085
0002e0 25 a4 51 be ce c6 36 3e bf 85 9e 3d d2 d9 fc 3c
       -0.20472772 0.17849275 0.07740354 0.030865584
0002f0 03 b2 2d 3c 7c 76 68 be b4 31 d2 3d 6f 73 6a 3e
       0.010601523 -0.22701448 0.10263386 0.22895597
000300 4f 2c 8e 3e 1d d4 a7 3d f4 c8 a9 3e 37 16 f8 bd
       0.2776818 0.08194754 0.33161128 -0.12113612
000310 e9 35 53 bb 0a af 89 3e 82 cb a5 be e3 1f 82 3e
       -0.0032228178 0.26891357 -0.32381827 0.25414953
000320 a4 a9 36 bd 5a aa f6 3d 22 e1 4a 3e 29 a7 27 3d
       -0.044595376 0.12044211 0.19812444 0.0409309
000330 0e e8 1c 3e 1b f8 43 be 8f 73 77 3e aa fc 10 3e
       0.15322897 -0.19137613 0.24165176 0.14158884
000340 5d 1a 0a be 52 a9 62 be b4 1f 22 be 8c 71 d0 bd
       -0.1348662 -0.22134903 -0.15832406 -0.10177907
000350 a1 f2 f8 bd de c4 a4 3e 58 7e 81 3e f9 0c 05 be
       -0.12155653 0.32181448 0.25291705 -0.1299323
000360 5a c3 99 3e 8a 1e 84 3e 78 d1 c8 3d d3 e0 40 3d
       0.30031854 0.2580455 0.09805578 0.04708941
000370 2e c7 60 be 76 49 c3 bd 22 dc 5a 3e 1c 92 bd 3d
       -0.21950981 -0.09535496 0.21373037 0.09256384
000380 14 42 78 3e 3c d2 1f 3d 5e 32 8a 3e e6 53 e5 3d
       0.24243957 0.039018854 0.26991552 0.11197643
000390 d7 ac 8b be fc 66 20 3e 72 7b 8d bd 63 00 45 3e
       -0.27280304 0.15664285 -0.06908311 0.19238429
0003a0 72 39 4b 3e c0 8c b0 bd 5f 29 98 bc b6 c8 85 be
       0.19846132 -0.08620596 -0.018574415 -0.26129693
0003b0 eb 87 6c 3e cd cd 8b bd 87 1d 26 be f4 20 e5 3d
       0.23098724 -0.06826363 -0.16222201 0.11187926
0003c0 8b 50 92 be 72 d8 63 be c3 8d 87 be
       -0.28577074 -0.22250536 -0.26475343

bias_ih_l0 f4 [27]
000000 41 11 6d 3e 4c dc 6d be a5 94 8a 3d 73 a7 c5 bd
       0.23151113 -0.23228568 0.06766633 -0.09651079
000010 d2 21 87 3e bd 22 09 3e 5d a5 f1 3d 39 64 24 3e
       0.2639299 0.13392158 0.11799119 0.16053857
000020 f4 18 42 be e4 dc b3 bb c1 21 5b ba 49 bc 8d be
       -0.18954831 -0.0054889787 -0.0008359217 -0.27682713
000030 77 77 83 bc ca 18 5c bd 59 0b 32 be 93 13 5c 3e
       -0.016048176 -0.05373458 -0.17387141 0.21491842
000040 e8 9a 94 be b3 34 a3 bd bd a8 32 3e 79 6b 3a 3e
       -0.29024434 -0.07969036 0.17447181 0.1820506
000050 5d 7c e2 3d 04 5c 35 be fa ff ea 3b b1 69 72 3e
       0.11058877 -0.17710882 0.007171628 0.2367313
000060 20 19 88 be 09 c6 79 bd 50 4c a1 be
       -0.2658167 -0.060979877 -0.31503534

bias_hh_l0 f4 [27]
000000 2c 06 03 be 8e c3 12 3e 1c 77 ae 3c d1 e7 78 be
       -0.12795323 0.1433241 0.02129703 -0.24307181
000010 c4 57 dc bd e1 ec dc 3d 04 ab 91 be ab a5 b0 3d
       -0.107589275 0.107873686 -0.28450787 0.08625349
000020 e0 c5 7b be f8 f8 b4 3d 20 d7 64 3d 48 07 69 3d
       -0.24587202 0.088365495 0.05586922 0.05689171
000030 fc e1 5e be cb 7e e5 bc 05 5f 5e be ea 22 3b 3e
       -0.21765894 -0.028014561 -0.21715935 0.18275037
000040 14 0f 06 3e 49 1a 72 3e c0 bd 7d 3e 99 2d 09 3d
       0.1309169 0.2364284 0.24779415 0.03349075
000050 e6 15 77 bc db 3a e5 3c 46 e1 81 be 15 7e 0a 3e
       -0.015080905 0.027982166 -0.25367182 0.13524659
000060 da e1 1d be a0 29 a9 be b7 76 88 bd
       -0.15418187 -0.3303957 -0.06663268

weight f4 [9, 9]
000000 1d f3 5b 3e 53 be 30 3e 0e fb 11 be 5f d6 20 3e
       0.21479459 0.17260103 -0.14255926 0.15706776
000010 ff 06 20 be c2 81 22 be 65 32 b8 bd 3c 73 30 3d
       -0.15627669 -0.15869811 -0.08993987 0.043078646
000020 74 5f e2 3b 99 4a 95 be b9 b9 4b 3e 39 45 c1 3b
       0.0069083516 -0.29158476 0.19895066 0.0058981446
000030 39 79 31 3e ed ad d4 bd 16 52 36 3d 8e 16 00 3e
       0.17331399 -0.10384736 0.044511877 0.12508604
000040 ca c4 9d 3d ff b3 2f 3e 9f 53 8f 35 c5 d8 ba b5
       0.0770355 0.17158507 1.0678667e-06 -1.3921168e-06
000050 b6 5a 19 2f 09 7b 3d a2 e3 8e a8 2f 7f be c0 b8
       1.3947496e-10 -2.567941e-18 3.066055e-10 -9.190756e-05
000060 a2 1f 87 1d b7 cf ce 32 5c ac d3 10 8a 14 12 be
       3.576691e-21 2.4076014e-08 8.349039e-29 -0.14265648
000070 35 64 22 3d 2d 0f d2 3d 28 94 6d 3e 76 c4 5e be
       0.039646346 0.10256801 0.23201048 -0.21754631
000080 fd 4a 89 be d9 67 84 3e ea 43 8f 3d 59 23 e6 3c
       -0.26815024 0.2586048 0.069953755 0.028093027
000090 50 84 8c 3e ae 1a 74 3c 22 c0 4a 3e a8 f2 6b 3e
       0.27444696 0.014898939 0.19799855 0.23041785
0000a0 92 b1 a3 3d 96 aa 7e 3e b0 2e 89 3c 73 b0 a4 3e
       0.07992853 0.24869761 0.016745895 0.3216587
0000b0 ff 31 1d 3e 4f e8 00 3e 55 0d cc 3c de df ad bd
       0.15351103 0.12588619 0.024908701 -0.08489965
0000c0 67 4e 40 bd 70 f2 56 be 69 34 93 3e 5a c1 1f 3e
       -0.04694977 -0.2099092 0.28750923 0.15601102
0000d0 05 51 37 3e 6b 54 35 3e 78 8e 10 3e d6 d3 83 bc
       0.17902 0.17707984 0.14116848 -0.016092222
0000e0 04 ae 24 be 96 fb 58 3d c6 0a 61 be 3f af 4a be
       -0.16082007 0.052974306 -0.21976766 -0.19793414
0000f0 42 6f 8b be f8 6b 81 bd f2 66 3b bd 72 ce e0 bd
       -0.2723332 -0.063194215 -0.045752473 -0.10976876
000100 97 61 3b bc 85 7a a2 be 49 66 8e 3e 29 f5 d9 3d
       -0.011436841 -0.317341 0.27812412 0.10642464
000110 a2 db 48 be 3f 92 a5 3e 3b 87 31 3d c3 0e e9 bd
       -0.19615033 0.3233814 0.043341856 -0.11379769
000120 79 1b 83 3e d9 4a fd 3a 6c 6b bf bd 3e 56 89 3e
       0.25606897 0.0019324675 -0.09346661 0.2682361
000130 da 91 5e 3e 54 7d 63 bd 45 a2 2a bd 90 4f 23 be
       0.21735325 -0.055539444 -0.04165866 -0.1594832
000140 f8 f0 7a 3d
       0.061264962

bias f4 [9]
000000 6b 59 6f 3e 4e d3 14 bd 67 4d 5e ba 4d 99 c3 3c
       0.23373954 -0.03633433 -0.0008480162 0.02387681
000010 4e c4 87 3e 12 7b 4f 3e 52 3c 06 3e d8 af d3 3b
       0.26516956 0.20261791 0.13108948 0.006460171
000020 58 34 91 3e
       0.28360248
