RTSNet/checkpoints/Linear/evolution_mismatch/rq-1010_Fhat.pt (torch, 73933 bytes, 69 tensors)

weight_ih_l0 f4 [12, 10]
00000000: db3f 313d 98fa 5cbe 1154 04be 8c61 55bc
00000010: ce34 e93e ff09 fd3e a8e6 3b3e c4db d63d
00000020: 2d40 c53e bfbd 70be aaab ca3e 01b6 dfbe
00000030: 74e9 ccbd e681 42bd df9e 6fbe 0fe6 243c
00000040: 736c c83d 9d8b 1fbe e890 8cbe 0955 20be
00000050: 2dca cbbe 43ca 433e 45d6 8f3d 4221 80bd
00000060: e6a7 56be 59aa 2cbe bd04 ab3e de88 cbbd
00000070: 7333 94be dd6f f33e be56 22be e77e 8b3e
00000080: 9821 f23e 09bc 393d a428 ddbe dbc9 933e
00000090: 605c fdbe 904f 04be daab 84be 2dbd e23d
000000a0: 557d 45be bd44 2c3e e864 ba3e b4d5 d73e
000000b0: eab4 aebe 7fe0 dabe da4a d0be 1248 97be
000000c0: 31f0 8b3e d703 bfbe a083 4f3e a3d3 d4bd
000000d0: 2306 3a3e 7eb8 6c3e d6f4 003d f7bf f03e
000000e0: 92dd 7e3e 86d8 babd 0577 a2be f0bc 9e3e
000000f0: 3070 413d e51c 97be fbcf a3be 2a41 7dbe
00000100: 9d15 76bc 24b4 efbe 9121 ee3e 947d 473e
00000110: cdf2 993d 1e8b f93e 495c 503e 99c4 6cbd
00000120: 2852 47be 2cf5 02be 8c6c 013e 916c e93d
00000130: ab8d 76be f89b d0be 21a8 e4be f77e 063e
00000140: a1f3 99be bc09 f43e 0be8 1dbc e6d0 6b3e
00000150: 97be 553e 367a 82be abc1 893e 660d 65bc
00000160: 00f9 463d 330c 5bbe 531d f63d 9612 ef3e
00000170: db07 fcbe 1ba7 5e3e e65d 9b3e d5dc f13e
00000180: 2005 a03d aede be3e ea5a 3fbe d3f5 43be
00000190: bae1 093e 7d4c e63e 4121 be3e fba0 a13e
000001a0: 0b5a d03d bae8 033e 55b9 c7be 25a5 153d
000001b0: 4712 783e b662 383a 7ccb f1be dc57 cb3e
000001c0: 629e 253e 70f5 bebd 9d62 8b3e 2bc3 45bb
000001d0: dcdc e0be a36f 893e 511a 753e 9b82 92be
0.043273788 -0.21579969 -0.12922694 -0.013023745 0.455481 0.4942169 0.18349707 0.10491136
0.38525525 -0.23509882 0.39584094 -0.43693545 -0.10005465 -0.047487162 -0.23400448 0.010064616
0.0978631 -0.15580602 -0.27454305 -0.15657438 -0.39802685 0.19120125 0.070232905 -0.062563434
-0.20962486 -0.16861857 0.33402053 -0.09938215 -0.28945503 0.47546282 -0.15853402 0.27245256
0.47291255 0.04534534 -0.4319507 0.2886494 -0.4948454 -0.12920976 -0.25912362 0.11071239
-0.19286092 0.16823097 0.3640511 0.4215523 -0.341224 -0.42749402 -0.40682107 -0.29547173
0.2733169 -0.37307617 0.20265055 -0.10391929 0.18166403 0.23117253 0.031483494 0.47021458
0.2488921 -0.0912333 -0.3173143 0.31003523 0.04722613 -0.29514232 -0.31994614 -0.2473189
-0.015019801 -0.46817124 0.46509984 0.19481498 0.07517014 0.4873895 0.20347704 -0.057804678
-0.19464934 -0.12788838 0.12639064 0.113976605 -0.2407748 -0.40743995 -0.44659522 0.1313437
-0.30068687 0.47663677 -0.009637843 0.23028907 0.20873486 -0.25483865 0.2690557 -0.013980245
0.04857731 -0.21391372 0.12017312 0.46693867 -0.49224743 0.21743433 0.30345076 0.47238794
0.078134775 0.37279266 -0.18687025 -0.19136743 0.13465014 0.4498023 0.37134746 0.3156813
0.10173424 0.12881747 -0.39008585 0.036534447 0.24225722 0.0007033752 -0.4722556 0.3971547
0.161737 -0.09324157 0.27223673 -0.0030176144 -0.43918502 0.26842985 0.2393582 -0.2861527

weight_hh_l0 f4 [12, 4]
00000000: 3cf6 e43d f753 ccbc 8027 d8bb b055 e0bd
00000010: 37df 63be 6e9d b23e 0dac c93e 2a89 413e
00000020: c7f1 93be 94e2 86be 0029 023e 3368 9f3d
00000030: 4fb0 843e ac06 a33d 4a8e 903e b655 993e
00000040: a548 4b3e b280 b3be 029e f13e e5b8 c5be
00000050: 6906 003f f799 c03e 3598 f23e 66d5 ee3e
00000060: 77ad 25be 2ef4 973e 9dd4 d6be 9dfa 823e
00000070: 7857 d6be 1cb5 1dbd 6c4c a03e f16b 9ebe
00000080: 23cd e83d b68c 843e d11a c1bd faf0 c9be
00000090: 928b ec3e a21e fb3e 1e8f bc3e 74de e33d
000000a0: 14e2 b63e 1ccf ad3e d973 803e 821c c2be
000000b0: ac66 fa3c ef75 533d d71b 783d a2e5 f4bd
0.11179778 -0.024942381 -0.0065965056 -0.109538436 -0.22253118 0.34885734 0.39389077 0.1889998
-0.288954 -0.2634474 0.12710953 0.07783546 0.25915763 0.07960257 0.28233558 0.29948205
0.1985193 -0.35059124 0.47190863 -0.38617626 0.5000978 0.37617466 0.4738175 0.46647185
-0.16179453 0.29678482 -0.41959086 0.25581828 -0.41863608 -0.038502797 0.31308305 -0.30941728
0.11367252 0.25888604 -0.09428943 -0.39441663 0.46200234 0.49046808 0.3682794 0.11126414
0.3571936 0.33947074 0.25088385 -0.37912375 0.030566536 0.051626142 0.060573425 -0.119578615

bias_ih_l0 f4 [12]
00000000: 7d69 14be bdad 54bd f6b0 503d 0f90 b43e
00000010: 45d0 bb3c ae5e 2c3e 9365 b23e 88cf 94be
00000020: 6069 c13e 33c9 fabe 6da5 3ebd fdab 983e
-0.14493366 -0.051923502 0.050950013 0.35266158 0.02292646 0.16832992 0.3484312 -0.29064584
0.37775707 -0.48981628 -0.04654448 0.29818717

bias_hh_l0 f4 [12]
00000000: 932f ad3d 5888 493e 2b95 b43e 94b2 bd3d
00000010: 2d2d c93e 3b57 8b3c c483 1cbd 39ef 69bd
00000020: a9de a4be 934c cd3e 8b82 a23e f203 03be
0.0845634 0.19680917 0.35270056 0.09262577 0.3929228 0.017009368 -0.0382116 -0.057112906
-0.32201126 0.40097484 0.3174022 -0.12794474

weight_ih_l0 f4 [12, 14]
00000000: 14d3 b1be 338e 3b3e bef8 e53e 3dc6 c43e
00000010: 8a0b 80be 4e48 d3be d3b9 1dbd 5dfb 203e
00000020: b2ed 6d3e f749 bd3e c715 a43e dff5 55b9
00000030: 3c56 c03e 9f70 ef3b 3aa5 b8be 883f 2ebd
00000040: 1379 893e cce7 f9be 9cb1 fb3e 923f f13e
00000050: dfdd 20be 0450 e43e 1a0c 9b3e eed7 6b3c
00000060: 1439 a53d e855 ca9e a0f2 95be 2f0d 483e
00000070: 38e4 f23e 37c3 b23e 6831 e5be c1d9 d23e
00000080: e788 e63d 4269 45be 6833 603e d487 e93e
00000090: 31f9 053e 88e4 643e de4d 93bd 89a7 3c3c
000000a0: be95 c93e 2c16 ca3e c0b1 3ebe 0bc7 9cbe
000000b0: 7d9b 7abe 48f8 55be 8478 253e a323 9f3e
000000c0: b433 e4be e9b0 e23e b539 5bbd ab03 4bbc
000000d0: 5bfa 703e 22c3 09b3 17ce a3bc 4a53 1f3e
000000e0: c2c8 4bbd b2be c73e e78a a03d dbf6 efbe
000000f0: b34f d93e 3803 e53d 84ed 88be 3422 a13e
00000100: 3c08 743d 1ef2 a53e 9698 a43e 67f6 813a
00000110: 5487 053e 138c 78be b776 1d3e be9a c2be
00000120: 4c21 8b3c 566d afbe e4bb a33e 85a5 3fbc
00000130: 5da9 f5bd 0df7 ddbe 5949 993e f815 263e
00000140: 7180 6bbe 0f06 889c 9695 0a3e 9830 ed3e
00000150: 6181 413e bc86 bfbe 6d15 b93e 1f30 853e
00000160: 676f 8ebe e132 43bc 30ee 33be 7f9e dd3c
00000170: 4ffb 203c 804c 743e 36fb 9d3e 4807 d317
00000180: f615 123e 308b dd3e 1f7b 2e3e b11b 95be
00000190: b6f1 af3e f095 ea3d 9352 6abe 68e8 c73e
000001a0: ed6d 253e 3b6b debe acca d0bd ad5b de3d
000001b0: f7c1 943e 3d22 1eb8 2b4a 833e 446c 7ebe
000001c0: dc83 8b3e f404 5e3e 09e1 00be 8b2b e7be
000001d0: ae9a 3abc 1e53 e7be ef29 a23e e363 673e
000001e0: e22c 70be d791 77bd 9e93 63bd 805e 5124
000001f0: dd17 ac3e 8f9c febd 2f04 79bd c119 c23e
00000200: dff2 9bbe d082 83bd 81b8 b8be cb97 f33e
00000210: 83fc 66bd 6697 28be d1fc d0be 701d 5d3e
00000220: 1f20 df3e 8510 77b3 2aaa 843d f7e7 a6be
00000230: c030 0d3e a667 2c3e fa0c 943e 871b 103e
00000240: e7de f23d fc3b e93e 7433 b9be dbfa 5abe
00000250: 4b3f 45be 6455 44be 27c1 6f3e 3cc9 8c27
00000260: 0eac b53e 9c86 23be d1d4 bc3e 524f 4cbe
00000270: c251 7a3e 1d6b 783e b5e2 773d 2c7e 9abc
00000280: d608 d23e 9526 c5be 05f0 123e d90b 68be
00000290: 145c ff3e 0553 ecaf a9c2 983d ee3c 2cbe
-0.34731352 0.18315963 0.44916338 0.38432494 -0.25008804 -0.41266102 -0.038507294 0.15720887
0.23235205 0.36970493 0.32047865 -0.00020404857 0.37565792 0.0073071267 -0.36063558 -0.042541057
0.26850185 -0.4880966 0.49158943 0.47118813 -0.15709637 0.44592297 0.3028267 0.014394743
0.080675274 -2.1423112e-20 -0.2928667 0.19536279 0.47439742 0.34914562 -0.44764256 0.41181758
0.11256581 -0.19278434 0.2189461 0.4561144 0.1308334 0.22352803 -0.07192586 0.011514553
0.39372057 0.3947004 -0.18622494 -0.30620608 -0.24473377 -0.20895493 0.16159254 0.31081876
-0.44570696 0.44275597 -0.05352183 -0.012391011 0.23533003 -3.207527e-08 -0.019995732 0.15559116
-0.049752004 0.39012676 0.078389935 -0.46868023 0.42443618 0.111822546 -0.2674371 0.31471407
0.059578165 0.32411283 0.32147664 0.0009915353 0.13039905 -0.24272184 0.15377317 -0.38008684
0.01698365 -0.34263104 0.31979287 -0.011697178 -0.11995194 -0.43352547 0.29938772 0.16219318
-0.22998215 -9.001291e-22 0.13533625 0.46326137 0.1889701 -0.37407482 0.3614916 0.26013276
-0.27819368 -0.011913986 -0.1757133 0.027053116 0.009825542 0.23857307 0.3085572 1.3637393e-24
0.1426619 0.43270254 0.17039154 -0.2912269 0.34364098 0.114543796 -0.22883062 0.390445
0.16155215 -0.43441185 -0.101949066 0.108573295 0.29054233 -3.7702022e-05 0.25642523 -0.24845988
0.27249038 0.21681577 -0.12585844 -0.45150408 -0.011389418 -0.451806 0.31672618 0.22596698
-0.23454621 -0.060441818 -0.0555607 4.5399695e-17 0.33611956 -0.12432205 -0.060795005 0.37910274
-0.30458733 -0.06421435 -0.36078265 0.47576746 -0.056393158 -0.16464004 -0.40817884 0.21593261
0.43579194 -5.7524193e-08 0.06477769 -0.3259885 0.13788128 0.16836414 0.2891615 0.14073001
0.118589215 0.45553577 -0.36172068 -0.21384756 -0.19262426 -0.19173199 0.23413526 3.9075985e-15
0.3548283 -0.15969318 0.36881116 -0.19952133 0.2444525 0.2425961 0.06051894 -0.018858992
0.41022366 -0.38505998 0.14349373 -0.2266077 0.49874938 -4.298714e-10 0.074590035 -0.16820118

weight_hh_l0 f4 [12, 4]
00000000: 9039 e33e 6c45 a737 804c e4b5 f795 6f3b
00000010: f9f7 c43e 62c6 5bb7 1749 3bbc 19b6 4dba
00000020: dbdc b63d 6ebe 9f3c b4d1 83a2 7cf6 2cbd
00000030: 7bb3 aabe 3027 df36 7c7d 5cbc 0b0d 5fbd
00000040: 5bad febe b45b e6bb 6ffa a8bb e624 1ebd
00000050: f30d fb3d 8eec 9bbc a846 d0b2 23a7 b0be
00000060: 285d f3bc 1c40 fa36 7e7b bf3c cead 95be
00000070: e3f8 b8be 8817 9bb7 709d 6338 f212 a83e
00000080: ec2c f1be 204d 2fb9 faf4 9e30 e696 2b3e
00000090: 6162 9e3d fe42 a3b9 ec2c 5c3c 8245 393d
000000a0: 9dad b7be 00fa 0fb9 7810 33b3 c7c0 663e
000000b0: 7c2d 7d3e 3401 18bc d9de cab7 3808 8fbe
0.44379854 1.9940278e-05 -1.7009588e-06 0.0036557892 0.38470438 -1.3099607e-05 -0.011431 -0.0007847264
0.089288436 0.019499984 -3.5729653e-18 -0.042227253 -0.33340058 6.65048e-06 -0.013457652 -0.054455798
-0.49741635 -0.007029975 -0.005156807 -0.038609408 0.1225852 -0.019033697 -2.4246518e-08 -0.34502515
-0.029707506 7.458044e-06 0.023374315 -0.29234165 -0.36127385 -1.8488397e-05 5.4267643e-05 0.32826954
-0.47104585 -0.00016718032 1.156564e-09 0.16756782 0.07733608 -0.00031139696 0.013438445 0.045232303
-0.35874644 -0.00013730675 -4.1691663e-08 0.22534476 0.24724382 -0.009277631 -2.4184048e-05 -0.27935958

bias_ih_l0 f4 [12]
00000000: cff6 1f3e 4c65 cfbe 5671 11be 0ff6 07be
00000010: e4ad c03e f33f a73e 2911 bd3e 0a37 febe
00000020: ea64 fabe 9f3b b93e c00a 3b3e e8b7 c7be
0.15621494 -0.4050697 -0.1420339 -0.13277458 0.37632668 0.32665977 0.36927155 -0.49651366
-0.48905116 0.361783 0.1826582 -0.39007497

bias_hh_l0 f4 [12]
00000000: e5fe c7be 276f 893e 5c49 0f3d bd82 773e
00000010: 2fc8 9f3e bd55 8a3d 25e0 3abe cce9 0abe
00000020: a4d7 34bd 5d07 ea3d 4c38 79be 0908 03bd
-0.39061657 0.26842615 0.03498207 0.24170966 0.31207415 0.067546345 -0.18249567 -0.13565749
-0.044150963 0.11427186 -0.24337882 -0.031990085

weight_ih_l0 f4 [12, 24]
00000000: f777 29be 3e11 603e 3ddb 55ba 4168 cf3e
00000010: 9f2c 823d 6a99 303e 61b0 2ebe 8a26 863e
00000020: bc13 b2bd 0d8d d2be b86f 8bbe 6e40 9abe
00000030: 9173 323d 9f5d e2be 2a5b eebe 0983 693e
00000040: 3c51 5cbe d1b9 963e f77a 643d a4e9 943e
00000050: 1442 ec3e 77eb afbd c5bc f03e f54d 83bc
00000060: ea25 e2be 092d 1f3e f273 2939 f750 8cbe
00000070: 4d06 6bbe 5857 2bbe 60e4 ef3e d9c8 fcbd
00000080: 4454 ccbd 2577 fcbe 0a62 cdbe 2550 05be
00000090: 290a eb3e 597a 633e e3fd be3d e627 8ebe
000000a0: 4a52 b13e e64a f1be dfdd 9bbe 9a54 b2bd
000000b0: 5632 e43e 44dc ecbe bf1a 90be 2a10 b53e
000000c0: ed46 11bc 3025 e1be ac5a 6f37 2f1d 3a3e
000000d0: 35d6 82be 2812 b03d f15d d33e 0615 b9bd
000000e0: f65b cf3e 368d 013f cb95 033c 2034 4f3e
000000f0: f036 bdbe 4485 973e 9949 d53e f113 c8be
00000100: c1c7 d5bd 2b46 89bc 3615 703e f1c3 223e
00000110: 0e4d 733e d518 9fbd 7e85 c33e 0d10 f3bd
00000120: 725b 1dbe fa57 f5bd 115a 333a 5b25 30be
00000130: 0b95 b5bd 1876 fa3e 87a2 883d bc58 d6be
00000140: 1b68 8c3d 0ca0 74be 7fe8 a53e 1a2f dd3e
00000150: fd8f 45bd 5b13 c23e 4c3d 593d d28c eebd
00000160: 4052 b43d c7a1 923d 5dbe d63e 0120 66be
00000170: 90d7 b33e c26f abbe 00d2 853e 91bb 043e
00000180: 2056 fdbd d942 8abe ce7c cb9a 27b8 683e
00000190: 4d9c a43e 82cb 43be 765e 2ebe bd54 92be
000001a0: 6f50 8c3e d5ff c9be 101a 7dbe bf8e 78bd
000001b0: d9d5 cd3e f39c ecbd 1aa7 eabe dbf9 1abd
000001c0: 0242 efbe 7394 a93e 6487 123e a243 f73e
000001d0: 4aa0 e23d 1fda ad3d 4893 fc3e 3027 d7bd
000001e0: c40d 793d a4da 563e 6281 6b2b 12f8 8e3e
000001f0: 5e60 45be eac2 b43e 4dbc 89be 46ff adbd
00000200: 50b9 d1bd 3ac8 27bb 4aa7 64be a6ed 7f3e
00000210: c52d 5dbe dcd8 763d 1b9c 213e abdf 42be
00000220: 59f8 85be 879d efbe 8992 bcbe 0a8c 383e
00000230: 2508 c73e a1e4 3a3c b7cf 8dbe f1bc adbe
00000240: dd6d 263e 8530 a33e 832f 8098 90ef bebd
00000250: ae95 f73e b04a 6e3e de7e 34bc 4fc7 dabe
00000260: e848 373d 56ba d8be 53ca bebe ae6c be3e
00000270: 030e 08bd e5cb 3a3e 8b0b 8bbe a07c 20be
00000280: 0c38 2c3e 10b0 b13e b537 163e e709 a83e
00000290: 5a30 b3be c620 6ebe d3f7 b03e 55eb b4be
000002a0: 5aee 75be ce8f 0fbe d9b6 4fbc 0a0a bebe
000002b0: 8e9d ecbd 433c 31be fdfe a03e ad91 82be
000002c0: 1d4c 503e 53a9 8fbd f241 853e 407e d2be
000002d0: b25b d43e 0571 a4bd 3be2 523c c15e d2be
000002e0: 9a22 eebe c85c 993e ec37 c03c bafd 8bbe
000002f0: 0c0a 8b3e 27b4 ec3e 2e1c cd3e 3464 2c3d
00000300: fb00 69be de8d f4be 7946 83ba 3259 43be
00000310: e186 743e 702d 0fbe eb76 493c 693c 443d
00000320: ede7 543e 6f1a ec3c 5387 143d fef6 30bd
00000330: e18f 6d3e 454d d63d 27b0 80bd 049e c93d
00000340: 8897 5c3e 9d2d 54be 8f75 edbd 7e58 c83e
00000350: 76b0 e4be d569 e6be 8114 f9be e50b 91be
00000360: 721e f03e d29f 2bbd 976c b91f b707 ecbd
00000370: eb3e 3e3e a118 b83e e7f6 93be 28c4 e73e
00000380: 3a07 fa3e 13b0 a43d fc20 873e 1980 f1be
00000390: 8474 80be 1920 4c3e 9d3f 03be 65a1 d1be
000003a0: a01f c1be 5c04 55be 1e20 f03e d38f bfbe
000003b0: 9d4f fcbd 50e7 f03d 694a 82be 9e3b a03d
000003c0: 0d61 06bd f128 de3e 453b 14a1 ccdf c53e
000003d0: a66a 3f3e 109e 83be da96 1ebd 8e83 933e
000003e0: 0e8c dcbe 3914 b2bd 2fe4 fd3e 486b a33e
000003f0: 0c02 c13e a7ab 503e 39d4 f9be ec4c 403e
-0.16549669 0.21881577 -0.0008157974 0.40509227 0.06356167 0.17246023 -0.1705947 0.26201278
-0.0869517 -0.41123238 -0.27233672 -0.3012728 0.043567244 -0.44212052 -0.46553928 0.22803892
-0.21515363 0.29438642 0.05578133 0.29084504 0.46144164 -0.08589833 0.4701902 -0.016028384
-0.4416955 0.15544523 0.00016160289 -0.2740552 -0.22951622 -0.16732538 0.46853924 -0.12342996
-0.0997701 -0.4930965 -0.4011386 -0.13018854 0.4590619 0.2221464 0.09325769 -0.27764815
0.34633094 -0.47127455 -0.30442712 -0.08707543 0.44569653 -0.462618 -0.28145406 0.35363895
-0.008867008 -0.43973684 1.4266621e-05 0.18175195 -0.25554052 0.08597213 0.4128261 -0.09037213
0.40499848 0.50606096 0.008031319 0.20234728 -0.36955976 0.2959386 0.41657713 -0.39077714
-0.10438491 -0.016757092 0.23445591 0.15895058 0.23759863 -0.07768408 0.38187784 -0.11868296
-0.15366915 -0.11979671 0.0006841729 -0.1720175 -0.08866318 0.48918223 0.06671625 -0.41864574
0.06855794 -0.23889178 0.32403943 0.43199998 -0.04823302 0.37905392 0.053036973 -0.11647953
0.088047504 0.07159763 0.4194211 -0.22473146 0.351254 -0.33483702 0.2613678 0.12962176
-0.12369943 -0.27004126 -8.4160465e-23 0.22726499 0.32150498 -0.19120601 -0.17028221 -0.28580275
0.27405116 -0.39452997 -0.24716973 -0.06068301 0.40202215 -0.11553373 -0.45830613 -0.037835937
-0.46730047 0.3312107 0.1430946 0.48293787 0.11065729 0.08488869 0.49331117 -0.10505521
0.060804144 0.20981842 8.3668326e-13 0.27923638 -0.19275042 0.35304958 -0.26901475 -0.08495955
-0.10240424 -0.0025601522 -0.2232944 0.24993 -0.21599491 0.060265407 0.15782206 -0.19030635
-0.26166037 -0.4679987 -0.36830547 0.1802217 0.388734 0.011407048 -0.27697536 -0.33933213
0.16252847 0.31872955 -3.31352e-24 -0.09323037 0.48356384 0.23270679 -0.011016576 -0.42730185
0.044747263 -0.42329663 -0.37263736 0.3719229 -0.033216488 0.18241842 -0.27157244 -0.1567254
0.16818255 0.34704638 0.14669688 0.32820055 -0.34997827 -0.2325469 0.34564075 -0.35335794
-0.24016705 -0.14019701 -0.012677872 -0.37117034 -0.11553489 -0.17308144 0.3144454 -0.25501767
0.20341535 -0.07014718 0.26026875 -0.41111946 0.41476208 -0.08029369 0.01287132 -0.41087916
-0.46510774 0.299536 0.023464166 -0.27342016 0.27156103 0.46231195 0.40060562 0.04208775
-0.2275428 -0.47764486 -0.0010015509 -0.19076994 0.23879577 -0.13982177 0.012296419 0.047909174
0.20791598 0.028821198 0.036261868 -0.0432043 0.23199417 0.10463957 -0.062835984 0.09844592
0.2154218 -0.20720525 -0.11594688 0.39130014 -0.4466588 -0.45002618 -0.48648456 -0.28329387
0.46898228 -0.041900463 7.8530194e-20 -0.11524909 0.18578689 0.3595629 -0.2889931 0.45266843
0.48833638 0.08041396 0.26392353 -0.47168043 -0.25088894 0.1993412 -0.12817235 -0.40943447
-0.3771944 -0.20802444 0.46899503 -0.37414417 -0.123198725 0.11762869 -0.25447395 0.07823871
-0.0328074 0.4339061 -5.0222793e-19 0.38647306 0.18693027 -0.2570653 -0.038718082 0.28811306
-0.43075603 -0.086952634 0.49588153 0.31917787 0.37696874 0.2037798 -0.48794726 0.18779343

weight_hh_l0 f4 [12, 4]
00000000: 66ff f4bd c4e5 47bc 61c2 83be 6e73 e6bd
00000010: cb35 d53e 4c5c 2a3d 162e d5be 7083 97be
00000020: 798b a83e 6465 e2be 08aa aabe d8c7 563e
00000030: e1ef d63d c14c 8ebe f56a 38be 01e8 dabe
00000040: 799e b43e 52da 02be 8cba 95be 9722 ec3d
00000050: b228 9bbe 0f5b b03d 6247 a03e 84a8 98be
00000060: b7e4 b83e a0c6 f43e 94a7 d3be 3f92 dcbe
00000070: 6155 fb3e cfed e53d 03a8 fd3e 4c5e 093d
00000080: 16db e7be 947f a2be 454f f5be fccd 03be
00000090: 310f 05be d26f c5be 8614 71be c713 e73c
000000a0: e465 cebe e190 b83d 7c29 38be f26b 5a3a
000000b0: 9a8f e93e 539f 80be b7c2 7ebe 4a9d 93be
-0.11962776 -0.0122007765 -0.25734237 -0.11252485 0.41642603 0.041591927 -0.41636723 -0.29592466
0.3291891 -0.4421798 -0.3333285 0.20974672 0.10494972 -0.27792934 -0.18009551 -0.4275513
0.35277155 -0.12778595 -0.29243886 0.11530035 -0.30304486 0.08611118 0.3130446 -0.29816067
0.36111996 0.4780779 -0.4133879 -0.43080327 0.49088576 0.11226999 0.49542245 0.033537194
-0.45284337 -0.3173796 -0.4791204 -0.12871546 -0.12994076 -0.38561875 -0.23542985 0.028207673
-0.4031211 0.090120085 -0.17984575 0.0008332125 0.45617372 -0.25121555 -0.24878965 -0.2883094

bias_ih_l0 f4 [12]
00000000: 4f5a bdbe 2cd6 bb3d 0b44 26be 2b2a a73e
00000010: 5377 983d 7a38 fb3d 6e75 823e 896b 133e
00000020: 52fc c63e ff4f f13d f32a 53be 1300 be3e
-0.36982962 0.091717094 -0.16236894 0.3264936 0.07444634 0.122666314 0.25480217 0.1439649
0.3886438 0.11782836 -0.20621853 0.37109432

bias_hh_l0 f4 [12]
00000000: 09fe ce3e 142a e5be 8388 2ebd 397f 68be
00000010: d4e7 dfbe 6158 6cbd 3a0a 16be 979c b6bd
00000020: f0ef 053e 8268 a33e 7e36 8b3e c289 afbd
0.40428188 -0.44758666 -0.042610656 -0.22704782 -0.43731558 -0.057701472 -0.14652339 -0.08916586
0.1307981 0.3191567 0.27190012 -0.08571197

weight f4 [4, 4]
00000000: ef8d 33be 1235 a33d 839c a43e fcd5 6b3a
00000010: 78bf f7be 76a9 bd3c 03d6 d1be e465 10be
00000020: 0b5a 9b3a b1e7 b1bc e0f6 5034 0f6b a099
00000030: 11ee ff3e 3f29 2abe 4b17 f33e e1a8 32bd
-0.17534612 0.07969107 0.3215066 0.0008996425 -0.48388267 0.023152094 -0.4098359 -0.14101368
0.0011852396 -0.021716924 1.9461322e-07 -1.6586853e-23 0.49986318 -0.16617297 0.4747871 -0.043618087

bias f4 [4]
00000000: a98e 9d3e e6fd e93e 41c4 64bb a3f8 ef3e
0.30772904 0.45701522 -0.0034907016 0.46869382

weight f4 [320, 8]
00000000: b424 081c 76ec eb34 bfc3 34a5 d2f9 79b7
00000010: c0bc 0597 18ea c099 1bbf cb28 1f86 c59b
00000020: bcb6 f9bd 9ff1 b23d 9eee 233e 014e a63d
00000030: 25e8 a73e 2cfb b33e 973a 96be 2cc9 dd3d
00000040: 6d13 a83e b73a 1cbe ccaa 5a3e a73f 1b3e
00000050: db05 87be 751c 17be acbe 0bbe c1b4 82bd
00000060: 2f35 6f3e d8f5 bbbd 00a5 a9bd 3b3b 62be
00000070: 1fe5 a03e 47c2 533c 29c0 3ebc 6c0d 8fbe
00000080: cf67 fc3d 8453 9ebe b318 a9bd b550 afbe
00000090: 95eb 41be 15f1 78bc 5a78 f3bd 66ea d53c
000000a0: d00c 053e 9191 72be 6134 6b3e ddd8 fdbd
000000b0: e40e 0b3e 09d7 863d 5228 f1ba 25af 9fbe
000000c0: b61b aa3e b706 003d ada9 b3bd 069d 7b3d
000000d0: 825b 1a3e a602 2dbe d79a 113e ea34 97be
000000e0: 9c17 833c 68d9 893c cc3b 5bbd 2812 e4bc
000000f0: dcff ffbc 4b78 143c 58e1 f83b 8806 2c3c
00000100: eac0 fd1b ae66 0820 ac25 ffb8 a8ad 69a0
00000110: d575 6fb4 9fd5 f09a 14f9 b49b 9517 9e2e
00000120: affa 073e b8e1 08bd be12 223d 0d7e 143e
00000130: 5aed 89be 3588 823e 6869 9d3c 009e 433e
00000140: 6050 393a 7fff 20b5 d46a a4b3 face 0639
00000150: 7aa6 0237 0077 9635 bca0 ffb9 b6d0 da19
00000160: 19e9 583e b353 aabe e650 98be 0846 fe3c
00000170: f4e3 293e 954f 113e fa00 26bc 651a b7bc
00000180: 164f a33e ca99 c83d 0345 86be 540c a8be
00000190: 10ea b23e 57e6 76bd 92fb 69be 9860 85be
000001a0: 05ef f53c 82f4 fdbc 996d b2bc bc60 e4bc
000001b0: db96 f2bc f5aa 0c3e 5e62 f5bd 6847 3ebd
000001c0: 101e 263e e8a5 42bd 5433 fd3c 8869 7b3d
000001d0: 2565 f2bb de03 373e a3f1 26bd ac36 5dbe
000001e0: 032a a93e 9a83 84be dc2a 423d 5a82 9a3e
000001f0: 9ce5 153e 6e5d 003e d196 f1bc ea59 49be
00000200: da87 eb3d 4dbb 3ebe 2267 aabd 47f3 00be
00000210: 7511 58bd 5ee7 953e 7531 17be ebcb 873e
00000220: 8415 303d 2b89 a33e ebf8 963e 326d 0abe
00000230: a041 32bd 1aa5 b1be c023 ad3e 7e61 a33d
00000240: 1484 0cbc 6fa5 023e 6ae1 abbe 5697 b1be
00000250: 9d6f 0d3e 6cc9 e03d 75b7 413e 7bdf 923e
00000260: 74d7 68be a66b 87be 0eea 8b3e f065 ab3d
00000270: ffcf a0be 862f 713e 3b04 85be 4576 9a3d
00000280: 33fa 44bd c19f c3bd 8b79 11be 56d2 a1be
00000290: d07f 5d3d 0a2a 0e3e fa32 9dbe 07f4 e6bc
000002a0: 5fb9 02a3 b5a1 32b1 842d 999b e413 1899
000002b0: 1b1a ef1e b401 7a22 dfcd 0aa5 4d29 4aa0
000002c0: 686e 8db7 adba dabc c4c1 81be cf55 dc3d
000002d0: 3b45 9e3d a10d 033e 6170 7d3e 895a 99be
000002e0: a7d5 3a3d 0927 74bc bf42 493e c265 58be
000002f0: ebd9 413e 0bf7 983e 6b5b 91bc 11aa 1c3e
00000300: 44cf 3d3e ccd1 923d 5855 6d3e b38b 853e
00000310: 96bd 613d 35bb 2e3e 6fb5 a8be 0e5a 8b3d
00000320: f771 af3d 1640 213e 2066 6bbc 82aa 1abe
00000330: f41b 403d c5f6 a4be 0863 cf3d 4cf0 9bbd
00000340: 9afe ad3e 2ccd aabe b010 1a3e 141e 063e
00000350: 4d83 4e3d 804b 1ebe 1113 e4bc 154a 94be
00000360: 7f8f 513e 8328 86be 1741 debd 53d8 4dbe
00000370: e981 2e3d 60b7 943d 8bd4 20bd e199 d63d
00000380: c062 d63d ef92 bdbd 0299 6a3e f856 8cbe
00000390: cfee a3be 0f37 f03d e7b9 68be a165 563d
000003a0: 88eb 313d c08c 1e3d 424f 4d3c 8fbc 163d
000003b0: 14fe bebc 960c 753b bc77 323d 5a06 353d
000003c0: 835c 643e 047b 9dbe 2380 b5bd 49a8 84be
000003d0: e694 f2bd c011 2ebd a01e a63e af97 24bd
000003e0: 5460 75be 9d26 1abd 2d88 583e 78d6 bcbd
000003f0: ff24 9a3e 6b49 ecbd 21bc 26be 3fce 3d3e
4.5046063e-22 4.394421e-07 -1.5678833e-16 -1.4899722e-05 -4.3212854e-25 -1.9946884e-23 2.2620406e-14 -3.267759e-22
-0.12193057 0.08737492 0.16008994 0.08120347 0.327943 0.35152566 -0.29341576 0.10829386
0.3282732 -0.15256773 0.21354216 0.15161 -0.26371655 -0.14756949 -0.13646954 -0.06382132
0.23360132 -0.0917775 -0.082834244 -0.22092907 0.31424806 0.012924737 -0.011642494 -0.27939928
0.123244874 -0.30923092 -0.08256664 -0.34241262 -0.18937524 -0.015194197 -0.118881896 0.026112746
0.12993169 -0.23688342 0.229692 -0.12394879 0.13579899 0.065839835 -0.0018398857 -0.31188312
0.33224267 0.031256404 -0.087725975 0.061429046 0.1507397 -0.16895542 0.14219223 -0.29532558
0.016002469 0.0168273 -0.053523824 -0.027840689 -0.031249933 0.009061883 0.0075952224 0.010499604
4.1980007e-22 1.1553622e-19 -0.000121663645 -1.9793326e-19 -2.2301477e-07 -9.96068e-23 -2.9939465e-22 7.189197e-11
0.13279222 -0.033418387 0.039568655 0.1450121 -0.26938897 0.25494543 0.0192153 0.19103241
0.0007069167 -5.997644e-07 -7.656277e-08 0.0001285634 7.787365e-06 1.1210504e-06 -0.00048757147 2.262497e-23
0.2118267 -0.33266982 -0.2974922 0.031039253 0.16590863 0.14190514 -0.010132069 -0.022351453
0.31896275 0.09794958 -0.26224527 -0.32821906 0.349442 -0.060278263 -0.22849873 -0.26050258
0.0300212 -0.03100038 -0.021780776 -0.027878158 -0.02961295 0.1373709 -0.11981653 -0.046454817
0.16222405 -0.0475215 0.030908264 0.06137994 -0.0073973113 0.17872569 -0.040757786 -0.21602887
0.33039865 -0.25881654 0.047404155 0.30177575 0.1463837 0.1253564 -0.02949086 -0.19663206
0.11500521 -0.18626137 -0.08320452 -0.12592803 -0.052751023 0.29278082 -0.1476496 0.26522765
0.04298927 0.31940588 0.29486784 -0.13518217 -0.043519616 -0.34696275 0.33816338 0.079775795
-0.008576412 0.1275842 -0.33570415 -0.34685773 0.13812108 0.10975918 0.1891764 0.28686127
-0.22738439 -0.26449317 0.27327007 0.083690524 -0.31408688 0.23553285 -0.2597979 0.075420894
-0.04809017 -0.09551955 -0.14206521 -0.31605786 0.05407697 0.13883224 -0.30702955 -0.028192533
-7.086568e-18 -2.599433e-09 -2.534114e-22 -7.862233e-24 2.5315906e-20 3.388222e-18 -1.2039344e-16 -1.7123731e-19
-1.6859922e-05 -0.026700342 -0.25343144 0.10758554 0.077280484 0.12798168 0.247499 -0.29951885
0.04561391 -0.014901885 0.19654368 -0.21132568 0.18930785 0.2987598 -0.017743787 0.1529925
0.18536097 0.07168922 0.23177087 0.26083145 0.055112444 0.17063601 -0.32950923 0.06804286
0.08566659 0.15747103 -0.01436761 -0.15104106 0.04690166 -0.3221952 0.101263106 -0.07614192
0.33983308 -0.3335966 0.15045428 0.13097411 0.050418187 -0.15458488 -0.027841123 -0.2896277
0.20464896 -0.26202783 -0.10852259 -0.20102052 0.04260436 0.072615385 -0.039265197 0.10478569
0.10468054 -0.09256541 0.2290993 -0.27410102 -0.32018134 0.117292516 -0.22727166 0.052343015
0.04343751 0.03870845 0.012531104 0.036800917 -0.023314513 0.0037391535 0.04357122 0.04419551
0.22300915 -0.30757916 -0.08862331 -0.2590964 -0.118448064 -0.042497396 0.3244524 -0.04018372
-0.23962528 -0.03763448 0.21145697 -0.09220594 0.3010635 -0.11537441 -0.16282703 0.18535708

bias f4 [320]
00000000: 35fc d9ba 0ade f73d f677 7a3d 0736 0c3e
00000010: ba19 773e fc28 853e a146 6c3d ed9e 283d
00000020: 3926 66ba 6dac 6bbe 74ec c0ba 75e7 053c
00000030: 31f4 e43d 7c53 453d bafa a63d 3bf7 7ebd
00000040: d3e6 3cbe ad38 8f3d 055f 9b3e 7bb3 823b
00000050: dc60 043e 9057 26b9 a494 abbd 649e 57be
00000060: 0453 503e a64f 9dbd a69c 9e3e ca1b ae3e
00000070: c728 f93b 33d4 383d 4024 ac3e e050 0abe
00000080: 6cd0 22be bdbe 2abd f7fe a3bd 3f1d 40b9
00000090: 70d4 afbd c8a2 883e 9364 01be d04c 03be
000000a0: 6d05 c0bd b2fb 3a3e 2817 a1b8 207c 383e
000000b0: 6c58 ad3e cf94 0aba 4c20 2b3e 76a0 afbd
000000c0: 4d50 46bd fcce 23be 765f a1be e0d7 a93d
000000d0: 7523 b3be d09f 60be c0f9 893e 4cca 7f3d
000000e0: d3bf 513d 4a02 933d 2a5c ef3d 9c74 f13d
000000f0: ed15 ab3e 2c5c 8a3e db35 5a3d 0645 eebd
00000100: ffa6 b43c d5cc 11bd 61b2 abbd a616 6ebe
00000110: 475b 90be bea9 57be 59ff a33e 8145 313c
00000120: 43d6 a63e c898 783e 0380 8dbe 7d63 633e
00000130: 82c1 713e 29fc b0be 98ac b73e 20f3 6aba
00000140: 74de 9dbe d7ab 843d 4016 d9bd 11b2 36be
00000150: 559e 313e 0321 59b9 08b1 fb3d dc48 aa3e
00000160: 2d87 b4bd 78b8 d43d fb75 03be 8114 2d3e
00000170: dfd8 19be a5f4 b03d ebb5 9bbe a576 193d
00000180: 8f66 b23b b223 c33d 8dca eebd c2c3 c5bb
00000190: 6267 5dbe cc60 1ebe c1c0 8cbd fc78 c5bd
000001a0: ae01 7cbb dba6 ab3e 2398 cc3c 8095 21be
000001b0: edb7 c4bc 6136 483e bf43 4f3d d61f 3b3e
000001c0: b9dc e9b8 0b41 a73c 8109 063d 5d24 833e
000001d0: 6ce2 f0ba f2e5 d43d 083a 82bd 9c48 183e
000001e0: 0bab 30be d594 19be 9e8a 09be 0272 003e
000001f0: 5574 723e a9f1 093e d653 c4bd 015a ae3e
00000200: db7f 793e ead5 9abd 69f9 8cbe f40e 4cbc
00000210: a50b b3bd da10 e9ba 2182 bfb9 0893 3dba
00000220: de75 ce3c 325b c9ba f2bb 943e 59ab 8fbe
00000230: 8738 94bd 7598 8bbe 4aa0 0a3e 8470 033e
00000240: 7d5d 643c 3da6 f53d 0638 adbe a7bc e63d
00000250: da44 f0b8 23e5 a5be 49c4 883e 8656 8dbe
00000260: a141 c8bc cc40 8d3e fb2c b13e 82b8 b0bd
00000270: 87df 89be 7656 a63e 696d ad3e af2c f93d
00000280: 72f8 2fbe d7e6 a3bd 6a32 8f3e e16f 0f3e
00000290: 236d b73d ed72 70bc dbad 593e 1e75 1f3e
000002a0: aab9 ebba c473 4e3e 46c4 1e3d 66b5 383d
000002b0: 533a 78bc 86fd f3bd ee1f d1b9 3960 313e
000002c0: 87c7 8eba bc66 83bd 86da c83c 8732 a93e
000002d0: 5a0e 12bc 1dc8 683e b6b1 7c33 a86c b23d
000002e0: b807 233e a5f0 ae3e 869d 25be a4f7 46be
000002f0: 8ec9 9bbd 9f28 973e 6019 d3ba 1892 69be
00000300: 07c4 68bd 8032 413e 1d73 9ebd 88c5 92b9
00000310: 545a bebd a2b1 c03d 81a2 8e3e 20e6 a03e
00000320: 8fef f93c 6c52 21b9 77c5 8f3e 2782 233e
00000330: b40a 0abe c9ce a03e 95ec 80be 7525 c7bd
00000340: f84a c63d 49ff 64bd 74d2 583e c3e8 ed3d
00000350: b83c d83d 1659 7f3c 037f 5abe a9eb 663e
00000360: ca76 543e 8665 aa3e 3ba4 0bbd 4fe8 153e
00000370: 4640 f8bd cf90 52be 20d0 abbe 6a32 ffbb
00000380: e32a 0bbe 277d 753e 1795 b7be 484c 2a3e
00000390: 16d7 bdbd dd26 2e3e 5bd6 b03e 6ab7 153d
000003a0: 0ad1 19be b8a1 a9bd f808 8c3c a91a 023e
000003b0: 4f13 72bd 8a84 12be 63fd 453e 4623 2c3e
000003c0: 94d1 c4bc 439d 983e 07a6 2c3e 36b5 33b9
000003d0: 506d 223e 8845 a5bd e525 62bd 42eb 143e
000003e0: fb60 233e 6bc5 cf3d 35de 243d 4c78 52be
000003f0: 0326 29be 98fd bfbd 3283 9f3e 2818 c53d
-0.001663095 0.121028975 0.06114956 0.13692485 0.24130908 0.2600783 0.057684544 0.04116719
-0.00087794993 -0.23014994 -0.0014718906 0.008172859 0.11179388 0.04817532 0.08153291 -0.062247496
-0.18447427 0.06993232 0.30345932 0.003988681 0.12927574 -0.00015863613 -0.0837796 -0.21056515
0.20344168 -0.07681207 0.30978888 0.34005576 0.007603738 0.045124244 0.33621407 -0.13507414
-0.15899819 -0.04168581 -0.08007615 -0.00018321442 -0.08585441 0.26686692 -0.12636022 -0.1282227
-0.09376035 0.18260077 -7.6813914e-05 0.180161 0.33856523 -0.00052864564 0.16711539 -0.08575527
-0.048416425 -0.15996927 -0.31518143 0.08293128 -0.3498799 -0.21935964 0.26948357 0.062448785
0.05120833 0.07178171 0.11687501 0.117898196 0.33415166 0.27023447 0.053274017 -0.11634259
0.022052286 -0.035595734 -0.083836325 -0.23250827 -0.2819464 -0.21060845 0.32030752 0.010819794
0.32585344 0.24277031 -0.27636728 0.2220592 0.23608974 -0.34567383 0.35873866 -0.000896262
-0.3083378 0.06478088 -0.10599947 -0.17841364 0.17345555 -0.0002070703 0.122896254 0.33258712
-0.08814845 0.10386747 -0.12837975 0.16902353 -0.15024136 0.08640412 -0.3041223 0.037466664
0.005444355 0.09528293 -0.11659727 -0.006035299 -0.21621469 -0.15466613 -0.068727024 -0.096422166
-0.003845315 0.33525738 0.024974888 -0.15779686 -0.024013484 0.19551994 0.050601717 0.18273863
-0.000111514186 0.020416757 0.032723907 0.2561368 -0.0018378026 0.10395421 -0.06358725 0.14871448
-0.17252748 -0.14998181 -0.13431785 0.1254349 0.2367719 0.13471092 -0.09586303 0.34053043
0.24365179 -0.07560332 -0.27534035 -0.012454737 -0.087424554 -0.0017781511 -0.00036527312 -0.0007231687
0.025202688 -0.0015362261 0.2904964 -0.28060415 -0.07237344 -0.27264753 0.13537708 0.1283589
0.013938305 0.11994598 -0.33831805 0.11266451 -0.000114569164 -0.3240138 0.26712254 -0.27605075
-0.024445357 0.275885 0.3460463 -0.08628942 -0.2692835 0.3248784 0.33872536 0.12166726
-0.17184618 -0.080030136 0.2796815 0.14007522 0.08956363 -0.014675838 0.21257727 0.1557202
-0.0017984409 0.20161349 0.0387614 0.04509487 -0.015150624 -0.1191359 -0.00039887376 0.17321862
-0.0010893204 -0.064160794 0.024518263 0.33046362 -0.0089145545 0.22732587 5.883495e-08 0.08712131
0.15920913 0.34167972 -0.16173372 -0.19430405 -0.07606803 0.2952318 -0.0016105585 -0.22809637
-0.05682757 0.1886692 -0.077368 -0.00027994462 -0.092945725 0.09408881 0.27858356 0.3142557
0.030509738 -0.00015384861 0.2808034 0.15967618 -0.13480645 0.31407765 -0.25180498 -0.09723941
0.09682268 -0.05590752 0.21174031 0.116166614 0.10558456 0.015585205 -0.21337514 0.22550835
0.2074844 0.3328058 -0.03409217 0.146394 -0.12121634 -0.20563053 -0.33557224 -0.0077879922
-0.13590579 0.23973523 -0.35855934 0.16630661 -0.0926954 0.17007013 0.3453854 0.03655187
-0.15021148 -0.082827985 0.01709412 0.12705483 -0.059100445 -0.14308372 0.1933494 0.16810331
-0.024025716 0.2980748 0.1686021 -0.00017138277 0.15862012 -0.08069903 -0.05521192 0.14542869
0.15954964 0.10145076 0.040250976 -0.20553702 -0.16518407 -0.09374541 0.31154782 0.09623748

weight f4 [4, 320]
00000000: e37d 031b 6696 e5bb 07ab c7bc 8f9b 733c
00000010: 9d7c 3ebc dfca f23c d0fe 6b3d f4a0 fcbc
00000020: 6845 d119 0813 fabb d058 db19 df06 abbc
00000030: cb7a 37bd 6b85 c73d 95c0 1b3e 3224 103b
00000040: 90a8 983c 93fa 2fbd 8852 e8bc 8c24 833c
00000050: 86dc ecbc 7179 061a 5d7a 463d 9efc 7f3d
00000060: e723 a23c a3c3 8bbc 9c9a 8d3c 9e45 333d
00000070: a4f3 0fbc 4585 903c e187 39bd 6d4d 24bb
00000080: e0d5 643c cb21 093c efbf 713d def3 8b1a
00000090: 2b46 983c 15c3 a03c ae60 71bd 921f 243d
000000a0: b57e d0bc a0dc 41bd 5b49 169b 22e7 a8bc
000000b0: e99c 643d cde4 2019 d84a 1d3c 6e87 b23b
000000c0: 3f33 2fbd cd0f 7c3c 62b7 8e3c 8df5 4a3d
000000d0: 8028 513d ec6a a4bc 6545 2f3c 65d4 a0bc
000000e0: af7f 32bd 3ede cabc 003f 0bbc af6c 7c3d
000000f0: 3ef8 3a3d d030 3a3d f883 a43c 4d0a f6bc
00000100: 8508 b73d 34e4 843c 6d57 1e3d 5b98 f03c
00000110: 3a4c 613d 2ed8 5a3d 804c c13c e495 943c
00000120: f083 583c 18fe 8fbb 1d7a cd3c 155b 66bc
00000130: 1fe7 523e f641 833c 9d64 233d 5015 4e1a
00000140: 4afd 22bd 5f39 c13b ef11 9fbc 7540 3a3d
00000150: 71d0 44bd 9c82 ac37 97ba 1a3d 7b37 df3c
00000160: f823 1a3d 38e5 113d 6b3a b93c f65c 623d
00000170: 8d93 133d 17fd 173d 9454 00bd a8e6 87bd
00000180: 591b bbbc 64a7 3cbd 6497 6fbc 2a12 3d3b
00000190: 16e2 e2bc d1b4 e2bc 2ac0 b13c b836 85bc
000001a0: 3819 e1a7 bccf 593d ada7 f2bc bc7d 03bd
000001b0: 6837 b5bb 17c8 fd3a 07a5 503b 2006 6b3d
000001c0: 63f6 8d9a 4bf4 f43c 217f 173d fe9d 093b
000001d0: c0f9 c097 8b1e 1cbd 5ebc 0e3d de34 1dbc
000001e0: 1e72 543d 64b8 493d 64e0 1b3d a794 143d
000001f0: b4c7 27bd 70f8 4ebc f50a 4b3d 8ba9 c93c
00000200: 8396 debb 0240 703c 3117 d73c b182 00bc
00000210: 5e72 c7bc fab6 861a 146f d234 4063 9697
00000220: 4f62 f5ba 5727 bb1a 0279 483d cff9 bdbc
00000230: c013 593c d6a4 c8bc 7097 c6bc 0128 683d
00000240: e61f 673d 3641 3bbd dff6 87bc f360 2a3e
00000250: 6cc8 08b9 3b62 bebb fe28 7c3c 7ee0 043d
00000260: 85ca 0ebc eca1 6b3c 3891 8bbc c0a0 f6bb
00000270: a8e2 b03c 5bd5 8f3c 0cf9 e53c c232 993c
00000280: cbdb 0fbd bf42 eebc e2fe 34bd fc04 87bc
00000290: 33a9 cabb e88c cebd a9a8 0f3d ffbc 5b3d
000002a0: aa73 6e1a 9bbf 8c3c 64cc cbbc 1933 563d
000002b0: fabf e43c 3f34 ac3c f7ea f79a 7637 a03c
000002c0: 5267 a118 556d 22b5 a154 e33c 78da 28bd
000002d0: ead3 c4ba f1ae 7cbc 4821 38b5 4e38 12bd
000002e0: 243f 2e3d 0d3b 2bbd 609a 02bd 9cb8 58bc
000002f0: f87a 31bd 01b9 423c ad5d 201b aa2b 1f3c
00000300: 7920 323d 6add 30bd f0c2 173c 16c8 1a1c
00000310: 4fb4 e5bb 1fb5 7a3d 83ca fd3a 709e 45bd
00000320: b393 323d 720a 50b8 7ec2 993c 26be 72ba
00000330: def7 2e3d c3eb 183c b54a 0a3c 680a 1a3d
00000340: 06a3 b13a 8ad8 66bc 8c06 5f3d ff7b 39bd
00000350: 5d1f df3c a9f4 583c 5413 20bd 2b89 fcbc
00000360: c378 743d eb8c 373b 2b66 e53c 9c20 5d3c
00000370: 0602 44bd 2e54 cebc 9bde ab3c b4ef 163c
00000380: 3a32 773d 92c8 44bd 3308 3b3d af6c 903c
00000390: e4de e53c 6a21 453d e65b 8b3a 3b28 bc3c
000003a0: 4616 a13b c30e 2ebd 0f1f 3a3d 637c 7d3d
000003b0: b30e babc ee27 14bc 64bd 003d 0fc7 1c3b
000003c0: b92c be3c c2b0 133d 885d 6a3c 9c0e cb9a
000003d0: 5805 1fbd 65be bb3c 395e 46bc efc9 11bd
000003e0: d511 813c 04ca c4ba 99ad 253d 7e3d 22bd
000003f0: ba4c 3e3d 12f9 0cbd 3681 5a3b 5fa5 1cbd
1.0876742e-22 -0.0070064543 -0.024373544 0.014868631 -0.01162639 0.029637752 0.057616055 -0.030838467
2.1638126e-23 -0.0076316632 2.267994e-23 -0.0208773 -0.04479484 0.09742244 0.15210183 0.002199423
0.018635064 -0.042963576 -0.028359666 0.016008638 -0.028913748 2.780865e-23 0.04845654 0.062496774
0.01979251 -0.01706106 0.017285638 0.043767564 -0.008786116 0.017641673 -0.0452956 -0.0025070563
0.013967007 0.008369873 0.059020933 5.788304e-23 0.018588146 0.019624272 -0.05893009 0.04006917
-0.025451044 -0.047329545 -1.2431412e-22 -0.020618025 0.055813704 8.318012e-24 0.009600364 0.0054482734
-0.04277348 0.015384627 0.017421428 0.04955058 0.051064014 -0.020070516 0.010697697 -0.019632528
-0.0435788 -0.024764176 -0.008498907 0.061627086 0.0456469 0.045456707 0.020082459 -0.030034209
0.08937172 0.016222097 0.038657594 0.029369524 0.055004336 0.05342882 0.023596048 0.01813788
0.01321505 -0.004394304 0.025082642 -0.014059802 0.20595978 0.016022664 0.039890874 4.2617018e-23
-0.039792337 0.0058967317 -0.019417731 0.045471627 -0.048050348 2.0564818e-05 0.037775602 0.027248135
0.03763196 0.03561899 0.022610864 0.055264436 0.036029387 0.0371066 -0.03133066 -0.06635791
-0.022840189 -0.046058074 -0.014623497 0.0028849938 -0.027695697 -0.02767411 0.021698076 -0.016261443
-6.2477387e-15 0.053176627 -0.02962097 -0.03210233 -0.0055302866 0.0019362 0.0031836645 0.057378888
-5.871429e-23 0.029901644 0.036986474 0.0020998712 -1.2470755e-24 -0.038115066 0.03484761 -0.009595124
0.051866643 0.049248114 0.038055792 0.03627458 -0.040961936 -0.012632474 0.049570996 0.024616977
-0.0067928447 0.014663698 0.026256176 -0.007843659 -0.024346527 5.5716716e-23 3.9196368e-07 -9.718577e-25
-0.0018721315 7.7404944e-23 0.048943527 -0.023190407 0.013249338 -0.024492662 -0.024242133 0.056678776
0.056426905 -0.045716487 -0.01659721 0.16638546 -0.00013044634 -0.00581005 0.015390633 0.032440655
-0.008715277 0.014381867 -0.01703702 -0.007526487 0.021592453 0.01755779 0.028072856 0.018700961
-0.03512172 -0.029084561 -0.044188388 -0.016481869 -0.006184721 -0.100854695 0.035072956 0.053647038
4.931068e-23 0.017181208 -0.024877734 0.052294824 0.027923573 0.021021007 -1.0253641e-22 0.019557696
4.172185e-24 -6.05088e-07 0.027750315 -0.041223973 -0.0015016769 -0.015422569 -6.859377e-07 -0.035698228
0.042540684 -0.041804362 -0.031885505 -0.013227608 -0.043330163 0.011884929 1.3265158e-22 0.009715
0.043488 -0.043179907 0.009262785 5.121293e-22 -0.00701002 0.061207887 0.0019362721 -0.0482468
0.04359789 -4.9600792e-05 0.018769499 -0.00092599017 0.042716853 0.009333554 0.008440663 0.03760758
0.0013552613 -0.014089713 0.054449603 -0.045284268 0.027236635 0.013241925 -0.039080933 -0.030827126
0.05968548 0.0028007578 0.028002819 0.013496544 -0.047853492 -0.025186624 0.02098017 0.009212423
0.060350634 -0.04804284 0.045662116 0.01762995 0.028060384 0.04812757 0.0010632246 0.022968402
0.0049159853 -0.042494547 0.045439776 0.061886203 -0.022712087 -0.009042723 0.031430617 0.002392236
0.023214685 0.03605724 0.014304526 -8.3982435e-23 -0.038823456 0.022917936 -0.012107425 -0.03559297
0.015755573 -0.0015013819 0.04044876 -0.039609425 0.04645989 -0.03441722 0.0033341176 -0.038243648

bias f4 [4]
00000000: 0431 39bd 3839 4a3d 2203 3d3d daa0 d33c
-0.04521276 0.049370974 0.046145566 0.025833536

weight f4 [4, 8]
00000000: 211a 96bc b305 afbe 1d17 01be 7dd7 c4bd
00000010: b3bb d5bd 075b b0be 31ec 42bd 3301 163e
00000020: d4bf 3dbe bce7 87be 45d8 483e 75fc 5c3d
00000030: aaae ccbd cc85 5ebe fb5a 06bc 4909 013e
00000040: 3ab1 e83d fd7b 103e 8783 debc cc49 263e
00000050: 5ca7 813b b000 ac3e 21f0 9fbe b318 8cbe
00000060: f8f5 973e 8b97 cc3d db7e 87be d278 963d
00000070: 1895 7ebe a241 ab3e dc91 c5bd 7f05 a73d
-0.018323006 -0.34184036 -0.12606473 -0.09611414 -0.104361914 -0.34444448 -0.04758853 0.14648895
-0.18530208 -0.26543987 0.1961375 0.0539517 -0.09994252 -0.21730727 -0.008200402 0.12601198
0.11361928 0.14109798 -0.027162326 0.16239089 0.0039567184 0.33594275 -0.3123789 -0.27362594
0.29679847 0.09989842 -0.2646397 0.073472634 -0.24861562 0.3344851 -0.09646961 0.08155345

bias f4 [4]
00000000: 74c1 f33d fcd0 443e 3af2 ad3e d56b 76bd
0.11902133 0.19220346 0.33973867 -0.06016143

weight f4 [4, 8]
00000000: 16be ab3d 5ce0 12be 80c2 aa3e 8c54 2e3d
00000010: 4424 9d3e ad10 8c3e a2ef f43a 2e42 363c
00000020: 7320 c9bc 902a 2a3b d06f 0abc e98a 48bb
00000030: 28f7 85b6 93e3 7ebd 5e6c ac3d 2b03 843b
00000040: 2bdf 30ba 959e 173a b60e 9835 4aae 181f
00000050: bbd0 a537 22d1 d41f f485 d39e 5f93 29a8
00000060: e2ac 49be 7d60 d8bd e379 c63d 564f e33d
00000070: d28d 1cb3 606c c03d e998 be3d 23c6 963e
0.083858654 -0.14343399 0.33351517 0.0425611 0.3069173 0.27356473 0.0018687139 0.011124177
-0.024551606 0.002596531 -0.00844951 -0.0030600375 -3.9924817e-06 -0.06222875 0.08419107 0.004028698
-0.0006747122 0.00057838234 1.1329164e-06 3.233142e-20 1.976673e-05 9.0131474e-20 -2.2395896e-20 -9.4133406e-15
-0.19694856 -0.10565279 0.09691217 0.110991165 -3.6450565e-08 0.09395671 0.09306509 0.2944804

bias f4 [4]
00000000: 45e2 8e3e 107a 28bd 8fec 8bba 0cd0 aebd
0.27907005 -0.041132033 -0.0010675358 -0.085357755

weight f4 [10, 2]
00000000: ee8e 29be 9b98 5f3e 3272 d8be b66a 19bf
00000010: 13b9 2c3f 04a5 ef3e f422 40be e2e0 2a3f
00000020: 04f4 21bf 147c d53e 04cf de3e d159 f8be
00000030: 5c90 9cbe f3f9 213f a216 2f3f 85eb 9a3e
00000040: 1c1b 0ebf 94df acbe 9c7c 72bd f13f ab3d
-0.1655843 0.21835558 -0.42274624 -0.5992845 0.674699 0.46805584 -0.18763334 0.66749394
-0.63262963 0.41696227 0.43517315 -0.48506024 -0.30578887 0.6327202 0.6839391 0.30257812
-0.55510116 -0.33764327 -0.059200868 0.08361805

bias f4 [10]
00000000: c2b6 babc 136f f83e 5521 f6be 8a1f 153e
00000010: 0471 aabd 5cdd e93e 9ebe 723e 9c07 d7bd
00000020: 490c 04bf b55c d33e
-0.022792224 0.48522243 -0.48072305 0.14562812 -0.08322337 0.45676696 0.23705527 -0.10499498
-0.51581246 0.41281667

weight f4 [10, 2]
00000000: 24dc c23e f58c d3be 138f 253f fdbe 243f
00000010: bed1 c5be b240 19bf 6ee5 ef3e 7c75 533e
00000020: 68a5 0ebf f8c6 0f3d f211 22bf f142 643e
00000030: f6b5 c9be bcb0 0dbf 4ed6 339c d677 6d1a
00000040: 1e10 ee3d 8a7a a93e f8e2 3d3e e4e5 e9be
0.3805858 -0.4131848 0.6467144 0.64353925 -0.38636583 -0.5986434 0.46854728 0.20650285
-0.5572114 0.03510186 -0.6330863 0.22291161 -0.39396638 -0.553478 -5.9503114e-22 4.9107254e-23
0.11624168 0.33101302 0.18543613 -0.45683205

bias f4 [10]
00000000: bdee 163f 2f52 7cbe b305 923e 9d20 e73e
00000010: 023e 05bf bbf9 bf3e dbe9 213e 8743 afbb
00000020: 1584 153e cc73 513e
0.58958036 -0.24640726 0.28519973 0.4514207 -0.5204774 0.37495217 0.15811865 -0.005348626
0.14601167 0.20454329

weight f4 [20, 4]
00000000: efc5 fd3e c7e5 5b3e 3b7e b93e f3ce 793e
00000010: 6617 783e d105 53bd b07f 043e 1700 9bbe
00000020: 97de 15be 5f5c 1cbe 94ee a93e 5727 abbe
00000030: fc3e bd3e 3d05 a3be 66b3 823e 26f3 e9bc
00000040: ca12 163e 37b2 ef3e 7a46 d7be 2191 b6be
00000050: eaf2 c23e 8d2e 8f3e 9cc1 2abd db46 cd3e
00000060: 7ef3 65be 3b25 5bbe 92af 193e 92d5 cf3e
00000070: 64d9 953d 665b 7abd 84b5 cf3e f2ef 173e
00000080: 0049 013e d9e3 2cbe da46 75be 988f 49bd
00000090: 27b4 7dbe a588 ea3c c23f edbe 8dfb 813d
000000a0: f331 343c 2185 49be 1f79 be3e a6bb 0fbe
000000b0: 746e 2bbe f50d 0c3e aa67 f8bd 8247 c33d
000000c0: 854f da3e d651 283d 2c7e 6b3e 4526 dd3d
000000d0: f958 a1bc cf04 1ebe d416 853e 043f 7d3e
000000e0: d0f4 553e ef5e 4abd e7a5 8dbd d56a ecbe
000000f0: 8a1e 99be 6eb7 d6be dd89 403e 6259 76be
00000100: 4f87 4bbc 69fc c73e c290 fa3e db6d 78be
00000110: fff2 acbe adb6 af3e 6719 39be 956f c63e
00000120: eedd cd3e 3b6e eebd 2ce3 32be 4108 cfbe
00000130: 8fd9 a03e 0659 6fbe 761b dfbe dae8 2abe
0.49565074 0.21474372 0.3622912 0.24395351 0.24227676 -0.05151922 0.12939334 -0.30273506
-0.14635693 -0.15269612 0.33189833 -0.3342845 0.36962116 -0.31839934 0.25527495 -0.028558325
0.14655605 0.46815655 -0.42045957 -0.356576 0.38075954 0.27965203 -0.041688547 0.4009312
-0.22456166 -0.21400921 0.15008381 0.4059263 0.073168546 -0.06112232 0.40568173 0.14837626
0.12625504 -0.16883792 -0.23952809 -0.049209207 -0.24775754 0.02862961 -0.46337706 0.06346808
0.010998237 -0.19679691 0.37201783 -0.14036426 -0.16741353 0.13677199 -0.12129147 0.095351234
0.42638794 0.04109367 0.2299735 0.10798315 -0.019695746 -0.15431522 0.2599398 0.2473107
0.2089417 -0.049406942 -0.06916409 -0.46175256 -0.29906112 -0.4193682 0.1880259 -0.24057534
-0.012422397 0.3905976 0.48938566 -0.24260657 -0.3377914 0.34319058 -0.18076096 0.38757005
0.4020838 -0.116421185 -0.17469472 -0.40435985 0.31415984 -0.23373803 -0.4357564 -0.16690388

bias f4 [20]
00000000: 146c fa3d f722 c83c 50e6 e53e 140d f73e
00000010: 3685 053e d684 e53e 8ac2 0c3e ef6d a73e
00000020: adcc 9fbe 46bf fa3d 6d11 94be 56f8 96be
00000030: c011 4fbe 1364 c93e 4453 eebb 0948 4e3e
00000040: 5c45 e73e 635d 96bb 154b 363e 6d0f 273e
0.122276455 0.024430735 0.44902277 0.48252165 0.13039097 0.44827908 0.13746086 0.3270106
-0.31210843 0.12243514 -0.28919545 -0.2948634 -0.20221615 0.39334163 -0.0072731096 0.20144667
0.45170105 -0.0045887693 0.17802079 0.16314478

weight_ih_l0 f4 [12, 10]
00000000: 3a8b b9bc c2f8 ec3b d288 9abe dc7a 62be
00000010: af85 2b3d ab29 ccbb b250 083d 474e 653e
00000020: 80b9 443e ca4f 223e 4599 033e bcf1 a61c
00000030: f508 3c3e 4cf2 003d 0bb9 98bd 1836 a7bc
00000040: b06d 70bb 0eac 753e 32bf 6bbc 6d77 49be
00000050: 1720 a43e 4948 801c 2dd4 d0bc baf0 0ebe
00000060: 7c08 45be 2e7d 093c bec3 153e bfcf 803e
00000070: 9f63 ffbd 9203 903e fcb6 5cbe 48ab 5b9b
00000080: 0b30 16bd d489 17be 7796 2f3e f806 fe1e
00000090: 3a90 29bb e45b d5bd 67c6 9cbd 5f52 9cbe
000000a0: 4a2c d9bd c1ea 77a1 8e1c 1f3c 1037 00be
000000b0: 9dc0 d0be 754b ab3c 7470 ce3d 9ad0 8c3d
000000c0: 4ccf 9ebc ddc4 9f3e ff8c c4bc e1ea 64bb
000000d0: 7ca2 8b3e 7a8d 9bbe dc4e 003e dd6c 9fbc
000000e0: 1cf6 fe3d 2c9e 0cbd f1dd 82bd 1f49 84be
000000f0: 6c6e 4ebe d53c 892b 642e 123e 67af 633e
00000100: d24a f33d d0a8 573c 3694 1e3e 99cc 67bd
00000110: 7551 2c3d 7987 65be 4b29 8a3c 671f 41a2
00000120: 7b13 793e f9da e33d c0d8 883e dc9b 8cab
00000130: 93e3 df3d 0ad2 ed3e 64ad 3abe 80a9 6cbd
00000140: 52b1 ad3e dbb6 1fbb c3fa 733e 0fd6 66be
00000150: 2d6c 4bbe 4ce2 069b 04b5 9f3e 2dbd be3d
00000160: c599 9d3e f496 a7be 8179 c4be b657 3b3b
00000170: ef95 e6be 6267 2a3d e805 83be 2880 8f3c
00000180: 9068 853e a5dd e8be f435 af3e 3cbb 00bf
00000190: bb1a a93e ee8b 3b3c 8f23 b9bd 2532 c3be
000001a0: ece5 5bbe 8b03 5bbc 6ff4 4c3c 4c1b 8f3e
000001b0: 86bb c5be ddb9 bc3e 4ae7 a63e 864e e33b
000001c0: 726b a0be 40b9 05be 6eb1 733d 0c4a 42bc
000001d0: 6f43 30be 851d 063f 026d d93e 99bd 48be
-0.022649396 0.0072318027 -0.3018251 -0.2211718 0.041875537 -0.006230553 0.033280082 0.22393142
0.19211388 0.1585075 0.12851436 1.1047445e-21 0.18362792 0.031481072 -0.07457169 -0.020411536
-0.0036686473 0.23991415 -0.014388846 -0.19674464 0.32055733 8.489015e-22 -0.025491798 -0.13959017
-0.19241518 0.008391662 0.14625451 0.25158498 -0.12470173 0.28127724 -0.21554178 -1.81706e-22
-0.03666691 -0.14798671 0.17147242 2.6896178e-20 -0.002587332 -0.10417917 -0.0765503 -0.30531594
-0.106041506 -8.399755e-19 0.009711398 -0.12521005 -0.40771952 0.020910004 0.100800425 0.06875725
-0.019385956 0.31204882 -0.023993013 -0.0034930038 0.27272403 -0.30381376 0.12530082 -0.01946109
0.124492854 -0.034330532 -0.06389988 -0.25837037 -0.2015931 9.75132e-13 0.14275509 0.2223488
0.11879505 0.013162807 0.15486225 -0.056591604 0.04206987 -0.2241496 0.016865393 -2.6173002e-18
0.24323837 0.1112575 0.26727867 -9.990858e-13 0.10932078 0.4644931 -0.18230206 -0.057778835
0.33924347 -0.0024370465 0.23826127 -0.22542594 -0.19865485 -1.1157341e-22 0.3119279 0.09313426
0.3078138 -0.32732356 -0.3837395 0.0028586215 -0.45036265 0.0416025 -0.25590444 0.017517164
0.26056337 -0.454816 0.3422085 -0.50285697 0.33028206 0.011446936 -0.090399854 -0.38124195
-0.21474427 -0.013367544 0.012509449 0.27950513 -0.38619632 0.36860552 0.32598335 0.006936851
-0.31331974 -0.13058949 0.059495382 -0.011858474 -0.17213224 0.52388793 0.4246598 -0.19603576

weight_hh_l0 f4 [12, 4]
00000000: 7f1a be3e 8d8f 1ebd 894e 91be 772b d53e
00000010: 8cda 9f3e aeb0 96be dc1f 763e e0ab a2be
00000020: 4fe3 823d 062e d23e 8f47 833e 14ae 9bbe
00000030: 24f0 ac3e 8dda 4fbd 02f0 dbbd 28f9 dd3d
00000040: b497 463e 207f 3b3e c84a 43be 160c 69be
00000050: 4ac1 8cbd a589 adbe 50cc 9a3e 3ef8 e4be
00000060: 2a29 883e 5e0a 863d a934 8ebe b06e 673e
00000070: dd75 d63c 1ba4 783e 4e47 b8be 4249 8d3e
00000080: 2c61 b2be 8f62 553e 0457 8abe 9cbd 78be
00000090: 0ec2 87be f66f 093e ad90 29be 3d56 e13d
000000a0: ea4d 4d3d 347e 5fbc 59a4 b63e ddbc 6ebe
000000b0: c93b aa3e 9706 ef3e 6a5b c93e 1c59 35be
0.3712959 -0.03871112 -0.2838023 0.41634724 0.31221426 -0.2943167 0.24035591 -0.31771755
0.06391012 0.41050738 0.25640532 -0.3040625 0.33776963 -0.050745536 -0.10739137 0.108385384
0.19393808 0.18310213 -0.19071496 -0.22758517 -0.068728045 -0.33894077 0.30234003 -0.44720644
0.26593906 0.06544946 -0.27774552 0.22600818 0.026179248 0.24281351 -0.359919 0.27594954
-0.3483976 0.20838378 -0.27019513 -0.2429108 -0.2651524 0.13421616 -0.16559096 0.11002777
0.050123133 -0.013640929 0.35672262 -0.23314233 0.33248737 0.46684715 0.39327556 -0.17709774

bias_ih_l0 f4 [12]
00000000: 516f f93e 7b62 31be 5cd1 c2bd 9319 bb3e
00000010: eb2b f0bc af2b 59be 44b8 27be 805d 453e
00000020: 6188 6cbe 3fc8 e5bc c4eb a5be f63e 6d3e
0.4871774 -0.17322724 -0.095125884 0.3654295 -0.029317817 -0.2120807 -0.16378886 0.19273949
-0.230989 -0.028049586 -0.32406437 0.23168549

bias_hh_l0 f4 [12]
00000000: 2dee 33be 07df 8c3e f60b b73d 2bc5 e23e
00000010: ed1a 89be 92fa 04be 1d67 a4be f70f 853e
00000020: 1e8f 6d3e e34e b4be ff4c e33e 949b 913e
-0.17571326 0.27513906 0.08937828 0.44291052 -0.26778355 -0.1298621 -0.3210992 0.25988743
0.23199126 -0.35216436 0.4439468 0.2843901
