RTSNet/checkpoints/Linear/evolution_mismatch/rq2040_Fhat.pt (torch, 73933 bytes, 69 tensors)

weight_ih_l0 f4 [12, 10]
-0.40526092 -0.08592933 0.085372746 0.030862583 -0.3620779 -0.08680215 -0.45555303 0.23014325
-0.32819015 0.074739605 -0.21275365 -0.32990372 -0.007574031 -0.07573763 0.12976977 0.460841
-0.099546686 0.39929777 -0.311329 0.023558456 0.33701533 0.18683587 0.019976694 -0.4516239
-0.25184882 0.03631112 0.34737283 0.41755491 0.35518664 -0.121458024 -0.06244059 0.46691236
-0.01131548 -0.27956304 -0.28936568 -0.430627 -0.09726073 -0.14442478 0.47454128 -0.07225365
0.28279796 0.3259973 0.07792754 0.26616576 0.17330204 0.155315 0.36713478 -0.3872713
-0.22953445 -0.28189307 0.1967878 -0.40095094 -3.0744836e-06 0.089311406 0.10584685 0.18721837
0.34567776 -0.39583516 -0.11211464 -0.20954031 0.04520209 -0.43529108 3.2944388e-14 0.447417
0.44401854 -0.28548563 -0.031903114 -0.2588513 -0.33060288 -0.36471948 -0.04217978 0.11472321
2.6417663e-14 0.054832056 0.019772125 0.34207588 -0.020807108 -0.47231874 0.37051862 -0.18213424
-0.18974522 -0.35336226 0.036871262 0.024127088 0.05190593 0.07115971 -0.014049567 -0.33996493
-0.009204376 -0.04647404 -0.08951962 -0.07672703 4.5545724e-12 -0.43508282 0.45147723 -0.35155752
0.17933269 -0.30675507 -0.04638151 0.08446257 0.46475387 -0.46049467 -0.0004448855 0.48106694
0.056090537 -0.39781305 0.43597364 0.15269683 -0.23509946 -0.37804982 0.030020867 -0.31913382
0.08085256 -0.20624249 0.31392562 0.41826776 0.23038493 -0.23323746 -0.11369205 -0.24212468
00000000: 5c7e cfbe b7fb afbd e8d7 ae3d 87d3 fc3c
00000010: 4662 b9be 53c5 b1bd 3f3e e9be acaa 6b3e
00000020: 8a08 a8be 1411 993d 18dc 59be 24e9 a8be
00000030: 942f f8bb 551c 9bbd 5ee2 043e 5af3 eb3e
00000040: 22df cbbd c270 cc3e 8466 9fbe aafd c03c
00000050: 468d ac3e e751 3f3e 2aa6 a33c 3f3b e7be
00000060: 54f2 80be f8ba 143d dada b13e c2c9 d53e
00000070: 06db b53e fcbe f8bd b4c1 7fbd 230f ef3e
00000080: 9064 39bc e322 8fbe bd27 94be 247b dcbe
00000090: a230 c7bd 17e4 13be 13f7 f23e b9f9 93bd
000000a0: e5ca 903e 1ee9 a63e 7998 9f3d e146 883e
000000b0: 1776 313e e50a 1f3e 17f9 bb3e 6d48 c6be
000000c0: 140b 6bbe 4a54 90be be82 493e 7149 cdbe
000000d0: 3a53 4eb6 e6e8 b63d 3cc6 d83d 2cb6 3f3e
000000e0: adfc b03e e8aa cabe 5c9c e5bd bc91 56be
000000f0: d425 393d 79de debe 4b5e 1429 d713 e53e
00000100: 6656 e33e 2c2b 92be d7ac 02bd 2888 84be
00000110: c844 a9be 83bc babe b4c4 2cbd 01f4 ea3d
00000120: fcf2 ed28 9497 603d 27f9 a13c 9224 af3e
00000130: ab73 aabc c3d3 f1be 9eb4 bd3e 6681 3abe
00000140: 924c 42be e6eb b4be 5206 173d 2ca6 c53c
00000150: 509b 543d 2fbc 913d 2830 66bc e20f aebe
00000160: f3cd 16bc 905b 3ebd 1056 b7bd 1023 9dbd
00000170: f13f a02c 2dc3 debe 0628 e73e 59ff b3be
00000180: fda2 373e 000f 9dbe 8afa 3dbd b6fa ac3d
00000190: 38f4 ed3e f5c5 ebbe 853f e9b9 684e f63e
000001a0: 31bf 653d 27ae cbbe f037 df3e 8f5c 1c3e
000001b0: eabd 70be bf8f c1be 52ee f53c 8265 a3be
000001c0: 0796 a53d 3b31 53be dcba a03e 3127 d63e
000001d0: 07ea 6b3e cdd5 6ebe 61d7 e8bd 88ef 77be

weight_hh_l0 f4 [12, 4]
0.028719263 -0.10564391 -0.38532272 -0.41669452 -0.18138799 -0.29771104 0.37522057 0.21462287
-0.3255311 0.045177527 -0.23722236 -0.0032535167 0.38435787 0.30393237 0.113586195 -0.17087524
0.20959891 -0.09706146 0.3039229 -0.039282802 -0.4373649 0.35782063 0.2628825 -0.5039538
-0.39990816 -0.117241435 0.18363555 0.2531562 -0.3572202 0.021254893 0.06378641 -0.24660467
-0.3498206 0.24311498 -0.37273946 -0.4794302 -0.39687634 -0.023561787 0.4553346 0.021485977
0.17210588 -0.20447236 0.4480695 0.1008714 -0.37337917 0.3725172 -0.49386877 -0.47547388
00000000: a944 eb3c d65b d8bd 0549 c5be fc58 d5be
00000010: c6bd 39be 956d 98be e91c c03e 19c6 5b3e
00000020: 03ac a6be 120c 393d 6bea 72be f438 55bb
00000030: 8eca c43e 069d 9b3e e19f e83d ebf9 2ebe
00000040: 19a1 563e 29c8 c6bd c89b 9b3e 01e7 20bd
00000050: 4bee dfbe 4434 b73e 8998 863e 1e03 01bf
00000060: c3c0 ccbe 471c f0bd f50a 3c3e b09d 813e
00000070: 91e5 b6be be1e ae3c 73a2 823d ef85 7cbe
00000080: b01b b3be 22f3 783e b5d7 bebe e077 f5be
00000090: 6033 cbbe a604 c1bc 9e21 e93e 5c03 b03c
000000a0: 863c 303e 3461 51be 5e69 e53e aa95 ce3d
000000b0: 8e2b bfbe 93ba be3e 5edc fcbe 5071 f3be

bias_ih_l0 f4 [12]
0.08924614 -0.06462126 0.020534933 -0.42367497 0.3913523 -0.34174284 0.39799953 0.07285388
0.20156187 0.34152767 -0.48440763 -0.40243226
00000000: aec6 b63d 2758 84bd e038 a83c edeb d8be
00000010: 545f c83e ebf8 aebe 98c6 cb3e 6a34 953d
00000020: 3c66 4e3e b7dc ae3e 4704 f8be 9a0b cebe

bias_hh_l0 f4 [12]
-0.27922115 -0.2277491 0.23138689 -0.21234332 -0.14278676 -0.23504202 -0.11839719 0.26009354
0.24923018 -0.113783136 0.10278889 0.47644335
00000000: 13f6 8ebe 0f37 69be aff0 6c3e 8770 59be
00000010: b136 12be dbae 70be 3a7a f2bd fb2a 853e
00000020: 3236 7f3e 2207 e9bd fb82 d23d 62f0 f33e

weight_ih_l0 f4 [12, 14]
0.003046204 -0.42675415 -0.072239704 -0.13355103 -0.04560902 -0.12832333 -0.030531969 0.24348049
-0.36980656 -0.26145416 0.0059313965 -0.10725361 -0.2594304 0.08934939 -0.024302285 0.09487986
0.14563945 -0.34860435 -0.032620154 -0.2016878 -0.059526082 -0.2730524 0.4763839 0.3302304
-0.27693793 -5.0178462e-11 -0.12266599 5.3857315e-05 -0.44404054 0.11965688 -0.21391131 -0.2767642
-0.047591906 -0.3889601 -0.09169659 0.16905896 -0.0009561907 0.020969085 -0.09374902 3.1884092e-12
-0.3156957 -0.04929827 0.19657224 -0.12790693 0.4007063 0.42390323 -0.06822708 -0.02016891
0.05093472 0.32480606 -0.053934153 -0.49044457 0.22740915 0.0447628 -0.032197967 0.017289072
-0.18403195 0.21828045 -0.48282105 0.48576263 0.011856579 -0.12696142 -3.11591e-09 0.45282748
0.22081104 -0.042922564 0.24391365 0.024772502 -0.30636215 -0.026635503 -0.33118045 -0.1352468
-0.28275153 0.22312933 -3.7245347e-14 0.155492 -0.028549273 0.33788395 -0.29989603 0.4466429
0.029857324 0.022340128 -0.2887237 -7.343169e-13 0.020755911 -0.3348535 -0.16154586 -0.16059831
-0.00011439188 0.4828524 -0.010680169 0.045801036 -0.4672735 0.41422415 -0.48921704 3.2096538e-14
0.17165229 -6.0914823e-05 0.27665952 0.35832578 0.21054003 0.23452279 -0.014720086 -0.011110579
-1.5622893e-09 0.033143383 0.16537625 0.4439976 -0.15357932 -0.0032941296 0.4356968 6.950201e-05
-0.25365245 0.32248074 0.39822346 0.28775382 -0.093625754 0.13838394 -0.018459942 0.42933467
0.08733084 -0.036531292 0.21876436 -0.0009070152 0.44029957 0.11674753 0.014187728 0.33771282
0.37467095 0.22117427 0.06730394 0.26763278 -0.09445265 -0.06990048 -0.35565308 -0.40814337
-0.4694769 -1.3529833e-11 0.4594149 -0.0005204334 -0.046325546 0.28368637 0.05868351 -0.29593074
-2.3226616e-12 0.2550729 -0.09161595 -0.42761636 0.23873854 -0.11415426 -0.2125905 -0.00073433144
0.2641044 0.044809066 -0.26203462 -0.45028484 0.13056387 -0.34738657 -0.00245356 0.48031685
8.7730836e-11 0.35377598 -0.47838274 -0.3524565 0.19627865 7.677589e-05 -0.09812001 0.0057588075
00000000: d3a2 473b 857f dabe 69f2 93bd 9ac1 08be
00000010: 86d0 3abd 3167 03be 2e1e fabc f352 793e
00000020: 4957 bdbe 52dd 85be 295c c23b c8a7 dbbd
00000030: 10d4 84be d0fc b63d 9615 c7bc 5f50 c23d
00000040: 8222 153e 457c b2be b69c 05bd 3f87 4ebe
00000050: 9fd1 73bd 86cd 8bbe 97e8 f33e f613 a93e
00000060: cfca 8dbe edaf 5cae 4e38 fbbd dae4 6138
00000070: 4859 e3be ab0e f53d 910b 5bbe 0ab4 8dbe
00000080: bbef 42bd c725 c7be 6ccb bbbd cb1d 2d3e
00000090: dfa8 7aba 5cc7 ab3c 7cff bfbd 465d 602c
000000a0: dea2 a1be fcec 49bd 3c4a 493e 09fa 02be
000000b0: 6029 cd3e d809 d93e a4ba 8bbd 4539 a5bc
000000c0: eda0 503d fb4c a63e 0fea 5cbd 8d1b fbbe
000000d0: f2dd 683e 3359 373d 04e2 03bd d0a1 8d3c
000000e0: df72 3cbe e984 5f3e 5234 f7be e1b5 f83e
000000f0: 1942 423c 2d02 02be ab1f 56b1 01d9 e73e
00000100: 4a1c 623e 92cf 2fbd 80c4 793e b4ef ca3c
00000110: 80db 9cbe b332 dabc 7c90 a9be 237e 0abe
00000120: cfc4 90be 047c 643e f6bc 27a9 4b39 1f3e
00000130: 2ae0 e9bc 20ff ac3e f98b 99be 61ae e43e
00000140: 5997 f43c a502 b73c 98d3 93be 1cb1 4eab
00000150: 4d08 aa3c eb71 abbe 476c 25be e273 24be
00000160: ace5 efb8 6e38 f73e e0fb 2ebc de99 3b3d
00000170: 793e efbe 3015 d43e a87a fabe ca8c 1029
00000180: 9ec5 2f3e cb7e 7fb8 51a6 8d3e 7a76 b73e
00000190: ce97 573e be26 703e 842c 71bc 2509 36bc
000001a0: 2bb8 d6b0 5bc1 073d 6458 293e a753 e33e
000001b0: e643 1dbe 53e2 57bb a713 df3e 9cc1 9138
000001c0: bcde 81be 321c a53e f2e3 cb3e 7854 933e
000001d0: dcbe bfbd 85b4 0d3e 4e39 97bc c1d1 db3e
000001e0: 83da b23d d6a1 15bd c403 603e c2c4 6dba
000001f0: f26e e13e 5419 ef3d a573 683c b2e8 ac3e
00000200: dfd4 bf3e 827b 623e a6d6 893d 2a07 893e
00000210: 6470 c1bd fc27 8fbd 2918 b6be 2bf8 d0be
00000220: 475f f0be f304 6ead 6e38 eb3e b26d 08ba
00000230: dbbf 3dbd 573f 913e 1f5e 703d 3c84 97be
00000240: 5a71 23ac ea98 823e 25a1 bbbd 88f0 dabe
00000250: e077 743e b5c9 e9bd 53b1 59be 2680 40ba
00000260: b138 873e b689 373d 6729 86be bc8b e6be
00000270: 89b2 053e a7dc b1be e8cb 20bb 17ec f53e
00000280: 12ec c02e 2022 b53e 95ee f4be 2e75 b4be
00000290: 45fd 483e be02 a138 25f3 c8bd 61b4 bc3b

weight_hh_l0 f4 [12, 4]
-0.49344775 -1.1016082e-07 -0.26047087 -0.18129013 0.17072886 0.06643014 -0.14784929 0.27851954
-0.38536412 -0.03185114 0.35437828 0.12925738 -0.31274313 0.03586675 -0.03937555 0.3072754
0.32995155 8.867798e-07 0.055057798 0.1176849 0.29137766 1.8529518e-05 -0.23709255 0.10477587
0.02451863 2.8736869e-08 -0.03068542 0.24512061 -0.35218507 -0.11257848 0.27228045 0.18113212
-0.13518935 -0.11247124 -0.2813147 0.4592529 -0.4561737 0.0021931464 -0.2071251 0.046753626
-0.21668649 0.102145486 -0.20117538 -0.18033499 -0.31598487 6.0887197e-07 -0.25372708 0.4394694
00000000: 2fa5 fcbe 8d91 ecb3 705c 85be 1fa4 39be
00000010: 8cd3 2e3e 860c 883d ce65 17be 1d9a 8e3e
00000020: 724e c5be 5776 02bd 1271 b53e 0c5c 043e
00000030: de1f a0be 03e9 123d 4248 21bd 3453 9d3e
00000040: 69ef a83e 0b0b 6e35 4984 613d c804 f13d
00000050: 742f 953e d66f 9b37 64c8 72be bb94 d63d
00000060: 4bdb c83c 0bd9 f632 fd5f fbbc e600 7b3e
00000070: 9a51 b4be 8c8f e6bd 5868 8b3e b37a 393e
00000080: 146f 0abe 5257 e6bd 7b08 90be 3223 eb3e
00000090: 998f e9be e4ba 0f3b 9a18 54be bb80 3f3d
000000a0: 10e3 5dbe a731 d13d eb00 4ebe bca9 38be
000000b0: c5c8 a1be 5d71 2335 84e8 81be 2202 e13e

bias_ih_l0 f4 [12]
-0.2802802 -0.03536362 -0.50038105 0.113117695 0.09346471 0.05106716 -0.060543276 0.31093088
-0.41350174 -0.14873149 0.45063642 -0.15744239
00000000: e380 8fbe 71d9 10bd f918 00bf 40aa e73d
00000010: 6d6a bf3d cc2b 513d 3afc 77bd 5532 9f3e
00000020: 80b6 d3be 114d 18be d1b9 e63e 9438 21be

bias_hh_l0 f4 [12]
0.37231383 0.063432485 0.078142606 -0.45301276 0.09511425 -0.28781357 -0.39126435 0.32054436
-0.29940832 -0.39395517 0.40271088 -0.40575045
00000000: eb9f be3e e4e8 813d 3b09 a03d 4af1 e7be
00000010: 43cb c23d 4d5c 93be cd53 c8be 641e a43e
00000020: 0c4c 99be 7eb4 c9be 1f30 ce3e 86be cfbe

weight_ih_l0 f4 [12, 24]
0.4676688 0.10366855 -6.5963497e-09 0.4830371 -0.39732862 0.22660103 -0.34512764 -0.43903008
0.25169608 0.33425066 0.12054537 0.18447019 -0.12787835 -0.48843396 0.3782579 -0.22953951
0.30726182 0.1885935 -0.3327809 -0.096226044 0.001408214 -0.30920365 -0.26299343 0.4670896
0.4307205 -0.004527413 2.0211677e-10 -0.23504022 -0.051159855 -0.009434463 0.06904715 0.11534187
0.39135006 -0.40215546 0.071642414 -0.27539968 0.42509615 0.30398157 0.48579907 0.38477883
0.27490002 -0.27393016 0.25267714 0.24532278 0.40413535 -0.3795053 0.46829244 0.008212787
0.36863312 -2.5926136e-06 2.2883789e-05 0.4416203 0.3699951 0.48970482 -0.17627749 -0.3646372
-0.14165328 -0.34130108 -3.275297e-13 -0.2908135 -0.35977083 0.053796005 -0.07848224 0.37704763
0.44301534 -0.19671585 0.10477663 -0.037208803 0.051534194 -0.0020126407 0.062814064 -0.27489603
0.34868047 -7.104353e-06 -0.096818015 0.060965966 -0.10541824 -0.07853711 0.08676126 0.24379218
0.13153772 -0.24462408 -0.0042382535 -0.12884454 -0.37886974 -0.29525495 -0.28470162 0.38406828
-0.22590323 -0.32870618 0.014638052 0.3634577 -0.45536384 -0.32035434 0.11042834 0.093533784
-0.2946963 -0.029760513 2.3111506e-06 -0.3372583 -0.4415739 -0.11749783 0.23759238 0.031750917
-0.4051573 0.4070016 -5.0970616e-06 0.48555565 -0.4792445 0.3719109 -0.4349042 0.32179305
0.08416648 -0.42828032 -0.4869054 -0.34806895 0.24782407 -0.29086307 0.46024603 -0.46596843
0.34006017 -9.422518e-08 0.05563433 -0.31146213 0.34570587 -0.2888577 -0.38884085 -0.23919956
-0.4253573 0.4069268 -0.0003810501 -0.3121781 -0.24647547 -0.17063585 -0.4035423 -0.41013616
-0.35160908 0.19384614 -0.3095731 0.20479125 0.40681142 -0.13106474 -0.49140295 0.070782736
0.11470462 -0.00023924123 0.05571362 -0.49284744 -0.3730868 -0.14418235 -0.3898419 -0.08836112
-0.09330805 0.49474224 -0.018574035 0.4142393 -0.073073745 0.02594737 -0.17787613 0.07634963
0.024022628 0.10174706 -0.075503714 0.42797378 -0.2250411 -0.08474048 0.38471258 -0.38734308
-0.07003344 -0.001653712 0.012045161 0.42411733 0.010511291 0.29318526 0.37768024 0.35179034
-0.14934292 0.12757127 -0.10437097 0.48877767 -0.22247788 0.16165383 0.11418012 -0.2800232
-0.19920135 0.15251276 -0.03416225 -0.21886745 -0.073915124 -0.06972633 0.05641604 -0.07185059
0.08955856 2.9722201e-05 -3.126213e-08 -0.13891618 0.37028125 -0.11654792 -0.14760901 0.44085523
0.024924077 -0.23673506 0.0404028 0.14142525 0.17938003 0.18058547 0.47468075 0.36570814
0.10121143 0.0989364 -0.32187057 -0.44230485 -0.19349825 0.4917292 -0.24434216 -0.12960985
0.024932064 0.013081436 -0.09735739 0.4474506 0.16378652 0.3557459 0.13738286 -0.24136634
0.26088178 -0.31432205 0.028761985 -0.2579543 0.058258947 -0.3804467 -0.5019828 0.14485098
0.35429806 -0.009226812 0.32898533 -0.14767219 0.31657034 -0.4831076 0.40251872 -0.20580995
0.38157186 -0.08812866 1.6273441e-08 -0.28789473 -0.19556272 -0.10935669 0.09538714 0.029596165
0.03316172 0.21548605 -0.0012869784 0.46038648 -0.008025756 -0.10106888 0.4805661 -0.19903858
00000000: 4972 ef3e 2d50 d43d 1ba6 e2b1 a450 f73e
00000010: a86e cbbe 1a0a 683e 92b4 b0be 8dc8 e0be
00000020: 4fde 803e e722 ab3e 7ee0 f63d c1e5 3c3e
00000030: 8bf2 02be 0414 fabe 05ab c13e 680c 6bbe
00000040: 6c51 9d3e a81e 413e 4262 aabe 2912 c5bd
00000050: d293 b83a f14f 9ebe 13a7 86be 5e26 ef3e
00000060: 6687 dc3e b15a 94bb d03a 5e2f 62ae 70be
00000070: ff8c 51bd 0293 1abc 9868 8d3d 5c38 ec3d
00000080: 095f c83e 52e7 cdbe 42b9 923d 3001 8dbe
00000090: 34a6 d93e 79a3 9b3e a8ba f83e bb01 c53e
000000a0: b2bf 8c3e 9340 8cbe e65e 813e e535 7b3e
000000b0: d4ea ce3e 854e c2be 07c4 ef3e ed8e 063c
000000c0: 7bbd bc3e c3fc 2db6 90f6 bf37 0e1c e23e
000000d0: ff6f bd3e 97ba fa3e 1682 34be bab1 babe
000000e0: 8f0d 11be 04bf aebe 0162 b8aa 82e5 94be
000000f0: e233 b8be 3359 5c3d 4cbb a0bd 630c c13e
00000100: e8d2 e23e e16f 49be 2195 d63d 4268 18bd
00000110: 8515 533d 82e6 03bb a9a4 803d 2cbf 8cbe
00000120: 3f86 b23e ed61 eeb6 8648 c6bd 73b7 793d
00000130: 85e5 d7bd 10d8 a0bd e3af b13d a8a4 793e
00000140: d3b1 063e bc7e 7abe 0ce1 8abb d3ef 03be
00000150: 37fb c1be a82b 97be 69c4 91be 99a4 c43e
00000160: 2d53 67be 2d4c a8be 71d4 6f3c 2117 ba3e
00000170: 7325 e9be 7c05 a4be 4128 e23d a48e bf3d
00000180: 6fe2 96be 52cc f3bc 4419 1b36 1fad acbe
00000190: f915 e2be b4a2 f0bd 6b4b 733e 400d 023d
000001a0: c770 cfbe 8462 d03e 6d07 abb6 c09a f83e
000001b0: 895f f5be 1b6b be3e c3ab debe 0fc2 a43e
000001c0: 7a5f ac3d 8f47 dbbe aa4b f9be 1836 b2be
000001d0: 98c5 7d3e 01ec 94be 5ea5 eb3e 6a93 eebe
000001e0: 5e1c ae3e d758 cab3 d3e0 633d f777 9fbe
000001f0: 5c00 b13e 28e5 93be 2616 c7be bbf0 74be
00000200: 6fc8 d9be b658 d03e aec7 c7b9 cfd5 9fbe
00000210: 1164 7cbe 2abb 2ebe 199d cebe 5efd d1be
00000220: 1b06 b4be 9a7f 463e 5e80 9ebe ccb4 513e
00000230: 9649 d03e d635 06be 2b99 fbbe 8af6 903d
00000240: 41ea ea3d d4dc 7ab9 f733 643d 8056 fcbe
00000250: 3c05 bfbe 8aa4 13be 5c99 c7be adf6 b4bd
00000260: 4a18 bfbd db4e fd3e 9328 98bc 2c17 d43e
00000270: b0a7 95bd 948f d43c 2925 36be 325d 9c3d
00000280: 1acb c43c c360 d03d b1a1 9abd 611f db3e
00000290: 2d71 66be 6b8c adbd 0cf9 c43e d551 c6be
000002a0: b16d 8fbd 5ec1 d8ba 1159 453c e825 d93e
000002b0: 8d37 2c3c 611c 963e 4e5f c13e dd1d b43e
000002c0: 5aed 18be 0ba2 023e 72c0 d5bd 1141 fa3e
000002d0: 3ed1 63be 9588 253e 44d7 e93d 335f 8fbe
000002e0: 70fb 4bbe 4e2c 1c3e b7ed 0bbd ca1e 60be
000002f0: d060 97bd aecc 8ebd 8114 673d 6726 93bd
00000300: 7a6a b73d f153 f937 1345 06b3 0b40 0ebe
00000310: 8195 bd3e adb0 eebd d126 17be c7b7 e13e
00000320: 942d cc3c ad6a 72be 687d 253d c8d1 103e
00000330: 66af 373e 66eb 383e 5b09 f33e 193e bb3e
00000340: f047 cf3d 2b9f ca3d 38cc a4be c875 e2be
00000350: 6824 46be eec3 fb3e d534 7abe 72b8 04be
00000360: 543e cc3c 8553 563c 5063 c7bd 3f18 e53e
00000370: a7b7 273e 5424 b63e 18ae 0c3e bd28 77be
00000380: 4c92 853e d2ee a0be 419e eb3c 9612 84be
00000390: efa0 6e3d e9c9 c2be f281 00bf d153 143e
000003a0: 8e66 b53e 0e2c 17bc c470 a83e 6137 17be
000003b0: 8215 a23e e159 f7be ef16 ce3e d8bf 52be
000003c0: 635d c33e cd7c b4bd adc9 8b32 f066 93be
000003d0: 9841 48be 66f6 dfbd 555a c33d a873 f23c
000003e0: 95d4 073d 60a8 5c3e d4af a8ba c7b7 eb3e
000003f0: 767e 03bc 33fd cebd c30c f63e c5d0 4bbe

weight_hh_l0 f4 [12, 4]
0.13461836 -0.016114827 -0.37762338 -0.039819907 0.013120243 -0.38693014 -0.43362486 0.26196486
-0.010013103 0.050602492 -0.19571932 0.25036782 0.18407293 0.08764624 0.2604505 0.11135626
0.21479718 0.33319253 0.32902384 0.025934717 -0.11953245 0.023617217 -0.1460408 0.10456692
0.12456527 -0.14255184 0.38205057 -0.3958579 -0.23409785 0.31846488 0.25742194 -0.3920522
-0.22522712 0.12399489 -0.124175526 -0.33496752 -0.18771747 0.023068255 -0.31858677 -0.13811208
-0.14203186 -0.22620983 0.32165077 -0.24588694 0.048789825 0.32362834 -0.34353545 -0.46655765
00000000: 65d9 093e 3e03 84bc da57 c1be 331a 23bd
00000010: 4af6 563c b51b c6be 1404 debe 4220 863e
00000020: ff0d 24bc 8f44 4f3d a56a 48be 3630 803e
00000030: 9d7d 3c3e df7f b33d c559 853e c00e e43d
00000040: cbf3 5b3e 3698 aa3e d075 a83e 0b75 d43c
00000050: 6ecd f4bd e578 c13c b88b 15be 2e27 d63d
00000060: 141c ff3d 1cf9 11be 229c c33e e3ad cabe
00000070: 59b7 6fbe d40d a33e cfcc 833e 11bb c8be
00000080: f0a1 66be 08f1 fd3d bd4f febd dd80 abbe
00000090: 0239 40be a3f9 bc3c ce1d a3be 416d 0dbe
000000a0: cd70 11be 8da3 67be 69af a43e c9c9 7bbe
000000b0: d7d7 473d 9db2 a53e e1e3 afbe a5e0 eebe

bias_ih_l0 f4 [12]
-0.49840188 0.21841227 -0.46239597 0.023118371 0.12585624 -0.4382097 -0.39587712 -0.39548022
0.47596672 0.3785109 -0.42416924 -0.26914957
00000000: 882e ffbe 77a7 5f3e 2abf ecbe bd62 bd3c
00000010: 75e0 003e 065d e0be 68b0 cabe 627c cabe
00000020: e9b1 f33e 2ecc c13e b62c d9be f9cd 89be

bias_hh_l0 f4 [12]
-0.48282444 -0.39132345 -0.39739874 0.48241824 -0.45941445 0.22976993 0.14608647 0.20137767
-0.4054575 0.4055503 0.08643032 0.12098022
00000000: c434 f7be 8c5b c8be d977 cbbe 86ff f63e
00000010: 5f38 ebbe cf48 6b3e b197 153e f335 4e3e
00000020: 2098 cfbe 4aa4 cf3e 6102 b13d 7ac4 f73d

weight f4 [4, 4]
-0.37266698 -0.134831 0.41533405 0.3797099 -8.602684e-05 0.0011474376 -0.0011912202 0.0378147
0.062381867 0.11072967 -0.030711217 0.07027716 0.24916723 -0.41055575 0.20538616 -0.11090549
00000000: 35ce bebe 2311 0abe aaa6 d43e 5669 c23e
00000010: 4f69 b4b8 9e65 963a b822 9cba 96e3 1a3d
00000020: 2184 7f3d 3dc6 e23d 1796 fbbc 79ed 8f3d
00000030: b225 7f3e 5d34 d2be c050 523e 6b22 e3bd

bias f4 [4]
0.109945305 -0.0049789594 -3.8906426e-05 -0.026278907
00000000: 012b e13d 8a26 a3bb 752f 23b8 dd46 d7bc

weight f4 [320, 8]
-0.03750843 0.34507316 0.1899435 -0.27270842 -0.058402948 0.27575034 -0.057146195 -0.1346873
-0.12641601 -0.20177555 -0.07866622 0.12423512 -0.070867166 0.2967565 0.268667 -0.27115422
0.0063037192 0.012143764 4.913002e-11 -2.8449756e-05 7.005312e-14 -4.3156635e-13 0.0065667895 -1.1412024e-12
-0.31591088 -0.29102165 0.1395447 0.31681415 0.34185112 0.013093958 -0.1382172 0.28248426
0.00032747156 0.0025738995 4.14266e-12 -5.6414866e-13 -0.011864177 7.1782674e-14 -5.048749e-09 -0.0014620315
0.26343286 0.28022873 0.13835278 0.22802162 0.07776682 -0.2762147 -0.18408999 -0.0060240524
0.029128557 0.02631138 0.001054516 8.242042e-06 0.012412112 2.771502e-05 0.025344154 -0.028107854
0.016593803 0.2315089 0.3158429 -0.036121346 0.317657 0.14086235 -0.055954643 0.058863673
0.16725539 -0.224325 -0.3235789 0.22323455 0.32056233 -0.16036153 0.05507783 -0.0973279
0.29121178 -0.031930123 -0.013814612 -0.21596797 -0.3076966 -0.065068185 -0.33234343 -0.15165147
-0.16997817 -0.20965752 -0.25730345 -0.07167024 -0.13947448 0.32654914 -0.26856494 0.27827367
-4.691609e-09 0.0009988573 1.1192918e-06 2.816109e-05 -0.020026557 -0.0054941466 -3.7533088e-11 -0.00093509554
0.28168976 0.08877848 -0.0570945 0.1352252 -0.043357827 -0.15927842 0.14954361 -0.005319682
0.09184234 -0.08009112 -0.045184948 0.22772363 0.029950038 -0.16598837 -0.27626556 -0.3424662
-0.27956903 0.09416034 0.067652784 -0.28793386 -0.04287789 0.05814219 0.29021028 0.0122828055
-2.4876284e-05 3.5912327e-14 0.0001728432 9.312466e-15 -0.02169113 -1.3466481e-11 0.010955715 -1.4421823e-13
0.1444683 0.25007677 -0.08543456 -0.08150401 0.1614873 0.22472034 0.20697403 0.16288418
0.22900042 -0.033360295 0.14993997 0.14185138 0.33482113 0.35002503 -0.13270055 -0.33024418
0.001549771 1.4218624e-14 -0.02420197 -0.0033321413 -7.80734e-05 2.5231552e-07 -1.6253304e-12 -1.005081e-14
0.063541226 0.15965703 -0.17377996 -0.1480384 0.2527917 0.27334264 0.1460884 0.17852864
-0.09165214 -0.16140758 0.30181602 0.2242197 0.20427461 0.30365002 -0.14734532 0.009882962
-0.21838458 -0.21651804 0.123007946 0.22802559 0.14451319 -0.08605987 0.13526924 -0.018885642
0.009739816 0.005179504 -0.013501347 2.0652895e-10 -0.011815431 0.008112944 -5.043395e-10 -4.8407063e-11
-0.009138604 -0.0072382805 -0.024819333 -6.9390103e-06 0.029276615 0.001889578 -3.2945814e-14 -7.632404e-09
0.004567894 0.018075626 0.019958712 0.0041861027 1.7062017e-09 -0.015469902 -0.00428525 -0.0020807735
-0.043399774 -0.07017005 0.047670953 0.0015960102 0.047459926 -0.10084406 -0.082693435 -0.009062205
-0.28484532 -0.04866977 0.15714724 -0.10516674 -0.041600168 0.19688039 0.00022604242 -0.28000158
-0.28370002 0.32875755 -0.04915776 -0.29524726 0.20879608 -0.13406414 0.21010454 -0.0026856458
-0.00049860636 0.009576848 -1.8608296e-12 -0.0024653424 -3.7304724e-14 1.6180679e-12 -1.8918225e-13 -1.3155406e-09
0.3453435 -0.33219257 -0.352828 -0.32426703 -0.16657095 -0.29878476 -0.24124065 0.25888816
0.31973594 -0.35932598 0.12340249 0.3502326 0.26164573 0.30962986 0.23006049 0.3124875
-0.008099901 -0.003764189 0.0075113773 -7.6786456e-08 5.7027053e-05 -0.034270726 0.0060958364 -0.007305357
00000000: 71a2 19bd 6ead b03e 8d80 423e 70a0 8bbe
00000010: ee37 6fbd 262f 8d3e 2112 6abd 78eb 09be
00000020: 3373 01be 409e 4ebe c11b a1bd fc6e fe3d
00000030: ce22 91bd 78f0 973e b98e 893e bad4 8abe
00000040: 6e8f ce3b a3f6 463c 7c13 582e 63a7 eeb7
00000050: e0be 9d29 44f3 f2aa 392e d73b 269c a0ab
00000060: 12bf a1be ca00 95be cee4 0e3e 7735 a23e
00000070: 1c07 af3e 0a88 563c cf88 0dbe c7a1 903e
00000080: 7db0 ab39 deae 283b c4c1 912c 32cb 1eab
00000090: f761 42bc e5a3 a129 4479 adb1 a3a1 bfba
000000a0: ace0 863e 247a 8f3e 5aac 0d3e 807e 693e
000000b0: 3644 9f3d 036c 8dbe 1682 3cbe 6a65 c5bb
000000c0: 039f ee3c f78a d73c af37 8a3a 4d47 0a37
000000d0: 2c5c 4b3c 8d7d e837 8b9e cf3c 7142 e6bc
000000e0: baef 873c ab10 6d3e 29b6 a13e faf3 13bd
000000f0: f0a3 a23e 383e 103e b230 65bd 091b 713d
00000100: ff44 2b3e 74b5 65be 22ac a5be 9997 643e
00000110: bf20 a43e d035 24be 4a99 613d da53 c7bd
00000120: b619 953e 29c9 02bd af56 62bc b526 5dbe
00000130: 698a 9dbe 7842 85bd eb28 aabe 864a 1bbe
00000140: c20e 2ebe 76b0 56be 47bd 83be d9c7 92bd
00000150: 66d2 0ebe 7331 a73e 5881 89be e379 8e3e
00000160: d433 a1b1 17ec 823a 933a 9635 7b3b ec37
00000170: bc0e a4bc 3e08 b4bb 8012 25ae 3321 75ba
00000180: a439 903e 7ed1 b53d ecdb 69bd 7a78 0a3e
00000190: fa97 31bd e219 23be f621 193e ba50 aebb
000001a0: d617 bc3d d006 a4bd da13 39bd 6230 693e
000001b0: c859 f53c dbf8 29be ae72 8dbe bb57 afbe
000001c0: ac23 8fbe 23d7 c03d 8b8d 8a3d 116c 93be
000001d0: baa0 2fbd 8126 6e3d 7196 943e d23d 493c
000001e0: 6aad d0b7 18bc 2129 3e3d 3539 2bc2 2728
000001f0: 99b1 b1bc a4e7 6cad 997f 333c 1360 22aa
00000200: 7fef 133e 100a 803e 51f8 aebd 93eb a6bd
00000210: ed5c 253e 171d 663e 00f1 533e 1ccb 263e
00000220: 167f 6a3e cea4 08bd dd89 193e 7d41 113e
00000230: ad6d ab3e 7b36 b33e a7e2 07be c415 a9be
00000240: b021 cb3a ea11 8028 3643 c6bc 0e60 5abb
00000250: 56bb a3b8 fb75 8734 b3be e4ab 2e0f 35a8
00000260: e721 823d 227d 233e 60f3 31be 6197 17be
00000270: ea6d 813e 91f3 8b3e 3398 153e 36d0 363e
00000280: 1eb4 bbbd 0748 25be a187 9a3e d999 653e
00000290: 5d2d 513e 0478 9b3e b1e1 16be 26ec 213c
000002a0: 35a0 5fbe e8b6 5dbe 97eb fb3d 8a7f 693e
000002b0: 44fb 133e 2840 b0bd 0584 0a3e 10b6 9abc
000002c0: c093 1f3c d4b8 a93b c134 5dbc bb14 632f
000002d0: 8295 41bc 27ec 043c bda1 0ab0 82e5 54ae
000002e0: 15ba 15bc 192f edbb ea51 cbbc a5d5 e8b6
000002f0: 83d5 ef3c b7ab f73a f05f 14a9 ab1f 03b2
00000300: 46ae 953b 5613 943c 7480 a33c 932b 893b
00000310: a37f ea30 7975 7dbc 486b 8cbb 965d 08bb
00000320: f6c3 31bd 51b5 8fbd 9e42 433d 3731 d13a
00000330: 5765 423d 5587 cebd 2d5b a9bd a579 14bc
00000340: 3fd7 91be f459 47bd 35eb 203e a961 d7bd
00000350: f064 2abd 039b 493e cd05 6d39 5e5c 8fbe
00000360: 2141 91be e952 a83e a659 49bd a62a 97be
00000370: a4ce 553e 1c48 09be a525 573e a901 30bb
00000380: e8b4 02ba 36e8 1c3c baf1 02ac 9591 21bb
00000390: 6b01 28a9 0ab9 e32b 1200 55aa 78ce b4b0
000003a0: ddd0 b03e 2515 aabe dfa5 b4be 5406 a6be
000003b0: 9391 2abe 51fa 98be ca07 77be fd8c 843e
000003c0: 6eb4 a33e 93f9 b7be 72ba fc3d b051 b33e
000003d0: 6ef6 853e ce87 9e3e fa94 6b3e 5dfe 9f3e
000003e0: 72b5 04bc 9db0 76bb 0022 f63b cde5 a4b3
000003f0: 5530 6f38 765f 0cbd 95bf c73b c761 efbb

bias f4 [320]
0.24259049 -0.17608304 2.062975e-12 -0.3456929 -0.0233873 0.07061929 -0.003948249 0.22791208
0.27443287 -0.052902505 -0.29553875 -0.013679202 0.25077668 0.24602984 0.17160802 -0.012984573
0.06630849 0.30125293 -3.6771555e-10 -0.2051554 0.0897934 0.33622324 -9.799717e-10 -0.02281302
-0.027220454 -0.13492 -0.254894 0.13215993 -6.4193455e-12 0.24375887 0.3170189 -6.38201e-11
0.17725982 -0.12271993 -5.504753e-11 -0.17404796 -0.0032748298 -0.0071457466 -0.008654993 0.07378974
0.34240258 -0.27937478 0.33557686 0.1551998 -0.020386402 0.0041039693 0.0034912669 -0.020982806
0.23310716 -0.026323132 0.19373412 -0.040758125 0.047475018 0.23452862 0.1476452 -0.030675747
0.2623592 -0.0006747187 0.06390974 0.33641398 -0.013960145 -0.20386969 -0.12552801 -0.18317552
0.29601616 0.31853226 -0.010086582 0.27073386 0.3252587 0.063303575 0.20074265 0.12324978
-0.009808418 -0.014846638 0.114222504 0.029065683 -0.0029468809 0.08767857 0.32556945 0.31334317
0.27252275 0.34597483 0.28220502 -0.00037137765 -0.14585233 0.11299176 -0.04943314 0.069995835
-0.009834142 -0.004963189 0.091402665 0.24457118 0.21369283 -0.0059943423 0.17619278 -0.02123213
0.17312358 5.61138e-15 1.8133205e-06 0.103173316 0.25570253 2.5475135e-09 0.20080806 -0.13743825
-0.0036286896 4.2034935e-12 -0.010442019 0.02629721 0.27415973 -0.054820243 -0.0801993 -0.18022633
-0.044459503 0.19856398 0.09738727 -0.013698971 0.08709764 -0.00029546284 0.1285192 0.06122617
0.067159 0.08429628 0.27273405 0.28132537 2.4949593e-14 0.01952217 -0.026117224 -0.027935613
-0.009931243 0.15496679 0.021588279 0.29511148 0.19461735 0.055696163 -9.8408076e-05 -0.02918126
0.123637974 -0.07331759 0.0055988594 0.13565442 -0.021251917 -0.1616426 0.28499562 0.00017353444
-0.062917516 1.6094664e-09 1.2920592e-14 -0.18772002 -0.07996123 -0.037079044 -0.052582953 -0.0035339212
-0.07999955 0.3164908 -0.015346773 0.22018541 -0.13284895 -0.03507515 0.123960935 0.060598437
0.030039182 8.020521e-05 -0.30603468 0.17511728 0.3191015 0.09056475 -0.10127409 -0.1022371
-0.028169934 -7.996214e-05 -0.012728014 -0.17841065 -0.32013494 -0.0023243886 -0.0040903324 -0.080231406
-0.0016257422 0.20687242 0.3079073 -0.02229514 0.16756555 0.03237842 0.24022296 0.22409785
0.27963868 -0.011716513 -0.006122715 -0.02230391 -0.31781784 6.3109524e-05 0.26855677 -0.12908694
0.08694234 0.09063637 6.8518702e-06 0.25922358 -0.18026853 -0.00011784919 0.04798124 0.11799902
0.3443562 -0.3017425 0.23239377 0.27168402 0.113835596 -0.022841632 0.05588468 -0.0029863887
-0.016906532 0.094640374 -0.05607894 0.27693903 0.06372358 0.14585523 0.06330548 0.18096122
0.31667697 0.22655955 -0.0013851805 -0.27696514 0.076393664 0.015489636 0.34665784 0.053416252
-0.013171962 3.97617e-14 1.8271463e-06 0.3398439 -0.08511481 0.25530753 -0.016532555 -0.0015836663
0.3344717 0.2885621 -0.1482388 0.011662457 -0.18305811 0.24424022 0.13046473 -7.439212e-13
0.24289243 0.31250718 -0.26124787 0.07538645 0.08311842 -0.14067727 0.14606425 -0.0029394703
0.28992066 0.00019333605 -0.3149806 0.13798766 -0.053179238 -0.0069204317 -9.5497e-14 -0.00025166463
00000000: a469 783e 1d4f 34be 412b 112c a9fe b0be
00000010: b996 bfbc d9a0 903d 5060 81bb c961 693e
00000020: 7782 8c3e 4cb0 58bd db50 97be bb1e 60bc
00000030: cd65 803e 3fef 7b3e 03ba 2f3e 3fbd 54bc
00000040: bfcc 873d d33d 9a3e 5d27 caaf 4214 52be
00000050: 9ae5 b73d 7425 ac3e b0af 86b0 5fe2 babc
00000060: 6efd debc 7828 0abe 7781 82be ef54 073e
00000070: 53dc e1ac ed9b 793e 4d50 a23e 8657 8cae
00000080: 9983 353e 9654 fbbd 021a 72ae a139 32be
00000090: 879e 56bb de26 eabb accd 0dbc 131f 973d
000000a0: 644f af3e 360a 8fbe bbd0 ab3e b2ec 1e3e
000000b0: 6201 a7bc 977a 863b bdcd 643b 22e4 abbc
000000c0: a5b3 6e3e 9ca3 d7bc 3d62 463e fef1 26bd
000000d0: 2a75 423d 4528 703e 4e30 173e b44b fbbc
000000e0: f253 863e 9bdf 30ba 1ce3 823d 743e ac3e
000000f0: 18b9 64bc 37c3 50be 6a8a 00be 5d92 3bbe
00000100: 6e8f 973e a916 a33e 3142 25bc a19d 8a3e
00000110: 4f88 a63e 4ea5 813d 7b8f 4d3e 616a fc3d
00000120: 7db3 20bc 503f 73bc 7ded e93d 281b ee3c
00000130: 7520 41bb d290 b33d 0ab1 a63e 846e a03e
00000140: 1a88 8b3e 9d23 b13e 2d7d 903e 77b5 c2b9
00000150: 505a 15be 3968 e73d 677a 4abd fa59 8f3d
00000160: 621f 21bc 3fa2 a2bb 5231 bb3d de70 7a3e
00000170: 4bd2 5a3e 306c c4bb e16b 343e 01ef adbc
00000180: 4f47 313e d82b ca27 3861 f335 884c d33d
00000190: 71eb 823e 5510 2f31 a1a0 4d3e 9dbc 0cbe
000001a0: 4fcf 6dbb b4e5 932c 0115 2bbc 3f6d d73c
000001b0: aa5e 8c3e 318b 60bd 883f a4bd 408d 38be
000001c0: 2b1b 36bd 5b54 4b3e fa72 c73d a671 60bc
000001d0: 3f60 b23d 5ae8 9ab9 8a9a 033e 4bc8 7a3d
000001e0: a88a 893d 87a3 ac3d cca3 8b3e e109 903e
000001f0: d8b9 e028 f5ec 9f3c caf3 d5bc 3ad9 e4bc
00000200: a7b6 22bc 9daf 1e3e e7d9 b03c da18 973e
00000210: c549 473e a921 643d 6f60 ceb8 8a0d efbc
00000220: e835 fd3d 8827 96bd a376 b73b fee8 0a3e
00000230: 8018 aebc a385 25be f2ea 913e ccf6 3539
00000240: e6da 80bd 1134 dd30 b7c1 6828 ad39 40be
00000250: b7c2 a3bd 32e0 17bd 3961 57bd 5c99 67bb
00000260: ced6 a3bd 150b a23e 0871 7bbc 4978 613e
00000270: 8e09 08be f6aa 0fbd 3bdf fd3d 1136 783d
00000280: bb14 f63c d833 a838 94b0 9cbe f251 333e
00000290: 4661 a33e 037a b93d ca68 cfbd af61 d1bd
000002a0: a2c4 e6bc 59b1 a7b8 2989 50bc 48b1 36be
000002b0: bae8 a3be c554 18bb 3208 86bb 5d50 a4bd
000002c0: db16 d5ba 5dd6 533e 07a6 9d3e 4ca4 b6bc
000002d0: 4e96 2b3e 3c9f 043d 02fd 753e e879 653e
000002e0: cd2c 8f3e 9ef6 3fbc 0ea1 c8bb b1b6 b6bc
000002f0: 05b9 a2be ab59 8438 4680 893e 5e2f 04be
00000300: d30e b23d 909f b93d 1ee9 e536 f4b8 843e
00000310: 5098 38be cd25 f7b8 fa87 443d 78a9 f13d
00000320: 754f b03e fe7d 9abe a2f8 6d3e 2b1a 8b3e
00000330: a322 e93d 601e bbbc 56e7 643d 4ab7 43bb
00000340: 917f 8abc d0d2 c13d 08b3 65bd f4ca 8d3e
00000350: 8281 823d 135b 153e 4ea6 813d e64d 393e
00000360: 7c23 a23e 3aff 673e f28e b5ba 60ce 8dbe
00000370: 4874 9c3d 3ec8 7d3c 237d b13e 00cb 5a3d
00000380: 37cf 57bc 1e12 3329 453c f535 0500 ae3e
00000390: ac50 aebd abb7 823e 486f 87bc 0693 cfba
000003a0: e03f ab3e 69be 933e e9cb 17be e413 3f3c
000003b0: 9673 3bbe 1c1a 7a3e 8c98 053e 2c65 51ab
000003c0: cbb8 783e f100 a03e 48c2 85be 3664 9a3d
000003d0: fd39 aa3d b40d 10be de91 153e 21a4 40bb
000003e0: 7b70 943e 40ba 4a39 2345 a1be a34c 0d3e
000003f0: 79d2 59bd cac4 e2bb 460a d7a9 dbf1 83b9

weight f4 [4, 320]
-0.022604968 -0.037496146 -1.2757422e-14 0.037363082 -1.4839818e-15 -0.034421675 -6.7327586e-05 -0.024572738
0.05176174 0.022176532 -0.046384804 -3.6156902e-14 -0.027372643 -0.01845037 0.03467847 3.55652e-14
0.014007968 0.034142386 -1.06032906e-13 -0.014815941 -0.011385897 0.057413094 8.5139376e-08 3.687628e-13
-6.4399054e-14 -5.5621313e-10 -0.011062412 0.010816526 -8.370058e-14 0.028414575 0.053205 7.524534e-09
-0.020898465 0.0013143817 -8.0828034e-16 0.007002266 0.016662033 4.6365632e-05 0.0519331 0.025488924
0.056585245 0.021618761 0.01969571 -0.058228727 -0.02947469 -0.023910057 0.0072660726 5.1259954e-05
-0.027720135 2.0893296e-14 0.050975297 0.0004912784 0.0035954262 0.05123065 0.06154454 -5.555497e-15
-0.001025985 -5.7124893e-15 0.005502933 0.055593494 -9.966949e-15 0.052815057 0.060496155 -0.02179781
-0.03431777 0.049042474 5.437132e-14 -0.014653296 -0.01608164 0.017831597 -0.042373836 0.0042125136
1.2062318e-06 -1.93224e-13 -0.010426147 0.013223684 -2.9030674e-15 0.0011415522 0.025988875 -0.047370147
-0.03559037 0.013645954 0.023475697 0.0006663916 0.060131468 0.026876366 0.012003419 0.03165365
-0.0002241227 2.54253e-07 0.005837955 -0.016295344 0.015822329 -3.002982e-14 0.03522014 -1.7479565e-14
0.045395564 -4.468409e-14 -1.1371165e-05 0.09555561 -0.012114811 1.2968147e-07 -0.027712736 -1.4056843e-09
1.24591855e-14 -5.4263124e-15 2.1218127e-15 0.016857378 -0.0085270135 -0.050514355 0.0015931648 0.05518948
-0.04656515 0.045020908 0.058523882 8.141805e-14 -0.028905978 -2.58014e-13 -0.017003717 0.02742642
-0.025189314 0.051181782 0.04462906 -0.02152821 -5.4511356e-12 0.021341642 1.2031173e-13 3.4230336e-14
-2.1880789e-14 -0.014603403 -0.04383546 -0.028582806 -0.026828084 0.047871143 1.9365752e-13 5.5463575e-14
0.048553795 4.7433383e-05 -3.322373e-06 0.029824438 6.7088946e-14 0.057852317 -0.020247106 0.00022600242
0.0052344673 -2.20698e-07 -3.1686276e-14 0.0011424161 0.015969055 0.034686193 0.037888523 -1.7879345e-15
-0.011431573 0.042837724 9.148407e-14 -0.016604487 0.036109604 -1.8349492e-14 -0.016215455 0.0039120754
-0.0073432922 0.0002880284 -0.010703752 0.057190455 0.014957561 -0.023008088 -0.010877855 0.033132214
2.4129766e-14 3.5512019e-06 2.6214243e-14 -0.027377961 0.017719584 4.3764115e-14 5.1402176e-06 -0.0099796625
3.2146038e-06 0.036570072 -0.014411026 4.5890153e-15 -0.01727547 -0.030062715 0.030704817 0.040369175
0.059595905 1.2221366e-14 1.1782671e-14 5.256844e-15 0.010748624 4.617946e-05 0.02453048 -0.022886474
0.009664982 -0.02844445 2.118897e-05 0.031908095 -0.043898743 3.441466e-05 0.0061769113 -0.025475558
-0.02998073 -0.04844421 -0.01836096 -0.004216076 -0.00012673104 2.442452e-14 -3.534146e-05 -1.0205111e-14
1.2667397e-13 -0.018762922 -0.01501932 0.043361727 0.059679974 0.0048649083 -0.02640949 -0.0004744914
-0.015784815 0.048300914 1.1832354e-13 -0.025370311 -0.01857447 0.016677216 0.03175647 -0.059172984
8.912476e-15 -1.0630549e-13 4.3201455e-14 -0.015208638 0.0029469891 0.012490326 -3.2439363e-15 -7.261353e-15
-0.049049642 -0.027159542 0.058238108 0.05704795 -0.044067707 -0.009373421 -0.026406372 2.4245839e-14
0.021069147 0.0105025405 -0.042092133 -0.0331358 -0.048970997 0.009024933 0.1419426 0.021035701
-0.027294943 0.00034264318 0.015611181 -0.029736932 0.03391648 0.026338775 2.4484904e-14 -6.066372e-14
00000000: 0e2e b9bc 8f95 19bd 3ad1 65a8 080a 193d
00000010: 44dd d5a6 befd 0cbd 3932 8db8 c44c c9bc
00000020: 1e04 543d 8fab b53c fefd 3dbd 12d6 22a9
00000030: 983c e0bc 3b25 97bc 030b 0e3d e22b 2029
00000040: ad81 653c e3d8 0b3d cfc3 eea9 90be 72bc
00000050: ea8b 3abc fe29 6b3d ded5 b633 5298 cf2a
00000060: 8703 91a9 05e4 18b0 1e3f 35bc cc37 313c
00000070: 197a bca9 afc5 e83c 7ced 593d 4045 0132
00000080: 4233 abbc 5547 ac3a 90f8 68a6 4473 e53b
00000090: d17e 883c b878 4238 cdb7 543d 26ce d03c
000000a0: eec5 673d d419 b13c e658 a13c 3f81 6ebd
000000b0: e874 f1bc 06df c3bc 3c18 ee3b f5ff 5638
000000c0: 5615 e3bc a930 bc28 79cb 503d 23c9 003a
000000d0: 3ea1 6b3b 3bd7 513d 2116 7c3d 6a28 c8a7
000000e0: 587a 86ba 6ad0 cda7 f351 b43b 01b6 633d
000000f0: 708c 33a8 9a54 583d d1ca 773d 5291 b2bc
00000100: ca90 0cbd c3e0 483d dddd 7429 6114 70bc
00000110: a5bd 83bc 9213 923c 3090 2dbd 2009 8a3b
00000120: cfe5 a135 078d 59aa 6ed2 2abc 27a8 583c
00000130: 2430 51a7 23a0 953a 9fe6 d43c 3307 42bd
00000140: 35c7 11bd 4893 5f3c 1b50 c03c c9b0 2e3a
00000150: 6a4c 763d d32b dc3c fda9 443c 42a7 013d
00000160: 7b02 6bb9 4480 8834 514c bf3b d07d 85bc
00000170: d49d 813c 063e 07a9 fe42 103d 2271 9da8
00000180: b3f0 393d 403d 49a9 c8c6 3eb7 a9b2 c33d
00000190: 337d 46bc 923e 0b34 d205 e3bc 1f32 c1b0
000001a0: da71 6028 e680 c3a7 89e4 1827 7c18 8a3c
000001b0: e3b4 0bbc 24e8 4ebd bdd1 d03a 5d0e 623d
000001c0: 19bb 3ebd d867 383d bdb6 6f3d 4f56 b729
000001d0: 3bcc ecbc bc3f 91aa 614b 8bbc 5fad e03c
000001e0: d259 cebc fda3 513d f6cc 363d ee5b b0bc
000001f0: 77cb bfac abd4 ae3c 7f75 072a e428 1a29
00000200: aa15 c5a8 1d43 6fbc d08c 33bd 7d26 eabc
00000210: 92c6 dbbc 8814 443d fb09 5a2a 26c9 7929
00000220: 58e0 463d 35f3 4638 eff5 5eb6 6152 f43c
00000230: 2512 9729 8df6 6c3d 42dd a5bc 10fb 6c39
00000240: e585 ab3b 01f9 6cb4 cab3 0ea9 20bd 953a
00000250: 89d1 823c 1c13 0e3d ff30 1b3d 92d5 00a7
00000260: 7e4b 3bbc 9c76 2f3d fa00 ce29 2206 88bc
00000270: aae7 133d 0c47 a5a8 46d6 84bc de30 803b
00000280: 00a0 f0bb 8402 9739 ca5e 2fbc 8a40 6a3d
00000290: 8f10 753c 757b bcbc 0839 32bc a5b5 073d
000002a0: 7457 d928 2f51 6e36 ee1d ec28 bf47 e0bc
000002b0: a928 913c 9718 4529 227a ac36 bd81 23bc
000002c0: 79ba 5736 80ca 153d 391c 6cbc 3256 a527
000002d0: 4985 8dbc 1546 f6bc ab88 fb3c 265a 253d
000002e0: d61a 743d 1a29 5c28 fb41 5428 d465 bd27
000002f0: ff1a 303c d1b0 4138 25f4 c83c 6a7c bbbc
00000300: df59 1e3c 5604 e9bc f7be b137 10b2 023d
00000310: 2bcf 33bd 7658 1038 b067 ca3b 1eb2 d0bc
00000320: 269a f5bc 706d 46bd b969 96bc 0227 8abb
00000330: 1be3 04b9 1cff db28 9b3b 14b8 c5d6 37a8
00000340: 499f 0e2a b3b4 99bc 9813 76bc 119c 313d
00000350: fd72 743d cf69 9f3b b758 d8bc 28c5 f8b9
00000360: 284f 81bc 2ed7 453d 7038 052a 66d5 cfbc
00000370: 7d29 98bc a89e 883c 1313 023d 5f5f 72bd
00000380: 8a8d 2028 f160 efa9 e38f 4229 a72d 79bc
00000390: 4622 413b 39a4 4c3c 10c0 69a7 15cf 02a8
000003a0: 47e8 48bd b07d debc 158b 6e3d 1cab 693d
000003b0: 5780 34bd fa92 19bc 2d52 d8bc 1963 da28
000003c0: 3499 ac3c d912 2c3c cd68 2cbd 68b9 07bd
000003d0: d095 48bd 50dd 133c 6759 113e 1053 ac3c
000003e0: a599 dfbc caa4 b339 0ac6 7f3c de9a f3bc
000003f0: 02ec 0a3d 6ac4 d73c 588a dc28 419a 88a9

bias f4 [4]
0.025971873 0.022726312 0.0040280055 -0.04782203
00000000: f7c2 d43c 882c ba3c 5cfd 833b 08e1 43bd

weight f4 [4, 8]
0.15829517 0.22992271 -0.33212838 -0.09236307 -0.0027522477 0.29521573 -0.24162291 0.23509684
0.20832208 0.10436826 0.33715987 -0.04619275 0.11389484 0.27054337 0.012044489 -0.21810907
-0.23356816 -0.06544288 -0.11282767 -0.28815034 -0.10498625 0.20505773 0.21862666 0.14059472
0.25528514 -0.2726892 -0.35811415 -0.07214221 -0.21243715 0.062835306 -0.26917118 -0.2943171
00000000: 2118 223e dc70 6b3e bb0c aabe d928 bdbd
00000010: 0e5f 34bb 8426 973e ff6b 77be 3abd 703e
00000020: 6252 553e 07bf d53d 38a0 ac3e 9c34 3dbd
00000030: b341 e93d a984 8a3e 4056 453c fc57 5fbe
00000040: 7e2c 6fbe eb06 86bd 3212 e7bd 7188 93be
00000050: 0803 d7bd a7fa 513e abdf 5f3e 10f8 0f3e
00000060: bcb4 823e eb9d 8bbe bd5a b7be 4cbf 93bd
00000070: 2089 59be ccaf 803d ced0 89be bbb0 96be

bias f4 [4]
-0.22011638 0.083038144 0.041430492 0.16276655
00000000: 3066 61be e70f aa3d 05b3 293d 46ac 263e

weight f4 [4, 8]
0.067614004 0.24817766 0.14797316 0.06100231 0.07017827 -0.3506145 0.24351077 -0.11271394
0.064886555 0.09238508 -0.20483701 0.29389617 0.1414804 -1.33049e-05 0.044348534 -0.11353239
0.2725939 0.049218167 0.02741955 0.096574105 0.0251033 0.22075394 -0.05021663 -0.31610373
-0.25697297 0.024859065 0.2725835 -0.23910134 -0.12650563 0.026386643 0.12737359 -0.15006933
00000000: 3679 8a3d 4922 7e3e 4786 173e 8fdd 793d
00000010: a0b9 8f3d be83 b3be e35a 793e 91d6 e6bd
00000020: 3ee3 843d 6434 bd3d cbc0 51be 8f79 963e
00000030: 3de0 103e 1c38 5fb7 cfa6 353d ab83 e8bd
00000040: 6d91 8b3e fd98 493d f79e e03c a5c8 c53d
00000050: 70a5 cd3c 520d 623e f4af 4dbd 59d8 a1be
00000060: f691 83be 3da5 cb3c 1190 8b3e fbd6 74be
00000070: b18a 01be cd28 d83c 396e 023e c6ab 19be

bias f4 [4]
0.26587698 -0.0019873835 0.2943542 0.29508615
00000000: 0721 883e c33e 02bb 98b5 963e 8815 973e

weight f4 [10, 2]
-0.40225178 -0.11398889 -0.39262763 -0.4083405 -0.03745765 5.5591035e-13 0.24887206 0.11016685
-0.61154807 -0.36205024 0.3158473 -0.07177923 0.022155682 0.3478157 0.32480344 0.49733323
0.40595683 0.20965315 0.48964378 0.09246888
00000000: f2f3 cdbe 0273 e9bd 7d06 c9be 0212 d1be
00000010: 316d 19bd 9079 1c2b 51d8 7e3e 289f e13d
00000020: 6a8e 1cbf a65e b9be bdb6 a13e fd00 93bd
00000030: d57f b53c e614 b23e a34c a63e 76a2 fe3e
00000040: 93d9 cf3e 51af 563e 97b2 fa3e 5360 bd3d

bias f4 [10]
0.5762346 -0.48989224 -0.09870649 0.2899348 0.015773404 -0.24296623 -0.020073796 -0.34523997
0.14781429 -0.030400587
00000000: 1c84 133f 28d3 fabe a126 cabd 5672 943e
00000010: 3a37 813c 24cc 78be cd71 a4bc 4bc3 b0be
00000020: a15c 173e a70a f9bc

weight f4 [10, 2]
2.954411e-10 -0.021561444 -0.1431139 0.2612442 0.026108801 -9.4739164e-08 0.24836498 0.4116043
0.6632004 0.33885843 -0.66928804 -0.60828584 -0.47686878 0.16613492 8.872416e-16 0.033956088
0.6267958 -0.09214534 0.12315334 -0.068658814
00000000: a36b a22f a0a1 b0bc 738c 12be cdc1 853e
00000010: 20e2 d53c 6873 cbb3 6453 7e3e ccbd d23e
00000020: 80c7 293f da7e ad3e 7656 2bbf 9fb8 1bbf
00000030: 2528 f4be 461f 2a3e e0ba 7f26 8a15 0b3d
00000040: b175 203f b2b6 bcbd d137 fc3d fe9c 8cbd

bias f4 [10]
-0.19271308 0.28200045 -0.13794588 0.5804314 -0.21288554 -0.531664 0.035707954 -0.22685094
-0.34426314 -0.27639592
00000000: 9456 45be 5d62 903e af41 0dbe 2797 143f
00000010: abfe 59be 221b 08bf 8142 123d 9d4b 68be
00000020: 4243 b0be c483 8dbe

weight f4 [20, 4]
0.4463856 0.12609768 -0.5035593 -0.20722552 -0.2584709 0.44648 -0.1860137 0.3515874
-0.3677475 0.46035638 -0.228198 0.14465158 -0.39288422 -0.45454016 0.10369354 0.15210523
0.34089825 0.06366553 0.060186688 -0.45940876 0.003822607 0.017269261 0.19854932 0.044783846
-7.4295394e-15 2.0863815e-15 -7.5369653e-13 0.0018229123 -0.34320715 -0.20685567 -0.15473379 0.31987607
0.35100755 0.21370135 -0.19367531 -0.35522497 -0.010435037 0.37004665 -0.379065 -0.27483776
-0.10407321 -0.14171077 -0.10807928 0.35419855 -0.28489587 0.41218144 0.48465857 -0.06009252
-0.27613115 -0.39195406 -0.03525598 -0.33642143 -0.38353506 -0.028350191 -0.26645574 -0.45201638
0.3582062 -0.14863092 -0.32360032 0.33482838 -0.1349631 0.057714373 0.14386012 -0.3791978
0.16512455 -0.202597 -0.011538279 0.4711694 0.12475089 -0.18034358 0.2686756 0.04505062
-0.14655712 0.28525147 -0.42429128 0.35843134 0.119151756 0.3371316 0.0907021 -0.014565533
00000000: a78c e43e c01f 013e 43e9 00bf ed32 54be
00000010: 4c56 84be 0799 e43e 607a 3ebe 4403 b43e
00000020: 6649 bcbe d5b3 eb3e bdac 69be 8b1f 143e
00000030: 1f28 c9be 7db9 e8be 475d d43d 79c1 1b3e
00000040: 378a ae3e 1363 823d 5186 763d a037 ebbe
00000050: b484 7a3b 4478 8d3c 8350 4b3e 446f 373d
00000060: b4d6 05a8 f256 1627 8f25 54ab c9ee ee3a
00000070: d9b8 afbe f9d1 53be 8972 1ebe ccc6 a33e
00000080: 43b7 b33e 87d4 5a3e d252 46be 0ce0 b5be
00000090: b8f7 2abc c176 bd3e cf14 c2be 89b7 8cbe
000000a0: 5624 d5bd a11c 11be ab58 ddbd 8359 b53e
000000b0: dfdd 91be 7209 d33e 2b25 f83e 9323 76bd
000000c0: 1061 8dbe 34ae c8be 9368 10bd 6e3f acbe
000000d0: b55e c4be a93e e8bc e36c 88be b16e e7be
000000e0: ce66 b73e b432 18be f1ae a5be a06e ab3e
000000f0: c433 0abe e865 6c3d 1150 133e 3726 c2be
00000100: 6916 293e 9775 4fbe 0d0b 3dbc 1e3d f13e
00000110: 657d ff3d fdab 38be d98f 893e 0087 383d
00000120: 1213 16be 7b0c 923e b53c d9be 5084 b73e
00000130: d605 f43d 839c ac3e 06c2 b93d 46a4 6ebc

bias f4 [20]
0.059997175 -0.041978937 -0.35770863 -0.28181452 -0.29777905 0.3943646 -0.019145096 0.0077988785
0.25745106 -0.08480737 -0.31573611 0.17304689 -0.21343026 0.13240685 -0.4285016 0.13868321
0.09869467 0.019583108 -0.13094357 0.19745776
00000000: 99bf 753d 1bf2 2bbd 9625 b7be fe49 90be
00000010: 7f76 98be 28ea c93e 2dd6 9cbc bc8d ff3b
00000020: a0d0 833e 7daf adbd 2aa8 a1be 3433 313e
00000030: 768d 5abe a995 073e 9064 dbbe f902 0e3e
00000040: 6e20 ca3d c16c a03c 1216 06be 5e32 4a3e

weight_ih_l0 f4 [12, 10]
0.33850288 -0.09847672 -0.036514267 -0.42085394 -0.0748131 -0.07231414 -0.01650353 0.3660054
1.652994e-06 -1.6979288e-12 -0.4391704 0.123352855 0.14746499 -0.28613988 -0.05934686 -0.47231138
0.41108528 -0.4160393 0.000508953 0.002978624 0.4858797 0.117823616 0.19972609 0.4740621
0.018768672 -0.3816448 -0.03715681 -0.107889436 -0.092203856 -0.019854153 -0.39977288 -0.044644658
0.09058042 0.0145710455 0.11251532 0.2638918 -0.46514148 0.001019432 -1.1839254e-14 -1.2055713e-14
0.2558828 0.1449346 0.0047338894 -0.38743237 0.17214034 -0.014570915 -0.03027983 -0.3011845
0.088485 2.4171732e-13 0.2923204 -0.055270128 -0.15177351 0.33492783 -0.0412105 0.15644942
-0.34855062 -0.19233824 -8.385369e-06 0.0032225675 0.3061023 -0.22745925 0.023916803 0.02811215
-0.00035093288 -0.2562254 0.33143982 0.015430726 -0.0475276 -0.120835885 0.24195549 -0.24569744
0.0003074211 0.23621541 -0.004373507 -0.21618769 0.010333017 -0.24266788 -0.08435476 0.037008747
0.32586002 -0.22068566 -0.10030743 0.25643113 -0.04796396 -0.20886658 0.013662789 0.44081983
0.0067623383 -0.11973647 -0.48465237 0.39354563 -0.03707174 -0.48807627 0.010260265 -0.34436154
0.3168186 0.19263032 -0.0017093229 0.0028901806 0.48846823 0.03982077 0.44082952 -0.025762599
0.13478388 0.48729056 -0.33117455 0.044633485 -3.8367238e-14 0.040826045 0.36325967 -0.22323361
0.271229 0.13907675 -0.3587588 -0.01567588 -0.3743581 -0.33674413 -0.03978863 -2.4029468e-05
00000000: 4050 ad3e 2aae c9bd fc8f 15bd 2b7a d7be
00000010: 9c37 99bd 7019 94bd 6932 87bc 0f65 bb3e
00000020: 71dc dd35 55f6 eeab f1da e0be 6ca0 fc3d
00000030: 1001 173e ed80 92be b115 73bd ccd2 f1be
00000040: c579 d23e 1a03 d5be 426b 053a 0535 433b
00000050: 39c5 f83e 824d f13d ff84 4c3e 44b8 f23e
00000060: c2c0 993c f266 c3be bd31 18bd 23f5 dcbd
00000070: 60d5 bcbd 2da5 a2bc 08af ccbe 51dd 36bd
00000080: 3a82 b93d 65bb 6e3c 6f6e e63d d31c 873e
00000090: 0627 eebe 769e 853a ec46 55a8 2a2d 59a8
000000a0: 1203 833e bc69 143e be1e 9b3b 895d c6be
000000b0: 8f45 303e d9ba 6ebc 680d f8bc db34 9abe
000000c0: a037 b53d 2313 882a 05ab 953e ee62 62bd
000000d0: 846a 1bbe a97b ab3e 57cc 28bd 4734 203e
000000e0: 3a75 b2be 51f4 44be e3ae 0cb7 b631 533b
000000f0: 71b9 9c3e 14eb 68be 2ced c33c 744b e63c
00000100: 6afd b7b9 fa2f 83be 7bb2 a93e 28d1 7c3c
00000110: 4dac 42bd ce78 f7bd 2ec3 773e 1c98 7bbe
00000120: 5d2d a139 74e2 713e a34f 8fbb 4e60 5dbe
00000130: d14b 293c ee7d 78be 30c2 acbd 7c96 173d
00000140: 20d7 a63e 6cfb 61be fb6d cdbd f14a 833e
00000150: db75 44bd 1fe1 55be e4d9 5f3c 23b3 e13e
00000160: 9b96 dd3b 6538 f5bd 5b24 f8be d07e c93e
00000170: 89d8 17bd 22e5 f9be ac1a 283c 2850 b0be
00000180: 0c36 a23e e240 453e 5c0b e0ba 2f69 3d3b
00000190: 8218 fa3e 1b1b 233d 68b4 e13e 160c d3bc
000001a0: c904 0a3e 267e f93e b68f a9be 9ad1 363d
000001b0: 6aca 2ca9 3639 273d 2cfd b93e 5a97 64be
000001c0: 87de 8a3e 236a 0e3e 3caf b7be b46a 80bc
000001d0: ddab bfbe ba69 acbe 67f9 22bd e492 c9b7

weight_hh_l0 f4 [12, 4]
-0.18000093 0.39783958 -0.23155445 0.03437658 -0.04882262 0.33888867 0.0698876 -0.06160838
0.24026754 -0.09828922 -0.41698882 0.45746595 0.18048744 0.10726378 0.38388586 0.14122157
-0.3240989 -0.21975836 -0.090918295 -0.10538794 -0.3445183 -0.097228155 0.26834637 -0.40908518
-0.09789796 -0.045962796 -0.20091942 0.03580123 0.20170675 -0.027921967 -0.106350705 0.24554795
0.055994466 0.009032112 -0.44189203 0.441848 -0.20806286 -0.08896663 -0.004026671 0.10054991
-0.15949398 -0.30270326 -0.25738865 0.06667968 -0.33265546 -0.091134466 0.24870841 0.061090972
00000000: 2a52 38be a1b1 cb3e 9c1c 6dbe 75ce 0c3d
00000010: 3afa 47bd d182 ad3e 3b21 8f3d 1259 7cbd
00000020: b208 763e dc4b c9bd 8f7f d5be fa38 ea3e
00000030: b3d1 383e 1dad db3d b08c c43e 639c 103e
00000040: 4bf0 a5be 5608 61be 5f33 babd a2d5 d7bd
00000050: b464 b0be 8e1f c7bd b264 893e 9d73 d1be
00000060: ba7e c8bd 7c43 3cbd d2bd 4dbe 50a4 123d
00000070: 378c 4e3e 9cbc e4bc 66ce d9bd ec70 7b3e
00000080: 745a 653d 6cfb 133c ac3f e2be e739 e23e
00000090: 6e0e 55be 2334 b6bd 2af2 83bb 1ced cd3d
000000a0: 6452 23be ecfb 9abe 72c8 83be 5b8f 883d
000000b0: d151 aabe b5a4 babd 6bad 7e3e 873a 7a3d

bias_ih_l0 f4 [12]
-0.43687317 -0.41560194 0.45273978 0.48992357 -0.10596663 0.018590057 -0.38852274 -0.27555037
0.2986404 0.4932143 0.23347732 -0.10844959
00000000: d7ad dfbe c7c9 d4be 82cd e73e 43d7 fa3e
00000010: 0805 d9bd 2d4a 983c 74ec c6be f014 8dbe
00000020: 65e7 983e 9686 fc3e ae14 6f3e d21a debd

bias_hh_l0 f4 [12]
0.13190986 0.052487344 -0.011113712 -0.04812034 0.16243573 -0.44379485 -0.05328088 0.23438723
0.46595803 -0.2863446 -0.27495262 -0.44060645
00000000: 6113 073e f8fc 563d 4916 36bc d519 45bd
00000010: 8d55 263e 1439 e3be 0d3d 5abd 3503 703e
00000020: 0d92 ee3e c29b 92be 97c6 8cbe 2b97 e1be
