RTSNet/checkpoints/Linear/evolution_mismatch/rq3050_mis.pt (torch, 74317 bytes, 68 tensors)

weight_ih_l0 f4 [12, 10]
-1.6750711e-08 -3.3826035e-07 -0.0004045505 -3.4415882e-06 -9.108377e-08 2.2176316e-06 -4.250142e-08 -1.0320431e-07
9.3651045e-07 -1.0880972e-10 -2.2817267e-12 -3.2800644e-12 3.379635e-09 -3.8420265e-13 -8.8513065e-07 -3.306137e-07
-2.3627428e-10 1.3690228e-06 1.8702938e-08 -1.3962573e-14 5.7037943e-09 1.018586e-08 -7.5333805e-06 1.14341e-08
3.7934615e-08 9.618765e-09 1.8645325e-07 3.3759957e-08 3.539043e-16 4.416705e-11 4.1648466e-08 4.8383932e-09
-5.020304e-10 5.3258478e-09 1.9317135e-08 3.9469716e-09 9.461809e-08 1.6454978e-08 -6.948123e-08 4.6207813e-07
6.0770664e-09 -2.1223855e-08 1.7706228e-09 6.4839135e-08 -5.6929616e-07 1.3634265e-06 1.0850501e-06 1.9094446e-07
-4.6136e-41 5.924719e-11 -1.0829822e-11 4.9346535e-13 7.180204e-14 8.045118e-13 7.104312e-12 1.3718898e-13
4.0379068e-11 7.0447294e-12 3.4973817e-07 -2.7630146e-16 7.039947e-11 1.9691641e-10 1.8961803e-11 5.532361e-07
1.6958781e-09 3.549438e-11 7.1276065e-09 3.091686e-08 -1.3054191e-12 6.0332795e-14 -3.0480514e-09 -1.801069e-08
7.322655e-09 -1.7478849e-08 -5.9776e-08 -1.846911e-09 -3.6480256e-07 -9.426707e-08 1.3065068e-07 3.420773e-07
-1.0543234e-05 -0.001171244 0.09718395 -5.207795e-05 0.0013720809 -9.511428e-06 0.04525671 -0.015214006
7.0516705e-08 -6.871599e-08 2.2318053e-08 3.382491e-08 -0.025021465 3.5403662e-08 7.7781544e-07 1.9180527e-08
0.0044574225 8.479478e-05 7.0461597e-09 2.0962322e-10 0.00019261776 4.7467893e-05 -0.006723422 1.1586548e-05
5.6182856e-05 1.0149455e-05 0.0037697803 0.00018824988 3.7269e-40 1.0727943e-07 6.6497028e-06 3.4052195e-05
0.019684391 6.5159943e-06 0.0001653282 3.3672825e-06 -0.00053201197 -3.9928553e-05 -1.9112856e-26 6.1215474e-08
00000000: 34e3 8fb2 269a b5b4 d919 d4b9 09f6 66b6
00000010: d599 c3b3 9fd2 1436 ce8a 36b3 2ba1 ddb3
00000020: 8264 7b35 6d46 efae ef8f 20ac 63d0 66ac
00000030: 2b3f 6831 7049 d8aa b799 6db5 337f b1b4
00000040: a6e4 81af 44bf b735 32a8 a032 0187 7ba8
00000050: 1bfb c331 e3fd 2e32 3fc7 fcb6 b46f 4432
00000060: 8ded 2233 c73f 2532 e133 4834 77ff 1033
00000070: 0e03 cc25 ad3f 422e f9e0 3233 f53e a631
00000080: 40ff 09b0 a7fe b631 d4ee a532 ee9d 8731
00000090: d830 cb33 e158 8d32 b635 95b3 8913 f834
000000a0: 71ce d031 c04f b6b2 405a f330 b13d 8b33
000000b0: bcd1 18b5 fafe b635 0aa2 9135 6a06 4d34
000000c0: 9c80 0080 3449 822e 2f85 3ead ede5 0a2b
000000d0: 0faf a129 2f73 622b f4f5 f92c 0876 1a2a
000000e0: ca96 312e 48dd f72c a6c3 bb34 e646 9fa5
000000f0: 61cf 9a2e 0b83 582f 2fca a62d 1882 1435
00000100: 6814 e930 1e1b 1c2e 17e7 f431 72c9 0433
00000110: aeb8 b7ab 7ddb 8729 e375 51b1 edb5 9ab2
00000120: c19a fb31 6524 96b2 345e 80b3 67d6 fdb0
00000130: 15da c3b4 df6f cab3 fc48 0c34 bfa6 b734
00000140: d8e2 30b7 6d84 99ba 6108 c73d 466e 5ab8
00000150: 65d7 b33a 4693 1fb7 1a5f 393d 2b44 79bc
00000160: f86e 9733 0491 93b3 ebb5 bf32 e246 1133
00000170: d1f9 ccbc bd0e 1833 12cb 5035 6dc2 a432
00000180: 920f 923b dad3 b138 ad1a f231 b17b 662f
00000190: 70f9 4939 4318 4738 2750 dcbb d863 4237
000001a0: e2a5 6b38 9447 2a37 6b0e 773b f164 4539
000001b0: e80e 0400 7e61 e633 8320 df36 44d3 0e38
000001c0: 2941 a13c f7a3 da36 f35b 2d39 79f9 6136
000001d0: b876 0bba f578 27b8 d948 bd94 9075 8333

weight_hh_l0 f4 [12, 4]
3.2619042e-05 -2.1629947e-07 -3.4200784e-07 -3.66068e-05 1.795028e-10 -3.3987847e-11 -2.5288156e-09 -7.661178e-11
-6.28321e-07 1.18970156e-07 1.6865305e-07 2.2174973e-07 -2.8172164e-07 5.8410418e-08 6.670955e-08 1.05889384e-07
3.165383e-05 1.2595828e-07 1.0360396e-07 3.3243363e-05 1.2004793e-09 3.648429e-12 7.838993e-12 6.729099e-10
7.431543e-08 1.9234756e-09 2.2275715e-09 4.6204303e-07 -1.4317227e-05 -3.2021113e-08 -9.387236e-08 -1.4016547e-05
0.00046521344 -8.5900785e-05 0.00055405655 0.007891197 -9.603489e-07 1.9505713e-07 2.2687803e-07 -1.0483266e-05
-0.0003067344 6.144044e-05 7.676251e-05 0.00012889653 -0.00019127564 3.5629386e-05 4.822094e-05 9.629988e-05
00000000: 6ed0 0838 f23f 68b4 339d b7b4 418a 19b8
00000010: 8c5d 452f ea7a 15ae 65c7 2db1 9978 a8ae
00000020: e4a9 28b5 897c ff33 ff16 3534 1a1a 6e34
00000030: 873f 97b4 efde 7a33 f741 8f33 4e65 e333
00000040: 0bc4 0438 263f 0734 e17c de33 ca6e 0b38
00000050: 1cfe a430 215e 802c b0e7 092d d3f7 3830
00000060: 5797 9f33 242e 0431 da13 1931 b60e f834
00000070: 0634 70b7 9687 09b3 e096 c9b3 9c28 6bb7
00000080: e4e7 f339 a225 b4b8 1b3e 113a 144a 013c
00000090: 56e5 80b5 e570 5134 c29b 7334 49e1 2fb7
000000a0: 32d1 a0b9 96d9 8038 8ffb a038 6628 0739
000000b0: 2a91 48b9 c370 1538 d740 4a38 9bf4 c938

bias_ih_l0 f4 [12]
-9.078602e-05 8.370868e-09 7.561977e-06 1.0222115e-05 4.360582e-05 3.6176352e-06 6.1192287e-07 -1.8329782e-05
-0.07040913 0.012977169 0.015561133 0.030390743
00000000: 6064 beb8 78cf 0f32 e3bc fd36 a67f 2b37
00000010: 65e5 3638 80c6 7236 0543 2435 e8c2 99b7
00000020: a932 90bd 319e 543c 1ff4 7e3c 02f6 f83c

bias_hh_l0 f4 [12]
0.0009169603 -2.367957e-09 7.784876e-06 3.547429e-06 4.3258467e-05 1.5762924e-09 6.277744e-07 -1.9676347e-05
0.005436537 -0.00029075018 0.003956499 0.0027976872
00000000: 2a60 703a 8ab9 22b1 ca9b 0237 5e10 6e36
00000010: 6d70 3538 dca4 d830 5484 2835 a20e a5b7
00000020: fa24 b23b d46f 98b9 85a5 813b 6759 373b

weight_ih_l0 f4 [12, 14]
-2.3306113e-07 4.3362146e-08 5.3190973e-08 8.299836e-08 -6.756967e-22 3.7730025e-08 5.694056e-09 4.3901887e-14
-2.5199408e-29 3.1507314e-11 2.1439195e-09 -3.4002552e-15 1.9564694e-13 6.129636e-07 -5.1095362e-06 9.816149e-07
1.2668087e-06 1.8057966e-05 -1.9511432e-19 8.0716563e-07 1.6703865e-07 1.8627654e-12 4.9743402e-08 -1.0266101e-09
9.500291e-08 3.3131266e-06 3.5593735e-12 1.7884551e-05 6.8605743e-09 -3.8385133e-07 -5.2741314e-07 -7.718137e-07
7.902356e-07 -7.271426e-07 -6.759398e-08 -3.7094543e-13 -9.496836e-21 4.9816057e-10 -4.22418e-08 2.2277925e-06
-1.9101552e-12 8.096427e-07 -0.00014364901 2.6010246e-05 3.7220034e-05 5.990445e-05 8.752127e-07 2.2110718e-05
2.9497492e-06 2.530584e-07 1.3750336e-09 -7.076868e-05 2.188307e-06 -5.6151976e-09 1.3125885e-10 0.00045843894
-0.003076599 -1.5089472e-05 -0.00017810366 0.007705113 -2.9358046e-06 -5.649035e-07 -1.8074087e-07 -7.201837e-13
-1.3176262e-33 -0.003446391 3.1572064e-05 -1.8898111e-14 -1.2825952e-06 -0.0026518696 -3.858975e-06 7.9716636e-07
8.840577e-07 -4.8811682e-05 1.7136813e-06 -8.20075e-07 1.9584527e-07 1.2806503e-12 -2.2500403e-37 -2.8007276e-09
-1.1616199e-07 1.143276e-09 -2.2164942e-07 -4.1767407e-06 -0.05665722 -3.3486267e-05 0.0072060856 0.14897539
1.4384964e-10 -0.001211414 -4.5915117e-06 -2.5234446e-11 2.7072281e-25 0.1569411 0.016420454 -3.282926e-13
-1.0820676e-10 0.16374764 -0.0040160036 -6.308328e-05 0.0020196987 0.0009845423 3.9755665e-09 -6.447007e-05
-6.9356824e-06 -3.8882113e-11 -4.5352468e-07 -0.02487219 0.0008954618 5.63259e-13 -1.4367715e-10 -0.024429256
0.005245776 0.000109475026 -0.0012486924 0.028300663 5.2498035e-06 0.00012709067 8.606003e-06 8.429483e-11
1.1030134e-07 0.018421428 9.410153e-05 -6.946039e-13 1.882793e-10 -0.015501184 0.0076069566 0.00019275014
-0.008374537 0.013126729 -1.299714e-15 0.0027951738 2.1244276e-05 2.4693766e-10 3.577e-40 -0.08590533
0.01356154 4.1377236e-12 4.710646e-10 0.07451841 0.047740143 -0.00039754948 -0.06770793 -0.0060913186
2.3170802e-11 -0.02531187 -5.595997e-05 -4.0372516e-10 3.4507603e-23 -0.17480452 -0.046161138 4.4927275e-09
-1.3002691e-09 0.20674053 -0.18548246 0.00036114873 0.13256973 0.09801678 -1.15403e-08 -0.012716149
0.000104747014 7.33064e-10 -6.330643e-28 -0.10346909 0.106923096 -5.631777e-12 2.1816666e-09 0.14500116
00000000: 5b3f 7ab4 2f3d 3a33 1874 6433 d53c b233
00000010: 8037 4c9c 9a0c 2233 72a5 c331 6eb7 4529
00000020: 678d ff8f 1592 0a2e 3b54 1331 a303 75a7
00000030: 6447 5c2a 8a8a 2435 9572 abb6 08c0 8335
00000040: 3707 aa35 307b 9737 af59 66a0 00ac 5835
00000050: 3c5b 3334 9914 032c 73a5 5533 a218 8db0
00000060: 6704 cc33 1557 5e36 f977 7a2c c806 9637
00000070: 40ba eb31 2014 ceb4 8e93 0db5 a22e 4fb5
00000080: 9420 5435 dc30 43b5 2f28 91b3 dfd2 d0aa
00000090: e263 339e efee 0830 5a6d 35b3 2f81 1536
000000a0: 4c6a 06ac 3956 5935 7da0 16b9 9430 da37
000000b0: b51c 1c38 ea41 7b38 29f0 6a35 687a b937
000000c0: 4ef4 4536 15dc 8734 b2fb bc30 a569 94b8
000000d0: d4da 1236 cdef c0b1 1552 102f a25a f039
000000e0: c4a0 49bb ca28 7db7 56c1 3ab9 2c7b fc3b
000000f0: bd04 45b6 dfa3 17b5 ac11 42b4 b4b6 4aab
00000100: 9fed da88 d9dc 61bb 3f6c 0438 1438 aaa8
00000110: a325 acb5 fdca 2dbb 587c 81b6 dbfc 5535
00000120: fc4f 6d35 25bb 4cb8 a401 e635 2023 5cb5
00000130: 8a49 5234 4a3c b42b 3b21 9982 ec76 40b1
00000140: bb74 f9b3 7321 9d30 87fe 6db4 ee25 8cb6
00000150: 6711 68bd 9b73 0cb8 0721 ec3b 018d 183e
00000160: 132a 1e2f 4fc8 9eba c910 9ab6 ecf6 ddad
00000170: be91 a716 2bb5 203e 3084 863c f3cf b8aa
00000180: fef2 edae 76ad 273e ae98 83bb 944b 84b8
00000190: ec5c 043b c20b 813a 7499 8831 1b34 87b8
000001a0: 0fb9 e8b6 5e01 2bae f57b f3b4 c3c0 cbbc
000001b0: 6dbd 6a3a 178b 1e2b 86f9 1daf dd1f c8bc
000001c0: c2e4 ab3b f595 e538 2aab a3ba cbd6 e73c
000001d0: 7827 b036 a443 0539 8062 1037 c55d b92e
000001e0: cede ec33 89e8 963c 6058 c538 7c83 43ab
000001f0: e903 4f2f aef8 7dbc c743 f93b f91c 4a39
00000200: 5b35 09bc 7e11 573c fc4e bba6 3c2f 373b
00000210: bc35 b237 63c1 872f 1fe5 0300 22ef afbd
00000220: 3931 5e3c 4d95 912c 397c 0130 1c9d 983d
00000230: 2b8b 433d 306e d0b9 75aa 8abd af99 c7bb
00000240: 02d0 cb2d d75a cfbc 8fb6 6ab8 44f3 ddaf
00000250: 58de 261a f5ff 32be 7613 3dbd 735e 9a31
00000260: 27b5 b2b0 cab3 533e 1def 3dbe 9058 bd39
00000270: 5cc0 073e 06bd c83d c742 46b2 6557 50bc
00000280: a0ab db38 cb80 4930 47a0 4892 9ae7 d3bd
00000290: 7ffa da3d 8a26 c6ac 49ec 1531 2f7b 143e

weight_hh_l0 f4 [12, 4]
4.132089e-39 5.333536e-08 -1.3401917e-07 5.0161043e-07 -1.9447525e-30 1.0905733e-06 2.0897692e-06 1.2723423e-05
-3.8528e-40 -4.4758622e-07 7.491911e-07 -4.7011567e-06 6.2999014e-08 2.9704493e-05 6.244347e-05 0.00030791643
-3.0204e-41 -0.0010351461 -0.0006527616 0.00014895221 -7.4293e-41 2.0903154e-07 -6.324522e-06 9.707441e-06
3.9407987e-06 0.07015148 -0.012454515 0.019291315 -1.0311543e-27 0.00022622003 -0.00026681364 -0.0004312649
-1.0123903e-07 3.9124065e-05 7.5884855e-05 0.00040141278 2.1300939e-32 0.0004499308 -0.00049927895 0.0020066379
-5.02073e-40 0.009204645 -0.00214968 -0.003022457 -1.1517967e-16 -0.008855141 -0.022096893 -0.0040384354
00000000: 95fe 2c00 d912 6533 e9e6 0fb4 68a6 0635
00000010: eec6 1d8e d05f 9235 f63d 0c36 b076 5537
00000020: 0132 0480 c84b f0b4 051c 4935 a1be 9db6
00000030: 134a 8733 ea2d f937 15f4 8238 d86f a139
00000040: 3254 0080 bdad 87ba 171e 2bba 0e30 1c39
00000050: 19cf 0080 2772 6034 3b37 d4b6 24dd 2237
00000060: 343b 8436 94ab 8f3d 060e 4cbc d208 9e3c
00000070: 9664 a392 7a35 6d39 1fe3 8bb9 651b e2b9
00000080: bf68 d9b3 2519 2438 5f24 9f38 b674 d239
00000090: 9c33 dd0a b1e4 eb39 0be2 02ba cc81 033b
000000a0: 9377 0580 14cf 163c a5e1 0cbb 6a14 46bb
000000b0: 0acb 04a5 2715 11bc 8b04 b5bc da54 84bb

bias_ih_l0 f4 [12]
2.9955793e-06 7.508788e-05 -2.2190428e-05 0.0018007989 0.0056714164 8.005796e-05 -0.002067828 0.010099947
0.02903107 -0.021329472 -0.2135253 0.20383443
00000000: a907 4936 8078 9d38 9525 bab7 c908 ec3a
00000010: 4ad7 b93b cae4 a738 6684 07bb 407a 253c
00000020: 91d2 ed3c 25bb aebc 60a6 5abe f9b9 503e

bias_hh_l0 f4 [12]
1.4154421e-06 7.064357e-05 -2.9798952e-05 0.0018012656 0.010028248 6.6468216e-05 -0.2030973 0.018468596
0.0023615777 0.020758752 0.0057208966 0.15158412
00000000: 38fa bd35 7a26 9438 c3f8 f9b7 7218 ec3a
00000010: 854d 243c da64 8b38 bdf8 4fbe 744b 973c
00000020: b3c4 1a3b 420e aa3c 5c76 bb3b de38 1b3e

weight_ih_l0 f4 [12, 24]
-4.981632e-07 6.5068506e-11 -9.195193e-08 -7.183644e-11 4.1864263e-05 -5.8318e-41 2.2619013e-06 1.4067805e-06
0.00013293873 1.0766862e-05 7.075988e-06 0.00061653554 0.0002838879 5.7724075e-05 0.00042872305 -1.7673796e-12
0.00016016731 6.614642e-08 -1.85054e-40 -1.3935309e-08 2.0646885e-05 -6.399135e-10 6.688056e-05 0.00059080945
9.342822e-34 2.6438585e-14 -6.542224e-33 4.32696e-11 3.7309954e-05 1.01188355e-07 2.027886e-06 3.2579514e-06
0.00014782327 1.5636828e-05 1.606652e-05 0.00070493686 0.0003259356 7.247624e-05 0.0004961833 -2.284574e-12
0.0001813585 1.1227931e-07 -2.57183e-40 1.0508437e-06 2.1347425e-05 -2.2145327e-06 6.549339e-05 0.0007646605
-5.37387e-40 -3.263552e-05 -2.273735e-25 -9.028985e-07 -4.1967564e-06 -6.90605e-40 -2.9832307e-07 -2.7275712e-07
-1.7995533e-05 -1.818163e-06 -1.6730264e-06 0.005807339 -2.8254688e-05 -8.248773e-06 -0.0021746766 1.7549852e-13
-6.4927975e-05 -1.9189688e-08 -1.5037e-40 9.747655e-10 -1.7328374e-06 1.46295e-11 -9.776651e-06 -9.6249045e-05
-9.16809e-09 3.8838945e-07 3.42522e-40 2.7754268e-11 0.00010488922 5.5426e-41 7.345749e-06 3.156026e-06
0.0002576875 4.4764613e-05 2.1487609e-05 0.0011961812 0.00062617863 0.00019028678 0.0013297241 -4.0540284e-12
0.0003519482 1.5690222e-07 1.9489778e-10 -3.563182e-08 3.500706e-05 4.383134e-08 0.00015262139 0.0014904259
4.022851e-34 1.4404998e-12 4.746121e-39 -2.2068994e-10 -1.2660908e-05 -1.3415625e-08 -7.6641794e-07 -6.305646e-07
5.997078e-05 -5.291377e-06 -3.9545607e-06 0.00023351746 0.000103829516 -1.8099236e-05 1.01884025e-05 1.7035922e-09
-4.9261357e-06 -2.6575655e-08 6.37568e-40 -2.1667994e-08 -6.0235984e-06 -3.389478e-06 1.7219027e-05 -0.00015577444
-6.0835043e-33 8.782392e-06 1.1262e-41 -2.6885963e-12 -8.2320685e-06 5.6389457e-08 -2.567354e-07 -2.4600328e-07
8.889072e-05 -2.1947203e-06 -1.7055447e-06 0.00035031623 0.00016663487 -2.5796135e-06 0.000106523825 -1.05039146e-13
3.5356486e-05 -1.3389202e-08 1.1496243e-06 -6.4240346e-09 -3.0992958e-06 6.784165e-11 2.5935604e-05 1.3143548e-05
3.8042556e-09 -3.58042e-06 -1.89265e-40 4.4157164e-13 6.98537e-07 -8.061835e-14 3.7282902e-08 2.0860591e-08
-9.603596e-06 2.5800105e-07 1.5111421e-07 -1.7021874e-05 -1.3907542e-05 3.763391e-07 -6.9416424e-06 6.570554e-14
-5.939172e-06 -1.0003591e-06 -4.4769424e-17 3.4792447e-10 3.0256732e-07 1.1009662e-11 -2.2664815e-06 1.462271e-06
5.5896365e-33 -1.1917096e-13 -5.59907e-40 3.8597e-08 2.0850752e-05 -4.4729523e-20 5.830361e-07 8.063964e-07
-9.85124e-05 9.392246e-06 2.9836717e-06 -0.0003969354 -0.00022200069 2.1823394e-05 -5.574536e-05 2.8434306e-12
-1.9623617e-06 2.3897377e-08 -2.0094124e-38 1.8610832e-08 6.8992363e-06 1.133791e-12 -2.8154542e-05 0.00021103327
1.8082062e-26 0.014259742 2.6811489e-09 2.8470948e-09 0.0032458415 -1.881312e-39 0.00038078602 9.4125266e-05
0.010636476 0.0013624184 0.00046376055 0.19411168 -0.014729844 0.004841941 -0.012413011 -1.322709e-10
-0.058880366 1.1020044e-05 7.56275e-40 -9.601937e-07 0.001667546 -9.242363e-06 0.0033442841 0.089338966
-7.5138146e-08 -0.03379292 -1.15243e-40 6.472142e-07 -0.004482541 -4.4354e-41 -0.00012363492 -6.933564e-05
0.0009941858 -0.0017631173 -0.0004808279 -0.18527515 0.016706757 -0.0043252795 0.03284928 2.9197363e-08
-0.00915926 -5.7022944e-06 9.806811e-07 1.1157503e-06 -0.0024645834 2.4888825e-08 -0.0024822275 -0.023470722
-9.4748305e-21 0.10145631 -1.951189e-23 1.5461225e-10 -0.00071338523 1.6406628e-11 1.6228401e-05 7.0835977e-06
0.051883306 -0.00031546186 3.7367638e-05 -0.24113958 -0.07491952 0.0010500641 0.119287625 -1.0376769e-11
00000000: 84b9 05b5 5016 8f2e 1c77 c5b3 52f8 9dae
00000010: 6997 2f38 91a2 0080 2bcb 1736 9cd0 bc35
00000020: 7865 0b39 52a3 3437 466e ed36 009f 213a
00000030: cad6 9439 c11c 7238 3cc6 e039 90bc f8ab
00000040: 96f2 2739 610c 8e33 db03 0280 2368 6fb2
00000050: d932 ad37 e9e5 2fb0 3a42 8c38 8de0 1a3a
00000060: f83b 9b08 3a23 ee28 6ee0 078a 3d4d 3e2e
00000070: 427d 1c38 e34c d933 d116 0836 2ea3 5a36
00000080: 0201 1b39 d52b 8337 97c6 8637 83cb 383a
00000090: 56e2 aa39 63fe 9738 4c12 023a 3ac3 20ac
000000a0: 0d2b 3e39 341e f133 eccc 0280 b70a 8d35
000000b0: 3f13 b337 629d 14b6 7f59 8938 7f73 483a
000000c0: 04da 0580 1fe2 08b8 c5bc 8c96 b65e 72b5
000000d0: ddd1 8cb6 2085 0780 3629 a0b4 746f 92b4
000000e0: 1df5 96b7 9b07 f4b5 c08c e0b5 7e4b be3b
000000f0: 7b04 edb7 3664 0ab7 0585 0ebb 0198 452a
00000100: f129 88b8 92d6 a4b2 2ca3 0180 83f8 8530
00000110: d793 e8b5 b5ae 802d 6506 24b7 50d9 c9b8
00000120: b081 1db2 d783 d034 d0ba 0300 0e21 f42d
00000130: f9f7 db38 819a 0000 817b f636 1dcc 5336
00000140: 3b1a 8739 a3c1 3b38 4a40 b437 2ec9 9c3a
00000150: 2326 243a b887 4739 234a ae3a 71a3 8eac
00000160: b085 b839 f478 2834 d94a 562f 9a09 19b3
00000170: 8bd4 1238 1141 3c33 fe08 2039 655a c33a
00000180: a2ae 0508 7abb ca2b 41ae 3300 b2a6 72af
00000190: 306a 54b7 8b7a 66b2 d7bb 4db5 1244 29b5
000001a0: 2289 7b38 958c b1b6 6bb1 84b6 5edc 7439
000001b0: 0cbf d938 d0d3 97b7 dbee 2a37 d223 ea30
000001c0: 2f4b a5b6 7c48 e4b2 48f1 0600 6c20 bab2
000001d0: 511e cab6 ca76 63b6 9471 9037 6257 23b9
000001e0: eab2 fc89 1658 1337 651f 0000 7231 3dac
000001f0: 771c 0ab7 dd30 7233 72d5 89b4 6f12 84b4
00000200: d86a ba38 0249 13b6 12ea e4b5 a6aa b739
00000210: b5ba 2e39 6c1d 2db6 8b65 df38 f286 eca9
00000220: bd4b 1438 5506 66b2 ca4c 9a35 68ba dcb1
00000230: 7ffd 4fb6 742f 952e 4990 d937 1c83 5c37
00000240: 96b6 8231 2647 70b6 980f 0280 2e95 f82a
00000250: 1983 3b35 5189 b5a9 fc20 2033 ed30 b332
00000260: 211f 21b7 6583 8a34 f541 2234 32ca 8eb7
00000270: 7054 69b7 a70b ca34 41ec e8b6 aaf4 9329
00000280: 1949 c7b6 1444 86b5 6876 4ea4 0446 bf2f
00000290: 8970 a234 1caf 412d db19 18b6 4043 c435
000002a0: 362f e809 b12c 06aa cb18 0680 dac5 2533
000002b0: a6e8 ae37 ad3a 539f f081 1c35 2377 5835
000002c0: 7198 ceb8 6493 1d37 173b 4836 c41b d0b9
000002d0: dbc8 68b9 6211 b737 20d0 69b8 b116 482c
000002e0: 1eb1 03b6 e346 cd32 3ece da80 a7dd 9f32
000002f0: fd7f e736 2091 9f2b 6b2d ecb7 d048 5d39
00000300: 7913 b314 b1a1 693c 453f 3831 9fa6 4331
00000310: 2fb8 543b 557c 1480 3ca4 c739 1e65 c538
00000320: 9d44 2e3c 2d93 b23a e324 f339 36c5 463e
00000330: 7255 71bc 25a9 9e3b f15f 4bbc f36e 11af
00000340: 8a2c 71bd bbe2 3837 303c 0800 01e0 80b5
00000350: 8f91 da3a a60f 1bb7 c72b 5b3b 59f7 b63d
00000360: a25b a1b3 726a 0abd 4041 0180 39bc 2d35
00000370: 47e2 92bb a47b 0080 ffa3 01b9 4a68 91b8
00000380: 574f 823a 6618 e7ba a117 fcb9 c5b8 3dbe
00000390: 9cdc 883c 13bb 8dbb f78c 063d aecd fa32
000003a0: b910 16bc 5656 bfb6 f29f 8335 e3c0 9535
000003b0: d984 21bb 1bcb d532 deac 22bb ac45 c0bc
000003c0: 78f9 329e 53c8 cf3d 1ab5 bc99 7bff 292f
000003d0: 7902 3bba 7150 902d 3a22 8837 a4af ed36
000003e0: 9783 543d 9364 a5b9 32bb 1c38 4bed 76be
000003f0: 686f 99bd 4ea2 893a 124d f43d d08c 36ad

weight_hh_l0 f4 [12, 4]
0.001042142 -0.0010637487 8.0726146e-05 -0.0009200571 0.0012968513 -0.0012894497 0.0001109925 -0.001259753
-0.0022550607 0.00011637683 -1.40458005e-05 0.00015230388 0.0025016689 -0.002926213 0.00017943986 -0.0022188951
-0.0005847509 7.557869e-05 2.483736e-05 -0.00046933477 0.00018791168 -2.7658407e-06 2.3079185e-05 0.000119391574
1.7598221e-06 -9.1668335e-07 -2.2956517e-06 4.7726035e-06 0.0005988273 -5.605087e-05 -5.1497962e-05 0.0005601061
0.08668788 -0.029140502 0.0010490896 -0.030954333 -0.024956893 0.024928773 -0.0024161763 0.02302186
-0.006555407 0.026168222 0.0007837522 -0.0021157637 -0.092203 -0.10135064 0.028062249 0.014404304
00000000: 7c98 883a 7c6d 8bba 854b a938 fd2f 71ba
00000010: 1cfb a93a c102 a9ba a5c4 e838 4c1e a5ba
00000020: a4c9 13bb 560f f438 41a6 6bb7 c3b3 1f39
00000030: 0af3 233b b5c5 3fbb 0528 3c39 e26a 11bb
00000040: f849 19ba 0080 9e38 d359 d037 0c11 f6b9
00000050: 280a 4539 c89c 39b6 2c9a c137 dd61 fa38
00000060: 0733 ec35 0012 76b5 ff0e 1ab6 5a24 a036
00000070: 9ffa 1c3a 2a18 6bb8 84ff 57b8 16d4 123a
00000080: 6a89 b13d 10b8 eebc 9b81 893a f193 fdbc
00000090: 6672 ccbc 6d37 cc3c b658 1ebb 5798 bc3c
000000a0: bdce d6bb bd5e d63c b874 4d3a a0a8 0abb
000000b0: edd4 bcbd ed90 cfbd cde2 e53c 0800 6c3c

bias_ih_l0 f4 [12]
0.0034679114 0.0042137816 0.0005975613 0.009339262 -0.00067280344 0.00025256106 1.9187512e-06 0.00066556764
0.24026838 -0.22202829 0.110825576 -0.17764436
00000000: e645 633b c313 8a3b a9a5 1c3a b403 193c
00000010: 135f 30ba 2c6a 8439 e5c3 0036 7d79 2e3a
00000020: ea08 763e 625b 63be 85f8 e23d 67e8 35be

bias_hh_l0 f4 [12]
0.0034855874 0.004225777 0.008912065 0.008352051 -0.00067569973 0.00023379899 7.7784716e-05 0.0006643753
0.02699576 -0.08186637 -0.11080629 -0.25825042
00000000: 746e 643b 6378 8a3b e903 123c 0ad7 083c
00000010: 7121 31ba f027 7539 5a20 a338 7929 2e3a
00000020: 3626 dd3c 8ea9 a7bd 68ee e2bd 6639 84be

weight f4 [4, 4]
-3.092667e-08 -4.40801e-40 1.8410542e-37 -5.962957e-33 4.2035805e-05 -1.5020485e-07 5.543827e-09 -2.3079332e-05
-5.51082e-40 -8.319683e-16 9.695797e-39 -4.485695e-09 -2.0542721e-08 -1.9855259e-08 -4.150663e-06 -2.8443644e-08
00000000: 3cd4 04b3 c6cc 0480 6097 7a02 09b1 f789
00000010: 9a4f 3038 ff47 21b4 057c be31 7d9a c1b7
00000020: 3100 0680 6dcc 6fa6 f093 6900 9720 9ab1
00000030: ec75 b0b2 2d8e aab2 ec45 8bb6 3c54 f4b2

bias f4 [4]
-8.77523e-11 -6.161691e-06 1.82617e-36 -3.5409764e-07
00000000: 27f8 c0ae 86c0 ceb6 765a 1b04 cf1a beb4

weight f4 [320, 8]
-0.006572113 0.016819552 2.3389072e-07 -0.004774278 0.0054203807 -0.056402035 -0.0007582466 0.001111002
0.0006805921 0.00054218725 -0.0033910226 0.011371266 0.012493187 -0.015054178 0.0012531612 -0.012068108
0.00063682493 0.0006009971 -0.003355014 0.011138246 0.013695242 -0.013557469 0.0012833071 -0.012072973
-0.0020899426 0.009590466 -0.0053229053 -0.00019028413 -0.029613188 -0.048521657 0.0031013314 -0.017975092
-8.4921776e-24 -1.8406693e-23 3.5307383e-25 -3.185168e-22 -3.7097667e-22 1.6524691e-22 3.7485036e-23 -2.234793e-22
7.398222e-27 -3.1915378e-15 -5.36877e-40 1.6112778e-28 9.638819e-13 -3.485185e-11 -7.693689e-12 1.7339915e-13
0.0017753791 0.0018287444 -0.004420221 0.013266053 0.03273858 0.0035483218 0.0028059452 -0.015957108
0.0009569471 0.0008314025 -0.00519314 0.016842648 0.020185743 -0.020319125 0.0017071947 -0.018101433
0.019646863 -0.0291454 -0.009117257 0.059687443 -0.048598677 -0.13569976 0.015702449 -0.04433626
-8.120904e-16 3.9618725e-15 -4.019065e-16 2.3514007e-15 -3.2381324e-14 -1.7566776e-12 -7.845482e-15 2.49929e-12
-0.009844175 0.0027889977 -0.0010104203 -0.003579628 0.03089685 -0.009835759 0.0011742623 -0.002958671
5.32544e-38 1.0406005e-38 2.5462576e-17 6.77658e-40 -4.37903e-40 -3.295121e-39 -4.6858605e-37 -5.96971e-40
0.0004202948 0.00040862962 -0.0019921479 0.0073438464 0.008883352 -0.008450224 0.00039287255 -0.007234298
1.1734791e-08 3.269685e-10 -1.7390355e-38 -5.554705e-11 2.0627792e-07 -3.2288895e-08 8.517745e-24 2.2639496e-10
6.90786e-19 -1.0061579e-12 -1.0118443e-18 1.6570881e-18 2.0316007e-17 -1.5043455e-18 5.124543e-19 6.415332e-13
0.0057023386 0.0065926868 -0.0039336043 0.010526092 0.032672748 -0.0015579284 -0.0045084595 -0.013722098
-1.2274563e-10 2.9436443e-15 -3.6750334e-13 2.8362138e-13 1.282133e-13 5.1493614e-12 1.104898e-10 -2.5644508e-12
0.00048745895 0.00037643738 -0.0023446365 0.007787251 0.009330207 -0.009222835 0.0008283252 -0.0083927745
0.0013266992 0.0011672628 -0.0069933147 0.023476662 0.028440444 -0.02847674 0.0023320005 -0.025323052
0.00058973866 0.0004325205 -0.0024930916 0.008978886 0.0042984146 -0.014214467 0.00062727294 -0.0091843465
0.00048236724 0.0004923961 -0.0024159309 0.006140517 0.011932208 -0.0141284205 0.00077853445 -0.008678442
0.061143942 -0.05576545 -0.007482237 -0.06636876 0.03428153 -0.06457156 0.02301578 -0.025364928
0.0007526764 0.0005390215 -0.0025222395 0.0102357855 0.01527262 -0.010540514 0.00045359624 -0.009420653
0.0008117757 0.0006609241 -0.004008204 0.013426663 0.016328027 -0.016035605 0.0014136072 -0.014434407
-0.0015925075 0.00020410903 -0.0062316298 0.023455761 0.047875855 -0.017967042 0.0026799336 -0.02284193
0.02592829 0.004071316 -0.005591136 -0.01670375 -0.03553188 -0.07922148 -0.009750599 -0.019962167
-1.018185e-39 -1.7035746e-19 4.893654e-25 -1.5820397e-11 -6.09722e-40 7.578145e-25 1.3546215e-30 -1.7077245e-12
1.1802247e-06 1.3660069e-06 -5.672234e-06 2.2320839e-05 2.7974847e-05 -3.257497e-05 6.2120716e-07 -2.1052247e-05
-9.2308187e-07 -2.292176e-06 1.0947653e-06 -4.0555544e-05 -4.6514524e-05 6.859875e-05 1.7978185e-06 8.153995e-06
3.172387e-05 0.000405061 -3.4323181e-15 0.00044765425 0.011166054 0.0029570803 -1.6742564e-05 -3.2392104e-06
2.256703e-26 -9.116326e-11 -5.923862e-19 3.0205632e-25 -2.9670113e-26 1.3516748e-26 6.293711e-15 -1.8088016e-25
0.026817216 -0.0003983483 -0.004539541 -0.013241681 0.103084 -0.08342598 0.0054694847 -0.018650142
00000000: e15a d7bb 28c9 893c 6423 7b34 8c71 9cbb
00000010: 739d b13b d205 67bd 11c5 46ba 0b9f 913a
00000020: c369 323a 9221 0e3a eb3b 5ebb 8c4e 3a3c
00000030: 39b0 4c3c cda5 76bc 1d41 a43a 50b9 45bc
00000040: 99f0 263a 3c8c 1d3a cbdf 5bbb 317d 363c
00000050: 0262 603c 2520 5ebc a434 a83a b8cd 45bc
00000060: 6bf7 08bb 5421 1d3c c46b aebb 0287 47b9
00000070: 5b97 f2bc a5be 46bd b53f 4b3b 8040 93bc
00000080: 3a43 2499 c404 b299 c88a da16 1688 c09b
00000090: dc3d e09b 71c5 471b 3a44 351a bf15 879b
000000a0: 7189 1214 7bf9 65a7 98d8 0580 f440 4c11
000000b0: 81a7 872b b247 19ae 4b59 07ad e73a 432a
000000c0: d6b3 e83a 7bb2 ef3a 80d7 90bb dc59 593c
000000d0: e418 063d f68a 683b f3e3 373b 7bb8 82bc
000000e0: a2db 7a3a 7af2 593a 372b aabb 98f9 893c
000000f0: 925c a53c 4b74 a6bc f3c3 df3a 7549 94bc
00000100: 75f2 a03c 55c2 eebc 8c60 15bc d27a 743d
00000110: 680f 47bd e1f4 0abe 6ca2 803c f099 35bd
00000120: b211 6aa6 d3bd 8e27 eeae e7a5 b06f 2927
00000130: 20d5 11a9 fb3a f7ab e654 0da8 35df 2f2c
00000140: 7649 21bc 9ec7 363b 1470 84ba 3198 6abb
00000150: 641b fd3c 2a26 21bc b4e9 993a 43e6 41bb
00000160: e6f8 9001 b54f 7100 cfd9 ea23 0961 0700
00000170: b2c4 0480 75e1 2380 9a73 1f83 1d80 0680
00000180: 035b dc39 573d d639 b28e 02bb a6a4 f03b
00000190: 7b8b 113c cf72 0abc 76fa cd39 b10d edbb
000001a0: 289a 4932 bac0 b32f 3c5d bd80 6b4c 74ae
000001b0: 3e7d 5d34 04ae 0ab3 d5c1 2419 84ec 782f
000001c0: 50e2 4b21 a99a 8dab 6652 95a1 058b f421
000001d0: d161 bb23 9100 dea1 f43f 1721 5793 342b
000001e0: afda ba3b 7707 d83b 77e5 80bb a175 2c3c
000001f0: dcd3 053d 6733 ccba b3bb 93bb a7d2 60bc
00000200: d3f5 06af a71c 5427 d0e2 ceaa 26aa 9f2a
00000210: f85a 102a 532d b52c 3af8 f22e 0a75 34ac
00000220: a291 ff39 925c c539 79a8 19bb 322c ff3b
00000230: b9dd 183c 601b 17bc f723 593a d981 09bc
00000240: a3e4 ad3a d7fe 983a 2d28 e5bb 2152 c03c
00000250: effb e83c 0d48 e9bc 7ad4 183b 4a72 cfbc
00000260: b198 1a3a ebc3 e239 2363 23bb 2d1c 133c
00000270: b7d9 8c3b cce3 68bc 936f 243a f179 16bc
00000280: 3ce6 fc39 2514 013a 9854 1ebb 6436 c93b
00000290: 4f7f 433c e47a 67bc 9016 4c3a 0630 0ebc
000002a0: 1272 7a3d 506a 64bd 8e2d f5bb 58ec 87bd
000002b0: ca6a 0c3d 183e 84bd 978b bc3c 1cca cfbc
000002c0: 424f 453a 1f4d 0d3a 284c 25bb ffb3 273c
000002d0: 033a 7a3c 1fb2 2cbc a8d0 ed39 1559 1abc
000002e0: 58cd 543a de41 2d3a 4157 83bb 82fb 5b3c
000002f0: 5bc2 853c 1a5d 83bc c948 b93a 4b7e 6cbc
00000300: afbb d0ba 1a06 5639 b332 ccbb 4c26 c03c
00000310: 7919 443d 9e2f 93bc d3a1 2f3b 001f bbbc
00000320: 9167 d43c ad68 853b d935 b7bb 4dd6 88bc
00000330: e089 11bd df3e a2bd fac0 1fbc b387 a3bc
00000340: 4916 0b80 621f 49a0 8573 1717 5e28 8bad
00000350: a8a3 0680 4088 6a17 c7cc db0d 4257 f0ab
00000360: 3668 9e35 a457 b735 1e54 beb6 a33d bb37
00000370: 87ab ea37 1ca1 08b8 08c1 2635 5b99 b0b7
00000380: b4c9 77b5 49d3 19b6 d9ef 9235 2f1a 2ab8
00000390: 9718 43b8 acdc 8f38 934c f135 24cd 0837
000003a0: 3f0f 0538 5e5e d439 1853 77a7 23b3 ea39
000003b0: d3f1 363c 93cb 413b 6272 8cb7 3661 59b6
000003c0: 387e df14 5a78 c8ae 70d7 2ea1 bcf6 ba16
000003d0: 56eb 1295 07dd 8514 3dc1 e227 36eb 5f96
000003e0: c7af db3c 67d9 d0b9 6ec0 94bb a3f3 58bc
000003f0: b41d d33d 3ddb aabd 5d39 b33b 2fc8 98bc

bias f4 [320]
-0.039465804 0.048117157 0.04385504 0.1245738 6.689276e-23 -7.75104e-08 0.07756712 0.06539241
0.1901371 1.7688655e-13 0.060055748 -1.0449444e-10 0.02918393 -2.0195934e-05 -5.9627943e-18 0.09351798
2.8477349e-12 0.030671591 0.0910999 0.067688644 0.037754185 0.21738602 0.04313884 0.053739864
0.12068449 0.17603478 -3.8067973e-31 8.876931e-05 4.1790467e-05 -0.01391064 -5.623636e-25 0.16484381
3.1739037e-16 0.08212329 0.04889138 0.10937003 0.07621824 -1.6002123e-10 0.06645889 0.08801107
7.2229615e-36 0.092438154 0.07990894 1.3057155e-11 1.2506118e-11 -2.4814336e-11 -5.282197e-11 0.016051184
0.06738724 0.06883603 5.648892e-34 0.09944217 0.027204791 0.055034935 0.0398959 0.046872824
0.03762761 -1.03314015e-11 -1.2163186e-18 -0.056010786 2.4730878e-25 0.010717147 -4.4413707e-15 -2.812929e-15
2.402367e-11 0.18380062 -0.00019478801 -0.011537115 -3.0333e-40 0.0473039 -5.55548e-40 0.013700148
5.1789584e-13 0.012013129 1.7192596e-09 0.05057298 1.2691014e-07 0.07598974 2.791986e-16 5.0238e-41
2.2879707e-13 0.004543253 8.690584e-09 8.244632e-06 -0.0008464722 0.08402446 0.014611955 0.03224397
0.060052074 -9.001875e-12 5.281e-06 0.19839206 -4.345171e-13 4.3168302e-19 0.04501095 -3.73011e-11
-0.005301707 0.043748796 -0.0182101 0.03222285 0.09025377 -0.00033398377 -0.012547255 0.13857684
-0.0025791575 -1.75394e-40 0.109813154 -0.053019322 -0.008577677 0.07949909 0.025714526 -2.6276676e-12
6.095875e-08 0.03078785 0.04568273 0.04579219 -0.03226601 0.06553427 9.125168e-22 -0.10642221
7.510951e-24 -5.41525e-40 -4.811573e-06 0.13287035 9.3227285e-08 -8.6611496e-11 -0.009942801 0.044802982
5.80387e-40 -0.06492817 0.0891598 -8.6165125e-13 -0.04303438 0.06636456 0.044528153 -7.941892e-19
-3.071445e-31 -1.0482506e-12 -0.013141153 0.054108523 -0.00359292 1.9178366e-26 0.078925915 0.076036595
7.0213016e-17 0.04245523 0.038107134 -4.676822e-11 0.019436264 0.005761455 0.019314451 0.02026668
0.08569909 2.2321322e-27 0.0024916173 0.15554506 0.099022366 1.5394582e-21 4.1468537e-10 0.022024838
0.041017234 0.020608744 0.004776979 0.17256585 0.07707535 3.0302401e-12 -0.011516163 0.18987575
5.05103e-06 0.011862714 0.2233653 -2.8388878e-09 -1.8730298e-33 -0.00076180755 0.005091666 -1.3652805e-11
0.031044293 0.031976406 -2.1087309e-11 0.07012798 0.043851703 -2.5664975e-27 0.07120382 0.0122373495
0.076934345 1.3358332e-05 -8.4069525e-06 0.053646654 0.103709325 0.01483094 0.03010781 0.037665628
-2.67568e-40 -3.1644663e-14 -1.3720058e-27 0.019832691 -3.5387697e-24 0.14322667 0.023880469 0.028454104
0.023836924 0.036058538 3.2650095e-18 -1.5470845e-07 2.8262088e-14 0.011106957 -1.0727797e-14 -0.051365033
-1.3606129e-17 0.045762725 -0.013705013 1.8360987e-26 -0.00087991316 -2.5495437e-13 0.040226802 0.01794112
9.771582e-06 0.17207702 -2.7463604e-12 -4.88722e-39 0.023427516 0.09339111 0.045081913 -1.83692e-40
0.01453648 -0.01065365 -1.0197283e-18 -2.2238036e-13 -0.009929032 0.065049514 0.003785933 -1.427863e-39
0.051994357 -4.1294e-40 -0.00050059817 -0.025626084 0.15174228 0.1173107 -1.0716295e-08 0.21421199
-7.769424e-14 0.008328671 -1.6250545e-13 -6.874942e-11 0.13481383 -3.26388e-40 0.038881835 0.10457802
-0.052493207 -0.008633267 6.864421e-06 -6.701287e-16 0.04584677 0.17124385 0.0017340821 -4.823105e-12
00000000: e5a6 21bd 7f16 453d 58a1 333d 8c20 ff3d
00000010: 9dbc a11a cb73 a6b3 83db 9e3d 75ec 853d
00000020: 4db3 423e 1428 472a 04fd 753d 24c9 e5ae
00000030: 2313 ef3c 706a a9b7 00fd dba2 5b86 bf3d
00000040: 3b64 482c fd42 fb3c 9692 ba3d 58a0 8a3d
00000050: 22a4 1a3d 719a 5e3e 5ab2 303d 551e 5c3d
00000060: 6e29 f73d 7642 343e 4513 f78c a929 ba38
00000070: 2c48 2f38 74e9 63bc 090b 2e97 d1cc 283e
00000080: 8df6 b625 4130 a83d 5442 483d 65fd df3d
00000090: 4f18 9c3d f9f1 2faf 991b 883d 263f b43d
000000a0: 8b9d 1905 3750 bd3d 4ca7 a33d 33b4 652d
000000b0: 8c02 5c2d eb44 daad 4050 68ae c67d 833c
000000c0: 5202 8a3d e8f9 8c3d 75b7 3b08 56a8 cb3d
000000d0: 95dc de3c 506c 613d e269 233d b8fd 3f3d
000000e0: 691f 1a3d 7fc0 35ad 387f b3a1 916b 65bd
000000f0: a413 9916 f996 2f3c 6a04 a0a7 62b1 4aa7
00000100: 7f50 d32d 3b36 3c3e 0240 4cb9 2b06 3dbc
00000110: 904d 0380 bcc1 413d a40c 0680 9676 603c
00000120: 54c6 112b b7d2 443c 124b ec30 9d25 4f3d
00000130: cb44 0834 82a0 9b3d 71f2 a025 0b8c 0000
00000140: 22cd 802a 92df 943b 984d 1532 6d52 0a37
00000150: cae5 5dba 0415 ac3d fb66 6f3c 4112 043d
00000160: 2af9 753d d75c 1ead 7233 b136 4a27 4b3e
00000170: 839c f4aa 18d2 fe20 675d 383d 4e0d 24ae
00000180: f1b9 adbb f031 333d 592d 95bc 1bfc 033d
00000190: f8d6 b83d 8b1a afb9 0093 4dbc 16e7 0d3e
000001a0: 1507 29bb ede8 0180 b8e5 e03d ca2a 59bd
000001b0: 6389 0cbc 6bd0 a23d 45a7 d23c dae7 38ac
000001c0: 6de8 8233 cd36 fc3c d01d 3b3d 9790 3b3d
000001d0: 5d29 04bd d536 863d 49e5 891c e3f3 d9bd
000001e0: 6e48 1119 8de5 0580 1973 a1b6 2a0f 083e
000001f0: 3e34 c833 f075 beae 21e7 22bc 5583 373d
00000200: e251 0600 0ff9 84bd 6a99 b63d 8488 72ab
00000210: d144 30bd 24ea 873d 2763 363d 3d67 6aa1
00000220: 2259 c78c 3587 93ab fe4d 57bc e6a0 5d3d
00000230: 3277 6bbb efee bd14 e9a3 a13d 13b9 9b3d
00000240: 73e6 a124 89e5 2d3d 3a16 1c3d 56b0 4dae
00000250: cd38 9f3c 96ca bc3b 5739 9e3c 4f06 a63c
00000260: 0183 af3d 05d9 3013 674a 233b 3447 1f3e
00000270: 3dcc ca3d e8a2 e81c c7f9 e32f 6f6d b43c
00000280: b001 283d abd3 a83c 3488 9c3b 1ab5 303e
00000290: aed9 9d3d f43b 552c 4aae 3cbc ca6e 423e
000002a0: 047c a936 d45b 423c e0b9 643e 3e16 43b1
000002b0: f09a 1b89 0ab4 47ba fdd7 a63b c42e 70ad
000002c0: 9a50 fe3c b1f9 023d 667c b9ad 429f 8f3d
000002d0: d89d 333d c156 4b93 4fd3 913d 2a7f 483c
000002e0: c18f 9d3d 991d 6037 960b 0db7 98bc 5b3d
000002f0: 8e65 d43d 79fd 723c a7a4 f63c 4647 1a3d
00000300: dfe9 0280 d083 0ea9 2b67 d992 2b78 a23c
00000310: 47e6 8898 03aa 123e f9a0 c33c 9518 e93c
00000320: a745 c33c 1eb2 133d 49ea 7022 ef1d 26b4
00000330: f08f fe28 f4f9 353c 3b41 41a8 2464 52bd
00000340: 21fd 7aa3 b271 3b3d fe8a 60bc a2d6 b514
00000350: f9a9 66ba cc86 8faa dcc4 243d 41f9 923c
00000360: a0f0 2337 f534 303e 0842 41ac 9537 3580
00000370: 10eb bf3c d743 bf3d d0a7 383d 0f00 0280
00000380: 6b2a 6e3c a68c 2ebc 3f7c 96a1 c660 7aaa
00000390: 61ad 22bc ae38 853d 6a1d 783b 4d8c 0f80
000003a0: 09f8 543d 1c7f 0480 933a 03ba cbed d1bc
000003b0: 5462 1b3e 9840 f03d c41a 38b2 635a 5b3e
000003c0: aef3 aea9 fa74 083c 02f7 36aa 7c2e 97ae
000003d0: a30c 0a3e d68d 0380 8f42 1f3d 002d d63d
000003e0: 1e03 57bd 8c72 0dbc ed54 e636 c526 41a6
000003f0: d3c9 3b3d 8c5a 2f3e 244a e33a abb2 a9ac

weight f4 [4, 320]
0.011010928 0.03461857 0.026612282 0.036800668 1.9412908e-22 1.15803e-40 0.04192947 0.040246807
0.0725953 -9.275759e-14 0.027212752 -1.8628461e-38 -0.008763157 -0.011536862 4.8189043e-15 0.01246297
1.1829281e-12 0.005732483 0.05642958 -0.012927458 0.019368224 0.06688028 -0.0097702565 0.009495949
-0.00034030032 0.0070117796 -7.72984e-40 9.4863586e-05 -0.03740962 0.00029037948 -1.4764136e-23 0.04883938
-3.9831657e-15 0.050517987 0.021122558 0.037237663 0.032138612 5.54e-43 0.009803068 -0.013380975
9.52554e-40 -0.018321559 0.0048947083 8.369102e-12 -1.9611358e-11 -3.46505e-40 -1.76418e-40 0.009796823
0.026390368 0.0215361 6.6908e-41 0.06259768 0.019852508 -0.030051798 0.02428318 0.028657444
0.040928923 4.8167e-41 3.94763e-40 0.045702036 -1.81624e-40 0.0047084475 5.09194e-40 -1.9326e-40
1.2408719e-11 0.069607064 2.10951e-40 0.016711634 2.59942e-40 0.030026376 2.51536e-40 0.008236278
3.7831988e-13 -0.015070582 5.019771e-09 0.03152628 2.6957366e-07 0.045758422 -4.6086994e-36 2.83128e-40
8.259543e-13 0.002660459 -5.1057326e-17 5.866423e-06 0.0082177315 -0.0047803596 0.008308262 0.05048064
0.03866171 -3.29483e-40 3.2769306e-06 0.06088157 -5.7294e-40 -2.4821195e-17 0.028072705 8.6173e-41
0.00039012192 0.023101674 0.02176276 -0.008070812 0.055293843 -0.027094655 0.023535335 0.06496303
0.025469003 2.09783e-40 -0.016085943 -0.0001469849 -0.026442295 0.04928613 -0.0038610466 -1.2120592e-11
6.029949e-08 0.006725922 0.028138215 0.01941035 -0.006655925 0.041296445 2.4284e-40 -0.010567979
5.0752436e-23 3.67876e-40 0.00016585182 0.052146308 2.0788418e-07 -3.5443e-41 0.024276268 0.016520407
4.65502e-40 -0.015175078 0.054498445 3.31221e-40 0.0059370585 0.041241944 0.03742973 6.54597e-40
2.04836e-40 -1.2313078e-12 0.013293138 0.028906206 -0.00178327 3.68324e-40 0.049117524 0.029839788
-2.7014163e-15 0.029271264 0.023881197 -2.746382e-39 -0.024604337 0.008746544 0.007853659 0.052370183
0.058453582 -2.922519e-25 0.0017470911 -0.0030593215 0.047492925 7.952e-42 5.2984217e-10 0.013616788
-0.007658083 0.014148017 0.0031513653 -0.023166327 -0.023171961 6.4420604e-12 0.003609314 0.04743603
1.1647037e-05 -0.00076092186 0.05795597 1.175847e-06 -2.82098e-40 -0.0024197032 -0.0046888744 -3.503294e-39
0.027971264 0.0023156714 1.5038865e-38 0.059886564 0.0010868583 -1.68395e-40 0.017698532 -0.01211867
-0.006147602 9.901214e-06 0.0025152536 0.03400399 -0.006072392 0.039697103 0.006852147 0.047409117
-5.26291e-40 -8.1486e-41 6.574146e-28 -0.019136311 3.66105e-40 0.047524568 0.036397073 0.034560766
0.014603222 0.043639507 3.171918e-17 1.5458374e-05 3.128761e-14 0.007440893 2.8490002e-23 -0.0035738777
-3.01567e-23 0.028897543 0.00043585186 -3.0612022e-24 -0.00034188599 -1.5437e-40 -0.008740536 0.00381558
4.2055635e-06 -0.022082705 1.8749583e-12 -1.403356e-39 0.0048973686 0.05785183 0.027558578 6.78863e-40
0.008757934 0.025802316 -4.108635e-39 2.05542e-40 -0.031568266 -0.00076057704 0.054214686 -4.53967e-40
-0.025961714 2.00076e-40 0.009299688 0.031716093 0.018052138 0.040795747 3.45334e-39 0.069460005
-1.28458e-40 0.05378776 -5.504466e-14 5.69308e-40 -0.026723577 4.6292e-41 0.024511453 -0.009912086
-0.017049922 -0.028691454 5.262515e-06 -1.3678921e-17 0.028580392 -0.023356065 0.0038994066 -5.86572e-40
00000000: 2e67 343c 34cc 0d3d 0002 da3c 4cbc 163d
00000010: 0ab0 6a1b d042 0100 3cbe 2b3d d6d9 243d
00000020: d8ac 943d 1cdf d0a9 47ed de3c 92d8 ca80
00000030: 5893 0fbc 1b05 3dbc 8c9e ad27 7c31 4c3c
00000040: 7a7b a62b 8ed7 bb3b b422 673d b0cd 53bc
00000050: 1caa 9e3c 87f8 883d 6d13 20bc e694 1b3c
00000060: 566a b2b9 12c3 e53b c46a 0880 80f1 c638
00000070: d43a 19bd 133e 9839 3bca 8e99 cd0b 483d
00000080: 3882 8fa7 f3eb 4e3d 3709 ad3c 8586 183d
00000090: c7a3 033d 8b01 0000 0c9d 203c e13b 5bbc
000000a0: 555f 0a00 1817 96bc ca63 a03b 163b 132d
000000b0: da80 acad eac5 0380 c8eb 0180 db82 203c
000000c0: 9d30 d83c 7a6c b03c 83ba 0000 3633 803d
000000d0: baa1 a23c 302f f6bc 85ed c63c 04c3 ea3c
000000e0: 16a5 273d 4586 0000 704c 0400 0f32 3b3d
000000f0: 4bfa 0180 5249 9a3b 6d8b 0500 bb1a 0280
00000100: e74b 5a2d 268e 8e3d 0c4c 0200 d6e6 883c
00000110: 9dd4 0200 e0f9 f53c 2ebd 0200 74f1 063c
00000120: a4f9 d42a 9aea 76bc 5f7a ac31 b321 013d
00000130: ecb9 9034 2f6d 3b3d 4b08 c484 3f15 0300
00000140: 487c 682b 185b 2e3b da75 6ba4 31d8 c436
00000150: aaa3 063c 90a4 9cbb 601f 083c cac4 4e3d
00000160: be5b 1e3d 7796 0380 3de9 5b36 f45e 793d
00000170: 203d 0680 64ef e4a3 bbf8 e53c 37f0 0000
00000180: 4789 cc39 b93f bd3c d147 b23c 703b 04bc
00000190: cc7b 623d 9cf5 ddbc 2dcd c03c 560b 853d
000001a0: 5fa4 d03c ca48 0200 abc6 83bc f51f 1ab9
000001b0: 839d d8bc 41e0 493d 9d09 7dbb 4b3a 55ad
000001c0: ff7d 8133 2065 dc3b 1d82 e63c 7402 9f3c
000001d0: f219 dabb 7626 293d f0a4 0200 5125 2dbc
000001e0: 796c 751a 7d01 0400 82e8 2d39 5e97 553d
000001f0: c536 5f34 cd62 0080 06df c63c ce55 873c
00000200: a111 0500 e4a0 78bc c339 5f3d 4f9b 0300
00000210: a88b c23b 50ed 283d eb4f 193d c020 0700
00000220: 003b 0200 8a4a adab 76cb 593c b5cc ec3c
00000230: 9dbc e9ba bd02 0400 752f 493d 9272 f43c
00000240: 56a8 42a7 4aca ef3c 80a2 c33c cce7 1d80
00000250: 098f c9bc aa4d 0f3c a2ac 003c 1e82 563d
00000260: 066d 6f3d 29e5 b496 a6fe e43a e67e 48bb
00000270: f187 423d 2b16 0000 54a4 1130 f318 5f3c
00000280: a8f0 fabb 16cd 673c 2387 4e3b 4fc7 bdbc
00000290: 20d3 bdbc eca8 e22c 3e8a 6c3b 484c 423d
000002a0: a567 4337 9a78 47ba 3d63 6d3d ccd1 9d35
000002b0: 6012 0380 e293 1ebb 21a5 99bb c225 2680
000002c0: fe23 e53c 85c2 173b 3dc2 a300 9d4b 753d
000002d0: ea74 8e3a 6bd5 0180 83fc 903c 638d 46bc
000002e0: d371 c9bb 641d 2637 f4d6 243b c547 0b3d
000002f0: ebfa c6bb 6e99 223d fa87 e03b 1030 423d
00000300: 16bb 0580 26e3 0080 cf57 5012 c1c3 9cbc
00000310: 8dfc 0300 1fa9 423d 1915 153d 978f 0d3d
00000320: 5a42 6f3c 57bf 323d 6647 1224 9bac 8137
00000330: 29e8 0c29 bcd2 f33b eac4 091a b837 6abb
00000340: 30d4 119a 8aba ec3c 0c83 e439 5bd9 6c98
00000350: 293f b3b9 52ae 0180 7734 0fbc cf0e 7a3b
00000360: 841d 8d36 cae6 b4bc 3ff0 032c fc47 0f80
00000370: 1b7a a03b 0af6 6c3d 87c2 e13c 6564 0700
00000380: 707d 0f3c 615f d33c 34bd 2c80 f83c 0200
00000390: ba4d 01bd 7661 47ba 3810 5e3d 7af1 0480
000003a0: a9ad d4bc bb2d 0200 b85d 183c bce8 013d
000003b0: 14e2 933c 7119 273d 829a 2500 0c41 8e3d
000003c0: 1766 0180 8e50 5c3d 2ce6 77a9 0033 0600
000003d0: 67eb dabc 0b81 0000 3ecc c83c 4d66 22bc
000003e0: 47ac 8bbc 570a ebbc a994 b036 e154 7ca3
000003f0: 6d21 ea3c 3855 bfbc 308d 7f3b 2063 0680

bias f4 [4]
0.041464616 -0.014899877 0.058611944 0.021931686
00000000: cdd6 293d 9d1e 74bc 1413 703d 14aa b33c

weight f4 [4, 8]
0.007916242 0.0050130556 -0.00014023283 0.0012854424 -0.0020926823 -0.0012883618 -0.0014803607 -0.0034572978
-1.19112e-40 -2.8608238e-26 4.64865e-40 -4.9832e-41 -5.56104e-40 1.25001e-40 -1.677004e-30 -4.552463e-14
-0.023922857 -0.0023436903 -0.0027867672 -0.00010731084 1.5643729e-05 1.4420511e-05 -4.158577e-05 3.4560668e-05
0.08895181 -0.0962464 -0.00045444904 -0.004683956 0.0013048307 0.00079301593 0.0008453432 0.0021410352
00000000: 20b3 013c 8f44 a43b 770b 13b9 4a7c a83a
00000010: 6225 09bb 40de a8ba aa08 c2ba d593 62bb
00000020: 094c 0180 40a9 0d95 db0f 0500 e98a 0080
00000030: 310e 0680 745c 0100 030e 088e 5306 4da9
00000040: def9 c3bc 9998 19bb 32a2 36bb 120c e1b8
00000050: a73a 8337 a0ef 7137 616c 2eb8 3cf5 1038
00000060: 5e2c b63d d51c c5bd 1e43 eeb9 df7b 99bb
00000070: da06 ab3a 66e2 4f3a 069a 5d3a 9c50 0c3b

bias f4 [4]
0.011260594 4.205e-40 0.056042444 0.110262014
00000000: 5b7e 383c 2f94 0400 c38c 653d 0dd1 e13d

weight f4 [4, 8]
-1.5516161e-16 2.24251e-40 -3.700567e-29 -2.197676e-12 -3.14733e-40 3.82438e-40 -1.4302082e-26 6.187887e-33
0.0001998885 0.00014696558 -0.00088851596 0.00302469 0.00016321836 -3.22694e-40 0.000605395 0.0023921235
0.15315583 -0.056203872 0.013573249 0.16531254 0.03570841 -4.723387e-25 -0.010389668 0.11850187
-0.08261858 0.067221485 -0.0033067912 0.13460802 -0.06617373 -2.2886899e-31 -0.0017953595 0.08912374
00000000: a0e3 32a5 1f71 0200 1ba4 3b90 d0a5 1aac
00000010: 596d 0380 152a 0400 16a4 8d94 7384 000a
00000020: 2999 5139 c61a 1a39 4ceb 68ba e139 463b
00000030: 9825 2b39 8a83 0380 5fb3 1e3a 2cc5 1c3b
00000040: e2d4 1c3e 0836 66bd 5562 5e3c b147 293e
00000050: fb42 123d 872e 1297 6d39 2abc 1cb1 f23d
00000060: ee33 a9bd 6bab 893d c0b6 58bb afd6 093e
00000070: 1886 87bd 628b 948c 4552 ebba 8286 b63d

bias f4 [4]
-4.71416e-40 0.014327272 -0.03179374 0.11794524
00000000: 1e22 0580 efbc 6a3c 273a 02bd 468d f13d

weight f4 [10, 2]
-0.00088383217 -0.00010006419 0.14962599 0.007274655 -0.00011604945 0.00032374208 0.0047017294 -0.0038814708
-0.003224277 6.361458e-05 -0.0007999717 2.449609e-06 0.0017418893 0.0017030862 0.00029844377 -2.5752644e-05
-7.047231e-39 3.9414735e-23 -7.0748833e-06 -5.148552e-10
00000000: f9b0 67ba 8ed9 d1b8 8e37 193e 3b60 ee3b
00000010: 935f f3b8 edbb a939 f710 9a3b 4660 7ebb
00000020: 644e 53bb d168 8538 31b5 51ba f663 2436
00000030: 1b50 e43a 173a df3a 7278 9c39 6207 d8b7
00000040: d0bc 4c80 1499 3e1a c964 edb6 b785 0db0

bias f4 [10]
4.7810136e-05 -0.14100659 -2.288147e-05 0.0006485677 0.0037513215 1.6185957e-07 0.022180524 0.0038463047
-0.000661004 2.9220466e-09
00000000: be87 4838 0864 10be 95f1 bfb7 a404 2a3a
00000010: bbd8 753b 9fcb 2d34 eeb3 b53c 4912 7c3b
00000020: 3a47 2dba 30cd 4831

weight f4 [10, 2]
0.0060971025 -9.074071e-05 0.058102 0.25295505 -3.0060219e-06 -0.0022948137 -2.4837545e-08 -7.208227e-10
2.0977364e-10 -1.1548086e-06 0.00027401265 -0.00014391866 0.0012645259 0.0021493125 8.0784224e-10 1.5895627e-11
-8.088463e-11 -4.8714348e-08 -0.10204656 0.2773043
00000000: 34ca c73b 0c4c beb8 5dfc 6d3d 5383 813e
00000010: 10bb 49b6 9664 16bb 575a d5b2 6323 46b0
00000020: 08a6 662f ecfe 9ab5 5ba9 8f39 dfe8 16b9
00000030: 73be a53a 7bdb 0c3b d80e 5e30 c5d1 8b2d
00000040: 00de b1ae fe39 51b3 c9fd d0bd d4fa 8d3e

bias f4 [10]
-0.010104024 -0.22673498 -4.1330804e-06 5.119116e-10 -9.009481e-05 -3.2032636e-05 0.001582096 1.4493683e-11
1.3042127e-10 0.3087557
00000000: 598b 25bc 372d 68be e4ae 8ab6 94b6 0c30
00000010: 48f1 bcb8 c85a 06b8 555e cf3a bff9 7e2d
00000020: 5366 0f2f 3a15 9e3e

weight f4 [20, 4]
-0.004861181 -0.0005060808 -0.0013435351 -0.0022592228 -3.881164e-09 -4.4861056e-23 4.9634212e-09 1.69313e-40
-0.00016729771 -2.1392998e-05 -5.2823336e-05 -0.00032195076 -0.000363509 -9.765735e-06 -2.401395e-05 -8.052263e-05
0.045467507 -0.0005957382 0.087681495 -0.019879313 -0.0014205751 -0.00024362071 -0.00054576126 -0.0011719727
-0.0018677252 -6.544979e-05 -0.0002065152 -0.00029455486 0.18616906 0.031895604 0.14756049 0.0225852
-0.0772057 -0.051089108 0.24091649 0.13113211 -0.0021860062 -0.00031909492 -0.001685319 -0.0010227304
0.009118198 0.0014384745 0.05892568 0.009236753 1.6548314e-10 -3.986813e-09 -2.8147895e-10 2.603897e-10
0.03200163 0.0015300877 -0.024410745 0.01522267 -4.53704e-06 -7.6515425e-07 -1.4900675e-05 -3.5036578e-06
-3.20798e-40 4.7672e-41 -3.39243e-40 -7.222067e-18 4.008823e-06 1.5782055e-06 -2.4167606e-05 7.9695765e-06
-0.0026636845 -0.00039050714 -0.00058051327 -0.0011438931 3.9018542e-07 -2.7401245e-07 9.479502e-08 -4.1426028e-07
0.13432464 -0.007211158 0.0034716364 -0.042393997 0.10264531 0.041499935 -0.17465849 0.005211507
00000000: 8b4a 9fbb 82aa 04ba 8f19 b0ba 780f 14bb
00000010: 145b 85b1 4cef 589a b78a aa31 fad7 0100
00000020: a36c 2fb9 1d75 b3b7 a08e 5db8 80cb a8b9
00000030: 5a95 beb9 83d7 23b7 9171 c9b7 42de a8b8
00000040: 233c 3a3d 502b 1cba 5b92 b33d f1d9 a2bc
00000050: 9732 baba 7074 7fb9 6b11 0fba e19c 99ba
00000060: 75ce f4ba 1742 89b8 008c 58b9 7c6e 9ab9
00000070: 1aa3 3e3e f7a4 023d 191a 173e 9904 b93c
00000080: 061e 9ebd d042 51bd d0b2 763e 7f47 063e
00000090: 1943 0fbb 324c a7b9 ece5 dcba 230d 86ba
000000a0: 7f64 153c 328b bc3a 0e5c 713d c055 173c
000000b0: 5df3 352f 61fc 88b1 a4be 9aaf 9826 8f2f
000000c0: 2414 033d 398d c83a 0bf9 c7bc 8168 793c
000000d0: e03c 98b6 0065 4db5 e9fd 79b7 6220 6bb6
000000e0: 417e 0380 e484 0000 acb1 0380 3f39 05a3
000000f0: 8783 8636 bad2 d335 8abb cab7 12b5 0537
00000100: 3691 2ebb fbbc ccb9 962d 18ba afee 95ba
00000110: ad7a d134 fc1b 93b4 1d92 cb33 8067 deb4
00000120: 668c 093e 944b ecbb 6584 633b 54a5 2dbd
00000130: b437 d23d d6fb 293d add9 32be 4ac5 aa3b

bias f4 [20]
0.0037385987 -2.5917334e-06 0.00014521166 0.0001095266 0.013344683 0.0011763256 0.0006716528 0.13212009
0.05054192 0.014533311 0.12383631 -9.208996e-10 0.047352847 3.9299366e-06 -3.5902502e-07 -1.2209631e-06
0.001720011 -8.291733e-08 -0.048055865 0.18598837
00000000: 4703 753b a4ed 2db6 f543 1839 a5b1 e538
00000010: a8a3 5a3c f02e 9a3a db11 303a 7d4a 073e
00000020: 0b05 4f3d 201d 6e3c e49d fd3d 8c22 7db0
00000030: 0ff5 413d e6dd 8336 06c0 c0b4 f9df a3b5
00000040: fe71 e13a 4910 b2b3 3ad6 44bd bc73 3e3e

weight_ih_l0 f4 [12, 10]
7.738606e-32 6.435354e-25 -9.375297e-13 -2.373957e-09 -1.2765158e-08 -7.288197e-32 6.8997615e-34 9.928321e-30
-4.4560753e-31 2.7594865e-07 1.35042315e-08 -3.23627e-40 -4.697238e-08 -2.4145641e-32 3.7965386e-33 -3.0112542e-18
-3.5197328e-33 -4.6532e-13 -8.442363e-18 4.900309e-16 -4.2339857e-11 6.7267803e-28 -1.1812254e-19 2.1739541e-14
-2.1478704e-26 2.1321956e-15 7.1808705e-07 -2.2518773e-12 -1.3138254e-13 8.594068e-25 2.6211856e-33 7.5771756e-17
-6.139303e-35 5.202157e-33 3.1869527e-29 1.8564193e-25 -5.98715e-34 -2.1620875e-32 7.724865e-10 -3.5030343e-06
9.291887e-15 -3.4608996e-10 3.7224843e-24 -1.7227917e-22 -1.3125742e-23 2.0324698e-22 3.014042e-11 3.7517627e-19
-4.257218e-22 -1.8279211e-21 -3.024707e-08 -2.72338e-40 8.085879e-09 4.118837e-28 1.06557265e-29 -3.957034e-28
2.5101555e-11 -2.7924848e-24 7.576849e-29 -2.0133268e-06 1.2053257e-19 3.7300636e-33 -1.3477911e-08 -1.2670053e-07
-5.85573e-22 -1.3925056e-20 -7.026439e-23 -3.3818442e-10 -3.3059138e-08 -3.9858175e-14 -5.2575744e-13 4.8653883e-35
6.190279e-12 1.0108952e-22 2.5653413e-24 5.2791724e-23 3.8446238e-08 -5.1907374e-20 5.968256e-11 2.5031021e-12
1.7384411e-06 3.2216945e-30 -2.9844267e-22 -3.1077043e-08 -4.38633e-21 9.127073e-12 5.9362855e-21 -1.4783137e-13
-2.714215e-08 4.7439238e-07 -8.632167e-12 -1.4850055e-07 -1.3008749e-20 -4.4760956e-19 2.606864e-06 -5.79028e-18
7.2277037e-12 6.334183e-07 -3.8299205e-10 4.879824e-06 -8.59879e-14 -6.492102e-10 -1.1503855e-17 9.3862045e-06
-2.4474813e-16 9.679926e-10 -2.6567663e-15 7.025868e-08 1.7673082e-07 -7.123103e-05 -1.2229077e-06 1.2627288e-13
-5.228775e-14 3.175183e-07 8.3481783e-16 1.1761592e-17 1.0930427e-08 -1.0986261e-07 8.973431e-09 -4.3935353e-07
00000000: dce7 c80b 212a 4717 11f2 83ab 1823 23b1
00000010: c24d 5bb2 6136 bd8b ae48 6508 ca5e 490f
00000020: a09b 108d 1826 9434 3d00 6832 2486 0380
00000030: aebe 49b3 20be fa8a b9b3 9d09 fc30 5ea2
00000040: 3834 9289 d7f9 02ab efbb 1ba3 e63d 0d26
00000050: 7136 3aae 202e 5512 5974 0ba0 f8cf c328
00000060: fcb6 d494 11a4 1927 91c2 4035 3776 1eac
00000070: 70ec 13aa 9cfc 8417 74c2 5909 c0b7 ae24
00000080: ee35 a386 d216 d809 0399 2110 47d0 6516
00000090: 0af5 4688 2586 e08a e856 5430 ac15 6bb6
000000a0: 4463 2728 d543 beaf b301 9018 d245 509b
000000b0: 87e3 7d99 e5b5 751b 198f 042e 0977 dd20
000000c0: a1aa 009c 231d 0a9d 01e9 01b3 2bf7 0280
000000d0: 12ea 0a32 fa87 0212 b21f 580f 8cce fa91
000000e0: adcb dc2d dc0e 5898 9018 c010 b11c 07b6
000000f0: bc4c 0e20 d7f0 9a09 7b8c 67b2 2d0b 08b4
00000100: 84fa 309c b884 839e 8de3 a99a 3aeb b9af
00000110: e8fc 0db3 5981 33a9 d1fc 13ab 1e58 8106
00000120: 14cd d92c 626b f41a d27b 4618 fd48 7f1a
00000130: 1620 2533 2a20 759f 4b3e 832e e123 302c
00000140: 6254 e935 fdaf 820e c465 b49b 9279 05b3
00000150: fbb5 a59d af90 202d 3b44 e01d 7e71 26aa
00000160: 3826 e9b2 feaf fe34 d3db 17ad 8573 1fb4
00000170: 73ba 759e 6c1c 04a1 95f1 2e36 a69f d5a2
00000180: 5e4d fe2c 2d08 2a35 578d d2af 5ebd a336
00000190: a6a0 c1a9 1b74 32b0 6b35 54a3 7179 1d37
000001a0: 7316 8da5 360a 8530 b070 3fa7 1ee1 9633
000001b0: 66c3 3d34 de61 95b8 ca22 a4b5 ae2b 0e2a
000001c0: ac7b 6ba9 6277 aa34 af9e 7026 8cf6 5823
000001d0: 87c8 3b32 9ced ebb3 9129 1a32 4ae0 ebb4
