ERTSNet/best-model.pt (torch, 339719 bytes, 123 tensors)

weight_ih_l0 f4 [27, 15]
00000000: 0e45 9dbe 46c9 b23d 2348 62be 0c81 71be
00000010: c40e 4ebe 4193 613e 7a7c f7bd bfbf c8bd
00000020: a18e 813e fb33 9d3e e339 90bd 4143 823e
00000030: 7900 c0bd 6657 283d 1575 343e 9203 0abe
00000040: 160f 163e fdd2 22bb 7f9b 4c3e 2fb4 193e
00000050: 7a60 85be bafe 4d3e ff9b 253e 5a04 273e
00000060: ca59 5f3e 2577 e23c 934d e2bd bd53 ddbd
00000070: 18ef 5fbe 5f43 c63d dddc c33d 327d 2abe
00000080: 6326 b53d b331 a33d f006 77be 6920 42bc
00000090: 5d9c 7a3e b193 7cbe c637 8bbe f1d5 833e
000000a0: 9b4d 9a3e 1a03 dbbd ddc3 d1bc c258 49bd
000000b0: 474c cc3c d140 573d 9126 643e ca29 28be
000000c0: 3fde 0f3e 953d a5be fd3b 81be b6b4 05be
000000d0: 1447 46be 6673 ffbd b7db 02be 3f6a 723e
000000e0: 6b63 8ebd cd87 ef3d 93cf 943e dda9 8cbe
000000f0: 61f6 9dbe 8270 9a3e 5748 003e 217e 483e
00000100: 8859 08be e866 063e 579c 303e e80c aabe
00000110: 3c4c 1fbd bab8 93bd fa50 68be 90e7 8bbd
00000120: 6de2 2ebe 773c 84be f6eb b43d fde2 0e3d
00000130: 600a 843d 2270 5a3e da71 663e 4d25 a43e
00000140: 741f 76be 4478 5abe b374 153e fa58 83be
00000150: 0b52 a8be 0a86 3cbe 7859 ea3d 39e0 bc3d
00000160: 3d30 173e a27d 5c3d 881b 2dbe ac7f 8a3e
00000170: 9eec ee3d 0cf6 6bbb 1630 8cbe d571 b13d
00000180: 6b7f 7c3c e8e6 903e daa4 39be 81cd 343b
00000190: 9f2b a6be 3844 403e 32b1 8abe 68dd 6138
000001a0: 4117 b13d 7a21 6e3e d9b3 52be ee56 47be
000001b0: 256e c63d ec10 ef3d c971 04bd def5 7f3e
000001c0: 34f6 88be e043 96be 5a3e 93bd edc9 173e
000001d0: bcf3 1b3e baff 1fbd b812 8f3e 101c 873e
000001e0: 3b00 723e 4f1d e73d ec4c 24be 8a1b 283d
000001f0: c2c9 6cbe eade 573e b98f 833e d418 b73c
00000200: 896d e33d 0a78 7d3e 3623 703d 711a 803e
00000210: 7607 1cbe c5d1 043d 1c05 b5bc 8de8 a7be
00000220: 4296 8d3e e3d4 483e 7e23 3c3e c65e 54be
00000230: 9e35 973e b31b 5a3e 4cac 40bd 4b1e 7dbe
00000240: 2a53 da3d 22e2 083e 2f1c 8cbe 1473 74be
00000250: 8eac 9bbc 6087 08be c869 6cbe f794 73be
00000260: ea9b 86be 7df4 5d3e 0d5c 493e b87a d0bd
00000270: d803 58bc 4660 cd3d bf0b 933e 3357 57be
00000280: c66b e1bd e53d 3e3d c363 2dbe c642 9f3e
00000290: 2274 e83d bad8 393e dd2e 023e cd6c a53c
000002a0: a411 623d 41fc c1bb 2409 933e 74f6 ce3d
000002b0: 0f51 7bbd 1479 3b3e 9acf 17be 783e 693e
000002c0: 5cc4 2e3e 572c a03e 73b9 16be b707 9bbe
000002d0: 1bc6 593d 287d a6be 3cf4 a63e 47ad fdbd
000002e0: 5ef5 42be a1bc 2abe c765 06be ffeb 993e
000002f0: a317 b73c 5ae9 18be 1b77 35bd 7b79 023e
00000300: 95c9 4fbe 47f5 843e a306 113e 29f7 af3d
00000310: 7cb8 84be 543d bfbd 1e1b e53d 0242 21be
00000320: b965 783c b264 96bc d4de 88be 03f1 b73d
00000330: 6861 e7bd 3453 a3be 7ae6 28be b1a7 903e
00000340: e659 e4bd aadb 843e 50fc 173e 6aed 3a3e
00000350: c663 4c3b 4941 76be 9ee0 ea3d 9820 a63e
00000360: cbdc cd3d 9458 f93d 5852 3e3b 6aa8 263e
00000370: f0f0 3f3e 8bf9 56be 5877 92bd ed1c 7cbe
00000380: 805b 0e3e 4ca0 d13d 230e c6bd 3af6 34bd
00000390: c6f9 a3bc 2668 5cbe b338 a83e d6b3 673e
000003a0: b151 823e 5e85 a2be a724 59bd 5901 c23d
000003b0: 6934 03bd 6da7 7dbe aaa2 45b9 5a7f 2fbe
000003c0: d501 68bd 7cab 9e3e d9fb 703d b37a 1d3d
000003d0: a16c 02be 21e0 34be 4355 21be 2da5 213e
000003e0: 8a39 40be c8b4 f2bd f0d4 13be d074 9fbe
000003f0: 1a51 533d f57a 47be b9ed 88be c389 95bd
-0.30716747 0.08729796 -0.2209783 -0.23584384 -0.2012282 0.22028829 -0.12084289 -0.09802198
0.2530413 0.3070372 -0.07042291 0.25441936 -0.0937509 0.041098975 0.17622788 -0.13477924
0.14654192 -0.0024844997 0.19981192 0.15010141 -0.26050168 0.20116702 0.16172789 0.16310254
0.21811596 0.027644703 -0.11049952 -0.108069874 -0.21868551 0.09680819 0.09563611 -0.1664932
0.08845212 0.07968464 -0.2412374 -0.0118485475 0.2447371 -0.24665715 -0.2719099 0.25749162
0.30137333 -0.10693951 -0.02560609 -0.04915691 0.024938716 0.052552048 0.22280337 -0.16422191
0.14049624 -0.32273546 -0.2524108 -0.13057217 -0.19363052 -0.124731824 -0.12779127 0.23673342
-0.06952556 0.11695824 0.29064617 -0.27473345 -0.30852035 0.30163962 0.12527595 0.19579364
-0.13315403 0.13125193 0.17247139 -0.33212972 -0.038891062 -0.07212968 -0.2268714 -0.068312764
-0.17078562 -0.2582738 0.088340685 0.03488444 0.064472914 0.21331838 0.22504368 0.32059708
-0.24035436 -0.2133494 0.14595298 -0.2565382 -0.32875094 -0.18410507 0.11442846 0.092224546
0.14764495 0.05383075 -0.16905034 0.2705053 0.11666225 -0.003600481 -0.27380437 0.0866429
0.015411238 0.28301167 -0.18129292 0.002758831 -0.32455155 0.18776023 -0.27088314 5.385038e-05
0.086470135 0.23254958 -0.20576419 -0.19466755 0.09688977 0.116731495 -0.032335076 0.24996135
-0.26750338 -0.2934866 -0.07189627 0.14823122 0.15229696 -0.03906224 0.2794397 0.26388597
0.236329 0.11284887 -0.16044968 0.04104189 -0.2312384 0.21081129 0.2569559 0.022350706
0.111048765 0.24752823 0.05862733 0.25020173 -0.15237221 0.032426614 -0.022097163 -0.3279461
0.276537 0.1961246 0.18372914 -0.20739278 0.29533094 0.21299629 -0.047039315 -0.24718587
0.106603935 0.13367513 -0.27365252 -0.23872024 -0.019003179 -0.13332891 -0.23087227 -0.23787294
-0.26290828 0.21675296 0.19664021 -0.10179657 -0.01318451 0.10028128 0.287199 -0.21029358
-0.11006884 0.046445746 -0.16932587 0.31105632 0.113502756 0.18149081 0.1271319 0.020193482
0.055192605 -0.0059199636 0.2871791 0.10105601 -0.0613566 0.18307906 -0.14825287 0.22777736
0.17067093 0.3128383 -0.14719181 -0.30279323 0.053167444 -0.32517362 0.3260821 -0.12386566
-0.19038913 -0.16673519 -0.13124762 0.30062863 0.022350138 -0.14932767 -0.04430304 0.12741654
-0.20291741 0.25968382 0.14162688 0.08592064 -0.25922 -0.09337869 0.11186813 -0.15747836
0.015160971 -0.018358562 -0.26732504 0.08981516 -0.11297876 -0.31899416 -0.1649417 0.28252938
-0.11149959 0.2594884 0.14842343 0.18254629 0.00311874 -0.24048342 0.114686236 0.32446742
0.100518785 0.12175098 0.002904078 0.16275182 0.18744254 -0.2099363 -0.07151669 -0.2462041
0.13902092 0.10235652 -0.09670665 -0.044180132 -0.020016562 -0.21524104 0.32855758 0.22627196
0.2545295 -0.31742376 -0.05301347 0.09472913 -0.032032404 -0.24770899 -0.00018847981 -0.17138425
-0.056642372 0.30990207 0.05883393 0.038447093 -0.12736751 -0.17663623 -0.15755181 0.15785666
-0.1877195 -0.118508875 -0.14436698 -0.31143808 0.051591016 -0.19480498 -0.26743868 -0.073016666

weight_hh_l0 f4 [27, 9]
00000000: 7bd2 95be cde4 463e 8c2d 86be ae51 2dbe
00000010: 3053 863d 2f26 9f3e 508f 3b3e 7f35 8c3e
00000020: ac6b 743e 0a7e be3d c448 79be e1e7 e4bd
00000030: d785 233d aec8 263d 4317 583e 6049 95bb
00000040: 1113 963e ac93 88be 6640 3ebe ba6f ed3d
00000050: 80bb 82bd 6056 e7bd 9c80 5e3e 4eee a93e
00000060: c88b 7c3e b178 9cbe abaf a73e 62d3 48be
00000070: 7bf2 76be afc2 93bd 87b0 13be 685d bf3d
00000080: 7400 a3be 9914 493e e5c0 35be 2320 21be
00000090: a32e f23d 6ac2 363e 3fff 8a3e bd7e 4b3e
000000a0: c6c4 c53d e24f a6bd 2d78 98be ebf6 8a3e
000000b0: 3295 a93d 7900 7b3d 4da6 593e 6112 b43d
000000c0: e963 00be 563b 8e3e 9a1a 1fbe d03f 79be
000000d0: 2512 8e3e f440 81bd bd30 113e b0f8 323d
000000e0: ac2e 193e 51d6 89be 11f4 9ebe 5419 893e
000000f0: e60d 1fbd b55b b9bd f557 35be 6a34 88be
00000100: c89c 09be cb68 8cbe c008 103e 647a b23d
00000110: f683 a83e 506c 12be 2559 8f3e fcbe 063e
00000120: 467d 943d f89d ac3d 0862 a6be f83d 6c3e
00000130: ef40 07be 37d9 2c3e 2a2a 00be d55b 31be
00000140: 1c67 393e 4d0c 8bbe 2877 0dbd bc8f 083e
00000150: 0b8c 31be 5196 12bc bf31 6f3b d358 e0bd
00000160: fd51 c73d df30 97be 7a23 9b3e 2e74 85be
00000170: 1b99 82be d18b a5be 7697 8a3e 4816 0bbd
00000180: d1ed 313e 4398 eebc 7724 cc3d 25a5 6f3d
00000190: 8ea8 8f3e 26c9 92bd 0b04 9bbe 3aef f83d
000001a0: 9d70 73be 3cfe a43e 5f84 1dbe c5ea 063e
000001b0: 4827 033a c3a9 ca3b 83f6 ad3d 01aa 893e
000001c0: e280 823c 624c 913e 8ec5 37be 08f2 053d
000001d0: e479 813e afd0 56bc 946e 8d3e 1c81 3f3d
000001e0: 16fe 67be 2665 563e d9b0 60bd 8c7a 9d3e
000001f0: 15c5 60be bcd7 3f3e 4b78 333d ed9d c13d
00000200: 0fee 45bd ce24 a8be fbbb f1bd 5154 193e
00000210: c5fb ddbd 51f6 e93d db3c bc3c 16ea 39be
00000220: f0da 44be 58bc 273e b45c 443d 36d9 32be
00000230: 64e4 813e 7150 27be d5b6 203e 49b1 0e3e
00000240: c18e 4cbe d719 b53d 5998 24be 0dee 2c3e
00000250: f1a2 71be 8651 173e 7445 a6bd 47a6 9abe
00000260: c15f 2bbe fc45 54be 45d8 0dbe 6eeb 9b3e
00000270: 8e02 3f3e 274b 1abe c7b0 80be 5884 4dbe
00000280: 0ed7 22be f7ed a8be 1694 ccbd 83dd 50be
00000290: 3b1d 563e cbf8 343e 7ea9 a0bd 8b16 2fbc
000002a0: 987b 5b3e a8af a13e e5eb 283d c004 81be
000002b0: d690 383e 1bf4 753d 92b0 95be 30ef a23d
000002c0: 2ca1 8cbe 5820 b1bd 57c8 2a3e 4985 b73d
000002d0: 3b39 2b3e 8127 823e 2162 94be 4296 83bd
000002e0: 2f0d eebc 41c0 843e a97d e1bd 3951 fe3d
000002f0: 81c6 06be 231f 923e c251 f13c 81cc 95be
00000300: 359f 1ebe 1c2a 193e 2b1d 2fbe acca cc3b
00000310: 862a a63e 1451 c5bd c704 993e 13b5 063d
00000320: c411 80be 1b43 8cbe b6a0 39bd ce29 2c3c
00000330: f25c 29bd 5eca 6dbe 8d83 863e 5b22 363e
00000340: 47c3 273e 169d 59bd 4bfb 2c3e b717 9e3d
00000350: 587b 2e3e 42f8 c4bc de72 4c3e cd6d e63c
00000360: b9aa 9a3e f6ad 68be 54ce 993e 40ec 8f3e
00000370: 337c 38be 2ae9 013e 503d 373d d257 91be
00000380: 3755 64be 8294 e73d 895f a63e c804 3fbe
00000390: 7a01 293e fa5b 363e 7739 54be 5fd3 8e3e
000003a0: 47ef 4cbe ebbd 2e3d 23ad 383d 5827 503e
000003b0: f47f 06be b9e2 163d 7401 5d3e 5a5c 20be
000003c0: be21 8039 59c9 f3bc 21b2 b2bd
-0.29262146 0.19423218 -0.26206625 -0.1692569 0.065588355 0.3108382 0.18316388 0.27384564
0.23869199 0.09301384 -0.24344164 -0.1117704 0.03992256 0.040718727 0.21102624 -0.004555866
0.29311422 -0.26675165 -0.18579254 0.11593576 -0.06383419 -0.112957716 0.21728748 0.33189625
0.24662697 -0.3056083 0.32751212 -0.19611886 -0.24115936 -0.07214867 -0.14422809 0.09343988
-0.31836283 0.19636764 -0.17749365 -0.15734915 0.118253015 0.178476 0.27147862 0.19872566
0.09656672 -0.08120705 -0.29779187 0.27141508 0.0828041 0.061279748 0.21254845 0.08792568
-0.12538113 0.27779645 -0.15537491 -0.24340749 0.27748218 -0.06311217 0.14178748 0.043694198
0.1495921 -0.26921323 -0.31045583 0.26777136 -0.038831614 -0.09050695 -0.17709334 -0.2660249
-0.13438714 -0.274237 0.14065838 0.087147504 0.32913178 -0.1429913 0.279977 0.13158792
0.072504565 0.08428568 -0.32496667 0.23070514 -0.13208364 0.16879736 -0.12516084 -0.17320187
0.1810574 -0.27157822 -0.034537464 0.1333608 -0.17338578 -0.008946971 0.0036498157 -0.10954442
0.09732435 -0.29529473 0.30300504 -0.260652 -0.25507435 -0.32333234 0.2706868 -0.033956796
0.17375876 -0.029125338 0.099678926 0.058507103 0.28058285 -0.07167272 -0.30276522 0.12155004
-0.23773427 0.32225215 -0.15382527 0.13175495 0.0005003107 0.006184788 0.08494284 0.26887515
0.015930597 0.28378588 -0.17946455 0.032701522 0.25288308 -0.0131112775 0.27623427 0.046753988
-0.2265552 0.20937023 -0.054856155 0.30757558 -0.21950181 0.1873464 0.043815892 0.0945395
-0.048322733 -0.3284058 -0.118034326 0.1497357 -0.10839037 0.11423934 0.022978237 -0.18155703
-0.19224143 0.16380441 0.04793997 -0.17465672 0.2536956 -0.1633928 0.15694745 0.13934816
-0.19976331 0.08842819 -0.16073741 0.16887684 -0.23597313 0.14777192 -0.08118716 -0.30204985
-0.16735746 -0.20729822 -0.13852032 0.30453056 0.18653318 -0.15067731 -0.2513487 -0.20070016
-0.1590235 -0.32994053 -0.09989183 -0.20397 0.20909588 0.17673032 -0.07844828 -0.010686527
0.21433866 0.31579328 0.04124059 -0.25198936 0.18024 0.06004725 -0.29236275 0.07955778
-0.27466714 -0.08648747 0.16677986 0.08960969 0.1672105 0.25420764 -0.28981116 -0.06425144
-0.02905902 0.25927928 -0.11010296 0.12417836 -0.1316166 0.2853938 0.02945793 -0.29257587
-0.1549042 0.1495747 -0.1710097 0.0062497463 0.32454318 -0.09634605 0.29886457 0.03288753
-0.25013554 -0.27394947 -0.04531928 0.010508014 -0.041348405 -0.23221728 0.2627224 0.17786543
0.16383086 -0.053128324 0.16892736 0.07719367 0.1703924 -0.02404416 0.19965693 0.028128529
0.30208376 -0.22722611 0.30040228 0.28109932 -0.18016128 0.12686601 0.044736207 -0.28387314
-0.22298132 0.113076225 0.32494763 -0.18654168 0.1650447 0.17808524 -0.20725046 0.27895638
-0.20013152 0.04266159 0.04508699 0.20327508 -0.13134748 0.036837313 0.21582586 -0.1566023
0.00024439202 -0.029759096 -0.08725382

bias_ih_l0 f4 [27]
00000000: 6810 0bbe 8628 4fbe 2a85 6b3e 0437 19be
00000010: 91d5 4a3e baa3 e1bc 2feb 4dbe 4500 893e
00000020: ffaa 493e 467d 3cbe b2f0 03be 3f6b 88bc
00000030: 4b3c 863e e0b7 5b3e fba0 cdbd bdb8 2abe
00000040: f369 833e 2ec2 b73d e6e9 753d faaa 583d
00000050: 9b6d f23d 2eed a43d a1c7 00be 70ab 23bd
00000060: 2463 96be 6249 3dbe ee46 3fbe
-0.13580477 -0.20230302 0.23000017 -0.14962393 0.19808032 -0.027543891 -0.20109247 0.26758018
0.19694136 -0.18407163 -0.12884787 -0.016652701 0.26217875 0.21456861 -0.1004047 -0.16672035
0.2566677 0.08972584 0.060037516 0.05289743 0.11837312 0.08053051 -0.12576152 -0.039958417
-0.29372513 -0.18485025 -0.18679401

bias_hh_l0 f4 [27]
00000000: 5157 833e 84ca 943c 9870 123e 4d41 2cbe
00000010: 48e2 323e c873 943d f4db 39be 115d a93e
00000020: 1aa7 01be 245f 423d 36dc b1bd 93cd 76bd
00000030: 3957 d73b 1b7c 72be a554 a03e babe 56be
00000040: 77fb 703d cb4a a9be 2cb4 953e 5f40 4d3e
00000050: 4b0f 8bbd 9c83 a4bd 7409 483e 992b 943e
00000060: 0162 803d 3d0f 89be 3dd1 6bbe
0.25652555 0.018162973 0.14300764 -0.16821785 0.17469132 0.07248646 -0.18150312 0.33078817
-0.126614 0.047454014 -0.0868458 -0.060254645 0.006571677 -0.23680155 0.3131458 -0.20971194
0.058833566 -0.33064875 0.29239023 0.20044087 -0.06790026 -0.08032915 0.19534856 0.28939512
0.06268693 -0.26769438 -0.23029037

weight_ih_l0 f4 [27, 24]
00000000: 79e7 75be 342f a03e 0ba4 eabd 7183 703e
00000010: faff ea3d e385 5bbe 2818 263c 0bfe b13c
00000020: 1ee5 3c3e 0e59 543e f70e 273e 44bf 973e
00000030: 5c7d 73bd ce4e 34be 9921 30bd b7b2 863e
00000040: b0f4 503e 347a 92be 64d7 49be 48f8 513e
00000050: d29b 4b3e f78f 953e 506a 7a3e fca8 84be
00000060: 732e 0fbe f900 e6bb 6f97 843e 4bb8 683e
00000070: 3eca f3bb 07d2 923e 9cb4 2abe bed5 4e3e
00000080: 7f08 60be 27b3 783e 99d0 0ebe ebab 27be
00000090: c90d 46be 2fb4 a0bc 0226 ca3d ea89 52be
000000a0: d678 283b a4e4 0e3d 19f6 1cbe 7b28 87be
000000b0: 3d14 8d3d b996 bf3d d442 b1bd bf26 5f3e
000000c0: d198 5abc 0b57 f6bd 12c4 6abe dbb9 323e
000000d0: 7cdc 1abe f0b5 80bd 3ede 583e e6de 1fbe
000000e0: abe2 273e 2183 4a3e f004 58be c0c2 5d3e
000000f0: 1865 a23e 47bc 57be ccdb c6bd 43ef 843e
00000100: 3e3b 54be 05b5 493c 6620 b83d 1ac0 f53d
00000110: 4b13 27bd bb67 c8bc fb25 723e 70b3 f93d
00000120: 3028 aabe 91f2 fdbd 480f 853e aebc 4ebd
00000130: c83c c73d a622 1d3e 67fb 11bb ce91 ff3d
00000140: 7c8a 1fbe b919 523e 9fe8 183b 63e5 a8bd
00000150: 4a06 a0be a13e 14be e8cc c23d a11a 45bd
00000160: 1347 a4be cc20 c6bd b584 933e 26cf 923e
00000170: dbf3 c73d 6fba 403e c713 87be 5e63 223e
00000180: 97a0 573e 2424 9dbe 5282 e5bd 8816 6c3e
00000190: e6a9 ee3d c7e5 3abe 6488 b9bb 60a2 32be
000001a0: d8ab a1bc b6b3 113e 6a3d e63c 772f a53e
000001b0: 1b58 613e 983e 5bbe 6ff3 debd df97 783e
000001c0: 73f2 ccbc 2011 473e 5415 a53e 339d 243e
000001d0: e48e 6c3d 24e5 aebd a948 61be f705 2bbe
000001e0: 6abb c83d bf1a 93be 971c 8b3d 0ef8 853e
000001f0: 8e0b c53d 2d55 20be a1ae a4bd fb2f 9fbe
00000200: 70d5 8bbe c2e0 3a3e ecc9 9b3c dc6b 5c3e
00000210: 84d5 9abe 27bf 6cbe b735 0dbe c9db 4bbc
00000220: 15c4 4abe 183b 50be 1ae4 383e 7cb7 a6be
00000230: 5b81 39bc eb87 d33d e323 9cbe 8a98 90be
00000240: aa73 4f3e 9964 f6bd d3d8 fa3d 2b62 793e
00000250: c17b 06be 2897 5339 842a 27be 046b 313e
00000260: fa38 053e deb9 643e 5011 bf3d 7b58 cd3d
00000270: 6000 58be d646 92be 0d52 973b bb8e afbc
00000280: 2ff4 7ebd 321c df3d 1e60 273e 44ce ec3d
00000290: 4e4b b3bd 64ed f63d e571 103e 53aa 87be
000002a0: b3ed 05be 3aa0 67be a460 bfbd cd78 293e
000002b0: d57d b33d 86b7 943e ebc8 a03e 67a4 a4bd
000002c0: d44c 54be 43d7 86be c693 473e 9c49 903e
000002d0: 2b19 87be c107 d6bd c7e8 18be d49c d43d
000002e0: 049a 063d 6163 a93d d281 bc3d 1f21 f83d
000002f0: 75d8 60be 5aa4 15bd 7676 3d3e 0456 223b
00000300: d01a d7bd 6d3c 3b3e a7be a8bd 94eb 0d3e
00000310: cdb8 b83d e9ce 933d ad81 a4be 0821 83be
00000320: 7130 073d c9a6 873c 146f b5bd 8a1f 883e
00000330: 3333 8f3e 6071 6f3d b671 14bd 1bf5 1f3e
00000340: fb47 443e e7d1 f7bc 4878 c9bd b9ec 27bd
00000350: ac33 aa3e 7800 733e 9bac 413d aea5 5d3e
00000360: 1d67 88be 8ca0 d3bd c409 893e 1b58 2e3e
00000370: 4b51 653d ad0d 563e 6f11 9dbe a3ba 093e
00000380: 04b4 9bbe bd3a e43d f295 19be 6f15 713e
00000390: 429a 85be cc5a ffbd 91f8 803e 8543 8bbe
000003a0: 7743 873e faa6 a4be e240 693e f200 06bd
000003b0: 4ceb 253e 1995 a33d 10af 5dbe 85e7 7c3e
000003c0: d8b4 3bbe db4f 9cbe c9af 963d 3cfc 89be
000003d0: 2474 843e 1cd4 a0be d230 403e cd3e 23be
000003e0: 5597 40bc d725 883e 27b4 803e a770 25be
000003f0: 9569 2abe be15 8e3e 3e5a a7be 696c 9d3e
-0.24014081 0.31286013 -0.1145707 0.23487641 0.11474605 -0.21437792 0.010137595 0.021727582
0.18446776 0.20737097 0.16314302 0.29638112 -0.059445724 -0.17608187 -0.04300079 0.26308224
0.20405841 -0.2860886 -0.19711071 0.20504868 0.1988366 0.292114 0.24454618 -0.25910175
-0.13982563 -0.007019159 0.25896785 0.22726552 -0.0074398806 0.28675863 -0.1667046 0.20198724
-0.21878241 0.24287091 -0.13946761 -0.16374175 -0.19341196 -0.019617168 0.09870531 -0.20560423
0.002570679 0.034886017 -0.15328254 -0.26398072 0.06888626 0.0935492 -0.086553246 0.21792124
-0.013342098 -0.12028321 -0.22926357 0.1745371 -0.1512317 -0.06284702 0.21178529 -0.15612373
0.1639506 0.19776584 -0.21095634 0.21656322 0.31717753 -0.21067916 -0.09709892 0.25963792
-0.20725724 0.012311225 0.089905545 0.11999531 -0.040789884 -0.024463525 0.23647301 0.12192428
-0.33233786 -0.123997815 0.2598822 -0.050472908 0.0972839 0.15345249 -0.0022275092 0.12478982
-0.15580171 0.20517625 0.0023332012 -0.08246877 -0.31254798 -0.14477016 0.09511739 -0.0481211
-0.32085475 -0.09674224 0.28812185 0.28673667 0.097633086 0.18821119 -0.26382276 0.15858218
0.21057354 -0.30691636 -0.11206497 0.2305547 0.11653499 -0.18251716 -0.005662011 -0.17444754
-0.019735262 0.1422871 0.028105456 0.32262775 0.22006266 -0.21410596 -0.10886275 0.24276684
-0.025017953 0.19440126 0.32242835 0.16075592 0.05775346 -0.08539799 -0.22000374 -0.16701494
0.098013714 -0.28731343 0.067925625 0.26165813 0.096213445 -0.15657492 -0.0804112 -0.31091294
-0.27311277 0.18249801 0.019017182 0.2152552 -0.30241024 -0.23119794 -0.13790022 -0.012442538
-0.19801362 -0.20335042 0.18055764 -0.32561862 -0.011322345 0.10328659 -0.3049613 -0.28241378
0.20258966 -0.12030906 0.12248387 0.24353854 -0.13133146 0.00020178838 -0.16324812 0.1732598
0.13010016 0.22336528 0.09329474 0.10026642 -0.21093893 -0.2856967 0.0046179355 -0.021430364
-0.06224459 0.1089405 0.1634526 0.115627795 -0.087545976 0.120569974 0.14105947 -0.26497135
-0.13078956 -0.22619715 -0.093446046 0.16549988 0.08764235 0.29046267 0.31403288 -0.0803917
-0.20732433 -0.26336107 0.19489965 0.2818116 -0.2638639 -0.10450698 -0.14932548 0.10381475
0.032861724 0.08270908 0.09204449 0.12115692 -0.21957572 -0.03653369 0.1850222 0.0024770508
-0.10503161 0.1828477 -0.08239489 0.13859397 0.09019623 0.07217199 -0.32130185 -0.25611138
0.03300518 0.016559022 -0.08859077 0.26586562 0.2796875 0.058457732 -0.036241256 0.15620844
0.19168083 -0.030251456 -0.09837395 -0.04099724 0.33242548 0.23730648 0.04728375 0.21645233
-0.2664117 -0.10333356 0.26765263 0.17025797 0.05598573 0.20903654 -0.30677363 0.13450103
-0.3041078 0.11144016 -0.14998606 0.23543333 -0.26094252 -0.1246849 0.2518964 -0.2719995
0.2641866 -0.32158643 0.22778657 -0.032715745 0.1620304 0.079874225 -0.21648812 0.24697693
-0.18330705 -0.30529675 0.07357747 -0.26950252 0.25869858 -0.31411827 0.18768623 -0.15941925
-0.01175483 0.2659137 0.25137445 -0.16156255 -0.16641839 0.27750963 -0.32686037 0.30746773

weight_hh_l0 f4 [27, 9]
00000000: a584 48be a595 c43d cf2f f83d d273 193d
00000010: fba0 7d3e ddf3 78bd d7d7 83be 79dc a13e
00000020: 76da 5bbd 97c4 443e 4085 b9bd 3160 9a3e
00000030: dd2e 3fbe 641c febd 159d 963e 33da 293d
00000040: 690e 993e 5f46 953e 064d 97be ead1 9dbe
00000050: 7a3b a6be 2e21 0d3d b75d f93d 13ae 5e3e
00000060: 4ac4 bb39 5cbc 19be d684 adbb 14c0 85be
00000070: 51cd 843e 790e 17bc 4904 99bd b06b 143d
00000080: 6814 fabd 6416 083d 9fad 16be 7650 94bd
00000090: db57 543e 6529 033c 183a 3a3e 72bc 23be
000000a0: 9cb7 6c3e 1ebc 29be 4514 8e3e fe71 ecbb
000000b0: b5fd 22be 467f bebd a4a5 dc3d 65cf a53e
000000c0: 2395 5abe 4aea 91bd e53b 3cbe e390 70be
000000d0: 6a37 243e a163 823e 5183 dc3d 10b2 693a
000000e0: 2f54 a6be 5f98 4e3e e1e8 84be fadf a23e
000000f0: b6d9 6f3e 6b9e 72be bb75 a9be e3c7 373e
00000100: 5eda 093d 2ce3 083e 9ee5 93be 85fb 6bbe
00000110: d28d 8b3e ba51 3dbe cd51 36be edd9 7c3c
00000120: 166d 593e c4c0 30be dccb c53d 4ed0 bd3d
00000130: 5c1d a8be 3443 a7be d03a 59be da02 6e3e
00000140: cc06 413e 0e22 a53c c5cb 27be e049 1a3d
00000150: 800a 02be 8b62 8fbe e1d5 87be b53e 99bd
00000160: 46d6 9abe 88d8 7abe 52e8 5b3a f301 193c
00000170: 0bdf 92be cfa6 9e3e ecbb 04be e085 f83b
00000180: 10f1 e63d 42d7 a6bd 8b40 203e 1732 a53e
00000190: 95ee 183e 9274 5e3e 857f a43e e6c4 2cbd
000001a0: 037a 893e 453e 02be f6ea 513e 4a7e 85be
000001b0: 240b 27be dd38 a8be fc4c 423e 2454 383e
000001c0: dc3f 413e 1423 a2be f8c3 2d3e 6d8b 4cbd
000001d0: dad4 123e 5842 f93d 10ac 21bb 472a 933e
000001e0: 9298 053e fd07 363e d925 783e 6b45 76be
000001f0: fdbc 64bc fe72 95be b1f4 74be d787 2bbe
00000200: 2ede fa3d 42e2 0cbe 7c86 b53d 6269 a73e
00000210: 5c45 a3bc 91b9 a13e ac10 4dbe 5493 3ebd
00000220: ed66 0abd 3065 56bd 38fa 5bbe 925e d03d
00000230: 990d 58be c2ac 01bb f94f 033d 3e06 aabe
00000240: 3458 35bd 7890 703d 82d1 d73d 7054 eb3d
00000250: 5db8 b23d 149f 82bd 6a20 21be d2b6 e5bd
00000260: 0ad2 9abc 02ea ccbc 097a 5f3e 6f14 12be
00000270: b2c0 7a3e 71e1 79be 004e c9bd 145c 093e
00000280: 72d6 5a3e 423b a83d 902f f83d d46e a23e
00000290: 93a8 94be 4802 42be ff4d 8d3e e6bd 76ba
000002a0: 6ee0 313d 5757 a53e 502e 5cbe 5bc7 cbbd
000002b0: 9da1 8f3e cbfa f4bc fe1e e83c 3018 aabe
000002c0: 4a2c 81bd 99ae 7cbd bf8b a9be c634 93bd
000002d0: e18b 5abe 4707 36be 07fb a53e be6b 77be
000002e0: 1561 98be e2c0 1ebd 595d b4bd cd89 8c3e
000002f0: a415 9c3d 913f f8bb 451c 58ba f54c 963d
00000300: 8a09 90be 12c4 2ebe 00d3 4cbe 0319 78be
00000310: 5dd4 28be dd3d febc 5a5d 88be ffca f73c
00000320: 8b8c 55be 38e0 223b ee1f 93bd f92b 88be
00000330: bc03 06be 30e5 6ebe 7afa 3abe 1fd1 cabd
00000340: 7ff5 99be d1c1 e23d 93b1 b43d a615 a83e
00000350: 12f3 91be 2ba6 61bd 7782 c4bd 3357 b1bc
00000360: 113c 8dbe 743f 123c 5276 7b3e cbad 63be
00000370: 5ca7 233c f088 82bc d363 99be 81ca b939
00000380: 8995 a93e e440 453e c792 343e a863 62be
00000390: 24d1 4dbe 5a1c 25be 05a9 20be d0e8 1a3d
000003a0: a0b6 8dbe 3a58 95bd 4ff3 dfbd 2022 2c3e
000003b0: a5f1 a83e cac7 fe3d 0281 3bbd 4385 98be
000003c0: 7dc7 26be d614 70be 5d58 2cbe
-0.1958185 0.09598855 0.12118494 0.03746397 0.2476844 -0.06077944 -0.2575061 0.3161352
-0.053675137 0.19215618 -0.090586185 0.30151513 -0.1867022 -0.12407759 0.2941672 0.041467857
0.29893807 0.2915525 -0.29550952 -0.30824214 -0.32467252 0.03445547 0.12176078 0.21746092
0.00035813666 -0.1501326 -0.0052953763 -0.26123106 0.25937894 -0.009219759 -0.074715205 0.03623551
-0.122109234 0.03322448 -0.14714669 -0.07241909 0.20736639 0.008005475 0.18186224 -0.15989855
0.23116916 -0.16575667 0.2774984 -0.0072157374 -0.15917094 -0.09301619 0.10773781 0.32384792
-0.21345954 -0.07124765 -0.18382223 -0.2349277 0.16036764 0.25466636 0.10767234 0.0008914778
-0.32486102 0.20175312 -0.25958923 0.31811506 0.23422894 -0.23693244 -0.33097634 0.17947344
0.033655517 0.13367909 -0.28886122 -0.23045166 0.27256638 -0.18488207 -0.17804642 0.015432817
0.21233019 -0.17261034 0.09658024 0.092682466 -0.328349 -0.3266846 -0.21213841 0.23243275
0.18850249 0.02015784 -0.16386326 0.03766811 -0.12699318 -0.2800487 -0.26530364 -0.074826635
-0.30241603 -0.24496663 0.00083888054 0.009338844 -0.28685793 0.3098664 -0.12962312 0.0075843185
0.11276448 -0.08146526 0.15649621 0.32264778 0.14934762 0.21724156 0.3212854 -0.042179964
0.268509 -0.12719066 0.20499787 -0.26072913 -0.16312844 -0.32855883 0.1897468 0.18000847
0.18872017 -0.31667387 0.16969287 -0.049937654 0.14339009 0.12170857 -0.0024669208 0.28743193
0.13046482 0.17776485 0.24233188 -0.24049918 -0.013961074 -0.29189295 -0.23921467 -0.16751038
0.12249409 -0.13758186 0.088635415 0.32697588 -0.019930534 0.31586888 -0.20025891 -0.04652722
-0.033789564 -0.052342594 -0.2148217 0.10174288 -0.21098937 -0.001978681 0.03205869 -0.33207887
-0.04427357 0.058731526 0.10538007 0.114907146 0.08726571 -0.06377998 -0.15735021 -0.11216511
-0.018898983 -0.025013927 0.21823896 -0.14265607 0.2448757 -0.24402405 -0.098293304 0.13414031
0.21370867 0.082144275 0.12118447 0.3172518 -0.29034862 -0.18946183 0.2759857 -0.00094124523
0.043426923 0.32293198 -0.21502042 -0.099501334 0.2805299 -0.029904744 0.02833509 -0.3322158
-0.063072756 -0.061689947 -0.3311443 -0.071878 -0.21342422 -0.17776214 0.3241808 -0.24162194
-0.29761568 -0.038758166 -0.08806867 0.27448884 0.07621315 -0.007575937 -0.00082439586 0.07338897
-0.28132278 -0.17066982 -0.20002365 -0.24228291 -0.1648726 -0.031035358 -0.26633722 0.030248163
-0.20854394 0.0024852883 -0.071838245 -0.26596048 -0.13087362 -0.23329616 -0.18259612 -0.09903168
-0.3007011 0.11072124 0.08822932 0.32829016 -0.2850576 -0.05509011 -0.09595197 -0.021648025
-0.2758489 0.008926261 0.24556854 -0.22234266 0.009988632 -0.015934438 -0.29958972 0.00035436827
0.331219 0.19263035 0.17634116 -0.22108328 -0.20099312 -0.16124097 -0.15689476 0.037819684
-0.27678394 -0.072922185 -0.10935079 0.16809893 0.3299686 0.124404505 -0.04577733 -0.2978917
-0.16287036 -0.23445448 -0.16830583

bias_ih_l0 f4 [27]
00000000: ad6a 20be 628b 5bbe 5ee8 e03d 1662 35be
00000010: 9429 f83c a7fd 5bbe b8da 3dbd 1264 833e
00000020: 9511 f13d 2251 793e 20bf 963e e8d7 a33e
00000030: c9c0 213e eafb 39be c37b 433d fd3c 88be
00000040: 388d aabd 2abf 81be 433e 9d3e 57ba a83e
00000050: 0347 5d3c 13e5 febb 01e3 aebd da56 743d
00000060: 5c84 5e3e b2f9 ad3d 0757 47be
-0.15665694 -0.21439889 0.109818205 -0.17713198 0.030293263 -0.2148348 -0.046351165 0.25662285
0.11770932 0.24347356 0.29442692 0.3200066 0.15796198 -0.18162504 0.04772545 -0.2660903
-0.083277166 -0.2534116 0.30711564 0.32954666 0.0135057 -0.0077787726 -0.08539391 0.05965314
0.21730179 0.08494891 -0.19466792

bias_hh_l0 f4 [27]
00000000: 3936 f13d 43e3 863e 6529 a63e b160 53be
00000010: 15da 9cbe 9ce8 0f3e a515 09bd 758f 6d3c
00000020: a5fd 373e cc95 92be 88af 3e3e 70da 4bbe
00000030: ffa5 a6be 882d 373e e597 153e 7da7 873e
00000040: 0965 1dbe 1e96 c03d 818f 83be 3874 44bc
00000050: 9d00 9a3e a05e ee3c 875c 6d3e 790c 4bbe
00000060: 9c7a 6f3d d460 963e ba38 c83d
0.1177792 0.26345262 0.32453457 -0.20642354 -0.30635133 0.14053577 -0.033467907 0.014499535
0.17967851 -0.2862991 0.18621647 -0.19907546 -0.3254852 0.17888463 0.14608724 0.2649497
-0.15370573 0.094036326 -0.25695422 -0.011990599 0.30078593 0.029097855 0.23179828 -0.19828977
0.05846654 0.2937075 0.09776445

weight_ih_l0 f4 [27, 39]
00000000: 9eb0 603e c8bc 0f3e b539 293e 4648 843e
00000010: 9871 243e 5216 273e cb97 6f3e b669 543d
00000020: 8a2a 9dbe 4e14 943e c8a9 8b3d 61af 0dbe
00000030: b773 8e3d 7179 4e3e 5e41 3ebe 5de0 9e3e
00000040: 09c0 a4be e635 97be 5f4b 9d3e d934 30be
00000050: 7bed 473e e592 83be 5321 a43e 49fc 7ebd
00000060: c317 75be a1b5 973e 0660 333d d99f 6cbe
00000070: ecde 61be f7a5 94be ddd2 94be bced 8ebc
00000080: 425f 9cbd 62e5 a7be f2fa d53d 48bd 94be
00000090: 04cf a53e cf85 b13d 5180 59be 2a82 a4be
000000a0: fc96 c5bd 1efb 4a3e c377 e9bd e55a 23be
000000b0: 8776 2abc 3443 5b3c 4de5 1b3e 2900 61be
000000c0: 2da4 623d 798a 5dbe 7301 5d3e 3509 8cbe
000000d0: 086e 8c3e ec59 f4bd d472 55be 2b1a 1e3c
000000e0: 337c 3dbe fb8d da3c d445 a8be 437e 313e
000000f0: 51a8 903d e083 9d3e ddb2 223e 51ee 82be
00000100: 9672 07bd f802 c63c 440c 3a3e 60c1 893e
00000110: 9671 973e 29c0 9abe 8bad 993e 3d90 a7be
00000120: dffa 133e 29a4 4b3e e8b7 1c3e 6238 233e
00000130: 3ada b13d 29c9 523e 3c10 2d3e 1008 013e
00000140: ac4a 0b3d 7ac9 8a3e f3dd 7cbe ef0b 893e
00000150: 3a17 75b9 1b04 8ebe ea9e 913e f109 afbd
00000160: 6b47 bd3c fb37 47bd 2466 09be 7293 fe3d
00000170: 19b5 f3bd 638b a8be 036b ca3d 00e0 38be
00000180: 6f46 03bd 3e20 0c3e 8c66 2ebc bad7 62be
00000190: ba51 98be 9467 713c 780a 9abd 69eb 4abd
000001a0: aec6 85be 570d 873e 61f3 9d3e 6002 90be
000001b0: 62c9 5b3e e94b 233e 871f f23d 061e 4dbe
000001c0: 76dd 39bd 59a8 aabe cc33 d83d 2c18 5ebd
000001d0: 23a8 0cbc 8517 943e 17da debc 95f3 88be
000001e0: 8d29 63be aa7a 653e 28cc 8c3e 1e21 6f3e
000001f0: fe74 a4be 81a1 903e 1816 1bbe f668 d4bd
00000200: f6f8 6c3e 566e 4e3e 6805 47be f1bf 28bd
00000210: ace1 96be b327 8e3e 3479 c73d 369f 6f3e
00000220: 6aae a83d f052 04bd 6de8 48bc 3adb 29be
00000230: 5d5b 47be 36fa 863e 05e5 3c3e 47f1 a0be
00000240: 1408 fbbc 0578 3e3e 71dc d1bb d7be 63be
00000250: bc8d d5bd ceda a53e 8d01 f73d ef4a 683e
00000260: d807 173e 9629 fabd e4d4 46be 13b0 803e
00000270: 3cc5 303e cd2d 003e 6478 99be 017d 87be
00000280: 6e39 673e 1aed cfbd 41e3 623e 03e9 1cbe
00000290: 3a74 abbc 4d7a 273e bee8 53be e4fa 99be
000002a0: eea4 82be a543 6a3e 7a65 943e a5e5 edbd
000002b0: d8e6 8e3e 0761 46be 0007 213c 0b28 ee3d
000002c0: f89a a53e 2f14 613e 8d4b 9c3b 8430 343d
000002d0: 90e9 17be e686 913e 96b2 a7be 82a0 60be
000002e0: 7a0d 123e cf59 0d3e 834b 6b3e b474 2ebe
000002f0: a9b7 8bbe a1d4 47bd 6a9e 8a3e 89dc 5a3e
00000300: 83fc bb3d fcf7 89be 7297 7d3e 9104 8a3d
00000310: 3a41 9cbc 1a92 fe3d 09b9 08bc 03eb 96be
00000320: 5760 c1bd 1b17 933d 606b 6fbe 02c3 8c3d
00000330: 9910 9b3d d039 533e be3c 213e 4624 3dbe
00000340: 57bc 2c3e 26e2 f9bd 687c 103e 42cb f83d
00000350: 5d11 09be b1c7 bb3d d9c3 a3be bb8c 8abb
00000360: 511f 923c dd65 69be 3077 6e3e 2f38 e9bd
00000370: 1bda e73d 9495 80be cfe3 683e 6c96 14bd
00000380: 0754 8cbe 695d 43be eb96 563e 13c1 b1bd
00000390: cdd4 d73d 7bd0 a1be 2943 953e d373 3fbe
000003a0: 4e16 953c 1a4b 663e 3858 9dbe bcc7 783d
000003b0: 2a5b a3be 8bb5 223e fb27 203e 8448 c7bb
000003c0: e602 d9bd bc4d 123e 7af8 48be 57c0 13be
000003d0: fc17 12bc adc3 273d f667 4c3e 24cc 693d
000003e0: 37fd 863e 7be5 6abc 548e a63e b7c3 58be
000003f0: e96b 263d 0a2d 1ebe f474 a9be 802c 98be
0.21942374 0.14036858 0.1652592 0.2583639 0.16058958 0.16317108 0.23397748 0.051858626
-0.30696517 0.2892174 0.068194926 -0.13836433 0.069556646 0.20163514 -0.18579623 0.3103055
-0.3217776 -0.2953331 0.30721566 -0.1720766 0.19524185 -0.2569801 0.32056674 -0.062252317
-0.23934846 0.2963076 0.043792747 -0.23107852 -0.22057694 -0.2903287 -0.29067126 -0.017447345
-0.076353565 -0.32792193 0.10448255 -0.2905066 0.32384503 0.086681 -0.21240355 -0.32130557
-0.096479386 0.19822356 -0.11399796 -0.15952642 -0.010404236 0.013382722 0.1522419 -0.21972717
0.05533235 -0.21634854 0.21582584 -0.27350774 0.27427697 -0.11931214 -0.20844585 0.009649794
-0.1850441 0.02667903 -0.32865775 0.17333321 0.07063354 0.30764675 0.15888543 -0.25572446
-0.033068262 0.024171337 0.18168741 0.26905346 0.29578847 -0.30224732 0.30015215 -0.32727233
0.14451168 0.19886841 0.1530453 0.15939477 0.086842015 0.20584549 0.16900724 0.12600732
0.03400676 0.2710684 -0.24694042 0.26766917 -0.00023373673 -0.27737507 0.28441554 -0.08546818
0.023105344 -0.04863737 -0.1341787 0.12430467 -0.11899776 -0.32918844 0.09883692 -0.18054199
-0.032049593 0.13684174 -0.010644566 -0.22152606 -0.29749852 0.014734168 -0.07521528 -0.04954091
-0.26128143 0.26377365 0.30849746 -0.28126812 0.2146354 0.15946926 0.118224196 -0.20030984
-0.045377217 -0.33331564 0.105567545 -0.05422227 -0.008585009 0.28924194 -0.027203603 -0.26748338
-0.22183819 0.22410074 0.2749951 0.23352477 -0.32120508 0.28248218 -0.15145147 -0.10371582
0.23141846 0.20159277 -0.19435656 -0.041198675 -0.2946905 0.27764663 0.097399145 0.23400578
0.08236392 -0.032305658 -0.012262446 -0.16587535 -0.19468446 0.2636277 0.18446739 -0.3143408
-0.0306435 0.18600471 -0.0064044525 -0.22240768 -0.10427424 0.32393497 0.12060843 0.22684835
0.14749086 -0.12214963 -0.19417149 0.25134334 0.17262739 0.12517472 -0.29974663 -0.26462558
0.22580501 -0.101526454 0.22157003 -0.15323262 -0.020929445 0.16355248 -0.20694253 -0.30074227
-0.25516456 0.22877367 0.2898367 -0.11616067 0.27910495 -0.1937295 0.009828329 0.11628731
0.32344794 0.21980356 0.0047697485 0.04399158 -0.14835191 0.28423232 -0.32753438 -0.21936229
0.14262953 0.1380379 0.22978024 -0.17036706 -0.2728856 -0.048786763 0.27073985 0.2137319
0.09179022 -0.2694701 0.24764803 0.06739152 -0.019074071 0.124302104 -0.008344897 -0.29476175
-0.094422035 0.071821414 -0.23380804 0.06873132 0.07571525 0.20627522 0.15745828 -0.18470868
0.16868721 -0.122013375 0.14109957 0.12148143 -0.1338553 0.091689475 -0.31985357 -0.004228202
0.017837198 -0.22792764 0.23287654 -0.11387669 0.11320897 -0.2511412 0.22743152 -0.036276266
-0.27407858 -0.19078602 0.20956008 -0.08679404 0.105386354 -0.3160437 0.29152802 -0.18696527
0.018199112 0.22489586 -0.30731368 0.060737357 -0.3190549 0.15889566 0.15640251 -0.0060816426
-0.10596256 0.14287466 -0.19626036 -0.1442884 -0.008916851 0.040958095 0.19961533 0.05707945
0.26365063 -0.014336939 0.32530463 -0.2116841 0.040630255 -0.15446869 -0.3309704 -0.2972145

weight_hh_l0 f4 [27, 9]
00000000: 0876 5fbe fa50 4dbe 4e3b 8d3e ac97 52be
00000010: b35f 89bd a797 0b3e 3c51 61be 31f7 00be
00000020: 3ae0 04be f2bc 9f3e d381 2cbe a72d 693e
00000030: b33a fbbd 6ed0 533e 4259 64bc 84bc 94be
00000040: 32e6 a83e 4e5d c03d c0c5 3ebd cf38 723e
00000050: e407 2ebe 3d83 aabe eaf7 2dbe 7c05 1abe
00000060: b260 1bbe eb04 363e d55f 233e 7188 b73d
00000070: 2a80 9c3e cf5b 143e 8a27 02be 3ea9 f73d
00000080: 66c5 0abe db86 673d 1983 7cbe 18af 923e
00000090: c93f 81be 9288 9b3d c3ad 8cbe d5aa 8e3e
000000a0: ede2 b3bd ca91 6d3e 0564 ac3d c75c 373e
000000b0: 884c ddbc 49e6 b63d db93 21be 114f 47bd
000000c0: 0570 19bd 245f 4c3e 2bc3 483e b3ca 993e
000000d0: 3461 8c3d 8027 44bd df7d 87bd 59ec a4be
000000e0: cda3 c0bb 5bf4 a53e d312 1dbe 85b9 5bbe
000000f0: 09f6 943d b559 193e 1ab1 6e3e d184 933e
00000100: 2876 a53e e8c2 2ebd aa13 663e c9c5 6f3e
00000110: 6c64 2e3e f7de 363e a49b 3e3e 02df 433e
00000120: 79c8 adbd f8d4 60be f3ec 8dbe 6842 f6bb
00000130: d9b4 82be 4871 2e3e 9030 66be c8e6 f3bd
00000140: 0e1d 8b3e 6d7d 813d a469 873e 98fc f33d
00000150: 1399 a23e 8584 8bbc f7d9 d7bd 98f4 91be
00000160: 8b12 35be 28c4 53be e490 2ebe 0227 a7be
00000170: 5950 93be bd62 093d f4a1 26bd 9028 873e
00000180: 0ab1 853e a678 5e3e ff27 663e 63a3 4b3c
00000190: 070a 6a3e e9dd 5bbe 230f cd3c 9dc1 98bc
000001a0: ac03 9ebe 5f2e 2cbe 5d8d e63c f53d 40bd
000001b0: 3d44 293e d13e 593c fc34 82be 845f 883e
000001c0: 78ed 133e 1ce2 de3d 9ddc 883e 6282 013d
000001d0: ae69 3abd baf6 8d3e 1dff a83e 9d15 9ebe
000001e0: 011e 5dbe 7302 0fbc cb84 7e3d 6182 ea3c
000001f0: b2bd 61be 9179 1a3e c178 03be 90cd 8cbe
00000200: adee 753d 9c8f 47bd 103c 7d3b 3f74 34bd
00000210: 401a f5bd d5bc 323e 911f 693e a2b8 aebd
00000220: b962 65be 306a 403e b199 3d3d fae2 67be
00000230: 54aa 203e f335 a1bd becb 563d 74a6 0fbc
00000240: 5519 4cbe 1701 aabe a734 99be 4c2c 013c
00000250: 938c e2bd 5f4d 173e 09ec 813e 3264 6a3e
00000260: ac71 693e 0b83 0a3e dc4d 85bb bce7 963e
00000270: e220 9d3d b0fe a83e 5f0d c1bc 9dd3 4e3e
00000280: ef74 733e 85ac 9b3e fdca 943e cac4 64be
00000290: e4fd 0bbe 0594 9a3e faa1 b83d ff73 d13d
000002a0: 71a1 9cbe 1b8a 893e 2d56 543e 399e 5e3d
000002b0: 3dfd 333d 1c9c 203e bf08 5f3e 6b2b 9dbd
000002c0: eae0 a5be 9e05 52be cea9 46be f856 33be
000002d0: 18c1 e6bd ed63 003e cc35 973d 78fc 11bd
000002e0: b0ac 95be 3262 a4be d693 e73d 5142 6fbc
000002f0: c7d1 bc3c 2771 e13c 583e a23e 6dc0 a63e
00000300: 4a6c 01be c755 2dbe 0464 6a3e c6db 7f3c
00000310: dde7 24be c73e 8b3e d088 1d3e 0657 2dbc
00000320: 6ccf 8cbe 703d b0bc 6604 923c e856 973d
00000330: 5c4e 0c3e a463 f83d 93e2 1fbe 79b3 2dbe
00000340: 90d2 683d 21fd 553e 7166 813e e44f a7bd
00000350: d013 953e 0c7d 97bd f931 a7be 1228 a2be
00000360: c32b 90be c09d 713e c586 1d3e ebae 14be
00000370: ff5e 893e 9afe 9bbc 0b07 f83d 920f 1d3e
00000380: 0cf3 853e be65 93be 346f a9be 5a59 0f3e
00000390: 49f2 873c 9f3e 98be d101 2a3e f439 223e
000003a0: 35b8 233e 0768 193d 5d2b f1bd f321 4dbb
000003b0: 3bd9 9dbe 0bd0 9abe 4d36 a5be 35f5 503d
000003c0: ca55 8ebe ac53 d63d 3720 d1bd
-0.21822369 -0.20050421 0.27584308 -0.2056567 -0.06707706 0.1363207 -0.22003645 -0.12594296
-0.1297616 0.3119884 -0.16846399 0.22771321 -0.12267055 0.20684978 -0.013937296 -0.29050076
0.32988125 0.093927965 -0.046575308 0.23654483 -0.16995198 -0.33303252 -0.16989103 -0.15041155
-0.15173605 0.17775314 0.15954526 0.08961571 0.3056653 0.14488147 -0.12710395 0.12092827
-0.13551864 0.056525093 -0.24659385 0.2864921 -0.25243977 0.07594408 -0.2747632 0.2786471
-0.08783517 0.23200145 0.08417515 0.17906485 -0.027014032 0.08930642 -0.15779059 -0.048659388
-0.037460346 0.19958168 0.196057 0.3003746 0.068544775 -0.047889233 -0.06615805 -0.3221157
-0.0058789016 0.3241299 -0.15339212 -0.21457489 0.0727349 0.14975627 0.23309746 0.28812268
0.3231671 -0.042666346 0.22468439 0.23415293 0.17030495 0.17858492 0.1861406 0.1912804
-0.08485503 -0.21956241 -0.2771984 -0.0075152405 -0.255286 0.17035401 -0.22479463 -0.119092524
0.27170604 0.06322751 0.26447785 0.11913413 0.3175741 -0.017030964 -0.1053962 -0.28506923
-0.17682855 -0.20680296 -0.17047459 -0.32646948 -0.28772238 0.03354143 -0.040681794 0.26398134
0.26111633 0.21725711 0.22476195 0.012429091 0.22855388 -0.21471371 0.025031632 -0.01864701
-0.30862176 -0.16814564 0.02814358 -0.046934087 0.16529937 0.0132596055 -0.2543105 0.26635373
0.14446056 0.10882971 0.26730815 0.031618483 -0.04551094 0.277273 0.33007136 -0.30875865
-0.21593477 -0.008728611 0.06213836 0.028626623 -0.2204502 0.15085436 -0.12839033 -0.27500582
0.060042072 -0.04872094 0.0038640536 -0.044056173 -0.119678974 0.17454846 0.22765948 -0.0853131
-0.22400941 0.18790507 0.04628915 -0.22645178 0.15689975 -0.07871618 0.052440397 -0.008767713
-0.19931538 -0.33203956 -0.29922983 0.007884096 -0.11061969 0.14775608 0.25375393 0.22889784
0.22797269 0.13526551 -0.0040681195 0.29473674 0.076722875 0.3300681 -0.023565946 0.20197912
0.23775075 0.3040506 0.29061118 -0.22340694 -0.1367107 0.30191055 0.090152696 0.102272026
-0.3059192 0.2686318 0.20735998 0.05435011 0.04394268 0.15684551 0.2178068 -0.07674297
-0.32398158 -0.20509955 -0.19400713 -0.17513645 -0.112672985 0.12538119 0.07383308 -0.035641164
-0.29233313 -0.32106167 0.11307494 -0.014603213 0.023049248 0.027519776 0.3168819 0.32568684
-0.12638965 -0.16927253 0.22889715 0.015616363 -0.16104074 0.27196333 0.15384221 -0.01057983
-0.27502 -0.02151367 0.017824363 0.07389623 0.13701767 0.1212838 -0.15613775 -0.16962995
0.056841433 0.20897342 0.2527347 -0.08169535 0.29116678 -0.07396898 -0.32655314 -0.31671196
-0.28158388 0.23595333 0.15383442 -0.14519851 0.2683029 -0.019042302 0.12110718 0.15337971
0.26161993 -0.2878856 -0.33092654 0.13998929 0.016595023 -0.29735276 0.16602255 0.1584242
0.15988238 0.037452724 -0.11775849 -0.0031300753 -0.30829796 -0.3023685 -0.3226799 0.051015098
-0.27799827 0.10465178 -0.102112226

bias_ih_l0 f4 [27]
00000000: e95f 97bd ae56 8bbe f5b3 88be bcc1 5dbd
00000010: 9c4e 84bd 9010 91be 10c8 00be 5465 0fbe
00000020: 867c 8a3e 3bce 9e3d 9bb2 583e 5ff9 073e
00000030: 3df7 3fbe f1b8 a3be 3940 04be 5e3f cc3d
00000040: 4b47 25be 2e59 043d 4f14 cc3b 5514 54be
00000050: f8c4 84be 892b f9bd 45b1 6a3e 0a6d 703e
00000060: 20e8 923d 6431 10be 16ee 613d
-0.0739134 -0.2721457 -0.26699796 -0.054139838 -0.06460306 -0.2833295 -0.12576318 -0.14003497
0.2704813 0.07754179 0.21161883 0.13278721 -0.18746658 -0.31977037 -0.12915124 0.09973024
-0.16140477 0.03231161 0.006228007 -0.20710881 -0.25931525 -0.12166507 0.22919185 0.23479095
0.071731806 -0.14081341 0.055158697

bias_hh_l0 f4 [27]
00000000: bc65 e03d 82f9 a33e d9ad 9fbe f150 a2be
00000010: 8fbc 94be 482c 68be a4dd 583e d064 513e
00000020: 3e9e 923e 31c2 393d ec98 9abe f946 a4bd
00000030: b364 9abe 6cc7 443e 6da9 153e 34c0 e53d
00000040: ad07 cdbd 56e9 a83e 8e00 a1be 6cda 65be
00000050: 90e9 5bbe 627e 86be 9714 bdbc f809 5ebd
00000060: 39c9 943e 3a3a 28bc 96a4 7d3e
0.10956904 0.32026297 -0.31187323 -0.31702378 -0.2905011 -0.22673142 0.21178299 0.20448613
0.28636354 0.04535121 -0.30194795 -0.080213495 -0.30154952 0.19216698 0.14615412 0.112183005
-0.1001123 0.3299052 -0.31445736 -0.22446603 -0.21475816 -0.26268297 -0.023081107 -0.054208726
0.2905977 -0.010267789 0.24769816

weight f4 [9, 9]
00000000: f090 66be 1788 a2be 15ba 27be 5abd 20be
00000010: 9c86 0e3e 624a 293e 1616 263d 5603 c73b
00000020: f691 133d f7bf 59be 641b 973d b0b3 cebc
00000030: 38b9 f53d 84a1 823e c142 04be 726b 00be
00000040: bf0a 343e ca8c e53c 5126 a23e ab73 6b3e
00000050: 93e6 04be 855c 823e 2e59 493e 94dd 89be
00000060: 1319 a63e c813 3cbe e2e3 8f3e cb77 9f3c
00000070: 6e10 6bbe 9646 37be b62a 19bc 6ac9 883e
00000080: 846f 803e 6453 a33e 2c28 a13e ad4e 6dbe
00000090: 49dd 963d 9a52 36bd 20ed 00be e1eb 923e
000000a0: c221 d83d e211 a6be 1510 40be 904e 223e
000000b0: 037d 84be b89a 903d e648 7dbe a171 d43c
000000c0: ec8c 31be ec99 08be ab6c 79be 8f46 4f3e
000000d0: 1208 88bd 304d 4e3e 0ac5 6f3c 0a8d 8fbe
000000e0: 6c80 89be 9ca9 a8be 5962 063e 4a38 513d
000000f0: 6309 393d 940d 8abe 1e12 5cbe 54dc 073d
00000100: 4acc a43e 0fcd 51bd d010 9fbc c745 d83d
00000110: d6ef 28be 9a3d 85bd 2a2d fbbd a4b7 90bd
00000120: fcea 30bc 6f2e 02be 1ce7 06be 86c0 a5be
00000130: 81ea 893e 3982 97be dde3 90be 5739 59be
00000140: f438 a1be
-0.22516227 -0.31744453 -0.16379578 -0.15697232 0.13918537 0.16532281 0.040548407 0.0060733957
0.03602787 -0.21264635 0.07378271 -0.025232166 0.11998218 0.25513852 -0.1291609 -0.12540987
0.17582224 0.028021235 0.31669858 0.22993343 -0.12978582 0.25461212 0.19662926 -0.26926863
0.32441005 -0.18366921 0.28103548 0.019466301 -0.22955486 -0.1789802 -0.009348562 0.26716167
0.2508508 0.3189956 0.3147596 -0.23174544 0.073664255 -0.04451237 -0.12590456 0.28695586
0.10553314 -0.32435519 -0.18756135 0.15850282 -0.25876626 0.0706076 -0.2473484 0.025933089
-0.17338914 -0.13339967 -0.2435786 0.2024176 -0.06642164 0.20146632 0.01463438 -0.28037292
-0.2685579 -0.32941902 0.13123454 0.051079072 0.045174967 -0.26963484 -0.21491286 0.033169106
0.3218711 -0.05122095 -0.019417197 0.10560184 -0.1649774 -0.0650589 -0.12264474 -0.07066277
-0.010798212 -0.12713026 -0.13174099 -0.32373446 0.26936725 -0.2959154 -0.28298846 -0.2121328
-0.31488764

bias f4 [9]
00000000: ccc1 4fbd ed8a 883e bcba aa3d 3245 62be
00000010: d25d 97be cafd 083e 682b 183d 3951 873e
00000020: 7921 cc3d
-0.05072193 0.26668492 0.08336398 -0.22096708 -0.29563767 0.13378063 0.03715077 0.26429155
0.09967322

weight f4 [720, 18]
00000000: 2b95 223e e895 5ebe d285 c6bd e956 32be
00000010: 4578 3dbe 963e 7bbc 5597 553d 6206 11bd
00000020: efd9 5c3e 301a dcbd 925b af3d f5e6 823d
00000030: 2f64 1a3e e754 96bd 7353 043c e7b9 d2bd
00000040: ed86 623e 0e62 4abe 6a3b 033d 1ea2 d33d
00000050: 2ade 493e 179e c33d 7c5e 8f3d c774 2abc
00000060: fa1f 7f3d 914a 4c3e 8faf 473d 8dd5 c43b
00000070: 8fe6 4a3e 67c0 6b3e f547 923c 0b9d 213e
00000080: e3df 75bd 9717 bc3d 28a4 58bd f948 0fbe
00000090: 90f1 fb3b 0156 5fbe e366 d23d 7160 0a3e
000000a0: d37e 15be 1e67 2d3e cf0c 8a3d f2e8 243e
000000b0: b5f1 6fbe 45da 55be 757a ff3d c645 fdbd
000000c0: 6fd4 273d ce38 40be 958d 18be 2b74 693e
000000d0: 7690 95bd 3071 59be f475 e43c 703a fbbd
000000e0: 95c8 523e e7b0 56be c344 8a3c a3b1 88bd
000000f0: 790b 923d 0b31 1ebc fa9c 9ebd 6db9 4f3e
00000100: 5ed9 b2bd 61a8 0bbe 873a 4e3e c97d f43d
00000110: 4a36 e43d 4092 2fbe 72f1 60be 5469 103d
00000120: b887 4fbe 4f77 5f3e 3c44 d8bd 15f6 09be
00000130: 936e 033e 6473 aa3d 0eed b03d 9ac0 863d
00000140: 54b8 abbd 0091 04be 6dc6 52be a8a7 253e
00000150: ccf9 58be a167 53be 1ed2 303e 65ea 153e
00000160: f5f0 d53d 48bd 113e 0a7f 693e a683 0a3e
00000170: 47be 42be 5807 f43c e204 47be 087f c4bd
00000180: f726 413e 365b 09bd 6d88 683e f7cf 8fbd
00000190: b4db 353e 64d3 51bd f1a4 ff3d bcc3 213e
000001a0: c65b 313d ce5c 2b3e 3228 a0bd 1a9d 0ebe
000001b0: 72fd dcbd 7109 90bd 52b1 29be 1911 5e3e
000001c0: 3156 233e 2b97 dbbb 5884 fabd f798 01be
000001d0: 888a dc3d df6f 15be 0dec 383e 5fd4 58bd
000001e0: 0660 b13d d540 70be 792b 5d3d 082d 1bbd
000001f0: 55c0 7bbd 24a2 09be e39d 2bbe 0e34 4e3e
00000200: becb a3bd bf44 373e 9380 41be 3313 2d3e
00000210: 211b f7bd e4b4 b9bc 2262 35bc 1716 b7bd
00000220: 7071 6e3c d264 ba3b 2ed7 09bd 5e84 1cbd
00000230: 475b d2bd 7b18 6d3e 6f55 aa3d b03d 2cbe
00000240: 6ebb 683e edef 70be 3143 853d a897 e5bd
00000250: 96b6 bdbd b18a 093e b796 5bbe f286 133d
00000260: 92ec 803d 0796 72bd 1be1 11be 0c80 4c3e
00000270: 89f5 32bd 729a 19bd 7e5a 933c fb26 203e
00000280: 1e2f e53c 967b 243e 587b 3abe 2d23 e4bc
00000290: b3c3 0c3d ff1b dfbd 9909 f9bc df8b 10be
000002a0: 5c57 50be 0c6e 6dbe f1c8 e0bd 90d9 41be
000002b0: 8a4c 593c 2a40 3c3e 063c 073e 9341 6d3e
000002c0: ed97 68bd d988 d23c 4577 933d b6f2 513e
000002d0: 46e4 7c3d 340e 64be ca3b 5b3e 9860 4d3c
000002e0: 1d00 3fbe 726e a8bd 3d0e f53c 8b0e 5ebd
000002f0: 6a75 5b3e 1050 363e 7587 bcbd 6a4e 913d
00000300: 18f1 33be 5311 5ebe 751b 1ebe 6f2a 38bd
00000310: 6f4a 30bd 40ef 603e 48dc e03d c896 383e
00000320: f2bd 19be 9c85 1cbe bbf1 313e 895f 5dbe
00000330: 4cbb 073c 4049 18be 499e d2bd 2718 3e3e
00000340: 8319 efbd 9719 ef3d 7a95 98bd 16da 4c3e
00000350: 7450 663e ace4 83bd 1fdd 8b3d df45 ab3d
00000360: 0c2a e4bd d8d2 28be 3ec9 1f3e a399 63bd
00000370: c2ed 0bbe e706 bfbc 4a29 ea3d 0efe 1d3e
00000380: 6eee cd3d 6642 c83d 4005 3bbe 510d 3d3e
00000390: 5240 92bd dfa3 6e3e 9634 e83d 6a18 38bb
000003a0: 26b4 ed3d d663 a0bc 5b8d 15be 4289 17bc
000003b0: beb0 cb3b d5af a13d 0725 0c3e f57b 513e
000003c0: 285b 5ebe 28bf fdbd 67c5 9fbd 2f87 46be
000003d0: 19b8 11be f95a 87bd d410 1bbe 1248 28be
000003e0: 1677 cebd c826 2fbe 7915 6a3e f2fa c7bd
000003f0: 8acc 4b3e 42d3 253d 44ff 51b9 0b9d 553e
0.15877216 -0.21736872 -0.09693493 -0.17415966 -0.1850291 -0.015334746 0.052146275 -0.035406478
0.2156751 -0.10747182 0.085623875 0.06391708 0.1507728 -0.073404126 0.0080765365 -0.10289364
0.22121783 -0.19763967 0.032039084 0.10333656 0.19713655 0.095516376 0.07000443 -0.010403818
0.062286355 0.1995032 0.04875141 0.0060069025 0.19814514 0.23022614 0.017856577 0.15782563
-0.06002797 0.09184187 -0.052890927 -0.1399268 0.0076887086 -0.21810152 0.1027353 0.13513352
-0.14599161 0.16933867 0.06740724 0.16104487 -0.23432048 -0.20884044 0.12474529 -0.12366824
0.040974077 -0.1877167 -0.1489776 0.22798221 -0.07302944 -0.21234584 0.027888276 -0.122670054
0.20584328 -0.2096592 0.016878491 -0.066745065 0.071310945 -0.009655247 -0.07744785 0.20285578
-0.08732866 -0.1363845 0.20139514 0.11938054 0.11143167 -0.17145634 -0.21967104 0.0352567
-0.20266616 0.21822856 -0.1055989 -0.13472779 0.1283515 0.0832279 0.086389646 0.065797046
-0.08384767 -0.12945938 -0.20583506 0.16177237 -0.2118904 -0.20645 0.17267653 0.14640196
0.104463495 0.14232361 0.22802368 0.13526782 -0.19017898 0.029788658 -0.19435456 -0.09594542
0.1886252 -0.03353425 0.22708292 -0.07022088 0.17759591 -0.05122699 0.12482632 0.15797323
0.043300413 0.16734621 -0.07820167 -0.13927117 -0.10790528 -0.07033051 -0.16571549 0.2168621
0.15950848 -0.0067013702 -0.12232274 -0.12656008 0.1076861 -0.14593457 0.18058796 -0.052936908
0.08660893 -0.23462231 0.053996537 -0.037884742 -0.06146272 -0.13440758 -0.16759448 0.20137045
-0.07997845 0.17897318 -0.18896703 0.16901855 -0.12065721 -0.022669263 -0.01107076 -0.0893976
0.014553413 0.0056882882 -0.033652477 -0.038212173 -0.10271316 0.2315387 0.083170764 -0.16820407
0.22727749 -0.23529024 0.06506956 -0.11210567 -0.09263341 0.13431813 -0.21444212 0.036017366
0.06295122 -0.05922511 -0.14246027 0.19970721 -0.04369119 -0.037500806 0.017987486 0.1563987
0.027976569 0.1606277 -0.18211114 -0.027848804 0.03436632 -0.10894012 -0.030400084 -0.14115857
-0.20345825 -0.23186511 -0.109758265 -0.1893065 0.013262877 0.18383852 0.13206491 0.23169546
-0.056785513 0.02570002 0.07200483 0.20502743 0.061741136 -0.22271043 0.21409526 0.012535237
-0.18652387 -0.08224191 0.029914016 -0.054213088 0.21431509 0.17803979 -0.09205524 0.070950344
-0.17572439 -0.21686296 -0.15440162 -0.044962343 -0.043039735 0.21966267 0.10979515 0.18026268
-0.15013865 -0.15285343 0.17377369 -0.21618475 0.008284401 -0.14871693 -0.10284097 0.18563901
-0.11674788 0.11674803 -0.074503854 0.20005068 0.22491628 -0.064401 0.06829285 0.08362936
-0.11140832 -0.1648668 0.15604112 -0.05556644 -0.13664916 -0.023318721 0.114336565 0.15428945
0.100552425 0.097782895 -0.18263721 0.18462111 -0.071411744 0.233047 0.11338155 -0.0028090724
0.11606626 -0.019578855 -0.14604704 -0.009249033 0.0062161377 0.078948654 0.13686 0.20457442
-0.21714461 -0.12389976 -0.078013234 -0.19387506 -0.14230384 -0.066091485 -0.15143138 -0.16433743
-0.100813076 -0.17104638 0.22859754 -0.09764661 0.19902244 0.040484674 -0.00020026887 0.20860688
