RTSNet/new_architecture/linear_Journal/linearCA/old/CA_TrainPVA.pt (torch, 281107 bytes, 69 tensors)

weight_ih_l0 f4 [27, 15]
000000 d7 33 c1 3c c5 99 3d 3d 7b a7 af 3d 29 f4 2b 3e
       0.02358429 0.046289224 0.08576866 0.16792358
000010 d6 6c fa 3d 7a 49 a3 3e 77 7f 91 be 4d 14 66 3e
       0.1222779 0.31891996 -0.2841756 0.22468682
000020 d7 46 04 be 72 34 6a be 60 c3 7d 3e 12 dd 49 3e
       -0.12917648 -0.22871569 0.24781561 0.19713238
000030 2a 52 83 be 80 8c 83 3e eb 3f 85 bc 39 10 87 bc
       -0.25648624 0.2569313 -0.01626583 -0.016487228
000040 49 63 77 be c4 d4 79 3d 76 70 91 be 81 2d 9b ba
       -0.24158968 0.060993925 -0.28406113 -0.0011839123
000050 e4 ed 15 be 48 eb 9c 3e 09 ff 02 be 30 b1 b4 bc
       -0.1464153 0.30648255 -0.127926 -0.022057146
000060 99 55 8f 3c bb 28 11 3c 98 15 9a 3e dd 8a 86 3e
       0.01749687 0.008859809 0.300946 0.2627782
000070 de 6b 5d 3c b4 57 8d be ed 82 1b bd b8 8e ba bd
       0.013514487 -0.27605975 -0.037966657 -0.09109253
000080 4c ca b7 bd f0 a2 3a 3e fb 06 f1 3c 0a 3e 5e bd
       -0.08974132 0.18226218 0.029422274 -0.054258384
000090 9c 76 12 be a6 4d 20 be b7 64 01 be a5 a2 42 be
       -0.14303058 -0.1565462 -0.12636076 -0.19007356
0000a0 e3 17 2a be 51 5a 28 3e ac 74 77 3e 2e 6d 6c 3e
       -0.16610675 0.16440703 0.241656 0.23088524
0000b0 a3 c1 b4 bd de 7e 84 3a 2a e5 a6 bc af 2c 37 be
       -0.08825996 0.001010861 -0.020372946 -0.17888139
0000c0 c2 25 d4 bd 12 d4 07 3c 32 4b 6f 3e b1 10 16 bd
       -0.10358764 0.008290308 0.23368528 -0.036637012
0000d0 d0 4f 71 be c4 b2 8f be 57 ed 82 be e3 41 46 be
       -0.23565602 -0.28066075 -0.255717 -0.19361071
0000e0 a0 ef f6 bd 40 04 8d be b3 6a 5d 3e 78 87 a7 be
       -0.120574236 -0.27542305 0.21622734 -0.32720542
0000f0 fd bf 91 bd ca 5a 96 be 23 e5 a1 3e 75 54 d4 3b
       -0.07116697 -0.29366142 0.3162013 0.0064797946
000100 9e f7 44 3e a7 64 37 be c4 b2 8f bd 06 08 0b 3e
       0.19235083 -0.1790949 -0.07016519 0.1357728
000110 8e 7e 23 3e 71 15 7f bc 07 ca 32 be 09 45 e9 bd
       0.15966246 -0.015569077 -0.1745988 -0.113901205
000120 b3 3c 07 3e 27 e1 14 be 07 fa 83 3d 3d 0a 13 bd
       0.13206749 -0.14539014 0.06444173 -0.035898436
000130 da c4 60 be d1 1b c1 3d 22 ba 26 be 0c 3e 96 bd
       -0.21950093 0.09429134 -0.16281942 -0.07336053
000140 a4 72 39 3d 7d fe a0 3e a3 33 dd 3d 28 ce 87 bb
       0.045275345 0.3144416 0.108008645 -0.004144449
000150 01 d3 82 3d d7 a6 74 be a3 02 06 be 45 60 37 bd
       0.06387902 -0.2389177 -0.13086943 -0.044769544
000160 4e cb 3f be fe 00 35 be d2 fb 19 80 67 da 1d bd
       -0.18729898 -0.1767616 -2.386224e-39 -0.038538363
000170 7e ee 9b be 17 c7 13 be 63 22 88 3e 92 37 f7 bd
       -0.30455393 -0.14431415 0.26588735 -0.12071146
000180 19 d7 89 3d d2 1c 60 3e 91 17 6a bd c3 dc 99 3e
       0.0673048 0.21885994 -0.05715138 0.3005124
000190 c2 6c 89 be f1 6d 1d be 7d c1 84 bd 8b 17 0d be
       -0.26840788 -0.1537397 -0.064822175 -0.13778512
0001a0 bc 7d 81 3e 84 c7 6f 22 dd de 4c be 9f 05 8f bc
       0.2529124 3.2496163e-18 -0.2000689 -0.017458735
0001b0 77 3b 61 3e b0 c0 92 3e 3a 75 a5 3e 7b 76 50 be
       0.2199534 0.28662634 0.32316 -0.20357697
0001c0 3b 52 b9 bd 84 62 2c 3e 24 36 36 3e c2 ec 48 3e
       -0.09048887 0.16834456 0.1779409 0.19621566
0001d0 b6 58 9b bd 84 0e 2c 3e c7 96 a4 bd 1b 72 db 3d
       -0.0758528 0.16802412 -0.08036571 0.10715123
0001e0 7e 57 9c 3d 83 79 34 be 5d cd 9d be 25 4a 1e 3d
       0.07633875 -0.17624478 -0.30820742 0.03864493
0001f0 25 93 85 be 13 b3 90 3d b0 af db 3d e0 01 b0 ba
       -0.26088825 0.07065406 0.10726869 -0.0013428293
000200 d6 f7 32 be ff 84 8e 3e c8 f8 94 be 71 c4 17 bd
       -0.17477354 0.27835843 -0.29096055 -0.037052575
000210 20 86 a0 bd 79 9d 80 be b3 e8 40 3e a6 b8 fa 3c
       -0.07838082 -0.25120142 0.18838768 0.030605625
000220 42 ea 07 be c7 07 91 3d c2 ee ae bc b4 bd 8c 3e
       -0.13272956 0.070815615 -0.021354083 0.27488482
000230 fa 70 79 3e 17 3e 0d bc 71 c5 f3 3d 6c c3 12 3b
       0.24359503 -0.00862076 0.11902893 0.0022394313
000240 6f ee 27 3e 7c 1a ac 3d 80 51 0e 3d f3 09 00 be
       0.16399549 0.08403489 0.034745693 -0.12503795
000250 f1 9b 49 be de 00 e6 3d 4b 38 f2 bc 80 a0 c1 bd
       -0.19688393 0.11230634 -0.029567858 -0.09454441
000260 46 79 82 be 7a 50 9b be 14 47 32 3e 37 af 1c be
       -0.2548315 -0.30334836 0.17409927 -0.15301214
000270 2b 2b 89 be f0 7d 87 be a1 d6 ed 3d 7c 01 5e be
       -0.26790747 -0.2646327 0.11613203 -0.21680254
000280 fb 01 70 bc 72 a3 61 be a9 40 1b be f4 9f be bd
       -0.01464891 -0.22035006 -0.15161385 -0.093078524
000290 53 22 08 3e ed 7b 2b 9e d2 f3 91 bd 03 b0 2f be
       0.13294344 -9.078292e-21 -0.07126583 -0.17156987
0002a0 bf 38 09 be 26 46 d9 bc 2c 4a dd 3d 25 78 95 be
       -0.13400553 -0.026522707 0.10805163 -0.29193226
0002b0 1a 4f 04 be 5c 05 6a bd 7a 20 a3 be 45 28 95 3c
       -0.129208 -0.057134017 -0.31860715 0.018207679
0002c0 b1 0e c2 3d de 12 f3 3d 51 c9 97 3e cc 69 b6 3d
       0.094754584 0.11868833 0.2964578 0.08906898
0002d0 a0 86 2e bc 6a 23 dd ba 2c 14 25 3e 78 48 d2 bd
       -0.010652214 -0.0016871516 0.16120976 -0.102677286
0002e0 7d 11 38 3d 58 4e 57 3e 0d 94 cb 3d e1 96 7d 3c
       0.044938553 0.2102598 0.09940348 0.015477867
0002f0 52 f9 19 3e 8c 5e 0d bd 2e 93 80 be d0 12 33 be
       0.15036514 -0.034513995 -0.2511229 -0.17487645
000300 ee 5e c2 3d 76 72 e6 bd 8d 53 8a 3e 26 3c f3 bc
       0.09490763 -0.112523004 0.2701687 -0.029691767
000310 75 ae 2a be b6 f6 50 3d ed 64 a8 be c3 78 97 3e
       -0.16668113 0.051016532 -0.328895 0.2958432
000320 e1 de 7c be 2b cb 29 bd d6 45 91 be 2b a1 18 3e
       -0.24694397 -0.04145352 -0.28373593 0.1490523
000330 0c cc 3c be 30 44 9c bd ac 16 c9 bd af 09 1a be
       -0.18437213 -0.07630193 -0.098187774 -0.15042756
000340 67 6c 10 3e 86 e6 97 be a0 71 31 00 51 e4 67 3e
       0.14103852 -0.29668063 4.5407e-39 0.2264569
000350 4a ef 4c bd 38 04 42 bc 96 b6 64 be d9 af 5b 3d
       -0.05003289 -0.011841826 -0.22335276 0.0536345
000360 42 0b 19 3e c5 fa c1 bc f5 d7 96 3d 9b 7a 9b 3e
       0.14945701 -0.023679147 0.07365409 0.30366978
000370 d7 98 96 3e 23 b3 8c 3e b7 ad 63 be 3d c3 4a 3e
       0.29413483 0.2748042 -0.22234236 0.1980104
000380 83 a0 38 be b3 a3 4d bd 0a 24 e2 bd d6 96 e7 bd
       -0.1802998 -0.050204944 -0.1104203 -0.113080665
000390 65 77 9a be 30 2d 81 3d 46 54 9c 3e 19 4d 9c be
       -0.30169216 0.06307447 0.30533046 -0.3052757
0003a0 15 2d a9 bc 0a 0a 14 be 69 5a a0 be e0 e1 27 be
       -0.02065138 -0.14456955 -0.31318977 -0.16394758
0003b0 4a b6 2e be c8 81 1e be 6c 8e 36 3d d6 52 0e be
       -0.17061725 -0.15479195 0.044569418 -0.13898787
0003c0 52 16 a6 bd da da 13 3e da eb dd bd a9 5d 34 bd
       -0.08109726 0.14438954 -0.10836001 -0.044034634
0003d0 ee 71 2c bb 66 47 f3 bd 44 96 a3 be 2b 01 95 be
       -0.0026313025 -0.118788525 -0.3195058 -0.29102454
0003e0 5f ac 83 bd cd c9 cf bd 78 bf 8b be 9e 9c 6a 3d
       -0.064293616 -0.10145912 -0.27294517 0.057278268
0003f0 d8 b1 83 3e a7 b9 93 3e 89 ac c2 bd 45 24 13 3d
       0.25721622 0.2885258 -0.09505565 0.03592326

weight_hh_l0 f4 [27, 9]
000000 01 7b 1b 3d 84 6b 98 be 8f ce 84 be 84 77 07 be
       0.037959103 -0.29769528 -0.25938842 -0.13229185
000010 35 be 84 3e e5 50 9d 3e 3d 22 d4 3d 5d 9f a8 be
       0.25926366 0.3072578 0.10358093 -0.32934085
000020 95 40 65 be df 32 be ba 19 32 5f bd 9b 94 25 be
       -0.22387917 -0.001451101 -0.054491136 -0.1616997
000030 1e de 75 be ca 55 b7 bd b7 1b 9e be 86 26 7c be
       -0.24010512 -0.0895191 -0.3088052 -0.2462407
000040 37 cf 7e be f2 3e a8 be c6 41 ff bd 4f 6a 03 be
       -0.24883734 -0.32860523 -0.12463717 -0.12833522
000050 33 f7 77 3d 1b 63 8f 3e 77 82 ff bb ce 18 ea 3d
       0.060538482 0.280053 -0.007797535 0.11430512
000060 9c 19 76 be b5 7c 1a 3d 7a ea ba bd 6c 0d 05 3e
       -0.24033207 0.037716586 -0.09126754 0.12993401
000070 d3 9f 78 3e 41 51 92 be cb 7b a4 be f1 65 dd 3a
       0.24279718 -0.28577617 -0.32125697 0.0016891343
000080 dd a6 70 3e 2a cf f7 bd f7 24 6e be 5c 02 36 be
       0.23501153 -0.1210006 -0.23256288 -0.17774338
000090 31 78 63 be b1 1e ab bd b7 02 c6 bd ed 53 7b bd
       -0.22213818 -0.08355463 -0.096684866 -0.061359335
0000a0 3d be 5a 3e 5f 14 12 3d 2b 92 a6 3e 5b 31 a9 3e
       0.21361633 0.03566396 0.32533392 0.33045468
0000b0 b9 0b a1 3c 01 b3 06 be a8 3a 3b 3e d2 20 8d 3e
       0.01965891 -0.13154222 0.18284094 0.27564102
0000c0 77 8c 9a bd 89 8a 2a 3e 79 2f a3 be 2a 2e 78 be
       -0.07546323 0.1665441 -0.31872156 -0.2423636
0000d0 12 80 7e 3e 25 07 16 3e f2 92 88 3d 0c d3 51 be
       0.24853542 0.14651163 0.066686526 -0.20490664
0000e0 ed 79 47 3e 68 f4 36 bc cb a6 84 bd 4c e0 f3 bd
       0.19480105 -0.011166669 -0.06477126 -0.119080156
0000f0 cc 5a 91 be 1b 8d 3d 3e 2a a2 f7 bd b7 5c 63 bc
       -0.28389585 0.18510859 -0.12091477 -0.013877085
000100 e2 fe 94 3e ae eb 6c bd 8e c0 5e 3d 82 7c 91 be
       0.2910071 -0.05784195 0.054382853 -0.28415304
000110 3d 86 9d be c4 78 5b 3d 8f 8a ab 3e 08 c9 8d 3e
       -0.30766478 0.053581968 0.3350415 0.27692437
000120 a5 60 23 be a7 2e eb bd c8 fc ed bd f6 09 79 3e
       -0.15954836 -0.114835076 -0.1162048 0.24320206
000130 ac 3d 16 3e 49 41 a7 be 82 0b 7f be 0f 75 8c be
       0.14671963 -0.32666996 -0.24906734 -0.2743306
000140 e1 99 c8 bc 81 b9 55 bb ff c6 b9 3c 43 22 83 3e
       -0.024487438 -0.003261179 0.022677897 0.25612077
000150 eb e7 90 be 66 d9 c8 3d 5b b2 1c be b2 80 31 bd
       -0.2830194 0.098070905 -0.15302412 -0.043335624
000160 a2 49 b3 ba ac 55 07 3e 29 d1 0c bb 79 16 e5 bd
       -0.001367856 0.13216275 -0.0021486974 -0.11185927
000170 29 06 88 3d 80 48 14 be c9 b9 83 be 5f f6 51 3d
       0.066418 -0.14480782 -0.2572768 0.05126035
000180 ae 1e 3d 3c d5 ce 05 3e dd 80 64 3d cc bc 25 3e
       0.011542959 0.13067181 0.055786956 0.16185302
000190 2e ec 13 3d b4 ec a1 3e b5 04 89 3e 5d 99 a8 be
       0.03611391 0.31625903 0.26761404 -0.32929507
0001a0 69 6e 88 3e 71 91 15 be 73 d0 9d 3e 3b 25 3d 3e
       0.26646736 -0.14606263 0.30823097 0.18471234
0001b0 42 0a 9b be 9f 67 98 3e b8 a7 5d bd 55 6f 56 bd
       -0.30281264 0.29766557 -0.054115027 -0.05235227
0001c0 a0 48 8e 3e e8 f9 04 3e 28 3c 3b 3e ba dd 0f be
       0.27789783 0.12985957 0.18284667 -0.14049426
0001d0 7e eb a3 3e 1f 8a 49 bd f0 fc 2c be d0 88 79 3d
       0.32015604 -0.04920399 -0.16893363 0.06092149
0001e0 83 a7 3f 3e 9d e2 53 3e 57 0b c8 3c f0 4d 1d be
       0.18716244 0.20691915 0.02441947 -0.15361762
0001f0 f4 54 0e be 77 71 61 be e0 ff 15 bc 83 6a a4 be
       -0.13899595 -0.2201594 -0.009155244 -0.32112512
000200 be 1f 06 3e 55 08 91 3d 60 e7 60 be 2d 46 0a be
       0.13098046 0.07081667 -0.21963263 -0.13503332
000210 fe 2e 83 3e c7 aa 1e be 66 e4 dc 3d 78 33 fa ba
       0.2562179 -0.15494834 0.10785751 -0.0019088825
000220 67 15 00 be c8 e9 1b be 07 51 25 3e 7d 46 29 3e
       -0.12508164 -0.15225899 0.1614419 0.16530795
000230 7d 2f 78 3e 5b de ee bd 7d fe 62 3d 84 d8 6c 3e
       0.24236865 -0.11663505 0.05541848 0.23129469
000240 7c a8 82 be 47 04 a5 3e 6c d2 61 bd dc a7 88 be
       -0.25519168 0.32229826 -0.055132315 -0.26690567
000250 a6 59 49 be cd 50 9b be d6 6a 85 bd fa c8 2f be
       -0.19663104 -0.30335084 -0.06514518 -0.1716651
000260 e7 e6 3f be db 72 17 be b3 b3 88 be d9 93 a3 3e
       -0.18740426 -0.14789908 -0.266996 0.31948736
000270 ee 1b 8a be 5a 99 df bd 7c c2 87 bd 67 5e 92 be
       -0.26974434 -0.10917921 -0.06628892 -0.28587648
000280 6a cf 4f 3d d4 73 a4 be 01 a3 3a 3e 65 8a 93 3d
       0.050734915 -0.3211962 0.18226244 0.07204131
000290 4b ac 54 be 8b 65 ab 3d 09 69 a1 3e 13 63 1b be
       -0.2076885 0.08368977 0.31525448 -0.15174513
0002a0 16 34 e7 3c e5 30 79 bd 36 3b 08 be f9 4a a8 3e
       0.028223079 -0.060837645 -0.13303837 0.328697
0002b0 4a 91 93 be d8 a5 0d 3d 86 c4 9c 3e 05 65 8e 3d
       -0.28821784 0.03458199 0.30618685 0.06952862
0002c0 af e4 0c 3d e0 97 96 3d 3e da 91 be e3 99 21 3e
       0.034397777 0.073531866 -0.28486818 0.1578136
0002d0 18 62 e3 3d 1f ec fc 3c 20 62 8a be 32 fe aa bd
       0.11102694 0.03087431 -0.27027988 -0.08349265
0002e0 bb 3e e5 bd fa bd e2 bd ce 1d 7b 3e bc 18 34 3e
       -0.111936055 -0.110713914 0.24523088 0.1758756
0002f0 00 22 83 3e c3 56 50 3e 58 71 e1 bd cc da 1a 3e
       0.25611877 0.20345597 -0.11007947 0.15122527
000300 8b d5 a2 bc 5a 18 0b bd b9 85 7c be 7e 55 28 3d
       -0.019877216 -0.03395877 -0.24660386 0.041097157
000310 8f 10 02 3e 07 e7 49 3e 14 47 69 3e 22 0a 48 3e
       0.12701629 0.19717036 0.2278102 0.19535115
000320 6c 34 88 3e 22 2a 13 3e 52 6b 1d 3d d5 6c 0d be
       0.26602495 0.14371541 0.038432427 -0.13811047
000330 5f e5 ed bd 01 2a 2e be 24 78 3b be 69 22 86 3e
       -0.11616015 -0.1700821 -0.18307549 0.26198128
000340 7b 2c 50 3e 24 53 e9 bd 1e d7 6f 3e 1c 27 aa be
       0.20329468 -0.11392811 0.23421904 -0.33232963
000350 ab 51 42 3e 4b 3c 95 3e ec 59 3b 3e a4 ee 83 3e
       0.18976466 0.29147562 0.18296021 0.25768006
000360 69 0a b4 bd 56 48 a5 be 28 0f 30 3e 03 0a 9d 3e
       -0.08791048 -0.3228175 0.17193282 0.306717
000370 c2 ea 9e bd e8 f8 9c be a5 06 a5 be b2 5d 64 3e
       -0.0775962 -0.3065865 -0.32231632 0.22301367
000380 a2 66 c0 3d d1 33 8f be 93 4e 44 be 45 ff 6b ba
       0.09394576 -0.2796922 -0.19170599 -0.00090025767
000390 15 5c 67 3c 85 87 8c 3e e7 b9 02 be d3 7e de 3c
       0.014121075 0.27447143 -0.12766229 0.027160084
0003a0 0b 28 00 3e 44 0c a0 3e 47 29 b0 bd ed 9c 45 bc
       0.12515275 0.31259358 -0.08601623 -0.01206134
0003b0 85 8e 10 3d f3 f8 27 be ed eb aa be f5 c2 2d 3e
       0.035292167 -0.1640356 -0.33383122 0.16968901
0003c0 fd 4d 23 be ed be 91 bd 64 82 a2 be
       -0.15947719 -0.07116494 -0.31740105

bias_ih_l0 f4 [27]
000000 b6 66 a1 3e 35 b7 88 be e8 5e 45 be 3b fb dc 3d
       0.31523675 -0.26702276 -0.19274485 0.10790106
000010 d2 40 ee 3d 22 2c 95 3e 2a a3 8c be db 30 2a 3d
       0.11633457 0.29135233 -0.27468234 0.0415505
000020 8a 49 16 3e 63 23 9b be 01 a8 ca bd 83 a9 08 3d
       0.1467649 -0.30300435 -0.098953255 0.033364784
000030 28 7c be 3d 7b b1 fb bd 81 74 9b 3e b5 39 00 3e
       0.09301025 -0.12289711 0.30362323 0.12522013
000040 be 12 60 3e 4e 30 61 be 3e fd 9e be f6 06 bb 3d
       0.2188215 -0.21991083 -0.31052583 0.09132187
000050 8b 5e 90 3e 4f e0 ed bd 9a eb 94 bd ef 32 8c be
       0.2819713 -0.11615049 -0.072715 -0.2738261
000060 aa 32 91 be 44 2e fd 3b 1d 57 f2 bd
       -0.28358966 0.0077264626 -0.11833022

bias_hh_l0 f4 [27]
000000 2d 91 f0 3c 1c ea 75 be f4 d6 ec 3d 56 03 13 be
       0.0293661 -0.24015087 0.115644366 -0.14356741
000010 c0 10 80 be 3c 1c 3a 3e 2c cc 82 3e 51 c3 2f be
       -0.2501278 0.18174833 0.25546396 -0.17164351
000020 22 cc 2a 3e 91 ca 14 bd 3a 07 5d 3d 2c 0e f6 bd
       0.16679433 -0.036325995 0.05396197 -0.12014422
000030 b3 9c 15 be a3 b6 76 be a5 74 f9 3d b6 ca 83 be
       -0.14610557 -0.24093108 0.12180451 -0.25740594
000040 86 c6 6f bd 93 a8 87 bd be 4c 99 be 78 85 a0 3e
       -0.058538936 -0.0662395 -0.29941362 0.3135183
000050 f1 09 9c 3e e4 ad 93 bd ae 50 25 be 5d dc 08 be
       0.30476335 -0.072109014 -0.16144058 -0.13365312
000060 77 86 c1 3b 4b 36 de bd f3 42 55 be
       0.005905922 -0.10850199 -0.2082632

weight_ih_l0 f4 [27, 24]
000000 88 96 20 be e2 58 40 bd 14 54 81 be cf c9 5d 3b
       -0.15682423 -0.046959765 -0.2525946 0.003384221
000010 a0 66 29 be 26 92 0b 3e 6a 54 99 3e 05 39 c6 3c
       -0.16543055 0.1362997 0.29947215 0.02419711
000020 fb 2c a9 be 9b d4 b9 bd de 33 09 be da 53 ae 3d
       -0.3304213 -0.090737544 -0.13398692 0.08512087
000030 38 ad c5 bc a6 de 99 be ca 5b 7b 3e af b0 2a 3e
       -0.024130449 -0.3005268 0.24546733 0.16668962
000040 9f 61 4d bb 64 62 7f 12 39 93 0d 37 63 86 3d 3e
       -0.0031338704 8.058509e-28 8.438533e-06 0.18508296
000050 25 08 ab be 06 ec 8a be 7c a0 b0 3b ea ee ab b8
       -0.3340465 -0.27133197 0.005390225 -8.1984166e-05
000060 0b be a5 3e c5 40 07 3e 72 19 83 be cb a7 0f be
       0.32371554 0.13208301 -0.2560535 -0.14028852
000070 e8 39 d6 bd f3 3b 8c be 89 1b fc 3d 9e c5 0d be
       -0.104602635 -0.27389488 0.123099394 -0.13844916
000080 da 4e a3 be f0 6e 42 be b3 19 96 be 90 02 31 bb
       -0.31896096 -0.18987632 -0.29316482 -0.0027009584
000090 37 fd 47 3e 72 bd 1a be c8 ff 78 3e e1 da a3 3e
       0.19530188 -0.1511133 0.24316323 0.3200293
0000a0 ba bf 8d be 85 0d 87 39 7a 8b 0d 31 c9 cb 1e be
       -0.27685338 0.0002575928 2.0597484e-09 -0.15507425
0000b0 9f 15 0c 3d b7 48 ae 3c 70 75 57 3d 8f 71 e1 ba
       0.034200307 0.021274908 0.05260223 -0.0017199981
0000c0 62 e7 c8 bd 09 80 07 bd f3 db 69 3e d4 74 90 3c
       -0.09809758 -0.03308109 0.2283781 0.017633833
0000d0 c5 bc 95 be 6f 2d 3d 3e 6f 0c df 3c d6 f7 26 be
       -0.29245582 0.18474363 0.027227608 -0.1630548
0000e0 3b ad 8f 3e 1d dd 66 3e b0 47 92 be b5 bd a1 3e
       0.28061852 0.22545286 -0.28570318 0.31590047
0000f0 67 d0 23 3e f6 c7 a4 3e e5 8a 7d 3e f6 57 8c ba
       0.15997468 0.32183808 0.24760015 -0.0010707367
000100 b3 9a c6 3d ef ea 22 37 a2 5e 87 b8 b5 fb fd bd
       0.09697475 9.710652e-06 -6.4549284e-05 -0.12401525
000110 87 b7 01 3e 31 f3 0e 3e dc 54 b3 bd 23 e2 a2 3d
       0.12667666 0.13959958 -0.0875642 0.079532884
000120 80 9c c1 3d d9 70 8e be 18 a9 cf bd df 3a 96 be
       0.09453678 -0.2782047 -0.10139674 -0.2934179
000130 73 e7 8d 3e d7 44 8e 3e 29 a4 5c be 3a da 18 be
       0.27715644 0.27786896 -0.21546997 -0.14926997
000140 02 a1 e5 bc ad d1 48 3e bb 8d 9a 3e e4 3f 53 3d
       -0.028030876 0.19611235 0.30186257 0.051574603
000150 8f 75 42 3e 66 57 1e 3e 08 c3 55 bd cc bb 07 bd
       0.18990158 0.15463027 -0.05218795 -0.03313808
000160 5c a5 a2 3d 7c d2 53 3d 56 5c af bd 1d 17 16 3d
       0.07941696 0.051714405 -0.085625336 0.036643136
000170 56 b4 08 3e 67 90 8c 3e 0e 6d 54 b3 4f b7 10 b4
       0.13350043 0.2745392 -4.945928e-08 -1.3477732e-07
000180 43 27 57 3e b6 be 94 3d 8a b1 33 be 3b 84 96 be
       0.21011071 0.07262938 -0.17548195 -0.2939776
000190 32 13 52 3e 7c a9 f0 bd 3a 9f b7 ba 8f 62 05 3e
       0.20515135 -0.117510766 -0.0014009245 0.13025878
0001a0 15 3b 97 be ca 7a 97 be fd 4e 9d be 76 2a 84 be
       -0.29537264 -0.29585868 -0.30724326 -0.25813645
0001b0 1a 54 ed bd ec f2 ff 3c 0f 5c a7 3e e2 8e 6c be
       -0.11588307 0.031243764 0.32687423 -0.2310138
0001c0 09 04 88 be cb da 9c 3d dc b0 88 b4 37 e8 42 3c
       -0.2656558 0.07658919 -2.5460656e-07 0.011896185
0001d0 01 98 99 3e 71 ba f3 3d b2 fa a9 3d d4 8a 64 bb
       0.29998782 0.11900795 0.082997695 -0.0034872787
0001e0 4e 7c a7 3e 2e 12 1c bd 2f 78 e7 3d 25 c0 7a be
       0.32712024 -0.038103275 0.1130222 -0.2448736
0001f0 62 16 4a be b8 67 f7 3d 07 13 05 3e 77 5c 0d 3e
       -0.19735101 0.1208033 0.1299554 0.13804804
000200 90 f4 ef bd 25 68 54 3e bd 63 1b be ba 0d 23 bd
       -0.117165685 0.20742853 -0.15174766 -0.039808013
000210 5d 61 8f bd 44 33 96 be fe db 1f be da d3 a0 bc
       -0.070009924 -0.29335988 -0.15611264 -0.019632269
000220 a7 18 0f 3e c8 e5 0f ac 5d fb 23 39 dc 86 3e 3e
       0.13974248 -2.0449076e-12 0.00015638531 0.18606132
000230 6d f4 30 3d 2a 3d 50 3d 7a 11 10 bd 41 51 ca 3c
       0.043201853 0.05083958 -0.035172917 0.024696948
000240 bd c4 0f be c7 79 06 3e b7 7b 6b 3e 33 1e 90 3e
       -0.14039893 0.13132392 0.22996412 0.2814804
000250 8b 7c 9a 3e d1 a2 69 be dd dd 9b 3e c1 70 cb 3b
       0.30173144 -0.22816016 0.30442706 0.0062085097
000260 94 66 e3 3d 03 33 65 bd 41 36 84 3e bf 25 94 3d
       0.111035496 -0.05595685 0.25822642 0.07233762
000270 46 0c 58 3e 23 95 5e be d9 65 43 be a2 bc d5 bd
       0.21098432 -0.21736579 -0.1908182 -0.104363695
000280 81 7e 33 3e 00 90 2f 3d c8 66 f8 bc 5f fe 35 3e
       0.17528726 0.04286194 -0.030322447 0.17772816
000290 6c e7 95 3e b5 f3 07 be cd 4b ed 31 fe 59 ea 37
       0.29278123 -0.1327656 6.9062254e-09 2.793688e-05
0002a0 ea b2 22 be 33 3f 4c be 85 54 25 be e9 0b 36 be
       -0.15888563 -0.19945984 -0.16145523 -0.17777981
0002b0 df b2 4b be 3a bb e9 bd b6 eb fb 3d c9 fa 0c 3c
       -0.19892453 -0.11412664 0.12300818 0.008604714
0002c0 14 ff 6f 3e b3 32 96 3d c9 ea 83 3d a6 c3 3d 3d
       0.23437148 0.07333889 0.06441266 0.046329163
0002d0 a1 d6 26 be b2 d0 03 3e c9 da 0a be 1e 12 95 3e
       -0.16292812 0.1287258 -0.13560022 0.29115385
0002e0 81 4d bd 3c 54 88 ac 3d 9b 07 e0 bb a5 1b 4f be
       0.023108246 0.0842444 -0.006836844 -0.2022539
0002f0 d8 8a 38 be 26 3c 9a 3e 2e 5d db 3b c0 22 ec 33
       -0.18021715 0.30124015 0.0066944575 1.09959274e-07
000300 ce b3 09 3e c3 08 88 3e 42 16 8d be 4a 22 3a 3e
       0.13447496 0.26569185 -0.27556044 0.18177143
000310 c4 8e 79 3e 47 02 80 be 82 be dd bd 68 3d 5d 3e
       0.24370867 -0.25001737 -0.10827352 0.21605456
000320 cb a5 88 bd ca 32 5d 3e 2d be 01 be 16 90 20 3e
       -0.066722475 0.21601406 -0.12670203 0.15679964
000330 c1 1d 98 3e 80 fd 82 be c9 b4 9c bd ce 8d 24 3d
       0.297102 -0.2558403 -0.076516695 0.040174298
000340 c5 a7 29 be fd ff de 3c af 8e b9 3d 28 72 9c 3e
       -0.16567905 0.027221674 0.09060418 0.30555844
000350 b1 0e a6 be 15 18 9d 3e b4 1c 31 3d fe 9b 8a 3b
       -0.32433084 0.30682436 0.043240264 0.0042300215
000360 9f 05 99 bc 78 d5 a9 be 2d 86 e1 3d 1d ad c4 3d
       -0.018679438 -0.33170676 0.1101192 0.09603331
000370 52 fb 3b be a8 c0 44 be ee 5d 8f 3e f5 80 96 bc
       -0.1835759 -0.19214118 0.2800135 -0.018372038
000380 f2 d3 61 3e 68 dc a0 be a6 fe 5d 3e db 51 80 be
       0.22053507 -0.31418157 0.21679172 -0.2506245
000390 0d 48 a8 3d 07 ab 23 bc 99 24 ff 3d 62 eb e9 bd
       0.082168676 -0.009989507 0.12458152 -0.11421849
0003a0 1c 02 94 be 3a 61 9c 3c fe f5 1f bd 53 58 8f 3e
       -0.2890786 0.01908933 -0.039052956 0.27997074
0003b0 d7 15 03 3e f2 65 9e 3e b6 06 a6 bc 0c 23 84 bd
       0.128013 0.30937153 -0.020266872 -0.06451997
0003c0 3b 57 b6 3d fc 81 ea bd 70 71 66 be 53 54 7e 3e
       0.08903357 -0.11450574 -0.2250421 0.24836855
0003d0 00 b8 2c be 73 ea 07 be f6 9e 63 be 08 56 ae 3d
       -0.16867065 -0.13273029 -0.22228608 0.08512503
0003e0 a6 26 2c be 10 6d 57 ba 9f 6a 6c 3d 0e f5 84 be
       -0.16811618 -0.00082178507 0.05771887 -0.25968212
0003f0 b5 52 b0 3d 4e e5 a5 3c 24 c5 1e be 64 a7 1d 3e
       0.08609525 0.020250943 -0.1550489 0.15395886

weight_hh_l0 f4 [27, 9]
000000 61 4a 0b be dd 88 4b bd 5d 6d 81 b8 90 42 93 bd
       -0.13602592 -0.04969107 -6.17157e-05 -0.0719043
000010 f0 27 e5 3a af 16 05 bc 3e c5 39 3e a0 db da bd
       0.0017483216 -0.008123084 0.18141648 -0.106864214
000020 a0 fd f9 36 45 df 4b be 1f 50 89 38 8a d2 42 bb
       7.450304e-06 -0.1990939 6.547593e-05 -0.0029727542
000030 14 28 41 3e 06 43 6c bd 1e e7 20 b5 28 29 99 3d
       0.18862945 -0.057681106 -5.9940965e-07 0.07478553
000040 dc 99 9f 3e 01 72 23 3a 5c 1c 61 be d5 85 ff 3b
       0.31172073 0.00062349444 -0.21983474 0.0077979364
000050 26 73 ec bc 9a 31 8e 3d 2c 4b 19 b7 c8 47 7d bc
       -0.0288635 0.069430545 -9.137013e-06 -0.0154590085
000060 87 b6 49 be a8 bb ab bd c7 6e ab 3b 29 37 a6 be
       -0.19698535 -0.08385402 0.0052317115 -0.3246396
000070 bf 18 41 32 a4 1b 40 bc 5c b0 9f 3e f3 d5 31 34
       1.1239705e-08 -0.01172534 0.3118924 1.6562244e-07
000080 da a3 9c 02 3d 6e bb bc 96 27 69 3e 28 8e 2c 3d
       2.3016186e-37 -0.022879714 0.22769007 0.04212776
000090 f8 ae af bd a6 ec 3e bb ce bd e6 b9 80 32 a3 3e
       -0.085782945 -0.0029132753 -0.00044010434 0.31874466
0000a0 26 9c 05 ba 7a 0e f8 3a 6d 21 a8 be 26 6f a4 be
       -0.00050968153 0.0018925213 -0.32838002 -0.3211605
0000b0 94 a0 18 bd d3 14 95 3e 20 80 d0 b9 e7 b6 e8 3c
       -0.037262514 0.2911745 -0.00039768312 0.028407527
0000c0 44 8c cb bc 3e 04 69 3d 1f 23 a0 bc 14 c3 93 be
       -0.024847157 0.05688881 -0.019547997 -0.2885977
0000d0 7f b1 84 3e f2 7a cd 3c e4 96 12 3e 44 9a 4a 29
       0.2591667 0.025083039 0.14315373 4.4986814e-14
0000e0 d4 30 a7 0e 38 85 9b bc a2 0f 84 39 35 46 5f bd
       4.12157e-30 -0.018984422 0.0002518865 -0.054510314
0000f0 f5 13 56 3d a3 b6 67 3e 10 18 45 00 d9 28 73 be
       0.052265126 0.22628264 6.345281e-39 -0.23746051
000100 10 bb 71 37 de 65 b8 3c 52 83 70 3e 7b 25 ae b5
       1.4408273e-05 0.022509512 0.23487595 -1.2974918e-06
000110 24 1c 7d aa 6b f3 a4 bd a2 11 c1 bb a2 57 61 bd
       -2.2480677e-13 -0.08054241 -0.0058919946 -0.055015214
000120 3a b1 68 3d 31 4d 3e ba d0 44 e8 b8 9d 4a 5f 3e
       0.05680964 -0.0007259427 -0.000110754394 0.21805806
000130 52 06 07 81 0f e4 89 bc e4 86 02 be 85 e4 64 3e
       -2.4800119e-38 -0.01683238 -0.12746769 0.22352798
000140 8e d1 35 bc 67 c3 3c bb cc c0 a1 3d c1 b3 86 bb
       -0.011097325 -0.0028802992 0.07898101 -0.004110784
000150 80 62 97 bd 00 15 95 3c d4 a9 0b 3d d3 52 94 3e
       -0.07391834 0.01819849 0.034097508 0.2896944
000160 e5 cb 41 3e 1c f8 b3 31 eb 01 7e be 24 28 eb 3a
       0.18925436 5.2377924e-09 -0.24805419 0.001794104
000170 0e c5 93 3d 29 27 f6 bc a9 3f bb 3b f4 d0 6e ba
       0.072153196 -0.03004797 0.005714376 -0.0009110116
000180 aa f9 8b 3e da d9 c1 3d e4 7e fc 30 3a 4f 97 3e
       0.27338916 0.0946538 1.8371478e-09 0.29552633
000190 4d 98 1d bd 42 b7 82 bd 9a ea 6d bc ae c9 06 3d
       -0.038475323 -0.0638261 -0.014521265 0.03290718
0001a0 95 4c c2 bc b2 32 13 bc 23 c5 89 be c2 53 62 3d
       -0.023718158 -0.008984255 -0.26908216 0.05525566
0001b0 32 88 00 3e 22 a1 c1 bd 5b b2 12 b9 f3 6f 0b be
       0.12551954 -0.09454562 -0.00013990088 -0.13616924
0001c0 57 e1 ba bd 04 a1 72 b9 fa a8 7c 3e de e9 1d 3d
       -0.091250114 -0.00023138901 0.24673834 0.03855311
0001d0 86 e0 ea bb b7 17 9b be c9 de bb bc ec f5 7e 37
       -0.0071678786 -0.3029153 -0.02293338 1.5196838e-05
0001e0 a0 6c a8 be 7f c4 47 35 ea 21 d7 3c 5b f4 96 3e
       -0.32895374 7.4419216e-07 0.026261289 0.29483303
0001f0 e9 fe 91 be dd a1 10 b3 46 98 a9 bb dc 2d 9a 3d
       -0.28514794 -3.3674826e-08 -0.005175623 0.07528278
000200 50 b4 b5 3d be f1 83 be 76 af 0c 34 19 55 8a 35
       0.088722825 -0.25770372 1.3102348e-07 1.0306568e-06
000210 58 cd 64 be ff a2 17 be 3c b6 7a 01 8c 8e 9e 3d
       -0.22343957 -0.14808272 4.6048495e-38 0.077420324
000220 f5 33 ac bd fb 8f a1 b9 39 8e 1f 3e a2 4c 88 ae
       -0.084083475 -0.00030815587 0.15581597 -6.198177e-11
000230 de 03 a5 3b 25 29 38 be f3 a6 4e be 1c aa b3 01
       0.0050358614 -0.17984445 -0.20180874 6.599831e-38
000240 e3 c1 c5 bd 9d df cb 39 15 a7 86 bd 75 18 00 3c
       -0.096561216 0.00038885782 -0.06574837 0.007818331
000250 8e 3e a8 bc 8d 87 2c 01 d2 c6 31 be b3 e9 a8 3e
       -0.02053764 3.1688664e-38 -0.17361 0.32990798
000260 dd 55 79 bb d8 12 02 3e 09 51 23 3d aa 61 b2 3d
       -0.0038045563 0.12702501 0.039872203 0.08710034
000270 7a eb 67 3e 23 df c7 3b 38 83 51 25 d6 a0 95 be
       0.22648421 0.006099598 1.8172319e-16 -0.2922427
000280 82 73 3d 3e a4 10 ca a2 89 ef b6 3d 63 07 77 bb
       0.18501094 -5.476983e-18 0.089324065 -0.0037693612
000290 8b 32 f7 b9 89 a0 a9 3e 0f 6d 32 3c c2 de f4 bc
       -0.0004714917 0.3313029 0.010890259 -0.029891375
0002a0 4d 40 63 be ab 0a 33 3e 41 28 16 b9 45 95 4b bd
       -0.22192498 0.17484538 -0.0001432011 -0.0497029
0002b0 00 e8 d4 ba 22 ea 9a 38 81 28 40 be d3 bf 4c 3d
       -0.0016243458 7.386903e-05 -0.18765451 0.049987625
0002c0 de a7 32 b8 f0 23 33 bd 5b d7 9d 3e 75 b5 a6 3d
       -4.2594846e-05 -0.043735445 0.30828366 0.08140079
0002d0 e2 17 a9 3e 71 25 e2 3d db c7 df ba cb 88 9d be
       0.33026034 0.11042298 -0.0017073111 -0.30768427
0002e0 dd 5f 4b bd 3d 87 87 22 47 fe e9 3d ca bd 02 bc
       -0.04965197 3.6735012e-18 0.11425453 -0.00797982
0002f0 74 ac 8a bd 2c d0 40 3e 5f db df 3b c3 9e 7f bc
       -0.06771174 0.18829411 0.006831571 -0.015601817
000300 63 b6 77 3d ea 32 03 bb 94 bb 5a bd 7c 41 7a bd
       0.060476672 -0.002001936 -0.053401545 -0.061097607
000310 71 c4 2c be ad da 8b bb dd 4d ef 3d e4 78 8b bb
       -0.16871811 -0.0042680115 0.11684773 -0.0042563546
000320 ea 77 32 bd ce a8 bb 3d f7 b1 45 bd b8 a8 e4 29
       -0.04357139 0.09163056 -0.048265424 1.0154502e-13
000330 e6 1d 83 be de 88 98 3e 9c 5c 5f bb 4a 56 46 be
       -0.25608748 0.2979192 -0.00340823 -0.19368854
000340 63 4f 3e 3d a3 73 64 bd 5e 25 7c 3e 45 1d 86 84
       0.046462428 -0.055774342 0.2462363 -3.153013e-36
000350 2a ce 3b 3a 49 77 9d bc 5f 3f 85 bd a0 20 b8 3a
       0.0007164205 -0.019221919 -0.06506228 0.0014047809
000360 6e da 25 be 41 c2 79 3d d7 3b 4d bd d0 f9 f3 bd
       -0.16196606 0.06097627 -0.050105896 -0.11912882
000370 13 c5 f3 34 8d ce 98 2f eb b2 c3 3d 09 59 84 3e
       4.5405667e-07 2.7795402e-10 0.0955561 0.25849178
000380 b9 e7 03 36 de 16 a0 3e 58 91 11 bc c5 79 e9 b6
       1.9655402e-06 0.31267446 -0.00888475 -6.958117e-06
000390 b0 72 89 bd 55 55 bd bd cf ff f5 9a 2e 0f 8e bd
       -0.06711328 -0.092447914 -1.01742906e-22 -0.06936489
0003a0 b3 98 bb bd af a8 e3 3c ba 96 99 be 52 d4 6a 3b
       -0.091599844 0.027790396 -0.29997808 0.003583212
0003b0 17 f9 2e 3d 1b bf 37 3e 7d f2 a9 bb 10 76 59 bc
       0.04271802 0.17943995 -0.0051863776 -0.013272777
0003c0 2d 38 64 3e 44 7f 98 be f6 25 1f 3b
       0.22287054 -0.29784596 0.00242841

bias_ih_l0 f4 [27]
000000 84 7c 05 3e bd 73 98 be 61 4d c5 3d 77 85 11 bc
       0.1303578 -0.297758 0.096338995 -0.008881918
000010 c6 64 12 3e 4b cd cc bd 4e e9 83 be 8b f3 e5 bd
       0.14296255 -0.10000094 -0.25763935 -0.11228093
000020 42 4b 2f 3e fa 68 9c 3e fb c5 9b 3e 7c de 79 3c
       0.17118552 0.3054884 0.30424485 0.015250798
000030 7a 0b 2f 3e 97 85 71 bd 5c a4 59 3d d4 85 4d be
       0.17094222 -0.05896529 0.05313526 -0.20070583
000040 bd 61 8c be aa 78 88 bd cd 45 47 bd bc 7c 88 be
       -0.27418318 -0.0666364 -0.04865055 -0.26657665
000050 d9 2a 18 bb 21 f3 51 be 11 0b 3b be 00 7d 7f bd
       -0.0023218899 -0.20502903 -0.1826594 -0.06237507
000060 f5 7f cc bc d2 80 68 3e 83 f0 40 be
       -0.024963358 0.22705391 -0.18841748

bias_hh_l0 f4 [27]
000000 fd 11 b4 bd f6 47 82 3c 0c 29 10 be ee e4 9a 3e
       -0.087924935 0.015903454 -0.14078158 0.30252784
000010 dd 96 ae 3d 4f 5a 46 be 0b 6d 0d 3e df 5d 9d bb
       0.08524869 -0.19370387 0.13811128 -0.00480245
000020 07 d9 a0 3e fa f0 5b bc 90 1d d1 bd 9d 6e df bd
       0.3141558 -0.0134241525 -0.10210717 -0.1090977
000030 ef d6 fc 3d 42 71 6b bd 2a 47 d3 bc 17 6a 38 be
       0.12345683 -0.057481058 -0.02579077 -0.1800922
000040 f4 3f 95 bd 1f 00 a4 bd 29 e3 a1 be b2 1b 98 3e
       -0.07287589 -0.080078356 -0.31618622 0.2970863
000050 6c e7 13 be e4 a1 e7 bd 8b d3 3b 3e d1 96 a9 be
       -0.14443749 -0.11310175 0.18342416 -0.33122876
000060 be 82 3d 3c 23 82 68 be 46 8d 01 3e
       0.011566816 -0.22705893 0.12651548

weight_ih_l0 f4 [27, 39]
000000 e0 48 34 be ba 73 36 b6 5a b7 2b be 72 7a 03 3c
       -0.17605925 -2.7187475e-06 -0.16769162 0.008024799
000010 24 58 6a 3c 35 d2 ae bd b3 73 cb bd b0 11 ed bd
       0.014303241 -0.085361876 -0.09934177 -0.11575639
000020 9e 2c a3 bc 58 14 82 3e 29 a9 96 be fd 0d 8b 3e
       -0.019918736 0.25406146 -0.29425934 0.2715911
000030 c1 10 19 3e 12 7b 96 3e 5f d7 25 3b 58 79 59 3e
       0.14947797 0.2939077 0.0025305373 0.21237695
000040 37 8b 4f b4 5e c8 fb 3c 94 d6 f0 bd d1 58 a5 bd
       -1.9329023e-07 0.030735191 -0.117596775 -0.08073581
000050 47 32 9d be 87 63 ec bd 75 be 9e be 71 86 57 3d
       -0.3070242 -0.11542421 -0.31004682 0.052618448
000060 bc 5e a3 be 52 c2 97 be 67 ee 22 bd 63 02 49 3e
       -0.31908214 -0.29640442 -0.03977814 0.19629817
000070 9c d5 52 be 4b c6 3b 3e 77 e6 83 3d ff 71 17 3e
       -0.20589298 0.18337362 0.06440442 0.1478958
000080 90 29 a7 3d c1 c6 8f 3e 92 ab 67 be e6 06 94 3e
       0.08162224 0.28081325 -0.22624043 0.28911513
000090 67 39 7a be 88 ac 87 bd f1 a0 42 3e de 97 82 be
       -0.2443596 -0.066247046 0.19006707 -0.2550649
0000a0 50 4b cc 3c 7d 15 71 be 7c 15 b7 bd e9 cb 88 be
       0.024938256 -0.23543353 -0.08939645 -0.2671807
0000b0 96 a1 d8 bc fc 00 34 3e 52 e5 81 3e 0d a1 8b bd
       -0.026444238 0.175785 0.2537027 -0.068178274
0000c0 c3 18 48 bc 2d 87 70 3e 9f 74 11 3e 75 1b 4d 3c
       -0.012212935 0.23489065 0.14204644 0.012518753
0000d0 6e 3d a9 3c 86 91 e1 37 1f 34 9e 3e e2 4c 32 3c
       0.020659175 2.6889855e-05 0.3089914 0.010882588
0000e0 01 7d 5b bc 34 c1 09 be bb db 9b be 65 0c 4f 3e
       -0.0133965025 -0.13452607 -0.3044108 0.20219572
0000f0 bc 2e f5 bd 41 65 69 3e 5a 68 84 be e6 86 7f 3d
       -0.119718045 0.22792532 -0.25860864 0.06238451
000100 40 b6 d4 3d 17 69 b9 3d 58 9d a7 3e ac 25 8b be
       0.10386324 0.090532474 0.3273723 -0.2717718
000110 3d 11 50 be 76 fc 9e be 3b 97 60 3e 78 d9 82 3d
       -0.20319076 -0.31051987 0.2193269 0.06389135
000120 8c 05 35 3e 5d 0e 86 3e 2e bc 80 be e5 7a 53 be
       0.17677897 0.26182833 -0.2514357 -0.2065235
000130 1c 47 81 3e aa 27 68 3e 53 3c 9e be 5e 59 5f 01
       0.25249565 0.2267138 -0.309054 4.102275e-38
000140 3c 26 89 bc 9e af b6 3b fc c9 a9 be ba 4b 64 3e
       -0.016741864 0.0055751344 -0.33161914 0.22294512
000150 84 63 b8 bd 30 68 e3 3d 1d fb b5 bb 32 e3 0c be
       -0.09003356 0.111038566 -0.0055536167 -0.13758543
000160 e6 92 f8 3c 3e da 49 be 3e 3c 61 3d d7 0e 9f be
       0.030343484 -0.19712159 0.054989092 -0.3106601
000170 cb d9 b1 af 43 02 73 3e d1 d8 d8 27 c8 f9 44 3b
       -3.2350864e-10 0.23731332 6.0187116e-15 0.0030056108
000180 53 a2 8e be ae 0b 0d bd a7 51 38 be 00 5d 8b be
       -0.2785822 -0.034434967 -0.17999898 -0.2721939
000190 e2 77 12 be a6 f0 2c 3d 4d 24 91 3e ef 52 63 be
       -0.14303544 0.042221688 0.28348008 -0.22199605
0001a0 f4 8e 56 3e 25 5a a3 3e 29 25 7e 3e 40 ca 4e 3e
       0.2095297 0.31904712 0.24818863 0.2019434
0001b0 03 ab 04 be 65 6b 4c be 26 d3 a1 be 2b f4 80 3e
       -0.12955861 -0.19962843 -0.31606406 0.25186285
0001c0 40 e4 25 3e 52 ce 9a 3e 5b ef 57 3d 06 99 71 3e
       0.16200352 0.30235535 0.0527185 0.2359353
0001d0 3e 5b 8a 3e 95 ce a4 be ed 02 1f 3d 93 29 37 3b
       0.27022737 -0.3218886 0.03882115 0.0027948364
0001e0 0e d4 c3 3c 27 8b 94 bd 1e 32 5c be 16 d6 1c bd
       0.023904826 -0.07253104 -0.21503493 -0.038290106
0001f0 a2 17 5e 3e 37 6c de bc 6b 61 59 3e 46 70 60 3e
       0.21688703 -0.02715121 0.21228568 0.21917829
000200 66 b7 19 be e2 d7 1b 3e e0 4b 35 3e 48 97 09 27
       -0.15011367 0.15219072 0.17704725 1.909458e-15
000210 53 75 57 3e 80 de 6b bd fe 1f 3b 3c 08 fd 3a bc
       0.2104085 -0.05758524 0.011421202 -0.011412866
000220 0a 67 8d 3e 52 70 44 3d a7 ea e0 3c 36 2f 07 3e
       0.27617675 0.04795868 0.027455641 0.13201603
000230 99 f9 40 be ab 28 1f be be f6 8b 3e 0e 7c 37 be
       -0.18845214 -0.15542857 0.27336687 -0.17918417
000240 27 1b 1d 3e 6c 62 8c 3e 78 2c 00 be 66 51 a4 bd
       0.15342389 0.2741884 -0.12516963 -0.08023338
000250 38 84 50 be 15 e8 6b be 1a 09 2f 3e 7e 36 51 3d
       -0.20362937 -0.23037751 0.17093316 0.05107736
000260 1e 00 5d 3d 18 76 67 3d ba 92 6a bd 37 30 82 3e
       0.05395519 0.056509107 -0.057268836 0.2542741
000270 4e ed a8 3e b5 d2 50 ba 06 31 50 3e c8 4d a9 3c
       0.3299355 -0.0007965968 0.20331201 0.020666972
000280 20 9c 99 3e d8 51 3c be bd f3 1d be ac e0 46 be
       0.30001926 -0.18390596 -0.1542501 -0.19421643
000290 93 08 7f bd 07 3b fa bd 55 5b 77 bd 4b da d1 bd
       -0.062264036 -0.1221829 -0.060389835 -0.10246714
0002a0 b1 01 30 3e 1a 22 2a be 14 76 2b 37 91 e9 1d 3e
       0.17188145 -0.16614571 1.02198865e-05 0.1542113
0002b0 e8 ea 14 bd 3e 04 11 3d 6a 06 97 3e a6 57 a1 be
       -0.036356837 0.035404436 0.2949708 -0.31512183
0002c0 ed 81 a9 be b4 ca 85 3d 0e 4b 2f 3e d5 46 f3 bd
       -0.33106938 0.06532803 0.17118475 -0.118787445
0002d0 85 72 e8 bd fc a8 a8 be 85 a8 31 bd 95 33 95 3e
       -0.11349968 -0.32941425 -0.043373603 0.29140916
0002e0 58 93 5c be da a4 9a be 1f dc 95 3e 5b f2 45 bd
       -0.21540582 -0.30203897 0.29269502 -0.04832683
0002f0 0b 91 a8 3e de 82 cc 3d 82 f7 81 be 6e 7c 39 3e
       0.3292316 0.099858984 -0.25384146 0.18113872
000300 33 db a3 3d 85 ce ea bd 43 82 98 3e b3 6f 6d be
       0.08000793 -0.11465172 0.29786882 -0.23187141
000310 62 52 ba 3c 28 e8 57 be 13 15 7b 3d 3e 2b 0d 3d
       0.022744361 -0.21084654 0.061299395 0.034465067
000320 bb 07 c1 bd a9 35 5e bd a6 c2 88 be b9 83 2b 80
       -0.094253026 -0.054250393 -0.26711005 -3.99618e-39
000330 c3 5d 76 3c b7 29 97 3e fa 47 aa bd db 92 b6 3d
       0.015037003 0.29524013 -0.0831451 0.08914729
000340 14 d9 80 3e 5f 79 90 3c da bc 36 3e 8a b1 19 ba
       0.25165617 0.017636 0.17845479 -0.0005862942
000350 98 c8 bf 24 59 89 30 3d 1d 67 92 3c 75 f4 97 bd
       8.3172865e-17 0.043099735 0.017871434 -0.07419673
000360 14 85 4c 3c 4b d7 03 be bb ff b7 bd f9 2a 98 be
       0.0124829 -0.12875096 -0.089843236 -0.29720286
000370 e9 42 be 3d b4 31 a0 bd 10 ea 5e 3e dc 3c 34 3e
       0.09290106 -0.0782198 0.21768975 0.17601341
000380 24 49 6b be 19 fe 4f be 00 02 98 bd 2f 2b 8a 3d
       -0.2297712 -0.20311774 -0.074222565 0.06746518
000390 cf 6f a8 be 7c 01 1a 3e af 94 18 be f2 eb 17 be
       -0.32897803 0.15039629 -0.14900468 -0.148361
0003a0 3f 44 5d 3e 44 6d 6a 3e f6 be 8d be 34 84 34 81
       0.21608065 0.22893244 -0.27684754 -3.315563e-38
0003b0 b3 2e 15 3d 86 47 f0 b9 11 30 49 3e 22 ae 3a bc
       0.03642149 -0.00045829656 0.19647242 -0.011394056
0003c0 9e 58 b0 bc e5 85 12 3e 2c 5e ae bb 42 37 fb 3d
       -0.021526631 0.14308889 -0.0053212848 0.12266399
0003d0 6a 11 90 3e e7 5b 9f be 3a a9 94 3d ee e4 4e be
       0.28138286 -0.31124803 0.0725884 -0.20204517
0003e0 7a 00 04 3c c5 16 48 be 2c cb 8c 3b b7 a0 7a 39
       0.008056754 -0.19539936 0.004296681 0.00023901729
0003f0 d1 98 28 3d 82 4f 3e 3e 29 01 17 3d 08 37 92 3e
       0.041161362 0.18585017 0.03686634 0.2855761

weight_hh_l0 f4 [27, 9]
000000 90 cb 54 be ab 69 07 3e 12 9d 86 3d c8 c4 3c be
       -0.20780778 0.13223903 0.065729275 -0.18434441
000010 b3 cf 9d be 47 3d 1d bd cb 14 39 3d 92 e8 6e be
       -0.30822524 -0.038388517 0.045185845 -0.23330906
000020 61 9d 6b be d0 db a6 3e a0 3a 85 bc 33 c9 69 3e
       -0.23009254 0.3258958 -0.016263306 0.22830658
000030 bf 36 b7 3d 18 25 ae bd f5 17 27 be 7e 43 d6 3d
       0.08945989 -0.08503169 -0.16317733 0.10462092
000040 b9 74 0c bd a6 4c ab be 00 44 66 be 17 f9 e6 bc
       -0.034291003 -0.33456916 -0.22486877 -0.028194947
000050 01 d6 34 3e 8f 78 92 be f1 4f 32 3e ab 84 95 3d
       0.17659761 -0.28607604 0.17413308 0.07300695
000060 c0 97 83 3d 48 d2 d7 3d 7c cd 91 be 9a 07 e8 bb
       0.064254284 0.10538155 -0.28477085 -0.0070809843
000070 4e db 65 bc e4 a8 72 b8 56 f6 d9 3d 65 21 82 be
       -0.014029337 -5.7854588e-05 0.10642688 -0.25416103
000080 a0 51 14 3e 9c 10 5f 3d e0 1b 1b 3e af d9 8d 3e
       0.14484262 0.0544592 0.15147352 0.27705142
000090 eb b8 9d 3e 3d 07 a4 3e 59 67 ea 3d b7 12 e8 ba
       0.30805144 0.32036772 0.11445493 -0.0017705773
0000a0 78 3d 20 bc 92 63 7e 3e 24 99 1e 3c 2c c4 ce 3d
       -0.00978028 0.2484267 0.009680066 0.100960106
0000b0 98 99 17 3e fd d5 7c bd e7 bc 91 3e 5d 23 a9 3e
       0.14804685 -0.061727513 0.28464434 0.33034793
0000c0 34 d5 48 3e 3b b0 11 3e a6 7b 60 be dd 9b 3e 3e
       0.1961258 0.14227383 -0.21922168 0.18614145
0000d0 06 8b 34 be 23 ee 50 3e a5 31 bb 3d 8e 67 84 3c
       -0.17631158 0.20403342 0.09140328 0.01616266
0000e0 3f 86 90 3e cd f0 19 3e 5b b5 9b be 0d 9f 9d 3e
       0.28227422 0.15033264 -0.304118 0.3078541
0000f0 ae 90 9e 3e 48 4a 56 bc 47 fb 17 3e ed d0 d0 3d
       0.30969757 -0.0130792335 0.14841948 0.101960994
000100 b2 66 30 3e ed 12 98 be 6d 15 98 be 0a bf 7d 3e
       0.17226675 -0.2970194 -0.29703847 0.24779907
000110 5d c5 a4 be c5 24 5d 3e 17 9e 56 be f5 c8 9a be
       -0.32181826 0.21596058 -0.20958744 -0.30231443
000120 39 90 8d 3e aa 84 ca bd 6e af d9 3d 04 6c 13 bc
       0.27649096 -0.09888585 0.10629164 -0.008997921
000130 db 7b a5 3e 29 32 8c bd 98 43 a3 be 76 86 7f 3e
       0.32321057 -0.06845505 -0.31887507 0.24953637
000140 5c 0f 39 be 34 a4 ee bd fa 64 5f bd 15 8d 7d 3e
       -0.18072265 -0.11652413 -0.054539658 0.2476085
000150 18 3f 99 38 ac 93 7a 3d 59 d1 82 3e 05 20 82 3e
       7.307361e-05 0.061175987 0.25550345 0.25415054
000160 e3 4a fd bd 4a 80 8e 3e 6e cb 63 3e 0f a2 9e be
       -0.12367799 0.27832252 0.22245571 -0.30983016
000170 1a cc 39 be 6a 20 31 be bb c9 63 be cd eb 9d 3e
       -0.18144265 -0.17297521 -0.22244923 0.30843964
000180 54 93 40 3e ba 15 80 be af c2 c8 3d 50 ed 13 3e
       0.18806201 -0.25016576 0.09802758 0.14445996
000190 79 fb 36 bc c2 87 96 3d 86 60 79 be 27 16 26 be
       -0.011168354 0.073501125 -0.24353227 -0.16219388
0001a0 c5 2f 16 3e ff 85 43 3e 40 65 93 be d2 2a b4 3d
       0.1466666 0.19094084 -0.28788185 0.0879723
0001b0 5d 30 fc 3d ee 0c fb bd 43 1f 96 bd e1 f6 82 3d
       0.12313912 -0.122583255 -0.073301814 0.06394745
0001c0 4d ec 70 bd e9 5a 76 3d c7 f5 8a 3e fe c5 9f 3d
       -0.058819104 0.060145292 0.27140638 0.07801436
0001d0 d8 bb 2b be 5b 7d e1 bc 00 46 d7 3b c7 44 1a 3e
       -0.16770875 -0.027525594 0.006569624 0.15065299
0001e0 d2 3a 3b 3d 96 93 68 be 2b d1 8e 3e 74 75 a9 be
       0.045710392 -0.2271255 0.27893957 -0.33097422
0001f0 c7 84 a1 be e8 b7 99 3e 0c c7 04 be b5 d4 ed bd
       -0.31546614 0.30023122 -0.12966555 -0.11612836
000200 80 28 6a 3e 1a a3 86 be ed b5 b4 3c 70 69 22 3e
       0.22867012 -0.26296312 0.022059405 0.15860534
000210 21 58 84 3e df a0 96 3e 6a b6 61 3c a2 56 9e 3d
       0.25848487 0.2941961 0.013776401 0.07731368
000220 db f6 a0 3e 3b a4 90 bc 66 d9 c2 3d 42 d0 5d 3e
       0.31438336 -0.017656436 0.09514122 0.21661475
000230 78 a8 85 bd b0 20 35 be c0 0c 03 be ec 3f 6e 3e
       -0.065262735 -0.1768825 -0.12797832 0.23266572
000240 11 53 80 3d d1 85 46 3e fd 63 99 be 92 2d ab be
       0.06265844 0.19386984 -0.29959098 -0.33433205
000250 63 aa 38 be 7c 50 a3 be 7d dd 8c be c0 03 e1 3d
       -0.18033747 -0.31897342 -0.27512732 0.109870434
000260 cd e9 13 3e 69 fa 52 be 43 87 3c be ba 00 47 be
       0.14444657 -0.20603336 -0.18410973 -0.19433871
000270 3b e1 59 be 10 18 95 be 58 a7 85 bd 36 93 f3 bd
       -0.21277325 -0.2911992 -0.06526059 -0.11893313
000280 8b 78 7b be 23 36 87 be c5 4a 85 3e d1 76 9d 3d
       -0.24557702 -0.2640849 0.26033607 0.07688678
000290 48 86 0b 3e ac 56 a9 3e d7 2b 2f 3d 37 be 4b be
       0.13625443 0.33073938 0.04276642 -0.1989678
0002a0 1b 6e 18 be c3 0b 8f 3d d0 d4 17 be 88 bd 44 3e
       -0.14885752 0.06984665 -0.14827275 0.19212925
0002b0 0e 3c 82 3e 73 95 8e bd cf ac 72 3e 08 62 7e be
       0.25436443 -0.06962099 0.23698734 -0.24842083
0002c0 bf c3 7a bd 85 3a 56 be a1 b5 9c 3e 8b f4 f6 3d
       -0.061221834 -0.20920761 0.30607322 0.120583616
0002d0 c4 5a 35 3e 00 18 9b 3e 08 b6 1e 3e 9b da a3 3e
       0.17710406 0.30291748 0.15499127 0.3200272
0002e0 2e ad 83 be 55 93 87 3e 68 db b4 3c 6a 21 3e be
       -0.25718063 0.26479593 0.022077277 -0.18567434
0002f0 e6 6e 7c 3e 9a 2d a1 bd 02 92 74 be 26 51 1b be
       0.2465168 -0.07870026 -0.23883823 -0.15167674
000300 af 41 3f be 6b 26 b2 3d 6f 1e 65 be ca 0a 94 3e
       -0.186774 0.08698734 -0.2237489 0.2891448
000310 0f 5b 91 be f4 d5 7e 3d 3e 45 2d be fb cb 8d be
       -0.28389785 0.06221576 -0.16920945 -0.27694687
000320 e7 71 72 bd 31 ef 80 3e 03 a0 72 be b7 d7 86 3d
       -0.059190657 0.2518249 -0.23693852 0.06584113
000330 1f 9e 06 be 75 ac 11 3e 23 cd 4e 3e 01 a9 58 be
       -0.13146256 0.14225943 0.20195441 -0.2115822
000340 16 24 42 be 4c c6 61 3d 01 3a 8f be cb 30 a6 3e
       -0.18959078 0.05512075 -0.2797394 0.324591
000350 e0 29 56 3e 0f 27 0c 3e 84 f1 06 be 08 62 da bd
       0.20914412 0.13686775 -0.13178068 -0.10663229
000360 39 a3 be bd f3 3f a3 3c c4 e6 0a 3e 1d fe a3 be
       -0.09308476 0.019927954 0.13564593 -0.3202981
000370 5b 70 47 be 28 71 60 be 8b 01 9f bd 53 64 5e bd
       -0.19476454 -0.21918166 -0.07763966 -0.054294895
000380 07 0b 08 3e 61 a3 d3 bd 37 fe b1 bd 79 27 00 be
       0.13285457 -0.103338964 -0.08691066 -0.12515058
000390 f7 2a bf 3c cf ef a1 bb b7 e6 8d 3e 2e e4 03 3e
       0.023335917 -0.0049419175 0.27715084 0.12880012
0003a0 cc 48 90 3d 0c dc a9 3e cd ba e2 bd 4a fb b3 3c
       0.07045135 0.33175695 -0.11070786 0.02197041
0003b0 31 c1 84 3d 07 4f 57 be 38 73 7a 3e 5a 64 a1 3e
       0.06482161 -0.2102624 0.24458015 0.31521875
0003c0 29 b6 32 3e 1e f5 9c bd c0 68 8d be
       0.17452301 -0.0766394 -0.2761898

bias_ih_l0 f4 [27]
000000 85 9d bc 3d 27 76 29 be f4 2c b6 3b 48 66 56 be
       0.09209732 -0.16548978 0.005559558 -0.20937455
000010 4d 4c 67 be 73 a0 6f be 15 aa f8 bd b7 83 2a be
       -0.225877 -0.2340105 -0.121418156 -0.16651808
000020 40 6e ee 3d 62 f8 49 3e 40 67 55 bd ce 52 66 be
       0.11642122 0.19723657 -0.05210042 -0.22492525
000030 03 38 20 be 0d ef 1c be e3 ba 23 3e 5e 66 6a 3d
       -0.15646367 -0.15325566 0.1598926 0.05722653
000040 7b 5c 7b be 89 b3 00 bd f0 28 b6 bd 09 5e fb bd
       -0.24546997 -0.031421218 -0.08894527 -0.12273795
000050 23 97 a1 3e 4a 55 84 be f7 b5 89 be 68 36 a7 3e
       0.3156062 -0.2584632 -0.2689664 0.32658696
000060 52 5a 47 3e 8f 59 65 3e 8e f4 48 3e
       0.19468048 0.22397445 0.1962454

bias_hh_l0 f4 [27]
000000 53 c4 76 be fb af 34 bc 2c f8 99 be 56 19 83 3b
       -0.24098329 -0.011028285 -0.30072153 0.004000823
000010 e6 42 ac 3b 89 cd 3d be 00 f9 72 bd 3e 61 15 be
       0.0052569984 -0.18535437 -0.059319496 -0.14587876
000020 d3 c5 61 3e 23 8e 36 be f9 6a 4f be d3 82 82 bd
       0.2204812 -0.17827658 -0.2025565 -0.06372609
000030 8b d7 7e 3e d4 f0 9f be 16 ac 05 be f8 7e a5 bd
       0.2488691 -0.31238425 -0.13053927 -0.08080858
000040 c5 bd 29 be a2 16 8f 3d e9 6b c2 3d 94 59 1d 3e
       -0.16576298 0.06986739 0.094932385 0.15366203
000050 f3 17 c4 bd de 44 18 be 79 e3 9d be b8 42 4f 3e
       -0.095748805 -0.14870021 -0.3083761 0.20240295
000060 af d7 41 be 50 ee 01 be 85 c5 b2 bb
       -0.18929933 -0.12688565 -0.005455675

weight f4 [9, 9]
000000 40 12 51 bd 67 03 7c 3e 89 85 2b be fb 86 b6 3d
       -0.051042795 0.24610673 -0.16750158 0.08912464
000010 51 d7 8a be d0 40 2b be 0c 6e e7 3d 8a dd 1a be
       -0.27117398 -0.16723943 0.11300287 -0.15123573
000020 0c a8 4d 3e 58 88 02 3c ae cd 82 bd fc fc 42 3d
       0.20083636 0.007967077 -0.063868865 0.047604546
000030 22 5b 42 bd 0e 2b 35 3c a1 bf af 39 0e d3 d7 bd
       -0.047450192 0.011057628 0.00033521376 -0.10538302
000040 03 b1 04 be e1 99 ca 3a fe 52 5e 3e b5 6e 85 be
       -0.1295815 0.0015457236 0.21711347 -0.26061025
000050 d2 74 70 3e 0a 93 1d be 9e 6b 93 3e 17 a4 66 be
       0.23482063 -0.15388122 0.28793043 -0.22523533
000060 13 18 fe bd 65 51 ab be 41 c1 9c 3e 7d e7 b4 1e
       -0.124069355 -0.33460537 0.3061619 1.9153983e-20
000070 62 6e d0 33 77 9c e9 bc 3a e9 cd 3b a8 66 16 2c
       9.705833e-08 -0.028516991 0.0062839063 2.1373268e-12
000080 08 b0 b2 3c 30 82 5e 2a 00 3d 56 3d fe a2 38 3d
       0.021812454 1.9762729e-13 0.052304268 0.045077316
000090 99 3e dc bd 52 20 9f 3e 67 b7 d5 3d 0a ed 17 be
       -0.10754127 0.31079346 0.10435372 -0.14836517
0000a0 73 89 37 3e 18 65 9d be 08 0f 22 3b e4 f0 a8 3c
       0.17923526 -0.3074119 0.0024728198 0.020622678
0000b0 9d 3a a3 be 8f f0 f8 bd 0d 0f e7 3c a1 c7 6a 3d
       -0.31880656 -0.12155258 0.028205419 0.057319287
0000c0 a4 74 b1 bd 38 33 92 3e 27 19 58 3e 66 47 fc bc
       -0.086648256 0.28554702 0.21103345 -0.030795764
0000d0 ff 18 27 be 5f 8b c9 bd 83 47 82 3e 7e b9 9a 3e
       -0.16318129 -0.09841036 0.25445184 0.30219644
0000e0 13 26 63 3e c8 6b 24 3e 09 6a 8f 3e fe 53 d4 3d
       0.22182493 0.1605674 0.28010586 0.10367583
0000f0 04 f9 99 3d e7 c8 a6 be cd bc 41 be 14 d1 a4 be
       0.07518199 -0.3257515 -0.18919678 -0.32190764
000100 8f 0d 64 be 73 a2 83 3a 2b 7f 14 3e 4c e9 56 3e
       -0.22270797 0.001004292 0.14501636 0.20987433
000110 a0 0d 27 3e 92 3e 93 be 85 3d a5 3e 74 4f 84 3d
       0.16313791 -0.28758675 0.32273498 0.06460467
000120 93 3c c5 93 88 11 2a 38 60 72 8a b8 c0 36 a4 01
       -4.9789522e-27 4.0547486e-05 -6.601657e-05 6.032265e-38
000130 09 ca 6a 3d f1 32 18 1c 30 8a a3 bd 08 54 c7 bb
       0.057321582 5.035842e-22 -0.079853415 -0.0060830154
000140 fd 40 7a 39
       0.00023866068

bias f4 [9]
000000 df 25 93 3e 50 4b 67 bd cc 76 f3 bb 9d e4 30 bc
       0.2873983 -0.056468308 -0.007429933 -0.010796693
000010 3b 9f 4b 3e 4d f1 9c bc f2 0c 94 3e e7 79 53 3d
       0.1988496 -0.01915803 0.28916126 0.051629927
000020 d3 b3 ed bc
       -0.029016411
