ERTSNet/new_arch_LA/DT/T100_Hrot1/rq-1010_partial.pt (torch, 278693 bytes, 63 tensors)

weight_ih_l0 f4 [27, 15]
0	0x3ce50e5e	0.027960952
1	0x3e2b7506	0.1674386
2	0xbe547f12	-0.20751598
3	0xbd5a55ae	-0.053304367
4	0x3e7b6103	0.24548726
5	0x3ea53950	0.32270288
6	0xbe15d2d5	-0.14631207
7	0xbd2fbc95	-0.042904455
8	0x3d3ad0ba	0.045609213
9	0xbe88b2ae	-0.26698822
10	0xbe94b258	-0.29042315
11	0x3e311926	0.1729475
12	0xbe615ea4	-0.22008759
13	0xbdaf32f7	-0.08554643
14	0xbe7f5999	-0.24936523
15	0xbdd88f71	-0.10574234
16	0xbd9978a2	-0.07493712
17	0xbe9c5164	-0.30530846
18	0xbe06f58b	-0.13179605
19	0x3e9ab1c2	0.30213743
20	0xbe10c6cd	-0.14138336
21	0x3ea3a06f	0.3195834
22	0x3b32eb8b	0.002730104
23	0xbea2d285	-0.3180124
24	0x3db81604	0.08988574
25	0x3cc6f75b	0.02428787
26	0x3e92abd0	0.28646708
27	0xbc6968ac	-0.014246147
28	0xbe5bf7e1	-0.21481277
29	0x3e436f38	0.19085395
30	0xbe995d1b	-0.29953846
31	0x3c78431c	0.015152719
32	0xbc90b260	-0.01766318
33	0x3e6d581e	0.23178145
34	0xbe9c0fbf	-0.30480763
35	0x3d8d07b1	0.06886233
36	0xbea915dd	-0.33024493
37	0xbd14d745	-0.03633811
38	0xbc38e760	-0.011285633
39	0x3db255f8	0.087078035
40	0xbd6b0d0f	-0.0573855
41	0x3e92ef85	0.28698364
42	0xbe989593	-0.29801616
43	0xbe51a292	-0.20472172
44	0x3e87477a	0.2642172
45	0xbea0d77d	-0.31414405
46	0xbe684ca6	-0.22685489
47	0x3bb85d65	0.005626368
48	0xbe098c54	-0.13432437
49	0x3e8ae0ac	0.27124536
50	0xbe4a81d7	-0.19776092
51	0xbcb75b87	-0.02238251
52	0xbe19862e	-0.14992592
53	0xbe75431e	-0.23951384
54	0xbd8fca87	-0.07021051
55	0xbd5f7445	-0.054554243
56	0xbe50e200	-0.20398712
57	0x3dc5c8af	0.09657418
58	0x3e340c2f	0.17582773
59	0xbdf76f00	-0.120817184
60	0x3e7e81ec	0.24854249
61	0xbe7280ba	-0.23681918
62	0xbe6fdd27	-0.23424207
63	0x3cec5ff7	0.028854353
64	0x3e033153	0.12811784
65	0xbe12d1bb	-0.14337818
66	0xbe5a7311	-0.21332957
67	0x3e0b092f	0.13577722
68	0x3b4f4c81	0.0031631293
69	0x3e1a8fcc	0.15093917
70	0xbe870b09	-0.26375607
71	0x3e2f51c6	0.17121038
72	0xbe24db41	-0.16099264
73	0xbe96ab93	-0.29427776
74	0xbcf9d8b8	-0.030498847
75	0xbe6ace2a	-0.22930208
76	0xbdf2c35f	-0.1185367
77	0xbd7f49c2	-0.0623262
78	0xbd844e22	-0.06460215
79	0x3ea39ea2	0.31956965
80	0x3e8f6d77	0.28013203
81	0xbea90590	-0.33012056
82	0x3e87b7c7	0.26507398
83	0x3e168d5c	0.14702362
84	0xbceff216	-0.02929024
85	0xbe8a18f5	-0.26972166
86	0xbbcbd972	-0.00622099
87	0x3e8b7216	0.27235478
88	0xbe02ed56	-0.12785849
89	0xbe17d5cd	-0.14827652
90	0x3b2ccc68	0.0026366953
91	0x3b479a1a	0.0030456842
92	0x3e943ea7	0.2895405
93	0x3ea515de	0.32243246
94	0x3d2a56bf	0.041586634
95	0xbc4f519e	-0.012653736
96	0xbe7cb408	-0.24678051
97	0x3d7d990f	0.061913546
98	0x3df77e09	0.12084586
99	0xbda980d3	-0.082765244
100	0xbe13392e	-0.14377281
101	0xbe9f3002	-0.31091315
102	0xbe9e36b1	-0.309011
103	0x3e2de89d	0.16983266
104	0xbe0c7088	-0.13714802
105	0xbdfee0ff	-0.12445258
106	0xbe8728be	-0.2639827
107	0xbdda2ab9	-0.1065268
108	0x3e828687	0.2549326
109	0xbea9909e	-0.33118147
110	0xbe782a13	-0.242348
111	0xbea85661	-0.32878402
112	0xbe1bf9f8	-0.15232074
113	0xbb685304	-0.0035449872
114	0xbe98bb0f	-0.29830214
115	0x3e0a3214	0.13495666
116	0xbe237882	-0.15963939
117	0x3e03f623	0.12886862
118	0x3dec3c4b	0.115349375
119	0x3e5cd2f1	0.21564843
120	0xbe509876	-0.20370659
121	0xbe7e33cb	-0.24824445
122	0x3a866a72	0.0010255112
123	0xbdbce6a6	-0.0922368
124	0xbe184a17	-0.14872013
125	0x3dbcba76	0.09215252
126	0xbe51b7b5	-0.20480235
127	0x3e18cdde	0.14922282
128	0x3e941da7	0.28928873
129	0xbd924238	-0.071415365
130	0x3e9a7e1b	0.30174336
131	0x3dc18304	0.09448817
132	0x3e9932d6	0.29921597
133	0x3ea20b17	0.31649086
134	0xbd3ea025	-0.046539444
135	0x3e3a6e99	0.18206252
136	0xbd38348a	-0.04497198
137	0x3d4dc258	0.05023417
138	0xbe118825	-0.14212091
139	0x3e8abfc0	0.2709942
140	0xbe1ce221	-0.15320636
141	0x3dc44bd9	0.09584779
142	0x3e77b321	0.24189426
143	0x3d50dd63	0.05099238
144	0xbe8e9900	-0.27851105
145	0x3e2454f1	0.16048028
146	0x3e55ed6d	0.20891352
147	0x3e880fc7	0.26574537
148	0x3e0b775c	0.1361975
149	0x3ce7f51b	0.028315118
150	0xbea6bc7f	-0.32565686
151	0x3e1d4e42	0.15361884
152	0xbe01251f	-0.12611817
153	0xbe859638	-0.2609117
154	0xbe399525	-0.181233
155	0xbe347005	-0.17620857
156	0xbe7c72af	-0.24653123
157	0xbd2fbb08	-0.042902976
158	0xbdaf38cf	-0.08555757
159	0x3e8cb413	0.27481136
160	0x3e948b7f	0.29012677
161	0x3da3993b	0.07988211
162	0x3e80b970	0.25141478
163	0xbe160544	-0.14650446
164	0xbddc48c4	-0.107560664
165	0x3ddf7529	0.109110184
166	0xbe9ccd13	-0.3062521
167	0x3e1112a8	0.14167273
168	0x3dfeb61e	0.1243708
169	0x3e8f578b	0.27996477
170	0xbe05c225	-0.13062342
171	0xbe669735	-0.22518618
172	0xbea546f4	-0.32280695
173	0xbdbd958c	-0.092570394
174	0x3d69194e	0.056908898
175	0x3dbf1df1	0.09331883
176	0xbbaeadfa	-0.005330798
177	0x3e3bd762	0.18343881
178	0x3ea3b187	0.3197138
179	0x3e80b7b8	0.25140166
180	0xbe39ad7c	-0.18132585
181	0x3e9f0b3d	0.31063262
182	0x3ea045da	0.31303293
183	0xbe2d92b3	-0.16950493
184	0x3e69b06e	0.22821209
185	0x3e259778	0.16171062
186	0x3e19ef23	0.1503263
187	0x3e104a02	0.14090732
188	0x3dc3b310	0.09555638
189	0xbdf0e4be	-0.11762379
190	0xbe4a2cbd	-0.19743629
191	0x3e9c02f1	0.30470994
192	0xbe86ce64	-0.2632934
193	0xbcee6f86	-0.029105913
194	0x3eabbb38	0.33541274
195	0xbd90d622	-0.070720926
196	0xbe953dec	-0.29148805
197	0x3dafc9de	0.08583425
198	0xbe6781de	-0.22608134
199	0x3c9bfe16	0.019042056
200	0xbdc941b6	-0.098269865
201	0x3e4cead3	0.20011453
202	0xbe711c31	-0.2354591
203	0x3e0a65ee	0.13515446
204	0xbe8e636d	-0.2781023
205	0x3dda333b	0.10654303
206	0xbd4732fd	-0.04863261
207	0xbe10920b	-0.14118211
208	0x3e3ae178	0.18250072
209	0x3ea1b6dc	0.31584823
210	0xbe37789b	-0.17917101
211	0xbe9d3c3e	-0.30710024
212	0xbe0471e2	-0.12934068
213	0xbe422b16	-0.18961748
214	0x3ca6676c	0.020312987
215	0xbe6c27ea	-0.23062101
216	0xbe670e3f	-0.22564028
217	0x3e909c09	0.28244045
218	0x3ea88c4c	0.32919538
219	0xbe98da61	-0.2985411
220	0xbea38416	-0.3193671
221	0xbd150d92	-0.036389895
222	0x3e34f65f	0.17672108
223	0xbd933f46	-0.07189803
224	0x3de0fac4	0.1098533
225	0x3e602703	0.21889882
226	0x3e721082	0.2363911
227	0xbd790e2a	-0.060804524
228	0xbe1aa85a	-0.15103284
229	0xbe43a219	-0.19104804
230	0xbe757368	-0.23969805
231	0xbe5c2f89	-0.21502508
232	0x3e84fe35	0.25975195
233	0x3e4c78a2	0.19967893
234	0xbcf9ba90	-0.030484468
235	0xbe7e590c	-0.24838656
236	0x3e53bf4e	0.20678446
237	0xbe107ad4	-0.14109355
238	0x3d438174	0.047730878
239	0xbd9ba2cc	-0.075994104
240	0xbe971f7e	-0.29516214
241	0x3dbad140	0.091219425
242	0x3e98800b	0.2978519
243	0xbe917aeb	-0.2841409
244	0xbe9097a3	-0.2824069
245	0x3c2073a2	0.009793194
246	0x3d381d5a	0.044949867
247	0xbdf1a7de	-0.11799596
248	0x3ea746f8	0.32671332
249	0x3e894aa6	0.26814765
250	0x3e88e2ba	0.2673548
251	0xbd883832	-0.066513434
252	0xbde1f4dd	-0.11033032
253	0xbe4a3ce2	-0.19749787
254	0xbe061cc4	-0.1309691
255	0x3de2de82	0.11077596

weight_hh_l0 f4 [27, 9]
0	0xbd5ac84e	-0.05341368
1	0x3e561317	0.2090572
2	0x3dbd5aca	0.09245832
3	0x3e6b9d9a	0.23009339
4	0xbd4c0c6e	-0.04981654
5	0xbe80e8ad	-0.25177518
6	0x3e09f4d1	0.13472296
7	0x3e99ec80	0.30063248
8	0x3e3a7cf3	0.18211727
9	0xbe12629d	-0.1429543
10	0xbe0683f4	-0.13136274
11	0xbe6409bf	-0.22269343
12	0xbe4c4310	-0.19947457
13	0x3d971bcf	0.07378351
14	0xbd9b3c33	-0.075798415
15	0x3ddcfb00	0.10790062
16	0xbe5d5e96	-0.21618113
17	0x3bae4e1e	0.005319371
18	0xbe88c813	-0.26715145
19	0x3e9d17d4	0.30682242
20	0x3e83609c	0.25659645
21	0x3d1a08a6	0.037605904
22	0xbbff1592	-0.007784554
23	0x3da48797	0.08033674
24	0x3e3b348f	0.18281768
25	0x3e4bf9ea	0.19919553
26	0x3d4fb2be	0.05070757
27	0x3e28d0c3	0.16485886
28	0x3ea3ee52	0.3201776
29	0x3dd6b5b4	0.10483876
30	0xbe37904c	-0.17926139
31	0xbe5de7cb	-0.21670453
32	0xbe60b5e7	-0.2194439
33	0xbdc21e6e	-0.0947846
34	0x3e3166db	0.17324392
35	0xbd90e8f1	-0.0707568
36	0xbe8e5ac7	-0.27803633
37	0x3e391228	0.18073332
38	0x3a81450a	0.0009862494
39	0x3e85a4f2	0.26102406
40	0x3dbc7fa9	0.09204037
41	0xbe9f880c	-0.31158483
42	0x3e971980	0.29511642
43	0x3e2efbb9	0.17088212
44	0xbe5223cc	-0.20521468
45	0x3e089363	0.13337474
46	0xbe617f5b	-0.22021239
47	0xbdb1e2bf	-0.086858265
48	0xbe1449bc	-0.14481252
49	0xbe4abb14	-0.19797927
50	0xbc72920a	-0.014805326
51	0xbe413573	-0.18868046
52	0x3ea08c88	0.31357217
53	0x3c2be767	0.010492182
54	0x3dbe0188	0.09277636
55	0x3e0d3183	0.13788418
56	0xbdacec7b	-0.084435426
57	0xbc83270f	-0.016009836
58	0x3c5fe61e	0.013665704
59	0x3e1e4f9d	0.15460058
60	0x3d54f934	0.05199547
61	0x3dd1d419	0.102455325
62	0x3ea3f154	0.32020056
63	0xbe93a8e7	-0.288398
64	0xbd353d69	-0.04424802
65	0xbd9c7542	-0.07639553
66	0xbda9bbfb	-0.082878076
67	0xbcfd594e	-0.030926373
68	0xbcd3add2	-0.02583972
69	0x3e9c8626	0.30571097
70	0x3e92e377	0.28689167
71	0xbe9fe8c1	-0.31232265
72	0xbd338488	-0.043827564
73	0xbe16d4b0	-0.14729571
74	0x3e3a5c21	0.18199207
75	0xbea3882b	-0.31939825
76	0x3dc3327d	0.09531114
77	0xbda64e2d	-0.081203796
78	0xbba9e7b0	-0.00518509
79	0xbe8b3cfb	-0.27194962
80	0xbe6584dd	-0.22413965
81	0x3e9af776	0.30266923
82	0x3e1cf911	0.15329386
83	0x3e2c1dbc	0.16808218
84	0x3e895a83	0.26826867
85	0xbb3fa5a8	-0.0029243026
86	0x3e4e953c	0.20174116
87	0xbe306744	-0.17226893
88	0xbe13bf34	-0.14428407
89	0xbcf97bb9	-0.030454503
90	0x3e8ffe59	0.2812374
91	0xbe522538	-0.2052201
92	0xbd18ac81	-0.037273888
93	0xbe92687f	-0.2859535
94	0xbe8b59d2	-0.27216965
95	0xbc9cae42	-0.019126061
96	0x3e0b3669	0.13594975
97	0xbe78cdf4	-0.24297315
98	0x3de05328	0.10953361
99	0xbda42d4d	-0.08016453
100	0xbe843f2b	-0.25829443
101	0xbe975985	-0.29560485
102	0xbe2203a5	-0.15821703
103	0xbea15f54	-0.31518042
104	0xbe7a474c	-0.2444126
105	0x3e4dedc8	0.20110238
106	0x3d14e3d9	0.036350105
107	0xbd524572	-0.05133576
108	0x3e6ad0de	0.22931239
109	0xbe1efbec	-0.15525788
110	0x3e50cd67	0.20390855
111	0xbe678197	-0.22608028
112	0x3e2fa08c	0.17151088
113	0x3e91544e	0.28384632
114	0x3e67831c	0.22608608
115	0x3e0493b4	0.1294697
116	0xbd8fd39d	-0.07022784
117	0xbe63ac91	-0.22233798
118	0x3e822450	0.2541833
119	0x3e58ac64	0.21159512
120	0xbe7b5658	-0.24544656
121	0x3d1cfb3c	0.038325533
122	0x3dc3d99f	0.09562992
123	0x3df77415	0.12082688
124	0xbe32132d	-0.17390127
125	0xbe6d6db5	-0.23186381
126	0xbd721070	-0.059097707
127	0x3e003948	0.12521851
128	0xbe0d5992	-0.138037
129	0x3ea109ae	0.31452698
130	0xbea91e15	-0.33030763
131	0xbde793e0	-0.11307502
132	0x3e46000b	0.19335954
133	0x3e8df00a	0.27722198
134	0xbe28ae24	-0.1647268
135	0x3d34127f	0.04396295
136	0x3e9d32f8	0.3070295
137	0xbd2cd7e2	-0.04219807
138	0xbdffdb51	-0.12493003
139	0x3e81e779	0.25371912
140	0xbe446909	-0.19180693
141	0x3e956b8a	0.29183608
142	0xbe8f39b8	-0.27973723
143	0xbea2c57c	-0.31791294
144	0x3dba7591	0.09104455
145	0xbd3c43d6	-0.04596313
146	0xbd92801a	-0.0715334
147	0xbd67fe70	-0.056639135
148	0x3dd70b75	0.10500232
149	0xbe881189	-0.26575878
150	0x3dbcd2a9	0.09219868
151	0x3e98ef25	0.29869953
152	0xbd076455	-0.03305467
153	0x3ea16f99	0.31530455
154	0xbe8b9446	-0.2726156
155	0xbe0b0d5a	-0.13579312
156	0xbda87d00	-0.08226967
157	0xbe2afae5	-0.16697271
158	0x3d8d4d89	0.06899554
159	0xbd26f2ee	-0.04075902
160	0x3e7073fc	0.23481745
161	0x3e0ba621	0.13637592
162	0xbe9c2d07	-0.30503103
163	0xbdc9faaa	-0.098622635
164	0x3e9b7e94	0.3037001
165	0xbe8141ac	-0.25245416
166	0x3e992ed9	0.29918554
167	0xbe9ff9a2	-0.31245142
168	0x3e05df17	0.13073383
169	0xbe0cf218	-0.13764226
170	0x3d49ff44	0.049315706
171	0x3e60df14	0.21960098
172	0x3d42fe11	0.047605578
173	0xbdb4a953	-0.088213585
174	0x3e300f5f	0.17193364
175	0x3e90a085	0.28247467
176	0x3ea32508	0.3186419
177	0x3d718eca	0.058974065
178	0x3e18de5c	0.14928573
179	0x3ea41bb7	0.32052395
180	0x3d668558	0.05627951
181	0x3e7e91cc	0.24860305
182	0x3ca34c61	0.019933881
183	0x3e93a6ee	0.28838295
184	0xbd7c9f50	-0.06167537
185	0xbe474c42	-0.19462684
186	0x3df326f5	0.11872665
187	0x3db62b0e	0.08894931
188	0x3e004c27	0.1252905
189	0x3e3e3187	0.1857358
190	0xbe80c13e	-0.25147432
191	0xbe81e0dd	-0.2536687
192	0xbe498a92	-0.19681767
193	0x3e31875b	0.1733679
194	0x3dc6e061	0.09710766
195	0x3e845756	0.25847882
196	0xbde9c1eb	-0.1141394
197	0xbd28e672	-0.041235395
198	0xbe395857	-0.18100105
199	0x3dc8858b	0.09791096
200	0xbe4918a8	-0.19638312
201	0x3e738ce1	0.2378421
202	0xbdfddc80	-0.12395573
203	0xbc904eb0	-0.017615646
204	0xbd58af62	-0.052901633
205	0xbdc0f7a5	-0.094222344
206	0xbe419f96	-0.18908533
207	0x3e1a743b	0.15083401
208	0xbea0d054	-0.31408942
209	0x3e82de78	0.25560355
210	0x3e9beda6	0.3045475
211	0x3d42acb9	0.047528002
212	0xbcdd347f	-0.027002571
213	0xbd801e61	-0.06255794
214	0xbe1d0d12	-0.15337017
215	0x3ea11f13	0.3146902
216	0x3e0bee16	0.13665041
217	0xbe6392f6	-0.2222403
218	0x3e71ebe1	0.23625137
219	0xbb38aeba	-0.0028180317
220	0xbdc9e412	-0.09857954
221	0x3e093b0c	0.13401431
222	0x3e73c8bd	0.23807044
223	0x3ddf289d	0.10896418
224	0x3e2dcc53	0.16972475
225	0x3e11a392	0.14222553
226	0xbded518f	-0.11587822
227	0xbdacfae5	-0.08446292
228	0x3d84e688	0.06489283
229	0xbda566eb	-0.08076271
230	0x3d81b210	0.06332791
231	0x3e76afb7	0.24090467
232	0xbd36894d	-0.044564534
233	0x3e6337f5	0.22189315
234	0xbce41f73	-0.027847027
235	0xbe6dabfb	-0.23210137
236	0x3dfac982	0.12245466
237	0xbe6ec328	-0.23316634
238	0xbe325431	-0.17414929
239	0x3e6076f8	0.21920383
240	0x3d8c25be	0.06843136
241	0x3d54994a	0.051904
242	0x3e73e8ac	0.23819226

bias_ih_l0 f4 [27]
0	0xbea2e852	-0.3181787
1	0xbea820d8	-0.32837558
2	0xbe7e064c	-0.2480709
3	0x3d5e41a2	0.05426181
4	0x3df653ad	0.12027679
5	0x3e209381	0.15681268
6	0x3c4a5dd7	0.012351475
7	0x3e206b24	0.15665871
8	0x3e1de640	0.15419865
9	0xbe12b5e6	-0.14327201
10	0x3e5eb5ff	0.21749114
11	0xbe540554	-0.20705158
12	0x3ea87e5d	0.32908908
13	0x3d91e1ec	0.07123169
14	0x3e78f058	0.24310434
15	0xbe82dd1b	-0.25559315
16	0xbeaa76ad	-0.33293667
17	0x3dc5052a	0.096201256
18	0x3e1aefdc	0.15130562
19	0x3d41e28f	0.047335204
20	0x3e77e77e	0.24209401
21	0xbd87767e	-0.066143975
22	0x3ea6991a	0.32538682
23	0x3e039c71	0.12852646
24	0xbdecb53d	-0.11558006
25	0xbe054636	-0.13015065
26	0x3e3a4123	0.1818891

bias_hh_l0 f4 [27]
0	0x3e687f59	0.2270483
1	0xbe913e8b	-0.2836803
2	0x3e575abb	0.21030705
3	0x3bfd72fe	0.0077346554
4	0xbbbe9b69	-0.005816866
5	0xbd2d9c4d	-0.04238539
6	0x3da8e177	0.08246129
7	0x3e70844e	0.2348797
8	0xbdf8ea0d	-0.12154017
9	0x3e937e9b	0.2880753
10	0x3e152a77	0.1456698
11	0x3dcdae56	0.100430176
12	0x3e1e3a4c	0.15451926
13	0x3e50a521	0.20375492
14	0xbe8627ea	-0.26202327
15	0xbdc3bba9	-0.09557278
16	0x3ea73939	0.32660845
17	0x3e96e06e	0.294681
18	0x3e891ab4	0.26778185
19	0xbdb3fe18	-0.08788699
20	0x3e440412	0.19142178
21	0xbde30bb7	-0.11086219
22	0xbe87117e	-0.26380533
23	0x3e805034	0.2506119
24	0x3e0f87ef	0.14016698
25	0xbd0fe2f7	-0.03512856
26	0x3c17a335	0.00925522

weight_ih_l0 f4 [27, 24]
0	0x3dc71b9d	0.09722064
1	0xbd09b732	-0.033621974
2	0x3e991501	0.29898837
3	0x3dc0bf13	0.094114445
4	0x3e82533c	0.25454128
5	0x3dba3d3f	0.09093713
6	0xbd0f97a2	-0.035056718
7	0xba9c835b	-0.0011941002
8	0xbdbd6901	-0.092485435
9	0x3d26b396	0.04069861
10	0xbe9acc9c	-0.3023423
11	0x3de7200a	0.11285408
12	0xbd050d43	-0.03248335
13	0x3e1b8228	0.1518637
14	0xbda046a6	-0.07825975
15	0xbd3d41fe	-0.046205513
16	0xbe5d4544	-0.21608454
17	0x3e814cb1	0.25253823
18	0xbe73d323	-0.23811011
19	0xbe9d4124	-0.3071376
20	0x3e6692a9	0.22516884
21	0xbea739ab	-0.32661185
22	0x3d6dda57	0.058069553
23	0xbde40992	-0.11134638
24	0x3daf9937	0.08574145
25	0xbe7542e1	-0.23951294
26	0xbdbf0273	-0.09326639
27	0xbd76a9a6	-0.060220383
28	0xbe37202d	-0.17883368
29	0xbda32717	-0.0796644
30	0xbe166cac	-0.14689893
31	0x3d0b3abb	0.033991557
32	0xbe4bf222	-0.19916585
33	0xbe6ac617	-0.22927128
34	0xbe8e4cd5	-0.27792993
35	0xbea0f192	-0.31434304
36	0x3dccf01d	0.100067355
37	0xbe891f9e	-0.26781934
38	0x3d19fc7c	0.037594303
39	0xbbc0f885	-0.005889001
40	0x3e39dba9	0.181502
41	0x3dc36a88	0.095418036
42	0x3ca0548c	0.019571565
43	0xbe228d14	-0.1587413
44	0x3e65e64f	0.22451137
45	0xbd754612	-0.059881277
46	0x3d03ec0b	0.03220753
47	0xbe32c39a	-0.17457429
48	0xbd8b8dbd	-0.06814144
49	0xbdd71903	-0.105028175
50	0xbdb82eb5	-0.08993284
51	0xbcd55b3a	-0.026044477
52	0x3d04878a	0.032355823
53	0x3e49aa27	0.19693814
54	0x3aedfe55	0.0018157462
55	0x3e28423b	0.16431515
56	0xbe4f71e9	-0.20258297
57	0x3e60da6f	0.21958326
58	0x3dcb9bdc	0.09941837
59	0xbd847523	-0.064676546
60	0x3e2688b0	0.1626308
61	0x3dcad7f4	0.09904471
62	0x3e4d27b8	0.20034683
63	0x3d451259	0.0481132
64	0x3e6ebe77	0.23314844
65	0x3cde773d	0.027156467
66	0x3dc2752e	0.094950065
67	0xbe5362d9	-0.20643176
68	0xbe83a31c	-0.2571038
69	0xbd2d1592	-0.0422569
70	0xbdbbb52d	-0.09165416
71	0xbd9f4717	-0.07777231
72	0x3b6e0703	0.0036320097
73	0xbe7dae78	-0.24773586
74	0x3e8c06e3	0.27349004
75	0xbe7b73b0	-0.2455585
76	0xbe303cb3	-0.17210655
77	0x3e588a91	0.21146609
78	0x3e8af161	0.27137282
79	0xbdd38181	-0.10327435
80	0xbe4d60db	-0.20056479
81	0xbdcdc992	-0.10048212
82	0xbe1174e8	-0.14204752
83	0x3e1ad532	0.1512039
84	0xbea16f39	-0.3153017
85	0xbd285c2d	-0.04110353
86	0xbe98dc16	-0.29855412
87	0xbda03038	-0.07821697
88	0xbe846e59	-0.2586544
89	0x3d02230d	0.03177171
90	0x3dc9e262	0.09857632
91	0x3c30b20a	0.010784635
92	0xbdac9987	-0.084277205
93	0x3dfac701	0.12244988
94	0x3e2fea73	0.17179279
95	0x3e4a6c32	0.19767836
96	0x3decdc6c	0.1156548
97	0x3e29d63a	0.16585627
98	0x3e663830	0.22482371
99	0x3c8a45a9	0.01687892
100	0x3d352cdb	0.04423223
101	0xbc9fc651	-0.019503744
102	0xbd18f0e1	-0.037339095
103	0xbdb9ab6c	-0.09065899
104	0xbe8b6a3b	-0.27229485
105	0x3ea985d6	0.3310992
106	0xbd531cd7	-0.051541176
107	0x3de129a7	0.10994273
108	0x3eac715d	0.3368024
109	0x3cfdb861	0.030971708
110	0xbd995ed6	-0.07488792
111	0xb6021ba4	-1.9387599e-06
112	0x3cd3af92	0.025840554
113	0xbd279c43	-0.040920507
114	0xbde1c3e1	-0.11023689
115	0x3dedb972	0.116076365
116	0x3dfa163e	0.122112736
117	0xbea9c984	-0.33161557
118	0xbe3db43f	-0.1852579
119	0x3e7cc649	0.24685015
120	0xbe581978	-0.21103466
121	0x3e5fb0a4	0.21844727
122	0x3e266170	0.16248107
123	0xbdad3909	-0.08458144
124	0xbe58f243	-0.21186166
125	0xbd9abec8	-0.0755592
126	0xbe236ef2	-0.15960291
127	0x3ddcbba3	0.10777976
128	0xbe651778	-0.22372234
129	0xbeaab71c	-0.33342826
130	0x3db579f8	0.08861154
131	0xbea501b6	-0.32227868
132	0x3e7505fa	0.23928061
133	0xbdea848f	-0.11451065
134	0xbe2293f5	-0.15876754
135	0xba975be5	-0.0011547772
136	0xbdec571d	-0.11540053
137	0x3e6d3bcf	0.23167346
138	0xbe8c51fa	-0.27406293
139	0x3e8261ec	0.25465333
140	0xbe8899bc	-0.2667979
141	0xbe21a634	-0.15786058
142	0x3cd1fbaa	0.025632698
143	0xbdc27839	-0.09495587
144	0x3e98ef9c	0.29870307
145	0xbe0fb9fc	-0.14035791
146	0x3d8d94dd	0.06913159
147	0x3e43dd4a	0.19127384
148	0xbe436277	-0.1908053
149	0x3d3b0f0e	0.045668654
150	0x3e24483f	0.16043185
151	0x3e00d9ca	0.1258308
152	0xbea7185c	-0.32635772
153	0xbe7e7fda	-0.24853459
154	0xbe10c642	-0.1413813
155	0xbe1c8191	-0.152838
156	0x3d836d44	0.06417325
157	0x3e0c381e	0.13693282
158	0xbe2c4058	-0.1682142
159	0xbdd97bcf	-0.10619318
160	0xbd31cae6	-0.04340639
161	0xbe1da3be	-0.15394494
162	0x3e0bb0cf	0.13641666
163	0xbe1130e0	-0.141788
164	0xbe552298	-0.20813978
165	0xbdfb26a3	-0.12263229
166	0x3df277f1	0.11839283
167	0xbd4e758a	-0.050405063
168	0xbe6ae4d5	-0.22938855
169	0x3e99ff6b	0.3007768
170	0xbca92f2f	-0.020652382
171	0x3e4a3076	0.19745049
172	0x3ea4a04d	0.3215355
173	0xbe0d1f8b	-0.13781564
174	0x3def24ab	0.11676916
175	0x3e8aedc7	0.27134535
176	0xbc7d6d76	-0.015467992
177	0xbe9d7f1a	-0.30761033
178	0x3dea216b	0.11432155
179	0xbd306f17	-0.043074694
180	0x3e93dc23	0.28878888
181	0xbce3657c	-0.027758352
182	0x3e8c79c4	0.2743665
183	0xbda4d46f	-0.08048331
184	0xbddc655b	-0.107615195
185	0x3e2652e7	0.16242562
186	0xbe431d01	-0.19054033
187	0x3dbe4e8f	0.092923276
188	0xbd38f74a	-0.04515771
189	0xbdaaf36a	-0.08347209
190	0xbe93afb0	-0.28844976
191	0x3c72bf21	0.0148160765
192	0x3e01af01	0.12664415
193	0xbe80ac2e	-0.25131363
194	0xbdb87e5d	-0.09008477
195	0xbe328acf	-0.17435764
196	0x3d6fd906	0.05855658
197	0xbe949426	-0.29019278
198	0x3e95d39b	0.29263005
199	0x3e228054	0.15869266
200	0x3d9fa71a	0.07795544
201	0x3e2d0457	0.16896187
202	0x3e46feab	0.19433086
203	0xbe29a0d1	-0.16565253
204	0x3d465980	0.048425198
205	0x3e9fd9e6	0.3122093
206	0xbe8eca2f	-0.2788863
207	0xbe1670c0	-0.14691448
208	0xbe40759e	-0.18794867
209	0xbd19fe64	-0.03759612
210	0x3e735ece	0.23766634
211	0x3e0d733c	0.1381349
212	0xbe9065d9	-0.28202704
213	0x3e4b46f8	0.19851291
214	0xbe381892	-0.17978123
215	0xbd621641	-0.055197004
216	0xbe723304	-0.23652273
217	0x3da9235b	0.08258697
218	0x3d3dbe10	0.046323836
219	0xbd826908	-0.06367689
220	0x3d2002ef	0.039065298
221	0xbe0e0919	-0.13870658
222	0xbe05b3f1	-0.13056923
223	0xbe85ea18	-0.26155162
224	0xbe7d07f9	-0.24710073
225	0x3d883133	0.06650009
226	0x3e309ac0	0.17246532
227	0xbe0f6a2e	-0.14005348
228	0xbe337235	-0.17524035
229	0xbd45443a	-0.04816077
230	0x3e6a4926	0.22879466
231	0x3e208e71	0.15679337
232	0xbe41a996	-0.18912348
233	0xbdb34695	-0.08753697
234	0x3c179098	0.009250782
235	0x3e033916	0.12814745
236	0x3e97bdc6	0.29636973
237	0x3e536d26	0.20647106
238	0xbe9c02aa	-0.30470783
239	0xbdb5ecd4	-0.08883062
240	0x3e24cc6d	0.16093607
241	0x3de624ee	0.112375125
242	0x3ce66859	0.028125929
243	0x3e31afca	0.17352214
244	0x3de39013	0.11111464
245	0xbdb48a46	-0.08815436
246	0x3e10eee0	0.14153624
247	0x3ea0ddf6	0.31419343
248	0x3ce8b0a8	0.028404549
249	0xbd6e69ca	-0.058206357
250	0x3df9fbe2	0.12206246
251	0xbe1b81c6	-0.15186223
252	0x3da7eec3	0.08199837
253	0x3e1585e0	0.1460185
254	0xbe866b70	-0.26253843
255	0x3b41e748	0.0029587317

weight_hh_l0 f4 [27, 9]
0	0x3d87a3ce	0.0662304
1	0x3db2523e	0.08707093
2	0xbe58f709	-0.21187986
3	0xbe481380	-0.19538689
4	0x3b02bbb0	0.0019948296
5	0xbda35533	-0.07975235
6	0xbd90c9b0	-0.07069719
7	0x2c516480	2.9756475e-12
8	0xbce5ccba	-0.028051723
9	0x3e919e63	0.28441152
10	0x3e6e5838	0.2327584
11	0x3e70f949	0.23532595
12	0x3d6d1c2e	0.057888202
13	0x39571d08	0.00020514813
14	0x3e531650	0.2061398
15	0x3d969c10	0.07353985
16	0xbdac260f	-0.084056966
17	0xbc1979da	-0.009367431
18	0x3e8071db	0.25086865
19	0xbd987a13	-0.07445159
20	0xbe8f4415	-0.2798163
21	0x3b8a33d8	0.004217606
22	0xbc84ce21	-0.016211571
23	0x3e337c06	0.1752778
24	0xbc8e6cb1	-0.017385812
25	0xbcc428e6	-0.023945283
26	0xb6a26c74	-4.840602e-06
27	0x3d0f321c	0.034959897
28	0x3e6d3c5b	0.23167555
29	0x3767e2e0	1.3821496e-05
30	0x3ce6eadd	0.028188163
31	0xbc17375e	-0.009229509
32	0x3dfd8077	0.12378018
33	0x3da65e45	0.08123449
34	0xbdad223a	-0.08453794
35	0xbd4d073a	-0.05005572
36	0x3e9e4fa4	0.30920136
37	0x3e8bc50e	0.27298778
38	0x3e9813ea	0.29702693
39	0xbe194002	-0.14965823
40	0xb790c37d	-1.7257169e-05
41	0x3e16e7ed	0.1473691
42	0xbc628ef7	-0.013828031
43	0x3dae9202	0.085239425
44	0xbd80fd00	-0.06298256
45	0x3e8aa230	0.27076864
46	0xbe6d5127	-0.23175488
47	0xbe834d7f	-0.25645062
48	0x3de36b36	0.11104433
49	0x30767dcf	8.9673063e-10
50	0xbdb9f454	-0.09079805
51	0xbe00877b	-0.12551682
52	0x3b8b1246	0.0042441217
53	0x3cf57918	0.029964969
54	0xbdb0c260	-0.08630824
55	0xbde7dad6	-0.113210365
56	0xbe43ad8f	-0.19109176
57	0x3e8dcd3e	0.2769565
58	0x2ed34622	9.607627e-11
59	0xbe470764	-0.19436413
60	0xbd807d33	-0.0627388
61	0x2d6269fa	1.2870144e-11
62	0xb900461a	-0.00012233146
63	0x3cf3910f	0.029732255
64	0xbeac0ccd	-0.33603516
65	0x3e955b9b	0.29171452
66	0x3e391368	0.18073809
67	0xbe1f08b6	-0.15530667
68	0xbe0b594e	-0.13608286
69	0xbe175587	-0.1477872
70	0x3d409886	0.047020458
71	0x3ca7f960	0.020504653
72	0x3c4307fe	0.011903761
73	0x3e916902	0.28400427
74	0x3d90a1e6	0.0706213
75	0xbe51fbac	-0.20506161
76	0x3e03b0a1	0.12860347
77	0x3defd03d	0.1170964
78	0x297d94e2	5.630642e-14
79	0xbbebd360	-0.0071968287
80	0xb4b3941d	-3.3449115e-07
81	0x3d87a449	0.06623132
82	0x3e79dec3	0.24401383
83	0xbe82b53e	-0.25528902
84	0x3ea79a01	0.32734683
85	0xb35d579b	-5.153525e-08
86	0xbd3455ad	-0.04402702
87	0xbdc35fcc	-0.09539756
88	0x3e10ff60	0.14159918
89	0xbdcab9a4	-0.098986894
90	0xbd4b6e7f	-0.049665924
91	0x3dedf159	0.11618299
92	0x3e3ce4a7	0.18446599
93	0x3dc60ceb	0.09670433
94	0xb751a6f7	-1.2496245e-05
95	0x3e9bebc1	0.30453303
96	0xbe0ef263	-0.1395965
97	0x3b856702	0.0040711174
98	0xbdde032b	-0.10840448
99	0xbe3a366d	-0.18184824
100	0x3d9496a1	0.07255293
101	0x3d9e99dc	0.0774419
102	0xbe89bc8d	-0.26901665
103	0x3e0b5013	0.13604765
104	0xbe04052f	-0.12892602
105	0xaad49fca	-3.776964e-13
106	0x3d26db56	0.04073652
107	0xbe17058b	-0.14748208
108	0xbe9b1d68	-0.30295873
109	0xbdafe8db	-0.085893355
110	0xbdcebe08	-0.10094839
111	0xbe709255	-0.23493321
112	0xbd77a80c	-0.060462996
113	0xbe091db1	-0.13390233
114	0xb7d8c6b7	-2.584174e-05
115	0xba15638d	-0.0005698733
116	0xb9e603ed	-0.00043871943
117	0xbe349ee8	-0.17638743
118	0xbe4e89df	-0.20169781
119	0x3e4a2601	0.1974106
120	0x3e583ecb	0.21117704
121	0xbe11bc9e	-0.14232108
122	0x3dab7d4c	0.08373508
123	0x3c2d84a6	0.010590708
124	0x39937cba	0.00028130953
125	0x32ee110c	2.7714599e-08
126	0x3e283e6e	0.16430065
127	0x3e873687	0.2640879
128	0xbc348a13	-0.011019248
129	0xbe932c33	-0.2874466
130	0x3ce2dff3	0.027694678
131	0x3e38526b	0.1800019
132	0x3db3d352	0.087805405
133	0x3e156d4c	0.14592475
134	0x39915dee	0.00027726538
135	0xbdf33f86	-0.118773505
136	0xbe2007ac	-0.15627927
137	0x3b039fb3	0.0020084202
138	0xbe2a79a0	-0.16647959
139	0xb6bc59a4	-5.613272e-06
140	0x3d4ad4f8	0.04951951
141	0xbd3b9f05	-0.04580595
142	0xba241c74	-0.00062603434
143	0x3b6c2a5e	0.0036035995
144	0xbe2416f9	-0.16024388
145	0x3ea14821	0.31500342
146	0xbe4c6fcc	-0.19964522
147	0xbe2cb4ee	-0.16865894
148	0x3d3440ae	0.044006996
149	0xbe5ed254	-0.21759921
150	0x2b48dcbf	7.136062e-13
151	0x33c22212	9.040026e-08
152	0xbd80d1fd	-0.06290052
153	0xbdc6ecf1	-0.09713162
154	0xbe58f742	-0.21188071
155	0xbe121d58	-0.14269006
156	0x3e5ba0ec	0.21448106
157	0xbdb3379b	-0.0875084
158	0x3d357630	0.044302166
159	0xbde0f9d6	-0.109851524
160	0xb6855822	-3.973969e-06
161	0xbdb74ada	-0.08949824
162	0xbe857a06	-0.2606966
163	0xbca7db33	-0.020490265
164	0xbe5c0d73	-0.21489505
165	0x3e394d2c	0.18095845
166	0x3a973887	0.0011537232
167	0xbd3ef21b	-0.04661761
168	0xaee7b98f	-1.05376256e-10
169	0x2cd7393d	6.1170223e-12
170	0xbc972e4b	-0.018454691
171	0xbea3d53e	-0.31998628
172	0x3e43e9e9	0.19132198
173	0x3e46d2fd	0.19416423
174	0x3ea42524	0.32059586
175	0x3e0ee0e5	0.13952978
176	0xbe5017b3	-0.2032154
177	0x3e18878b	0.14895456
178	0xbde2aad0	-0.11067736
179	0xbe10aa7b	-0.14127533
180	0x3baf0936	0.005341674
181	0xbe7f5ec0	-0.24938488
182	0x3ea9f9c8	0.3319838
183	0xbdf000b2	-0.117188826
184	0x2b927234	1.0405622e-12
185	0x3e72cec6	0.2371169
186	0x3388831a	6.356841e-08
187	0xbd8512dc	-0.06497738
188	0x3db3b530	0.08774793
189	0xbe9f682f	-0.31134173
190	0x3d3def12	0.046370573
191	0x3e9e3118	0.3089683
192	0xbe86b911	-0.2631307
193	0xb9744165	-0.00023294015
194	0x3dc703ae	0.09717499
195	0xbbecafd0	-0.007223107
196	0xbb57bc50	-0.003291864
197	0xbb7e9b5d	-0.0038849928
198	0xbe92bd53	-0.28660068
199	0xbe4b1c06	-0.19834909
200	0x3ca1f151	0.019768389
201	0xbdfa6ac3	-0.122273944
202	0xbe080c7e	-0.13286015
203	0x3d650ab0	0.055918396
204	0x3cd90cf7	0.02649544
205	0xbd0a588c	-0.03377585
206	0xbdcd639c	-0.100287646
207	0xbdbeaed0	-0.093106866
208	0xbdaee87b	-0.08540436
209	0xbdad6277	-0.08466046
210	0xbdf7cd43	-0.120996974
211	0x32d32ebd	2.4584887e-08
212	0x3e919123	0.28431043
213	0xbdf140a4	-0.11779907
214	0x3d9d457f	0.07679271
215	0x3d9d9fbf	0.07696485
216	0x3e2bc4ff	0.16774367
217	0xbdf6437f	-0.120245926
218	0x3d7116e6	0.05885973
219	0xbe4e6691	-0.20156313
220	0x3de4b4bb	0.11167284
221	0xbe602a3b	-0.2189111
222	0x3d340237	0.043947425
223	0x3c4a77f8	0.012357704
224	0x3db832ee	0.08994089
225	0xbe1f11da	-0.15534154
226	0x3e0ad07d	0.13556094
227	0x3e67c42e	0.2263343
228	0x3d073373	0.03300805
229	0xbc73e307	-0.0148856705
230	0x3e81e539	0.25370196
231	0xbccbbde1	-0.024870815
232	0xa81da4b2	-8.750963e-15
233	0xb7daefab	-2.609923e-05
234	0x3e796413	0.24354582
235	0xbe8d9a16	-0.2765662
236	0xbd6f3e39	-0.05840895
237	0xbe358c60	-0.1772933
238	0xbd82c855	-0.063858666
239	0xbd68e619	-0.056860063
240	0x3e05ae31	0.1305473
241	0x383df0db	4.5285426e-05
242	0xbd0dd0d9	-0.034623

bias_ih_l0 f4 [27]
0	0x3e646b4d	0.22306557
1	0xbe21642e	-0.15760872
2	0xbd5659d8	-0.052331775
3	0xbc6b2780	-0.014352679
4	0x3d48a5ab	0.04898612
5	0x3e6da63d	0.23207946
6	0x3e40d080	0.18829536
7	0x3e9a64bf	0.30154988
8	0xbe308203	-0.17237096
9	0x3ea14825	0.31500354
10	0xbe6d8301	-0.23194505
11	0x3e159db7	0.14610945
12	0x3d861fc0	0.065490246
13	0xbe3e9f35	-0.1861542
14	0x3e1cd66e	0.15316173
15	0x3e3a1099	0.18170394
16	0x3e696221	0.2279134
17	0x3e83fbe7	0.25778124
18	0xbe444e6f	-0.19170545
19	0xbea9c207	-0.33155844
20	0xbe9dfbca	-0.30856162
21	0x3e8379da	0.25678903
22	0x3e9045c3	0.28178224
23	0x3c8ed85e	0.017437156
24	0xbcaef0b8	-0.021355018
25	0x3d606b06	0.054789566
26	0xbe800866	-0.25006407

bias_hh_l0 f4 [27]
0	0xbce46476	-0.027879935
1	0xbdac78f2	-0.08421506
2	0x3c062311	0.008187071
3	0xbe983570	-0.2972827
4	0x3d4d8716	0.050177656
5	0xbea3575e	-0.31902593
6	0xbe9e51c9	-0.30921772
7	0x3db91efd	0.09039114
8	0x3e9e654a	0.30936652
9	0xbe852b28	-0.26009488
10	0x3e23563d	0.15950866
11	0x3e25826f	0.16163038
12	0x3e315e3d	0.17321105
13	0xbe86b015	-0.26306215
14	0xbce37754	-0.027766861
15	0xbe6d3d40	-0.23167896
16	0xbe8da008	-0.27661157
17	0x3e9250bd	0.28577223
18	0x3e1f6955	0.15567525
19	0x3de4a7d0	0.1116482
20	0xbb6f89bb	-0.00365506
21	0x3ce45d4f	0.027876524
22	0x3e6465bf	0.22304438
23	0x3ea9dc7f	0.33176038
24	0x3e832aaa	0.25618488
25	0x3d8616b6	0.065473005
26	0x3e0191ed	0.12653323

weight_ih_l0 f4 [27, 39]
0	0xbdd45f72	-0.10369767
1	0xbdfabf1e	-0.12243484
2	0x3daae42a	0.083443
3	0x3e597efc	0.21239847
4	0xbe207860	-0.1567092
5	0xbca51a96	-0.020154279
6	0x3e825339	0.2545412
7	0x3da4194d	0.08012638
8	0x3e8618b0	0.2619071
9	0x3e4a7b48	0.1977359
10	0xbd673cbd	-0.05645441
11	0xbdcbebbb	-0.099570714
12	0xbe748263	-0.23877864
13	0x3e840177	0.25782368
14	0xbe5123da	-0.20423833
15	0xbd0299d8	-0.031884998
16	0xbe4f4691	-0.20241763
17	0x3ea14232	0.31495816
18	0xbe236a4d	-0.1595852
19	0x3e075024	0.13214165
20	0x3e89642a	0.26834232
21	0xbddce073	-0.10784998
22	0xbe31fd6a	-0.17381826
23	0xbe500f40	-0.20318317
24	0x3e4cf98c	0.2001707
25	0xbdafa887	-0.08577066
26	0xbe8b2476	-0.27176255
27	0xbe702dfc	-0.23455042
28	0x3e808477	0.25101063
29	0xbe951005	-0.29113784
30	0xbea3fa14	-0.32026732
31	0x3e801d44	0.25022328
32	0xbe8d1d2e	-0.27561325
33	0x3d9c0fbf	0.07620191
34	0x3e11af6b	0.14227073
35	0xbccf667e	-0.025317427
36	0xbe8b826b	-0.2724794
37	0xbdc2315c	-0.09482071
38	0x3e12a37b	0.14320175
39	0x3dce5338	0.100744665
40	0xbe509ead	-0.2037303
41	0xbd933d51	-0.071894296
42	0x3df29a58	0.11845845
43	0xac23b7e3	-2.326577e-12
44	0x3d979594	0.07401577
45	0xbe4827bb	-0.19546406
46	0xb9bfa497	-0.00036552988
47	0xbe23e39e	-0.16004798
48	0xbe8141a9	-0.25245407
49	0xbe05eb62	-0.13078073
50	0xbe87f6af	-0.26555392
51	0x3e91c9bc	0.28474224
52	0x3e197fb6	0.14990124
53	0x3e9a9918	0.30194926
54	0xbe052e8d	-0.13006039
55	0x3d122162	0.035676368
56	0xbe92b239	-0.28651598
57	0x3e3f1797	0.18661343
58	0xbe761818	-0.24032629
59	0x3e0009ad	0.12503691
60	0x3bbc6cf1	0.0057502915
61	0x3c88d4c9	0.016703026
62	0x3e33938c	0.17536753
63	0xbe80971e	-0.25115293
64	0xbcfb53d0	-0.030679613
65	0xbe2a401f	-0.16626023
66	0x3e29de22	0.16588643
67	0xbc8a3662	-0.016871635
68	0x3cb697c8	0.022289172
69	0xbda606d7	-0.08106773
70	0x3e9515e5	0.29118267
71	0xbe73dd9e	-0.23815009
72	0xbea9c56a	-0.33158427
73	0xbea554cd	-0.3229126
74	0xbd74857f	-0.059697624
75	0x3cb0182b	0.0214959
76	0x3d8faf32	0.07015838
77	0xbdcb367e	-0.09922503
78	0xbcc0a465	-0.02351589
79	0xbe3bb77a	-0.1833171
80	0x3e12dbbd	0.14341636
81	0x3dbcb853	0.092148446
82	0xbe06846e	-0.13136455
83	0xbdd14af4	-0.10219374
84	0xbdf34039	-0.11877484
85	0x3c89c690	0.016818315
86	0x3e78bccc	0.2429077
87	0xbe6e95f0	-0.23299384
88	0xbe2c7a3f	-0.16843508
89	0x3e8e55a8	0.27799726
90	0x3e96ce5f	0.29454324
91	0xbe91766f	-0.2841067
92	0xbd37e5c6	-0.044896863
93	0x3e562cc2	0.20915511
94	0x3e5db46d	0.21650858
95	0xbd8487d8	-0.06471223
96	0xbe77c9cd	-0.24198075
97	0xbd37646e	-0.04477351
98	0xbd895515	-0.06705681
99	0xbea6d4ad	-0.32584134
100	0x3dbebdf9	0.09313578
101	0xbe40dcec	-0.18834275
102	0x3e41941e	0.18904158
103	0xbe8b8161	-0.27247146
104	0x3e47f746	0.19527921
105	0x3cd951fb	0.02652835
106	0x3e9813f2	0.29702717
107	0x3d0363b5	0.03207751
108	0x3d10f7c4	0.035392538
109	0x3e7b8ac8	0.2456466
110	0xbe660d4a	-0.22466007
111	0x3ea4f021	0.32214454
112	0xbe4ee7f9	-0.20205678
113	0xbdca5a18	-0.09880465
114	0x3e1272a2	0.14301541
115	0x3db0b553	0.08628335
116	0x3e109f97	0.14123379
117	0xbadb01f3	-0.0016708955
118	0xbe8f2172	-0.27955204
119	0x3e652505	0.22377403
120	0xbccec82f	-0.02524194
121	0xbc290fd3	-0.010318714
122	0x3b4ebc41	0.0031545314
123	0xbe0c8a9b	-0.13724749
124	0x2ea22ebe	7.37521e-11
125	0x3c833ff4	0.016021706
126	0x3da762fb	0.08173176
127	0x3d02c287	0.031923797
128	0x3de3c17d	0.11120889
129	0x3d3b36d5	0.04570659
130	0x3e185456	0.14875922
131	0xbe9c274d	-0.30498734
132	0x3dee32df	0.11630797
133	0x3d5e4e91	0.054274146
134	0x3e459f2b	0.19298999
135	0x3e1a03b3	0.15040474
136	0x3ea1e28f	0.31618163
137	0xbd19b0b4	-0.037522033
138	0xbda415ee	-0.08011995
139	0x3ea90abd	0.33016005
140	0xbd6d3e41	-0.057920698
141	0xbe429928	-0.19003737
142	0xbe19fc91	-0.15037753
143	0xbe70016a	-0.2343804
144	0xbe1f50d9	-0.15558185
145	0x3e91ae33	0.28453216
146	0x3e930240	0.28712654
147	0xbe72ee84	-0.23723799
148	0xbe53193f	-0.206151
149	0xbe9fb352	-0.31191498
150	0xbc1784e5	-0.009247993
151	0x3de11835	0.10990945
152	0x3e99475d	0.29937258
153	0xbcde9cbb	-0.027174344
154	0xbc10afc2	-0.008830966
155	0xbddba07a	-0.10723968
156	0xbe0bf04d	-0.13665886
157	0xbe6c6f6b	-0.23089378
158	0x3e8565eb	0.2605432
159	0xbe1c4bfd	-0.15263362
160	0xb79415d2	-1.7653136e-05
161	0x3e02df6a	0.12780538
162	0x3e7871bb	0.24262135
163	0x3bab71b4	0.0052320603
164	0x3d7d8a17	0.06189927
165	0xbe2b6351	-0.16737105
166	0xbd6e8202	-0.058229454
167	0xbdddf92d	-0.10838542
168	0xbd00b9e6	-0.031427287
169	0x3dd5e32b	0.104437195
170	0xbe9f66e9	-0.31133202
171	0x3e3eb78c	0.18624705
172	0x3e8818bc	0.2658137
173	0xbc114aad	-0.008867902
174	0xbe1c913d	-0.15289779
175	0xbe262792	-0.16226032
176	0xbd0ca1f8	-0.034334153
177	0x3e867b1d	0.26265803
178	0x3eaa4641	0.33256724
179	0x3d5094a9	0.050923023
180	0xbd50b40d	-0.05095296
181	0xbd65528f	-0.055986937
182	0x3cd2d423	0.02573592
183	0xbea0f93b	-0.31440148
184	0x3d071b9b	0.03298531
185	0xbd44a9fb	-0.04801367
186	0xbe950895	-0.2910811
187	0x3e9fe5c1	0.31229976
188	0x3e9bfd43	0.3046666
189	0xbe40b414	-0.18818694
190	0xbcb3c929	-0.021946507
191	0xbe8887b0	-0.2666602
192	0x3e9bbec4	0.3041898
193	0xbe9a026a	-0.30079967
194	0x3e327651	0.17427947
195	0xbce70682	-0.028201345
196	0xbe3e66f9	-0.18593968
197	0x3e96298d	0.29328576
198	0x3e9991a2	0.29993922
199	0x3c8cb7c2	0.017177466
200	0xbe804f67	-0.2506058
201	0x3d42abf5	0.047527272
202	0xba336363	-0.0006843118
203	0x3d94c11a	0.07263394
204	0xbe07dc79	-0.13267697
205	0x3e7aaa02	0.24478915
206	0xbe5cf194	-0.2157653
207	0x3d31b6d8	0.043387264
208	0xbe839698	-0.2570083
209	0xbe8f4568	-0.2798264
210	0xbe18de5d	-0.14928575
211	0xbc2e57f6	-0.010641089
212	0x3e10ce25	0.14141138
213	0xbea2e9c9	-0.3181899
214	0xbe0c3534	-0.1369217
215	0x3a47006b	0.000759131
216	0xbd893089	-0.066987105
217	0xbe9ee363	-0.31032857
218	0x3e564a3e	0.20926759
219	0x3e872257	0.26393387
220	0xbe3f0ec9	-0.18657984
221	0x3ea5544a	0.3229087
222	0xbdcb579a	-0.09928818
223	0x3e851744	0.25994313
224	0xbea3ed37	-0.32016918
225	0x3d61297a	0.054971196
226	0xbea553e7	-0.32290575
227	0xbd982cc9	-0.07430417
228	0xbe782666	-0.24233398
229	0x3e9a7c8a	0.3017314
230	0xbea23555	-0.31681314
231	0x3cb6ebcd	0.022329235
232	0xbea8f70d	-0.33000985
233	0xbeabb8cf	-0.33539435
234	0xbdda9b43	-0.10674145
235	0xbceed2f8	-0.029153332
236	0xbcfc8342	-0.030824307
237	0x3d5c6731	0.05380935
238	0xb2e31777	-2.6436949e-08
239	0x3d8c2172	0.06842317
240	0xbe5f62ad	-0.21814986
241	0x39ee19d8	0.00045414153
242	0xbea12283	-0.31471643
243	0x3e8c397a	0.273876
244	0x3e43bf9a	0.19116059
245	0xbe1ef547	-0.15523253
246	0xbdbfec66	-0.09371261
247	0x3ea3d827	0.3200085
248	0xbe51456c	-0.20436639
249	0xbc8f1779	-0.017467247
250	0x3d579009	0.052627597
251	0x3e96075c	0.2930249
252	0xbe5a2f60	-0.21307135
253	0xbe7158f7	-0.23569094
254	0x3d8c14af	0.068398826
255	0xbe63981d	-0.22225995

weight_hh_l0 f4 [27, 9]
0	0x3e1d4d56	0.15361533
1	0xbea4d631	-0.32194665
2	0x3d08b036	0.033371173
3	0x3df357d5	0.11881987
4	0x3e5c013d	0.21484847
5	0xbe6140eb	-0.2199742
6	0x3d75806a	0.05993692
7	0x3dd32bea	0.1031111
8	0x3cd28174	0.025696494
9	0xbe4e63e3	-0.20155291
10	0x3e0af04c	0.13568228
11	0x3dde25cf	0.10847055
12	0xbdc90db7	-0.09817069
13	0xbbc76a65	-0.0060856813
14	0xbe90a389	-0.28249767
15	0xbe8f97e3	-0.28045568
16	0x3e60cb29	0.219525
17	0x3e8de994	0.27717268
18	0xbe699afb	-0.22813027
19	0x3d5e6afe	0.054301254
20	0xbd377bab	-0.044795673
21	0x3e644199	0.22290649
22	0xbeaac997	-0.33356926
23	0xbdb8007d	-0.08984468
24	0x3e82590b	0.2545856
25	0xbe9b5e09	-0.3034518
26	0x3d71a7c9	0.058997903
27	0xbce4e453	-0.027940905
28	0x3d735107	0.059403446
29	0xbe00a51b	-0.12562983
30	0x3e8b49ea	0.2720483
31	0xbea8d9ca	-0.3297866
32	0x3c946e7d	0.018119091
33	0x3e33f1ec	0.17572755
34	0xbea6c580	-0.32572556
35	0xbcc66565	-0.02421827
36	0xbe938347	-0.28811094
37	0xbea22890	-0.31671572
38	0xbcebe539	-0.028795825
39	0x3e555fe2	0.20837358
40	0xbe2f72be	-0.17133614
41	0xbe93908c	-0.28821218
42	0x3e9b8b95	0.3037993
43	0xbd2577f6	-0.040397607
44	0xbe7280a9	-0.23681892
45	0xbcbb84f2	-0.022890542
46	0xbc62ac52	-0.01383503
47	0xbe91f586	-0.28507632
48	0x3db7ae9f	0.08968853
49	0x3e86867e	0.26274484
50	0xbea81cbe	-0.3283443
51	0x3e0d42f7	0.13795076
52	0x3e75392c	0.2394759
53	0xbe616303	-0.22010426
54	0x3e264248	0.16236222
55	0x3e33fdf2	0.17577341
56	0x3d986cd7	0.074426346
57	0x3d2dde7a	0.0424485
58	0xbcecbdbf	-0.028899072
59	0x3e008bec	0.12553376
60	0x3e3348c2	0.17508224
61	0xbe41de18	-0.18932378
62	0x3e5a5850	0.21322751
63	0xbd945ef4	-0.07244673
64	0xbc93654f	-0.017992644
65	0x3e5a67c4	0.21328646
66	0x3dcf8bae	0.10134064
67	0xbe4fd30c	-0.20295352
68	0x3ded4d2c	0.11586985
69	0x3dc32084	0.09527686
70	0xbe4f25d5	-0.20229276
71	0xbdb8b808	-0.09019476
72	0xbe1a7245	-0.15082653
73	0x3e2f8077	0.17138849
74	0x3e8b33bb	0.27187905
75	0x3eac0f59	0.3360546
76	0x3e8211b7	0.2540414
77	0x3c8e06de	0.017337259
78	0xbe887a88	-0.26655984
79	0x3c1a8f07	0.009433514
80	0xbe954432	-0.2915359
81	0x3e1c159d	0.1524262
82	0x3e1e5c59	0.15464915
83	0xbe541180	-0.207098
84	0xbe15fbfa	-0.14646903
85	0xbc35099a	-0.0110496525
86	0x3e67c6a1	0.22634365
87	0x3d9cb8b5	0.076524176
88	0x3e933049	0.28747776
89	0x3b9bea4d	0.0047581554
90	0xbdaa1c76	-0.0830621
91	0xbe874293	-0.2641798
92	0xbe58c30e	-0.21168157
93	0xbe08665a	-0.13320294
94	0xbe9549cd	-0.29157868
95	0x3ea3d084	0.31995022
96	0x3e868e11	0.26280263
97	0x3de453ad	0.111487724
98	0x3e824163	0.2544051
99	0xbe2c355e	-0.16817233
100	0xbc981664	-0.018565364
101	0xbde89c4f	-0.113579385
102	0x3d015010	0.031570494
103	0x3e19ef12	0.15032604
104	0xbe67d5a4	-0.22640091
105	0x3eabcff4	0.33557093
106	0xbc82e796	-0.01597957
107	0x3e782705	0.24233635
108	0x3d46b47d	0.04851197
109	0xbba9988d	-0.005175656
110	0x3e3b8ddf	0.18315838
111	0xbddf391d	-0.10899565
112	0xbadaefdb	-0.0016703563
113	0xbe30d4a4	-0.17268616
114	0xbdb083ae	-0.08618866
115	0x3de16575	0.110056795
116	0xbe08ffef	-0.13378881
117	0x3df37f84	0.11889556
118	0x3ea61954	0.324412
119	0xbe000bc1	-0.12504484
120	0xbe99faba	-0.30074102
121	0xbdf1676c	-0.11787304
122	0x3e4c6548	0.1996051
123	0x3dc72e53	0.097256325
124	0xbd38c53d	-0.045109976
125	0xbe68efdf	-0.22747754
126	0x3e99fc38	0.3007524
127	0xbe231096	-0.15924296
128	0x3e4a88a1	0.19778682
129	0x3e8b6623	0.27226362
130	0x3e943457	0.28946182
131	0x3dc90a40	0.09816408
132	0x3e6f5fb6	0.23376355
133	0x3e8ef8de	0.27924246
134	0x3e45bda7	0.19310628
135	0xbe10ff69	-0.14159931
136	0x3b830f4d	0.0039996267
137	0x3e1a3299	0.15058364
138	0xbe694bb6	-0.22782788
139	0x3d39d998	0.04537353
140	0xbe811657	-0.25212356
141	0x3e8f9e01	0.28050235
142	0xbb8b6fc6	-0.004255268
143	0x3e50ae26	0.20378932
144	0xbe6c22f8	-0.23060215
145	0xbd9c9601	-0.076457985
146	0xbce3e938	-0.027821168
147	0xbdbc81be	-0.09204434
148	0x3e8504c7	0.25980207
149	0xbd31eabc	-0.04343675
150	0xbda7cff7	-0.08193963
151	0x3e3ab07e	0.18231389
152	0x3dc6f996	0.097155735
153	0xbdb30265	-0.08740691
154	0xbe885671	-0.2662845
155	0x3cfd16bf	0.030894635
156	0x3e6a902c	0.2290656
157	0x3de38e73	0.111111544
158	0x3e4070cd	0.1879303
159	0x3e0bafb3	0.13641243
160	0xbd59ddd2	-0.05319006
161	0x3e35f5f9	0.17769612
162	0x3e8293f4	0.25503504
163	0x3e1d9e37	0.15392385
164	0x3d83e82e	0.06440769
165	0x3e93ed91	0.28892186
166	0xbe59b869	-0.21261753
167	0xbe94ed7d	-0.2908744
168	0x3e182cde	0.14860865
169	0xbe6dc380	-0.23219109
170	0x3e4a1aeb	0.19736831
171	0xbe763db7	-0.2404698
172	0x3d7080d0	0.058716595
173	0xbdb51962	-0.08842732
174	0xbe54ab3b	-0.20768444
175	0xbe7859b6	-0.24252972
176	0x3ea0d29c	0.31410682
177	0xbea6435b	-0.32473263
178	0x3ea50adf	0.32234856
179	0xbe477435	-0.19477923
180	0xbe78de2c	-0.24303502
181	0x3d97fd14	0.07421318
182	0x3e5f63cf	0.21815418
183	0x3e83bff7	0.25732395
184	0x3e9f738e	0.3114285
185	0x3e160185	0.14649017
186	0xbe3accf6	-0.18242249
187	0x3e4313ce	0.19050524
188	0x3e90b3a0	0.28262043
189	0x3ea5cc63	0.32382497
190	0x3e3b0ea5	0.18267305
191	0x3d077bac	0.033076927
192	0xbb89ffa5	-0.0042113834
193	0x3d437cb7	0.04772636
194	0x3df57c07	0.11986547
195	0x3ced983a	0.029003251
196	0xbea196d0	-0.31560373
197	0x3e0db3d5	0.13838132
198	0xbe9e31d6	-0.30897397
199	0x3e691b8f	0.22764419
200	0xbe0f2023	-0.13977103
201	0x3ea7cb7a	0.32772428
202	0x3e10149b	0.1407036
203	0xbe8c5989	-0.2741206
204	0x3e4eb5a2	0.20186475
205	0xbe60058e	-0.21877119
206	0xbe5bd925	-0.21469553
207	0xbe1e12f1	-0.15436913
208	0x3e8374e7	0.25675127
209	0x3e6f6589	0.23378576
210	0xbd0be812	-0.034156866
211	0x3e3b8f11	0.18316294
212	0xbe9846f1	-0.29741624
213	0x3db6d620	0.0892756
214	0xbdf194ee	-0.11795984
215	0x3dd9d6a8	0.106366456
216	0x3e35adcb	0.17742078
217	0xbe834de4	-0.25645363
218	0x3e8dae28	0.27671933
219	0xbe8563ff	-0.26052853
220	0x3e55c786	0.20876893
221	0xbe0305bc	-0.12795156
222	0x3e0211cb	0.127021
223	0xbe885e9a	-0.26634675
224	0x3da932c4	0.08261636
225	0x3de80bda	0.113303855
226	0x3e4cb330	0.1999023
227	0xbe9c2ed2	-0.3050447
228	0x3e6c542d	0.23078986
229	0x3e4de9a3	0.20108657
230	0x3e13517f	0.14386557
231	0x3b8585c5	0.0040747845
232	0x3d059772	0.032615133
233	0xbd295ba9	-0.04134718
234	0x3e9a0a46	0.30085963
235	0xbe011b2a	-0.12608019
236	0x3e339533	0.17537384
237	0xbea33235	-0.31874242
238	0x3e86a4c3	0.26297578
239	0x3d8ffa42	0.07030155
240	0x38d396d6	0.000100893594
241	0x3e873b35	0.2641236
242	0xbdaf8a2e	-0.085712776

bias_ih_l0 f4 [27]
0	0x3e8a1875	0.26971784
1	0xbe3d97fb	-0.18515007
2	0xbd181292	-0.037127085
3	0xbea74f64	-0.32677758
4	0x3e4d1dfc	0.2003097
5	0xbe5c2910	-0.21500039
6	0x3e2d16c1	0.16903211
7	0xbe435dc6	-0.1907874
8	0x3d883e46	0.06652503
9	0x3e1a701a	0.15081826
10	0xbea673f8	-0.32510352
11	0xbe3ae7f0	-0.1825254
12	0x3e5936c0	0.21212292
13	0x3e8db3a6	0.27676123
14	0x3d825198	0.06363219
15	0xbe618fda	-0.22027531
16	0x3e67b183	0.22626309
17	0x3d7b775a	0.06139312
18	0x3d9117ff	0.07084655
19	0xbe1f4a1f	-0.15555619
20	0x3e8ff680	0.28117752
21	0xbde68653	-0.11256089
22	0x3df31248	0.11868721
23	0x3deab06e	0.114594325
24	0xbe9d42fb	-0.30715165
25	0xbe630dd3	-0.22173242
26	0x3e90b9ed	0.2826685

bias_hh_l0 f4 [27]
0	0x3e8e7633	0.27824554
1	0x3e121207	0.1426469
2	0xbe8b0578	-0.2715261
3	0x3e81737d	0.25283423
4	0x3e7fd7d7	0.2498468
5	0xbe7df635	-0.24800952
6	0xbd8cc908	-0.06874281
7	0xbe99950a	-0.2999652
8	0xbe489b0f	-0.195904
9	0x3ea4f3ee	0.32217354
10	0x3db87340	0.09006357
11	0x3d00edef	0.03147691
12	0xbe73fdc4	-0.23827273
13	0xbe0c2e51	-0.13689543
14	0x3e7ffead	0.24999495
15	0xbd802b84	-0.062583
16	0xbe411e93	-0.1885932
17	0x3e0cc9b1	0.13748814
18	0x3e0155eb	0.12630431
19	0x3cf2bc55	0.02963082
20	0xbe98e309	-0.29860714
21	0xbe754c23	-0.23954825
22	0xbdd0c56a	-0.10193904
23	0xbbdd9d20	-0.0067631155
24	0x3dd0e764	0.10200384
25	0xbe8250b2	-0.2545219
26	0x3c938bb9	0.01801096

weight f4 [9, 9]
0	0xbe05424d	-0.13013573
1	0xbe1e5b2b	-0.15464465
2	0x3e2af5dd	0.16695352
3	0x3e624fa5	0.22100694
4	0x3e58235d	0.2110724
5	0xbb05f4d6	-0.0020440123
6	0x3bca0df3	0.0061662137
7	0xbd561b98	-0.05227241
8	0x3b4df8b2	0.0031428752
9	0x3db15a7a	0.08659835
10	0xbe945d35	-0.2897736
11	0xbdc793f0	-0.09745014
12	0x3e8dae17	0.27671883
13	0xbd11376c	-0.035453245
14	0x3e076959	0.1322378
15	0x3e016dec	0.12639588
16	0x3e509f29	0.20373215
17	0xbe8c9e3c	-0.27464473
18	0x3e397873	0.18112354
19	0xbe92c970	-0.2866931
20	0xbdea0954	-0.114275604
21	0xbe65cb9f	-0.22440957
22	0xbe926c77	-0.28598377
23	0xbe266512	-0.16249493
24	0x3e902a7b	0.2815741
25	0xbe79b899	-0.24386825
26	0xbe244a23	-0.16043906
27	0xbd95fa05	-0.07323078
28	0xbe9bfe6f	-0.30467555
29	0x3e8039bd	0.2504405
30	0xbdf2d1e1	-0.118564375
31	0x3e19c425	0.1501623
32	0x3cd64f1f	0.026160775
33	0x3e82f038	0.25573897
34	0xbe5ca746	-0.21548185
35	0xbe2eb692	-0.17061833
36	0xaa367693	-1.6205986e-13
37	0xbe2093c0	-0.15681362
38	0x3debeaa7	0.11519366
39	0xbe11fead	-0.14257307
40	0x3d98dba4	0.07463768
41	0x2ed275d0	9.570622e-11
42	0xbdc10cb8	-0.09426254
43	0x3aa47cb6	0.0012549374
44	0x3dae7210	0.085178494
45	0x3e8fb558	0.28068042
46	0xbd573897	-0.052544203
47	0xbe5931b3	-0.21210365
48	0xbe1117d3	-0.14169244
49	0xbe9e7378	-0.3094747
50	0xbea4b4af	-0.321691
51	0x3e1c99fd	0.15293117
52	0xbe993c34	-0.29928744
53	0xbd2b7ac4	-0.041865125
54	0x3db5318a	0.088473395
55	0xbe616d75	-0.22014411
56	0xbea9087e	-0.33014292
57	0x3dedd23c	0.11612365
58	0x3cd5c8b9	0.026096689
59	0x3e7de66c	0.2479493
60	0x3e590a39	0.21195306
61	0x3e0f9a4e	0.14023706
62	0xbd215a99	-0.03939304
63	0x3de7fd1f	0.11327576
64	0xbc06e6c1	-0.008233727
65	0x36813616	3.850796e-06
66	0xaed25bff	-9.566036e-11
67	0x3d47c4a1	0.048771504
68	0x2c000fd6	1.8198685e-12
69	0x3d0ac773	0.033881616
70	0x3e0fd678	0.14046657
71	0xbdd532fb	-0.104101144
72	0x3e9669ae	0.29377502
73	0x3e60d6b3	0.21956901
74	0x3d3b82c0	0.04577899
75	0x3dd4f572	0.103983775
76	0x3c01a0be	0.007911859
77	0x3e64885c	0.22317642
78	0x3d3f93e4	0.0467719
79	0x3daab169	0.083346196
80	0x3e5ae4f6	0.21376404

bias f4 [9]
0	0xbd9689fd	-0.07350538
1	0xbcfa1d70	-0.030531615
2	0x3e88a258	0.26686358
3	0x3e109a0c	0.14121264
4	0xbddd1256	-0.10794513
5	0x3d22f4eb	0.039784353
6	0x3d0ef36c	0.034900114
7	0xbda2cf9e	-0.07949756
8	0x3d98da35	0.07463495
