ERTSNet/new_arch_LA/DT/T100_Hrot1/rq1030_full.pt (torch, 278693 bytes, 63 tensors)

weight_ih_l0 f4 [27, 15]
0	0x3d4b4d1c	0.049634084
1	0xbd0068dd	-0.031350005
2	0x3dfdd919	0.12394924
3	0xbe97488a	-0.2954753
4	0x3e969388	0.29409432
5	0xbce94dd5	-0.028479496
6	0xbe78466c	-0.24245614
7	0xbdc3a138	-0.095522344
8	0x3d93fc6c	0.0722588
9	0xbe62d669	-0.22152103
10	0x3e9c2a24	0.305009
11	0x3de7487c	0.11293122
12	0x3e2139b6	0.15744671
13	0x3e7765ce	0.24159929
14	0x3e443d97	0.1916412
15	0x3b88f3e8	0.0041794665
16	0x3e9ac480	0.30228043
17	0xbe706b10	-0.23478341
18	0x3d90ba93	0.07066836
19	0x3e99dc36	0.3005082
20	0x3e78bfe8	0.24291956
21	0x3e22adfe	0.15886685
22	0x3e55f06e	0.20892498
23	0x3ca4b386	0.020105135
24	0x3e99ea74	0.30061686
25	0x3e8c5658	0.27409625
26	0x3e891ef9	0.26781443
27	0xbe467348	-0.19379914
28	0x3e13e6e0	0.1444354
29	0xbdb4f9cc	-0.088367075
30	0x3ddbcb92	0.10732187
31	0xbe6d5b5d	-0.23179384
32	0xbe06a27c	-0.1314792
33	0x3e4bd14d	0.1990406
34	0xbe7ad496	-0.24495158
35	0xbea24640	-0.31694221
36	0x3e6270b1	0.22113301
37	0x3ea7b2aa	0.32753497
38	0xbe9d2513	-0.30692348
39	0xbe3f2257	-0.18665443
40	0x3e35be39	0.17748345
41	0x3e97925d	0.29603854
42	0xbdf0303b	-0.11727949
43	0xbe5647ca	-0.20925823
44	0x3e40ad17	0.18816029
45	0xbe374b6c	-0.17899865
46	0xbe5bfe9d	-0.21483846
47	0xbe72b5a2	-0.237021
48	0xbe98581f	-0.2975473
49	0xbdd3193a	-0.10307546
50	0x3ea07871	0.3134189
51	0x3d1735d7	0.03691658
52	0xbe84920e	-0.2589268
53	0x3e816cc7	0.25278303
54	0xbe8ef16b	-0.27918562
55	0x3e0d99a8	0.13828146
56	0xbe831921	-0.2560511
57	0xbe9e3d25	-0.30906025
58	0x3dd56cf2	0.1042117
59	0xbdf13a36	-0.11778681
60	0x3d755e48	0.059904367
61	0x3e85548a	0.2604106
62	0x3ea48fd9	0.32140997
63	0x3e87d3f7	0.26528904
64	0x3df0294e	0.11726628
65	0xbd55705c	-0.052109107
66	0xbe545f52	-0.20739487
67	0x3dba3999	0.09093017
68	0x3e9fe5b4	0.31229937
69	0xbd514bec	-0.051097795
70	0x3d9f14a4	0.07767609
71	0x3e29ae38	0.16570365
72	0x3e3c9612	0.18416622
73	0x3e3acf9a	0.18243256
74	0x3b877596	0.0041338904
75	0xbe1ff453	-0.15620546
76	0xbe6786a3	-0.22609954
77	0x3e808f9c	0.25109565
78	0xbd38d252	-0.045122452
79	0xbd9f9604	-0.07792285
80	0xbe86736e	-0.2625994
81	0x3df93c12	0.12169661
82	0x3dc8c7e4	0.09803751
83	0x3db823dd	0.089912154
84	0x3e053f14	0.13012344
85	0x3ddb98b6	0.10722487
86	0x3e112b00	0.1417656
87	0x3e4fea91	0.20304324
88	0x3e0ea658	0.13930643
89	0xbd1bae5a	-0.03800807
90	0x3da01dbb	0.07818171
91	0xbe78488d	-0.24246426
92	0x3e4058e2	0.18783906
93	0xbe8a08df	-0.26959893
94	0x3d498a35	0.04920407
95	0xbe878bd0	-0.26473856
96	0xbde509d6	-0.11183517
97	0xbd9be040	-0.07611132
98	0xbe12d2a7	-0.1433817
99	0xbe35ad18	-0.17741811
100	0x3d5485e7	0.05188551
101	0xbce1fda1	-0.02758676
102	0xbe81be60	-0.25340557
103	0x3e077220	0.13227129
104	0xbe88b267	-0.2669861
105	0x3e21d960	0.15805578
106	0x3e928d4f	0.28623435
107	0x3e23ac36	0.15983662
108	0x3e450096	0.19238505
109	0xbdc0fed9	-0.09423608
110	0x3c7c6b3a	0.015406424
111	0xbdcb268d	-0.09919462
112	0xbd8fb69f	-0.07017254
113	0xbd76a365	-0.06021442
114	0x3de54128	0.11194068
115	0x3e310c0b	0.1728975
116	0xbe94a0a6	-0.29028815
117	0x3bc62b35	0.006047631
118	0x3e422c39	0.18962182
119	0x3e4cd30d	0.20002384
120	0x3e615d1e	0.22008178
121	0x3e998d6e	0.29990715
122	0x3ea80460	0.32815838
123	0xbe7f6476	-0.24940667
124	0x3e02d834	0.12777787
125	0xbe6d1983	-0.23154263
126	0x3e9fca98	0.31209254
127	0x3e667c68	0.22508395
128	0x3e914668	0.28374028
129	0x3db15b61	0.08660007
130	0x3e836e61	0.2567015
131	0xbe173d8d	-0.14769574
132	0xbd7a4550	-0.061101258
133	0x3e2fd1e4	0.1716991
134	0xbe95e80b	-0.29278597
135	0x3d21c5f4	0.039495423
136	0xbe9a851a	-0.30179673
137	0xbc853f58	-0.016265556
138	0xbe80cfe6	-0.25158614
139	0xbd9b6b05	-0.07588772
140	0xbd60ddfb	-0.054899197
141	0xbdecc3dc	-0.11560795
142	0x3d888da2	0.06667639
143	0xbe331d8f	-0.17491744
144	0x3e496b2f	0.19669794
145	0xbc0142ba	-0.007889444
146	0xbd93ea4b	-0.07222422
147	0xbdc3c8bf	-0.09559774
148	0xbe0b644f	-0.13612483
149	0xbe8faf37	-0.28063366
150	0xbd70a497	-0.058750715
151	0x3e8cf808	0.27532983
152	0xbe17a1d3	-0.14807825
153	0xbdbe4380	-0.09290218
154	0x3d5baff5	0.053634603
155	0x3e4839e7	0.19553338
156	0x3e0bd7c0	0.13656521
157	0xbd7b9f6f	-0.061431345
158	0x3da57b01	0.08080102
159	0x3e708561	0.2348838
160	0xbea9030b	-0.33010134
161	0xbdcda11b	-0.10040494
162	0xbd9b1dbe	-0.07574032
163	0x3d934264	0.071903974
164	0x3e91e33f	0.28493688
165	0x3e3bd474	0.18342763
166	0xbe809457	-0.25113174
167	0x3dc13de4	0.09435633
168	0x3e7ddcef	0.2479131
169	0xbe7d18a6	-0.24716434
170	0x3d18e3c7	0.0373266
171	0xbe015e4e	-0.1263363
172	0xbe11bd8d	-0.14232464
173	0x3e48b504	0.19600302
174	0xbd8145a4	-0.06312111
175	0xbda8de70	-0.082455516
176	0xbe6eaf3c	-0.23309034
177	0x3e7c1e60	0.24620962
178	0x3e977291	0.29579595
179	0xbda16cfc	-0.07882115
180	0x3d286726	0.041113995
181	0x3e707b2f	0.23484491
182	0x3d045e17	0.032316294
183	0xbe9f4934	-0.31110537
184	0xbe6547a4	-0.2239061
185	0xbe16b839	-0.14718713
186	0x3ea7f05a	0.3280056
187	0xbb71347b	-0.0036804962
188	0xbe03ed14	-0.12883407
189	0xbd2368f2	-0.039895006
190	0xbdbc64e9	-0.091989346
191	0x3e747b1c	0.23875087
192	0xbd2328e4	-0.03983392
193	0xbe575ef7	-0.2103232
194	0xbe07647e	-0.13221928
195	0x3ea7ab71	0.32747987
196	0x3e9dd92d	0.30829754
197	0x3ea3041c	0.31839073
198	0x3e17062e	0.14748451
199	0x3e709555	0.23494466
200	0x3dc63f54	0.09680048
201	0xbe9f43e1	-0.31106475
202	0x3e8c3b65	0.27389064
203	0x3e969e58	0.29417682
204	0xbe8062bd	-0.2507533
205	0xbe70fd1d	-0.23534055
206	0x3dd07e62	0.101803556
207	0x3d49a63e	0.049230807
208	0x3df26192	0.11835016
209	0x3e97c779	0.29644373
210	0x3e50eebe	0.20403573
211	0x3db3566e	0.087567195
212	0xbdab128d	-0.08353148
213	0xbe0a5cc5	-0.13511951
214	0xbe8faa3e	-0.28059572
215	0x3e79484e	0.24343988
216	0x3e8f6eb4	0.28014147
217	0x3e7eac03	0.24870305
218	0xbe00aabd	-0.12565131
219	0x3d5027fa	0.050819375
220	0xbd7338ca	-0.05938033
221	0x3e7bae18	0.2457813
222	0x3e97d1cf	0.2965226
223	0xbe7f2ba3	-0.2491899
224	0xbb10a8ba	-0.0022073225
225	0xbe9d5e00	-0.3073578
226	0x3d0e088b	0.034676116
227	0x3e898300	0.26857758
228	0x3e202590	0.15639329
229	0xbd0b0df9	-0.033948872
230	0xbe4401f2	-0.19141367
231	0x3deb4d2d	0.114893295
232	0xbe77e271	-0.24207474
233	0x3bfcd6cd	0.007716036
234	0x3e023d01	0.12718584
235	0x3ea4737c	0.32119358
236	0x3e21e20d	0.15808888
237	0x3d1f2a81	0.038858894
238	0x3e215100	0.15753555
239	0xbe1d8481	-0.15382577
240	0xbe79798d	-0.24362774
241	0x3ce2bfaa	0.027679283
242	0xbe976782	-0.29571158
243	0x3e3b83b8	0.18311965
244	0xbe0f6abc	-0.1400556
245	0x3e3be08f	0.18347381
246	0x3e41617a	0.1888484
247	0x3d7d6965	0.06186809
248	0x3e7d6b23	0.247479
249	0xbea7c048	-0.32763886
250	0x3d00afc4	0.031417623
251	0x3e8fc5d3	0.28080615
252	0x3dc1695b	0.09443923
253	0xbe4e0423	-0.20118766
254	0x3df3b937	0.11900561
255	0x3d212898	0.039345354

weight_hh_l0 f4 [27, 9]
0	0xbe674a36	-0.22586903
1	0x3e2aa946	0.16666135
2	0xbcf8f7af	-0.030391542
3	0xbcc51e9b	-0.024062445
4	0xbdd1980f	-0.10234081
5	0xbe9035d0	-0.28166056
6	0xbe2f9fa3	-0.1715074
7	0xbc083f71	-0.008315907
8	0x3e8cf0f2	0.27527577
9	0xbe2ee8b8	-0.17080963
10	0x3e741ac9	0.23838343
11	0xbcf84e74	-0.030310847
12	0x3e940e09	0.28916958
13	0x3dc3e804	0.09565738
14	0x3eabd2f2	0.33559376
15	0xbe911c6f	-0.28342006
16	0x3e68014e	0.22656748
17	0xbd4aadb7	-0.049482074
18	0xbe6338f4	-0.22189695
19	0xbda87e7f	-0.08227252
20	0x3e2fe174	0.17175847
21	0x3e742164	0.23840863
22	0x3e375770	0.17904449
23	0xbdb466b8	-0.088086545
24	0x3d19237c	0.037387356
25	0xb98f138c	-0.0002728965
26	0xbe8af8e1	-0.27143005
27	0x3e4eb0d9	0.2018465
28	0x3ce575c1	0.028010251
29	0xbe9e4f4c	-0.30919874
30	0x3e17b384	0.14814574
31	0xbe9aaea2	-0.3021136
32	0x3e636414	0.22206146
33	0x3c56cbb4	0.01311009
34	0x3ea6f618	0.3260963
35	0x3d39a9b9	0.045327876
36	0x3da3012d	0.07959209
37	0xbdffa5db	-0.12482806
38	0x3e3ac539	0.18239297
39	0xbe146bc0	-0.14494228
40	0x3ddf055e	0.108896956
41	0x3e006792	0.12539509
42	0x3e341997	0.17587887
43	0xbaaf6f1c	-0.0013384554
44	0x3c59a81a	0.013284707
45	0x3b5d7ac7	0.0033795105
46	0xbcb300d6	-0.021850985
47	0xbdfc55fd	-0.123210885
48	0xbdbc3b02	-0.09190942
49	0x3e4f54b4	0.20247155
50	0xbe68cfb1	-0.22735478
51	0xbe930a72	-0.28718907
52	0x3e933476	0.28750962
53	0xbe802e0e	-0.25035137
54	0x3ca6bbd2	0.020353232
55	0x3e680a80	0.22660255
56	0x3e86b843	0.26312456
57	0x3ea7e21b	0.32789692
58	0x3e45576a	0.19271627
59	0x3e55dbf4	0.20884687
60	0x3ea46d04	0.32114422
61	0x3cfbd7c8	0.030742541
62	0xbe3dc6eb	-0.18532912
63	0x3e85a58d	0.26102868
64	0x3e980fa3	0.2969943
65	0x3e4b4bf4	0.19853193
66	0xbde8efab	-0.11373838
67	0xbcfb97bb	-0.030712
68	0x3e9bb39f	0.30410478
69	0xbe34c11d	-0.17651792
70	0x3e8b6a72	0.2722965
71	0x3c1abba6	0.009444153
72	0x3ea63fd3	0.3247057
73	0xbe520b3e	-0.20512101
74	0xbdd384df	-0.103280775
75	0xbe401f39	-0.1876191
76	0x3dfc56a5	0.12321214
77	0xbe805090	-0.25061464
78	0xbe34cd6b	-0.17656486
79	0xbdb5deba	-0.08880372
80	0xbdbbc73a	-0.09168859
81	0x3d15a4cf	0.036534127
82	0x3e40819c	0.18799442
83	0x3e74ae97	0.23894726
84	0x3d88ce08	0.06679922
85	0xbe87e006	-0.26538104
86	0x3deb3413	0.11484542
87	0xbdb9bc4f	-0.0906912
88	0x3d8cc9b7	0.068744116
89	0xbeaadee5	-0.3337318
90	0xbe2e1767	-0.17001115
91	0x3e197de9	0.14989437
92	0xbe99a750	-0.30010462
93	0xbd375992	-0.044763155
94	0xbd9ef4d5	-0.07761542
95	0x3e27c9d0	0.16385579
96	0xbd68d46b	-0.056843203
97	0xbe372c54	-0.17888004
98	0x3e9a1ef1	0.3010173
99	0x3e5f3699	0.21798171
100	0x3e94ff04	0.2910081
101	0xbde14b75	-0.110007204
102	0x3da84e8a	0.08218105
103	0xbe30577a	-0.1722087
104	0xbe7ca40c	-0.24671954
105	0xbe79826f	-0.24366163
106	0xbea54050	-0.3227563
107	0x3d7830fa	0.060593583
108	0xbd62a8b8	-0.055336684
109	0x3e142078	0.14465511
110	0xbea63c95	-0.32468095
111	0x3c4a97c8	0.012365289
112	0xbe2cee8f	-0.16887878
113	0x3e0bbdae	0.13646576
114	0xbc34f6bb	-0.011045153
115	0x3e5d3d50	0.2160542
116	0xbe9a24f1	-0.3010631
117	0xbe1939d4	-0.14963466
118	0xbe4ff235	-0.20307238
119	0x3e2b63ff	0.16737364
120	0x3e801113	0.25013027
121	0x3e856df7	0.2606046
122	0xbdcd9644	-0.100384265
123	0x3d2d3083	0.042282593
124	0xbe9e4187	-0.30909368
125	0x3d683926	0.056695126
126	0xbc9e8873	-0.019352173
127	0xbdf2af7c	-0.11849877
128	0x3b929a5b	0.004473967
129	0x3e3df302	0.18549731
130	0x3e4d24b6	0.20033535
131	0xbeaaafb9	-0.3333719
132	0x3ca25b72	0.019818995
133	0x3e980a7f	0.29695508
134	0x3cdfa4ad	0.027300203
135	0xbe25c1b8	-0.16187179
136	0xbe854564	-0.26029503
137	0xbea05eb3	-0.3132225
138	0xbe10fcf4	-0.14158994
139	0x3e3e311f	0.18573426
140	0x3dbfe72b	0.09370264
141	0x3e8493a9	0.25893906
142	0x3e8c872d	0.2744688
143	0xbe1a323d	-0.15058227
144	0x3e8401c1	0.25782588
145	0x3df592c6	0.119908854
146	0x3d1e9603	0.03871728
147	0xbd689bad	-0.05678909
148	0xbe40c2a2	-0.18824247
149	0xbcab8c09	-0.020940797
150	0x3c907e0e	0.017638233
151	0xbe2c2e44	-0.16814524
152	0x3d3206d6	0.04346355
153	0xbd2d7981	-0.042352203
154	0xbe5d2e60	-0.21599722
155	0x3cc0ee25	0.023551056
156	0x3e0e12a9	0.13874306
157	0xbe9b24e3	-0.3030158
158	0x3e13d24d	0.14435692
159	0xbcd87634	-0.026423551
160	0x3e78509d	0.24249502
161	0xbdf2511f	-0.11831879
162	0x3e9dc430	0.30813742
163	0xbcbebb7a	-0.023282755
164	0xbe7d1cdd	-0.24718042
165	0x3e812f81	0.25231555
166	0x3cfac62e	0.030612078
167	0x3e576f93	0.21038656
168	0x3e9de42d	0.30838147
169	0x3e9d1068	0.3067658
170	0x3ea4c776	0.32183427
171	0x3e7bac5f	0.24577473
172	0x3d076560	0.033055663
173	0x3e3cb2f6	0.18427643
174	0xbe828c79	-0.25497797
175	0xbd89c6d8	-0.067273796
176	0xb96291db	-0.00021607375
177	0xbe45c047	-0.19311629
178	0x3e91570f	0.28386733
179	0xbcdc366d	-0.026881421
180	0xbe63c7d4	-0.22244197
181	0xbe31aaf6	-0.17350373
182	0x3e510899	0.20413436
183	0x3dd2a3f9	0.102851816
184	0xbc48d532	-0.012257861
185	0x3e4ab2d7	0.19794784
186	0xbdd16d71	-0.102259524
187	0x3c094fe4	0.008380864
188	0x3e514b92	0.20438984
189	0xbcc1a699	-0.02363901
190	0x3e9f8df8	0.31163
191	0xbea5f6fe	-0.32415003
192	0x3e44f92a	0.19235674
193	0x3e5794ab	0.21052806
194	0x3dab9786	0.0837851
195	0xbe9d981c	-0.30780113
196	0xbd8a6c30	-0.067589164
197	0x3db64a35	0.089008726
198	0xbea18f95	-0.31554857
199	0xbddeb77b	-0.1087484
200	0xbe8f7e6c	-0.2802614
201	0xbe56da13	-0.20981626
202	0xbe9c9626	-0.30583304
203	0xbceefade	-0.029172357
204	0xbd8beab9	-0.06831879
205	0x3e4bdcba	0.19908419
206	0x3ea4613f	0.32105443
207	0xbc22c2d3	-0.009934145
208	0x3e2dbc4c	0.16966361
209	0x3e9cb67f	0.30607983
210	0xbe8d2f2c	-0.27575052
211	0xbe877da5	-0.26463047
212	0xbe3f5d00	-0.1868782
213	0xbda73805	-0.08164982
214	0x3d87470c	0.06605348
215	0x3e97aecb	0.29625544
216	0x3e80b8e6	0.25141066
217	0x3da66a58	0.08125752
218	0xbe24db67	-0.1609932
219	0xbe64dd44	-0.22350031
220	0xbe24ccb3	-0.16093712
221	0x3e6155ff	0.22005461
222	0x3a7aaf51	0.00095628673
223	0x3dc20c02	0.094749466
224	0x3e7ac2ec	0.2448842
225	0x3e495dfc	0.19664758
226	0xbddbe196	-0.107363865
227	0xbd4f3f9e	-0.05059778
228	0xbea7904f	-0.32727286
229	0xbc7900b6	-0.015197923
230	0x3c79af3d	0.015239534
231	0xbd90640b	-0.07050332
232	0xbe91a71e	-0.28447813
233	0xbea04173	-0.31299934
234	0x3de6c0d4	0.11267248
235	0x3e293b24	0.16526467
236	0xbdcd2997	-0.10017698
237	0xbe9a2652	-0.3010736
238	0x3e974ebd	0.2955226
239	0x3c8b3c7d	0.016996616
240	0x3e2ac057	0.16674934
241	0x3e929dd1	0.2863603
242	0xbe0e74c3	-0.13911729

bias_ih_l0 f4 [27]
0	0x3e818465	0.25296322
1	0x3ea19126	0.31556052
2	0x3dfc3214	0.12314239
3	0x3e9b0553	0.302775
4	0x3dea00cd	0.11425934
5	0xbe9d84f1	-0.3076549
6	0x3dfeb75e	0.12437318
7	0xbe8995f2	-0.26872212
8	0x3e44a2ed	0.19202776
9	0x3e4c4d43	0.19951348
10	0xbd5a0a7e	-0.053232662
11	0xbc5939f8	-0.01325845
12	0x3e2791dd	0.16364236
13	0xbe2657ee	-0.1624448
14	0x3c377f5f	0.011199801
15	0x3ea4281c	0.3206185
16	0x3d706bf1	0.05869669
17	0xbea49533	-0.3214508
18	0xbe7f76db	-0.24947684
19	0x3da051f9	0.07828135
20	0x3da65f8a	0.081236914
21	0x3e5da68c	0.21645564
22	0xbe6546f7	-0.22390352
23	0xbe8af80c	-0.2714237
24	0xbd712059	-0.05886874
25	0x3dd240bf	0.102662556
26	0x3da67a2e	0.08128773

bias_hh_l0 f4 [27]
0	0xbe8ffbc0	-0.28121758
1	0x3e8c56d8	0.27410007
2	0x3de80dd9	0.11330766
3	0xbe854017	-0.2602546
4	0x3ea5083c	0.32232845
5	0xbe2e6c3e	-0.17033479
6	0xbe3c5fa9	-0.18395866
7	0x3e7416ec	0.23836869
8	0xbe8efd76	-0.2792775
9	0x3ea28537	0.3174226
10	0xbe9cbcbf	-0.30612752
11	0x3e8b0ba6	0.27157325
12	0xbcae4b58	-0.021276161
13	0xbe8ca9c2	-0.27473265
14	0x3db08c51	0.08620513
15	0xbda05e13	-0.07830443
16	0xbe867790	-0.26263094
17	0xbe7b3cdd	-0.24534936
18	0xbe19acdd	-0.15007348
19	0xbd94f84f	-0.072739236
20	0x3d6af2fe	0.05736064
21	0xbe898471	-0.26858857
22	0x3e3d4a50	0.18485379
23	0x3e8acfbd	0.27111617
24	0xbd48415a	-0.04889045
25	0x3e851c64	0.25998223
26	0x3e909855	0.2824122

weight_ih_l0 f4 [27, 24]
0	0xbd912b77	-0.070883684
1	0x3d8d64a4	0.06903961
2	0xbe4c9672	-0.19979265
3	0x3ea0cac0	0.31404686
4	0x3e474350	0.19459271
5	0x3e99afc8	0.30016923
6	0xbe978f52	-0.29601532
7	0xbc47772e	-0.012174411
8	0x3e351a95	0.17685921
9	0x3d6e85be	0.058233015
10	0xbda22e84	-0.079190284
11	0x3e29d4c3	0.16585068
12	0x3e732530	0.23744655
13	0xbe80fe94	-0.25194228
14	0xbe2d9859	-0.16952647
15	0xbe26b96f	-0.16281675
16	0x3d9f2347	0.077704005
17	0xbe9effe9	-0.3105462
18	0xbe8d1bef	-0.27560374
19	0x3ea2569e	0.3170671
20	0xbe09a9a5	-0.1344362
21	0xbe8c5d37	-0.27414867
22	0xbe595e66	-0.21227416
23	0x3e05b2e8	0.13056529
24	0xbc956f35	-0.018241504
25	0xbd5660e8	-0.05233851
26	0xbe76eb0a	-0.24113098
27	0x3e9f7703	0.31145486
28	0xbe2a7847	-0.16647445
29	0xbe3d7113	-0.18500166
30	0x3e65e01e	0.22448775
31	0x3e121d19	0.14268912
32	0x3e454cfd	0.1926765
33	0xbe6261ee	-0.2210767
34	0xb09371be	-1.0727985e-09
35	0x3d91a559	0.07111616
36	0xbe7dd634	-0.24788743
37	0xbdefba5a	-0.117054656
38	0x3e937917	0.28803322
39	0x3d903a4d	0.0704237
40	0x3e9f91e9	0.31166008
41	0x3bb0f9c6	0.005400869
42	0x3a42eb1b	0.0007435546
43	0x3e3e2d52	0.18571976
44	0xbd22db54	-0.03975995
45	0xbdd750f7	-0.1051349
46	0xbe9cda6b	-0.3063539
47	0xbbe21564	-0.0068995226
48	0x3e3582bd	0.17725654
49	0x3e6598f6	0.22421631
50	0x3cf6fa6d	0.03014871
51	0x3e8ec72e	0.27886337
52	0xbe46a063	-0.1939712
53	0xbe66560d	-0.22493763
54	0x3d69c592	0.057073183
55	0xbe810801	-0.2520142
56	0xbe44974c	-0.1919834
57	0x3cc1c491	0.0236533
58	0xa3c253c7	-2.1069003e-17
59	0x3e5464e7	0.20741616
60	0x3d82d53b	0.06388327
61	0x3c081157	0.008304915
62	0x3dc65291	0.09683717
63	0x3da7b5fc	0.08189008
64	0x3d26f80c	0.0407639
65	0xbe881199	-0.26575926
66	0x3e86353a	0.26212484
67	0x3d6cdeed	0.057829786
68	0xbe82038f	-0.2539334
69	0xbcc0bb09	-0.023526685
70	0xbe997c4d	-0.29977646
71	0x3e622dfb	0.22087853
72	0xbdc401e5	-0.09570674
73	0xbe8dc910	-0.2769246
74	0xbe128fcd	-0.14312668
75	0x3e95f0af	0.2928519
76	0x3e13ea2b	0.14444797
77	0x3e85bd38	0.26120925
78	0xbe39b5a2	-0.18135694
79	0x3e4dfed8	0.20116746
80	0x3ea634b6	0.3246209
81	0xbea2f1dd	-0.31825152
82	0x3900db90	0.00012288825
83	0xbe882b9e	-0.26595777
84	0xbe705caf	-0.23472856
85	0xbe3af1df	-0.18256329
86	0xbd8f9d58	-0.07012433
87	0x3e9cfbd1	0.3066087
88	0xbd625424	-0.055256024
89	0xbe834ac3	-0.25642976
90	0x3e51931d	0.20466276
91	0x3ea3a96a	0.3196519
92	0xbe69c2d0	-0.22828221
93	0x3e8982ad	0.2685751
94	0xbe3e1081	-0.18560983
95	0xbe3b2ed7	-0.18279587
96	0xbe28dddc	-0.16490883
97	0xbe7d1ef8	-0.24718845
98	0xbe62fc17	-0.22166477
99	0x3e9070ba	0.28211004
100	0x3be70192	0.0070497477
101	0x3e27a198	0.16370237
102	0x3dc7b4fe	0.097513184
103	0xbe60ed17	-0.21965443
104	0xbe978ff2	-0.2960201
105	0x3e850113	0.25977382
106	0xa5a6d40a	-2.8940093e-16
107	0x3e9aa84c	0.30206525
108	0xbe9504ac	-0.29105127
109	0xbe86aff3	-0.26306114
110	0xbea7b094	-0.32751906
111	0xbdc0cfcb	-0.09414633
112	0x3dfe1ec1	0.124082096
113	0x3d6a1ca6	0.057156228
114	0xbea0c45c	-0.3139981
115	0x3d767613	0.060171198
116	0x3e09aa4a	0.13443866
117	0xbe4aedac	-0.19817227
118	0xbe1ef823	-0.15524344
119	0x3d7e9779	0.062156174
120	0xbd1a31c4	-0.037645116
121	0xbe988f67	-0.29796907
122	0xbd6e9d88	-0.058255702
123	0xbe5b4546	-0.21413144
124	0x3e820032	0.25390774
125	0xbe30d98c	-0.17270488
126	0x3e807fb8	0.25097442
127	0x3e05f998	0.13083494
128	0xbe912a1c	-0.2835244
129	0x3e8a9b67	0.27071688
130	0x26c9ae9c	1.3994505e-15
131	0xbe645437	-0.2229775
132	0x3d01665e	0.031591766
133	0xbe37b604	-0.17940527
134	0xbe49c31c	-0.19703335
135	0xbe9cede2	-0.3065024
136	0xbe9c06db	-0.3047398
137	0x3ea44b4d	0.320887
138	0xbe948695	-0.29008928
139	0x3d666366	0.056247137
140	0xbe3256b8	-0.17415893
141	0x3b9076d2	0.0044086957
142	0x3e78e72d	0.24306937
143	0xbe43ad05	-0.1910897
144	0x3e00dc57	0.12584053
145	0xbe462885	-0.19351394
146	0x3e5beef5	0.21477874
147	0x3de6149b	0.11234399
148	0x3e91cfe8	0.28478932
149	0x3e7b942b	0.2456824
150	0x3e252bf3	0.16130047
151	0xbe358c5e	-0.17729327
152	0xbc09d296	-0.008412024
153	0x3e9e140d	0.30874673
154	0xbd9265b7	-0.07148307
155	0x3cc097b3	0.023509836
156	0x3e566f61	0.20940925
157	0x3e07649d	0.13221975
158	0x3cbec7c7	0.02328862
159	0x3e8dbb98	0.27682185
160	0xbe7d1286	-0.24714097
161	0x3d85a343	0.0652528
162	0x3dff573b	0.1246781
163	0xbe342cd5	-0.17595227
164	0x3e2497f0	0.16073585
165	0x3d40708f	0.046982344
166	0xbe9f77f7	-0.31146213
167	0xbe7f2222	-0.24915364
168	0xbe047de6	-0.12938651
169	0x3d6e1cca	0.058132924
170	0xbe65a276	-0.22425255
171	0xbccfde85	-0.02537466
172	0xbc2c118b	-0.010502229
173	0x3e93f5f3	0.28898582
174	0xbe887e17	-0.266587
175	0xbea73e11	-0.3266454
176	0xbe7f69c2	-0.24942687
177	0xbe8bc21a	-0.27296525
178	0xbb0b225d	-0.00212302
179	0xbe996bf3	-0.2996517
180	0x3c882769	0.016620355
181	0x3e8ccfd8	0.27502322
182	0x3e2f9f39	0.17150582
183	0xbcc3fedb	-0.023925235
184	0x3ea5dfaa	0.32397205
185	0x3d0ca609	0.03433803
186	0x3dbdeaf2	0.09273328
187	0xbe0885e0	-0.1333232
188	0x3cc67731	0.024226757
189	0x3e2bf47b	0.1679248
190	0x3e90f0d3	0.28308734
191	0xbde18fcc	-0.11013755
192	0xbe22f67c	-0.15914339
193	0x3dfd74fd	0.12375829
194	0x3e800aa8	0.2500813
195	0x3e9dbe6f	0.30809352
196	0xbea2a8fc	-0.3176955
197	0x3e8e5d72	0.27805668
198	0xbd530b20	-0.05152428
199	0x3e7525e1	0.23940231
200	0x3db66db8	0.08907646
201	0x3ea08d33	0.31357726
202	0x3a8519f8	0.0010154834
203	0x3cb997c1	0.02265537
204	0x3ddb32fe	0.10703085
205	0xbe5dde67	-0.21666871
206	0x3e4e1d56	0.20128378
207	0x3dc5f6b2	0.09666194
208	0xbea03592	-0.3129087
209	0x3e307e86	0.17235765
210	0xbe5f0dee	-0.21782658
211	0xbcedbf82	-0.029021982
212	0xbde59269	-0.11209566
213	0xbe4b948b	-0.19880883
214	0x3e2c9577	0.16853891
215	0x3e7ea7ae	0.24868652
216	0xbe16030e	-0.14649603
217	0xbe140198	-0.14453733
218	0x3e0027e2	0.12515214
219	0xbe83ed66	-0.25767058
220	0x3d5c6d9d	0.053815473
221	0x3e72a947	0.23697387
222	0xbd9c6534	-0.076364905
223	0xbea6c749	-0.32573918
224	0x3d950172	0.07275666
225	0xbe9c7553	-0.3055826
226	0x3d814efc	0.06313893
227	0x3e32873b	0.17434399
228	0xbe55e55a	-0.20888272
229	0xbe965b94	-0.29366744
230	0x3e852409	0.26004055
231	0x3d5bcf20	0.053664327
232	0xbea23849	-0.31683567
233	0xbea7e44c	-0.32791364
234	0xbdceb798	-0.100936115
235	0xbd0e01c8	-0.034669667
236	0xbd784d6f	-0.06062072
237	0x3e7140f4	0.23559934
238	0x3d8ab49d	0.067727305
239	0xbe93a5d3	-0.2883745
240	0xbe8eed43	-0.2791539
241	0xbe167adf	-0.14695309
242	0xbea895b4	-0.32926714
243	0xbd88183c	-0.06645247
244	0x3df93140	0.12167597
245	0xbe605060	-0.2190566
246	0x3cbdb52b	0.023157677
247	0x3da516b2	0.080609694
248	0x3e74ea73	0.2391756
249	0xbe566065	-0.20935209
250	0xbc1bde70	-0.009513482
251	0xbe9d12a5	-0.30678287
252	0xbe993272	-0.299213
253	0xbe9814c6	-0.2970335
254	0xbcca57bb	-0.024700036
255	0xbe82da17	-0.25557014

weight_hh_l0 f4 [27, 9]
0	0xbc315bae	-0.010825081
1	0x3d3e875d	0.04651581
2	0x3d67d374	0.05659814
3	0xbde7145e	-0.112831816
4	0x3d6af452	0.05736191
5	0x3d8221e5	0.06354121
6	0x3d2ba620	0.041906476
7	0xbc11e3f3	-0.008904445
8	0xbe3e762f	-0.18599771
9	0x3e0bad8c	0.13640422
10	0xbd1bd110	-0.038041174
11	0x3e5c2bff	0.21501158
12	0xbd168677	-0.03674933
13	0xbd64e346	-0.055880807
14	0x3d9b90a0	0.075959444
15	0x3ea0cfa8	0.3140843
16	0x3dbafb20	0.091299295
17	0xbe6a7895	-0.22897561
18	0xbc3e4b28	-0.011614598
19	0x3cced2f2	0.025247071
20	0xbe93ca74	-0.28865397
21	0xbe3bb795	-0.1833175
22	0x3d3b26cf	0.045691308
23	0x3d2d2fd6	0.042281948
24	0x3e0d614f	0.13806652
25	0xbd1d1d3e	-0.038357966
26	0x3e1daf8d	0.15398999
27	0xbe9e48f8	-0.30915046
28	0xb5164a50	-5.5987493e-07
29	0xbe40f004	-0.18841559
30	0xbdbf85f9	-0.09351725
31	0x37e4f896	2.7295475e-05
32	0xbd3670c9	-0.044541154
33	0x3ea4e1ef	0.32203624
34	0xbdbcb6b7	-0.092145376
35	0xbe65e98f	-0.22452377
36	0xbe06764a	-0.13131061
37	0x3c1ad64e	0.009450508
38	0x3e9d9817	0.30780098
39	0x3e8645f1	0.26225236
40	0xbcc3866b	-0.023867806
41	0x360808ff	2.0270816e-06
42	0xbdb81834	-0.089889914
43	0x3b9a2f7a	0.0047053667
44	0x3e261824	0.16220146
45	0x3e8844ae	0.26614898
46	0x3dbc1241	0.09183169
47	0x3ba61fc3	0.0050697043
48	0xbe1eed70	-0.15520263
49	0x21e6802a	1.5619331e-18
50	0xbdb43c45	-0.08800558
51	0x3e70b580	0.23506737
52	0xbca89ce7	-0.02058263
53	0x3ea35819	0.3190315
54	0x3e930680	0.28715897
55	0x3cb868fa	0.022510994
56	0x3e7168cc	0.23575133
57	0xbcfff49c	-0.031244569
58	0x3b52f68f	0.0032190417
59	0xb4b81df1	-3.4294456e-07
60	0x3e597542	0.21236137
61	0x3af181a2	0.0018425474
62	0xb8a08c01	-7.655472e-05
63	0xbe8cd0c2	-0.2750302
64	0xbd4b712d	-0.04966848
65	0x3c6b29e5	0.01435325
66	0xbdb3b7ef	-0.08775317
67	0xbdc2b54d	-0.09507237
68	0xbd4b4bbc	-0.049632773
69	0x3e5c9d9b	0.21544497
70	0xbdc29a08	-0.095020354
71	0x3e763368	0.24043047
72	0xbe95b939	-0.29242876
73	0x3b81272e	0.003941438
74	0x3ea7d44e	0.32779163
75	0xbe3fd577	-0.18733774
76	0x386f59fc	5.7065845e-05
77	0x3d2e58d6	0.04256519
78	0xbe18127b	-0.148508
79	0xbd75153a	-0.059834696
80	0x3e933980	0.28754807
81	0x3e68efc3	0.22747712
82	0xbd9bf717	-0.07615488
83	0xbd1ed76a	-0.038779654
84	0xbea6f69d	-0.32610026
85	0x3a2beccf	0.00065584196
86	0x3b09693c	0.0020967266
87	0x3e336a7b	0.17521088
88	0xbd282c1d	-0.041057695
89	0x3e7a619c	0.24451298
90	0x3e089e9e	0.13341758
91	0x3da46a48	0.08028084
92	0x3dd41195	0.10354916
93	0xbdf5bef7	-0.11999314
94	0x3ba04105	0.0048905634
95	0xbd850a80	-0.06496143
96	0x3dc7c188	0.0975371
97	0xbca27fbb	-0.019836297
98	0x3e67410a	0.22583404
99	0x3e074515	0.13209946
100	0xb7008d3d	-7.662279e-06
101	0xbe05708f	-0.13031219
102	0xbe09f7f3	-0.13473491
103	0x3bd59873	0.0065184175
104	0x3d62b108	0.05534461
105	0xbc3b95d3	-0.011449295
106	0xbd1f6157	-0.03891119
107	0x3e315b23	0.17319922
108	0xbe852dfb	-0.26011643
109	0xb74ae7c4	-1.20941e-05
110	0xbe560556	-0.20900473
111	0x3e9f8ccb	0.31162104
112	0xbcc3bf60	-0.023894966
113	0x268aa636	9.620725e-16
114	0xbe800493	-0.2500349
115	0x3d42be7a	0.047544934
116	0xbe8ad943	-0.27118883
117	0xbbc14f9e	-0.0058993837
118	0xbd1e750f	-0.038685855
119	0xbd903ab2	-0.07042445
120	0x3e1aa61c	0.15102428
121	0x22a23418	4.3965344e-18
122	0x3d60e127	0.054902222
123	0x3d291e6d	0.041288782
124	0xbd4a5eb4	-0.049406722
125	0x3cd3f2f7	0.02587269
126	0xbe064cab	-0.13115184
127	0xbc1c19e5	-0.009527658
128	0x3deebf2a	0.116575554
129	0xbdb96b49	-0.09053666
130	0xb9e633be	-0.0004390757
131	0x3b2f6c1c	0.002676732
132	0x3e21257a	0.15736952
133	0xbd2b94e4	-0.04189004
134	0x3e8cebc2	0.2752362
135	0x3e150462	0.14552453
136	0x3aeef4c6	0.0018230907
137	0x3dc8f8ec	0.09813103
138	0x3db58a9b	0.088643275
139	0xa3cf713f	-2.2490947e-17
140	0x24c29116	8.4379874e-17
141	0xbd523df8	-0.05132863
142	0x3ba51a61	0.005038545
143	0x3e264de6	0.16240653
144	0x3c991e28	0.018691137
145	0xa43dbb85	-4.1141677e-17
146	0x3ea9418c	0.3305782
147	0x3e9aa931	0.30207208
148	0x3b0c5265	0.0021411416
149	0xba7c3b19	-0.00096218433
150	0x3e8939e1	0.2680197
151	0x3afa59ba	0.0019100227
152	0xbea8f93c	-0.3300265
153	0x3e7651ff	0.24054717
154	0xb1f7f225	-7.2161748e-09
155	0xbe3af1c5	-0.1825629
156	0x3e35787e	0.17721745
157	0x3d8565ca	0.06513555
158	0xb610ddf1	-2.158686e-06
159	0xbdcc1005	-0.09963993
160	0x39f759ff	0.00047178564
161	0xbea31696	-0.3185317
162	0x3e1988bb	0.14993565
163	0xbdc07527	-0.09397345
164	0xbea1d068	-0.31604314
165	0x3d8064f6	0.06269257
166	0x3d74d3fc	0.059772477
167	0xbcc9dbaa	-0.024640877
168	0xbea53671	-0.32268098
169	0x3ca10875	0.019657353
170	0xbd83cb68	-0.06435281
171	0xbd73968a	-0.059469737
172	0x3da77fd5	0.08178679
173	0x3d8fc519	0.07020015
174	0xbe5c3afa	-0.21506873
175	0xb9e07724	-0.00042813376
176	0x33cfaa51	9.670169e-08
177	0xbe42adc8	-0.19011605
178	0x3b1ca857	0.002390405
179	0x3d81b09d	0.063325144
180	0x3dfde8d2	0.123979226
181	0xb920df77	-0.00015342036
182	0xbdd426a1	-0.103589304
183	0x3e4f2ea7	0.2023264
184	0x3c9f3a3f	0.019436954
185	0x3b6f6a23	0.0036531768
186	0x3e568f3d	0.20953079
187	0xb2494267	-1.1714838e-08
188	0xbe44b70d	-0.19210453
189	0xbe0ce19d	-0.1375794
190	0x240d6959	3.0663734e-17
191	0xbea6525b	-0.32484707
192	0xbdeafc0b	-0.11473855
193	0x3da2cfde	0.07949804
194	0x3bb039d3	0.005377987
195	0xbe8cb483	-0.2748147
196	0x3cc3de3e	0.023909684
197	0x3ea2db9a	0.31808168
198	0xbe1975ee	-0.14986393
199	0xbd9e9a55	-0.0774428
200	0xbe9c4e98	-0.30528712
201	0xbe24b29a	-0.16083756
202	0x3c8b1513	0.016977822
203	0x3cda810f	0.026672868
204	0x3d53adde	0.051679485
205	0xbb9a827a	-0.004715261
206	0xbe484dc3	-0.19560914
207	0xbea5b079	-0.323612
208	0xbd399502	-0.04530812
209	0xbe8da1a2	-0.2766238
210	0xbd49d7cc	-0.049278066
211	0x3dc77182	0.09738447
212	0x3d403525	0.046925683
213	0xbd2024b4	-0.039097503
214	0xbc2b5fc4	-0.010459844
215	0x3e01d44f	0.12678646
216	0x3d864baf	0.06557404
217	0x20b13920	3.0022768e-19
218	0xbe806c3b	-0.25082573
219	0xbddf5f54	-0.10906854
220	0x38019799	3.0897183e-05
221	0x2a78a59e	2.2084285e-13
222	0xbea45b80	-0.3210106
223	0x3d68ef3a	0.05686877
224	0x3e6466aa	0.22304788
225	0x3e361ae6	0.17783698
226	0x3d279d03	0.040921222
227	0xbe9d1ccb	-0.3068603
228	0x3d9d3930	0.07676923
229	0xbd0b8e7f	-0.03407144
230	0x3d80c84b	0.06288203
231	0xbe0f1f73	-0.1397684
232	0xbda6fd5d	-0.08153794
233	0x3da85840	0.08219957
234	0x3e1fdbdf	0.15611218
235	0xa485cd2f	-5.802715e-17
236	0x39bba554	0.00035790598
237	0xb92e394d	-0.0001661528
238	0x3cb1d8db	0.02170985
239	0x3db53287	0.08847528
240	0x3de9e061	0.1141975
241	0x3dcabcb9	0.09899277
242	0xbe92cffb	-0.28674302

bias_ih_l0 f4 [27]
0	0xbe9c68d4	-0.30548728
1	0xbe46fcc3	-0.19432358
2	0x3e7d8827	0.24758969
3	0x3e912760	0.28350353
4	0xbe28a7c2	-0.16470245
5	0x3eab4e1a	0.33458024
6	0x3e3c2870	0.183748
7	0xbea118a4	-0.31464112
8	0xbe637598	-0.22212827
9	0x3e83ce7f	0.25743482
10	0xbe2a3ef4	-0.16625577
11	0x3c93f7d9	0.018062519
12	0xbe346bd1	-0.17619254
13	0x3d4a64c9	0.049412522
14	0xbd21500e	-0.039382987
15	0x3eab4478	0.33450675
16	0xbe7b5172	-0.24542788
17	0xbe05e09d	-0.13073964
18	0xbdefe6c7	-0.11713939
19	0x3e391d03	0.18077473
20	0x3e5ec0eb	0.2175328
21	0xbe1e9b2b	-0.1548888
22	0xbdcd5555	-0.100260414
23	0xbe997278	-0.29970145
24	0x3d6c34c1	0.057667498
25	0xbe84f70e	-0.25969738
26	0xbe94b757	-0.29046127

bias_hh_l0 f4 [27]
0	0x3e91b713	0.28459987
1	0xbe563328	-0.20917952
2	0xbdddd7e7	-0.10832196
3	0x3e91a576	0.2844655
4	0x3d4c61b3	0.04989786
5	0x3e3cb1cc	0.18427199
6	0xbe1482cb	-0.14503019
7	0x3ea2ece1	0.3182135
8	0xbe3b4c55	-0.18290837
9	0x3d688759	0.056769703
10	0x3d9bf32c	0.07614741
11	0xbe7d5773	-0.2474039
12	0x3e528b65	0.20560987
13	0xbe8332d1	-0.25624707
14	0xbd8e1d39	-0.069391675
15	0x3d5d27d5	0.053993065
16	0x3e820628	0.25395322
17	0xbe14cbb5	-0.14530833
18	0x3e137a67	0.14402162
19	0x3e2001b3	0.15625648
20	0x3e85a7cf	0.2610459
21	0x3e86ac91	0.26303533
22	0x3e9985a5	0.29984775
23	0xbe78a48d	-0.24281521
24	0xbe5cc298	-0.21558607
25	0xbea0bc47	-0.31393644
26	0xbdc991de	-0.09842275

weight_ih_l0 f4 [27, 39]
0	0xbe0881a5	-0.13330705
1	0xbe4ed093	-0.20196752
2	0xbd5cd360	-0.05391252
3	0xbd34b878	-0.044121236
4	0x3da8a24f	0.08234083
5	0xbddadc78	-0.10686582
6	0x3c813b34	0.0157753
7	0xbe98fffe	-0.29882807
8	0x3e2d2ef3	0.16912441
9	0x3e8db454	0.27676642
10	0x3e5cf5bb	0.21578114
11	0x3e43cf13	0.19121961
12	0x3cd2b5c8	0.025721446
13	0x3e87742e	0.26455826
14	0xbdd5b512	-0.10434927
15	0xbd48ab79	-0.048991654
16	0xbe8c9823	-0.2745982
17	0xbd111797	-0.035422888
18	0xbda41e80	-0.0801363
19	0x3e9ee6c6	0.3103544
20	0xbe6b318f	-0.22968124
21	0xbd8026b2	-0.062573805
22	0x3d156620	0.036474347
23	0xbe7cc677	-0.24685083
24	0x3d33bcb3	0.04388113
25	0x3e347f28	0.17626631
26	0x3e8521d8	0.26002383
27	0xbe1219d7	-0.1426767
28	0xbe8e4564	-0.27787316
29	0x3e3f7515	0.18697007
30	0x3e4fbaf6	0.20286164
31	0x3e95d7d5	0.2926623
32	0xbc090fae	-0.008365555
33	0xbe95e120	-0.2927332
34	0xbdb5ba15	-0.08873383
35	0xbe610c09	-0.21977247
36	0xbd55cd5c	-0.0521978
37	0xbea7fa02	-0.32807928
38	0x3e8df081	0.27722552
39	0xbe3db922	-0.18527654
40	0xbe72b3be	-0.23701379
41	0xbd7586a7	-0.059942868
42	0xbd4f4e71	-0.050611917
43	0x3e86024c	0.26173627
44	0x3e7f26ef	0.24917196
45	0x3da9229f	0.082585566
46	0x3e046649	0.12929644
47	0xbea9ece6	-0.33188552
48	0x3e87046a	0.26370555
49	0x3d9fa9de	0.077960715
50	0x3d3162f4	0.04330726
51	0x3e9ef1ab	0.31043753
52	0xbeabd733	-0.3356262
53	0x3e0d15e9	0.1377789
54	0xbe867a53	-0.262652
55	0x3e991d07	0.2990496
56	0xbd5b29d3	-0.053506684
57	0x3e8e9dec	0.2785486
58	0xbeaa2a3f	-0.33235356
59	0xbea45473	-0.3209568
60	0xbe7430ad	-0.23846693
61	0x3e990d2b	0.2989286
62	0x3aab6c92	0.0013078621
63	0xbe5264dc	-0.20546287
64	0xbc827c30	-0.015928358
65	0x3bc89f89	0.0061225337
66	0x3e46ed33	0.19426422
67	0x3e54c06c	0.20776528
68	0x3e4f1d9d	0.2022614
69	0x3e81731e	0.2528314
70	0x3ea776c7	0.32707807
71	0xbe8a36e2	-0.26994997
72	0x3e0542ea	0.13013807
73	0x3e9632fd	0.29335776
74	0x3e091834	0.13388139
75	0xbe14b76a	-0.14523092
76	0xbd5d80d2	-0.05407793
77	0xbd835d34	-0.064142615
78	0x3cb6e66c	0.02232667
79	0xbc959b59	-0.018262552
80	0x3b33ec4e	0.002745408
81	0x296c5127	5.2472915e-14
82	0xbe66e33a	-0.22547618
83	0x3d69c555	0.057072956
84	0x3d1d0170	0.03833145
85	0x3e5b43a8	0.21412528
86	0x3e24b7e4	0.16085774
87	0x3ca4bae4	0.020108648
88	0x3e6c2e67	0.23064576
89	0x3de3fee5	0.11132602
90	0xbe69ea42	-0.22843269
91	0xbdb38256	-0.08765094
92	0x3e87736c	0.26455247
93	0xbe83529f	-0.25648972
94	0x3e9f3713	0.31096706
95	0x3e1b583f	0.15170382
96	0x3e17df54	0.14831287
97	0x3cc6d3a9	0.02427085
98	0xbe375eee	-0.17907307
99	0x3db4cc88	0.08828074
100	0x3dad1e6d	0.08453069
101	0x3e61e18d	0.22058697
102	0x3ea69347	0.3253424
103	0x3d0c3074	0.034225896
104	0xbe8df796	-0.27727956
105	0x3e88ddbf	0.2673168
106	0x3d728842	0.059211977
107	0x3e96afa2	0.29430872
108	0xbda9d726	-0.082929894
109	0xbe0a18aa	-0.13485971
110	0xbe2e9788	-0.17049992
111	0xbe11a87f	-0.14224432
112	0xbe62016a	-0.22070852
113	0x3cdb6b65	0.026784608
114	0xbe1cab32	-0.15299681
115	0x3e724628	0.23659575
116	0xbd8058df	-0.06266951
117	0xbe9a41b4	-0.30128253
118	0x3db845e4	0.089977056
119	0x3d315ec3	0.043303262
120	0x3d879e93	0.066220425
121	0x3d8b47b9	0.068007894
122	0xbe9f08c9	-0.3106139
123	0xbcdd0d5d	-0.026983911
124	0x3d573e18	0.05254945
125	0x3dc15869	0.09440691
126	0xbdce2f59	-0.100676246
127	0xbea365f8	-0.31913733
128	0xbb6928a8	-0.0035577212
129	0x3c51b194	0.012798686
130	0xbe8d1b78	-0.2756002
131	0x3e7c1488	0.24617207
132	0xbe9de10f	-0.3083577
133	0x3e7341e7	0.23755608
134	0xbe565a49	-0.20932879
135	0xbea67c32	-0.32516629
136	0xbe64fc24	-0.22361809
137	0x3e840749	0.25786808
138	0x3e10bd08	0.1413461
139	0xbd03a12f	-0.03213614
140	0x3deaa379	0.11456961
141	0x3d99949e	0.074990496
142	0x3e43ea54	0.19132358
143	0xbe36c5f6	-0.17848954
144	0x3dd1eab8	0.10249847
145	0xbcfb469d	-0.03067332
146	0xbc874c00	-0.016515732
147	0xbd2aef3c	-0.041732058
148	0xbe4adcb5	-0.19810756
149	0x3dc22fcf	0.09481775
150	0x3e9bfcf2	0.3046642
151	0x3e5a87d9	0.21340884
152	0x3e9c4a68	0.30525517
153	0xbd66209d	-0.056183446
154	0x3dbfaec9	0.093595095
155	0x3e514984	0.204382
156	0x3e0f0a3a	0.13968745
157	0x3cacade5	0.021079013
158	0xbc5e72a2	-0.013577135
159	0x3be96cd1	0.0071235676
160	0xbdef5d6e	-0.11687742
161	0x3d41f70e	0.04735475
162	0xbe0c78df	-0.13717984
163	0x3ce7f3f0	0.02831456
164	0x3e247d34	0.16063386
165	0x3e3bd95e	0.18344638
166	0xbe3f0066	-0.18652496
167	0x3e838e40	0.25694466
168	0x3e59b43d	0.21260162
169	0x3e7a9673	0.24471454
170	0x3ea93cfa	0.33054334
171	0x3e39610d	0.18103428
172	0x3e48df54	0.19616443
173	0x3e8bad82	0.27280813
174	0xbe22d323	-0.15900855
175	0xbdba7ec5	-0.091062106
176	0xbd989a3e	-0.07451294
177	0xbe685fd6	-0.22692809
178	0xbe265ec9	-0.16247095
179	0xbe450e92	-0.1924384
180	0xbe7f7b1e	-0.24949309
181	0x3d3f1986	0.0466552
182	0xbe2382d8	-0.15967882
183	0xbe109108	-0.14117825
184	0x3e918e67	0.28428957
185	0xbdb33eff	-0.0875225
186	0xbc26f1ac	-0.010189455
187	0xbcc75356	-0.02433173
188	0x3e2c292d	0.16812582
189	0xbd1c3a08	-0.03814128
190	0xbea90757	-0.33013412
191	0xbe8f61f9	-0.28004435
192	0x3ea7d271	0.32777742
193	0xbb9a9383	-0.004717292
194	0x3d833425	0.0640643
195	0x3e8f3f52	0.27977997
196	0xbdaacd46	-0.08339934
197	0xbd57ef51	-0.052718464
198	0x3c8bcdbe	0.017065879
199	0x3e2de0b3	0.16980247
200	0xbe74e0d8	-0.23913896
201	0xbd20dbe6	-0.03927221
202	0x3ea08b74	0.31356394
203	0x3e8a180d	0.26971474
204	0xbe42832d	-0.18995352
205	0x3e8dd408	0.2770083
206	0xbe874e45	-0.26426902
207	0xbe532eab	-0.20623271
208	0xbe8c8e14	-0.27452147
209	0x3e21e49d	0.15809865
210	0x3da5bb9c	0.08092424
211	0x3e1c6e4a	0.15276447
212	0x3e82092a	0.25397617
213	0x3d4ef4c9	0.050526414
214	0xbe86d528	-0.263345
215	0x3e8b1c9d	0.27170268
216	0x3e9ec139	0.31006792
217	0x3e848586	0.2588312
218	0x3d42e928	0.047585636
219	0xbe46c3a2	-0.19410565
220	0x3ddae8fb	0.10688969
221	0xbe4d6f88	-0.20062077
222	0x3ceab0fc	0.028648846
223	0x3d52cf7f	0.051467415
224	0x3e9f5491	0.31119207
225	0xbe4759a1	-0.19467784
226	0x3e97167a	0.29509336
227	0xbe96236e	-0.29323906
228	0xbe9110a0	-0.28332996
229	0xbe89dddc	-0.26927078
230	0xbe7997dd	-0.24374337
231	0x3e92a7a3	0.28643522
232	0x3e80dafb	0.2516707
233	0xbe4fc762	-0.20290902
234	0xbdfc0dc5	-0.12307314
235	0xbca7c398	-0.020479009
236	0x3453a33d	1.9710292e-07
237	0xbd4b6053	-0.04965241
238	0x3ce6bf09	0.028167265
239	0xbe412049	-0.18859972
240	0xbda78059	-0.08178777
241	0x3e5befab	0.21478145
242	0xbe447e1a	-0.19188729
243	0xbd53e591	-0.051732603
244	0xbde2a861	-0.11067272
245	0x3e4aab95	0.19792016
246	0x3d539870	0.051659048
247	0x3be04536	0.006844188
248	0x3e349d21	0.17638065
249	0x3e275f62	0.1634498
250	0xbc6c13d6	-0.014409026
251	0xbd84f822	-0.0649264
252	0x3e8119b0	0.2521491
253	0xbe435b44	-0.19077784
254	0xbe8b568a	-0.27214462
255	0x3e16bbdc	0.147201

weight_hh_l0 f4 [27, 9]
0	0x3d135096	0.035965525
1	0xbe2e5f3c	-0.17028517
2	0xbe9c50bd	-0.30530348
3	0xbe813f14	-0.25243437
4	0xbeaa8642	-0.33305556
5	0xbe5cab47	-0.21549712
6	0x3e2e6804	0.17031866
7	0xbea4e1ae	-0.3220343
8	0xbd95e788	-0.07319552
9	0xbe95a575	-0.29227796
10	0x3cde8604	0.027163513
11	0xbe86b6f1	-0.26311448
12	0xbea90b3e	-0.3301639
13	0xbea1d41c	-0.3160714
14	0x3e97c22d	0.29640332
15	0xbe794a39	-0.2434472
16	0x3ca965c9	0.020678418
17	0x3e7e4d72	0.2483423
18	0xbce62613	-0.028094327
19	0xbdb3ae4f	-0.08773481
20	0x3e21db12	0.15806225
21	0x3e880854	0.26568854
22	0x3e870486	0.2637064
23	0x3e3da408	0.18519604
24	0xbd5fbd71	-0.054624025
25	0xbe3e36d9	-0.1857561
26	0xbd29233b	-0.041293364
27	0xbe55ff82	-0.2089825
28	0x3ea324b3	0.31863937
29	0xbe504326	-0.20338115
30	0x3ea559b4	0.32295
31	0x3e4e8138	0.2016648
32	0x3e9b943f	0.3038654
33	0xbde9ef0d	-0.114225484
34	0xbce2a59b	-0.027666857
35	0x3e575921	0.21030094
36	0xbe90effb	-0.2830809
37	0xbe62b6ae	-0.2214
38	0x3e04eb4f	0.12980388
39	0xbe993cf8	-0.29929328
40	0xbe1e517a	-0.15460768
41	0x3d5dd206	0.054155372
42	0x3da01e3d	0.078182675
43	0x3e545e3f	0.20739077
44	0xbdfd2f68	-0.12362558
45	0xbe942f52	-0.28942353
46	0xbd9ddf0d	-0.07708559
47	0x3e1204d0	0.14259648
48	0xbe0dc63d	-0.13845153
49	0x3e8d0803	0.27545175
50	0x3e775eb9	0.24157228
51	0x3e852133	0.26001891
52	0xbd11c84e	-0.035591416
53	0x3d6ee3bb	0.05832265
54	0xbd68825a	-0.056764938
55	0xbe8a60cc	-0.27026975
56	0xbea6f2ed	-0.32607213
57	0x3dd85391	0.10562814
58	0xbbf3a935	-0.0074359425
59	0x3d98d08c	0.07461652
60	0xbdde0726	-0.10841207
61	0x3e7f79bd	0.24948783
62	0xbdbeb3d8	-0.09311646
63	0xbe062d43	-0.13103203
64	0xbe7a7bc0	-0.2446127
65	0xbe420c30	-0.18949962
66	0x3e98640d	0.29763833
67	0x3e313771	0.17306305
68	0xbdfab866	-0.122422025
69	0x3e9c600a	0.30542022
70	0x3e9ad4b4	0.30240405
71	0x3e347e5f	0.17626332
72	0x3e8a551a	0.27018052
73	0xbe92bd54	-0.2866007
74	0x3e87d4dc	0.26529586
75	0xbe68ef89	-0.22747625
76	0xbe5e3728	-0.21700728
77	0x3cf8d117	0.03037314
78	0xbe82f1ad	-0.2557501
79	0x3de4937c	0.11160943
80	0x3e275158	0.16339624
81	0xbe8784ad	-0.2646841
82	0x3ca0728a	0.019585866
83	0xbe5763cd	-0.21034165
84	0x3e4f7fb7	0.20263563
85	0xbe6d712f	-0.23187707
86	0x3e1d52bf	0.15363596
87	0x3e8955af	0.26823184
88	0xbe39252e	-0.18080589
89	0x3e93ec7c	0.2889136
90	0xbd9684c8	-0.07349545
91	0x3e76a66c	0.24086922
92	0xbce72f98	-0.028220937
93	0x3e513449	0.20430101
94	0x3e06390a	0.13107696
95	0xbe6a915d	-0.22907014
96	0xbcd17129	-0.025566654
97	0xbe5eb1c1	-0.21747495
98	0xbe16903a	-0.14703456
99	0x3e9f9aa7	0.31172678
100	0x3e5ae0d6	0.2137483
101	0xbe75cf1c	-0.24004787
102	0xbe1aabe3	-0.15104632
103	0x3d608793	0.054816794
104	0x3e81ed2b	0.25376257
105	0xbe7e8461	-0.24855186
106	0xbb088fd2	-0.0020837677
107	0xbdee29de	-0.11629079
108	0xbda32170	-0.07965362
109	0xbe99829c	-0.2998246
110	0xbdcdfc45	-0.10057882
111	0xbdb1121a	-0.08646031
112	0x3d166a01	0.036722187
113	0xbb89efec	-0.004209509
114	0x3e062486	0.1309987
115	0x3e589353	0.2114995
116	0xbe559086	-0.20855913
117	0xbe16c0c6	-0.14721975
118	0x3ea387fe	0.3193969
119	0xbe4ee210	-0.20203424
120	0x3e199731	0.14999081
121	0xbe9eb65b	-0.309985
122	0xbd0594fd	-0.03261279
123	0xbb9c0842	-0.0047617266
124	0xbe2027db	-0.15640204
125	0x3e6063e6	0.21913108
126	0xbea3bfd4	-0.3198229
127	0x3d8be862	0.06831433
128	0x3e9b65a4	0.30350983
129	0xbdee629b	-0.11639901
130	0xbe688b92	-0.22709492
131	0xbe3fc5cf	-0.18727802
132	0xbe11a4f1	-0.14223076
133	0xbe27448a	-0.1633474
134	0x3ea1684f	0.31524894
135	0xbe84216a	-0.25806743
136	0x3d8ed86f	0.06974875
137	0x3c87d723	0.016582077
138	0x3e81eb44	0.25374806
139	0xbe03f83e	-0.12887666
140	0x3d66c5e8	0.05634108
141	0xbde4362a	-0.111431435
142	0x3bc5e035	0.0060386905
143	0x3e8dcc88	0.27695107
144	0xbd89115b	-0.066927634
145	0xbe66592f	-0.22494958
146	0x3e86f991	0.2636228
147	0xbdfb9a61	-0.12285305
148	0xbd547fbe	-0.051879637
149	0x3e974488	0.29544473
150	0x3e00923d	0.12555785
151	0x3e9b2429	0.30301026
152	0x3ddac826	0.106827065
153	0x3dc91162	0.09817769
154	0x3d445440	0.04793191
155	0x3ea772fa	0.32704908
156	0xbe82f283	-0.25575647
157	0xbe9b0d2c	-0.30283487
158	0xbe287d33	-0.1645401
159	0x3e147060	0.14495993
160	0xbe28e6f9	-0.16494359
161	0xbe5c434e	-0.2151005
162	0xbea2bc9f	-0.3178453
163	0xbe902979	-0.2815664
164	0x3e8b8cd5	0.27255884
165	0xbdf5cf00	-0.12002373
166	0xbe7d8a0f	-0.24759696
167	0xbe005b79	-0.12534894
168	0x3e23a170	0.15979552
169	0xbdfa9377	-0.12235158
170	0x3e94beef	0.2905192
171	0xbe8c2bb2	-0.27377087
172	0x3e218b59	0.15775813
173	0xbd8605ef	-0.065441005
174	0x3dd32298	0.103093326
175	0xbe58fffd	-0.21191402
176	0x3e8fca38	0.28083968
177	0xbe00841a	-0.12550393
178	0x3e5384a4	0.20656067
179	0x3e69a167	0.22815476
180	0x3cc391e8	0.023873284
181	0x3e0b951e	0.13631102
182	0xbe7e252b	-0.24818866
183	0x3e580064	0.21093899
184	0xbe849849	-0.25897434
185	0x3d260b44	0.040538087
186	0x3e8e9349	0.27846745
187	0x3d80cc93	0.062890194
188	0x3e9a7e43	0.30174455
189	0x3c01ece4	0.007930014
190	0x3dd6a3a6	0.10480432
191	0xbca36a9d	-0.019948298
192	0x3e40f022	0.18841603
193	0x3de9bbe8	0.114127934
194	0x3e00d9b1	0.12583043
195	0x3e09e404	0.13465887
196	0xbea0e0b8	-0.31421447
197	0xbe493d44	-0.19652277
198	0xbdfa6f16	-0.12228219
199	0xbe4a247e	-0.19740483
200	0x3ea01abf	0.31270406
201	0x3e5a85b6	0.21340069
202	0xbe734ea8	-0.23760474
203	0x3ea1722f	0.31532428
204	0xbe670a26	-0.22562465
205	0x3dbd840b	0.09253701
206	0xbbd1fdab	-0.0064084134
207	0xbd988a80	-0.07448292
208	0x3c978551	0.018496187
209	0xbe957dab	-0.2919744
210	0x3e62c8b3	0.22146873
211	0xbe471559	-0.19441737
212	0x3dd18e0f	0.10232174
213	0x3e38bf43	0.1804171
214	0xbe4775cd	-0.19478531
215	0xbea30e8a	-0.3184703
216	0xbe6510ae	-0.22369644
217	0xbe917336	-0.2840821
218	0x3bfad771	0.007655077
219	0xbdea3ef3	-0.11437788
220	0x3d63c7a6	0.05561032
221	0xbe7178af	-0.23581193
222	0x3c4c2ad2	0.012461381
223	0xbe90a7f7	-0.28253147
224	0xbe65261c	-0.22377819
225	0xbe2c4570	-0.16823363
226	0xbe8f14f2	-0.27945668
227	0xbdaf6cbb	-0.085656606
228	0x3db8b407	0.090187125
229	0xbe0ae91a	-0.13565484
230	0x3ea43eb4	0.3207909
231	0xbe59d4f0	-0.21272635
232	0x3e8edd99	0.2790344
233	0x3dca5a50	0.09880507
234	0x3dc0808d	0.09399519
235	0x3e48cf48	0.19610322
236	0xbb8005e6	-0.003906953
237	0xbe3f94fa	-0.18709174
238	0x3df0c8bc	0.11757037
239	0xbe96dfd0	-0.2946763
240	0x3dac859d	0.08423922
241	0xbe949135	-0.29017034
242	0x3dd6db2b	0.10491022

bias_ih_l0 f4 [27]
0	0x3e8da616	0.27665776
1	0x3e51b867	0.204805
2	0xbcb9b483	-0.022669083
3	0x3e9e0989	0.3086665
4	0xbe35e43d	-0.17762847
5	0x3e8e1f25	0.27758136
6	0x3e7cd169	0.24689259
7	0xbe50b6bf	-0.20382212
8	0xbea1036c	-0.31447923
9	0xbe12d2c8	-0.14338219
10	0x3b5e2738	0.0033897888
11	0xbe543bef	-0.20725988
12	0x3e5da48e	0.21644804
13	0xbea0e610	-0.31425524
14	0x3e859451	0.2608972
15	0x3e433ae5	0.19065435
16	0x3cc9fe08	0.024657264
17	0xbd24c886	-0.040230297
18	0x3c87bef2	0.016570542
19	0xbd735323	-0.059405457
20	0x3ca4d862	0.02012271
21	0xbe56ffbd	-0.20995994
22	0xbc8a5cb0	-0.0168899
23	0xbe9320ee	-0.2873606
24	0xbe17242f	-0.14759897
25	0xbe3d475d	-0.18484254
26	0x3e93af85	0.28844848

bias_hh_l0 f4 [27]
0	0xbe8bf5f6	-0.2733609
1	0x3d54a5f8	0.051916093
2	0x3e015cd7	0.12633072
3	0x3d96e553	0.07367959
4	0xbde3606b	-0.11102375
5	0xbd1ba2a3	-0.0379969
6	0x3d08340a	0.033252753
7	0xbea1aa11	-0.31575063
8	0xbd1e0014	-0.038574293
9	0xbce459a1	-0.02787477
10	0xbe90496f	-0.28181025
11	0xbea4d313	-0.32192287
12	0x3e7a523e	0.24445435
13	0x3d399244	0.045305505
14	0x3e252625	0.16127832
15	0x3e0632b8	0.13105285
16	0xbe6e9154	-0.23297626
17	0xbe373049	-0.17889513
18	0x3e7f9c23	0.24961905
19	0xbd9883c0	-0.07447004
20	0x3dc94163	0.09826925
21	0x3e79596a	0.24350515
22	0xbe270dcc	-0.16313857
23	0x3ab46744	0.0013763686
24	0xbd9c1088	-0.076203406
25	0xbea1d1ab	-0.31605276
26	0xbe320c1f	-0.17387436

weight f4 [9, 9]
0	0xbe768a59	-0.24076213
1	0xbe888a34	-0.2666794
2	0xbe9e6167	-0.30933687
3	0xbe696992	-0.22794178
4	0x3e915884	0.28387845
5	0x3deaa4c4	0.11457208
6	0x3e019e28	0.12657988
7	0x3e8dd418	0.27700877
8	0xbe01cd8d	-0.12676068
9	0x3ced0e5c	0.028937511
10	0x3e292308	0.1651727
11	0xbe60ea99	-0.21964492
12	0x3d9de6b1	0.077100165
13	0x3e7c5e5e	0.24645373
14	0x3ccc0cac	0.024908386
15	0x3d9fbe65	0.07799987
16	0x3e575fad	0.21032591
17	0x3e3a3403	0.18183903
18	0x3db5f838	0.088852346
19	0xb8284b23	-4.0124298e-05
20	0x3bcb029d	0.00619538
21	0xb837255a	-4.3665386e-05
22	0x3cbec5a5	0.023287604
23	0x3a854dea	0.0010170315
24	0xb9febc0d	-0.00048586764
25	0x3cab1795	0.020885268
26	0x38a840ea	8.0229554e-05
27	0x3d8e95b7	0.069621496
28	0xa27ebe8d	-3.4524296e-18
29	0xa29c8a0a	-4.243004e-18
30	0xb78aeadc	-1.6560247e-05
31	0x3c78c482	0.01518357
32	0x3d054737	0.03253862
33	0xb01c4fd4	-5.686591e-10
34	0x3bc14bd2	0.005898931
35	0xb63d8d8e	-2.824559e-06
36	0x3d8943aa	0.06702359
37	0xbe80e117	-0.2517173
38	0xbd9fc79e	-0.07801746
39	0xbe36320a	-0.17792526
40	0x3e85d5e7	0.26139757
41	0x3def4641	0.11683322
42	0x3ddee0cb	0.108827196
43	0xbe3d9db6	-0.18517193
44	0x3e263d53	0.16234331
45	0xbdad1dd2	-0.084529534
46	0xbe9dd28c	-0.30824697
47	0xbd34db65	-0.044154543
48	0xbe9579a8	-0.2919438
49	0xbe1babbe	-0.15202233
50	0xbe9f9d7d	-0.31174842
51	0x3e9c0458	0.30472064
52	0xbe9fc16a	-0.3120225
53	0xbe3e0e4e	-0.18560144
54	0xbe52210f	-0.20520423
55	0x3dc376de	0.095441565
56	0x3dbd25b1	0.09235705
57	0x3df68720	0.12037492
58	0x3d00f342	0.03148199
59	0xbe721223	-0.23639731
60	0x3de5ccc9	0.112207
61	0xbd11a963	-0.03556193
62	0xbe1abe06	-0.1511155
63	0x3e3bf2e6	0.18354377
64	0xbe9f6a02	-0.31135565
65	0x3e9e3bfa	0.30905133
66	0xbc092e6a	-0.008372882
67	0x3e97b54a	0.296305
68	0x3d9e009d	0.07714961
69	0xbe87e060	-0.26538372
70	0xbea1319c	-0.3148316
71	0xbc932d45	-0.017965922
72	0xbe88cc55	-0.26718393
73	0x3da5ea41	0.08101321
74	0x3ea0d358	0.31411242
75	0x3d8b66cf	0.068067186
76	0x3e5c9716	0.2154201
77	0xbe147b05	-0.14500053
78	0x3debcf83	0.11514189
79	0x3dde8483	0.10865118
80	0xbe65d48e	-0.22444364

bias f4 [9]
0	0x3e677668	0.22603762
1	0x3df19503	0.11796
2	0xbd0e0c43	-0.034679662
3	0xbcb4b035	-0.022056678
4	0x3e3f9662	0.1870971
5	0x3da1aba7	0.07894068
6	0x3c39d446	0.011342114
7	0x3e170e46	0.14751539
8	0x3d1fce31	0.039015
