RTSNet/checkpoints/Linear/full/v-10dB/rq010_T100.pt (torch, 138381 bytes, 68 tensors)

weight_ih_l0 f4 [12, 10]
0	0xbd886eb2	-0.066617385
1	0x3de4cfb8	0.11172432
2	0x3bcb56ae	0.0062054014
3	0x3e6f1442	0.23347571
4	0xbe199aad	-0.1500041
5	0xbe8dadda	-0.276717
6	0xbe66ce69	-0.22539677
7	0xbe162e6e	-0.14666149
8	0x3e9c9b33	0.30587158
9	0xbe8be05f	-0.2731962
10	0x3e2f2235	0.17102893
11	0xbb5b8302	-0.0033494835
12	0xbd83132f	-0.06400143
13	0x3e5be55c	0.21474212
14	0xbd823717	-0.06358164
15	0x38e46eff	0.00010892562
16	0x3e5ffd25	0.2187391
17	0xbce1b2f2	-0.027551148
18	0xbba1ed98	-0.0049416535
19	0x3e65025b	0.2236418
20	0xbcf8c912	-0.030369315
21	0xbe898550	-0.26859522
22	0x3e7e28eb	0.24820296
23	0x3c092680	0.0083709955
24	0x3e5a960b	0.213463
25	0x3dbaad92	0.09115137
26	0xbe43bda1	-0.19115306
27	0x3d891e68	0.06695253
28	0xbe33bb1b	-0.17551844
29	0x3df30251	0.11865676
30	0xbe3fff63	-0.18749766
31	0xbd3bb2a8	-0.045824677
32	0xb751fad7	-1.2515774e-05
33	0xbe55d99a	-0.2088379
34	0x3c7e43a0	0.015519053
35	0x3e343739	0.17599191
36	0x3c65d8cc	0.014028739
37	0xbcadd4ff	-0.021219729
38	0xbb7b0c06	-0.0038306727
39	0x3b74d119	0.0037356077
40	0xbdc2f1e4	-0.09518793
41	0xbe7cfdfb	-0.24706261
42	0x3d42c5e0	0.04755199
43	0x3dbc49cb	0.091937624
44	0x3ceb568f	0.028727798
45	0xbc5d0d44	-0.013491932
46	0xbcbf6514	-0.023363627
47	0xbcade66e	-0.021228041
48	0xbda970ae	-0.08273445
49	0x3e218882	0.1577473
50	0x3b8c60e8	0.004284013
51	0xbb3ec2f8	-0.002910791
52	0xbe1a731c	-0.15082973
53	0x3de23047	0.110443644
54	0x3e85abed	0.2610773
55	0x3d9e2aad	0.077229835
56	0x3d9dc5b9	0.07703728
57	0x3ace064b	0.0015718428
58	0xbce38729	-0.02777441
59	0xbe8235bb	-0.25431618
60	0xbe0c33bc	-0.1369161
61	0x3e3f5e54	0.18688327
62	0x3e303e01	0.17211153
63	0xbdb44703	-0.08802607
64	0xbc1254a5	-0.008931314
65	0x3dd9aeda	0.106290534
66	0xbe591bb7	-0.21201979
67	0x3dd53a2d	0.10411487
68	0x3cf908d0	0.03039971
69	0x3af03409	0.0018326055
70	0x3e74ec16	0.23918185
71	0xbdbc247f	-0.091866486
72	0x37d1fc77	2.5032305e-05
73	0xbd8d5fb8	-0.069030225
74	0x3bc08ee9	0.005876411
75	0x3c156ea8	0.009120621
76	0xbd696b8b	-0.056987327
77	0x3cbfefe4	0.023429818
78	0x3e5f8545	0.21828182
79	0xbc97ea59	-0.018544363
80	0x3ec7f233	0.3905197
81	0x3dc79855	0.09745852
82	0xbd432b4b	-0.04764871
83	0xba63cfbe	-0.0008690319
84	0x3d02a6b9	0.03189728
85	0xbe991c25	-0.29904285
86	0xbe8e9b93	-0.2785307
87	0xbd8b2f9e	-0.06796192
88	0x3eb5e432	0.35525662
89	0xbe8e4852	-0.2778955
90	0xbe952758	-0.2913158
91	0x3e7330e0	0.23749113
92	0xbd22eb40	-0.039775133
93	0x39062694	0.00012793607
94	0x3e38448f	0.17994903
95	0xbee432d0	-0.44570017
96	0xbe1f44e4	-0.15553623
97	0xbe3a6705	-0.18203361
98	0x3e3470f7	0.17621218
99	0x3e05e74e	0.13076517
100	0x3e90f022	0.28308207
101	0x3e819dde	0.25315756
102	0xac18bedf	-2.1706454e-12
103	0x3d40ecd4	0.047100857
104	0x3ea45c63	0.32101735
105	0x3dd78489	0.10523326
106	0x3ed1884c	0.409243
107	0x3e1c146c	0.15242165
108	0xbdd6c16b	-0.1048611
109	0xbdb157f6	-0.08659355
110	0x3e12a856	0.14322028
111	0xbbf9260b	-0.007603412
112	0x3db7baec	0.089711994
113	0x39286818	0.00016060506
114	0xbe8fd5cf	-0.2809281
115	0xbeccf890	-0.40033388
116	0xbebba296	-0.3664748
117	0xbee9f074	-0.45691264
118	0x3d66a3fc	0.05630873
119	0x3e9d555b	0.30729184

weight_hh_l0 f4 [12, 4]
0	0x3d12187d	0.035667885
1	0xbcb0e5d5	-0.021593967
2	0xbdc39a73	-0.09550943
3	0xbabaa155	-0.0014238755
4	0xbcee7e82	-0.029113058
5	0xbab8889f	-0.0014078802
6	0xbdca8f0b	-0.098905645
7	0x3a8357d5	0.0010020683
8	0x3dd191c4	0.10232881
9	0x3da28924	0.07936314
10	0xbd245643	-0.040121328
11	0x3dd100bb	0.102052175
12	0xbc367c62	-0.011138054
13	0xbe5c755a	-0.21529141
14	0x3b4efa7b	0.0031582403
15	0xbdf6b973	-0.120470904
16	0x3dc0c381	0.094122894
17	0xbd64d839	-0.05587027
18	0xbe756ef6	-0.2396811
19	0xbe09866c	-0.13430184
20	0x3d924808	0.07142645
21	0x3e5f0f30	0.21783137
22	0x3dff048f	0.12452041
23	0x3c158874	0.009126771
24	0xbe4ebad5	-0.20188458
25	0x3a3b5554	0.0007146199
26	0xbe152f03	-0.14568715
27	0x3e89939c	0.2687043
28	0x3d6a5ec7	0.057219293
29	0x3e32b1f5	0.17450698
30	0xbcacea3c	-0.021107785
31	0x3d38f6d4	0.04515727
32	0xbe8a986e	-0.2706942
33	0x3e866711	0.26250508
34	0x3e421064	0.18951565
35	0x3d1fe0ba	0.039032675
36	0xbe8b1a70	-0.27168608
37	0xbc72134e	-0.01477511
38	0x3d0c6b28	0.03428188
39	0x3eaf8dbe	0.34287828
40	0x3d9e2d5a	0.07723494
41	0xbd386297	-0.045015898
42	0xbe32180d	-0.17391987
43	0xbc95bf90	-0.01827982
44	0xbea488cd	-0.3213562
45	0xbe78c8ee	-0.24295399
46	0x3ec29b59	0.38009146
47	0xbdfac1d8	-0.12244004

bias_ih_l0 f4 [12]
0	0x3e8ecfb3	0.27892837
1	0x3ca10d30	0.019659609
2	0xbdb8a013	-0.09014907
3	0x3ddd1953	0.10795846
4	0x38ced8f4	9.863256e-05
5	0x3e5ba859	0.21450938
6	0xbe112572	-0.1417444
7	0xbe62310e	-0.22089025
8	0xbec8db1a	-0.3922966
9	0x3e9acf6a	0.3023637
10	0xbe94c874	-0.29059184
11	0xbe8fe2d5	-0.28102747

bias_hh_l0 f4 [12]
0	0xbe650650	-0.2236569
1	0xbad9000e	-0.0016555802
2	0xbdc7b442	-0.09751178
3	0xbdb857bf	-0.09001111
4	0x3e7a113c	0.24420637
5	0xbe10b2bf	-0.14130686
6	0x3e87ac30	0.26498556
7	0x3e380c65	0.17973478
8	0x3eda689c	0.42657936
9	0x3dac559a	0.08414765
10	0xbeddb438	-0.43301558
11	0x3d189731	0.037253562

weight_ih_l0 f4 [12, 14]
0	0xbd08ee15	-0.033430178
1	0x3c1aae04	0.009440903
2	0xbe8c929f	-0.27455613
3	0x3da10c5a	0.07863684
4	0xbab4f019	-0.0013804465
5	0x3d74df8f	0.059783515
6	0xbe065be6	-0.13120994
7	0xbc38e560	-0.011285156
8	0xbb6eef2a	-0.003645847
9	0xbd41d262	-0.047319777
10	0x3d232f55	0.03984006
11	0xbd22c89f	-0.03974211
12	0x3e04897d	0.12943073
13	0xbd2c0a62	-0.04200209
14	0xbd97b2ce	-0.07407151
15	0x3d98cf30	0.07461393
16	0xbd797642	-0.060903795
17	0x3e236a02	0.15958408
18	0xb916d73e	-0.00014385299
19	0x3b1b0b17	0.0023657733
20	0x3b56c794	0.0032772766
21	0x3d94a042	0.07257129
22	0xbd35717c	-0.04429768
23	0x3d98d2fa	0.074621156
24	0x3e228ed9	0.15874805
25	0x33cf79ad	9.661321e-08
26	0x3afb1059	0.0019154652
27	0x3b4a8aa6	0.0030905395
28	0x3e716e36	0.23577198
29	0x3d719e04	0.058988586
30	0xbe1009f5	-0.14066298
31	0x3de466a8	0.111523926
32	0x3c655291	0.013996736
33	0xbaf228fa	-0.0018475347
34	0xbde57b22	-0.11205126
35	0x37b41448	2.1467116e-05
36	0x3e2bcec4	0.16778094
37	0x391e34c5	0.00015087712
38	0xba5e8ffc	-0.0008490083
39	0x3e16b335	0.147168
40	0x3e5ee92c	0.21768636
41	0x3ea7b3c6	0.32754344
42	0x3e492d24	0.19646126
43	0x3e86b77a	0.26311857
44	0x3e1679ca	0.14694896
45	0xbe505d43	-0.20348077
46	0x3cb5fbf2	0.022214863
47	0xbd8b02fd	-0.06787679
48	0xbe39f2de	-0.18159053
49	0xbe361e09	-0.17784895
50	0x3ddf6015	0.10906998
51	0x3c8a74d3	0.01690141
52	0x3e0f39c1	0.13986875
53	0xbd5a33d6	-0.05327209
54	0xbe6da4c2	-0.23207381
55	0x3de143ef	0.109992854
56	0xbe3db410	-0.1852572
57	0xbe656a18	-0.22403753
58	0xbe54312e	-0.20721886
59	0xbe9c25f1	-0.30497697
60	0x3da698a6	0.08134584
61	0xbd477294	-0.048693255
62	0x3d1404a9	0.036137257
63	0xbbfe5147	-0.007761154
64	0x3dab26e9	0.08357031
65	0x1673c6c5	1.9692104e-25
66	0x3d196fdc	0.037460193
67	0xbe048f25	-0.1294523
68	0x3c30a169	0.010780671
69	0xbe895efe	-0.26830286
70	0xbe9a417c	-0.30128086
71	0x3e7c1586	0.24617586
72	0xbd0dd991	-0.034631316
73	0x3e4e5e83	0.20153241
74	0xbdaadd25	-0.08342961
75	0x3c83f98e	0.016110208
76	0xba243b54	-0.0006264944
77	0xbbc7588f	-0.006083555
78	0xba35bf1b	-0.0006933079
79	0xbe33be11	-0.17552973
80	0x3dd538f3	0.10411253
81	0xbd9885f7	-0.07447427
82	0xbe8c7a5b	-0.274371
83	0xbeb467e7	-0.3523552
84	0x3e6fe4cf	0.23427127
85	0x3e9c02db	0.3047093
86	0xbeb3fa1a	-0.3515175
87	0xbc56e1d6	-0.013115367
88	0xbcc08dcf	-0.02350512
89	0xbe10fb14	-0.14158279
90	0x39ae6bf7	0.00033268306
91	0x3d5adf49	0.053435598
92	0x3de7082e	0.11280857
93	0x3e1e97cb	0.15487592
94	0x3eda3633	0.42619476
95	0xbe098446	-0.13429365
96	0x3dbde393	0.09271922
97	0x3ea75742	0.3268376
98	0x3ea8d71f	0.32976624
99	0xbe30660d	-0.1722643
100	0x3ccce93c	0.025013559
101	0xbdc3f07a	-0.09567352
102	0x3e901128	0.2813809
103	0xbe1cf026	-0.15325984
104	0xbe4e7e3a	-0.20165339
105	0xbdaa4fb6	-0.08315985
106	0xbe81025e	-0.2519712
107	0xbe063910	-0.13107705
108	0x3ed64832	0.41851956
109	0xbe83da93	-0.25752696
110	0xbd6d54ee	-0.057942323
111	0xbc81e09f	-0.015854178
112	0x3ed2ee2c	0.41197336
113	0x3c8e24fa	0.017351616
114	0x3d883aae	0.06651817
115	0xbeeee1c0	-0.4665661
116	0x3e5434d9	0.20723285
117	0x3d8a1c66	0.06743698
118	0xbe948f82	-0.29015738
119	0xbe1e32d7	-0.15449081
120	0xbe52da2e	-0.20591041
121	0x3b3467be	0.0027527655
122	0x3d2848f2	0.04108519
123	0x3cc9e9dc	0.024647646
124	0xbd703a27	-0.05864921
125	0x3ed6b39c	0.41933906
126	0xbe850ff7	-0.25988743
127	0x3ea58da6	0.32334632
128	0xbe6c4e1c	-0.23076671
129	0xbe9f1da9	-0.31077316
130	0x3e0dde63	0.13854365
131	0xbeb5976d	-0.3546709
132	0xbed71015	-0.42004457
133	0x3976de1d	0.00023543132
134	0xa3eaf311	-2.5473273e-17
135	0x34ac764a	3.2123563e-07
136	0x3ec26c14	0.37973082
137	0xb2c59a5d	-2.3004015e-08
138	0x3ec076af	0.37590548
139	0xbe95f026	-0.2928478
140	0xbee092ec	-0.43862092
141	0x3de4b646	0.111675784
142	0xbe6ab3e7	-0.2292019
143	0x3dd03b96	0.10167615
144	0x3e1cc5b2	0.1530979
145	0xbec90873	-0.3926426
146	0xbe2473e1	-0.1605983
147	0xbbefabc8	-0.007314179
148	0xbdd0a74d	-0.1018816
149	0x3a8ca9f9	0.0010731808
150	0xbd3910a7	-0.045181897
151	0x31b9f37d	5.41189e-09
152	0x3e96ce93	0.2945448
153	0x3e53326f	0.20624708
154	0xbddd42b0	-0.10803735
155	0xbe1641ec	-0.14673585
156	0x3ea79b36	0.32735604
157	0x3e600e32	0.21880415
158	0x3ea9d522	0.3317042
159	0xbe5804d9	-0.21095599
160	0xbeb4c65f	-0.35307595
161	0x9f36550c	-3.8610348e-20
162	0xbe12b47f	-0.14326666
163	0x3e3d9d5e	0.18517062
164	0x3e804f10	0.2506032
165	0x3e170254	0.14746982
166	0xbe370017	-0.17871128
167	0x3ed1f10f	0.41004226

weight_hh_l0 f4 [12, 4]
0	0xbe73ec2a	-0.23820558
1	0xbe6983dd	-0.22804208
2	0x3d6f998a	0.058496036
3	0x3e644b86	0.22294435
4	0xbd33d79f	-0.043906804
5	0x3d3727a0	0.044715524
6	0x3b376539	0.0027983917
7	0xbdab7cb0	-0.08373392
8	0x3e976d70	0.29575682
9	0x3e85389f	0.2601976
10	0x3d7c4b95	0.06159552
11	0x3c6bf350	0.014401272
12	0xbe932766	-0.28740996
13	0xbcf53042	-0.029930238
14	0xbdaf2254	-0.085514694
15	0xbc424694	-0.011857647
16	0xbe9e8bf5	-0.30966154
17	0xb6b0740f	-5.2587197e-06
18	0xbe21bc7c	-0.15794557
19	0xbdf7649e	-0.12079738
20	0xbea16a9d	-0.31526652
21	0x3e644740	0.22292805
22	0xbeaf0851	-0.34186032
23	0x3e0ebc8f	0.13939117
24	0x3dd605fe	0.10450362
25	0x3d6a359a	0.057180025
26	0xbe4a1bbc	-0.19737142
27	0x3d5220f2	0.05130095
28	0x3e8613d7	0.26187012
29	0x350cb09c	5.2411065e-07
30	0x3c016f14	0.007900018
31	0xbdf8abcb	-0.12142142
32	0x3ee9af4a	0.45641547
33	0x3caedd8f	0.021345882
34	0x3e33ffb6	0.17578015
35	0xbe6fe5b7	-0.23427473
36	0x3e9c5813	0.30535945
37	0xbb81b34d	-0.003958142
38	0x3e360827	0.17776547
39	0x3dd57b82	0.10423948
40	0x3e326b66	0.17423782
41	0xbe7cff5b	-0.24706785
42	0xbe2fe6d1	-0.17177893
43	0xbdc2aaa7	-0.095052056
44	0xbe2af786	-0.16695985
45	0xbd0d1540	-0.034444094
46	0xbe66f3c8	-0.22553933
47	0xbdfdb423	-0.12387874

bias_ih_l0 f4 [12]
0	0x3d0c4739	0.03424761
1	0xbe63dad4	-0.22251445
2	0xbe73cb5a	-0.23808041
3	0x3ebaa75e	0.36455816
4	0xbec52ac2	-0.38509184
5	0xbd67ff4d	-0.05663996
6	0xbdfc63c5	-0.12323717
7	0xbbbcc9e0	-0.00576137
8	0x3e8f4a7d	0.27986518
9	0x3ea79efe	0.3273849
10	0xbe96d482	-0.29459006
11	0xbd84d518	-0.06485957

bias_hh_l0 f4 [12]
0	0x3e592b8e	0.21208021
1	0xbe7ba1da	-0.2457346
2	0xbe2cf2ec	-0.16889542
3	0x3ecbd8a2	0.39813715
4	0xbe5c2aa6	-0.21500644
5	0xbd167f91	-0.03674275
6	0xbeac6ce1	-0.33676818
7	0xbd823358	-0.06357449
8	0xbe7c9cb6	-0.24669155
9	0xbea45b24	-0.32100785
10	0x3e5da19e	0.21643683
11	0xbee37268	-0.44423223

weight_ih_l0 f4 [12, 24]
0	0xbd845652	-0.06461777
1	0xbd66d2d0	-0.05635339
2	0xbca846c7	-0.020541562
3	0xbbd0dd97	-0.006374072
4	0xbd308f80	-0.043105602
5	0xbab9d61a	-0.0014178187
6	0x3e83069b	0.25590977
7	0x3e2c9585	0.16853912
8	0x3e9df6a4	0.30852234
9	0x3e0b3778	0.13595378
10	0xbe142363	-0.14466624
11	0x3d1d7e09	0.038450275
12	0xbe0a1601	-0.13484956
13	0x3e179def	0.1480634
14	0xbdbd4427	-0.09241515
15	0xbe521e42	-0.20519355
16	0x3cb7f4eb	0.022455653
17	0xbde62899	-0.11238212
18	0x3e000925	0.12503488
19	0x3e8320c0	0.25610924
20	0xbe8946f3	-0.26811942
21	0xbe493abc	-0.19651312
22	0x3ca9862d	0.020693863
23	0x3c097d2e	0.008391662
24	0xbe7b435a	-0.24537411
25	0xbe0aa6f0	-0.13540244
26	0x3b1dfe9f	0.0024108065
27	0xbdc27df0	-0.09496677
28	0x3b841d01	0.004031778
29	0xbe75b52e	-0.23994896
30	0xbe524130	-0.2053268
31	0xbd28db28	-0.04122463
32	0xbe0e6ac6	-0.13907918
33	0x3dec9083	0.11551001
34	0xbe3d3963	-0.18478923
35	0x3d38d882	0.045128353
36	0xbe546507	-0.20741664
37	0x3e20edb7	0.15715681
38	0x3b8692a9	0.0041068387
39	0xbc021253	-0.007938939
40	0x3b7b6134	0.0038357498
41	0x3d789ab9	0.06069443
42	0x3cb36cbf	0.02190244
43	0x3d6a38bf	0.057183024
44	0x3bb0104f	0.005373038
45	0x3dbf94cf	0.09354555
46	0xbe4578ae	-0.19284317
47	0x3a1a67c7	0.0005890098
48	0xbe874acb	-0.2642425
49	0x2dbae3bd	2.1246888e-11
50	0x3d70ddc9	0.05880526
51	0x3e7fc32b	0.24976794
52	0x3e5c61a2	0.21521619
53	0xbe574efe	-0.21026227
54	0x3df70ccd	0.120629884
55	0xbe26a0ee	-0.16272327
56	0xbe6d563c	-0.23177427
57	0x3d5fe530	0.05466193
58	0x3e66c9b5	0.22537883
59	0x3e87dd04	0.2653581
60	0xbd8b9ba4	-0.068167955
61	0x3d62c5a5	0.05536427
62	0x3da8a16a	0.08233912
63	0x3cd611f8	0.026131615
64	0xbd4e4268	-0.0503563
65	0x3d63ecb5	0.055645663
66	0xbe413cff	-0.18870924
67	0x3e24bcfd	0.16087718
68	0x3dee4299	0.11633796
69	0xbdd55278	-0.1041612
70	0xbd9b0b8b	-0.07570561
71	0x3e80b35d	0.25136843
72	0xbd356d7a	-0.044293858
73	0x3d79b885	0.060966987
74	0xbd73f802	-0.05956269
75	0x3df8152d	0.12113414
76	0x3d0c0451	0.034183804
77	0x3e111c85	0.14171036
78	0x3e0c4e9d	0.13701864
79	0x3dac080d	0.08399973
80	0x3e92b3e2	0.28652865
81	0x3cd54860	0.026035488
82	0x3bb4a365	0.005512642
83	0xbdb47b57	-0.08812588
84	0xbe80e995	-0.2517821
85	0xbe1fe6a2	-0.15615323
86	0x3e579f49	0.21056856
87	0x3db35af3	0.087575816
88	0xbd5fbb62	-0.05462206
89	0xbe527d80	-0.20555687
90	0x3b6ab133	0.0035811185
91	0x3e1ec85d	0.1550612
92	0xbe89be1f	-0.26902863
93	0xbcb66a63	-0.022267526
94	0x3e79c985	0.2439328
95	0xba4a6196	-0.000772023
96	0xbe218542	-0.1577349
97	0xaf236402	-1.4860294e-10
98	0x3e6aae87	0.2291814
99	0xbd5759a3	-0.05257572
100	0x3e8033c1	0.25039485
101	0xbe3a59df	-0.18198346
102	0x3d524b98	0.051341623
103	0xbea74cb1	-0.32675698
104	0x3ecefd57	0.40427658
105	0x3ebef70a	0.3729785
106	0xbea70751	-0.3262277
107	0x3d09f27b	0.033678513
108	0x3e2712d7	0.1631578
109	0xbe8ea09b	-0.27856907
110	0x3e898373	0.268581
111	0xbe28f938	-0.1650132
112	0xbd53e7a5	-0.051734585
113	0x3e72d947	0.23715697
114	0xbda6f64a	-0.08152445
115	0xb7e62f84	-2.7440263e-05
116	0x3d83005b	0.06396552
117	0x3db90fb4	0.09036198
118	0xbd8371ce	-0.06418191
119	0x3c71d3a1	0.014759929
120	0x3dd0902c	0.101837486
121	0xbe855bbc	-0.2604655
122	0x3c3ac459	0.011399352
123	0xbd67dc70	-0.05660671
124	0x3dc8f281	0.09811879
125	0x3e603718	0.21896017
126	0x3e86a2ae	0.2629599
127	0xbd4f126d	-0.05055468
128	0x3e2eb208	0.17060101
129	0x3e476bbe	0.19474694
130	0x3dd71566	0.10502128
131	0xbe11b2f9	-0.14228429
132	0x3d69c1a2	0.05706943
133	0xbdd0f227	-0.10202437
134	0xbe3ff8f4	-0.18747312
135	0x3e8e231a	0.27761155
136	0xbea0e7b4	-0.31426775
137	0x3e506279	0.20350064
138	0x3e3774c2	0.17915633
139	0x3c42bec3	0.011886301
140	0xbe62e657	-0.2215818
141	0x3e930b3b	0.28719506
142	0xbdc137ee	-0.09434496
143	0xbe7d00a2	-0.24707273
144	0x3d13caea	0.036082186
145	0xbe11e016	-0.14245638
146	0x39cbf510	0.00038901763
147	0xbe31b9f3	-0.1735609
148	0x3d7d50f1	0.06184477
149	0x3e30ec5c	0.17277664
150	0x3996c037	0.0002875344
151	0xbe15fa9e	-0.14646384
152	0x3ec3d881	0.38251117
153	0x3e184806	0.14871225
154	0x3da95989	0.082690306
155	0x3d180bfc	0.037120804
156	0x3dad3c9e	0.084588274
157	0xbcaa887f	-0.02081704
158	0x3ebd6169	0.3698838
159	0xbde08450	-0.109627366
160	0xbe638c3f	-0.22221468
161	0xbea6b5d5	-0.32560602
162	0x3e8b4e83	0.27208337
163	0xbcb8732a	-0.022515852
164	0xbe993243	-0.2992116
165	0xbd4244d7	-0.047428932
166	0x3e39e119	0.18152274
167	0x3bd9c89e	0.00664623
168	0xbd3288d1	-0.04358751
169	0x3e575ecd	0.21032257
170	0xbe751636	-0.23934254
171	0x3ea27562	0.3173018
172	0x3dca272b	0.09870752
173	0x3e4e0218	0.20117986
174	0xbc600b0d	-0.01367451
175	0x3d49ff93	0.049316
176	0x3e631ecb	0.22179715
177	0x3e2792df	0.1636462
178	0xbe9ebd5f	-0.31003854
179	0x3c5f6a7e	0.01363623
180	0xbdbefd97	-0.09325712
181	0xbe971c97	-0.29514
182	0xbe9b2c8d	-0.30307427
183	0x3de91c43	0.113823436
184	0xbd20da3f	-0.039270636
185	0x3e3f1dd5	0.18663724
186	0xbb8dee42	-0.004331381
187	0xbe6383af	-0.22218202
188	0xbded1619	-0.115764804
189	0xbddbc726	-0.10731344
190	0x3e29c2e6	0.16578254
191	0xbe1bed4c	-0.1522724
192	0x3dfb7759	0.12278623
193	0xb9d04240	-0.00039722212
194	0xbd2e0751	-0.042487446
195	0x3e00c8cc	0.12576598
196	0x3ede6696	0.43437642
197	0x3d890ded	0.06692109
198	0xbe5bcfbd	-0.21465965
199	0x3e501fa2	0.20324567
200	0xbed21ec1	-0.41039088
201	0xbea30cc1	-0.31845668
202	0x3bb49718	0.005511176
203	0xbd9913b5	-0.07474462
204	0xbecb2afd	-0.39681235
205	0xbe753118	-0.23944509
206	0xbee3cc51	-0.4449182
207	0xbe950fea	-0.29113704
208	0xbedc9c67	-0.43088076
209	0x3c300521	0.01074341
210	0xbe6cf713	-0.23141126
211	0xbe482fac	-0.19549435
212	0xbe09f8c0	-0.13473797
213	0xbeb0636c	-0.34450853
214	0xbc083aa3	-0.008314761
215	0xbdf4aefe	-0.119474396
216	0x3bb8faa0	0.005645111
217	0xbe4da9a8	-0.2008425
218	0xbde6feb4	-0.112790495
219	0x3e861e2b	0.2619489
220	0x3d7d879e	0.061896913
221	0x3e14a720	0.14516878
222	0x3e676fc0	0.22601223
223	0x3d6fe52e	0.058568172
224	0xbebf4676	-0.37358445
225	0xbec8c945	-0.39216056
226	0xbeac880d	-0.33697549
227	0xbcaee24c	-0.021348141
228	0x3e0ed033	0.13946609
229	0xbbffb8ad	-0.0078039975
230	0xbecc7617	-0.39933845
231	0xbe5dfb83	-0.21677975
232	0x3e4fcfeb	0.20294158
233	0xbe084aa1	-0.13309719
234	0x3e7e7fbd	0.24853416
235	0xbe07cd85	-0.13261993
236	0xbee14c81	-0.4400368
237	0x3d1a24d7	0.03763279
238	0xbeae1b2e	-0.3400511
239	0x3e018f1a	0.12652245
240	0xbdd4ceeb	-0.10391029
241	0xbd27a53d	-0.040929068
242	0xbe8e457f	-0.27787396
243	0x3ea1b321	0.31581977
244	0xbe9b57af	-0.30340335
245	0xbeb5a3d2	-0.35476547
246	0xbb9d6f8a	-0.0048045563
247	0x3da57408	0.08078772
248	0x3eb3e827	0.35138056
249	0x3e2e4e16	0.17021975
250	0x3ea297e3	0.31756505
251	0xbe780a82	-0.24222758
252	0x3e96630f	0.2937245
253	0xbeb2588e	-0.34833187
254	0x3e71d0d0	0.23614812
255	0x3e9661f6	0.29371613

weight_hh_l0 f4 [12, 4]
0	0xbe225b74	-0.15855199
1	0x3ed587dc	0.41705215
2	0xbebb0542	-0.3652745
3	0xbda8c69e	-0.08241008
4	0x3e10db7e	0.1414623
5	0x3e7bcc4a	0.24589649
6	0x3d5fedb0	0.054670036
7	0x3ddf605d	0.10907052
8	0xbe9c78e4	-0.30560982
9	0xbce2e7cf	-0.027698426
10	0xbe95e862	-0.29278857
11	0xbe6f6be6	-0.23381004
12	0xbd8a1198	-0.06741637
13	0xbcb0fc9b	-0.021604827
14	0xbd2ffe10	-0.042966902
15	0xbe4b452b	-0.19850604
16	0xbe3ff569	-0.1874596
17	0x3ea37660	0.3192625
18	0xbc58b110	-0.013225809
19	0xbe04ff60	-0.12988043
20	0x3cffd730	0.03123054
21	0x3e8e25f1	0.27763322
22	0xbe6679be	-0.22507378
23	0x3e457802	0.1928406
24	0x3c9b9bcb	0.018995186
25	0x3eac361e	0.33635038
26	0x3dc6e005	0.09710697
27	0x3d9b70da	0.07589884
28	0x3cf25910	0.029583484
29	0x3d34b25e	0.044115417
30	0xbe6b44a4	-0.22975403
31	0xbe76fa1e	-0.2411885
32	0xbed158a8	-0.40887952
33	0xbed34e82	-0.41270834
34	0x3e9ef18d	0.31043664
35	0xbe7776a0	-0.24166346
36	0x3e69351e	0.22774169
37	0xbec8074a	-0.3906806
38	0x3d3a0bbd	0.04542135
39	0x3e924be8	0.28573537
40	0x3e29d4f4	0.16585141
41	0x3e4326ee	0.19057819
42	0x3c9d684d	0.019214774
43	0xbd3b009f	-0.04565489
44	0xbe4e76b8	-0.20162475
45	0xbe901252	-0.28138977
46	0x3e57d082	0.21075633
47	0xbee39484	-0.44449246

bias_ih_l0 f4 [12]
0	0xbbd4d4b4	-0.0064950828
1	0xbc3ebaf5	-0.011641254
2	0x3eaf4d1e	0.34238523
3	0xbd790e65	-0.060804743
4	0x3e13e067	0.14441071
5	0xbe19c720	-0.15017366
6	0xbe97893d	-0.29596892
7	0x3d9b8678	0.07594007
8	0xbee8652e	-0.45389694
9	0xbc9009ac	-0.017582737
10	0xbde61c5a	-0.112358764
11	0xbe981a1b	-0.29707417

bias_hh_l0 f4 [12]
0	0x3eade9b0	0.33967352
1	0x3dfd2cf9	0.123620935
2	0xbdca2b1f	-0.09871506
3	0x3d1f0441	0.038822416
4	0x3ef3d427	0.47622797
5	0x3e79ef74	0.2440775
6	0x3e65584f	0.22396968
7	0xbd8c5fd3	-0.068542145
8	0x3dbb14f0	0.09134853
9	0x3c123636	0.008924058
10	0x3ea5c35f	0.3237562
11	0xbee0c2e0	-0.43898678

weight f4 [4, 4]
0	0xbd8a6eff	-0.06759452
1	0xbe7d346f	-0.24727033
2	0x3e6e26f7	0.23257051
3	0xbea596f5	-0.32341734
4	0xbe324777	-0.17410074
5	0x03ea1b60	1.3759569e-36
6	0x886749f8	-6.9600984e-34
7	0x0c275189	1.2889748e-31
8	0x3c62735a	0.013821447
9	0xbce4f758	-0.027949974
10	0xbe6187df	-0.22024487
11	0x3e9a1be7	0.30099413
12	0x3ee86668	0.4539063
13	0xbdaff1e1	-0.085910566
14	0xbca62b68	-0.02028437
15	0xbea4f1e5	-0.322158

bias f4 [4]
0	0x3e8e0cfb	0.27744278
1	0xbe749c74	-0.23887807
2	0x3d5c208a	0.05374197
3	0xbcd5fc88	-0.026121393

weight f4 [320, 8]
0	0x3d122792	0.03568227
1	0xbd51237c	-0.05105923
2	0xba74396b	-0.0009316417
3	0x3c9b72f8	0.01897572
4	0x3dbdce7b	0.09267899
5	0xbd9bf2f4	-0.07614699
6	0x38f7571f	0.000117941054
7	0x3cb1d21c	0.021706633
8	0xbdbeed7b	-0.093226396
9	0xbd9af3f8	-0.075660646
10	0x3b1fd326	0.002438733
11	0xba83cf06	-0.0010056205
12	0xbdb249a0	-0.08705449
13	0xbb47bb5c	-0.0030476665
14	0xbb45d09b	-0.0030184153
15	0x3c9cae1f	0.019125996
16	0x3d0489a2	0.03235782
17	0x3e89d2db	0.26918682
18	0xbdde6011	-0.10858167
19	0x3d258f39	0.04041979
20	0x3d9b7cbe	0.07592152
21	0xbe8a47af	-0.27007815
22	0x3e1cff75	0.15331824
23	0xbe6aa05f	-0.22912739
24	0x3eabde8a	0.3356822
25	0x3e29d0fa	0.16583624
26	0xbe0164b0	-0.12636065
27	0x3d060a47	0.032724645
28	0xbe90d293	-0.28285655
29	0x3e80facd	0.25191346
30	0x3e04a664	0.12954098
31	0xbca3e8ff	-0.020008562
32	0x3d90f983	0.070788406
33	0xbce62ebb	-0.028098455
34	0xbd79cdc0	-0.060987234
35	0x3bb7f731	0.0056141843
36	0xbe1aed9a	-0.151297
37	0x3e0f141e	0.13972518
38	0x3e42f960	0.19040442
39	0xbe3513b8	-0.17683303
40	0x3d789750	0.060691178
41	0xbe39301d	-0.1808476
42	0xbe847a03	-0.25874338
43	0x3e483d72	0.1955469
44	0xbea712ad	-0.32631436
45	0x3e3a6828	0.18203795
46	0x3e418889	0.1889974
47	0x3e5ae157	0.21375023
48	0x3ea9e48e	0.33182186
49	0x3e8c0f36	0.27355355
50	0xbd3f93b5	-0.046771724
51	0x3e825c2c	0.25460947
52	0xbe981468	-0.2970307
53	0xbe599023	-0.2124639
54	0x3ea36d69	0.3191941
55	0xbd2bd84a	-0.041954316
56	0x3de217cc	0.11039695
57	0xbd8e9c0d	-0.06963358
58	0xbbd31f6d	-0.006442955
59	0xbd84b157	-0.064791374
60	0xbe0fea3b	-0.14054196
61	0x3dea75a0	0.114482164
62	0x3e35cbe8	0.17753565
63	0x3e62676b	0.22109763
64	0x3e648c6f	0.22319196
65	0x3d63d067	0.05561867
66	0x3db9d6c8	0.090741694
67	0xbe1d7472	-0.15376452
68	0xbde72928	-0.11287147
69	0xbdb0208e	-0.08599959
70	0xbdeedaaf	-0.11662804
71	0x3e018296	0.12647471
72	0xbe14c4de	-0.14528224
73	0x3e442542	0.19154838
74	0x3d3eb23f	0.046556707
75	0x3def9517	0.116983585
76	0xbe114722	-0.14187291
77	0x3c84f83a	0.016231645
78	0xbc848ac9	-0.01617946
79	0xbe2002cc	-0.15626067
80	0x3cc4d0dd	0.024025375
81	0xbda3cb7e	-0.079977974
82	0xbe1520a1	-0.14563228
83	0xbd4586b6	-0.048224173
84	0x3da71923	0.08159091
85	0x3c21da75	0.009878744
86	0x3d486445	0.04892375
87	0x3cdfd4b2	0.0273231
88	0xbbb126b7	-0.0054062265
89	0xb50f63b6	-5.341675e-07
90	0x3dfd4703	0.1236706
91	0x3d133370	0.035937726
92	0xbd14d453	-0.0363353
93	0x3d121744	0.03566672
94	0xbe01ac95	-0.12663491
95	0x3d709313	0.05873401
96	0x3ea03730	0.31292105
97	0x3e0b7fb7	0.13622938
98	0xbe245b88	-0.16050541
99	0xbbc0e87f	-0.0058870907
100	0xbcaccf6a	-0.021094996
101	0x3e3dc8fc	0.185337
102	0x3e0cd39d	0.13752599
103	0xbe9dabd4	-0.30795157
104	0xbd42f48d	-0.047596503
105	0x3e0d10ad	0.13775893
106	0xbe002b1b	-0.12516443
107	0xbe4cc6ca	-0.19997707
108	0xbe692d07	-0.22771083
109	0x3e092265	0.13392027
110	0xbe0ab774	-0.13546544
111	0xbe90b0b5	-0.28259817
112	0xbdbdfe34	-0.09277001
113	0x3d79d58b	0.060994666
114	0x3dd6c9f9	0.10487742
115	0x3d9c0a52	0.07619156
116	0xbcf43981	-0.029812576
117	0x3dc809de	0.09767507
118	0xbd65285e	-0.0559467
119	0x3d1fc56d	0.03900664
120	0x00124dca	1.680944e-39
121	0xbdf1c895	-0.11805836
122	0xbba53d01	-0.0050426726
123	0xbd799c14	-0.060939863
124	0x3dd2d3fb	0.10294338
125	0xb8196586	-3.6572594e-05
126	0x3cf84e92	0.030310903
127	0x3da45dc2	0.080256954
128	0xbd1f64e0	-0.03891456
129	0x3bb64185	0.0055620098
130	0x8025a389	-3.456579e-39
131	0x1a8c1e91	5.7952026e-23
132	0xb704f539	-7.9249085e-06
133	0x3c432500	0.011910677
134	0x3c5296da	0.012853349
135	0xbca191ad	-0.019722784
136	0x3cb9d9b9	0.022686826
137	0xbd8ee578	-0.069773614
138	0xbd1f6ce7	-0.038922217
139	0x3dae5480	0.08512211
140	0xbd617aa5	-0.055048604
141	0x3caedd75	0.021345833
142	0xbb796d2e	-0.003805946
143	0x3b5d348b	0.0033753242
144	0xbd0a7ddd	-0.03381144
145	0x3dd07ee2	0.10180451
146	0x3de301d6	0.110843346
147	0x3d62c11f	0.055359956
148	0x3d0d02b4	0.034426406
149	0x3e5e6fd1	0.21722342
150	0xbe291961	-0.16513588
151	0xbe67e418	-0.22645605
152	0x3ea23ede	0.3168859
153	0x3e39f43e	0.18159577
154	0xbe912ee7	-0.28356096
155	0x3e289ecf	0.1646683
156	0xbe73be42	-0.23803046
157	0x3ea32ef4	0.3187176
158	0x3cd37bcb	0.025815865
159	0xbe857eaf	-0.26073214
160	0xba7be11c	-0.0009608434
161	0xbcdc4c72	-0.02689192
162	0xb87f1bcf	-6.0822636e-05
163	0xb98f9fb2	-0.00027394068
164	0x3c0bac08	0.008524902
165	0x3d30d963	0.043176066
166	0xbd8966bf	-0.067090504
167	0xbcf8e363	-0.030381864
168	0x3e3aee5a	0.18254986
169	0xbe499067	-0.19683991
170	0x3da3c86e	0.07997213
171	0x3e2db3a0	0.16963053
172	0xbe63c31c	-0.22242397
173	0xbd38f914	-0.045159414
174	0xbe3663ae	-0.17811462
175	0x3d5e90b1	0.054337207
176	0x3de6bdfa	0.11266704
177	0x3d05fdab	0.03271262
178	0xbe8dad34	-0.27671206
179	0xbdbd2209	-0.09235007
180	0x3d1bf9e6	0.03808012
181	0xbe08b7d9	-0.13351382
182	0xbdb02044	-0.08599904
183	0x3c9e9c0b	0.019361516
184	0xbe9ed2fc	-0.31020343
185	0x3e49f3bb	0.19721882
186	0x3db7eef4	0.089811236
187	0x3d3e03b8	0.046390265
188	0x3da0aad1	0.07845081
189	0xbe9e86c7	-0.30962202
190	0xbe8d96e6	-0.2765419
191	0xbd88cf35	-0.066801466
192	0x3e434edc	0.19073051
193	0x3de53e8f	0.11193573
194	0x3e1c548a	0.15266624
195	0xbd325426	-0.04353728
196	0x3e476d52	0.19475296
197	0x3e1a9965	0.15097578
198	0xbe982d92	-0.29722267
199	0x3d9cf919	0.07664699
200	0x3e40cd37	0.18828283
201	0x3d4c1d79	0.049832795
202	0xbe6656a9	-0.22493996
203	0xbe4f0427	-0.20216428
204	0x3e7e938a	0.24860969
205	0xbe45e55b	-0.19325773
206	0xbc59b9ed	-0.013288957
207	0xbea764fc	-0.32694232
208	0xbdb74c97	-0.08950155
209	0x3df8d469	0.12149889
210	0xbdb754d4	-0.089517266
211	0x3ca0df1f	0.019637642
212	0xbd8590be	-0.06521748
213	0xbc16cb83	-0.009203794
214	0x3d39a947	0.04532745
215	0x3d48c0cc	0.04901199
216	0x3d428323	0.047488343
217	0xbe4f6d23	-0.20256476
218	0xbe4f312a	-0.20233598
219	0xbe816974	-0.25275767
220	0x3e783537	0.2423905
221	0xbd8087dd	-0.06275914
222	0xbe9128e8	-0.28351521
223	0xbe75a99c	-0.23990482
224	0xbe0d282f	-0.1378486
225	0xbd135749	-0.035971913
226	0xbd1ab991	-0.037774626
227	0xbd8e6c7a	-0.06954284
228	0x3d62470f	0.055243548
229	0xbe814021	-0.2524424
230	0xbdee10b7	-0.11624282
231	0x3e5f268f	0.21792053
232	0x3e877c48	0.26462007
233	0xbcf3cd5a	-0.029761005
234	0xbc4a8d44	-0.012362782
235	0xbe3e0102	-0.18555072
236	0x3e33b276	0.17548546
237	0x3cf1f3e0	0.029535234
238	0x3e149d61	0.1451316
239	0x3d6d3eb7	0.057921138
240	0xbdb9799e	-0.090564
241	0x3e0691ff	0.1314163
242	0x3ddb20df	0.10699629
243	0x39ef16a0	0.0004560249
244	0xb412438e	-1.3621886e-07
245	0x3de22bba	0.110434964
246	0xbde9f5f9	-0.11423869
247	0x370bafe4	8.325998e-06
248	0xbdc18e14	-0.094509274
249	0xbbf09972	-0.007342511
250	0x3c258d13	0.0101044355
251	0x3af584c5	0.0018731585
252	0xbdee3220	-0.11630654
253	0x3b0ea833	0.0021767735
254	0xbc2fedbe	-0.0107378345
255	0xbd86ec71	-0.06588066

bias f4 [320]
0	0xbd005324	-0.03132929
1	0x38e70284	0.00011015407
2	0xbdd4a5c7	-0.10383182
3	0x3e660ef1	0.22466637
4	0xbe101292	-0.14069584
5	0x3e86b99d	0.26313487
6	0xbeab07bb	-0.33404335
7	0xbda52767	-0.08064156
8	0xbe860737	-0.2617738
9	0xbdfc09e5	-0.12306575
10	0x3c9e308b	0.019310256
11	0xba5460be	-0.0008101574
12	0x3de30240	0.110844135
13	0xbdc0d399	-0.09415359
14	0x3d45c888	0.048286945
15	0xbdff25ef	-0.12458407
16	0xbd14a240	-0.036287546
17	0xbd9c2586	-0.076243445
18	0x3bf2b846	0.007407221
19	0x3e0378b0	0.12839007
20	0xbc06d458	-0.008229338
21	0xbe0f5489	-0.13997091
22	0x3cf39fe6	0.029739331
23	0x3da09036	0.07840006
24	0x3e582a49	0.2110988
25	0xbe1d4f0e	-0.15362188
26	0x3ea02e70	0.3128543
27	0x3e57f1a1	0.21088268
28	0x3e2b88c6	0.16751394
29	0x3e7509ae	0.23929474
30	0xbd88e3be	-0.066840634
31	0xbd82d882	-0.06388952
32	0x3e0e657b	0.13905899
33	0x3e6bedc1	0.23039915
34	0x3e8d3bb2	0.27584606
35	0xbdc58595	-0.096446194
36	0x3dbc1a03	0.09184649
37	0xbd6c8936	-0.057748042
38	0x3e7a3389	0.24433722
39	0xbdc1dda8	-0.09466106
40	0x3b1b0b7f	0.0023657975
41	0xbd6538f2	-0.05596251
42	0x3d9e0343	0.07715466
43	0xbdf38152	-0.118899
44	0x3db07c03	0.08617403
45	0x3e9d03e4	0.3066703
46	0xbda3d2c0	-0.07999182
47	0xbcd5583c	-0.02604305
48	0xbdc0f40d	-0.09421549
49	0x3d388b98	0.045055002
50	0x3e532aff	0.2062187
51	0x3ea2451e	0.31693357
52	0x3daa534b	0.08316668
53	0x3e438582	0.19093898
54	0x3d2bd686	0.041952632
55	0xbd6fcf37	-0.058547225
56	0xbd98efd3	-0.07467618
57	0x3e9b374e	0.30315632
58	0x3e674ca9	0.22587837
59	0x3e9cf8ad	0.30658475
60	0xbda5f0e1	-0.08102585
61	0xbbf28722	-0.007401363
62	0x3e9757c5	0.2955915
63	0xbe4e3865	-0.201387
64	0xbc374230	-0.011185214
65	0x3e403b65	0.18772657
66	0x3d0ed1e4	0.034868136
67	0x3e9eafd5	0.30993524
68	0xbcb28f80	-0.021796942
69	0xbd74c885	-0.059761543
70	0xbde10d5b	-0.109888755
71	0x3e0f1b9d	0.13975377
72	0x3ddb526a	0.107090786
73	0x3c9161c2	0.01774681
74	0xbe64442e	-0.22291633
75	0x3e7d47a8	0.24734366
76	0x3e44f773	0.1923502
77	0xbe05203a	-0.13000575
78	0xbdfa3cb7	-0.12218612
79	0x3dcffa7a	0.101551965
80	0x3eab611e	0.33472532
81	0xb87b1708	-5.9864513e-05
82	0xbdab9ecd	-0.08379898
83	0x3e05fa6c	0.1308381
84	0xbdc796cc	-0.09745559
85	0x3d07214b	0.032990735
86	0x3d93584d	0.071945764
87	0xbd0135c0	-0.0315454
88	0xbd96a189	-0.07355029
89	0x3e94b027	0.29040644
90	0xbb475b58	-0.0030419435
91	0xbde1293a	-0.109941915
92	0xbd0beb6f	-0.034160074
93	0x3e96d0c8	0.29456162
94	0xbd2fffa5	-0.04296841
95	0x3dcef5ff	0.10105514
96	0xbc516703	-0.012780908
97	0xb3e9da60	-1.088963e-07
98	0xbdc00628	-0.09376174
99	0x3ea2af2f	0.3177428
100	0x3ea6c4c5	0.32571998
101	0xbe1d5145	-0.15363033
102	0xbd9cf9b8	-0.076648176
103	0xbd17d457	-0.037067737
104	0x3e9ffb16	0.3124625
105	0x3ea4164f	0.3204827
106	0x3e1c7391	0.1527846
107	0xbde01c9b	-0.10942956
108	0xbe0f5ca2	-0.1400018
109	0x3e52a2bd	0.20569892
110	0x3ea7f044	0.32800496
111	0xbdffa1e7	-0.12482052
112	0xbc79c048	-0.015243597
113	0x3e22bb2c	0.15891713
114	0x3eaa9701	0.33318332
115	0xbe024364	-0.1272102
116	0xbda40d11	-0.08010305
117	0x3e21e5e5	0.15810354
118	0xbdecae21	-0.1155665
119	0x3eb2f1ef	0.34950206
120	0xbd4e9da6	-0.050443314
121	0x3e7a4669	0.24440922
122	0xbe59ab47	-0.21256743
123	0xbbe2ec9a	-0.0069251778
124	0xbe0feeda	-0.14055958
125	0x3e266913	0.1625102
126	0xbcb76045	-0.022384772
127	0xbc8bd6b2	-0.017070148
128	0xbc3335f4	-0.010938156
129	0x3e9df70c	0.30852544
130	0x3da77a5c	0.08177635
131	0xbea7d7e0	-0.32781887
132	0xbd8ad304	-0.06778529
133	0x3e2cb6fb	0.16866677
134	0x3e7d96d5	0.24764569
135	0xbe398f24	-0.1812101
136	0xbe1021fb	-0.14075463
137	0x3e02f2f5	0.12787993
138	0xbd6f25af	-0.058385547
139	0x3e9c3ad7	0.3051364
140	0x3e77d0af	0.242007
141	0x3dde9a21	0.108692415
142	0x3e4646a5	0.19362886
143	0xbd888e6f	-0.06667792
144	0x3dee5bc2	0.11638595
145	0x3da3d953	0.08000436
146	0x3e0fb3e1	0.14033462
147	0xbdddd6bc	-0.10831973
148	0xbdcef1b0	-0.10104692
149	0xbd03a35a	-0.032138206
150	0x3de6bdaf	0.11266648
151	0xbdde11f5	-0.10843269
152	0xbc5d50fc	-0.013508078
153	0xbde9af51	-0.11410392
154	0x3d982cc5	0.07430414
155	0x3e96a047	0.29419157
156	0x3bf6f5c9	0.007536624
157	0xbe0eca59	-0.13944377
158	0xbc9eeddf	-0.019400535
159	0x3cc6ef7b	0.024284115
160	0xbd111ec2	-0.035429724
161	0x3e0e7b8e	0.1391432
162	0xbd963547	-0.073343806
163	0xbddccf70	-0.10781753
164	0x3dc8697b	0.09785744
165	0xbd49183e	-0.049095385
166	0xbcece325	-0.028916905
167	0xbdeaa7f1	-0.114578135
168	0x3ca5600a	0.020187397
169	0x3e9a61ff	0.3015289
170	0xbd5c4037	-0.053772178
171	0x3e4723ec	0.19447297
172	0xbbfda488	-0.007740561
173	0x3db99de0	0.090633154
174	0x3eb2c5e9	0.34916618
175	0x3e8cbfdd	0.2749013
176	0x3ea25e87	0.31712744
177	0x3df1adf8	0.1180076
178	0xbe00c0bf	-0.12573527
179	0x3d9d6f06	0.07687192
180	0xbbc1edf9	-0.005918261
181	0x3e270f00	0.16314316
182	0x3e5ca13f	0.21545886
183	0xbe9b00df	-0.30274102
184	0xbd17df3c	-0.037078127
185	0x3da9702e	0.0827335
186	0x3ea97ccc	0.33103025
187	0x3e8c955a	0.27457696
188	0xbdad2786	-0.08454804
189	0x3d556229	0.052095566
190	0xbdc23bf7	-0.09484094
191	0x3e911627	0.28337213
192	0x3b87deb0	0.0041464195
193	0xbabe603f	-0.0014524533
194	0xbdc15b32	-0.09441222
195	0xbc2a9bde	-0.010413138
196	0x3e322bfc	0.17399591
197	0xbc21f788	-0.009885676
198	0xbde00c7b	-0.109398805
199	0xbde02596	-0.10944669
200	0x3e900d36	0.2813508
201	0x3d9ffce7	0.07811909
202	0x3e60eaa7	0.21964513
203	0xbe007910	-0.12546182
204	0xbda0acfb	-0.078454934
205	0x3e951229	0.29115418
206	0x3eb139fb	0.34614548
207	0xbe92ed4a	-0.28696662
208	0xbd66968d	-0.05629592
209	0x3d72f8f4	0.05931945
210	0x3cef1d47	0.029188765
211	0xbe489797	-0.19589077
212	0xbc9686f5	-0.0183749
213	0x3e2c68d0	0.16836858
214	0x3d099d35	0.03359719
215	0xbdb214c0	-0.08695364
216	0x3c48ab28	0.012247838
217	0x3e955e97	0.2917373
218	0x3e5149da	0.20438328
219	0xbe3482c2	-0.17628005
220	0xbe0fdcff	-0.14049147
221	0x3ea9a5de	0.3313436
222	0x3e3968b6	0.1810635
223	0x3d62caca	0.055369176
224	0x3e4ded46	0.20110044
225	0x3de46263	0.11151578
226	0xbe10b12b	-0.14130084
227	0xbe0f8896	-0.14016947
228	0xbca2c595	-0.019869605
229	0x3e9531d9	0.29139593
230	0xbd7859d4	-0.06063254
231	0xbdeeec0e	-0.116661176
232	0x3c8564bf	0.016283391
233	0xbd968f12	-0.07351507
234	0xbc8a67bd	-0.01689517
235	0xbe4064d4	-0.18788463
236	0xbaa75fd6	-0.001276965
237	0x3e6d0060	0.23144674
238	0x3e76c46a	0.24098364
239	0xb5566e35	-7.9881585e-07
240	0x3d461693	0.048361372
241	0xbd820013	-0.063476704
242	0x3d02f2c4	0.0319698
243	0x3d0c366f	0.0342316
244	0xb8a771dd	-7.984389e-05
245	0x3d915c6b	0.070977055
246	0x3e200d70	0.15630126
247	0x3e910d1a	0.28330308
248	0xbda21bb7	-0.079154424
249	0xbe700bff	-0.23442076
250	0x3d39a49a	0.045322992
251	0xbc56a3ec	-0.013100605
252	0x3da268ca	0.07930143
253	0x3e95270e	0.2913136
254	0xbc44deeb	-0.012016038
255	0xbc7e2dd2	-0.015513854

weight f4 [4, 320]
0	0xbbafdfd6	-0.0053672595
1	0x3b4b92bb	0.00310628
2	0x3d00d114	0.031449392
3	0xbd14e0c2	-0.03634716
4	0xbd1aa685	-0.03775646
5	0x3c22d734	0.009939004
6	0xbd0a7b25	-0.033808846
7	0xbd2c953d	-0.042134512
8	0xbd0850df	-0.03328025
9	0xbce9c513	-0.028536355
10	0xbd5c09ea	-0.053720392
11	0xafec7af2	-4.3015508e-10
12	0x3cfefdd1	0.031126888
13	0x3c76e2fc	0.015068766
14	0x36a4646c	4.8992715e-06
15	0x803e7050	-5.734091e-39
16	0xafd7a86f	-3.9227951e-10
17	0x000201c0	1.84299e-40
18	0x3cf8ef9b	0.03038769
19	0x3cf5d110	0.030006915
20	0xbaed6513	-0.0018111788
21	0x3b15d84c	0.0022864519
22	0xbd12b080	-0.035812855
23	0x3d5e0e74	0.054213002
24	0xbcd3fc30	-0.025877088
25	0x3cfbb43c	0.03072559
26	0x3c4336c8	0.011914916
27	0xbcbe0424	-0.023195334
28	0x3d481d42	0.048856027
29	0x3d5ab629	0.053396378
30	0x00055173	4.88396e-40
31	0xbaea0d1d	-0.0017856691
32	0xbd4975d7	-0.049184646
33	0x3cedcb9a	0.029027749
34	0xbb483f09	-0.003055515
35	0x2b79f92f	8.880838e-13
36	0xb9ad907e	-0.00033104786
37	0x2daacb70	1.9417107e-11
38	0xbc82fec5	-0.015990624
39	0x0033ac8e	4.745511e-39
40	0xae88dec5	-6.224136e-11
41	0xbd6056ca	-0.05477027
42	0x3a12d5c4	0.00056013116
43	0x31732909	3.538448e-09
44	0xbd245c9e	-0.04012739
45	0xbd2139de	-0.039361827
46	0xbcf19469	-0.029489713
47	0x058f2b93	1.3463662e-35
48	0x0ef9e693	6.1605274e-30
49	0xbcd21e65	-0.025649259
50	0x3d327ccb	0.043576043
51	0x3ca86357	0.020555181
52	0x3b41271b	0.0029472772
53	0x3ce349a5	0.027745077
54	0xbd385a28	-0.045007855
55	0xbba48f1a	-0.005021942
56	0x3d445829	0.04793564
57	0xbca7c668	-0.02048035
58	0xbd1f576e	-0.03890174
59	0x3d656197	0.056001272
60	0x802cf79b	-4.129586e-39
61	0xbb7b740b	-0.0038368728
62	0xbccdec6b	-0.025137147
63	0xbd0abb41	-0.033869985
64	0xbb54e5ce	-0.0032485607
65	0xbb83521c	-0.004007591
66	0xba20d70c	-0.000613556
67	0x3c1f8d48	0.009738274
68	0x3ced669b	0.02897959
69	0x0025d75b	3.475168e-39
70	0x2ae82c02	4.1242015e-13
71	0xbd4474c8	-0.047962934
72	0x3d2166fb	0.03940485
73	0x3b7750fd	0.0037737482
74	0x3c96c78a	0.018405695
75	0x3ca2f0b0	0.01989016
76	0x3cc25ffe	0.023727413
77	0x9f56f919	-4.552231e-20
78	0x87591f46	-1.6334456e-34
79	0x3d261643	0.040548574
80	0xbcc6ff93	-0.02429179
81	0xb96d8574	-0.00022651796
82	0x8e91097c	-3.5754393e-30
83	0xbd524949	-0.05133942
84	0x3d121737	0.03566667
85	0xba3d822c	-0.0007229175
86	0xbd2539b2	-0.040338226
87	0x3d26b1be	0.040696852
88	0xaf59fb2c	-1.9825269e-10
89	0x3c779ad8	0.015112601
90	0xbacb4a02	-0.0015509727
91	0x3d3a9522	0.04555238
92	0x004293cc	6.114162e-39
93	0x3d5dc190	0.054139674
94	0xbd175032	-0.036941715
95	0x3c37ab27	0.0112102395
96	0xba9876d4	-0.0011632093
97	0x2dd5c9e4	2.4304954e-11
98	0x80277a26	-3.625403e-39
99	0x3d0d993e	0.03456997
100	0x3d43e24b	0.04782323
101	0x39068f67	0.00012832657
102	0x2d500414	1.1824337e-11
103	0xbd48091a	-0.048836805
104	0x3d45c672	0.048284955
105	0xbd31c877	-0.04340407
106	0xbce8c664	-0.028414913
107	0x8ae717fe	-2.2253516e-32
108	0xb6eb48a4	-7.0120022e-06
109	0x3d70bbe4	0.058772936
110	0x3ccb4bec	0.024816476
111	0x3d5e8bcc	0.05433254
112	0xbb4ed0a4	-0.0031557465
113	0x3c198dcd	0.009372187
114	0x3d338c82	0.04383517
115	0xbd1d1f4f	-0.038359936
116	0xbbbc014d	-0.0057374598
117	0x3bc24c71	0.0059295227
118	0x9e61b690	-1.1949154e-20
119	0x3d520f63	0.051284205
120	0xbcd56569	-0.026049333
121	0xbd67fee5	-0.05663957
122	0xbd098898	-0.03357753
123	0x3c1bebd4	0.009516675
124	0x802fa81a	-4.376572e-39
125	0xbc210449	-0.009827682
126	0xa60b162c	-4.825536e-16
127	0xbd4308ec	-0.04761593
128	0x3b831a48	0.0040009357
129	0x3c15f8ac	0.009153526
130	0x3d73cf8f	0.059524115
131	0x3d37641b	0.044773202
132	0x803a2a0d	-5.341544e-39
133	0x3c01eaca	0.007929513
134	0x3d0b40f3	0.033997487
135	0x34abcbad	3.1999426e-07
136	0x2bfb4afe	1.7855437e-12
137	0xba9f3863	-0.0012147542
138	0x80593463	-8.192152e-39
139	0xbcb2b6cf	-0.021815686
140	0x3cc5683b	0.024097553
141	0x3afec594	0.0019437545
142	0xbd0f2135	-0.034943778
143	0x3d22ab36	0.03971406
144	0xbcd8d07d	-0.026466602
145	0xba49e20f	-0.0007701227
146	0xbca83ce2	-0.020536844
147	0x2d6c1a1e	1.3420846e-11
148	0x3b171c94	0.0023057805
149	0xbbfd4255	-0.0077288547
150	0x3c9a187a	0.0188105
151	0x8f1dd0b9	-7.780896e-30
152	0xbb83fa19	-0.0040276167
153	0xbb7b9e0a	-0.003839376
154	0x3bf84e5f	0.007577702
155	0x3c7b0084	0.015319947
156	0xbc294272	-0.010330783
157	0x003712bc	5.057673e-39
158	0x3a95b300	0.0011421144
159	0xbd31c050	-0.043396294
160	0x0036e570	5.041423e-39
161	0xbc147876	-0.009061923
162	0x3b25cd48	0.002529936
163	0x0ff439ce	2.4082523e-29
164	0xbb96565f	-0.004587933
165	0x396579af	0.00021884473
166	0xbb595c50	-0.0033166595
167	0x801e06c7	-2.757496e-39
168	0xbcc7a9aa	-0.024372894
169	0xbc075304	-0.008259539
170	0xbadc550f	-0.0016810017
171	0x3d624cee	0.055249147
172	0x3ce28039	0.027649032
173	0x3d5fc191	0.05462796
174	0x3d23dc5a	0.040005066
175	0x3d6e82c0	0.05823016
176	0xbd2978ca	-0.04137496
177	0xbd75408a	-0.059876002
178	0x0010e9e1	1.553268e-39
179	0xbcddf13b	-0.027092567
180	0x3d64695e	0.05576455
181	0x3c4e3ff5	0.012588491
182	0xbcf65d3e	-0.030073758
183	0xbbbf6dae	-0.0058419323
184	0x803fbde2	-5.853753e-39
185	0x3ccf95a0	0.025339901
186	0x3d4943c2	0.049136885
187	0x3d36057e	0.04443883
188	0xbb27de4b	-0.0025614675
189	0x3c88fca4	0.016722031
190	0xbd0aa00b	-0.033844035
191	0x3ca06166	0.019577693
192	0x3d5200b7	0.051270213
193	0xba195ad7	-0.0005850023
194	0x3cb1b4a1	0.021692576
195	0xbd7ce706	-0.06174376
196	0xbb60d35f	-0.0034305674
197	0x3a951731	0.001137471
198	0xb0382540	-6.6991745e-10
199	0x0020bdbf	3.006804e-39
200	0x3d5b5924	0.053551808
201	0x3cd52be5	0.026021907
202	0xbd11d759	-0.035605762
203	0x3d01aeac	0.03166072
204	0xbbc17915	-0.0059043267
205	0x3d250750	0.040290177
206	0x3c951f35	0.018203357
207	0x3cd11a16	0.025525134
208	0xb1ceb2e2	-6.0157257e-09
209	0x3d445b2e	0.04793852
210	0xbc1291d1	-0.008945898
211	0x3ba0cc21	0.0049071466
212	0xbcdd3a73	-0.02700541
213	0x3c92fa03	0.01794148
214	0x3d06cc7d	0.03290986
215	0x2eabf4ef	7.8196886e-11
216	0x3d3e1a7d	0.04641198
217	0x3d0f47e0	0.034980655
218	0x3cbac791	0.022800239
219	0x3d5ecf28	0.05439678
220	0x802ce399	-4.122408e-39
221	0xbd11f22b	-0.03563134
222	0xbcb3d726	-0.021953177
223	0xbc3624c2	-0.011117162
224	0xbd0273bf	-0.031848665
225	0x3c73f3ca	0.014889667
226	0xa81fb0b4	-8.8645894e-15
227	0x804430c7	-6.262312e-39
228	0xbd7d4e12	-0.06184203
229	0x3c8505f1	0.016238185
230	0x3d257670	0.040396154
231	0xbc37ef78	-0.011226527
232	0xbafa26e1	-0.0019085073
233	0x1c9b82e9	1.0290879e-21
234	0x3d03161f	0.03200352
235	0x3ce68463	0.028139299
236	0xbbb3928a	-0.0054801153
237	0xbc974211	-0.01846412
238	0x3d2c09c7	0.042001512
239	0x803c704b	-5.550413e-39
240	0xbccbfe37	-0.024901493
241	0x1e1b4a3e	8.220985e-21
242	0xbd1ea1b6	-0.03872844
243	0xbcc1b243	-0.023644572
244	0x8d97dc18	-9.359079e-31
245	0xbd56556a	-0.05232755
246	0xbd408f9b	-0.047011953
247	0xbc97537b	-0.018472424
248	0xbcfca852	-0.03084198
249	0x3a831f45	0.0010003826
250	0xbc830f7f	-0.0159986
251	0x26c73a8d	1.3824269e-15
252	0x3d6fe849	0.058571134
253	0xbb6f8e7f	-0.003655344
254	0xbc28487d	-0.010271189
255	0x3aeca01f	0.0018053091

bias f4 [4]
0	0xbc6852d1	-0.014179901
1	0x3d3a374a	0.045462884
2	0x3d60071b	0.054694276
3	0x3d61b58d	0.05510478

weight f4 [4, 8]
0	0xbd60bad8	-0.054865688
1	0xbe2be8cb	-0.16788022
2	0x3e6a4dbc	0.22881216
3	0x3c93fedc	0.018065862
4	0x3e314fd9	0.17315616
5	0xbd097c53	-0.03356583
6	0x3dd5cbbc	0.1043925
7	0x3d830e32	0.06399192
8	0xbd80616f	-0.06268584
9	0xbe4a82e9	-0.19776501
10	0xbc60e8cb	-0.013727377
11	0xbea75d1f	-0.32688233
12	0xbc94c479	-0.018160092
13	0xbd0988e1	-0.033577804
14	0xbc38301d	-0.01124194
15	0x3e6e3035	0.23260577
16	0x3e43c7f5	0.19119246
17	0x3d5fb5a9	0.054616604
18	0xbda928bd	-0.08259723
19	0xbda9f455	-0.08298556
20	0xbe37609c	-0.17907947
21	0x3d7a06da	0.06104169
22	0x3dd26030	0.102722526
23	0x3d9fe66f	0.078076236
24	0x3d045987	0.032311942
25	0xbc2b1035	-0.010440876
26	0xbe1539ae	-0.14572784
27	0x3cc18ab5	0.023625711
28	0xbe5cf853	-0.21579103
29	0xbc7e5629	-0.015523472
30	0x3d372e1a	0.0447217
31	0xbdf3a2dd	-0.11896298

bias f4 [4]
0	0x3e938544	0.2881261
1	0x3e754fa9	0.23956169
2	0x3de29a54	0.11064592
3	0x3e834c04	0.25643933

weight f4 [4, 8]
0	0x3e78dfe9	0.24304165
1	0x3e58de73	0.21178608
2	0xbe28de92	-0.16491154
3	0xbe082800	-0.13296509
4	0x3e8bd7ff	0.2731323
5	0x3e85b8cf	0.2611756
6	0xbdd1ef08	-0.1025067
7	0x3d93b0ee	0.07211481
8	0x34974506	2.8176163e-07
9	0xbd4740b7	-0.0486457
10	0xbb8f5e5c	-0.004375262
11	0xb7b76613	-2.1862832e-05
12	0xbde103c4	-0.10987046
13	0xbd7fc268	-0.06244126
14	0xbdbe3437	-0.09287303
15	0x00350ad0	4.87116e-39
16	0xbd8a21b1	-0.067447074
17	0x3e44fd0d	0.19237156
18	0xbe6195cf	-0.22029804
19	0xbd720ac2	-0.05909229
20	0x3ea5078e	0.32232326
21	0x3e20f62d	0.15718909
22	0xbdd3eabe	-0.10347508
23	0xbdbafc38	-0.09130138
24	0x3da6e594	0.08149257
25	0x3e8798e3	0.2648383
26	0x3ca41da9	0.020033674
27	0xbe5688f8	-0.20950687
28	0xbe2d0df4	-0.16899854
29	0xbe5af3e4	-0.213821
30	0xba4bbfb3	-0.0007772401
31	0x3ccb92e1	0.02485031

bias f4 [4]
0	0x3e81feb8	0.25389647
1	0xbcf15b33	-0.029462432
2	0x3e81562f	0.25261065
3	0x3e653268	0.2238251

weight f4 [10, 2]
0	0xbe4ddc1f	-0.20103501
1	0xbe428138	-0.18994606
2	0xbe37783c	-0.1791696
3	0x3e603ab0	0.21897388
4	0x8064e177	-9.264431e-39
5	0xbea31e34	-0.3185898
6	0x3c8635ff	0.01638317
7	0x328dcb1a	1.650692e-08
8	0x3ed95b15	0.42452303
9	0x3d0a1211	0.033708636
10	0x3f0bb2b1	0.54569536
11	0x3ede2d25	0.43393818
12	0x3ea7c427	0.3276684
13	0x3e022401	0.12709047
14	0xbf10c5d8	-0.56551886
15	0xbd2bfac0	-0.04198718
16	0xbdf3dacc	-0.119069666
17	0xbeae34d0	-0.34024668
18	0xbe95834a	-0.29201728
19	0x3e873bf1	0.2641292

bias f4 [10]
0	0x3e3586dc	0.17727226
1	0x3bbb7f1c	0.0057219397
2	0xbeb20320	-0.3476801
3	0xbecbaec0	-0.3978176
4	0xbe08a618	-0.1334461
5	0xbdc82742	-0.09773113
6	0xbc96539c	-0.018350415
7	0xbd61a025	-0.055084366
8	0x3e978106	0.29590625
9	0x3d8f92b0	0.070104

weight f4 [10, 2]
0	0xbec92289	-0.3928416
1	0x3ef19790	0.47185946
2	0x3ec0fb15	0.3769156
3	0x3e9ed733	0.3102356
4	0xbe73133b	-0.23737805
5	0xbe069516	-0.1314281
6	0xbdd6baf8	-0.1048488
7	0x3ec90110	0.39258623
8	0x3e186cb2	0.14885214
9	0xb52a3435	-6.3405906e-07
10	0xbe1b862e	-0.15187904
11	0x3e0be63c	0.13662046
12	0x3ed11d24	0.40842545
13	0x3f04b72f	0.51842016
14	0x3e5d76b8	0.21627319
15	0xaa6b4f29	-2.0899657e-13
16	0x3edb3033	0.4281021
17	0xbeb9953f	-0.36246678
18	0x3ed2fc12	0.4120794
19	0x3bfe386e	0.007758192

bias f4 [10]
0	0xbe94f7e2	-0.2909537
1	0x3e3d27a1	0.18472148
2	0x3eb844d9	0.35990027
3	0xbedf6640	-0.43632698
4	0xbed9fe39	-0.4257677
5	0xbea544d7	-0.32279083
6	0xbe4691b2	-0.19391516
7	0xbe67543a	-0.22590724
8	0xbe38474c	-0.17995948
9	0x3ea70467	0.32620546

weight f4 [20, 4]
0	0x3c613722	0.013746055
1	0xbea0264f	-0.31279227
2	0x3e624253	0.22095613
3	0x3d44ff71	0.04809517
4	0xbe4ec705	-0.20193107
5	0xbcb5ee31	-0.022208305
6	0xbedc794b	-0.4306129
7	0xbe545cb6	-0.20738491
8	0x3c1c82e5	0.009552692
9	0x3e1cd618	0.15316045
10	0x3e2969ab	0.16544215
11	0xbc76bc52	-0.0150595475
12	0xbed02beb	-0.40658507
13	0x3e35b6b9	0.17745484
14	0xbdb8264d	-0.0899168
15	0x3e976b9f	0.29574296
16	0xbe0890a8	-0.13336432
17	0xbe255f76	-0.16149697
18	0xbed030dd	-0.4066228
19	0x3e03fc5f	0.1288924
20	0xbea5ca29	-0.32380798
21	0xbe7a87f4	-0.24465925
22	0xbe33c674	-0.17556173
23	0x3ec1896d	0.3780016
24	0x3e97411b	0.2954186
25	0xbe944300	-0.28957367
26	0x3dd9322e	0.10605274
27	0x3e7cdfe4	0.24694782
28	0xbea0f35a	-0.31435663
29	0xbe0c2dc9	-0.1368934
30	0x3e22fbf5	0.15916426
31	0xbeba0ff4	-0.36340296
32	0x3e40317a	0.18768874
33	0xbe60c559	-0.21950282
34	0xbec3b36f	-0.38222834
35	0x3e7b3ae7	0.24534188
36	0xbe53ea00	-0.20694733
37	0x3ebc1b08	0.36739373
38	0x3e80abe8	0.25131154
39	0x3eaa00ce	0.3320374
40	0x3e84e03d	0.2595233
41	0xbece9d38	-0.40354323
42	0x3e482547	0.1954547
43	0xbeb2a1cf	-0.34889075
44	0xbec836b1	-0.39104226
45	0xbec26ccf	-0.3797364
46	0xbe37e0b2	-0.17956808
47	0xbe9bead0	-0.30452585
48	0xbe8e883a	-0.27838308
49	0x3e9543f4	0.29153407
50	0xbec7a514	-0.38993132
51	0x3dacc1ea	0.08435424
52	0x3edd7f42	0.43261153
53	0x3e052600	0.13002777
54	0x3d891e86	0.06695275
55	0xbed3aa7e	-0.41341013
56	0x001cb7cf	2.637332e-39
57	0xbc3325e0	-0.010934323
58	0x3ce72250	0.028214604
59	0xbd5cc55a	-0.053899147
60	0x3e256fad	0.16155882
61	0x3de8f4f9	0.1137485
62	0xbe91f562	-0.28507525
63	0x3e1e109e	0.15436026
64	0xbe878ee8	-0.26476216
65	0x3e098a11	0.13431574
66	0xbe1ee934	-0.15518647
67	0x3e898b06	0.2686388
68	0xbe685d49	-0.22691835
69	0x3e74d63a	0.23909846
70	0x3e30a192	0.17249134
71	0xbebc4c57	-0.36776993
72	0xbe08c46a	-0.13356176
73	0xbe92aa4a	-0.28645545
74	0x3e0ee279	0.1395358
75	0xbd048e58	-0.032362312
76	0x3d98ccb2	0.074609175
77	0x3e1a92df	0.1509509
78	0x3cbe1b62	0.023206417
79	0xbe6b8cfe	-0.23003003

bias f4 [20]
0	0x3ee06ac3	0.43831453
1	0xbef2f74b	-0.47454295
2	0xbe9cb7b5	-0.30608907
3	0x3df451d2	0.119296685
4	0x3ea458e9	0.32099083
5	0x3d3068c6	0.04306867
6	0x3c3802e2	0.011231156
7	0xbed2425f	-0.41066262
8	0x3e3ef061	0.18646385
9	0xbe3a934e	-0.18220255
10	0x3eab49ea	0.3345483
11	0x3e629f5e	0.22131106
12	0x3e2e7d4b	0.17039983
13	0x3dac605d	0.08416817
14	0xbe828d71	-0.25498536
15	0xbeb84d1d	-0.35996333
16	0x3e45943c	0.19294828
17	0x3d0d556f	0.034505304
18	0xbd53cc10	-0.05170828
19	0xbc9a2bd5	-0.018819729

weight_ih_l0 f4 [12, 10]
0	0xb7f9fb88	-2.9800241e-05
1	0x3c64e305	0.013970141
2	0x3c10e990	0.008844748
3	0xbb632db1	-0.0034664685
4	0xbe2a6b39	-0.16642465
5	0x3c72420d	0.014786256
6	0xbe095ff3	-0.13415508
7	0x3c00a25f	0.007851212
8	0xbd03391b	-0.032036882
9	0xa097f08f	-2.5739583e-19
10	0x3d9df641	0.07712985
11	0xbe1c1250	-0.1524136
12	0xb9e56ac6	-0.00043757836
13	0xbe889cbc	-0.2668208
14	0xbdc49798	-0.09599227
15	0x3a9e11f7	0.0012059797
16	0x3c03c02a	0.008041421
17	0x3d9e07ba	0.077163175
18	0xbd556819	-0.05210123
19	0x1a371968	3.7864036e-23
20	0xbc7d11ca	-0.015446136
21	0xbe275ed2	-0.16344765
22	0xbd718a06	-0.05896952
23	0xbe2207a9	-0.15823235
24	0x3d4bd9d6	0.04976829
25	0xbd990f5f	-0.07473635
26	0x3e415efa	0.18883887
27	0xbd19c090	-0.037537158
28	0x3e85538b	0.260403
29	0x3e778f2b	0.24175708
30	0xbe340a08	-0.17581952
31	0xb73238c9	-1.0622848e-05
32	0xbb7f8e6d	-0.0038994804
33	0x3e4e9470	0.20173812
34	0x39a389a6	0.0003119234
35	0xb82e2acc	-4.152469e-05
36	0x3e66bb84	0.22532469
37	0xbdcd6162	-0.1002834
38	0xbe283b6f	-0.16428922
39	0x3e5db635	0.21651538
40	0x3a63f270	0.0008695489
41	0x3cc71c8e	0.024305608
42	0x87441219	-1.475072e-34
43	0x3e53fe52	0.20702484
44	0xb9d3fd4e	-0.00040433783
45	0x3e76ec07	0.24113475
46	0xbe3c9143	-0.18414788
47	0x3e75cec8	0.24004662
48	0x3dc59e29	0.09649307
49	0x3a4d3c3f	0.0007829107
50	0x3e8674da	0.26261026
51	0x3da48913	0.08033957
52	0x0388e4c4	8.045884e-37
53	0xbd8f3c91	-0.06993974
54	0x3a06170c	0.00051151286
55	0x3e5c635b	0.21522276
56	0xbdc471ec	-0.095920414
57	0x3d057fa5	0.032592434
58	0xbc8a9b2b	-0.016919693
59	0x3916d0c4	0.00014382886
60	0xbddd0da5	-0.10793618
61	0xb9c1593c	-0.00036878313
62	0x80362a4b	-4.974289e-39
63	0x3e5e86a9	0.21731056
64	0x3c476669	0.012170413
65	0x3e22b6ef	0.15890096
66	0x3d91db43	0.07121899
67	0x39170f41	0.00014406165
68	0xbe27b78e	-0.16378614
69	0xbe840f91	-0.25793126
70	0x3e77d0d4	0.24200755
71	0x3866a4ec	5.498987e-05
72	0x3e174100	0.1477089
73	0xbaace733	-0.0013191461
74	0xbe273614	-0.16329223
75	0x3e2ea350	0.17054486
76	0xb9911025	-0.00027668584
77	0xbd15dd6d	-0.03658812
78	0xbe702298	-0.23450696
79	0x3dd25b5e	0.10271333
80	0x3e4bf1d9	0.19916476
81	0xbeaa8786	-0.3330652
82	0x3e50e182	0.20398524
83	0x3c6a95ee	0.014317973
84	0xbd46121f	-0.048357125
85	0xbea07ae9	-0.31343773
86	0x3eaed479	0.3414648
87	0x3eb3393b	0.350046
88	0x3e7c6cd2	0.24650887
89	0xbe630939	-0.22171487
90	0xbbd87761	-0.006606028
91	0xbe3654d0	-0.17805791
92	0x37622910	1.348021e-05
93	0x3e6e9f17	0.23302875
94	0xbdeea400	-0.11652374
95	0xbe5a29ab	-0.21304958
96	0xbe93056d	-0.28715077
97	0x3d550904	0.05201055
98	0xbe54fb9e	-0.2079911
99	0xbe83e75f	-0.2576246
100	0x3b719b3b	0.0036866206
101	0xbe8dbfc1	-0.2768536
102	0xbe27702e	-0.16351387
103	0x3d972e0d	0.0738183
104	0xbe2875e9	-0.16451229
105	0xbe5ea0b6	-0.21740994
106	0xbdbbf834	-0.091782
107	0xbd6a2264	-0.057161704
108	0xbd6a12cd	-0.057146836
109	0x02052a2d	9.783401e-38
110	0x3ce620b9	0.028091775
111	0x3e0bd616	0.13655886
112	0x3e68a4a7	0.2271906
113	0xbc8c8ae2	-0.017156068
114	0xbe15ed2f	-0.1464126
115	0xbe0be67b	-0.1366214
116	0x3ec36036	0.3815934
117	0xbe28be45	-0.16478832
118	0x3ca8df85	0.020614395
119	0xbe83ec52	-0.25766236
