RNN/checkpoints/linear/obsmis/rq020partial.pt (torch, 48862 bytes, 43 tensors)

weight_ih_l0 f4 [48, 12]
0	0xbea48068	-0.32129216
1	0xbec88197	-0.3916137
2	0x3eb8149e	0.3595323
3	0x3cd9f1a8	0.026604488
4	0xbd941ae9	-0.07231695
5	0xbe12b757	-0.14327751
6	0x3d1ad824	0.037803784
7	0xbed416ed	-0.4142374
8	0xbefa0dd1	-0.48838666
9	0xbbafc9bf	-0.005364626
10	0xbdb65787	-0.08903413
11	0xbd58eadb	-0.05295835
12	0x3d9eba6f	0.07750403
13	0x3e4eb7fb	0.2018737
14	0x3e7c7228	0.24652922
15	0x3e783acd	0.2424118
16	0x3dfdbe9d	0.12389872
17	0x3e86204b	0.26196513
18	0xbd87ada7	-0.066249184
19	0x3eaa39c3	0.33247194
20	0x3e6d0cf6	0.23149475
21	0x3daabe1e	0.08337043
22	0xbc21dd8c	-0.009879481
23	0xbd25d981	-0.04049063
24	0x3e3db4ad	0.18525954
25	0xbdc89e77	-0.0979585
26	0x3e31aa4a	0.17350116
27	0xbe102f52	-0.14080551
28	0x3da437c9	0.08018453
29	0xbe0256cf	-0.12728427
30	0x3e80e459	0.25174215
31	0x3e61074c	0.2197544
32	0xbd932938	-0.07185596
33	0x3ca6d74d	0.020366335
34	0x3c6a4bf4	0.014300335
35	0x3dc10211	0.09424222
36	0x3de30af3	0.11086073
37	0xbe20bac3	-0.15696244
38	0xbd953f79	-0.07287497
39	0x3e3e9124	0.18610054
40	0x3aa7bf6b	0.0012798136
41	0xbe046754	-0.12930042
42	0x3e0da955	0.13834126
43	0xbe195410	-0.14973474
44	0x3e8a42ca	0.2700408
45	0xbd57eb8c	-0.05271487
46	0x3caeb993	0.021328723
47	0xbcbf1452	-0.02332512
48	0xbdf978fa	-0.121812776
49	0xbef9d85e	-0.48797888
50	0x3da8c7ae	0.08241211
51	0x3e1a5057	0.1506971
52	0xbe92c227	-0.2866375
53	0xbddfd73c	-0.109297246
54	0xbd97d794	-0.07414165
55	0xbe64abdb	-0.22331183
56	0xbe3260df	-0.17419766
57	0xbe312b33	-0.17301635
58	0xbd737a1d	-0.05944263
59	0xbe49dc89	-0.19713034
60	0x3c4fc50c	0.012681257
61	0x3db03943	0.08604672
62	0xbdb66861	-0.089066274
63	0xbe66974a	-0.2251865
64	0x3dacdc2b	0.08440431
65	0x3dce656c	0.100779384
66	0x3e15c1e1	0.1462474
67	0xbdfa1799	-0.12211532
68	0x3e361e15	0.17784913
69	0xbe20500d	-0.15655537
70	0x3c3015a2	0.010747345
71	0x3df0ab59	0.11751432
72	0x3ce2c758	0.027682945
73	0xbdb62359	-0.08893461
74	0x3c36eeb8	0.011165313
75	0xb81db45c	-3.759969e-05
76	0x3e2a02f8	0.16602695
77	0x3d49c447	0.04925945
78	0xbd850738	-0.064955175
79	0x3e2ce053	0.16882448
80	0x3e3ef607	0.1864854
81	0x3e262701	0.16225816
82	0xb97691aa	-0.00023514652
83	0x3e81d375	0.2535664
84	0x3dfecf8d	0.12441931
85	0x3e7743a2	0.24146894
86	0x3e2956d1	0.16537024
87	0x3e93c598	0.2886169
88	0xbd2c7b33	-0.04210968
89	0xbdeda458	-0.11603612
90	0xbd884ea4	-0.066556245
91	0x3e41b069	0.18914951
92	0x3e197bfa	0.149887
93	0xbb0f58a3	-0.00218729
94	0xb90ad0c0	-0.00013238471
95	0x3e3a69d8	0.18204439
96	0xbe0cefc5	-0.1376334
97	0xbc6394be	-0.013890443
98	0xbd6ea710	-0.058264792
99	0x3dad4e5b	0.08462211
100	0x3e2ccb74	0.16874486
101	0xbe03001e	-0.12793013
102	0x3e4d4309	0.20045103
103	0xbe0f2db9	-0.13982286
104	0x3eda4a64	0.4263488
105	0xbe2dbb73	-0.16966037
106	0xbc0b9705	-0.008519893
107	0x3e176ef4	0.14788419
108	0xbe94c7e4	-0.29058754
109	0xbe638d37	-0.22221838
110	0xbe446f37	-0.1918305
111	0x3e0b2d6f	0.1359155
112	0xbd68e8bf	-0.05686259
113	0xbcb6aa23	-0.022297924
114	0x3e11525b	0.14191572
115	0xbe8dde7b	-0.27708802
116	0xbec83a18	-0.39106822
117	0xbe814117	-0.25244972
118	0xbd2a5bdb	-0.041591506
119	0xbe222e12	-0.15837887
120	0xbd2538dd	-0.040337432
121	0xbd98bba0	-0.07457662
122	0xbe3736ab	-0.17891948
123	0xbdfe8cd2	-0.12429203
124	0x3d24084f	0.040046986
125	0x3defe6b7	0.11713927
126	0xbe95ad76	-0.29233903
127	0x3db3a30f	0.08771335
128	0x3f0cca5f	0.54996294
129	0xbded5e26	-0.11590223
130	0xbac728f0	-0.0015194695
131	0x3dbef405	0.09323887
132	0x3d584ab4	0.052805617
133	0x3de2153b	0.11039206
134	0x3d644eac	0.05573909
135	0xbcb21b6e	-0.021741595
136	0x3dda7eb4	0.10668698
137	0x3d072445	0.032993574
138	0x3df27d32	0.11840285
139	0x3e8cfc20	0.27536106
140	0x3e2b4969	0.16727223
141	0x3e4c5248	0.19953263
142	0xbb28dfc8	-0.002576815
143	0x3db3d5e1	0.087810285
144	0xbe5356e4	-0.20638615
145	0x3e5402a6	0.20704135
146	0xbe61538b	-0.22004525
147	0x3e9e8c47	0.30966398
148	0x3de4803d	0.11157272
149	0x3e013486	0.12617692
150	0x3e415d2f	0.18883203
151	0x3e2e6447	0.1703044
152	0x3e6bf2b5	0.23041804
153	0xbd1a3168	-0.037644774
154	0x3cef4e64	0.029212184
155	0xbe315f1e	-0.1732144
156	0xbc9ccf9e	-0.019141968
157	0x3d606a75	0.054789025
158	0x3ce79b5b	0.028272321
159	0x3e2cf241	0.16889288
160	0xbd4eff58	-0.050536484
161	0x3d46585e	0.048424117
162	0xbcd2d7b8	-0.025737628
163	0xbcaa1ee3	-0.020766681
164	0x3f1770d4	0.5915654
165	0xbe0f3b66	-0.13987502
166	0xba934b0a	-0.0011237573
167	0xbe0ba93c	-0.13638777
168	0xbe76399b	-0.24045412
169	0x3e13e79c	0.1444382
170	0x3e0f74f3	0.14009456
171	0xbd35bf6a	-0.044372
172	0xbe3c0d5c	-0.18364471
173	0xbe223533	-0.15840606
174	0xbdcb8288	-0.09937006
175	0x3e3ec5dd	0.18630166
176	0xbda6524c	-0.08121166
177	0xbd54d3ea	-0.05195991
178	0x3a86520d	0.0010247842
179	0xbe8ab576	-0.2709157
180	0xbf0600f5	-0.5234521
181	0xbe9f332d	-0.31093732
182	0xbcc3b40a	-0.02388956
183	0xbdf604f4	-0.120126635
184	0xbe010e78	-0.12603176
185	0xbe904be3	-0.28182897
186	0x3e158d4a	0.14604679
187	0xbf0ac0b4	-0.5420029
188	0xbedd47ad	-0.43218747
189	0xbd799409	-0.060932193
190	0xbe23253c	-0.15932173
191	0xbe4f93fa	-0.20271292
192	0xbe1ea567	-0.15492783
193	0x3dc836f1	0.09776104
194	0xbc40af09	-0.011760482
195	0xbe7fedfe	-0.2499313
196	0x3e70547c	0.23469728
197	0x3e5c70bd	0.21527381
198	0x3aed88ff	0.0018122493
199	0xbd39e9aa	-0.045388855
200	0xbf379758	-0.7171531
201	0x3df0d956	0.117602035
202	0x3cc70351	0.024293574
203	0x3e8ec2f3	0.2788311
204	0x3d9ca756	0.07649104
205	0xbe233f9a	-0.15942231
206	0x3bca6e14	0.006177673
207	0xbe8768f9	-0.26447275
208	0x3d04d4c6	0.03242948
209	0xbe1790ad	-0.14801283
210	0xba5a2bfb	-0.00083225936
211	0xbd1e45e1	-0.03864086
212	0xbeccbe82	-0.39989096
213	0xbe5d6c1d	-0.21623273
214	0xbcbe5dad	-0.023238027
215	0x3d2bbac3	0.041926157
216	0xbd8b8bb1	-0.068137534
217	0x3e1d9a36	0.15390858
218	0x3d66f586	0.056386493
219	0x3e0cd97e	0.13754842
220	0xbdc76ef1	-0.09737957
221	0xbda0ce70	-0.07851875
222	0xbe7a7ced	-0.24461718
223	0xbdae2b6c	-0.08504376
224	0x3ec12dd7	0.37730286
225	0xbe3aeb6f	-0.18253873
226	0x3b079fa6	0.0020694523
227	0x3d73ccc5	0.059521455
228	0xbe242996	-0.16031489
229	0x3e79ae36	0.24382862
230	0xbe883da8	-0.2660954
231	0xbf1bdd7d	-0.6088484
232	0x3e1b62cc	0.15174407
233	0xbe65364a	-0.22383991
234	0x3df2fa9b	0.118642054
235	0x3d2ba754	0.041907623
236	0x3f512d19	0.8170944
237	0x3e401ef2	0.18761805
238	0x3b3d16c4	0.002885268
239	0xbcd4f428	-0.025995329
240	0x3e146517	0.14491688
241	0x3ce11a26	0.027478289
242	0xbe425d20	-0.18980837
243	0xbededd1c	-0.43528068
244	0xbe50c9ac	-0.20389432
245	0xbe467d85	-0.1938382
246	0xbe3a67f7	-0.18203722
247	0xbded1ff1	-0.11578358
248	0xbf316afe	-0.6930388
249	0xbca2dd23	-0.019880837
250	0xbc36a04e	-0.011146618
251	0xbda2f34f	-0.07956564
252	0x3d689dcf	0.056791123
253	0x3e11d1cb	0.14240186
254	0xbdb08de9	-0.08620817
255	0x3edd905f	0.4327421

weight_hh_l0 f4 [48, 16]
0	0xbd609f2e	-0.054839306
1	0xbd7f6571	-0.0623526
2	0xbe8e1398	-0.27749324
3	0xbed75e39	-0.42064074
4	0xbdc8cec6	-0.09805064
5	0xbedf1899	-0.43573454
6	0x3ec69e9f	0.38792893
7	0x3f044a93	0.5167629
8	0x3edc9861	0.43085006
9	0xbea17148	-0.3153174
10	0x3d7b5883	0.06136371
11	0x3e6ef397	0.2333511
12	0xbea01f52	-0.31273896
13	0xbf0878ad	-0.53309137
14	0x3e07cfc1	0.13262846
15	0x3ee827fc	0.45343006
16	0x3dce7f8a	0.1008292
17	0xbdf8a955	-0.121416725
18	0xbe79fedc	-0.24413627
19	0xbe748cb2	-0.23881796
20	0xbe1e992e	-0.15488121
21	0xbe5db44f	-0.21650814
22	0xba75c353	-0.0009375114
23	0x3ec6eb23	0.3885127
24	0x3e9f8a6d	0.31160298
25	0xbe8d3469	-0.27579048
26	0x3e56560a	0.20931259
27	0xbc6b0586	-0.014344579
28	0xbe57966e	-0.21053478
29	0xbea8ff01	-0.33007053
30	0xbd594bfc	-0.05305098
31	0x3caa74cc	0.020807646
32	0xbe8e2f43	-0.27770433
33	0xbe74e92f	-0.23917077
34	0xbe364707	-0.17800532
35	0x3d21b6ab	0.039480846
36	0xbdbc7a9f	-0.092030756
37	0xbd5654c5	-0.052326936
38	0x3c201a20	0.009771854
39	0xbddcc3d3	-0.10779538
40	0xbe6f0108	-0.23340237
41	0x3de3c62e	0.11121784
42	0xbe2a8029	-0.16650452
43	0xbe2daeed	-0.1696126
44	0x3c699e3e	0.014258919
45	0xbe348c40	-0.17631626
46	0xbe6243ef	-0.22096227
47	0x3d9881d6	0.07446639
48	0x3d8ba447	0.06818443
49	0xbe3c28c2	-0.18374923
50	0xbe76717d	-0.2406673
51	0xbdd8f338	-0.10593265
52	0xbe1f5610	-0.15560174
53	0xbcc185c2	-0.023623351
54	0x3d1eb4f3	0.038746785
55	0x3df22bc8	0.11824757
56	0x3cc8fe53	0.024535334
57	0xbe46d8d9	-0.19418658
58	0x3e8408e5	0.25788036
59	0xbc2396b7	-0.009984664
60	0x3c1a3d03	0.00941396
61	0xbe682502	-0.22670367
62	0x3e11f256	0.142526
63	0xbc1b9c69	-0.00949774
64	0xbe715284	-0.23566633
65	0xbeba44da	-0.36380655
66	0xbe822fff	-0.25427243
67	0xbe80614e	-0.25074238
68	0x3e6ac227	0.22925626
69	0xbe7795a1	-0.24178173
70	0x3e2fb7f4	0.17160016
71	0x3ee34c7a	0.44394284
72	0x3d44e389	0.048068557
73	0xbd820f80	-0.06350613
74	0x3e378830	0.17923045
75	0x3e2ac2dd	0.16675897
76	0x3e5eb221	0.21747638
77	0xbe0401f6	-0.12891373
78	0x3e43e360	0.19129705
79	0x3ea391ef	0.31947276
80	0xbe46e2e6	-0.19422492
81	0xbe3e474c	-0.18581885
82	0x3de92289	0.1138354
83	0xbe0eada4	-0.13933426
84	0x3d1490b0	0.036270797
85	0xbe21523e	-0.15754029
86	0xbde96d09	-0.1139775
87	0xbe019ad6	-0.12656721
88	0xbda768fc	-0.08174321
89	0xbcda7ab2	-0.026669834
90	0xbe00b757	-0.12569939
91	0x3d5547ce	0.05207043
92	0x3e43a5c1	0.19106199
93	0x3d58c40b	0.052921336
94	0x3df1fcc2	0.11815788
95	0x3e805d3b	0.2507113
96	0x3c64907c	0.013950463
97	0xbdbe8c76	-0.093041345
98	0x3e465734	0.19369203
99	0x3c92c847	0.017917765
100	0xbe56696b	-0.20938651
101	0x3d48121a	0.048845388
102	0xbe096de0	-0.1342082
103	0xbe7a58bc	-0.24447912
104	0x3e28daaf	0.16489671
105	0xbe476aa5	-0.19474275
106	0x3db0bf5e	0.086302504
107	0x3d699a96	0.05703219
108	0x3db97c03	0.090568565
109	0x3dbe2a92	0.092854634
110	0xbd847498	-0.06467551
111	0xbe29c117	-0.16577564
112	0x3e179b4f	0.1480534
113	0xbe4cd582	-0.20003322
114	0xbe011c58	-0.12608469
115	0xbe04b1aa	-0.12958398
116	0xbdd7b178	-0.10531896
117	0xbe3d37dc	-0.1847834
118	0x3e8fe98c	0.2810787
119	0x3e9babe1	0.3040457
120	0x3dc4c8f2	0.0960864
121	0xbdfd3ad7	-0.123647384
122	0x3d8149f1	0.06312931
123	0xbe76df6c	-0.24108666
124	0xbb8438fe	-0.0040351143
125	0xbe0c78ab	-0.13717906
126	0x3db4eb34	0.08833924
127	0xbd2e5b52	-0.04256756
128	0x3e8c3807	0.27386495
129	0x3e2a25ba	0.16615954
130	0x3cd59e48	0.026076451
131	0x3dd2814d	0.102785684
132	0xbe8b9623	-0.27262983
133	0xbd356d78	-0.04429385
134	0xbcbf5f96	-0.023361009
135	0x3d5c2a06	0.053751014
136	0x3e751d86	0.23937044
137	0x3d15a503	0.03653432
138	0xbe30aa4f	-0.17252468
139	0xbc62e65a	-0.013848865
140	0xbe655373	-0.22395115
141	0x3dfca368	0.12335855
142	0x3e3dd096	0.185366
143	0xbdb922ed	-0.09039865
144	0x3d0cf769	0.034415636
145	0xbed8731a	-0.42275316
146	0xbe1c82c4	-0.15284258
147	0xbdbaf435	-0.0912861
148	0x3f48190e	0.7816323
149	0xbea9496c	-0.3306383
150	0x3e942d26	0.28940696
151	0x3f3a2f1f	0.7272815
152	0x3e075132	0.13214567
153	0x3ca7a05b	0.020462206
154	0x3eb56b6d	0.35433522
155	0x3ebf24ee	0.37332863
156	0xbe8a68fc	-0.27033222
157	0x3ddf6e0a	0.1090966
158	0x3e83135f	0.25600716
159	0x3eea6a4f	0.45784232
160	0xbc2951f1	-0.010334478
161	0xbd9b3b27	-0.07579642
162	0x3e027628	0.12740386
163	0xbdb8c25f	-0.09021448
164	0xbc8b0143	-0.016968375
165	0xbc848083	-0.01617456
166	0xbe87aca2	-0.26498896
167	0xbd849fa4	-0.064757615
168	0x3d674cc9	0.056469712
169	0xbd92a764	-0.071608335
170	0x3d39be13	0.045347285
171	0xbc7f7ea0	-0.015594155
172	0x3d6d58b4	0.057945922
173	0x3de1fd0d	0.11034594
174	0x3e3420ca	0.17590633
175	0x3dbacac9	0.091207094
176	0xbdee466e	-0.11634527
177	0xbe5495c9	-0.20760264
178	0x3dc3e3a7	0.095649056
179	0xbefae7a0	-0.4900484
180	0xbd906280	-0.070500374
181	0xbe846ce5	-0.2586433
182	0x3d274cf4	0.040844873
183	0x3e1ec416	0.15504488
184	0x3e53a775	0.20669349
185	0x3e41c4cf	0.18922733
186	0x3ea1a460	0.3157072
187	0xbd8e62ba	-0.06952424
188	0xbd9b4674	-0.07581797
189	0xbe20d76b	-0.15707175
190	0x3e386bd8	0.18009889
191	0xbd7db1fd	-0.06193732
192	0xbd906129	-0.07049782
193	0x3e01d1c6	0.12677678
194	0x3c1bb9e5	0.00950477
195	0x3e6e584a	0.23275867
196	0xbe07dfd3	-0.13268976
197	0xbc48147d	-0.012211916
198	0x3df7a77c	0.12092492
199	0x3ace60a0	0.0015745349
200	0x3e22e66d	0.15908213
201	0xbe3f500a	-0.18682876
202	0xbd31ae26	-0.04337897
203	0xbdf4c67f	-0.119519226
204	0x3e563f9b	0.20922701
205	0xbd7b867c	-0.06140755
206	0x3e8a5c21	0.27023414
207	0x3e72ecec	0.23723191
208	0x3de52fdc	0.11190769
209	0x3e489b4c	0.19590491
210	0xbe7bb6d9	-0.2458147
211	0xbd0d93e2	-0.03456486
212	0x3dd5f88e	0.10447799
213	0xbdefc4c7	-0.11707454
214	0xbde98d2d	-0.1140388
215	0xbe70dd72	-0.23521975
216	0xbcd560ba	-0.0260471
217	0x3c9e9b23	0.019361084
218	0x3e003a81	0.12522317
219	0xbe84fb49	-0.25972965
220	0x3e49c75e	0.19704959
221	0xbe6c5bf8	-0.23081958
222	0xbe536f99	-0.2064804
223	0xbe0bff4e	-0.1367161
224	0xbdc5b3ed	-0.09653459
225	0x3e0be1dc	0.13660377
226	0x3e2f2ad4	0.17106181
227	0xbe331b0d	-0.17490788
228	0x3e0600c7	0.13086234
229	0xbd331c69	-0.043728266
230	0xbe23b9dc	-0.15988868
231	0xbde18f13	-0.11013617
232	0xbdf2940a	-0.118446425
233	0x3e374421	0.17897083
234	0x3e344825	0.17605646
235	0xbd81a899	-0.063309856
236	0x3e4ff497	0.20308147
237	0xbe114813	-0.1418765
238	0xbdcf6b4c	-0.10127887
239	0x3dd699d0	0.10478556
240	0xbf4dbc76	-0.80365694
241	0xbe132197	-0.14368282
242	0xbe7cf140	-0.24701405
243	0xbf274691	-0.6534205
244	0xbeb56c7d	-0.35434332
245	0xbf0872ee	-0.5330037
246	0x3eacb935	0.33735052
247	0x3f207fb3	0.62694854
248	0x3ef8fcdb	0.48630413
249	0x3e0e5f5f	0.13903569
250	0x3e9fc300	0.3120346
251	0x3f1edd37	0.620563
252	0xbe3b8190	-0.18311143
253	0xbede6240	-0.43434334
254	0x3dc306f0	0.095228076
255	0x3f274155	0.65334064

bias_ih_l0 f4 [48]
0	0x3e98b91b	0.29828724
1	0x3cb21b8c	0.021741651
2	0xbda16356	-0.07880275
3	0x3c3ab3ac	0.011395376
4	0xbdf19bc9	-0.11797292
5	0xbdcd8614	-0.10035339
6	0xbe3fc2c4	-0.18726641
7	0xbdbbe24a	-0.091740206
8	0x3d4669cc	0.04844074
9	0xbd92ec08	-0.07173926
10	0x3e221a55	0.15830357
11	0xbe5fdf59	-0.21862544
12	0x3c0f8e10	0.008761898
13	0xbde00d8e	-0.10940085
14	0xbe5c10cd	-0.21490784
15	0x3f236fd0	0.6384249
16	0xbd4094b0	-0.0470168
17	0xba87afd0	-0.0010352079
18	0xbe4896fd	-0.19588847
19	0xbe933c82	-0.287571
20	0xbeaba291	-0.33522466
21	0x3d837255	0.064182915
22	0x3c99e18f	0.018784313
23	0xbbe6e396	-0.0070461733
24	0x3e0b35b5	0.13594706
25	0x3cbeb176	0.02327798
26	0x3d6cbbb6	0.057796203
27	0x3d38eb3f	0.045146223
28	0x3dc9146b	0.098183475
29	0xbd9e2cf1	-0.07723416
30	0x3e59ec92	0.2128165
31	0x3c646591	0.013940231
32	0xbe52497e	-0.20535848
33	0xbe1b3de6	-0.15160331
34	0xbd3e6cff	-0.046490666
35	0xbd264693	-0.04059465
36	0xbdab3f15	-0.08361641
37	0xbde59051	-0.11209167
38	0x3e5ca835	0.21548541
39	0xbb8ce6c9	-0.0042999727
40	0xbdd44127	-0.10363989
41	0x3d9beed7	0.076139145
42	0xbd05927f	-0.032610413
43	0x3df3ec82	0.11910345
44	0x3ced1f80	0.028945684
45	0xbe412cc1	-0.18864729
46	0xbc57f077	-0.01317989
47	0x3e58564e	0.21126673

bias_hh_l0 f4 [48]
0	0x3db813a1	0.08988119
1	0xbc7030e9	-0.014660099
2	0x3e575b69	0.21030964
3	0x3e8c1759	0.27361563
4	0xbdfa371a	-0.12217541
5	0xbd6cce97	-0.057814207
6	0xbe31e2c1	-0.17371656
7	0x3ea0a89d	0.31378642
8	0x3e81880c	0.25299108
9	0xbbe1e8b6	-0.0068941964
10	0xbe2a9097	-0.16656719
11	0xbe2e4650	-0.1701901
12	0x3e2e04db	0.1699404
13	0x3c656875	0.014001955
14	0x3d37543b	0.044758063
15	0x3ea3d5a4	0.31998932
16	0x3e793865	0.24337919
17	0x3da2031b	0.079107486
18	0x3d63edb1	0.055646602
19	0xbe88ceaa	-0.26720172
20	0xbc97edb7	-0.018545968
21	0xbc1c3701	-0.009534598
22	0xbd0cfceb	-0.03442089
23	0x3e47b694	0.19503242
24	0x3e1d2911	0.15347697
25	0xbdbbd047	-0.09170585
26	0xbe82370e	-0.25432628
27	0x3e1801ed	0.14844485
28	0xbd8c0cd8	-0.06838387
29	0x3e208823	0.15676932
30	0x3e635d60	0.22203588
31	0x3ddc724f	0.1076399
32	0xbea6fa25	-0.3261272
33	0x3d8d616e	0.06903349
34	0x3ccd3ed3	0.025054371
35	0xbdd298f8	-0.10283083
36	0xbea7a936	-0.32746285
37	0xbdd36876	-0.10322659
38	0xbb7df6df	-0.0038751883
39	0x3dc8617c	0.09784219
40	0x3e132333	0.14368896
41	0x3e37f8a7	0.17965947
42	0xbe4071f6	-0.18793473
43	0xba1c90d8	-0.0005972511
44	0xbd91748c	-0.07102308
45	0xbe42a1fb	-0.19007103
46	0xbe1ba070	-0.15197921
47	0x3f1496d3	0.5804264

weight_ih_l1 f4 [48, 16]
0	0x3d5621bb	0.05227826
1	0xbde7211c	-0.11285612
2	0xbe8569c9	-0.2605727
3	0xbe8f33df	-0.27969262
4	0xbe20c193	-0.15698843
5	0xbe3c6f84	-0.18401915
6	0xbe76db7c	-0.24107164
7	0xbbc9066d	-0.006134799
8	0x3de769aa	0.11299451
9	0x3e442a1f	0.19156693
10	0xbdd0e3c2	-0.10199691
11	0x3dd1f8d9	0.10252542
12	0xbe17c56d	-0.14821406
13	0xbe089b42	-0.13340476
14	0x3e1a301d	0.15057416
15	0xbdbe7dc5	-0.093013324
16	0xbe59e9be	-0.21280572
17	0x3e0d5f3c	0.1380586
18	0xbdae9bb0	-0.08525789
19	0xbe1ec9e6	-0.15506706
20	0x3ce4d551	0.027933748
21	0x3df5c5e0	0.12000632
22	0xbcec3ebf	-0.028838513
23	0xbe376611	-0.17910029
24	0xbe1a677e	-0.15078542
25	0x3e133a2e	0.14377663
26	0xbe60399c	-0.21896976
27	0x3e09de25	0.13463648
28	0x3e8c6ed4	0.27428305
29	0x3dfb6327	0.12274771
30	0x3e69f44c	0.22847098
31	0x3dcabd2d	0.09899364
32	0x3e987c86	0.29782504
33	0x3e37cfa3	0.17950301
34	0xbe8787db	-0.26470837
35	0xbe54bac3	-0.20774369
36	0x3e7012c1	0.23444654
37	0x3d7412c7	0.05958822
38	0xbd6ea84a	-0.05826596
39	0xbe2cf6de	-0.16891047
40	0xbd749270	-0.059709966
41	0xbe47acc9	-0.19499506
42	0x3e23ccbc	0.15996069
43	0xbdc6d81c	-0.09709188
44	0xbbbecf07	-0.0058230194
45	0x3e4435f1	0.19161202
46	0x3c7dc5b7	0.015489033
47	0xbe0489fc	-0.12943262
48	0xbe5577fa	-0.20846549
49	0x3e987cc3	0.29782686
50	0x3dc3d86e	0.09562765
51	0x3e315f47	0.17321502
52	0x3d9d83c6	0.076911494
53	0xbdc64cd8	-0.096826255
54	0xbe986b35	-0.29769292
55	0xbdfd4675	-0.12366954
56	0xbd24c918	-0.04023084
57	0xbda1f96c	-0.079089016
58	0xbdcb8014	-0.09936538
59	0x3c21a1f4	0.009865273
60	0xbe25c90b	-0.16189973
61	0x3e4399e9	0.19101681
62	0x3e781460	0.24226522
63	0xbdd7b9de	-0.10533498
64	0xbc9b3761	-0.018947305
65	0x3e8f81d2	0.28028733
66	0xbb090729	-0.0020908809
67	0x3d78ac81	0.060711388
68	0xbea3b762	-0.31975847
69	0x3dfbc984	0.122942954
70	0xbe79c063	-0.24389796
71	0xbdab6b23	-0.08370044
72	0xbd8674b6	-0.065652296
73	0xbc8ba0a8	-0.01704438
74	0x3e3a7ecf	0.18212436
75	0x3e331625	0.17488916
76	0xbdf39cac	-0.11895117
77	0xbdb7db7f	-0.089774124
78	0xbdca8bdf	-0.098899595
79	0xbddb4952	-0.10707344
80	0x3d02749a	0.03184948
81	0x3d82baa8	0.06383258
82	0x3e4f1dc2	0.20226195
83	0xbd96a880	-0.073563576
84	0x3e74ffbc	0.2392568
85	0xbd1248b2	-0.03571386
86	0x3e112704	0.1417504
87	0x3eb5eb8b	0.35531268
88	0x3d9e2f33	0.07723846
89	0x3e72a782	0.23696712
90	0x3d846cec	0.06466088
91	0x3e9f16b1	0.31072
92	0xbda0a9c6	-0.07844882
93	0xbe2598f1	-0.16171624
94	0x3e256659	0.16152324
95	0xbe38bc83	-0.18040662
96	0x3b91601c	0.004436506
97	0xbd2c3944	-0.0420468
98	0x3d177008	0.036972076
99	0xbe900276	-0.28126878
100	0x3dce4fb7	0.10073798
101	0xbdba02f3	-0.09082594
102	0x3de0159a	0.1094162
103	0xbd61a258	-0.055086464
104	0x3d9f0deb	0.077663265
105	0x3d860b11	0.065450795
106	0xbd6b4d35	-0.057446677
107	0x3cf4b88e	0.029873159
108	0xbe998d5a	-0.29990655
109	0x3df660a7	0.12030154
110	0xbcd42f5d	-0.02590149
111	0xbe02bb51	-0.12766768
112	0x3d791bbc	0.060817465
113	0x3de58bce	0.11208306
114	0x3c20ba6e	0.009810073
115	0x3d659a51	0.05605537
116	0x3d127968	0.035760313
117	0xbe1f3ff4	-0.1555174
118	0x3db6ea0f	0.08931362
119	0xbe7573fc	-0.23970026
120	0x3e2c61c5	0.16834171
121	0x3e129242	0.14313605
122	0x3e2cf830	0.16891551
123	0xbe7507f3	-0.23928814
124	0xbc4ff9a9	-0.012693801
125	0xbe945755	-0.2897288
126	0xbe9ab5b9	-0.30216768
127	0x3dd4ba38	0.10387081
128	0x3eb64821	0.35601905
129	0xbc8d635a	-0.017259289
130	0xbe025703	-0.12728505
131	0xbdd892c4	-0.10574868
132	0x3df07df3	0.11742773
133	0xbd01fdb6	-0.0317361
134	0x3e4986e2	0.1968036
135	0x3e875e7a	0.26439267
136	0xbb071d74	-0.002061692
137	0x3cc348f2	0.023838494
138	0xbe3aed87	-0.18254672
139	0xbdee1cb0	-0.116265655
140	0x3dd0dd9f	0.10198521
141	0x3dd5716d	0.10422025
142	0x3d9683da	0.073493674
143	0xbe6ab7bd	-0.22921653
144	0xbe41e211	-0.18933894
145	0xbdd1a8cd	-0.10237274
146	0xbe1c7079	-0.1527728
147	0x3dd8e646	0.10590796
148	0x3d14944a	0.036274232
149	0x3e8635c2	0.2621289
150	0xbdc7569f	-0.097333185
151	0x3e8b34c2	0.2718869
152	0x3d0c2af5	0.034220655
153	0xbd185e7f	-0.037199493
154	0xbd4d0259	-0.050051067
155	0x3e8c1d12	0.2736593
156	0xbdf2df1a	-0.118589595
157	0x3e8afd2a	0.27146274
158	0xbd39510e	-0.045243315
159	0x3e3a7d49	0.18211855
160	0xbdbf82d1	-0.09351123
161	0x3d66af73	0.056319665
162	0x3dd5c61e	0.104381785
163	0xbd3e0d0f	-0.046399172
164	0xbeabda7c	-0.33565128
165	0xbe75078e	-0.23928663
166	0x3e209d71	0.15685059
167	0x3e73689b	0.23770373
168	0x3dd0c939	0.1019463
169	0x3dc5de81	0.0966158
170	0x3e43c32b	0.1911742
171	0x3ea436a8	0.3207295
172	0xbd478cd3	-0.048718285
173	0x3e10a676	0.14126
174	0x3d0dd53e	0.03462719
175	0xbe0b7b81	-0.13621332
176	0x3e1bb7d0	0.15206838
177	0x3e18addb	0.1491007
178	0xbe6e5f6b	-0.23278587
179	0xbdc6f7a9	-0.09715206
180	0x3e72a369	0.23695149
181	0x3d6bf8ab	0.057610195
182	0xbe1c65fc	-0.15273279
183	0xbe22dd5f	-0.15904759
184	0x3e82b1f0	0.2552638
185	0x3db43425	0.08799008
186	0xbd682bc9	-0.05668238
187	0x3ddcc543	0.10779812
188	0x3cb64b8c	0.02225282
189	0xbe97e073	-0.2966343
190	0xbe6c6a25	-0.23087366
191	0xbe479471	-0.1949022
192	0xbdd80e25	-0.10549573
193	0x3b97fe1c	0.0046384465
194	0x3c5fc78d	0.013658416
195	0xbe87e896	-0.26544636
196	0x3d0fcc78	0.035107106
197	0xbe7eb9c8	-0.24875557
198	0xbde1420b	-0.10998925
199	0xbdc696fc	-0.09696767
200	0x3e732a02	0.23746493
201	0xbe3cd417	-0.18440281
202	0x3d9d1b15	0.07671181
203	0xbe56c0a7	-0.20971929
204	0x3dd3ae85	0.10336021
205	0xbe7680dd	-0.24072595
206	0xbe64e97f	-0.22354697
207	0x3ddae6df	0.106885664
208	0xbe2a2f39	-0.16619577
209	0x3e785b5c	0.24253601
210	0x3e8a7a86	0.27046603
211	0x3d2aa3af	0.041660007
212	0x3a71af22	0.0009219517
213	0xbe0c252b	-0.13686053
214	0x3e838999	0.25690916
215	0x3e88113a	0.26575643
216	0xbda33f95	-0.07971112
217	0x3d435064	0.04768409
218	0xbe70af31	-0.2350433
219	0x3e6dd2f1	0.23224999
220	0x3e78cf6a	0.24297872
221	0x3d50af13	0.050948214
222	0xbd992354	-0.074774414
223	0xbb4e637f	-0.003149241
224	0x3e16a1bd	0.14710136
225	0xbd3988d5	-0.04529651
226	0xbe2174a6	-0.15767154
227	0x3d7bc948	0.061471254
228	0x3d67d28e	0.056597285
229	0x3a01b650	0.0004948126
230	0xbd66881f	-0.05628216
231	0x3e2d7602	0.16939548
232	0xbdf7165c	-0.120648116
233	0xbd89d142	-0.06729366
234	0x3d85001b	0.06494161
235	0xbe302a4a	-0.17203632
236	0x3e1203a9	0.14259209
237	0x3e6d2cd8	0.23161638
238	0x3e95eb96	0.292813
239	0x3d959b0a	0.07304962
240	0x3d97d6f8	0.07414049
241	0x3dc5fe02	0.09667589
242	0xbe8ea7ce	-0.278624
243	0xbe3d43ab	-0.18482845
244	0x3e0f699f	0.14005135
245	0xbe5e80cd	-0.21728821
246	0xbe68db60	-0.22739935
247	0x3d1e6166	0.038667105
248	0x3e92d156	0.28675336
249	0x3ae49c32	0.0017441569
250	0x3e9bcee8	0.30431294
251	0xbdf76d09	-0.12081344
252	0xbcab1ace	-0.020886805
253	0xbe4edcb4	-0.20201379
254	0xbdc70b69	-0.09718973
255	0x3d6bb785	0.057548065

weight_hh_l1 f4 [48, 16]
0	0xbe3db85c	-0.18527359
1	0x3dac9704	0.084272414
2	0x3d756582	0.05991126
3	0xbe3bd476	-0.18342766
4	0x3d3cb251	0.046068493
5	0x3e8eab3c	0.27865016
6	0x3dd83abb	0.10558077
7	0xbd03d733	-0.03218765
8	0xbdf3ff4e	-0.1191393
9	0xbe264f22	-0.16241124
10	0xbdbe8f33	-0.09304657
11	0xbde0ecc0	-0.109826565
12	0x3d8c0f23	0.068388246
13	0x3d8cff35	0.068846144
14	0xbdafe570	-0.085886836
15	0xbd74706a	-0.05967752
16	0x3d630bd4	0.055431202
17	0x3e8084fd	0.25101462
18	0xbe2a2f4a	-0.16619602
19	0x3e268d02	0.16264728
20	0x3e07847e	0.13234136
21	0xbe8d86ca	-0.27641898
22	0x3e76e8e1	0.24112274
23	0x3e76564f	0.24056362
24	0xbdeac4f8	-0.1146335
25	0x3e07451f	0.13209961
26	0xbc9a32c8	-0.018823043
27	0x3d7aefd9	0.061263893
28	0x3e9331c3	0.28748903
29	0xbe2c9381	-0.16853143
30	0xbe26af3b	-0.16277783
31	0x3beb2ac1	0.0071767275
32	0xbc98787b	-0.018612137
33	0x3d51e642	0.05124498
34	0xbd9b6102	-0.07586862
35	0xbe040237	-0.1289147
36	0x3d1ecf09	0.038771663
37	0xbe3c6aa9	-0.18400063
38	0xbe37e91f	-0.17960022
39	0x3e059d60	0.13048315
40	0x3e335f66	0.1751686
41	0xbe671091	-0.22564913
42	0x3e2f4b03	0.17118458
43	0xbd78b7fb	-0.060722332
44	0x3d78010c	0.060547873
45	0x3d71c704	0.059027687
46	0xbd9e61af	-0.077334754
47	0xbe337ec7	-0.1752883
48	0xbdd74fb2	-0.105132475
49	0xbe1ea10f	-0.15491126
50	0xbe3be2ec	-0.18348283
51	0x3e79fe05	0.24413307
52	0x3df967b6	0.121779844
53	0x3c972ee4	0.018454976
54	0xbdd228c6	-0.10261683
55	0xbd759fc0	-0.059966803
56	0x3ca9c4a1	0.020723643
57	0xbe0b1615	-0.13582642
58	0x3da0d4ee	0.07853113
59	0x3d9da416	0.076973125
60	0x3d5c197f	0.053735252
61	0xbe401590	-0.18758225
62	0xbe3cde02	-0.18444064
63	0xbca0188a	-0.019542951
64	0xbd492680	-0.049108982
65	0xbd70e4b9	-0.058811877
66	0xbd470c32	-0.048595615
67	0xbd9ef28e	-0.077611074
68	0xbe1b6323	-0.15174536
69	0xbe4b5a84	-0.19858748
70	0x3e9fc8b0	0.312078
71	0xbd40c4e3	-0.047062766
72	0x3eb2537d	0.34829322
73	0xbc232e00	-0.009959698
74	0x3d80009a	0.06250115
75	0x3d9b60cd	0.07586823
76	0xbe178225	-0.1479574
77	0x3e17303c	0.14764494
78	0xbe326e4c	-0.17424887
79	0xbdcd5b39	-0.10027165
80	0xbd960d80	-0.07326794
81	0x3e5ef10c	0.2177164
82	0x3ce43564	0.02785749
83	0x3e854e44	0.26036274
84	0xbdb2e8eb	-0.08735832
85	0xbb6a78ea	-0.0035777637
86	0xbe713631	-0.23555829
87	0x3c14be70	0.009078607
88	0xbe906553	-0.28202304
89	0x3e67996b	0.22617118
90	0x3e8d3889	0.27582195
91	0xbe11f130	-0.14252162
92	0x3e49cb81	0.19706537
93	0xbda8ace5	-0.08236102
94	0x3d7ef63a	0.06224654
95	0x3dc3d3d2	0.09561886
96	0xbdfae373	-0.12250414
97	0xbe0edf6a	-0.13952413
98	0x3e10c60d	0.1413805
99	0x3d1586d7	0.036505546
100	0x3e5bf5d0	0.21480489
101	0x3e9267b5	0.28594747
102	0x3d80fa1d	0.06297705
103	0x3de73730	0.11289823
104	0x3e6fa757	0.23403679
105	0x3da10623	0.078624986
106	0x3d8d0fb3	0.0688776
107	0x3d612d34	0.05497475
108	0xbd2432d3	-0.040087532
109	0xbdcc0d7c	-0.099635094
110	0x3e477420	0.19477892
111	0x3e81333d	0.25234404
112	0xbbff7947	-0.00779644
113	0x3ce574bd	0.028009767
114	0xbd6516f4	-0.055930093
115	0xbdf92a30	-0.1216625
116	0xbd296302	-0.041354187
117	0xbe19b2bb	-0.15009587
118	0xbe952875	-0.2913243
119	0x3e069ded	0.13146181
120	0xbddeea91	-0.10884584
121	0xbe65a672	-0.22426775
122	0x3e3cf9ec	0.18454713
123	0x3ce7d182	0.028298143
124	0x3da2ea41	0.07954837
125	0x3dcf081e	0.1010897
126	0x3e52f355	0.20600636
127	0xbd5b32f4	-0.05351539
128	0xbdf28137	-0.11841052
129	0xbd8ef394	-0.069800526
130	0xbd0c57a4	-0.034263268
131	0x3def8ee0	0.11697173
132	0xbcb02b04	-0.021504886
133	0xbc21bdf2	-0.009871947
134	0x3e42f3dc	0.19038337
135	0xbe55f165	-0.20892866
136	0xbd558146	-0.052125238
137	0xbe80f913	-0.2519003
138	0xbe700414	-0.23439056
139	0xbe79e4e9	-0.24403729
140	0xbe3de5ec	-0.1854474
141	0xbe01f8ee	-0.12692615
142	0xbd298ad8	-0.041392177
143	0xbca279bb	-0.019833436
144	0xbd8d480b	-0.06898507
145	0x3d682bc1	0.056682352
146	0xbdb87b59	-0.09007902
147	0x3d57d118	0.05268964
148	0xbdf55e2f	-0.11980855
149	0xbe3ef12e	-0.1864669
150	0xbd2e919e	-0.04261934
151	0x3e2c33dd	0.1681666
152	0x3c028f78	0.007968776
153	0xbe3abed6	-0.1823686
154	0x3d269bb5	0.040675838
155	0xbe1db851	-0.15402342
156	0x3e1c2240	0.1524744
157	0xbd8e5222	-0.06949259
158	0xbc08d072	-0.0083504785
159	0x3d902e91	0.07040132
160	0xbda6ae78	-0.08138746
161	0x3d80c4b0	0.06287515
162	0x3d35f96d	0.044427324
163	0xbda65a32	-0.08122672
164	0xbe895690	-0.26823854
165	0x3d8f7ae8	0.070058644
166	0xbe277955	-0.16354878
167	0x3dbe26ac	0.0928472
168	0xbee7f024	-0.453004
169	0x3e243c29	0.16038574
170	0x3e706478	0.23475826
171	0xbeab9972	-0.33515507
172	0x3d35244d	0.044224072
173	0x3e849616	0.25895756
174	0x3e4edd1e	0.20201537
175	0xbd083682	-0.033255108
176	0xbe0c8d4b	-0.13725774
177	0x3c98e154	0.018662132
178	0x3e35b753	0.17745714
179	0xbd2dfd77	-0.04247805
180	0x3dbccb10	0.092184186
181	0x3e6305a9	0.22170128
182	0x3d655a8b	0.05599455
183	0xbdfcb507	-0.12339216
184	0xbdb84248	-0.08997017
185	0xbe0d9e25	-0.13829859
186	0xbe2d54f1	-0.16926934
187	0xbe07013b	-0.13184063
188	0xbce16d9e	-0.02751809
189	0x3e0bc554	0.13649493
190	0x3e395278	0.18097866
191	0x3e7985dd	0.24367471
192	0xbe2921f4	-0.16516858
193	0x3c68a4e3	0.014199468
194	0x3cedbce4	0.029020734
195	0x3d0dbd87	0.034604575
196	0xbcfdb386	-0.030969393
197	0x3dbf2ffe	0.09335326
198	0xbeb82670	-0.35966825
199	0x3e80655b	0.25077328
200	0xbe831275	-0.2560002
201	0x3e26d7e2	0.1629329
202	0xbddf9859	-0.1091773
203	0xbe3f1a92	-0.1866248
204	0x3cb9adec	0.02266594
205	0x3e6bd615	0.23030885
206	0x3e47d4c0	0.19514751
207	0x3d18c2ed	0.03729527
208	0xbd8e8e15	-0.06960694
209	0x3dbd14d3	0.092324875
210	0xbd4ba1e2	-0.04971493
211	0x3de3f5e6	0.11130886
212	0xbcf37963	-0.029720968
213	0x3e251011	0.1611941
214	0xbe18dcc3	-0.14927964
215	0xbc64201a	-0.013923669
216	0x3e682fd6	0.22674498
217	0xbe471cc2	-0.19444564
218	0x3d29eb4a	0.041484155
219	0x3b7adc0f	0.0038278138
220	0x3e74da99	0.23911513
221	0xbda7f940	-0.082018375
222	0x3dc61d89	0.09673602
223	0x3e42a82d	0.19009466
224	0x3e8d670c	0.2761768
225	0xbe288605	-0.16457374
226	0xbdea85d8	-0.1145131
227	0x3d3d928e	0.046282344
228	0xbca6688f	-0.02031353
229	0xbe34e99d	-0.17667241
230	0xbe1df418	-0.15425146
231	0x3c7ed869	0.015554526
232	0x3e87b646	0.2650625
233	0xbd60c304	-0.05487348
234	0xbd1e140e	-0.038593344
235	0x3e9da6e2	0.30791384
236	0xbdfd033d	-0.12354133
237	0x3e78e090	0.24304414
238	0xbdfba588	-0.12287432
239	0xbd1b0293	-0.03784425
240	0xbdcebf08	-0.1009503
241	0x3e4dc5d7	0.20095001
242	0xbd79ad24	-0.060956135
243	0xbe6184d4	-0.22023326
244	0x3e656324	0.224011
245	0x3d7d18d5	0.06179126
246	0x3de0fac5	0.109853305
247	0x3ea65d96	0.32493275
248	0xbe59f53d	-0.21284957
249	0xbe85d991	-0.26142552
250	0x3d25b37c	0.040454373
251	0xbafd82b8	-0.0019341325
252	0xbe884a74	-0.26619303
253	0xbe7ba349	-0.24574007
254	0x3df1a0d6	0.11798255
255	0x3cbec817	0.02328877

bias_ih_l1 f4 [48]
0	0x3dfb00a4	0.122559816
1	0xbe2b3eb6	-0.16723141
2	0xbcdb765a	-0.026789833
3	0xbea0690c	-0.31330144
4	0xbe491cec	-0.19639939
5	0x3e1f00e7	0.15527688
6	0x3e1f2e6d	0.15545054
7	0x3e9324d3	0.28739032
8	0xbe163340	-0.14667988
9	0xbdf7e782	-0.121047035
10	0xbdb6f74e	-0.089338884
11	0xbd01d714	-0.031699255
12	0x3e77d098	0.24200666
13	0x3d396332	0.045260616
14	0x3d1fe15d	0.039033283
15	0xbc4b5b3e	-0.012411891
16	0xbd98079c	-0.074233264
17	0xbe741c56	-0.23838934
18	0xbc0ccf65	-0.008594369
19	0x3e2685bb	0.16261952
20	0x3cc1a22d	0.023636902
21	0xbe37c7d2	-0.17947319
22	0x3d946a43	0.0724683
23	0xbe2e8830	-0.17044139
24	0x3dedd279	0.1161241
25	0x3ce0d42e	0.027444925
26	0xbe95442d	-0.29153576
27	0xbdd54679	-0.10413832
28	0xbd72dfad	-0.059295345
29	0xbe98dd76	-0.2985646
30	0xbd18f66c	-0.03734438
31	0x3cbb6ab3	0.022878027
32	0x3d7abf06	0.06121733
33	0xbe3e2d31	-0.18571927
34	0x3d1d6e46	0.038435243
35	0x3d287732	0.0411293
36	0xbe7223af	-0.23646425
37	0x3e283165	0.16425093
38	0xbd018ffd	-0.03163146
39	0x3bf182f5	0.0073703476
40	0xbe9368ab	-0.28790793
41	0x3d7a4ce7	0.061108496
42	0x3d8c4940	0.06849909
43	0xbe5616da	-0.20907155
44	0xbe6f22d4	-0.2335313
45	0xbe120dcc	-0.14263076
46	0xbe2c7e67	-0.16845094
47	0xbd2da5bf	-0.042394396

bias_hh_l1 f4 [48]
0	0xbe0d582e	-0.13803169
1	0xbdc217e3	-0.09477212
2	0x3d1fb7b2	0.038993545
3	0xbe991502	-0.2989884
4	0x3e297b5a	0.16550961
5	0x3e460629	0.19338287
6	0x3e4ad003	0.19805913
7	0xbe2a9b33	-0.16660766
8	0x3b7e0659	0.0038761108
9	0xbe3456da	-0.17611256
10	0x3cd23f60	0.025664985
11	0x3e72747b	0.23677246
12	0xbcad6e64	-0.021170802
13	0xbe719c2f	-0.23594736
14	0xbe0db102	-0.13837054
15	0x3ea3d69c	0.3199967
16	0xbe21eea4	-0.1581369
17	0x3e4208ca	0.18948665
18	0x3d5386a8	0.05164209
19	0xbe042849	-0.12905993
20	0x3d809ce1	0.06279922
21	0xbe5c8d5a	-0.21538296
22	0xbe85b06a	-0.26111156
23	0xbeb89c9a	-0.36056978
24	0xbd5c0076	-0.053711377
25	0xbe32b7d2	-0.17452934
26	0xbd55c073	-0.052185487
27	0x3db6c840	0.089249134
28	0xbd41ce91	-0.047316138
29	0xbe8a9f0c	-0.27074468
30	0x3cdac118	0.026703402
31	0xbe46c064	-0.19409329
32	0xbdc523ff	-0.09626006
33	0xbe1f0d92	-0.1553252
34	0x3e3da438	0.18519676
35	0x3e1663bb	0.14686482
36	0x3daa3ff2	0.08312978
37	0xbdbb690a	-0.09150894
38	0xbe714313	-0.23560743
39	0x3c7f8143	0.015594783
40	0xbdab1be4	-0.08354929
41	0xbe0a2c4f	-0.13493465
42	0x3cdc038d	0.026857162
43	0x3e02c3f3	0.12770061
44	0xbd0c85cb	-0.034307282
45	0xbbcb9e8b	-0.006213968
46	0x3e2c6693	0.16836004
47	0x3d8871a5	0.06662301

weight_ih_l2 f4 [48, 16]
0	0x3e235d70	0.15953612
1	0xbd70a404	-0.058750167
2	0x3c912a46	0.017720353
3	0xbe04565d	-0.1292357
4	0xbc19575d	-0.009359208
5	0x3d35b330	0.04436034
6	0x3d8483e9	0.06470472
7	0xbe2a7524	-0.16646248
8	0x3e2abfc2	0.16674712
9	0xbd9f3aeb	-0.077749096
10	0x3dee8761	0.11646915
11	0xbd52f55f	-0.051503535
12	0x3e222e75	0.15838034
13	0xbc82ff21	-0.015990796
14	0xbe4e32cb	-0.20136563
15	0xbd0be728	-0.034155995
16	0xbe096afc	-0.13419718
17	0xbd99ef58	-0.07516354
18	0xbdd690a9	-0.104768105
19	0xbe53224f	-0.20618556
20	0x3e50e195	0.20398553
21	0x3e59b147	0.21259032
22	0x3d73934f	0.059466656
23	0x3e8895c7	0.2667677
24	0xbdb6406f	-0.088990085
25	0xbcf6fb6a	-0.03014918
26	0xbe017d2b	-0.12645404
27	0x3e7ac2c9	0.24488367
28	0xbd112bd7	-0.0354422
29	0xbe3da5d2	-0.18520287
30	0x3b4520fe	0.003007948
31	0xbddf8f40	-0.10915995
32	0xbde75076	-0.112946436
33	0xbdf838e3	-0.12120225
34	0xbd2ad0ae	-0.04170292
35	0x3de046b1	0.10950983
36	0x3b71e85b	0.0036912176
37	0xbe90b087	-0.2825968
38	0x3e3e1124	0.18561226
39	0x3ca9873a	0.020694364
40	0x3e88d40a	0.26724273
41	0x3e0ddcca	0.13853756
42	0x3e983f21	0.29735664
43	0xbd854ea4	-0.0650914
44	0x3c03333d	0.008007822
45	0x3e0a3228	0.13495696
46	0xbea00048	-0.31250215
47	0x3e458fc5	0.19293125
48	0x3e01740b	0.12641923
49	0x3d21addd	0.03947245
50	0xbe2261c4	-0.15857607
51	0xbda498bc	-0.08036944
52	0x3e6deb1d	0.2323422
53	0xbe0acde3	-0.13555102
54	0xbda5284e	-0.08064328
55	0xbe2e27b6	-0.17007336
56	0xbd6fee75	-0.05857702
57	0x3d88235a	0.06647368
58	0x3e12a99c	0.14322513
59	0xbd378d29	-0.044812355
60	0xbd65f594	-0.056142405
61	0x3e3f5d3b	0.18687908
62	0xbd9909c3	-0.07472565
63	0xbcb63115	-0.022240201
64	0x3db7d87c	0.08976838
65	0xbd3a7b36	-0.04552766
66	0xbd9c06aa	-0.076184586
67	0x3deb1d85	0.1148024
68	0xbd272680	-0.0408082
69	0xbdc80e4f	-0.09768354
70	0xba12eab3	-0.0005604431
71	0xbe0d62a9	-0.13807167
72	0x3d9658fa	0.0734119
73	0xbd8c8f54	-0.06863275
74	0x3d95f780	0.073225975
75	0xbd64a030	-0.05581683
76	0xbe3ec489	-0.1862966
77	0xbd7f6417	-0.062351312
78	0x3d565af5	0.052332837
79	0x3e605e3f	0.21910952
80	0xbe71d02b	-0.23614566
81	0xbadbfc9d	-0.0016783659
82	0xbd5e0b70	-0.054210126
83	0xbd57f794	-0.052726343
84	0xbe29d79c	-0.16586155
85	0xbdd6a22c	-0.104801506
86	0x3cdfb7d0	0.027309328
87	0x3e129454	0.14314395
88	0xbde40683	-0.111340545
89	0x3ba52952	0.005040326
90	0x3dd62953	0.10457101
91	0x3ce7f0fc	0.028313152
92	0x3ccd4836	0.025058847
93	0xbd2953ef	-0.04133981
94	0x3e4b2636	0.19838795
95	0xbddb5078	-0.107087076
96	0xbbe5fd86	-0.0070187477
97	0x3d1af574	0.03783174
98	0xbbf11617	-0.0073573696
99	0xbe0eab02	-0.13932422
100	0xbd88a9bc	-0.06672999
101	0x3e789eef	0.24279378
102	0xbe94d82c	-0.29071176
103	0x3df3953e	0.118937
104	0xbde2f0be	-0.11081074
105	0xbdafac3b	-0.08577772
106	0xbe799e80	-0.24376869
107	0xbe86b324	-0.26308548
108	0xbc2a5b8d	-0.010397804
109	0x3b9ece53	0.004846373
110	0x3dc7deaa	0.09759267
111	0x3e023c7c	0.12718385
112	0xbc8386df	-0.016055522
113	0xbe2314be	-0.15925881
114	0xbdb6f6c8	-0.089337885
115	0xbce0ff87	-0.027465595
116	0x3e28c62f	0.16481851
117	0xbd494d2d	-0.049145866
118	0x3dc2fda4	0.09521034
119	0x3e50d9bf	0.20395564
120	0x3e36bba7	0.17845021
121	0x3e374ce6	0.17900428
122	0x3de71804	0.112838775
123	0xbc699db0	-0.014258787
124	0x3e641c0a	0.22276321
125	0xbe34eaf1	-0.17667748
126	0x3e175cf2	0.1478155
127	0x3e12b4be	0.1432676
128	0x3d73b908	0.05950263
129	0x3dd0fcca	0.10204466
130	0x3e0ecc58	0.13945138
131	0x3b6057d9	0.0034232049
132	0x3d4a1cf0	0.049344003
133	0x3e1ace2e	0.15117714
134	0x3e6de472	0.23231676
135	0xbe8497a5	-0.25896946
136	0x3da290fe	0.07937811
137	0x3e64b30b	0.22333924
138	0x3d19c6c8	0.03754309
139	0xbe43fbc5	-0.19139011
140	0xbe044338	-0.12916267
141	0x3d37e876	0.044899426
142	0xbce6f963	-0.028195089
143	0xbe0a1fb8	-0.13488662
144	0xbc71d474	-0.014760125
145	0x3e11883b	0.14212124
146	0xbe15acd0	-0.14616704
147	0x3d96071f	0.07325577
148	0x3e5a5479	0.21321286
149	0xbbd82c10	-0.0065970495
150	0xbe978c4c	-0.29599226
151	0xbda7217d	-0.08160684
152	0x3d509882	0.050926693
153	0xbe51e99c	-0.20499271
154	0xbe2a8a58	-0.16654336
155	0xbe8ab1a9	-0.2708867
156	0xbdca74e5	-0.09885577
157	0xbe8c5d9e	-0.27415174
158	0x3dd2fe9b	0.103024684
159	0xbe050d05	-0.12993248
160	0x3dc7f05e	0.09762643
161	0xbe932a25	-0.2874309
162	0x3df723f5	0.12067405
163	0xbc6cf92b	-0.014463703
164	0x3d869907	0.065721564
165	0xbd7cf234	-0.06175442
166	0xbe18d2d5	-0.14924176
167	0xbb6ad066	-0.0035829782
168	0xbeb274f1	-0.34854844
169	0xbe16f8b9	-0.14743318
170	0xbe5fa3b2	-0.21839789
171	0x3d904dc6	0.07046084
172	0xbe601983	-0.21884732
173	0xbe8b326a	-0.271869
174	0x3e8c31b7	0.2738168
175	0xbbf4f164	-0.007475065
176	0x3d303609	0.043020282
177	0xbe28c7c9	-0.16482462
178	0xbe261fe1	-0.16223098
179	0xbe09877e	-0.13430592
180	0xbdb12413	-0.08649459
181	0xbe65e87e	-0.2245197
182	0x3e280b43	0.16410546
183	0xbeaddfa5	-0.3395969
184	0x3da9219c	0.082583636
185	0xbe594733	-0.21218567
186	0x3eae614d	0.3405861
187	0x3dde24d9	0.10846872
188	0x3eb6b2c4	0.35683262
189	0xbea6b8a7	-0.32562754
190	0xbe5be653	-0.2147458
191	0xbd0029bd	-0.031289805
192	0x3e45a6a0	0.19301844
193	0xbe5ce31a	-0.21571007
194	0x3e4a96d5	0.197841
195	0xbde9dd42	-0.11419155
196	0x3e8e50c3	0.2779599
197	0xbe13127f	-0.14362524
198	0xbe9735b3	-0.29533157
199	0xbecbc85b	-0.39801297
200	0x3db6f991	0.0893432
201	0xbe614301	-0.21998216
202	0xbe3170fb	-0.17328255
203	0xbe96dbcc	-0.29464567
204	0x3d2e1c9f	0.042507764
205	0x3d56cef9	0.05244348
206	0x3e6dc1f1	0.23218514
207	0xba7ae838	-0.00095713465
208	0x3e5a87a7	0.2134081
209	0x3ea15f76	0.31518143
210	0xbc3e1744	-0.011602227
211	0x3e093a6e	0.13401195
212	0xbd7de45a	-0.06198535
213	0xbe1cd64f	-0.15316127
214	0x3e4cb9c0	0.19992733
215	0x3eed9f55	0.46410623
216	0xbdd0775e	-0.101790175
217	0x3ea55fce	0.32299656
218	0xbe578f5f	-0.21050785
219	0x3e7be056	0.24597296
220	0x3d876691	0.0661136
221	0x3e50de07	0.20397197
222	0xbd9ed71c	-0.077558726
223	0xbd79ef3e	-0.061019175
224	0x3d67afae	0.056564026
225	0xbe742245	-0.23841198
226	0xbd815dba	-0.06316705
227	0x3dc31f53	0.09527459
228	0xbe070b0e	-0.13187811
229	0x3cebbcac	0.02877649
230	0x3de78cd1	0.113061555
231	0xbee8ba8d	-0.45454827
232	0x3c651278	0.013981454
233	0xbe87ebf6	-0.2654721
234	0x3e20a40e	0.15687582
235	0x3df44695	0.11927525
236	0xbe15e5ce	-0.14638445
237	0xbde9f836	-0.114242956
238	0xbddba0e3	-0.10724046
239	0xbd399a04	-0.045312896
240	0x3d0f7580	0.035024166
241	0xbde19529	-0.11014778
242	0x3e7a39d4	0.24436122
243	0xbe27fe72	-0.16405657
244	0xbd7d24ce	-0.061802678
245	0xbcc9abaa	-0.024617989
246	0xbe8d220d	-0.2756504
247	0xbce6bd55	-0.028166452
248	0xbe2d3a58	-0.16916788
249	0x3e0c3f41	0.13696004
250	0xbbc47ad1	-0.005996086
251	0xbe6fb60c	-0.23409289
252	0xbe3af7d9	-0.18258609
253	0xbe6f4918	-0.23367727
254	0x3d8f0468	0.06983262
255	0xbe2e6d32	-0.17033842

weight_hh_l2 f4 [48, 16]
0	0xbe0819e9	-0.13291134
1	0xbe53887b	-0.20657532
2	0x3db94978	0.09047216
3	0x3db7c288	0.08972651
4	0xbed06f62	-0.40709978
5	0x3d8c1221	0.06839395
6	0x3ba80d50	0.00512854
7	0x3e532b8c	0.2062208
8	0xbd0aca5e	-0.0338844
9	0xbd4fd4a2	-0.05073989
10	0x3d65ea81	0.056131843
11	0x3e832fa5	0.25622287
12	0x3e002911	0.12515666
13	0x3d88caf7	0.066793375
14	0x3d315ad1	0.0432995
15	0xbe803e57	-0.25047562
16	0xbdca779d	-0.09886096
17	0xbe6e0236	-0.23243031
18	0x3eaf5c45	0.34250084
19	0x3dfe36a1	0.124127634
20	0x3e8da568	0.27665257
21	0x3da5e330	0.08099973
22	0x3d4f6daa	0.050641693
23	0x3e879480	0.26480484
24	0x3e608150	0.21924329
25	0x3da4ccda	0.08046885
26	0x3eae8ac3	0.34090242
27	0xbd905b7c	-0.07048699
28	0x3da2be14	0.07946411
29	0xbe83cea7	-0.257436
30	0xbde9b8e0	-0.11412215
31	0xbc29c92f	-0.010362907
32	0xbe7ccdcb	-0.24687879
33	0x3d8795d8	0.06620377
34	0xbd997bb0	-0.07494295
35	0xbe958891	-0.29205754
36	0xbdd06759	-0.10175962
37	0x3e1413ee	0.14460728
38	0x3d84ffdc	0.06494114
39	0xbe6a098d	-0.22855206
40	0xbe6e30c4	-0.2326079
41	0xbdfd73b6	-0.12375586
42	0xbe3978bd	-0.18112464
43	0xbdb7dad2	-0.089772835
44	0xbc1cd2ab	-0.0095717115
45	0x3e4e382e	0.20138618
46	0xbe6d861b	-0.23195688
47	0xbe1cc7f5	-0.15310653
48	0xbe972cac	-0.2952627
49	0x3e4c2870	0.199373
50	0xbe1ca0b3	-0.15295677
51	0xbd49e991	-0.049295012
52	0xbe38ac90	-0.18034577
53	0xbe538390	-0.20655656
54	0xb7aa7d4d	-2.0323927e-05
55	0xbe99f37b	-0.30068573
56	0x3ea4c22f	0.321794
57	0x3c0be719	0.008538985
58	0xbe45ceda	-0.19317189
59	0xbe9a1f1a	-0.30101854
60	0x3e8aa512	0.27079064
61	0x3bc4cfc6	0.006006214
62	0x3df27d2c	0.11840281
63	0x3eb6fa70	0.35737944
64	0x3e0ea882	0.13931468
65	0x3e20b8b9	0.15695466
66	0x3b399c06	0.0028321757
67	0x3e4bc77e	0.19900319
68	0xbd79dbeb	-0.061000746
69	0x3df47955	0.11937205
70	0x3e16d6bb	0.1473035
71	0xbdfcec91	-0.12349809
72	0x3dfd3c53	0.123650216
73	0xbd630c01	-0.05543137
74	0x3e1e0c15	0.15434296
75	0xbd686ac1	-0.056742433
76	0xbd958f3c	-0.073027104
77	0xbdcf79e7	-0.10130673
78	0x3e9aee7f	0.30260083
79	0xbda094d5	-0.078408875
80	0x3c413dfa	0.0117945615
81	0xbc2a1830	-0.010381743
82	0xbdcb967a	-0.099408105
83	0x3d0ad49a	0.03389416
84	0x3d159880	0.03652239
85	0x3e47571e	0.19466826
86	0x3dc3c446	0.095589206
87	0x3e41c9b6	0.18924603
88	0xbe2178c6	-0.15768728
89	0x3e257a2b	0.16159885
90	0x3d6740f1	0.056458417
91	0xbd5f4c93	-0.054516386
92	0xbe976fe7	-0.29577562
93	0xbd6ee801	-0.058326725
94	0xbd15af56	-0.036544167
95	0x3c582692	0.01319279
96	0x3bf8a025	0.00758745
97	0xbdbd681f	-0.09248375
98	0x3e464854	0.19363528
99	0x3e257ff5	0.16162093
100	0xbe02aa13	-0.1276019
101	0x3d873685	0.06602196
102	0x3deb728b	0.11496457
103	0x3cbb8771	0.022891732
104	0xbe33f173	-0.17572574
105	0x3e0c98be	0.13730142
106	0x3d42ea9d	0.047587026
107	0x3dafa78d	0.0857688
108	0xbda1185d	-0.07865975
109	0xbcb20670	-0.021731585
110	0x3d712a4c	0.058878228
111	0x3d3fb43d	0.046802748
112	0x3dea6de7	0.114467435
113	0xbb23d813	-0.0025000616
114	0x3bef09ec	0.007294884
115	0xbda3221a	-0.07965489
116	0x3da22ba3	0.07918479
117	0xbe856cb5	-0.260595
118	0xbe8c52a1	-0.2740679
119	0xbe5ae3d2	-0.21375969
120	0xbe0da966	-0.13834152
121	0x3dbfdae3	0.09367921
122	0xbd4d3332	-0.05009765
123	0xbda5d68d	-0.08097563
124	0x3e0e6d20	0.13908815
125	0x3e32a3f5	0.17445357
126	0xbe97f4e0	-0.29679012
127	0xbcad89d5	-0.021183887
128	0x3d71ad95	0.05900343
129	0x3db67d03	0.08910563
130	0x3d025d41	0.031827215
131	0x3d6aafd1	0.057296578
132	0x3bdee278	0.0068018995
133	0x3e0da34c	0.13831824
134	0xbe11b47c	-0.14229006
135	0xbe04f047	-0.12982284
136	0xbe6381f9	-0.2221755
137	0xbe85f167	-0.26160738
138	0x3e1bb45a	0.15205517
139	0xbe5d63ad	-0.21620055
140	0x3e0c4645	0.1369868
141	0x3e322a6d	0.17398997
142	0xbe21a876	-0.15786919
143	0xbe0ee206	-0.13953409
144	0xbe187126	-0.14886913
145	0xbcb62a9a	-0.02223711
146	0x3ce5bc81	0.028043987
147	0xbd238225	-0.039919037
148	0x3d1eb007	0.03874209
149	0xbdf1a0c2	-0.1179824
150	0x3e5c672e	0.21523735
151	0x3e510838	0.20413291
152	0xbd9f6461	-0.07782818
153	0x3df69ff1	0.12042225
154	0x3e65191c	0.2237286
155	0xbd820d64	-0.0635021
156	0x3ce22e02	0.027609829
157	0xbe662f22	-0.22478917
158	0x3d862f1f	0.065519564
159	0xbe1e7353	-0.1547368
160	0xbe143080	-0.14471626
161	0xbe3d561e	-0.18489882
162	0x3e5be6dd	0.21474786
163	0x3e811335	0.25209966
164	0x3e3d516e	0.18488094
165	0x3dd168bc	0.102250546
166	0xbd4ad4e7	-0.049519446
167	0x3e08b42a	0.13349977
168	0x3e5fb88d	0.21847744
169	0x3e896abe	0.2683925
170	0x3ee5c0a3	0.44873533
171	0xbe04268d	-0.12905331
172	0xbe14c546	-0.14528379
173	0x3bb6629d	0.005565955
174	0x3e01a2b1	0.12659718
175	0x3df236f0	0.11826885
176	0xbcef56d2	-0.029216204
177	0x3e094f78	0.13409221
178	0xbe31a100	-0.17346573
179	0xbdffeb68	-0.12496072
180	0xbe4feea7	-0.20305882
181	0xbebf19f0	-0.37324476
182	0x3e567583	0.20943265
183	0x3daaf354	0.083471924
184	0xbe58d786	-0.21175966
185	0xbe21c7a9	-0.1579882
186	0xbe5398b7	-0.20663725
187	0xbeb6005b	-0.35547146
188	0x3c384f9f	0.011249452
189	0x3d45ad13	0.04826076
190	0x3d2b7107	0.04185584
191	0x3e31e418	0.17372167
192	0xbcdbc93a	-0.02682935
193	0xbd093a77	-0.033503022
194	0x3d83977c	0.06425378
195	0xbd9be3e1	-0.07611824
196	0xbce4fb4f	-0.027951865
197	0xbe3559f8	-0.17710102
198	0x3e5c9f4c	0.21545142
199	0x3e7bce5e	0.24590442
200	0x3e28716b	0.16449516
201	0x3d00d9df	0.031457778
202	0xbe44aff5	-0.19207747
203	0x3da909c9	0.082538195
204	0x3d518070	0.05114788
205	0xbcb35f6c	-0.021896087
206	0xbe24f9bc	-0.16110891
207	0xbdfad8e1	-0.122483976
208	0xbe402770	-0.18765044
209	0x3e0598be	0.13046548
210	0x3de0bc4d	0.109734155
211	0xbe2339ff	-0.15940093
212	0xbe180b42	-0.14848045
213	0xbce5a0ac	-0.028030716
214	0xbd5cb74c	-0.053885743
215	0x3e107326	0.14106426
216	0x3d8dc7b0	0.06922853
217	0x3da73963	0.081652425
218	0xbd19cdcd	-0.037549783
219	0x3e25811a	0.1616253
220	0x3e5671d1	0.20941855
221	0x3e5fa248	0.21839249
222	0xbe11fbab	-0.1425616
223	0xbde2bcb3	-0.11071148
224	0x3e704cb6	0.23466763
225	0x3d3e1271	0.046404306
226	0xbe02b370	-0.12763762
227	0x3d966c98	0.07344931
228	0xbe517418	-0.20454443
229	0x3e22b425	0.15889032
230	0xbd58613e	-0.052827112
231	0x3b2c668b	0.0026306238
232	0x3cb25b3f	0.021772025
233	0x3d2c864e	0.04212027
234	0xbdf3530f	-0.118810765
235	0xbd041bd6	-0.03225311
236	0xbd8c9a5d	-0.0686538
237	0xbe814931	-0.25251153
238	0x3e63e24a	0.22254291
239	0x3da8eb5f	0.082480185
240	0x3e639b1a	0.22227135
241	0xbce36921	-0.02776009
242	0x3e90068b	0.28129992
243	0x3e185ab7	0.14878355
244	0x3e4cb6ae	0.19991562
245	0xbe0b39ac	-0.13596219
246	0x3dcb3f94	0.09924236
247	0xbccd892b	-0.02508982
248	0x3e730ebe	0.23736092
249	0xbdb0ae44	-0.086269885
250	0xbe102744	-0.14077479
251	0xbe42e484	-0.19032484
252	0x3bfc6338	0.0077022575
253	0x3d425932	0.047448345
254	0x3e94e64b	0.2908195
255	0xbe8631f7	-0.26209995

bias_ih_l2 f4 [48]
0	0x3e0918fb	0.13388436
1	0xbe3f42fd	-0.18677898
2	0xbdf7a7d9	-0.12092561
3	0xbdb3b11d	-0.08774016
4	0x3e9c9ffb	0.30590805
5	0x3e9c21f7	0.30494663
6	0xbdc17e4c	-0.09447917
7	0xbe11c0f4	-0.14233762
8	0xbe62819f	-0.22119759
9	0x3de8658e	0.11347495
10	0xbe361241	-0.17780401
11	0xbe222de7	-0.15837823
12	0x3d46ddc6	0.048551343
13	0xbe7b4bc1	-0.24540617
14	0x3dc055ff	0.093914025
15	0xbd8aacf2	-0.06771268
16	0xbd8414e1	-0.06449295
17	0xbe052b9b	-0.13004915
18	0xbdc73e83	-0.0972872
19	0x3cb6e641	0.02232659
20	0xbe5ea7c9	-0.21743692
21	0xbe884e16	-0.26622075
22	0x3e1485de	0.14504191
23	0xbca4f758	-0.020137474
24	0x3dfe7073	0.12423792
25	0xbd530931	-0.051522437
26	0xbe1af134	-0.15131074
27	0xbe660ebe	-0.22466561
28	0xbea6bd68	-0.3256638
29	0xbd4d82bb	-0.050173502
30	0xbdb08eb9	-0.08620972
31	0x3e09dbe9	0.13462795
32	0xbcab3934	-0.0209013
33	0xbcd54b7f	-0.026036976
34	0xbd6cd5fb	-0.057821255
35	0xbe8c23fc	-0.27371204
36	0xbdc9dfbe	-0.098571286
37	0x3e904128	0.2817471
38	0x3d0f459d	0.034978498
39	0x3dc74d36	0.09731524
40	0xbe3913c7	-0.1807395
41	0x3e97cb46	0.29647273
42	0xbd415e3d	-0.047209013
43	0x3e6c8fea	0.23101774
44	0xbdea283a	-0.11433454
45	0xbdc55f0f	-0.096372716
46	0xbde44692	-0.11146273
47	0xbe899ad1	-0.26875928

bias_hh_l2 f4 [48]
0	0x3db454cb	0.088052355
1	0x3e0a4ef6	0.13506684
2	0xbe9c13c4	-0.3048383
3	0x3e02f809	0.1278993
4	0x3e16370e	0.14669439
5	0x3db5a970	0.08870208
6	0x3ca6fbb3	0.020383691
7	0xbe6549a8	-0.22391379
8	0xbe965ce2	-0.2936774
9	0x3ddbc287	0.107304625
10	0x3e85f0a1	0.26160148
11	0xbe4a0406	-0.19728097
12	0x3da74635	0.08167688
13	0x3d282f43	0.041060697
14	0xbe172825	-0.14761408
15	0x3d52991d	0.05141555
16	0xbe5160e2	-0.20447114
17	0xbd81846b	-0.06324085
18	0xbea90793	-0.3301359
19	0xbdb24019	-0.08703632
20	0xbcdcd673	-0.026957726
21	0x3ddb0a9f	0.10695385
22	0x3c86f524	0.016474314
23	0xbe0cc06c	-0.13745278
24	0x3d707f1c	0.05871497
25	0xbe8fb9d2	-0.28071457
26	0xbe091bbc	-0.13389486
27	0xbaa4a978	-0.0012562713
28	0xbe150ba5	-0.14555223
29	0xbe69ebc2	-0.2284384
30	0x3c98cfa0	0.01865369
31	0xbe0f7839	-0.14010705
32	0xbe82a9a9	-0.25520065
33	0xbdb6f5fc	-0.089336365
34	0xbd48e631	-0.049047653
35	0xbd2d0c83	-0.04224826
36	0x3e26ea40	0.16300297
37	0x3e4bdb2b	0.19907825
38	0xbd9cafe6	-0.076507375
39	0xbe2e98cc	-0.17050475
40	0xbe2b9c6c	-0.16758889
41	0xbda9e1d7	-0.08295029
42	0x3e7a57fa	0.24447623
43	0xbc715638	-0.014730029
44	0x3a94aeff	0.0011343657
45	0x3c449b5f	0.011999934
46	0xbe367201	-0.17816927
47	0xbe32fe4b	-0.17479818

weight f4 [12, 4]
0	0xbaab2ba0	-0.0013059266
1	0xbe8c7f12	-0.27440697
2	0x3eabf4f6	0.33585328
3	0xbd6f5b92	-0.058436938
4	0xbe66e788	-0.2254926
5	0x3e9fc78b	0.31206927
6	0x3e4acff1	0.19805886
7	0x3e97e4e7	0.29666826
8	0x3d79c589	0.0609794
9	0xbeade69e	-0.3396501
10	0xbefa4ecc	-0.48888242
11	0xbda16766	-0.0788105
12	0x3d919959	0.07109327
13	0xbeab60f2	-0.334724
14	0x3e3e8c44	0.18608195
15	0xbf254ea0	-0.645731
16	0xbe6c7521	-0.23091556
17	0x3ebdb619	0.37052992
18	0xbd6b5a85	-0.057459373
19	0x3e062d05	0.13103111
20	0x3ebda9e2	0.37043673
21	0x3e95d60b	0.29264864
22	0x3ddfffb0	0.109374404
23	0xbe3e8785	-0.18606384
24	0x3ca00efb	0.019538393
25	0x3e90e5fb	0.2830046
26	0xbe957d8d	-0.2919735
27	0x3e9dda31	0.3083053
28	0x3e852d28	0.26011014
29	0xbec456a8	-0.38347363
30	0x3de289fa	0.11061473
31	0x3da0ced8	0.07851952
32	0xbeba725b	-0.3641537
33	0xbc392de1	-0.011302442
34	0x3ec573d5	0.38564935
35	0x3e750be0	0.23930311
36	0x3e60947f	0.21931647
37	0xbedc325d	-0.43007174
38	0xbe87db5a	-0.2653454
39	0xbe9c896b	-0.30573592
40	0xbe03ae45	-0.12859447
41	0xbbe43f0f	-0.006965525
42	0xbe055a9c	-0.13022846
43	0xbd68bf5c	-0.05682312
44	0x3e2bd482	0.16780284
45	0x3ed895eb	0.42301878
46	0xbeb3020c	-0.349625
47	0x3eea363a	0.45744497

bias f4 [12]
0	0x3dcd9589	0.10038287
1	0x3da10e6f	0.07864081
2	0x3e6e2b3e	0.23258683
3	0x3f0e8710	0.5567484
4	0xbd2cbbaa	-0.042171158
5	0x3e6f4453	0.23365907
6	0xbd0b49e5	-0.03400602
7	0x3ef17c09	0.47164944
8	0xbe0784ef	-0.13234304
9	0x3d8ae1fd	0.06781385
10	0xbe3688e6	-0.1782566
11	0x3e82088a	0.2539714

weight f4 [2, 16]
0	0x3e5a6921	0.21329166
1	0xbea148fb	-0.31500992
2	0x3f2855aa	0.65755713
3	0x3ec3223a	0.3811205
4	0x3f0e1771	0.5550452
5	0xbcb90f90	-0.022590429
6	0x3d8c9218	0.06863803
7	0x3eba6afc	0.36409748
8	0x3c4c3387	0.012463457
9	0x3ddc84b5	0.10767499
10	0x3ec59e57	0.38597366
11	0xbe662994	-0.22476798
12	0x3e83cdbc	0.257429
13	0xbe964d98	-0.29356074
14	0x3edef784	0.43548214
15	0x3d87634b	0.066107355
16	0x3ba5c281	0.005058587
17	0x3d982dca	0.074306086
18	0xbde74037	-0.11291545
19	0x3db88d5d	0.09011338
20	0xbd6aed8a	-0.05735544
21	0xbdb58f52	-0.08865227
22	0x3cb73f41	0.022369029
23	0xbda6101b	-0.081085406
24	0x3dd1c6f3	0.10243025
25	0xbe943b6a	-0.2895158
26	0xbe882dfa	-0.26597577
27	0xbcd98eee	-0.026557412
28	0x3e60cacb	0.2195236
29	0x3d51046e	0.051029615
30	0x3d29dc71	0.041469995
31	0x3e828a4d	0.2549614
