RTSNet/new_architecture/linear_Journal/linearCA/knownInit/CA_trainPVA_2ndPass.pt (torch, 162195 bytes, 69 tensors)

weight_ih_l0 f4 [27, 15]
00000000: b7bd 8b3e e2c5 a0be b6cb 1c3e 57c8 f1bd
00000010: 615f 803e 3902 9cbd ec65 a500 b978 623e
00000020: e215 bc3d fc1a 48be 0005 513e 3c93 30be
00000030: a005 663d e983 9ebe ff48 8bbd 4492 293e
00000040: d7b6 89be c429 5f3e 28d8 003e 62ab 6a3e
00000050: 85a2 003e 8b3e e900 f4c2 0e3e 0d41 47be
00000060: 02f5 9ebe e9e9 653d d92b 9a3e e44b a13e
00000070: 04c9 bdbc 6e6e 4dbe 7e47 a13e 0382 f33d
00000080: b0e6 4abc cc1f f03d a267 123e 480b 893e
00000090: de4c 5d3d 97ec 8dbe 68d1 9bbe e5a8 853e
000000a0: 0d77 dfba 5a7d 33be c07c 31be 9d8a 923d
000000b0: 1ca0 4dbe f781 86be 891e 703e ee68 9fbe
000000c0: 7853 4a3e ab27 543e 9bdd 53be 152d 76bc
000000d0: e5ad dabd 52de 83be d6ea 46be 8a0f 9dbd
000000e0: 49c1 5a3d 0d73 463e b842 8bbe 892d e93d
000000f0: c8b0 aa3e 9b7d 223e 0d5e 28be 7f38 a13c
00000100: 4beb 7dbd a3c7 dc3d bb8f b3bb c692 11be
00000110: 27f4 31bd 3e7f 863e dc3e 84be 5909 483e
00000120: beb3 22be c4c3 98be 756e 0d3e afc6 a63d
00000130: 7396 003e dca6 4fbe ff14 6c3d 43f5 0c3e
00000140: 15e2 023e d82d aa9b df5f 50be 4d96 1a3e
00000150: c87d 54bc 03e1 e33b 982f dd3c 4524 783e
00000160: 9b62 a3be 4062 83be 2a27 c43c cf89 91be
00000170: 9539 553e 9331 b8bd 3117 f9bb 2ca5 143e
00000180: ea87 b980 8fd1 6d3e 2842 943e 5b93 8c3e
00000190: ccaa 6b3c a245 c73d ac31 8abe ea05 f23d
000001a0: 31a9 01be 8551 aabe 3e26 42bb c451 603e
000001b0: 938e 4c3c a2eb 1abe 4fef 443e 27bf 243b
000001c0: cf03 f83c ffbc 303e ea77 763e f5ac 45bd
000001d0: dc5a 133d 12e2 34bd a43f 26be 21fb 0bbd
000001e0: a4f3 84be 6887 753e d24e 7fbd 9a5f aabd
000001f0: 1490 1f3e c6a8 10be e841 94ba 238b 453c
00000200: 908e 5bbe 3665 583d 276a 8fbc 5da9 b93d
00000210: df92 243e 8d7e 2ebe 1a48 3abe 1332 95be
00000220: 481c 03be 30a4 083e 530e 9abd fa70 4abe
00000230: 8bd1 36be d1c9 903d fa93 cfbd 5341 8ebc
00000240: e062 d13d ba64 e63c d999 a0bb 6ab4 493d
00000250: 51a8 39be bcce 84be 33b7 5b3e b155 543e
00000260: fb17 42bd d53b 2fbd 20a3 3cbe f0ac 7e3e
00000270: 3088 4281 3efb 5a3e 0028 88be c54a 85be
00000280: 9638 30be 7f46 613d 5466 c6bc 33c8 02be
00000290: bd7a d43d 6b7b cdbd 0f6e 563e c1b7 0b3e
000002a0: b973 973c a52d 543e 1dbc f2bc 4a45 84bd
000002b0: 72af 6ebe 8bde f8bc 41ce d93d 7e21 bb3d
000002c0: 81dc 6bbe 80f6 91be c6a1 433e 2e93 1fbe
000002d0: e50f 61be f1ca 213e be0e fd3b a2fd ceb9
000002e0: 2c87 813e 7f87 5f3e 967a 07bd 2743 61be
000002f0: 48dd 53be a6ba 53bd 83c4 13be 61a9 1ebd
00000300: fa68 d5bd aefa 24bd e6de 543e 60fd a33e
00000310: e037 553e b882 873c 88f6 1c3e e69c 813e
00000320: f4f8 babd a28a 9c39 6d62 7d3b 480b 933d
00000330: eae2 e7bd abbe 51be 1429 06be f8ba 50be
00000340: aa1b 103e e831 92be 0383 d23d 0ea5 c6bb
00000350: e028 cebd 028e 803c 7d88 173e a5b8 ac3d
00000360: 32c3 aabc 2957 b7bd 84c0 443d 2365 003c
00000370: dcc3 81be d28a 963e 0565 8fbe 0a30 7c3e
00000380: cd0f 963e 976f 90be 7798 2abe 933f 0dbe
00000390: 20ca 93bd 15ab 4f3e 6a8e 003e 8a34 51bd
000003a0: d0d5 7c3e 047d 6b3d f061 7b3d 4301 0d3d
000003b0: ea83 8dbe 1698 593e a3a5 88be d114 31be
000003c0: 90ad 97be 25d5 92be ecf8 9f3e 1dee e93c
000003d0: 52bf 573e 2e46 743c dc9b 6681 6e7b 83bd
000003e0: e192 e4bd 4340 873e e683 693e c589 3b3d
000003f0: 7e03 60bd e198 9bbe f28a 59bd 8330 8abd
0.27293178 -0.31400973 0.15312085 -0.1180579 0.25072768 -0.076176114 1.518942e-38 0.22116365
0.09183861 -0.19541544 0.20412064 -0.17243665 0.05615771 -0.30960014 -0.06801032 0.16559702
-0.26897308 0.21793276 0.12582457 0.2291694 0.12561996 2.1420107e-38 0.13941556 -0.19458409
-0.310463 0.056131277 0.30111578 0.31503212 -0.02316714 -0.20061657 0.31499857 0.11890032
-0.012384102 0.11724815 0.14297345 0.2676642 0.054028384 -0.27719566 -0.30433202 0.2610542
-0.001704903 -0.17528287 -0.17332745 0.07155345 -0.20080608 -0.2627103 0.23449148 -0.31134742
0.19758403 0.20718257 -0.20690005 -0.015025397 -0.10677699 -0.25755554 -0.1942552 -0.076689795
0.053406987 0.19379826 -0.2719934 0.11385638 0.33337998 0.15868227 -0.16442128 0.01968026
-0.06199197 0.10780265 -0.0054797805 -0.14216146 -0.043445732 0.26268953 -0.25829208 0.19534816
-0.15888879 -0.29836857 0.13811667 0.08143365 0.12557392 -0.20278496 0.05763721 0.13765435
0.12781556 -2.8153767e-22 -0.20349072 0.15096398 -0.012969442 0.0069543137 0.027000234 0.24232586
-0.31911168 -0.25660896 0.023944456 -0.28425452 0.20822747 -0.089938305 -0.0076016416 0.14516133
-1.7038324e-38 0.23224472 0.28956723 0.27456173 0.014383983 0.09730078 -0.26991022 0.11817534
-0.12662198 -0.3326532 -0.0029624845 0.21906191 0.012485164 -0.1512895 0.19231914 0.002513835
0.030275254 0.17259596 0.24069181 -0.048260648 0.035975322 -0.04416091 -0.16235214 -0.034175042
-0.25967133 0.23977435 -0.06233103 -0.08319016 0.15582305 -0.14126882 -0.0011311145 0.012057099
-0.21441102 0.052830897 -0.017506672 0.090655066 0.16071652 -0.17040463 -0.18191567 -0.29139766
-0.12803757 0.13343883 -0.075222634 -0.1976966 -0.17853372 0.070697434 -0.10135646 -0.017365133
0.10223937 0.028124202 -0.0049011526 0.049244322 -0.18130614 -0.25938976 0.21456604 0.20735814
-0.04738615 -0.04278167 -0.18421602 0.24870658 -3.5729882e-38 0.21384904 -0.26593018 -0.26033607
-0.17209086 0.05499887 -0.024218716 -0.12771682 0.10374973 -0.10033306 0.20940422 0.13644315
0.018487798 0.20720537 -0.029630715 -0.06458528 -0.23309115 -0.030379554 0.10635043 0.091372475
-0.23033334 -0.28508377 0.1910468 -0.15583488 -0.2197872 0.15800072 0.0077227047 -0.00039480353
0.2529844 0.21829031 -0.03307589 -0.21998273 -0.20689881 -0.051691674 -0.14430432 -0.03873575
-0.10420413 -0.04027813 0.20788154 0.32029247 0.20822096 0.016541824 0.15328419 0.25315017
-0.09129515 0.00029857928 0.0038663403 0.07179886 -0.11322577 -0.2048289 -0.13101608 -0.20383823
0.14073053 -0.285537 0.10278895 -0.0060621565 -0.1006639 0.015692715 0.1479816 0.08433656
-0.02084503 -0.08952171 0.04803516 0.007836613 -0.2534474 0.29402786 -0.2800676 0.246277
0.2930893 -0.28210136 -0.16659723 -0.13793783 -0.07216287 0.20280106 0.12554327 -0.051075496
0.24690938 0.05749227 0.061372697 0.03442503 -0.27639705 0.21249422 -0.2668887 -0.17293097
-0.29624605 -0.2867824 0.312446 0.028555924 0.21069077 0.01490931 -4.2356152e-38 -0.06420027
-0.111608274 0.26416215 0.22804222 0.045785684 -0.05469083 -0.30390075 -0.053111024 -0.06747534

weight_hh_l0 f4 [27, 9]
00000000: 8745 733e d91c 87bc 492c 3bbe 8f01 8d3e
00000010: a281 4abc 2840 c23d 285d 873e f5eb 52bd
00000020: dd45 13bd d228 9abe 2ac4 973d 9616 67be
00000030: f230 323e db6a b4ba 9947 63be 827e 0a3e
00000040: 9143 963c 63d9 0cbe 173c 1ebe f424 133e
00000050: 1b24 3b3e 6491 653e 9cd3 8ebe f960 98be
00000060: 225d 673e 04d1 5a3e 2f45 2ebe 3ead a6be
00000070: 8c05 4dbe 589c 423e 4bf5 9f3e 9c66 e9bd
00000080: 3696 89be ab34 673d a3fd 9c3e 70ce 663c
00000090: 5809 1a3e ac1c 8a3e 3063 873e 66a5 113e
000000a0: c2b1 e23d d3b9 aabe 1fca e83c 4dad 503e
000000b0: 25bc f2bd 38a7 96bc 8213 7c3e d51f 023d
000000c0: fa09 923d 8462 f6bd 4f5f 8b3e 1df2 a2be
000000d0: e7c4 2b3b 1af7 fd3d 0b0e 69bd c6cd eabc
000000e0: e93b a5be dc88 3fbe 309c c03d 8b62 223e
000000f0: 091b 6a3e 138e 153d a0e8 2abd dadc d1bd
00000100: 2153 783c 3577 77be 891b 6cbd e9b8 8fbd
00000110: 8073 453e 3f97 103e 1bab 623e eb07 78be
00000120: f873 723e 4d6c d3bd 73cd 4bbe d100 56be
00000130: f25c a0bd 2923 913e 2b90 0dbe 2bec 943e
00000140: a53f 6bbd bf4d cd3c 1556 d03d a461 823d
00000150: d177 4f3e 46d0 dcbd c794 d63c ccbf cfbd
00000160: 4bfd efbd ef3b 56bc 5293 6d3e 6169 a93e
00000170: 784a 97be f3f3 84be abb6 603d a7bf 793e
00000180: a7e5 1f3e 5bd4 f7bd 3482 2cbe 90b7 c7bd
00000190: 85e0 75bd a9db 983e 2d6c 883d d121 873e
000001a0: 1647 313e 9c53 4c3e 3d27 8ebd ad5d 8fbe
000001b0: 141e adbd 8344 b1bd 7b9b 333e 9bb6 97be
000001c0: ab54 113e ae3a b23d 146d 0bbe b7db f4bd
000001d0: ab82 393e 290f 61bd 9bb4 a63e dbaf a9be
000001e0: d8f2 033e e4cf a33e f272 1a3e f596 7cbe
000001f0: 2614 573e 0578 813b d2d6 9bbd 3fae efbc
00000200: c949 87be 7927 873e 8c74 013e 8b53 a53e
00000210: 9c05 f0bd 04c4 a43e 28d2 393d 3fe3 72be
00000220: 96b6 a03e b585 6fbe e8ae 9bbe 1b4c 0fbd
00000230: 36fa eabd 7dad ba3d ea87 a03e 26c7 79be
00000240: 3cb5 963b 757e 4ebe e9ce 71be 32ae 33be
00000250: 8fd8 abbd 8aee f03d 7108 7e3d 440e 753e
00000260: 12ec 9f3e 38db b3bc 1501 3a3e 5dbf ee3d
00000270: 2fef d83d d5ee 45be 1362 823e ed27 58be
00000280: f85b 5e3e c0bb 813e 84c7 1dbd 4ffd 99be
00000290: 0a33 9f3d 91ae a5be 607a 833e f954 21be
000002a0: c88f 71be d5cb a5be a63d 8bbd 4046 4b3e
000002b0: 1e09 5fbe 00ca 8dbe ab68 18be e606 983e
000002c0: f84e 8ebc c9f7 a43e d765 bb3d 4aeb 943e
000002d0: 0f35 82be b8f6 10be c02f febc de41 91be
000002e0: 4a53 c03d 7f9f 98bd 8dc3 3e3e 4194 913d
000002f0: 44fc 9a3c 0616 883e d962 83bc b8cd abbd
00000300: 2804 84be 0ccf b13d f7d1 86be ca70 d7bd
00000310: 823e b23d 65e7 e13d a3de d83d f778 eb3c
00000320: 8369 bfbd 728c 553e b06b 233e d188 b23d
00000330: b806 243d 3c0d 443d 3650 46be d6f1 fd3d
00000340: cf8b a9bb f21e 6cbe cf4f 623e deda 4dbe
00000350: 08b1 9a3d 1251 053e bea5 a3bd aebb ddbc
00000360: 508b 85be 181f 673e fa3c 523e 82a2 573e
00000370: 5b8e a43d 0905 8f3d b9a1 0b3e 64ae 923e
00000380: 1638 793e 6cdc 013e 0564 8e3d 9a5d d53c
00000390: ad6a 9e3d b989 47bd 0d2c a73e 1587 a93e
000003a0: 2523 75be 06c5 f43d 2f0d 62be 7894 51be
000003b0: d241 a23e 5044 9c3e 9d9c 213e 27b2 1cbe
000003c0: d564 4fbe 6b1d 8fbe 1961 45be
0.23756991 -0.016493248 -0.18278612 0.27540252 -0.012360008 0.09484893 0.2643826 -0.051494557
-0.0359553 -0.30109268 0.07410462 -0.2256721 0.17401484 -0.0013764756 -0.22195281 0.13524821
0.018342765 -0.13754801 -0.1545261 0.14369565 0.18275492 0.22418743 -0.2789582 -0.29761484
0.22594121 0.21368796 -0.17018579 -0.32554048 -0.20021647 0.19004953 0.3124183 -0.11396524
-0.26872414 0.056446712 0.3066226 0.0140873045 0.15042627 0.26975 0.26442862 0.14223251
0.11069061 -0.33344898 0.028416691 0.20378609 -0.11852292 -0.018390283 0.24616817 0.03176864
0.07130809 -0.12030509 0.27221152 -0.31825343 0.0026209892 0.124006465 -0.056898158 -0.028662574
-0.3227227 -0.18704551 0.094047904 0.15857904 0.22861876 0.036512446 -0.041725755 -0.10247202
0.015156538 -0.24166568 -0.057643447 -0.07017691 0.19282341 0.14120196 0.22135584 -0.2422177
0.23677051 -0.10323391 -0.19902591 -0.20898749 -0.07830228 0.28347138 -0.13824527 0.29086432
-0.057433743 0.025061486 0.10172669 0.0636628 0.2026055 -0.107819125 0.02619399 -0.10144004
-0.11718234 -0.013075813 0.2320073 0.3308821 -0.29549003 -0.25967368 0.054861706 0.24389516
0.15614949 -0.121010505 -0.16846544 -0.09751809 -0.06002857 0.29855087 0.06661258 0.26392987
0.17312273 0.1995377 -0.06941078 -0.28001156 -0.084530026 -0.08655646 0.1753978 -0.29631504
0.14192455 0.087025985 -0.13615829 -0.1195597 0.18116252 -0.0549461 0.32559666 -0.3314198
0.12885606 0.31994545 0.1508291 -0.2466696 0.2100378 0.003951075 -0.07609333 -0.029257892
-0.2642348 0.26397303 0.12642115 0.322903 -0.1171982 0.32180798 0.045366436 -0.237195
0.31389302 -0.23390849 -0.3040688 -0.03498469 -0.11473505 0.091151215 0.31353694 -0.24392375
0.0045992415 -0.20165427 -0.23614086 -0.17546919 -0.08390915 0.11764248 0.06201977 0.23931223
0.31234795 -0.021955118 0.18164475 0.116575934 0.10592496 -0.19329388 0.2546545 -0.2110898
0.21714771 0.25338554 -0.03852035 -0.30076072 0.07773407 -0.32359746 0.25679302 -0.15755071
-0.23590004 -0.32382074 -0.06798868 0.19851017 -0.21780822 -0.27693176 -0.14883678 0.29692763
-0.01737164 0.32220295 0.09150284 0.2908576 -0.25431105 -0.14156616 -0.031028628 -0.28370565
0.09390886 -0.074522965 0.18629284 0.07108355 0.018919118 0.26579303 -0.016038345 -0.08388847
-0.2578442 0.08682069 -0.26332065 -0.1051956 0.08703329 0.11030463 0.105893396 0.028744204
-0.09346297 0.20854357 0.15959048 0.08717502 0.04004547 0.047864184 -0.19366536 0.12399642
-0.005174137 -0.2305868 0.22100757 -0.20103022 0.07553297 0.13019207 -0.07990597 -0.027067032
-0.2608285 0.22570455 0.20531073 0.21058086 0.08034965 0.06983382 0.13635911 0.28648674
0.24337801 0.1268174 0.06952671 0.02604561 0.077351905 -0.048715327 0.32650796 0.33110872
-0.23939188 0.11951642 -0.22075342 -0.20466793 0.31690842 0.30520868 0.157824 -0.15302335
-0.20253308 -0.27952132 -0.19275321

bias_ih_l0 f4 [27]
00000000: 0fbf 573e 3a31 8a3e e9e2 153e 2c3e 383e
00000010: 3ab5 343e c52f 923e 2fb6 95bd 7f5a 843e
00000020: 5f03 383e b6c6 8abe 3d20 853e 598a 333c
00000030: f1bc 85bd 6eb3 6e3e fc5c 84bc 24c3 46be
00000040: abc5 0ebe 0a27 9b3d 705d 5cbd 12d1 4dbe
00000050: 23c8 27be 8afb 1e3e 1996 3cbe d838 9f3e
00000060: 19bc a03e 9ede 183e dcce 95bd
0.21068977 0.26990682 0.1463734 0.17992467 0.17647257 0.2855207 -0.073101394 0.25850293
0.17970036 -0.2710473 0.26001158 0.010958278 -0.06530178 0.23310634 -0.01615762 -0.19410378
-0.13942592 0.075758055 -0.053800046 -0.20099285 -0.1638494 0.15525642 -0.18416633 0.31098056
0.31393507 0.14928672 -0.07314846

bias_hh_l0 f4 [27]
00000000: 9b4d 9ebe d436 99be 2b16 b63d 10c3 98be
00000010: 9413 69be d986 60be 0eef 34bc 933f a33e
00000020: 64cb 7f3e 9d57 28be c6a1 9cbe a69e bebd
00000030: 916b 8abc b5e5 973e f4bf 82be 4221 133d
00000040: cf6f d2bd 0d39 6bbe e794 52be 0379 64be
00000050: 6c0f 2b3e ce5b 51be 1121 873e 556f 443e
00000060: c19c a23e 290f 7ebe 26b8 453e
-0.30918583 -0.29924643 0.08890947 -0.2983632 -0.22761375 -0.2192644 -0.011043323 0.3188444
0.24979931 -0.16439672 -0.30592173 -0.093076035 -0.016896995 0.2966744 -0.25537074 0.03592039
-0.10275232 -0.22970982 -0.20564614 -0.22311787 0.16705102 -0.20445177 0.26392415 0.19183095
0.3176022 -0.2481047 0.19308528

weight_ih_l0 f4 [27, 24]
00000000: c850 913e fd8c 12bd e37e 50bd dfa7 263d
00000010: d652 603e c6f2 8a3e 1176 47bd 066b b13c
00000020: ab83 983c cebc 44be 4e02 7ebd 41c8 963e
00000030: c203 d83d 095b 843e d7e5 0c3e 60c0 88bb
00000040: bf2b 4a3e 4abd 893e 13af 873e fa99 90be
00000050: e1fb 44be c52f 4a3e d686 553e a02b 293d
00000060: 82e9 1abe 4d92 3c3e 3723 83be 4beb 393e
00000070: 60c4 863e f9ac 0dbe 2ac7 14be 8b3f 89be
00000080: 6d91 93be 52ed 0e3e 81ca a43d bc11 623e
00000090: acc4 cf3d 64a8 313d ca10 053e dcb4 06be
000000a0: d0e8 08bc bdc8 9d3e bfd6 223e a338 fa3c
000000b0: 838e 0bbd 96e1 c03d fbfe e03d c00b 9b3e
000000c0: 871d 133d 957c 7dbe 3f5d ae3c de3d 93be
000000d0: 8aec 6a3e 446e 1e3e 0229 b7bd 4266 b73d
000000e0: 3d7a 843b bf78 a03e 6440 323b 3f61 413e
000000f0: 2873 01be 4ab9 bdbd 3f94 b63c 1f16 9bbe
00000100: 0edf 93bb e410 bc3d 83cf bd3d 1960 2abd
00000110: 85b1 383d 059c f03d 61db a13e 962f d53d
00000120: d424 06be 5278 8cbe 5e27 d83a ab83 643e
00000130: 1670 063d 69ff d03d 83c3 a83d 58bd 533e
00000140: ac05 a03e 3a14 a6be 7ce6 f8bd 47d2 83be
00000150: 1317 773e f708 443e 23f0 a3bb c84d 83bd
00000160: 747e 98bc 1873 513e 8b1b 72bd 25a3 74be
00000170: a4e4 913e 59a2 203b 8507 943d 1e4f 6dbd
00000180: 0a8b 5d3e 9ae0 2ebe bcc2 073d cfea 773e
00000190: 26ea 283d 729f 55be f572 903e 35af 783e
000001a0: 55f3 00be 63c8 4cbe 6b0d 92be 85b7 36be
000001b0: 69c7 84bd 16c9 36be d6f6 aabc ddf1 1a3e
000001c0: 752c a8be 462a 213e 7f01 10be eabe 2fbc
000001d0: 793e 8bbe 8908 823e c538 50be 6061 203e
000001e0: 17c4 40be 8ca5 343e 54b3 50be b832 83bd
000001f0: b4cb a5be 8caf 66be fcca 1cbe bdf8 89be
00000200: 72f6 883e 1fcb 9bbe dc31 223e 9716 463e
00000210: fd5d 8bbe e568 8bbe f2d4 55bd 6878 97be
00000220: 869a 2cbe 0fc0 9d3e c4b0 9abe 4426 92bc
00000230: dd26 93be 6fc4 a83e 4d2a 09be ffb7 ba3d
00000240: 6c67 313e 0a5a 833e a3fe 7d3e 4419 623e
00000250: 77e5 643d 408b 903e b043 293e caea 4e3e
00000260: 41c6 6bbe ad69 053e c539 1d3d aba6 a7be
00000270: 98d4 e03d 312b 183e 3c9f b73a dc27 303d
00000280: 28de 87bd 406c b73d e7a5 56bc f06b a0bd
00000290: 3be8 07bd 42c6 87be 018e 813d fd01 78be
000002a0: e809 07be 2a57 c53d ecba a53e 8093 aebd
000002b0: 6efd cebb 7469 5a3e 34d4 1dbe 87d8 b2bc
000002c0: b54a 87be b2ba 2bbe 4a7e b23c d51d fabd
000002d0: 4c18 f73c e97f 61be 9555 373d 403d f13c
000002e0: 4e36 4c3e eed8 cabd 27a7 72be 8c3e f23d
000002f0: 8302 883d d7b2 653e 488f 93be 8fcb a83c
00000300: 7bf4 503e ab2b e5bd 8c54 453d ea63 3c3e
00000310: bd6e 4bbe 2c3a d63a e866 843d 148a 9d3e
00000320: ec42 24be 9c11 a83e c910 9a3e 6a8b 9c3e
00000330: 3780 45be 9fdf 773e a846 08be b757 a33d
00000340: 1ae3 a03e 019d 283d 83cb 963e 85f3 6cbc
00000350: 7988 8e3d b9ad 0fbe 6efb 1c3e f8f2 3abe
00000360: 16b5 1c3e 61d7 2f3e 6afa 15bd 1777 a0be
00000370: 3730 0b3e fbb9 f0bd 8f4b a0be fc64 5f3d
00000380: ddca 59be 1912 49bd 389c 6e3e f5ca 52be
00000390: 2efe fb3d 32e0 05bd 4dcb 7b3e 8336 82be
000003a0: 9402 783e f811 e53d fbe3 a93e 0177 34bd
000003b0: 018a e4bc f68e 0fbe f433 6a3e 5f25 493d
000003c0: 3296 563e 387b 70be 3893 a83e 500f 623d
000003d0: d4dd fc3d a004 27be 52cb 873c 5479 6b3e
000003e0: fca3 0e3d 55ff 4bbe 359c 6d3d f5d5 e7bd
000003f0: ba8a a6bc 87df b7bd 9323 893e 96db 78be
0.28381944 -0.03577899 -0.05090226 0.040687438 0.219066 0.27138346 -0.04869658 0.021657478
0.018617472 -0.19212648 -0.062013917 0.29449657 0.10547592 0.25850704 0.13759552 -0.0041733235
0.1974325 0.2690223 0.2650076 -0.28242475 -0.19236709 0.19744785 0.20852217 0.04130137
-0.15128139 0.18415184 -0.25612804 0.18156163 0.26321697 -0.13835515 -0.145291 -0.26806292
-0.2882189 0.13957718 0.08046437 0.22077078 0.10144934 0.04337348 0.12994686 -0.1315493
-0.008356288 0.30817214 0.15902232 0.030544585 -0.034071457 0.09418027 0.10986134 0.30282402
0.03591683 -0.24754556 0.021284698 -0.28758138 0.22941795 0.1547175 -0.089433685 0.08955051
0.0040428923 0.31342122 0.0027199024 0.18884753 -0.12641585 -0.09263857 0.022287486 -0.30290315
-0.004512674 0.09182909 0.09268095 -0.041595552 0.04509117 0.11748508 0.31612685 0.10409467
-0.13099986 -0.27435547 0.0016491225 0.22315852 0.032821737 0.102049656 0.08240416 0.20677698
0.31254327 -0.32437307 -0.121533364 -0.25746366 0.24129896 0.19144045 -0.0050029918 -0.0641132
-0.018614985 0.20454061 -0.0591083 -0.2389036 0.2849475 0.002451083 0.07227997 -0.05793678
0.2163507 -0.17077866 0.033144698 0.24210666 0.041238926 -0.20861605 0.28212705 0.24285586
-0.12592824 -0.19998316 -0.28525862 -0.17843445 -0.06483347 -0.17850146 -0.020869654 0.15131326
-0.32846418 0.15738782 -0.1406307 -0.01072667 -0.271961 0.25397137 -0.20334156 0.15662146
-0.18824802 0.17641276 -0.20380908 -0.06406158 -0.32381976 -0.22527903 -0.15311807 -0.26947585
0.26750523 -0.30428407 0.15839332 0.19344555 -0.27220145 -0.27228466 -0.052205034 -0.2958405
-0.16855821 0.30810592 -0.30212986 -0.017840512 -0.28740588 0.32962367 -0.13395043 0.09117126
0.17324609 0.25654632 0.24804167 0.2207995 0.055882897 0.2823124 0.16529727 0.20206752
-0.23024847 0.13028593 0.03838517 -0.32744345 0.10978049 0.14860226 0.0014009248 0.043006763
-0.0663417 0.08956194 -0.013101078 -0.078330874 -0.033180457 -0.26518446 0.06325913 -0.24219508
-0.13187373 0.09635766 0.32369173 -0.08524227 -0.0063168323 0.2132929 -0.1541298 -0.021831764
-0.26424184 -0.16770437 0.021788735 -0.12212721 0.030162953 -0.2202145 0.04475935 0.029448152
0.1994259 -0.09904657 -0.23696576 0.11828336 0.06641104 0.22431503 -0.28820252 0.020604877
0.20405762 -0.1118997 0.048176333 0.18397489 -0.19866462 0.0016344241 0.0646494 0.30769408
-0.16041154 0.32825935 0.3009093 0.30575114 -0.19287191 0.24206398 -0.13308203 0.07975715
0.31423265 0.041165356 0.29452142 -0.014462356 0.06959624 -0.14031114 0.15330288 -0.18256748
0.15303454 0.17172004 -0.036615767 -0.31340858 0.13592611 -0.11754223 -0.31307647 0.054539666
-0.21268792 -0.049089525 0.2330178 -0.20585234 0.1230434 -0.032684512 0.24589272 -0.25432214
0.24219733 0.11185068 0.33181748 -0.044058803 -0.027897837 -0.14019379 0.22871381 0.049107905
0.20955732 -0.23484504 0.3292482 0.055190384 0.12346998 -0.16310358 0.016576443 0.22995502
0.034824356 -0.1992162 0.0580103 -0.11320106 -0.020329822 -0.08978181 0.26784953 -0.24302515

weight_hh_l0 f4 [27, 9]
00000000: 9634 8781 6237 91be bf7d 79be d4ab bc2d
00000010: c7fc 833e 7887 acbd 9241 d43c c04f 67be
00000020: 5ed7 a2be 3ca5 343c 496b 4b3e e4f8 223e
00000030: 6e9c 9dba a7ca 063e a589 11be 87a7 6038
00000040: 19fd 5c3b fffb 303e 774f ba3c a09c 8cbd
00000050: 3e49 9a3d bdc0 9730 a11b 843e cc14 c33d
00000060: 61db 703d ff63 b5bb 5aa7 57be a859 473d
00000070: 1ce6 bdbd aa39 a1be 2d10 5831 0850 5fbe
00000080: 3ea4 45be f0a4 5d3d ea8c 61be f19c f4bc
00000090: 24ff 093b a9d3 6c3e 66d7 51be 8b32 223d
000000a0: d519 66be c054 00bd 587d 05ba dadd a83e
000000b0: 0f3e c2bc 546e 6cb8 90ee 80be 8c13 8fbe
000000c0: 5820 7fb1 6b47 7a3e 7c86 213d 7bfa c53c
000000d0: e5f1 4bbe 2b85 763e 0816 65bd 8a4b 443e
000000e0: b24e fe3d 0105 89bd db87 b1ba d2e2 c6bd
000000f0: f630 6bb4 6331 1f3e 59f8 f33d 86a1 43ba
00000100: 3ba6 7cbe 1a75 8ebd 3111 8535 eb5b 043e
00000110: 51ba 1d3d 525f a9bc fa58 e93d 0cf4 b7bd
00000120: 1e1d 2092 44ac 973e 344e a5be 4cae 7dae
00000130: 049a 803e 6173 f13c d90b aa0f 1897 d73d
00000140: c5ac 6abe 0a40 0f00 0d77 39bd b574 acbc
00000150: 4754 d832 4d71 a93e afc1 a1be 67d6 8fbd
00000160: 9d7e aabd be21 a0be 3c3f 3135 8010 6cbe
00000170: 39ce a6be 2643 03ba 22d4 4b3e ed93 87be
00000180: e48a c83b db84 943e 4715 363e 2c89 7dbd
00000190: d198 ffbb 6626 1fbe ce4f 6e3b 77f1 7abe
000001a0: 8a8c 6a3e bbf2 753c 27a9 82be d847 843e
000001b0: 9ccf 9d39 e78d a7be 4d82 9c3e cff5 9eb3
000001c0: 1d00 2d3e 31cc 533b 55b3 0b3c 765b 31be
000001d0: ecb2 c1bc 5882 46bd e1c9 21be ac50 81be
000001e0: 38eb d0bc 4930 88be 9424 803e ddc7 7d3c
000001f0: a602 f6bd 63ae 883e 93a9 1898 88b6 a03d
00000200: 190e 63bd e518 bbbc 9377 8e3e 6770 27bd
00000210: 3a68 3838 f9e2 7a3e 5096 213e 2c6f 2cbc
00000220: 9866 063e ccb9 03be adbb 3c2e 5caf 233d
00000230: d025 babb 29ce 7db7 bd8d d6bd 315a 3e3e
00000240: 9e90 2b3b 2939 50be 1977 9c3e 7408 04bd
00000250: 5afd 663d eacb 8e3e 8cd4 8d36 fe57 a63d
00000260: 4a93 40be cb4d e83a b154 573e e17b a2be
00000270: c62d 8632 e0eb 88be de2a 4d3e 9e50 86ba
00000280: 9a6a 9dbd 0c4e 983e 2724 a9bb 9414 a93e
00000290: 0275 89bd 1880 8f3a a84e 95bd d726 713e
000002a0: 8839 6339 ccbd 9fbe e1f9 803d d7ad baaf
000002b0: 9932 423e 7979 99be 1f19 d9bc 209f adbc
000002c0: c48f 7ebd e9e0 13bd 48e6 513e 49e6 7b3d
000002d0: 7c86 7b1d c9a8 813e c8b0 6cbe 1512 4d39
000002e0: 7f16 13be cbab 99bc 14e2 973d 088c 1f3e
000002f0: 46f3 913e 8aec 9181 e4bf ecbd 5573 393e
00000300: 8904 e43b c5dd 0bbc 41fb debd d154 4fbc
00000310: 979b a43d c604 223e 7787 05bc 996f 2b3c
00000320: d447 23be 8ccf be39 5926 4c3d e3c2 9e3e
00000330: 522d ac38 c613 88be f3fa fd3c d5ea 903c
00000340: 18fc 913e a1cd 19be 65b3 39bc d93f 93be
00000350: f934 3fbe ba7a c6bb 7927 293e 9d1f 56be
00000360: 06ee 723b d523 2c3d f494 083d 59f0 e83c
00000370: f1fa debd d3fa 373d e255 12bd 8d68 443c
00000380: 3cf5 3cbe ae62 0934 4a04 943e 2458 81bd
00000390: e49c cf3c 1ca4 97be 0735 d53d db85 5528
000003a0: a14e 27be 2cdf bfbd 4ae1 2d3b 60d4 8b3e
000003b0: 070a 9abe f20c 013c c396 41bd d6b0 943e
000003c0: b0a8 62bd 0206 013e b30a 16be
-4.9666625e-38 -0.28362566 -0.24364375 2.1449433e-11 0.2577879 -0.08424276 0.025910173 -0.22589016
-0.31804937 0.011025723 0.19865145 0.15915257 -0.0012024769 0.13163243 -0.14212663 5.3561784e-05
0.0033720194 0.17283629 0.02274297 -0.06865811 0.07533501 1.1041476e-09 0.2580233 0.09525451
0.058802966 -0.005535602 -0.21059933 0.048669487 -0.092724055 -0.31489307 3.1441332e-09 -0.21807873
-0.19300935 0.054112375 -0.2202641 -0.029859992 0.0021056617 0.23127617 -0.20492324 0.039598983
-0.22470792 -0.031330824 -0.0005092225 0.3298176 -0.023711232 -5.6369536e-05 -0.2518201 -0.279446
-3.712577e-09 0.24441306 0.039434895 0.02416729 -0.19916494 0.24074237 -0.055929214 0.19169441
0.12417354 -0.066904075 -0.0013544516 -0.09711231 -2.1903892e-07 0.15546183 0.11912603 -0.00074627285
-0.24672787 -0.06955929 9.914276e-07 0.12925689 0.038507763 -0.020675335 0.11393924 -0.08982095
-5.052299e-28 0.29623616 -0.32286227 -5.7680347e-11 0.25117505 0.029473962 1.6767858e-29 0.10526866
-0.22917469 1.400505e-39 -0.04527955 -0.021051744 2.5184034e-08 0.33094254 -0.3159308 -0.07023316
-0.08324931 -0.31275743 6.6029656e-07 -0.23053169 -0.3257921 -0.00050072593 0.19905141 -0.26480046
0.0061200727 0.2900761 0.17781554 -0.061898395 -0.0078001996 -0.15541992 0.0036363485 -0.24506174
0.22905174 0.015011485 -0.25519678 0.25836062 0.00030100055 -0.3272545 0.30568162 -7.402161e-08
0.16894574 0.0032317752 0.008526643 -0.17320046 -0.023644887 -0.04846415 -0.15799667 -0.2525686
-0.025502786 -0.2659934 0.25027907 0.015489546 -0.12012224 0.26695547 -1.9731153e-24 0.07847315
-0.055433366 -0.02283902 0.27825603 -0.04087868 4.3966087e-05 0.24500646 0.15779996 -0.010524552
0.13125074 -0.12863845 4.291294e-11 0.039962158 -0.005680777 -1.51279755e-05 -0.10476253 0.18589093
0.0026178728 -0.20334305 0.30559614 -0.032234624 0.05639396 0.2788995 4.226871e-06 0.08122252
-0.18806186 0.001772338 0.21028401 -0.31735137 1.5620468e-08 -0.26742458 0.20035884 -0.0010247414
-0.07686348 0.29747045 -0.0051617804 0.33023512 -0.067117706 0.0010948209 -0.07290393 0.23549972
0.00021669839 -0.3119949 0.062976606 -3.3956724e-10 0.18964614 -0.2997549 -0.026501236 -0.02119404
-0.062148824 -0.036103163 0.20498002 0.061498914 3.32891e-21 0.25324085 -0.23114312 0.0001955706
-0.1436405 -0.018758675 0.07416168 0.15580761 0.28505915 -5.3604005e-38 -0.11560038 0.18110402
0.0069585484 -0.008536761 -0.10887767 -0.012654499 0.08037489 0.15822133 -0.008149973 0.010463619
-0.15945369 0.00036394258 0.04984126 0.31008062 8.210041e-05 -0.26577586 0.031003451 0.017690102
0.28512645 -0.15019847 -0.011334275 -0.2875965 -0.18672551 -0.0060571106 0.16518964 -0.20910497
0.0037068143 0.04202636 0.033345178 0.02843492 -0.10887707 0.04491694 -0.035726435 0.0119878175
-0.18452924 1.2795019e-07 0.28909522 -0.063156396 0.025343366 -0.29617393 0.10410505 1.18529005e-14
-0.16338588 -0.093687385 0.0026531988 0.27310467 -0.30085775 0.007876622 -0.04726292 0.29041165
-0.055336654 0.12599948 -0.14652519

bias_ih_l0 f4 [27]
00000000: 6219 aa3d dfae 303e d6f5 9c3e 40fd 853d
00000010: c54a d8bd 7230 893d 2213 5d3d a836 633e
00000020: 5cd2 823e 4f63 953e 6354 153e 2808 b5bd
00000030: fe1e 083e 5cf6 323e 4048 f6bc 6e23 c23c
00000040: 386f c9bd 8fba 913e 4d74 1fbd 42df af3d
00000050: bad6 86be 38fe 1a3e 8990 a9be 10d4 cdbd
00000060: f06f b53d 882c 213e 6189 243e
0.08305623 0.17254208 0.30656308 0.06542444 -0.10561136 0.06698693 0.053973325 0.22188818
0.25551116 0.2917733 0.14582972 -0.08839446 0.13293073 0.17476791 -0.030063748 0.023698535
-0.098356664 0.28462645 -0.038929272 0.08587505 -0.26335698 0.1513604 -0.33118084 -0.10050213
0.08859241 0.15739644 0.16068031

bias_hh_l0 f4 [27]
00000000: fd9c 65bd 8457 44be 532a 12be 271e a439
00000010: 091b 8c3e 1f32 cbbd be92 45bd 5958 16be
00000020: 82c5 8dbd 482b b53c 31b3 953d 0f6d 95be
00000030: 520f 8e3e 1eff bdbd 229c 213d dd5f 543d
00000040: 49d9 1cbe 4c85 90be 8913 b03d 570a 6bbe
00000050: 9d30 b8bd c9ec 21be 12cf bdbd 05a6 84be
00000060: a4dc 4d3e 60ca 9b3b fe02 83bd
-0.05605792 -0.1917401 -0.14273958 0.00031302983 0.27364376 -0.09921669 -0.048235647 -0.1468214
-0.06922437 0.022115365 0.07309569 -0.29184768 0.27746063 -0.09277175 0.03945554 0.051849235
-0.15317263 -0.28226697 0.08597476 -0.22953163 -0.08993647 -0.15812983 -0.09268011 -0.25907913
0.20103699 0.0047543496 -0.06397055

weight_ih_l0 f4 [27, 39]
00000000: 94c3 75bd bca4 39be a094 7ebc 5519 aabd
00000010: 10b3 11be eadd 2bbd e24e 063e 91dd b53d
00000020: c504 313e 4e98 a93e 1a0c 1b3e fb30 35be
00000030: 4c45 2d3e b272 c63d af10 9fbe 9716 72bd
00000040: 6d79 6fbc 0b65 b7bd a4a2 e33c 35d0 873e
00000050: 1d59 743d c836 a1be b7a4 20bd b529 dd3b
00000060: 260e b83d 80d5 57be 2ea8 38bd 3d88 e8bd
00000070: 603f 9c3e cb5f 9f3e b4d2 c33d d8e4 0c3e
00000080: 36d2 a33e cb78 4b3e 721a 02be 4234 963d
00000090: 7993 a9bd c7a5 143d 1d16 18bd 97e3 04bb
000000a0: 6a68 86be c7ba a9be 9688 213c f569 6b3e
000000b0: 25d9 a581 6ee0 7b3e ccdf 4a3e f1d7 8e3e
000000c0: 13e0 933e 0a94 9bbe a9ac 4dbe d6fa 0a3c
000000d0: 6601 6fbd a156 933d 35f2 3ebe 1419 743e
000000e0: fa15 5c3e b527 3bbe 6414 9e3e c641 a23e
000000f0: c609 bb3d 2544 923d e956 61bd f470 223e
00000100: c6ce ffbc f83a 893d 2f4a 4a3e 77d7 8c3e
00000110: ac61 953d 5390 0dbe 5f06 48be 8d5b 6c3d
00000120: 4460 cd3d 2c1f 71be 8c5c 403e 0354 193d
00000130: 71bd 093a e8e4 5fbe e500 0e3d b93a 483e
00000140: af4b 7abd 55fc 8e3e 201e 3ebe 4037 733d
00000150: 9c90 48be d711 4d3e 0be3 a03d 27f2 a8be
00000160: 4583 b2bd ca0a 86be f125 2fbe e576 6bbd
00000170: 49ff 863d 2443 b83d 42aa 893e 5c24 643e
00000180: 0c07 cabb cc46 a1be 34ed 753e f1cf 9fbe
00000190: f45b dabd c154 a9bd a899 1cbe 23d6 c53c
000001a0: cb4d 9f3d 8ed6 35be 21fd 2e3e 8962 cdbc
000001b0: ce7d a73c 740d 1ebe e9cc 803e 73fe 91be
000001c0: 13a4 a6be 41e9 b33d 91f8 97be d814 4bbe
000001d0: 5351 a8be 9573 2d3c ccf7 8cbd 65f7 89be
000001e0: abae 813e b78f 01be bbfb 363d 53a4 38bd
000001f0: a15f a63e 9bd1 a1be 30c1 56be a175 a03e
00000200: 9fc2 96be e582 85bd 662b 773d 8792 8a3d
00000210: ab77 e8bd 43ea 6a3d a0fc 01be 6ab9 8e3d
00000220: 2352 793c d89d 52bd 9269 2dbe e438 ea3d
00000230: 6580 9dbc 0469 ab3d 7bee 723e aaa5 d73c
00000240: d9b2 2dbe 1fd3 84bc 9143 9cbe 376d a0be
00000250: ab5c 053e d671 8f3e 5666 e83d b6bc 153e
00000260: 3c82 a33e 6877 433e 826b 1b3e 96c4 98be
00000270: 4ef0 0600 ce43 883e 96f1 aebd dc06 1a3e
00000280: 01cd a93e e9aa 3b3b 1a4b e4bd af7d 10be
00000290: ac33 8cbe 1c2a 70be 344b 59be d216 74bd
000002a0: fe50 703d ec2e 98be 21e6 64be 27f4 94bd
000002b0: ec7e 873e 0016 763e c8fa 97be 3b0f 0c3d
000002c0: f8d2 99be a86d acbd ab22 a4be 0f05 323e
000002d0: 2081 083e 61b4 593e 0d86 103e 9b71 973e
000002e0: 8fdc d9bb 8ced 8d3e 770d 4d3e 4c19 8ebe
000002f0: dcc2 303e 57d7 e83d b7ff 28bd 9ab9 363e
00000300: 14b0 3cbe 5b6c 2fbd 6798 96bd bfe2 abba
00000310: 7010 afbd 329f 9cbd d56d 4dbe b720 b4bc
00000320: eb13 a301 28a7 1abe 7b40 083e 40b4 893e
00000330: d074 f2bc fa4e 433e 08d2 443c 5cc6 213e
00000340: 5272 c33c ce0e d33d 828b 243e e7c2 653e
00000350: 6e5b 96be dadd 93be 8b8e c23d 0692 243e
00000360: ffa1 6d3e 0878 673d ecc3 2fbc 0df3 aabe
00000370: 4d6b 063b a291 dbbd 538f 32be d878 893e
00000380: 7f9c 343a 0733 813e 7dda 123e a508 873d
00000390: c6cd f83c ba73 aabe abd5 a83e 53c8 4bbe
000003a0: b441 9dbe 2052 47be e7d3 4f94 1a8b 8bbe
000003b0: dc79 933e 734b 80bd d032 fd3d 6933 0d8d
000003c0: 58e5 9f3e 6c81 59be 378d dc3d e7a5 e93d
000003d0: c4cf 9fbe 72ca 1dbe 8185 403e 229c 913e
000003e0: a76e a03e e98e 3b3e 6758 353e 8c27 8a3d
000003f0: 1b4c 9bbe 828f 3e3e 864a 6cbc dd4a 7f3d
-0.06000097 -0.18129247 -0.015538365 -0.08305613 -0.14228463 -0.04195968 0.13116029 0.08880151
0.17286976 0.33124012 0.15141335 -0.17694466 0.16920966 0.09689845 -0.31067416 -0.059103575
-0.0146163525 -0.08954819 0.027787514 0.26526037 0.059655298 -0.31487107 -0.039219584 0.0067493566
0.089870736 -0.21077538 -0.045082264 -0.113541104 0.305171 0.31127772 0.09561673 0.13759172
0.31996316 0.19870298 -0.127054 0.07334186 -0.08280081 0.03629091 -0.037130464 -0.0020277256
-0.26251537 -0.33150312 0.009859225 0.22989638 -6.0923015e-38 0.24597332 0.19811934 0.27899125
0.28881893 -0.30386382 -0.20085396 0.0084826555 -0.058350943 0.071942575 -0.18647082 0.23837692
0.21492758 -0.18276866 0.30874932 0.31690806 0.091327235 0.07141904 -0.055014525 0.158634
-0.031226527 0.067007005 0.19754861 0.27508137 0.0729402 -0.13824587 -0.1953368 0.057704497
0.10028127 -0.23547047 0.18785304 0.037433635 0.0005254364 -0.21864665 0.03466882 0.19553651
-0.061107334 0.2792689 -0.1856618 0.059378862 -0.19586414 0.20026337 0.07855805 -0.32997248
-0.08716444 -0.26180106 -0.17104317 -0.057486434 0.065916605 0.08997181 0.2688771 0.22279495
-0.006165391 -0.31499326 0.24016267 -0.31213334 -0.1066207 -0.08268119 -0.1529299 0.02414996
0.0777851 -0.17757627 0.17088749 -0.0250714 0.02044573 -0.1543482 0.25156334 -0.28514442
-0.32547054 0.08784724 -0.2968183 -0.1983217 -0.32874545 0.010586639 -0.06883201 -0.2694656
0.25328574 -0.12652479 0.044673663 -0.045078587 0.32494834 -0.3160523 -0.20972133 0.31339744
-0.2944536 -0.06519107 0.060344122 0.06766229 -0.1135095 0.057352316 -0.12694025 0.06968959
0.015217337 -0.051420063 -0.16934803 0.11436632 -0.019226262 0.083696395 0.23723786 0.026324112
-0.16962756 -0.016213952 -0.305203 -0.31333324 0.13023631 0.28016537 0.11347644 0.14622769
0.31935298 0.19088519 0.1517773 -0.29837483 6.37218e-40 0.2661423 -0.085421726 0.15041679
0.33164218 0.0028635806 -0.11147137 -0.14110444 -0.27383173 -0.23453563 -0.21220094 -0.059592076
0.05867099 -0.297233 -0.22353412 -0.07273131 0.2646402 0.2403183 -0.29683518 0.034194212
-0.3004377 -0.08419353 -0.320577 0.17384742 0.13330507 0.21260215 0.14113636 0.29578862
-0.006648607 0.27720296 0.20024668 -0.27753675 0.17261833 0.11369198 -0.041259494 0.17844239
-0.18426543 -0.042827945 -0.07353287 -0.001311384 -0.08548057 -0.076475516 -0.20061429 -0.021988256
5.9905324e-38 -0.15102828 0.13305847 0.26895332 -0.029596716 0.19073096 0.012012966 0.15798324
0.023858223 0.10305558 0.16068843 0.2243763 -0.2936663 -0.28880197 0.09499844 0.16071329
0.23206328 0.056510955 -0.010727864 -0.33388558 0.0020510734 -0.10721137 -0.17437486 0.2685001
0.0006889775 0.25234243 0.14341159 0.06593446 0.030371558 -0.33291417 0.32975516 -0.19900636
-0.3071419 -0.19464922 -1.049262e-26 -0.27254564 0.2880391 -0.06264391 0.12363207 -4.351086e-31
0.31229663 -0.21240777 0.10769122 0.114085965 -0.312132 -0.15409258 0.18800928 0.28439432
0.3133442 0.18316235 0.17709504 0.06745824 -0.303315 0.18609431 -0.014422065 0.062327255

weight_hh_l0 f4 [27, 9]
00000000: 46fc 0abe 72a6 8cbe 4fdd 493e cdd7 8e3e
00000010: 37e0 d0bd b06d 9ebe e037 b03c ec7f ae3d
00000020: 5700 c0bd 5c56 b53d 0efc 8f3e 73e6 813e
00000030: 2ebe 39be 75d2 a83d a17c 253e dcfa 42b9
00000040: 1faa e1bd 7e9f ffbd 0984 69be 3a29 6d3e
00000050: 202d ecbd ae2c 2a3d 6768 533c f47f 663e
00000060: 6409 df3a e8e9 99be 8755 32bd 8f6e d3bd
00000070: 2d6f 9bbe b737 e1bd fac8 783e e5a5 a23e
00000080: 53e8 923d 65d2 3f3e 9a5e 0fbe d93f 80be
00000090: f469 57be 5cce 3b3a 4ffe 023e 2d90 4a3e
000000a0: 3d3f 703e 4a45 9c3e 3817 66be 0dea 513d
000000b0: a82f 2ebe 1397 883b 9dce 6e3e 09dd 513e
000000c0: a89a 8abe 8a81 8c3e 27fa 79be e985 183e
000000d0: 70f8 09be b554 18bc 4d6d 7dbc 9fd1 0b3e
000000e0: 4a83 3cbe c564 823e 8dcf f83d de3f 9fbc
000000f0: 1a7e 2dbe 2d71 93bd b6bc 53be f335 82bd
00000100: 445c d1bd df37 383e d628 34be 1c38 89bc
00000110: e308 9a3e 7be2 553d 9dbb 193e e4a5 a13e
00000120: 3aaa a33e a95d 8c3e 9f2a 3e3e b66c 9a3e
00000130: 2635 a23e c64b 6e3e 67c5 9b3e 6e70 963e
00000140: 476d 55bd f3f5 c2bd 320f aa3e ff88 81be
00000150: 4edb a6bc b834 5ebe f13b 90be a40f 8fbd
00000160: 2042 0f3e f9b1 553e d4e5 82bd 8590 833e
00000170: be49 a33c 45b3 83be 04d3 993e 1915 9b3c
00000180: 03e4 24bd 0a97 503e 5c01 253e e0fe a63d
00000190: 81b4 09be df76 843e 2f06 0e3e 599a c93d
000001a0: 9e9f 953e 05b0 8c3e 2afc 4cbb d52b 50bc
000001b0: ff1b c43c 06b9 853d 9bce 4c3e ce4d f03d
000001c0: dea4 17be 5ad4 d33d f3bc 9fbe 2e6f d0bd
000001d0: fd96 00be 5752 783e cfd2 f9bd b885 84be
000001e0: 29bc cabd 7ab3 93be 94b6 bf3d 24c5 febd
000001f0: 307d 983b 8a6b dfbd ba6a 023d d482 5a3e
00000200: 0a4c a43d 48c9 aebd 86d5 8a3c 77a3 0e3e
00000210: c64b f6bd 1519 ea3d 6215 8b3e 9a2c 003e
00000220: 45e0 9d3c 90e2 a0be 2a74 96be a645 f5bd
00000230: b96b 73be f813 c0bd 0904 78be dc7a 913e
00000240: 007a 903d 99a2 9ebd d69a 2abe 54ca a63e
00000250: 7f66 a03e 5d02 803d d3c4 94be 61fc 0ebe
00000260: 2bf5 843e 126e 6fbe 2011 593e 178b 533e
00000270: 88d1 733c c64e f3bc ef22 90bd f283 873e
00000280: aa37 173e 0ea3 4e3d 1dcc 88be 49a3 a63d
00000290: 37c4 0abe 7642 7e3c b468 e7bc c9a2 473e
000002a0: fc18 22be 68f4 a2be 2033 833e 3bba 31bd
000002b0: df5b 463e cdfe 3b3e 313f 84be 3faa 0fbe
000002c0: 21b5 65be f410 9f3d f240 9abe f30e 7f3e
000002d0: 90e5 56be f289 29be dd10 933e 2c90 84be
000002e0: dc91 08bc dcc4 a43e 61c3 46be dd12 9b3e
000002f0: 222e e1bc 6645 583d f705 97bd eb54 9f3e
00000300: 8dcb 5bbe 0899 a73e 66ab 5cbe 02e1 973e
00000310: 097a 1e3e 2301 33be bedf 983e 71a1 723e
00000320: 7d9f 0ebe 8e41 bebd 9fcd a2be 51bb 833e
00000330: 466c b2bd a22c 573e 9ac7 3cbe f77a 633e
00000340: e6c6 193b 6598 533e b781 84be a2fb 07be
00000350: 303a 583e 3604 79be f33b 903b da45 e5bd
00000360: 18e4 3dbe 719a f83c 2a47 713e dfc5 843e
00000370: b770 803e b4fa 6a3e 594e 15be b796 a0be
00000380: 7275 8cbd 8664 873e 72e3 45be d0a5 963e
00000390: 2fde 4d3e b64b 793e 950e 86be b8c8 ee3d
000003a0: d041 a5bd 12ee 4c3e f333 393e b378 e0bd
000003b0: 1602 94be 65e4 2ebe 8224 6f3e dad4 03be
000003c0: 4d16 63be 87ee 313e e70b a63d
-0.13572797 -0.27470738 0.19713329 0.27899018 -0.101990156 -0.3094306 0.021511018 0.08520493
-0.09375065 0.08854362 0.2812199 0.2537113 -0.18138954 0.082432665 0.16160823 -0.00018594734
-0.11018776 -0.124815926 -0.22804274 0.23160258 -0.115320444 0.041546516 0.012903309 0.22509748
0.0017016348 -0.3006127 -0.043538596 -0.10323822 -0.30358258 -0.10996955 0.24295416 0.31767192
0.071732186 0.18732603 -0.14000931 -0.25048712 -0.21036512 0.0007164234 0.12792324 0.19781561
0.23461623 0.30521613 -0.22469795 0.0512486 -0.17010367 0.0041684 0.23321004 0.20494474
-0.27071118 0.2744258 -0.24411832 0.14894833 -0.13473678 -0.0092975395 -0.015467954 0.13654183
-0.18409458 0.25467506 0.12148962 -0.019439634 -0.16942635 -0.07199321 -0.20677456 -0.06357946
-0.102226764 0.17990063 -0.17593703 -0.016750388 0.30084905 0.05221794 0.15012975 0.31571877
0.3196581 0.27415207 0.18570946 0.30161065 0.31681174 0.23271093 0.30424044 0.29382652
-0.052106168 -0.09519567 0.33214718 -0.25299832 -0.020368244 -0.21699798 -0.28170732 -0.06985405
0.13990068 0.20868672 -0.063914925 0.25696197 0.019932624 -0.2572271 0.30043805 0.018930959
-0.04025651 0.20370117 0.161138 0.08154082 -0.13447763 0.2587194 0.13869546 0.098438926
0.2922334 0.27478042 -0.0031278231 -0.012705763 0.02393913 0.06529431 0.20000689 0.1173359
-0.14808986 0.10343237 -0.31198844 -0.10177456 -0.12557597 0.2425016 -0.12198412 -0.2588327
-0.0989917 -0.28847867 0.09360996 -0.12439945 0.0046535954 -0.10909183 0.031840064 0.2133897
0.08022316 -0.08534485 0.016947519 0.13929544 -0.120261714 0.11430565 0.2716475 0.12517014
0.01927198 -0.31422853 -0.293855 -0.11976175 -0.23771562 -0.09378809 -0.2422029 0.28414047
0.0705452 -0.07745857 -0.16660628 0.3257624 0.31328198 0.06250451 -0.29056415 -0.13963462
0.25968298 -0.23381832 0.21197939 0.20658527 0.014881499 -0.029700648 -0.07037913 0.26467854
0.14767328 0.05044847 -0.26718226 0.08136613 -0.13551413 0.015518775 -0.028248169 0.19495691
-0.15829843 -0.31827092 0.25624943 -0.043390494 0.19370984 0.18358918 -0.2582946 -0.14029787
-0.22432376 0.077669054 -0.30127674 0.24908046 -0.20986009 -0.16556528 0.28723803 -0.25891244
-0.008335557 0.32181442 -0.19410469 0.3028783 -0.027487818 0.05280056 -0.073741846 0.31119475
-0.21464367 0.3273394 -0.21549758 0.29663855 0.1547624 -0.17480902 0.29858202 0.23694398
-0.13928027 -0.09289847 -0.317975 0.2572885 -0.08712058 0.2101312 -0.18435517 0.22214876
0.00234645 0.20663603 -0.25880215 -0.13279584 0.21115947 -0.24318013 0.0044016778 -0.11194964
-0.18544042 0.03034708 0.23562303 0.25932214 0.25085995 0.22947198 -0.14580669 -0.31364986
-0.068583384 0.2644388 -0.19325045 0.2942338 0.20104288 0.24345288 -0.26183 0.11659378
-0.08069193 0.20012692 0.18086223 -0.109605215 -0.2890784 -0.17079313 0.2335377 -0.12874165
-0.22176476 0.17376147 0.08107739

bias_ih_l0 f4 [27]
00000000: a658 bbbd a5d9 cfbc 1fbd 503c 380a a6be
00000010: 7a59 0f3e 24c9 a7be 4e53 793d c039 a73e
00000020: 881e a5be bfd6 833e 176a 1d3e f7ac 40be
00000030: 75f3 9bbe 6f67 633e 8548 123e a94f cd39
00000040: 8bd9 0bbe 9f1c 693d abbd a5be 2a83 9cbe
00000050: 1862 963e 3024 e8bd 6b45 d5bc 4fd1 81be
00000060: 44fa a8be ea80 773e a62a 99be
-0.09147768 -0.025372336 0.0127404025 -0.3242967 0.13998976 -0.32770646 0.06087046 0.32661247
-0.32249856 0.25749776 0.15372501 -0.18815981 -0.3045918 0.22207426 0.14285477 0.00039159998
-0.13657205 0.05691206 -0.32371268 -0.3056882 0.29371715 -0.11335027 -0.026034078 -0.25355002
-0.33003438 0.2417027 -0.2991535

bias_hh_l0 f4 [27]
00000000: b6f8 a9bd 8445 543c ca9b 8bbb 5bed 003d
00000010: 8c59 2bbe 29ef 783d dbd1 913d 804f 2e3e
00000020: 7450 ebbc 59cd 153e 34b3 15be 77d7 7c3e
00000030: e846 b93d e1fd 093d f3a7 3abe c991 e2bc
00000040: 556d f3bc b563 033d 1fdb 483e ea15 b2bc
00000050: 5a4a 643e e77e 443e 2332 a8bd c3b4 49bd
00000060: 9441 05bc 0149 e63d 0bc4 0f3e
-0.08299391 0.012956027 -0.004260515 0.03147636 -0.16733378 0.060774956 0.07120105 0.17022514
-0.028724886 0.14629115 -0.14619142 0.24691568 0.090467274 0.033689383 -0.1822813 -0.027657406
-0.02971522 0.03207751 0.19614838 -0.021738965 0.22293988 0.19189034 -0.08212688 -0.049244653
-0.008133311 0.11244393 0.14039628

weight f4 [9, 9]
00000000: fcd4 0e3a 15c1 bab6 e869 873d 26c4 a435
00000010: 9b86 8481 f948 6a3c 1bb7 96b7 3ed6 e080
00000020: 9f82 9d3c 43be 25be fe02 2b3e 216f ddbd
00000030: 9def 9fbe f808 8b3e 202e 573d 5958 a5be
00000040: 1731 01bd 19a7 973e 66de a03e 27e9 80be
00000050: bda9 77bd 7d11 583e 24f4 b53d 9931 dcbd
00000060: a8a9 953e 65c6 963e c4fb 773e c57f 663d
00000070: ff63 933e bac8 8dbe cf48 23be 23c7 8ebb
00000080: 1354 f53c d3b7 683e feff 483e 8969 8d3e
00000090: 2374 853e 9fb6 52bd 7515 0abe fe59 553d
000000a0: 6933 853e 7cd3 003e c2ce 88be 4efb 9dbe
000000b0: e866 ee3c 2a95 6dbc 614f caba 6b6b d5b1
000000c0: f42f 4bbc 8d79 643d e658 eb38 f979 6fbc
000000d0: 3b27 86bd 343f 80bd 4102 9f3e e602 1ebe
000000e0: 1431 a0be 826c 31be 5456 9cbe 67a6 56bd
000000f0: 78cb 3cbe 8feb e6bb ad71 9cbe 663e ad3d
00000100: a7e0 5a3e de60 c03d c99b 6e3e 91f7 46bd
00000110: eb54 57be 30eb 193e b99a fa3c 7d63 35be
00000120: b863 3abe 925f b4bd 162e 3f3e b4da 713e
00000130: d519 c7bd 7e5c a33c bce4 8bbc 6abb cbbb
00000140: 6168 61be
0.0005448607 -5.5657097e-06 0.06611997 1.2276039e-06 -4.868229e-38 0.014299625 -1.7966659e-05 -2.0648007e-38
0.019227324 -0.1618586 0.1670036 -0.10812212 -0.31237498 0.2715528 0.052534223 -0.32293966
-0.031540956 0.29619673 0.31419677 -0.2517788 -0.06046461 0.21100421 0.08884457 -0.107516475
0.29231 0.29448238 0.24217135 0.056274194 0.28787228 -0.27692205 -0.15945743 -0.004357235
0.029947316 0.22726373 0.19628903 0.2761958 0.26065168 -0.051443692 -0.13484748 0.052087776
0.26015785 0.12580675 -0.26720244 -0.30855793 0.029101804 -0.0145008955 -0.0015435034 -6.211328e-09
-0.01240157 0.055779982 0.00011222232 -0.014616483 -0.06550451 -0.06262055 0.31056407 -0.15430793
-0.31287444 -0.17326549 -0.30534613 -0.052404787 -0.18436992 -0.0070471237 -0.30555478 0.08459167
0.2137476 0.09393476 0.23301615 -0.04857594 -0.21028487 0.15031123 0.030591356 -0.17713733
-0.18202102 -0.08807291 0.18669924 0.23618585 -0.09721724 0.019941565 -0.017076842 -0.00621741
-0.22012474

bias f4 [9]
00000000: 11f2 42bd c534 9f3e 3de2 9f3e 93a8 3b3e
00000010: ae2b 0e3e c624 9dbd 9eff a03e 1a3d 83bd
00000020: dc7d 833d
-0.047594134 0.31094947 0.31227294 0.18326025 0.1388385 -0.076730296 0.3144502 -0.064081386
0.0642049

weight f4 [720, 18]
00000000: f498 15bd a3a6 e13c d73d 3ebe a44f f7bd
00000010: e731 47be d705 0abe 600d 1a3e d3b5 b7bd
00000020: ca8d 85bd e7ec 6cbd 9a5e 2cbe 9056 4c3b
00000030: 6abd d43d 9917 163d 3671 c6bd d1c7 6cbe
00000040: beb5 193e a2b3 b83b 2348 543e f079 c13d
00000050: cd6e 53be b89d 333e 9e4b 15be c824 c83d
00000060: 8fca 1ebd 4dc2 b7bd 81a2 593e a8c4 e53c
00000070: c134 013d d27b 113b 4b9c 58be 4abb 25bd
00000080: 9a6c e2bd 893a b5bd 3c64 d0bc 5c11 35be
00000090: 3f70 583d 9a4d abbd 8cee 363e 5772 603e
000000a0: 6b47 34be a2d2 dcbd 8a48 51be 4a2f cebd
000000b0: 32b5 283d 6bdc 09be bdc3 f6bd f865 b6bc
000000c0: cde9 9cbd 222a 883d 45a6 6abd 67b2 3c3e
000000d0: 5c3e fe3d 8b92 8ebb b655 2cbc 0ed5 b43b
000000e0: d548 153e 20ae ebbc 6bef b53d 3191 48be
000000f0: bd16 b83d c11c 4ebe 66d0 16be 20b2 16be
00000100: f1f3 6b3d 2f08 5d3d 6bdf 8d3d acca 443e
00000110: 3004 64bd 566a acbd 4aae 61be 1431 4b3e
00000120: 3f90 753c 4615 3cbe 1455 6c3d 035b 263e
00000130: 0bd4 833d c2ee 07be 23a5 3d3e 003e 873d
00000140: e09e 4d3e 4d9b 993b b20e 6fbe a7d6 3e3e
00000150: 09cd 45bc bf54 8b3b 9551 a43c 0fae debd
00000160: 9b49 44be 0d5f cf3d 5ef6 aebd 5908 82bd
00000170: 1d98 593d f1b8 633e 25c7 2abd 5d08 6bbe
00000180: 1326 293e e258 4e3e fec7 a33d 9d2e f7bd
00000190: 1184 133d 860a e9bc 2823 ea3d d123 163e
000001a0: 4857 bfbc f28c 09be af3f c8bd e50f cbbd
000001b0: f313 c63d 1306 ddbd 9d60 99bc aa2f 2abe
000001c0: 5cc8 46be 4ff2 23bd 0c8c c73d ddbb c73b
000001d0: 14dd d53d 0b5a e2bd 3049 58be ebef 32bd
000001e0: b566 c4bd b645 30bd 29cf 3dbe e1e4 b83d
000001f0: 8d70 073e c2ee fe3d 9c56 66ba 6bde 8eb9
00000200: d94e b938 2895 1c37 47a1 e83b 25a7 38b9
00000210: a39c 753c 9876 efb9 7dc8 d8ba 3241 09ba
00000220: 7bd2 5e39 17a2 f6b9 783a d3b8 35a5 e1bb
00000230: b07e fc3b 9b95 a83a 0117 31bc 6d59 b33a
00000240: aed1 013e 9c10 86bd 09a0 553e 090d febd
00000250: 3e91 593e 70a9 5d3e a943 433d 517b c63c
00000260: a577 cbbd 9ada ecbc 48c4 57be 6f2c 243e
00000270: ed1b 67bd cfe6 5bbe e6d7 7a3d c49d 48be
00000280: 5ea4 febc c3de f53d 0d5e fdbd 42d2 55be
00000290: 9c6a b13d 95e5 8ebc 22ff 12be b32f 253e
000002a0: 7f87 563d f15c 223e 46d7 25be ffd7 b63d
000002b0: 860b bb3d b422 403d 8d9e 663d b7f9 0fbc
000002c0: b1ac 0e3e 114d 20be ee1f fa3d 202b 4fbe
000002d0: cc5d 323e 5e9e 22be d460 e23d 0b1c 09be
000002e0: 3564 5a3e ff6e b5bc 8cd3 053e 72d0 6ebe
000002f0: 47c5 4e3e e464 1b3e 3b01 f1bd 59ca 28be
00000300: 9063 77bd 540b 633e 3663 2e3e 1933 4a3e
00000310: 9548 49be b8dc 46bc 4520 e9bd 82ae 02bb
00000320: fd8e d13d 7212 33be dad4 393d 74c0 c8bd
00000330: e9d3 50be 811d 9dbd ae0d c3bd e0e5 26be
00000340: 1eb6 b73d 3434 5f3e 6810 0ebe 40d4 e33d
00000350: 4740 57bd da7d 00be f2c3 573d d5ba f23d
00000360: 00cc 17be 4ae5 e03d 88de 7dbc b0b4 08be
00000370: d1fd 31be 3dd3 52bc 78d0 c5bd 68cc 133d
00000380: 1f09 6b3d 8945 12be ab8e 103e 7bce a3bd
00000390: 378b 4f3d d2af 913d a55f 03be 2561 20be
000003a0: 43f4 223e 6b40 84bd f2b6 50bb 9a91 453c
000003b0: ee60 22bc 44e0 283e 41f5 02be 5f2d 613c
000003c0: b022 033d 123e f7bd 95e8 103e 0eee 81bd
000003d0: 670a 0a3e 11c3 ccbd c20c 6abe 00e3 3dbe
000003e0: ef14 30be 1d82 3bbe 22b4 043e 88e3 0dbc
000003f0: 8e93 13ba 3241 0abc 3524 993a eed4 e8b7
-0.03652282 0.027545279 -0.18578278 -0.12075737 -0.1945263 -0.1347879 0.15044165 -0.08970227
-0.06521185 -0.057843115 -0.16832963 0.0031179525 0.1038769 0.0366436 -0.09689562 -0.23123099
0.15010735 0.0056366483 0.20730643 0.09447086 -0.20647736 0.17540634 -0.14579627 0.097726405
-0.038767394 -0.08972607 0.21253397 0.028047875 0.03154445 0.0022199047 -0.21153371 -0.040461816
-0.1105587 -0.08849055 -0.02543842 -0.17682403 0.05284142 -0.08364411 0.17864436 0.21918617
-0.17605369 -0.107823625 -0.20437828 -0.100676134 0.041188426 -0.13462989 -0.12049053 -0.02226542
-0.076617815 0.06648661 -0.057287473 0.1842743 0.12414238 -0.0043509654 -0.010518482 0.005518562
0.14578564 -0.028769553 0.08883556 -0.19586636 0.08988712 -0.20128156 -0.14727935 -0.14716387
0.057605688 0.053962883 0.06927379 0.19217938 -0.055668056 -0.084187195 -0.22039142 0.1984294
0.014988004 -0.1836749 0.057698324 0.16245656 0.06436928 -0.13274673 0.18520026 0.066036224
0.20080137 0.0046877027 -0.2334545 0.18636571 -0.01207281 0.004252046 0.020058433 -0.10873043
-0.19168703 0.101255514 -0.085430846 -0.063492484 0.053123582 0.22238518 -0.041693825 -0.22952409
0.1651843 0.20151094 0.0799713 -0.12069438 0.03601462 -0.0284474 0.11432487 0.146621
-0.023357049 -0.13432673 -0.09777772 -0.09915141 0.09671774 -0.10792174 -0.018722827 -0.16619745
-0.19412369 -0.040026005 0.09743509 0.006095393 0.10442558 -0.110523306 -0.21121669 -0.043685835
-0.09589902 -0.04303523 -0.18536057 0.0902803 0.13226528 0.12447883 -0.00087867095 -0.00027250065
8.836174e-05 9.333053e-06 0.007099304 -0.00017609874 0.014990958 -0.00045673992 -0.0016539242 -0.000523585
0.0002124998 -0.00047041543 -0.00010072155 -0.0068861493 0.007705532 0.0012861969 -0.010808707 0.0013683267
0.12677643 -0.06546137 0.2086183 -0.1240483 0.21246812 0.21646667 0.047671948 0.024228724
-0.0993493 -0.028912831 -0.21070969 0.16032575 -0.056423116 -0.21474765 0.061241053 -0.19591433
-0.031084236 0.12005379 -0.123714544 -0.20880988 0.08662912 -0.017443458 -0.14355138 0.16131477
0.052375313 0.15855767 -0.16195402 0.08927917 0.09133057 0.046908095 0.05630355 -0.008787564
0.13933064 -0.15654399 0.12213121 -0.20231295 0.17418593 -0.15880725 0.11053625 -0.13389604
0.21327288 -0.022147654 0.1306898 -0.23321703 0.20192443 0.15175205 -0.11767813 -0.1648344
-0.060397685 0.2217229 0.17030033 0.19746055 -0.19656594 -0.012137584 -0.11383108 -0.001994044
0.10232351 -0.17487505 0.045369007 -0.098023325 -0.20393337 -0.07671643 -0.095240936 -0.16298628
0.08970283 0.21797258 -0.13873446 0.11124468 -0.052551534 -0.12548009 0.052677102 0.11852042
-0.14823914 0.109812334 -0.01549495 -0.13350177 -0.1738198 -0.012867746 -0.09658903 0.03608361
0.057381745 -0.14284338 0.14116924 -0.079983674 0.050669875 0.07113613 -0.12829454 -0.15662058
0.15913491 -0.06457599 -0.0031847325 0.01205864 -0.009910805 0.164918 -0.1278887 0.0137437275
0.032015502 -0.12072386 0.14151223 -0.063442335 0.1348053 -0.099981435 -0.22856429 -0.18543625
-0.17195486 -0.18311353 0.1295934 -0.008660205 -0.00056295923 -0.008438395 0.0011683764 -2.7755708e-05
