RTSNet/new_architecture/linear_Journal/linearCA/knownInit/CA_trainPVA_2ndPass.pt (torch, 162195 bytes, 69 tensors)

weight_ih_l0 f4 [27, 15]
0.13867636 0.2733644 -0.09900999 0.2552038 -0.009716458 0.07438385 0.20474468 -0.093916036
0.09384002 -0.32944965 0.2209972 -0.18763976 -0.2762047 -0.16340628 0.2702082 -0.06769724
0.057778995 -0.028727083 -0.05725649 0.018865936 0.08199954 -0.30228293 0.08275093 0.11705457
0.23288769 -0.07471322 0.035667256 -0.06047743 -0.17693442 -0.16404164 -0.295266 -0.31724027
0.08046378 -0.28716448 0.0028078267 -0.07851173 0.07311955 0.049834028 -0.07013297 0.22902352
0.3253788 -0.262302 -0.220566 -0.28883958 -0.076428935 -0.083505146 0.043168597 0.08934645
-0.22946928 0.0027359484 0.0955258 -0.13698834 0.22957273 0.05215237 -0.24587634 -0.33208942
0.0006306689 0.05992293 0.25647992 0.04551223 -0.08203092 0.30945766 0.27169362 0.21946098
-0.0042527686 0.100944184 -0.042333614 0.24055114 0.1120801 -0.036367945 -0.22439857 -0.013981995
-0.18396264 0.016811274 0.2921948 -0.17908391 -0.06090187 0.24581753 -0.073305465 0.020075195
-0.046289384 0.23626353 -0.131335 -0.16331185 -0.1984757 0.024450628 -0.07235835 -0.27391565
-0.25141197 -0.15778242 0.25609413 -0.12751769 -0.30730093 0.21605231 -0.048264768 -0.010028989
0.3133876 0.0126732765 0.28480867 0.052958425 0.15797128 0.23143 -0.1924028 -0.023908995
-0.02744767 -0.07751714 0.10272295 -0.028733911 0.16851974 -0.0052593444 0.027429026 -0.24022125
-0.20551288 -0.057503078 0.3109307 0.05918492 0.2836291 -0.1072248 -0.050223444 0.121528275
0.043382462 0.18859269 -0.31598753 -0.3286257 0.00040139334 -0.07600671 0.18271069 -0.086733036
-0.14318871 -0.07235413 -0.24803576 0.25151965 0.020688634 0.25044924 0.12309874 0.30601698
0.30301172 -0.09588658 -0.12352117 -0.08368875 0.11683891 0.25811955 -0.2725947 0.04070399
-0.3015947 0.12046312 0.045511685 0.038943443 -0.29273388 -0.051736888 0.22905956 0.267577
0.26767063 0.014372838 0.04656754 -0.015295506 0.26391083 0.25428465 0.01606839 0.25377202
-0.16447994 0.23960902 0.22067311 0.069694944 0.0071989633 -0.10932295 0.115721606 0.11124379
0.12579301 0.0007790683 -0.054913945 -0.01689452 -0.016862674 0.26466095 -0.16855527 -0.2653014
0.30342296 -0.043522615 0.07163974 0.025436943 0.09157974 -0.23166668 -0.28916565 0.12830053
-3.405561e-38 -0.012433943 0.07247889 -0.27388206 0.12244331 0.15887909 0.23099868 -0.024560891
0.19160356 -0.30199593 0.15926394 -0.18739744 0.33257577 0.22940066 0.01212881 -0.03983498
-0.06219924 -0.08214009 -0.087579 0.24037673 -0.0049775024 0.27165687 0.12238407 0.036030814
-0.19450803 0.04125539 0.18832615 0.32884157 -0.28320476 -0.061610904 -0.036784507 0.0027775792
0.21245663 0.035273187 -0.20911863 -0.24379228 0.07774681 -0.08819284 -0.22211668 0.13719048
-0.2146577 0.046179842 0.13440241 -0.10365086 0.15942375 -2.1042239e-05 0.12502778 0.28231165
0.3285255 -0.18790886 -0.03321989 -0.05369611 0.08597839 -0.18004622 -0.3333835 0.1562071
0.062116023 0.04375461 0.06829819 0.14482899 0.01940194 0.0014266608 -0.015860634 0.3231045
0.1907074 -0.2747835 0.008418057 0.09944196 0.2947207 0.18764384 -0.074304916 -0.26055977
00000000: 2d01 0e3e 6bf6 8b3e c0c5 cabd 13aa 823e
00000010: c731 1fbc 8f56 983d 97a8 513e 0d57 c0bd
00000020: 322f c03d a0ad a8be 174d 623e a324 40be
00000030: b46a 8dbe fa53 27be bb58 8a3e daa4 8abd
00000040: aba9 6c3d 0f55 ebbc c885 6abd bc8c 9a3c
00000050: 60ef a73d d4c4 9abe 5279 a93d 4eba ef3d
00000060: 1c7a 6e3e 3f03 99bd d417 123d 2eb7 77bd
00000070: 4c2e 35be 88fa 27be 1b2d 97be 516d a2be
00000080: 32ca a43d 3907 93be 8403 383b c2ca a0bd
00000090: b4bf 953d c41e 4c3d e0a1 8fbd 2485 6a3e
000000a0: 0d98 a63e 734c 86be 0edc 61be c8e2 93be
000000b0: c686 9cbd bf04 abbd 8ed1 303d 46fb b63d
000000c0: fff9 6abe 994d 333b 08a3 c33d ac46 0cbe
000000d0: 1d15 6b3e b99d 553d 02c7 7bbe a007 aabe
000000e0: 7953 253a bf71 753d 5651 833e 086b 3a3d
000000f0: d4ff a7bd 3c71 9e3e 6d1b 8b3e 61ba 603e
00000100: cf5a 8bbb d3bb ce3d 0366 2dbd 0a53 763e
00000110: 408a e53d 8ef6 14bd bdc8 65be bd14 65bc
00000120: b460 3cbe ccb7 893c 8f9a 953e c661 37be
00000130: 3d74 79bd 97b7 7b3e 2d21 96bd bc74 a43c
00000140: f099 3dbd 11ef 713e af7c 06be 393b 27be
00000150: 373d 4bbe af4c c83c 9d30 94bd ac3e 8cbe
00000160: 12b9 80be b791 21be c51e 833e ff93 02be
00000170: 8c56 9dbe d13c 5d3e 47b1 45bd a150 24bc
00000180: 5774 a03e 93a3 4f3c 71d2 913e efea 583d
00000190: 39c3 213e fcfb 6c3e 3d05 45be ccdc c3bc
000001a0: f0d9 e0bc 4ec1 9ebd 6960 d23d 6163 ebbc
000001b0: 7090 2c3e 9456 acbb d6b2 e03c 8ffc 75be
000001c0: f871 52be 5988 6bbd 4f32 9f3e e36b 723d
000001d0: d537 913e ad98 dbbd 19b7 4dbd d1e3 f83d
000001e0: cfb1 313d 711e 413e 1ec9 a1be a141 a8be
000001f0: 1a72 d239 68a9 9bbd 8318 3b3e 17a1 b1bd
00000200: 10a0 12be 672e 94bd 16fd 7dbe 2fc7 803e
00000210: 367b a93c e23a 803e 311b fc3d 42ae 9c3e
00000220: 5a24 9b3e 2f60 c4bd abf8 fcbd 0265 abbd
00000230: 3d49 ef3d 3f28 843e 8891 8bbe 3ab9 263d
00000240: 9f6a 9abe 5eb5 f63d 766a 3a3d 2983 1f3d
00000250: 37e1 95be 0fea 53bd 978e 6a3e daff 883e
00000260: 200c 893e 0d7c 6b3c 9bbd 3e3d 019a 7abc
00000270: 521f 873e 9931 823e dba1 833c 68ee 813e
00000280: 6e6d 28be 115c 753e 22f8 613e 39bc 8e3d
00000290: 48e5 eb3b b6e4 dfbd 73ff ec3d c9d3 e33d
000002a0: e2cf 003e 633a 4c3a 72ed 60bd 6066 8abc
000002b0: 9723 8abc a481 873e c199 2cbe 96d5 87be
000002c0: 415a 9b3e c544 32bd dbb7 923d 2361 d03c
000002d0: 298e bb3d 083a 6dbe 850d 94be 3761 033e
000002e0: 986a 3981 bdb7 4bbc d06f 943d 453a 8cbe
000002f0: 8fc3 fa3d 33b1 223e eb8a 6c3e ec33 c9bc
00000300: b933 443e 369f 9abe 1616 233e 1de5 3fbe
00000310: 5f47 aa3e 02e8 6a3e ebb7 463c 012a 23bd
00000320: a1c4 7ebd 1039 a8bd 9e5c b3bd 5125 763e
00000330: 511a a3bb 9c16 8b3e 80a4 fa3d 0c95 133d
00000340: 1d2d 47be 69fb 283d 92d8 403e ec5d a83e
00000350: 3700 91be b75b 7cbd 5aab 16bd 0c08 363b
00000360: 3b8e 593e 9e7a 103d 3223 56be afa4 79be
00000370: b839 9f3d 739e b4bd 8e72 63be a97b 0c3e
00000380: 3acf 5bbe 1327 3d3d c9a0 093e e746 d4bd
00000390: fb3f 233e dd83 b0b7 4807 003e 278b 903e
000003a0: 7f34 a83e 2e6b 40be 9411 08bd 74f0 5bbd
000003b0: 7015 b03d 095e 38be 3eb1 aabe c1f4 1f3e
000003c0: 5f6d 7e3d 0938 333d ecdf 8b3d 0d4e 143e
000003d0: d1f0 9e3c cbfe ba3a 29ee 81bc f46d a53e
000003e0: cd48 433e 6cb0 8cbe e4eb 093c 3aa8 cb3d
000003f0: a2e5 963e b525 403e 2d2d 98bd 1768 85be

weight_hh_l0 f4 [27, 9]
0.2443876 -0.09318218 0.20573814 0.17275158 0.13298205 0.06763847 -0.24419622 -0.23730776
0.04314194 0.07570963 -0.12403201 -0.007836488 -0.113232166 0.111032195 0.27083397 0.26973286
-0.017369991 0.00066210405 0.0036256942 -0.080217995 -0.19289295 0.2411217 0.009237292 -0.19884776
-0.27922925 -0.09602153 -0.052551743 -0.018153153 0.1318538 -0.14724602 -0.2696332 -0.10188015
0.08869741 -0.076595895 0.33019772 -0.27652687 -0.29683605 0.28112915 0.32992816 -0.24761517
-0.23425505 0.30757922 -0.031081215 0.024805354 -0.028251624 0.047278877 -0.22916816 0.1639108
0.2924829 -0.2539217 0.16998285 0.16942348 -0.2138507 0.2346741 0.23170887 0.19511533
-0.0019336485 -0.32988635 0.23252077 0.0770749 -0.32948774 0.27651152 0.10596764 0.111977495
-0.11540502 0.12978089 0.25952247 -0.13632914 -0.15999095 0.04582352 -0.031337637 0.08753211
-0.047691654 -0.329035 0.17444049 0.11716767 0.3117527 0.1559442 -0.25579023 0.15654066
0.13222155 -0.25685176 0.010524465 -0.046307232 -0.3185937 -0.20707946 -0.22160567 0.15881413
-0.28235433 0.27544758 0.09862835 0.124560855 0.16489281 -0.03167123 0.15242618 -0.15391299
0.032036323 0.037258968 0.08449824 -0.09064945 -0.12396548 -0.16019414 -0.016877135 0.026840944
-0.29338247 0.2572044 0.28858697 0.03378234 -0.09671755 0.29420495 -0.17413098 0.036908776
-0.1527959 -0.25307864 0.06559271 -0.1096318 -0.031221913 -0.16980189 0.0057299663 -0.19769853
-0.25736287 0.13037361 0.18677483 0.15424001 0.19419701 -0.22478816 0.27589917 -0.08507129
-0.13350908 0.04415539 0.3100339 0.121013366 0.21340159 -0.32711503 0.061347622 -0.230891
-0.2433487 -0.03659755 0.022260945 0.20414571 -0.07418666 0.22959821 -0.19225031 0.2656637
-0.29250723 -0.2512489 -0.31511113 -0.19494559 -0.13122052 -0.1361609 -0.24325414 -0.12749058
-0.21616715 0.08057711 0.30041906 -0.0023969961 0.29584563 -0.29118338 -0.08559276 -0.17681114
-0.25281203 -0.1036491 -0.2316958 -0.05133027 0.3199119 -0.06173519 0.20048855 0.047298763
0.04856204 -0.26987222 -0.12828013 0.17661007 0.20702231 0.21550323 -0.1701274 0.29294422
-0.08651601 0.11014014 0.02382005 -0.07717855 0.23980491 0.0006683234 0.05473541 0.3068476
-0.2321491 0.05213449 -0.08654693 0.12636173 -0.23501357 -0.010216981 -0.24379885 -0.20564875
-0.0030414236 -0.13950193 0.27111554 0.09569937 0.30625707 0.07230354 -0.1009349 0.1669595
-0.22031212 0.15456855 -0.25854838 0.2978729 -0.069634825 0.12626943 -0.043497283 -0.23401098
-0.32186317 0.054185584 -0.064842165 -0.12711449 -0.2589267 -0.28128684 -0.005863066 0.20317154
-0.13140473 0.20935905 -0.19181503 -0.08423329 -0.32976434 -0.23834014 -0.05392971 0.113649994
0.27811378 -0.037829712 0.27827296 -0.25108564 0.18163377 0.13631591 0.16979447 0.26562086
-0.3237018 0.11856874 -0.1962652 -0.22415656 -0.22589104 0.18926011 -0.30146185 -0.1055551
-0.31995326 0.0621071 -0.21685925
00000000: be40 7a3e 4cd6 bebd 05ad 523e cae5 303e
00000010: 722c 083e 0a86 8a3d 930e 7abe ce00 73be
00000020: 9ab5 303d a70d 9b3d 7f04 febd 9d64 00bc
00000030: 44e6 e7bd d964 e33d c0aa 8a3e 6d1a 8a3e
00000040: 834b 8ebc 0d91 2d3a 0e9d 6d3b 5549 a4bd
00000050: bb85 45be 9be8 763e 0358 173c bf9e 4bbe
00000060: 23f7 8ebe f0a6 c4bd 7f40 57bd ecb5 94bc
00000070: af04 073e a9c7 16be 5d0d 8abe 8aa6 d0bd
00000080: fda6 b53d 4fde 9cbd ad0f a93e ee94 8dbe
00000090: e5fa 97be 29f0 8f3e 58ec a83e d58e 7dbe
000000a0: 8ee0 6fbe 067b 9d3e 089e febc 9934 cb3c
000000b0: f36f e7bc 7fa7 413d 0fab 6abe 3cd8 273e
000000c0: 52c0 953e 0602 82be fc0f 2e3e 597d 2d3e
000000d0: aefb 5abe 684e 703e 1745 6d3e 50cc 473e
000000e0: 7a72 fdba dde6 a8be ed19 6e3e 72d9 9d3d
000000f0: 9eb2 a8be eb92 8d3e 9005 d93d 7554 e53d
00000100: 7859 ecbd 48e5 043e 21e0 843e de99 0bbe
00000110: abd4 23be 71b1 3b3d e55b 00bd 0944 b33d
00000120: 5358 43bd 4777 a8be 87a0 323e 9af5 ef3d
00000130: 0d9e 9f3e d6af 1f3e f0f6 82be 324c 203e
00000140: 1665 073e 1382 83be ce6e 2c3c a7ac 3dbd
00000150: b71e a3be a30c 54be 99ec 62be 2ca0 223e
00000160: bf90 90be 7707 8d3e a9fd c93d c319 ff3d
00000170: a9d9 283e b1b9 01bd 9c15 1c3e 5e9b 1dbe
00000180: 8538 033d dc9c 183d 6a0d ad3d 6ba6 b9bd
00000190: 9de1 fdbd ef09 24be eb41 8abc 8ae1 db3c
000001a0: 3a36 96be 4cb0 833e acc1 933e 5a5f 0a3d
000001b0: da13 c6bd 08a2 963e 644f 32be a82d 173d
000001c0: 8776 1cbe 8693 81be 7955 863d a386 e0bd
000001d0: 19c5 ffbc 8ce0 2dbe 71c2 bb3b 7c71 4abe
000001e0: 11c5 83be a980 053e e741 3f3e 18f1 1d3e
000001f0: 95db 463e de2e 66be a842 8d3e db39 aebd
00000200: 9bb6 08be 48dc 343d c3bc 9e3e dbd5 f73d
00000210: f285 5a3e 9f7b a7be a547 7b3d b16e 6cbe
00000220: 6730 79be 50e7 15bd 965c b63c 930b 513e
00000230: 2def 97bd cb1b 6b3e 44dd 44be 1305 883e
00000240: 82c3 95be b2a3 80be 3f56 a1be d19f 47be
00000250: ac5e 06be c36d 0bbe 9d17 79be e48c 02be
00000260: ec5a 5dbe 9d05 a53d 87d0 993e ec16 1dbb
00000270: 1479 973e fd15 95be 424b afbd fb0d 35be
00000280: 9470 81be fb45 d4bd aa41 6dbe b03f 52bd
00000290: 7ecb a33e 0ade 7cbd df4c 4d3e 59bc 413d
000002a0: fde8 463d b12c 8abe de5b 03be 45d9 343e
000002b0: a8fd 533e e1ac 5c3e e135 2ebe c9fc 953e
000002c0: 4e2f b1bd 2791 e13d 4422 c33c ca0f 9ebd
000002d0: 6b8f 753e 6d32 2f3a 3d32 603d 211b 9d3e
000002e0: 7eb8 6dbe fa8a 553d 843f b1bd f864 013e
000002f0: 66a7 70be 2065 27bc 68a6 79be 9695 52be
00000300: 9f52 47bb 98d9 0ebe a8cf 8a3e 08fe c33d
00000310: bacd 9c3e e113 943d f5b6 cebd 6ef7 2a3e
00000320: 8099 61be 3847 1e3e 7460 84be cc82 983e
00000330: b49c 8ebd c64c 013e 352a 32bd 93a0 6fbe
00000340: 40cb a4be b4f1 5d3d f8cb 84bd 4d2a 02be
00000350: 0a92 84be d404 90be f61e c0bb 330c 503e
00000360: f68e 06be 3862 563e 296b 44be 8182 acbd
00000370: dfd6 a8be 700f 74be 66e5 5cbd 54c1 e83d
00000380: ee64 8e3e 54f3 1abd cb79 8e3e 4c8e 80be
00000390: 34fe 393e 6696 0b3e 9ade 2d3e 75ff 873e
000003a0: 3ebc a5be 2bd4 f23d bff9 48be 4c89 65be
000003b0: fb4f 67be 67cd 413e 3559 9abe 462d d8bd
000003c0: ead0 a3be 0464 7e3d 5a10 5ebe

bias_ih_l0 f4 [27]
0.047089566 0.15588778 0.2041914 0.24888088 0.051399194 0.13443898 0.23611431 0.3057479
-0.33198327 -0.30818284 -0.07506246 0.23234826 0.06135934 0.30968216 0.24660334 0.21411446
-0.25918362 0.1156489 0.018077862 -0.162803 -0.16615167 -0.23109044 0.078747384 0.114715785
0.19625355 -0.24538288 0.33175176
00000000: fde0 403d 0ca1 1f3e 8d17 513e a1da 7e3e
00000010: f687 523d 5faa 093e f3c7 713e fd8a 9c3e
00000020: b6f9 a9be 24ca 9dbe 59ba 99bd b4ec 6d3e
00000030: ee53 7b3d a98e 9e3e 9685 7c3e d240 5b3e
00000040: b7b3 84be 55d9 ec3d 0618 943c d4b5 26be
00000050: aa23 2abe f9a2 6cbe 4f46 a13d 1cf0 ea3d
00000060: b1f6 483e a645 7bbe 5edb a93e

bias_hh_l0 f4 [27]
-0.07922504 -0.03843985 0.058677264 -0.087030776 0.06362394 -0.18074101 0.23847704 0.29405957
-0.28158385 0.15485573 -0.16401538 0.094747216 0.05322317 0.22733782 0.120178275 0.31272155
-0.30436185 -0.042171955 0.22438705 -0.07887796 0.27210492 0.17266814 0.21283239 0.027309697
-0.03487314 -0.18303408 -0.24050963
00000000: bd40 a2bd 1b73 1dbd 9257 703d 313d b2bd
00000010: 454d 823d 2c14 39be 5333 743e fa8e 963e
00000020: c22b 90be 8092 1e3e a6f3 27be d40a c23d
00000030: 8a00 5a3d 3fcb 683e 0720 f63d 0a1d a03e
00000040: 51d5 9bbe 80bc 2cbd b8c5 653e c58a a1bd
00000050: 5651 8b3e ebcf 303e bcf0 593e 96b8 df3c
00000060: 23d7 0ebd 496d 3bbe 2848 76be

weight_ih_l0 f4 [27, 24]
-0.19096594 -0.09710241 0.15821022 -0.22760084 -0.25845262 -0.16829671 -0.22433023 -0.1536915
-0.21268986 -0.20173131 0.00826538 -6.0301616e-05 0.15785018 -0.03576468 0.16801114 0.11075503
0.22234727 -0.08219714 0.24049838 0.0002575177 -0.26582402 0.11232131 -0.21760917 -0.10164502
-0.027554741 0.31989905 0.07093667 0.27028692 0.09301117 -0.10416913 0.06543182 0.03390705
0.035837274 -0.23923616 -0.15281636 0.10338233 -0.07757474 -0.02115125 -0.323824 0.0281164
-0.16320522 0.33095145 -0.014850541 -0.010166575 0.13040018 -0.14378381 -0.04134227 0.24767102
-0.09989595 0.18335256 -0.154465 0.077547796 0.29707628 0.13844746 0.035909884 -0.21583332
0.19375901 0.021868357 -0.1511338 -0.00016721043 0.10292456 0.072530106 0.12918343 -0.064233914
0.30288932 0.22646627 -0.026223226 0.13365924 -0.25168034 0.069767825 -0.14671515 -0.19184132
-0.18389198 0.30350974 -0.04075099 0.17844817 0.29616255 0.11251816 -0.21450852 0.20184062
0.2131234 -0.17066419 0.1915609 -4.208025e-05 -0.09225117 -0.23916581 0.27073312 -0.10017118
-0.0904764 -0.14415625 0.12661074 0.021265376 -0.114207305 -0.29005164 -0.2756448 -0.11596204
0.20562439 -0.14431618 0.23942931 -0.18705142 0.013411505 -0.2635452 -0.19201757 -0.23407133
0.20475282 0.18784066 -0.08037547 -0.019894226 0.16202092 -0.23483743 -0.17646563 0.31388208
-0.26528263 0.16076742 -0.29608607 -0.11807983 -0.07295698 -0.29525003 -0.27469242 0.17802475
0.16897002 0.26830605 -0.23614968 -0.16102038 0.06637318 0.15735516 -0.030686643 0.09667808
-0.29917836 -0.12151554 0.25041163 -7.9091e-06 0.056867342 -0.19906053 0.00044551006 0.24620308
-0.072795115 -0.07415665 0.082780056 -0.20445943 -0.0596287 -0.049153134 0.0031948714 -0.1678242
0.078359924 -0.068661995 -0.25012803 0.16659756 -0.17098236 0.27438757 0.031901754 0.22361992
0.18746585 -0.29361 -0.0005388009 -0.00018495166 -0.25987607 -0.0073133972 0.2724621 -0.21432452
-0.18562038 -0.32765839 0.169543 0.14429976 0.072159745 0.12726712 0.10313779 -0.09126007
0.21915604 -0.21819422 -0.08882378 -0.3229822 -0.06926529 0.038804397 -0.08880554 0.0012055789
-0.26024225 -0.31293914 0.097195365 0.08624488 0.06464175 0.0128512075 0.07890789 0.13263072
-0.11153689 0.26328313 0.16171822 0.121847175 0.12303907 0.14531866 -0.23209366 0.21374391
-0.31221718 -0.069827415 0.121545434 -0.0022090185 0.26219872 -0.010645604 -0.23790096 0.016402468
0.23319378 0.29640606 0.18528435 -0.006236193 0.32958135 -0.17673115 -0.24352448 -0.25130796
-0.2204995 -0.30030054 -0.1154493 0.01675576 0.25668097 -0.124249816 0.25806746 -0.05850486
0.14250098 0.304461 -0.23362057 0.059321176 -0.030128378 -0.31309256 0.17548434 -0.12799507
-0.12860098 -0.25474313 -0.1302303 1.0468361e-14 -0.007062201 -0.062464442 0.08858085 -0.19985014
-0.27304572 0.23913772 -0.09630314 0.07269491 -0.09769533 0.1539759 0.0317005 -0.09105933
0.29108772 0.31355053 -0.25725752 -0.091423474 -0.30371025 0.23435429 -0.06430139 -0.111390784
0.06402257 0.22999403 -0.16507617 0.0043434654 0.31172836 -0.19623604 0.23313339 -0.25037438
00000000: 938c 43be a1dd c6bd dc01 223e 3210 69be
00000010: e753 84be f955 2cbe d3b6 65be 4e61 1dbe
00000020: 5fcb 59be a792 4ebe 846b 073c 5eec 7cb8
00000030: 7aa3 213e fc7d 12bd 1d0b 2c3e 88d3 e23d
00000040: 01af 633e f956 a8bd 3545 763e 7103 8739
00000050: 161a 88be b708 e63d f0d4 5ebe 442b d0bd
00000060: 7bba e1bc cfc9 a33e 3f47 913d 0c63 8a3e
00000070: a47c be3d a056 d5bd 1e01 863d 1ee2 0a3d
00000080: 1bca 123d 53fa 74be e47b 1cbe 1dba d33d
00000090: 81df 9ebd 6345 adbc 42cc a5be 5d54 e63c
000000a0: 451f 27be 7872 a93e af4f 73bc b591 26bc
000000b0: a087 053e 103c 13be 8356 29bd 799d 7d3e
000000c0: 3f96 ccbd c6c0 3b3e 132c 1ebe 61d1 9e3d
000000d0: 621a 983e 2cc5 0d3e 3e16 133d 6903 5dbe
000000e0: c368 463e 4525 b33c d2c2 1abe 3555 2fb9
000000f0: 1dca d23d aa8a 943d a948 043e 128d 83bd
00000100: 4f14 9b3e c6e6 673e 17d2 d6bc f8dd 083e
00000110: 3fdc 80be 6fe2 8e3d 7f3c 16be 0d72 44be
00000120: 2e4e 3cbe a165 9b3e 83ea 26bd 1ebb 363e
00000130: 9ea2 973e ec6f e63d 1fa8 5bbe 4faf 4e3e
00000140: 053d 5a3e 98c2 2ebe 8a28 443e 537f 30b8
00000150: 2eee bcbd e2e7 74be 889d 8a3e 8c26 cdbd
00000160: b14b b9bd b29d 13be 3fa6 013e ba34 ae3c
00000170: 85e5 e9bd a681 94be 5121 8dbe 827d edbd
00000180: 338f 523e 9fc7 13be f52c 753e 688a 3fbe
00000190: eebb 5b3c 65ef 86be 41a0 44be 65b0 6fbe
000001a0: b9aa 513e 4d59 403e e59b a4bd 37f9 a2bc
000001b0: d0e8 253e 3979 70be 68b3 34be 27b5 a03e
000001c0: 20d3 87be 37a0 243e 9898 97be d7d3 f1bd
000001d0: 786a 95bd 032b 97be 7ca4 8cbe 1f4c 363e
000001e0: 7a06 2d3e 695f 893e 39d1 71be 87e2 24be
000001f0: a9ee 873d b621 213e 8e62 fbbc 28ff c53d
00000200: e82d 99be 24dd f8bd f435 803e 53b1 04b7
00000210: bbed 683d 86d6 4bbe 5993 e939 a91c 7c3e
00000220: 9b15 95bd 71df 97bd 9788 a93d d05d 51be
00000230: 393d 74bd cc54 49bd 0c61 513b 1bda 2bbe
00000240: 2b7b a03d a99e 8cbd c810 80be 8d98 2a3e
00000250: 0016 2fbe 877c 8c3e 6aab 023d 9ffc 643e
00000260: 0cf7 3f3e 0d54 96be 513e 0dba 95ef 41b9
00000270: 7a0e 85be 39a5 efbb 2780 8b3e e377 5bbe
00000280: 4513 3ebe d7c2 a7be ae9c 2d3e 51c3 133e
00000290: 7dc8 933d 5052 023e e839 d33d 8fe6 babd
000002a0: 716a 603e 4e6e 5fbe 3ee9 b5bd ec5d a5be
000002b0: f6da 8dbd 5cf1 1e3d aedf b5bd 8404 9e3a
000002c0: 793e 85be 8f39 a0be 5d0e c73d 28a1 b03d
000002d0: e562 843d df8d 523c 769a a13d 59d0 073e
000002e0: 746d e4bd 0ccd 863e 7699 253e 038b f93d
000002f0: e8fb fb3d 6ace 143e f6a9 6dbe afdf 5a3e
00000300: eeda 9fbe ad01 8fbd d0ec f83d 2ec5 10bb
00000310: e93e 863e e66a 2ebc 4f9c 73be 785e 863c
00000320: 5aca 6e3e 89c2 973e 2ebb 3d3e fa58 ccbb
00000330: e3be a83e 03f9 34be 7b5e 79be 70ab 80be
00000340: 9fca 61be fec0 99be af70 ecbd 6043 893c
00000350: b06b 833e b076 febd 6b21 843e cba2 6fbd
00000360: c7eb 113e 50e2 9b3e 3b3a 6fbe c3fa 723d
00000370: cacf f6bc ab4d a0be 2bb2 333e 2411 03be
00000380: faaf 03be b16d 82be 175b 05be cb94 3c28
00000390: 096a e7bb b7da 7fbd e069 b53d 84a5 4cbe
000003a0: a6cc 8bbe 85e0 743e 953a c5bd 12e1 943d
000003b0: 7d14 c8bd dcab 1d3e 62d8 013d 507d babd
000003c0: 7309 953e b289 a03e 42b7 83be 3b3c bbbd
000003d0: e97f 9bbe 92fa 6f3e 72b0 83bd da20 e4bd
000003e0: 441e 833d 8e83 6b3e ba09 29be a153 8e3b
000003f0: dc9a 9f3e 1af2 48be 85ba 6e3e 1231 80be

weight_hh_l0 f4 [27, 9]
-0.05149235 0.012200871 0.027679313 -0.08095011 -0.21934882 -0.11907191 -0.2146663 0.32892916
0.01134316 0.010653804 -0.0049410416 0.048986834 0.11586476 0.16880555 -0.27605632 -0.1833888
-0.27466545 -2.284548e-05 -0.018088197 0.08477833 -0.19159777 0.014754779 0.048238095 0.12344912
0.29517984 0.3190898 -0.009570181 0.012852399 -0.00083860836 -0.019562325 4.2421743e-05 0.30566075
-0.1794855 0.29550394 0.15413783 -0.00014895081 -0.09892912 0.059709135 0.014987625 -0.061235573
-0.16454983 0.12599431 -2.2951148e-05 -0.2965513 -0.00037891173 -0.058655757 -1.3219781e-05 0.08888456
3.480292e-05 -0.16540383 -0.24987483 -0.1366386 -0.2640545 0.0024879668 0.15248176 -0.035305753
0.14715618 0.023697555 0.09424649 -0.022931669 0.24180797 0.33167678 0.010677319 -0.153267
-0.010404707 0.05847703 -0.11493757 0.23081395 -0.14716773 0.054024763 0.030355386 0.023626262
0.04248917 8.716672e-05 0.019897113 0.0005180083 0.056445293 -0.3029015 0.040741082 0.30014512
-0.008462066 0.009341555 -0.0007313201 -0.2974486 0.00048223636 0.17542042 -0.19683772 0.22599377
-0.30029064 -3.3142933e-06 0.004249528 0.033248734 0.21525647 -0.0034639977 -0.07596867 0.20373268
-0.12607087 0.027167723 -0.07683192 -0.0027083522 0.0042838654 0.16416904 -0.004561575 -0.004147263
-0.10303766 -0.27317548 -0.09500411 -0.00045502884 0.04637937 0.00035455643 0.080515385 -0.028173406
-0.21600023 0.07516281 -0.04270128 -0.17617887 0.102778465 -0.022652894 0.01135115 -0.22388291
0.013660414 0.24673197 0.27432534 -0.22809693 -0.033553544 -0.11075679 -0.09437818 -0.09542531
0.06008005 -0.008975944 0.1382318 -0.07603145 0.24973208 0.25890824 1.1526694e-05 0.008098568
2.8161267e-05 0.122533835 -0.00022732427 -0.116664805 0.22516334 -0.12054263 0.046847038 -0.06196771
0.0024944788 0.0014435204 -0.18234879 -0.0825892 0.0975377 -0.017418362 -0.05672943 0.09764505
0.005867143 0.024897566 -0.0004081509 0.21968144 -0.0016838727 -0.30365574 -0.22181857 -0.06909048
-0.18425588 -0.015009236 0.06554345 -0.014856219 -0.25253597 -0.11567722 0.015940396 -0.07617231
0.18272232 0.0054001575 -0.014572335 0.01817013 0.11026956 0.07077859 -0.0015129655 -0.22116804
-0.31967282 0.2604236 0.118079565 0.08020576 -0.19563308 0.037860155 -0.17519067 0.10065345
-0.32758293 0.12618926 -0.19575337 -0.1778811 -0.10517159 -0.07644058 -0.011847514 0.03910272
-0.00053931476 -0.06634716 -0.104693964 0.23148541 -0.18546262 -0.00015612114 -0.029878167 0.09685742
0.094465114 -0.12623452 -0.082762904 -0.31139633 0.031473 0.15073839 0.115359075 0.06842899
0.044486005 0.14626136 0.01631768 -0.18148689 0.13433403 -0.18640012 0.20122491 0.11686099
0.13317928 0.00010766863 -0.18572444 -0.00014317756 -0.23790967 -0.15261781 -0.32506236 -0.24995361
0.00033102848 -0.20477326 -0.067139454 -0.30882528 -0.101524 -0.28739733 0.29858643 0.30697316
-0.03714557 0.00027991182 -0.23303294 0.053041983 -0.034816753 0.0031850028 -0.004480105 0.21524645
-0.023291254 0.020748328 -8.1556995e-05
00000000: a4e9 52bd 29e6 473c babf e23c 2cc9 a5bd
00000010: fa9c 60be f9db f3bd 7cd1 5bbe 6769 a83e
00000020: a9d8 393c 4b8d 2e3c 76e8 a1bb 6ba6 483d
00000030: 814a ed3d 5ddb 2c3e 4157 8dbe 46ca 3bbe
00000040: f3a0 8cbe 4ba4 bfb7 b32d 94bc 43a0 ad3d
00000050: 3532 44be 07be 713c 4f95 453d e4d2 fc3d
00000060: d021 973e bd5f a33e 40cc 1cbc de92 523c
00000070: 0ed6 5bba 2b41 a0bc 00ee 3138 917f 9c3e
00000080: 0ccb 37be 4b4c 973e 4fd6 1d3e ae2f 1cb9
00000090: 5a9b cabd 9191 743d a88e 753c 27d2 7abd
000000a0: c07f 28be a704 013e 3787 c0b7 92d5 97be
000000b0: aca8 c6b9 0541 70bd 87ca 5db7 1c09 b63d
000000c0: 5af9 1138 9f5f 29be 30df 7fbe fdea 0bbe
000000d0: 2732 87be 280d 233b 2e24 1c3e c49c 10bd
000000e0: 1cb0 163e 6021 c23c 4e04 c13d 32db bbbc
000000f0: 829c 773e 8ad1 a93e ecef 2e3c 06f2 1cbe
00000100: 8178 2abc 9c85 6f3d 6464 ebbd 7e5a 6c3e
00000110: 23b3 16be 1249 5d3d dcab f83c dd8b c13c
00000120: 2009 2e3d 47cd b638 45ff a23c f3ca 073a
00000130: 2e33 673d e815 9bbe 1fe0 263d 9fac 993e
00000140: 7aa4 0abc 520d 193c 10b6 3fba 2f4b 98be
00000150: abd4 fc39 69a1 333e d48f 49be e96a 673e
00000160: b2bf 99be 206b 5eb6 a03f 8b3b d32f 083d
00000170: 316c 5c3e 3d04 63bb 7695 9bbd 4d9f 503e
00000180: b918 01be d88e de3c 0e5a 9dbd 9c7e 31bb
00000190: ab5f 8c3b ee1b 283e 4479 95bb c3e5 87bb
000001a0: 6905 d3bd a8dd 8bbe 8491 c2bd f090 eeb9
000001b0: 4bf8 3d3d c2e3 b939 40e5 a43d eacb e6bc
000001c0: 2a2f 5dbe f6ee 993d 8ae7 2ebd 3c68 34be
000001d0: 847d d23d 9092 b9bc 2dfa 393c 9041 65be
000001e0: eecf 5f3c 4ea7 7c3e 5f74 8c3e 3e92 69be
000001f0: 716f 09bd 75d4 e2bd 5949 c1bd 586e c3bd
00000200: 8016 763d d60f 13bc a38c 0d3e 60b6 9bbd
00000210: c4b9 7f3e 9f8f 843e c662 4137 dbaf 043c
00000220: dc3b ec37 05f3 fa3d e55d 6eb9 f5ed eebd
00000230: 3891 663e 0edf f6bd aee2 3f3d dad1 7dbd
00000240: 697a 233b 8234 bd3a a4b9 3abe 8724 a9bd
00000250: d8c1 c73d f4b0 8ebc 1e5d 68bd 21fa c73d
00000260: 2a41 c03b fbf5 cb3c 16fd d5b9 2cf4 603e
00000270: 64b5 dcba c478 9bbe 6824 63be 4f7f 8dbd
00000280: 93ad 3cbe 4ce9 75bc a53b 863d 8067 73bc
00000290: 654c 81be 2ee8 ecbd 6f95 823c 3a00 9cbd
000002a0: 8f1b 3b3e cef3 b03b cec0 6ebc 86d9 943c
000002b0: 02d5 e13d 5ef4 903d b34e c6ba e079 62be
000002c0: 28ac a3be 3e56 853e b3d3 f13d eb42 a43d
000002d0: 0a54 48be 4013 1b3d 2f65 33be 6523 ce3d
000002e0: f3b8 a7be c237 013e 9273 48be 7726 36be
000002f0: 3464 d7bd e18c 9cbd 131c 42bc 2c2a 203d
00000300: cd60 0dba 05e1 87bd ca69 d6bd 830a 6d3e
00000310: eae9 3dbe 73b4 23b9 0fc3 f4bc 2f5d c63d
00000320: ed76 c13d 9f43 01be 997f a9bd 576f 9fbe
00000330: d5e9 003d 2a5b 1a3e 6141 ec3d 8024 8c3d
00000340: f536 363d 8ac5 153e a8ac 853c b3d7 39be
00000350: dc8e 093e acdf 3ebe e70d 4e3e d154 ef3d
00000360: 2660 083e 28cc e138 8c2e 3ebe ef21 16b9
00000370: 989e 73be d847 1cbe 936e a6be d7f3 7fbe
00000380: e48d ad39 15b0 51be 6980 89bd 591e 9ebe
00000390: d1eb cfbd be25 93be 52e0 983e 962b 9d3e
000003a0: f425 18bd 21c1 9239 30a0 6ebe 8d42 593d
000003b0: 039c 0ebd 7bbb 503b d8cd 92bb 9169 5c3e
000003c0: 4dcd bebc 66f8 a93c 9409 abb8

bias_ih_l0 f4 [27]
0.32676852 0.011777691 -0.27338216 -0.15545823 0.32199666 0.08803574 0.27124634 0.17583545
0.02317074 -0.3232589 -0.26286745 -0.30698523 -0.29755744 -0.21004365 0.31332693 -0.21221182
0.22924009 0.12543584 0.25889173 -0.10868792 -0.27516115 -0.17068437 0.12520309 -0.0056807273
0.11916275 -0.07045428 0.29548937
00000000: 344e a73e 37f7 403c bff8 8bbe 7130 1fbe
00000010: bfdc a43e 154c b43d cde0 8a3e 350e 343e
00000020: 90d0 bd3c 3182 a5be 9096 86be 2b2d 9dbe
00000030: 7359 98be af15 57be 636c a03e 0e4e 59be
00000040: eabd 6a3e 4172 003e 758d 843e c697 debd
00000050: ece1 8cbe e2c7 2ebe 3d35 003e 6525 babb
00000060: 9a0b f43d 554a 90bd 624a 973e

bias_hh_l0 f4 [27]
-0.12444283 -0.2553077 0.061289784 0.22308578 0.2050722 -0.11125788 -0.17842737 0.30613393
0.03167589 -0.32583755 -0.10145504 0.04322845 -0.31024918 0.07987863 0.21946587 0.15317824
0.263043 -0.18974592 -0.1729926 0.20468599 -0.0806861 0.1435904 0.15050782 0.116494186
-0.1912127 -0.2558295 0.23046145
00000000: e2db febd b1b7 82be ff0a 7b3d 9970 643e
00000010: 72fe 513e 2cdb e3bd aab5 36be 96bd 9c3e
00000020: 94be 013d 2ed4 a6be a9c7 cfbd 5110 313d
00000030: fbd8 9ebe 6897 a33d a9bb 603e c2da 1c3e
00000040: 92ad 863e c14c 42be f924 31be 3499 513e
00000050: c13e a5bd 5d09 133e b91e 1a3e 8194 ee3d
00000060: 43cd 43be 16fc 82be 16fe 6b3e

weight_ih_l0 f4 [27, 39]
-0.008095823 0.110001266 -0.0130213685 -0.28232858 -0.038913213 0.278503 0.10763408 0.18872657
0.047875836 -0.24371973 0.069486566 -0.33220398 -0.3214657 0.075640425 -0.26269475 -0.18170133
0.16361304 0.12183878 -0.0030631286 -0.13354835 -0.32618 -0.04274782 0.3196925 -0.20025314
-0.15834406 0.17724831 -0.06998049 0.25522995 0.28985664 0.11139595 0.27702764 0.15622649
-0.17025477 0.031774238 0.039139062 -0.25200507 0.048198547 0.1568619 -0.32280186 -0.045881465
1.9162985e-12 -0.12455592 0.3023337 0.042353146 -0.072202116 0.33212033 0.2894203 -0.0045915092
0.19619934 0.0064692693 0.26782644 -0.22740482 -0.27481705 -0.14575514 -0.24333219 -0.26670185
0.09714048 -0.023650857 -0.1528118 0.26829448 -0.29414508 -0.11102883 0.0749145 -0.1665399
0.049712993 -0.15726835 -0.09966656 -0.014193438 0.13117327 0.22624625 -0.07800926 -0.013513247
0.17219976 -0.057675235 0.028393034 0.247257 -0.094406724 -0.07456483 0.023708142 -1.21896625e-11
-0.2820224 -0.2039695 6.1523056e-38 -0.11871204 -0.23134534 -0.048564665 -0.026865665 0.13550164
-0.30605224 -0.30025232 -0.25002632 -0.11814471 0.10119415 -0.24114875 -0.26723763 -0.21419281
0.2941711 -0.07439873 0.16482997 -0.13378818 -0.15987188 0.2707813 0.024412656 0.06633758
-0.2636022 0.27281457 0.32420146 0.11946829 -0.10682227 0.16809717 0.103447065 -0.02652122
0.31040356 0.034755222 -0.12227222 0.1368492 0.25885692 -0.00045119942 0.096436724 0.081138596
0.059028145 -6.5413606e-06 -0.24708366 0.1460086 -0.23091424 -0.027964603 -0.16283263 0.26592147
0.03922004 0.21023016 0.100685745 0.18038686 0.030509029 -0.06755031 0.013252448 -0.10694145
-0.2989269 0.24259125 0.13192062 -0.21515046 0.098103374 0.116899125 0.051278077 -0.3128782
0.29513648 0.2384823 -0.24302602 -0.2193442 0.23798102 -0.27784535 -0.19978692 -0.1255152
-0.10828291 0.2561987 -0.14725578 0.16332518 -4.2263934e-16 4.1955622e-38 -0.30273825 0.020028476
0.003437146 0.10644145 0.31454563 0.32425812 0.06256344 -0.24063067 0.029736113 0.0127878925
0.09763802 -0.16577543 0.0052622957 -0.24670129 0.14943586 0.16247067 0.28106746 0.006055923
0.087040804 -0.19226564 0.110910326 -0.03160063 0.04212812 -0.22214149 -0.27047735 -0.084995165
0.28447694 0.29421 -0.045430217 -0.12991297 0.11182895 0.0037913958 0.03165361 -0.23669422
0.27400166 -0.084196895 0.080398455 -0.03157818 1.7395073e-30 -0.2107924 0.19553126 -9.405178e-39
-0.1821596 -0.30839196 -0.10382289 -0.11110367 0.29550117 -0.27536517 0.26430446 -0.12973139
-0.12579265 0.12668112 -0.08337985 -0.087539725 0.20327765 -0.23552832 -0.1630738 -0.16340438
-0.07424353 -0.29718938 0.19204007 -0.24702884 0.06728003 -0.046891265 0.11085577 0.05895349
0.15460013 0.15425104 0.11049091 -0.03577399 -0.19036329 0.10776413 -0.0294548 0.15590848
0.17746487 -0.10912644 0.0116074 0.08376367 0.084337704 -0.015421644 -0.079790115 -0.28561386
-0.26673877 0.29219905 -8.612389e-05 -0.28744107 0.14054579 0.31618235 0.20634599 0.09002836
-0.15535253 0.22678894 -0.15598807 -0.31925634 -0.3236188 0.14537823 -0.1015562 0.042361636
00000000: 58a4 04bc 5848 e13d 9457 55bc 5f8d 90be
00000010: 7663 1fbd f297 8e3e 426f dc3d 8a41 413e
00000020: 7419 443d aa91 79be f94e 8e3d a416 aabe
00000030: 2797 a4be 5ee9 9a3d ed7f 86be ea0f 3abe
00000040: 2d8a 273e 9c86 f93d c5be 48bb e6c0 08be
00000050: 1101 a7be 5718 2fbd bcae a33e 290f 4dbe
00000060: f224 22be 9580 353e ee51 8fbd 80ad 823e
00000070: 1768 943e 8f23 e43d 91d6 8d3e d6f9 1f3e
00000080: 4457 2ebe b425 023d 4850 203d cf06 81be
00000090: d76b 453d 68a0 203e 4946 a5be 34ee 3bbd
000000a0: f7d8 062c 2d17 ffbd 7ccb 9a3e 7e7a 2d3d
000000b0: b4de 93bd ad0b aa3e e62e 943e 5f74 96bb
000000c0: 7be8 483e 2afc d33b 8c20 893e cfdc 68be
000000d0: d2b4 8cbe d640 15be 132c 79be 258d 88be
000000e0: 97f1 c63d 71bf c1bc b27a 1cbe e55d 893e
000000f0: 2f9a 96be 1563 e3bd c66c 993d 6f89 2abe
00000100: da9f 4b3d f40a 21be fb1d ccbd 988b 68bc
00000110: 4952 063e 19ad 673e 52c3 9fbd aa66 5dbc
00000120: 2255 303e de3c 6cbd 8298 e83c f030 7d3e
00000130: 5058 c1bd 72b5 98bd 9437 c23c 5c71 56ad
00000140: 3d65 90be 61dd 50be 507b a701 4c1f f3bd
00000150: cbe5 6cbe beeb 46bd 6215 dcbc f1c0 0a3e
00000160: e1b2 9cbe acba 99be 7303 80be dbf5 f1bd
00000170: e13e cf3d b3ef 76be 5fd3 88be 5c55 5bbe
00000180: 989d 963e 5d5e 98bd 30c9 283e c5ff 08be
00000190: 74b5 23be d9a3 8a3e 0dfd c73c ffdb 873d
000001a0: def6 86be 5aae 8b3e bcfd a53e caab f43d
000001b0: a2c5 dabd aa21 2c3e 0edc d33d 0843 d9bc
000001c0: 37ed 9e3e 7e5b 0e3d dc69 fabd 3222 0c3e
000001d0: e588 843e f68e ecb9 9e80 c53d fe2b a63d
000001e0: 7fc7 713d dc7d dbb6 8003 7dbe 4783 153e
000001f0: c874 6cbe 0616 e5bc 99bd 26be dc26 883e
00000200: 31a5 203d 9346 573e 5434 ce3d 55b7 383e
00000210: 12ee f93c d157 8abd cc20 593c 1e04 dbbd
00000220: f20c 99be d769 783e 3316 073e 6750 5cbe
00000230: 6cea c83d cf68 ef3d f608 523d 9231 a0be
00000240: 211c 973e b434 743e d0db 78be c49b 60be
00000250: 4cb1 733e bf41 8ebe f194 4cbe 0e87 00be
00000260: 6ec3 ddbd 7a2c 833e 38ca 16be b73e 273e
00000270: 8fa2 f3a5 9a6d 6401 8200 9bbe c212 a43c
00000280: be41 613b fafd d93d 200c a13e 2905 a63e
00000290: 4321 803d e367 76be 2699 f33c 4f84 513c
000002a0: 71f6 c73d 09c1 29be 566f ac3b 439f 7cbe
000002b0: b705 193e b65e 263e 13e8 8f3e c470 c63b
000002c0: 7342 b23d 49e1 44be f424 e33d aa6f 01bd
000002d0: 898e 2c3d 0f79 63be 027c 8abe f211 aebd
000002e0: f6a6 913e b1a2 963e 0915 3abd e807 05be
000002f0: 9406 e53d 1179 783b 37a7 013d f85f 72be
00000300: f249 8c3e 6c6f acbd f2a7 a43d 1f58 01bd
00000310: 2720 0d0e f7d9 57be 5939 483e cf69 6680
00000320: 0c88 3abe 8de5 9dbe 18a1 d4bd 528a e3bd
00000330: ee4b 973e aafc 8cbe ea52 873e 4ed8 04be
00000340: cacf 00be b2b8 013e 0ec3 aabd 0748 b3bd
00000350: 0428 503e 562e 71be d1fc 26be 7a53 27be
00000360: fe0c 98bd 3529 98be 27a6 443e 21f5 7cbe
00000370: 1dca 893d 0e11 40bd 5a08 e33d 3779 713d
00000380: 7f4f 1e3e fcf3 1d3e 0f49 e23d bf87 12bd
00000390: 98ee 42be 71b3 dc3d 314b f1bc 79a6 1f3e
000003a0: 5ab9 353e af7d dfbd f72c 3e3c 498c ab3d
000003b0: 3fb9 ac3d 10ab 7cbc 0069 a3bd fb3b 92be
000003c0: fc91 88be 1d9b 953e 699d b4b8 7a2b 93be
000003d0: 3ceb 0f3e a7e2 a13e 5d4c 533e ca60 b83d
000003e0: bc14 1fbe 5c3b 683e 56bb 1fbe 9175 a3be
000003f0: 5db1 a5be 08de 143e b2fc cfbd 6583 2d3d

weight_hh_l0 f4 [27, 9]
0.2379253 -0.2014353 -0.073175825 0.05663805 0.07196404 0.10816976 -0.122225456 -0.03931363
-0.18921562 -0.05079539 0.0058029187 -0.31305176 0.049824603 0.2972525 0.26868877 -0.119859435
-0.13502528 0.13083835 -0.16547616 0.13800605 0.12471156 0.23516573 -0.15396078 0.29882726
-0.040835742 -0.32149294 -0.3288846 -0.13188624 0.05691984 -0.28611594 0.0028190576 -0.16985029
-0.004510628 0.22661692 0.17805736 -0.20967291 0.09314486 0.087126434 -0.1612671 0.23465413
-0.18343951 0.25759244 0.19505674 0.01925996 -0.09615562 -0.19281188 0.3019489 -0.29843086
0.17314778 -0.09481368 -0.19503756 0.18055391 0.15131932 0.22461464 -0.12654206 -0.09166368
0.19260119 -0.2413579 -0.22408916 -0.18616521 0.09450813 -0.1891621 -0.23693225 -0.14174901
-0.2716279 -0.0978912 0.22113483 -0.043198436 0.084250964 -0.2505932 -0.32956028 -0.14776784
0.15402806 0.060546625 -0.0613946 -0.28811216 0.06530472 0.0064805904 -0.007387657 0.32826442
-0.29959944 0.29674074 0.14911616 0.31944337 0.055665202 -0.24014172 -0.0141339 -0.118386015
0.31227136 0.16916467 -0.2575762 0.2975045 0.19556639 0.25280204 0.2877698 -0.26360288
0.27640843 -0.28500196 0.04698621 -0.0040466227 0.33018234 0.03325113 -0.32969147 0.06866814
0.2725373 -0.2084274 -0.1810081 -0.103860244 0.18905771 -0.23299642 -0.16063194 0.23557137
0.17274337 -0.3152131 -0.0728522 0.19074786 -0.14612402 0.2959388 -0.012717729 -0.2804898
0.31727183 -0.14701785 -0.20334858 0.14760165 0.08858907 -0.24038924 0.2150187 0.29255927
0.20179647 -0.118342236 0.14719293 0.0026712222 0.060745083 -0.26666945 -0.10771616 0.29889128
-0.24289306 -0.077581726 0.09879827 0.076537214 0.04290259 0.27599025 0.14701144 -0.08825743
-0.25198552 -0.12374084 -0.05454595 0.13199167 -0.30295327 -0.117356054 -0.25984272 -0.31962848
0.1502188 0.010414129 -0.07006896 -0.01595772 0.051151525 -0.15189 -0.09900136 0.23263073
0.22611898 -0.10412616 0.083771855 0.24732988 0.16583352 0.015183936 -0.0946133 -0.26743925
0.076122634 0.18516259 0.17843938 0.044320367 -0.019669978 -0.25126424 0.28906074 -0.14371154
-0.2769147 -0.20800562 -0.04506469 0.12714626 -0.13296007 0.08728382 0.24994756 0.13585855
0.21872385 0.32343677 0.23519182 -0.32643777 0.25534558 0.22753476 -0.13159785 -0.20613523
0.089766406 -0.30223554 0.30312398 -0.08225542 0.2964308 -0.14077178 0.28529644 -0.17755951
-0.17623568 0.022525644 -0.1457093 0.099804245 -0.053565446 -0.26593512 0.3102816 0.11944709
-0.236383 -0.016313227 0.16725075 -0.2762824 -0.19332732 0.31212577 -0.2577314 -0.20556761
-0.10975859 -0.1158587 -0.18914819 -0.050596878 0.31863427 -0.075284846 0.24876057 0.19817878
0.13549753 0.28425112 -0.18078826 -0.22847135 0.15559092 -0.06054088 0.17217608 -0.17250907
0.25711232 -0.13975167 0.08720866 -0.029246667 0.29714623 0.24826069 0.21862166 0.16565073
-0.21558096 -0.08065941 -0.31210855
00000000: b1a2 733e 0e45 4ebe 35dd 95bd 4dfd 673d
00000010: e261 933d 1b88 dd3d 5751 fabd 5407 21bd
00000020: bdc1 41be d40e 50bd 6926 be3b 5248 a0be
00000030: e214 4c3d 7b31 983e 9391 893e dd78 f5bd
00000040: 1144 0abe 7dfa 053e 9572 29be 7551 0d3e
00000050: c668 ff3d 49cf 703e e5a7 1dbe e3ff 983e
00000060: 6143 27bd b99a a4be 9063 a8be 300d 07be
00000070: c724 693d ca7d 92be f0bf 383b 3ced 2dbe
00000080: e4cd 93bb 440e 683e ab54 363e 7fb4 56be
00000090: bbc2 be3d 586f b23d 3423 25be 2c49 703e
000000a0: 91d7 3bbe 28e3 833e f4bc 473e 10c7 9d3c
000000b0: 3ded c4bd 7a70 45be 0c99 9a3e eecb 98be
000000c0: a74d 313e ad2d c2bd edb7 47be 20e3 383e
000000d0: 74f3 1a3e 6101 663e 3e94 01be 2bba bbbd
000000e0: 3f39 453e 8626 77be a177 65be 18a2 3ebe
000000f0: 7a8d c13d b6b3 41be 5e9e 72be a726 11be
00000100: d012 8bbe 2e7b c8bd 2b71 623e d8f0 30bd
00000110: c58b ac3d c04d 80be 20bc a8be 7450 17be
00000120: 88b9 1d3e bdff 773d e778 7bbd 7083 93be
00000130: 7bbe 853d 225b d43b 2914 f2bb 4612 a83e
00000140: 1965 99be 67ee 973e e8b1 183e 158e a33e
00000150: 3201 643d b6e7 75be e091 67bc 5e74 f2bd
00000160: 08e2 9f3e 8139 2d3e 07e1 83be 8352 983e
00000170: 8e42 483e 456f 813e 9056 933e f5f6 86be
00000180: 6885 8d3e c7eb 91be 9d74 403d 8899 84bb
00000190: a90d a93e 5632 083d 52cd a8be e2a1 8c3d
000001a0: 028a 8b3e fe6d 55be 305a 39be aeb4 d4bd
000001b0: 5898 413e 9d96 6ebe b37c 24be 9f39 713e
000001c0: a3e3 303e 9d63 a1be 8933 95bd 6853 433e
000001d0: 89a1 15be 4a85 973e 065e 50bc 5c9c 8fbe
000001e0: 7471 a23e d98b 16be 9c3a 50be e324 173e
000001f0: 306e b53d 9928 76be dd2d 5c3e 54ca 953e
00000200: bca3 4e3e 6a5d f2bd beb9 163e ac0f 2f3b
00000210: d6cf 783d e688 88be 4a9a dcbd 4708 993e
00000220: f5b8 78be 2be3 9ebd bf56 ca3d 8bbf 9c3d
00000230: a0ba 2f3d 984e 8d3e 2b8a 163e 50c0 b4bd
00000240: 3f04 81be d66b fdbd 936b 5fbd d328 073e
00000250: b11c 9bbe 5f58 f0bd 1b0a 85be 58a6 a3be
00000260: f5d2 193e 06a0 2a3c 5180 8fbd c4b9 82bc
00000270: 4384 513d 0d89 1bbe 3ac1 cabd c036 6e3e
00000280: bc8b 673e 1940 d5bd 9490 ab3d 0b44 7d3e
00000290: 43d0 293e 0bc6 783c 9ec4 c1bd cced 88be
000002a0: 2fe6 9b3d 439b 3d3e d0b8 363e 4689 353d
000002b0: ef22 a1bc b5a5 80be c5ff 933e 1e29 13be
000002c0: c3c7 8dbe 6dff 54be c195 38bd a132 023e
000002d0: af26 08be dcc1 b23d 41f2 7f3e 811e 0b3e
000002e0: 25f9 5f3e 8199 a53e 20d6 703e da22 a7be
000002f0: a8bc 823e dffe 683e 96c1 06be 1d15 53be
00000300: 73d7 b73d 9ebe 9abe 1133 9b3e 8875 a8bd
00000310: c7c5 973e 7a26 10be 6012 923e 29d2 35be
00000320: 2077 34be b387 b83c d234 15be 2b66 cc3d
00000330: 7167 5bbd a628 88be 3bdd 9e3e ada0 f43d
00000340: 630e 72be 51a3 85bc c843 2b3e e374 8dbe
00000350: 99f7 45be f3ce 9f3e 5ff5 83be 5180 52be
00000360: 1dc9 e0bd 5347 edbd 10b0 41be ac3e 4fbd
00000370: 0824 a33e f12e 9abd 17bb 7e3e 61ef 4a3e
00000380: ddbf 0a3e 5d89 913e 8f20 39be 65f4 69be
00000390: 3a53 1f3e b7f9 77bd ed4e 303e 38a6 30be
000003a0: 3aa4 833e 101b 0fbe 749a b23d b596 efbc
000003b0: 8d23 983e 0d38 7e3e 5bde 5f3e 58a0 293e
000003c0: 41c1 5cbe c330 a5bd b1cc 9fbe

bias_ih_l0 f4 [27]
-0.15054236 0.11997751 -0.3306026 0.26773128 -0.09971019 -0.18772905 -0.065336205 -0.14193152
-0.210366 -0.12592202 -0.04530152 -0.084073715 -0.28054932 0.32043698 0.1350969 -0.05039109
-0.024810938 0.07570187 -0.10306433 0.09138132 0.20811692 -0.108114414 0.20674737 -0.17495248
-0.2788284 0.18376052 -0.2654879
00000000: c727 1abe c5b6 f53d be44 a9be 1314 893e
00000010: db34 ccbd 0b3c 40be fdce 85bd 7f56 11be
00000020: 2f6a 57be b4f1 00be 168e 39bd d72e acbd
00000030: 29a4 8fbe 5110 a43e d756 0a3e e366 4ebd
00000040: 4f40 cbbc 9509 9b3d 6413 d3bd 2126 bb3d
00000050: 9a1c 553e 176b ddbd 95b5 533e be26 33be
00000060: 99c2 8ebe b82b 3c3e 08ee 87be

bias_hh_l0 f4 [27]
-0.31023842 0.22514993 -0.06497663 -0.05686713 -0.27734223 0.034705233 -0.17772548 0.027403923
0.2002447 0.08811529 -0.051142562 0.023157379 -0.11452021 -0.19122657 -0.19432086 -0.20845366
-0.055743344 0.30069482 0.054727226 -0.28993466 0.2630064 0.16505651 -0.33105868 0.07653049
-0.13721953 0.20325664 -0.16957137
00000000: 92d7 9ebe b48d 663e 7812 85bd 82ed 68bd
00000010: cdff 8dbe 1327 0e3d abfd 35be 317e e03c
00000020: f20c 4d3e ca75 b43d dd7a 51bd 8bb4 bd3c
00000030: 9289 eabd e6d0 43be 0cfc 46be e074 55be
00000040: 2253 64bd acf4 993e a829 603d 5172 94be
00000050: c6a8 863e 9304 293e 8680 a9be 04bc 9c3d
00000060: 4783 0cbe 8222 503e 1ea4 2dbe

weight f4 [9, 9]
0.106495745 0.08456273 -6.5442846e-11 -0.03789403 3.966652e-09 -0.00499074 6.9124e-05 0.06583163
-0.019893732 -0.0818065 -0.112215035 -0.06447128 -0.027320696 -0.075148895 0.07157942 -0.081266455
-1.7508473e-38 0.0036703383 -0.2776319 -0.21440686 0.22491194 0.3310987 0.19889267 -0.032934994
-0.046647765 -0.1454166 0.22397839 0.27938792 -0.01690156 -0.20889333 0.111920394 0.2705624
-0.20112139 0.19092302 -0.25766107 -0.025370663 0.011813564 0.007938576 0.025016677 0.028246965
0.007093124 0.0028685476 0.022166561 -2.63243e-17 0.052214906 -0.3154954 0.20752177 -0.18386997
-0.3295083 -0.11733733 -0.0049261227 0.23443937 0.09163209 -0.15451266 0.2475541 -0.28844303
0.19139525 -0.22536846 0.16751543 0.024563955 -0.2943785 0.15863784 -0.24600181 0.21155751
-0.14510237 -0.09614167 -0.32846642 -0.3188046 -0.2670475 0.13640219 0.074561454 0.33051005
0.061807282 0.011034903 0.19091888 0.05083372 0.15581483 -0.17443044 0.1531454 -0.15334043
-0.13926724
00000000: 711a da3d 392f ad3d 0ce9 8fae c536 1bbd
00000010: 0a4b 8831 5d89 a3bb aaf6 9038 bcd2 863d
00000020: 2ef8 a2bc 2b8a a7bd ffd0 e5bd 8509 84bd
00000030: a7cf dfbc aae7 99bd 3b98 923d 076f a6bd
00000040: 80a6 be80 0f8a 703b c525 8ebe 798d 5bbe
00000050: 514f 663e c585 a93e 85aa 4b3e d8e6 06bd
00000060: ba11 3fbd 17e8 14be 975a 653e ef0b 8f3e
00000070: 2475 8abc 22e8 55be 8536 e53d 2887 8a3e
00000080: c4f2 4dbe 5381 433e 27ec 83be 23d6 cfbc
00000090: ae8d 413c cd10 023c c6ef cc3c 2e66 e73c
000000a0: 706d e83b 3efe 3b3b a696 b53c 7fcc f2a3
000000b0: 4cdf 553d 9d88 a1be 9680 543e 6948 3cbe
000000c0: 50b5 a8be 8e4e f0bd 506b a1bb e010 703e
000000d0: 9ba9 bb3d 9138 1ebe d27e 7d3e ceae 93be
000000e0: 1efd 433e fdc6 66be 2a89 2b3e 593a c93c
000000f0: c7b8 96be f571 223e e6e7 7bbe 88a2 583e
00000100: b795 14be ede5 c4bd c02c a8be 5b3a a3be
00000110: 73ba 88be 04ad 0b3e adb3 983d 9d38 a93e
00000120: a229 7d3d bdcb 343c 3d80 433e 0537 503d
00000130: ec8d 1f3e e59d 32be 26d2 1c3e 4605 1dbe
00000140: 129c 0ebe

bias f4 [9]
-0.05047003 -0.1172176 0.13563603 -0.023845151 -0.045627438 0.045018688 0.20316188 -0.12290585
-0.046734452
00000000: aab9 4ebd c80f f0bd 2ce4 0a3e e856 c3bc
00000010: d6e3 3abd 8465 383d ab09 503e 10b6 fbbd
00000020: a06c 3fbd

weight f4 [720, 18]
-0.011192168 0.03106173 0.016011942 0.00011754848 -0.025799492 -0.015482135 0.0072452324 -0.015015414
0.016548384 0.07479705 0.017792666 0.033495694 0.01781618 0.014324291 -0.016163092 -0.018957699
0.0055745607 0.0017473877 -0.061797038 -0.04462892 -0.20030215 -0.18359928 -0.14343102 0.14794494
0.19487849 0.031225868 -0.14773934 -0.21381289 -0.17047466 -0.0050639915 -0.22037494 0.14520013
0.1846817 0.120651476 -0.16677302 0.08364398 -0.09482403 0.048780773 -0.1021387 0.21987064
0.026905404 0.07819739 0.045265045 -0.1603494 0.10495318 -0.04216388 -0.22493201 0.17043224
-0.14501086 -0.10561823 -0.18991323 -0.088572964 0.23303145 0.032980226 -0.14234287 0.15532997
0.10661873 0.20062944 -0.049338646 0.054715596 -0.13708995 0.054521486 -0.19409193 0.06903171
0.054668646 -0.035007484 -0.191661 -0.17021649 -0.12054622 0.06835889 -0.013452766 0.16333544
-0.009149234 0.09516501 0.09219564 -0.09542979 -0.21317834 -0.07231671 -0.01590236 -0.1529418
0.14418623 -0.16222303 -0.19877787 0.20417681 -0.17441058 -0.2332715 -0.03037881 0.18168615
0.17967625 -0.185952 -0.14453849 -0.03728473 -0.17799716 -0.014176966 0.042358387 0.12773493
-0.057816096 -0.031142091 0.22395441 0.19179103 0.15874738 0.028842421 0.04408089 0.17956954
0.12935963 -0.0036737646 0.031354733 0.0007785009 -0.022573153 0.098896325 -0.1353822 0.09184679
-0.122830935 -0.11911442 -0.22456893 0.13744253 0.07347606 0.06339471 0.20000385 0.08229887
0.004438021 0.18253946 -0.22411552 -0.07759678 -0.12193152 0.2313779 0.17816108 -0.05773416
-0.1916614 -0.07624474 0.17286457 0.1534441 -0.11454056 -0.19474986 0.069253124 0.05879811
-0.17053325 0.037771326 -0.018459342 -0.18185948 -0.21390665 0.13867061 0.13424347 -0.22240576
-0.010838789 0.22039343 -0.19251335 -0.22269818 -0.0923142 -0.133742 0.033682123 -0.16159482
-0.18776391 -0.031714562 0.1852971 -0.22689836 0.056193527 0.21195482 0.02319167 -0.048204564
0.21556018 -0.19393505 0.058017883 0.02228266 0.07697917 0.16788842 0.09180603 0.032132566
0.04982887 -0.21755372 -0.080277964 0.11810131 -0.13591918 0.25181922 -0.15025598 -0.21424823
0.16337973 0.07227568 0.06458202 -0.12212001 -0.11871934 -0.195369 -0.11107875 0.20426051
0.22301175 -0.0012203718 -0.12428169 0.01951482 0.22704303 -0.2339885 -0.022166217 -0.1399491
-0.16375631 -0.0062627657 0.18210956 -0.17545943 0.041150052 0.2002157 -0.10345756 0.21306144
-0.068001814 0.07641072 0.23224425 -0.06884474 -0.08656277 -0.07774958 -0.1901379 -0.11230919
-0.020340122 -0.23451772 -0.17831136 -0.005682054 -0.053276677 -0.2131775 -0.22301616 -0.008779068
0.060233276 -0.07678559 0.080874905 0.016887007 -0.20148551 0.011402144 -0.07788106 -0.045786615
0.17656548 -0.22996362 -0.0044959597 0.043778226 0.13687105 -0.10658632 -0.11565907 0.15684709
0.06893897 -0.064410396 -0.048595928 0.218774 -0.07377344 0.16916694 0.21963729 0.06181057
0.0003167294 0.034527093 0.19539076 0.17740992 -0.18977092 -0.006467118 -0.21108478 -0.1374712
0.016632527 0.12719566 -0.19505587 0.09511992 -0.10753249 0.026622448 -0.09431374 0.018743593
00000000: 5b5f 37bc 2b75 fe3c 7a2b 833c 5c84 f638
00000010: 7559 d3bc c8a8 7dbc 6a69 ed3b 3603 76bc
00000020: 7a90 873c 322f 993d edc1 913c c832 093d
00000030: 3df3 913c 6eb0 6a3c 7668 84bc 2d4d 9bbc
00000040: ceaa b63b 9a08 e53a e41e 7dbd d0cc 36bd
00000050: 021c 4dbe 7301 3cbe 95df 12be e17e 173e
00000060: 3a8e 473e 64cd ff3c fb48 17be c4f1 5abe
00000070: e990 2ebe d7ef a5bb f8a9 61be 58af 143e
00000080: 331d 3d3e 1f18 f73d 8cc6 2abe 894d ab3d
00000090: 1a33 c2bd 59ce 473d 182e d1bd c525 613e
000000a0: b968 dc3c f425 a03d d767 393d a232 24be
000000b0: b1f1 d63d 08b4 2cbd 9454 66be ca85 2e3e
000000c0: ba7d 14be 5f4e d8bd 9d78 42be be65 b5bd
000000d0: cc9f 6e3e 4616 073d 54c2 11be d20e 1f3e
000000e0: ec5a da3d ce71 4d3e 5217 4abd 761d 603d
000000f0: 4f61 0cbe ec51 5f3d 09c0 46be 7f60 8d3d
00000100: 3bec 5f3d 0264 0fbd c842 44be 3b4d 2ebe
00000110: f0e0 f6bd bfff 8b3d fe68 5cbc 6841 273e
00000120: abe6 15bc dfe5 c23d 11d1 bc3d b270 c3bd
00000130: 6c4b 5abe c91a 94bd ab45 82bc c69c 1cbe
00000140: 8ea5 133e cb1d 26be 6d8c 4bbe ba13 513e
00000150: b098 32be b9de 6ebe fbdc f8bc ef0b 3a3e
00000160: 0dfd 373e 336a 3ebe e601 14be dfb7 18bd
00000170: e344 36be 8146 68bc fd7f 2d3d f2cc 023e
00000180: 92d0 6cbd b31d ffbc 4e54 653e de64 443e
00000190: ac8e 223e f146 ec3c 2a8e 343d 14e1 373e
000001a0: da76 043e 8bc3 70bb d26d 003d 5014 4c3a
000001b0: 55eb b8bc 288a ca3d a2a1 0abe 2b1a bc3d
000001c0: c98e fbbd 43f2 f3bd 66f5 65be bcbd 0c3e
000001d0: 9e7a 963d 16d5 813d cfcd 4c3e 4f8c a83d
000001e0: d26c 913b a0eb 3a3e 8a7e 65be 10eb 9ebd
000001f0: 3cb7 f9bd 54ee 6c3e dc6f 363e a87a 6cbd
00000200: e342 44be 3426 9cbd 6903 313e 7320 1d3e
00000210: 3e94 eabd 826c 47be 95d4 8d3d 49d6 703d
00000220: 45a0 2ebe 1bb6 1a3d 0c38 97bc 5f39 3abe
00000230: 580a 5bbe abff 0d3e 1f77 093e 56be 63be
00000240: 2d95 31bc d1ae 613e 3822 45be fe0a 64be
00000250: 3a0f bdbd aaf3 08be 44f6 093d 1d79 25be
00000260: 2f45 40be 21e7 01bd 86be 3d3e 0b58 68be
00000270: 2f2b 663d af0a 593e 75fc bd3c 2672 45bd
00000280: cfbb 5c3e e996 46be 29a4 6d3d 208a b63c
00000290: 41a7 9d3d f1ea 2b3e cd04 bc3d 709d 033d
000002a0: 5b19 4c3d 67c6 5ebe c668 a4bd 1adf f13d
000002b0: 662e 0bbe 73ee 803e b4dc 19be e363 5bbe
000002c0: 044d 273e 4605 943d 9443 843d 0e1a fabd
000002d0: 2023 f3bd d00e 48be 417d e3bd ab29 513e
000002e0: 315d 643e e2f4 9fba 6687 febd 8bdd 9f3c
000002f0: f87d 683e ae9a 6fbe ed95 b5bc d14e 0fbe
00000300: bcaf 27be e337 cdbb ee7a 3a3e a3ab 33be
00000310: f58c 283d 5805 4d3e 8fe1 d3bd c72c 5a3e
00000320: 8944 8bbd 397d 9c3d 70d1 6d3e 79fe 8cbd
00000330: d247 b1bd 2c3b 9fbd 82b3 42be 5c02 e6bd
00000340: 54a0 a6bc 6a25 70be 4197 36be 8630 babb
00000350: a538 5abd 344b 5abe 595e 64be 14d6 0fbc
00000360: 2bb7 763d c341 9dbd bea1 a53d 9f56 8a3c
00000370: 3852 4ebe 0fd0 3a3c 1b80 9fbd bf8a 3bbd
00000380: 95cd 343e 957b 6bbe d852 93bb cc50 333d
00000390: ed27 0c3e ee49 dabd aade ecbd 869c 203e
000003a0: e02f 8d3d 99e9 83bd 860c 47bd 4b06 603e
000003b0: 8816 97bd 193a 2d3e 99e8 603e 152d 7d3d
000003c0: b30e a639 486c 0d3d 8414 483e f2aa 353e
000003d0: 4f53 42be 1eea d3bb 9c26 58be 40c5 0cbe
000003e0: f040 883c 943f 023e babc 47be 3cce c23d
000003f0: fe39 dcbd 5217 da3c 9027 c1bd 2a8c 993c
